Saved_models/best_model_Female.pt (torch, 87162 bytes, 198 tensors)

encoder_input_layer.weight f4 [4, 3]
-0.047823753 0.26347414 -0.5210321 -0.46598062 -0.26610288 0.11243462 0.011999954 0.48363733
-0.026221046 0.23963547 -0.08509184 -0.024767987
00000000: d7e2 43bd 15e6 863e 5c62 05bf 0395 eebe
00000010: a33e 88be 1f44 e63d 749b 443c 509f f73e
00000020: 85cd d6bc 0063 753e a144 aebd 3ce6 cabc

encoder_input_layer.bias f4 [4]
-0.61198896 -0.41607967 -0.16334113 0.035463993
00000000: 4fab 1cbf 6508 d5be e642 27be b142 113d

decoder_input_layer.weight f4 [4, 1]
0.32546088 0.62360126 -0.6017809 -0.32742828
00000000: cfa2 a63e 55a4 1f3f 500e 1abf aea4 a7be

decoder_input_layer.bias f4 [4]
0.49115023 0.86678684 -0.3685433 0.6945955
00000000: 0b78 fb3e bee5 5d3f b5b1 bcbe 03d1 313f

positional_encoding_layer_enc.pe f4 [1, 7, 4]
0.0 1.0 0.0 1.0 0.84147096 0.54030234 0.009999833 0.99995
0.9092974 -0.41614684 0.019998666 0.9998 0.14112 -0.9899925 0.0299955 0.99955004
-0.7568025 -0.6536436 0.039989334 0.9992001 -0.9589243 0.2836622 0.049979165 0.99875027
-0.2794155 0.96017027 0.059964005 0.99820054
00000000: 0000 0000 0000 803f 0000 0000 0000 803f
00000010: a46a 573f 4151 0a3f 57d6 233c b9fc 7f3f
00000020: b7c7 683f 3311 d5be 3ed4 a33c e5f2 7f3f
00000030: c381 103e 2670 7dbf 1fb9 f53c 83e2 7f3f
00000040: cfbd 41bf 3055 27bf dbcb 233d 94cb 7f3f
00000050: 107c 75bf 2c3c 913e f4b6 4c3d 19ae 7f3f
00000060: 8c0f 8fbe b8cd 753f d19c 753d 128a 7f3f

positional_encoding_layer_dec.pe f4 [1, 3, 4]
0.0 1.0 0.0 1.0 0.84147096 0.54030234 0.009999833 0.99995
0.9092974 -0.41614684 0.019998666 0.9998
00000000: 0000 0000 0000 803f 0000 0000 0000 803f
00000010: a46a 573f 4151 0a3f 57d6 233c b9fc 7f3f
00000020: b7c7 683f 3311 d5be 3ed4 a33c e5f2 7f3f

encoder.layers.0.self_attn.in_proj_weight f4 [12, 4]
-0.3832097 -0.21810724 0.28679174 0.45407712 -0.28284487 0.008753374 0.34970483 0.62304986
0.2621651 0.15352261 0.34740236 -0.30097756 0.13702558 -0.5300914 -0.3636039 -0.3487421
0.20565623 0.25942802 -0.20155443 0.1858103 0.31424445 -0.03196036 -0.0457219 0.19237348
0.338742 0.5375374 -0.32341948 -0.24135685 0.21862574 0.4578827 0.69774085 0.5329152
0.33071485 -0.5003751 0.052336756 -0.43239707 -0.7800113 0.44702837 0.5295617 -0.6254806
0.30817387 -0.060704786 -0.111806385 -0.31208685 -0.019885305 -0.40440032 0.23696469 0.34800807
00000000: 1034 c4be 8157 5fbe 5ed6 923e cc7c e83e
00000010: 0bd1 90be 506a 0f3c 830c b33e 3280 1f3f
00000020: 813a 863e 0835 1d3e b9de b13e bb19 9abe
00000030: 6f50 0c3e 12b4 07bf 4a2a babe 538e b2be
00000040: 8c97 523e c0d3 843e 4964 4ebe 0e45 3e3e
00000050: a6e4 a03e dee8 02bd e346 3bbd 8efd 443e
00000060: 976f ad3e 0d9c 093f 3d97 a5be 4026 77be
00000070: 6ddf 5f3e 9a6f ea3e 259f 323f 216d 083f
00000080: 7553 a93e 9518 00bf 115f 563d 2663 ddbe
00000090: d2ae 47bf e7e0 e43e 5b91 073f 7f1f 20bf
000000a0: f7c8 9d3e 95a5 78bd bffa e4bd d9c9 9fbe
000000b0: 82e6 a2bc 8f0d cfbe dfa6 723e 1d2e b23e

encoder.layers.0.self_attn.in_proj_bias f4 [12]
0.07918949 -0.0100463545 0.035041776 -0.028157191 -0.0013279873 -0.0010291043 0.0040713935 -0.0017886703
-0.0697453 0.0076267915 -0.054636195 0.06262563
00000000: 192e a23d 7799 24bc f787 0f3d e9a9 e6bc
00000010: dc0f aeba 03e3 86ba 5369 853b d171 eaba
00000020: a0d6 8ebd 2aea f93b 34ca 5fbd de41 803d

encoder.layers.0.self_attn.out_proj.weight f4 [4, 4]
-0.08991614 0.059197616 0.4896182 -0.61010253 -0.3569833 -0.14721139 -0.20339604 0.30892643
-0.33261657 -0.2638758 -0.40005812 -0.33145276 -0.26533237 0.43979427 0.20223184 0.40603736
00000000: f425 b8bd 3379 723d 3daf fa3e ae2f 1cbf
00000010: 84c6 b6be 95be 16be 0d47 50be 9b2b 9e3e
00000020: b84c aabe bb1a 87be 6bd4 ccbe 2db4 a9be
00000030: a5d9 87be b72c e13e dd15 4f3e 21e4 cf3e

encoder.layers.0.self_attn.out_proj.bias f4 [4]
-0.05189544 -0.0013654444 0.06757843 0.032293566
00000000: 5090 54bd b6f8 b2ba 8f66 8a3d 4246 043d

encoder.layers.0.linear1.weight f4 [4, 4]
0.3366685 0.18636747 -0.5244726 -0.2495656 0.20014511 0.1501168 -0.39404073 -0.390562
0.4181478 0.3842551 -0.23754384 -0.24119958 -0.38974452 -0.08634965 -0.3398268 -0.32358184
00000000: d05f ac3e 1dd7 3e3e d643 06bf 208e 7fbe
00000010: d7f2 4c3e 38b8 193e b5bf c9be bef7 c7be
00000020: 7817 d63e 16bd c43e b13e 73be 06fd 76be
00000030: 988c c7be 16d8 b0bd c7fd adbe 85ac a5be

encoder.layers.0.linear1.bias f4 [4]
-0.0012131861 0.09227833 -0.17520136 0.23531911
00000000: c503 9fba 6cfc bc3d fc67 33be 7ef7 703e

encoder.layers.0.linear2.weight f4 [4, 4]
-0.28996074 0.46836042 0.37248605 -0.37360013 -0.11989296 0.005794756 0.043107048 0.08531539
0.13920529 -0.020226046 -0.33912084 0.20366551 -0.510366 -0.32343963 -0.1527652 -0.30703166
00000000: bc75 94be f0cc ef3e 7eb6 be3e 8448 bfbe
00000010: 718a f5bd f0e1 bd3b 0491 303d d6b9 ae3d
00000020: d58b 0e3e 18b1 a5bc 3fa1 adbe b18d 503e
00000030: 59a7 02bf e199 a5be 7b6e 1cbe 4133 9dbe

encoder.layers.0.linear2.bias f4 [4]
-0.16132274 -0.46066728 -0.090827025 0.063458614
00000000: ca31 25be 95dc ebbe 8503 babd 97f6 813d

encoder.layers.0.norm1.weight f4 [4]
0.95867383 1.039008 1.0032101 1.0386127
00000000: a66b 753f 37fe 843f 3069 803f 43f1 843f

encoder.layers.0.norm1.bias f4 [4]
0.013187982 0.03368364 -0.012019211 -0.055040654
00000000: 6812 583c dbf7 093d 3aec 44bc 4f72 61bd

encoder.layers.0.norm2.weight f4 [4]
0.96611816 0.9605825 0.9943797 1.0891542
00000000: 8553 773f bce8 753f ab8f 7e3f 6869 8b3f

encoder.layers.0.norm2.bias f4 [4]
0.020492919 -0.030710464 -0.009878283 -0.039241392
00000000: c4e0 a73c 8394 fbbc 86d8 21bc 95bb 20bd

encoder.layers.1.self_attn.in_proj_weight f4 [12, 4]
-0.40379217 -0.34648094 0.41066125 0.4554486 -0.33002198 0.109704085 0.2621919 0.6306589
0.33899054 -0.018320981 0.53359395 -0.35481974 0.14940134 -0.5154534 -0.37149116 -0.3729719
0.31012127 0.34192795 -0.4163695 0.12572049 0.38832352 -0.07433028 -0.028654093 0.13588406
0.34439376 0.69427574 -0.41783205 -0.33112845 0.221286 0.6736067 0.51937944 0.4268568
0.14621173 -0.47570974 0.013451825 -0.65317 -0.5349143 0.51240253 0.50047374 -0.69510573
0.17613721 -0.08849934 -0.096466236 -0.5433938 0.21428491 -0.42060646 0.26757324 0.5552373
00000000: d9bd cebe f365 b1be 3142 d23e 8f30 e93e
00000010: a4f8 a8be 89ac e03d 043e 863e dd72 213f
00000020: 2b90 ad3e e215 96bc 9d99 083f efaa b5be
00000030: aafc 183e c1f4 03bf 1734 bebe 2cf6 bebe
00000040: 37c8 9e3e 2e11 af3e 622e d5be dfbc 003e
00000050: 57d2 c63e 793a 98bd fdbb eabc 3125 0b3e
00000060: 6154 b03e 0ebc 313f 15ee d5be ab89 a9be
00000070: cc98 623e 7d71 2c3f 0df6 043f f98c da3e
00000080: 87b8 153e 3a90 f3be 0b65 5c3c 2636 27bf
00000090: 25f0 08bf d02c 033f 0c1f 003f 73f2 31bf
000000a0: 505d 343e 243f b5bd 1790 c5bd db1b 0bbf
000000b0: 816d 5b3e bb59 d7be 5cff 883e 0824 0e3f

encoder.layers.1.self_attn.in_proj_bias f4 [12]
-0.009784777 0.13685112 -0.115381286 -0.061299674 0.0042874473 -0.001099741 8.563575e-05 -0.0012025153
0.018631056 -0.026232937 -0.02272347 -0.018552424
00000000: 5450 20bc b322 0c3e 064d ecbd 5e15 7bbd
00000010: b77d 8c3b 2f25 90ba 5897 b338 b89d 9dba
00000020: 28a0 983c 75e6 d6bc 9226 babc 41fb 97bc

encoder.layers.1.self_attn.out_proj.weight f4 [4, 4]
-0.06076924 0.12332514 0.58512175 -0.5171458 -0.32298142 -0.21068758 -0.30375546 0.4764976
-0.35908282 -0.29138985 -0.5167016 -0.43039483 -0.25389725 0.3472902 0.20223197 0.33232284
00000000: 2be9 78bd e491 fc3d 8aca 153f ab63 04bf
00000010: d25d a5be 7cbe 57be d685 9bbe 7ef7 f33e
00000020: b4d9 b7be 0d31 95be 8e46 04bf b65c dcbe
00000030: d2fe 81be 05d0 b13e e615 4f3e 3826 aa3e

encoder.layers.1.self_attn.out_proj.bias f4 [4]
-0.0010423225 -0.016448436 0.011963752 -0.04567671
00000000: 8a9e 88ba dfbe 86bc 9d03 443c 8017 3bbd

encoder.layers.1.linear1.weight f4 [4, 4]
0.20950049 0.20393826 -0.44944707 -0.2869576 0.28708225 0.12819491 -0.35377944 -0.3088754
0.57664216 0.3251448 -0.17697272 -0.14476894 -0.58784336 -0.024756586 -0.43196636 -0.25566477
00000000: 4c87 563e 31d5 503e ed1d e6be 1bec 92be
00000010: 72fc 923e 8745 033e 9422 b5be eb24 9ebe
00000020: d29e 133f 6179 a63e 5638 35be 4f3e 14be
00000030: e77c 16bf 53ce cabc b22a ddbe 7ee6 82be

encoder.layers.1.linear1.bias f4 [4]
-0.02578035 0.10261246 -0.20531295 0.2913363
00000000: 5031 d3bc 7b26 d23d 8f3d 52be 082a 953e

encoder.layers.1.linear2.weight f4 [4, 4]
-0.28790256 0.46738395 0.36363328 -0.404324 -0.17869884 -0.019874437 0.036812507 0.10811344
0.15707362 -0.023017576 -0.32806334 0.28555906 -0.46623823 -0.2732236 -0.09766622 -0.28186032
00000000: f767 93be f34c ef3e 242e ba3e 8e03 cfbe
00000010: d4fc 36be b7cf a2bc b6c8 163d 946a dd3d
00000020: e8d7 203e 5b8f bcbc ebf7 a7be cc34 923e
00000030: c7b6 eebe f7e3 8bbe 3a05 c8bd ff4f 90be

encoder.layers.1.linear2.bias f4 [4]
-0.16720086 -0.41337788 -0.08490562 0.07122556
00000000: b436 2bbe 44a6 d3be ffe2 adbd b5de 913d

encoder.layers.1.norm1.weight f4 [4]
1.0788902 0.956684 0.90603256 0.9371821
00000000: 1319 8a3f 3ee9 743f c0f1 673f 2beb 6f3f

encoder.layers.1.norm1.bias f4 [4]
-0.0056838403 -0.0047533372 0.07670543 -0.02429041
00000000: 823f babb e2c1 9bbb bd17 9d3d affc c6bc

encoder.layers.1.norm2.weight f4 [4]
1.1482445 1.0745785 1.0905948 0.9820496
00000000: adf9 923f ca8b 893f 9c98 8b3f 9a67 7b3f

encoder.layers.1.norm2.bias f4 [4]
-0.06880715 0.074446045 -0.015859721 -0.043361474
00000000: c3ea 8cbd 2b77 983d 3fec 81bc cd9b 31bd

decoder.layers.0.self_attn.in_proj_weight f4 [12, 4]
-0.23367366 0.36349145 0.31299 -0.6369695 0.46222997 -0.47982696 -0.11357798 -0.21638957
-0.14148757 -0.13147655 -0.55942917 -0.5414657 -0.05151883 0.041127417 -0.3280328 0.20082298
-0.5761468 0.005699554 0.62505347 -0.24016975 0.58991426 0.22558537 -0.53037554 0.38442904
-0.0650601 -0.2537386 0.5783848 -0.49944338 0.11430555 -0.19725576 0.36431605 0.1919824
0.11175138 -0.12240318 -0.14851265 -0.15259025 -0.7109336 0.060853347 0.5630147 0.43233466
-0.6300786 -0.23699613 -0.4025948 -0.31663767 -0.12618613 0.20859459 -0.43556672 -0.055075236
00000000: 2648 6fbe 8d1b ba3e 3a40 a03e 6f10 23bf
00000010: 68a9 ec3e e1ab f5be 929b e8bd 3a95 5dbe
00000020: 1ee2 10be caa1 06be c036 0fbf 7f9d 0abf
00000030: 6905 53bd 3975 283d eaf3 a7be 8aa4 4d3e
00000040: 5b7e 13bf 53c3 ba3b 8103 203f 0fef 75be
00000050: 9f04 173f daff 663e b1c6 07bf e2d3 c43e
00000060: 3b3e 85bd 07ea 81be 0711 143f 0bb7 ffbe
00000070: 0719 ea3d 6afd 49be a287 ba3e 0997 443e
00000080: e8dd e43d 85ae fabd b313 18be 9e40 1cbe
00000090: bfff 35bf 5c41 793d bb21 103f f85a dd3e
000000a0: d54c 21bf 1daf 72be e820 cebe 551e a2be
000000b0: f036 01be d299 553e 9a02 dfbe 9296 61bd

decoder.layers.0.self_attn.in_proj_bias f4 [12]
-0.079281464 0.067516014 -0.03587588 0.010357987 -0.002690712 0.0002175603 -0.0015611808 0.00011099311
-0.09340892 -0.021044847 -0.061471272 -0.027337968
00000000: 525e a2bd d645 8a3d 96f2 12bd 8cb4 293c
00000010: a856 30bb e620 6439 89a0 ccba f9c4 e838
00000020: 2d4d bfbd 3e66 acbc 4dc9 7bbd e0f3 dfbc

decoder.layers.0.self_attn.out_proj.weight f4 [4, 4]
-0.419988 0.05893321 0.23159176 -0.13812958 0.034546036 -0.064473815 0.046990875 0.29460868
0.46466604 0.3320263 0.52085894 -0.02889132 -0.36399615 -0.31991002 0.4103609 0.0892792
00000000: ab08 d7be f363 713d 6426 6d3e d771 0dbe
00000010: 2580 0d3d d90a 84bd 8179 403d f3d6 963e
00000020: b5e8 ed3e 5aff a93e 0357 053f 7dad ecbc
00000030: b45d babe 3fcb a3be d31a d23e 03d8 b63d

decoder.layers.0.self_attn.out_proj.bias f4 [4]
0.15155943 0.0859743 -0.09734581 -0.06685957
00000000: 6532 1b3e 4b13 b03d 3d5d c7bd aced 88bd

decoder.layers.0.multihead_attn.in_proj_weight f4 [12, 4]
-0.100302726 0.666579 0.35476094 -0.07223202 -0.58026004 0.28983927 -0.3846742 -0.16368425
-0.28938112 -0.010420931 0.19743554 0.39403665 0.022690654 0.59669006 0.47573307 -0.45284688
0.38305253 -0.5174787 -0.31290728 0.15758169 0.26653406 0.41351977 -0.23235129 -0.0029713607
0.26331076 -0.5291842 0.44646654 -0.4985722 0.12308989 -0.20041773 -0.37526092 0.058563657
0.63308626 -0.24927625 -0.38297448 -0.22314687 -0.73452544 0.3510718 -0.26129535 -0.41742575
-0.23789762 0.2882888 0.2866854 0.4653363 0.35185075 -0.2693217 -0.27957985 0.17969954
00000000: 846b cdbd eca4 2a3f 3aa3 b53e 62ee 93bd
00000010: ec8b 14bf d065 943e 04f4 c4be d89c 27be
00000020: c329 94be 8dbc 2abc 8b2c 4a3e 2cbf c93e
00000030: c0e1 b93c aec0 183f 4993 f33e 8cdb e7be
00000040: 761f c43e 7c79 04bf 6235 a0be 185d 213e
00000050: 2777 883e ddb8 d33e 7fed 6dbe 29bb 42bb
00000060: abd0 863e 9e78 07bf 4397 e43e db44 ffbe
00000070: 8d16 fc3d 4e3a 4dbe 3322 c0be 72e0 6f3d
00000080: f111 223f 4642 7fbe 3b15 c4be 9d80 64be
00000090: dc09 3cbf afbf b33e 81c8 85be d4b8 d5be
000000a0: 6f9b 73be 979a 933e 6ec8 923e 8f40 ee3e
000000b0: c825 b43e 89e4 89be 1725 8fbe 2803 383e

decoder.layers.0.multihead_attn.in_proj_bias f4 [12]
-0.086346716 -0.009346636 -0.09946062 -0.072591856 -1.0527492e-05 0.00043958458 -0.0005115316 -0.00025141775
-0.07290097 0.07984493 -0.06912118 -0.06269785
00000000: 8cd6 b0bd a222 19bc 02b2 cbbd 0aab 94bd
00000010: 3c9f 30b7 0b78 e639 4e18 06ba b8d0 83b9
00000020: 1b4d 95bd bd85 a33d 688f 8dbd bb67 80bd

decoder.layers.0.multihead_attn.out_proj.weight f4 [4, 4]
-0.123059936 0.40049845 -0.22467259 -0.41747782 -0.29376474 0.35417476 -0.13705762 0.42343497
0.30814844 -0.010487787 -0.14972164 -0.029114805 0.028197099 -0.13218383 0.05292458 0.08545668
00000000: d906 fcbd 220e cd3e 9210 66be a7bf d5be
00000010: 5568 96be 6556 b53e d558 0cbe 78cc d83e
00000020: a2c5 9d3e f8d4 2bbc a150 19be 2c82 eebc
00000030: 9afd e63c 335b 07be 72c7 583d e903 af3d

decoder.layers.0.multihead_attn.out_proj.bias f4 [4]
0.084554456 0.022576373 -0.075118154 -0.057696283
00000000: e32a ad3d 16f2 b83c 8cd7 99bd f052 6cbd

decoder.layers.0.linear1.weight f4 [4, 4]
0.30436406 0.090507835 -0.29116717 -0.079924494 -0.4072738 0.11085567 -0.3069186 -0.48512062
0.34684858 -0.31665152 -0.011561068 0.19664112 -0.067679234 -0.27735797 -0.42975038 0.37201667
00000000: 9bd5 9b3e 2c5c b93d dd13 95be 74af a3bd
00000010: 3186 d0be 4c08 e33d 6f24 9dbe bb61 f8be
00000020: 2396 b13e 2620 a2be a26a 3dbc 4a5c 493e
00000030: 699b 8abd dd01 8ebe 3e08 dcbe f878 be3e

decoder.layers.0.linear1.bias f4 [4]
-0.04954577 0.62713796 -0.2201197 0.13544154
00000000: 81f0 4abd 1d8c 203f 0f67 61be 30b1 0a3e

decoder.layers.0.linear2.weight f4 [4, 4]
0.069568224 0.18384793 -0.29953873 0.20704111 0.2085247 -0.089245416 -0.026997568 -0.24562526
0.17134276 -0.5537763 0.13976353 -0.21033636 -0.1329358 0.10733309 -0.20490836 0.035843734
00000000: c979 8e3d a242 3c3e 245d 99be 9602 543e
00000010: 8087 553e 4dc6 b6bd 012a ddbc 3085 7bbe
00000020: 7a74 2f3e 49c4 0dbf 2c1e 0f3e 6a62 57be
00000030: 5320 08be 73d1 db3d 7fd3 51be e1d0 123d

decoder.layers.0.linear2.bias f4 [4]
0.21079811 -0.36570048 -0.021510229 0.23497286
00000000: 76db 573e 183d bbbe 3836 b0bc ba9c 703e

decoder.layers.0.norm1.weight f4 [4]
0.91600066 0.98908013 1.0041791 0.92898357
00000000: 057f 6a3f 5b34 7d3f f188 803f ded1 6d3f

decoder.layers.0.norm1.bias f4 [4]
0.10559383 0.022946388 -0.08545415 -0.06944235
00000000: 9441 d83d 10fa bb3c 9602 afbd ca37 8ebd

decoder.layers.0.norm2.weight f4 [4]
0.89467525 0.9501745 1.0414363 0.8960987
00000000: 7009 653f a33e 733f c94d 853f b966 653f

decoder.layers.0.norm2.bias f4 [4]
0.0936478 -0.01294137 -0.10906845 -0.058797482
00000000: 6bca bf3d 0a08 54bc 485f dfbd a1d5 70bd

decoder.layers.0.norm3.weight f4 [4]
1.0219442 0.958956 1.0574052 0.87252724
00000000: 11cf 823f 247e 753f 0e59 873f f25d 5f3f

decoder.layers.0.norm3.bias f4 [4]
0.10017821 -0.016491918 -0.09779685 0.018244613
00000000: 3c2a cd3d 0f1a 87bc b749 c8bd ba75 953c

decoder.layers.1.self_attn.in_proj_weight f4 [12, 4]
-0.1342344 0.33083576 0.2929355 -0.57078576 0.39166895 -0.46868423 -0.098708905 -0.26598355
-0.12151533 -0.14985204 -0.562871 -0.5057911 -0.027278326 -0.054306727 -0.2992315 0.24461745
-0.5618541 -0.034076832 0.4838175 -0.21031617 0.58589786 0.15900047 -0.5323008 0.40414327
-0.08175426 -0.28936788 0.48024398 -0.48167256 0.05441798 -0.09129835 0.46239677 0.11684782
0.260297 0.16014166 -0.05284354 -0.095848165 -0.5410368 0.26265663 0.57372385 0.47560346
-0.43126723 -0.036124468 -0.3702449 -0.30357704 -0.3174281 0.23330967 -0.47171113 -0.0029440438
00000000: be74 09be 4e63 a93e a4fb 953e 041f 12bf
00000010: d588 c83e 61f7 efbe e527 cabd ff2e 88be
00000020: 08dd f8bd d072 19be 5018 10bf 877b 01bf
00000030: cc76 dfbc bb70 5ebd df34 99be ff7c 7a3e
00000040: acd5 0fbf 2694 0bbd edb6 f73e 1f5d 57be
00000050: 67fd 153f 05d1 223e dd44 08bf deeb ce3e
00000060: c76e a7bd 0728 94be 8ae2 f53e c99d f6be
00000070: 63e5 5e3d a1fa babd 45bf ec3e e94d ef3d
00000080: a645 853e 2dfc 233e 7872 58bd 0b4c c4bd
00000090: 6381 0abf ee7a 863e 91df 123f 4c82 f33e
000000a0: 0fcf dcbe 40f7 13bd bd90 bdbe 736e 9bbe
000000b0: f085 a2be bbe8 6e3e 1f84 f1be dcf0 40bb

decoder.layers.1.self_attn.in_proj_bias f4 [12]
-0.0035936974 0.0015870897 0.0139588155 0.0708198 -0.0017046093 0.001773662 0.00069771835 0.0001532232
-0.07457595 -0.058527414 -0.019240193 0.037291702
00000000: 3d84 6bbb e505 d03a 84b3 643c f909 913d
00000010: 326d dfba 397a e83a 16e7 363a 8aaa 2039
00000020: 47bb 98bd 71ba 6fbd 9c9d 9dbc 2fbf 183d

decoder.layers.1.self_attn.out_proj.weight f4 [4, 4]
-0.29016897 -0.11168399 0.3183627 0.06899525 0.1464693 -0.085347466 0.10381655 0.4955684
0.35511386 0.3588401 0.44876543 -0.16675118 -0.42473578 -0.27969363 0.31637445 -0.1299649
00000000: 0791 94be 93ba e4bd 7000 a33e 624d 8d3d
00000010: 0cfc 153e a7ca aebd c59d d43d 24bb fd3e
00000020: 7cd1 b53e e4b9 b73e 95c4 e53e d2c0 2abe
00000030: f876 d9be 0134 8fbe d5fb a13e 8515 05be

decoder.layers.1.self_attn.out_proj.bias f4 [4]
0.13042745 0.048539363 -0.06633785 0.0005561463
00000000: c68e 053e 36d1 463d 24dc 87bd 59ca 113a

decoder.layers.1.multihead_attn.in_proj_weight f4 [12, 4]
-0.11549934 0.67042124 0.29069456 -0.059230197 -0.58111686 0.31991625 -0.40208218 -0.17715545
-0.30039543 -0.015339214 0.102155 0.4335142 0.017314486 0.6059436 0.42499682 -0.45386156
0.36947832 -0.5075998 -0.32172734 0.16887243 0.28716463 0.40968135 -0.25800955 -0.014592318
0.3119293 -0.5510753 0.450911 -0.57275534 0.100822605 -0.18483901 -0.3837734 0.075159915
0.6240931 -0.23187974 -0.3561816 -0.2406839 -0.7051406 0.29953992 -0.3131519 -0.3669802
-0.27062452 0.34664088 0.29291755 0.43380362 0.2654985 -0.24356483 -0.2686924 0.20581226
00000000: eb8a ecbd baa0 2b3f ebd5 943e 5d9b 72bd
00000010: 13c4 14bf 10cc a33e b7dd cdbe 3d68 35be
00000020: 6ecd 99be 5451 7bbc a436 d13d 93f5 dd3e
00000030: 1cd7 8d3c 1f1f 1b3f 2f99 d93e 8b60 e8be
00000040: 432c bd3e 0ff2 01bf 72b9 a4be e5ec 2c3e
00000050: 3e07 933e c1c1 d13e d419 84be 9e14 6fbc
00000060: 32b5 9f3e 4513 0dbf cedd e63e 18a0 12bf
00000070: 157c ce3d 7046 3dbe f27d c4be 71ed 993d
00000080: 91c4 1f3f e271 6dbe 6f5d b6be d775 76be
00000090: 1884 34bf 4c5d 993e 7255 a0be d4e4 bbbe
000000a0: 4c8f 8abe ea7a b13e 4af9 953e 821b de3e
000000b0: 6bef 873e 0f69 79be 0d92 89be 73c0 523e

decoder.layers.1.multihead_attn.in_proj_bias f4 [12]
-0.07862515 -0.03110322 -0.08971331 -0.06809277 0.0031116847 0.001331471 -9.865801e-05 0.0033116948
-0.048792087 0.027081907 -0.022564746 -0.05489773
00000000: 3906 a1bd 2ecc febc 9dbb b7bd 3974 8bbd
00000010: 68ed 4b3b c184 ae3a 9ee6 ceb8 0509 593b
00000020: 36da 47bd e0da dd3c b4d9 b8bc 71dc 60bd

decoder.layers.1.multihead_attn.out_proj.weight f4 [4, 4]
-0.09803314 0.41120902 -0.2698993 -0.4291346 -0.34020022 0.3645518 -0.10556956 0.4177505
0.3282653 -0.045686804 -0.16514851 -0.0008396466 0.07328573 -0.08519541 -0.037152797 0.030291878
00000000: 99c5 c8bd fd89 d23e 3e30 8abe 88b7 dbbe
00000010: b92e aebe 89a6 ba3e da34 d8bd 65e3 d53e
00000020: 6412 a83e 1622 3bbd b11c 29be bb1b 5cba
00000030: d416 963d ee7a aebd 882d 18bd ac26 f83c

decoder.layers.1.multihead_attn.out_proj.bias f4 [4]
0.091101326 0.023555128 -0.089131325 0.008461927
00000000: 5593 ba3d aff6 c03c 7c8a b6bd e5a3 0a3c

decoder.layers.1.linear1.weight f4 [4, 4]
0.25822547 0.111340865 -0.20520087 -0.09579704 -0.38551754 0.16638657 -0.33868232 -0.54827064
0.3277611 -0.29774192 0.010027521 0.20086114 0.042555504 -0.2477113 -0.47960114 0.34916916
00000000: 2136 843e ae06 e43d 2d20 52be 3d31 c4bd
00000010: 8e62 c5be 3e61 2a3e c567 adbe 775b 0cbf
00000020: 4ed0 a73e a171 98be 794a 243c 8bae 4d3e
00000030: ae4e 2e3d 08a8 7dbe 488e f5be 4dc6 b23e

decoder.layers.1.linear1.bias f4 [4]
-0.053214747 0.5452253 -0.25783166 0.21677433
00000000: b5f7 59bd e393 0b3f 8302 84be 17fa 5d3e

decoder.layers.1.linear2.weight f4 [4, 4]
0.010359 0.19407795 -0.30314294 0.25425518 0.1916402 -0.07490354 -0.04773771 -0.23944436
0.22036286 -0.5047587 0.13709393 -0.2235459 -0.19705196 0.08495267 -0.24137267 0.019583147
00000000: ccb8 293c 5fbc 463e 8d35 9bbe bc2d 823e
00000010: 543d 443e 0767 99bd 9e88 43bd e730 75be
00000020: cda6 613e de37 01bf 5a62 0c3e 37e9 64be
00000030: fdc7 49be aafb ad3d 662a 77be d66c a03c

decoder.layers.1.linear2.bias f4 [4]
0.20056346 -0.33091223 -0.020091698 0.21888387
00000000: 8260 4d3e 546d a9be 5897 a4bc 1823 603e

decoder.layers.1.norm1.weight f4 [4]
1.0493133 0.9580457 1.045295 0.89767605
00000000: e64f 863f 7c42 753f 3acc 853f 19ce 653f

decoder.layers.1.norm1.bias f4 [4]
0.1313933 0.037317406 -0.097979136 -0.0100238025
00000000: f78b 063e 23da 183d 49a9 c8bd e03a 24bc

decoder.layers.1.norm2.weight f4 [4]
1.0299492 0.9141119 1.0747805 0.86671144
00000000: 60d5 833f 3d03 6a3f 6892 893f cde0 5d3f

decoder.layers.1.norm2.bias f4 [4]
0.10724948 0.022672988 -0.108418055 0.006178621
00000000: 9ea5 db3d b4bc b93c 490a debd 0876 ca3b

decoder.layers.1.norm3.weight f4 [4]
1.1495444 1.0545655 1.1445777 0.9359131
00000000: 4524 933f 01fc 863f 8681 923f 0098 6f3f

decoder.layers.1.norm3.bias f4 [4]
0.15630403 -0.1549921 -0.15511578 -0.15850936
00000000: 2a0e 203e 40b6 1ebe acd6 1ebe 4750 22be

linear_mapping.weight f4 [1, 4]
0.3471543 -0.13699822 -0.5545593 -0.058483794
00000000: 35be b13e 4349 0cbe 99f7 0dbf b48c 6fbd

linear_mapping_with_gender_ind.weight f4 [1, 5]
-0.163178 0.16975385 0.29782754 -0.23351328 0.0044103563
00000000: 2218 27be f4d3 2d3e da7c 983e 1b1e 6fbe
00000010: c084 903b

exp_avg f4 [4, 3]
0.03996867 0.040391434 0.040262867 0.009320645 0.009448699 0.009342022 -0.015393168 -0.015559701
-0.015429435 -0.0490516 -0.04955 -0.049391907
00000000: 30b6 233d 7d71 253d adea 243d 9eb5 183c
00000010: b7ce 1a3c 480f 193c a033 7cbc 1eee 7ebc
00000020: becb 7cbc 55ea 48bd f1f4 4abd 2b4f 4abd

exp_avg_sq f4 [4, 3]
0.011001671 0.011125724 0.011282324 0.0014643134 0.0014767647 0.0015040527 0.0032293482 0.0032780282
0.0033322575 0.009848033 0.009988456 0.010113517
00000000: 5a40 343c ab48 363c 7fd9 383c 34ee bf3a
00000010: 0090 c13a a223 c53a 79a3 533b 30d4 563b
00000020: 0162 5a3b a559 213c 9fa6 233c 2ab3 253c

exp_avg f4 [4]
-0.0103012975 -0.0017073886 0.002760147 0.014507523
00000000: c6c6 28bc 74ca dfba 95e3 343b f6b0 6d3c

exp_avg_sq f4 [4]
0.0022137752 0.000306279 0.0007055144 0.0018590039
00000000: fc14 113b 1294 a039 45f2 383a d2a9 f33a

exp_avg f4 [4, 1]
-0.018135358 -0.00895253 0.011262266 -0.005715819
00000000: 9a90 94bc a2ad 12bc 5e85 383c c44b bbbb

exp_avg_sq f4 [4, 1]
0.00089357974 0.00026182467 0.0011008391 8.804839e-05
00000000: 1f3f 6a3a 8345 8939 084a 903a 9fa6 b838

exp_avg f4 [4]
0.005690116 0.00276421 -0.0023580717 0.0018480619
00000000: 2774 ba3b c027 353b e189 1abb ab3a f23a

exp_avg_sq f4 [4]
0.00015118298 5.543634e-05 0.00022072082 1.4142476e-05
00000000: df86 1e39 5184 6838 4b71 6739 7945 6d37

exp_avg f4 [12, 4]
-0.00011947061 -0.0009974085 0.0007705104 -0.00045063734 -0.000119876255 -0.00045343477 0.00029733672 -0.00025192313
-0.00016961568 -0.0017556086 0.0013542373 -0.0007338058 -6.640209e-05 -1.687607e-05 -0.0003527111 0.00035233918
0.00031575453 0.00048021792 -0.00023857756 9.92899e-06 4.436173e-06 0.0001713059 6.858295e-05 -1.8918037e-05
0.00018885352 0.00021272982 -0.0005414209 8.4737785e-06 0.0006608575 0.0005395992 -0.00058923056 3.5840094e-05
-0.00017713667 -0.0018564097 0.0030418492 -0.0014264885 0.00081728696 0.0059586945 -0.006691451 0.0033377488
0.00043514237 -0.0013602412 0.0031259393 -0.0016995152 0.00037666247 0.008340298 -0.011994526 0.0063371183
00000000: 4c8c fab8 7abb 82ba 14fc 493a 8543 ecb9
00000010: 1366 fbb8 fcba edb9 dce3 9b39 8d14 84b9
00000020: ddda 31b9 731c e6ba aa80 b13a e05c 40ba
00000030: 5a41 8bb8 1691 8db7 15ec b8b9 2aba b839
00000040: db8b a539 c2c5 fb39 ad2a 7ab9 b094 2637
00000050: 70da 9436 94a0 3339 31d4 8f38 2db2 9eb7
00000060: fb06 4639 3a10 5f39 24ee 0dba 9a2a 0e37
00000070: 653d 2d3a e473 0d3a 9876 1aba 0253 1638
00000080: c3bd 39b9 c652 f3ba c359 473b 03f9 baba
00000090: 333f 563a 2741 c33b f643 dbbb 22be 5a3b
000000a0: d223 e439 1f4a b2ba 8fdc 4c3b 44c2 deba
000000b0: c87a c539 bfa5 083c b084 44bc 9aa7 cf3b

exp_avg_sq f4 [12, 4]
5.2271073e-08 2.50424e-06 2.3082528e-06 1.060841e-06 6.092237e-08 1.7925354e-06 2.0866032e-06 1.1807289e-06
1.6984272e-07 9.227167e-06 7.604791e-06 3.1103862e-06 4.797758e-08 1.1380038e-06 1.4384942e-06 6.433495e-07
5.398739e-07 5.500801e-07 1.6756728e-07 1.1749558e-07 5.0064375e-07 1.8266726e-07 5.550042e-08 5.7769828e-08
3.7580194e-06 5.295494e-07 7.5798727e-07 1.4817859e-07 3.8912794e-06 8.14341e-07 6.314844e-07 3.4455917e-07
6.02502e-07 2.679486e-05 5.302434e-05 2.0445295e-05 3.145933e-06 0.0002207406 0.0003335211 0.00014128718
3.5709795e-06 8.7796696e-05 0.0001915848 7.989292e-05 1.0214635e-05 0.0005719331 0.0010772505 0.00043331698
00000000: a780 6033 840e 2836 7be7 1a36 3862 8e35
00000010: 6dd4 8233 0c97 f035 9207 0c36 8979 9e35
00000020: 035e 3634 61ce 1a37 a82c ff36 07bc 5036
00000030: e80f 4e33 83bd 9835 4912 c135 a4b2 2c35
00000040: daeb 1035 37a9 1335 8bec 3334 e151 fc33
00000050: fa63 0635 3223 4434 5b5f 6e33 991e 7833
00000060: 4832 7c36 5c26 0e35 7d78 4b35 051b 1f34
00000070: d691 8236 1699 5a35 4783 2935 dafb b834
00000080: 9fbb 2135 86c5 e037 7466 5e38 f081 ab37
00000090: b81e 5336 9b76 6739 72dc ae39 7d26 1439
000000a0: f6a4 6f36 7e1f b838 27e4 4839 2f8c a738
000000b0: 865f 2b37 c8ed 153a 8732 8d3a d22e e339

exp_avg f4 [12]
-0.0006039906 -0.00034006924 -0.0010138794 0.00053420366 1.9732813e-11 4.991658e-12 -4.4705982e-11 1.5777466e-12
-0.001821779 0.0041590272 -0.0019274983 0.0075119957
00000000: 1f55 1eba 524b b2b9 26e4 84ba cd09 0c3a
00000010: 5892 ad2d dca0 af2c 769e 44ae 500c de2b
00000020: c2c8 eeba 7348 883b 1ca4 fcba 3027 f63b

exp_avg_sq f4 [12]
1.7531959e-06 1.7894945e-06 5.046339e-06 1.0815736e-06 7.117004e-21 9.373014e-21 1.8662998e-20 2.802595e-20
3.3244953e-05 0.00023220731 0.0001246845 0.0007044987
00000000: 5a4f eb35 902e f035 b953 a936 962a 9135
00000010: b86f 061e 1d0d 311e 5c44 b01e 4b59 041f
00000020: 7f70 0b38 ad7c 7339 bebd 0239 1cae 383a

exp_avg f4 [4, 4]
0.00881768 0.006725456 0.0018373484 0.0035682553 0.0045746784 0.0019486239 0.0005676556 0.0026365404
-0.0022827499 -0.0014373505 -0.00033827554 -0.0012224496 -0.012476894 -0.009260751 -0.0019202373 -0.006121423
00000000: 0878 103c 3761 dc3b 2fd3 f03a 64d9 693b
00000010: 2fe7 953b f868 ff3a b9ce 143a cfc9 2c3b
00000020: 309a 15bb 7b65 bcba 935a b1b9 9a3a a0ba
00000030: e36b 4cbc 68ba 17bc 79b0 fbba 3896 c8bb

exp_avg_sq f4 [4, 4]
0.0009343231 0.0006673915 6.642197e-05 0.000112056485 0.00029756344 0.000165927 1.8002425e-05 4.41745e-05
0.00014827054 0.00010817354 1.0407753e-05 1.8106553e-05 0.0013263513 0.00084194535 8.658278e-05 0.0001760767
00000000: 5ded 743a e3f3 2e3a 064c 8b38 deff ea38
00000010: 4a02 9c39 b1fc 2d39 ea03 9737 0248 3938
00000020: 1279 1b39 3adb e238 f59c 2e37 87e3 9737
00000030: f7d8 ad3a ffb5 5c3a c793 b538 3ba1 3839

exp_avg f4 [4]
-0.0071305465 -0.0025526306 0.0012900775 0.009414142
00000000: 5ca7 e9bb 094a 27bb d117 a93a c63d 1a3c

exp_avg_sq f4 [4]
0.0011380152 0.00031786377 0.00018287705 0.0015384236
00000000: 7429 953a f4a6 a639 afc2 3f39 eea4 c93a

exp_avg f4 [4, 4]
-0.0006789942 -0.00059823104 0.0015012131 -0.00020341147 0.0007458206 -0.0044452054 0.001460375 0.0021374456
0.0013701126 -0.006540976 0.0027464991 0.0022529403 -0.0006681833 0.0043747844 -0.0024013536 -0.0011877988
00000000: 88fe 31ba 9bd2 1cba 5ac4 c43a da4a 55b9
00000010: 2c83 433a 16a9 91bb 0e6a bf3a 6314 0c3b
00000020: 5a95 b33a af55 d6bb 9cfe 333b 11a6 133b
00000030: 0629 2fba 5a5a 8f3b 0760 1dbb eaaf 9bba

exp_avg_sq f4 [4, 4]
3.7504349e-06 4.4764107e-05 2.936172e-05 1.6015664e-06 5.0387684e-05 0.000578041 0.00031735457 2.2089698e-05
2.2885499e-05 0.0002579054 0.0001402667 1.3781836e-05 4.1984717e-06 3.2668053e-05 2.065642e-05 5.122768e-06
00000000: fbaf 7b36 18c1 3b38 d04d f637 67f5 d635
00000010: 5d57 5338 ad87 173a 9c62 a639 444d b937
00000020: 3cfa bf37 7a37 8739 8e14 1339 8938 6737
00000030: 99e0 8c36 0e05 0938 5347 ad37 3ee4 ab36

exp_avg f4 [4]
-0.00096005853 -0.0024581782 -0.003232299 0.0014274888
00000000: 70ac 7bba 6319 21bb fad4 53bb 931a bb3a

exp_avg_sq f4 [4]
2.3635583e-05 0.00025735932 0.00010675105 1.093516e-05
00000000: 0745 c637 2fee 8639 89df df38 2876 3737

exp_avg f4 [4, 4]
-0.006646033 -0.0026904747 -0.0051518017 -0.00689969 0.001997175 0.0016009071 0.0018500776 0.0013098906
-0.00014458224 -0.00021992301 0.0006058204 0.00088567246 0.00543973 0.002516318 0.0031515935 0.0047672987
00000000: f7c6 d9bb ad52 30bb 72d0 a8bb cb16 e2bb
00000010: 09e3 023b 87d5 d13a 4e7e f23a a3b0 ab3a
00000020: 009b 17b9 229b 66b9 ebcf 1e3a 792c 683a
00000030: c33f b23b d0e8 243b f78a 4e3b 0037 9c3b

exp_avg_sq f4 [4, 4]
0.0002798548 0.00020805089 0.00012395252 0.00020699808 1.51514005e-05 1.2456775e-05 1.0871917e-05 7.3040037e-06
9.937153e-06 6.581895e-06 4.0067266e-06 5.8438536e-06 0.00022265656 0.0001504015 8.656629e-05 0.00018949527
00000000: 7ab9 9239 3c28 5a39 40f9 0139 a00d 5939
00000010: c532 7e37 71fd 5037 8766 3637 ea14 f536
00000020: bfb7 2637 0cda dc36 8571 8636 5216 c436
00000030: ea78 6939 18b5 1d39 ec8a b538 40b3 4639

exp_avg f4 [4]
-0.008193582 0.0004834855 -0.00020897586 0.008295139
00000000: 603e 06bc 537c fd39 8820 5bb9 56e8 073c

exp_avg_sq f4 [4]
0.0004580043 1.2412772e-05 1.4244279e-05 0.0004993706
00000000: 4c20 f039 7340 5037 b6fa 6e37 32e8 023a

exp_avg f4 [4]
0.003443412 -0.001385147 -0.0011570258 -0.00255546
00000000: deaa 613b d28d b5ba 58a7 97ba 8179 27bb

exp_avg_sq f4 [4]
0.00019227166 8.2378494e-05 0.0001687881 6.4681095e-05
00000000: 889c 4939 9ec2 ac38 b6fc 3039 66a5 8738

exp_avg f4 [4]
-0.010548772 -0.00196811 0.0015590173 0.009578504
00000000: c2d4 2cbc 68fb 00bb f157 cc3a 28ef 1c3c

exp_avg_sq f4 [4]
0.0009190978 8.583084e-05 0.0001531678 0.0009048873
00000000: 9cef 703a 1500 b438 ab9b 2039 f535 6d3a

exp_avg f4 [4]
0.0022662526 0.005606116 0.00034151977 -0.0047978223
00000000: 6985 143b 82b3 b73b 020e b339 0d37 9dbb

exp_avg_sq f4 [4]
3.5825855e-05 0.00019657257 2.3973798e-05 7.049263e-05
00000000: b843 1638 0c1f 4e39 571b c937 71d5 9338

exp_avg f4 [4]
-0.0073861214 0.0027922038 0.0017988409 0.0087878555
00000000: 4707 f2bb 68fd 363b 16c7 eb3a f0fa 0f3c

exp_avg_sq f4 [4]
0.00031858849 4.7547637e-05 2.9185958e-05 0.0006162187
00000000: 3908 a739 e36d 4738 5ed4 f437 bd89 213a

exp_avg f4 [12, 4]
-4.9236463e-05 -0.0011045062 0.00077750767 0.0005007379 2.7279393e-05 -0.00081625825 0.0004992491 0.0003826696
-2.5637488e-05 -0.0019026564 0.0007646706 0.0013855216 -3.40953e-05 0.00067481515 -0.0003555993 -0.0003625931
0.0020160014 0.00010192109 -0.001033781 -0.0012459685 0.0007709548 0.000119848424 -0.00027022697 -0.00070509926
0.00032011908 -0.00015792841 -0.00054291054 0.000412705 0.00038004102 -3.2846714e-05 -0.00012221234 -0.00025404413
0.00033335254 -0.001036764 0.00020534493 0.0006493925 0.000119426855 -0.00068854436 -0.0001769157 0.00089755264
0.0011349454 -0.0031123145 -9.149815e-05 0.0026021206 -0.0011737666 0.0024875533 0.0003142586 -0.0020422786
00000000: 4083 4eb8 14c5 90ba a8d1 4b3a f443 033a
00000010: 0dd6 e437 2afa 55ba 0ae0 023a 0ba1 c839
00000020: 1610 d7b7 8e62 f9ba 2d74 483a 649a b53a
00000030: 8d01 0fb8 14e6 303a bb6f bab9 6c1a beb9
00000040: e41e 043b 78be d538 ef7f 87ba c44f a3ba
00000050: e719 4a3a 2257 fb38 40ad 8db9 69d6 38ba
00000060: a8d5 a739 9699 25b9 1c52 0eba 5460 d839
00000070: 3e40 c739 e4c4 09b8 2026 00b9 3a31 85b9
00000080: d2c5 ae39 07e4 87ba dc51 5739 fe3b 2a3a
00000090: ce74 fa38 6e7f 34ba 7282 39b9 bd49 6b3a
000000a0: 73c2 943a f9f7 4bbb b2e2 bfb8 5788 2a3b
000000b0: 12d9 99ba 3806 233b 13c3 a439 c0d7 05bb

exp_avg_sq f4 [12, 4]
5.82151e-07 9.02956e-06 5.2595888e-06 2.8513518e-06 6.166599e-08 1.5880644e-06 7.7283414e-07 4.3663184e-07
2.8704455e-06 7.1823575e-05 3.3582648e-05 2.1481967e-05 5.757219e-08 1.6110498e-06 7.484477e-07 3.5712557e-07
1.9003364e-05 1.6780636e-05 9.2211485e-06 6.510953e-05 2.3744024e-06 2.533731e-06 1.3742941e-06 9.596601e-06
4.2082793e-06 2.773371e-06 1.8140832e-06 1.1281415e-05 1.4837655e-06 8.417357e-07 4.8247193e-07 4.226762e-06
2.8223646e-06 2.3093504e-05 8.705375e-06 2.4203962e-06 2.6022124e-06 2.8541743e-05 1.0458041e-05 4.2844513e-06
3.1611064e-05 0.00023715533 9.390774e-05 2.629435e-05 2.464533e-05 0.00016228703 6.3086816e-05 1.5122988e-05
00000000: 1d45 1c35 aa7d 1737 867b b036 da59 3f36
00000010: 3d6d 8433 7a25 d535 c274 4f35 396a ea34
00000020: e1a1 4036 fd9f 9638 18db 0c38 2c34 b437
00000030: 4b45 7733 403b d835 efe8 4835 f7ba bf34
00000040: 6a69 9f37 24c4 8c37 88b4 1a37 6a8b 8838
00000050: ec57 1f36 2b09 2a36 6374 b835 1601 2137
00000060: d834 8d36 271e 3a36 6d7b f335 4f45 3d37
00000070: cb25 c735 a3f3 6135 3883 0135 9cd3 8d36
00000080: db67 3d36 ecb8 c137 4d0d 1237 176e 2236
00000090: aba1 2e36 ed6c ef37 f274 2f37 28c3 8f36
000000a0: 1f96 0438 e6ac 7839 56f0 c438 b092 dc37
000000b0: 71bd ce37 982b 2a39 7a4d 8438 bdb8 7d37

exp_avg f4 [12]
-0.00078490516 -0.000549448 -0.0011523975 0.0004334362 -1.0803658e-10 -5.464886e-11 -4.878438e-11 -1.1206773e-11
-0.0016259579 -0.0014056581 -0.005462278 0.004352616
00000000: 18c2 4dba d508 10ba 0b0c 97ba d23e e339
00000010: 3093 edae 2559 70ae 548e 56ae d226 45ad
00000020: 181e d5ba 0f3e b8ba e9fc b2bb 64a0 8e3b

exp_avg_sq f4 [12]
4.7054514e-06 7.5203286e-07 3.566379e-05 7.485044e-07 1.1805809e-19 2.8111817e-20 2.8091415e-20 1.4384584e-20
2.1704189e-05 2.6030564e-05 0.00023418666 0.00015968201
00000000: 85e3 9d36 4edf 4935 b495 1538 d5ec 4835
00000010: de60 0b20 1ac1 041f 70a8 041f cadb 871e
00000020: 6411 b637 365c da37 0190 7539 5070 2739

exp_avg f4 [4, 4]
0.00010419179 -0.0047932034 -0.00072497973 0.0036493319 0.0003947267 0.002195325 0.000580144 -0.0015105478
-0.00017087151 0.0010459728 0.00020518278 -0.0011511574 -0.00063885504 0.00076960004 -0.00018984379 -0.0008868927
00000000: 8b81 da38 4e10 9dbb 910c 3eba a129 6f3b
00000010: 52f3 ce39 71df 0f3b ce14 183a 93fd c5ba
00000020: f92b 33b9 0619 893a 5526 5739 6fe2 96ba
00000030: d678 27ba fcbe 493a ce10 47b9 5d7e 68ba

exp_avg_sq f4 [4, 4]
6.673336e-05 8.583874e-05 8.898545e-06 0.00018715624 1.8401852e-05 4.349901e-05 3.1230365e-06 8.786556e-05
5.4819407e-06 7.923105e-06 1.0001575e-06 1.8919902e-05 5.8338005e-06 5.0717845e-06 1.0122869e-06 1.2460381e-05
00000000: 33f3 8b38 5304 b438 f64a 1537 5f3f 4439
00000010: ad5d 9a37 b572 3638 5c95 5136 7744 b838
00000020: 83f1 b736 7aed 0437 263d 8635 2eb6 9e37
00000030: f7bf c336 4c2e aa36 eadd 8735 ee0c 5137

exp_avg f4 [4]
-0.006927789 0.003113152 0.0021236613 0.0013911292
00000000: 8202 e3bb 0606 4c3b 202d 0b3b 8d56 b63a

exp_avg_sq f4 [4]
0.00032014272 0.000116768584 3.1403342e-05 2.280497e-05
00000000: d4d8 a739 a8e1 f438 15b7 0338 4d4d bf37

exp_avg f4 [4, 4]
0.0009307117 0.0010894435 -0.00082275714 -0.00097506825 -0.00038532182 -0.0040230714 0.0011363096 0.0029529398
-0.00017179127 -0.0015349229 0.000430322 0.001148629 0.0010283279 0.0036591298 -0.0014527927 -0.0028277794
00000000: 01fb 733a a8cb 8e3a 4cae 57ba b99b 7fba
00000010: 0505 cab9 f8d3 83bb 39f0 943a 1c86 413b
00000020: de22 34b9 772f c9ba d79c e139 988d 963a
00000030: f5c8 863a 03ce 6f3b a26b beba 4452 39bb

exp_avg_sq f4 [4, 4]
4.8688357e-06 8.479912e-06 2.5614363e-06 9.108253e-06 4.502779e-06 4.237006e-05 7.841354e-06 2.5091294e-05
3.6216368e-06 2.7715885e-05 5.6509707e-06 1.772145e-05 1.2148039e-05 4.9112452e-05 1.3525574e-05 3.646791e-05
00000000: fb5e a336 f244 0e37 24e5 2b36 a6cf 1837
00000010: 9416 9736 81b6 3138 5c8e 0337 257b d237
00000020: 3f0b 7336 697f e837 789d bd36 86a8 9437
00000030: 6ecf 4b37 18fe 4d38 e6eb 6237 1ff5 1838

exp_avg f4 [4]
0.0010388936 -0.002786127 -0.0010255901 0.0028375823
00000000: 7c2b 883a 7497 36bb 186d 86ba bbf6 393b

exp_avg_sq f4 [4]
7.3899e-06 2.4794903e-05 1.61704e-05 3.4521086e-05
00000000: c2f6 f736 a6fe cf37 aba5 8737 bcca 1038

exp_avg f4 [4, 4]
-0.0044387863 -0.0048501603 -0.0016254702 -0.0035111913 0.0034019365 0.0033079432 0.0013155352 0.0013095024
0.0009939604 0.0013223295 0.0003974894 0.0006312833 -0.00041706406 -0.00049279456 -0.0003869022 0.00087575096
00000000: 3d73 91bb 18ee 9ebb bb0d d5ba 041c 66bb
00000010: 06f3 5e3b 14ca 583b 096e ac3a 9ca3 ab3a
00000020: c747 823a 0452 ad3a 2066 d039 b57c 253a
00000030: 64a9 dab9 e22e 01ba 22d9 cab9 a792 653a

exp_avg_sq f4 [4, 4]
7.728826e-05 7.811537e-05 4.074088e-05 3.2003067e-05 6.695421e-05 7.498407e-05 4.531498e-05 1.1319455e-05
8.382375e-06 8.245683e-06 4.0228438e-06 5.453416e-06 9.977867e-06 1.1672602e-05 6.3401044e-06 3.7243146e-06
00000000: d215 a238 dfd1 a338 30e1 2a38 083b 0638
00000010: c569 8c38 c440 9d38 9710 3e38 b0e8 3d37
00000020: 07a2 0c37 f056 0a37 f7fb 8636 7dfc b636
00000030: 9d66 2737 72d5 4337 15bd d436 3def 7936

exp_avg f4 [4]
-0.0055629844 0.0031393343 0.0012862706 0.00031026235
00000000: b249 b6bb 4abd 4d3b 1498 a83a b5aa a239

exp_avg_sq f4 [4]
0.00010200517 7.4716605e-05 1.0939277e-05 1.3483641e-05
00000000: 9ceb d538 2cb1 9c38 d687 3737 cc37 6237

exp_avg f4 [4]
-0.0020426481 0.0027620208 -0.00041113555 -0.00060959073
00000000: f3dd 05bb 0503 353b ae8d d7b9 f1cc 1fba

exp_avg_sq f4 [4]
6.531524e-05 4.712147e-05 2.588068e-06 2.6577474e-05
00000000: daf9 8838 4ba4 4538 abae 2d36 b1f2 de37

exp_avg f4 [4]
-0.007865765 0.002641078 0.00086592 0.00042392983
00000000: 69df 00bc f015 2d3b e8fe 623a e642 de39

exp_avg_sq f4 [4]
0.0002808165 4.7236223e-05 6.1170927e-06 1.8768867e-05
00000000: 8d3a 9339 821f 4638 6d41 cd36 d671 9d37

exp_avg f4 [4]
-0.0038581896 0.002463153 9.315608e-05 0.00063316047
00000000: aed9 7cbb da6c 213b ca5c c338 aefa 253a

exp_avg_sq f4 [4]
0.00022106637 2.2682707e-05 1.0106713e-06 3.7065624e-06
00000000: 0dce 6739 be46 be37 67a6 8735 42be 7836

exp_avg f4 [4]
-0.0071191057 0.0027884794 0.00048546394 -0.00031978337
00000000: 6347 e9bb ecbe 363b de85 fe39 99a8 a7b9

exp_avg_sq f4 [4]
0.0002292281 3.891551e-05 5.356821e-06 2.4361125e-06
00000000: f35c 7039 3639 2338 bebe b336 187c 2336

exp_avg f4 [12, 4]
-4.0625488e-05 3.2505766e-05 -8.437675e-05 -0.00018558344 4.5168756e-05 -3.909268e-05 8.806814e-05 0.00015590621
-2.3182734e-05 3.314188e-05 -2.924668e-05 -1.5979858e-05 1.1620727e-05 -1.120794e-05 4.225008e-05 4.793605e-05
-0.00016219653 7.5830656e-05 3.223342e-05 -2.211582e-05 -3.0795683e-05 2.7265725e-05 -2.131159e-07 3.5523448e-05
-0.00022539617 9.5644486e-05 1.2695658e-05 -5.3939708e-05 1.1095352e-05 -1.3177616e-05 -1.1075074e-05 -2.4377729e-05
-3.3015458e-05 0.0024800652 -0.004638119 -0.012954304 -1.1702781e-05 0.0011186445 -0.0027174922 -0.0071720965
-9.304312e-05 0.0008864992 -0.002029525 -0.0073693306 3.7060912e-05 -0.00013673984 0.00029639588 0.0015790956
00000000: 4965 2ab8 cd56 0838 6cf3 b0b8 2d99 42b9
00000010: 9573 3d38 72f7 23b8 39b1 b838 c17a 2339
00000020: 8b78 c2b7 d301 0b38 c456 f5b7 7c0c 86b7
00000030: a4f6 4237 bc09 3cb7 ae35 3138 f10e 4938
00000040: 4d13 2ab9 4607 9f38 5f32 0738 5d85 b9b7
00000050: 9d2a 01b8 b3b8 e437 dad4 64b4 03ff 1438
00000060: 5358 6cb9 be94 c838 70ff 5437 523d 62b8
00000070: 2d26 3a37 6e15 5db7 15cf 39b7 c67e ccb7
00000080: 147a 0ab8 9788 223b 5dfb 97bb 4a3e 54bc
00000090: 1057 44b7 7b9f 923a f417 32bb e803 ebbb
000000a0: 2520 c3b8 f463 683a c801 05bb 6d7a f1bb
000000b0: da71 1b38 d261 0fb9 9565 9b39 a8f9 ce3a

exp_avg_sq f4 [12, 4]
6.1563776e-09 6.9227606e-09 2.116758e-08 1.0322636e-07 6.233094e-09 1.0981731e-08 2.510914e-08 8.905938e-08
7.3811615e-09 7.3586137e-09 1.7023261e-08 3.189536e-08 2.460607e-09 1.3727555e-09 6.055308e-09 2.963421e-08
1.280484e-07 9.9656134e-08 1.8000026e-08 1.2144422e-08 4.2854307e-09 2.1254243e-09 3.1945618e-10 8.172825e-09
1.9304484e-07 1.1393496e-07 2.2147724e-08 3.425876e-08 2.423885e-09 2.4606879e-09 5.653213e-10 4.6527693e-09
5.032456e-06 1.4256923e-05 0.00011747632 0.0006703626 1.040518e-06 2.7801439e-06 2.7126223e-05 0.00016412965
1.4010385e-06 3.0119932e-06 2.0065503e-05 0.00015439618 1.9439013e-07 3.5093703e-07 1.2699734e-06 1.1633259e-05
00000000: 1288 d331 3fdd ed31 00d4 b532 4bad dd33
00000010: e02a d631 2aaa 3c32 95af d732 e940 bf33
00000020: 629d fd31 0dd7 fc31 8c3a 9232 52fd 0833
00000030: 7517 2931 8aab bc30 0d0f d031 518e fe32
00000040: ad7d 0934 8a02 d633 7a9e 9a32 bca3 5032
00000050: 0c3f 9331 dc0e 1231 769f af2f 7768 0c32
00000060: c347 4f34 68ac f433 5c3f be32 e823 1333
00000070: 7091 2631 e118 2931 f364 1b30 31de 9f31
00000080: 78dc a836 0531 6f37 9e5d f638 46bb 2f3a
00000090: eda7 8b35 8292 3a36 1f8d e337 381a 2c39
000000a0: 510b bc35 a621 4a36 5752 a837 69e5 2139
000000b0: 8db9 5034 6b68 bc34 f473 aa35 782c 4337

exp_avg f4 [12]
-7.3926654e-05 7.5446675e-05 -3.667502e-05 2.5405181e-05 6.625851e-11 1.3141127e-11 5.6996508e-11 -1.2408545e-11
-0.0037703575 -0.0022679716 -0.002234341 0.00055805047
00000000: 1209 9bb8 2039 9e38 81d3 19b8 361d d537
00000010: 3ab4 912e 602e 672d 5dac 7a2e 1e4b 5aad
00000020: 1a18 77bb 40a2 14bb 066e 12bb 224a 123a

exp_avg_sq f4 [12]
2.1044011e-08 2.7783212e-08 2.0448164e-08 5.148719e-09 2.9702033e-20 8.3345167e-22 3.854035e-20 6.7139384e-22
0.00012015155 2.663621e-05 2.5184441e-05 1.7351197e-06
00000000: 45c4 b432 eea7 ee32 fda5 af32 9ce8 b031
00000010: 8e43 0c1f 33e5 7b1c 6d00 361f 95ea 4a1c
00000020: dff9 fb38 d370 df37 2d43 d337 42e2 e835

exp_avg f4 [4, 4]
-0.0013624233 0.0039704414 -0.0027602771 -0.0017390808 -0.0011916322 0.0030046669 -0.0024173844 -0.0009757527
0.0042583887 -0.011572214 0.008643828 0.004635696 -0.00077759137 0.0022658634 -0.0015582175 -0.0011668662
00000000: 5793 b2ba 7a1a 823b c4e5 34bb def1 e3ba
00000010: 8b30 9cba f2e9 443b fb6c 1ebb a8c9 7fba
00000020: f489 8b3b 6299 3dbc d89e 0d3c 09e7 973b
00000030: 46d7 4bba e17e 143b 1a3d ccba 88f1 98ba

exp_avg_sq f4 [4, 4]
2.585665e-05 0.00014444462 0.000107930384 1.9945785e-05 1.3433895e-05 6.4449676e-05 6.303612e-05 8.11946e-06
8.317518e-05 0.000457861 0.00035550765 6.674497e-05 6.6222474e-06 4.1827738e-05 2.3932724e-05 4.322643e-06
00000000: bce6 d837 0f76 1739 af58 e238 3f51 a737
00000010: 2462 6137 2829 8738 4232 8438 d138 0837
00000020: 566e ae38 100d f039 6e63 ba39 6ff9 8b38
00000030: ac34 de36 3170 2f38 22c3 c837 380b 9136

exp_avg f4 [4]
0.0014348533 0.0016051917 -0.005230817 0.0013333465
00000000: b011 bc3a 4c65 d23a 4667 abbb afc3 ae3a

exp_avg_sq f4 [4]
6.916147e-05 3.531419e-05 0.0002074712 1.3388517e-05
00000000: c80a 9138 531e 1438 a08c 5939 3e9f 6037

exp_avg f4 [12, 4]
-0.00020509567 0.00045725473 -7.641597e-05 -0.00014709299 -1.9163166e-05 4.6467256e-05 -3.1361193e-05 5.3469703e-06
-3.54498e-05 0.00015389397 -7.801746e-05 -3.6298665e-05 -0.00010660254 0.00022620437 -3.2951524e-05 -7.18137e-05
0.0003405017 -0.00027067418 -0.00017966854 0.000115792915 0.00033274537 -0.00022487348 -0.00016350797 6.669597e-05
2.0200503e-05 -1.7012888e-05 -2.2982058e-05 1.9020295e-05 0.00030503148 -0.00026845362 -0.00016581311 0.00013131466
-0.0013145525 -0.0028119462 6.464358e-05 0.0037615676 0.0011028703 0.0022516164 -8.2525665e-05 -0.0030320173
-0.00019613667 -0.0002787287 4.413644e-05 0.00039948727 -0.0006195019 0.00024338129 0.00014609704 0.00017895413
00000000: f30e 57b9 b1bb ef39 8341 a0b8 f93c 1ab9
00000010: 96c0 a0b7 d6e5 4238 d389 03b8 206a b336
00000020: efaf 14b8 995e 2139 4e9d a3b8 653f 18b8
00000030: ce8f dfb8 4631 6d39 6e35 0ab8 b09a 96b8
00000040: 5d85 b239 46e9 8db9 6865 3cb9 d9d5 f238
00000050: 5474 ae39 04cc 6bb9 5673 2bb9 20df 8b38
00000060: 4074 a937 e6b6 8eb7 98c9 c0b7 c68d 9f37
00000070: a2ec 9f39 3cbf 8cb9 1ede 2db9 83b1 0939
00000080: 104d acba a148 38bb 4291 8738 a284 763b
00000090: 308e 903a db8f 133b a111 adb8 cfb4 46bb
000000a0: 09aa 4db9 5522 92b9 241f 3938 4672 d139
000000b0: 1266 22ba 2b34 7f39 a031 1939 a2a5 3b39

exp_avg_sq f4 [12, 4]
5.5207823e-07 1.1910421e-06 1.7179048e-07 7.3193814e-07 2.0137053e-08 4.857863e-08 1.46359085e-08 4.9235187e-08
2.0294891e-07 6.444999e-07 1.03619435e-07 4.646411e-07 1.0298056e-07 2.1932229e-07 3.112608e-08 1.2911124e-07
1.4363566e-06 7.2484335e-07 1.6619519e-07 1.967314e-07 8.24248e-07 4.985954e-07 1.0669959e-07 1.10520375e-07
1.5062139e-07 1.2237368e-07 2.1943864e-08 2.8497471e-08 2.0691089e-06 9.909023e-07 2.3878613e-07 3.00531e-07
4.1615396e-05 2.7964385e-05 5.929187e-06 6.1992585e-05 2.2197843e-05 1.3166263e-05 3.6998902e-06 3.0210027e-05
4.9098304e-07 5.139291e-07 1.7486774e-07 7.5983525e-07 4.358237e-06 3.3152292e-06 6.4003393e-07 6.918726e-06
00000000: 8732 1435 e5db 9f35 6875 3834 687a 4435
00000010: d9f9 ac32 c5a4 5033 6871 7b32 a976 5333
00000020: 2cea 5934 b201 2d35 6385 de33 c973 f934
00000030: 2926 dd33 da7e 6b34 7daf 0533 d4a1 0a34
00000040: d6c8 c035 db92 4235 6373 3234 1e3d 5334
00000050: e441 5d35 37d7 0535 b822 e533 3857 ed33
00000060: 7eba 2134 d265 0334 117f bc32 9aca f432
00000070: 05db 0a36 25ff 8435 8432 8034 ab58 a134
00000080: 318c 2e38 0f95 ea37 54f3 c636 0402 8238
00000090: 8135 ba37 abe4 5c37 a14b 7836 8a6b fd37
000000a0: 19cc 0335 f0f4 0935 47c3 3b34 7bf7 4b35
000000b0: f93c 9236 347b 5e36 ccce 2b35 6727 e836

exp_avg f4 [12]
-0.00038485194 -3.3670774e-05 -0.00010603101 -0.00019311023 3.4403296e-11 1.9339596e-11 -3.6119202e-12 4.86243e-11
-0.0026671507 0.0021722727 -0.00030623624 -2.6231544e-05
00000000: f4c5 c9b9 b839 0db8 f75c deb8 a27d 4ab9
00000010: ab4e 172e e61c aa2d 922a 7eac 18da 552e
00000020: 5dcb 2ebb b05c 0e3b 558e a0b9 d00b dcb7

exp_avg_sq f4 [12]
9.2890184e-07 3.4654384e-08 4.6025346e-07 1.7195393e-07 1.0993941e-20 4.6248827e-21 7.951724e-22 1.7400468e-20
3.528151e-05 1.7760665e-05 4.983243e-07 3.934131e-06
00000000: a659 7935 e6d6 1433 c118 f734 56a2 3834
00000010: 70ab 4f1e 1fb9 ae1d 7c53 701c c057 a41e
00000020: 3cfb 1338 bdfc 9437 96c4 0535 ee01 8436

exp_avg f4 [4, 4]
0.0017579952 0.0014347136 -0.0022255555 -0.0007977354 8.651889e-05 0.002315412 -0.0010298803 -0.0014070717
-0.0018679522 -0.0032635801 0.0030424222 0.0019224746 0.0007036748 -9.557976e-05 -0.0006225891 7.0622875e-05
00000000: 886c e63a 000d bc3a a0da 11bb 1e1f 51ba
00000010: 7a71 b538 2bbe 173b 0cfd 86ba 7e6d b8ba
00000020: 13d6 f4ba cae1 55bb 6063 473b 8bfb fb3a
00000030: d176 383a fe71 c8b8 3f35 23ba 5e1b 9438

exp_avg_sq f4 [4, 4]
4.610916e-05 6.3610764e-06 3.6275695e-05 2.8693808e-06 1.48191275e-05 1.8082153e-05 1.2468666e-05 7.657538e-06
0.00013132206 4.7269674e-05 0.00010893228 1.8116138e-05 8.900308e-06 3.8164007e-06 7.0029746e-06 1.692876e-06
00000000: 5565 4138 3b71 d536 bb26 1838 968f 4036
00000010: ab9f 7837 21af 9737 8330 5137 e078 0037
00000020: 7fb3 0939 6d43 4638 9372 e438 1cf8 9737
00000030: 8852 1537 a20e 8036 18fb ea36 c736 e335

exp_avg f4 [4]
0.0029845228 0.0023765096 -0.0048915725 0.0005255403
00000000: fc97 433b 37bf 1b3b 7c49 a0bb 6ac4 093a

exp_avg_sq f4 [4]
4.6385085e-05 2.9254374e-05 0.00015977726 8.498138e-06
00000000: 9b8d 4238 4a67 f537 e289 2739 3a93 0e37

exp_avg f4 [4, 4]
-7.0735e-05 2.207116e-05 -0.00014050903 0.0001687731 0.0009852786 -0.0006357649 -0.0010360072 0.0005002449
-0.0013596842 0.0031497327 -0.00029084858 -0.0012046323 0.0006838158 -0.0018090387 0.00014930769 0.0008244957
00000000: 9057 94b8 7525 b937 9b55 13b9 aff8 3039
00000010: 7724 813a 76a9 26ba a2ca 87ba de22 033a
00000020: 6e37 b2ba bf6b 4e3b 097d 98b9 c1e4 9dba
00000030: 1a42 333a 441d edba 7a8f 1c39 f822 583a

exp_avg_sq f4 [4, 4]
1.7425661e-07 1.498692e-07 1.8564707e-07 2.596537e-07 5.1799966e-06 4.6473097e-06 6.407922e-06 7.882164e-06
3.139936e-06 2.2557431e-05 2.101675e-06 1.0552965e-05 8.443944e-07 1.4443143e-05 1.0133073e-06 8.891315e-06
00000000: 4b1b 3b34 bbeb 2034 4756 4734 8866 8b34
00000010: d5cf ad36 16f0 9b36 a103 d736 a33d 0437
00000020: b1b7 5236 b739 bd37 800a 0d36 a40c 3137
00000030: 57aa 6235 d450 7237 f900 8835 e82b 1537

exp_avg f4 [4]
1.3604235e-05 0.00012201219 -0.0024128933 0.0011297524
00000000: bf3d 6437 cce0 ff38 a221 1ebb 3314 943a

exp_avg_sq f4 [4]
1.3665132e-07 9.2448745e-06 1.3900756e-05 8.608455e-06
00000000: 6eba 1234 6f1a 1b37 4b37 6937 086d 1037

exp_avg f4 [4, 4]
0.0002100561 -0.0004977867 0.0020383094 0.0023654804 0.00042758745 0.00012463127 0.0014748952 0.0024684432
-0.0006759004 0.00036611297 -0.003488633 -0.004584285 -0.000119938595 2.2810538e-05 0.0001399772 -0.00025886524
00000000: 8142 5c39 e67d 02ba 2895 053b 2d06 1b3b
00000010: d12d e039 74af 0239 4551 c13a 9bc5 213b
00000020: e82e 31ba daf2 bf39 8da1 64bb c537 96bb
00000030: 8b87 fbb8 4259 bf37 d8c6 1239 4eb8 87b9

exp_avg_sq f4 [4, 4]
5.268265e-07 4.6446253e-06 9.863024e-06 4.132659e-05 1.5685397e-06 8.451597e-07 6.13127e-06 2.4986017e-05
2.5168047e-06 4.943095e-06 2.7612252e-05 0.00010050696 2.3530238e-07 4.6614136e-07 3.4120677e-07 2.9991759e-06
00000000: 3e6b 0d35 07d9 9b36 5e79 2537 1756 2d38
00000010: 9d86 d235 efde 6235 35bb cd36 1099 d137
00000020: 60e6 2836 dddc a536 dca0 e737 43c7 d238
00000030: 6da7 7c34 fb41 fa34 1a2f b734 7345 4936

exp_avg f4 [4]
0.003067127 0.0023825034 -0.0053615724 0.00030999247
00000000: da01 493b c623 1c3b 21b0 afbb 7c86 a239

exp_avg_sq f4 [4]
6.1789746e-05 2.1965889e-05 0.0001360146 2.2918487e-06
00000000: 1e95 8138 6343 b837 249f 0e39 a9cd 1936

exp_avg f4 [4]
0.0008251476 -0.0025084282 -0.00030473102 0.00030590454
00000000: b84e 583a 7164 24bb 4ec4 9fb9 d061 a039

exp_avg_sq f4 [4]
2.6868122e-06 2.0030919e-05 2.0654157e-05 2.3528395e-05
00000000: 154f 3436 1208 a837 7742 ad37 d85e c537

exp_avg f4 [4]
0.0025546032 0.0023479513 -0.0062314603 0.00087580096
00000000: 216b 273b 16e0 193b 4731 ccbb 0296 653a

exp_avg_sq f4 [4]
4.748319e-05 2.2437742e-05 0.00017271333 8.479162e-06
00000000: b028 4738 af38 bc37 621a 3539 b941 0e37

exp_avg f4 [4]
0.001685882 -0.0033579965 0.0006367165 -0.00066932716
00000000: d0f8 dc3a d511 5cbb 52e9 263a c975 2fba

exp_avg_sq f4 [4]
3.0712024e-06 3.3653312e-05 3.8110138e-05 7.766218e-06
00000000: db1a 4e36 f826 0d38 73d8 1f38 a74b 0237

exp_avg f4 [4]
0.0016749955 0.0028217598 -0.0058313585 0.0002319328
00000000: 868b db3a 46ed 383b fb14 bfbb fd32 7339

exp_avg_sq f4 [4]
3.22144e-05 2.6885504e-05 0.00017482339 3.7733294e-06
00000000: f31d 0738 2e88 e137 cc50 3739 4e39 7d36

exp_avg f4 [4]
0.0025570088 -0.004065911 0.00030133975 -0.00074377435
00000000: 7d93 273b 553b 85bb 23fd 9d39 daf9 42ba

exp_avg_sq f4 [4]
1.4635829e-05 7.612099e-05 3.498237e-05 1.5274003e-05
00000000: 688c 7537 25a3 9f38 09ba 1238 ac20 8037

exp_avg f4 [4]
0.0026401614 0.0033141738 -0.007164138 -0.00043888326
00000000: 8f06 2d3b 9c32 593b 25c1 eabb ea19 e6b9

exp_avg_sq f4 [4]
5.7349276e-05 4.5335997e-05 0.0002067894 8.176274e-06
00000000: 518a 7038 2827 3e38 9bd5 5839 d42c 0937

exp_avg f4 [12, 4]
-0.00018011588 0.00019526285 8.48465e-05 -9.593964e-05 0.00020086292 -0.00021943562 -9.992183e-05 0.00011290134
-0.0001277216 0.00014395622 7.5502205e-05 -8.5692904e-05 -9.202104e-05 9.773043e-05 3.7025584e-05 -4.1823503e-05
-0.00010665101 -2.2693373e-05 0.00020191401 -5.4871594e-05 0.000111887246 5.0848117e-05 -0.00017012517 -1.4146208e-06
4.6805176e-06 2.6721796e-07 -7.2229373e-06 1.7177114e-06 3.5408175e-05 3.6531083e-07 -7.487255e-05 3.119776e-05
-0.0016770872 0.0032618712 -0.0004935034 -0.0011467097 -0.0021147337 0.0038051223 -6.304658e-05 -0.0016284366
-0.0014108374 0.0025710037 0.00053952273 -0.0015998972 0.0022079693 -0.0037473298 -0.00041407562 0.00188938
00000000: 7ddd 3cb9 79bf 4c39 9eef b138 3433 c9b8
00000010: bb9e 5239 4d18 66b9 208d d1b8 72c5 ec38
00000020: 02ed 05b9 f4f2 1639 f056 9e38 07b6 b3b8
00000030: 6bfb c0b8 a0f4 cc38 eb4b 1b38 a56b 2fb8
00000040: d3a9 dfb8 a65d beb7 e1b8 5339 ed25 66b8
00000050: 02a5 ea38 c045 5538 a163 32b9 00de bdb5
00000060: 570d 9d36 2876 8f34 8f5c f2b6 1d8c e635
00000070: 3d83 1438 f01f c434 e504 9db8 57da 0238
00000080: b5d1 dbba 1ec5 553b 745e 01ba 314d 96ba
00000090: 5897 0abb 5c5f 793b e037 84b8 4471 d5ba
000000a0: d9eb b8ba 497e 283b c26e 0d3a a4b3 d1ba
000000b0: 94b3 103b c395 75bb 4a18 d9b9 13a5 f73a

exp_avg_sq f4 [12, 4]
4.2744325e-08 7.045452e-08 1.0405023e-08 2.6406488e-08 6.1218635e-08 9.273e-08 1.522888e-08 3.719073e-08
5.6368833e-08 5.9586476e-08 1.221875e-08 2.5985514e-08 2.1576037e-08 2.6999729e-08 4.2713815e-09 1.1968968e-08
2.9562088e-08 3.3737244e-08 9.0919436e-08 1.3648891e-08 3.0540097e-08 2.379455e-08 6.0250684e-08 2.0027741e-08
1.1519917e-09 1.6937095e-09 3.015122e-09 1.1369593e-09 3.4492804e-09 5.454619e-09 1.3908541e-08 2.503134e-09
6.6614293e-06 3.6878275e-05 5.3241847e-06 1.8462937e-05 9.529083e-06 3.5614776e-05 6.841083e-06 1.8215627e-05
6.7413675e-06 1.6108179e-05 5.712842e-06 1.0353207e-05 1.6692271e-05 3.377072e-05 1.5940223e-05 2.2797918e-05
00000000: e295 3733 c84c 9733 c6c1 3232 7bd4 e232
00000010: 4d77 8333 db22 c733 a9d0 8232 a4bb 1f33
00000020: 301a 7233 06ec 7f33 a1ea 5132 c036 df32
00000030: 3556 b932 08ed e732 78c3 9231 14a0 4d32
00000040: b8ef fd32 7ee6 1033 7d3f c333 757c 6a32
00000050: 312b 0333 c564 cc32 2a63 8133 7809 ac32
00000060: 1b54 9e30 1bc8 e830 9632 4f31 3343 9c30
00000070: 6208 6d31 566b bb31 69f2 6e32 9903 2c31
00000080: 3e85 df36 bfad 1a38 66a6 b236 dbe0 9a37
00000090: 1adf 1f37 1361 1538 758c e536 c3cd 9837
000000a0: e833 e236 0d20 8737 f0b0 bf36 afb2 2d37
000000b0: 6106 8c37 09a5 0d38 5eb7 8537 283e bf37

exp_avg f4 [12]
-0.00015677376 0.00017587657 -0.000114348346 -7.7543846e-05 1.0857624e-11 -6.2434008e-12 -7.2365453e-13 -2.533447e-12
-0.0019256739 -0.002420651 -0.0017959182 0.0025350363
00000000: a363 24b9 826b 3839 4dce efb8 099f a2b8
00000010: 6402 3f2d 8eab dbac ceb0 4bab 8646 32ac
00000020: e566 fcba c9a3 1ebb 0465 ebba da22 263b

exp_avg_sq f4 [12]
3.9984183e-08 5.421512e-08 3.905049e-08 1.6861387e-08 3.0767233e-21 1.7575108e-21 1.5720222e-22 4.7410243e-22
2.1673288e-05 2.1960186e-05 1.1424775e-05 2.5525494e-05
00000000: 13bb 2b33 28da 6833 78b8 2733 95d6 9032
00000010: 7c78 681d 34cb 041d bb0b 3e1b e649 0f1c
00000020: 08cf b537 2437 b837 09ad 3f37 951f d637

exp_avg f4 [4, 4]
-0.00040409493 -0.0006638177 -0.0010744485 -0.0014266662 -0.0004215786 -0.0022236467 -0.0015558755 -0.0014151086
0.0010403905 0.0034255737 0.0030462292 0.0030721687 7.6473225e-05 1.2587147e-05 -5.6439996e-05 -0.00027831615
00000000: b4dc d3b9 0d04 2eba 82d4 8cba f9fe baba
00000010: 5207 ddb9 9aba 11bb 85ee cbba 2a7b b9ba
00000020: b65d 883a 977f 603b 3fa3 473b 7056 493b
00000030: 4060 a038 622d 5337 fcb9 6cb8 f6ea 91b9
