Saved_models/best_model_Female.pt (torch, 90874 bytes, 198 tensors)

encoder_input_layer.weight f4 [4, 5]
000000 77 8a 69 bf d4 b4 05 bf e3 0a 85 bf 70 11 69 bf
       -0.91226906 -0.52229047 -1.0393947 -0.9104223
000010 1e 84 72 bf 70 9b 54 3f 5d 90 5d 3f 08 c2 a0 3f
       -0.94732845 0.8304968 0.86548406 1.2559214
000020 b0 ca 5d 3f 72 59 6c 3f 35 4a 10 bf c5 7f dd be
       0.866374 0.9232398 -0.5636323 -0.43261543
000030 7b 9e 74 bf d0 ba 4e bf 66 22 17 bf 13 49 eb be
       -0.9555432 -0.80753803 -0.5903686 -0.4595419
000040 c0 3f fb bd 1c 03 63 bd f2 80 06 bf 53 22 ee be
       -0.12268019 -0.055422887 -0.52540505 -0.46510562

encoder_input_layer.bias f4 [4]
000000 d1 88 af 3f d9 38 32 3e 5a 11 ba 3d b9 2b 89 3f
       1.3713628 0.17404498 0.09085341 1.0716468

decoder_input_layer.weight f4 [4, 1]
000000 60 d1 78 bf dc dd f2 3e 5e 6a fe 3f a6 9c 41 3f
       -0.9719448 0.4743489 1.9876211 0.7562965

decoder_input_layer.bias f4 [4]
000000 59 0b 1a c0 74 96 25 3e 31 24 30 40 ac 0a 5c 3f
       -2.4069426 0.16170675 2.752209 0.85953784

positional_encoding_layer_enc.pe f4 [1, 9, 4]
000000 00 00 00 00 00 00 80 3f 00 00 00 00 00 00 80 3f
       0.0 1.0 0.0 1.0
000010 a4 6a 57 3f 41 51 0a 3f 57 d6 23 3c b9 fc 7f 3f
       0.84147096 0.54030234 0.009999833 0.99995
000020 b7 c7 68 3f 33 11 d5 be 3e d4 a3 3c e5 f2 7f 3f
       0.9092974 -0.41614684 0.019998666 0.9998
000030 c3 81 10 3e 26 70 7d bf 1f b9 f5 3c 83 e2 7f 3f
       0.14112 -0.9899925 0.0299955 0.99955004
000040 cf bd 41 bf 30 55 27 bf db cb 23 3d 94 cb 7f 3f
       -0.7568025 -0.6536436 0.039989334 0.9992001
000050 10 7c 75 bf 2c 3c 91 3e f4 b6 4c 3d 19 ae 7f 3f
       -0.9589243 0.2836622 0.049979165 0.99875027
000060 8c 0f 8f be b8 cd 75 3f d1 9c 75 3d 12 8a 7f 3f
       -0.2794155 0.96017027 0.059964005 0.99820054
000070 46 30 28 3f bd ff 40 3f 32 3e 8f 3d 81 5f 7f 3f
       0.6569866 0.75390226 0.06994285 0.997551
000080 95 46 7d 3f f6 fd 14 be 50 aa a3 3d 65 2e 7f 3f
       0.98935825 -0.14550003 0.07991469 0.9968017

positional_encoding_layer_dec.pe f4 [1, 1, 4]
000000 00 00 00 00 00 00 80 3f 00 00 00 00 00 00 80 3f
       0.0 1.0 0.0 1.0

encoder.layers.0.self_attn.in_proj_weight f4 [12, 4]
000000 54 4d 74 3f 13 c6 7a bf f0 19 79 3f 81 35 4d bf
       0.95430493 -0.9795849 0.973052 -0.80159765
000010 9f 38 4a 3e d8 ef 24 be 30 5a 3d bd 27 a9 a8 3f
       0.19748162 -0.16107118 -0.046228588 1.3176621
000020 22 61 b4 3d 88 33 91 3e 83 25 d0 3d c5 3c a1 3f
       0.08807589 0.28359628 0.10163405 1.259667
000030 a4 9b 38 3f b7 53 9d 3e ad 29 0f bd 45 a6 4a 3f
       0.7211249 0.30727932 -0.034951854 0.7915996
000040 fe e8 43 3e 84 4b a9 3f d2 8a e0 bf e9 43 81 be
       0.19131848 1.322617 -1.7542365 -0.25247124
000050 ec 24 69 3e 9c fe 4d 3f c5 6a 46 3e b7 47 54 3f
       0.22767991 0.8046663 0.19376667 0.8292193
000060 32 ab 06 3e b9 dc 05 bf 6b 94 81 3f 5e 0b 5f 3f
       0.13151243 -0.5228992 1.0123419 0.8712672
000070 9f ce 45 be 26 7f 6e 3f 0e ac 13 3e 7a 73 b0 3f
       -0.19317101 0.93162763 0.14421102 1.3785241
000080 a1 c6 63 bf e9 38 45 3f 04 d8 bb bf 73 b4 00 c0
       -0.8897496 0.77039963 -1.4675298 -2.0110137
000090 53 a3 a4 3f ca 9a 0a c0 11 f1 f3 3e c8 dc cb 3f
       1.2862343 -2.1656976 0.47644857 1.5926752
0000a0 25 99 90 bf 90 9a 99 3f 3f c8 19 c0 cf df 16 c0
       -1.1296736 1.2000294 -2.402847 -2.3574102
0000b0 54 d6 3a bf 7d 42 1d 3f 00 f6 a5 bf d4 c4 be bf
       -0.7298329 0.6142958 -1.2965698 -1.4903817

encoder.layers.0.self_attn.in_proj_bias f4 [12]
000000 38 9f 32 be 48 1e 04 3f ad 20 4e 3f ff 53 e8 3e
       -0.1744355 0.51608706 0.8051861 0.45376584
000010 95 b5 88 bc ae 77 3b 3d d0 61 2a bc 48 25 0f bd
       -0.016688148 0.045768432 -0.010399297 -0.034947664
000020 7c 6b a3 bf 52 45 7d 3f 7c ea d8 bf 3e 97 51 bf
       -1.2767177 0.989339 -1.6946559 -0.818714

encoder.layers.0.self_attn.out_proj.weight f4 [4, 4]
000000 d2 c9 7b bf 5a ee 4c bd 8b 1d 0f bf 99 1f 12 bf
       -0.9835483 -0.050031997 -0.55904454 -0.57079464
000010 78 87 09 c0 ed 8e 00 40 39 a8 e6 bf 2b 61 dd bf
       -2.1488934 2.0087235 -1.8020087 -1.7295278
000020 fc 84 29 3f 7a de 11 bf 09 e5 15 3f 32 5f c5 3e
       0.66218543 -0.569801 0.58552605 0.3854919
000030 51 49 31 ba 14 96 fb be 2b 11 23 3f 70 48 d4 3e
       -0.0006762939 -0.49137938 0.6369807 0.41461515

encoder.layers.0.self_attn.out_proj.bias f4 [4]
000000 67 14 8f 3f d4 e1 ce bd ef 02 cf be bb d3 63 bf
       1.1178101 -0.10101667 -0.40431926 -0.8899495

encoder.layers.0.linear1.weight f4 [4, 4]
000000 3d f6 53 bc 3f 15 9c 3d 50 98 38 3e 67 34 bd 3d
       -0.012937126 0.0762124 0.18026853 0.092385106
000010 39 56 72 bf 9c 21 7f bd 67 48 5b be 4b 8a f7 3d
       -0.94662815 -0.06228791 -0.21414338 0.12086924
000020 4e 50 7f bf eb 58 d5 bd ff f6 a7 3e 2a 8a 3e 3f
       -0.9973191 -0.104173504 0.3280563 0.7442957
000030 8c 78 9d bf 40 6b 2c 3f 02 81 3c 3f ab c7 95 bd
       -1.2302413 0.6735115 0.7363435 -0.07313474

encoder.layers.0.linear1.bias f4 [4]
000000 02 58 84 be de ef b8 be 9e ad 96 be 4a 06 c1 be
       -0.25848395 -0.36120504 -0.29429334 -0.3770011

encoder.layers.0.linear2.weight f4 [4, 4]
000000 64 f3 48 3e c8 62 83 bc 9f 30 f7 3e 97 8a 63 3f
       0.19624096 -0.016038314 0.48279282 0.88883346
000010 01 32 90 bd e7 b5 bd be f6 3a 09 bf ad 11 fc 3e
       -0.070407875 -0.37052843 -0.5360559 0.49232236
000020 23 67 37 be 1c 84 0e bf d6 88 0a bf a9 ba 44 bf
       -0.17910437 -0.5567033 -0.54115045 -0.7684732
000030 66 33 ec be ad 00 fb be 72 4b 0b be 12 42 c0 be
       -0.46132964 -0.49023953 -0.13602999 -0.37550408

encoder.layers.0.linear2.bias f4 [4]
000000 23 d6 fb 3e 5f 35 b4 3f 0d 18 59 3e a5 3f 55 bf
       0.4918681 1.4078788 0.21200581 -0.8330024

encoder.layers.0.norm1.weight f4 [4]
000000 32 6d ed 3f cf 91 39 40 10 87 80 3e 65 8e 99 3f
       1.8548949 2.8995245 0.25103045 1.199658

encoder.layers.0.norm1.bias f4 [4]
000000 fa f9 55 3f cf 8d 4d 3f af 75 08 bf a9 03 85 be
       0.8358456 0.8029451 -0.5330457 -0.25979355

encoder.layers.0.norm2.weight f4 [4]
000000 50 19 4c 3f 9b 47 3d 40 e7 48 f9 3e 08 7a a1 3f
       0.79726124 2.9574955 0.48688433 1.2615366

encoder.layers.0.norm2.bias f4 [4]
000000 0d 51 d1 bd 55 9b 1f 40 4a c2 21 bf 5f e7 0d bf
       -0.10220537 2.4938557 -0.63187087 -0.5543117

encoder.layers.1.self_attn.in_proj_weight f4 [12, 4]
000000 85 55 de bd 22 b2 a4 3e 42 ce fe 3e 48 9e ce be
       -0.10856155 0.32167155 0.49766737 -0.40355134
000010 c5 73 31 3e 47 cd 1e bf c5 78 c4 be 3f a0 46 be
       0.17329319 -0.6203198 -0.3837339 -0.19397067
000020 19 40 89 bd 6a b0 42 3f bc 2f 11 be e5 9d 3d 3e
       -0.06701679 0.76050436 -0.14178365 0.18517263
000030 e3 33 a4 3e d3 c1 1f be 77 ce c3 3d 00 76 20 3f
       0.32070836 -0.15601282 0.095608644 0.62680054
000040 9a 26 33 3f 5c 4f 1e be 07 c1 75 be 46 d5 09 bf
       0.69980776 -0.1545996 -0.23999415 -0.53841054
000050 4d c5 3e be 15 cd 83 3f c2 0d ef 3e 33 44 29 3e
       -0.18629952 1.0296961 0.46690184 0.16529922
000060 39 b4 08 3f 0b 51 74 bf 5f d6 4a bc c9 eb 3a 3d
       0.534 -0.9543616 -0.012380212 0.04563502
000070 3e 16 ae be c7 16 cb 3e b4 b6 85 3d 7e 9c 99 3e
       -0.34001344 0.39665815 0.065289885 0.30002207
000080 8a 6c 6d be 2f 87 b6 3e 03 ed 35 be 00 81 84 be
       -0.23185936 0.35650012 -0.17766194 -0.2587967
000090 6d 5b 03 3f 14 18 4e bf ac d9 ed 3e 18 a0 37 3e
       0.5131138 -0.8050549 0.46455133 0.17932165
0000a0 dd b9 81 3f fe bf 63 be 06 0c 4d bf 7b 2c 07 bf
       1.0134846 -0.22241208 -0.8009647 -0.52802247
0000b0 99 a6 d1 3f 4a 21 35 3f 72 80 4b bf 02 eb f3 bf
       1.6378967 0.7075392 -0.79492867 -1.9056094

encoder.layers.1.self_attn.in_proj_bias f4 [12]
000000 69 80 f1 bd c5 e5 57 be 97 26 80 be 55 1a 3e be
       -0.117920704 -0.21083744 -0.25029442 -0.18564732
000010 1d 2d e1 bc 3c 24 b0 3c 82 9f dd 3c 0e 5c 62 3c
       -0.027487332 0.021501653 0.027053598 0.013815893
000020 43 e8 ea bd f0 72 dd bc 60 bb b7 3d bc 0d 6d 3f
       -0.11470082 -0.027032346 0.08971286 0.9259908

encoder.layers.1.self_attn.out_proj.weight f4 [4, 4]
000000 31 e8 10 3f fa 41 26 bf 26 b3 fe be cd 38 21 bf
       0.56604296 -0.6494442 -0.49746054 -0.62977296
000010 cc d0 30 c0 ca de 3d bf 3d 39 38 40 bb 4a 3e 40
       -2.762744 -0.74168074 2.8784935 2.9733112
000020 25 f5 9f 3d 01 ac 32 3f 5d 64 1d bf 9a ff 94 bf
       0.078104295 0.6979371 -0.6148127 -1.1640503
000030 8a 42 ec 3e 68 ad c6 3d 23 61 fe be e4 35 28 bf
       0.46144515 0.09701043 -0.49683484 -0.6570723

encoder.layers.1.self_attn.out_proj.bias f4 [4]
000000 a1 e2 27 be 60 5e 1b 40 fd 52 eb be 17 3f 42 bf
       -0.16395046 2.4276352 -0.45961753 -0.7587752

encoder.layers.1.linear1.weight f4 [4, 4]
000000 b7 3f 32 bc 16 01 0b be a7 02 88 be 8b 5d ea 3e
       -0.010879449 -0.13574633 -0.26564524 0.45774493
000010 33 8c af be 8f ee 83 3f 81 58 6c bf ac aa 63 bf
       -0.3428665 1.0307177 -0.92322546 -0.889323
000020 a0 fe 20 bd c7 f5 fb bd 73 d6 7c 3d b8 23 71 3e
       -0.03930533 -0.12302738 0.061727952 0.23548782
000030 e8 d5 44 bf 9e c2 39 3f 3c f9 36 3f 60 12 55 bf
       -0.76888895 0.7256259 0.7147405 -0.83231163

encoder.layers.1.linear1.bias f4 [4]
000000 b7 a4 36 bf dd e3 08 3f ec ff a6 be c7 ff 3f 3d
       -0.71345085 0.5347269 -0.32617128 0.046874788

encoder.layers.1.linear2.weight f4 [4, 4]
000000 74 ba b5 3e 8a 26 f3 3e 08 25 b2 bd 5f 3b 72 3f
       0.35493815 0.4749034 -0.086984694 0.94621843
000010 54 06 06 be a6 bc 37 40 53 ae ce bd 3b 78 16 40
       -0.13088351 2.8708892 -0.100918435 2.3510883
000020 cf 10 f8 be 3d 08 58 bf e3 26 94 be 47 8e 29 bf
       -0.48450324 -0.8438757 -0.28935918 -0.66232723
000030 54 e5 f5 be 0d 4f 51 bf de 42 f9 3d c7 88 38 be
       -0.48026526 -0.81761247 0.12170957 -0.18020926

encoder.layers.1.linear2.bias f4 [4]
000000 15 ed 7f 3f 9f 39 36 40 c2 b5 2a bf a5 9a 0f 3e
       0.99971133 2.847267 -0.6668359 0.14023836

encoder.layers.1.norm1.weight f4 [4]
000000 4b 5e 86 be 0c 6f 81 40 9c 30 97 3f 99 43 77 3f
       -0.26243815 4.0448055 1.181171 0.9658752

encoder.layers.1.norm1.bias f4 [4]
000000 ed 8d 8c 3e b9 8c 65 40 bf 5e 65 bf 26 75 03 bf
       0.2745203 3.586714 -0.89597696 -0.5135063

encoder.layers.1.norm2.weight f4 [4]
000000 58 e1 a3 bd b4 0d 06 3e d3 7c a9 3e 76 14 b1 3e
       -0.08001965 0.13091165 0.33103046 0.34585923

encoder.layers.1.norm2.bias f4 [4]
000000 4b 3d 1e 3c ab e4 60 be d9 d1 a0 3e 99 87 6a 3e
       0.009658168 -0.2196223 0.314101 0.22903289

decoder.layers.0.self_attn.in_proj_weight f4 [12, 4]
000000 f8 90 f1 bd b4 3d f6 bd d8 ac 0c bf df 5b 07 bf
       -0.11795229 -0.12023488 -0.5495124 -0.5287456
000010 38 3f c4 bd 00 c0 01 3c 52 6e 8e be 70 37 6c 3e
       -0.095823705 0.0079193115 -0.27818543 0.23068023
000020 8a 19 0d bf d0 46 29 bd 3f dd 09 3f ce c6 7f be
       -0.55117095 -0.041327298 0.5385322 -0.24978182
000030 b9 8f 0d 3f 74 18 63 3e f6 79 0d bf 60 5f c6 3e
       0.5529743 0.22177297 -0.5526422 0.3874464
000040 80 b8 90 bd cb f6 8b be 12 b8 fa 3e ab 5d fd be
       -0.070664406 -0.27336726 0.4896856 -0.49485525
000050 48 93 86 3d e8 49 03 be 2a e6 df 3e 00 0b 2f 3e
       0.065710604 -0.12821162 0.4373029 0.1709404
000060 b4 a7 96 3e 88 74 5d 3e 58 cb 16 be 48 e0 03 be
       0.29424822 0.21626484 -0.14726007 -0.12878525
000070 66 30 01 bf 0e e3 a9 3e 8e f0 f8 3e 3a 87 d6 3e
       -0.50464475 0.3318104 0.4862103 0.41900045
000080 a2 ad cb 3e 8a 76 b9 3e e2 9a 7e bd 69 eb 4f 3e
       0.3978091 0.3622325 -0.062159427 0.20304646
000090 7a 7a 4f bf 16 fb 73 3f 81 e5 84 be b9 24 77 bf
       -0.8104626 0.95305 -0.25956348 -0.9654041
0000a0 07 71 9d bf 80 aa 66 c0 c3 24 56 be 1b 6b 82 3f
       -1.2300118 -3.6041565 -0.20912461 1.0188936
0000b0 ac 0e a4 3c 93 34 0c bd 3b 02 aa bb 8e 74 97 bb
       0.020026527 -0.034229826 -0.005188254 -0.0046220487

decoder.layers.0.self_attn.in_proj_bias f4 [12]
000000 00 00 00 00 00 00 00 00 00 00 00 00 00 00 00 00
       0.0 0.0 0.0 0.0
000010 00 00 00 00 00 00 00 00 00 00 00 00 00 00 00 00
       0.0 0.0 0.0 0.0
000020 7f 99 10 be f8 b1 12 bf 7e 3b 20 bf 6a 7d 95 bb
       -0.14121054 -0.5730281 -0.6259078 -0.0045620697

decoder.layers.0.self_attn.out_proj.weight f4 [4, 4]
000000 62 bc a0 3c b6 6d 95 3e 4f e6 10 3e fd 71 1d 3c
       0.019621078 0.29185265 0.14150356 0.009609696
000010 2a aa 65 be d5 3b 64 be cf d7 b6 3d 26 2d 91 3b
       -0.22428194 -0.22288449 0.08927881 0.004430431
000020 dc fc f0 bd 4b 04 22 be 2b 41 c0 bb 12 0f 53 3c
       -0.11766979 -0.1582195 -0.0058671436 0.012882011
000030 49 37 0b be 4f db 34 3e cf e1 7f bd 36 c6 68 bc
       -0.13595308 0.17661785 -0.062471207 -0.014207413

decoder.layers.0.self_attn.out_proj.bias f4 [4]
000000 fc 35 fb bc 1a 0d be bf 38 e7 1c bc 8a a0 9e 3c
       -0.03066539 -1.4847748 -0.009576611 0.01936366

decoder.layers.0.multihead_attn.in_proj_weight f4 [12, 4]
000000 5c 64 52 be e0 b8 b9 bd 80 7d db 3b 8b 4d 01 3f
       -0.20546097 -0.09068465 0.0066983104 0.50508946
000010 b0 90 9c 3d 57 6a 0c 3f 08 cb bf 3e 94 38 c6 be
       0.076447845 0.5484976 0.37459588 -0.3871504
000020 20 9f 8c 3e ee a2 dd be 47 e2 84 be 74 6f 38 3e
       0.27465153 -0.43288368 -0.25953886 0.18011266
000030 a8 0d 4f 3e f6 38 eb 3e 14 dd 49 be 00 7e 80 3a
       0.20220053 0.45941895 -0.19713241 0.0009803176
000040 40 6a a1 3e c5 9b 17 bf f6 ad e2 3e 6a a2 01 bf
       0.31526375 -0.5922206 0.44273347 -0.5063845
000050 00 48 0a 3c 80 39 d5 bd 58 21 a5 be c8 c2 a5 3d
       0.008440018 -0.10411358 -0.32252002 0.08093792
000060 45 a2 01 3f fc 4d 37 be ca 24 ba be 24 ea 67 be
       0.5063823 -0.17900842 -0.36356193 -0.22647911
000070 34 61 1b bf 16 87 8d 3e 4f 94 96 be fe 3b d1 be
       -0.60695195 0.27642125 -0.29410025 -0.40866083
000080 c1 44 e0 bc 39 b6 8d bc 37 44 d8 ba 72 8a 2a 3c
       -0.027376534 -0.017298805 -0.0016499822 0.0104089845
000090 ad 1e 97 3b d4 5c be 3c 96 d7 47 bb 5e 14 0e 3b
       0.004611811 0.023237623 -0.003049349 0.002167962
0000a0 fc 5d 3c 3d 83 48 30 3c 56 ec 7d 3d f9 0f b4 bb
       0.045988068 0.010759476 0.061992966 -0.005495068
0000b0 05 16 f5 bc a3 e0 16 bc a6 3e 44 bd 0e 7b c1 3c
       -0.029917726 -0.009208831 -0.04791131 0.023618247

decoder.layers.0.multihead_attn.in_proj_bias f4 [12]
000000 00 00 00 00 00 00 00 00 00 00 00 00 00 00 00 00
       0.0 0.0 0.0 0.0
000010 00 00 00 00 00 00 00 00 00 00 00 00 00 00 00 00
       0.0 0.0 0.0 0.0
000020 89 42 97 ba 0f 61 20 bc 88 d2 a6 38 66 52 1b bb
       -0.0011540215 -0.009788766 7.954711e-05 -0.0023700236

decoder.layers.0.multihead_attn.out_proj.weight f4 [4, 4]
000000 08 b9 ec ba 00 99 dd 36 ee d9 21 3b bd c2 96 bc
       -0.0018060515 6.604125e-06 0.0024696547 -0.018403405
000010 d7 a5 12 bc 22 85 c3 bb 17 47 37 bc 50 6b 93 bc
       -0.008950672 -0.0059667984 -0.011186383 -0.017995507
000020 57 22 7e bc fc eb b8 bc 5c d9 10 b9 f7 ce d5 bc
       -0.015511117 -0.022573464 -0.00013813883 -0.026099665
000030 93 5f d2 ba aa ef cf bb f6 02 6f ba 3d 45 ee bc
       -0.0016050212 -0.006345709 -0.00091175677 -0.02908575

decoder.layers.0.multihead_attn.out_proj.bias f4 [4]
000000 b2 3f 5c bb 94 8b c5 3c b4 28 18 bc 1a a5 2f 3c
       -0.0033607301 0.024114408 -0.009287048 0.010720516

decoder.layers.0.linear1.weight f4 [4, 4]
000000 5e 79 99 3f c0 0c 5f bf 3b 40 da 3e 03 d7 04 c0
       1.1990163 -0.8712883 0.4262713 -2.0756233
000010 0c 1a 84 3f 3b 45 07 c0 be 7a 78 3e 82 4c 30 3f
       1.0320449 -2.1136005 0.24265572 0.6886674
000020 db b3 57 3f 2f cc 7e be 04 b1 32 3f c8 ee bf bf
       0.8425881 -0.24882577 0.69801354 -1.4994745
000030 74 c6 95 3f da a1 4b c0 27 8f e2 3e db 5c 2e 3f
       1.1701188 -3.1817536 0.44249842 0.68110436

decoder.layers.0.linear1.bias f4 [4]
000000 ad ed d7 bc 22 f7 21 bf 19 da 85 bf ee 86 a2 be
       -0.02635845 -0.6326772 -1.0457183 -0.31743568

decoder.layers.0.linear2.weight f4 [4, 4]
000000 67 60 1f 3e 41 2b fb bd 10 d6 23 3e c9 fa 1f be
       0.15564118 -0.122641094 0.15999627 -0.1562301
000010 00 04 a0 bf b6 ca 28 40 fe be 85 bf d1 36 c9 3f
       -1.2501221 2.6373725 -1.0448911 1.5719854
000020 67 f2 31 3f 41 05 28 3e 3a 02 24 3f 15 5f 68 ba
       0.695105 0.16408254 0.640659 -0.0008864266
000030 bc f2 3e bf af f6 55 3e b8 47 a9 be a8 ed 87 3d
       -0.74589133 0.20894884 -0.3306253 0.06637126

decoder.layers.0.linear2.bias f4 [4]
000000 a4 57 25 3d 41 85 e9 be 00 8e 1a b7 1d ce 71 3b
       0.040366784 -0.45609477 -9.212177e-06 0.0036896535

decoder.layers.0.norm1.weight f4 [4]
000000 f4 bf 0c 40 37 7f c1 3f e3 24 00 40 89 8c 13 40
       2.199216 1.5116948 2.0022514 2.3054526

decoder.layers.0.norm1.bias f4 [4]
000000 c9 7c 0d c0 d1 e9 3d 3e c0 75 94 3f 45 30 20 bf
       -2.2107413 0.18546225 1.1598434 -0.62573653

decoder.layers.0.norm2.weight f4 [4]
000000 68 df 21 40 54 59 72 3f e9 86 22 40 3a 59 30 40
       2.5292606 0.94667554 2.5394843 2.755446

decoder.layers.0.norm2.bias f4 [4]
000000 23 c0 e1 bf 0b cc 17 3e 2c 83 bc 3e c7 5b c1 bf
       -1.763676 0.1482393 0.36818826 -1.5106133

decoder.layers.0.norm3.weight f4 [4]
000000 b0 77 5f 40 4c de 76 3d bc 2e 3a 40 6d 6f 22 40
       3.4916801 0.060270593 2.9091024 2.538051

decoder.layers.0.norm3.bias f4 [4]
000000 a0 6b 37 3f 48 32 23 bf dd d4 26 bf 9a e2 94 bf
       0.716486 -0.637486 -0.65168554 -1.1631653

decoder.layers.1.self_attn.in_proj_weight f4 [12, 4]
000000 f8 90 f1 bd b4 3d f6 bd d8 ac 0c bf df 5b 07 bf
       -0.11795229 -0.12023488 -0.5495124 -0.5287456
000010 38 3f c4 bd 00 c0 01 3c 52 6e 8e be 70 37 6c 3e
       -0.095823705 0.0079193115 -0.27818543 0.23068023
000020 8a 19 0d bf d0 46 29 bd 3f dd 09 3f ce c6 7f be
       -0.55117095 -0.041327298 0.5385322 -0.24978182
000030 b9 8f 0d 3f 74 18 63 3e f6 79 0d bf 60 5f c6 3e
       0.5529743 0.22177297 -0.5526422 0.3874464
000040 80 b8 90 bd cb f6 8b be 12 b8 fa 3e ab 5d fd be
       -0.070664406 -0.27336726 0.4896856 -0.49485525
000050 48 93 86 3d e8 49 03 be 2a e6 df 3e 00 0b 2f 3e
       0.065710604 -0.12821162 0.4373029 0.1709404
000060 b4 a7 96 3e 88 74 5d 3e 58 cb 16 be 48 e0 03 be
       0.29424822 0.21626484 -0.14726007 -0.12878525
000070 66 30 01 bf 0e e3 a9 3e 8e f0 f8 3e 3a 87 d6 3e
       -0.50464475 0.3318104 0.4862103 0.41900045
000080 9f ac 80 bc ce 60 73 be 44 61 2f bc 89 85 bf bb
       -0.015707312 -0.23767397 -0.010704342 -0.005844776
000090 6d ff a9 3c 83 e0 fe be a6 86 c6 3b 82 83 de bc
       0.02075168 -0.49780664 0.006058532 -0.027162317
0000a0 b1 e9 08 bd 84 bf 0c bf 16 6a 06 bd 4b 29 66 bc
       -0.03342599 -0.5497973 -0.032816015 -0.014047931
0000b0 07 11 9e 3c 6e 29 a9 be 7e 25 0c 3c 17 f2 c7 bc
       0.019295229 -0.3303942 0.008553861 -0.02440743

decoder.layers.1.self_attn.in_proj_bias f4 [12]
000000 00 00 00 00 00 00 00 00 00 00 00 00 00 00 00 00
       0.0 0.0 0.0 0.0
000010 00 00 00 00 00 00 00 00 00 00 00 00 00 00 00 00
       0.0 0.0 0.0 0.0
000020 0f 1e 4e be 05 eb 72 be 92 7e da be ef ad 08 be
       -0.20128654 -0.23722465 -0.4267469 -0.133476

decoder.layers.1.self_attn.out_proj.weight f4 [4, 4]
000000 65 3b d5 3b 4d e0 93 b9 a1 fd 33 3b 6a 38 61 3b
       0.0065073245 -0.00028205142 0.0027464407 0.00343659
000010 2c c3 67 3d 41 a8 2c 3d 74 a2 84 3b 10 37 ea 3c
       0.056582615 0.042152647 0.0040476862 0.028590709
000020 ab 20 07 bc 84 44 e7 bb 45 3b e7 bb 1c ab aa 3a
       -0.008247535 -0.0070577282 -0.007056626 0.0013020965
000030 40 94 47 3c b8 99 b2 3c dc 27 8e bc 76 98 c4 3c
       0.012181342 0.021801814 -0.01735299 0.02399848

decoder.layers.1.self_attn.out_proj.bias f4 [4]
000000 c6 24 e1 3b c1 dc 68 3c ef 27 c4 3b 67 e4 e4 3c
       0.006870839 0.014212788 0.005986206 0.027940942

decoder.layers.1.multihead_attn.in_proj_weight f4 [12, 4]
000000 5c 64 52 be e0 b8 b9 bd 80 7d db 3b 8b 4d 01 3f
       -0.20546097 -0.09068465 0.0066983104 0.50508946
000010 b0 90 9c 3d 57 6a 0c 3f 08 cb bf 3e 94 38 c6 be
       0.076447845 0.5484976 0.37459588 -0.3871504
000020 20 9f 8c 3e ee a2 dd be 47 e2 84 be 74 6f 38 3e
       0.27465153 -0.43288368 -0.25953886 0.18011266
000030 a8 0d 4f 3e f6 38 eb 3e 14 dd 49 be 00 7e 80 3a
       0.20220053 0.45941895 -0.19713241 0.0009803176
000040 40 6a a1 3e c5 9b 17 bf f6 ad e2 3e 6a a2 01 bf
       0.31526375 -0.5922206 0.44273347 -0.5063845
000050 00 48 0a 3c 80 39 d5 bd 58 21 a5 be c8 c2 a5 3d
       0.008440018 -0.10411358 -0.32252002 0.08093792
000060 45 a2 01 3f fc 4d 37 be ca 24 ba be 24 ea 67 be
       0.5063823 -0.17900842 -0.36356193 -0.22647911
000070 34 61 1b bf 16 87 8d 3e 4f 94 96 be fe 3b d1 be
       -0.60695195 0.27642125 -0.29410025 -0.40866083
000080 e5 cb b0 3c 18 b5 a5 ba 13 56 49 3d fa 20 84 bd
       0.0215816 -0.0012642471 0.049154352 -0.06451602
000090 12 61 16 bb 4c ad 01 bc b2 65 48 3d 41 65 35 bd
       -0.0022946042 -0.007914852 0.04892511 -0.044286016
0000a0 bb 5f c2 3c 8e 9f 4f 3c 5b fc cd 3b 75 1d 03 3d
       0.023727288 0.012672318 0.0062861866 0.032010514
0000b0 ab 27 46 3d f5 28 76 3b 9e 3a 0d 3d 09 9a f6 3b
       0.048377674 0.0037561033 0.03447973 0.0075256866

decoder.layers.1.multihead_attn.in_proj_bias f4 [12]
000000 00 00 00 00 00 00 00 00 00 00 00 00 00 00 00 00
       0.0 0.0 0.0 0.0
000010 00 00 00 00 00 00 00 00 00 00 00 00 00 00 00 00
       0.0 0.0 0.0 0.0
000020 91 29 00 3c ab 57 21 3c d5 ae a4 bb f7 63 33 3a
       0.00782241 0.009847562 -0.0050257244 0.0006843204

decoder.layers.1.multihead_attn.out_proj.weight f4 [4, 4]
000000 4e d6 15 3d f6 49 47 3d fd 8b 86 bc 8f 32 d1 bc
       0.03658133 0.04865452 -0.016424173 -0.025536804
000010 0b b6 84 3d 3c 06 88 3d 2a 57 4f bd b2 8d e9 bc
       0.064800344 0.06641814 -0.050620236 -0.028509948
000020 a9 b8 70 3d e8 00 91 3d 20 11 70 bc 04 07 c6 bc
       0.058769856 0.07080251 -0.01465252 -0.024173267
000030 f5 33 12 3d 63 15 2c 3d a7 24 05 bc a4 43 7e bc
       0.03569408 0.042012583 -0.008126414 -0.0155190565

decoder.layers.1.multihead_attn.out_proj.bias f4 [4]
000000 b7 d8 0a 3d 9d 2e 7a bc e4 05 9a bb 5d 52 b5 bc
       0.03389808 -0.015269903 -0.0047004092 -0.022134

decoder.layers.1.linear1.weight f4 [4, 4]
000000 53 b0 82 3e c1 c9 08 bf 44 2a 93 3d f9 a0 6f 3d
       0.2552515 -0.5343285 0.07185796 0.058503125
000010 69 21 08 3f 47 6a 90 bf 80 05 de 3d 8c 6c 3d 3e
       0.5317598 -1.1282433 0.10840893 0.18498439
000020 7f 99 41 3e a1 f5 c5 3d e4 cc 0c 3e 7a 3e 85 3d
       0.1890621 0.096659906 0.13750035 0.06506057
000030 50 fd f4 3e 18 62 92 bf 48 92 51 be 63 7e 86 3e
       0.47849512 -1.1436186 -0.20465958 0.262683

decoder.layers.1.linear1.bias f4 [4]
000000 f6 ff 95 be 70 40 12 bf b6 96 e1 be c2 39 62 bf
       -0.29296845 -0.57129574 -0.44060296 -0.8836938

decoder.layers.1.linear2.weight f4 [4, 4]
000000 95 20 de 3d 68 df 1a 3e ea 35 82 bd 91 1a 71 3e
       0.10846058 0.15124285 -0.063579395 0.2354529
000010 d9 d8 6a be 0a 36 fe bc 11 4a 62 bd 3f 94 21 be
       -0.22934283 -0.031031627 -0.055246416 -0.15779208
000020 5a d2 da 3e b2 1d 8e be 77 6e 3a 3e cc 1a b8 bc
       0.4273861 -0.2775703 0.18206201 -0.022473715
000030 2d 6d da 3e 6e 70 7d be ba f0 16 be be 3d ae be
       0.4266142 -0.2474992 -0.14740267 -0.3403148

decoder.layers.1.linear2.bias f4 [4]
000000 f3 ff 3b 3c b0 a5 02 bd 32 d0 62 3c 34 64 31 3d
       0.011474597 -0.031896293 0.013843583 0.04330845

decoder.layers.1.norm1.weight f4 [4]
000000 a2 3d 40 40 f9 c6 0c 3f 1b 8a 2f 40 41 2e 63 40
       3.0037618 0.5499111 2.7428043 3.549698

decoder.layers.1.norm1.bias f4 [4]
000000 86 d2 2c 3f 30 dc 87 be 0b 4e 8d bf b7 62 cb bf
       0.67508733 -0.26535177 -1.1039442 -1.58895

decoder.layers.1.norm2.weight f4 [4]
000000 5a 3f 34 40 e0 38 a2 3f a0 33 8c 3f a8 ec 92 40
       2.8163667 1.2673607 1.0953255 4.5913887

decoder.layers.1.norm2.bias f4 [4]
000000 f2 1a 25 be b5 8a 5f 3f af f6 60 bf 9a 27 9d bf
       -0.1612356 0.87321025 -0.8787641 -1.227771

decoder.layers.1.norm3.weight f4 [4]
000000 cd 75 99 3f be ad 3e 3a 82 45 5f 3c 0e e8 3c bb
       1.1989075 0.00072738144 0.013627412 -0.0028824839

decoder.layers.1.norm3.bias f4 [4]
000000 3b 78 e1 3e 16 ca 8f bb 76 54 bb bc 98 98 60 3c
       0.4403704 -0.004388104 -0.022867423 0.013708256

linear_mapping.weight f4 [1, 4]
000000 f3 9d 21 bf 97 4f 57 bb 60 50 a0 bc e1 25 de bb
       -0.63131636 -0.0032853836 -0.019569576 -0.006779418

linear_mapping_with_gender_ind.weight f4 [1, 5]
000000 10 ba 64 3d c3 01 b4 be f8 f4 0f 3d a0 8e 9e 3e
       0.055841506 -0.35157594 0.03514573 0.3096819
000010 c0 54 ce 3e
       0.40299034

exp_avg f4 [4, 5]
000000 08 39 07 b1 38 65 15 b1 9e 6c 0b b1 08 47 08 b1
       -1.9677504e-09 -2.173989e-09 -2.0288904e-09 -1.9830981e-09
000010 95 45 0f b1 2a d1 77 b1 90 5b 81 b1 07 bc 84 b1
       -2.0848792e-09 -3.6062127e-09 -3.7648036e-09 -3.863082e-09
000020 d0 c1 7e b1 a1 a8 72 b1 82 19 b3 b0 6c 49 18 b0
       -3.7072034e-09 -3.531149e-09 -1.3031214e-09 -5.5401617e-10
000030 ec 57 bb b0 08 6e e0 b0 2a 0d 80 b0 51 0d 95 31
       -1.363103e-09 -1.6329418e-09 -9.316967e-10 4.3379846e-09
000040 b0 28 7a 31 0d 5f 97 31 78 18 95 31 7c f2 8b 31
       3.6402916e-09 4.4054844e-09 4.3392525e-09 4.0729997e-09

exp_avg_sq f4 [4, 5]
000000 c0 a4 19 27 b8 ff d7 26 65 e0 60 27 e1 9d 53 27
       2.1322326e-15 1.4987935e-15 3.120789e-15 2.9367719e-15
000010 2c 84 84 27 97 2f 90 2a cb c7 94 2a 26 2c 96 2a
       3.678066e-15 2.561256e-13 2.6428715e-13 2.6675987e-13
000020 dd bf 98 2a 5f c2 9f 2a 36 7f da 29 06 f0 e2 29
       2.7133756e-13 2.8378946e-13 9.7032124e-14 1.00780536e-13
000030 c4 c5 cf 29 82 b2 da 29 4f 7a e9 29 f0 b6 d7 29
       9.2269535e-14 9.712111e-14 1.0368496e-13 9.5796526e-14
000040 88 c3 e0 29 d0 5d df 29 29 39 e4 29 ca 1e ed 29
       9.9815176e-14 9.919463e-14 1.013515e-13 1.0530255e-13

exp_avg f4 [4]
000000 2c 9a 68 30 20 bd c5 30 e2 1c 54 30 5c 62 22 b1
       8.46202e-10 1.4387389e-09 7.7166196e-10 -2.3630014e-09

exp_avg_sq f4 [4]
000000 70 30 3c 26 94 72 cf 29 34 1a 14 29 ea 42 1b 29
       6.529125e-16 9.212523e-14 3.288533e-14 3.4474952e-14

exp_avg f4 [4, 1]
000000 8b 02 8f bd 7e f7 4d bd 48 f8 d0 3d 60 6f 4a 3d
       -0.06982907 -0.050284855 0.10203606 0.04942262

exp_avg_sq f4 [4, 1]
000000 92 de 32 3c ad 59 62 3c 20 8b 8d 3c 7d 4f 8b 3c
       0.010917323 0.013815326 0.017278254 0.017005676

exp_avg f4 [4]
000000 65 6b eb 3c dc 9b 9b 3c 29 03 39 bd b4 27 97 bc
       0.028737733 0.018995218 -0.04516903 -0.01845155

exp_avg_sq f4 [4]
000000 21 9c ed 3a e4 5a 1b 3b 8f 06 82 3b 8f 62 3b 3b
       0.0018128195 0.0023705298 0.003968067 0.002859268

exp_avg f4 [12, 4]
000000 5d 8e b4 b2 30 4d 96 31 de 51 4a b1 98 8f 39 b2
       -2.1019497e-08 4.3743498e-09 -2.9441405e-09 -1.0801067e-08
000010 ad d1 7b b1 2c 0c d2 31 c6 17 72 b1 32 78 9f b0
       -3.6644494e-09 6.113188e-09 -3.5229148e-09 -1.1602934e-09
000020 96 60 04 32 a8 be 2a 31 8b ff 91 b0 cc 32 93 31
       7.705372e-09 2.4846631e-09 -1.0622768e-09 4.284038e-09
000030 c3 82 42 31 f6 c6 a8 b0 87 0a c4 30 d5 cd 28 31
       2.8305045e-09 -1.2280157e-09 1.4263869e-09 2.456422e-09
000040 22 59 22 b3 39 a8 a7 b1 73 c2 33 31 81 74 94 2e
       -3.779963e-08 -4.8794644e-09 2.615846e-09 6.750956e-11
000050 e7 d0 9a b2 f6 ed c0 b0 1f 70 0c 32 41 92 03 30
       -1.8022957e-08 -1.4037471e-09 8.174566e-09 4.786536e-10
000060 5c c6 25 b2 06 1d 19 b0 b3 59 ff 31 fa 96 2d 30
       -9.649366e-09 -5.570232e-10 7.4316744e-09 6.3151584e-10
000070 82 9a 6c b2 40 1b ad b0 d8 d2 35 32 d7 6b fa 2f
       -1.3772139e-08 -1.2595152e-09 1.0583527e-08 4.555136e-10
000080 20 8a 3b 2f da d0 13 af 9c e5 70 2d 4e b8 04 2f
       1.7056623e-10 -1.3443771e-10 1.3693404e-11 1.2070808e-10
000090 ac ad 82 2f e9 b4 04 b0 64 20 36 2f ca 21 6a 2f
       2.3770264e-10 -4.827841e-10 1.6564311e-10 2.129418e-10
0000a0 f0 b1 f2 af 48 67 a9 2e ef 3c 92 af ac 90 5f af
       -4.4145976e-10 7.703577e-11 -2.660054e-10 -2.033313e-10
0000b0 f5 e5 81 af 64 cb 4a ad 4c 43 50 af bc d7 f0 ae
       -2.3628358e-10 -1.1527532e-11 -1.8941398e-10 -1.09522585e-10

exp_avg_sq f4 [12, 4]
000000 df 21 fa 27 54 aa f2 27 d5 64 76 27 4d 88 32 27
       6.9425662e-15 6.7353163e-15 3.419402e-15 2.4776351e-15
000010 79 9f 2e 29 fa 24 e8 28 b0 db b0 28 9f 27 75 28
       3.8774082e-14 2.577321e-14 1.96352e-14 1.36088235e-14
000020 69 67 11 29 86 54 e7 28 2c 1f 97 28 45 b1 4f 28
       3.2286162e-14 2.5682808e-14 1.6777886e-14 1.15292475e-14
000030 ab e5 06 29 79 fa 19 29 21 c7 98 28 e3 25 4a 28
       2.9953182e-14 3.4190075e-14 1.6961748e-14 1.1221468e-14
000040 fb cf 20 2b 4c 99 98 2b 83 71 61 2b 06 ca 1c 2b
       5.713205e-13 1.0842798e-12 8.0093587e-13 5.5702697e-13
000050 e6 90 34 2a 74 da c4 2a 52 6c 92 2a be 6f 4b 2a
       1.6037483e-13 3.4968176e-13 2.6009972e-13 1.806879e-13
000060 b8 34 a3 29 45 54 5b 2a 80 6e 24 2a d6 55 e4 29
       7.2477994e-14 1.9480344e-13 1.4604463e-13 1.0140124e-13
000070 68 ef c9 29 66 ef 8c 2a d8 ce 53 2a 01 f2 12 2a
       8.9677235e-14 2.5035112e-13 1.8812328e-13 1.3051367e-13
000080 8e 32 26 24 8b 31 c5 23 82 20 80 23 f6 df 37 23
       3.6038334e-17 2.1379765e-17 1.3891555e-17 9.9678755e-18
000090 d1 c2 0e 25 24 f0 a3 24 3c b6 77 24 54 de 1f 24
       1.2382543e-16 7.1096796e-17 5.3713946e-17 3.4665948e-17
0000a0 3c e3 38 24 04 57 d4 23 ff a1 a0 23 38 67 4c 23
       4.0091115e-17 2.3021939e-17 1.7415843e-17 1.10807196e-17
0000b0 e1 4d 1d 24 60 0d b9 23 96 84 84 23 84 2b 2e 23
       3.4109914e-17 2.0063405e-17 1.4367621e-17 9.441774e-18

exp_avg f4 [12]
000000 dd 88 d2 b0 da 8e a9 af b4 26 11 30 aa ac 6e 2f
       -1.531841e-09 -3.0842423e-10 5.2805693e-10 2.1707316e-10
000010 b8 51 ec 27 5c bc e9 26 28 df dd 26 2c 5d ba 26
       6.559176e-15 1.6218678e-15 1.5395442e-15 1.2931597e-15
000020 1a 37 3f 2d d7 09 16 2e d6 d0 e5 ad 09 16 76 ad
       1.0869328e-11 3.411479e-11 -2.6127028e-11 -1.3988374e-11

exp_avg_sq f4 [12]
000000 5a db a8 24 b7 a8 00 26 d8 bd d4 25 49 22 c4 25
       7.322998e-17 4.463757e-16 3.690478e-16 3.4023813e-16
000010 12 70 2d 14 f4 07 fe 0f 84 ee 29 13 7b 2e 2c 13
       8.75637e-27 2.5049397e-29 2.1448396e-27 2.1732369e-27
000020 5a f0 b5 20 63 6e a4 21 bc ac d9 20 ff c5 b2 20
       3.0821644e-19 1.1142291e-18 3.6875536e-19 3.0285396e-19

exp_avg f4 [4, 4]
000000 10 99 27 30 01 91 ca b0 79 1a 6d 30 46 a6 fc 2f
       6.097176e-10 -1.4738647e-09 8.625772e-10 4.5956677e-10
000010 20 77 f4 ac 06 0a 06 2f e2 ae 2e ae 48 e1 60 ac
       -6.9481226e-12 1.219079e-10 -3.9718347e-11 -3.195737e-12
000020 a4 e6 93 2e 4a 83 3e b0 49 51 cd 2e d8 73 25 2e
       6.725756e-11 -6.930817e-10 9.33676e-11 3.7619546e-11
000030 cf b0 28 31 52 02 17 b1 ac 3a 62 31 2f f8 07 31
       2.4547722e-09 -2.197471e-09 3.292068e-09 1.9786162e-09

exp_avg_sq f4 [4, 4]
000000 bf fa 26 26 94 c9 51 26 e7 3b 9f 26 ca 0e d9 25
       5.7932644e-16 7.278463e-16 1.1049078e-15 3.765352e-16
000010 1e 80 da 25 68 8a 10 26 7b e7 51 26 c8 59 8e 25
       3.7903787e-16 5.014761e-16 7.2825156e-16 2.4693912e-16
000020 99 6b 44 24 ae df 65 24 6c 2f b3 24 8f 84 fb 23
       4.2591864e-17 4.9845924e-17 7.770921e-17 2.7269615e-17
000030 c1 47 f1 24 ae f4 07 25 67 7d 62 25 91 7d 9b 24
       1.04638645e-16 1.1792284e-16 1.9644863e-16 6.743325e-17

exp_avg f4 [4]
000000 06 90 d0 30 7d 7d a2 30 c4 0a 09 30 54 29 b2 b1
       1.5174926e-09 1.1822717e-09 4.985561e-10 -5.1851803e-09

exp_avg_sq f4 [4]
000000 9f 56 a7 24 bd b0 b5 24 c4 8d 0f 24 e4 f1 71 25
       7.257145e-17 7.8795644e-17 3.1128262e-17 2.0985374e-16

exp_avg f4 [4, 4]
000000 04 00 00 80 04 00 00 00 04 00 00 80 04 00 00 80
       -6e-45 6e-45 -6e-45 -6e-45
000010 a4 d2 ef 2d ad e5 bb 2e ed c4 e3 2c 95 7e a0 ac
       2.7264697e-11 8.544574e-11 6.473591e-12 -4.561527e-12
000020 89 19 40 ac 08 38 1c ae 58 a9 49 ac 0a 54 01 2d
       -2.7299016e-12 -3.552006e-11 -2.8657823e-12 7.3514615e-12
000030 0a 3b 0b b1 f7 89 0b b2 86 97 8c 30 dd e5 3b 31
       -2.0260722e-09 -8.122234e-09 1.0229406e-09 2.7342744e-09

exp_avg_sq f4 [4, 4]
000000 19 00 00 00 19 00 00 00 19 00 00 00 19 00 00 00
       3.5e-44 3.5e-44 3.5e-44 3.5e-44
000010 3e 26 54 21 17 16 79 23 4b 36 d3 1f 36 ab 80 20
       7.1879007e-19 1.3502995e-17 8.9451796e-20 2.1797341e-19
000020 a8 e7 67 1f b8 69 54 21 3c 13 d5 1d 6f 2b d0 1e
       4.9107774e-20 7.196831e-19 5.640052e-21 2.204082e-20
000030 7a 4c 62 26 ac 7e 94 28 8c 3e c0 25 4a 8f 82 26
       7.8513146e-16 1.6486236e-14 3.3349074e-16 9.059401e-16

exp_avg f4 [4]
000000 04 00 00 00 f2 81 30 ae f4 56 4a 2d a4 d0 d0 b0
       6e-45 -4.013318e-11 1.1501678e-11 -1.5193291e-09

exp_avg_sq f4 [4]
000000 19 00 00 00 05 cd 28 22 9f b3 0f 20 c3 da 26 26
       3.5e-44 2.2876782e-18 1.2172003e-19 5.7889297e-16

exp_avg f4 [4, 4]
000000 04 00 00 00 6e b3 b3 ad 02 cf f6 ad 04 54 c0 b0
       6e-45 -2.0429627e-11 -2.8058892e-11 -1.3993717e-09
000010 04 00 00 80 74 4a 7b ae bf 1d ce ae 27 70 2b b0
       -6e-45 -5.713692e-11 -9.3730794e-11 -6.2368816e-10
000020 04 00 00 80 cb 9e c5 2d b8 59 1d 2e 4c 47 0a af
       -6e-45 2.2466825e-11 3.5777353e-11 -1.2576357e-10
000030 04 00 00 80 96 54 72 2e 7c 24 bd 2e db b9 93 30
       -6e-45 5.5099557e-11 8.601206e-11 1.0748481e-09

exp_avg_sq f4 [4, 4]
000000 19 00 00 00 8c e3 c5 20 6f 3c b3 21 65 9f cd 26
       3.5e-44 3.3523676e-19 1.2145508e-18 1.4267936e-15
000010 19 00 00 00 ec 02 05 22 60 dc cf 22 8f 6d fe 25
       3.5e-44 1.8026408e-18 5.6340794e-18 4.4136216e-16
000020 19 00 00 00 19 95 c6 20 aa c4 8f 21 ae e5 ad 26
       3.5e-44 3.364117e-19 9.742113e-19 1.2066541e-15
000030 19 00 00 00 da c3 63 22 ee de 1f 23 f4 d4 c3 26
       3.5e-44 3.086792e-18 8.6666145e-18 1.3588564e-15

exp_avg f4 [4]
000000 0a ee 56 32 96 88 9c 32 fe 11 13 b2 ee d3 e5 b2
       1.2510563e-08 1.8222902e-08 -8.560617e-09 -2.6755483e-08

exp_avg_sq f4 [4]
000000 33 bd 04 27 81 92 4b 27 69 16 f6 26 63 d9 a8 27
       1.8421245e-15 2.825133e-15 1.7075753e-15 4.686506e-15

exp_avg f4 [4]
000000 5c a3 82 31 da 91 03 b3 52 c5 aa b1 3c 8e 01 b2
       3.8020698e-09 -3.0633466e-08 -4.970084e-09 -7.541129e-09

exp_avg_sq f4 [4]
000000 da d6 9f 26 6a 55 be 27 f8 ac 87 26 83 73 12 27
       1.1091077e-15 5.28282e-15 9.41439e-16 2.032419e-15

exp_avg f4 [4]
000000 c2 b0 5f 32 2b 7e af 32 2b dc 18 b2 62 ed d3 b2
       1.30204985e-08 2.0430056e-08 -8.897625e-09 -2.4671582e-08

exp_avg_sq f4 [4]
000000 95 d7 39 27 64 90 73 27 eb a4 c8 26 31 63 6b 27
       2.5790775e-15 3.3801299e-15 1.3922489e-15 3.2666573e-15

exp_avg f4 [4]
000000 ce 55 42 b1 0d 6d 07 b3 a7 ab f2 b1 64 99 ca 31
       -2.827949e-09 -3.1531318e-08 -7.0626416e-09 5.8964122e-09

exp_avg_sq f4 [4]
000000 91 74 63 27 2d 03 ac 27 a1 a1 2d 28 50 78 59 28
       3.156577e-15 4.7743033e-15 9.638477e-15 1.20720084e-14

exp_avg f4 [4]
000000 4a 77 80 b1 f2 c4 b7 32 e4 6b 0e b2 1e 33 c1 b2
       -3.738852e-09 2.1393564e-08 -8.290019e-09 -2.2491403e-08

exp_avg_sq f4 [4]
000000 0f 20 42 27 02 4b 38 27 c6 23 c4 28 22 f2 39 28
       2.6940287e-15 2.5575791e-15 2.1775886e-14 1.0322067e-14

exp_avg f4 [12, 4]
000000 0e 40 fe 2e cc c3 0c af 45 94 74 ae 1e 4b d8 ae
       1.1561961e-10 -1.2802487e-10 -5.5610867e-11 -9.835886e-11
000010 3c 59 c9 ae b9 f6 9b 30 fc f8 9c ae ce 7c 4a af
       -9.156273e-11 1.1347857e-09 -7.138287e-11 -1.8416133e-10
000020 a5 0e d6 2e 4b 30 9e b0 a9 6d 99 2e 90 ee 47 2f
       9.734195e-11 -1.1509739e-09 6.977114e-11 1.8183699e-10
000030 13 8f 9b ae c8 99 e5 2f 82 34 82 ac 18 63 e1 ad
       -7.073999e-11 4.1764125e-10 -3.7006518e-12 -2.5623545e-11
000040 d1 9f 53 ae c9 6e df 2f a7 82 00 ad a6 6d ad ae
       -4.811779e-11 4.064218e-10 -7.304968e-12 -7.8866066e-11
000050 d4 cf f5 2e e5 fa 2e b0 d9 2f 46 ac 9a bd e2 2e
       1.1178228e-10 -6.3657374e-10 -2.8164053e-12 1.031097e-10
000060 bc ab 0b af 55 52 60 30 f4 4d 63 ac 12 06 1a af
       -1.2702989e-10 8.1607726e-10 -3.2301913e-12 -1.4008375e-10
000070 29 dc c3 ad 6c 95 c4 af 7c 3f 05 2e 3a 4f f0 2e
       -2.2266704e-11 -3.5758363e-10 3.0297084e-11 1.092801e-10
000080 a9 a1 9e 32 54 ae 28 32 90 fc 58 b2 e2 25 c5 b2
       1.8467135e-08 9.818525e-09 -1.2630281e-08 -2.2951046e-08
000090 73 bf 96 b2 4a 4f 40 31 9d 63 3f 32 1e 2c a2 32
       -1.754936e-08 2.7984748e-09 1.1140313e-08 1.8879344e-08
0000a0 4e 52 29 b1 bc 07 41 b2 c7 a3 25 31 89 21 bb 31
       -2.4639522e-09 -1.1235837e-08 2.4103757e-09 5.446229e-09
0000b0 d0 14 18 32 42 fb 3c b2 d0 02 ac b1 ac ae fd b1
       8.852297e-09 -1.100017e-08 -5.0061786e-09 -7.383127e-09

exp_avg_sq f4 [12, 4]
000000 3a 91 84 21 39 1f 1f 25 aa b5 7e 22 37 3d 4e 23
       8.983109e-19 1.380163e-16 3.4519591e-18 1.1180245e-17
000010 6a e4 9f 22 b1 c0 e5 25 39 98 43 23 b3 38 23 24
       4.333888e-18 3.985574e-16 1.06032056e-17 3.5393017e-17
000020 f5 db a5 22 99 5a e6 25 37 16 45 23 57 6d 24 24
       4.495623e-18 3.996003e-16 1.06840956e-17 3.5654446e-17
000030 4a 39 a1 21 89 bd 25 25 f2 da 86 22 bc be 5d 23
       1.0924949e-18 1.4375686e-16 3.655259e-18 1.20208236e-17
000040 14 ee 96 22 be 57 27 24 08 d3 04 22 e3 4d 7f 23
       4.0909656e-18 3.6286673e-17 1.8001055e-18 1.3840071e-17
000050 0c 2d 49 23 ea 80 da 24 e1 a2 a9 22 44 e9 26 24
       1.0905771e-17 9.476082e-17 4.5979997e-18 3.6193096e-17
000060 d2 32 aa 23 fd 8b 39 25 cb d7 0e 23 bc c7 8d 24
       1.845296e-17 1.6093622e-16 7.743531e-18 6.1487366e-17
000070 43 28 af 22 28 98 45 24 40 f1 17 22 9e 7f 93 23
       4.7476474e-18 4.2846447e-17 2.0592033e-18 1.599182e-17
000080 b7 b0 98 26 18 fc f6 28 c9 dc a4 26 39 ae 95 27
       1.0595017e-15 2.7420815e-14 1.143963e-15 4.15447e-15
000090 13 fa ac 26 72 fd f7 27 d5 a4 2f 26 2e 86 13 27
       1.200268e-15 6.8831058e-15 6.093871e-16 2.0473087e-15
0000a0 26 87 35 25 fe d6 1f 28 c0 cb 8f 25 1b 77 78 26
       1.5745038e-16 8.872892e-15 2.4944612e-16 8.62037e-16
0000b0 65 ad 4f 26 8b 0b 91 27 14 85 9b 25 0c b6 49 26
       7.2052545e-16 4.02581e-15 2.697839e-16 6.9982603e-16

exp_avg f4 [12]
000000 03 1f c4 2e a7 3c c1 2d b6 e4 a3 ad 16 6f d9 ad
       8.918557e-11 2.1968495e-11 -1.8632523e-11 -2.4719376e-11
000010 23 93 16 a7 b3 c4 6a 27 59 d3 97 a7 6e f7 29 27
       -2.0896445e-15 3.2580654e-15 -4.2140063e-15 2.3587593e-15
000020 41 47 94 32 78 3a 8d b2 3e 55 1e b1 e4 ba 13 32
       1.726187e-08 -1.6441149e-08 -2.304048e-09 8.59902e-09

exp_avg_sq f4 [12]
000000 3a 10 84 22 00 42 55 23 46 e0 57 23 b5 59 8d 22
       3.5795852e-18 1.1560729e-17 1.1702665e-17 3.8313108e-18
000010 cf dd a1 10 be 6f 58 11 44 93 ad 11 81 5f c9 10
       6.3845053e-29 1.7073829e-28 2.7385347e-28 7.942767e-29
000020 6d c9 d8 26 b3 3d a6 26 93 1f b6 25 49 1e 45 26
       1.5042607e-15 1.1535287e-15 3.1593363e-16 6.838915e-16

exp_avg f4 [4, 4]
000000 62 17 ab 30 2a 62 36 b1 d8 e2 46 b0 6a 7f 1a 31
       1.2448533e-09 -2.6540286e-09 -7.2354345e-10 2.2482376e-09
000010 60 47 36 b1 cc 2b b6 31 ec a7 39 b1 72 7d 75 b2
       -2.6525058e-09 5.3018763e-09 -2.7016496e-09 -1.42894e-08
000020 e0 7e 96 b0 34 df 07 b1 7a b3 97 b3 30 28 2d b4
       -1.0949996e-09 -1.9771962e-09 -7.064132e-08 -1.61265e-07
000030 f2 b7 ab b1 72 a2 86 32 7b ba b3 33 37 2b 37 34
       -4.997667e-09 1.5673525e-08 8.3692576e-08 1.7058925e-07

exp_avg_sq f4 [4, 4]
000000 9b 99 3a 25 cb 22 4d 26 f9 ad 8f 25 f8 4c 5e 27
       1.6184972e-16 7.1170816e-16 2.4924434e-16 3.0850414e-15
000010 b9 97 96 25 e8 3d a3 26 32 b9 a3 24 f9 1b 91 27
       2.6123663e-16 1.1327177e-15 7.1003715e-17 4.0275913e-15
000020 11 7b a6 27 16 e2 b1 28 4e 30 93 28 7c 5a 29 2a
       4.6207684e-15 1.9748997e-14 1.6341227e-14 1.5041608e-13
000030 b5 72 d2 27 cb 3c e1 28 af 8f bc 28 c1 d8 5b 2a
       5.8411074e-15 2.5006383e-14 2.0934506e-14 1.9526309e-13

exp_avg f4 [4]
000000 8a d1 83 b0 c0 c6 f7 b0 01 74 b2 b2 a2 48 c7 b1
       -9.591059e-10 -1.8028103e-09 -2.077468e-08 -5.7999197e-09

exp_avg_sq f4 [4]
000000 98 c1 9f 24 5b e3 b3 24 f3 a8 16 28 8a 00 82 28
       6.928322e-17 7.801403e-17 8.363308e-15 1.4433133e-14

exp_avg f4 [4, 4]
000000 04 00 00 00 04 00 00 00 04 00 00 80 04 00 00 80
       6e-45 6e-45 -6e-45 -6e-45
000010 6f b3 bb b2 48 83 35 b5 c8 a2 f4 33 6d a3 aa 33
       -2.1851262e-08 -6.7618794e-07 1.1391745e-07 7.945969e-08
000020 04 00 00 00 04 00 00 80 04 00 00 80 04 00 00 00
       6e-45 -6e-45 -6e-45 6e-45
000030 8a a7 81 33 4e 3a d9 35 3f 61 7c b4 48 1e 4f b4
       6.037506e-08 1.6184729e-06 -2.3504707e-07 -1.9289394e-07

exp_avg_sq f4 [4, 4]
000000 19 00 00 00 19 00 00 00 19 00 00 00 19 00 00 00
       3.5e-44 3.5e-44 3.5e-44 3.5e-44
000010 1e 89 0b 28 57 f9 db 2c c7 43 69 2a 15 70 98 29
       7.7457826e-15 6.2520366e-12 2.0718072e-13 6.769599e-14
000020 19 00 00 00 19 00 00 00 19 00 00 00 19 00 00 00
       3.5e-44 3.5e-44 3.5e-44 3.5e-44
000030 88 77 e9 28 5a c7 b6 2d 35 8e 3b 2b cf 15 86 2a
       2.5920035e-14 2.0779534e-11 6.66331e-13 2.3818314e-13

exp_avg f4 [4]
000000 04 00 00 00 36 c6 8c b3 04 00 00 00 24 c3 29 34
       6e-45 -6.5553124e-08 6e-45 1.5810343e-07

exp_avg_sq f4 [4]
000000 19 00 00 00 9f e4 83 29 19 00 00 00 88 be 5d 2a
       3.5e-44 5.857228e-14 3.5e-44 1.9694847e-13

exp_avg f4 [4, 4]
000000 04 00 00 00 13 a3 4a 35 04 00 00 80 ed 28 ba 34
       6e-45 7.548817e-07 -6e-45 3.4674977e-07
000010 04 00 00 80 e8 da 79 b3 04 00 00 00 35 dc af b4
       -6e-45 -5.8173924e-08 6e-45 -3.2756512e-07
000020 04 00 00 00 3d 7e 57 b6 04 00 00 80 18 a2 78 b6
       6e-45 -3.2110977e-06 -6e-45 -3.704923e-06
000030 04 00 00 80 ea 7b 9d 36 04 00 00 00 77 8f a9 36
       -6e-45 4.69339e-06 6e-45 5.053294e-06

exp_avg_sq f4 [4, 4]
000000 19 00 00 00 34 d0 93 2d 19 00 00 00 c1 06 ac 2c
       3.5e-44 1.6804426e-11 3.5e-44 4.889284e-12
000010 19 00 00 00 e0 e6 92 2c 19 00 00 00 96 76 3d 2c
       3.5e-44 4.175202e-12 3.5e-44 2.6924344e-12
000020 19 00 00 00 bc 6b 83 2f 19 00 00 00 dd 4e db 2e
       3.5e-44 2.390531e-10 3.5e-44 9.972976e-11
000030 19 00 00 00 1b 14 89 2f 19 00 00 00 58 af dd 2e
       3.5e-44 2.493444e-10 3.5e-44 1.0081064e-10

exp_avg f4 [4]
000000 ba 37 0a 33 24 14 32 b3 45 7d 05 b5 22 b6 26 35
       3.2181312e-08 -4.1462172e-08 -4.972865e-07 6.2104857e-07

exp_avg_sq f4 [4]
000000 65 29 5e 2a 58 9c 6c 29 12 60 00 2c e7 28 ff 2b
       1.9731923e-13 5.2538133e-14 1.8243224e-12 1.8130192e-12

exp_avg f4 [4]
000000 d1 cd b5 32 6c 64 7c b3 3c 4b 46 34 41 84 4d b4
       2.1164768e-08 -5.8764655e-08 1.8467557e-07 -1.9140226e-07

exp_avg_sq f4 [4]
000000 d2 4f b6 28 7e ae 30 29 db 03 f1 2a 0e 6a 0f 2b
       2.0240676e-14 3.92312e-14 4.2812875e-13 5.0950986e-13

exp_avg f4 [4]
000000 9e c0 51 b3 4c 1b 16 b3 a2 a5 8f b4 ae 95 d6 34
       -4.883679e-08 -3.4949423e-08 -2.675634e-07 3.9969512e-07

exp_avg_sq f4 [4]
000000 15 d7 3e 2a f8 8e 7a 28 9b 53 56 2b 46 a1 b0 2b
       1.6950012e-13 1.3908789e-14 7.61441e-13 1.2550315e-12

exp_avg f4 [4]
000000 ae a9 e9 b6 5c f0 75 36 8e 78 11 38 2c 2e 12 b7
       -6.9636944e-06 3.6647752e-06 3.468297e-05 -8.713028e-06

exp_avg_sq f4 [4]
000000 a2 10 e2 2f 59 cd 40 31 54 72 6b 32 92 ba cc 31
       4.112098e-10 2.8056404e-09 1.37047955e-08 5.958392e-09

exp_avg f4 [4]
000000 33 d3 9d b7 68 a2 08 36 61 1e 17 b8 42 12 23 37
       -1.8814206e-05 2.0360112e-06 -3.6029498e-05 9.719808e-06

exp_avg_sq f4 [4]
000000 c5 a6 b0 31 2b f5 97 30 af 5e 82 32 46 d7 42 32
       5.1412337e-09 1.1056377e-09 1.5177049e-08 1.1341234e-08

exp_avg f4 [12, 4]
000000 00 00 00 00 00 00 00 00 00 00 00 00 00 00 00 00
       0.0 0.0 0.0 0.0
000010 00 00 00 00 00 00 00 00 00 00 00 00 00 00 00 00
       0.0 0.0 0.0 0.0
000020 00 00 00 00 00 00 00 00 00 00 00 00 00 00 00 00
       0.0 0.0 0.0 0.0
000030 00 00 00 00 00 00 00 00 00 00 00 00 00 00 00 00
       0.0 0.0 0.0 0.0
000040 00 00 00 00 00 00 00 00 00 00 00 00 00 00 00 00
       0.0 0.0 0.0 0.0
000050 00 00 00 00 00 00 00 00 00 00 00 00 00 00 00 00
       0.0 0.0 0.0 0.0
000060 00 00 00 00 00 00 00 00 00 00 00 00 00 00 00 00
       0.0 0.0 0.0 0.0
000070 00 00 00 00 00 00 00 00 00 00 00 00 00 00 00 00
       0.0 0.0 0.0 0.0
000080 a3 b0 e0 ba 80 d0 4b 3a 62 ed 3a 3c ff ac b6 3a
       -0.0017142486 0.00077749044 0.011409136 0.0013937055
000090 e0 d5 fc ba e8 57 97 3a bd fe b5 bb dc cb 12 3b
       -0.0019289814 0.0011546584 -0.005554049 0.0022399342
0000a0 c3 99 e5 ba a9 f9 12 3a 00 ab 0c bc 8d 60 ab 3a
       -0.0017517138 0.000560666 -0.008585691 0.0013075039
0000b0 78 3d 50 38 ba f0 c3 b8 57 f2 8b 3a 29 60 bf b8
       4.964831e-05 -9.3431634e-05 0.0010677081 -9.125501e-05

exp_avg_sq f4 [12, 4]
000000 00 00 00 00 00 00 00 00 00 00 00 00 00 00 00 00
       0.0 0.0 0.0 0.0
000010 00 00 00 00 00 00 00 00 00 00 00 00 00 00 00 00
       0.0 0.0 0.0 0.0
000020 00 00 00 00 00 00 00 00 00 00 00 00 00 00 00 00
       0.0 0.0 0.0 0.0
000030 00 00 00 00 00 00 00 00 00 00 00 00 00 00 00 00
       0.0 0.0 0.0 0.0
000040 00 00 00 00 00 00 00 00 00 00 00 00 00 00 00 00
       0.0 0.0 0.0 0.0
000050 00 00 00 00 00 00 00 00 00 00 00 00 00 00 00 00
       0.0 0.0 0.0 0.0
000060 00 00 00 00 00 00 00 00 00 00 00 00 00 00 00 00
       0.0 0.0 0.0 0.0
000070 00 00 00 00 00 00 00 00 00 00 00 00 00 00 00 00
       0.0 0.0 0.0 0.0
000080 db da 89 37 4c 83 53 36 9b e9 db 39 a5 da 0a 37
       1.6433585e-05 3.1517875e-06 0.00041944985 8.276348e-06
000090 c9 82 1e 39 10 77 e1 37 34 6f a9 3a 15 b0 c7 38
       0.00015116775 2.6877533e-05 0.0012926818 9.521857e-05
0000a0 64 2c 04 38 1f f7 e3 36 09 1a ba 3a 89 33 86 37
       3.1512594e-05 6.793896e-06 0.0014198433 1.5998043e-05
0000b0 02 50 ab 35 2a 4c 6d 34 9e 6b f1 36 50 76 24 35
       1.2763778e-06 2.2100053e-07 7.194888e-06 6.126693e-07

exp_avg f4 [12]
000000 00 00 00 00 00 00 00 00 00 00 00 00 00 00 00 00
       0.0 0.0 0.0 0.0
000010 00 00 00 00 00 00 00 00 00 00 00 00 00 00 00 00
       0.0 0.0 0.0 0.0
000020 14 b2 a1 ba 6a 7e ea 3a 12 1d e1 3b 26 30 b9 b9
       -0.0012336397 0.0017890458 0.0068699205 -0.00035321823

exp_avg_sq f4 [12]
000000 00 00 00 00 00 00 00 00 00 00 00 00 00 00 00 00
       0.0 0.0 0.0 0.0
000010 00 00 00 00 00 00 00 00 00 00 00 00 00 00 00 00
       0.0 0.0 0.0 0.0
000020 71 b1 e5 38 1f c2 28 3a b5 70 8d 39 49 1c a0 36
       0.00010952622 0.00064376177 0.0002697759 4.7716644e-06

exp_avg f4 [4, 4]
000000 26 dc 18 bb 60 f5 22 bb 4a a0 86 b8 ff 93 c0 b9
       -0.0023324578 -0.0024865493 -6.419474e-05 -0.0003673136
000010 92 40 42 b9 50 4d 49 b9 50 9f db bb 67 ba ed 37
       -0.00018525336 -0.00019197655 -0.006702341 2.8339402e-05
000020 56 80 9b 38 94 f6 8d 3a 84 e9 58 3c 36 10 e2 39
       7.4148804e-05 0.0010830932 0.013239268 0.00043118157
000030 a0 90 a0 3b c8 ec 25 3c 2c 66 d8 3b 31 9c da 39
       0.004900053 0.010127254 0.0066039767 0.00041696572

exp_avg_sq f4 [4, 4]
000000 f8 91 97 38 8c cf 20 3a ec c3 87 3a 22 ec 11 36
       7.22743e-05 0.00061344425 0.0010358072 2.174413e-06
000010 0d 2b d9 37 07 d5 a6 38 55 9c f1 39 22 c4 c7 35
       2.5888463e-05 7.955176e-05 0.00046083578 1.4883738e-06
000020 45 e8 97 39 42 70 43 3a 7f a0 e4 3a 91 06 be 36
       0.0002897402 0.00074553874 0.0017442851 5.6632057e-06
000030 66 d4 cf 39 3b 19 b8 3a 2e d6 34 3b 2b d6 64 36
       0.00039640366 0.0014045605 0.0027593481 3.409931e-06

exp_avg f4 [4]
000000 f8 4c 20 3d 64 6f 4e 3d 73 9f 36 bd d1 7e f1 bc
       0.039135903 0.0503992 -0.044585656 -0.029479416

exp_avg_sq f4 [4]
000000 29 6d 8e 3b b6 b4 73 3b a0 f6 e9 3b 38 e4 da 3b
       0.004346509 0.003718657 0.0071399957 0.006680038

exp_avg f4 [12, 4]
000000 00 00 00 00 00 00 00 00 00 00 00 00 00 00 00 00
       0.0 0.0 0.0 0.0
000010 00 00 00 00 00 00 00 00 00 00 00 00 00 00 00 00
       0.0 0.0 0.0 0.0
000020 00 00 00 00 00 00 00 00 00 00 00 00 00 00 00 00
       0.0 0.0 0.0 0.0
000030 00 00 00 00 00 00 00 00 00 00 00 00 00 00 00 00
       0.0 0.0 0.0 0.0
000040 00 00 00 00 00 00 00 00 00 00 00 00 00 00 00 00
       0.0 0.0 0.0 0.0
000050 00 00 00 00 00 00 00 00 00 00 00 00 00 00 00 00
       0.0 0.0 0.0 0.0
000060 00 00 00 00 00 00 00 00 00 00 00 00 00 00 00 00
       0.0 0.0 0.0 0.0
000070 00 00 00 00 00 00 00 00 00 00 00 00 00 00 00 00
       0.0 0.0 0.0 0.0
000080 0d 3f 38 b6 db 9e 07 36 b2 e2 fa b6 4a 92 66 36
       -2.7454837e-06 2.0209034e-06 -7.4769714e-06 3.4357822e-06
000090 3b 5b 7a b6 33 cb b6 b6 e1 a6 91 b6 21 ba a6 b6
       -3.7306006e-06 -5.447678e-06 -4.340764e-06 -4.968854e-06
0000a0 d0 b6 02 b6 14 a5 bd 36 ac 21 e7 b6 96 6f a0 36
       -1.947792e-06 5.6518566e-06 -6.8882564e-06 4.781362e-06
0000b0 d1 de 54 b7 97 e4 47 b7 e4 f1 2d b7 08 ba 70 b7
       -1.2688063e-05 -1.1914547e-05 -1.0367923e-05 -1.43484285e-05

exp_avg_sq f4 [12, 4]
000000 00 00 00 00 00 00 00 00 00 00 00 00 00 00 00 00
       0.0 0.0 0.0 0.0
000010 00 00 00 00 00 00 00 00 00 00 00 00 00 00 00 00
       0.0 0.0 0.0 0.0
000020 00 00 00 00 00 00 00 00 00 00 00 00 00 00 00 00
       0.0 0.0 0.0 0.0
000030 00 00 00 00 00 00 00 00 00 00 00 00 00 00 00 00
       0.0 0.0 0.0 0.0
000040 00 00 00 00 00 00 00 00 00 00 00 00 00 00 00 00
       0.0 0.0 0.0 0.0
000050 00 00 00 00 00 00 00 00 00 00 00 00 00 00 00 00
       0.0 0.0 0.0 0.0
000060 00 00 00 00 00 00 00 00 00 00 00 00 00 00 00 00
       0.0 0.0 0.0 0.0
000070 00 00 00 00 00 00 00 00 00 00 00 00 00 00 00 00
       0.0 0.0 0.0 0.0
000080 8e 50 c1 2e 18 71 23 2f b0 4d 9e 2f 26 7d c7 2f
       8.790933e-11 1.4864943e-10 2.8795233e-10 3.6286812e-10
000090 13 8e 45 2f 56 64 c9 2f 97 a2 07 30 fa 22 34 30
       1.796752e-10 3.663298e-10 4.934377e-10 6.5533323e-10
0000a0 76 b6 c0 2f e4 75 3e 30 af 33 33 30 0c 7b 5f 30
       3.5054243e-10 6.928913e-10 6.519327e-10 8.130179e-10
0000b0 6a 58 06 30 20 1e 53 30 56 80 ef 30 50 71 dd 30
       4.887456e-10 7.6804163e-10 1.7426014e-09 1.6112072e-09

exp_avg f4 [12]
000000 00 00 00 00 00 00 00 00 00 00 00 00 00 00 00 00
       0.0 0.0 0.0 0.0
000010 00 00 00 00 00 00 00 00 00 00 00 00 00 00 00 00
       0.0 0.0 0.0 0.0
000020 3d b8 59 b9 c2 13 49 39 63 c1 b5 b9 af 6a a8 38
       -0.00020763367 0.00019176214 -0.00034667095 8.0307356e-05

exp_avg_sq f4 [12]
000000 00 00 00 00 00 00 00 00 00 00 00 00 00 00 00 00
       0.0 0.0 0.0 0.0
000010 00 00 00 00 00 00 00 00 00 00 00 00 00 00 00 00
       0.0 0.0 0.0 0.0
000020 3a 7b 52 34 b3 73 04 35 32 8d 45 35 3f 7a 7d 35
       1.9602604e-07 4.9342196e-07 7.3593685e-07 9.4427736e-07

exp_avg f4 [4, 4]
000000 c0 f6 90 b8 38 0d 63 b9 a8 8b 9d b8 62 1b 11 b8
       -6.912416e-05 -0.00021653331 -7.5123564e-05 -3.4596196e-05
000010 61 9c b9 b8 7b e0 64 b9 7d 4e 6e b7 c9 8e 98 b8
       -8.850615e-05 -0.000218274 -1.420418e-05 -7.2745206e-05
000020 57 6c ec 38 d8 e5 75 39 9a db d6 38 7b d4 84 37
       0.00011273537 0.00023450644 0.00010245219 1.583457e-05
000030 a0 60 7f 33 19 68 bb 38 ae c0 ed 37 f4 01 75 37
       5.9459694e-08 8.9362446e-05 2.8342325e-05 1.4603593e-05

exp_avg_sq f4 [4, 4]
000000 77 c1 6e 32 44 92 ca 33 7f c1 ea 33 7e ce 90 33
       1.3897412e-08 9.4329636e-08 1.0931671e-07 6.743083e-08
000010 45 b7 2f 32 3d cf 72 33 3d 32 3a 33 6e 3d 33 33
       1.0228011e-08 5.6533498e-08 4.335219e-08 4.1732555e-08
000020 f7 70 c8 32 f8 90 ab 33 e5 4b e6 33 ef 6b 9e 33
       2.3334435e-08 7.989178e-08 1.0724015e-07 7.377081e-08
000030 06 ff 09 32 f0 e6 47 33 c8 11 7f 33 f9 3a 5b 33
       8.032435e-09 4.6543335e-08 5.9387986e-08 5.1043546e-08

exp_avg f4 [4]
000000 a9 f9 1f 3c 30 6e bf 3c 76 6e c5 bc 08 10 74 ba
       0.009764113 0.023367971 -0.024100523 -0.000931025

exp_avg_sq f4 [4]
000000 06 ec 01 3b 11 5f 50 3a 3a 1d 04 3b b8 dd 87 3a
       0.0019824519 0.00079487363 0.0020159022 0.001036576

exp_avg f4 [4, 4]
000000 c0 4c 86 ba 11 68 aa b9 64 dc be 3a 44 2a d0 b9
       -0.0010246262 -0.00032502462 0.0014561531 -0.00039704342
000010 b4 c0 46 3b f8 18 9a 3a cb b9 24 3c e7 b0 09 bc
       0.0030327262 0.0011756709 0.010054062 -0.008403993
000020 06 71 6c ba 3d 9f 8a b9 4e 87 9f 3a b5 3e a0 b9
       -0.00090195274 -0.00026440053 0.0012171061 -0.00030564299
000030 b0 8e aa 3b 6e c1 d2 3a 9c 50 00 3c d7 c5 14 bc
       0.005204998 0.0016079375 0.007831719 -0.009080372

exp_avg_sq f4 [4, 4]
000000 65 ec 04 38 71 e8 2c 36 88 53 61 38 0d f3 46 36
       3.1691412e-05 2.5765296e-06 5.3721975e-05 2.9645773e-06
000010 97 65 66 38 48 96 c7 36 1f 7b 85 39 c7 03 5f 39
       5.4930886e-05 5.948157e-06 0.0002545947 0.00021268344
000020 3e 8f d7 37 1e 96 e9 35 70 81 25 38 78 a7 f9 35
       2.56967e-05 1.7403543e-06 3.9459614e-05 1.8600686e-06
000030 1d 30 79 38 fe 26 bf 36 9c ca 12 39 f9 f9 1d 39
       5.9411035e-05 5.696783e-06 0.00013999123 0.00015065809

exp_avg f4 [4]
000000 18 f6 b2 39 3e 71 69 bb f5 12 96 39 52 8c 77 bb
       0.0003413416 -0.0035620476 0.00028624354 -0.0037772846

exp_avg_sq f4 [4]
000000 65 24 4a 36 5a 2f 14 38 2c 8e 14 36 f4 96 c4 37
       3.012153e-06 3.533005e-05 2.2136473e-06 2.3435314e-05

exp_avg f4 [4, 4]
000000 7a b1 2f 3a 01 97 2b 3a 35 c0 2b 3a af de 84 3a
       0.0006702166 0.00065456337 0.00065517734 0.0010137166
000010 d6 2b 2e b9 80 d1 a4 b8 f7 28 29 b9 08 16 14 b9
       -0.00016610263 -7.859152e-05 -0.00016132357 -0.00014122587
000020 36 31 16 b9 db b6 2f b9 be f0 fa b8 27 7a 5e b9
       -0.00014323447 -0.0001675742 -0.00011965771 -0.00021217075
000030 43 03 c9 b9 a6 ff 9c b9 75 7c d0 b9 f5 59 03 ba
       -0.00038340138 -0.00029945112 -0.0003976558 -0.0005010658

exp_avg_sq f4 [4, 4]
000000 cc d4 c1 36 d6 37 22 37 07 0a ba 36 a9 c3 ca 37
       5.776621e-06 9.668953e-06 5.5443993e-06 2.4171388e-05
000010 6d 1d c6 34 03 24 9c 33 c3 b6 be 34 67 b4 d6 35
       3.6901784e-07 7.2708666e-08 3.5523234e-07 1.5996746e-06
000020 71 1e ed 34 ac 23 a8 37 c3 31 ac 34 73 8b c3 38
       4.416684e-07 2.0043772e-05 3.2073703e-07 9.324299e-05
000030 3a d9 b4 35 4a d5 c4 35 5f 92 e8 35 43 cc c2 37
       1.3474266e-06 1.4665213e-06 1.7327947e-06 2.3221719e-05

exp_avg f4 [4]
000000 32 3a 29 3c be 55 1b bb 12 b2 4c bc 4a d5 a8 3a
       0.010328816 -0.002370223 -0.012493627 0.0012880948

exp_avg_sq f4 [4]
000000 2e b8 21 3a 2e af f1 36 af d8 61 3a 8a d3 11 3a
       0.00061691075 7.2027533e-06 0.0008615357 0.0005562833

exp_avg f4 [4]
000000 cf 8d 18 3c 25 80 5b bc fe da d6 3c 8f 03 57 bb
       0.009311154 -0.013397251 0.02622747 -0.0032808518

exp_avg_sq f4 [4]
000000 20 01 8e 3a ae 72 9e 39 9c 0a ff 3a d9 92 3f 3a
       0.0010834076 0.0003022155 0.0019458118 0.0007307954

exp_avg f4 [4]
000000 35 e1 3b 3c 1e e4 a7 3c f3 b8 d0 bc 19 6f d4 bb
       0.011467268 0.020494517 -0.025478816 -0.0064829704

exp_avg_sq f4 [4]
000000 db 7d b8 3a 45 3d 26 3a 6e 94 e4 3a 09 69 76 3a
       0.0014075594 0.00063415273 0.0017439255 0.0009399807

exp_avg f4 [4]
000000 a5 74 9e ba cd dc 23 bc 25 72 f0 3b 3c a7 4f bb
       -0.0012089206 -0.0100013735 0.007337826 -0.0031685373

exp_avg_sq f4 [4]
000000 7e 27 d4 38 f9 e3 61 39 cc 7e 0d 3a 8e 76 1e 3a
       0.00010116304 0.00021542599 0.00053976174 0.00060448877

exp_avg f4 [4]
000000 74 28 2e 3b c3 5f 8e 3c 3e 60 60 bc a5 c6 45 bb
       0.0026574405 0.017379647 -0.013694821 -0.0030178216

exp_avg_sq f4 [4]
000000 f5 ef 9e 39 e5 41 0d 3a 25 78 3e 3a ca 43 16 3a
       0.0003031489 0.0005388542 0.0007265828 0.0005732147

exp_avg f4 [4]
000000 31 62 8a bb a6 5c e8 39 98 85 f6 b9 bd aa 3a 3b
       -0.004223131 0.00044319517 -0.00047020311 0.0028483116
