Saved_models/best_model_Male.pt (torch, 50634 bytes, 108 tensors)

encoder_input_layer.weight f4 [4, 3]
000000 de 26 88 be 49 9a f9 bd 6f 65 27 bf 2f 54 b4 be
       -0.26592153 -0.12187631 -0.6538915 -0.35220477
000010 e7 b3 54 bf ce 65 9e be a3 e0 b1 bc 9f ce 2b 3f
       -0.8308701 -0.30937046 -0.02171356 0.67112154
000020 06 b5 54 bd b2 e3 b8 3e f6 6f 55 3f 2e 0d 3c 3f
       -0.05193045 0.36111218 0.83373964 0.7345761

encoder_input_layer.bias f4 [4]
000000 b5 c9 4f c0 69 34 3c c0 0f 6c ca 3f 07 f9 12 40
       -3.2466862 -2.9406989 1.5814227 2.2964494

decoder_input_layer.weight f4 [4, 1]
000000 fe 10 9c 3f af 03 f7 3f 1c 17 99 bf fd e0 7b 3f
       1.2192686 1.9297999 -1.1960177 0.9839018

decoder_input_layer.bias f4 [4]
000000 9b b9 2a 40 5e c5 49 40 dc c0 33 c0 11 4c b8 3f
       2.6675785 3.1526713 -2.8086462 1.4398214

positional_encoding_layer_enc.pe f4 [1, 7, 4]
000000 00 00 00 00 00 00 80 3f 00 00 00 00 00 00 80 3f
       0.0 1.0 0.0 1.0
000010 a4 6a 57 3f 41 51 0a 3f 57 d6 23 3c b9 fc 7f 3f
       0.84147096 0.54030234 0.009999833 0.99995
000020 b7 c7 68 3f 33 11 d5 be 3e d4 a3 3c e5 f2 7f 3f
       0.9092974 -0.41614684 0.019998666 0.9998
000030 c3 81 10 3e 26 70 7d bf 1f b9 f5 3c 83 e2 7f 3f
       0.14112 -0.9899925 0.0299955 0.99955004
000040 cf bd 41 bf 30 55 27 bf db cb 23 3d 94 cb 7f 3f
       -0.7568025 -0.6536436 0.039989334 0.9992001
000050 10 7c 75 bf 2c 3c 91 3e f4 b6 4c 3d 19 ae 7f 3f
       -0.9589243 0.2836622 0.049979165 0.99875027
000060 8c 0f 8f be b8 cd 75 3f d1 9c 75 3d 12 8a 7f 3f
       -0.2794155 0.96017027 0.059964005 0.99820054

positional_encoding_layer_dec.pe f4 [1, 3, 4]
000000 00 00 00 00 00 00 80 3f 00 00 00 00 00 00 80 3f
       0.0 1.0 0.0 1.0
000010 a4 6a 57 3f 41 51 0a 3f 57 d6 23 3c b9 fc 7f 3f
       0.84147096 0.54030234 0.009999833 0.99995
000020 b7 c7 68 3f 33 11 d5 be 3e d4 a3 3c e5 f2 7f 3f
       0.9092974 -0.41614684 0.019998666 0.9998

encoder.layers.0.self_attn.in_proj_weight f4 [12, 4]
000000 15 ce c9 bf e1 4c 15 be f0 ce 3d 3e 76 95 39 3f
       -1.5766016 -0.14580108 0.18535972 0.72493684
000010 b2 1a 70 be cb d2 f1 3e 1a 65 8a be 6d ca ec 3b
       -0.23447683 0.47231135 -0.2703026 0.0072262795
000020 ff b9 32 c0 7d 6d 6c 3e 9a 45 b0 bf 8c 37 e6 bd
       -2.7926023 0.23088641 -1.3771241 -0.112410635
000030 da f3 30 bf ad c1 9a bd 84 42 9e bc 71 fb 2f 3e
       -0.6912209 -0.07556472 -0.019318826 0.17185761
000040 f8 d7 63 be c7 57 3b bd 90 f6 cd be dc 55 7b 40
       -0.22250354 -0.045738008 -0.40227175 3.9271154
000050 a8 7e b2 bd 99 91 87 3e 6f 0a be 3e 80 d8 6b 3e
       -0.08715564 0.2647827 0.37117335 0.23031807
000060 f0 1f 01 bf f7 af d8 3d 6c 8a 41 3f ee 15 5c c0
       -0.5043936 0.10580438 0.7560184 -3.4388385
000070 83 5f 48 be 56 b2 79 3e bc 61 9f 3e 91 d2 a1 40
       -0.19567685 0.24384436 0.31129253 5.056954
000080 8e ac 1d 3c 4c 5f 2a be a7 e7 2a bd 53 12 30 c0
       0.00962366 -0.16637915 -0.041724827 -2.7511184
000090 17 96 31 bf ad fc d1 bd 0c 8f 09 3f 5c a5 27 bf
       -0.69369644 -0.10253272 0.537339 -0.65486693
0000a0 f8 27 01 3e 9e 3a 9f bd 38 2f ce 3d 3c 8c 6f bf
       0.12612903 -0.07774852 0.100676 -0.93573356
0000b0 e0 1d 1f 3f a9 ba c2 be cf 5f 2d bd 0e e3 9e 3f
       0.6215496 -0.38033035 -0.0423277 1.2413042

encoder.layers.0.self_attn.in_proj_bias f4 [12]
000000 83 c7 bd bf c4 8d e2 be 86 fd 99 bc c0 23 06 c0
       -1.4826511 -0.44248784 -0.018797647 -2.095932
000010 fa c3 08 3e f1 97 e8 3b 01 46 ce bd 69 24 8a 3d
       0.13356009 0.007098191 -0.10071946 0.06745226
000020 cb cc 96 bf a0 66 bd bf 46 de 0a c0 2e 53 13 40
       -1.1781248 -1.4796944 -2.1698165 2.301952

encoder.layers.0.self_attn.out_proj.weight f4 [4, 4]
000000 ec b4 0c 3d 4a 07 d1 3c c0 ef 35 40 96 30 9c bf
       0.034352228 0.025516171 2.8427582 -1.2202327
000010 2f c3 0a 40 d3 e0 d0 3c 7b 8c 91 3d 51 31 94 3d
       2.168163 0.02549783 0.07106873 0.07235969
000020 aa ad e7 bd 09 ff 17 3c 0a ba 80 c0 d8 e1 90 3f
       -0.11312421 0.009277114 -4.02271 1.1318922
000030 6f 06 eb bf 5c f0 18 3e a9 c4 e3 3d 83 e4 0a 3f
       -1.8361338 0.1493544 0.11121494 0.5425493

encoder.layers.0.self_attn.out_proj.bias f4 [4]
000000 7f fe c6 bb a4 6f 5d be 76 3a f8 3d 1b f3 18 3f
       -0.006072819 -0.21624619 0.121205255 0.5974595

encoder.layers.0.linear1.weight f4 [4, 4]
000000 ab 95 0a 3c c4 54 2e bd f0 62 0c be 5d 99 d7 bd
       0.008458535 -0.042561308 -0.13709617 -0.105272986
000010 ae ee 29 40 e0 fb de 3d fe 0b 49 c0 da 08 03 bf
       2.6551929 0.10887885 -3.141357 -0.5118538
000020 05 53 44 40 4e e6 b6 3d f6 ab 1e c0 9c 1a 0c be
       3.067567 0.08930646 -2.4792457 -0.13682026
000030 ea e4 5d bd f4 9f d1 bd 36 17 29 be 8b d7 01 be
       -0.054173388 -0.10235587 -0.1651276 -0.1267988

encoder.layers.0.linear1.bias f4 [4]
000000 c6 57 25 bf ef 2f 28 bf 90 2a a1 bf a7 a3 15 bf
       -0.64587057 -0.6569814 -1.2591114 -0.5845284

encoder.layers.0.linear2.weight f4 [4, 4]
000000 9f bc 30 be d3 08 27 3e 0f 42 8d 3f bb d4 25 be
       -0.17259453 0.1631196 1.1035784 -0.16194431
000010 76 36 8e be b7 09 50 bf be a3 4b bf 83 75 f6 bd
       -0.27775925 -0.81264824 -0.79546726 -0.12034132
000020 e3 58 fa 3d 3a a7 1f be 3d 8e 6c bf 2a ba 5d 3e
       0.12223985 -0.15591136 -0.9240454 0.21653047
000030 af fb c6 be dd 34 0c c0 97 da 25 bf dc b7 17 bd
       -0.38863894 -2.1907265 -0.64786667 -0.037040576

encoder.layers.0.linear2.bias f4 [4]
000000 99 62 ef bd 4e 71 f4 3c ad d3 33 3d 60 d7 dd 3c
       -0.11688728 0.029839184 0.04390304 0.027080238

encoder.layers.0.norm1.weight f4 [4]
000000 c2 48 0b 40 a5 b7 80 40 2a c0 35 40 0c 9d 53 40
       2.1763158 4.0224175 2.8398538 3.3064604

encoder.layers.0.norm1.bias f4 [4]
000000 d5 b1 94 be d2 55 58 bf e9 ef 83 3c 2d f4 b4 3f
       -0.29041925 -0.8450595 0.016105609 1.4137017

encoder.layers.0.norm2.weight f4 [4]
000000 9c be dd 3f 83 84 c5 3f 1c d0 e6 3f 51 d6 c2 3f
       1.7323794 1.5431064 1.803226 1.5221654

encoder.layers.0.norm2.bias f4 [4]
000000 4d d0 76 3f ce 1a 4e bf ec 53 75 bf 14 7a 4a 3f
       0.9641159 -0.8050965 -0.9583118 0.79092526

decoder.layers.0.self_attn.in_proj_weight f4 [12, 4]
000000 45 96 f0 3f b4 4e d0 3f 7d 6f 59 3f 1a ab c2 bf
       1.8795859 1.6274018 0.8493574 -1.5208466
000010 42 0c cc bf 45 76 9d bf 2c 99 17 c0 3e ca c2 3f
       -1.5941241 -1.2301718 -2.3687239 1.521797
000020 c1 55 71 3f 83 78 36 bf 4b 0a 89 3e a0 ff 2a be
       0.94271475 -0.71277636 0.26765665 -0.16699076
000030 70 f2 fc be 54 61 56 be b8 d2 16 c0 88 ed ca 3f
       -0.49403715 -0.20935565 -2.3566113 1.5853739
000040 07 31 68 bf d1 99 4a bf 21 82 29 bf f9 27 8d 3f
       -0.9069981 -0.79140955 -0.66214186 1.1027824
000050 dd 9e 9f 3f be 5d 76 3f ec 2f d9 bf 65 02 93 3d
       1.2470356 0.9623679 -1.696775 0.07178191
000060 5a ff c5 3f 29 8c cb bf fc 40 a0 3e 2e 07 a5 bf
       1.5468552 -1.5902148 0.3129958 -1.2892816
000070 43 8a 84 3f b6 bb d6 3e 8c 43 2b c0 63 dc e5 3e
       1.0354694 0.41940087 -2.6759977 0.44894704
000080 af c8 b3 bc 05 ae 87 be cd 39 34 3f 6b 46 c0 bf
       -0.02194628 -0.26499954 0.70400697 -1.502149
000090 7a 58 99 bf 5e 89 e7 3e 08 2a ad 3e 90 0c 77 be
       -1.1980126 0.4522199 0.3382113 -0.24125886
0000a0 44 45 35 3e 97 ed 85 3e df fa a9 3e ce 3f ba be
       0.17702204 0.2615783 0.33199212 -0.36376804
0000b0 3a b5 a7 3f 8e f9 c8 3e 9d aa 5e bf b2 b0 a5 3f
       1.3102181 0.39252895 -0.86979085 1.2944548

decoder.layers.0.self_attn.in_proj_bias f4 [12]
000000 fd a0 93 3f c9 eb b3 bf b5 d7 ef bf 55 22 a6 bf
       1.1533505 -1.4056331 -1.8737704 -1.2979227
000010 a1 b0 c9 3d 06 6f b2 bc cf 7e aa 3d 5e 5b ee bd
       0.098481424 -0.021781456 0.08324968 -0.11638521
000020 a2 48 09 bf fe 51 62 3e 7f cb 3a 3e 85 fa 36 be
       -0.53626454 0.2210159 0.1824169 -0.17869003

decoder.layers.0.self_attn.out_proj.weight f4 [4, 4]
000000 d8 41 d6 bf c3 06 aa bd d5 f9 48 be c5 c4 33 bd
       -1.6738844 -0.08302071 -0.19626553 -0.043888826
000010 3b f9 27 3f 4c c4 00 bc 75 5a b2 3c 54 27 a1 3f
       0.6561467 -0.007859301 0.021771649 1.2590127
000020 00 e4 0e b7 f0 7e 1b 3e a7 e9 77 3c ce 39 8f be
       -8.516945e-06 0.15185142 0.015131391 -0.2797379
000030 7b c1 a9 bf 39 05 1a be c4 4e 48 3e 95 bf 48 be
       -1.326217 -0.15041055 0.19561297 -0.19604333

decoder.layers.0.self_attn.out_proj.bias f4 [4]
000000 29 67 41 3d bb c9 31 be ef 44 af 3b 47 f5 90 3e
       0.04721752 -0.1736211 0.0053487937 0.28312132

decoder.layers.0.multihead_attn.in_proj_weight f4 [12, 4]
000000 56 c4 86 3d 96 91 80 3f 6d a8 88 3e 5a 26 de 3e
       0.06580417 1.0044429 0.26691 0.43388635
000010 e1 3e 6b be f6 76 9f bd 89 d9 f0 bd 03 85 c0 bd
       -0.22973205 -0.07786362 -0.117602415 -0.0940037
000020 c5 58 22 be 2e 42 95 bd 21 85 e4 bc 41 40 9b bc
       -0.15854175 -0.072880134 -0.027895512 -0.018951537
000030 ae c6 af bd 09 3b 10 3f 24 cd a5 be ce 69 87 bc
       -0.08582817 0.5634008 -0.32383072 -0.016529944
000040 7d 54 a6 3e 07 e9 02 bf c4 ff d8 be d7 11 71 3e
       0.32486334 -0.5113682 -0.42382634 0.23541962
000050 3a b5 92 bb 78 55 6a 3d ef f3 8a 3d 78 bd db bb
       -0.0044771703 0.057210416 0.06784808 -0.006705936
000060 fa 05 28 bd 13 f8 06 be 35 aa ab bd 2f 16 ee bd
       -0.041021325 -0.1318057 -0.08382074 -0.11625325
000070 95 b4 1f bf 27 13 4e be a2 20 fc 3e ac 51 43 3e
       -0.6238492 -0.20124494 0.49243647 0.19074124
000080 d3 10 ad 3f 23 fc d3 be 85 17 5d bf 84 8d 2c bc
       1.3520759 -0.41403303 -0.8636401 -0.010531787
000090 bb 13 17 bf 00 ad 3d be 84 e7 14 3f a6 36 77 bf
       -0.5901448 -0.18523026 0.58165765 -0.9656776
0000a0 dd e1 b1 be 24 41 e9 3e 99 26 5b 3e 04 54 6d 3e
       -0.34742633 0.4555751 0.21401443 0.2317658
0000b0 61 0c 76 3f 51 04 b1 bf 00 62 8d bf 1f 55 87 3f
       0.9611264 -1.3829442 -1.1045532 1.0572852

decoder.layers.0.multihead_attn.in_proj_bias f4 [12]
000000 c0 a3 86 bf 2b 6b 29 3f 1d 56 08 be b2 ef ab 3f
       -1.0518723 0.6617915 -0.133141 1.3432524
000010 e5 9b 02 bf 0c 10 c9 bc 6a 66 98 3c b7 2a 68 3d
       -0.51019126 -0.024543785 0.018603522 0.05668136
000020 05 b2 39 be 0e 4e 57 bf 76 74 4a bf 8a 3f 48 3e
       -0.18134315 -0.84103477 -0.79083955 0.19555488

decoder.layers.0.multihead_attn.out_proj.weight f4 [4, 4]
000000 8c 34 d3 bf 5d 1c 0c 3d 3c b6 61 bf 5c 16 1c c0
       -1.6500411 0.034206737 -0.8816869 -2.4388647
000010 a5 d2 87 be ed dd 0f 3f 74 da 3e 3d af 6b 1a 3f
       -0.26527897 0.56198007 0.046595052 0.6032056
000020 c4 d0 58 3f 6b 1a 1d 3f 17 2c 2c 3e ba 72 eb be
       0.8469355 0.61368436 0.16813694 -0.45985967
000030 a8 3b ad bf fa 5a 8d 3f 5a ac 7a 3f 34 31 be bf
       -1.3533831 1.1043389 0.9791924 -1.4858766

decoder.layers.0.multihead_attn.out_proj.bias f4 [4]
000000 a9 d7 01 bf b6 9d c2 3d 51 99 14 3e ff a3 9e bd
       -0.50719696 0.09502737 0.1451161 -0.077461235

decoder.layers.0.linear1.weight f4 [4, 4]
000000 97 37 c2 bb f1 07 bc 3c c2 8e 0d 3c e6 38 96 3c
       -0.005927037 0.022953006 0.008639993 0.018337678
000010 59 fc a8 be 9d f8 81 3e 44 ee 7f be a8 5d 48 bf
       -0.33005026 0.2538499 -0.24993235 -0.7826791
000020 f3 ba 56 bf c7 f6 be be 1f 6e 45 3e be 23 68 3f
       -0.8387901 -0.3729765 0.19280289 0.9067954
000030 a8 d2 52 bf d9 83 5a 3d a7 9a f0 3c 90 b7 16 be
       -0.82352686 0.053348396 0.029370619 -0.14718461

decoder.layers.0.linear1.bias f4 [4]
000000 5f fa 89 be 88 d8 95 3f 7b c7 8a bf d2 1f f7 be
       -0.2694883 1.1706705 -1.0842127 -0.48266464

decoder.layers.0.linear2.weight f4 [4, 4]
000000 e8 d1 cc 3d c8 4f 1e 3e 47 95 27 3e 3c 0d 96 3d
       0.10000974 0.15460122 0.16365539 0.07326743
000010 db a0 46 3e 7f 9c c9 be b8 85 e0 3f 89 95 1e be
       0.19397299 -0.3937721 1.7540808 -0.1548673
000020 65 a3 c8 3d ef b9 84 bf f1 eb 0a be 94 7d 92 bd
       0.0979679 -1.0369242 -0.13566567 -0.071528584
000030 f2 f6 82 3d 0e 6c e9 3e 9d 75 81 be 90 ca f7 bd
       0.06394757 0.45590252 -0.25285044 -0.120991826

decoder.layers.0.linear2.bias f4 [4]
000000 69 14 0f bc dc 87 3d bd 25 f8 b1 3c 0c 14 8f 3e
       -0.0087328935 -0.046272144 0.02172477 0.27944982

decoder.layers.0.norm1.weight f4 [4]
000000 24 a6 b2 3f 48 fc 20 40 6c 95 82 40 76 96 6a 40
       1.3956952 2.515398 4.08074 3.6654334

decoder.layers.0.norm1.bias f4 [4]
000000 52 30 99 3f 20 0c 03 3f a4 c0 f3 bf 63 72 ec 3f
       1.1967871 0.51190376 -1.9043164 1.8472408

decoder.layers.0.norm2.weight f4 [4]
000000 6b 03 2e 3f 96 1f 1b 40 da a3 3f 40 c8 04 4b 3f
       0.67973965 2.4238029 2.9943757 0.7930417

decoder.layers.0.norm2.bias f4 [4]
000000 29 58 fa 3f 6b cc ac bf 82 d7 43 be e6 e1 64 3f
       1.9558154 -1.3499883 -0.19125178 0.89407194

decoder.layers.0.norm3.weight f4 [4]
000000 39 a3 35 bc 3f 8b 87 3c 2e 31 8a 3f be 71 be 3c
       -0.011086279 0.01654589 1.0796258 0.023247596

decoder.layers.0.norm3.bias f4 [4]
000000 a1 48 c3 bc c2 37 c8 bc af 0b b7 3e ac a7 92 3c
       -0.023838343 -0.02444065 0.357511 0.017902218

linear_mapping.weight f4 [1, 4]
000000 92 3d 94 bc 67 44 a3 3c 5d 52 17 bf 04 d6 93 3c
       -0.018095765 0.019930078 -0.5911005 0.018046387

linear_mapping_with_gender_ind.weight f4 [1, 5]
000000 22 18 27 be f4 d3 2d 3e da 7c 98 3e 1b 1e 6f be
       -0.163178 0.16975385 0.29782754 -0.23351328
000010 c0 84 90 3b
       0.0044103563

exp_avg f4 [4, 3]
000000 16 18 bd 3a 32 ad bc 3a 88 c4 ba 3a d4 53 29 bb
       0.0014426734 0.0014394878 0.0014249245 -0.002583732
000010 d8 ce 2a bb ce 27 2c bb 2b 16 b4 ba af ab b0 ba
       -0.002606323 -0.0026268843 -0.0013739517 -0.00134789
000020 b9 00 af ba 8f af 85 3d 8b d2 86 3d 08 1c 88 3d
       -0.0013351656 0.06527626 0.06583127 0.066459715

exp_avg_sq f4 [4, 3]
000000 46 d9 10 38 54 04 13 38 04 3b 13 38 4f ce f8 37
       3.4534627e-05 3.5051562e-05 3.5102494e-05 2.9659974e-05
000010 05 ea fb 37 89 8c ff 37 ee 73 24 38 77 b3 26 38
       3.0030506e-05 3.046381e-05 3.9208615e-05 3.9744624e-05
000020 c1 dc 26 38 b0 99 bd 3c 22 83 bf 3c 83 fe c0 3c
       3.9783077e-05 0.023144573 0.023377959 0.02355886

exp_avg f4 [4]
000000 20 b9 fa b9 64 d8 89 3a 9f de f2 39 f1 64 d6 bc
       -0.00047821645 0.001051676 0.00046323703 -0.02617118

exp_avg_sq f4 [4]
000000 91 47 a6 36 5e 11 c4 36 de 5d c8 36 a0 89 8a 3b
       4.955517e-06 5.843277e-06 5.971392e-06 0.004227832

exp_avg f4 [4, 1]
000000 7b a4 b3 3c 75 11 1e 3c 86 b6 1c bd 36 d2 01 3d
       0.021929016 0.009647717 -0.038260005 0.031694613

exp_avg_sq f4 [4, 1]
000000 0c ae 56 3b d7 b4 1a 3a 19 29 e9 3b 52 ae 28 3c
       0.0032757549 0.0005901581 0.007115495 0.010295467

exp_avg f4 [4]
000000 79 a6 25 bc a9 4f 94 bb e5 81 82 3c 6b fe 68 bc
       -0.010110491 -0.004526098 0.01593108 -0.014220814

exp_avg_sq f4 [4]
000000 ed b5 26 3a 20 54 fd 38 82 8b a3 3a 8f e6 db 3a
       0.00063595065 0.000120796496 0.001247749 0.0016777086

exp_avg f4 [12, 4]
000000 39 95 0d b8 27 91 02 39 0c 25 b2 36 83 a3 17 b9
       -3.3755994e-05 0.0001245184 5.309126e-06 -0.00014461395
000010 0c bc 84 37 28 64 88 38 10 4d c4 36 31 c8 7d b8
       1.5823192e-05 6.503641e-05 5.8502264e-06 -6.0506343e-05
000020 d2 79 98 b7 c9 f2 6c 39 dc f4 2e 37 3c 2c 6a b9
       -1.8176539e-05 0.00022597158 1.0428219e-05 -0.00022332458
000030 28 c7 16 b7 18 7f 14 39 fb bb 26 37 b1 e2 24 b9
       -8.987066e-06 0.00014161726 9.938139e-06 -0.00015724708
000040 68 b7 41 3a 3a 21 83 b9 10 0a ce b6 fc b4 74 b7
       0.00073896954 -0.00025011023 -6.14045e-06 -1.4585672e-05
000050 1d cf da b8 40 34 18 b7 43 a7 8e b5 af 5a b2 34
       -0.00010433628 -9.072071e-06 -1.0628504e-06 3.3221065e-07
000060 43 ce b8 b9 15 72 7b b9 d8 01 8d b6 d7 b6 35 37
       -0.00035248892 -0.00023979724 -4.202342e-06 1.0831011e-05
000070 4a 4d 34 3a 45 75 38 b9 71 79 b9 b6 bd 69 87 b7
       0.0006877972 -0.00017591294 -5.5275673e-06 -1.6142492e-05
000080 a2 c3 e2 b8 59 78 88 3a 38 c6 3d 36 8b 26 2d bb
       -0.00010812959 0.0010411843 2.8278573e-06 -0.0026420678
000090 62 0f 8a 37 12 2b 03 37 f2 87 c9 b6 1b 65 e3 37
       1.6458045e-05 7.818237e-06 -6.006093e-06 2.710759e-05
0000a0 e2 78 da bb 6c ba 4d 3c 94 5d d7 3a d7 b7 cc bc
       -0.0066672424 0.0125566535 0.0016431087 -0.024990005
0000b0 70 76 25 3b d6 9b 9c bb ba c2 25 ba e8 b8 1a 3c
       0.0025247596 -0.0047793193 -0.0006323267 0.009443499

exp_avg_sq f4 [12, 4]
000000 25 02 f9 32 45 f9 71 33 95 96 28 31 b6 ee 34 33
       2.898839e-08 5.6338894e-08 2.4532814e-09 4.2126622e-08
000010 5e bb b6 32 88 51 bb 33 e1 c3 93 31 87 c7 b9 33
       2.1272793e-08 8.7226965e-08 4.300532e-09 8.6510276e-08
000020 36 67 60 33 5b ac bc 34 33 61 82 31 7f ee b8 34
       5.2247934e-08 3.5143134e-07 3.7945482e-09 3.44462e-07
000030 4e db 92 33 5d 7e 34 34 be ce 49 32 e1 de 1a 34
       6.838546e-08 1.6809777e-07 1.1746748e-08 1.442345e-07
000040 6a 9c 16 36 8c 67 f4 35 5d f7 f2 30 7a 95 81 30
       2.2442787e-06 1.8209553e-06 1.7678122e-09 9.428469e-10
000050 9a a4 b6 33 0b 60 84 33 03 65 e7 2e 03 81 a8 2e
       8.504976e-08 6.164199e-08 1.0522607e-10 7.6626726e-11
000060 11 23 90 35 0e 57 ed 35 e9 a3 ea 31 30 3d 46 32
       1.0739042e-06 1.7683212e-06 6.8289308e-09 1.1539029e-08
000070 91 79 00 36 17 c8 fd 35 c1 e9 48 31 3a 9f 38 31
       1.9144247e-06 1.8908203e-06 2.9236704e-09 2.6866034e-09
000080 8e d9 a1 39 af c8 8b 37 02 48 0a 38 f2 10 9d 38
       0.00030870404 1.6663542e-05 3.2968826e-05 7.4895e-05
000090 8f 3a 3d 34 44 ca 54 33 93 e4 ad 32 8d 8b 52 34
       1.76233e-07 4.9544056e-08 2.0243794e-08 1.9608542e-07
0000a0 5c 75 09 39 00 31 57 3a 95 d1 0c 37 a4 da 4c 3b
       0.00013109058 0.00082089007 8.393447e-06 0.003125825
0000b0 37 54 b9 37 a9 4c d0 38 be 19 db 35 58 07 c8 39
       2.2092934e-05 9.932492e-05 1.6324263e-06 0.00038152444

exp_avg f4 [12]
000000 e4 0c c0 38 62 2a 34 38 0f 7e 0a 39 22 c6 e2 38
       9.1576745e-05 4.2954816e-05 0.00013207666 0.00010813425
000010 23 9c d7 2d d3 cb c2 ad aa d6 91 ae 23 b0 4f 2e
       2.4512009e-11 -2.2145763e-11 -6.6319686e-11 4.722279e-11
000020 b1 64 96 3a 5c 3b 9e b7 e5 de 6a 3c 4c 8c b1 bb
       0.00114741 -1.886271e-05 0.014335369 -0.005418336

exp_avg_sq f4 [12]
000000 51 4c 14 33 8d e5 36 33 c6 a9 0d 34 d1 43 c7 33
       3.4528345e-08 4.2583952e-08 1.3193412e-07 9.278995e-08
000010 f6 32 8b 1f 32 ad 1c 1d 89 e3 9a 1f 90 99 88 1f
       5.89531e-20 2.0735968e-21 6.559796e-20 5.785229e-20
000020 da 44 27 39 b0 28 17 34 d3 7e 46 3a ab 2b ce 38
       0.0001595201 1.4077773e-07 0.0007571999 9.830979e-05

exp_avg f4 [4, 4]
000000 ea 60 1b 3c 2d 11 2d b9 de 8d d5 ba f6 b6 c6 ba
       0.009483555 -0.00016504964 -0.001629289 -0.0015160728
000010 09 13 83 3a 0a 22 de b7 44 b2 95 39 cc 8f a4 b9
       0.001000018 -2.6480313e-05 0.00028552313 -0.00031387655
000020 7c 00 bc bb 5c d5 35 38 0e 69 8f 3a f8 ea 4c 3a
       -0.0057373624 4.335247e-05 0.0010941343 0.00078169955
000030 ea 7f b6 ba 2c bb 1d b7 0a 5b 8a 39 e3 e5 3a 39
       -0.0013923619 -9.401509e-06 0.0002638924 0.00017823982

exp_avg_sq f4 [4, 4]
000000 45 24 b6 39 36 fc 02 35 01 0a db 36 82 0f 62 37
       0.00034740768 4.879579e-07 6.527873e-06 1.347426e-05
000010 29 77 1b 37 77 73 6b 35 dc 2c 2b 38 d5 a7 0b 37
       9.266464e-06 8.7712345e-07 4.0811356e-05 8.324122e-06
000020 96 0e 92 39 fa 3e a2 34 47 d1 8b 36 5c 8e 31 37
       0.00027858157 3.0220673e-07 4.166886e-06 1.0583168e-05
000030 39 45 65 37 52 3c 38 35 27 75 d5 37 90 4b c8 36
       1.3665581e-05 6.863312e-07 2.5446132e-05 5.969261e-06

exp_avg f4 [4]
000000 9b 74 36 3b ec 87 27 38 90 2f bb ba b7 01 fb b9
       0.0027840498 3.994249e-05 -0.0014281143 -0.00047875728

exp_avg_sq f4 [4]
000000 b2 97 ae 37 bf e4 63 37 60 7b 8b 37 0c 8a 22 37
       2.0813055e-05 1.35835135e-05 1.6627542e-05 9.688094e-06

exp_avg f4 [4, 4]
000000 04 00 00 00 04 00 00 80 04 00 00 80 04 00 00 00
       6e-45 -6e-45 -6e-45 6e-45
000010 52 ac a1 36 44 1a 91 b9 b0 73 a6 38 90 82 ea 38
       4.8182346e-06 -0.00027676125 7.937045e-05 0.00011182309
000020 91 e6 03 38 e0 bf 28 3b 3f 38 66 b9 9e 0b e5 ba
       3.1447566e-05 0.0025749132 -0.00021955463 -0.0017474776
000030 04 00 00 00 04 00 00 80 04 00 00 80 04 00 00 00
       6e-45 -6e-45 -6e-45 6e-45

exp_avg_sq f4 [4, 4]
000000 19 00 00 00 19 00 00 00 19 00 00 00 19 00 00 00
       3.5e-44 3.5e-44 3.5e-44 3.5e-44
000010 d7 f4 27 35 e2 93 bf 38 1e 94 a6 34 f0 8f 14 38
       6.2568637e-07 9.135135e-05 3.102768e-07 3.5420002e-05
000020 85 e2 95 33 8c 4d d1 38 83 a9 75 35 84 61 2c 38
       6.979557e-08 9.980341e-05 9.1516284e-07 4.1098814e-05
000030 19 00 00 00 19 00 00 00 19 00 00 00 19 00 00 00
       3.5e-44 3.5e-44 3.5e-44 3.5e-44

exp_avg f4 [4]
000000 04 00 00 00 88 2e 49 b8 c2 fe 0f 3a 04 00 00 00
       6e-45 -4.796547e-05 0.0005492979 6e-45

exp_avg_sq f4 [4]
000000 19 00 00 00 8d a0 7a 36 e6 80 8b 36 19 00 00 00
       3.5e-44 3.7346356e-06 4.1575286e-06 3.5e-44

exp_avg f4 [4, 4]
000000 04 00 00 00 20 51 59 38 93 92 5e 39 04 00 00 80
       6e-45 5.1812385e-05 0.00021226173 -6e-45
000010 04 00 00 00 a8 51 6a b9 56 1e 14 b9 04 00 00 80
       6e-45 -0.00022346398 -0.00014125681 -6e-45
000020 04 00 00 80 aa 3c 17 ba dc 6b f2 b8 04 00 00 80
       -6e-45 -0.00057692325 -0.000115595496 -6e-45
000030 04 00 00 80 c0 2f 88 39 78 62 56 37 04 00 00 00
       -6e-45 0.00025975518 1.27783205e-05 6e-45

exp_avg_sq f4 [4, 4]
000000 19 00 00 00 50 14 7f 37 f2 41 92 34 19 00 00 00
       3.5e-44 1.5203914e-05 2.72426e-07 3.5e-44
000010 19 00 00 00 8d 42 0b 36 66 b1 c8 33 19 00 00 00
       3.5e-44 2.0751352e-06 9.345494e-08 3.5e-44
000020 19 00 00 00 7d 5c 1f 37 92 42 40 34 19 00 00 00
       3.5e-44 9.498673e-06 1.7905612e-07 3.5e-44
000030 19 00 00 00 76 44 d7 34 a6 24 0f 33 19 00 00 00
       3.5e-44 4.0096683e-07 3.3328114e-08 3.5e-44

exp_avg f4 [4]
000000 64 f7 49 3b 3d 14 99 39 4a af 2f bb 84 6e 91 ba
       0.0030817622 0.00029197513 -0.0026807361 -0.0011095558

exp_avg_sq f4 [4]
000000 e4 10 8f 38 84 ef d8 37 25 da 28 38 65 c1 07 38
       6.8219175e-05 2.586074e-05 4.0257484e-05 3.236662e-05

exp_avg f4 [4]
000000 d9 47 b8 ba 23 32 5f 3a 53 b7 42 ba df bb f2 3a
       -0.0014059498 0.0008514246 -0.000742783 0.0018519125

exp_avg_sq f4 [4]
000000 d4 1b 83 37 0f 2e 7a 36 97 fd 0b 37 4a f2 88 37
       1.5629375e-05 3.7279713e-06 8.344089e-06 1.6325288e-05

exp_avg f4 [4]
000000 ca d7 a6 3b 6c 92 64 39 ff 77 78 bb 4e 25 9b ba
       0.005091642 0.00021798321 -0.003791332 -0.0011836679

exp_avg_sq f4 [4]
000000 d7 e8 46 39 73 e3 e7 37 02 99 24 39 5b 7a 02 38
       0.00018969491 2.764326e-05 0.00015697259 3.1108368e-05

exp_avg f4 [4]
000000 b5 5e 3f bb c6 cf 0d bb c7 89 56 b9 ba 97 b9 39
       -0.0029200737 -0.0021638735 -0.00020459956 0.00035398995

exp_avg_sq f4 [4]
000000 fe e2 06 39 ba ae 47 39 13 11 fe 38 6a 76 69 38
       0.00012863797 0.0001904321 0.00012114844 5.566181e-05

exp_avg f4 [4]
000000 bb 4f bf 3b df a8 fd ba 8a de 73 bb 9c a5 89 b9
       0.005838362 -0.0019352696 -0.00372115 -0.00026254065

exp_avg_sq f4 [4]
000000 a5 30 8d 39 76 f5 2d 39 32 47 3f 39 6c 71 b2 38
       0.0002692986 0.00016590007 0.00018241702 8.508828e-05

exp_avg f4 [12, 4]
000000 18 b0 16 39 30 b6 3c b9 74 6d ea 36 a8 3a 3b 38
       0.00014370715 -0.00017996947 6.9864855e-06 4.4638902e-05
000010 33 7f c7 b8 9e e8 b0 39 a6 02 c1 b7 f4 42 b8 b4
       -9.512752e-05 0.0003374265 -2.3008626e-05 -3.4321386e-07
000020 d9 31 52 ba e1 a9 9a 3a 28 ac 28 b8 32 a6 4f b9
       -0.0008018292 0.0011799895 -4.0214654e-05 -0.00019802971
000030 b9 1d d0 b8 e0 6d da 39 2a 69 dc b7 7f 5c 3d 37
       -9.923749e-05 0.00041662063 -2.6275015e-05 1.1286814e-05
000040 bc 8f 06 b9 d8 f4 24 39 0e 0e ef b8 ad 78 f2 37
       -0.00012832781 0.0001573147 -0.00011399026 2.8904842e-05
000050 0d d8 ba 39 c2 d3 9a b9 9b e1 d1 38 56 aa a9 b7
       0.00035637655 -0.0002953094 0.00010007919 -2.0225689e-05
000060 70 e3 cf 38 a5 24 fd b8 4e 54 2f 38 a5 3a 97 b7
       9.912893e-05 -0.00012070806 4.1801766e-05 -1.8027911e-05
000070 c8 79 f7 39 79 e4 b0 b9 3c 82 fa 37 aa f1 3c b6
       0.00047202245 -0.0003373956 2.9862967e-05 -2.815485e-06
000080 ad 32 a3 ba 90 ca ee ba 84 ce ec 3a 40 63 ff 39
       -0.0012451016 -0.0018218327 0.0018066918 0.00048711337
000090 1e 3b de b8 1d 99 3a ba b9 84 73 39 b0 68 c4 39
       -0.00010596796 -0.00071181526 0.00023223729 0.00037462031
0000a0 0e 31 24 38 d7 c4 aa b9 c3 b8 c5 b7 06 e6 06 b8
       3.9146333e-05 -0.00032571584 -2.3570266e-05 -3.2162316e-05
0000b0 f7 b9 0e ba cd 8b 20 3b 48 7b 10 3a 06 13 cf ba
       -0.0005444581 0.002449739 0.00055115344 -0.0015798516

exp_avg_sq f4 [12, 4]
000000 b2 65 ae 34 59 d8 df 34 09 ae ce 32 f5 8e 57 33
       3.248402e-07 4.16944e-07 2.4060698e-08 5.0188607e-08
000010 55 d6 04 35 e4 17 80 35 80 99 1e 33 0c 00 e2 33
       4.9485726e-07 9.543696e-07 3.692685e-08 1.05239536e-07
000020 39 6f df 36 f5 97 64 37 74 b1 0d 35 23 52 6f 35
       6.658866e-06 1.3625239e-05 5.278482e-07 8.915396e-07
000030 b8 ae 5d 35 4a 7b 87 35 13 7c 7c 33 e5 76 47 34
       8.2583165e-07 1.0094166e-06 5.8786167e-08 1.8576573e-07
000040 96 eb 4f 35 77 6b e4 34 ab c7 75 34 c7 64 64 33
       7.745633e-07 4.25465e-07 2.2890042e-07 5.3177043e-08
000050 da 81 3e 35 1e 55 97 34 44 66 44 34 68 d5 9f 32
       7.0969475e-07 2.8187873e-07 1.8291126e-07 1.8607082e-08
000060 cd 09 06 34 1f 86 9a 33 f4 83 00 33 d1 ac 7e 31
       1.2483288e-07 7.19558e-08 2.9922333e-08 3.70601e-09
000070 75 7c 2c 35 e1 9b 25 35 be f8 16 33 bd 8a 39 32
       6.42561e-07 6.1694124e-07 3.5150826e-08 1.0799963e-08
000080 5e fc 35 38 bb 33 a3 39 61 e7 04 38 72 24 90 37
       4.3388798e-05 0.00031128325 3.168674e-05 1.7183109e-05
000090 9b b4 88 35 06 76 3a 37 28 f3 24 35 44 98 06 35
       1.0185353e-06 1.1113943e-05 6.14486e-07 5.0140466e-07
0000a0 a2 47 25 34 04 89 86 35 f5 de b5 33 41 d4 79 33
       1.5392882e-07 1.0023655e-06 8.469025e-08 5.8167874e-08
0000b0 34 35 a5 37 1a b4 4f 38 34 0a 87 37 ec cc ca 37
       1.9694307e-05 4.952038e-05 1.6098005e-05 2.41757e-05

exp_avg f4 [12]
000000 a2 d1 26 39 6c 10 17 b9 b6 28 87 ba 97 d3 37 b9
       0.00015909088 -0.000144066 -0.0010311815 -0.00017531063
000010 a3 cb 1d 2e f9 a9 ad 2c 66 ac d9 2b 8f 66 f2 2d
       3.5878533e-11 4.9358265e-12 1.5466628e-12 2.755776e-11
000020 0a 6f 3f 3b 5d be d4 3a 5c cb 6c 39 8e 31 cc bb
       0.0029210472 0.0016231049 0.00022582471 -0.0062314933

exp_avg_sq f4 [12]
000000 0a ba 92 34 c7 14 11 35 a8 a0 e2 36 65 b9 50 35
       2.732998e-07 5.4046944e-07 6.7540277e-06 7.775582e-07
000010 6d 33 d6 1e 8e b5 4d 1e 2d 61 d3 1d 7a 8b 45 1e
       2.26794e-20 1.0890154e-20 5.5951712e-21 1.0457936e-20
000020 6b 18 9f 39 bc c5 82 37 db cc 65 35 30 1f 67 39
       0.00030345036 1.5589285e-05 8.560725e-07 0.00022041495

exp_avg f4 [4, 4]
000000 40 76 6c 3a 54 e4 0b b9 44 25 ca 37 96 42 a8 3a
       0.0009020306 -0.00013341132 2.409763e-05 0.0012837227
000010 a5 1f 54 3b 76 72 13 3a 15 76 da 38 52 8e 87 ba
       0.0032367494 0.0005624661 0.000104170445 -0.0010342097
000020 d6 48 b9 bb 67 68 05 39 85 f7 9e 38 9c 50 bd ba
       -0.0056544347 0.00012722761 7.580131e-05 -0.0014443579
000030 21 9d 61 3a 18 9a 7e ba bc 64 24 b9 b9 71 49 3a
       0.0008606483 -0.0009712293 -0.00015677785 0.00076844875

exp_avg_sq f4 [4, 4]
000000 42 46 b5 36 28 30 33 36 a5 f8 9b 33 98 83 d3 37
       5.4023994e-06 2.670111e-06 7.262978e-08 2.5214438e-05
000010 a7 ff f2 38 3d ee 9a 37 b8 ef b7 34 54 f6 9d 38
       0.00011587078 1.8469169e-05 3.4260825e-07 7.5322256e-05
000020 80 e5 18 39 b4 ed ed 37 60 6e 44 35 65 8b 4d 39
       0.00014581345 2.836329e-05 7.3176307e-07 0.00019602252
000030 eb fd 9c 37 14 fb 43 37 d8 c7 a8 34 bf 74 03 39
       1.8714889e-05 1.1681364e-05 3.1437844e-07 0.00012536625

exp_avg f4 [4]
000000 e1 c2 c1 3a 7a 4a fb 3b c9 13 72 3b 2a 26 09 3b
       0.001478281 0.0076687904 0.0036938062 0.0020927289

exp_avg_sq f4 [4]
000000 25 06 4b 38 ab c5 bd 39 7b 31 c6 39 46 6f ba 38
       4.8404694e-05 0.00036196163 0.0003780237 8.8898974e-05

exp_avg f4 [12, 4]
000000 39 80 b7 39 ee 0d e7 b9 91 6c 53 b9 f6 02 14 3a
       0.00035000013 -0.00044070132 -0.00020162972 0.0005646193
000010 8b 35 08 b8 9a 22 14 38 51 9c 0e 38 34 4a 63 b8
       -3.2474793e-05 3.5318175e-05 3.400102e-05 -5.4190125e-05
000020 24 3f 74 35 65 c6 10 b8 74 b7 90 38 51 1f 9a 36
       9.0988965e-07 -3.4517045e-05 6.900626e-05 4.5932034e-06
000030 57 34 aa b9 4e 73 cf 39 fe 50 5e 39 f9 37 04 ba
       -0.00032463923 0.00039568025 0.00021201742 -0.0005043741
000040 ae b2 d0 b9 39 43 35 39 da a0 b8 39 0e 0a f8 b8
       -0.00039805978 0.00017286548 0.0003521506 -0.00011827434
000050 ea 5a 41 b7 d2 a8 db 37 68 01 98 b8 46 8e 3f 38
       -1.1524864e-05 2.6185447e-05 -7.248187e-05 4.567045e-05
000060 9f bd f4 b7 d4 bb 3b 36 e9 14 9c 38 fc 65 28 b8
       -2.9175366e-05 2.7974502e-06 7.4425545e-05 -4.01493e-05
000070 12 de ab b9 7f ba a5 39 f6 74 e3 b9 04 4a b4 39
       -0.00032781117 0.00031610203 -0.00043383957 0.0003438742
000080 67 89 b5 ba 07 24 a7 3b 80 e5 83 ba 44 fc 38 bb
       -0.0013850153 0.0051007303 -0.0010062903 -0.0028226534
000090 92 ce 81 39 94 fa 9b b8 0d d0 d8 38 a2 38 66 b9
       0.00024758704 -7.43765e-05 0.00010338435 -0.00021955607
0000a0 88 15 52 37 d5 93 28 b8 ec 70 4a 38 50 88 9c b6
       1.25219885e-05 -4.0192e-05 4.826572e-05 -4.665031e-06
0000b0 12 cd 2c 3b 1d e0 ae b9 76 f6 1b bb 00 2b be 37
       0.0026367349 -0.00033354844 -0.0023798025 2.2669788e-05

exp_avg_sq f4 [12, 4]
000000 b0 cc 83 35 bc 72 a4 35 15 5f a3 36 f8 01 15 36
       9.819832e-07 1.2252344e-06 4.8688476e-06 2.2203876e-06
000010 72 a6 11 32 2a 26 2d 32 06 30 28 33 5e 9c af 32
       8.477956e-09 1.0078603e-08 3.9159225e-08 2.0443789e-08
000020 d6 4b 48 33 9c 83 22 33 f0 d4 85 34 18 26 16 34
       4.66351e-08 3.7838262e-08 2.4928113e-07 1.3983697e-07
000030 b2 7b fb 35 0a 80 3b 36 d8 3c a8 36 b6 ad ae 36
       1.8736957e-06 2.79397e-06 5.0138733e-06 5.2058267e-06
000040 a9 2f 1f 36 3c c5 1b 36 dc 05 3d 36 84 06 ce 35
       2.3720588e-06 2.3211605e-06 2.8166605e-06 1.5350092e-06
000050 1a fe e8 32 d3 14 19 33 fd 6e bf 33 8b 82 3a 33
       2.7123907e-08 3.5642028e-08 8.914319e-08 4.3425228e-08
000060 b4 9f cc 33 54 7f 03 34 63 5c 72 34 5b 03 ef 33
       9.52854e-08 1.2246647e-07 2.2571616e-07 1.1129915e-07
000070 bd 30 f1 35 49 a1 0b 36 82 13 9e 36 65 75 18 36
       1.7970084e-06 2.0806494e-06 4.711038e-06 2.2718098e-06
000080 29 7c 1c 38 77 93 46 39 28 7a 9a 38 fc bb d8 38
       3.730893e-05 0.00018937686 7.3660456e-05 0.000103346974
000090 98 3d 9f 36 04 c3 a5 36 14 91 81 36 7b 42 a0 36
       4.7457397e-06 4.940086e-06 3.861389e-06 4.776111e-06
0000a0 b2 04 d5 35 2a 5f 0d 36 e0 f9 ad 35 96 2c e7 35
       1.5871103e-06 2.106603e-06 1.2962228e-06 1.7223817e-06
0000b0 95 57 cf 38 c0 ab f0 38 64 ad ef 38 e8 93 b8 38
       9.8868426e-05 0.00011476083 0.000114287046 8.8013534e-05

exp_avg f4 [12]
000000 4a d0 2c 39 da a1 70 b7 3c 35 9c 36 18 a7 1a b9
       0.00016480792 -1.4342799e-05 4.6553596e-06 -0.00014748832
000010 f6 fa 2d 2c 42 8f 21 2c 76 e0 1c 2c 54 3f af 2e
       2.472409e-12 2.2959e-12 2.2293534e-12 7.969328e-11
000020 ca 79 92 3b ee a6 be 39 6e f7 66 39 f8 d5 e0 38
       0.004470085 0.00036363996 0.00022026684 0.00010721007

exp_avg_sq f4 [12]
000000 6c 96 40 34 4d 9a ca 30 c2 63 f6 31 e9 37 a4 34
       1.7936117e-07 1.4741289e-09 7.1708834e-09 3.058806e-07
000010 3e 5d 10 20 e2 f6 04 1d dd cc 0c 1e 5c d1 55 20
       1.2228126e-19 1.759769e-21 7.453903e-21 1.8111073e-19
000020 9c c6 ca 38 3a 68 71 36 4a 88 9f 35 7c c3 93 38
       9.6691045e-05 3.5972466e-06 1.1886088e-06 7.045918e-05

exp_avg f4 [4, 4]
000000 38 47 df b9 ec 30 2e 3a 82 a2 e1 39 6e 5d 40 38
       -0.00042586937 0.0006644863 0.00043036422 4.586338e-05
000010 8c 9e 9a 3b 84 0f 95 ba 2a f5 3c ba 03 6d ce 3b
       0.0047186073 -0.0011372422 -0.0007208163 0.0062996163
000020 6e 05 7f bb 16 2c 79 b9 37 89 34 ba 9f 8a f4 bb
       -0.0038913148 -0.00023762914 -0.00068869017 -0.007462814
000030 00 5a 53 35 95 db 0a 3a 4e 09 b1 39 1e be 86 3a
       7.873459e-07 0.00052970025 0.00033767003 0.0010280048

exp_avg_sq f4 [4, 4]
000000 f2 0a 26 37 0f 09 2c 36 c0 27 17 36 b0 e6 25 37
       9.896919e-06 2.563527e-06 2.252389e-06 9.8884775e-06
000010 ca 3b 37 39 f9 3b 23 37 66 e7 e8 36 aa 31 32 39
       0.00017474513 9.729521e-06 6.941077e-06 0.00016993904
000020 89 75 fe 38 9c 72 a3 37 03 73 38 37 8a e9 5c 39
       0.000121335564 1.9484483e-05 1.0994033e-05 0.00021067835
000030 c5 52 00 37 3c 9e 2e 36 65 fd da 35 1f 66 4d 37
       7.648666e-06 2.6020125e-06 1.6316013e-06 1.2242729e-05

exp_avg f4 [4]
000000 c9 b9 c9 b9 e1 d2 40 ba d5 62 3b 3b 12 39 70 ba
       -0.00038476128 -0.0007355642 0.0028592844 -0.00091637776

exp_avg_sq f4 [4]
000000 0d ea 88 36 75 e5 18 38 6e 68 4b 38 b2 80 dd 36
       4.080363e-06 3.6453323e-05 4.849623e-05 6.6012954e-06

exp_avg f4 [4, 4]
000000 04 00 00 00 04 00 00 80 04 00 00 00 04 00 00 00
       6e-45 -6e-45 6e-45 6e-45
000010 78 50 99 b9 8f 97 dd 38 86 70 2c 3a 30 51 44 b9
       -0.00029242388 0.00010566331 0.00065780466 -0.00018722261
000020 32 ce ac ba b4 08 03 3b 3a 3d c0 3b c5 e2 88 ba
       -0.001318401 0.00199942 0.005866674 -0.0010443559
000030 04 00 00 80 04 00 00 00 04 00 00 80 04 00 00 00
       -6e-45 6e-45 -6e-45 6e-45

exp_avg_sq f4 [4, 4]
000000 19 00 00 00 19 00 00 00 19 00 00 00 19 00 00 00
       3.5e-44 3.5e-44 3.5e-44 3.5e-44
000010 58 10 23 37 b3 1f 64 35 ad 19 65 38 51 6f 8b 36
       9.719362e-06 8.498275e-07 5.4621767e-05 4.1554817e-06
000020 a5 6c cb 38 f2 17 f3 39 f5 77 ba 38 f0 66 a7 38
       9.700031e-05 0.00046366412 8.891515e-05 7.982354e-05
000030 19 00 00 00 19 00 00 00 19 00 00 00 19 00 00 00
       3.5e-44 3.5e-44 3.5e-44 3.5e-44

exp_avg f4 [4]
000000 04 00 00 00 da 1a fa b8 44 50 1b b9 04 00 00 00
       6e-45 -0.000119259304 -0.00014811853 6e-45

exp_avg_sq f4 [4]
000000 19 00 00 00 3b c8 08 36 47 21 c4 37 19 00 00 00
       3.5e-44 2.0382129e-06 2.3380517e-05 3.5e-44

exp_avg f4 [4, 4]
000000 04 00 00 80 79 c8 14 b9 e8 16 4a b9 04 00 00 00
       -6e-45 -0.00014189062 -0.00019272754 6e-45
000010 04 00 00 00 5a 91 ac 39 d5 17 ea 39 04 00 00 80
       6e-45 0.00032914692 0.00044649714 -6e-45
000020 04 00 00 00 4d 03 1d b9 d8 aa 04 38 04 00 00 80
       6e-45 -0.00014973916 3.1630363e-05 -6e-45
000030 04 00 00 00 e2 91 9e b8 9a 6b 21 b9 04 00 00 00
       6e-45 -7.5612e-05 -0.00015394241 6e-45

exp_avg_sq f4 [4, 4]
000000 19 00 00 00 52 14 23 36 30 6d b4 36 19 00 00 00
       3.5e-44 2.430072e-06 5.377129e-06 3.5e-44
000010 19 00 00 00 1b 9a 05 37 79 2b fd 35 19 00 00 00
       3.5e-44 7.963298e-06 1.8862621e-06 3.5e-44
000020 19 00 00 00 71 bc 30 35 13 9d c3 37 19 00 00 00
       3.5e-44 6.583933e-07 2.3318955e-05 3.5e-44
000030 19 00 00 00 a6 8a 26 35 68 e2 90 36 19 00 00 00
       3.5e-44 6.204158e-07 4.3178916e-06 3.5e-44

exp_avg f4 [4]
000000 61 5a 1a bb e0 3f 75 bb 3c 99 f0 3b aa 18 c5 ba
       -0.0023552405 -0.0037422106 0.0073424857 -0.0015037258

exp_avg_sq f4 [4]
000000 f5 82 f7 37 37 8d 7c 39 62 f4 9f 39 9c f5 9e 37
       2.9505676e-05 0.000240852 0.00030508923 1.8949439e-05

exp_avg f4 [4]
000000 f3 11 c3 b9 c5 6b cf 3a 45 b6 06 3a c2 a8 93 b9
       -0.00037206672 0.0015824965 0.00051388546 -0.0002816376

exp_avg_sq f4 [4]
000000 8b b0 27 36 b8 07 55 38 84 bb dc 37 ca dd 53 36
       2.49877e-06 5.0790346e-05 2.6313362e-05 3.1570548e-06

exp_avg f4 [4]
000000 77 1d fd b9 6e 0f 85 ba 57 83 1e 3b e7 60 28 ba
       -0.00048277873 -0.0010151693 0.0024187171 -0.0006423131

exp_avg_sq f4 [4]
000000 3a 86 94 36 3b 3d 17 38 fb 4c 4c 38 a5 5c 0e 37
       4.4263697e-06 3.605823e-05 4.8709084e-05 8.48543e-06

exp_avg f4 [4]
000000 f0 50 f1 3a 90 26 a7 3b 74 91 44 bb c3 bb 1c bb
       0.0018410962 0.0051010326 -0.0029993923 -0.0023915626

exp_avg_sq f4 [4]
000000 d7 59 ab 37 22 35 19 39 dc c3 7e 39 ab d2 86 38
       2.0426623e-05 0.0001461101 0.00024296291 6.428858e-05

exp_avg f4 [4]
000000 ee e0 1d bb ea ac 5c bb a7 2e f8 3b 32 b1 d7 ba
       -0.0024090367 -0.00336724 0.007573921 -0.0016456007

exp_avg_sq f4 [4]
000000 17 e7 09 38 4f 46 61 39 fb a0 8b 39 11 20 66 38
       3.2878565e-05 0.00021483864 0.00026632086 5.4866137e-05

exp_avg f4 [4]
000000 71 37 39 3a 51 a5 30 3b a8 fe 8a 3a 33 a7 35 b9
       0.00070654514 0.0026954005 0.0010604458 -0.00017323792

exp_avg_sq f4 [4]
000000 60 98 57 36 f8 23 2d 37 58 99 c6 3c f6 50 12 35
       3.212619e-06 1.0319978e-05 0.024243042 5.450705e-07

exp_avg f4 [4]
000000 f0 b2 72 3a ef e8 0c bb 64 46 14 3d 03 a7 23 ba
       0.0009258231 -0.0021501144 0.036199942 -0.0006242843

exp_avg_sq f4 [4]
000000 4a ba 82 36 3a 6b 68 37 a1 7a 54 3c 35 a3 73 35
       3.895989e-06 1.3853243e-05 0.01296869 9.076205e-07

exp_avg f4 [1, 4]
000000 47 7b dc 3a 78 a4 9d 3b 1b 47 c6 bc 5e 9a 90 ba
       0.0016821407 0.004810866 -0.024203828 -0.0011032333

exp_avg_sq f4 [1, 4]
000000 88 b7 46 37 da 7e 23 38 ff 9b 53 3d 2d b7 90 36
       1.1844451e-05 3.8980368e-05 0.05166244 4.312859e-06
