Saved_models/best_model_Male.pt (torch, 91802 bytes, 198 tensors)

encoder_input_layer.weight f4 [4, 5]
0	0x3f508166	0.81447446
1	0x3f86ab2c	1.0520988
2	0x3ef937a5	0.48675266
3	0x3f1a6ede	0.6032542
4	0x3f3334f4	0.70002675
5	0xbeb78cfd	-0.35849753
6	0xbec31b9a	-0.38106996
7	0x3da6db19	0.08147258
8	0xbed7f736	-0.42180794
9	0xbdd70a92	-0.10500063
10	0xbeafdf42	-0.3435002
11	0xbe3b0da3	-0.18266921
12	0xbf36fc1b	-0.7147843
13	0xbf1fa7f5	-0.6236566
14	0xbee2a1d2	-0.44264084
15	0x3f23c89c	0.6397798
16	0x3f4cd8c1	0.8001824
17	0x3f72b092	0.94800675
18	0x3ebd8b37	0.37020275
19	0x3f06bf0a	0.5263525

encoder_input_layer.bias f4 [4]
0	0xbeebfd65	-0.46091762
1	0x3fb8714e	1.4409578
2	0xbf29c201	-0.6631165
3	0x3eea5706	0.4576952

decoder_input_layer.weight f4 [4, 1]
0	0xbf0b1775	-0.5433267
1	0x3fcbce3e	1.5922315
2	0x3f30ae50	0.6901598
3	0x3fb251bd	1.3931195

decoder_input_layer.bias f4 [4]
0	0xbfa54732	-1.2912352
1	0x3f776882	0.9664384
2	0x3fbd01ed	1.4766213
3	0x40219c80	2.525177

positional_encoding_layer_enc.pe f4 [1, 7, 4]
0	0x00000000	0.0
1	0x3f800000	1.0
2	0x00000000	0.0
3	0x3f800000	1.0
4	0x3f576aa4	0.84147096
5	0x3f0a5141	0.54030234
6	0x3c23d657	0.009999833
7	0x3f7ffcb9	0.99995
8	0x3f68c7b7	0.9092974
9	0xbed51133	-0.41614684
10	0x3ca3d43e	0.019998666
11	0x3f7ff2e5	0.9998
12	0x3e1081c3	0.14112
13	0xbf7d7026	-0.9899925
14	0x3cf5b91f	0.0299955
15	0x3f7fe283	0.99955004
16	0xbf41bdcf	-0.7568025
17	0xbf275530	-0.6536436
18	0x3d23cbdb	0.039989334
19	0x3f7fcb94	0.9992001
20	0xbf757c10	-0.9589243
21	0x3e913c2c	0.2836622
22	0x3d4cb6f4	0.049979165
23	0x3f7fae19	0.99875027
24	0xbe8f0f8c	-0.2794155
25	0x3f75cdb8	0.96017027
26	0x3d759cd1	0.059964005
27	0x3f7f8a12	0.99820054

positional_encoding_layer_dec.pe f4 [1, 1, 4]
0	0x00000000	0.0
1	0x3f800000	1.0
2	0x00000000	0.0
3	0x3f800000	1.0

encoder.layers.0.self_attn.in_proj_weight f4 [12, 4]
0	0xbc8de383	-0.0173204
1	0xbc4b06d4	-0.012391765
2	0x3f8f90c0	1.1216049
3	0xbf81f0ec	-1.0151649
4	0x3ed0058c	0.40629232
5	0xbf850f6d	-1.0395333
6	0xbf0d4f63	-0.5519926
7	0x3fad0dd6	1.3519847
8	0x3f9e1745	1.2350851
9	0xbf8799e9	-1.0593845
10	0xbf99312a	-1.1968129
11	0x3faa35f9	1.3297721
12	0x3e8b814e	0.2724709
13	0x3d7073e0	0.058704257
14	0xbf8ba0cd	-1.0908448
15	0x3e6063e9	0.21913113
16	0x3f1d6156	0.6147665
17	0xbe9a8b44	-0.30184376
18	0xbf6c4577	-0.92293495
19	0x3f89e261	1.077221
20	0x3de5e0b1	0.11224497
21	0x3f8819d2	1.063288
22	0x3f9f7156	1.2456462
23	0xbf41226b	-0.7544314
24	0xbea0581f	-0.3131723
25	0x3ea24a57	0.31697342
26	0x3f66f671	0.9021979
27	0xbfa9397a	-1.3220665
28	0xbf12c97d	-0.57338697
29	0x3ef73c7d	0.48288336
30	0x3f028d91	0.50997263
31	0xbf4bf7cf	-0.79675
32	0x3f867f54	1.0507607
33	0xbf9b5069	-1.2133914
34	0xc02dc302	-2.7150273
35	0xbff7ae27	-1.9350022
36	0xbf4b8573	-0.795005
37	0x3f6b0ebf	0.91819376
38	0x402290bc	2.540084
39	0x4009a41e	2.150642
40	0x3ec35c8f	0.38156554
41	0xbe7b6c36	-0.24552998
42	0xc016f7f3	-2.3588836
43	0xbff6ff51	-1.9296666
44	0xbf56c1d4	-0.8388951
45	0x3f180d89	0.59395653
46	0xbf8525c2	-1.0402148
47	0xc015439f	-2.3322523

encoder.layers.0.self_attn.in_proj_bias f4 [12]
0	0xbe7fcf25	-0.24981363
1	0x3f166f5a	0.5876366
2	0x3b661e6b	0.0035113345
3	0xbe331c3a	-0.17491236
4	0x3cf2e084	0.029648073
5	0x3d8bce3d	0.06826446
6	0xbd933add	-0.07188962
7	0xbd47ca7b	-0.048777085
8	0xbf7d4d6a	-0.9894625
9	0x3f923d4c	1.1424956
10	0xbeaec167	-0.3413193
11	0x3f48294e	0.78188026

encoder.layers.0.self_attn.out_proj.weight f4 [4, 4]
0	0xbf8aa3fe	-1.0831296
1	0x3f61ef58	0.88255835
2	0xbf8f0b73	-1.1175369
3	0xbfaffd95	-1.3749262
4	0xbffa921c	-1.9575839
5	0x4002b6e5	2.042413
6	0xbfacfadb	-1.3514055
7	0xbf87db6f	-1.0613841
8	0x3f7fcebb	0.9992482
9	0xbf1ed164	-0.62038255
10	0xbdc423ce	-0.09577142
11	0xbf8e4fe0	-1.1118126
12	0xbd33890f	-0.04383188
13	0xbedb66d2	-0.42851883
14	0x3f57286d	0.8404606
15	0x3f1cf353	0.61308783

encoder.layers.0.self_attn.out_proj.bias f4 [4]
0	0xbf580f48	-0.8439832
1	0x3ec1bf2e	0.3784117
2	0xbeaee54c	-0.34159315
3	0x3f481ed4	0.7817204

encoder.layers.0.linear1.weight f4 [4, 4]
0	0x3f6f6738	0.93516874
1	0x3cf0ab65	0.029378602
2	0xbfbbf35f	-1.4683646
3	0x3d1ffd27	0.039059784
4	0xbc1d8c4b	-0.009615968
5	0xbf92f2c3	-1.1480335
6	0xbef9447b	-0.4868506
7	0x3e4e889c	0.201693
8	0xbd71e78c	-0.05905871
9	0xbf0e0df6	-0.5549005
10	0xbe2d9c1f	-0.16954087
11	0xbe1e0893	-0.15432958
12	0x3e85b835	0.261171
13	0x3cf40e62	0.029792015
14	0xbeaecb58	-0.34139514
15	0xbf3534a6	-0.7078346

encoder.layers.0.linear1.bias f4 [4]
0	0x3d93fba1	0.07225729
1	0xbf398a67	-0.7247681
2	0xbf873602	-1.0563357
3	0xbf7a6414	-0.9780896

encoder.layers.0.linear2.weight f4 [4, 4]
0	0x4002af5b	2.0419528
1	0x3efab095	0.48962846
2	0xbeb2e743	-0.34942064
3	0x3ec193e9	0.3780816
4	0x3fcacae6	1.584317
5	0x3e844fa1	0.25842002
6	0xbf76481b	-0.96203774
7	0x3e90a870	0.28253508
8	0xbf90a92b	-1.1301626
9	0xbd8be013	-0.06829848
10	0xbe0ad359	-0.13557185
11	0xbf3d5394	-0.73955655
12	0x3eb1b859	0.3471096
13	0x3f9feca2	1.249409
14	0x3ef974c7	0.48721907
15	0x3ddda615	0.10822693

encoder.layers.0.linear2.bias f4 [4]
0	0x3e9302c1	0.2871304
1	0x3e95b59d	0.29240122
2	0xbf0a9261	-0.54129606
3	0x40122084	2.2832346

encoder.layers.0.norm1.weight f4 [4]
0	0x3fe10421	1.7579385
1	0x3fad7c8b	1.3553632
2	0x3fdca12e	1.7236688
3	0xbe72b1d2	-0.23700646

encoder.layers.0.norm1.bias f4 [4]
0	0xbe5f7c65	-0.21824796
1	0x3f96a3f8	1.1768789
2	0xbfa2b35d	-1.2710987
3	0x3fb0fd05	1.3827215

encoder.layers.0.norm2.weight f4 [4]
0	0x3fbda55f	1.4816092
1	0x3ebe12fd	0.37123862
2	0x3ff39105	1.9028631
3	0x3f677b44	0.90422463

encoder.layers.0.norm2.bias f4 [4]
0	0xbeefb996	-0.46821278
1	0x3fae2f26	1.3608139
2	0xbfe58ec8	-1.7934198
3	0x3f160dce	0.58614814

encoder.layers.1.self_attn.in_proj_weight f4 [12, 4]
0	0xbfa0a3a5	-1.254994
1	0x3f59ca74	0.85074544
2	0xbda9cdce	-0.08291207
3	0x3f12ce8a	0.57346404
4	0x3ed23373	0.41054878
5	0xbfef86fa	-1.8713067
6	0x3e91862f	0.28422686
7	0xbf2221b9	-0.63332707
8	0x3f86f0d4	1.0542245
9	0xbfaf6d70	-1.3705273
10	0x3f6bdac2	0.9213067
11	0xbf8467fe	-1.0344236
12	0xbf10320d	-0.5632637
13	0x3ffaf47b	1.960586
14	0xbfaf9821	-1.3718301
15	0x3fa9946e	1.3248422
16	0xbddf1f2d	-0.10894618
17	0xbdd70770	-0.104994655
18	0xbf81fd9b	-1.0155519
19	0x3f9f0bf2	1.242552
20	0xbf178b74	-0.59197164
21	0x3e686083	0.22693066
22	0x3ed29b2d	0.41134015
23	0x400b7ef6	2.179624
24	0xbfa3365d	-1.2750965
25	0xbf239095	-0.6389249
26	0x3dfd4f83	0.12368681
27	0x3fb92741	1.4465104
28	0x3fa22a4b	1.2669157
29	0x3f6446ce	0.8917054
30	0xbe6813e2	-0.22663835
31	0xc00451b0	-2.0674858
32	0x3fd7c8b0	1.685812
33	0x3d9e01fe	0.07715224
34	0xbf8fbf0c	-1.1230178
35	0xbe0592ee	-0.1304433
36	0xbee1a959	-0.44074515
37	0xbdacec7d	-0.08443544
38	0xbdc429be	-0.09578274
39	0x3f97ac3b	1.1849436
40	0x3fa3ef22	1.2807353
41	0xbdcb5b48	-0.0992952
42	0xbf30721a	-0.68924105
43	0xbe0cf10f	-0.13763832
44	0x3f578a41	0.84195334
45	0x3e234743	0.15945153
46	0xbf759018	-0.95922995
47	0xbe801c34	-0.25021517

encoder.layers.1.self_attn.in_proj_bias f4 [12]
0	0xbd253e6b	-0.04034273
1	0xbecac0d7	-0.3960025
2	0xbf27caf4	-0.65544057
3	0x3f37f110	0.7185221
4	0xbb5c6d3e	-0.003363445
5	0x3da94002	0.08264162
6	0x3d1ca316	0.03824147
7	0x3d623217	0.05522355
8	0xbf12b607	-0.57309
9	0x3f4bc7d0	0.79601765
10	0xbea7e075	-0.32788435
11	0x3e4917a3	0.19637923

encoder.layers.1.self_attn.out_proj.weight f4 [4, 4]
0	0x3fb747f7	1.4318837
1	0xbf91dacc	-1.1394897
2	0x3fb7b5b5	1.4352328
3	0x3f584dd7	0.84493774
4	0x3fd9356c	1.6969428
5	0x3f0a3c1b	0.53997964
6	0x3fd62806	1.6730964
7	0x3fcb8ee0	1.5902977
8	0xbeadd97d	-0.33954993
9	0xbf8f3139	-1.1186897
10	0x3d5303e3	0.05151738
11	0xbf1e6d27	-0.61885303
12	0xbfa103f3	-1.257933
13	0x3ec164de	0.37772268
14	0xbeda94ca	-0.42691642
15	0xbf375f35	-0.7162965

encoder.layers.1.self_attn.out_proj.bias f4 [4]
0	0xbf5fee46	-0.8747295
1	0x3f8f4a6c	1.1194587
2	0xbf6ddd5a	-0.9291588
3	0x3eacc2f9	0.33742502

encoder.layers.1.linear1.weight f4 [4, 4]
0	0x3cac075f	0.020999609
1	0x3cb1b9bc	0.02169501
2	0xbe092611	-0.13393427
3	0x3f1f4854	0.6221974
4	0xbf19b71e	-0.6004504
5	0xbf3d72e8	-0.7400346
6	0xbe9315a2	-0.28727442
7	0x3f10d5c2	0.5657617
8	0xbf496cc8	-0.7868161
9	0xbf05b395	-0.52227145
10	0x3efc347d	0.49258795
11	0x3f62177f	0.883171
12	0xbf8fe3e9	-1.1241428
13	0x3e84c63a	0.25932485
14	0x3e0f103f	0.13971041
15	0xbf61f9d1	-0.88271815

encoder.layers.1.linear1.bias f4 [4]
0	0xbf96db95	-1.1785761
1	0xbf3f5f49	-0.7475477
2	0x3caed77e	0.021342989
3	0xbf4fedc0	-0.8122215

encoder.layers.1.linear2.weight f4 [4, 4]
0	0x3f079526	0.5296196
1	0x3dce62b9	0.100774236
2	0xbca7c297	-0.02047853
3	0xbe0c8b05	-0.13724907
4	0x3e90a8d6	0.28253812
5	0x3f325604	0.696625
6	0x3f9efc78	1.2420797
7	0xbe04f1e3	-0.12982897
8	0xbf5d7ae7	-0.8651566
9	0xbf24cfc9	-0.64379555
10	0xbf0c427c	-0.5478895
11	0xbebd9307	-0.37026235
12	0xbd44cbbe	-0.048045866
13	0xbc91402b	-0.017730793
14	0x3f06b48f	0.5261926
15	0xbd615305	-0.055010814

encoder.layers.1.linear2.bias f4 [4]
0	0x3c300b91	0.010744945
1	0x3fac532d	1.3462883
2	0xbfc3b417	-1.5289334
3	0xbe84dfbf	-0.25951955

encoder.layers.1.norm1.weight f4 [4]
0	0xbe1ef741	-0.15524007
1	0x3f849866	1.0359008
2	0x3f8a3645	1.0797812
3	0xbe9d3329	-0.30703095

encoder.layers.1.norm1.bias f4 [4]
0	0x3e564330	0.20924067
1	0x403128e1	2.76812
2	0xc013eeb6	-2.3114448
3	0x3ea89263	0.32924184

encoder.layers.1.norm2.weight f4 [4]
0	0xbcbf18a4	-0.02332718
1	0x3ea4c77b	0.32183442
2	0x3ec896a9	0.39177445
3	0xbe0a9531	-0.13533475

encoder.layers.1.norm2.bias f4 [4]
0	0xbc1655c6	-0.009175723
1	0xbef93278	-0.48671317
2	0x3f043b6b	0.51653165
3	0xbc2a9f9e	-0.010414032

decoder.layers.0.self_attn.in_proj_weight f4 [12, 4]
0	0xbdf190f8	-0.11795229
1	0xbdf63db4	-0.12023488
2	0xbf0cacd8	-0.5495124
3	0xbf075bdf	-0.5287456
4	0xbdc43f38	-0.095823705
5	0x3c01c000	0.0079193115
6	0xbe8e6e52	-0.27818543
7	0x3e6c3770	0.23068023
8	0xbf0d198a	-0.55117095
9	0xbd2946d0	-0.041327298
10	0x3f09dd3f	0.5385322
11	0xbe7fc6ce	-0.24978182
12	0x3f0d8fb9	0.5529743
13	0x3e631874	0.22177297
14	0xbf0d79f6	-0.5526422
15	0x3ec65f60	0.3874464
16	0xbd90b880	-0.070664406
17	0xbe8bf6cb	-0.27336726
18	0x3efab812	0.4896856
19	0xbefd5dab	-0.49485525
20	0x3d869348	0.065710604
21	0xbe0349e8	-0.12821162
22	0x3edfe62a	0.4373029
23	0x3e2f0b00	0.1709404
24	0x3e96a7b4	0.29424822
25	0x3e5d7488	0.21626484
26	0xbe16cb58	-0.14726007
27	0xbe03e048	-0.12878525
28	0xbf013066	-0.50464475
29	0x3ea9e30e	0.3318104
30	0x3ef8f08e	0.4862103
31	0x3ed6873a	0.41900045
32	0xbc963c39	-0.018339263
33	0xbb609ccf	-0.0034273153
34	0x3cbc7c86	0.023008596
35	0xbcb7089a	-0.022342969
36	0xbf0e43a6	-0.55571973
37	0xbf21c633	-0.63193053
38	0x3e8aa739	0.27080706
39	0x3ec01524	0.3751613
40	0xbc7bb1fe	-0.015362261
41	0xbc31d629	-0.010854282
42	0x3d0fe475	0.035129983
43	0x3c60d622	0.013722928
44	0x400c97df	2.1967695
45	0xbedd1182	-0.4317742
46	0x3f9fcd14	1.248446
47	0x3f456fc2	0.77123654

decoder.layers.0.self_attn.in_proj_bias f4 [12]
0	0x00000000	0.0
1	0x00000000	0.0
2	0x00000000	0.0
3	0x00000000	0.0
4	0x00000000	0.0
5	0x00000000	0.0
6	0x00000000	0.0
7	0x00000000	0.0
8	0x3a4215d0	0.0007403763
9	0xbfa4b661	-1.2868158
10	0xbb3fd18a	-0.0029269182
11	0xbf64ebf0	-0.8942251

decoder.layers.0.self_attn.out_proj.weight f4 [4, 4]
0	0xbc1dc747	-0.009630031
1	0x3d493304	0.049120918
2	0xbba43ac4	-0.005011888
3	0xbd3d8eb9	-0.04627869
4	0xbcccced8	-0.025000975
5	0x3f573ea0	0.84079933
6	0x3c2d4b1e	0.010576991
7	0x3e7dd867	0.24789582
8	0xbcaff907	-0.02148105
9	0x3d534d61	0.051587466
10	0x3c0fb483	0.008771065
11	0xbdb9bdee	-0.09069429
12	0xbc18af20	-0.009319097
13	0xbd457c1a	-0.048214056
14	0x3b9160a2	0.0044365684
15	0x3d952137	0.07281726

decoder.layers.0.self_attn.out_proj.bias f4 [4]
0	0x3ab12edc	0.0013517994
1	0x3cb88c06	0.022527706
2	0xbc77610e	-0.015098823
3	0x3c68b59b	0.014203454

decoder.layers.0.multihead_attn.in_proj_weight f4 [12, 4]
0	0xbe52645c	-0.20546097
1	0xbdb9b8e0	-0.09068465
2	0x3bdb7d80	0.0066983104
3	0x3f014d8b	0.50508946
4	0x3d9c90b0	0.076447845
5	0x3f0c6a57	0.5484976
6	0x3ebfcb08	0.37459588
7	0xbec63894	-0.3871504
8	0x3e8c9f20	0.27465153
9	0xbedda2ee	-0.43288368
10	0xbe84e247	-0.25953886
11	0x3e386f74	0.18011266
12	0x3e4f0da8	0.20220053
13	0x3eeb38f6	0.45941895
14	0xbe49dd14	-0.19713241
15	0x3a807e00	0.0009803176
16	0x3ea16a40	0.31526375
17	0xbf179bc5	-0.5922206
18	0x3ee2adf6	0.44273347
19	0xbf01a26a	-0.5063845
20	0x3c0a4800	0.008440018
21	0xbdd53980	-0.10411358
22	0xbea52158	-0.32252002
23	0x3da5c2c8	0.08093792
24	0x3f01a245	0.5063823
25	0xbe374dfc	-0.17900842
26	0xbeba24ca	-0.36356193
27	0xbe67ea24	-0.22647911
28	0xbf1b6134	-0.60695195
29	0x3e8d8716	0.27642125
30	0xbe96944f	-0.29410025
31	0xbed13bfe	-0.40866083
32	0x3b9353ba	0.004496065
33	0x38aa7038	8.127134e-05
34	0x383a0730	4.435255e-05
35	0xbba36184	-0.00498599
36	0xbb288efc	-0.002571999
37	0xbcfa2ea0	-0.03053981
38	0xbce65bc6	-0.028119933
39	0xbcd458f4	-0.025921322
40	0xbc4fb1dd	-0.012676683
41	0xbb5a781e	-0.0033335756
42	0xb9a254fd	-0.0003096237
43	0x3c43fe5b	0.011962499
44	0x3c71e625	0.014764343
45	0xbb9e9bd3	-0.004840353
46	0xbb9cd511	-0.0047861417
47	0xbc286482	-0.010277869

decoder.layers.0.multihead_attn.in_proj_bias f4 [12]
0	0x00000000	0.0
1	0x00000000	0.0
2	0x00000000	0.0
3	0x00000000	0.0
4	0x00000000	0.0
5	0x00000000	0.0
6	0x00000000	0.0
7	0x00000000	0.0
8	0xbb55cad0	-0.0032622106
9	0x3bd1e8fc	0.0064059477
10	0x3be48598	0.0069739334
11	0x3bc582c6	0.0060275523

decoder.layers.0.multihead_attn.out_proj.weight f4 [4, 4]
0	0xbb9dee16	-0.004819642
1	0xbbb370ca	-0.005476092
2	0xbb1ee389	-0.0024244508
3	0xbb916fbe	-0.0044383695
4	0xbbdd5b89	-0.0067552966
5	0x3b9a0aa0	0.0047009736
6	0x3c8dc4dd	0.017305786
7	0xb981ef19	-0.0002478294
8	0xbc7336d4	-0.014844615
9	0xbd0ec478	-0.034855336
10	0xba41baca	-0.00073901995
11	0xbd10ce00	-0.035352707
12	0xbc8745ff	-0.016512869
13	0x3b8e717a	0.0043470236
14	0x3b9a3a70	0.0047066733
15	0x3b786b7c	0.0037905863

decoder.layers.0.multihead_attn.out_proj.bias f4 [4]
0	0x3c04872a	0.008088866
1	0x3ab0ff1c	0.0013503763
2	0x3cff5084	0.031166323
3	0xbc56391f	-0.013075142

decoder.layers.0.linear1.weight f4 [4, 4]
0	0x3fdfca74	1.7483659
1	0x3f23d6fb	0.6399991
2	0x3efa9747	0.4894354
3	0xc0045207	-2.0675066
4	0xbf148aa6	-0.5802406
5	0x3e9220a8	0.2854054
6	0xbcda5bef	-0.026655165
7	0x3f21ff0c	0.63279796
8	0x3f01b7b0	0.5067091
9	0xbf622947	-0.88344234
10	0xbf3451fe	-0.7043761
11	0x4034b6d7	2.8236597
12	0x3c867115	0.016411344
13	0xbf37b45e	-0.71759593
14	0xbf80f42d	-1.0074517
15	0x40067574	2.1009188

decoder.layers.0.linear1.bias f4 [4]
0	0xc017badf	-2.3707807
1	0xbff1368d	-1.8844773
2	0xbf181ac5	-0.5941585
3	0xbeb531b8	-0.35389495

decoder.layers.0.linear2.weight f4 [4, 4]
0	0x3f294af4	0.66129994
1	0x3e219730	0.1578033
2	0x3eee368a	0.46525985
3	0xbd2db8c6	-0.04241254
4	0xbf0ae855	-0.5426076
5	0x3ec6070a	0.38677245
6	0xbd53c81e	-0.05170452
7	0x3e3f8f81	0.18707086
8	0x3f188bc5	0.5958827
9	0xbf03043b	-0.5117833
10	0xbfdc53be	-1.7213056
11	0x3f8018b9	1.0007545
12	0xbee0ba82	-0.43892294
13	0xbe48e184	-0.19617277
14	0xbd498524	-0.04919924
15	0xbde9a361	-0.11408115

decoder.layers.0.linear2.bias f4 [4]
0	0xbc854449	-0.016267912
1	0xbcf8af21	-0.030356945
2	0xbd64cd3d	-0.055859793
3	0x3b16b44a	0.0022995644

decoder.layers.0.norm1.weight f4 [4]
0	0x401830d3	2.37798
1	0x3fe9778e	1.823961
2	0x402dace7	2.7136781
3	0x3ffe87d2	1.9885199

decoder.layers.0.norm1.bias f4 [4]
0	0xbfc037a8	-1.5016985
1	0x3fe73f6d	1.8066231
2	0xbf149b53	-0.58049506
3	0xbf0ac88e	-0.5421227

decoder.layers.0.norm2.weight f4 [4]
0	0x3fcdf01e	1.6088903
1	0x40236d5b	2.5535495
2	0x403d8621	2.9613116
3	0x3f548dae	0.83028686

decoder.layers.0.norm2.bias f4 [4]
0	0xbf47d876	-0.7806467
1	0x3fb54b92	1.4163687
2	0xbf777751	-0.9666644
3	0xbfb11d36	-1.383704

decoder.layers.0.norm3.weight f4 [4]
0	0x403d9b98	2.9626217
1	0x4020dfbd	2.513656
2	0xbfe76539	-1.8077766
3	0x3fd09f42	1.6298602

decoder.layers.0.norm3.bias f4 [4]
0	0xbf2eb806	-0.6824955
1	0x3fb008d2	1.3752692
2	0x3fa380ec	1.2773719
3	0xbf734280	-0.95023346

decoder.layers.1.self_attn.in_proj_weight f4 [12, 4]
0	0xbdf190f8	-0.11795229
1	0xbdf63db4	-0.12023488
2	0xbf0cacd8	-0.5495124
3	0xbf075bdf	-0.5287456
4	0xbdc43f38	-0.095823705
5	0x3c01c000	0.0079193115
6	0xbe8e6e52	-0.27818543
7	0x3e6c3770	0.23068023
8	0xbf0d198a	-0.55117095
9	0xbd2946d0	-0.041327298
10	0x3f09dd3f	0.5385322
11	0xbe7fc6ce	-0.24978182
12	0x3f0d8fb9	0.5529743
13	0x3e631874	0.22177297
14	0xbf0d79f6	-0.5526422
15	0x3ec65f60	0.3874464
16	0xbd90b880	-0.070664406
17	0xbe8bf6cb	-0.27336726
18	0x3efab812	0.4896856
19	0xbefd5dab	-0.49485525
20	0x3d869348	0.065710604
21	0xbe0349e8	-0.12821162
22	0x3edfe62a	0.4373029
23	0x3e2f0b00	0.1709404
24	0x3e96a7b4	0.29424822
25	0x3e5d7488	0.21626484
26	0xbe16cb58	-0.14726007
27	0xbe03e048	-0.12878525
28	0xbf013066	-0.50464475
29	0x3ea9e30e	0.3318104
30	0x3ef8f08e	0.4862103
31	0x3ed6873a	0.41900045
32	0xbe5cc302	-0.21558765
33	0xbe849cb9	-0.2590082
34	0x3eb46e9f	0.35240647
35	0xbebf87f1	-0.37408403
36	0x3d1c2101	0.038117412
37	0x3cf5204b	0.029922625
38	0xbd6b7342	-0.057482965
39	0x3dc8e147	0.09808593
40	0xbd1f822d	-0.038942505
41	0xbd829db9	-0.063777395
42	0x3d2365ab	0.03989188
43	0x3d03bdaa	0.0321633
44	0xbe0b2c18	-0.13591039
45	0xbe27e06a	-0.16394201
46	0x3e8fb5f4	0.28068507
47	0xbea04cd9	-0.3130863

decoder.layers.1.self_attn.in_proj_bias f4 [12]
0	0x00000000	0.0
1	0x00000000	0.0
2	0x00000000	0.0
3	0x00000000	0.0
4	0x00000000	0.0
5	0x00000000	0.0
6	0x00000000	0.0
7	0x00000000	0.0
8	0xbf28f3f9	-0.6599727
9	0x3dcf3196	0.1011688
10	0xbd770f75	-0.060317475
11	0xbedba3ba	-0.4289835

decoder.layers.1.self_attn.out_proj.weight f4 [4, 4]
0	0xbcb8ce95	-0.022559443
1	0xbc1f3e45	-0.009719436
2	0xbd3e592e	-0.046471767
3	0x3d299ff1	0.041412298
4	0x3bb42a25	0.005498188
5	0x3b13bcb4	0.0022542896
6	0x3b94b9dd	0.004538758
7	0xbc7bd1b4	-0.015369821
8	0xbb1e4019	-0.0024147092
9	0x3ab20241	0.0013580994
10	0x3c56f296	0.01311936
11	0xbba7f41e	-0.0051255366
12	0x3c05266c	0.008126836
13	0xbc49c66f	-0.012315377
14	0xbca79ebe	-0.020461436
15	0x3c10dda5	0.008841907

decoder.layers.1.self_attn.out_proj.bias f4 [4]
0	0x3c233138	0.009960465
1	0xbc44940b	-0.011998187
2	0xbca9f932	-0.020748708
3	0xbbebb2f8	-0.0071929656

decoder.layers.1.multihead_attn.in_proj_weight f4 [12, 4]
0	0xbe52645c	-0.20546097
1	0xbdb9b8e0	-0.09068465
2	0x3bdb7d80	0.0066983104
3	0x3f014d8b	0.50508946
4	0x3d9c90b0	0.076447845
5	0x3f0c6a57	0.5484976
6	0x3ebfcb08	0.37459588
7	0xbec63894	-0.3871504
8	0x3e8c9f20	0.27465153
9	0xbedda2ee	-0.43288368
10	0xbe84e247	-0.25953886
11	0x3e386f74	0.18011266
12	0x3e4f0da8	0.20220053
13	0x3eeb38f6	0.45941895
14	0xbe49dd14	-0.19713241
15	0x3a807e00	0.0009803176
16	0x3ea16a40	0.31526375
17	0xbf179bc5	-0.5922206
18	0x3ee2adf6	0.44273347
19	0xbf01a26a	-0.5063845
20	0x3c0a4800	0.008440018
21	0xbdd53980	-0.10411358
22	0xbea52158	-0.32252002
23	0x3da5c2c8	0.08093792
24	0x3f01a245	0.5063823
25	0xbe374dfc	-0.17900842
26	0xbeba24ca	-0.36356193
27	0xbe67ea24	-0.22647911
28	0xbf1b6134	-0.60695195
29	0x3e8d8716	0.27642125
30	0xbe96944f	-0.29410025
31	0xbed13bfe	-0.40866083
32	0xba7dc674	-0.0009680756
33	0x3b38354f	0.0028107946
34	0xbc28836a	-0.010285238
35	0x3c7d1192	0.015446084
36	0x3cb142fa	0.021638382
37	0x3c0a0712	0.008424537
38	0x3ca371c5	0.01995171
39	0x3bf2a7a8	0.00740524
40	0x3d0db6e3	0.034598242
41	0x3abad094	0.0014252835
42	0x3bca679a	0.006176901
43	0xbc65ec75	-0.0140334265
44	0x3c1de254	0.00963648
45	0xbbd8644b	-0.0066037527
46	0xbb025d01	-0.001989186
47	0xbd19dec2	-0.037565954

decoder.layers.1.multihead_attn.in_proj_bias f4 [12]
0	0x00000000	0.0
1	0x00000000	0.0
2	0x00000000	0.0
3	0x00000000	0.0
4	0x00000000	0.0
5	0x00000000	0.0
6	0x00000000	0.0
7	0x00000000	0.0
8	0x3b644d48	0.0034836102
9	0xbc226934	-0.009912778
10	0xbb3f2919	-0.0029168783
11	0x3bbca871	0.0057573845

decoder.layers.1.multihead_attn.out_proj.weight f4 [4, 4]
0	0xbc34d21c	-0.011036422
1	0x3b930bd9	0.0044874963
2	0x3bc7725c	0.0060866307
3	0xbc4d7bf6	-0.012541762
4	0x3c50289d	0.012704995
5	0xbc02c7eb	-0.0079822345
6	0xbbdbb89a	-0.006705356
7	0xbc992b74	-0.018697478
8	0xbcf71436	-0.030161005
9	0xbc8b192d	-0.016979778
10	0x3b813f23	0.003944294
11	0xbc140987	-0.009035475
12	0xbc4b6490	-0.012414113
13	0x39890eee	0.000261418
14	0xbc72850d	-0.01480223
15	0xbce6af55	-0.028159777

decoder.layers.1.multihead_attn.out_proj.bias f4 [4]
0	0xbcfb8a94	-0.030705728
1	0xbbd45088	-0.0064793266
2	0xbb1cc09c	-0.0023918515
3	0xbc768689	-0.015046724

decoder.layers.1.linear1.weight f4 [4, 4]
0	0x3f7a5135	0.9778016
1	0xbe123907	-0.14279567
2	0xbf495d1b	-0.7865769
3	0x3d355ac6	0.04427602
4	0x3eb64163	0.3559676
5	0xbdc206f1	-0.0947398
6	0xbf398905	-0.724747
7	0x3cee3291	0.029076846
8	0x3f0beedf	0.54661363
9	0x3f0ae184	0.5425036
10	0xbf66bf33	-0.90135497
11	0x3c9f47f1	0.019443484
12	0x3db26b76	0.08711903
13	0xbdebb5ae	-0.11509262
14	0xbf3e7700	-0.7440033
15	0x3de9e8ae	0.11421333

decoder.layers.1.linear1.bias f4 [4]
0	0xbe37c627	-0.17946683
1	0xbe4b7795	-0.19869836
2	0x3d2ced83	0.042218696
3	0xbf0d6080	-0.5522537

decoder.layers.1.linear2.weight f4 [4, 4]
0	0xbf910c9f	-1.1331977
1	0xbeabf4c8	-0.3358519
2	0xbecfa9cc	-0.40559232
3	0xbec60afa	-0.3868025
4	0xbf3b37e5	-0.73132163
5	0x3ef4e813	0.4783331
6	0x3f454619	0.77060086
7	0xbe74a7a3	-0.23892073
8	0x3fbfa4de	1.4972188
9	0xbe24baf9	-0.1608695
10	0xbe1bea04	-0.15225989
11	0x3e3026f5	0.17202361
12	0x3f88dcb1	1.069235
13	0xbf8cbe89	-1.0995647
14	0xbf5d66d5	-0.86485034
15	0xbea6d05d	-0.32580844

decoder.layers.1.linear2.bias f4 [4]
0	0x3c3a9269	0.011387446
1	0x3ccf3190	0.025292188
2	0xbd2dd22d	-0.042436767
3	0x3cc5a4aa	0.02412637

decoder.layers.1.norm1.weight f4 [4]
0	0x3fd4a62c	1.6613212
1	0x403a8e56	2.9149375
2	0x402050e3	2.504937
3	0x4083db9c	4.120558

decoder.layers.1.norm1.bias f4 [4]
0	0xbf386a67	-0.7203736
1	0xc00fa9ef	-2.244747
2	0xbf07d37f	-0.5305709
3	0x3f3267ad	0.69689447

decoder.layers.1.norm2.weight f4 [4]
0	0x3fe3188b	1.7741865
1	0x3f41f786	0.75768316
2	0x3e66d241	0.22541143
3	0x40a4df7e	5.1522818

decoder.layers.1.norm2.bias f4 [4]
0	0xbfc01ef2	-1.5009444
1	0xbf71b913	-0.94423026
2	0x3f815b93	1.0106071
3	0x3f37409c	0.7158296

decoder.layers.1.norm3.weight f4 [4]
0	0x3f9cdae9	1.2254306
1	0xbb943e35	-0.004524017
2	0xbc9dc8ce	-0.01926079
3	0xbc33c8e0	-0.010973185

decoder.layers.1.norm3.bias f4 [4]
0	0x3f05461d	0.5206011
1	0x3c89fdc4	0.016844638
2	0xbc722413	-0.014779109
3	0xbd1ee6c6	-0.0387943

linear_mapping.weight f4 [1, 4]
0	0xbf3445e4	-0.70419145
1	0x3c7d744c	0.015469622
2	0xbc10ecac	-0.0088454895
3	0xbc9b7267	-0.01897545

linear_mapping_with_gender_ind.weight f4 [1, 5]
0	0x3d64ba10	0.055841506
1	0xbeb401c3	-0.35157594
2	0x3d0ff4f8	0.03514573
3	0x3e9e8ea0	0.3096819
4	0x3ece54c0	0.40299034

exp_avg f4 [4, 5]
0	0x3366363a	5.3600367e-08
1	0x3368b36c	5.4179893e-08
2	0x3367ae99	5.3942674e-08
3	0x3368800a	5.413316e-08
4	0x336aa7fc	5.463515e-08
5	0xb31c767b	-3.6429338e-08
6	0xb31e3d82	-3.6843183e-08
7	0xb31abc69	-3.6027277e-08
8	0xb31ba49e	-3.623847e-08
9	0xb31d1af0	-3.657891e-08
10	0x30fd1f8c	1.8417139e-09
11	0x30ed4f36	1.7266533e-09
12	0x312bae08	2.49827e-09
13	0x3145e2e2	2.879624e-09
14	0x31589905	3.1519118e-09
15	0xb3e0ee40	-1.047415e-07
16	0xb3e34ca2	-1.0584451e-07
17	0xb3e02e34	-1.0439217e-07
18	0xb3e16f11	-1.0497582e-07
19	0xb3e3ddff	-1.0610892e-07

exp_avg_sq f4 [4, 5]
0	0x2a074c98	1.2016982e-13
1	0x2a079adf	1.204414e-13
2	0x2a08d5cf	1.2153406e-13
3	0x2a0d37cd	1.2542676e-13
4	0x2a0ef152	1.2695858e-13
5	0x2a0a9c7e	1.2311156e-13
6	0x2a0af049	1.2340228e-13
7	0x2a0c02d1	1.2435475e-13
8	0x2a103e23	1.2811327e-13
9	0x2a11efa9	1.2961736e-13
10	0x28e23c7f	2.5117276e-14
11	0x28e74d82	2.5679766e-14
12	0x28de9465	2.4711307e-14
13	0x28e2418d	2.5119468e-14
14	0x28e26fbc	2.5139497e-14
15	0x2b3b0a55	6.6450084e-13
16	0x2b3b2beb	6.6496694e-13
17	0x2b3c63d7	6.6929573e-13
18	0x2b430aa6	6.9292694e-13
19	0x2b450280	6.999193e-13

exp_avg f4 [4]
0	0xb2aff2e8	-2.0483142e-08
1	0x327b2420	1.4618337e-08
2	0xaf93fe68	-2.691991e-10
3	0x3331835d	4.1330498e-08

exp_avg_sq f4 [4]
0	0x28e28219	2.5147461e-14
1	0x28e00b4a	2.4873892e-14
2	0x27d4f53f	5.9107717e-15
3	0x2a207e2d	1.4254631e-13

exp_avg f4 [4, 1]
0	0xbdbba32d	-0.09161983
1	0x3b43d06a	0.0029878863
2	0x3bae11e9	0.0053121937
3	0x3e15850d	0.14601536

exp_avg_sq f4 [4, 1]
0	0x3cdadef8	0.026717648
1	0x3a9dee0e	0.0012049095
2	0x3c7dae18	0.015483402
3	0x3d161c1a	0.036647893

exp_avg f4 [4]
0	0x3d1cb9f4	0.038263276
1	0xbaec4c6f	-0.001802815
2	0xbb9ec7ec	-0.00484561
3	0xbd7fb87b	-0.062431794

exp_avg_sq f4 [4]
0	0x3b9a92b0	0.0047171935
1	0x399ac648	0.000295209
2	0x3b411bc0	0.0029466003
3	0x3bdbb972	0.0067054564

exp_avg f4 [12, 4]
0	0x2e3ed841	4.339307e-11
1	0x2f56e4ad	1.9544429e-10
2	0x2e0841b2	3.098117e-11
3	0xad1236aa	-8.311277e-12
4	0x30a70780	1.2152981e-09
5	0x2fd4afcc	3.8687487e-10
6	0xaff41cda	-4.4403842e-10
7	0x30441483	7.1333534e-10
8	0xb01c8afa	-5.6949967e-10
9	0xaf1c84d8	-1.4235313e-10
10	0x2f631cc5	2.0655751e-10
11	0xafb143fd	-3.224442e-10
12	0x2cb65347	5.1819968e-12
13	0xaee630b2	-1.0467839e-10
14	0xae37a9a1	-4.1760043e-11
15	0x2e2cdd30	3.9304726e-11
16	0x301e5810	5.760521e-10
17	0xb05b098e	-7.9685314e-10
18	0xb0b734ba	-1.3329988e-09
19	0xb0e5a0c1	-1.6707632e-09
20	0xb087e344	-9.887136e-10
21	0x3048a440	7.299299e-10
22	0x30e868ca	1.6910005e-09
23	0x310cb6d9	2.0476618e-09
24	0xb0cf82ff	-1.5098464e-09
25	0x30d8dc2a	1.5778643e-09
26	0x3156c87a	3.1255056e-09
27	0x31839af2	3.830217e-09
28	0xaff0023d	-4.3657336e-10
29	0x303640c4	6.630325e-10
30	0x309787b4	1.1025265e-09
31	0x30bd7d56	1.3787183e-09
32	0x33ba3fdf	8.672918e-08
33	0xb313cd87	-3.441303e-08
34	0xb0f2ac4c	-1.7656787e-09
35	0x3383db50	6.1400556e-08
36	0xb3707b07	-5.5991247e-08
37	0x32c5f3e8	2.3044734e-08
38	0x30eff331	1.7458658e-09
39	0xb32beac9	-4.0027576e-08
40	0x32fe2adb	2.958898e-08
41	0xb259deac	-1.2681692e-08
42	0xb075869b	-8.9321767e-10
43	0x32c20905	2.2588674e-08
44	0x31e80eec	6.753785e-09
45	0xb185a41f	-3.889468e-09
46	0xaf20133c	-1.4558749e-10
47	0x321181e1	8.469642e-09

exp_avg_sq f4 [12, 4]
0	0x241fc273	3.4642334e-17
1	0x240b13f6	3.0157728e-17
2	0x23f25336	2.6272934e-17
3	0x244b2387	4.40487e-17
4	0x25c25df4	3.37173e-16
5	0x25bc69bb	3.2684447e-16
6	0x259d4364	2.7280824e-16
7	0x26038f82	4.5644244e-16
8	0x24506ace	4.5193277e-17
9	0x252c5955	1.4948889e-16
10	0x24e72cc1	1.002561e-16
11	0x253bd4d7	1.6291777e-16
12	0x238a4d12	1.499463e-17
13	0x23c0cd14	2.0903536e-17
14	0x2394dcf9	1.6139778e-17
15	0x23f7b8fc	2.6858138e-17
16	0x25ab7f1a	2.97499e-16
17	0x26490a32	6.97497e-16
18	0x26f6513a	1.7091696e-15
19	0x274175a3	2.6847901e-15
20	0x2635dd26	6.30967e-16
21	0x26c48499	1.3636173e-15
22	0x277fdad3	3.5506984e-15
23	0x27c83034	5.5563413e-15
24	0x26bf3e37	1.3270151e-15
25	0x2746bc9d	2.7580267e-15
26	0x27d7f648	5.9941506e-15
27	0x28293a9a	9.394092e-15
28	0x251c3f89	1.355237e-16
29	0x25b2f252	3.104228e-16
30	0x2635fcd2	6.3139625e-16
31	0x268f5b1f	9.947317e-16
32	0x2ae3f6ec	4.0494637e-13
33	0x29789e7c	5.5204525e-14
34	0x26be61b2	1.3210379e-15
35	0x2a549c96	1.8883709e-13
36	0x2a98d724	2.7149908e-13
37	0x2928c7f3	3.7476922e-14
38	0x2643467c	6.774974e-16
39	0x2a0ab894	1.23209e-13
40	0x2a09acd5	1.2228008e-13
41	0x2898b1ce	1.69525e-14
42	0x25e2f220	3.936882e-16
43	0x297309fd	5.3965502e-14
44	0x28f45d94	2.7130025e-14
45	0x277cd5c2	3.5087904e-15
46	0x260c6dc8	4.872104e-16
47	0x28661531	1.277216e-14

exp_avg f4 [12]
0	0xab92c533	-1.0428658e-12
1	0xaf08655a	-1.2405135e-10
2	0x2e6f3629	5.4390412e-11
3	0xac93f00c	-4.204642e-12
4	0x26d27f2a	1.4606145e-15
5	0xa7440c06	-2.7206982e-15
6	0xa797d4a7	-4.2141477e-15
7	0xa6a0b5d1	-1.1151512e-15
8	0xb20734dd	-7.870054e-09
9	0x31b42964	5.243395e-09
10	0xb145c13c	-2.8777114e-09
11	0xb06baee6	-8.574105e-10

exp_avg_sq f4 [12]
0	0x21c92567	1.363019e-18
1	0x2391912e	1.5782417e-17
2	0x22db18c6	5.93863e-18
3	0x21841b09	8.951824e-19
4	0x101df640	3.1152495e-29
5	0x112afdab	1.3488803e-28
6	0x11cabbeb	3.1985794e-28
7	0x0fa7b049	1.6535374e-29
8	0x279da31f	4.375311e-15
9	0x275e41be	3.0844328e-15
10	0x26d12e26	1.4514797e-15
11	0x25acf242	3.0001404e-16

exp_avg f4 [4, 4]
0	0xb1e4629e	-6.646885e-09
1	0xb2717fc4	-1.4057097e-08
2	0x3320471f	3.7317587e-08
3	0x33f77da1	1.15246856e-07
4	0xb16d9aa8	-3.457595e-09
5	0x30cd3c4c	1.493285e-09
6	0x30929a60	1.0666774e-09
7	0x32199f5a	8.9420045e-09
8	0x3259bd9f	1.2674177e-08
9	0x31b61542	5.299314e-09
10	0xb2e5048b	-2.6661175e-08
11	0xb3cdd16b	-9.584149e-08
12	0xb1614577	-3.2781295e-09
13	0xb1dbce31	-6.39718e-09
14	0x329427bf	1.7247542e-08
15	0x3366c5a3	5.3730798e-08

exp_avg_sq f4 [4, 4]
0	0x27c281bd	5.398648e-15
1	0x2784b01b	3.6828294e-15
2	0x28ea753f	2.6030066e-14
3	0x2aa141ab	2.8644911e-13
4	0x26aa50da	1.1818034e-15
5	0x25908047	2.5066942e-16
6	0x27b07483	4.8976135e-15
7	0x298ceb30	6.2580475e-14
8	0x27fb578f	6.9761426e-15
9	0x27d3634a	5.8671914e-15
10	0x297bd7d9	5.5920414e-14
11	0x2b2c5efd	6.12385e-13
12	0x26ec727f	1.6406824e-15
13	0x268ffde2	9.991433e-16
14	0x284b5b47	1.1288556e-14
15	0x2a10ca64	1.2859988e-13

exp_avg f4 [4]
0	0x3157390f	3.1319052e-09
1	0x2fa368e9	2.972407e-10
2	0xb13d63f7	-2.7559943e-09
3	0x309c204b	1.1359672e-09

exp_avg_sq f4 [4]
0	0x2591d3c7	2.5296996e-16
1	0x25127170	1.2701915e-16
2	0x2624e9b8	5.721568e-16
3	0x2512bab6	1.2726742e-16

exp_avg f4 [4, 4]
0	0x340cbefa	1.3107993e-07
1	0xb4b2c650	-3.3299375e-07
2	0x33ac6990	8.028576e-08
3	0xb1ed24af	-6.9017783e-09
4	0xb13e09df	-2.765425e-09
5	0x30a4aa93	1.1981051e-09
6	0x31ef4398	6.9635e-09
7	0xb15381b9	-3.077828e-09
8	0x00000004	6e-45
9	0x80000004	-6e-45
10	0x80000004	-6e-45
11	0x00000004	6e-45
12	0x00000004	6e-45
13	0x00000004	6e-45
14	0x80000004	-6e-45
15	0x00000004	6e-45

exp_avg_sq f4 [4, 4]
0	0x2ac2c521	3.4598108e-13
1	0x2b5dacc9	7.875476e-13
2	0x2a33fe33	1.5986587e-13
3	0x2a049e8e	1.1778965e-13
4	0x275b515f	3.0436467e-15
5	0x27cf6392	5.7561996e-15
6	0x27879d2b	3.764043e-15
7	0x2845b4ed	1.0974929e-14
8	0x00000019	3.5e-44
9	0x00000019	3.5e-44
10	0x00000019	3.5e-44
11	0x00000019	3.5e-44
12	0x00000019	3.5e-44
13	0x00000019	3.5e-44
14	0x00000019	3.5e-44
15	0x00000019	3.5e-44

exp_avg f4 [4]
0	0x328d7c0f	1.6470976e-08
1	0xb1406f28	-2.8002862e-09
2	0x00000004	6e-45
3	0x00000004	6e-45

exp_avg_sq f4 [4]
0	0x29eaa02f	1.0419475e-13
1	0x2823fb35	9.1027895e-15
2	0x00000019	3.5e-44
3	0x00000019	3.5e-44

exp_avg f4 [4, 4]
0	0xb0d8c608	-1.5772352e-09
1	0x32146216	8.637036e-09
2	0x80000004	-6e-45
3	0x80000004	-6e-45
4	0x2ff189d0	4.3935566e-10
5	0x30e4bd1f	1.6642935e-09
6	0x80000004	-6e-45
7	0x00000004	6e-45
8	0x31ddc3e0	6.454215e-09
9	0xb1a69276	-4.8478865e-09
10	0x00000004	6e-45
11	0x80000004	-6e-45
12	0x3296115e	1.7470196e-08
13	0xb1e59781	-6.682001e-09
14	0x00000004	6e-45
15	0x00000004	6e-45

exp_avg_sq f4 [4, 4]
0	0x27715054	3.3489015e-15
1	0x28a16a71	1.7920752e-14
2	0x00000019	3.5e-44
3	0x00000019	3.5e-44
4	0x267f5a15	8.859298e-16
5	0x2428c576	3.659645e-17
6	0x00000019	3.5e-44
7	0x00000019	3.5e-44
8	0x26ef911f	1.6623292e-15
9	0x25eacddc	4.0732025e-16
10	0x00000019	3.5e-44
11	0x00000019	3.5e-44
12	0x289a1901	1.7108278e-14
13	0x25f886bd	4.3112444e-16
14	0x00000019	3.5e-44
15	0x00000019	3.5e-44

exp_avg f4 [4]
0	0x329400aa	1.722977e-08
1	0x308d4956	1.0279944e-09
2	0xb1dbcd60	-6.3970873e-09
3	0xb1b00f62	-5.124023e-09

exp_avg_sq f4 [4]
0	0x28411a3b	1.071934e-14
1	0x2537dc28	1.5947312e-16
2	0x27a70ebb	4.636778e-15
3	0x26816dc2	8.980923e-16

exp_avg f4 [4]
0	0x33c17390	9.0082835e-08
1	0xb2d6460b	-2.494473e-08
2	0xb3c05336	-8.955833e-08
3	0xb2ae18f2	-2.026761e-08

exp_avg_sq f4 [4]
0	0x2a2cfc6b	1.5364244e-13
1	0x27f01549	6.663646e-15
2	0x2a5f75d1	1.9847255e-13
3	0x28608c01	1.2464856e-14

exp_avg f4 [4]
0	0x3303718b	3.060408e-08
1	0x3099cabc	1.1189836e-09
2	0xb2fea798	-2.9645705e-08
3	0xb1c3d8c0	-5.6998886e-09

exp_avg_sq f4 [4]
0	0x2a1f1e01	1.4132447e-13
1	0x273c7ead	2.6158912e-15
2	0x2aa0a79d	2.8538015e-13
3	0x280c86b8	7.800774e-15

exp_avg f4 [4]
0	0x32dfdb42	2.6060324e-08
1	0xb2bbb702	-2.1852887e-08
2	0x32593770	1.26436674e-08
3	0xb3042e90	-3.0775993e-08

exp_avg_sq f4 [4]
0	0x292612de	3.687577e-14
1	0x28b9ca0f	2.0626755e-14
2	0x27ef77af	6.6465587e-15
3	0x291bbe6f	3.458209e-14

exp_avg f4 [4]
0	0x327371b5	1.4170316e-08
1	0xb22c2381	-1.001979e-08
2	0xb20ab8d2	-8.0746805e-09
3	0x310ea315	2.075642e-09

exp_avg_sq f4 [4]
0	0x2883d70d	1.4637185e-14
1	0x2783cde0	3.6583014e-15
2	0x27bad0b5	5.185165e-15
3	0x2718b6c5	2.1193317e-15

exp_avg f4 [12, 4]
0	0xb0044d25	-4.813095e-10
1	0x30b029ab	1.2817528e-09
2	0xb18f4050	-4.1691592e-09
3	0x30d613ec	1.5576211e-09
4	0xb00db74e	-5.1555993e-10
5	0x30455938	7.179497e-10
6	0xb10dc5cd	-2.0630637e-09
7	0x3072fd59	8.8399116e-10
8	0x2f1fcf32	1.4534576e-10
9	0xafe78b11	-4.2117468e-10
10	0x30ae97ab	1.2703273e-09
11	0xafd249da	-3.8251252e-10
12	0x2fb0a622	3.2132258e-10
13	0xafbb836a	-3.4108477e-10
14	0x3082cade	9.516403e-10
15	0xb005d937	-4.86938e-10
16	0x318f8540	4.1769965e-09
17	0xb1038460	-1.9138255e-09
18	0xafad101c	-3.1479963e-10
19	0x311c7fc9	2.2773625e-09
20	0xb1e92254	-6.785095e-09
21	0x314ef7ea	3.0117868e-09
22	0x30828aca	9.498191e-10
23	0xb17bfe56	-3.666988e-09
24	0xb23b1810	-1.0890304e-08
25	0x31a5ff1e	4.8311355e-09
26	0x30da1966	1.5868806e-09
27	0xb1cafe5d	-5.9078915e-09
28	0x32773bc0	1.4390878e-08
29	0xb1d98809	-6.3309966e-09
30	0xb121769f	-2.3496012e-09
31	0x3205ecae	7.795434e-09
32	0x3179f8ec	3.6375765e-09
33	0xb0f18cd2	-1.7575081e-09
34	0x317cc128	3.6780623e-09
35	0xb102acd4	-1.9015731e-09
36	0xb14dd342	-2.9951512e-09
37	0xb07968d6	-9.0734653e-10
38	0x31c5248d	5.73761e-09
39	0xb0fe3ae8	-1.8497675e-09
40	0x30c6281a	1.4417794e-09
41	0xaffdeef8	-4.619023e-10
42	0xb00b9174	-5.0774607e-10
43	0x30380fe2	6.696138e-10
44	0x308d5629	1.0283588e-09
45	0xb0db1057	-1.5938991e-09
46	0x31930f2b	4.2799875e-09
47	0xb0af65bc	-1.276184e-09

exp_avg_sq f4 [12, 4]
0	0x2496afd6	6.535001e-17
1	0x24558055	4.6295714e-17
2	0x25a228b7	2.813011e-16
3	0x24bfac18	8.3124584e-17
4	0x24178fc4	3.286468e-17
5	0x23cada73	2.19934e-17
6	0x251239d0	1.2683069e-16
7	0x241f3795	3.452471e-17
8	0x23855245	1.4454731e-17
9	0x237192aa	1.30956935e-17
10	0x24c748e2	8.642596e-17
11	0x2390b615	1.5689626e-17
12	0x2376af25	1.3372775e-17
13	0x2347e23b	1.0835718e-17
14	0x24a10d2b	6.984493e-17
15	0x2377c613	1.3431841e-17
16	0x26abdf6e	1.1926069e-15
17	0x25a12839	2.7956304e-16
18	0x25594235	1.8844182e-16
19	0x25a50013	2.8622988e-16
20	0x270e0ae1	1.9712356e-15
21	0x26038662	4.563188e-16
22	0x25b0db99	3.0679938e-16
23	0x26051d43	4.61833e-16
24	0x27b00ab3	4.8861413e-15
25	0x26a2ef22	1.1305825e-15
26	0x265d32ac	7.674345e-16
27	0x26a62055	1.1527327e-15
28	0x2807b31b	7.532843e-15
29	0x26f9de6d	1.7338134e-15
30	0x26aba579	1.191036e-15
31	0x26fdfe19	1.7624275e-15
32	0x26962b6c	1.042011e-15
33	0x2694880a	1.0306436e-15
34	0x27fc2c6a	6.9992204e-15
35	0x26bbe46c	1.3037645e-15
36	0x268d85ea	9.820138e-16
37	0x270a8e92	1.9228635e-15
38	0x28875214	1.5023607e-14
39	0x268b0407	9.646154e-16
40	0x26927965	1.0163689e-15
41	0x26a48096	1.1414639e-15
42	0x281c9208	8.691405e-15
43	0x26dff9d8	1.5541454e-15
44	0x2625f608	5.757931e-16
45	0x261fb22f	5.540569e-16
46	0x276f41a4	3.3203497e-15
47	0x26373945	6.3568494e-16

exp_avg f4 [12]
0	0x306f5c7e	8.7079133e-10
1	0x300553dd	4.8504295e-10
2	0xaf8ed05b	-2.5977695e-10
3	0xaf85653f	-2.42645e-10
4	0x2554c895	1.8456029e-16
5	0xa7200557	-2.2207355e-15
6	0xa6961a41	-1.0415457e-15
7	0x27e62135	6.3873827e-15
8	0xb05b0cfc	-7.969019e-10
9	0xb09d2aac	-1.1435382e-09
10	0x2ea16c88	7.3407114e-11
11	0xb077211a	-8.9905117e-10

exp_avg_sq f4 [12]
0	0x23cd992f	2.229102e-17
1	0x2331dd44	9.642044e-18
2	0x22d09518	5.6536372e-18
3	0x22a98287	4.5945743e-18
4	0x10404c89	3.7924284e-29
5	0x11218972	1.2743014e-28
6	0x11cab3ef	3.1980873e-28
7	0x122dc75a	5.4834894e-28
8	0x25f71610	4.286262e-16
9	0x265cf21a	7.665594e-16
10	0x260f7650	4.9773435e-16
11	0x258088e3	2.2297219e-16

exp_avg f4 [4, 4]
0	0xb1e2bff8	-6.59929e-09
1	0x31f43f6d	7.1085453e-09
2	0xb1af5b72	-5.1035665e-09
3	0xb18bd07a	-4.0691335e-09
4	0x31a9bb64	4.939851e-09
5	0xb1822ec9	-3.788817e-09
6	0x317fb05b	3.720763e-09
7	0x31579454	3.1370933e-09
8	0x328c227d	1.6313829e-08
9	0xb196897b	-4.3812043e-09
10	0x3242f908	1.1348909e-08
11	0x324a2853	1.1767116e-08
12	0xb1f6e818	-7.1859283e-09
13	0x32085722	7.936054e-09
14	0xb1cf8bff	-6.0404086e-09
15	0xb157c0b3	-3.1396155e-09

exp_avg_sq f4 [4, 4]
0	0x28bdaae5	2.1057329e-14
1	0x27b3945a	4.9843323e-15
2	0x2811e3af	8.098488e-15
3	0x2899bd93	1.7068627e-14
4	0x28251f69	9.166151e-15
5	0x261d00e5	5.447153e-16
6	0x2781c352	3.601646e-15
7	0x27f4da3a	6.7960206e-15
8	0x28a232f3	1.8007709e-14
9	0x270bbfa3	1.9394012e-15
10	0x27f8c556	6.904778e-15
11	0x287aa10e	1.3912711e-14
12	0x281f3a36	8.8388955e-15
13	0x26a2ef6e	1.1305906e-15
14	0x277d2e94	3.5136053e-15
15	0x27f0ccad	6.683529e-15

exp_avg f4 [4]
0	0x310a3dba	2.011673e-09
1	0xb2ab522d	-1.994439e-08
2	0x305bd1da	7.9969953e-10
3	0x31c5c973	5.7563567e-09

exp_avg_sq f4 [4]
0	0x27708e82	3.3383944e-15
1	0x279d9b19	4.374441e-15
2	0x273a9827	2.5895167e-15
3	0x26888cef	9.475096e-16

exp_avg f4 [4, 4]
0	0x00000004	6e-45
1	0x00000004	6e-45
2	0x80000004	-6e-45
3	0x00000004	6e-45
4	0x80000004	-6e-45
5	0x00000004	6e-45
6	0x80000004	-6e-45
7	0x00000004	6e-45
8	0x80000004	-6e-45
9	0x00000004	6e-45
10	0x00000004	6e-45
11	0x00000004	6e-45
12	0x80000004	-6e-45
13	0x00000004	6e-45
14	0x80000004	-6e-45
15	0x80000004	-6e-45

exp_avg_sq f4 [4, 4]
0	0x00000019	3.5e-44
1	0x00000019	3.5e-44
2	0x00000019	3.5e-44
3	0x00000019	3.5e-44
4	0x00000019	3.5e-44
5	0x00000019	3.5e-44
6	0x00000019	3.5e-44
7	0x00000019	3.5e-44
8	0x00000019	3.5e-44
9	0x00000019	3.5e-44
10	0x00000019	3.5e-44
11	0x00000019	3.5e-44
12	0x00000019	3.5e-44
13	0x00000019	3.5e-44
14	0x00000019	3.5e-44
15	0x00000019	3.5e-44

exp_avg f4 [4]
0	0x00000004	6e-45
1	0x00000004	6e-45
2	0x00000004	6e-45
3	0x00000004	6e-45

exp_avg_sq f4 [4]
0	0x00000019	3.5e-44
1	0x00000019	3.5e-44
2	0x00000019	3.5e-44
3	0x00000019	3.5e-44

exp_avg f4 [4, 4]
0	0x00000004	6e-45
1	0x80000004	-6e-45
2	0x80000004	-6e-45
3	0x80000004	-6e-45
4	0x00000004	6e-45
5	0x00000004	6e-45
6	0x80000004	-6e-45
7	0x80000004	-6e-45
8	0x00000004	6e-45
9	0x00000004	6e-45
10	0x00000004	6e-45
11	0x80000004	-6e-45
12	0x80000004	-6e-45
13	0x80000004	-6e-45
14	0x00000004	6e-45
15	0x00000004	6e-45

exp_avg_sq f4 [4, 4]
0	0x00000019	3.5e-44
1	0x00000019	3.5e-44
2	0x00000019	3.5e-44
3	0x00000019	3.5e-44
4	0x00000019	3.5e-44
5	0x00000019	3.5e-44
6	0x00000019	3.5e-44
7	0x00000019	3.5e-44
8	0x00000019	3.5e-44
9	0x00000019	3.5e-44
10	0x00000019	3.5e-44
11	0x00000019	3.5e-44
12	0x00000019	3.5e-44
13	0x00000019	3.5e-44
14	0x00000019	3.5e-44
15	0x00000019	3.5e-44

exp_avg f4 [4]
0	0xb3452762	-4.5903455e-08
1	0x33423048	4.5213056e-08
2	0x33bb3354	8.7172026e-08
3	0x345ac661	2.0375002e-07

exp_avg_sq f4 [4]
0	0x2b14a325	5.280657e-13
1	0x2b9b06a0	1.1015251e-12
2	0x2b9bba9c	1.1065207e-12
3	0x2c268eb0	2.3669226e-12

exp_avg f4 [4]
0	0xb3ef2cd8	-1.1137462e-07
1	0xb3925a6e	-6.815104e-08
2	0x338d0512	6.5667464e-08
3	0x3264a740	1.3309375e-08

exp_avg_sq f4 [4]
0	0x2a288a5f	1.4969405e-13
1	0x2bc3775f	1.3888715e-12
2	0x2ba0c520	1.1423397e-12
3	0x2be02020	1.5925074e-12

exp_avg f4 [4]
0	0xb37f4689	-5.9435965e-08
1	0x309c2780	1.136172e-09
2	0xb31c1984	-3.6344787e-08
3	0x33cb3f72	9.464465e-08

exp_avg_sq f4 [4]
0	0x2af5be85	4.3652942e-13
1	0x2b80927e	9.135607e-13
2	0x2b83a793	9.354621e-13
3	0x2bfcc994	1.7961626e-12

exp_avg f4 [4]
0	0xb349fdb1	-4.702969e-08
1	0x347767c0	2.3041412e-07
2	0xb50066ec	-4.7833487e-07
3	0x34703e8c	2.2374496e-07

exp_avg_sq f4 [4]
0	0x2bc42cd1	1.3939077e-12
1	0x303dd5b3	6.9061484e-10
2	0x2ff6e1e6	4.490765e-10
3	0x2cdd9f15	6.2988594e-12

exp_avg f4 [4]
0	0x36a3ca25	4.8813113e-06
1	0x34beb78c	3.5523806e-07
2	0x34310bd0	1.6488707e-07
3	0xb63811a5	-2.7428407e-06

exp_avg_sq f4 [4]
0	0x2f23a9f7	1.4885147e-10
1	0x2fbc98f1	3.4305672e-10
2	0x2f7da9c3	2.3070527e-10
3	0x300a2489	5.0256027e-10

exp_avg f4 [12, 4]
0	0x00000000	0.0
1	0x00000000	0.0
2	0x00000000	0.0
3	0x00000000	0.0
4	0x00000000	0.0
5	0x00000000	0.0
6	0x00000000	0.0
7	0x00000000	0.0
8	0x00000000	0.0
9	0x00000000	0.0
10	0x00000000	0.0
11	0x00000000	0.0
12	0x00000000	0.0
13	0x00000000	0.0
14	0x00000000	0.0
15	0x00000000	0.0
16	0x00000000	0.0
17	0x00000000	0.0
18	0x00000000	0.0
19	0x00000000	0.0
20	0x00000000	0.0
21	0x00000000	0.0
22	0x00000000	0.0
23	0x00000000	0.0
24	0x00000000	0.0
25	0x00000000	0.0
26	0x00000000	0.0
27	0x00000000	0.0
28	0x00000000	0.0
29	0x00000000	0.0
30	0x00000000	0.0
31	0x00000000	0.0
32	0xb73d610c	-1.1287873e-05
33	0x3a0a4804	0.00052750134
34	0x38b7e2f6	8.768395e-05
35	0x38d9544a	0.000103630664
36	0x3b8173cb	0.003950571
37	0x39cd0334	0.00039103033
38	0xbb073b90	-0.0020634867
39	0xbc2b8f4b	-0.010471175
40	0x375c47dc	1.3129753e-05
41	0x3a21946c	0.0006163779
42	0xb55667f4	-7.9872484e-07
43	0xb9525720	-0.00020059617
44	0x3a9ed7ed	0.0012118794
45	0x3cb37b9c	0.021909527
46	0x3a92e144	0.001120605
47	0xbba0f66b	-0.004912188

exp_avg_sq f4 [12, 4]
0	0x00000000	0.0
1	0x00000000	0.0
2	0x00000000	0.0
3	0x00000000	0.0
4	0x00000000	0.0
5	0x00000000	0.0
6	0x00000000	0.0
7	0x00000000	0.0
8	0x00000000	0.0
9	0x00000000	0.0
10	0x00000000	0.0
11	0x00000000	0.0
12	0x00000000	0.0
13	0x00000000	0.0
14	0x00000000	0.0
15	0x00000000	0.0
16	0x00000000	0.0
17	0x00000000	0.0
18	0x00000000	0.0
19	0x00000000	0.0
20	0x00000000	0.0
21	0x00000000	0.0
22	0x00000000	0.0
23	0x00000000	0.0
24	0x00000000	0.0
25	0x00000000	0.0
26	0x00000000	0.0
27	0x00000000	0.0
28	0x00000000	0.0
29	0x00000000	0.0
30	0x00000000	0.0
31	0x00000000	0.0
32	0x33e37072	1.0590965e-07
33	0x3729fe62	1.0132413e-05
34	0x342590ca	1.5419496e-07
35	0x359aa82c	1.1522839e-06
36	0x38a16907	7.696641e-05
37	0x3b01e835	0.0019822244
38	0x38811956	6.1559185e-05
39	0x3a2da7dd	0.000662444
40	0x3319db95	3.5822797e-08
41	0x367e695c	3.7910277e-06
42	0x33b99819	8.6424e-08
43	0x34c5a322	3.6812804e-07
44	0x37ce5c33	2.4600047e-05
45	0x3a218820	0.0006161947
46	0x37914871	1.731908e-05
47	0x3963b672	0.00021716373

exp_avg f4 [12]
0	0x00000000	0.0
1	0x00000000	0.0
2	0x00000000	0.0
3	0x00000000	0.0
4	0x00000000	0.0
5	0x00000000	0.0
6	0x00000000	0.0
7	0x00000000	0.0
8	0xb9087c44	-0.00013016263
9	0xbba6e07c	-0.0050926786
10	0xb9ec6fdf	-0.00045096778
11	0xbc40506b	-0.011737923

exp_avg_sq f4 [12]
0	0x00000000	0.0
1	0x00000000	0.0
2	0x00000000	0.0
3	0x00000000	0.0
4	0x00000000	0.0
5	0x00000000	0.0
6	0x00000000	0.0
7	0x00000000	0.0
8	0x364fb96d	3.0953336e-06
9	0x3a5bb2f8	0.00083808554
10	0x35941eb0	1.103579e-06
11	0x399b1953	0.00029582772

exp_avg f4 [4, 4]
0	0x38d66aa5	0.00010224179
1	0xbbe04d94	-0.0068451855
2	0xb91665ef	-0.00014343088
3	0xbb1739ea	-0.002307529
4	0x38ca7700	9.654276e-05
5	0xb9d6fd3d	-0.00041005938
6	0xb6536d22	-3.1504974e-06
7	0x3b730330	0.0037080757
8	0xb8101620	-3.435288e-05
9	0x3c1a1e10	0.0094065815
10	0x398e58c3	0.00027150483
11	0xbb9fd664	-0.0048778523
12	0xb8c8b351	-9.5701434e-05
13	0xbb103969	-0.0022006875
14	0xb8d3765b	-0.000100833095
15	0x3a8c6cb6	0.0010713551

exp_avg_sq f4 [4, 4]
0	0x3608bdbc	2.037602e-06
1	0x3aba0dd4	0.0014194795
2	0x363168c1	2.643603e-06
3	0x3add57e3	0.0016887154
4	0x349aa9e3	2.8808344e-07
5	0x38988e14	7.274389e-05
6	0x3421b94d	1.5061705e-07
7	0x392c28b4	0.00016418361
8	0x35d73d8d	1.6036662e-06
9	0x3a3b6ad4	0.00071494025
10	0x3550a59b	7.7727026e-07
11	0x3acfb13d	0.0015845668
12	0x35ae0f29	1.2968422e-06
13	0x3a823cce	0.0009936334
14	0x35bc741f	1.4040887e-06
15	0x3ada1676	0.0016638774

exp_avg f4 [4]
0	0x3d1feb62	0.039042838
1	0xbcb3cabd	-0.02194726
2	0x3ca7bda4	0.02047617
3	0xbd30ad6d	-0.04313414

exp_avg_sq f4 [4]
0	0x3c28f3e3	0.010312053
1	0x3b0e21e8	0.002168769
2	0x3ba341bd	0.004982202
3	0x3c19830e	0.009369625

exp_avg f4 [12, 4]
0	0x00000000	0.0
1	0x00000000	0.0
2	0x00000000	0.0
3	0x00000000	0.0
4	0x00000000	0.0
5	0x00000000	0.0
6	0x00000000	0.0
7	0x00000000	0.0
8	0x00000000	0.0
9	0x00000000	0.0
10	0x00000000	0.0
11	0x00000000	0.0
12	0x00000000	0.0
13	0x00000000	0.0
14	0x00000000	0.0
15	0x00000000	0.0
16	0x00000000	0.0
17	0x00000000	0.0
18	0x00000000	0.0
19	0x00000000	0.0
20	0x00000000	0.0
21	0x00000000	0.0
22	0x00000000	0.0
23	0x00000000	0.0
24	0x00000000	0.0
25	0x00000000	0.0
26	0x00000000	0.0
27	0x00000000	0.0
28	0x00000000	0.0
29	0x00000000	0.0
30	0x00000000	0.0
31	0x00000000	0.0
32	0xb59150b6	-1.0826832e-06
33	0xb731a3d8	-1.058817e-05
34	0xb7407ec2	-1.1473605e-05
35	0xb68aa728	-4.13218e-06
36	0x352843f1	6.2683745e-07
37	0x36b0f91c	5.274209e-06
38	0x36d54a7f	6.356567e-06
39	0x363dcad8	2.8281265e-06
40	0x32354b58	1.0552718e-08
41	0x360b6b31	2.0775008e-06
42	0x361bba0f	2.32051e-06
43	0x355fe51e	8.3407383e-07
44	0x350c51e4	5.227323e-07
45	0x36832972	3.908929e-06
46	0x36a79eb2	4.9954624e-06
47	0x36232b00	2.4313922e-06

exp_avg_sq f4 [12, 4]
0	0x00000000	0.0
1	0x00000000	0.0
2	0x00000000	0.0
3	0x00000000	0.0
4	0x00000000	0.0
5	0x00000000	0.0
6	0x00000000	0.0
7	0x00000000	0.0
8	0x00000000	0.0
9	0x00000000	0.0
10	0x00000000	0.0
11	0x00000000	0.0
12	0x00000000	0.0
13	0x00000000	0.0
14	0x00000000	0.0
15	0x00000000	0.0
16	0x00000000	0.0
17	0x00000000	0.0
18	0x00000000	0.0
19	0x00000000	0.0
20	0x00000000	0.0
21	0x00000000	0.0
22	0x00000000	0.0
23	0x00000000	0.0
24	0x00000000	0.0
25	0x00000000	0.0
26	0x00000000	0.0
27	0x00000000	0.0
28	0x00000000	0.0
29	0x00000000	0.0
30	0x00000000	0.0
31	0x00000000	0.0
32	0x2ce6bcb4	6.5579434e-12
33	0x2f845c23	2.4076127e-10
34	0x2fb42218	3.2766034e-10
35	0x2e6f27c8	5.437764e-11
36	0x2d2b3a22	9.733133e-12
37	0x2fcb0ff2	3.6936815e-10
38	0x301db89b	5.737861e-10
39	0x2ee42381	1.03745464e-10
40	0x2c4cbb20	2.9094019e-12
41	0x2ede5f90	1.01123665e-10
42	0x2f12ae29	1.3340497e-10
43	0x2db024df	2.0025257e-11
44	0x2d24e17f	9.372391e-12
45	0x2ff84f3e	4.5167242e-10
46	0x304cd24d	7.4513623e-10
47	0x2f117f87	1.323298e-10

exp_avg f4 [12]
0	0x00000000	0.0
1	0x00000000	0.0
2	0x00000000	0.0
3	0x00000000	0.0
4	0x00000000	0.0
5	0x00000000	0.0
6	0x00000000	0.0
7	0x00000000	0.0
8	0x39812cea	0.0002463826
9	0xb8da84ac	-0.00010419762
10	0xb80ef28a	-3.408132e-05
11	0xb88c47ff	-6.6891305e-05

exp_avg_sq f4 [12]
0	0x00000000	0.0
1	0x00000000	0.0
2	0x00000000	0.0
3	0x00000000	0.0
4	0x00000000	0.0
5	0x00000000	0.0
6	0x00000000	0.0
7	0x00000000	0.0
8	0x3496e5e0	2.8106933e-07
9	0x3535d1a3	6.7732816e-07
10	0x33ed413b	1.1048038e-07
11	0x353a1c96	6.9332e-07

exp_avg f4 [4, 4]
0	0x37899cfa	1.640477e-05
1	0x3926f7d8	0.00015923323
2	0x38d7d788	0.00010292145
3	0x3902c014	0.00012469321
4	0xb8334ed9	-4.275036e-05
5	0xb8db88de	-0.00010468227
6	0xb843a6ca	-4.6646957e-05
7	0xb8aa2375	-8.112836e-05
8	0x37330e4b	1.0672559e-05
9	0x37e54d1a	2.733483e-05
10	0x3769bc41	1.39317135e-05
11	0x3784b330	1.5819067e-05
12	0x3716a85e	8.979898e-06
13	0xb8f4e188	-0.00011676835
14	0xb8a1369c	-7.68725e-05
15	0xb8a57ed0	-7.891434e-05

exp_avg_sq f4 [4, 4]
0	0x33460782	4.6107296e-08
1	0x33adf274	8.100042e-08
2	0x32baf135	2.1762938e-08
3	0x33984f61	7.0924905e-08
4	0x32e4c2d4	2.6631291e-08
5	0x33372cee	4.264887e-08
6	0x321e8d73	9.228972e-09
7	0x33357a24	4.2253433e-08
8	0x3296136f	1.7471136e-08
9	0x329aeae5	1.8034777e-08
10	0x3196a774	4.384612e-09
11	0x329fd326	1.8606055e-08
12	0x32d6d4be	2.5009623e-08
13	0x3376dd56	5.7477642e-08
14	0x324d876d	1.1963363e-08
15	0x33211c49	3.751146e-08

exp_avg f4 [4]
0	0x3c6b173a	0.014348799
1	0xbc4629a2	-0.012094887
2	0x3c4e0f95	0.012576957
3	0xbc47b7b5	-0.012189795

exp_avg_sq f4 [4]
0	0x3af24e45	0.0018486461
1	0x3a845098	0.001009482
2	0x39f70e17	0.0004712201
3	0x3a84acba	0.0010122277

exp_avg f4 [4, 4]
0	0x3b12213a	0.0022297637
1	0xbb8b0384	-0.0042423625
2	0xba8f4cff	-0.0010932981
3	0xbb2a5151	-0.002598841
4	0x3a606cf7	0.0008561159
5	0xb8e4b71a	-0.000109059925
6	0xb7d7f90d	-2.574597e-05
7	0x37b51cd7	2.1590311e-05
8	0x388f8de2	6.845199e-05
9	0x3b4ba3ec	0.0031073047
10	0x39a643b5	0.00031712433
11	0x3a2073ee	0.00061207905
12	0x3adb6888	0.0016739527
13	0x3b3efae2	0.0029141237
14	0xba1720fa	-0.0005765107
15	0x39c0144f	0.00036636225

exp_avg_sq f4 [4, 4]
0	0x371c90c6	9.332032e-06
1	0x38b37189	8.556533e-05
2	0x383f5ed9	4.5626282e-05
3	0x37a2b35e	1.939543e-05
4	0x3a1e2c00	0.0006033778
5	0x39cdb67b	0.00039236606
6	0x393d9859	0.00018081199
7	0x37046d45	7.893254e-06
8	0x34dd0434	4.1167516e-07
9	0x387d8a02	6.044843e-05
10	0x3668156d	3.4583165e-06
11	0x362522e0	2.4607216e-06
12	0x3843e04c	4.6700516e-05
13	0x382ac818	4.071751e-05
14	0x371aede9	9.234508e-06
15	0x3563ce4f	8.486431e-07

exp_avg f4 [4]
0	0x3b00a5f1	0.0019630159
1	0xb98bbca3	-0.0002665269
2	0xba8f61b2	-0.001093915
3	0xbaa57fc4	-0.0012626578

exp_avg_sq f4 [4]
0	0x372af098	1.0188807e-05
1	0x3884017a	6.2945255e-05
2	0x37011848	7.694653e-06
3	0x376cb17b	1.4108019e-05

exp_avg f4 [4, 4]
0	0x3a04649b	0.0005050392
1	0x380c7e03	3.349596e-05
2	0xba3afecb	-0.0007133304
3	0xba66d3c7	-0.0008805361
4	0xbb37b765	-0.0028032896
5	0xb834bab1	-4.3089214e-05
6	0xb91e997a	-0.00015125229
7	0xb985fa9e	-0.0002555446
8	0xb9e88b54	-0.00044354296
9	0xb8281ad4	-4.0079307e-05
10	0x38bc7d6e	8.987902e-05
11	0xb73f5ea8	-1.1406526e-05
12	0x39f4c1e5	0.0004668377
13	0x38b91224	8.8248664e-05
14	0x3ac1dd32	0.0014790653
15	0x3afe682f	0.0019409711

exp_avg_sq f4 [4, 4]
0	0x35f2a684	1.8078867e-06
1	0x37ac0f10	2.0511012e-05
2	0x36ca7ec0	6.0348248e-06
3	0x37fa3e16	2.9831233e-05
4	0x37ddb01e	2.6427264e-05
5	0x37008f82	7.662808e-06
6	0x36a10b47	4.7994868e-06
7	0x38cdc71a	9.812247e-05
8	0x34dd99a9	4.127626e-07
9	0x36a06362	4.7799413e-06
10	0x3508c9ca	5.095759e-07
11	0x36c03eef	5.7293723e-06
12	0x36086fc2	2.033063e-06
13	0x37f61b41	2.9338176e-05
14	0x37677cd9	1.3797741e-05
15	0x39bad6ae	0.00035636633

exp_avg f4 [4]
0	0x3ba36af5	0.0049871155
1	0xbbcb76d4	-0.006209234
2	0x3a1a9898	0.0005897372
3	0x399727f2	0.00028830726

exp_avg_sq f4 [4]
0	0x3a0b9985	0.00053253054
1	0x3a320140	0.00067903474
2	0x383e2040	4.5329565e-05
3	0x3a965ad7	0.0011471164

exp_avg f4 [4]
0	0x3c0468d3	0.008081633
1	0x3c833be9	0.016019778
2	0x3b390940	0.0028234273
3	0xbc04a75d	-0.008096543

exp_avg_sq f4 [4]
0	0x3a29c37f	0.00064759696
1	0x3adab476	0.0016685862
2	0x3853dfb9	5.0514678e-05
3	0x398a6b9d	0.0002640159

exp_avg f4 [4]
0	0x3c8a0387	0.016847385
1	0xbc2e035f	-0.010620921
2	0x3c0cd528	0.008595742
3	0xbc72d8d6	-0.0148222055

exp_avg_sq f4 [4]
0	0x3ac4edd0	0.0015024487
1	0x3a452a0a	0.0007521218
2	0x39af33e0	0.0003341725
3	0x3a5833cd	0.0008247465

exp_avg f4 [4]
0	0x3b8709b8	0.0041210316
1	0xba213d16	-0.0006150765
2	0x3aa83718	0.0012833802
3	0xbb4f85a0	-0.003166534

exp_avg_sq f4 [4]
0	0x390c3d57	0.00013374291
1	0x39d066f2	0.00039749552
2	0x374d52e3	1.2238251e-05
3	0x3a70426f	0.0009165173

exp_avg f4 [4]
0	0x3c0dc677	0.008653275
1	0xbb872f9b	-0.004125548
2	0x3b5d84ba	0.0033801035
3	0xbc107f3f	-0.0088194

exp_avg_sq f4 [4]
0	0x39d8bbc2	0.0004133862
1	0x3a0361c7	0.00050118234
2	0x3843e7de	4.6707566e-05
3	0x3a6c2221	0.0009007771

exp_avg f4 [4]
0	0x3b03a82a	0.0020089247
1	0xbadd228c	-0.0016871258
2	0xba258334	-0.0006313801
3	0x3b28042d	0.0025637255

exp_avg_sq f4 [4]
0	0x390d0a07	0.00013450543
1	0x3996687f	0.00028688085
2	0x393361d9	0.00017107221
3	0x38cb345e	9.6895485e-05

exp_avg f4 [4]
0	0x3ab9c2c2	0.0014172422
1	0xbb07ccc7	-0.0020721422
2	0xbaa77478	-0.0012775799
3	0x3aff04cf	0.0019456389

exp_avg_sq f4 [4]
0	0x39277504	0.00015969953
1	0x393f261c	0.00018229376
2	0x38c9868a	9.609487e-05
3	0x3a5a78e0	0.0008334052

exp_avg f4 [12, 4]
0	0x00000000	0.0
1	0x00000000	0.0
2	0x00000000	0.0
3	0x00000000	0.0
4	0x00000000	0.0
5	0x00000000	0.0
6	0x00000000	0.0
7	0x00000000	0.0
8	0x00000000	0.0
9	0x00000000	0.0
10	0x00000000	0.0
11	0x00000000	0.0
12	0x00000000	0.0
13	0x00000000	0.0
14	0x00000000	0.0
15	0x00000000	0.0
16	0x00000000	0.0
17	0x00000000	0.0
18	0x00000000	0.0
19	0x00000000	0.0
20	0x00000000	0.0
21	0x00000000	0.0
22	0x00000000	0.0
23	0x00000000	0.0
24	0x00000000	0.0
25	0x00000000	0.0
26	0x00000000	0.0
27	0x00000000	0.0
28	0x00000000	0.0
29	0x00000000	0.0
30	0x00000000	0.0
31	0x00000000	0.0
32	0xb8fdcffd	-0.00012102721
33	0x395d246e	0.00021089774
34	0x36f9feb3	7.450429e-06
35	0x38847172	6.315381e-05
36	0x3a184c7b	0.00058097363
37	0xb9d78e94	-0.00041114225
38	0xb8a89f1a	-8.040499e-05
39	0x383e924a	4.5435772e-05
40	0x39ba4f36	0.000355357
41	0xb9a0c8da	-0.00030667224
42	0xb91628b6	-0.00014320281
43	0xb782ea3c	-1.5606282e-05
44	0xb75bea40	-1.3107958e-05
45	0x3847cfe8	4.7638925e-05
46	0x38da7818	0.00010417419
47	0x36490800	2.995599e-06

exp_avg_sq f4 [12, 4]
0	0x00000000	0.0
1	0x00000000	0.0
2	0x00000000	0.0
3	0x00000000	0.0
4	0x00000000	0.0
5	0x00000000	0.0
6	0x00000000	0.0
7	0x00000000	0.0
8	0x00000000	0.0
9	0x00000000	0.0
10	0x00000000	0.0
11	0x00000000	0.0
12	0x00000000	0.0
13	0x00000000	0.0
14	0x00000000	0.0
15	0x00000000	0.0
16	0x00000000	0.0
17	0x00000000	0.0
18	0x00000000	0.0
19	0x00000000	0.0
20	0x00000000	0.0
21	0x00000000	0.0
22	0x00000000	0.0
23	0x00000000	0.0
24	0x00000000	0.0
25	0x00000000	0.0
26	0x00000000	0.0
27	0x00000000	0.0
28	0x00000000	0.0
29	0x00000000	0.0
30	0x00000000	0.0
31	0x00000000	0.0
32	0x3603ceed	1.9640968e-06
33	0x35b3a9a2	1.3385909e-06
34	0x34b3f474	3.351921e-07
35	0x345a1b35	2.031273e-07
36	0x36f90cad	7.422254e-06
37	0x36a2386b	4.834544e-06
38	0x354c46d9	7.609902e-07
39	0x34fbf7b0	4.693261e-07
40	0x36b8a144	5.502401e-06
41	0x3694ccfe	4.434608e-06
42	0x35acc314	1.2871774e-06
43	0x3556148b	7.9751106e-07
44	0x3678dec4	3.7084546e-06
45	0x36adb51e	5.1768866e-06
46	0x35c6baea	1.4806549e-06
47	0x35168390	5.6070803e-07

exp_avg f4 [12]
0	0x00000000	0.0
1	0x00000000	0.0
2	0x00000000	0.0
3	0x00000000	0.0
4	0x00000000	0.0
5	0x00000000	0.0
6	0x00000000	0.0
7	0x00000000	0.0
8	0xb8a838f0	-8.02147e-05
9	0xb8e2d64b	-0.00010816435
10	0xb892896b	-6.9874186e-05
11	0x383308a6	4.268498e-05

exp_avg_sq f4 [12]
0	0x00000000	0.0
1	0x00000000	0.0
2	0x00000000	0.0
3	0x00000000	0.0
4	0x00000000	0.0
5	0x00000000	0.0
6	0x00000000	0.0
7	0x00000000	0.0
8	0x3435b92a	1.6924301e-07
9	0x34fa541d	4.662733e-07
10	0x3528e1eb	6.291363e-07
11	0x3501b4cf	4.8319356e-07

exp_avg f4 [4, 4]
0	0xb5f16200	-1.7984421e-06
1	0x3968a36b	0.00022186122
2	0x394f279e	0.00019755817
3	0x37d37d84	2.5211608e-05
4	0x38b26078	8.50567e-05
5	0x399678fe	0.00028700376
6	0x399c4df6	0.00029812724
7	0xb90f8b12	-0.0001368935
8	0xb72b9f24	-1.0229447e-05
9	0x3940c4fe	0.00018383932
10	0x388ee92f	6.8145215e-05
11	0x387f55cb	6.087664e-05
12	0xb8a957f4	-8.0749305e-05
13	0xba15769e	-0.0005701574
14	0xba0e066c	-0.0005417827
15	0x39267ff6	0.00015878663

exp_avg_sq f4 [4, 4]
0	0x34e1498f	4.1963037e-07
1	0x35bf975c	1.427466e-06
2	0x36e4552d	6.8048453e-06
3	0x36a598a9	4.935155e-06
4	0x3524d580	6.1405444e-07
5	0x350ffe43	5.364165e-07
6	0x3599f138	1.1469592e-06
7	0x35979e55	1.1296457e-06
8	0x348147b0	2.4080282e-07
9	0x3501d4bd	4.836582e-07
10	0x35b094da	1.3156343e-06
11	0x35981f8f	1.1334067e-06
12	0x3626ba5c	2.4844403e-06
13	0x36a2dc11	4.8535953e-06
14	0x379784dd	1.8062472e-05
15	0x37620e96	1.3474046e-05

exp_avg f4 [4]
0	0x3a4908b8	0.00076688407
1	0xbb39eac3	-0.0028368689
2	0xba07a953	-0.00051750726
3	0x3b2bbc81	0.0026204886

exp_avg_sq f4 [4]
0	0x3961efa9	0.00021546952
1	0x396e7796	0.00022741998
2	0x39070cb8	0.00012879341
3	0x3a954d67	0.0011390866
