Saved_models/best_model_Male.pt (torch, 48202 bytes, 108 tensors)

encoder_input_layer.weight f4 [4, 3]
000000 37 df 16 bd 7c ac 8d 3e ff 06 02 bf 7a 77 d0 be
       -0.036833968 0.27670658 -0.50791925 -0.40716153
000010 9b 16 53 be 71 08 2f 3e 70 70 2c 3c 3b dc f5 3e
       -0.20614092 0.17093064 0.010524854 0.48019585
000020 11 ae ec bc 4f 69 8b 3e 4f 16 5e bd 02 6a e2 3b
       -0.028891595 0.27228782 -0.054220494 0.00690961

encoder_input_layer.bias f4 [4]
000000 bf 82 11 bf 00 0f d7 be 8e a5 55 be b4 1c 45 bd
       -0.5684013 -0.42003632 -0.20863935 -0.048123077

decoder_input_layer.weight f4 [4, 1]
000000 4d 77 36 3e c8 cf 0d 3f 25 cd eb be c9 7d c4 be
       0.17818947 0.55395174 -0.4605495 -0.38377216

decoder_input_layer.bias f4 [4]
000000 35 fd 18 3f f3 77 6d 3f 42 65 f1 be 35 49 2e 3f
       0.59761363 0.92761153 -0.47147566 0.68080455

positional_encoding_layer_enc.pe f4 [1, 9, 4]
000000 00 00 00 00 00 00 80 3f 00 00 00 00 00 00 80 3f
       0.0 1.0 0.0 1.0
000010 a4 6a 57 3f 41 51 0a 3f 57 d6 23 3c b9 fc 7f 3f
       0.84147096 0.54030234 0.009999833 0.99995
000020 b7 c7 68 3f 33 11 d5 be 3e d4 a3 3c e5 f2 7f 3f
       0.9092974 -0.41614684 0.019998666 0.9998
000030 c3 81 10 3e 26 70 7d bf 1f b9 f5 3c 83 e2 7f 3f
       0.14112 -0.9899925 0.0299955 0.99955004
000040 cf bd 41 bf 30 55 27 bf db cb 23 3d 94 cb 7f 3f
       -0.7568025 -0.6536436 0.039989334 0.9992001
000050 10 7c 75 bf 2c 3c 91 3e f4 b6 4c 3d 19 ae 7f 3f
       -0.9589243 0.2836622 0.049979165 0.99875027
000060 8c 0f 8f be b8 cd 75 3f d1 9c 75 3d 12 8a 7f 3f
       -0.2794155 0.96017027 0.059964005 0.99820054
000070 46 30 28 3f bd ff 40 3f 32 3e 8f 3d 81 5f 7f 3f
       0.6569866 0.75390226 0.06994285 0.997551
000080 95 46 7d 3f f6 fd 14 be 50 aa a3 3d 65 2e 7f 3f
       0.98935825 -0.14550003 0.07991469 0.9968017

positional_encoding_layer_dec.pe f4 [1, 1, 4]
000000 00 00 00 00 00 00 80 3f 00 00 00 00 00 00 80 3f
       0.0 1.0 0.0 1.0

encoder.layers.0.self_attn.in_proj_weight f4 [12, 4]
000000 35 12 d0 be 10 df 82 be 22 3b b1 3e 1e 24 ca 3e
       -0.4063889 -0.25560808 0.34615427 0.3948068
000010 42 f2 90 be b3 55 a0 3c 3f 15 a5 3e 39 9b 29 3f
       -0.28309828 0.019572115 0.32242772 0.66252476
000020 f4 51 b7 3e 4d 5d f2 3d e6 f7 dc 3e 05 b8 c4 be
       0.35804713 0.11834202 0.43157881 -0.38421646
000030 9e cf 71 bc bf 3b f8 be eb d3 e2 be 90 75 91 be
       -0.014758972 -0.48483083 -0.44302306 -0.28410006
000040 0c 12 4d 3e 7b 86 80 3e 82 e8 97 be 5a e3 6a 3e
       0.20026416 0.251026 -0.29669577 0.2293829
000050 b2 0e b1 3e e4 28 ce bd d0 83 30 3d af dc 5c 3e
       0.34581524 -0.10066393 0.043094456 0.21568559
000060 57 61 a8 3e 37 31 21 3f a9 7d ec be 58 97 8f be
       0.32886764 0.6296572 -0.4618962 -0.28045154
000070 29 60 62 3e db 9d 01 3f 30 1c 19 3f cc a9 04 3f
       0.22106995 0.50631493 0.59808636 0.5182159
000080 d6 7d 50 3e cd fe 05 bf 38 8d 82 3d 0f 9d da be
       0.20360503 -0.5234192 0.063745916 -0.4269795
000090 96 43 0d bf 36 7d e3 3e d5 30 09 3f cf 10 2c bf
       -0.5518125 0.44431466 0.53590137 -0.6721315
0000a0 e8 15 75 3e 32 42 03 be ed db 95 bd 07 b5 b3 be
       0.23934138 -0.1281822 -0.07317338 -0.3509905
0000b0 b6 ca fa 3d 57 87 c4 be c0 b3 72 3e b8 8c ad 3e
       0.12245695 -0.38384506 0.23701382 0.33896422

encoder.layers.0.self_attn.in_proj_bias f4 [12]
000000 7c cc 37 3d 19 06 81 3d 7b c5 c7 bc 4e ef eb 3c
       0.044872746 0.06299991 -0.024386158 0.028800633
000010 09 a9 a3 ba 9c 8a 0f 3a 9e 55 d0 ba 96 7c 36 b9
       -0.001248629 0.00054756715 -0.0015894657 -0.00017403284
000020 2e 27 18 bd 6d e7 84 bd 61 7f 7e bd eb 69 b1 3c
       -0.03714674 -0.064894535 -0.062133197 0.021656951

encoder.layers.0.self_attn.out_proj.weight f4 [4, 4]
000000 05 8e 98 bd c8 0e 8a 3d 31 ce f6 3e 82 a9 0a bf
       -0.07448963 0.067411005 0.48204187 -0.541649
000010 bb 60 b3 be e7 be 14 be a0 a5 73 be 3e 69 d9 3e
       -0.35034737 -0.14525948 -0.2379365 0.42463106
000020 60 e4 ac be eb 7a 85 be 45 ef c3 be ab 22 c3 be
       -0.33767986 -0.2607034 -0.38268486 -0.38112387
000030 23 50 4f be d8 4d fc 3e 1d 96 95 3e be 49 c6 3e
       -0.20245413 0.4927814 0.2921609 0.38728136

encoder.layers.0.self_attn.out_proj.bias f4 [4]
000000 26 f8 e5 bc 3d 1c 2e 3d 98 1d f2 3c 30 c9 98 bd
       -0.028072428 0.0425074 0.029555127 -0.074602485

encoder.layers.0.linear1.weight f4 [4, 4]
000000 e5 1b a0 3e ad a6 4a 3e a6 fa 06 bf d8 c0 73 be
       0.31271282 0.19790144 -0.5272621 -0.23804033
000010 4e 4e 73 3e cb 88 1a 3e fe 50 e4 be 15 7d a0 be
       0.2376034 0.15091245 -0.44593042 -0.3134543
000020 5b 95 eb 3e 38 da c0 3e fb 1c 87 be e7 80 29 be
       0.46012387 0.37666488 -0.26389298 -0.16553079
000030 32 67 0e bf 0d f6 ee 3b 61 29 d8 be fc c2 90 be
       -0.55626214 0.007292515 -0.4221907 -0.2827376

encoder.layers.0.linear1.bias f4 [4]
000000 34 8b 0e bc a2 05 f6 3d 0a 15 26 be a5 25 b3 3e
       -0.008700181 0.12012793 -0.16218963 0.34989658

encoder.layers.0.linear2.weight f4 [4, 4]
000000 2a b5 89 be cc de fa 3e ff 67 cb 3e 21 2b d4 be
       -0.2689603 0.48998106 0.3972778 -0.41439155
000010 39 a1 18 be 3f 1f 25 bc 76 ce 82 3d d9 aa 27 3e
       -0.14905252 -0.01007825 0.063870355 0.16373767
000020 3f f2 56 3e 86 60 5a 3d d1 64 6b be 2d 47 91 3e
       0.20990847 0.05331471 -0.22987677 0.28374615
000030 5e ef 08 bf 12 d8 b6 be 8f 4a 5b be e6 2c 98 be
       -0.53490245 -0.35711724 -0.2141516 -0.29721755

encoder.layers.0.linear2.bias f4 [4]
000000 48 f2 2e be c3 9e c3 be 28 f0 73 bd 3f f9 0d 3d
       -0.1708461 -0.38207063 -0.059555203 0.034661528

encoder.layers.0.norm1.weight f4 [4]
000000 f3 bd 87 3f 0d 0c 81 3f 43 1e 80 3f 5b a8 6c 3f
       1.0604843 1.0081803 1.0009235 0.9244439

encoder.layers.0.norm1.bias f4 [4]
000000 93 3a d2 bb 54 14 4f 3d e7 e2 77 3c 89 d0 c7 bd
       -0.006415674 0.050556496 0.015129781 -0.09756572

encoder.layers.0.norm2.weight f4 [4]
000000 cb f7 90 3f 72 74 8d 3f ee 25 85 3f 33 2b 87 3f
       1.132562 1.1051161 1.04022 1.0560058

encoder.layers.0.norm2.bias f4 [4]
000000 29 2c d6 bd 23 d4 fa 3d 42 51 41 bd 12 85 f2 bd
       -0.10457642 0.12247493 -0.047196634 -0.118417874

decoder.layers.0.self_attn.in_proj_weight f4 [12, 4]
000000 ac 62 fe bd be f1 ab 3e 7e 82 a9 3e 02 31 17 bf
       -0.12421164 0.33582872 0.3310737 -0.59059155
000010 ca 93 c3 3e 08 58 f5 be a4 91 04 be 6e 42 7e be
       0.38198692 -0.47918725 -0.12946182 -0.24830028
000020 f8 90 f1 bd b4 3d f6 bd d8 ac 0c bf df 5b 07 bf
       -0.11795229 -0.12023488 -0.5495124 -0.5287456
000030 38 3f c4 bd 00 c0 01 3c 52 6e 8e be 70 37 6c 3e
       -0.095823705 0.0079193115 -0.27818543 0.23068023
000040 8a 19 0d bf d0 46 29 bd 3f dd 09 3f ce c6 7f be
       -0.55117095 -0.041327298 0.5385322 -0.24978182
000050 b9 8f 0d 3f 74 18 63 3e f6 79 0d bf 60 5f c6 3e
       0.5529743 0.22177297 -0.5526422 0.3874464
000060 80 b8 90 bd cb f6 8b be 12 b8 fa 3e ab 5d fd be
       -0.070664406 -0.27336726 0.4896856 -0.49485525
000070 48 93 86 3d e8 49 03 be 2a e6 df 3e 00 0b 2f 3e
       0.065710604 -0.12821162 0.4373029 0.1709404
000080 91 bc 91 3e 17 40 43 3d 31 9f 72 be 44 e8 29 be
       0.28464177 0.047668543 -0.23693539 -0.16592509
000090 46 3d fd be 48 06 6a 3e ee fb e6 3e 0c c7 fe 3e
       -0.4946081 0.22853959 0.45114082 0.49761236
0000a0 49 dd de be 38 f1 c2 bd 7d df ec be d0 db 8f be
       -0.43528202 -0.09518665 -0.46264258 -0.2809739
0000b0 ee 8a 61 be bc da 99 3e be 12 e0 be 10 5a 2e bd
       -0.22025654 0.30049694 -0.437643 -0.04256636

decoder.layers.0.self_attn.in_proj_bias f4 [12]
000000 00 00 00 00 00 00 00 00 00 00 00 00 00 00 00 00
       0.0 0.0 0.0 0.0
000010 00 00 00 00 00 00 00 00 00 00 00 00 00 00 00 00
       0.0 0.0 0.0 0.0
000020 ea a5 fb bd 1c 58 59 bd ff 4a 8b bd 90 fa 69 39
       -0.12287505 -0.053062543 -0.06801414 0.00022313953

decoder.layers.0.self_attn.out_proj.weight f4 [4, 4]
000000 92 30 03 bf f3 34 1e 3e 67 91 25 3e 68 64 10 be
       -0.5124599 0.15449886 0.16168748 -0.14100802
000010 58 8c 00 bb 48 35 90 bb 57 30 5d 3d 1a f2 c8 3e
       -0.0019614901 -0.004400883 0.05400118 0.3924721
000020 fb c2 00 3f b2 ad 9a 3e 96 90 06 3f cd 46 21 bd
       0.50297517 0.30210644 0.5256437 -0.03937416
000030 1b f2 e0 be c5 02 80 be 00 10 ad 3e 18 5d 86 3c
       -0.43934712 -0.25002113 0.3380127 0.016401812

decoder.layers.0.self_attn.out_proj.bias f4 [4]
000000 f3 ed 84 3e b1 73 0d 3e 1a 18 45 be f2 c5 8f bc
       0.2596279 0.13813664 -0.19247475 -0.017550442

decoder.layers.0.multihead_attn.in_proj_weight f4 [12, 4]
000000 20 1c 34 bd 91 14 1b 3f 4c 85 62 3e a0 08 8e 3c
       -0.043972135 0.60578257 0.22121161 0.017338097
000010 2c db 07 bf 72 51 9b 3e 22 53 df be aa 00 32 be
       -0.53068805 0.30335575 -0.43618113 -0.17383066
000020 5c 64 52 be e0 b8 b9 bd 80 7d db 3b 8b 4d 01 3f
       -0.20546097 -0.09068465 0.0066983104 0.50508946
000030 b0 90 9c 3d 57 6a 0c 3f 08 cb bf 3e 94 38 c6 be
       0.076447845 0.5484976 0.37459588 -0.3871504
000040 20 9f 8c 3e ee a2 dd be 47 e2 84 be 74 6f 38 3e
       0.27465153 -0.43288368 -0.25953886 0.18011266
000050 a8 0d 4f 3e f6 38 eb 3e 14 dd 49 be 00 7e 80 3a
       0.20220053 0.45941895 -0.19713241 0.0009803176
000060 40 6a a1 3e c5 9b 17 bf f6 ad e2 3e 6a a2 01 bf
       0.31526375 -0.5922206 0.44273347 -0.5063845
000070 00 48 0a 3c 80 39 d5 bd 58 21 a5 be c8 c2 a5 3d
       0.008440018 -0.10411358 -0.32252002 0.08093792
000080 6f 09 20 3f f8 c5 80 be 06 44 c3 be 26 5d 80 be
       0.62514395 -0.25151038 -0.38137835 -0.25071067
000090 3a d9 34 bf 25 2b ae 3e 82 cf 91 be b9 31 cc be
       -0.7064396 0.34017292 -0.28478628 -0.39881685
0000a0 84 4c 91 be d4 69 8b 3e c8 00 b8 3e 62 a0 01 3f
       -0.2837869 0.27229178 0.35938096 0.5063535
0000b0 2c 94 b1 3e e7 8c b8 be be 66 c9 bd a4 19 8d 3e
       0.3468336 -0.36045 -0.0983405 0.27558625

decoder.layers.0.multihead_attn.in_proj_bias f4 [12]
000000 00 00 00 00 00 00 00 00 00 00 00 00 00 00 00 00
       0.0 0.0 0.0 0.0
000010 00 00 00 00 00 00 00 00 00 00 00 00 00 00 00 00
       0.0 0.0 0.0 0.0
000020 e7 60 ab bd 53 dd 9d 3d 45 d9 af bd d9 58 21 be
       -0.08368092 0.0770823 -0.08586363 -0.15756549

decoder.layers.0.multihead_attn.out_proj.weight f4 [4, 4]
000000 b5 e4 ea bd 47 f5 f2 3e af 8f 8e be 3d 21 00 bf
       -0.11469404 0.47452757 -0.27843997 -0.5005072
000010 f6 87 9e be 0c e9 ae 3e e6 a3 07 be cc 24 da 3e
       -0.30963105 0.34162176 -0.13246116 0.426062
000020 94 eb a7 3e 1f 67 69 bd a6 c6 24 be 22 27 e1 3c
       0.3279692 -0.05698311 -0.16091403 0.02748448
000030 13 5c df 3c 4f 2b 59 bd 5a 00 51 3c 2b da e2 3b
       0.027265584 -0.053019818 0.0127564315 0.0069229803

decoder.layers.0.multihead_attn.out_proj.bias f4 [4]
000000 45 53 83 3e e2 82 99 3d a9 2a 59 be 30 95 34 bb
       0.25649467 0.07495667 -0.2120768 -0.0027554743

decoder.layers.0.linear1.weight f4 [4, 4]
000000 3d 3b 9d 3e ec 54 8b bc 3c b0 57 be e2 c8 1e bd
       0.30709258 -0.017008267 -0.21063322 -0.038765796
000010 5e 68 fe be a1 37 71 3e 5c 3a aa be 90 78 ef be
       -0.49689 0.23556377 -0.3324765 -0.4677167
000020 32 54 c8 3e 6b 9f 78 be 78 37 95 bc 83 d3 04 3e
       0.39126736 -0.24279563 -0.018214926 0.1297131
000030 a3 40 18 bd 7b 22 a2 be 83 d3 03 bf 08 0f f3 3e
       -0.037171017 -0.31666932 -0.51494616 0.47472405

decoder.layers.0.linear1.bias f4 [4]
000000 69 ae ae bd b4 01 1a 3f a3 26 89 be cd 8a 91 3e
       -0.0852936 0.6015885 -0.2678729 0.2842621

decoder.layers.0.linear2.weight f4 [4, 4]
000000 22 ee bc 3d ee b2 49 3e 92 20 4d be 54 05 9f 3e
       0.09225108 0.19697163 -0.20031956 0.31058753
000010 56 8b a4 3d 76 60 cb bd 96 0b c9 bd 28 f7 79 be
       0.08034389 -0.09930508 -0.09816663 -0.24410689
000020 24 7b 52 3e b3 a5 0d bf 6c 72 1c 3e a6 3d 86 be
       0.20554787 -0.5533096 0.15278023 -0.2621891
000030 fa 5b 39 be 43 9a e4 3d 9f 06 74 be e3 ae e9 3b
       -0.18101493 0.111622356 -0.23830651 0.007131444

decoder.layers.0.linear2.bias f4 [4]
000000 2f c1 b6 3e ee 77 c9 be b6 45 04 be 38 01 55 3e
       0.35694262 -0.39349312 -0.12917218 0.20801246

decoder.layers.0.norm1.weight f4 [4]
000000 9d 56 44 3f a2 71 84 3f b4 66 77 3f b8 79 64 3f
       0.7669466 1.0347178 0.9664109 0.8924823

decoder.layers.0.norm1.bias f4 [4]
000000 0c a7 8c 3e 28 a5 ad 3d de 42 75 be cb 3d a2 ba
       0.27471197 0.08478767 -0.23951289 -0.0012378035

decoder.layers.0.norm2.weight f4 [4]
000000 bb ee 61 3f 82 88 61 3f b2 9c 8c 3f ba db 52 3f
       0.882549 0.8809892 1.098532 0.82366526

decoder.layers.0.norm2.bias f4 [4]
000000 4b 4b 89 3e 1b ab 82 bd e1 a3 70 be 7d 79 b3 bc
       0.26815256 -0.06380292 -0.23500015 -0.021908516

decoder.layers.0.norm3.weight f4 [4]
000000 63 54 84 3f 10 0d 7e 3f ff 37 8d 3f a6 4d 64 3f
       1.0338253 0.9923868 1.1032714 0.8918098

decoder.layers.0.norm3.bias f4 [4]
000000 ed 43 32 3e 4a 91 32 be 8c 76 34 be 72 8b 34 be
       0.17408724 -0.17438236 -0.17623347 -0.17631319

linear_mapping.weight f4 [1, 4]
000000 69 34 78 3e 41 ae c2 bd 98 91 04 bf c3 bc c4 3b
       0.24238743 -0.095058925 -0.5178466 0.0060039475

linear_mapping_with_gender_ind.weight f4 [1, 5]
000000 22 18 27 be f4 d3 2d 3e da 7c 98 3e 1b 1e 6f be
       -0.163178 0.16975385 0.29782754 -0.23351328
000010 c0 84 90 3b
       0.0044103563

exp_avg f4 [4, 3]
000000 f2 1e 47 3c 4d 15 48 3c 59 df 48 3c 3c 34 97 ba
       0.012153374 0.01221211 0.0122602815 -0.0011535953
000010 fd 43 98 ba 0a 3e 99 ba 99 16 6c bb ec be 6d bb
       -0.0011616942 -0.0011691463 -0.0036024211 -0.0036277128
000020 9d 44 6f bb b3 d3 35 bc 53 f0 36 bc 53 a5 37 bc
       -0.0036509403 -0.011097836 -0.011165696 -0.01120885

exp_avg_sq f4 [4, 3]
000000 7b 48 28 3a 70 d3 28 3a 64 90 2b 3a 04 4b f4 37
       0.0006419492 0.0006440198 0.0006544648 2.9121999e-05
000010 43 64 f7 37 86 db fa 37 2e 92 bb 38 7e 49 bd 38
       2.9491383e-05 2.9904546e-05 8.944083e-05 9.025911e-05
000020 d2 bb bf 38 94 87 b3 39 20 91 b5 39 d2 04 b7 39
       9.142574e-05 0.00034242554 0.00034631137 0.0003490807

exp_avg f4 [4]
000000 2a 83 87 bb 44 06 df 39 c3 22 a0 3a 25 3f 82 3b
       -0.004135509 0.00042538543 0.0012217391 0.0039748126

exp_avg_sq f4 [4]
000000 13 90 f1 38 8f 5a bc 36 a5 5d 88 37 91 83 5f 38
       0.000115186114 5.613379e-06 1.625607e-05 5.3289874e-05

exp_avg f4 [4, 1]
000000 aa 3c 02 bb 81 cf a8 bc 9b da f7 3b 49 88 6d 3a
       -0.0019872584 -0.020606758 0.0075639016 0.00090611406

exp_avg_sq f4 [4, 1]
000000 bc 70 70 3a f9 4a 77 3a bf 95 45 3b 83 f0 04 38
       0.0009172072 0.0009433474 0.003014907 3.1695246e-05

exp_avg f4 [4]
000000 b0 2d ee 38 17 92 e6 3b 16 48 15 ba c7 9d 91 b9
       0.00011357234 0.0070364582 -0.00056946406 -0.00027774108

exp_avg_sq f4 [4]
000000 49 2a 54 39 f4 2a 28 39 f4 c1 25 3a 82 d2 e9 36
       0.00020233648 0.0001603773 0.0006323152 6.9684475e-06

exp_avg f4 [12, 4]
000000 cb 8a a7 b7 e2 bc 58 b9 5b 1e 1f 39 6c f8 40 b8
       -1.9972582e-05 -0.0002066973 0.0001517473 -4.6007728e-05
000010 dd 43 62 b6 a1 13 cc b7 14 6a 17 b7 ec f6 a0 b6
       -3.3716126e-06 -2.4327835e-05 -9.025e-06 -4.797117e-06
000020 bd 31 37 b8 4d 89 d0 b9 bb 8d ae 39 66 4b c6 b8
       -4.3676922e-05 -0.0003977515 0.00033293464 -9.45542e-05
000030 67 37 74 36 5e b3 a5 38 7f 6c 23 b7 59 7d 07 37
       3.6391082e-06 7.901223e-05 -9.740818e-06 8.075812e-06
000040 51 23 a2 38 db 07 0b 39 53 16 24 b9 cc 01 c9 b7
       7.73134e-05 0.00013259 -0.00015648575 -2.3961904e-05
000050 07 26 a4 b5 bb 72 17 38 f7 ec 89 b7 9a ca 0f b7
       -1.223002e-06 3.6108057e-05 -1.6442018e-05 -8.570636e-06
000060 a4 c1 23 38 4a ec e5 38 d7 6d b1 b8 79 6d b4 b7
       3.904257e-05 0.00010963583 -8.460477e-05 -2.150865e-05
000070 65 83 71 38 84 d5 de 36 f1 f6 bf b8 54 59 b8 36
       5.758125e-05 6.640972e-06 -9.153586e-05 5.4940265e-06
000080 eb 18 69 b9 8a 57 45 ba cb 65 b1 3a f8 0d b9 b9
       -0.00022229894 -0.0007527998 0.0013534365 -0.00035296357
000090 68 aa 1d 37 b6 3b e8 b8 7c c7 e6 39 8e d7 f2 b8
       9.397605e-06 -0.00011073744 0.00044017646 -0.000115796094
0000a0 c6 dc 23 ba af 00 e9 ba 9a 71 53 3b 41 a8 6b ba
       -0.00062508543 -0.0017776693 0.0032263757 -0.00089896104
0000b0 13 18 56 3a 1d 0d 0e 3b bf 81 6d bb e1 ab 81 3a
       0.00081670395 0.0021675297 -0.0036240665 0.0009893143

exp_avg_sq f4 [12, 4]
000000 b1 60 08 30 74 73 ac 33 50 7e a1 33 13 9f 90 32
       4.961392e-10 8.030375e-08 7.520123e-08 1.6836145e-08
000010 4a ee 26 2f dc 70 12 32 ee bf 13 34 89 37 2e 33
       1.518227e-10 8.52398e-09 1.3760265e-07 4.056304e-08
000020 e8 80 18 31 c8 08 a6 34 7b 27 f2 34 cc 20 dc 33
       2.2192186e-09 3.09263e-07 4.5104738e-07 1.0250514e-07
000030 92 a8 b6 2f d5 11 23 33 33 46 4f 34 d5 20 67 33
       3.3225384e-10 3.7967613e-08 1.9303916e-07 5.381374e-08
000040 c6 f8 c8 32 6f 20 46 33 60 b3 40 33 92 e1 a2 31
       2.3396193e-08 4.6129966e-08 4.4866624e-08 4.740465e-09
000050 2e 01 b5 31 8f d6 19 32 b9 b8 4b 31 9f 5a fa 30
       5.2679274e-09 8.954557e-09 2.964539e-09 1.821565e-09
000060 ec 24 97 34 bd 26 13 35 11 c3 5d 33 f2 cf a1 32
       2.8152806e-07 5.481814e-07 5.1632984e-08 1.883743e-08
000070 7f 1a ac 33 36 9e 19 34 95 6e ec 32 01 41 ee 31
       8.014194e-08 1.4306792e-07 2.7524303e-08 6.9341017e-09
000080 23 cd 07 34 3c 45 81 36 98 10 46 37 bd 70 33 36
       1.2647483e-07 3.8525595e-06 1.1805583e-05 2.67387e-06
000090 c7 52 7c 33 20 e9 8b 35 1c 2d 5d 36 1d cb 68 35
       5.8748608e-08 1.0424155e-06 3.2957823e-06 8.6722304e-07
0000a0 04 4a 4b 35 57 d3 71 37 6a 68 3f 38 f3 ed 43 37
       7.57311e-07 1.4413926e-05 4.563519e-05 1.1678308e-05
0000b0 cb 94 81 35 04 28 b4 37 10 5f 8c 38 2a 6a 84 37
       9.654553e-07 2.1476306e-05 6.693427e-05 1.5785063e-05

exp_avg f4 [12]
000000 78 5d 0c b9 e1 2f 7f b7 2f 43 92 b9 41 ea a7 37
       -0.0001338626 -1.5210332e-05 -0.00027897346 2.0017034e-05
000010 54 14 35 2c d5 ea ef 2b a2 6c 16 2d 02 84 1d ad
       2.5732931e-12 1.704715e-12 8.550634e-12 -8.953728e-12
000020 75 96 83 ba 50 ea 8b b9 e0 81 24 bb dc 03 3d 3b
       -0.0010039347 -0.00026686722 -0.0025101826 0.0028841412

exp_avg_sq f4 [12]
000000 b5 c2 45 33 42 34 9c 33 9a 15 8b 34 14 3b cf 33
       4.6044722e-08 7.273822e-08 2.5906485e-07 9.649935e-08
000010 f6 4d 07 1c 98 20 32 1b 74 f8 36 1e 61 fa 45 1d
       4.4768515e-22 1.4734347e-22 9.686379e-21 2.6202176e-21
000020 0d 92 f8 36 4f 10 28 36 aa 24 13 38 db f7 3d 38
       7.4079785e-06 2.5043444e-06 3.5081677e-05 4.5291945e-05

exp_avg f4 [4, 4]
000000 ed e3 1e 3b 21 5b 54 3b 61 54 09 3a 96 28 cf 3a
       0.002424474 0.003240295 0.00052387087 0.0015804942
000010 7f ee 8a ba 6c 52 bd ba 64 36 73 b9 99 bd 44 ba
       -0.0010599642 -0.0014444119 -0.00023194548 -0.0007505059
000020 7c 97 51 ba 1c d2 8b ba 60 d2 42 b9 fe ac 07 ba
       -0.000799529 -0.0010667476 -0.00018579653 -0.0005175619
000030 6f 30 4f ba 4d de 6a ba ba fe 22 b9 4d ed 08 ba
       -0.00079036405 -0.0008959517 -0.00015544417 -0.0005223349

exp_avg_sq f4 [4, 4]
000000 f2 08 a0 38 21 a6 cf 38 1c 5b 28 37 d1 1a 59 37
       7.631061e-05 9.901473e-05 1.0034793e-05 1.2940452e-05
000010 9b ff 53 36 f4 00 5d 36 13 ac ca 34 bf 8f 84 35
       3.1590232e-06 3.293212e-06 3.7750632e-07 9.876602e-07
000020 bb db 23 37 b7 7a 4b 37 86 af be 35 2f 04 d5 35
       9.766717e-06 1.2128315e-05 1.4207187e-06 1.5870954e-06
000030 d1 fa 10 37 a7 13 40 37 99 05 a4 35 d7 95 c2 35
       8.641467e-06 1.14486675e-05 1.2220581e-06 1.4497735e-06

exp_avg f4 [4]
000000 16 60 81 bb ea 94 d1 3a 52 1d 9f 3a 72 f6 bb 3a
       -0.003948222 0.0015989814 0.0012139475 0.0014340414

exp_avg_sq f4 [4]
000000 8c f4 05 39 ec 28 b3 36 e5 b1 91 37 d1 f8 8b 37
       0.00012774969 5.3393796e-06 1.7368186e-05 1.6685955e-05

exp_avg f4 [4, 4]
000000 50 bd be b7 ab 73 57 3a 55 64 e5 b9 a7 17 b6 b9
       -2.273792e-05 0.0008218835 -0.00043753037 -0.00034731367
000010 e7 eb b1 39 6c 53 17 bb 80 8d a1 3a 6f 4c 3f 3a
       0.00033935832 -0.0023090495 0.0012325495 0.0007297461
000020 4f a4 7c 39 2b 76 ff ba ef 4b 8f 3a 61 70 1f 3a
       0.00024093802 -0.0019490173 0.0010932664 0.00060821144
000030 4d 4b 0e b9 e2 9b f2 3a 13 1a 4a ba a5 ef 6e ba
       -0.00013570227 0.0018509591 -0.0007709574 -0.00091146893

exp_avg_sq f4 [4, 4]
000000 0d 57 58 34 fb c5 eb 35 fa d4 79 35 c9 ac 86 34
       2.0148237e-07 1.7566484e-06 9.306965e-07 2.5085163e-07
000010 64 3a 93 35 02 3d 69 37 65 29 ed 36 43 30 bf 35
       1.0969347e-06 1.3902087e-05 7.0679694e-06 1.4244655e-06
000020 4a 4c 20 35 40 8f 10 37 75 5b 98 36 08 1d 86 35
       5.971566e-07 8.616422e-06 4.5406e-06 9.992227e-07
000030 0a 3a 68 35 96 b5 e5 36 81 ad f7 36 69 c9 37 36
       8.6511193e-07 6.845871e-06 7.381372e-06 2.738636e-06

exp_avg f4 [4]
000000 05 c6 06 3a 37 9f b2 ba f9 2c 9b ba 6f ca a3 3a
       0.00051412015 -0.0013627772 -0.0011838964 0.0012496243

exp_avg_sq f4 [4]
000000 92 d6 52 35 06 65 c7 36 c1 83 83 36 41 b5 af 36
       7.854334e-07 5.942423e-06 3.9194424e-06 5.236507e-06

exp_avg f4 [4, 4]
000000 04 7f 2b bb 06 18 18 bb 2a eb f0 ba 17 b5 1a bb
       -0.0026168237 -0.0023207678 -0.0018380631 -0.0023606473
000010 98 92 d3 3a 04 1e 94 3a 38 6a 75 3a a7 c8 4e 3a
       0.0016141711 0.0011300449 0.0009361836 0.0007888176
000020 d4 ad f0 39 97 29 2b 3a 08 61 05 3a 50 43 33 3a
       0.0004590588 0.00065293297 0.0005088006 0.00068383384
000030 74 4b 4c 39 ed 91 81 39 0e a4 02 39 db 31 28 3a
       0.00019483065 0.0002471352 0.00012458881 0.00064161205

exp_avg_sq f4 [4, 4]
000000 0e 86 84 37 c6 06 5c 37 a4 80 d4 36 e6 fa 7d 37
       1.579805e-05 1.3114599e-05 6.333068e-06 1.5138392e-05
000010 27 a0 25 37 97 4f 12 37 35 00 8b 36 30 e7 81 36
       9.872055e-06 8.720809e-06 4.142547e-06 3.8714134e-06
000020 c1 cc de 35 82 5d cf 35 0c d8 30 35 a7 54 0a 36
       1.659988e-06 1.5449916e-06 6.58795e-07 2.0612877e-06
000030 27 71 05 36 56 6e bb 35 bb d2 17 35 4f 2a 60 36
       1.9884408e-06 1.3964698e-06 5.6558537e-07 3.3403228e-06

exp_avg f4 [4]
000000 60 11 2e bb 4e 57 91 3a c0 37 2f 3a a4 90 2c 3a
       -0.002656065 0.0011088641 0.00066840276 0.00065828324

exp_avg_sq f4 [4]
000000 90 5b 95 37 6e c9 0b 37 9b de 0d 36 83 7a 3d 36
       1.7804821e-05 8.331945e-06 2.114021e-06 2.8234506e-06

exp_avg f4 [4]
000000 d4 a0 eb 39 41 4f d5 39 80 4f 59 ba 30 f6 1b ba
       0.0004494252 0.00040685575 -0.00082897395 -0.00059494656

exp_avg_sq f4 [4]
000000 1a 58 a0 36 d3 44 db 35 77 33 a9 36 52 6c bd 35
       4.778628e-06 1.6336802e-06 5.042584e-06 1.4113123e-06

exp_avg f4 [4]
000000 85 32 89 bb 52 ad d4 39 3f be 7e 3a 38 e1 92 3a
       -0.0041869306 0.00040564925 0.000971768 0.0011206036

exp_avg_sq f4 [4]
000000 c0 0d 28 38 3c 36 91 36 26 b5 74 36 17 22 b9 36
       4.0067127e-05 4.3276505e-06 3.6464276e-06 5.517398e-06

exp_avg f4 [4]
000000 b9 d9 f3 b9 ed 0e 42 3a 75 52 33 39 3c 2d b4 ba
       -0.00046510788 0.0007402737 0.00017101488 -0.0013746391

exp_avg_sq f4 [4]
000000 9b 97 5d 37 40 5b 39 36 4b d7 e6 34 9b 1a 7c 36
       1.3207925e-05 2.7620263e-06 4.2997485e-07 3.7566413e-06

exp_avg f4 [4]
000000 dc e2 53 bb 50 40 33 3a 59 81 37 3a 0f fc a8 3a
       -0.0032331264 0.00068378914 0.00070001703 0.0012892502

exp_avg_sq f4 [4]
000000 43 44 b1 37 28 63 27 36 6c 3e e7 35 ff bf 90 36
       2.1131831e-05 2.4942656e-06 1.7229008e-06 4.3138857e-06

exp_avg f4 [12, 4]
000000 00 00 00 00 00 00 00 00 00 00 00 00 00 00 00 00
       0.0 0.0 0.0 0.0
000010 00 00 00 00 00 00 00 00 00 00 00 00 00 00 00 00
       0.0 0.0 0.0 0.0
000020 00 00 00 00 00 00 00 00 00 00 00 00 00 00 00 00
       0.0 0.0 0.0 0.0
000030 00 00 00 00 00 00 00 00 00 00 00 00 00 00 00 00
       0.0 0.0 0.0 0.0
000040 00 00 00 00 00 00 00 00 00 00 00 00 00 00 00 00
       0.0 0.0 0.0 0.0
000050 00 00 00 00 00 00 00 00 00 00 00 00 00 00 00 00
       0.0 0.0 0.0 0.0
000060 00 00 00 00 00 00 00 00 00 00 00 00 00 00 00 00
       0.0 0.0 0.0 0.0
000070 00 00 00 00 00 00 00 00 00 00 00 00 00 00 00 00
       0.0 0.0 0.0 0.0
000080 42 05 d5 b9 ff e1 e2 ba 2f f6 97 bb 22 aa ac bb
       -0.00040630443 -0.0017309784 -0.0046375017 -0.005269305
000090 a7 c0 9e b9 9a ee a7 ba 88 0a 1c bb 37 07 82 bb
       -0.00030279646 -0.0012812198 -0.0023809988 -0.003968145
0000a0 53 8a 02 ba f4 a7 fd ba 63 29 5d bb 32 81 04 bc
       -0.00049797184 -0.0019352422 -0.0033746592 -0.008087443
0000b0 8e 7a 1c 39 9e 66 c5 3a 72 70 fd 3a 7a 81 17 3c
       0.00014922975 0.001506049 0.001933588 0.009247178

exp_avg_sq f4 [12, 4]
000000 00 00 00 00 00 00 00 00 00 00 00 00 00 00 00 00
       0.0 0.0 0.0 0.0
000010 00 00 00 00 00 00 00 00 00 00 00 00 00 00 00 00
       0.0 0.0 0.0 0.0
000020 00 00 00 00 00 00 00 00 00 00 00 00 00 00 00 00
       0.0 0.0 0.0 0.0
000030 00 00 00 00 00 00 00 00 00 00 00 00 00 00 00 00
       0.0 0.0 0.0 0.0
000040 00 00 00 00 00 00 00 00 00 00 00 00 00 00 00 00
       0.0 0.0 0.0 0.0
000050 00 00 00 00 00 00 00 00 00 00 00 00 00 00 00 00
       0.0 0.0 0.0 0.0
000060 00 00 00 00 00 00 00 00 00 00 00 00 00 00 00 00
       0.0 0.0 0.0 0.0
000070 00 00 00 00 00 00 00 00 00 00 00 00 00 00 00 00
       0.0 0.0 0.0 0.0
000080 3d 17 c5 35 2c 20 fc 37 22 8b 41 38 2f 85 ad 38
       1.4684407e-06 3.0055722e-05 4.6144363e-05 8.27409e-05
000090 8f 26 c0 34 c4 52 f0 36 5a 64 3f 37 15 b1 c0 37
       3.5790842e-07 7.1621926e-06 1.1407852e-05 2.2970644e-05
0000a0 71 c7 20 35 56 4d 66 37 de 68 e2 37 34 32 02 39
       5.989487e-07 1.37270745e-05 2.6990132e-05 0.00012416468
0000b0 86 bb 29 35 b6 ee 21 37 d3 e2 7d 37 b9 3d 2c 39
       6.323029e-07 9.651927e-06 1.5132787e-05 0.00016426192

exp_avg f4 [12]
000000 00 00 00 00 00 00 00 00 00 00 00 00 00 00 00 00
       0.0 0.0 0.0 0.0
000010 00 00 00 00 00 00 00 00 00 00 00 00 00 00 00 00
       0.0 0.0 0.0 0.0
000020 2e 47 99 bb 29 2b 3b bb 3a b9 9c bb f8 1f 3d 3b
       -0.0046776747 -0.002855966 -0.004782823 0.0028858166

exp_avg_sq f4 [12]
000000 00 00 00 00 00 00 00 00 00 00 00 00 00 00 00 00
       0.0 0.0 0.0 0.0
000010 00 00 00 00 00 00 00 00 00 00 00 00 00 00 00 00
       0.0 0.0 0.0 0.0
000020 a2 d0 85 38 88 58 89 37 57 20 20 38 dd a3 cb 37
       6.380795e-05 1.6372898e-05 3.817709e-05 2.427579e-05

exp_avg f4 [4, 4]
000000 94 84 1b 39 34 81 43 ba ea 77 df 39 4a 88 c1 b9
       0.00014831341 -0.00074579124 0.00042623217 -0.00036913372
000010 98 90 af bb 16 9b 55 3c 70 c5 16 bc 33 d0 ef ba
       -0.005357813 0.013037464 -0.009202346 -0.0018296301
000020 d6 90 a6 3b 44 e7 2c bc ae 54 17 3c ab 43 3c 3b
       0.0050831838 -0.010553185 0.009236498 0.0028726857
000030 44 43 99 39 68 2f 88 ba 38 77 d1 39 ba a0 82 b9
       0.0002923255 -0.0010390105 0.0003995241 -0.00024915283

exp_avg_sq f4 [4, 4]
000000 9a e6 12 37 db e3 0d 38 1c 57 f7 37 15 c5 3e 36
       8.755969e-06 3.3829227e-05 2.9485258e-05 2.8426923e-06
000010 ac fd 9f 38 45 1a bf 39 36 08 85 39 58 27 67 37
       7.628961e-05 0.0003644993 0.00025373854 1.3777833e-05
000020 03 44 2c 38 c6 80 1f 39 77 f1 0e 39 0e df 71 37
       4.1071336e-05 0.00015211393 0.00013632128 1.4416653e-05
000030 aa 3e 12 37 3d aa 2f 38 73 05 00 38 81 48 e0 35
       8.716868e-06 4.1881798e-05 3.0522653e-05 1.6710402e-06

exp_avg f4 [4]
000000 34 26 a9 ba 13 31 66 3b 38 4d 32 bb 24 08 87 3a
       -0.0012905062 0.0035124465 -0.002720667 0.0010302109

exp_avg_sq f4 [4]
000000 37 fa 3c 39 4d a2 35 39 eb 2d ed 39 7d d1 07 38
       0.0001802229 0.00017321967 0.00045238374 3.238161e-05

exp_avg f4 [12, 4]
000000 00 00 00 00 00 00 00 00 00 00 00 00 00 00 00 00
       0.0 0.0 0.0 0.0
000010 00 00 00 00 00 00 00 00 00 00 00 00 00 00 00 00
       0.0 0.0 0.0 0.0
000020 00 00 00 00 00 00 00 00 00 00 00 00 00 00 00 00
       0.0 0.0 0.0 0.0
000030 00 00 00 00 00 00 00 00 00 00 00 00 00 00 00 00
       0.0 0.0 0.0 0.0
000040 00 00 00 00 00 00 00 00 00 00 00 00 00 00 00 00
       0.0 0.0 0.0 0.0
000050 00 00 00 00 00 00 00 00 00 00 00 00 00 00 00 00
       0.0 0.0 0.0 0.0
000060 00 00 00 00 00 00 00 00 00 00 00 00 00 00 00 00
       0.0 0.0 0.0 0.0
000070 00 00 00 00 00 00 00 00 00 00 00 00 00 00 00 00
       0.0 0.0 0.0 0.0
000080 6c 50 27 b9 be 2f cd bb 30 29 da 39 14 55 ce 3b
       -0.0001595632 -0.006261795 0.00041610887 0.006296763
000090 77 ad ba 39 e4 34 69 3b 7c a3 c8 b9 e3 e5 70 bb
       0.00035605926 0.0035584504 -0.00038268778 -0.0036758117
0000a0 79 c1 6f b9 e6 7a ce 39 fc c6 35 39 3c 72 c6 b9
       -0.0002286489 0.00039382948 0.00017335633 -0.00037850614
0000b0 0a 6c 9a 39 d6 7d ba 3b 87 63 aa ba bd e3 a0 bb
       0.00029453664 0.0056912703 -0.0012999632 -0.004909961

exp_avg_sq f4 [12, 4]
000000 00 00 00 00 00 00 00 00 00 00 00 00 00 00 00 00
       0.0 0.0 0.0 0.0
000010 00 00 00 00 00 00 00 00 00 00 00 00 00 00 00 00
       0.0 0.0 0.0 0.0
000020 00 00 00 00 00 00 00 00 00 00 00 00 00 00 00 00
       0.0 0.0 0.0 0.0
000030 00 00 00 00 00 00 00 00 00 00 00 00 00 00 00 00
       0.0 0.0 0.0 0.0
000040 00 00 00 00 00 00 00 00 00 00 00 00 00 00 00 00
       0.0 0.0 0.0 0.0
000050 00 00 00 00 00 00 00 00 00 00 00 00 00 00 00 00
       0.0 0.0 0.0 0.0
000060 00 00 00 00 00 00 00 00 00 00 00 00 00 00 00 00
       0.0 0.0 0.0 0.0
000070 00 00 00 00 00 00 00 00 00 00 00 00 00 00 00 00
       0.0 0.0 0.0 0.0
000080 29 89 a1 37 68 11 aa 38 17 c9 58 37 d4 3e 3a 38
       1.9256566e-05 8.109474e-05 1.2921423e-05 4.440437e-05
000090 41 d6 2e 37 f2 cb dc 37 ea f7 f1 36 73 f7 83 37
       1.0421093e-05 2.6321013e-05 7.2112207e-06 1.5731644e-05
0000a0 b5 9e b4 35 09 1e 90 36 1e 2d 05 35 b8 a0 04 36
       1.3457235e-06 4.295031e-06 4.9612015e-07 1.9763083e-06
0000b0 2c 6e 8e 37 ee d2 ad 38 46 b2 cb 36 7f ef 12 38
       1.6979022e-05 8.2885716e-05 6.070625e-06 3.503216e-05

exp_avg f4 [12]
000000 00 00 00 00 00 00 00 00 00 00 00 00 00 00 00 00
       0.0 0.0 0.0 0.0
000010 00 00 00 00 00 00 00 00 00 00 00 00 00 00 00 00
       0.0 0.0 0.0 0.0
000020 07 36 8f bb 0b c3 1f 3b 6a a9 aa 39 0a b9 79 3b
       -0.0043704542 0.002437773 0.0003255115 0.0038104677

exp_avg_sq f4 [12]
000000 00 00 00 00 00 00 00 00 00 00 00 00 00 00 00 00
       0.0 0.0 0.0 0.0
000010 00 00 00 00 00 00 00 00 00 00 00 00 00 00 00 00
       0.0 0.0 0.0 0.0
000020 75 15 0c 38 e5 b4 45 37 d6 32 d8 35 eb ec f0 37
       3.3398584e-05 1.1784233e-05 1.6108049e-06 2.8720553e-05

exp_avg f4 [4, 4]
000000 d1 da 3c 39 94 4e de ba 48 4b ca 39 f5 0b a8 3a
       0.00018010593 -0.0016960674 0.0003858453 0.0012820946
000010 cc 57 b6 39 af b3 13 3c 06 d4 81 bb c0 22 ff bb
       0.0003477916 0.009015008 -0.0039620427 -0.007786125
000020 5b 29 71 3a 2e 0f f3 bb e4 26 28 3b 76 2d e0 3b
       0.0009199583 -0.007417581 0.0025657946 0.006841357
000030 dd 62 86 b9 f2 67 2c 39 a0 25 90 b6 a0 40 b6 b9
       -0.0002563213 0.00016441921 -4.2959146e-06 -0.00034761894

exp_avg_sq f4 [4, 4]
000000 a1 73 3d 37 c2 91 08 38 f0 df 53 36 44 87 99 37
       1.12922e-05 3.2560674e-05 3.15718e-06 1.830201e-05
000010 d8 30 83 38 98 f9 78 39 64 f0 c3 37 29 08 15 39
       6.2556646e-05 0.00023744104 2.3357752e-05 0.00014212787
000020 10 cf 60 38 5c 3e 3c 39 d1 b8 c6 37 21 db ea 38
       5.3598604e-05 0.00017952308 2.3689501e-05 0.000111988054
000030 1f b3 e7 37 bd 0b aa 38 06 66 cc 36 e1 ca 43 38
       2.7620756e-05 8.108418e-05 6.091551e-06 4.668057e-05

exp_avg f4 [4]
000000 5b c0 c0 bb 94 8c b5 3b 10 89 b6 b9 5f 35 0d 3b
       -0.0058823056 0.00554044 -0.00034815865 0.0021546704

exp_avg_sq f4 [4]
000000 b5 dc 5c 39 3d 58 1a 39 29 32 9d 39 9a 3b 83 38
       0.00021063055 0.00014719456 0.00029982746 6.2576684e-05

exp_avg f4 [4, 4]
000000 c4 27 a9 ba d8 1c 7d 39 de 15 09 3b 48 90 18 ba
       -0.0012905528 0.00024138705 0.0020917575 -0.00058198394
000010 4b be 71 3b 79 04 f7 b8 bb 64 7c bb 91 ad fe b9
       0.0036887105 -0.00011778711 -0.0038512188 -0.00048575972
000020 93 4a 84 ba e8 6e 73 38 14 0c 84 3a 81 0d 14 39
       -0.0010093026 5.8039004e-05 0.00100744 0.0001411941
000030 9a 8c 9a b9 60 6f ee 38 99 e7 06 3a 1e 20 60 b9
       -0.00029477925 0.000113694696 0.0005146205 -0.00021374269

exp_avg_sq f4 [4, 4]
000000 65 af 86 37 f4 2f ac 36 88 7d da 37 82 ad 6d 37
       1.605572e-05 5.131582e-06 2.604608e-05 1.4166699e-05
000010 77 c1 2d 38 62 ea 30 37 89 ce 7b 38 d6 8f db 37
       4.1426592e-05 1.0544989e-05 6.0035414e-05 2.6173813e-05
000020 4e 93 f2 37 cf a1 eb 36 7f 4b ff 37 5c 03 2d 37
       2.8917242e-05 7.0223828e-06 3.0433524e-05 1.0312386e-05
000030 84 1c 0a 37 ee 6a 3c 36 37 94 9c 37 cc f1 27 36
       8.23208e-06 2.8076424e-06 1.8665667e-05 2.5025683e-06

exp_avg f4 [4]
000000 85 a5 b3 ba b0 4a 25 3b 27 00 16 ba f4 36 88 b9
       -0.0013705945 0.002522152 -0.00057220686 -0.00025980885

exp_avg_sq f4 [4]
000000 01 84 77 37 13 bd 13 38 31 1f 94 37 2a bf db 36
       1.4753082e-05 3.522362e-05 1.76575e-05 6.548963e-06

exp_avg f4 [4, 4]
000000 45 aa e2 ba 28 59 e4 b9 de 1e 06 ba 13 ed d3 b9
       -0.0017293176 -0.00043553975 -0.0005116294 -0.0004042169
000010 55 96 13 3b 00 82 ef 37 02 bc 02 3b d8 43 0d 3c
       0.0022520025 2.8551556e-05 0.0019948487 0.008622132
000020 46 c6 2c bb 64 f8 f4 ba f8 81 a4 ba de 25 d8 bb
       -0.0026363297 -0.0018689749 -0.0012550941 -0.006596311
000030 a2 19 90 3a 20 b4 09 3b e4 9d 07 b9 e1 65 3d bb
       0.0010993967 0.0021011904 -0.00012933422 -0.0028899836

exp_avg_sq f4 [4, 4]
000000 23 3b 58 37 e0 14 a4 37 78 92 86 36 46 68 d1 37
       1.2888372e-05 1.9560044e-05 4.0105624e-06 2.4963298e-05
000010 5c 5b b4 38 e9 90 4c 38 6d c6 57 38 c9 06 1d 3a
       8.600086e-05 4.877235e-05 5.1444793e-05 0.0005990086
000020 5e b7 9b 38 fa 08 1b 38 5d f7 2a 38 43 c7 9c 39
       7.425131e-05 3.696324e-05 4.0761533e-05 0.000299031
000030 d5 b6 b0 37 32 9d 48 38 ce 9e 71 36 b0 27 ee 38
       2.1065973e-05 4.7830115e-05 3.6004235e-06 0.00011356117

exp_avg f4 [4]
000000 42 cd ac bb 32 b8 40 3b d4 0d 3f bb 64 af 8b 3b
       -0.005273492 0.0029406664 -0.002915253 0.0042628516

exp_avg_sq f4 [4]
000000 b1 4e 3d 39 02 a6 8e 39 03 34 8b 39 5e f3 39 39
       0.0001805376 0.00027208036 0.00026550898 0.00017733636

exp_avg f4 [4]
000000 fa e0 5a 3b 0a 1c 1f bb 29 a8 fa 3a 94 2c b1 39
       0.0033398257 -0.0024278187 0.0019123602 0.00033793284

exp_avg_sq f4 [4]
000000 40 05 00 39 26 a8 37 38 61 cb ea 38 d4 9f fc 38
       0.00012208987 4.37872e-05 0.00011195872 0.00012046067

exp_avg f4 [4]
000000 29 d5 a8 bb 6a 10 93 3b a2 e6 70 ba 46 86 cf 3a
       -0.005152364 0.0044880407 -0.00091896404 0.0015832863

exp_avg_sq f4 [4]
000000 d6 ff 1a 39 b4 1b 13 39 c6 87 74 39 06 ce 48 38
       0.00014781891 0.00014029333 0.00023320233 4.787559e-05

exp_avg f4 [4]
000000 66 ed 54 bb f2 08 66 bb 80 b4 ac 3b bc 37 da 3a
       -0.0032490133 -0.0035100547 0.0052705407 0.001664869

exp_avg_sq f4 [4]
000000 d9 db 91 38 31 e2 ba 38 a5 1e b1 39 c5 cf 92 39
       6.9550886e-05 8.9113026e-05 0.00033782903 0.0002800209

exp_avg f4 [4]
000000 9d 29 fc bb 72 8c de 3b 48 c8 81 bb 9c 57 08 3b
       -0.0076953904 0.0067916447 -0.003960643 0.0020804172

exp_avg_sq f4 [4]
000000 6d 56 32 39 5a d5 84 39 cf 0d 97 39 ac 8f 0d 39
       0.00017007599 0.0002533596 0.00028811253 0.0001350033

exp_avg f4 [4]
000000 15 e1 ea 3c 12 c8 6d 3b f8 db 46 3d 2d b6 7b 39
       0.02867178 0.0036282581 0.048549622 0.00024005091

exp_avg_sq f4 [4]
000000 0a 7e 46 3b f6 0d 6c 38 d6 a0 6e 3c 69 b4 3d 35
       0.0030287527 5.6279787e-05 0.014564713 7.067052e-07

exp_avg f4 [4]
000000 d2 1d 94 3c 74 b9 ed bb 14 cc 1c bd 71 8a 16 3a
       0.018080626 -0.0072547738 -0.03828056 0.0005742675

exp_avg_sq f4 [4]
000000 42 48 f3 3a cc b3 8d 39 68 b8 09 3c 1b 24 2e 36
       0.0018560963 0.00027027575 0.008405782 2.5949037e-06

exp_avg f4 [1, 4]
000000 83 34 09 3e 54 10 4c bd da 13 ee bd b0 47 85 ba
       0.13398938 -0.04982026 -0.1162488 -0.0010168459

exp_avg_sq f4 [1, 4]
000000 26 ea 8f 3d 61 e8 35 3c e8 85 aa 3d d2 c5 93 3b
       0.07027082 0.011102767 0.08326322 0.004509666
