Saved_models/best_model_both.pt (torch, 75066 bytes, 162 tensors)

encoder_input_layer.weight f4 [4, 3]
00000000: 1eba c73f a863 eb3f 16b6 c33f a173 e6be
00000010: 3232 8dbe a21c 113e 1613 c2be 5354 2d3d
00000020: db82 06bf ca29 a5be 015c 1fbf ca1d 10bf
1.5603673 1.8389788 1.5289943 -0.45010093 -0.27577358 0.14171079 -0.37905186 0.042316746
-0.5254342 -0.32258445 -0.6224976 -0.56295455

encoder_input_layer.bias f4 [4]
00000000: 12bb f8bf 59fa 54be 851b 5f3d b83d d23e
-1.9432089 -0.20798625 0.054469604 0.41062713

decoder_input_layer.weight f4 [4, 1]
00000000: 916e f3be 9010 703f 84ee bdbe 2b3d 563f
-0.47545293 0.9377527 -0.37096035 0.83687085

decoder_input_layer.bias f4 [4]
00000000: cdbd a2bf d64f d23f 79b7 75bf 7ee6 813f
-1.2714173 1.6430614 -0.9598308 1.0148466

positional_encoding_layer_enc.pe f4 [1, 9, 4]
00000000: 0000 0000 0000 803f 0000 0000 0000 803f
00000010: a46a 573f 4151 0a3f 57d6 233c b9fc 7f3f
00000020: b7c7 683f 3311 d5be 3ed4 a33c e5f2 7f3f
00000030: c381 103e 2670 7dbf 1fb9 f53c 83e2 7f3f
00000040: cfbd 41bf 3055 27bf dbcb 233d 94cb 7f3f
00000050: 107c 75bf 2c3c 913e f4b6 4c3d 19ae 7f3f
00000060: 8c0f 8fbe b8cd 753f d19c 753d 128a 7f3f
00000070: 4630 283f bdff 403f 323e 8f3d 815f 7f3f
00000080: 9546 7d3f f6fd 14be 50aa a33d 652e 7f3f
0.0 1.0 0.0 1.0 0.84147096 0.54030234 0.009999833 0.99995
0.9092974 -0.41614684 0.019998666 0.9998 0.14112 -0.9899925 0.0299955 0.99955004
-0.7568025 -0.6536436 0.039989334 0.9992001 -0.9589243 0.2836622 0.049979165 0.99875027
-0.2794155 0.96017027 0.059964005 0.99820054 0.6569866 0.75390226 0.06994285 0.997551
0.98935825 -0.14550003 0.07991469 0.9968017

positional_encoding_layer_dec.pe f4 [1, 1, 4]
00000000: 0000 0000 0000 803f 0000 0000 0000 803f
0.0 1.0 0.0 1.0

encoder.layers.0.self_attn.in_proj_weight f4 [12, 4]
00000000: 87c7 47bf 0c55 043f 25ae 693f cdb1 443f
00000010: b716 eebe 571f 123e d66f 8cbd 49a8 dc3e
00000020: b5fb c13f 9477 9abe 044e 173f 6154 aebf
00000030: 0e41 9b3f d169 cebf 9676 9ebf f43d cdbf
00000040: 7140 9dbf 36f2 2c3f 01f8 233e b93d cfbd
00000050: e572 9bbf 9ab0 9b3d e0c0 1f3f a467 943c
00000060: 88f5 e33f 0b1d 143f b3a5 4bbf 2e23 a4bd
00000070: baa7 dc3f e1b2 f03c 807e 08be 9b2f ab3e
00000080: d5b7 c4be 0609 6ebf a710 e73e 64e3 ea3e
00000090: c91c dbbe 6dfe 8abe b6dc d83e 130f 47bf
000000a0: 096b 633f 9ee6 f5bf ab6e ec3e 7d01 72bf
000000b0: e4ee 90bf b959 403d 4e3c 853f 8daf de3f
-0.7803883 0.5169227 0.9128135 0.768338 -0.46501705 0.14269768 -0.068572685 0.4309714
1.515494 -0.30169356 0.5910342 -1.36195 1.2129228 -1.6126043 -1.237994 -1.6034532
-1.2285291 0.67557085 0.16012575 -0.101191945 -1.2144438 0.076020434 0.6240368 0.018115826
1.7809305 0.57856816 -0.7954971 -0.080145225 1.7238686 0.029382171 -0.13329506 0.33434758
-0.38421503 -0.9298252 0.45129892 0.4587661 -0.427954 -0.27147236 0.4235589 -0.77757376
0.888352 -1.9211004 0.46178183 -0.9453352 -1.1322904 0.046960566 1.0409029 1.7397324

encoder.layers.0.self_attn.in_proj_bias f4 [12]
00000000: f3f2 f63e 43a3 7abd edc2 09bf 42c3 aabf
00000010: 1ca3 2bbb d824 0fbb 4c61 47ba fa91 86bb
00000020: 65b4 133e 58a2 1fbf be1c 8dbf 2f75 d13f
0.4823223 -0.061190855 -0.5381306 -1.3340838 -0.002618975 -0.002184203 -0.0007605746 -0.004106757
0.14424284 -0.6235709 -1.1024396 1.6363887

encoder.layers.0.self_attn.out_proj.weight f4 [4, 4]
00000000: babe acbe 7cb7 1c3f ee3f 6d3f 5c07 acbf
00000010: 133b d0be a26b 32bf f228 b4bf 26e2 0a40
00000020: 19fb 3e3f 76b0 223f 3b92 dcbe 1cc7 b4be
00000030: 5c0e 7dbb 5389 3aba 8dff 043f e542 95be
-0.33739263 0.61217475 0.92675674 -1.3439746 -0.4067007 -0.69695485 -1.4074996 2.170053
0.74601895 0.6355051 -0.43080315 -0.35308158 -0.0038613295 -0.00071158 0.5195244 -0.291526

encoder.layers.0.self_attn.out_proj.bias f4 [4]
00000000: 6c57 debf db2d 0f40 88e2 183e 7aa8 dd3d
-1.7370429 2.2371738 0.14930165 0.1082315

encoder.layers.0.linear1.weight f4 [4, 4]
00000000: 0682 863e f0db 353f 9bce e9be 61fb 11c0
00000010: 5c8b 603e 7292 8cbe f346 94bd 3ecc a0be
00000020: 98dd 313f 2f70 2fbd 30be 5cbb b9b7 0d3e
00000030: a61f e5bf af3f 693f 77ee aabf 8d68 ba3f
0.26271075 0.71038723 -0.4566544 -2.280968 0.21928161 -0.2745548 -0.07240095 -0.31405824
0.6947875 -0.042831596 -0.0033682697 0.13839616 -1.7900283 0.911128 -1.3354024 1.4563156

encoder.layers.0.linear1.bias f4 [4]
00000000: ad52 953e 175e 9bbe f429 21bf dfbf b93f
0.2916464 -0.30345222 -0.6295464 1.451168

encoder.layers.0.linear2.weight f4 [4, 4]
00000000: 5af9 23c0 ead5 653d 03e9 7c3e ccc7 07c0
00000010: 5518 313e d708 27bd 4abb 803d 52dc d23f
00000020: cd64 1b3f a8eb 6c3e f245 d5be eb06 4c3f
00000030: 74d8 353f ed3b 6dbc aed6 25bb 71f5 f2bb
-2.5620942 0.056112207 0.24698262 -2.1215696 0.17294438 -0.040779915 0.062857226 1.6473486
0.60700685 0.2313677 -0.41654927 0.79698056 0.71033406 -0.014479619 -0.002530496 -0.007414513

encoder.layers.0.linear2.bias f4 [4]
00000000: 10fa 18c0 f6e2 743f 617b 9e3f 6a23 873f
-2.3902626 0.95658815 1.2381402 1.0557683

encoder.layers.0.norm1.weight f4 [4]
00000000: 0e27 ff3f 68e7 c23f 4aee 4cbe 08f7 853f
1.9933794 1.522687 -0.20012775 1.0466013

encoder.layers.0.norm1.bias f4 [4]
00000000: bc53 83bf 085f 613f 0906 af3e 9fc5 94bc
-1.0259929 0.8803563 0.34184292 -0.01816064

encoder.layers.0.norm2.weight f4 [4]
00000000: 1f13 843e 4ddf b83d 868f dfbc 95d3 2dbe
0.25795838 0.09026966 -0.027290117 -0.16975243

encoder.layers.0.norm2.bias f4 [4]
00000000: 8e7d c73e 2870 ccbd 3527 453c ecb4 e139
0.38962978 -0.099823296 0.0120332735 0.00043050142

decoder.layers.0.self_attn.in_proj_weight f4 [12, 4]
00000000: ac62 febd bef1 ab3e 7e82 a93e 0231 17bf
00000010: ca93 c33e 0858 f5be a491 04be 6e42 7ebe
00000020: f890 f1bd b43d f6bd d8ac 0cbf df5b 07bf
00000030: 383f c4bd 00c0 013c 526e 8ebe 7037 6c3e
00000040: 8a19 0dbf d046 29bd 3fdd 093f cec6 7fbe
00000050: b98f 0d3f 7418 633e f679 0dbf 605f c63e
00000060: 80b8 90bd cbf6 8bbe 12b8 fa3e ab5d fdbe
00000070: 4893 863d e849 03be 2ae6 df3e 000b 2f3e
00000080: 3bc3 c93d 4de6 4e3f efa1 2abf 4062 44be
00000090: 195c 46bf 9eb0 a3bf b1ac 8abd c841 873e
000000a0: 7e2a 183f ca43 90bf aaf9 acbf e1b1 023f
000000b0: ab08 1e3d 265c 8f3d 61ac 08bf 952f 043e
-0.12421164 0.33582872 0.3310737 -0.59059155 0.38198692 -0.47918725 -0.12946182 -0.24830028
-0.11795229 -0.12023488 -0.5495124 -0.5287456 -0.095823705 0.0079193115 -0.27818543 0.23068023
-0.55117095 -0.041327298 0.5385322 -0.24978182 0.5529743 0.22177297 -0.5526422 0.3874464
-0.070664406 -0.27336726 0.4896856 -0.49485525 0.065710604 -0.12821162 0.4373029 0.1709404
0.098516904 0.8082016 -0.6665334 -0.19178104 -0.7748428 -1.2788274 -0.067712195 0.26417375
0.5943984 -1.1270688 -1.3513691 0.5105267 0.038582485 0.06999998 -0.5338803 0.12908776

decoder.layers.0.self_attn.in_proj_bias f4 [12]
00000000: 0000 0000 0000 0000 0000 0000 0000 0000
00000010: 0000 0000 0000 0000 0000 0000 0000 0000
00000020: 482d 70be 1af6 883e 4be1 773e 8448 f13d
0.0 0.0 0.0 0.0 0.0 0.0 0.0 0.0
-0.23454773 0.2675026 0.24207036 0.117814094

decoder.layers.0.self_attn.out_proj.weight f4 [4, 4]
00000000: 76dc 043e 699d 423e 10f2 22be d442 95bd
00000010: 5063 c13e 771d e63e 6632 f83d 9e6c a63d
00000020: 4ab5 e0be a987 e9be 8751 c6bd 8c2b 0a40
00000030: c72b 493f 8338 5c3e 6541 653e 128e c3bc
0.12974724 0.1900536 -0.15912652 -0.07288137 0.37771082 0.44944355 0.12118988 0.08126186
-0.43888313 -0.45611313 -0.09683519 2.158908 0.78582424 0.21505933 0.22388227 -0.023871455

decoder.layers.0.self_attn.out_proj.bias f4 [4]
00000000: b30f 8c3a e7f7 913d 968f 06be e3d5 fabc
0.0010685831 0.07127362 -0.13140711 -0.030619567

decoder.layers.0.multihead_attn.in_proj_weight f4 [12, 4]
00000000: 201c 34bd 9114 1b3f 4c85 623e a008 8e3c
00000010: 2cdb 07bf 7251 9b3e 2253 dfbe aa00 32be
00000020: 5c64 52be e0b8 b9bd 807d db3b 8b4d 013f
00000030: b090 9c3d 576a 0c3f 08cb bf3e 9438 c6be
00000040: 209f 8c3e eea2 ddbe 47e2 84be 746f 383e
00000050: a80d 4f3e f638 eb3e 14dd 49be 007e 803a
00000060: 406a a13e c59b 17bf f6ad e23e 6aa2 01bf
00000070: 0048 0a3c 8039 d5bd 5821 a5be c8c2 a53d
00000080: 3a07 6e3d 5d0e 0a3d 3c1d 8b38 401a 033e
00000090: 8599 66bd 3337 88bc c706 3b3c 951f bebd
000000a0: 1c3d 98bc 85b7 53bb 81b3 793c 972b 3cbd
000000b0: 72ab 95bc 343d 623b a758 873c e1ee 623d
-0.043972135 0.60578257 0.22121161 0.017338097 -0.53068805 0.30335575 -0.43618113 -0.17383066
-0.20546097 -0.09068465 0.0066983104 0.50508946 0.076447845 0.5484976 0.37459588 -0.3871504
0.27465153 -0.43288368 -0.25953886 0.18011266 0.20220053 0.45941895 -0.19713241 0.0009803176
0.31526375 -0.5922206 0.44273347 -0.5063845 0.008440018 -0.10411358 -0.32252002 0.08093792
0.05811236 0.033705104 6.633482e-05 0.12802982 -0.05629875 -0.016627884 0.01141519 -0.092833675
-0.018583827 -0.003230543 0.015240551 -0.045940008 -0.018270228 0.0034521343 0.016521765 0.055403594

decoder.layers.0.multihead_attn.in_proj_bias f4 [12]
00000000: 0000 0000 0000 0000 0000 0000 0000 0000
00000010: 0000 0000 0000 0000 0000 0000 0000 0000
00000020: 3c14 64bc 8deb 2f3c 6c33 393b 8ff2 82bb
0.0 0.0 0.0 0.0 0.0 0.0 0.0 0.0
-0.01392084 0.010737312 0.002825941 -0.0039962004

decoder.layers.0.multihead_attn.out_proj.weight f4 [4, 4]
00000000: 510c 6c3d 5af5 5cbd 633b e6bc f889 f43c
00000010: b238 d13d 5f4f a9bd a02d 26bd 554d 373d
00000020: 8d18 283d 7b0b 0dbd b5e5 87bc bd20 6b3c
00000030: fcf2 b03d 05c8 91bd 6c7b 0ebd 014e 243d
0.057628933 -0.053944923 -0.02810449 0.029850945 0.10215892 -0.08267092 -0.040570855 0.044751484
0.04103904 -0.034434777 -0.016589025 0.014351067 0.086400956 -0.07118229 -0.034785673 0.040113453

decoder.layers.0.multihead_attn.out_proj.bias f4 [4]
00000000: 0317 7d3d a352 a03d c0d8 8a3c f5bd 78bd
0.061789524 0.07828262 0.016949058 -0.060728032

decoder.layers.0.linear1.weight f4 [4, 4]
00000000: b3ac 0bbf b251 513e fb13 1bbf 23aa cac0
00000010: 9a91 3fbf ddc2 b5be 1410 a0bf a1f9 5ec0
00000020: e9b2 5fbd 4037 e1bd ddb8 4abd 36de ac3e
00000030: a8cf a6bd df13 3fbe 5036 0340 6328 1e40
-0.54560393 0.2044132 -0.6057736 -6.3332686 -0.74831545 -0.3550023 -1.2504907 -3.4839861
-0.05461398 -0.10996866 -0.049492706 0.33763283 -0.08145076 -0.18659924 2.05019 2.471215

decoder.layers.0.linear1.bias f4 [4]
00000000: 7e47 7cbf 7e49 dabe acf6 1bbf cd88 233e
-0.9854659 -0.42634195 -0.60923266 0.15970154

decoder.layers.0.linear2.weight f4 [4, 4]
00000000: 3ad8 babf 21b7 eabf 931f 8c3d d5ef 9c3d
00000010: 1115 ffbe a067 6abe 109b 4abe 5611 133f
00000020: 570f e73e 4fdf 1e3f 452c f7bd 1a83 68bf
00000030: 600e 7c40 74d5 ae3f f880 f2bd 46c0 40be
-1.4597237 -1.8337137 0.0684196 0.07662932 -0.4982076 -0.22891092 -0.19785714 0.5744833
0.4512889 0.6205949 -0.120689906 -0.90825045 3.9383774 1.3658891 -0.11841005 -0.18823346

decoder.layers.0.linear2.bias f4 [4]
00000000: 382b 2abd 6ca6 a9bd 5d5f 973e 927e f0bc
-0.041545123 -0.082836956 0.29564944 -0.029357228

decoder.layers.0.norm1.weight f4 [4]
00000000: ac80 8340 09de 0d40 1f2b 4f3d 5596 0f40
4.109457 2.216677 0.050578233 2.2435505

decoder.layers.0.norm1.bias f4 [4]
00000000: 7c26 a13f bc84 a4be 2aa9 653d 5097 013f
1.258987 -0.32132518 0.05606953 0.5062151

decoder.layers.0.norm2.weight f4 [4]
00000000: 6432 0e40 6d74 cd3f 130a 2940 b90c 7abf
2.2218256 1.6051155 2.64124 -0.97675663

decoder.layers.0.norm2.bias f4 [4]
00000000: 56bc f2be bf24 9f3f 7ed1 99bf e897 e03d
-0.47409314 1.2433089 -1.2017057 0.10966474

decoder.layers.0.norm3.weight f4 [4]
00000000: 3b89 f23f 8dca b240 06d7 4a40 83ee 073e
1.894813 5.5872254 3.169374 0.13274579

decoder.layers.0.norm3.bias f4 [4]
00000000: 2ec4 35be 269e a1bd 562e b43f f83b 2ebf
-0.17750618 -0.078914925 1.4076641 -0.68060255

decoder.layers.1.self_attn.in_proj_weight f4 [12, 4]
00000000: ac62 febd bef1 ab3e 7e82 a93e 0231 17bf
00000010: ca93 c33e 0858 f5be a491 04be 6e42 7ebe
00000020: f890 f1bd b43d f6bd d8ac 0cbf df5b 07bf
00000030: 383f c4bd 00c0 013c 526e 8ebe 7037 6c3e
00000040: 8a19 0dbf d046 29bd 3fdd 093f cec6 7fbe
00000050: b98f 0d3f 7418 633e f679 0dbf 605f c63e
00000060: 80b8 90bd cbf6 8bbe 12b8 fa3e ab5d fdbe
00000070: 4893 863d e849 03be 2ae6 df3e 000b 2f3e
00000080: efb8 15bf 8162 fc3e baa8 213f caa4 903f
00000090: 363d 64be 17a4 2e3f ab40 9e3e 0e1f f23f
000000a0: bb72 2c3e 0aa6 b4bf 21da 46bf 9444 3fbf
000000b0: d571 ffbe af86 82bf ff1c d2bf 11bd 7d3f
-0.12421164 0.33582872 0.3310737 -0.59059155 0.38198692 -0.47918725 -0.12946182 -0.24830028
-0.11795229 -0.12023488 -0.5495124 -0.5287456 -0.095823705 0.0079193115 -0.27818543 0.23068023
-0.55117095 -0.041327298 0.5385322 -0.24978182 0.5529743 0.22177297 -0.5526422 0.3874464
-0.070664406 -0.27336726 0.4896856 -0.49485525 0.065710604 -0.12821162 0.4373029 0.1709404
-0.5848531 0.49293903 0.6314808 1.130029 -0.22288975 0.6821913 0.30908713 1.8915727
0.16840641 -1.4113171 -0.7767659 -0.74714017 -0.49891534 -1.0197352 -1.6415099 0.9911662

decoder.layers.1.self_attn.in_proj_bias f4 [12]
00000000: 0000 0000 0000 0000 0000 0000 0000 0000
00000010: 0000 0000 0000 0000 0000 0000 0000 0000
00000020: 7a83 f43e 78ba b23e 22d3 713f 2b80 9f3e
0.0 0.0 0.0 0.0 0.0 0.0 0.0 0.0
0.4775656 0.3490789 0.9446279 0.31152472

decoder.layers.1.self_attn.out_proj.weight f4 [4, 4]
00000000: 104e 97bf e2e5 81bf 0b20 16bf e95d 27bf
00000010: 699d ebbc 159b 1cbe 87f3 3ebf 0acf 483f
00000020: bdaa 843f 038a b63f e066 503f cb7c 0b3f
00000030: 9a86 5fbf 5026 93bf 814d 393f 455c 10c0
-1.1820698 -1.014828 -0.58642644 -0.6537767 -0.028761582 -0.15293534 -0.74590343 0.78440917
1.0364605 1.4260868 0.81406975 0.54487294 -0.8731476 -1.1496067 0.72383887 -2.2556317

decoder.layers.1.self_attn.out_proj.bias f4 [4]
00000000: b940 4dbf a60d afbe e512 533f 4122 413e
-0.80176884 -0.341901 0.82450706 0.18860723

decoder.layers.1.multihead_attn.in_proj_weight f4 [12, 4]
00000000: 201c 34bd 9114 1b3f 4c85 623e a008 8e3c
00000010: 2cdb 07bf 7251 9b3e 2253 dfbe aa00 32be
00000020: 5c64 52be e0b8 b9bd 807d db3b 8b4d 013f
00000030: b090 9c3d 576a 0c3f 08cb bf3e 9438 c6be
00000040: 209f 8c3e eea2 ddbe 47e2 84be 746f 383e
00000050: a80d 4f3e f638 eb3e 14dd 49be 007e 803a
00000060: 406a a13e c59b 17bf f6ad e23e 6aa2 01bf
00000070: 0048 0a3c 8039 d5bd 5821 a5be c8c2 a53d
00000080: 2143 cdbb 5c5c e03c 7163 8d3d ff66 babd
00000090: 25aa 90bc a7f0 3d3d 64c7 1b3d 0267 4bbd
000000a0: 5e10 b8bd 9f80 32bd 85ab cb3b aa54 adbd
000000b0: 95a1 a53c 559b 3b3d bc91 b9bc ded7 cc3d
-0.043972135 0.60578257 0.22121161 0.017338097 -0.53068805 0.30335575 -0.43618113 -0.17383066
-0.20546097 -0.09068465 0.0066983104 0.50508946 0.076447845 0.5484976 0.37459588 -0.3871504
0.27465153 -0.43288368 -0.25953886 0.18011266 0.20220053 0.45941895 -0.19713241 0.0009803176
0.31526375 -0.5922206 0.44273347 -0.5063845 0.008440018 -0.10411358 -0.32252002 0.08093792
-0.006264106 0.02738779 0.069037326 -0.09101676 -0.017659256 0.046372082 0.03803195 -0.049658783
-0.08987497 -0.043579694 0.006215515 -0.08463414 0.02021865 0.045802433 -0.0226525 0.10002111

decoder.layers.1.multihead_attn.in_proj_bias f4 [12]
00000000: 0000 0000 0000 0000 0000 0000 0000 0000
00000010: 0000 0000 0000 0000 0000 0000 0000 0000
00000020: 20df ea3a 4063 05bc 2e9a e3bd 3467 473a
0.0 0.0 0.0 0.0 0.0 0.0 0.0 0.0
0.001791928 -0.008141339 -0.11113392 0.0007606626

decoder.layers.1.multihead_attn.out_proj.weight f4 [4, 4]
00000000: 7be9 f8bb 0f07 9c3e fabd a53f d73b b13c
00000010: 7faf 94ba 1318 643e 2a22 4c3d 2e7c da3c
00000020: 46b0 cdbc f993 613e 8174 033f 9285 113d
00000030: 40d3 4c3c f4db 4d3e d120 5abe 259c 533c
-0.0075961924 0.30474135 1.2948601 0.02163498 -0.0011343806 0.22274809 0.04983727 0.026670542
-0.025108468 0.22029103 0.51349646 0.035527773 0.012501538 0.20103437 -0.21301581 0.012915646

decoder.layers.1.multihead_attn.out_proj.bias f4 [4]
00000000: a6a6 10be bf03 773d c482 6c3e 427b 42be
-0.14126071 0.060306307 0.23096758 -0.18992332

decoder.layers.1.linear1.weight f4 [4, 4]
00000000: ff06 30be d73d 0f3f a074 ac3d 0c3b 27c0
00000010: 6ae8 6a3b 67bc 8d3e 1e22 1b3d 22a4 e3bf
00000020: 3ce9 ae3f 6e7d 093f 2e3d 793e e813 15c0
00000030: e3d5 923e 7194 d03e da5a 833c b3af 2c3f
-0.17190169 0.55953735 0.08420682 -2.612979 0.0035844096 0.27682802 0.037874334 -1.7784464
1.3664927 0.53707016 0.24339744 -2.32934 0.28678808 0.40738252 0.016034532 0.67455596

decoder.layers.1.linear1.bias f4 [4]
00000000: 76f0 60bf 9322 d13e c650 debe 90c5 79bf
-0.87866914 0.4084669 -0.43421 -0.9756708

decoder.layers.1.linear2.weight f4 [4, 4]
00000000: 9c76 af3f b376 3fc0 9ea9 c5bc 9765 7bbe
00000010: aa2a aa3f b47c 703f 80d0 793f 00c3 bcbd
00000020: b37f ac3e f4e5 9abf 175d 86bf 0c32 12bf
00000030: 2f3f 88c0 1389 b33b eeca cf3e e412 653e
1.3708072 -2.9916198 -0.024128731 -0.24550472 1.329427 0.9394028 0.9758377 -0.09216881
0.33691177 -1.2101426 -1.0497159 -0.57107615 -4.257713 0.005478987 0.4058451 0.22370487

decoder.layers.1.linear2.bias f4 [4]
00000000: 3bc9 353e df13 6a3e ff3b e53d 7a33 10be
0.17752545 0.22859143 0.11193084 -0.14082137

decoder.layers.1.norm1.weight f4 [4]
00000000: ec83 f240 7e62 9340 1fce 9240 9b52 ed3f
7.5786037 4.605773 4.5876613 1.8540834

decoder.layers.1.norm1.bias f4 [4]
00000000: 7312 9bbf 2262 873f 5042 0840 e6d1 5fbf
-1.2115005 1.0576823 2.1290474 -0.87429655

decoder.layers.1.norm2.weight f4 [4]
00000000: d1c8 d53f ff09 9ec0 b294 9640 3675 debf
1.6701909 -4.93872 4.7056513 -1.737952

decoder.layers.1.norm2.bias f4 [4]
00000000: 0dca 18bf 4f25 95bf a98e 3640 87f2 c53f
-0.59683305 -1.1652011 2.8524573 1.5464638

decoder.layers.1.norm3.weight f4 [4]
00000000: 7df6 50ba f690 9ebb 4d3d 84bf 8ab0 263c
-0.00079713 -0.004839058 -1.0331208 0.010173926

decoder.layers.1.norm3.bias f4 [4]
00000000: 0adb bf39 4609 373c 9610 bf3e 1fa1 a2bb
0.00036593556 0.011171645 0.37317342 -0.004963055

linear_mapping.weight f4 [1, 4]
00000000: 5caa 4a3e 58e6 80bd 9add d1be 90da 9dbd
0.1979155 -0.062939346 -0.4098938 -0.07707703

linear_mapping_with_gender_ind.weight f4 [1, 5]
00000000: 40db c5b9 58fd eb3b 47dd 18bf 9a3f a539
00000010: 5cf8 af3b
-0.00037738122 0.007201832 -0.5971264 0.0003151864 0.005370183

exp_avg f4 [4, 3]
00000000: 20d4 7932 fe8f 7532 24ae 7532 e759 9bb3
00000010: 025c 9bb3 86bf 9bb3 e754 4a32 d333 4a32
00000020: a787 4b32 bb9f e633 be9d e733 9443 e833
1.4541939e-08 1.4293617e-08 1.4300472e-08 -7.234103e-08 -7.234486e-08 -7.252588e-08 1.1777252e-08 1.1769731e-08
1.1846999e-08 1.07392644e-07 1.0785469e-07 1.0815634e-07

exp_avg_sq f4 [4, 3]
00000000: 7e6d 1728 c477 1628 c263 1f28 9c41 522a
00000010: 7231 532a 0283 542a 63d1 bd2a 1115 bb2a
00000020: 6a7f bd2a 9352 3a2a 6896 3b2a 4164 3c2a
8.405926e-15 8.352643e-15 8.8479046e-15 1.867451e-13 1.875772e-13 1.8874835e-13 3.3718435e-13 3.323249e-13
3.3661556e-13 1.6548767e-13 1.6661119e-13 1.6732537e-13

exp_avg f4 [4]
00000000: f2ac afb1 9bd4 d632 f01e a7b1 b53d 22b3
-5.112832e-09 2.500956e-08 -4.863857e-09 -3.7774686e-08

exp_avg_sq f4 [4]
00000000: ed6a a926 9cd1 f328 6673 7c29 9424 c828
1.1755713e-15 2.7069323e-14 5.6055333e-14 2.2220324e-14

exp_avg f4 [4, 1]
00000000: 6d94 643d b34e 623c 9092 b9bc 6f8b d7bb
0.055805612 0.013812709 -0.022652894 -0.006577901

exp_avg_sq f4 [4, 1]
00000000: af05 8f3d fe76 933c 65eb f33c 75b1 be3c
0.06983506 0.018001076 0.02977533 0.023277977

exp_avg f4 [4]
00000000: 7fdd 92bc b105 a6bb 2cc4 083c 5e15 123b
-0.017927883 -0.0050665964 0.008347552 0.0022290568

exp_avg_sq f4 [4]
00000000: 7ecc 183c d190 163b d3d6 943b 91c6 773b
0.0093260985 0.00229745 0.0045422106 0.0037807564

exp_avg f4 [12, 4]
00000000: c04e e630 5bcc 55ae 618f a1ae ab75 0db0
00000010: c66f 1131 387f 722f 3ed9 802f 7fbb b3af
00000020: 8226 782c 3ab7 99b0 7aae 9fb0 99d8 62b0
00000030: 22d3 8d30 443c 21b0 bebf 1fb0 5093 2eae
00000040: 3dfd 40b1 c421 adb1 014a 02b2 ada2 e731
00000050: 4f54 8db0 ffc3 12b1 7610 79b1 6247 2f31
00000060: 5670 5931 2dff e631 6a23 4732 84f2 05b2
00000070: 6dec b531 cbd1 1c32 5cc1 6732 0706 62b2
00000080: 4ce1 37b3 888a ca31 3923 de31 4d8b 8032
00000090: 0257 bfb3 7240 d231 a0df 6a32 dad2 af32
000000a0: 6645 c033 b197 14b2 2c7a 6cb2 e8bf 89b2
000000b0: 2a44 4933 122f 5eb1 4315 f5b1 81be 76b2
1.6757085e-09 -4.8612097e-11 -7.3469016e-11 -5.146272e-10 2.1163813e-09 2.2054969e-10 2.3437424e-10 -3.2693134e-10
3.5264296e-12 -1.1184291e-09 -1.1618362e-09 -8.2526125e-10 1.0319108e-09 -5.86571e-10 -5.8116345e-10 -3.969386e-11
-2.8083627e-09 -5.0388014e-09 -7.5838225e-09 6.741479e-09 -1.0283062e-09 -2.1357207e-09 -3.6243626e-09 2.5506428e-09
3.1641512e-09 6.722891e-09 1.1591377e-08 -7.796761e-09 5.294672e-09 9.1280965e-09 1.34899345e-08 -1.3156302e-08
-4.2812914e-08 5.894723e-09 6.4650547e-09 1.4964508e-08 -8.909957e-08 6.119131e-09 1.3671439e-08 2.0468566e-08
8.95332e-08 -8.6492244e-09 -1.3764787e-08 -1.6036168e-08 4.6860954e-08 -3.2332008e-09 -7.1328556e-09 -1.43624e-08

exp_avg_sq f4 [12, 4]
00000000: 3bf8 f527 bf45 4225 bb35 4925 a435 8c26
00000010: 1dbf 0828 5eb6 6b25 5530 8025 39dc a626
00000020: 1fff f726 c472 6925 fa1e 8025 df23 9526
00000030: 3317 ab27 9ca0 1825 7332 2225 e754 5426
00000040: e85b ab27 327d 4429 8b51 b329 d900 2f29
00000050: 1635 9a26 b518 3528 3ede a528 1e45 0528
00000060: 352d 3d28 7e3a df29 fd02 4c2a efb3 a129
00000070: cde9 8428 1ce0 162a b50c 892a 3946 122a
00000080: 13d2 5f2a 9c76 e626 f72e a227 7fcf c128
00000090: 4aec 392a cd83 e826 024f 8927 1697 9028
000000a0: 2702 242b e5aa bb27 af14 6d28 cfec 8829
000000b0: 8046 962a 933b 2027 e758 da27 924e 0129
6.8270292e-15 1.6850449e-16 1.7452176e-16 9.728991e-16 7.590958e-15 2.0444789e-16 2.2237212e-16 1.1578255e-15
1.7208219e-15 2.0248413e-16 2.222545e-16 1.0348675e-15 4.7487187e-15 1.3238315e-16 1.4068353e-16 7.366734e-16
4.756168e-15 4.3629332e-14 7.963342e-14 3.885854e-14 1.0700286e-15 1.0052876e-14 1.8415062e-14 7.3979705e-15
1.050141e-14 9.913336e-14 1.8119877e-13 7.18105e-14 1.4756339e-14 1.340043e-13 2.4344906e-13 1.2991768e-13
1.9879263e-13 1.5991605e-15 4.501495e-15 2.1517291e-14 1.651328e-13 1.6133959e-15 3.81108e-15 1.6052735e-14
5.826749e-13 5.208821e-15 1.3160628e-14 6.080693e-14 2.6694272e-13 2.2236756e-15 6.0603543e-15 2.8711903e-14

exp_avg f4 [12]
00000000: c269 ddad 2a4f 9c2e 2c84 e3af b238 78af
00000010: 9072 02a9 8439 8ea8 9ca9 6729 4ca2 6929
00000020: e2a5 1d31 f010 9d31 5333 9fb1 d004 25b1
-2.5171757e-11 7.108121e-11 -4.1384973e-10 -2.2575611e-10 -2.8965166e-14 -1.579011e-14 5.1439416e-14 5.1877163e-14
2.29408e-09 4.571227e-09 -4.633344e-09 -2.4013396e-09

exp_avg_sq f4 [12]
00000000: 5664 0a24 e9b4 2224 bb85 0c24 fa10 d423
00000010: e915 8915 11d8 8c14 67d0 3216 1d25 5316
00000020: 2131 4326 9744 1626 32af 0e27 652c 8426
3.0008968e-17 3.5281387e-17 3.0470935e-17 2.2992276e-17 5.536843e-26 1.422161e-26 1.4444486e-25 1.7056155e-25
6.77208e-16 5.213466e-16 1.9801432e-15 9.171373e-16

exp_avg f4 [4, 4]
00000000: 084e 0333 e85c bc32 38e6 7ab3 c0d1 c933
00000010: 5c85 d830 0284 8831 ec7d 2532 a42c cbb1
00000020: f6c2 3533 a2a5 ae32 6ad3 ddb3 9934 2134
00000030: c4e4 c6b3 bfac 85b3 7d03 8934 7559 bbb4
3.0571783e-08 2.192833e-08 -5.8417044e-08 9.397945e-08 1.5753971e-09 3.9731285e-09 9.632895e-09 -5.9131526e-09
4.2319662e-08 2.0331587e-08 -1.03295704e-07 1.5013428e-07 -9.261706e-08 -6.2247175e-08 2.5520777e-07 -3.4896553e-07

exp_avg_sq f4 [4, 4]
00000000: 11f8 1f2a 1b18 dc28 89c8 822b 1a17 062c
00000010: e166 2629 25df 1728 6be8 832a 395e 082b
00000020: 72ca 6329 8d0c dd27 06e2 bb2a e0c7 422b
00000030: 644f 8b2b d3b2 012a 04e4 e32c 881b 6c2d
1.4208102e-13 2.443536e-14 9.292715e-13 1.905537e-12 3.6948638e-14 8.430571e-15 2.3431547e-13 4.8447666e-13
5.057972e-14 6.135343e-15 3.3374708e-13 6.920003e-13 9.898579e-13 1.1519544e-13 6.477043e-12 1.342116e-11

exp_avg f4 [4]
00000000: b3be 2631 8f3d 1d33 2d7c a731 d24c 1eb3
2.426458e-09 3.66104e-08 4.874457e-09 -3.685711e-08

exp_avg_sq f4 [4]
00000000: ca70 ea26 2607 de28 ac0d 1626 331d b128
1.6267583e-15 2.4650051e-14 5.2060233e-16 1.966361e-14

exp_avg f4 [4, 4]
00000000: 8b6f e7b5 a872 6535 1663 b533 b047 de33
00000010: 0400 0000 0400 0000 0400 0000 0400 0080
00000020: 0400 0000 0400 0000 0400 0080 0400 0080
00000030: b3b1 deb4 197f ee34 9c7e 5333 a954 9cb3
-1.7243304e-06 8.5475995e-07 8.446493e-08 1.03507205e-07 6e-45 6e-45 6e-45 -6e-45
6e-45 6e-45 -6e-45 -6e-45 -4.1480016e-07 4.442343e-07 4.9242416e-08 -7.279716e-08

exp_avg_sq f4 [4, 4]
00000000: 297c a92e 2710 562e 2d8f 162b 3b0b 7a2b
00000010: 1900 0000 1900 0000 1900 0000 1900 0000
00000020: 1900 0000 1900 0000 1900 0000 1900 0000
00000030: 49a6 dd2c 40b5 c82c de10 9429 a006 e32a
7.7072855e-11 4.8672313e-11 5.34894e-13 8.883343e-13 3.5e-44 3.5e-44 3.5e-44 3.5e-44
3.5e-44 3.5e-44 3.5e-44 3.5e-44 6.299659e-12 5.7044647e-12 6.575446e-14 4.0327897e-13

exp_avg f4 [4]
00000000: ecc1 cb34 0400 0000 0400 0000 c6a5 1734
3.7952793e-07 6e-45 6e-45 1.4123279e-07

exp_avg_sq f4 [4]
00000000: 31d6 c82c 1900 0000 1900 0000 61f6 382b
5.708122e-12 3.5e-44 3.5e-44 6.571185e-13

exp_avg f4 [4, 4]
00000000: 61de 0134 0400 0080 0400 0000 6c17 12b2
00000010: 6e6a fdb3 0400 0080 0400 0000 0e3e df33
00000020: 5e48 02b5 0400 0000 0400 0080 0b79 9f35
00000030: 0c5a 6935 0400 0000 0400 0080 7b05 82b6
1.2094962e-07 -6e-45 6e-45 -8.503644e-09 -1.180059e-07 -6e-45 6e-45 1.03955344e-07
-4.853408e-07 6e-45 -6e-45 1.1881651e-06 8.69303e-07 6e-45 -6e-45 -3.87494e-06

exp_avg_sq f4 [4, 4]
00000000: f82e 092b 1900 0000 1900 0000 9bcd ed2d
00000010: 2ba9 412d 1900 0000 1900 0000 e185 9b2e
00000020: 91aa 7c2c 1900 0000 1900 0000 a798 ba2d
00000030: 4653 612e 1900 0000 1900 0000 af0e 1830
4.873736e-13 3.5e-44 3.5e-44 2.7035088e-11 1.1008343e-11 3.5e-44 3.5e-44 7.0723656e-11
3.5906037e-12 3.5e-44 3.5e-44 2.1213543e-11 5.123304e-11 3.5e-44 3.5e-44 5.5318145e-10

exp_avg f4 [4]
00000000: b231 4434 6861 cc32 90fb 6db1 eea7 8733
1.8272002e-07 2.379302e-08 -3.4631036e-09 6.3169736e-08

exp_avg_sq f4 [4]
00000000: 2900 0d2b 9c11 322c c50d 272b 2e07 152d
5.0093485e-13 2.5305097e-12 5.934943e-13 8.471264e-12

exp_avg f4 [4]
00000000: fb93 54b4 9616 db34 e1a4 99b3 4a39 72b4
-1.9797874e-07 4.0808362e-07 -7.154609e-08 -2.2558848e-07

exp_avg_sq f4 [4]
00000000: 947a 4c2c dc3f 322c 1a0b af2a 6ad9 de2c
2.9058188e-12 2.533077e-12 3.1093948e-13 6.3337573e-12

exp_avg f4 [4]
00000000: 12aa 3334 4449 c034 2d8e d6b4 5e11 72b5
1.6732545e-07 3.5816095e-07 -3.9964053e-07 -9.01773e-07

exp_avg_sq f4 [4]
00000000: 343c 242c 89dc 042c 8762 1a2c ec4a f82d
2.3339221e-12 1.888075e-12 2.193941e-12 2.8227608e-11

exp_avg f4 [4]
00000000: fcb6 eb36 d438 0a36 2e19 b6b5 96bf aab7
7.024848e-06 2.059668e-06 -1.3567385e-06 -2.0354793e-05

exp_avg_sq f4 [4]
00000000: a716 1833 2e64 7831 257c 0f2f 86d2 a531
3.541086e-08 3.6145695e-09 1.3049879e-10 4.8260658e-09

exp_avg f4 [4]
00000000: 88cd 11b5 f81c 9134 d27d d3b5 4032 2135
-5.4315797e-07 2.7029432e-07 -1.5757344e-06 6.00503e-07

exp_avg_sq f4 [4]
00000000: 4510 8132 92e0 4f31 db03 ad2f 39b0 0933
1.5024975e-08 3.0250118e-09 3.1471256e-10 3.205807e-08

exp_avg f4 [12, 4]
00000000: 0000 0000 0000 0000 0000 0000 0000 0000
00000010: 0000 0000 0000 0000 0000 0000 0000 0000
00000020: 0000 0000 0000 0000 0000 0000 0000 0000
00000030: 0000 0000 0000 0000 0000 0000 0000 0000
00000040: 0000 0000 0000 0000 0000 0000 0000 0000
00000050: 0000 0000 0000 0000 0000 0000 0000 0000
00000060: 0000 0000 0000 0000 0000 0000 0000 0000
00000070: 0000 0000 0000 0000 0000 0000 0000 0000
00000080: 4ccf c538 9923 943a 8aa6 9eb9 7195 28ba
00000090: 784b 833a e3ff 12ba f970 e137 888a 57bb
000000a0: 4573 4b3a 0c3c 9139 f00a 8cb9 d0ff 1fbb
000000b0: 9e30 383b d991 b4b9 dc64 ab3a 34b3 09bc
0.0 0.0 0.0 0.0 0.0 0.0 0.0 0.0
0.0 0.0 0.0 0.0 0.0 0.0 0.0 0.0
0.0 0.0 0.0 0.0 0.0 0.0 0.0 0.0
0.0 0.0 0.0 0.0 0.0 0.0 0.0 0.0
9.432304e-05 0.0011302113 -0.0003026019 -0.000643096 0.0010016998 -0.0005607588 2.6874697e-05 -0.0032888968
0.0007761012 0.00027701294 -0.0002671103 -0.002441395 0.002810515 -0.0003444094 0.0013076323 -0.008404542

exp_avg_sq f4 [12, 4]
00000000: 0000 0000 0000 0000 0000 0000 0000 0000
00000010: 0000 0000 0000 0000 0000 0000 0000 0000
00000020: 0000 0000 0000 0000 0000 0000 0000 0000
00000030: 0000 0000 0000 0000 0000 0000 0000 0000
00000040: 0000 0000 0000 0000 0000 0000 0000 0000
00000050: 0000 0000 0000 0000 0000 0000 0000 0000
00000060: 0000 0000 0000 0000 0000 0000 0000 0000
00000070: 0000 0000 0000 0000 0000 0000 0000 0000
00000080: 578f cc37 5f72 7939 35e4 0d37 8616 3238
00000090: 2f4c d636 3149 2438 11cb 9336 c190 8b38
000000a0: 5e79 1537 1cc0 7238 5691 8636 1b07 6238
000000b0: 839f 5838 52d3 3939 e069 4b38 5547 183a
0.0 0.0 0.0 0.0 0.0 0.0 0.0 0.0
0.0 0.0 0.0 0.0 0.0 0.0 0.0 0.0
0.0 0.0 0.0 0.0 0.0 0.0 0.0 0.0
0.0 0.0 0.0 0.0 0.0 0.0 0.0 0.0
2.4385443e-05 0.00023789097 8.4573885e-06 4.2459484e-05 6.386566e-06 3.916881e-05 4.4045814e-06 6.654999e-05
8.90935e-06 5.7876212e-05 4.0104305e-06 5.3889216e-05 5.164697e-05 0.00017721698 4.8497575e-05 0.0005808969

exp_avg f4 [12]
00000000: 0000 0000 0000 0000 0000 0000 0000 0000
00000010: 0000 0000 0000 0000 0000 0000 0000 0000
00000020: e257 893b e692 f43b c3ad 723b 2577 c33b
0.0 0.0 0.0 0.0 0.0 0.0 0.0 0.0
0.0041913847 0.0074638007 0.003702984 0.005965131

exp_avg_sq f4 [12]
00000000: 0000 0000 0000 0000 0000 0000 0000 0000
00000010: 0000 0000 0000 0000 0000 0000 0000 0000
00000020: 9c52 053b 3cd1 1d3a d63f 4d3a e4c2 a73b
0.0 0.0 0.0 0.0 0.0 0.0 0.0 0.0
0.0020343428 0.0006020253 0.00078296417 0.0051196683

exp_avg f4 [4, 4]
00000000: 38c3 3dba e19a 253b 5cc3 6dba 68b6 64ba
00000010: 703d 83bb 7e69 833a d2dd 3d3b b43f 3e3a
00000020: 4095 2fb9 9091 92ba 4c14 abba d4c8 e1b9
00000030: 2fbc 0e3b 1c9e 08bb e426 07bb 4fc4 ba39
-0.00072388677 0.0025269317 -0.00090699433 -0.00087246904 -0.0040051267 0.0010025946 0.0028971327 0.00072574173
-0.000167449 -0.0011182297 -0.0013052314 -0.00043064973 0.0021779647 -0.0020846194 -0.0020622546 0.00035622946

exp_avg_sq f4 [4, 4]
00000000: 0d84 103a e74b 123a 4079 b539 fbdf ca38
00000010: 88a1 d139 5da2 6939 cf6e f638 8ddd b137
00000020: 51d3 4138 6850 1438 4a3e 9c37 8395 0337
00000030: 363a 0239 c418 4839 c29b 3d39 fb05 a738
0.0005512841 0.00055807683 0.00034613349 9.67383e-05 0.00039983937 0.00022281097 0.00011750834 2.1203212e-05
4.621159e-05 3.5360834e-05 1.8625655e-05 7.843019e-06 0.00012419451 0.00019082712 0.00018082469 7.9642945e-05

exp_avg f4 [4]
00000000: 4087 acbb 212a 8a3c 90e2 f83a 323f 2fbb
-0.0052651465 0.016865792 0.0018988419 -0.0026740548

exp_avg_sq f4 [4]
00000000: 73bf 273c 33a5 bc3b 8f4a 543a a780 613b
0.010238516 0.005756998 0.00080982683 0.0034408958

exp_avg f4 [12, 4]
00000000: 0000 0000 0000 0000 0000 0000 0000 0000
00000010: 0000 0000 0000 0000 0000 0000 0000 0000
00000020: 0000 0000 0000 0000 0000 0000 0000 0000
00000030: 0000 0000 0000 0000 0000 0000 0000 0000
00000040: 0000 0000 0000 0000 0000 0000 0000 0000
00000050: 0000 0000 0000 0000 0000 0000 0000 0000
00000060: 0000 0000 0000 0000 0000 0000 0000 0000
00000070: 0000 0000 0000 0000 0000 0000 0000 0000
00000080: 8c2e ba36 1b0e f8b5 82ba 95b5 b3ac 0637
00000090: c8a7 c2b6 d88b af35 875d 8935 2714 0eb7
000000a0: 478c 81b6 7617 4635 7c70 3235 da1e c3b6
000000b0: e4f3 bd36 d79e ceb4 16da 51b5 6cc3 0d37
0.0 0.0 0.0 0.0 0.0 0.0 0.0 0.0
0.0 0.0 0.0 0.0 0.0 0.0 0.0 0.0
0.0 0.0 0.0 0.0 0.0 0.0 0.0 0.0
0.0 0.0 0.0 0.0 0.0 0.0 0.0 0.0
5.5486507e-06 -1.8481545e-06 -1.1155646e-06 8.027232e-06 -5.801183e-06 1.3079216e-06 1.0234515e-06 -8.468552e-06
-3.86083e-06 7.379489e-07 6.6473854e-07 -5.8150445e-06 5.6610315e-06 -3.848606e-07 -7.8175924e-07 8.449755e-06

exp_avg_sq f4 [12, 4]
00000000: 0000 0000 0000 0000 0000 0000 0000 0000
00000010: 0000 0000 0000 0000 0000 0000 0000 0000
00000020: 0000 0000 0000 0000 0000 0000 0000 0000
00000030: 0000 0000 0000 0000 0000 0000 0000 0000
00000040: 0000 0000 0000 0000 0000 0000 0000 0000
00000050: 0000 0000 0000 0000 0000 0000 0000 0000
00000060: 0000 0000 0000 0000 0000 0000 0000 0000
00000070: 0000 0000 0000 0000 0000 0000 0000 0000
00000080: 2881 7b30 3830 da2f cbbe ef2d e9a2 a030
00000090: 0253 2030 7e2f 9e2f 46b6 ae2d 9384 4d30
000000a0: 32e2 4b2f 1c03 f32e 3286 062d b3fd 792f
000000b0: f1ec 9e2f c43c 422f b0e9 5a2d 15cd c72f
0.0 0.0 0.0 0.0 0.0 0.0 0.0 0.0
0.0 0.0 0.0 0.0 0.0 0.0 0.0 0.0
0.0 0.0 0.0 0.0 0.0 0.0 0.0 0.0
0.0 0.0 0.0 0.0 0.0 0.0 0.0 0.0
9.149681e-10 3.968823e-10 2.7255883e-11 1.1687834e-09 5.832562e-10 2.8773778e-10 1.9862455e-11 7.4766965e-10
1.8543103e-10 1.1050913e-10 7.6468155e-12 2.273655e-10 2.890839e-10 1.7665786e-10 1.2443754e-11 3.634361e-10

exp_avg f4 [12]
00000000: 0000 0000 0000 0000 0000 0000 0000 0000
00000010: 0000 0000 0000 0000 0000 0000 0000 0000
00000020: a5a0 c237 d2cb 5937 ac31 a937 948c 2eb8
0.0 0.0 0.0 0.0 0.0 0.0 0.0 0.0
2.3201408e-05 1.29816635e-05 2.01695e-05 -4.1615756e-05

exp_avg_sq f4 [12]
00000000: 0000 0000 0000 0000 0000 0000 0000 0000
00000010: 0000 0000 0000 0000 0000 0000 0000 0000
00000020: c914 b134 d915 6934 d13f 9833 c7c0 e333
0.0 0.0 0.0 0.0 0.0 0.0 0.0 0.0
3.2983942e-07 2.1707764e-07 7.08966e-08 1.0605577e-07

exp_avg f4 [4, 4]
00000000: baa7 d238 edc0 a5b8 c8c5 fab7 2afa ff37
00000010: 66bb 82b8 a6aa 4b38 0a74 8337 0f9a a0b7
00000020: a6d5 17b9 14fe f038 dc9b 4e38 0c2d 41b8
00000030: d02c aa38 ee6b 88b8 cad3 eab7 055f eb37
0.00010044822 -7.903748e-05 -2.9894421e-05 3.051486e-05 -6.233789e-05 4.85579e-05 1.5670452e-05 -1.9145225e-05
-0.00014480072 0.000114914175 4.9259383e-05 -4.605674e-05 8.114579e-05 -6.505089e-05 -2.7993596e-05 2.805843e-05

exp_avg_sq f4 [4, 4]
00000000: e082 d132 1281 8132 9cd1 0331 9b0f de30
00000010: 1a06 2333 9904 c832 153c 2731 5bb2 0731
00000020: 1d0b 8933 1b86 2a33 b3e2 c331 bda3 a031
00000030: aeaf 2133 503f c932 cc97 5731 f41b 2731
2.4390317e-08 1.5076271e-08 1.9182158e-09 1.6157061e-09 3.7956944e-08 2.3285155e-08 2.4335851e-09 1.974647e-09
6.381581e-08 3.9703178e-08 5.7010197e-09 4.6752278e-09 3.7645513e-08 2.342827e-08 3.1372904e-09 2.4317588e-09

exp_avg f4 [4]
00000000: c89f 29bb f45f 243b 7c80 3d3b aec5 e9ba
-0.002588259 0.0025081607 0.0028915694 -0.0017835402

exp_avg_sq f4 [4]
00000000: 2efa 5138 7440 aa38 8d02 0039 6f29 b238
5.006248e-05 8.118237e-05 0.00012207981 8.495419e-05

exp_avg f4 [4, 4]
00000000: 95b3 4cb9 7df8 4739 4e74 3ab8 b1d2 6a37
00000010: c797 f638 4f8b 7ab9 0b94 2d39 766c 06b8
00000020: 0400 0000 0400 0000 0400 0080 0400 0000
00000030: d927 fb3b 725e 6c3a a8b5 49bb c65f 383b
-0.00019521856 0.00019070688 -4.4454173e-05 1.3996542e-05 0.00011758465 -0.00023893754 0.00016553716 -3.20491e-05
6e-45 6e-45 -6e-45 6e-45 0.0076646623 0.0009016759 -0.0030778442 0.0028133257

exp_avg_sq f4 [4, 4]
00000000: 8213 aa37 367d 9237 4f9e 8335 3c03 8a33
00000010: dded 2938 707d 8738 c130 6137 6c54 8635
00000020: 1900 0000 1900 0000 1900 0000 1900 0000
00000030: 2190 9139 2b0e 1c39 a4aa 8c38 42e7 8c38
2.0274663e-05 1.7462862e-05 9.806334e-07 6.426714e-08 4.0514267e-05 6.460666e-05 1.34223965e-05 1.0008348e-06
3.5e-44 3.5e-44 3.5e-44 3.5e-44 0.0002776394 0.00014882597 6.7075045e-05 6.718795e-05

exp_avg f4 [4]
00000000: 4dd9 6438 5cde 70b8 0400 0000 6a3c ec3a
5.4561813e-05 -5.7427547e-05 6e-45 0.0018023376

exp_avg_sq f4 [4]
00000000: 81e3 c835 c355 9836 1900 0000 0a93 1838
1.4967374e-06 4.539937e-06 3.5e-44 3.6376565e-05

exp_avg f4 [4, 4]
00000000: 371e 7d36 b294 e937 0400 0000 8c7d b9ba
00000010: 6414 c7b7 aaab dcb6 0400 0000 c3c5 1e3a
00000020: b99d 8c37 c8d1 8ab7 0400 0080 65fe 0eb9
00000030: c72e a136 4b3b fbb6 0400 0080 b91d 4b3a
3.7717525e-06 2.7845006e-05 6e-45 -0.0014151796 -2.3732144e-05 -6.5764953e-06 6e-45 0.00060566905
1.6762746e-05 -1.6548569e-05 -6e-45 -0.00013636945 4.8036195e-06 -7.4872855e-06 -6e-45 0.00077482645

exp_avg_sq f4 [4, 4]
00000000: 8fa8 b433 ac76 a434 1900 0000 a915 d637
00000010: e732 be35 f885 d035 1900 0000 fba8 df36
00000020: ee41 3735 0937 ed35 1900 0000 9c5e 8436
00000030: 48cc 0a33 da7b 0034 1900 0000 0f5f 0b37
8.412564e-08 3.0633726e-07 3.5e-44 2.5520874e-05 1.4170918e-06 1.5536198e-06 3.5e-44 6.66559e-06
6.826875e-07 1.7673893e-06 3.5e-44 3.9449205e-06 3.231642e-08 1.1965986e-07 3.5e-44 8.307178e-06

exp_avg f4 [4]
00000000: bc1a 3ebb 5372 a03b 4fba f6ba f95a e73a
-0.0029007634 0.004896441 -0.0018823835 0.0017651013

exp_avg_sq f4 [4]
00000000: 2517 0339 fdb8 4939 6c8a 6a38 0e44 ed37
0.00012501756 0.00019237767 5.5918863e-05 2.8284292e-05

exp_avg f4 [4]
00000000: d82d c8ba a609 7a3a 824a ce3a eff1 6f3b
-0.0015272452 0.0009538181 0.0015738758 0.003661271

exp_avg_sq f4 [4]
00000000: a997 d637 da34 a737 3d8e 3838 c5e7 0639
2.558141e-05 1.9932562e-05 4.400149e-05 0.00012865577

exp_avg f4 [4]
00000000: a0da 14bb 727c 103b 6be4 063b 4086 02bb
-0.0022713318 0.0022046831 0.0020582925 -0.0019916445

exp_avg_sq f4 [4]
00000000: 09a4 3f38 4f5c 9a38 2949 dc38 881c 9b38
4.569072e-05 7.360486e-05 0.000105040446 7.39629e-05

exp_avg f4 [4]
00000000: e658 9fbb 1cf7 bfb9 877d d3b9 aade 14bc
-0.0048628924 -0.0003661447 -0.0004033858 -0.00908629

exp_avg_sq f4 [4]
00000000: 41e0 8839 8248 8137 d43e 5f36 8392 0c3a
0.00026107024 1.5411762e-05 3.326616e-06 0.0005362408

exp_avg f4 [4]
00000000: 5ac4 6ebb aa2d 513b 409e ff3a 539c c83b
-0.0036432953 0.0031918087 0.0019502118 0.006122151

exp_avg_sq f4 [4]
00000000: ed74 0839 ebf4 2e39 8159 ed38 cdec d939
0.00013013529 0.00016685172 0.00011317712 0.00041565896

exp_avg f4 [4]
00000000: 4142 28bb 0264 83b9 3241 663b 00d3 f83a
-0.0025674256 -0.0002506078 0.0035134074 0.0018983781

exp_avg_sq f4 [4]
00000000: 30ca f838 0677 f536 2a80 cc38 1463 0b38
0.00011863222 7.315425e-06 9.7513504e-05 3.3232456e-05

exp_avg f4 [4]
00000000: 1a9f 61bb 01b6 123a a2c5 0fbb 8fc8 0a3c
-0.0034427107 0.00055965787 -0.0021937867 0.008470668

exp_avg_sq f4 [4]
00000000: 1cd0 c638 64da 5a37 1d76 3b38 be9d f839
9.480139e-05 1.3044661e-05 4.4694276e-05 0.00047419773

exp_avg f4 [12, 4]
00000000: 0000 0000 0000 0000 0000 0000 0000 0000
00000010: 0000 0000 0000 0000 0000 0000 0000 0000
00000020: 0000 0000 0000 0000 0000 0000 0000 0000
00000030: 0000 0000 0000 0000 0000 0000 0000 0000
00000040: 0000 0000 0000 0000 0000 0000 0000 0000
00000050: 0000 0000 0000 0000 0000 0000 0000 0000
00000060: 0000 0000 0000 0000 0000 0000 0000 0000
00000070: 0000 0000 0000 0000 0000 0000 0000 0000
00000080: f47b c23a e65e fe3b 5cef c9bb 6e67 adba
00000090: ec3d c33a ae5b 0d3c 90eb d8bb c7b6 bbba
000000a0: cce8 f9ba 293d 8c3b 5609 553a 00c8 c4b7
000000b0: 6468 8e3b 44a8 a13b 1c8a 16bc 48df e1ba
0.0 0.0 0.0 0.0 0.0 0.0 0.0 0.0
0.0 0.0 0.0 0.0 0.0 0.0 0.0 0.0
0.0 0.0 0.0 0.0 0.0 0.0 0.0 0.0
0.0 0.0 0.0 0.0 0.0 0.0 0.0 0.0
0.0014837966 0.0077627776 -0.006162567 -0.0013229677 0.0014895773 0.008627815 -0.006619878 -0.001432144
-0.0019066571 0.004279752 0.00081266963 -2.3458153e-05 0.0043459404 0.004933389 -0.009188201 -0.0017232681

exp_avg_sq f4 [12, 4]
00000000: 0000 0000 0000 0000 0000 0000 0000 0000
00000010: 0000 0000 0000 0000 0000 0000 0000 0000
00000020: 0000 0000 0000 0000 0000 0000 0000 0000
00000030: 0000 0000 0000 0000 0000 0000 0000 0000
00000040: 0000 0000 0000 0000 0000 0000 0000 0000
00000050: 0000 0000 0000 0000 0000 0000 0000 0000
00000060: 0000 0000 0000 0000 0000 0000 0000 0000
00000070: 0000 0000 0000 0000 0000 0000 0000 0000
00000080: 7cd2 1339 5439 ab3a 0123 8c39 807a 6237
00000090: 2c45 3739 e674 e03a da1e 9a39 acbf 8737
000000a0: 79b2 0c39 596f 6e3a 562b 2139 4562 2937
000000b0: d031 6a39 418c a239 1812 2b3a 8a83 b537
0.0 0.0 0.0 0.0 0.0 0.0 0.0 0.0
0.0 0.0 0.0 0.0 0.0 0.0 0.0 0.0
0.0 0.0 0.0 0.0 0.0 0.0 0.0 0.0
0.0 0.0 0.0 0.0 0.0 0.0 0.0 0.0
0.00014097424 0.001306335 0.0002672896 1.34991715e-05 0.00017478009 0.0017124682 0.00029396155 1.6182508e-05
0.00013417927 0.00090955716 0.000153703 1.0096065e-05 0.00022334536 0.00031003545 0.00065258285 2.1638134e-05

exp_avg f4 [12]
00000000: 0000 0000 0000 0000 0000 0000 0000 0000
00000010: 0000 0000 0000 0000 0000 0000 0000 0000
00000020: 787c 053b eb91 103b c0be 0e38 6c1a 2e3b
0.0 0.0 0.0 0.0 0.0 0.0 0.0 0.0
0.0020368379 0.002205963 3.4033088e-05 0.0026566042

exp_avg_sq f4 [12]
00000000: 0000 0000 0000 0000 0000 0000 0000 0000
00000010: 0000 0000 0000 0000 0000 0000 0000 0000
00000020: 3a23 0638 4282 2038 b0b6 c737 323c 5938
0.0 0.0 0.0 0.0 0.0 0.0 0.0 0.0
3.1980897e-05 3.8268285e-05 2.380772e-05 5.1792893e-05

exp_avg f4 [4, 4]
00000000: 2820 af39 61c4 3eba 7c0b cd3a 40e8 2cb8
00000010: 7023 40bb 060e ecba bcb7 573b c413 5d3b
00000020: 535b 0a3a 8b47 ab3a 474b 2bbb 40c4 70ba
00000030: 5ccc f83a 3d23 903a fcd0 02bb 6ed0 0cbb
0.0003340256 -0.00072771875 0.0015643681 -4.1224295e-05 -0.0029317997 -0.001800955 0.003291591 0.0033733705
0.00052778906 0.0013067586 -0.0026137398 -0.0009184517 0.0018981802 0.001099683 -0.001996099 -0.0021486538

exp_avg_sq f4 [4, 4]
00000000: e0d3 c938 7b23 b638 af87 b139 fbfb 2f39
00000010: 340d 3039 df6f ab38 53a0 9b39 3b6e 7839
00000020: 1a95 1f39 3078 1c39 5dc7 1b3a 4f10 9a39
00000030: 909f 1338 7608 8237 a52f 6638 f844 4638
9.623892e-05 8.685045e-05 0.00033861163 0.0001678317 0.00016789587 8.174753e-05 0.00029683355 0.00023692187
0.00015218966 0.00014922093 0.0005942488 0.0002938532 3.5196135e-05 1.5501148e-05 5.4880646e-05 4.727111e-05

exp_avg f4 [4]
00000000: be17 4dba 40ec 863a 9206 d839 4e1c 42ba
-0.0007823667 0.0010293797 0.00041203626 -0.00074047304

exp_avg_sq f4 [4]
00000000: bd38 d736 9b3a 3b37 fea5 db36 4221 2536
6.4141045e-06 1.1159714e-05 6.5460326e-06 2.4606275e-06

exp_avg f4 [12, 4]
00000000: 0000 0000 0000 0000 0000 0000 0000 0000
00000010: 0000 0000 0000 0000 0000 0000 0000 0000
00000020: 0000 0000 0000 0000 0000 0000 0000 0000
00000030: 0000 0000 0000 0000 0000 0000 0000 0000
00000040: 0000 0000 0000 0000 0000 0000 0000 0000
00000050: 0000 0000 0000 0000 0000 0000 0000 0000
00000060: 0000 0000 0000 0000 0000 0000 0000 0000
00000070: 0000 0000 0000 0000 0000 0000 0000 0000
00000080: 4325 9135 3bc2 2c35 f6d8 6433 be75 c335
00000090: a464 86b6 658f fdb5 327c 4733 2ea7 96b6
000000a0: ea35 2ab7 6408 ceb6 aaf5 fbb4 0814 30b7
000000b0: 1fe8 a0b5 a90e 34b5 6e05 1eb3 6659 d1b5
0.0 0.0 0.0 0.0 0.0 0.0 0.0 0.0
0.0 0.0 0.0 0.0 0.0 0.0 0.0 0.0
0.0 0.0 0.0 0.0 0.0 0.0 0.0 0.0
0.0 0.0 0.0 0.0 0.0 0.0 0.0 0.0
1.0814186e-06 6.4357636e-07 5.328271e-08 1.45629e-06 -4.0052273e-06 -1.8891702e-06 4.6446253e-08 -4.4898106e-06
-1.01453425e-05 -6.140255e-06 -4.6931137e-07 -1.0495081e-05 -1.1988485e-06 -6.707656e-07 -3.679218e-08 -1.5597732e-06

exp_avg_sq f4 [12, 4]
00000000: 0000 0000 0000 0000 0000 0000 0000 0000
00000010: 0000 0000 0000 0000 0000 0000 0000 0000
00000020: 0000 0000 0000 0000 0000 0000 0000 0000
00000030: 0000 0000 0000 0000 0000 0000 0000 0000
00000040: 0000 0000 0000 0000 0000 0000 0000 0000
00000050: 0000 0000 0000 0000 0000 0000 0000 0000
00000060: 0000 0000 0000 0000 0000 0000 0000 0000
00000070: 0000 0000 0000 0000 0000 0000 0000 0000
00000080: 10e8 c32c 5f2c 402c 1ca4 442a f4ed 262d
00000090: 1ffb e52f 5de0 862f e000 402d 1887 2030
000000a0: 33f1 b031 f835 0131 0dd1 ba2e 6d75 f031
000000b0: b25b 1b2d 4cbe de2c bbb4 b72a ce81 4f2d
0.0 0.0 0.0 0.0 0.0 0.0 0.0 0.0
0.0 0.0 0.0 0.0 0.0 0.0 0.0 0.0
0.0 0.0 0.0 0.0 0.0 0.0 0.0 0.0
0.0 0.0 0.0 0.0 0.0 0.0 0.0 0.0
5.5679975e-12 2.7309472e-12 1.7465234e-13 9.488844e-12 4.183329e-10 2.4533878e-10 1.0914131e-11 5.839964e-10
5.1496953e-09 1.8802648e-09 8.4954356e-11 6.998269e-09 8.83109e-12 6.3307467e-12 3.2632737e-13 1.179541e-11

exp_avg f4 [12]
00000000: 0000 0000 0000 0000 0000 0000 0000 0000
00000010: 0000 0000 0000 0000 0000 0000 0000 0000
00000020: 3cdc cbb7 d839 6737 c81c 2d37 c2be c637
0.0 0.0 0.0 0.0 0.0 0.0 0.0 0.0
-2.430204e-05 1.3782141e-05 1.0318305e-05 2.3692268e-05

exp_avg_sq f4 [12]
00000000: 0000 0000 0000 0000 0000 0000 0000 0000
00000010: 0000 0000 0000 0000 0000 0000 0000 0000
00000020: 8b94 5531 66f3 1434 d2f1 9835 d4df 7231
0.0 0.0 0.0 0.0 0.0 0.0 0.0 0.0
3.1080016e-09 1.3872122e-07 1.1395261e-06 3.5342866e-09

exp_avg f4 [4, 4]
00000000: 1f3c 1bb6 d6fc 3636 44c8 4638 375d 0836
00000010: 257f 1835 d647 b1b6 b6f5 53b8 0c55 19b6
00000020: 3a60 ca36 4277 12b6 eb04 b0b8 24cc b7b6
00000030: 9f05 18b6 22bb c236 125d 9538 6e53 7036
-2.3131795e-06 2.7267283e-06 4.739339e-05 2.0319837e-06 5.680943e-07 -5.283374e-06 -5.0535156e-05 -2.284828e-06
6.0312714e-06 -2.1825113e-06 -8.39325e-05 -5.47759e-06 -2.2653037e-06 5.8034357e-06 7.122209e-05 3.581135e-06

exp_avg_sq f4 [4, 4]
00000000: f701 c32e 43d2 012f b5af d732 e3fc 502f
00000010: 37ae 752f db60 932f b0df 9333 17ae b42f
00000020: 4238 a82f 8884 ee2f f6e0 cb33 6627 3730
00000030: 608b 1e2f b490 1e2f a10a 2533 edcf f52e
8.8679224e-11 1.1807182e-10 2.5109196e-08 1.9007333e-10 2.2344514e-10 2.6807964e-10 6.8859094e-08 3.2865508e-10
3.0598996e-10 4.3386117e-10 9.493844e-08 6.6631e-10 1.4419532e-10 1.4421425e-10 3.8426723e-08 1.1178245e-10

exp_avg f4 [4]
00000000: ed39 bcb9 ab8a 9639 addf 3c3a 26e3 00ba
-0.00035901312 0.00028713545 0.0007204961 -0.000491666

exp_avg_sq f4 [4]
00000000: 0239 1436 04f6 c136 6a84 f736 10c3 4f36
2.2086901e-06 5.780488e-06 7.3765887e-06 3.0958945e-06

exp_avg f4 [4, 4]
00000000: dff3 1827 4a92 2b28 67e3 a227 00f5 e226
00000010: 0d15 c226 50b1 d927 d402 4f27 853a 9026
00000020: 3074 32b6 67be e5b6 8cb3 f6b5 81dd 07b6
00000030: dfc2 9d39 e486 02ba f824 f6b9 d691 e239
2.122644e-15 9.524128e-15 4.5210583e-15 1.5748308e-15 1.346716e-15 6.042184e-15 2.8728554e-15 1.0007869e-15
-2.6591697e-06 -6.8468976e-06 -1.8380683e-06 -2.02455e-06 0.00030090564 -0.0004979207 -0.0004694832 0.00043214735

exp_avg_sq f4 [4, 4]
00000000: 5712 0b31 29e2 3033 0371 f931 9971 6f30
00000010: a65f 3030 2c78 5f32 a33c 2d31 e314 a72f
00000020: ceb1 3b33 6491 9e34 36dc c132 e23a d932
00000030: c9f3 a535 eca2 2536 659f 1336 6051 ff35
2.0237587e-09 4.1183885e-08 7.2597017e-09 8.7109125e-10 6.416435e-10 1.3007632e-08 2.5209281e-09 3.0391964e-10
4.3701043e-08 2.953558e-07 2.2568297e-08 2.5288902e-08 1.2364409e-06 2.468175e-06 2.1997487e-06 1.9022664e-06

exp_avg f4 [4]
00000000: aae8 d226 e9c8 8526 0c5c b7b5 be70 2e39
1.4634741e-15 9.283186e-16 -1.3661352e-06 0.00016635933

exp_avg_sq f4 [4]
00000000: 0575 8830 0823 ab2f 5514 4832 01f6 ae34
9.928561e-10 3.112961e-10 1.1646155e-08 3.2589017e-07

exp_avg f4 [4, 4]
00000000: 4ad8 e4a3 473a aaa5 33f5 dbb6 14a9 98b7
00000010: 3e44 ba22 c4ef ca24 c4a0 9836 477f a7b8
00000020: fc5f 1e24 7748 ed25 5734 b636 88e9 e136
00000030: 2ac7 b1a3 c2a2 72a5 c1bf 65b6 2223 9e37
-2.4811412e-17 -2.952979e-16 -6.5552535e-06 -1.8198545e-05 5.0487655e-18 8.8009714e-17 4.5486686e-06 -7.986888e-05
3.434209e-17 4.116205e-16 5.430116e-06 6.732709e-06 -1.9274728e-17 -2.1045299e-16 -3.4235275e-06 1.8851428e-05

exp_avg_sq f4 [4, 4]
00000000: ab1e 262e f338 ba2e cc8e 8a34 b03c ee35
00000010: 6e7e ea27 1b2e 0b2c 75bc 0434 4278 1a36
00000020: 6a56 9a2e a6ff 2e2f cb1a 4034 b573 9735
00000030: 8ef5 0a2e 5e74 8c2e 1058 9833 d369 8c35
3.777127e-11 8.468417e-11 2.5808401e-07 1.7750044e-06 6.5085122e-15 1.9778682e-12 1.2362018e-07 2.3017787e-06
7.0184594e-11 1.5916032e-10 1.789114e-07 1.1284052e-06 3.1595664e-11 6.387134e-11 7.09407e-08 1.0461612e-06

exp_avg f4 [4]
00000000: 1770 88b8 9186 1eba 4633 a73a bf93 0aba
-6.505864e-05 -0.00060472736 0.001275637 -0.0005286298

exp_avg_sq f4 [4]
00000000: 51d6 8736 433e 2737 ba5d bd37 509c af37
4.0482632e-06 9.968472e-06 2.25742e-05 2.0934414e-05

exp_avg f4 [4]
00000000: 86f8 ffb8 7407 20b8 58ab bcb9 fcde 2639
-0.000122056386 -3.8153914e-05 -0.00035985815 0.00015914062

exp_avg_sq f4 [4]
00000000: b866 df35 050c df36 8d6c 1f36 1bd2 0e35
1.664469e-06 6.647317e-06 2.3756031e-06 5.3204866e-07

exp_avg f4 [4]
00000000: cb26 90b9 61fd 8539 5891 043a 43f9 feb9
-0.00027494723 0.0002555652 0.00050570583 -0.0004863237

exp_avg_sq f4 [4]
00000000: dbab 0f36 c5ec b136 cb26 c936 29bd 4436
2.1408694e-06 5.3025747e-06 5.994783e-06 2.9316382e-06

exp_avg f4 [4]
00000000: 6780 4738 c4b1 c3b8 d03e 55ba e585 1639
4.756488e-05 -9.331436e-05 -0.0008134665 0.00014354994

exp_avg_sq f4 [4]
00000000: 846e ec36 463b c536 996a 5a37 f3dc 2236
7.046214e-06 5.877958e-06 1.3018632e-05 2.426849e-06

exp_avg f4 [4]
00000000: c848 0ab9 995c 08ba 29d5 9b3a 3588 a0b9
-0.00013187819 -0.00052017864 0.0011889088 -0.0003061906

exp_avg_sq f4 [4]
00000000: 7f33 7c36 f7a7 2037 3027 aa37 29df b237
3.75809e-06 9.5758505e-06 2.0283827e-05 2.132317e-05

exp_avg f4 [4]
00000000: 142e 19b6 0ea2 28b9 2d72 27bb f696 7ab6
-2.2825598e-06 -0.00016082099 -0.0025550232 -3.7340774e-06

exp_avg_sq f4 [4]
00000000: 988c a034 d45f 9a35 575b 023c eae8 a333
2.9904618e-07 1.1501784e-06 0.007956347 7.632646e-08

exp_avg f4 [4]
00000000: 0de3 7bb6 80c2 0d39 aecd 10bc d649 29b7
-3.7534076e-06 0.00013519265 -0.0088381 -1.0090376e-05

exp_avg_sq f4 [4]
00000000: 25e9 e434 35e2 6e35 ad56 7a3b 0588 c734
4.2637944e-07 8.8991084e-07 0.0038198635 3.7165606e-07

exp_avg f4 [1, 5]
00000000: bd4d 4c36 30f1 a439 b4ad 903a 0b42 8f38
00000010: 6752 203c
3.0443618e-06 0.00031460216 0.0011038096 6.831073e-05 0.009785271

exp_avg_sq f4 [1, 5]
00000000: b6a6 8935 9514 7736 1fec 6f3c 2bc5 6535
00000010: 63e2 923b
1.0255815e-06 3.6817848e-06 0.014643698 8.5596065e-07 0.004482554
