Saved_models/best_model_both.pt (torch, 87962 bytes, 198 tensors)

encoder_input_layer.weight f4 [4, 5]
00000000: fc7a 68bf a268 3abf e9ba a8bf cd63 adbf
00000010: e417 99bf 7840 31be 38ba 8abe 3f12 c03d
00000020: 6534 9abe 443c 1ebe 07cf c43e 6470 d73e
00000030: 539e 8c3d db54 623e 90bb a63e 271d f53e
00000040: eadb 2a3f 2caa 453f ff83 4c3e 3b17 a83e
-0.9081266 -0.72815907 -1.318204 -1.3546082 -1.1960416 -0.17309749 -0.270952 0.0937848
-0.301181 -0.15452677 0.384392 0.42077935 0.068661354 0.22102682 0.32564974 0.47873804
0.6674181 0.77212787 0.19972228 0.32830223

encoder_input_layer.bias f4 [4]
00000000: 8aa5 853f 8194 0b3f 4f75 0dbf 3b60 30be
1.0441144 0.54523474 -0.55257124 -0.17224209

decoder_input_layer.weight f4 [4, 1]
00000000: c755 743d da5c 96be b57b 5b3f a874 f7bf
0.059652116 -0.29367715 0.85735637 -1.9332476

decoder_input_layer.bias f4 [4]
00000000: 3378 4cbf ea0a 9bbd d3ba e8bd 8ddc 0040
-0.7987091 -0.07570441 -0.11363759 2.0134614

positional_encoding_layer_enc.pe f4 [1, 9, 4]
00000000: 0000 0000 0000 803f 0000 0000 0000 803f
00000010: a46a 573f 4151 0a3f 57d6 233c b9fc 7f3f
00000020: b7c7 683f 3311 d5be 3ed4 a33c e5f2 7f3f
00000030: c381 103e 2670 7dbf 1fb9 f53c 83e2 7f3f
00000040: cfbd 41bf 3055 27bf dbcb 233d 94cb 7f3f
00000050: 107c 75bf 2c3c 913e f4b6 4c3d 19ae 7f3f
00000060: 8c0f 8fbe b8cd 753f d19c 753d 128a 7f3f
00000070: 4630 283f bdff 403f 323e 8f3d 815f 7f3f
00000080: 9546 7d3f f6fd 14be 50aa a33d 652e 7f3f
0.0 1.0 0.0 1.0 0.84147096 0.54030234 0.009999833 0.99995
0.9092974 -0.41614684 0.019998666 0.9998 0.14112 -0.9899925 0.0299955 0.99955004
-0.7568025 -0.6536436 0.039989334 0.9992001 -0.9589243 0.2836622 0.049979165 0.99875027
-0.2794155 0.96017027 0.059964005 0.99820054 0.6569866 0.75390226 0.06994285 0.997551
0.98935825 -0.14550003 0.07991469 0.9968017

positional_encoding_layer_dec.pe f4 [1, 1, 4]
00000000: 0000 0000 0000 803f 0000 0000 0000 803f
0.0 1.0 0.0 1.0

encoder.layers.0.self_attn.in_proj_weight f4 [12, 4]
00000000: 2c00 033f e835 073d a6c4 1f3f aab2 d5bd
00000010: 5def ce3e 8c68 06bf 5ccd 92be 74ab 1bbf
00000020: 3cc1 4bbf 30cc b93e ae45 43bf 4d1e 0f3e
00000030: f25c 8f3f 34b7 8e3b 0af6 1e3f 92e1 b23e
00000040: c206 8bbd 6f34 b63e bb0b b2bf ebb5 d83e
00000050: 4bd3 28be 8f4f bd3e d45b 1c3f 0847 a23e
00000060: 3583 ca3e f2f5 b2be f9d8 053f af9c 82bf
00000070: f6bc 89bf 28e7 513e 78c9 00bf 3bd9 b23e
00000080: 7996 22bf 0a13 b0bd 323a 81be 0e1f d03e
00000090: 23c2 733f 68de ae3e 8495 cbbe 51b0 5abf
000000a0: a5da f93d fc79 883d a331 95bf 4550 08bf
000000b0: 5223 903e 7d48 583f 944e 63bf 8458 6cbf
0.5117214 0.033010393 0.62409437 -0.10434468 0.40416995 -0.52503276 -0.28672302 -0.6080849
-0.7959173 0.36288595 -0.762782 0.13976403 1.120024 0.0043553356 0.62094176 0.34937721
-0.06788398 0.3558688 -1.390983 0.42326292 -0.16486852 0.3697476 0.6107762 0.31694818
0.39553228 -0.34953266 0.522842 -1.0204066 -1.0760791 0.20498335 -0.50307417 0.3493136
-0.63510853 -0.085973814 -0.25239712 0.40648693 0.95218104 0.34154058 -0.3976251 -0.8542529
0.12199906 0.06663892 -1.1655773 -0.5324748 0.28151947 0.8448561 -0.88791776 -0.92322564

encoder.layers.0.self_attn.in_proj_bias f4 [12]
00000000: f35e 89bd 38aa 0f3f 9cf5 2dbf 254b 883e
00000010: 0c0a 353b 5801 6a3a e945 89ba a5b2 0cbb
00000020: 168c cfbe a6c1 353f 614b db3e 0fac 6c3f
-0.06707563 0.5611911 -0.67952895 0.2661983 0.0027624397 0.0008926592 -0.0010473105 -0.0021468785
-0.40536565 0.7099861 0.42830947 0.9245004

encoder.layers.0.self_attn.out_proj.weight f4 [4, 4]
00000000: 1c93 30bf 40ae 313f bc4d aa3e 07e1 e2bd
00000010: 66de b0be 4eaf 043f addd 393f 376a 793f
00000020: f2ab 0f3f a005 97bf f2a8 7bbf 1f17 cebf
00000030: cbe9 47bf c748 323e 0d4c 05be bf69 dcbe
-0.6897447 0.6940651 0.33262432 -0.11078077 -0.34544677 0.51829994 0.72603875 0.97427696
0.5612174 -1.1798592 -0.98304665 -1.6100806 -0.78091115 0.17410575 -0.13017292 -0.43049428

encoder.layers.0.self_attn.out_proj.bias f4 [4]
00000000: c91b 5d3f 9ab9 ec3d ba09 10bf 073c 69bc
0.8637052 0.11558838 -0.5626484 -0.014235503

encoder.layers.0.linear1.weight f4 [4, 4]
00000000: b160 313e a0ce 35be dd66 163f c122 d43e
00000010: 92c5 77be cab4 c1be fab2 70be e42a fdbd
00000020: b3de 653f 8de2 9e3f 01b7 bebf 7d93 61bf
00000030: f069 3c3f b1b7 7e3e 73c8 d3bd 968c 8abd
0.17322041 -0.17754602 0.58750707 0.41432765 -0.24196461 -0.37833244 -0.23505774 -0.12361696
0.8979294 1.2412888 -1.4899598 -0.88115674 0.7359915 0.2487476 -0.10340967 -0.06765096

encoder.layers.0.linear1.bias f4 [4]
00000000: c44f 39bf 1eac a7be da13 b23f 9487 25bd
-0.7238734 -0.32748502 1.3912308 -0.0404125

encoder.layers.0.linear2.weight f4 [4, 4]
00000000: 3d1e c73d 187f 643c 3811 57bf 5764 2abe
00000010: 498a ccbe 8985 e43d 9c43 32bf 55f5 2ebd
00000020: 0e63 fdbe 6a62 ebbe 142e babe bbc2 47bf
00000030: 9d22 103c a184 74bd 7d6d ce3f 7f02 2c3f
0.09722564 0.013946317 -0.8401065 -0.16639839 -0.39949253 0.11158282 -0.69634414 -0.042714436
-0.49489635 -0.4597352 -0.3636328 -0.7803151 0.008797315 -0.059696797 1.6127163 0.6719131

encoder.layers.0.linear2.bias f4 [4]
00000000: 92bb 2f3e 39ea efbe cee4 f5bc d9b2 493f
0.17161396 -0.46858385 -0.03001633 0.78788525

encoder.layers.0.norm1.weight f4 [4]
00000000: aac7 cd3f c9e3 633f f329 843f fd56 dcbd
1.6076558 0.8901945 1.0325302 -0.10758779

encoder.layers.0.norm1.bias f4 [4]
00000000: cd95 bb3f d886 fd3d a53e b0be 43af 58be
1.465509 0.12379235 -0.34422794 -0.21160607

encoder.layers.0.norm2.weight f4 [4]
00000000: 568a be3e d5d4 8a3f 68cb 2f3f e8ea cf3f
0.37214917 1.0846201 0.6866975 1.6243563

encoder.layers.0.norm2.bias f4 [4]
00000000: 0c3b 163f 43d6 8a3e dbc3 673e 4498 d93d
0.5868385 0.27116594 0.22633307 0.106247455

encoder.layers.1.self_attn.in_proj_weight f4 [12, 4]
00000000: 594a e03d ccc1 143e d9e5 393f add4 64bf
00000010: 3afd 953e 5a60 22bf fb9b f3be efab 85bc
00000020: 0f5f 433e 6be1 0b3d b23b c2be ca92 ef3e
00000030: 1b19 0a3f cc16 81be 2e62 10be 8e27 323f
00000040: e063 9e3f 0df5 6c3f 67ea 99be d6af 32bf
00000050: b048 19bf 057f 863e cff9 1a3f 38c0 2c3f
00000060: 51ba 4ebf 5de2 8abf acfc f23b 7c74 b13d
00000070: 70ef a6bf cdd0 cab9 25ce 0c3f bf90 a2be
00000080: 5ee4 a8bf 6610 18bf a8f8 c13f c052 e4bf
00000090: f7ac 793f 8a35 9b3e 95d5 8cbf a735 a93f
000000a0: e554 d73d 2992 0c3f 37b7 46bb 6f7b 95bf
000000b0: 0620 14bf d2bd 823f 82b6 023f 2056 21c0
0.10951681 0.14527053 0.72616345 -0.8938702 0.2929476 -0.6342827 -0.4757994 -0.016317336
0.1907923 0.034150522 -0.3793617 0.4679168 0.5394456 -0.25212705 -0.14099953 0.69591606
1.237423 0.9256142 -0.30061647 -0.69799554 -0.5987654 0.26268783 0.6053743 0.674808
-0.80753046 -1.085033 0.0074153747 0.08664796 -1.304182 -0.0003868401 0.5500205 -0.31751058
-1.3194692 -0.5940002 1.5154009 -1.7837753 0.9752955 0.30314285 -1.100268 1.3219498
0.10514239 0.5491052 -0.0030321607 -1.1678294 -0.57861364 1.0214179 0.51059735 -2.5208817

encoder.layers.1.self_attn.in_proj_bias f4 [12]
00000000: 885a 35bf b7b8 75bd 5cc6 263f 79f8 3bbe
00000010: 07f6 8f3a e735 a5ba fbbb f5b9 c02b 5dba
00000020: 6e38 8fbf 2531 103f c6bb 06bf d7aa d0bf
-0.70841265 -0.05999061 0.6514642 -0.18356504 0.0010983356 -0.0012604565 -0.00046870098 -0.0008437
-1.1189096 0.5632499 -0.5263027 -1.6302136

encoder.layers.1.self_attn.out_proj.weight f4 [4, 4]
00000000: 5dbd 82bf 2afe 3e3f aca8 37bf 1b28 a8bf
00000010: de4b c63d 406c 29be 3891 173f f01e 263f
00000020: 5457 0bc0 41d3 f23f 2011 6fbf 8e08 fcbf
00000030: 21bf 5a3f 078a 91bf dac6 fd3e 783a d23e
-1.0214039 0.74606574 -0.7174175 -1.3137239 0.09682439 -0.165452 0.5920596 0.64890957
-2.177205 1.897072 -0.93385506 -1.9690111 0.8544789 -1.1370248 0.49565774 0.41060233

encoder.layers.1.self_attn.out_proj.bias f4 [4]
00000000: 0a3a e23e 1d94 c8bd 3f41 b33f bd40 62bf
0.44184905 -0.09793875 1.4004287 -0.8838003

encoder.layers.1.linear1.weight f4 [4, 4]
00000000: 0563 67be 5b80 143f 7591 7f3f 1941 71bf
00000010: d592 2dbf 48f7 8dbe c3f5 bcbe 05f5 8dbe
00000020: 62cd f4be 6bd4 3a3f e811 1abf 70c5 133e
00000030: 1a90 47bf 9e50 a83f 866a 30bf f810 683d
-0.22596367 0.58008355 0.99831325 -0.94239956 -0.6780217 -0.27727723 -0.3690625 -0.27725998
-0.47812945 0.72980374 -0.6018357 0.14430785 -0.77954257 1.3149602 -0.6891254 0.056656808

encoder.layers.1.linear1.bias f4 [4]
00000000: 8814 ae3d ef0f c2be 9731 37be 161d f4bc
0.0850001 -0.3790278 -0.17890011 -0.029799026

encoder.layers.1.linear2.weight f4 [4, 4]
00000000: 8c8e 2a3f 8e95 8ebe 869c 2b3e 732c 113f
00000010: d73b d5bf fe07 36be d1d9 d1be 8368 00bf
00000020: e2af de3e 49de 5abe 64cb 4c3f a9ad 2a3f
00000030: 64d9 f13e b58f 43be c1db 663e b69a 38bf
0.6662376 -0.27848476 0.16758928 0.5670845 -1.6658887 -0.17776486 -0.40986493 -0.5015947
0.43493563 -0.21373858 0.7999785 0.66671234 0.47236168 -0.19097789 0.22544767 -0.7211107

encoder.layers.1.linear2.bias f4 [4]
00000000: c7b9 2d3f 8349 f2be 9104 a43f 654f adbe
0.678616 -0.4732171 1.2813894 -0.33849636

encoder.layers.1.norm1.weight f4 [4]
00000000: 9d0a b13e f74a 703f 0ffd e43f e852 d13f
0.3457841 0.9386439 1.7889727 1.6353426

encoder.layers.1.norm1.bias f4 [4]
00000000: 0682 d7bd 9a5b ab3e f40d fa3f 92f7 a6bf
-0.10522847 0.33468324 1.9535508 -1.3044302

encoder.layers.1.norm2.weight f4 [4]
00000000: 7e35 1a3f 6a94 b83f af67 28bf 3270 bd3f
0.6023787 1.4420292 -0.6578321 1.4799864

encoder.layers.1.norm2.bias f4 [4]
00000000: 3f56 91be f69c 49bf e275 e0bf 7457 8dbf
-0.28386113 -0.7875513 -1.7535975 -1.1042314

decoder.layers.0.self_attn.in_proj_weight f4 [12, 4]
00000000: f890 f1bd b43d f6bd d8ac 0cbf df5b 07bf
00000010: 383f c4bd 00c0 013c 526e 8ebe 7037 6c3e
00000020: 8a19 0dbf d046 29bd 3fdd 093f cec6 7fbe
00000030: b98f 0d3f 7418 633e f679 0dbf 605f c63e
00000040: 80b8 90bd cbf6 8bbe 12b8 fa3e ab5d fdbe
00000050: 4893 863d e849 03be 2ae6 df3e 000b 2f3e
00000060: b4a7 963e 8874 5d3e 58cb 16be 48e0 03be
00000070: 6630 01bf 0ee3 a93e 8ef0 f83e 3a87 d63e
00000080: b8e8 95bf 0f24 14bf d679 743d c40b 0dbf
00000090: c155 47bf c11d 2f3f 0b03 dabe 2167 6b3f
000000a0: aff8 5fbe 2514 013e 5a00 45bf 0335 e93e
000000b0: 669f 37be 8566 833f 929c 14be ef90 a03e
-0.11795229 -0.12023488 -0.5495124 -0.5287456 -0.095823705 0.0079193115 -0.27818543 0.23068023
-0.55117095 -0.041327298 0.5385322 -0.24978182 0.5529743 0.22177297 -0.5526422 0.3874464
-0.070664406 -0.27336726 0.4896856 -0.49485525 0.065710604 -0.12821162 0.4373029 0.1709404
0.29424822 0.21626484 -0.14726007 -0.12878525 -0.50464475 0.3318104 0.4862103 0.41900045
-1.1711645 -0.5786752 0.059686504 -0.5509608 -0.77865225 0.68404776 -0.42580447 0.9195424
-0.21872209 0.12605341 -0.7695366 0.45548257 -0.179319 1.0265661 -0.14512852 0.31360576

decoder.layers.0.self_attn.in_proj_bias f4 [12]
00000000: 0000 0000 0000 0000 0000 0000 0000 0000
00000010: 0000 0000 0000 0000 0000 0000 0000 0000
00000020: 2d74 97be c42d 773e dd60 ce3e d07b ab3e
0.0 0.0 0.0 0.0 0.0 0.0 0.0 0.0
-0.29580823 0.24138552 0.40308276 0.334929

decoder.layers.0.self_attn.out_proj.weight f4 [4, 4]
00000000: 4ef8 11bd 48df c73d fa72 213e 3ab2 80be
00000010: bc68 0ebf dcc9 243f 54af 523f e526 c33e
00000020: fffe 2abe 5368 60be cee0 91bd ce79 25be
00000030: 0df6 92bf 5883 c73f 3c14 1d3e 2c73 b13f
-0.035637192 0.097593844 0.15766516 -0.25135976 -0.5562856 0.6437051 0.8229878 0.38115612
-0.16698836 -0.21914797 -0.07122956 -0.16159746 -1.1481339 1.5586958 0.1533975 1.3863273

decoder.layers.0.self_attn.out_proj.bias f4 [4]
00000000: 0aab edbe 232f c13d ab97 8bbe 8fa0 5d3f
-0.46419555 0.09432819 -0.2726415 0.8657312

decoder.layers.0.multihead_attn.in_proj_weight f4 [12, 4]
00000000: 5c64 52be e0b8 b9bd 807d db3b 8b4d 013f
00000010: b090 9c3d 576a 0c3f 08cb bf3e 9438 c6be
00000020: 209f 8c3e eea2 ddbe 47e2 84be 746f 383e
00000030: a80d 4f3e f638 eb3e 14dd 49be 007e 803a
00000040: 406a a13e c59b 17bf f6ad e23e 6aa2 01bf
00000050: 0048 0a3c 8039 d5bd 5821 a5be c8c2 a53d
00000060: 45a2 013f fc4d 37be ca24 babe 24ea 67be
00000070: 3461 1bbf 1687 8d3e 4f94 96be fe3b d1be
00000080: 0e72 63bf 3f36 fe3e 8c9b 193e fbe8 13bf
00000090: f935 ccbe ab59 87bf 96d3 24bf 23a7 7fbf
000000a0: 733f f53e 3986 d8bd a920 7ebe 9138 fd3e
000000b0: c518 51bf a0fd 20be fcd8 00bf 6ad0 abbf
-0.20546097 -0.09068465 0.0066983104 0.50508946 0.076447845 0.5484976 0.37459588 -0.3871504
0.27465153 -0.43288368 -0.25953886 0.18011266 0.20220053 0.45941895 -0.19713241 0.0009803176
0.31526375 -0.5922206 0.44273347 -0.5063845 0.008440018 -0.10411358 -0.32252002 0.08093792
0.5063823 -0.17900842 -0.36356193 -0.22647911 -0.60695195 0.27642125 -0.29410025 -0.40866083
-0.8884591 0.4965076 0.15000743 -0.57777375 -0.39884928 -1.057424 -0.64385355 -0.99864405
0.4789997 -0.10572476 -0.24817146 0.4945722 -0.8167842 -0.1572175 -0.5033109 -1.3422978

decoder.layers.0.multihead_attn.in_proj_bias f4 [12]
00000000: 0000 0000 0000 0000 0000 0000 0000 0000
00000010: 0000 0000 0000 0000 0000 0000 0000 0000
00000020: 794d 823c 0dee 6c3f e746 923e 0dad 26bd
0.0 0.0 0.0 0.0 0.0 0.0 0.0 0.0
0.015906082 0.92550737 0.2856972 -0.040692378

decoder.layers.0.multihead_attn.out_proj.weight f4 [4, 4]
00000000: 411a cbbd 9ca3 a43f 24d0 9c3d 459d 953f
00000010: 8153 df3d b238 25be 4690 9abd 164f 5fbd
00000020: 65e8 b1be 91ee 103f 6caf 193e 47c3 da3e
00000030: efd3 92be e4b5 b13f f4ea fc3d 9e22 ca3c
-0.09917117 1.286243 0.07656887 1.168862 0.10904599 -0.16134909 -0.07547049 -0.05451878
-0.34747615 0.56614023 0.15008324 0.4272711 -0.28677318 1.3883634 0.12349501 0.02467471

decoder.layers.0.multihead_attn.out_proj.bias f4 [4]
00000000: d593 553f ef0b 553d 7a58 113f 3cfc b93f
0.834287 0.052013334 0.5677563 1.4530101

decoder.layers.0.linear1.weight f4 [4, 4]
00000000: 2224 2abf ac4f 0abe c609 07bf 1e5d 243f
00000010: ecb6 8d3d ccd2 e3bd 7e4f f4bb c83b 28bc
00000020: 9a8f 1dbe 303b 223f ebd5 68be 71fa 843d
00000030: 350c 1abd 667a 1b3e e9e6 c3be 1edf ae3d
-0.66461384 -0.13506955 -0.5274929 0.64204586 0.06919655 -0.11124191 -0.0074557653 -0.010268159
-0.15386811 0.6337156 -0.22737853 0.064930804 -0.037609298 0.1518341 -0.38262108 0.0853865

decoder.layers.0.linear1.bias f4 [4]
00000000: 451d c93e bf0b c9be da13 71be 356a cbbe
0.39280143 -0.39266774 -0.23542729 -0.39729467

decoder.layers.0.linear2.weight f4 [4, 4]
00000000: 3829 8e3f deaf 0dbe 5e0a 533e 68de c2bc
00000010: 1698 89bf 5125 75be c9a1 80be 0d03 05bd
00000020: 9cdd 273e f5fe f6bd b02d 813e ba31 a93e
00000030: 226c 593f f02f 263e bddf 30be 10c4 d43d
1.1106329 -0.1383662 0.20609424 -0.023787692 -1.0749538 -0.23940016 -0.25123432 -0.032473613
0.16393131 -0.12060348 0.2523017 0.3304575 0.8493062 0.16229224 -0.1727285 0.103889585

decoder.layers.0.linear2.bias f4 [4]
00000000: 3e73 ac3d c102 8dbf 88ad a93f 8876 923f
0.08420418 -1.1016465 1.3256083 1.1442423

decoder.layers.0.norm1.weight f4 [4]
00000000: 75ac d73e 2efe c8be fc96 343f 730b 2b40
0.42123762 -0.39256424 0.70542884 2.6725738

decoder.layers.0.norm1.bias f4 [4]
00000000: 5839 af3e 2817 27bf cd61 253d e7d5 c13f
0.34223437 -0.6526971 0.040376473 1.5143403

decoder.layers.0.norm2.weight f4 [4]
00000000: e9df d93d 7f7a a53f 2e4b fabd 6af8 f83f
0.106384106 1.2928008 -0.12221371 1.945081

decoder.layers.0.norm2.bias f4 [4]
00000000: 6070 703e 1f51 4ebf ce10 1d3f 7dcc 593f
0.23480368 -0.8059253 0.61353767 0.8507765

decoder.layers.0.norm3.weight f4 [4]
00000000: 441b 183f e13c 3640 02ec f9bc a47e 323f
0.59416604 2.8474658 -0.030508045 0.6972449

decoder.layers.0.norm3.bias f4 [4]
00000000: dcb7 d4bd c610 f5bf f136 433f 96d9 4c3d
-0.10386631 -1.9145744 0.7625571 0.050012194

decoder.layers.1.self_attn.in_proj_weight f4 [12, 4]
00000000: f890 f1bd b43d f6bd d8ac 0cbf df5b 07bf
00000010: 383f c4bd 00c0 013c 526e 8ebe 7037 6c3e
00000020: 8a19 0dbf d046 29bd 3fdd 093f cec6 7fbe
00000030: b98f 0d3f 7418 633e f679 0dbf 605f c63e
00000040: 80b8 90bd cbf6 8bbe 12b8 fa3e ab5d fdbe
00000050: 4893 863d e849 03be 2ae6 df3e 000b 2f3e
00000060: b4a7 963e 8874 5d3e 58cb 16be 48e0 03be
00000070: 6630 01bf 0ee3 a93e 8ef0 f83e 3a87 d63e
00000080: 0a62 a1bf 23c0 b4bd 11a4 1ebf 2f63 2c3f
00000090: a4f2 4ebf 2f5e 43be 6971 2dbf b72c 193f
000000a0: b3b4 783e 9888 b63f 25b2 fcbe 5f44 aabf
000000b0: 32f5 42bf 2b66 d93e 15f9 1ebf 60ab 983f
-0.11795229 -0.12023488 -0.5495124 -0.5287456 -0.095823705 0.0079193115 -0.27818543 0.23068023
-0.55117095 -0.041327298 0.5385322 -0.24978182 0.5529743 0.22177297 -0.5526422 0.3874464
-0.070664406 -0.27336726 0.4896856 -0.49485525 0.065710604 -0.12821162 0.4373029 0.1709404
0.29424822 0.21626484 -0.14726007 -0.12878525 -0.50464475 0.3318104 0.4862103 0.41900045
-1.2608044 -0.0882571 -0.61969095 0.6733884 -0.8083899 -0.19078897 -0.67751175 0.59833854
0.24287681 1.4260435 -0.49354663 -1.3302115 -0.7615539 0.4246076 -0.6209882 1.19273

decoder.layers.1.self_attn.in_proj_bias f4 [12]
00000000: 0000 0000 0000 0000 0000 0000 0000 0000
00000010: 0000 0000 0000 0000 0000 0000 0000 0000
00000020: e4e8 683e 1953 f03e e944 99bf 9e50 e13d
0.0 0.0 0.0 0.0 0.0 0.0 0.0 0.0
0.2274509 0.46938398 -1.1974155 0.11001705

decoder.layers.1.self_attn.out_proj.weight f4 [4, 4]
00000000: 2f68 b03d a2d4 673e 77aa 623e 6e4a 143e
00000010: 2568 92be ddcb 0cc0 d0c9 3040 ed20 173f
00000020: cbbc 3cbb bb22 8a3f 4935 acbf 0a08 20bf
00000030: 26d3 b43d 7e77 133e 0176 52bd 47b7 e0be
0.086136214 0.22639707 0.2213534 0.14481518 -0.2859508 -2.1999428 2.7623177 0.59034616
-0.0028799053 1.0791849 -1.3453761 -0.62512267 0.08829336 0.14401051 -0.05138207 -0.4388983

decoder.layers.1.self_attn.out_proj.bias f4 [4]
00000000: 0fea 023d e753 4ac0 e560 8e3f 4b32 8d3d
0.031961497 -3.161371 1.112332 0.06894358

decoder.layers.1.multihead_attn.in_proj_weight f4 [12, 4]
00000000: 5c64 52be e0b8 b9bd 807d db3b 8b4d 013f
00000010: b090 9c3d 576a 0c3f 08cb bf3e 9438 c6be
00000020: 209f 8c3e eea2 ddbe 47e2 84be 746f 383e
00000030: a80d 4f3e f638 eb3e 14dd 49be 007e 803a
00000040: 406a a13e c59b 17bf f6ad e23e 6aa2 01bf
00000050: 0048 0a3c 8039 d5bd 5821 a5be c8c2 a53d
00000060: 45a2 013f fc4d 37be ca24 babe 24ea 67be
00000070: 3461 1bbf 1687 8d3e 4f94 96be fe3b d1be
00000080: 9e76 883c 3ced fa3e 21f5 803f fe1e 593f
00000090: 4517 54be 0861 10c0 0a1c 2ec0 c23b 1dc0
000000a0: c62d 7dbc 6574 2f3f e6ac 1cbe 21ab 1cbe
000000b0: 56f5 863d fb0c 94be bad1 f4bc 66eb cebd
-0.20546097 -0.09068465 0.0066983104 0.50508946 0.076447845 0.5484976 0.37459588 -0.3871504
0.27465153 -0.43288368 -0.25953886 0.18011266 0.20220053 0.45941895 -0.19713241 0.0009803176
0.31526375 -0.5922206 0.44273347 -0.5063845 0.008440018 -0.10411358 -0.32252002 0.08093792
0.5063823 -0.17900842 -0.36356193 -0.22647911 -0.60695195 0.27642125 -0.29410025 -0.40866083
0.016658124 0.4900912 1.0074807 0.84812915 -0.20712002 -2.2559223 -2.7204614 -2.4567723
-0.015452808 0.6853698 -0.1530033 -0.15299655 0.06589763 -0.28916153 -0.029885162 -0.101034924

decoder.layers.1.multihead_attn.in_proj_bias f4 [12]
00000000: 0000 0000 0000 0000 0000 0000 0000 0000
00000010: 0000 0000 0000 0000 0000 0000 0000 0000
00000020: 5f47 c0bf 56ae 5340 595e 44be 5be4 3e3e
0.0 0.0 0.0 0.0 0.0 0.0 0.0 0.0
-1.5021781 3.3075156 -0.19176616 0.18641798

decoder.layers.1.multihead_attn.out_proj.weight f4 [4, 4]
00000000: 667b 02c0 91a8 1a40 c8a9 41bf c3a8 a53f
00000010: 0ffe 443f e798 91bf 9575 2d3f 48bc 45bf
00000020: 2948 0ac0 9e2f 1340 74ec 7ebf 88b3 a73f
00000030: eafc bfbf cb77 d93f 13c5 09bf 14f4 523f
-2.0387816 2.4165385 -0.7564969 1.2942127 0.7695016 -1.1374787 0.6775754 -0.7724042
-2.1606543 2.2997813 -0.9957955 1.3101664 -1.4999058 1.6989683 -0.53816336 0.82403684

decoder.layers.1.multihead_attn.out_proj.bias f4 [4]
00000000: 1b52 303f 3ea7 08c0 d127 7d3f 67cf b53f
0.68875283 -2.1352077 0.9888888 1.4203919

decoder.layers.1.linear1.weight f4 [4, 4]
00000000: c35d bbbc 3bf2 b0bc bd39 b9bd cbe5 1cbe
00000010: 46ea 4c3f 0695 b93d 0192 e13c 8443 4dbe
00000020: 12ce f0bf 8284 de3e 0289 09c0 f74a b63f
00000030: 1a36 c3bd 1d26 1c3e 9e97 5cbf aa86 ad3d
-0.022871858 -0.02159988 -0.09044216 -0.15322034 0.8004497 0.09061627 0.02753544 -0.20045286
-1.8812888 0.4346047 -2.1489873 1.4241627 -0.095318034 0.15248914 -0.8616885 0.08472951

decoder.layers.1.linear1.bias f4 [4]
00000000: 7c33 0cbe dbd9 10bf 8bbe 443e 8fad ddbe
-0.13691515 -0.5658242 0.19213311 -0.43296477

decoder.layers.1.linear2.weight f4 [4, 4]
00000000: 03a5 973e ae8c 1fbe 63f4 a6be 157c 60be
00000010: 4dd2 1ec0 8d71 b8be d85b f4bf 950e 823d
00000020: 90fc 2c3e 23c7 61bc a41f b3bd 43a8 b03d
00000030: 2fb1 cd3e 0a34 023b e76c 343f dda6 fa3c
0.2961808 -0.15581009 -0.32608327 -0.21922334 -2.4815857 -0.36024132 -1.9090528 0.063504376
0.1689322 -0.013780388 -0.08746269 0.086258434 0.40174243 0.0019867443 0.7047867 0.030597145

decoder.layers.1.linear2.bias f4 [4]
00000000: 8779 debf 457d 2dc0 ac7e c7bf 4c9f 6b40
-1.7380837 -2.7107708 -1.5585532 3.6815977

decoder.layers.1.norm1.weight f4 [4]
00000000: 0fd2 25bf 541c 3840 730b bd3e f09b 5f3f
-0.6477365 2.876729 0.36922798 0.87347317

decoder.layers.1.norm1.bias f4 [4]
00000000: 647e 8a3d d4ba 0fc0 ddc4 f83e f4ba 8d3f
0.06762388 -2.245778 0.48587695 1.1072679

decoder.layers.1.norm2.weight f4 [4]
00000000: 5ac1 b63d 1e8d 3d40 c33e a23d 5091 703f
0.08923598 2.961738 0.07922127 0.9397173

decoder.layers.1.norm2.bias f4 [4]
00000000: ff67 d7bd a778 08c0 c637 9ebe 5881 983f
-0.105178826 -2.132364 -0.30901927 1.1914473

decoder.layers.1.norm3.weight f4 [4]
00000000: 4be2 8e3d c93d 863e 2237 32bd 86ad 8f3d
0.06976756 0.26219013 -0.04350961 0.07015519

decoder.layers.1.norm3.bias f4 [4]
00000000: 88e6 963b e0c8 be3e ea0f 6b3c 8515 b8bd
0.004605118 0.3726263 0.014347056 -0.089884795

linear_mapping.weight f4 [1, 4]
00000000: baab 85be 8093 a13b 24b6 533e 9084 203d
-0.2610758 0.0049309134 0.2067495 0.03918892

linear_mapping_with_gender_ind.weight f4 [1, 5]
00000000: a64b aaba 50fa 343b a640 26bc 0788 c6bb
00000010: 8ac3 a1bb
-0.0012992516 0.0027615018 -0.010147249 -0.006058696 -0.00493664

exp_avg f4 [4, 5]
00000000: 6784 d428 76b5 cc27 f02a 10a7 8880 b8a8
00000010: fe1e c528 055a b12c 193c b22c f913 b22c
00000020: 7e6b b22c 04b1 b22c 7475 8fab 1065 90ab
00000030: ceb2 8dab 7f38 8fab 74f5 8cab 46da 6d2a
00000040: 64e7 832a 9bd3 862a e13d 972a bd0b 702a
2.3594148e-14 5.6818115e-15 -2.000729e-15 -2.0483845e-14 2.1884834e-14 5.0406367e-12 5.0657365e-12 5.0612817e-12
5.0709983e-12 5.078717e-12 -1.0193361e-12 -1.0259866e-12 -1.0068281e-12 -1.0176442e-12 -1.0015725e-12 2.1125557e-13
2.3430834e-13 2.3950012e-13 2.6865925e-13 2.1320355e-13

exp_avg_sq f4 [4, 5]
00000000: 3cae ab1c bd66 ad1c b35e ae1c 5082 ae1c
00000010: 31d7 ae1c ce31 0b1e 4660 0c1e 7678 0d1e
00000020: 3e86 0d1e e0b7 0d1e 5e66 a51d 980d a61d
00000030: 68b2 a71d 2958 a71d c48b a71d b9d8 951c
00000040: 8c0a 981c fbc1 981c 31bc 951c 0683 961c
1.1360869e-21 1.1474737e-21 1.1538833e-21 1.1548039e-21 1.156998e-21 7.368898e-21 7.431447e-21 7.4893886e-21
7.4922385e-21 7.502502e-21 4.378098e-21 4.395389e-21 4.4389e-21 4.4295687e-21 4.4349046e-21 9.916014e-22
1.0061243e-21 1.0108659e-21 9.908639e-22 9.960036e-22

exp_avg f4 [4]
00000000: 0d21 bca8 c485 fcab d170 c02a 096b a8a9
-2.0886526e-14 -1.7942804e-12 3.4184333e-13 -7.4792664e-14

exp_avg_sq f4 [4]
00000000: 1b73 2c1b 3cf8 8d1c ba78 291c fb14 521b
1.4264699e-22 9.394764e-22 5.6073445e-22 1.7377572e-22

exp_avg f4 [4, 1]
00000000: 64c9 eaac b6b5 aaae 6c95 f1ab 2397 8c2d
-6.673039e-12 -7.762983e-11 -1.7165553e-12 1.5983275e-11

exp_avg_sq f4 [4, 1]
00000000: 5195 8423 57c8 6024 c63e 5823 cc5a 9c1d
1.4374707e-17 4.8741952e-17 1.1722676e-17 4.1386738e-21

exp_avg f4 [4]
00000000: 82cc 242c 77ec f52d 4c20 b82a 1441 ceac
2.3419326e-12 2.7958287e-11 3.2707376e-13 -5.8620973e-12

exp_avg_sq f4 [4]
00000000: 660c 4b22 0318 2c23 ae8f 2522 14b4 2d1c
2.7518194e-18 9.329223e-18 2.2437733e-18 5.7473644e-22

exp_avg f4 [12, 4]
00000000: 6e79 0fa8 d2d2 122c 7b5a 3cac 844e 61ac
00000010: bfca 6529 4980 292c bc41 43ac 58c3 82ac
00000020: c111 2aaa 25ed 1bac b76d 392c 62f3 6f2c
00000030: f697 e32a 4d16 aa2b ba13 d2ab 11cd 04ac
00000040: 2842 7daa e516 7eac 842e 0729 f7a3 7b28
00000050: 2cbf 17aa e3e6 c22c 1251 ad29 9c79 c029
00000060: 7c5d c12a 229b c62c 2286 6fa8 b748 4627
00000070: 183a 04ab 4294 06ad 74f4 4fa9 35b7 36a9
00000080: ddd7 b8ab f4f4 6d2a f6a2 b9aa e8ec 022a
00000090: e145 c12a 591b 02ab 4bc7 bb2a 3ef2 6a2b
000000a0: 4f7a b7aa 955d deaa 90bf 562b 46ae e42a
000000b0: 7498 4cab 4709 1eab c302 db2b 370c ff2a
-7.9644255e-15 2.0864877e-12 -2.6766634e-12 -3.2018008e-12 5.102407e-14 2.4087557e-12 -2.7747657e-12 -3.7165097e-12
-1.5105193e-13 -2.2158466e-12 2.6350985e-12 3.4099047e-12 4.0428744e-13 1.2085416e-12 -1.4926873e-12 -1.8872163e-12
-2.2493867e-13 -3.610828e-12 3.0016368e-14 1.3968853e-14 -1.347782e-13 5.539445e-12 7.696807e-14 8.547609e-14
3.4348555e-13 5.6447217e-12 -1.32962506e-14 2.7517439e-15 -4.697644e-13 -7.649938e-12 -4.6175263e-14 -4.0571025e-14
-1.31339e-12 2.1134814e-13 -3.2975678e-13 1.1628513e-13 3.4332175e-13 -4.622323e-13 3.335616e-13 8.346968e-13
-3.25922e-13 -3.9500057e-13 7.629392e-13 4.0621862e-13 -7.268693e-13 -5.614575e-13 1.5561652e-12 4.5305575e-13

exp_avg_sq f4 [12, 4]
00000000: 6d9a 441c b159 7e1b 4d09 961b e338 161c
00000010: 809c 5d1c 23a6 811b d447 a21b 274e 131c
00000020: b90d ab1b 6fe8 aa1b f7aa 821b 81ff 581c
00000030: a16b f51b a720 eb1a 6027 041b f94d a11b
00000040: 18b9 801a 1460 ee1b 54f7 221b fe44 861b
00000050: a205 291b 0846 9d1c 4076 991b 81e1 061c
00000060: ebb1 1b1b 28ca 961c bef4 bf1b 12e1 1a1c
00000070: 5437 9e1b cc87 0e1d e9ee 4a1c 645a a71c
00000080: 9eb9 ee1d 28f7 791b 0df2 831c 6fa9 821c
00000090: 9ed9 0f1c 9fd2 db1a 5ec2 921b 1190 841b
000000a0: 490b f31b f5c2 dd1a 81a3 c61b 6352 fb1a
000000b0: 8382 7e1d 3591 4b1c 8cc9 501d 29d7 0b1c
6.505055e-22 2.1039368e-22 2.482143e-22 4.970436e-22 7.332504e-22 2.1448623e-22 2.684707e-22 4.873923e-22
2.8298445e-22 2.8274348e-22 2.161718e-22 7.1798636e-22 4.0601404e-22 9.7246475e-23 1.0931507e-22 2.6685604e-22
5.3238594e-23 3.9435886e-22 1.3480242e-22 2.2213026e-22 1.3981172e-22 1.0407491e-21 2.5388144e-22 4.462834e-22
1.2878788e-22 9.978424e-22 3.175646e-22 5.124522e-22 2.6174662e-22 1.8863749e-21 6.714498e-22 1.1074498e-21
6.319e-21 2.0676658e-22 8.731421e-22 8.646476e-22 4.7595995e-22 9.0916554e-23 2.427928e-22 2.193067e-22
4.020827e-22 9.171843e-23 3.2862014e-22 1.0394427e-22 3.3684093e-21 6.735474e-22 2.7632768e-21 4.626933e-22

exp_avg f4 [12]
00000000: d1eb 112b 3841 272b 3696 19ab 1d4e a42a
00000010: 4918 9ba1 f348 b3a1 19cb fb21 0336 1ea2
00000020: 63b4 40a9 c1cf 06aa 2ace 38aa 56e6 a4aa
5.184161e-13 5.942083e-13 -5.456498e-13 2.9186454e-13 -1.0509637e-18 -1.2148821e-18 1.7062181e-18 -2.1441586e-18
-4.2789025e-14 -1.197367e-13 -1.641401e-13 -2.929208e-13

exp_avg_sq f4 [12]
00000000: dd63 7e19 127c 8319 cfc8 a319 0234 0419
00000010: 94b3 e406 5cff 8907 147b 8807 4b4a ff07
00000020: c803 641a 94d6 8619 6f78 8a19 139c 041b
1.31516595e-23 1.3595194e-23 1.6934911e-23 6.834743e-24 8.6027934e-35 2.0763556e-34 2.0535344e-34 3.84118e-34
4.715235e-23 1.3941943e-23 1.4317508e-23 1.0969214e-22

exp_avg f4 [4, 4]
00000000: fb38 622b 0d64 33ab c0cb 442b bf35 2aaa
00000010: 05c9 f4aa 661d f4a9 7f83 8fab 183b d3aa
00000020: c674 d2a9 2210 292b 109b 4c2b 70e2 a42b
00000030: 78f8 ffab 295a 332c 83b3 2c2a 83ac a82b
8.0370405e-13 -6.3732423e-13 6.991595e-13 -1.511768e-13 -4.3482592e-13 -1.08408765e-13 -1.0197259e-12 -3.7522134e-13
-9.3461304e-14 6.006325e-13 7.269055e-13 1.171575e-12 -1.8187804e-12 2.5487479e-12 1.533895e-13 1.1985e-12

exp_avg_sq f4 [4, 4]
00000000: c5ce 9a1c c113 ce1d 4de3 c91d 4a06 201e
00000010: 84f7 591c 535c a71d 87f2 d91d 7e75 211e
00000020: 3105 0c1a 2eb7 131b c85d d51a fac3 2e1b
00000030: 854b b81d da4d a61e 9909 881d d8dc 0d1e
1.0244314e-21 5.454817e-21 5.343928e-21 8.47163e-21 7.2119184e-22 4.4299993e-21 5.769019e-21 8.547566e-21
2.8955515e-23 1.2218744e-22 8.824625e-23 1.4456266e-22 4.878248e-21 1.7608132e-20 3.6008824e-21 7.510147e-21

exp_avg f4 [4]
00000000: 8b54 83aa 4b5e 022c 220f 7eab d301 202a
-2.3328938e-13 1.8526454e-12 -9.025993e-13 1.4211488e-13

exp_avg_sq f4 [4]
00000000: 586d 211b 7c6b b11b cdfc 721a 3233 361a
1.3352939e-22 2.9351654e-22 5.0248638e-23 3.7678073e-23

exp_avg f4 [4, 4]
00000000: 0400 0000 0400 0080 0400 0000 0400 0080
00000010: 0400 0000 0400 0080 0400 0080 0400 0000
00000020: 133f a7ad badc baad e683 f72d 8bd8 332c
00000030: ee95 bd2e ac74 fc2d 9253 44ae 7614 87ac
6e-45 -6e-45 6e-45 -6e-45 6e-45 -6e-45 -6e-45 6e-45
-1.9013712e-11 -2.1243774e-11 2.8139224e-11 2.5557635e-12 8.621358e-11 2.8700896e-11 -4.4639466e-11 -3.8392024e-12

exp_avg_sq f4 [4, 4]
00000000: 1900 0000 1900 0000 1900 0000 1900 0000
00000010: 1900 0000 1900 0000 1900 0000 1900 0000
00000020: c905 0920 6732 981e 93d2 561f 5ebd 051c
00000030: 6e4a 1c21 ff91 221f e88c 2120 70f9 df1c
3.5e-44 3.5e-44 3.5e-44 3.5e-44 3.5e-44 3.5e-44 3.5e-44 3.5e-44
1.1606266e-19 1.6114472e-20 4.5490446e-20 4.425076e-22 5.2953363e-19 3.44256e-20 1.3683852e-19 1.482138e-21

exp_avg f4 [4]
00000000: 0400 0000 0400 0000 abeb 53ad a431 012e
6e-45 6e-45 -1.204629e-11 2.9375294e-11

exp_avg_sq f4 [4]
00000000: 1900 0000 1900 0000 dd1f 841e a111 691f
3.5e-44 3.5e-44 1.3989222e-20 4.935425e-20

exp_avg f4 [4, 4]
00000000: 0400 0000 0400 0000 e65e 0c2f 6c6c a0ad
00000010: 0400 0000 0400 0000 964f bf2f 69ee 042f
00000020: 0400 0080 0400 0080 b681 e3af e53d c1ae
00000030: 0400 0080 0400 0080 b020 752e 35b3 4b2d
6e-45 6e-45 1.276664e-10 -1.8238043e-11 6e-45 6e-45 3.4799247e-10 1.209003e-10
-6e-45 -6e-45 -4.1383225e-10 -8.7876185e-11 -6e-45 -6e-45 5.5735583e-11 1.1579006e-11

exp_avg_sq f4 [4, 4]
00000000: 1900 0000 1900 0000 ade4 ff21 fdfd 8220
00000010: 1900 0000 1900 0000 a288 6d23 b6d8 cc21
00000020: 1900 0000 1900 0000 16f8 3f23 3b59 3421
00000030: 1900 0000 1900 0000 be4a 9120 f04b 8520
3.5e-44 3.5e-44 1.7340002e-18 2.2190932e-19 3.5e-44 3.5e-44 1.2876729e-17 1.3880941e-18
3.5e-44 3.5e-44 1.0406665e-17 6.110447e-19 3.5e-44 3.5e-44 2.4613416e-19 2.2581328e-19

exp_avg f4 [4]
00000000: 3beb 1c2c 427e 5c2e daaf 3aae 5bcc 382d
2.2299512e-12 5.0134348e-11 -4.244769e-11 1.0504565e-11

exp_avg_sq f4 [4]
00000000: 89aa fe1e 06b6 fa20 a2e5 0920 4ebe 051f
2.6963828e-20 4.24721e-19 1.168033e-19 2.8321262e-20

exp_avg f4 [4]
00000000: e65c 99ac 46ba e22c 445e d82d 5969 45ae
-4.3588353e-12 6.443987e-12 2.459822e-11 -4.488618e-11

exp_avg_sq f4 [4]
00000000: 3f1d e01d 0fe0 1b20 8a2d c51f b324 591f
5.9322546e-21 1.3203145e-19 8.3508083e-20 4.5981894e-20

exp_avg f4 [4]
00000000: 3579 8b2a 5914 5c2d ee0b d8ad 898f 292e
2.4775464e-13 1.251007e-11 -2.4561655e-11 3.8553636e-11

exp_avg_sq f4 [4]
00000000: e913 371e 1d4e 8d20 238f 591f 7971 8820
9.692057e-21 2.393802e-19 4.6069937e-20 2.3114386e-19

exp_avg f4 [4]
00000000: 11f8 efae d157 6baf 2686 42ad f061 5d2f
-1.0912527e-10 -2.1404324e-10 -1.105741e-11 2.0134627e-10

exp_avg_sq f4 [4]
00000000: 72cc 2d22 a521 f822 f802 ab22 ce76 8021
2.3554104e-18 6.7256157e-18 4.6352786e-18 8.705065e-19

exp_avg f4 [4]
00000000: 8457 e8ae cc8f 2b2f 04ec a4ae 2ae3 232f
-1.05656844e-10 1.5603446e-10 -7.4997814e-11 1.4905469e-10

exp_avg_sq f4 [4]
00000000: 0caf 5c22 075c 8023 f95c fd22 1631 9421
2.9908229e-18 1.3916763e-17 6.8674226e-18 1.0041863e-18

exp_avg f4 [12, 4]
00000000: dbfb 3fac 3ab8 10ac f028 922b f59d d3ad
00000010: 598c 05ad db4c 622d e510 3b2c e87a b9ad
00000020: b192 2d2d 9d64 28ad d0e8 37ac 4b47 552e
00000030: a39e 2b2c 0d7f 10ac 0065 662c 5082 f02d
00000040: 9401 13ad f704 8e2e cf57 4bae 2b73 5a2e
00000050: 622a 9f2c ed8e 4dad 49f4 6e2c 7cb9 37ad
00000060: 26fb b52c a22e 35ae a875 022e 180c 0aae
00000070: 7212 ed2c 18f2 3bae fe64 ff2d ebb3 17ae
00000080: de9b 52ad ee50 412d b3aa 342d 8a20 3cae
00000090: abce 3f2e 06cb 46ae 8fef e7ad 0403 722f
000000a0: 23d3 8bac de31 362d 1fc6 a5ac 5e61 e1ad
000000b0: f19e ad2d 06cd 8fad 19da 90ad a8a6 d72e
-2.728254e-12 -2.0565897e-12 1.0385286e-12 -2.405807e-11 -7.591338e-12 1.2863678e-11 2.6583677e-12 -2.1086646e-11
9.8664835e-12 -9.572035e-12 -2.61351e-12 4.8493914e-11 2.4388623e-12 -2.0534158e-12 3.2741032e-12 2.7342711e-11
-8.356333e-12 6.458294e-11 -4.6234846e-11 4.966975e-11 4.5237572e-12 -1.1684637e-11 3.395744e-12 -1.04435315e-11
5.1722125e-12 -4.1196054e-11 2.9663078e-11 -3.138831e-11 6.737993e-12 -4.27339e-11 2.9034993e-11 -3.4493224e-11
-1.1971727e-11 1.098875e-11 1.0269718e-11 -4.277515e-11 4.361193e-11 -4.520031e-11 -2.6368045e-11 2.2010843e-10
-3.9740585e-12 1.0356575e-11 -4.711578e-12 -2.5622778e-11 1.9738407e-11 -1.6348266e-11 -1.646776e-11 9.806672e-11

exp_avg_sq f4 [12, 4]
00000000: adbb 7f1f 5920 b91d 297c 941e 0226 d01f
00000010: b1db e61e 5a1c 101e 7ab0 ea1d 0158 c41f
00000020: b9a9 991e c5f2 351e 1b79 b91d a3be ae20
00000030: df7f 1a1e 3b5b 691e 2b50 071d ab67 0b21
00000040: 0355 f31e 4747 fe20 3c19 4c21 4516 5921
00000050: 850a 9c1c 9bb3 111e ad19 071e f6b4 851e
00000060: 7244 481e cac9 4520 84a2 9a20 d390 b020
00000070: ca4f 561e 6697 4d20 ce0a a120 52d4 aa20
00000080: d5c5 b11f 37da 2f20 dad5 5c1f ef59 5822
00000090: 0aad 3520 59d7 a820 a070 ca1f b314 d722
000000a0: 4687 381f 16ea 1a1f b158 991e 4eaa a421
000000b0: f7f1 a91f d8d2 a11f 7380 191f 2987 1722
5.4153592e-20 4.900254e-21 1.5721461e-20 8.8154305e-20 2.444306e-20 7.6291595e-21 6.2121757e-21 8.315482e-20
1.62697e-20 9.632264e-21 4.9094312e-21 2.96029e-19 8.179135e-21 1.2353783e-20 1.7908547e-21 4.7232235e-19
2.5763786e-20 4.307644e-19 6.9151286e-19 7.3551933e-19 1.0325933e-21 7.713378e-21 7.15215e-21 1.4156766e-20
1.0602066e-20 1.6753315e-19 2.6196159e-19 2.9911396e-19 1.1345566e-20 1.7414269e-19 2.728161e-19 2.8939622e-19
7.52897e-20 1.4895278e-19 4.6763706e-20 2.932107e-18 1.538855e-19 2.8602812e-19 8.573665e-20 5.8297783e-18
3.907541e-20 3.28044e-20 1.6236187e-20 1.1158152e-18 7.197458e-20 6.8534964e-20 3.250526e-20 2.053587e-18

exp_avg f4 [12]
00000000: 2233 32ad 8d91 0bad c0f8 ac2d dcbf 4f2d
00000010: ebee 48a4 0ea3 8d23 97d5 c123 9fde 2f23
00000020: bbba 83ad a861 aa2e 47ea 3bad 9dca 122e
-1.0129482e-11 -7.933554e-12 1.9664603e-11 1.1809189e-11 -4.3570458e-17 1.5356307e-17 2.101556e-17 9.533911e-18
-1.49759e-11 7.748052e-11 -1.0681739e-11 3.3376513e-11

exp_avg_sq f4 [12]
00000000: 9417 731f 3b65 fc1e 4ae3 541f 1a2c 861f
00000010: f560 890c da5b 3d0a c5b3 cc0b 5e4b a40b
00000020: 0f94 f520 b9c9 7021 98e6 4320 8c20 b420
5.1476755e-20 2.6723406e-20 4.5080755e-20 5.682417e-20 2.1166546e-31 9.117294e-33 7.884843e-32 6.32839e-32
4.1602591e-19 8.158214e-19 1.659344e-19 3.0514724e-19

exp_avg f4 [4, 4]
00000000: f964 ec30 c535 a8b0 522b 8a30 f45f 2431
00000010: fcf9 5330 7d82 16b0 235d 0330 8af4 9930
00000020: fb17 3bb0 4ef3 0430 ba7c d8af 82b7 80b0
00000030: f770 be2f 092a 89af a5b8 5d2f 0fe4 0630
1.7199958e-09 -1.2238891e-09 1.0053134e-09 2.3919684e-09 7.71166e-10 -5.4755117e-10 4.778988e-10 1.1201717e-09
-6.806428e-10 4.8367077e-10 -3.9378795e-10 -9.365382e-10 3.4641065e-10 -2.4950023e-10 2.0165432e-10 4.9073007e-10

exp_avg_sq f4 [4, 4]
00000000: 602d 1024 d57d 9123 5e2b 5d23 a2da 9724
00000010: 8d87 8224 9d5a 0224 1cc6 c323 44fb 0725
00000020: 098d 2323 f0b9 a422 41ee 7d22 673a ad23
00000030: 11fa 3b24 4718 bd23 29d9 9523 8b9b cd24
3.1263457e-17 1.5774223e-17 1.1989617e-17 6.585619e-17 5.6608145e-17 2.826601e-17 2.1225845e-17 1.1794516e-16
8.866113e-18 4.464916e-18 3.4414024e-18 1.8781432e-17 4.0760976e-17 2.0501703e-17 1.6246583e-17 8.916808e-17

exp_avg f4 [4]
00000000: 8ff8 87af 6fa2 0aaf 9565 c42e 4e42 94ae
-2.4732968e-10 -1.2608735e-10 8.931093e-11 -6.742039e-11

exp_avg_sq f4 [4]
00000000: f363 6f21 dc84 f421 8fff 8020 85f8 c121
8.110863e-19 1.6569251e-18 2.1853158e-19 1.3143971e-18

exp_avg f4 [4, 4]
00000000: 7610 e030 5713 80b1 be17 f932 7e4b c8b2
00000010: 0400 0000 0400 0000 0400 0080 0400 0080
00000020: 0400 0000 0400 0080 0400 0000 0400 0000
00000030: 0400 0080 0400 0000 0400 0080 0400 0080
1.6302824e-09 -3.727489e-09 2.8998212e-08 -2.3317394e-08 6e-45 6e-45 -6e-45 -6e-45
6e-45 -6e-45 6e-45 6e-45 -6e-45 6e-45 -6e-45 -6e-45

exp_avg_sq f4 [4, 4]
00000000: dbc0 9f24 6353 ee25 9f26 0c29 2dd7 8928
00000010: 1900 0000 1900 0000 1900 0000 1900 0000
00000020: 1900 0000 1900 0000 1900 0000 1900 0000
00000030: 1900 0000 1900 0000 1900 0000 1900 0000
6.928197e-17 4.1342924e-16 3.1119743e-14 1.5303373e-14 3.5e-44 3.5e-44 3.5e-44 3.5e-44
3.5e-44 3.5e-44 3.5e-44 3.5e-44 3.5e-44 3.5e-44 3.5e-44 3.5e-44

exp_avg f4 [4]
00000000: 5973 0a32 0400 0000 0400 0080 0400 0000
8.058884e-09 6e-45 -6e-45 6e-45

exp_avg_sq f4 [4]
00000000: 352c 0227 1900 0000 1900 0000 1900 0000
1.8065089e-15 3.5e-44 3.5e-44 3.5e-44

exp_avg f4 [4, 4]
00000000: 4c5c b432 0400 0000 0400 0080 0400 0080
00000010: 08bf 9db2 0400 0000 0400 0080 0400 0080
00000020: e008 67b3 0400 0080 0400 0080 0400 0080
00000030: 52da 7833 0400 0080 0400 0080 0400 0080
2.099673e-08 6e-45 -6e-45 -6e-45 -1.8364076e-08 6e-45 -6e-45 -6e-45
-5.379195e-08 -6e-45 -6e-45 -6e-45 5.794056e-08 -6e-45 -6e-45 -6e-45

exp_avg_sq f4 [4, 4]
00000000: af05 a027 1900 0000 1900 0000 1900 0000
00000010: 5cb6 6228 1900 0000 1900 0000 1900 0000
00000020: 1a3d 2c29 1900 0000 1900 0000 1900 0000
00000030: 575a 302a 1900 0000 1900 0000 1900 0000
4.4415083e-15 3.5e-44 3.5e-44 3.5e-44 1.2585063e-14 3.5e-44 3.5e-44 3.5e-44
3.824467e-14 3.5e-44 3.5e-44 3.5e-44 1.5663283e-13 3.5e-44 3.5e-44 3.5e-44

exp_avg f4 [4]
00000000: 0eb3 8cb0 0458 1d31 44e3 d2b1 4462 1532
-1.0237231e-09 2.2896538e-09 -6.1376415e-09 8.6952845e-09

exp_avg_sq f4 [4]
00000000: e996 c425 f92d 2826 e0d3 3726 1bbb 4727
3.410284e-16 5.8349013e-16 6.3778023e-16 2.7718228e-15

exp_avg f4 [4]
00000000: 742b 43b1 1706 9ab0 f90a c831 b688 bcb0
-2.8400935e-09 -1.1206706e-09 5.8220135e-09 -1.3717656e-09

exp_avg_sq f4 [4]
00000000: bdd3 0a26 e5b5 f125 da46 ec25 cf08 d125
4.8165327e-16 4.1930092e-16 4.0987485e-16 3.626169e-16

exp_avg f4 [4]
00000000: 5a3c b2b1 eac3 2931 ce00 7b31 5ff2 2131
-5.187343e-09 2.47041e-09 3.6525765e-09 2.3566356e-09

exp_avg_sq f4 [4]
00000000: 9a41 5226 ae23 7126 c4cb a025 1342 8525
7.2947293e-16 8.3662027e-16 2.7893653e-16 2.3116596e-16

exp_avg f4 [4]
00000000: ba99 8b31 44c6 f7b3 c728 6334 d109 cbb3
4.062909e-09 -1.1537898e-07 2.1155857e-07 -9.45471e-08

exp_avg_sq f4 [4]
00000000: 6823 e625 d11f 942a f5ce d52a 66fd 7829
3.9922632e-16 2.6312158e-13 3.7980006e-13 5.528685e-14

exp_avg f4 [4]
00000000: fe1d 2b32 4b56 e033 7e0c 3534 ea39 1f34
9.9603295e-09 1.04465094e-07 1.6861483e-07 1.4829098e-07

exp_avg_sq f4 [4]
00000000: 1e94 9726 2c08 1d2a 6f8c bf2a 80cd 932a
1.0517877e-15 1.3947236e-13 3.402586e-13 2.625504e-13

exp_avg f4 [12, 4]
00000000: 0000 0000 0000 0000 0000 0000 0000 0000
00000010: 0000 0000 0000 0000 0000 0000 0000 0000
00000020: 0000 0000 0000 0000 0000 0000 0000 0000
00000030: 0000 0000 0000 0000 0000 0000 0000 0000
00000040: 0000 0000 0000 0000 0000 0000 0000 0000
00000050: 0000 0000 0000 0000 0000 0000 0000 0000
00000060: 0000 0000 0000 0000 0000 0000 0000 0000
00000070: 0000 0000 0000 0000 0000 0000 0000 0000
00000080: 2840 fd2c 4a05 e1ad 4285 842d 0978 97ae
00000090: 4a49 7bac fce2 342d 9717 63ac 1754 172e
000000a0: 3405 2ead bfca 0f2e 71f1 9ead 0e13 c82e
000000b0: 02f9 caaa 8ccd d9ac 4a46 3b2d bad5 c92c
0.0 0.0 0.0 0.0 0.0 0.0 0.0 0.0
0.0 0.0 0.0 0.0 0.0 0.0 0.0 0.0
0.0 0.0 0.0 0.0 0.0 0.0 0.0 0.0
0.0 0.0 0.0 0.0 0.0 0.0 0.0 0.0
7.1978153e-12 -2.5581887e-11 1.5065841e-11 -6.8880075e-11 -3.570993e-12 1.0282216e-11 -3.2271735e-12 3.4408112e-11
-9.89191e-12 3.269451e-11 -1.8069742e-11 9.098332e-11 -3.6055192e-13 -6.1903312e-12 1.0645327e-11 5.736492e-12

exp_avg_sq f4 [12, 4]
00000000: 0000 0000 0000 0000 0000 0000 0000 0000
00000010: 0000 0000 0000 0000 0000 0000 0000 0000
00000020: 0000 0000 0000 0000 0000 0000 0000 0000
00000030: 0000 0000 0000 0000 0000 0000 0000 0000
00000040: 0000 0000 0000 0000 0000 0000 0000 0000
00000050: 0000 0000 0000 0000 0000 0000 0000 0000
00000060: 0000 0000 0000 0000 0000 0000 0000 0000
00000070: 0000 0000 0000 0000 0000 0000 0000 0000
00000080: bf87 c61c 5b9b d31d 258e b41d b187 d61f
00000090: d9bc 3a1c c621 271d 2953 491d ed11 0b1f
000000a0: 640a 4a1d 462c 481e e04f 811e 6f3b 5120
000000b0: 5caf 301c dea0 261d 203d 8d1d ee27 7d1e
0.0 0.0 0.0 0.0 0.0 0.0 0.0 0.0
0.0 0.0 0.0 0.0 0.0 0.0 0.0 0.0
0.0 0.0 0.0 0.0 0.0 0.0 0.0 0.0
0.0 0.0 0.0 0.0 0.0 0.0 0.0 0.0
1.313763e-21 5.601187e-21 4.7792577e-21 9.085701e-20 6.1786317e-22 2.2119726e-21 2.6645121e-21 2.9449223e-20
2.673985e-21 1.0597067e-20 1.3691442e-20 1.7722654e-19 5.846016e-22 2.2053083e-21 3.738559e-21 1.3401966e-20

exp_avg f4 [12]
00000000: 0000 0000 0000 0000 0000 0000 0000 0000
00000010: 0000 0000 0000 0000 0000 0000 0000 0000
00000020: c4b5 67ad 6a28 b92c 96c1 942d dc73 61ac
0.0 0.0 0.0 0.0 0.0 0.0 0.0 0.0
-1.317119e-11 5.262503e-12 1.6911621e-11 -3.2038738e-12

exp_avg_sq f4 [12]
00000000: 0000 0000 0000 0000 0000 0000 0000 0000
00000010: 0000 0000 0000 0000 0000 0000 0000 0000
00000020: 5196 ea1c dc85 451c c713 651d ea38 471c
0.0 0.0 0.0 0.0 0.0 0.0 0.0 0.0
1.5523677e-21 6.535484e-22 3.0318122e-21 6.5917136e-22

exp_avg f4 [4, 4]
00000000: d08d fdad d468 692e 8746 3a2e bd56 3f2e
00000010: 2cc1 b0ae f0c0 2e2f 85fb ba2e 806e c42e
00000020: 540a b6ae da20 302f 92f3 d12e 73d7 d72e
00000030: d292 222d 669e a5ad a6d4 35ad 2fbf 3bad
-2.8825747e-11 5.3071172e-11 4.2354144e-11 4.350541e-11 -8.0378676e-11 1.5893753e-10 8.5029796e-11 8.932677e-11
-8.2782364e-11 1.6018778e-10 9.5474864e-11 9.8153395e-11 9.2412345e-12 -1.8828671e-11 -1.0335876e-11 -1.0672171e-11

exp_avg_sq f4 [4, 4]
00000000: 58a6 611e ccb8 541f c0b8 cd1e e75f a51e
00000010: 3539 0020 6070 0d21 5ef3 3020 2ecf 0f20
00000020: 4a30 c01f 8e6b cb20 31ac df1f 9d60 dd1f
00000030: 80f0 8b1e 1cc0 a91f 398a 001f 70e8 be1e
1.19458e-20 4.5045607e-20 2.178163e-20 1.7509719e-20 1.086095e-19 4.7921385e-19 1.4988303e-19 1.2181121e-19
8.139505e-20 3.4460711e-19 9.472904e-20 9.3756974e-20 1.4816666e-20 7.18921e-20 2.721939e-20 2.0213166e-20

exp_avg f4 [4]
00000000: 123c 0f2d f7dc d22d 129d 8c2d 54bf e3ab
8.141947e-12 2.3972364e-11 1.598591e-11 -1.6182424e-12

exp_avg_sq f4 [4]
00000000: 15ad 8022 a02e 5a23 6e92 851d 6229 911c
3.4877727e-18 1.1827677e-17 3.535621e-21 9.605992e-22

exp_avg f4 [12, 4]
00000000: 0000 0000 0000 0000 0000 0000 0000 0000
00000010: 0000 0000 0000 0000 0000 0000 0000 0000
00000020: 0000 0000 0000 0000 0000 0000 0000 0000
00000030: 0000 0000 0000 0000 0000 0000 0000 0000
00000040: 0000 0000 0000 0000 0000 0000 0000 0000
00000050: 0000 0000 0000 0000 0000 0000 0000 0000
00000060: 0000 0000 0000 0000 0000 0000 0000 0000
00000070: 0000 0000 0000 0000 0000 0000 0000 0000
00000080: 7da2 acab b6c5 072f faf1 172f bfee f22e
00000090: 3bb9 d6ac ff77 8cad b6dc 002e 1250 b52e
000000a0: 92b9 362c f76e b9ae 32fb b3ae 721a 7eae
000000b0: dd59 f62d 14fc 3eb0 e388 30b0 9574 f2af
0.0 0.0 0.0 0.0 0.0 0.0 0.0 0.0
0.0 0.0 0.0 0.0 0.0 0.0 0.0 0.0
0.0 0.0 0.0 0.0 0.0 0.0 0.0 0.0
0.0 0.0 0.0 0.0 0.0 0.0 0.0 0.0
-1.2266435e-12 1.234842e-10 1.3819337e-10 1.1047296e-10 -6.1028105e-12 -1.5969446e-11 2.929986e-11 8.2451504e-11
2.5966768e-12 -8.432537e-11 -8.184599e-11 -5.77764e-11 2.800687e-11 -6.947982e-10 -6.4222955e-10 -4.410238e-10

exp_avg_sq f4 [12, 4]
00000000: 0000 0000 0000 0000 0000 0000 0000 0000
00000010: 0000 0000 0000 0000 0000 0000 0000 0000
00000020: 0000 0000 0000 0000 0000 0000 0000 0000
00000030: 0000 0000 0000 0000 0000 0000 0000 0000
00000040: 0000 0000 0000 0000 0000 0000 0000 0000
00000050: 0000 0000 0000 0000 0000 0000 0000 0000
00000060: 0000 0000 0000 0000 0000 0000 0000 0000
00000070: 0000 0000 0000 0000 0000 0000 0000 0000
00000080: 7adb 6d1d 54d8 8b21 9b5c 7521 5b2b 2421
00000090: 8138 311f e3f3 b323 2092 5323 a563 4a22
000000a0: ffb0 3f1c c014 5620 2320 3c20 350d fe1f
000000b0: eabd de1f fc9c 2d24 bdd1 d123 8701 f022
0.0 0.0 0.0 0.0 0.0 0.0 0.0 0.0
0.0 0.0 0.0 0.0 0.0 0.0 0.0 0.0
0.0 0.0 0.0 0.0 0.0 0.0 0.0 0.0
0.0 0.0 0.0 0.0 0.0 0.0 0.0 0.0
3.1480156e-21 9.476268e-19 8.313179e-19 5.562274e-19 3.7527947e-20 1.9510509e-17 1.1469276e-17 2.7428856e-18
6.342536e-22 1.8133371e-19 1.5934853e-19 1.07595034e-19 9.4334844e-20 3.7646366e-17 2.2748653e-17 6.5053747e-18

exp_avg f4 [12]
00000000: 0000 0000 0000 0000 0000 0000 0000 0000
00000010: 0000 0000 0000 0000 0000 0000 0000 0000
00000020: 6860 7aae 2e5c 40ad 96b4 162e 2fb4 922f
0.0 0.0 0.0 0.0 0.0 0.0 0.0 0.0
-5.6929045e-11 -1.0934404e-11 3.4266444e-11 2.6685273e-10

exp_avg_sq f4 [12]
00000000: 0000 0000 0000 0000 0000 0000 0000 0000
00000010: 0000 0000 0000 0000 0000 0000 0000 0000
00000020: 3dc9 2120 e0be 1622 d5fb f81e b9ea 9422
0.0 0.0 0.0 0.0 0.0 0.0 0.0 0.0
1.3703815e-19 2.042984e-18 2.6362177e-20 4.0364003e-18

exp_avg f4 [4, 4]
00000000: 1b89 26af 5159 5f30 7750 ac2e 050d d12f
00000010: b323 b02f 823e a5b0 8b2c 39af 2172 fdaf
00000020: aecb 54ae c3b0 0331 38ef be2d 47a0 ab30
00000030: 001a 372f ae9b f2b0 f09c b2ae 9d80 8bb0
-1.5146322e-10 8.1253854e-10 7.835948e-11 3.802613e-10 3.203958e-10 -1.2023096e-09 -1.6841477e-10 -4.6101525e-10
-4.8384123e-11 1.9163486e-09 2.1706734e-11 1.2487441e-09 1.665299e-10 -1.7652064e-09 -8.1223805e-11 -1.0150135e-09

exp_avg_sq f4 [4, 4]
00000000: fb9d 5c22 babc 9824 7b2f 6f21 c7d4 8423
00000010: 8187 8b24 4ee9 a526 d3f4 9c23 0932 7425
00000020: c35f 1823 7d7d 5c25 64fc 2c22 66b2 8424
00000030: 250d 7221 7b97 1424 2dcd 8920 73e1 8223
2.9899194e-18 6.623921e-17 8.103919e-19 1.4401583e-17 6.0511193e-17 1.1512412e-15 1.7017241e-17 2.1180579e-16
8.260215e-18 1.9124475e-16 2.3443961e-18 5.7548093e-17 8.2010186e-19 3.2220693e-17 2.3344477e-19 1.419011e-17

exp_avg f4 [4]
00000000: 7567 102f 19a7 59af 4bca 7f2f 2dcc 62af
1.3133479e-10 -1.97954e-10 2.3263984e-10 -2.0627118e-10

exp_avg_sq f4 [4]
00000000: 2013 a421 4a9f 9823 c8aa 4922 b065 0121
1.1118135e-18 1.6547335e-17 2.733099e-18 4.384148e-19

exp_avg f4 [4, 4]
00000000: 772f ac30 7f48 43b2 f6fd 7031 dacd a332
00000010: 0400 0000 0400 0080 0400 0000 0400 0000
00000020: 0400 0000 0400 0000 0400 0000 0400 0000
00000030: 0400 0080 0400 0000 0400 0000 0400 0080
1.2528137e-09 -1.1366978e-08 3.5068957e-09 1.9069308e-08 6e-45 -6e-45 6e-45 6e-45
6e-45 6e-45 6e-45 6e-45 -6e-45 6e-45 6e-45 -6e-45

exp_avg_sq f4 [4, 4]
00000000: b199 8a23 d637 c926 8810 0425 ab6c 8527
00000010: 1900 0000 1900 0000 1900 0000 1900 0000
00000020: 1900 0000 1900 0000 1900 0000 1900 0000
00000030: 1900 0000 1900 0000 1900 0000 1900 0000
1.502708e-17 1.3962311e-15 1.1454776e-16 3.7032734e-15 3.5e-44 3.5e-44 3.5e-44 3.5e-44
3.5e-44 3.5e-44 3.5e-44 3.5e-44 3.5e-44 3.5e-44 3.5e-44 3.5e-44

exp_avg f4 [4]
00000000: aa3e b731 0400 0000 0400 0000 0400 0080
5.333125e-09 6e-45 6e-45 -6e-45

exp_avg_sq f4 [4]
00000000: 0304 a925 1900 0000 1900 0000 1900 0000
2.9319545e-16 3.5e-44 3.5e-44 3.5e-44

exp_avg f4 [4, 4]
00000000: 90ec 7c32 0400 0080 0400 0080 0400 0080
00000010: b9d4 93b1 0400 0000 0400 0000 0400 0000
00000020: b93c fa31 0400 0080 0400 0000 0400 0080
00000030: 2331 35b2 0400 0000 0400 0080 0400 0000
1.4722119e-08 -6e-45 -6e-45 -6e-45 -4.302447e-09 6e-45 6e-45 6e-45
7.282861e-09 -6e-45 6e-45 -6e-45 -1.0546759e-08 6e-45 -6e-45 6e-45

exp_avg_sq f4 [4, 4]
00000000: a83d 6f27 1900 0000 1900 0000 1900 0000
00000010: e7a9 1e26 1900 0000 1900 0000 1900 0000
00000020: 0200 bf26 1900 0000 1900 0000 1900 0000
00000030: b9c4 6727 1900 0000 1900 0000 1900 0000
3.3201337e-15 3.5e-44 3.5e-44 3.5e-44 5.504752e-16 3.5e-44 3.5e-44 3.5e-44
1.325329e-15 3.5e-44 3.5e-44 3.5e-44 3.2164333e-15 3.5e-44 3.5e-44 3.5e-44

exp_avg f4 [4]
00000000: e2a3 9f31 a374 96b0 6033 2d31 ddde 53b1
4.6461404e-09 -1.0947087e-09 2.5204017e-09 -3.0831224e-09

exp_avg_sq f4 [4]
00000000: d38f af25 6d41 5e24 1f3e 9a26 e6c3 ee26
3.045512e-16 4.8193994e-17 1.0702735e-15 1.6567666e-15

exp_avg f4 [4]
00000000: 11b4 f8ae 4d0c 24af f34e 87af fac7 56af
-1.13097205e-10 -1.4920083e-10 -2.4612454e-10 -1.9534233e-10

exp_avg_sq f4 [4]
00000000: 4646 0521 5f08 d523 d18f 1322 8270 a522
4.515516e-19 2.3097052e-17 1.999835e-18 4.484246e-18

exp_avg f4 [4]
00000000: a453 4f2f ba67 4eaf 4363 8d2f 38d9 8daf
1.8856255e-10 -1.8772442e-10 2.571828e-10 -2.5802094e-10

exp_avg_sq f4 [4]
00000000: 650b 8c21 1547 4523 dd20 0322 f703 ec23
9.489785e-19 1.0694444e-17 1.7771208e-18 2.558885e-17

exp_avg f4 [4]
00000000: 86c8 ccaf e3bd 0631 308a 8630 175b 50b1
-3.7249864e-10 1.9607505e-09 9.789058e-10 -3.0319762e-09

exp_avg_sq f4 [4]
00000000: 0369 9e23 6bed 2425 7365 3324 f8d9 c025
1.7174869e-17 1.4305173e-16 3.890037e-17 3.3454392e-16

exp_avg f4 [4]
00000000: 8403 6b2f d337 04b1 ecd2 6d30 578c 3ab1
2.1374374e-10 -1.924026e-09 8.6519836e-10 -2.7146336e-09

exp_avg_sq f4 [4]
00000000: f710 d523 18de 0725 0f19 3e26 4c3e 9726
2.3100691e-17 1.1784632e-16 6.5953453e-16 1.0494615e-15

exp_avg f4 [4]
00000000: f620 8fb1 4949 7db2 032e 8332 e07a d3b3
-4.165595e-09 -1.4743201e-08 1.527133e-08 -9.847804e-08

exp_avg_sq f4 [4]
00000000: e606 ef25 ebc8 5627 34f2 0029 67be 082a
4.1464566e-16 2.9807384e-15 2.8631787e-14 1.2145286e-13

exp_avg f4 [4]
00000000: 5a9d 23b2 ae93 1732 2ec0 d633 4daa dab3
-9.523626e-09 8.822935e-09 1.0000109e-07 -1.01823936e-07

exp_avg_sq f4 [4]
00000000: 5c0b 2027 25ad a126 115e f929 0e5b 032a
2.2210618e-15 1.121855e-15 1.1074139e-13 1.1666728e-13

exp_avg f4 [12, 4]
00000000: 0000 0000 0000 0000 0000 0000 0000 0000
00000010: 0000 0000 0000 0000 0000 0000 0000 0000
00000020: 0000 0000 0000 0000 0000 0000 0000 0000
00000030: 0000 0000 0000 0000 0000 0000 0000 0000
00000040: 0000 0000 0000 0000 0000 0000 0000 0000
00000050: 0000 0000 0000 0000 0000 0000 0000 0000
00000060: 0000 0000 0000 0000 0000 0000 0000 0000
00000070: 0000 0000 0000 0000 0000 0000 0000 0000
00000080: 2019 4f2f 689f 312f 0003 2dab a015 8bae
00000090: 5479 c42f 5eda 9ab2 d4f5 1731 ec0f 0d31
000000a0: ffc9 1b30 c183 b130 76cf 33ae 123c 802f
000000b0: 0e31 5430 9971 58b2 5875 ca30 c439 7e30
0.0 0.0 0.0 0.0 0.0 0.0 0.0 0.0
0.0 0.0 0.0 0.0 0.0 0.0 0.0 0.0
0.0 0.0 0.0 0.0 0.0 0.0 0.0 0.0
0.0 0.0 0.0 0.0 0.0 0.0 0.0 0.0
1.8835467e-10 1.6154689e-10 -6.146611e-13 -6.3248295e-11 3.57384e-10 -1.8027261e-08 2.211313e-09 2.052725e-09
5.6675725e-10 1.2915892e-09 -4.088415e-11 2.3325747e-10 7.719486e-10 -1.2598684e-08 1.4730785e-09 9.248675e-10

exp_avg_sq f4 [12, 4]
00000000: 0000 0000 0000 0000 0000 0000 0000 0000
00000010: 0000 0000 0000 0000 0000 0000 0000 0000
00000020: 0000 0000 0000 0000 0000 0000 0000 0000
00000030: 0000 0000 0000 0000 0000 0000 0000 0000
00000040: 0000 0000 0000 0000 0000 0000 0000 0000
00000050: 0000 0000 0000 0000 0000 0000 0000 0000
00000060: 0000 0000 0000 0000 0000 0000 0000 0000
00000070: 0000 0000 0000 0000 0000 0000 0000 0000
00000080: ee01 b422 21ab 8927 c7ac 8124 5493 6124
00000090: 2332 4f23 4e18 1328 c185 0b25 011f ff24
000000a0: 336a 9523 a5f0 6b28 ff7e 5725 9c2c 2e25
000000b0: 454f dc23 7efd b328 1f84 a925 32eb 9c25
0.0 0.0 0.0 0.0 0.0 0.0 0.0 0.0
0.0 0.0 0.0 0.0 0.0 0.0 0.0 0.0
0.0 0.0 0.0 0.0 0.0 0.0 0.0 0.0
0.0 0.0 0.0 0.0 0.0 0.0 0.0 0.0
4.879114e-18 3.8210677e-15 5.623753e-17 4.891389e-17 1.1232109e-17 8.1654095e-15 1.2101646e-16 1.10641144e-16
1.619959e-17 1.3097302e-14 1.8691305e-16 1.5107208e-16 2.388602e-17 1.9982927e-14 2.9406355e-16 2.722106e-16

exp_avg f4 [12]
00000000: 0000 0000 0000 0000 0000 0000 0000 0000
00000010: 0000 0000 0000 0000 0000 0000 0000 0000
00000020: 7a82 8bad 7c85 4431 0a8c f0ae 070e 0231
0.0 0.0 0.0 0.0 0.0 0.0 0.0 0.0
-1.5860414e-11 2.859763e-09 -1.09388124e-10 1.8925463e-09

exp_avg_sq f4 [12]
00000000: 0000 0000 0000 0000 0000 0000 0000 0000
00000010: 0000 0000 0000 0000 0000 0000 0000 0000
00000020: 1614 d824 43a5 6725 01a1 b425 4e9b 0d26
0.0 0.0 0.0 0.0 0.0 0.0 0.0 0.0
9.3709095e-17 2.0092049e-16 3.1334123e-16 4.912968e-16

exp_avg f4 [4, 4]
00000000: edc6 8a31 0942 4f32 9688 c9b3 7a52 9eb2
00000010: 140b ba30 6b90 0d31 f136 55b2 c399 c1b0
00000020: f549 8931 f0d7 eb31 c047 3cb3 a556 e1b1
00000030: 484d 69b1 e0f9 1bb2 6195 9233 60ff 7432
4.038944e-09 1.20640005e-08 -9.384637e-08 -1.8431127e-08 1.353643e-09 2.0600293e-09 -1.2410724e-08 -1.40863e-09
3.9956327e-09 6.8639494e-09 -4.3837417e-08 -6.558212e-09 -3.3949892e-09 -9.079002e-09 6.825827e-08 1.4260735e-08

exp_avg_sq f4 [4, 4]
00000000: b0a1 b126 dccc df27 996d bf2a b284 6628
00000010: 78c4 4125 14c0 4926 54ef 2829 8852 c426
00000020: 0113 8e26 4bd5 9627 4e4b 7e2a c10d 1728
00000030: 037f 2d27 b593 4f28 694a 392b 5a4b e928
1.2325668e-15 6.2117043e-15 3.4004464e-13 1.27963385e-14 1.6806648e-16 6.99962e-16 3.7511078e-14 1.3622602e-15
9.85838e-16 4.1864616e-15 2.2585858e-13 8.385166e-15 2.4077426e-15 1.1522837e-14 6.582847e-13 2.5900875e-14

exp_avg f4 [4]
00000000: 0a5b 3fb1 f009 4d32 bc1b ad33 64af 3ab2
-2.7845908e-09 1.193483e-08 8.060985e-08 -1.0866504e-08

exp_avg_sq f4 [4]
00000000: 8ea9 8727 b4a9 0d27 ad64 9e29 9dd3 1829
3.765386e-15 1.9659677e-15 7.034074e-14 3.3934325e-14

exp_avg f4 [12, 4]
00000000: 0000 0000 0000 0000 0000 0000 0000 0000
00000010: 0000 0000 0000 0000 0000 0000 0000 0000
00000020: 0000 0000 0000 0000 0000 0000 0000 0000
00000030: 0000 0000 0000 0000 0000 0000 0000 0000
00000040: 0000 0000 0000 0000 0000 0000 0000 0000
00000050: 0000 0000 0000 0000 0000 0000 0000 0000
00000060: 0000 0000 0000 0000 0000 0000 0000 0000
00000070: 0000 0000 0000 0000 0000 0000 0000 0000
00000080: 6b74 8eb0 11db feb3 362f 15b4 b0b7 f8b3
00000090: e6aa 4130 95cd cd33 0bf4 e233 55d8 af33
000000a0: 1b80 0731 bd41 0e33 2f14 5433 f5a1 4b33
000000b0: d609 e4b0 59cc 0eb2 362b a6b2 5499 b9b2
0.0 0.0 0.0 0.0 0.0 0.0 0.0 0.0
0.0 0.0 0.0 0.0 0.0 0.0 0.0 0.0
0.0 0.0 0.0 0.0 0.0 0.0 0.0 0.0
0.0 0.0 0.0 0.0 0.0 0.0 0.0 0.0
-1.0364948e-09 -1.1867645e-07 -1.3893882e-07 -1.15818125e-07 7.045585e-10 9.5834515e-08 1.0568336e-07 8.188423e-08
1.9717905e-09 3.312174e-08 4.9378453e-08 4.741192e-08 -1.6591979e-09 -8.311951e-09 -1.9344593e-08 -2.160656e-08

exp_avg_sq f4 [12, 4]
00000000: 0000 0000 0000 0000 0000 0000 0000 0000
00000010: 0000 0000 0000 0000 0000 0000 0000 0000
00000020: 0000 0000 0000 0000 0000 0000 0000 0000
00000030: 0000 0000 0000 0000 0000 0000 0000 0000
00000040: 0000 0000 0000 0000 0000 0000 0000 0000
00000050: 0000 0000 0000 0000 0000 0000 0000 0000
00000060: 0000 0000 0000 0000 0000 0000 0000 0000
00000070: 0000 0000 0000 0000 0000 0000 0000 0000
00000080: 23fb b426 64ed cc2a a805 a42a a6ac 0e2a
00000090: d484 0f26 ecd7 122a fead e929 be56 4329
000000a0: 9b7f ee25 6074 b129 68a4 8f29 eea5 2629
000000b0: 2596 9f25 1d5d 2329 5327 0c29 03ec b328
0.0 0.0 0.0 0.0 0.0 0.0 0.0 0.0
0.0 0.0 0.0 0.0 0.0 0.0 0.0 0.0
0.0 0.0 0.0 0.0 0.0 0.0 0.0 0.0
0.0 0.0 0.0 0.0 0.0 0.0 0.0 0.0
1.255808e-15 3.6402402e-13 2.9136177e-13 1.2672033e-13 4.9793107e-16 1.3042318e-13 1.03774614e-13 4.3373935e-14
4.1372888e-16 7.880567e-14 6.3789956e-14 3.7003325e-14 2.7683845e-16 3.6274034e-14 3.1120353e-14 1.9975346e-14

exp_avg f4 [12]
00000000: 0000 0000 0000 0000 0000 0000 0000 0000
00000010: 0000 0000 0000 0000 0000 0000 0000 0000
00000020: 262b 6733 1b4c 32b3 a5df 9eb2 8058 ee31
0.0 0.0 0.0 0.0 0.0 0.0 0.0 0.0
5.3823122e-08 -4.1513072e-08 -1.8495323e-08 6.936773e-09

exp_avg_sq f4 [12]
00000000: 0000 0000 0000 0000 0000 0000 0000 0000
00000010: 0000 0000 0000 0000 0000 0000 0000 0000
00000020: 4b17 5d29 b9d0 9c28 4a04 3c28 6236 b327
0.0 0.0 0.0 0.0 0.0 0.0 0.0 0.0
4.909206e-14 1.7409998e-14 1.04370265e-14 4.9741442e-15
