Saved_models/best_model_Male.pt (torch, 87130 bytes, 198 tensors)

encoder_input_layer.weight f4 [4, 5]
0	0xbd596420	-0.053074002
1	0x3e6785e4	0.22609669
2	0xbebdbe82	-0.37059408
3	0xbea347bf	-0.31890675
4	0xbe23fe40	-0.16014957
5	0xbe0ace43	-0.13555245
6	0xbe6c58ef	-0.230808
7	0x3e14096d	0.1445672
8	0xbe6059b9	-0.21909226
9	0xbd46ec8e	-0.04856544
10	0x3e288e4d	0.16460533
11	0x3e24e971	0.16104676
12	0xbe4462d8	-0.19178331
13	0xbdc29825	-0.095016755
14	0x3c4caa8b	0.0124918325
15	0xbe86f9a7	-0.26362345
16	0xbe0addf1	-0.13561226
17	0x3d7df7ae	0.062003784
18	0xbf074686	-0.52841985
19	0xbedd4490	-0.43216372

encoder_input_layer.bias f4 [4]
0	0x3f0ba8b4	0.54554296
1	0x3f9d894e	1.2307527
2	0xbf46219e	-0.77395046
3	0x3fa2bfa2	1.2714732

decoder_input_layer.weight f4 [4, 1]
0	0xbf15a5f2	-0.5845634
1	0x3eb4e591	0.35331395
2	0x3f116ccf	0.56806654
3	0x3f080866	0.53137815

decoder_input_layer.bias f4 [4]
0	0xbfb414ca	-1.4068844
1	0xbdecf403	-0.11569979
2	0x3faf6219	1.3701812
3	0x3e44bd8e	0.19212934

positional_encoding_layer_enc.pe f4 [1, 9, 4]
0	0x00000000	0.0
1	0x3f800000	1.0
2	0x00000000	0.0
3	0x3f800000	1.0
4	0x3f576aa4	0.84147096
5	0x3f0a5141	0.54030234
6	0x3c23d657	0.009999833
7	0x3f7ffcb9	0.99995
8	0x3f68c7b7	0.9092974
9	0xbed51133	-0.41614684
10	0x3ca3d43e	0.019998666
11	0x3f7ff2e5	0.9998
12	0x3e1081c3	0.14112
13	0xbf7d7026	-0.9899925
14	0x3cf5b91f	0.0299955
15	0x3f7fe283	0.99955004
16	0xbf41bdcf	-0.7568025
17	0xbf275530	-0.6536436
18	0x3d23cbdb	0.039989334
19	0x3f7fcb94	0.9992001
20	0xbf757c10	-0.9589243
21	0x3e913c2c	0.2836622
22	0x3d4cb6f4	0.049979165
23	0x3f7fae19	0.99875027
24	0xbe8f0f8c	-0.2794155
25	0x3f75cdb8	0.96017027
26	0x3d759cd1	0.059964005
27	0x3f7f8a12	0.99820054
28	0x3f283046	0.6569866
29	0x3f40ffbd	0.75390226
30	0x3d8f3e32	0.06994285
31	0x3f7f5f81	0.997551
32	0x3f7d4695	0.98935825
33	0xbe14fdf6	-0.14550003
34	0x3da3aa50	0.07991469
35	0x3f7f2e65	0.9968017

positional_encoding_layer_dec.pe f4 [1, 1, 4]
0	0x00000000	0.0
1	0x3f800000	1.0
2	0x00000000	0.0
3	0x3f800000	1.0

encoder.layers.0.self_attn.in_proj_weight f4 [12, 4]
0	0x3e42e87a	0.19033995
1	0xbf022e9b	-0.50852364
2	0x3fab9ef1	1.340788
3	0xc00585df	-2.0862958
4	0xbd805ca9	-0.062676735
5	0x3daab501	0.08335305
6	0xbf03724b	-0.5134627
7	0x3eb1327d	0.34608832
8	0xbcb22033	-0.02174387
9	0x3eb0377e	0.34417337
10	0xbf2eb285	-0.6824115
11	0x3f80e5b1	1.0070096
12	0x3ebe7538	0.37198806
13	0x3f0a76b2	0.54087365
14	0xbe8c2712	-0.27373558
15	0x3f939571	1.1529981
16	0x3f30ffb9	0.691402
17	0x3f542023	0.82861537
18	0xbf1da9cf	-0.6158723
19	0xbf964169	-1.1738712
20	0xbd895e19	-0.06707401
21	0x3e86348f	0.26211974
22	0x3f138b7c	0.5763471
23	0x3fb6cd84	1.4281468
24	0xbe8a9bfe	-0.27072138
25	0xbf05cdfc	-0.5226743
26	0x3e067c9a	0.13133469
27	0x3f01a996	0.5064939
28	0xbf3d1f05	-0.7387546
29	0x3c62d6cf	0.01384516
30	0x3ec2b1f3	0.3802639
31	0x3e8b9652	0.27263123
32	0xbe99b17f	-0.3001823
33	0x3e6627f5	0.2247618
34	0xbe706f62	-0.23479989
35	0xc00479c9	-2.0699332
36	0x3d9fa2e2	0.07794739
37	0xbf5a686a	-0.85315573
38	0x3ece4098	0.40283656
39	0x3fd6b273	1.6773208
40	0xbe940a94	-0.2891432
41	0xbe1700f6	-0.1474646
42	0xbe2c9a0a	-0.16855636
43	0xc00cadce	-2.1981082
44	0xbeeae309	-0.4587634
45	0xbe85282b	-0.26007208
46	0xbe28d4bf	-0.16487406
47	0xbf7410e8	-0.95338297

encoder.layers.0.self_attn.in_proj_bias f4 [12]
0	0xbe4e2dde	-0.20134684
1	0x3d575042	0.052566774
2	0x3eac998e	0.33710903
3	0x3ec89cb8	0.39182067
4	0xbd7676e6	-0.060171984
5	0x3d96035c	0.073248595
6	0xbab0e176	-0.0013494927
7	0xbcf4db54	-0.02988974
8	0xbf11a9f6	-0.56899965
9	0x3e34be00	0.17650604
10	0xbf61114c	-0.8791702
11	0xbebc308c	-0.36755788

encoder.layers.0.self_attn.out_proj.weight f4 [4, 4]
0	0xbfe44159	-1.7832443
1	0x3f215951	0.6302691
2	0xbf99e16c	-1.2021918
3	0xbf93fd3f	-1.156166
4	0xbf1c7a6c	-0.611243
5	0x3ee348cc	0.44391477
6	0x3ebf395a	0.37348443
7	0x3eda4663	0.42631826
8	0x3f86fd18	1.0545988
9	0xbf6155bd	-0.8802145
10	0x3f009af8	0.50236464
11	0x3c840663	0.016116327
12	0x3eda44c9	0.42630604
13	0xbf22bd9d	-0.63570577
14	0x3f099b11	0.5375224
15	0x3e8ffce7	0.28122637

encoder.layers.0.self_attn.out_proj.bias f4 [4]
0	0x3e867da8	0.26267743
1	0x3f346fee	0.7048329
2	0xbf30eabe	-0.6910819
3	0xbddfa57c	-0.109202355

encoder.layers.0.linear1.weight f4 [4, 4]
0	0xbe25a227	-0.16175137
1	0x3f2a12d9	0.6643501
2	0xbda60615	-0.08106629
3	0x3f29f019	0.66381985
4	0xbf7c683d	-0.98596555
5	0xbe419ebb	-0.18908207
6	0xbe473d62	-0.1945701
7	0x3c1210f9	0.008915179
8	0xbec613f5	-0.386871
9	0xbeb8b7cf	-0.36077735
10	0x3e46f8e3	0.1943088
11	0x3ec91e80	0.39281082
12	0xbf6e042d	-0.9297512
13	0x3f6067aa	0.8765818
14	0x3ed5c6cb	0.4175323
15	0x3e1350ba	0.14386263

encoder.layers.0.linear1.bias f4 [4]
0	0xbefd960e	-0.49528545
1	0xbee004a9	-0.43753555
2	0xbdda8060	-0.10669017
3	0xbf14f06d	-0.5817936

encoder.layers.0.linear2.weight f4 [4, 4]
0	0x3eb8c007	0.36084005
1	0x3ea0aee4	0.3138343
2	0xbc0f65b5	-0.008752276
3	0x3ed28a3e	0.41121095
4	0x3ec90fdb	0.3926991
5	0xbe6892f6	-0.22712311
6	0xbd5e118d	-0.054215956
7	0x3d4fc2a5	0.050722737
8	0xbf29080b	-0.660279
9	0xbebe6e43	-0.37193498
10	0xbba066fe	-0.00489509
11	0xbe203ea7	-0.156489
12	0xbe968331	-0.29396966
13	0xbecf5cb3	-0.4050041
14	0x3ebc5161	0.36780837
15	0xbe378eb2	-0.17925528

encoder.layers.0.linear2.bias f4 [4]
0	0x3ec4acfe	0.38413233
1	0x3e330da1	0.17485668
2	0xbedb264f	-0.42802665
3	0x3f060928	0.5235772

encoder.layers.0.norm1.weight f4 [4]
0	0x3fd42c00	1.6575928
1	0x3f84af7c	1.0366054
2	0x3fbb9bfa	1.4656975
3	0x3f8cb325	1.099217

encoder.layers.0.norm1.bias f4 [4]
0	0x3f403a71	0.75089175
1	0xbdffcd91	-0.124903806
2	0xbf08372e	-0.532092
3	0x3e1a8c7a	0.1509265

encoder.layers.0.norm2.weight f4 [4]
0	0x3fb06cc5	1.3783194
1	0x3f34c510	0.70613194
2	0x3fc2e13b	1.5224985
3	0x3f2280f3	0.6347801

encoder.layers.0.norm2.bias f4 [4]
0	0x3e9b50c0	0.30335045
1	0x3e46cd20	0.19414186
2	0xbec14c6d	-0.3775362
3	0x3aa1db0e	0.0012348609

encoder.layers.1.self_attn.in_proj_weight f4 [12, 4]
0	0xbe8dd410	-0.27700853
1	0xbe8bf058	-0.27331805
2	0x3f5529bd	0.8326681
3	0xbe6fe54f	-0.23427318
4	0x3f55e9b3	0.8355972
5	0x3d3043d4	0.043033436
6	0xbf81b2a0	-1.0132637
7	0xbeb818e1	-0.3595648
8	0xbebdd12d	-0.3707365
9	0xbda483d7	-0.08032959
10	0x3e6fd9d1	0.23422934
11	0x3d7150d7	0.058914986
12	0x3f8c5982	1.0964816
13	0x3f1216a6	0.5706581
14	0xbf10ba57	-0.5653433
15	0x3d7c68b2	0.061623283
16	0x3f6614d2	0.8987552
17	0xbe4a269f	-0.19741295
18	0x3c7d1530	0.015446946
19	0xbece3958	-0.40278125
20	0xbec7d960	-0.3903303
21	0x3faa67f2	1.3312972
22	0xbe08729d	-0.13324971
23	0x3f727ee2	0.9472486
24	0x3e54bdf3	0.20775585
25	0xbf23c5ed	-0.63973886
26	0x3e7ddfd6	0.24792418
27	0xbecc6bdc	-0.3992604
28	0xbf9fbe00	-1.2479858
29	0x3f897221	1.0737954
30	0xbe2effd5	-0.1708978
31	0x3e6a2a00	0.22867584
32	0x3f3d6e60	0.73996544
33	0x3e48eb0c	0.19620913
34	0xbf41314d	-0.7546585
35	0x3f4e16e6	0.8050369
36	0xbf06d451	-0.5266772
37	0xbf6bd709	-0.9212499
38	0x3f5ce7fd	0.86291486
39	0x3ed5d586	0.41764468
40	0x3f41800f	0.75586027
41	0xbe16d466	-0.14729461
42	0xbf5eac11	-0.869813
43	0xbead6514	-0.3386618
44	0x3f0944da	0.53620684
45	0xbe2915cd	-0.16512223
46	0xbf7374a7	-0.9509987
47	0xbf3e5ec8	-0.74363375

encoder.layers.1.self_attn.in_proj_bias f4 [12]
0	0xbec9128e	-0.3927197
1	0x3f0c4e5c	0.54807067
2	0xbf00898c	-0.5020988
3	0x3ef71f4e	0.4826607
4	0xbd613a47	-0.05498722
5	0xbd8361d6	-0.06415145
6	0xbd0384b8	-0.032108992
7	0xbcef8a0a	-0.029240627
8	0x3e898969	0.26862648
9	0xbee2a65f	-0.44267556
10	0x3dc52e9f	0.09628033
11	0xbba8bfc8	-0.005149815

encoder.layers.1.self_attn.out_proj.weight f4 [4, 4]
0	0x3f79e7a8	0.97619104
1	0xbfba0830	-1.4533749
2	0x3f81f09f	1.0151557
3	0x3f479baf	0.7797193
4	0x3bbab4e6	0.0056978343
5	0x3df31a0b	0.11870202
6	0x3e979038	0.29602218
7	0x3ea9f642	0.33195692
8	0xbf08d10e	-0.5344399
9	0x3ea0f331	0.3143554
10	0xbefc9449	-0.49331883
11	0xbf6c7393	-0.9236385
12	0xbf1fb8db	-0.6239144
13	0x3dda4527	0.10657721
14	0xbddbd387	-0.10733705
15	0xbe268b2a	-0.16264024

encoder.layers.1.self_attn.out_proj.bias f4 [4]
0	0x3f46bfe5	0.7763656
1	0x3c540184	0.0129398145
2	0xbdfaf3e2	-0.12253548
3	0xbe9c16c6	-0.30486125

encoder.layers.1.linear1.weight f4 [4, 4]
0	0x3e4d7855	0.20065434
1	0x3ebd6f79	0.3699911
2	0xbeffabeb	-0.4993585
3	0xbe4cfd9c	-0.2001862
4	0xbf3442a5	-0.7041419
5	0xbbf109d4	-0.007355908
6	0xbf48e5b9	-0.7847553
7	0xbe252b55	-0.16129811
8	0xbeb13f93	-0.34618816
9	0xbeb40126	-0.35157126
10	0x3d969da4	0.07354286
11	0x3eb6f462	0.35733324
12	0xbe818be9	-0.25302055
13	0x3f82ff9c	1.0234256
14	0xbdb0f5b6	-0.08640616
15	0x3e6d8d54	0.23198444

encoder.layers.1.linear1.bias f4 [4]
0	0xbea5d05b	-0.32385525
1	0xbef0fa14	-0.47065794
2	0x3e64f0b9	0.22357453
3	0xbc241d5d	-0.010016766

encoder.layers.1.linear2.weight f4 [4, 4]
0	0x3f5725f6	0.840423
1	0x3f6fa8b0	0.9361677
2	0xbe6a974f	-0.22909282
3	0x3f04b3fb	0.5183713
4	0x3daef016	0.085418865
5	0xbbea38f5	-0.007147903
6	0xbee4de6d	-0.44700947
7	0x3d9a5376	0.0753545
8	0xbf4c5403	-0.7981569
9	0xbf670e1a	-0.9025589
10	0x3d3a9616	0.04555329
11	0x3dab130e	0.08353244
12	0xbe8f1e22	-0.27952677
13	0xbe7e1af2	-0.24814966
14	0x3ea902dc	0.33009994
15	0xbf295467	-0.6614441

encoder.layers.1.linear2.bias f4 [4]
0	0x3f12f040	0.5739784
1	0x3f22c130	0.6357603
2	0xbecfbf73	-0.40575752
3	0x3e585e1c	0.2112965

encoder.layers.1.norm1.weight f4 [4]
0	0x3fc516be	1.5397565
1	0x3f5bdf70	0.85887814
2	0x3facf87f	1.3513335
3	0x3f7a4dec	0.9777515

encoder.layers.1.norm1.bias f4 [4]
0	0x3f32e736	0.6988405
1	0x3e28d02f	0.16485666
2	0xbeacae38	-0.33726668
3	0x3cd605ac	0.026125751

encoder.layers.1.norm2.weight f4 [4]
0	0x3f5cf970	0.8631811
1	0x3f4efd20	0.8085499
2	0x3f426475	0.75934535
3	0x3f134d9b	0.5754029

encoder.layers.1.norm2.bias f4 [4]
0	0xbf3d4801	-0.73937994
1	0xbe528500	-0.20558548
2	0x3f351539	0.7073551
3	0xba1b4792	-0.00059234456

decoder.layers.0.self_attn.in_proj_weight f4 [12, 4]
0	0xbdf190f8	-0.11795229
1	0xbdf63db4	-0.12023488
2	0xbf0cacd8	-0.5495124
3	0xbf075bdf	-0.5287456
4	0xbdc43f38	-0.095823705
5	0x3c01c000	0.0079193115
6	0xbe8e6e52	-0.27818543
7	0x3e6c3770	0.23068023
8	0xbf0d198a	-0.55117095
9	0xbd2946d0	-0.041327298
10	0x3f09dd3f	0.5385322
11	0xbe7fc6ce	-0.24978182
12	0x3f0d8fb9	0.5529743
13	0x3e631874	0.22177297
14	0xbf0d79f6	-0.5526422
15	0x3ec65f60	0.3874464
16	0xbd90b880	-0.070664406
17	0xbe8bf6cb	-0.27336726
18	0x3efab812	0.4896856
19	0xbefd5dab	-0.49485525
20	0x3d869348	0.065710604
21	0xbe0349e8	-0.12821162
22	0x3edfe62a	0.4373029
23	0x3e2f0b00	0.1709404
24	0x3e96a7b4	0.29424822
25	0x3e5d7488	0.21626484
26	0xbe16cb58	-0.14726007
27	0xbe03e048	-0.12878525
28	0xbf013066	-0.50464475
29	0x3ea9e30e	0.3318104
30	0x3ef8f08e	0.4862103
31	0x3ed6873a	0.41900045
32	0xbdd03efc	-0.10168263
33	0x3f211d1e	0.62935054
34	0xbe05b060	-0.13055563
35	0x3ca8ef84	0.020622022
36	0xbf12e653	-0.57382697
37	0x3f3eb597	0.74495834
38	0x3e83c390	0.2573514
39	0x3d99cfae	0.07510315
40	0x3f200c80	0.62519073
41	0xbf861e14	-1.0477929
42	0xbf2b3320	-0.66874886
43	0xbf318280	-0.6933975
44	0x3df224c6	0.1182342
45	0xbf9ac253	-1.2090553
46	0xbf09f715	-0.5389264
47	0x3f195091	0.5988856

decoder.layers.0.self_attn.in_proj_bias f4 [12]
0	0x00000000	0.0
1	0x00000000	0.0
2	0x00000000	0.0
3	0x00000000	0.0
4	0x00000000	0.0
5	0x00000000	0.0
6	0x00000000	0.0
7	0x00000000	0.0
8	0xbf37df08	-0.71824694
9	0xbde47b74	-0.11156359
10	0xbdf57c09	-0.119865485
11	0xbed725c9	-0.42021015

decoder.layers.0.self_attn.out_proj.weight f4 [4, 4]
0	0x3e65c87c	0.2243976
1	0x3e15726c	0.1459443
2	0x3f341a7e	0.70352924
3	0xbe5544b5	-0.20826991
4	0xbf818d01	-1.0121156
5	0xbf149b70	-0.5804968
6	0x3f3fbee8	0.74900675
7	0xbf12cde2	-0.573454
8	0x3f256fec	0.64623904
9	0xbe31dad1	-0.17368628
10	0xbf202508	-0.62556505
11	0xbc52321a	-0.012829328
12	0xbf02de15	-0.5112012
13	0x3e836b6d	0.25667897
14	0xbeafd486	-0.3434183
15	0xbf4b61b8	-0.7944598

decoder.layers.0.self_attn.out_proj.bias f4 [4]
0	0xbba3e8dd	-0.0050021247
1	0xbeddbc0c	-0.4330753
2	0x3e1af841	0.15133764
3	0xbe19a7d4	-0.15005428

decoder.layers.0.multihead_attn.in_proj_weight f4 [12, 4]
0	0xbe52645c	-0.20546097
1	0xbdb9b8e0	-0.09068465
2	0x3bdb7d80	0.0066983104
3	0x3f014d8b	0.50508946
4	0x3d9c90b0	0.076447845
5	0x3f0c6a57	0.5484976
6	0x3ebfcb08	0.37459588
7	0xbec63894	-0.3871504
8	0x3e8c9f20	0.27465153
9	0xbedda2ee	-0.43288368
10	0xbe84e247	-0.25953886
11	0x3e386f74	0.18011266
12	0x3e4f0da8	0.20220053
13	0x3eeb38f6	0.45941895
14	0xbe49dd14	-0.19713241
15	0x3a807e00	0.0009803176
16	0x3ea16a40	0.31526375
17	0xbf179bc5	-0.5922206
18	0x3ee2adf6	0.44273347
19	0xbf01a26a	-0.5063845
20	0x3c0a4800	0.008440018
21	0xbdd53980	-0.10411358
22	0xbea52158	-0.32252002
23	0x3da5c2c8	0.08093792
24	0x3f01a245	0.5063823
25	0xbe374dfc	-0.17900842
26	0xbeba24ca	-0.36356193
27	0xbe67ea24	-0.22647911
28	0xbf1b6134	-0.60695195
29	0x3e8d8716	0.27642125
30	0xbe96944f	-0.29410025
31	0xbed13bfe	-0.40866083
32	0xbec7c29f	-0.39015672
33	0x3d33611b	0.04379378
34	0x3ecbe6ab	0.39824423
35	0x3e10afe2	0.14129594
36	0x3e6cf327	0.2313963
37	0xbe27d950	-0.16391492
38	0xbe8708c7	-0.26373884
39	0xbe9a9e53	-0.30198917
40	0x3f0921be	0.5356711
41	0xbd8e2b49	-0.0694185
42	0xbea83914	-0.32856047
43	0xbe1d8ba9	-0.15385307
44	0xbec172af	-0.3778281
45	0xbe3327e2	-0.17495683
46	0xbd48f27e	-0.049059384
47	0x3bb1012a	0.00540175

decoder.layers.0.multihead_attn.in_proj_bias f4 [12]
0	0x00000000	0.0
1	0x00000000	0.0
2	0x00000000	0.0
3	0x00000000	0.0
4	0x00000000	0.0
5	0x00000000	0.0
6	0x00000000	0.0
7	0x00000000	0.0
8	0x3e8ae71c	0.27129447
9	0xbdd9a4f3	-0.10627165
10	0xbe508453	-0.20362978
11	0x3d9f16be	0.077680096

decoder.layers.0.multihead_attn.out_proj.weight f4 [4, 4]
0	0xbc356328	-0.011071004
1	0x3c9d92c9	0.019235032
2	0x3d289a02	0.0411625
3	0xbc15d7e2	-0.009145709
4	0x3d8e50ac	0.06948981
5	0xbdb58bae	-0.088645324
6	0xbd4fc128	-0.050721318
7	0x3d28ec34	0.041240886
8	0x3cf80357	0.03027503
9	0xbd6f842b	-0.058475655
10	0xbc9c56d2	-0.019084368
11	0x3d223448	0.03960064
12	0xbbf8f644	-0.0075977165
13	0x3d90d80d	0.070724584
14	0x3dec518e	0.11538993
15	0xbd524d5f	-0.051343318

decoder.layers.0.multihead_attn.out_proj.bias f4 [4]
0	0x3df35f85	0.11883453
1	0xbdb3b671	-0.08775032
2	0xbc10935c	-0.008824196
3	0xbddbc2fe	-0.10730551

decoder.layers.0.linear1.weight f4 [4, 4]
0	0x3f122f73	0.5710365
1	0xbf4031f2	-0.7507621
2	0xbed31420	-0.41226292
3	0x3e754122	0.23950627
4	0x3e493ca4	0.19652039
5	0xbe991942	-0.29902083
6	0xbf156fde	-0.5837382
7	0x3f2ef72a	0.6834589
8	0x3e1c3915	0.1525615
9	0x3e9309a3	0.2871829
10	0x3de27800	0.110580444
11	0x3d444296	0.047915064
12	0xbe9be9ca	-0.30451804
13	0x3db9ffee	0.09082018
14	0xbf098f13	-0.5373394
15	0x3ec2b129	0.38025787

decoder.layers.0.linear1.bias f4 [4]
0	0xbdf52932	-0.11970748
1	0xbed9e672	-0.42558628
2	0xbecd46e7	-0.40093157
3	0xbf145181	-0.57936865

decoder.layers.0.linear2.weight f4 [4, 4]
0	0xbe13e142	-0.14441398
1	0xbf08c231	-0.5342131
2	0xbd532a94	-0.051554278
3	0xbeee43a1	-0.46535972
4	0x3f2b6809	0.6695562
5	0x3f1857cc	0.5950897
6	0xbe12d60f	-0.1433947
7	0x3f003f2e	0.50096405
8	0x3cc52322	0.024064604
9	0xbeedb143	-0.46424302
10	0x3db7ae8a	0.089688376
11	0xbd86a02f	-0.06573521
12	0xbe48a900	-0.19595718
13	0x3e971d77	0.29514667
14	0xbea2d92a	-0.31806308
15	0x3e0e705d	0.1391005

decoder.layers.0.linear2.bias f4 [4]
0	0x3e5d5c62	0.21617272
1	0xbe507e64	-0.20360714
2	0xbd23d9cc	-0.04000263
3	0x3e05e604	0.13076025

decoder.layers.0.norm1.weight f4 [4]
0	0x400a35c1	2.1595309
1	0x3fae2414	1.360476
2	0x3fc63e00	1.5487671
3	0x3f95aa69	1.169263

decoder.layers.0.norm1.bias f4 [4]
0	0xbdce3f2b	-0.10070642
1	0x3c4aef07	0.01238609
2	0x3e720184	0.2363339
3	0xbea3f34c	-0.32021558

decoder.layers.0.norm2.weight f4 [4]
0	0x3fc883c1	1.5665208
1	0x3f904519	1.1271087
2	0x3fee0110	1.8594074
3	0x3f9fa158	1.2471113

decoder.layers.0.norm2.bias f4 [4]
0	0x3e175d80	0.14781761
1	0xbcf80c75	-0.030279377
2	0x3dfffb91	0.12499154
3	0xbe7a1c2f	-0.24424814

decoder.layers.0.norm3.weight f4 [4]
0	0x3fc8bf9e	1.5683477
1	0x3fb1f10a	1.3901684
2	0x3fde9891	1.739031
3	0x3fa6ad62	1.3021662

decoder.layers.0.norm3.bias f4 [4]
0	0x3d691452	0.056904145
1	0xbe5f68a0	-0.21817255
2	0x3c01db4a	0.007925818
3	0x3df1a72e	0.11799465

decoder.layers.1.self_attn.in_proj_weight f4 [12, 4]
0	0xbdf190f8	-0.11795229
1	0xbdf63db4	-0.12023488
2	0xbf0cacd8	-0.5495124
3	0xbf075bdf	-0.5287456
4	0xbdc43f38	-0.095823705
5	0x3c01c000	0.0079193115
6	0xbe8e6e52	-0.27818543
7	0x3e6c3770	0.23068023
8	0xbf0d198a	-0.55117095
9	0xbd2946d0	-0.041327298
10	0x3f09dd3f	0.5385322
11	0xbe7fc6ce	-0.24978182
12	0x3f0d8fb9	0.5529743
13	0x3e631874	0.22177297
14	0xbf0d79f6	-0.5526422
15	0x3ec65f60	0.3874464
16	0xbd90b880	-0.070664406
17	0xbe8bf6cb	-0.27336726
18	0x3efab812	0.4896856
19	0xbefd5dab	-0.49485525
20	0x3d869348	0.065710604
21	0xbe0349e8	-0.12821162
22	0x3edfe62a	0.4373029
23	0x3e2f0b00	0.1709404
24	0x3e96a7b4	0.29424822
25	0x3e5d7488	0.21626484
26	0xbe16cb58	-0.14726007
27	0xbe03e048	-0.12878525
28	0xbf013066	-0.50464475
29	0x3ea9e30e	0.3318104
30	0x3ef8f08e	0.4862103
31	0x3ed6873a	0.41900045
32	0xbeac11e7	-0.33607408
33	0x3cef2e2f	0.029196827
34	0xbd339e93	-0.0438524
35	0xbf277fde	-0.65429485
36	0xbe4a8acf	-0.19779514
37	0x3e6fe4c3	0.2342711
38	0x3d4a0397	0.04931983
39	0xbf0c7532	-0.54866326
40	0xbe62c93a	-0.22147074
41	0xbbed2771	-0.007237368
42	0x3db9cf03	0.090726875
43	0xbebbe8df	-0.36701104
44	0xbc73c35a	-0.014878118
45	0xbcd60676	-0.026126128
46	0x3cb1d368	0.021707252
47	0x3cb37e85	0.021910915

decoder.layers.1.self_attn.in_proj_bias f4 [12]
0	0x00000000	0.0
1	0x00000000	0.0
2	0x00000000	0.0
3	0x00000000	0.0
4	0x00000000	0.0
5	0x00000000	0.0
6	0x00000000	0.0
7	0x00000000	0.0
8	0xbe704038	-0.23461998
9	0xbe8549eb	-0.26032957
10	0xbcdf94d3	-0.027292645
11	0x3b94f50a	0.0045458125

decoder.layers.1.self_attn.out_proj.weight f4 [4, 4]
0	0x3e268012	0.16259792
1	0x3e36964b	0.1783077
2	0x3e905db6	0.28196496
3	0x3d5cb2f2	0.053881593
4	0x3c254e2e	0.01008944
5	0xbcbb6101	-0.022873404
6	0x3e08ccde	0.133594
7	0x3d95c586	0.07313065
8	0xbdaf1085	-0.08548073
9	0xbe03bbd5	-0.12864621
10	0x3ddf8a37	0.10915034
11	0x3dbbc66f	0.091687076
12	0x3c527407	0.012845046
13	0x3dbe351c	0.092874736
14	0xbd0250be	-0.031815283
15	0xbda4f118	-0.080537975

decoder.layers.1.self_attn.out_proj.bias f4 [4]
0	0x3bed8b89	0.0072493
1	0x39a8dc24	0.00032207475
2	0xbdb6aee2	-0.08920075
3	0x3e1cef69	0.15325703

decoder.layers.1.multihead_attn.in_proj_weight f4 [12, 4]
0	0xbe52645c	-0.20546097
1	0xbdb9b8e0	-0.09068465
2	0x3bdb7d80	0.0066983104
3	0x3f014d8b	0.50508946
4	0x3d9c90b0	0.076447845
5	0x3f0c6a57	0.5484976
6	0x3ebfcb08	0.37459588
7	0xbec63894	-0.3871504
8	0x3e8c9f20	0.27465153
9	0xbedda2ee	-0.43288368
10	0xbe84e247	-0.25953886
11	0x3e386f74	0.18011266
12	0x3e4f0da8	0.20220053
13	0x3eeb38f6	0.45941895
14	0xbe49dd14	-0.19713241
15	0x3a807e00	0.0009803176
16	0x3ea16a40	0.31526375
17	0xbf179bc5	-0.5922206
18	0x3ee2adf6	0.44273347
19	0xbf01a26a	-0.5063845
20	0x3c0a4800	0.008440018
21	0xbdd53980	-0.10411358
22	0xbea52158	-0.32252002
23	0x3da5c2c8	0.08093792
24	0x3f01a245	0.5063823
25	0xbe374dfc	-0.17900842
26	0xbeba24ca	-0.36356193
27	0xbe67ea24	-0.22647911
28	0xbf1b6134	-0.60695195
29	0x3e8d8716	0.27642125
30	0xbe96944f	-0.29410025
31	0xbed13bfe	-0.40866083
32	0xbe5cb380	-0.21552849
33	0xbe540796	-0.20706019
34	0x3e493750	0.19650006
35	0xbe8d2286	-0.27565402
36	0x3ef1f6dc	0.4725865
37	0x3e15ea78	0.14640224
38	0xbf09434f	-0.5361833
39	0xbde6b82c	-0.11265597
40	0x3f17a614	0.5923779
41	0x3e6ba1d3	0.2301095
42	0xbecf4580	-0.40482712
43	0x3c18ea74	0.009333242
44	0xbebbe8e9	-0.36701134
45	0xbe300d74	-0.17192632
46	0xbe89b253	-0.26893863
47	0xbe99020b	-0.2988437

decoder.layers.1.multihead_attn.in_proj_bias f4 [12]
0	0x00000000	0.0
1	0x00000000	0.0
2	0x00000000	0.0
3	0x00000000	0.0
4	0x00000000	0.0
5	0x00000000	0.0
6	0x00000000	0.0
7	0x00000000	0.0
8	0x3e15e4c3	0.14638047
9	0xbe9da1ba	-0.3078745
10	0xbea1d168	-0.31605077
11	0x3d5bf6c4	0.05370213

decoder.layers.1.multihead_attn.out_proj.weight f4 [4, 4]
0	0xbca129ba	-0.019673217
1	0x3d176be0	0.036968112
2	0x3d003568	0.031300932
3	0x3b61b437	0.0034439692
4	0xbc7dc723	-0.015489372
5	0x3d97f906	0.07420544
6	0x3d44fcee	0.048092775
7	0x3d0f306c	0.034958288
8	0x3d7b50ea	0.061356463
9	0x3d50911c	0.050919637
10	0x3d3daf82	0.046309955
11	0xbb5b3db4	-0.0033453526
12	0x3e17e0ad	0.14831801
13	0xbc8c9fa5	-0.017165968
14	0x3ba84c6b	0.005136063
15	0xbd106aa5	-0.035257954

decoder.layers.1.multihead_attn.out_proj.bias f4 [4]
0	0xbdb75c6b	-0.08953174
1	0x3ca039e3	0.019558853
2	0x3c3eb4b1	0.01163976
3	0x3df9a6aa	0.12189992

decoder.layers.1.linear1.weight f4 [4, 4]
0	0x3f612d47	0.8795971
1	0xbe5b2ffa	-0.2140502
2	0xbeedec53	-0.46469364
3	0x3e244136	0.16040501
4	0x3f84aaec	1.0364661
5	0xbe9e8fff	-0.30969235
6	0xbf4c38c4	-0.7977412
7	0x3ea17476	0.31534165
8	0x3e3bd499	0.18342818
9	0x3e15a9ee	0.14615604
10	0x3d4b6958	0.04966101
11	0x3e238dd7	0.15972076
12	0xbd4fbdcd	-0.050718118
13	0xbf337c8b	-0.7011191
14	0xbdaebd75	-0.0853223
15	0x3f0ff1d6	0.5622839

decoder.layers.1.linear1.bias f4 [4]
0	0x3e90c3ac	0.28274286
1	0x3e0b70c0	0.1361723
2	0xbeb1d665	-0.34733883
3	0xbf09f1c4	-0.5388453

decoder.layers.1.linear2.weight f4 [4, 4]
0	0xbccbefb9	-0.024894582
1	0xbe537953	-0.2065175
2	0x3d9f3e02	0.07775499
3	0xbf22e431	-0.6362944
4	0x3eb6a092	0.3566938
5	0x3f87c450	1.0606785
6	0xbe80ba11	-0.25141957
7	0x3e00d133	0.12579803
8	0x3eef47d8	0.467345
9	0xbe6bec27	-0.23039304
10	0x3e2630e1	0.16229583
11	0x3d1b1e10	0.037870467
12	0xbf98d725	-1.1940657
13	0xbfd035c2	-1.6266406
14	0xbeb1ffae	-0.3476538
15	0xbe50438f	-0.20338272

decoder.layers.1.linear2.bias f4 [4]
0	0x3c7461d2	0.0149159
1	0xbcae407a	-0.02127098
2	0x3d266435	0.04062291
3	0xbc98d079	-0.018654095

decoder.layers.1.norm1.weight f4 [4]
0	0x3fdafced	1.7108437
1	0x3fc54736	1.5412357
2	0x3ff4f692	1.9137747
3	0x3fc2fe4c	1.5233855

decoder.layers.1.norm1.bias f4 [4]
0	0xbebb16d1	-0.36540845
1	0x3d737d37	0.059445586
2	0x3d06e0dc	0.032929286
3	0x3db2ea01	0.08736039

decoder.layers.1.norm2.weight f4 [4]
0	0x3fba1a4c	1.4539275
1	0x40078ce7	2.117975
2	0x3f82cd9e	1.0218999
3	0x3fc18389	1.5118266

decoder.layers.1.norm2.bias f4 [4]
0	0xbf725253	-0.94656867
1	0x3f54a265	0.83060294
2	0x3eaff16c	0.34363878
3	0xbf0af62d	-0.54281884

decoder.layers.1.norm3.weight f4 [4]
0	0x3f87577f	1.0573577
1	0xbcb0a862	-0.021564666
2	0x3f6cf86d	0.9256657
3	0x3ef2e5df	0.47441003

decoder.layers.1.norm3.bias f4 [4]
0	0xbd5c91a7	-0.053849842
1	0x3b9f6b11	0.004865058
2	0x3c4196c2	0.011815729
3	0xbda016f1	-0.07816876

linear_mapping.weight f4 [1, 4]
0	0xbf018376	-0.5059122
1	0xbc2bd169	-0.010486939
2	0x3ebfb8f3	0.37445793
3	0x3d971661	0.07377315

linear_mapping_with_gender_ind.weight f4 [1, 5]
0	0x3d64ba10	0.055841506
1	0xbeb401c3	-0.35157594
2	0x3d0ff4f8	0.03514573
3	0x3e9e8ea0	0.3096819
4	0x3ece54c0	0.40299034

exp_avg f4 [4, 5]
0	0xb6acb105	-5.1466072e-06
1	0xb6ab9742	-5.113806e-06
2	0xb6b0783b	-5.2592054e-06
3	0xb6b39e62	-5.353054e-06
4	0xb6adfe37	-5.1853963e-06
5	0xb82e7d87	-4.160174e-05
6	0xb82dffc2	-4.1484607e-05
7	0xb82fe207	-4.1933756e-05
8	0xb8311c2a	-4.222632e-05
9	0xb8327d74	-4.2555344e-05
10	0xb83afc88	-4.4581044e-05
11	0xb83afba8	-4.458023e-05
12	0xb83c9dc2	-4.4969616e-05
13	0xb83db790	-4.5232067e-05
14	0xb83fe648	-4.5752415e-05
15	0x3626c3ad	2.4849826e-06
16	0x362289bf	2.422006e-06
17	0x362c8446	2.570699e-06
18	0x363321e7	2.6692812e-06
19	0x361f6002	2.374873e-06

exp_avg_sq f4 [4, 5]
0	0x2eddabab	1.0080411e-10
1	0x2ee047be	1.01990846e-10
2	0x2ee2ea1b	1.03188756e-10
3	0x2ee6f1d7	1.05021485e-10
4	0x2ee649e6	1.0472316e-10
5	0x321aff45	9.022021e-09
6	0x321a4d0c	8.981498e-09
7	0x321db14f	9.178918e-09
8	0x321fdbf7	9.305032e-09
9	0x32225df5	9.451004e-09
10	0x321bf004	9.076761e-09
11	0x321bbbcb	9.064887e-09
12	0x321e89ee	9.228172e-09
13	0x322074a4	9.339747e-09
14	0x32243193	9.557328e-09
15	0x2e0d2fcc	3.210214e-11
16	0x2e0b0f82	3.1618715e-11
17	0x2e1aabfb	3.5168295e-11
18	0x2e222e73	3.687579e-11
19	0x2e051247	3.0256932e-11

exp_avg f4 [4]
0	0x3608abfb	2.0365685e-06
1	0x378f6d89	1.7097935e-05
2	0x3798293f	1.8139019e-05
3	0xb59b61f3	-1.1576907e-06

exp_avg_sq f4 [4]
0	0x2d90b97a	1.6453273e-11
1	0x30d1cd58	1.5265114e-09
2	0x30d16d70	1.5237855e-09
3	0x2cec0c7b	6.708909e-12

exp_avg f4 [4, 1]
0	0xbd246d32	-0.0401432
1	0x3d41cb5c	0.04731308
2	0xbcdc738e	-0.02691057
3	0x3d0d085e	0.034431808

exp_avg_sq f4 [4, 1]
0	0x3cdca5cf	0.026934532
1	0x3c902cb4	0.017599441
2	0x3cb830f5	0.022484282
3	0x3c389ca2	0.011267813

exp_avg f4 [4]
0	0x3c7a159c	0.015263941
1	0xbca4897c	-0.020085089
2	0x3c06a6d4	0.008218486
3	0xbc7434b2	-0.014905142

exp_avg_sq f4 [4]
0	0x3b94ecbe	0.0045448234
1	0x3b43c67d	0.0029872947
2	0x3b6e9c85	0.003640921
3	0x3b025456	0.0019886694

exp_avg f4 [12, 4]
0	0xb5a7c153	-1.2498734e-06
1	0xb56a3071	-8.7242285e-07
2	0x347b67e9	2.3413999e-07
3	0xb5ff35fc	-1.9014692e-06
4	0xb6831812	-3.9069064e-06
5	0xb6395118	-2.761435e-06
6	0x3546320f	7.383359e-07
7	0xb6d12248	-6.2326762e-06
8	0x36395cb9	2.762112e-06
9	0x360065d8	1.9132767e-06
10	0xb50a0cb4	-5.142749e-07
11	0x36900e4c	4.293199e-06
12	0xb6c7b6c2	-5.951938e-06
13	0xb683594b	-3.9144993e-06
14	0x358f009a	1.0654505e-06
15	0xb7179d7e	-9.03697e-06
16	0xb7d2d833	-2.5134626e-05
17	0x380a6483	3.2995373e-05
18	0x373d3d7c	1.1279593e-05
19	0xb472eb86	-2.2623689e-07
20	0x367b6cdb	3.7465277e-06
21	0xb6a62c59	-4.9523483e-06
22	0xb5e7c243	-1.7267379e-06
23	0x3314a603	3.4609922e-08
24	0x3767c540	1.3814599e-05
25	0xb797e6a2	-1.8108e-05
26	0xb6ce8808	-6.1551145e-06
27	0x340497e9	1.2348723e-07
28	0x37934a93	1.7558492e-05
29	0xb7c05f78	-2.293264e-05
30	0xb7019e3c	-7.725841e-06
31	0x3426ef07	1.5546912e-07
32	0xb4dc3bcb	-4.1021698e-07
33	0xb4a5b08d	-3.0862103e-07
34	0x3329311f	3.9393054e-08
35	0xb5852a10	-9.921514e-07
36	0x34331eec	1.6681923e-07
37	0x33e92563	1.08567086e-07
38	0xb2b587ca	-2.1132923e-08
39	0x34d37274	3.9385088e-07
40	0x338e2856	6.619727e-08
41	0x34bd7bd1	3.5294082e-07
42	0x332a2136	3.9611415e-08
43	0x34efd020	4.466865e-07
44	0x337bf2fa	5.8661477e-08
45	0x349eda1e	2.9588494e-07
46	0x3323b62f	3.811709e-08
47	0x34bbf38c	3.5008668e-07

exp_avg_sq f4 [12, 4]
0	0x2d108541	8.215041e-12
1	0x2c9a5843	4.3867423e-12
2	0x2aaae45b	3.035652e-13
3	0x2db9e3fe	2.1133314e-11
4	0x2eac0b28	7.823636e-11
5	0x2e2955cf	3.8502364e-11
6	0x2c3f564c	2.7190637e-12
7	0x2f5b5ecc	1.9951613e-10
8	0x2e2bc91f	3.905953e-11
9	0x2dabfaae	1.9551773e-11
10	0x2bc18ed1	1.3753114e-12
11	0x2edb76fb	9.980102e-11
12	0x2f45d548	1.7992818e-10
13	0x2ec3fcd4	8.9124846e-11
14	0x2cdd4a22	6.289428e-12
15	0x2ffc82e4	4.5931536e-10
16	0x3180eddf	3.752333e-09
17	0x31cebbbc	6.016732e-09
18	0x301af9df	5.637996e-10
19	0x2a88af7d	2.4280222e-13
20	0x2ebc8ea7	8.57459e-11
21	0x2f171968	1.3742396e-10
22	0x2d6318a9	1.2908932e-11
23	0x27c8424d	5.5583035e-15
24	0x309a86b5	1.1243261e-09
25	0x30f7c1cd	1.8026697e-09
26	0x2f399618	1.6878976e-10
27	0x29a3dadc	7.27662e-14
28	0x30f64ad1	1.792012e-09
29	0x3145a368	2.8760159e-09
30	0x2f9420c0	2.6944313e-10
31	0x2a026437	1.1581088e-13
32	0x2b5ea365	7.9097e-13
33	0x2aa9d751	3.0169836e-13
34	0x28a01e88	1.777681e-14
35	0x2c878884	3.852087e-12
36	0x2a604823	1.9920224e-13
37	0x29b53aba	8.048202e-14
38	0x29299e2e	3.7662737e-14
39	0x2b8900d7	9.734669e-13
40	0x2a357430	1.611634e-13
41	0x2acf1fe3	3.6792712e-13
42	0x29806e6f	5.703499e-14
43	0x2bcda715	1.4612501e-12
44	0x2ac22af4	3.4491127e-13
45	0x2ab5520b	3.2208988e-13
46	0x29ecd21b	1.0516953e-13
47	0x2c2d1294	2.4595092e-12

exp_avg f4 [12]
0	0xb4b8ddba	-3.4433998e-07
1	0xb591a36c	-1.0850904e-06
2	0x354b423b	7.571977e-07
3	0xb5d40e0f	-1.5799322e-06
4	0xa92d9a20	-3.85474e-14
5	0x2b16822d	5.347136e-13
6	0xabbf95fa	-1.3612993e-12
7	0xab45ec62	-7.0316507e-13
8	0xb43e2a72	-1.771057e-07
9	0x3397293e	7.038987e-08
10	0x33b43704	8.3919105e-08
11	0x33902c8c	6.7136256e-08

exp_avg_sq f4 [12]
0	0x2b36e0f6	6.4971585e-13
1	0x2cd16d2a	5.952257e-12
2	0x2c52e52a	2.9970007e-12
3	0x2d7198ee	1.3733221e-11
4	0x16bb125b	3.0223063e-25
5	0x17ea56ec	1.5143838e-24
6	0x1952f749	1.0906684e-23
7	0x185a3c8e	2.8206412e-24
8	0x2a09339d	1.2185951e-13
9	0x293742ed	4.069221e-14
10	0x29862d0e	5.958611e-14
11	0x29e8ba69	1.0335207e-13

exp_avg f4 [4, 4]
0	0xb5186a18	-5.67788e-07
1	0x34d871eb	4.0316021e-07
2	0xb5249e30	-6.1324954e-07
3	0xb4a5b0d4	-3.0862304e-07
4	0xb642a79b	-2.9005812e-06
5	0x35ef8bdb	1.7847591e-06
6	0xb658f568	-3.2329353e-06
7	0xb5dae2d6	-1.6308284e-06
8	0xb44035c6	-1.7900956e-07
9	0x34066366	1.2515883e-07
10	0xb468f0c8	-2.169428e-07
11	0xb3c2617c	-9.051561e-08
12	0xb5999aa4	-1.1444395e-06
13	0x3532650e	6.645722e-07
14	0xb5abbb65	-1.2795032e-06
15	0xb5339374	-6.689727e-07

exp_avg_sq f4 [4, 4]
0	0x2d24583b	9.341912e-12
1	0x2c9d9bc9	4.479504e-12
2	0x2d30fe4d	1.0060908e-11
3	0x2c2661bc	2.3644272e-12
4	0x2e0ac9d5	3.155683e-11
5	0x2d65d42b	1.3064254e-11
6	0x2e23d7bd	3.7253523e-11
7	0x2d22f194	9.262275e-12
8	0x2d788389	1.41263745e-11
9	0x2ce8050f	6.594398e-12
10	0x2d8339b7	1.4918606e-11
11	0x2c6bbd4f	3.3500596e-12
12	0x2d43bf81	1.1126989e-11
13	0x2ca368d2	4.644376e-12
14	0x2d628708	1.2876596e-11
15	0x2c5e7349	3.1612094e-12

exp_avg f4 [4]
0	0x3594258a	1.1037785e-06
1	0xb587f455	-1.0129394e-06
2	0x345b3412	2.0414907e-07
3	0xb52a63d2	-6.347519e-07

exp_avg_sq f4 [4]
0	0x2d6cb0b7	1.3454285e-11
1	0x2cf83771	7.054739e-12
2	0x2b8823c4	9.673308e-13
3	0x2c2e1b9f	2.474222e-12

exp_avg f4 [4, 4]
0	0x33ce8d1d	9.618291e-08
1	0xb4da2f86	-4.0640242e-07
2	0x359c43aa	1.1642599e-06
3	0xb517352d	-5.6329264e-07
4	0x342157e1	1.5026264e-07
5	0xb4e9eaa5	-4.3570358e-07
6	0x35d1464b	1.5592171e-06
7	0xb56caf62	-8.8172067e-07
8	0x33a0703e	7.470997e-08
9	0xb398aa4c	-7.1090284e-08
10	0xb43597e6	-1.6912199e-07
11	0x342e5bba	1.6238383e-07
12	0xab18bee2	-5.426615e-13
13	0x2d66d928	1.3122205e-11
14	0xad88d473	-1.5555756e-11
15	0x28c99c8f	2.238338e-14

exp_avg_sq f4 [4, 4]
0	0x2bc4531d	1.3949706e-12
1	0x2beb6e7c	1.672842e-12
2	0x2d2d246b	9.841998e-12
3	0x2bc32159	1.3864839e-12
4	0x29b31133	7.9521804e-14
5	0x2b3bd987	6.6737626e-13
6	0x2d14297f	8.42204e-12
7	0x2c3c5ca9	2.6767844e-12
8	0x284dd18f	1.1425227e-14
9	0x2839c05d	1.0311275e-14
10	0x297f39e8	5.66716e-14
11	0x29684921	5.1577778e-14
12	0x25b0f928	3.0699968e-16
13	0x282b89a2	9.522251e-15
14	0x289be580	1.7307987e-14
15	0x241e0141	3.426185e-17

exp_avg f4 [4]
0	0xb4f7b809	-4.6141238e-07
1	0xb529db2f	-6.327636e-07
2	0x33b837a4	8.578289e-08
3	0x2d06209b	7.624258e-12

exp_avg_sq f4 [4]
0	0x2bc5b6b3	1.4048401e-12
1	0x2bc3544f	1.3878984e-12
2	0x2881ddd8	1.4418086e-14
3	0x275dea69	3.0796985e-15

exp_avg f4 [4, 4]
0	0xb5994742	-1.1420127e-06
1	0xb3dbe350	-1.023933e-07
2	0x310ea59a	2.0757853e-09
3	0x2c8041c8	3.645282e-12
4	0x351d43da	5.8585795e-07
5	0x33672b36	5.382318e-08
6	0x338b014e	6.472929e-08
7	0xabf31e8b	-1.7274666e-12
8	0x349b3137	2.8906808e-07
9	0x3277c741	1.4422597e-08
10	0xafb57800	-3.3008973e-10
11	0xaac47487	-3.489745e-13
12	0x35063cc6	5.0007327e-07
13	0x32fbe9f3	2.9326634e-08
14	0x338ae8c5	6.468466e-08
15	0xabd89e9a	-1.5391744e-12

exp_avg_sq f4 [4, 4]
0	0x2d573a65	1.2234301e-11
1	0x29363669	4.045931e-14
2	0x25ddfb25	3.850757e-16
3	0x261f4c7e	5.5267873e-16
4	0x2cc8ff11	5.71266e-12
5	0x28803175	1.4232303e-14
6	0x2836f953	1.0157093e-14
7	0x250feb94	1.248309e-16
8	0x2acc7d2b	3.6324532e-13
9	0x2669f805	8.1174243e-16
10	0x22b1e1ec	4.821515e-18
11	0x224978da	2.7304558e-18
12	0x2bafdbe5	1.2495531e-12
13	0x2760df41	3.120727e-15
14	0x281748e7	8.397992e-15
15	0x24a43f1e	7.123059e-17

exp_avg f4 [4]
0	0xb5aa0727	-1.2668069e-06
1	0x3438f5d4	1.7225767e-07
2	0xb3cded60	-9.589235e-08
3	0xb4eb4c2c	-4.3827583e-07

exp_avg_sq f4 [4]
0	0x2df1b098	2.7476951e-11
1	0x2e478f00	4.537437e-11
2	0x2e5adfa5	4.9766097e-11
3	0x2e225a8a	3.691495e-11

exp_avg f4 [4]
0	0x359849b4	1.1346333e-06
1	0x362e056a	2.5931172e-06
2	0xb5f3506b	-1.8128316e-06
3	0xb5be8e1c	-1.4197462e-06

exp_avg_sq f4 [4]
0	0x2e9f4410	7.242573e-11
1	0x2e591bb5	4.9364696e-11
2	0x2e956d7c	6.795184e-11
3	0x2dbe9a62	2.1669059e-11

exp_avg f4 [4]
0	0x33869b0c	6.268064e-08
1	0x34ab0988	3.1858167e-07
2	0x354137f0	7.19795e-07
3	0xb5491542	-7.490927e-07

exp_avg_sq f4 [4]
0	0x2dde41aa	2.5267639e-11
1	0x2e34d1d6	4.1113633e-11
2	0x2e832973	5.964553e-11
3	0x2e14942c	3.3782907e-11

exp_avg f4 [4]
0	0x35f8a8fb	1.852662e-06
1	0x36527d7e	3.1365485e-06
2	0x348b1718	2.590757e-07
3	0xb6098886	-2.0494058e-06

exp_avg_sq f4 [4]
0	0x2fcb6315	3.6995887e-10
1	0x2f0f49ac	1.3031948e-10
2	0x2fd88238	3.9382697e-10
3	0x2e4d2736	4.664643e-11

exp_avg f4 [4]
0	0xb12e3c00	-2.5354439e-09
1	0x32ea49a0	2.7274666e-08
2	0xb501d000	-4.8358925e-07
3	0xb618ca36	-2.2767467e-06

exp_avg_sq f4 [4]
0	0x2f38d739	1.6811165e-10
1	0x2f1e66eb	1.440658e-10
2	0x2f7cbb70	2.2985858e-10
3	0x2f026493	1.1859162e-10

exp_avg f4 [12, 4]
0	0xb3c158fa	-9.0034476e-08
1	0xb303cc02	-3.068636e-08
2	0x340064c3	1.1957586e-07
3	0x322d836c	1.0099807e-08
4	0x34abd636	3.200709e-07
5	0x333eef1e	4.4455298e-08
6	0xb4ccde6b	-3.815979e-07
7	0xb19a5299	-4.49138e-09
8	0xb43dc23e	-1.7672662e-07
9	0xb2c739e8	-2.3192982e-08
10	0x34619e3c	2.1012323e-07
11	0x30e711a3	1.6812475e-09
12	0x3510b247	5.390361e-07
13	0x339efba4	7.4032215e-08
14	0xb52c40e3	-6.4169416e-07
15	0xb1fb6e73	-7.317618e-09
16	0x345b4e30	2.0424409e-07
17	0xb51f2e3d	-5.92994e-07
18	0xb37469c3	-5.6906867e-08
19	0x34e6812e	4.293483e-07
20	0xb4a71955	-3.1124605e-07
21	0x357b1913	9.3541274e-07
22	0x33b82cec	8.576339e-08
23	0xb53708be	-6.8185534e-07
24	0x34066733	1.2517266e-07
25	0xb4c8271c	-3.728136e-07
26	0xb309c0ba	-3.2073082e-08
27	0x349151d8	2.7067904e-07
28	0xb497990f	-2.8237307e-07
29	0x35611350	8.3847135e-07
30	0x33a0bfc9	7.485466e-08
31	0xb52393d1	-6.0937333e-07
32	0xb4d44364	-3.953711e-07
33	0xb4e95c35	-4.3466721e-07
34	0x35a45e70	1.2246437e-06
35	0x31884740	3.966221e-09
36	0x35dda53f	1.6513876e-06
37	0x355b0062	8.1584415e-07
38	0xb6809534	-3.832067e-06
39	0x3498d14e	2.8464495e-07
40	0x350c368e	5.223345e-07
41	0x34f73698	4.6047057e-07
42	0xb5dcfdb6	-1.6465117e-06
43	0x33e39358	1.0597313e-07
44	0x3602d2a8	1.9494128e-06
45	0x35a614f9	1.2374068e-06
46	0xb6a0a6b8	-4.78778e-06
47	0x3462d340	2.1124742e-07

exp_avg_sq f4 [12, 4]
0	0x2b5ea5a3	7.910011e-13
1	0x2889e3fd	1.530893e-14
2	0x2c1b0644	2.2030303e-12
3	0x298b7290	6.1927134e-14
4	0x2bc3d82d	1.3915584e-12
5	0x29017cb2	2.875191e-14
6	0x2c40d1cd	2.7401304e-12
7	0x29034472	2.914721e-14
8	0x2adb9b82	3.901012e-13
9	0x28072442	7.5018676e-15
10	0x2b4d64ad	7.2970346e-13
11	0x27ed7a58	6.591336e-15
12	0x2c73554c	3.4579726e-12
13	0x299f864d	7.084316e-14
14	0x2cedfbc5	6.763897e-12
15	0x299e545c	7.0312435e-14
16	0x2c382b88	2.6172137e-12
17	0x2c2c3a03	2.4474873e-12
18	0x2ad4e622	3.7818452e-13
19	0x2c015e73	1.8384432e-12
20	0x2ccbc873	5.7918613e-12
21	0x2cdcec79	6.27903e-12
22	0x2b7afad7	8.916595e-13
23	0x2c98eb45	4.34622e-12
24	0x2b518ea7	7.4449686e-13
25	0x2b858026	9.485787e-13
26	0x29f02215	1.0664053e-13
27	0x2b38da50	6.56729e-13
28	0x2c94d821	4.230408e-12
29	0x2cb09f31	5.0198947e-12
30	0x2b3866f0	6.5512786e-13
31	0x2c6d17b8	3.3692892e-12
32	0x2e1317ff	3.3445243e-11
33	0x2cb56c70	5.1563684e-12
34	0x2f197efe	1.3960386e-10
35	0x2b955130	1.0609621e-12
36	0x2ed7c628	9.812268e-11
37	0x2d9bba6a	1.7704244e-11
38	0x2ff7fc20	4.5108184e-10
39	0x2c517b77	2.9769223e-12
40	0x2d26bad1	9.477489e-12
41	0x2be7f4e1	1.6481505e-12
42	0x2e2d11b2	3.9351362e-11
43	0x2a870382	2.3983251e-13
44	0x2eedeb01	1.0819257e-10
45	0x2da6b4d4	1.8952319e-11
46	0x300482e7	4.8207344e-10
47	0x2c63d005	3.2374114e-12

exp_avg f4 [12]
0	0xb33da1d5	-4.4152177e-08
1	0x3420e5ce	1.4984764e-07
2	0xb3b18ab5	-8.2674354e-08
3	0x34876c55	2.5224531e-07
4	0xab106e27	-5.1311944e-13
5	0x2b3d11d0	6.717101e-13
6	0xaaa15ae7	-2.866242e-13
7	0x2aa5e105	2.9466027e-13
8	0xb4ddd1fa	-4.1317236e-07
9	0x35b3727a	1.3369856e-06
10	0x350f1ec0	5.33164e-07
11	0x35da7e9b	1.6279113e-06

exp_avg_sq f4 [12]
0	0x2aa8624a	2.9910997e-13
1	0x2adb4af3	3.895422e-13
2	0x29ec7511	1.0500813e-13
3	0x2b879f6d	9.636576e-13
4	0x194a5199	1.0459634e-23
5	0x19d08f26	2.1564513e-23
6	0x1866434b	2.9760778e-24
7	0x19923e76	1.5121274e-23
8	0x2d924262	1.6627758e-11
9	0x2e66c1a9	5.246795e-11
10	0x2ca476fa	4.6743694e-12
11	0x2e79dfa8	5.6814692e-11

exp_avg f4 [4, 4]
0	0xb686c2c2	-4.016184e-06
1	0x36974989	4.5087113e-06
2	0xb684e2fc	-3.960331e-06
3	0xb6797962	-3.7174545e-06
4	0x371ac577	9.225091e-06
5	0xb72c508b	-1.0270752e-05
6	0x3710c2f3	8.628459e-06
7	0x3707be90	8.090996e-06
8	0xb6d229c2	-6.263349e-06
9	0x36fd62c8	7.551487e-06
10	0xb6d6ce6f	-6.401729e-06
11	0xb6ccf3fd	-6.1080777e-06
12	0x3607fc2a	2.0263346e-06
13	0xb6542534	-3.1612117e-06
14	0x361a1102	2.2957688e-06
15	0x361bac08	2.3196935e-06

exp_avg_sq f4 [4, 4]
0	0x3005ed0a	4.872197e-10
1	0x3037cbcb	6.686462e-10
2	0x302deafa	6.3270955e-10
3	0x30146035	5.3978805e-10
4	0x30cdec6a	1.4982906e-09
5	0x310c572a	2.0422228e-09
6	0x30fae1b8	1.8254047e-09
7	0x30d3ae91	1.5401885e-09
8	0x30a679e5	1.2112734e-09
9	0x30d71711	1.5649865e-09
10	0x30b75d61	1.3341542e-09
11	0x3098f039	1.1127731e-09
12	0x30556a45	7.7639967e-10
13	0x3085826c	9.714092e-10
14	0x3063db2e	8.289359e-10
15	0x303e4a86	6.92275e-10

exp_avg f4 [4]
0	0xb5463f22	-7.385262e-07
1	0x356d453a	8.839012e-07
2	0x34668fa0	2.147267e-07
3	0xb63c7520	-2.8082359e-06

exp_avg_sq f4 [4]
0	0x2ee51d66	1.04189365e-10
1	0x2f945026	2.6977992e-10
2	0x2f86dd53	2.4531718e-10
3	0x2f5074fc	1.8959051e-10

exp_avg f4 [4, 4]
0	0xb76ac29e	-1.39928e-05
1	0x34924458	2.7244346e-07
2	0x37029633	7.783575e-06
3	0x359961ae	1.1427817e-06
4	0x35ee6073	1.7760452e-06
5	0x35bfd55e	1.4292707e-06
6	0xb6024103	-1.9409351e-06
7	0xb5828686	-9.724906e-07
8	0x00000004	6e-45
9	0x80000004	-6e-45
10	0x80000004	-6e-45
11	0x00000004	6e-45
12	0x37d1bf0a	2.5003701e-05
13	0x370f2926	8.533045e-06
14	0xb7d39742	-2.5223595e-05
15	0xb644aec3	-2.9308e-06

exp_avg_sq f4 [4, 4]
0	0x31befe62	5.5586478e-09
1	0x2f845cff	2.4076738e-10
2	0x3180d1ea	3.7491548e-09
3	0x2f1380a5	1.3415276e-10
4	0x30f80a5d	1.804732e-09
5	0x2fec6574	4.3000237e-10
6	0x318c6f4b	4.087189e-09
7	0x2e91803d	6.616616e-11
8	0x042fd677	2.0669629e-36
9	0x03feeb9e	1.4982873e-36
10	0x0562a7cf	1.06572905e-35
11	0x032f84c0	5.1580267e-37
12	0x31db46a1	6.3817684e-09
13	0x30bdcca9	1.3809728e-09
14	0x32485160	1.1660035e-08
15	0x2f17f394	1.3819906e-10

exp_avg f4 [4]
0	0xb68f8ab8	-4.277881e-06
1	0x35749528	9.1114134e-07
2	0x80000004	-6e-45
3	0x37325de8	1.0631491e-05

exp_avg_sq f4 [4]
0	0x305643b9	7.7948986e-10
1	0x30211277	5.85977e-10
2	0x0485330e	3.1315036e-36
3	0x30f5717e	1.7858353e-09

exp_avg f4 [4, 4]
0	0xb6ec7164	-7.0465485e-06
1	0x3553c1f4	7.8885864e-07
2	0x80000004	-6e-45
3	0x36c2683e	5.793786e-06
4	0x37ae57fa	2.0783384e-05
5	0x349716bf	2.8142492e-07
6	0x00000004	6e-45
7	0x35928a14	1.0918034e-06
8	0x36101ae8	2.1473334e-06
9	0x3557f371	8.0447995e-07
10	0x80000004	-6e-45
11	0x365a78f4	3.2554935e-06
12	0x3617ebc0	2.2637978e-06
13	0xb59a49ae	-1.1495338e-06
14	0x80000004	-6e-45
15	0xb619254e	-2.282049e-06

exp_avg_sq f4 [4, 4]
0	0x3221bd37	9.414456e-09
1	0x2f03162d	1.1922259e-10
2	0x03e5cb3a	1.3506069e-36
3	0x3058c3d5	7.8858636e-10
4	0x327d8fb8	1.4759216e-08
5	0x2f1a93db	1.4058747e-10
6	0x032f9100	5.159433e-37
7	0x3062598b	8.234557e-10
8	0x320d5650	8.226905e-09
9	0x2e2e0cbb	3.9574326e-11
10	0x0441114d	2.2694985e-36
11	0x2fbbf5bd	3.418971e-10
12	0x31bf22e8	5.5628e-09
13	0x2e7072c7	5.4671625e-11
14	0x0473a31d	2.863941e-36
15	0x2fffe326	4.6545628e-10

exp_avg f4 [4]
0	0xb61e08d0	-2.3548964e-06
1	0x3759c744	1.2980603e-05
2	0x354da5a0	7.660947e-07
3	0x35a85ef0	1.2544606e-06

exp_avg_sq f4 [4]
0	0x320539b0	7.7547355e-09
1	0x3244d29f	1.1456591e-08
2	0x31ceb366	6.0157843e-09
3	0x31ad99bb	5.05244e-09

exp_avg f4 [4]
0	0xb7956fb7	-1.7814205e-05
1	0x3706053b	7.98824e-06
2	0x371ec952	9.464407e-06
3	0xb4f968d0	-4.6456125e-07

exp_avg_sq f4 [4]
0	0x32701be7	1.3976183e-08
1	0x3020b56a	5.8465466e-10
2	0x322ace26	9.942175e-09
3	0x308dec53	1.0326268e-09

exp_avg f4 [4]
0	0xb76b6e61	-1.4032791e-05
1	0x37d30f78	2.5160363e-05
2	0xb70c89e4	-8.376755e-06
3	0x36d96ea6	6.479985e-06

exp_avg_sq f4 [4]
0	0x31e4eb14	6.6623986e-09
1	0x3245961c	1.150104e-08
2	0x320124d1	7.517159e-09
3	0x31a357d8	4.753911e-09

exp_avg f4 [4]
0	0xba2c1654	-0.00065646064
1	0xb7f6c626	-2.9417755e-05
2	0xb9cd1a8a	-0.0003912042
3	0xb82e51f6	-4.1561165e-05

exp_avg_sq f4 [4]
0	0x3685bb20	3.985493e-06
1	0x3267c449	1.34906e-08
2	0x362dc335	2.5892634e-06
3	0x32f27c13	2.822893e-08

exp_avg f4 [4]
0	0xb9ee7c1e	-0.00045487372
1	0xb85d829d	-5.281215e-05
2	0x399f9890	0.0003044051
3	0x38d80e9a	0.000103024024

exp_avg_sq f4 [4]
0	0x36071fa8	2.0134994e-06
1	0x34335c75	1.670431e-07
2	0x35bb4629	1.3953005e-06
3	0x349fbd49	2.975378e-07

exp_avg f4 [12, 4]
0	0x00000000	0.0
1	0x00000000	0.0
2	0x00000000	0.0
3	0x00000000	0.0
4	0x00000000	0.0
5	0x00000000	0.0
6	0x00000000	0.0
7	0x00000000	0.0
8	0x00000000	0.0
9	0x00000000	0.0
10	0x00000000	0.0
11	0x00000000	0.0
12	0x00000000	0.0
13	0x00000000	0.0
14	0x00000000	0.0
15	0x00000000	0.0
16	0x00000000	0.0
17	0x00000000	0.0
18	0x00000000	0.0
19	0x00000000	0.0
20	0x00000000	0.0
21	0x00000000	0.0
22	0x00000000	0.0
23	0x00000000	0.0
24	0x00000000	0.0
25	0x00000000	0.0
26	0x00000000	0.0
27	0x00000000	0.0
28	0x00000000	0.0
29	0x00000000	0.0
30	0x00000000	0.0
31	0x00000000	0.0
32	0xba7071b1	-0.0009172215
33	0x39c5a762	0.00037699478
34	0x3a442ca8	0.0007483461
35	0x3a6b0af9	0.00089661736
36	0xb83941f0	-4.4168846e-05
37	0x37a22d28	1.9332932e-05
38	0xb8cbaf24	-9.712417e-05
39	0xb9aa9d7c	-0.00032542262
40	0x3adf8762	0.0017053897
41	0xb930a324	-0.00016845443
42	0x39de92a0	0.00042452384
43	0xbafa0d67	-0.001907748
44	0xba31e219	-0.00067857053
45	0x39a86362	0.00032117503
46	0x3a71e96c	0.0009228203
47	0x3a892432	0.0010463058

exp_avg_sq f4 [12, 4]
0	0x00000000	0.0
1	0x00000000	0.0
2	0x00000000	0.0
3	0x00000000	0.0
4	0x00000000	0.0
5	0x00000000	0.0
6	0x00000000	0.0
7	0x00000000	0.0
8	0x00000000	0.0
9	0x00000000	0.0
10	0x00000000	0.0
11	0x00000000	0.0
12	0x00000000	0.0
13	0x00000000	0.0
14	0x00000000	0.0
15	0x00000000	0.0
16	0x00000000	0.0
17	0x00000000	0.0
18	0x00000000	0.0
19	0x00000000	0.0
20	0x00000000	0.0
21	0x00000000	0.0
22	0x00000000	0.0
23	0x00000000	0.0
24	0x00000000	0.0
25	0x00000000	0.0
26	0x00000000	0.0
27	0x00000000	0.0
28	0x00000000	0.0
29	0x00000000	0.0
30	0x00000000	0.0
31	0x00000000	0.0
32	0x385332bc	5.035357e-05
33	0x37e5e850	2.7407106e-05
34	0x387906bc	5.9372498e-05
35	0x384b0f5f	4.8413287e-05
36	0x368cd5ec	4.197229e-06
37	0x3621ce7d	2.4111062e-06
38	0x37024edf	7.766967e-06
39	0x36df21f0	6.6498687e-06
40	0x381c5bc5	3.7278765e-05
41	0x37c5177d	2.3495168e-05
42	0x383d295c	4.509963e-05
43	0x3887bf7b	6.472968e-05
44	0x37782fe6	1.4793104e-05
45	0x370645b6	8.003253e-06
46	0x37c2d60c	2.3226276e-05
47	0x37adbad7	2.0710211e-05

exp_avg f4 [12]
0	0x00000000	0.0
1	0x00000000	0.0
2	0x00000000	0.0
3	0x00000000	0.0
4	0x00000000	0.0
5	0x00000000	0.0
6	0x00000000	0.0
7	0x00000000	0.0
8	0x3a122888	0.00055754976
9	0x3ab32e00	0.0013670325
10	0x3c94b04e	0.018150475
11	0x399a3000	0.00029408932

exp_avg_sq f4 [12]
0	0x00000000	0.0
1	0x00000000	0.0
2	0x00000000	0.0
3	0x00000000	0.0
4	0x00000000	0.0
5	0x00000000	0.0
6	0x00000000	0.0
7	0x00000000	0.0
8	0x3a9fc70d	0.0012190059
9	0x392f8146	0.00016737459
10	0x3b168852	0.0022969437
11	0x39e2afd7	0.0004323709

exp_avg f4 [4, 4]
0	0xbc3d2933	-0.011545467
1	0xbb212122	-0.00245864
2	0x39b64ebc	0.00034772407
3	0xbbf6e35e	-0.0075344285
4	0xba16e342	-0.000575591
5	0xba1d8ad8	-0.0006009764
6	0x3a54405e	0.00080967497
7	0xb8af3148	-8.3538296e-05
8	0x3bb1b07d	0.0054226504
9	0x3aadbdec	0.0013255454
10	0xba160e15	-0.0005724144
11	0x3b60adc8	0.003428327
12	0x3b822cd1	0.0039726277
13	0x378e8e80	1.6994076e-05
14	0x3b027a3c	0.0019909283
15	0x3b3d4cdd	0.0028884925

exp_avg_sq f4 [4, 4]
0	0x3a6970a5	0.000890503
1	0x38ca29ed	9.63992e-05
2	0x3918ed8f	0.00014584347
3	0x39a0cc81	0.00030669945
4	0x393267e6	0.00017014108
5	0x37c0739a	2.2942015e-05
6	0x38f921c2	0.00011879533
7	0x3904bb4e	0.00012658277
8	0x39dacdb7	0.0004173347
9	0x37f11184	2.8737595e-05
10	0x396a5e58	0.00022351125
11	0x39ace9df	0.00032980644
12	0x39a00a41	0.00030525218
13	0x3870dceb	5.7426205e-05
14	0x38bfd536	9.147303e-05
15	0x3893b376	7.0429334e-05

exp_avg f4 [4]
0	0xbc8727c3	-0.016498452
1	0x3aba7ffc	0.0014228816
2	0x3c28603f	0.010276853
3	0xb6a74800	-4.9853697e-06

exp_avg_sq f4 [4]
0	0x3b41912f	0.0029536
1	0x39a1bb12	0.0003084769
2	0x3b0f1b83	0.0021836467
3	0x3a1408d6	0.00056470686

exp_avg f4 [12, 4]
0	0x00000000	0.0
1	0x00000000	0.0
2	0x00000000	0.0
3	0x00000000	0.0
4	0x00000000	0.0
5	0x00000000	0.0
6	0x00000000	0.0
7	0x00000000	0.0
8	0x00000000	0.0
9	0x00000000	0.0
10	0x00000000	0.0
11	0x00000000	0.0
12	0x00000000	0.0
13	0x00000000	0.0
14	0x00000000	0.0
15	0x00000000	0.0
16	0x00000000	0.0
17	0x00000000	0.0
18	0x00000000	0.0
19	0x00000000	0.0
20	0x00000000	0.0
21	0x00000000	0.0
22	0x00000000	0.0
23	0x00000000	0.0
24	0x00000000	0.0
25	0x00000000	0.0
26	0x00000000	0.0
27	0x00000000	0.0
28	0x00000000	0.0
29	0x00000000	0.0
30	0x00000000	0.0
31	0x00000000	0.0
32	0xb82b876a	-4.089569e-05
33	0x360f58dc	2.1360383e-06
34	0x37fd24a2	3.0177009e-05
35	0x374393be	1.1657305e-05
36	0xb904a2ac	-0.00012649101
37	0x3808f3fe	3.2652162e-05
38	0x38229950	3.8766593e-05
39	0x385826a2	5.1534393e-05
40	0xb951f500	-0.00020023063
41	0x38535367	5.0383995e-05
42	0x388617a9	6.394025e-05
43	0x38a9fa7e	8.105206e-05
44	0x38ad134f	8.252879e-05
45	0xb7904130	-1.7196493e-05
46	0xb804f90f	-3.1703206e-05
47	0xb8082827	-3.246232e-05

exp_avg_sq f4 [12, 4]
0	0x00000000	0.0
1	0x00000000	0.0
2	0x00000000	0.0
3	0x00000000	0.0
4	0x00000000	0.0
5	0x00000000	0.0
6	0x00000000	0.0
7	0x00000000	0.0
8	0x00000000	0.0
9	0x00000000	0.0
10	0x00000000	0.0
11	0x00000000	0.0
12	0x00000000	0.0
13	0x00000000	0.0
14	0x00000000	0.0
15	0x00000000	0.0
16	0x00000000	0.0
17	0x00000000	0.0
18	0x00000000	0.0
19	0x00000000	0.0
20	0x00000000	0.0
21	0x00000000	0.0
22	0x00000000	0.0
23	0x00000000	0.0
24	0x00000000	0.0
25	0x00000000	0.0
26	0x00000000	0.0
27	0x00000000	0.0
28	0x00000000	0.0
29	0x00000000	0.0
30	0x00000000	0.0
31	0x00000000	0.0
32	0x34971fcc	2.8149077e-07
33	0x32d9a532	2.5337247e-08
34	0x34032344	1.2213155e-07
35	0x32e3a172	2.6499695e-08
36	0x3485179d	2.479036e-07
37	0x329e9a1a	1.8463698e-08
38	0x33ccf5d5	9.544207e-08
39	0x32fe39d7	2.9595794e-08
40	0x345fe313	2.0851103e-07
41	0x32738899	1.417552e-08
42	0x339de19a	7.351919e-08
43	0x32e3bbf3	2.6511747e-08
44	0x33ffcf7c	1.1912104e-07
45	0x3237d299	1.0699886e-08
46	0x33618cd7	5.2514988e-08
47	0x326999e8	1.3597379e-08

exp_avg f4 [12]
0	0x00000000	0.0
1	0x00000000	0.0
2	0x00000000	0.0
3	0x00000000	0.0
4	0x00000000	0.0
5	0x00000000	0.0
6	0x00000000	0.0
7	0x00000000	0.0
8	0xb8b034e2	-8.402184e-05
9	0xb9807d58	-0.0002450745
10	0xb9c32876	-0.00037223444
11	0x3932aa7f	0.00017038918

exp_avg_sq f4 [12]
0	0x00000000	0.0
1	0x00000000	0.0
2	0x00000000	0.0
3	0x00000000	0.0
4	0x00000000	0.0
5	0x00000000	0.0
6	0x00000000	0.0
7	0x00000000	0.0
8	0x35c47b41	1.463901e-06
9	0x35956caa	1.113299e-06
10	0x35690a95	8.681466e-07
11	0x3520284e	5.9663296e-07

exp_avg f4 [4, 4]
0	0x39571cf7	0.00020514788
1	0xba270c59	-0.00063723844
2	0xba4bbdb0	-0.0007772101
3	0x39e8fa15	0.00044436814
4	0x38eb4ea7	0.00011220323
5	0xb9808b34	-0.00024517777
6	0xb99b4413	-0.00029614623
7	0x39180cb0	0.00014500576
8	0xb97a30e2	-0.00023860068
9	0x3a223a36	0.00061884837
10	0x3a402a12	0.0007330488
11	0xb9b1abe9	-0.00033888154
12	0x3982ddbe	0.00024960743
13	0xb9fb0abf	-0.00047882457
14	0xba119ec8	-0.0005554971
15	0x396b15a8	0.00022419414

exp_avg_sq f4 [4, 4]
0	0x35dace68	1.6302338e-06
1	0x366601c3	3.4273696e-06
2	0x36a71870	4.9798327e-06
3	0x35bf5d1f	1.4257711e-06
4	0x34ec2d5b	4.3991426e-07
5	0x3549b826	7.5146306e-07
6	0x359669d5	1.1206672e-06
7	0x34a2a470	3.0294495e-07
8	0x35e3dd81	1.6977284e-06
9	0x364ff839	3.0989888e-06
10	0x369735a8	4.506397e-06
11	0x35b5122b	1.3490838e-06
12	0x3534c4ee	6.7341796e-07
13	0x35cc6006	1.5227131e-06
14	0x3610f89b	2.160238e-06
15	0x3522f307	6.0703354e-07

exp_avg f4 [4]
0	0xbb39dff0	-0.0028362237
1	0xba9ba546	-0.0011874817
2	0x3bb05872	0.0053816373
3	0xbbbb19d6	-0.005709867

exp_avg_sq f4 [4]
0	0x397874a0	0.00023694569
1	0x38984318	7.260422e-05
2	0x39856058	0.00025439519
3	0x391e49cf	0.0001509555

exp_avg f4 [4, 4]
0	0xb9a2a1fe	-0.0003101974
1	0xb90622e9	-0.00012792241
2	0x39afbf6e	0.00033521227
3	0x3939b580	0.00017710589
4	0xba77670a	-0.0009437656
5	0x3969d380	0.00022299401
6	0x3b29b8a6	0.0025897413
7	0xba8f391b	-0.0010927053
8	0x80000004	-6e-45
9	0x00000004	6e-45
10	0x80000004	-6e-45
11	0x80000004	-6e-45
12	0x3a802f5c	0.0009779739
13	0xba5b0b04	-0.00083558285
14	0x3a8e51bc	0.0010858099
15	0xb9fe3f48	-0.00048493803

exp_avg_sq f4 [4, 4]
0	0x3809b053	3.282756e-05
1	0x375134a4	1.2469627e-05
2	0x37ccccea	2.4414116e-05
3	0x370c8728	8.376119e-06
4	0x383d3d87	4.5118413e-05
5	0x38610850	5.3651922e-05
6	0x3927bcc6	0.00015996685
7	0x3778e65d	1.48355875e-05
8	0x00000019	3.5e-44
9	0x00000019	3.5e-44
10	0x00000019	3.5e-44
11	0x00000019	3.5e-44
12	0x38ca182a	9.6366115e-05
13	0x38aa930c	8.133621e-05
14	0x39279043	0.00015980103
15	0x381a32f4	3.6763915e-05

exp_avg f4 [4]
0	0xb94739d4	-0.00018999662
1	0xbab09b98	-0.0013474105
2	0x00000004	6e-45
3	0xba6963cc	-0.00089031155

exp_avg_sq f4 [4]
0	0x36d91e23	6.4706123e-06
1	0x37fe2092	3.0294326e-05
2	0x00000019	3.5e-44
3	0x384dc1c4	4.9056267e-05

exp_avg f4 [4, 4]
0	0xba377fa9	-0.0006999919
1	0x39d254f0	0.00040117605
2	0x00000004	6e-45
3	0x3ae04a3e	0.001711197
4	0xba8895fe	-0.0010420678
5	0xba831108	-0.0009999583
6	0x80000004	-6e-45
7	0x3a2ec3c3	0.0006666744
8	0x3bc0cca5	0.0058837705
9	0x3abf2837	0.0014584129
10	0x00000004	6e-45
11	0xba8bfcf2	-0.0010680242
12	0xba8f4ddd	-0.0010933239
13	0xba8ed2d6	-0.0010896574
14	0x80000004	-6e-45
15	0xba34a197	-0.0006890534

exp_avg_sq f4 [4, 4]
0	0x38a65769	7.931778e-05
1	0x3731b476	1.0592039e-05
2	0x00000019	3.5e-44
3	0x37d80dfc	2.5755719e-05
4	0x37dfb098	2.6665904e-05
5	0x36e06d87	6.688471e-06
6	0x00000019	3.5e-44
7	0x37076f1e	8.0724985e-06
8	0x389344f6	7.022351e-05
9	0x378154a2	1.5417409e-05
10	0x00000019	3.5e-44
11	0x379a6b4a	1.8408191e-05
12	0x379f6dad	1.9005349e-05
13	0x3720d342	9.5859305e-06
14	0x00000019	3.5e-44
15	0x36dfce16	6.6699095e-06

exp_avg f4 [4]
0	0x3af9d5eb	0.0019060945
1	0xbaed78db	-0.0018117683
2	0x3b77d6cc	0.0037817238
3	0xb9d7c228	-0.00041152653

exp_avg_sq f4 [4]
0	0x39041184	0.00012595026
1	0x38dcca22	0.00010528068
2	0x391f4063	0.00015187408
3	0x384fd608	4.9551978e-05

exp_avg f4 [4]
0	0xbb200120	-0.0024414733
1	0x3ae7af0b	0.0017676068
2	0x3b4f0730	0.0031589977
3	0xbb62583a	-0.003453745

exp_avg_sq f4 [4]
0	0x384886b0	4.7809153e-05
1	0x383702ae	4.3633096e-05
2	0x38ad73f5	8.2708815e-05
3	0x38572275	5.1292085e-05

exp_avg f4 [4]
0	0xba204fb4	-0.00061153923
1	0xba8627c8	-0.0010235244
2	0x3b451a3c	0.0030075451
3	0xbab3e4dc	-0.0013724822

exp_avg_sq f4 [4]
0	0x3944acf6	0.0001875645
1	0x388fd242	6.857935e-05
2	0x394b304e	0.00019377584
3	0x39010940	0.00012305845

exp_avg f4 [4]
0	0xbb70fbba	-0.0036771134
1	0x3ac32ebe	0.001489125
2	0x3b27a7c6	0.0025582178
3	0xbb3dadb0	-0.0028942637

exp_avg_sq f4 [4]
0	0x38aee11e	8.338898e-05
1	0x38a897c4	8.039133e-05
2	0x38ba39a9	8.879911e-05
3	0x3830ec5a	4.218179e-05

exp_avg f4 [4]
0	0xb9be3878	-0.00036281697
1	0xbac5a3cb	-0.0015078721
2	0x3b6209c7	0.003449069
3	0xba9b3ffa	-0.0011844628

exp_avg_sq f4 [4]
0	0x39312f83	0.00016897735
1	0x38d66685	0.00010223411
2	0x392f8668	0.00016739371
3	0x38dbb912	0.00010477206

exp_avg f4 [4]
0	0xbb36ae75	-0.002787498
1	0xb927c430	-0.00015999447
2	0x3b8837de	0.0041570505
3	0xbb2c2856	-0.002626916

exp_avg_sq f4 [4]
0	0x387e9220	6.069441e-05
1	0x388c9884	6.7041285e-05
2	0x3873de46	5.8142723e-05
3	0x37ff8942	3.0462284e-05

exp_avg f4 [4]
0	0x3a5d4980	0.00084414333
1	0xbb0c963c	-0.0021451851
2	0x3afe0c3e	0.001938231
3	0xb9827650	-0.00024883682

exp_avg_sq f4 [4]
0	0x38e8482f	0.00011076067
1	0x38dca67a	0.00010521426
2	0x38b161de	8.458247e-05
3	0x388ebbfc	6.8061025e-05

exp_avg f4 [12, 4]
0	0x00000000	0.0
1	0x00000000	0.0
2	0x00000000	0.0
3	0x00000000	0.0
4	0x00000000	0.0
5	0x00000000	0.0
6	0x00000000	0.0
7	0x00000000	0.0
8	0x00000000	0.0
9	0x00000000	0.0
10	0x00000000	0.0
11	0x00000000	0.0
12	0x00000000	0.0
13	0x00000000	0.0
14	0x00000000	0.0
15	0x00000000	0.0
16	0x00000000	0.0
17	0x00000000	0.0
18	0x00000000	0.0
19	0x00000000	0.0
20	0x00000000	0.0
21	0x00000000	0.0
22	0x00000000	0.0
23	0x00000000	0.0
24	0x00000000	0.0
25	0x00000000	0.0
26	0x00000000	0.0
27	0x00000000	0.0
28	0x00000000	0.0
29	0x00000000	0.0
30	0x00000000	0.0
31	0x00000000	0.0
32	0xba824bf9	-0.0009940855
33	0x3b3a867f	0.0028461514
34	0xbb639753	-0.0034727647
35	0x3a400f55	0.00073265034
36	0xbaa659a6	-0.0012691512
37	0x3b5b9ea8	0.0033511315
38	0xbb7fe61c	-0.0039047068
39	0x3a544a64	0.0008098243
40	0xba4300a6	-0.00074387563
41	0x3b0b45ec	0.0021251393
42	0xbb5a677a	-0.0033325837
43	0x3a8c1af6	0.0010689187
44	0x38dc3f5e	0.000105022205
45	0xb98f850b	-0.0002737421
46	0xb8a45036	-7.83507e-05
47	0x3960c805	0.00021436818

exp_avg_sq f4 [12, 4]
0	0x00000000	0.0
1	0x00000000	0.0
2	0x00000000	0.0
3	0x00000000	0.0
4	0x00000000	0.0
5	0x00000000	0.0
6	0x00000000	0.0
7	0x00000000	0.0
8	0x00000000	0.0
9	0x00000000	0.0
10	0x00000000	0.0
11	0x00000000	0.0
12	0x00000000	0.0
13	0x00000000	0.0
14	0x00000000	0.0
15	0x00000000	0.0
16	0x00000000	0.0
17	0x00000000	0.0
18	0x00000000	0.0
19	0x00000000	0.0
20	0x00000000	0.0
21	0x00000000	0.0
22	0x00000000	0.0
23	0x00000000	0.0
24	0x00000000	0.0
25	0x00000000	0.0
26	0x00000000	0.0
27	0x00000000	0.0
28	0x00000000	0.0
29	0x00000000	0.0
30	0x00000000	0.0
31	0x00000000	0.0
32	0x379635e2	1.7906485e-05
33	0x377e711c	1.5165915e-05
34	0x37fbb07b	3.0003712e-05
35	0x3721c5f5	9.642438e-06
36	0x37e4b43c	2.7263646e-05
37	0x37b48816	2.1521042e-05
38	0x38311971	4.2223783e-05
39	0x37768cc7	1.469552e-05
40	0x378d7556	1.6863149e-05
41	0x3788d774	1.6312792e-05
42	0x383a9364	4.4483124e-05
43	0x36b337c1	5.3411063e-06
44	0x3680d44b	3.8394114e-06
45	0x35a6549e	1.2392591e-06
46	0x3690d30e	4.3161044e-06
47	0x3594eeae	1.1096324e-06

exp_avg f4 [12]
0	0x00000000	0.0
1	0x00000000	0.0
2	0x00000000	0.0
3	0x00000000	0.0
4	0x00000000	0.0
5	0x00000000	0.0
6	0x00000000	0.0
7	0x00000000	0.0
8	0xb9b1947f	-0.0003387071
9	0xb9d0d2cc	-0.00039829907
10	0x3997f64a	0.00028984464
11	0x397c883b	0.00024083343

exp_avg_sq f4 [12]
0	0x00000000	0.0
1	0x00000000	0.0
2	0x00000000	0.0
3	0x00000000	0.0
4	0x00000000	0.0
5	0x00000000	0.0
6	0x00000000	0.0
7	0x00000000	0.0
8	0x3705aad0	7.967188e-06
9	0x37454ece	1.1760463e-05
10	0x371d8573	9.389e-06
11	0x359ad441	1.1535668e-06

exp_avg f4 [4, 4]
0	0xb981534e	-0.00024666864
1	0x39e73fa1	0.0004410716
2	0xbb01249f	-0.0019705666
3	0xba0255ca	-0.000497189
4	0x3ae02cf0	0.0017103236
5	0x3afdf4bb	0.0019375304
6	0x3a69bc5a	0.0008916311
7	0xb8fa31a4	-0.00011930175
8	0xbb501bd7	-0.0031754875
9	0xbb84e88c	-0.004056042
10	0xb93ef374	-0.00018210505
11	0x3a1fd974	0.00060977717
12	0x3a15299e	0.00056901004
13	0x39ced7d3	0.00039452183
14	0x3a898234	0.0010491074
15	0x3916cba9	0.00014380984

exp_avg_sq f4 [4, 4]
0	0x37cf0f79	2.4683528e-05
1	0x37f36126	2.9013096e-05
2	0x37e60e22	2.7424718e-05
3	0x368f8100	4.2767497e-06
4	0x37f30a8f	2.8972774e-05
5	0x38260ebb	3.9591203e-05
6	0x37bd7fa8	2.259e-05
7	0x374056c7	1.1464296e-05
8	0x381d95a9	3.75711e-05
9	0x3863c75d	5.430669e-05
10	0x3733a574	1.0707754e-05
11	0x3704d8fc	7.918334e-06
12	0x371a9e63	9.215993e-06
13	0x373bb3a2	1.1187893e-05
14	0x371ddb89	9.409044e-06
15	0x35c8c9af	1.4959859e-06
