Saved_models/best_model_Female.pt (torch, 48698 bytes, 108 tensors)

encoder_input_layer.weight f4 [4, 7]
0.012900725 0.21890679 -0.29495764 -0.26217166 -0.12977791 0.1170111 0.008116232 0.35485852
0.021375995 0.15517865 -0.05976421 -0.020297628 -0.3070095 -0.19655512 -0.17240761 -0.0028522052
0.1323002 0.21015394 -0.2724064 -0.18111505 0.121054165 0.37935525 -0.01169063 0.34969014
0.0067586116 0.1082035 0.41045696 -0.28212917
00000000: 905d 533c 1a29 603e b004 97be 5d3b 86be
00000010: 80e4 04be 84a3 ef3d f2f9 043c 04b0 b53e
00000020: b61c af3c 27e7 1e3e 51cb 74bd 3647 a6bc
00000030: 5930 9dbe bf45 49be 9f8b 30be 10ec 3abb
00000040: b479 073e 9832 573e da78 8bbe 3976 39be
00000050: 3feb f73d da3a c23e 0e8a 3fbc 960a b33e
00000060: 5877 dd3b cc99 dd3d 6a27 d23e 3c73 90be

encoder_input_layer.bias f4 [4]
-0.25743982 -0.14688282 -0.13742036 0.265006
00000000: 27cf 83be 7368 16be ecb7 0cbe deae 873e

decoder_input_layer.weight f4 [4, 1]
-0.57122535 -0.5622076 -0.5343213 -0.8437718
00000000: d33b 12bf d6ec 0fbf 48c9 08bf 6e01 58bf

decoder_input_layer.bias f4 [4]
-0.68134415 1.0183249 0.25036517 0.35468462
00000000: 926c 2ebf 7858 823f dd2f 803e 3999 b53e

positional_encoding_layer_enc.pe f4 [1, 9, 4]
0.0 1.0 0.0 1.0 0.84147096 0.54030234 0.009999833 0.99995
0.9092974 -0.41614684 0.019998666 0.9998 0.14112 -0.9899925 0.0299955 0.99955004
-0.7568025 -0.6536436 0.039989334 0.9992001 -0.9589243 0.2836622 0.049979165 0.99875027
-0.2794155 0.96017027 0.059964005 0.99820054 0.6569866 0.75390226 0.06994285 0.997551
0.98935825 -0.14550003 0.07991469 0.9968017
00000000: 0000 0000 0000 803f 0000 0000 0000 803f
00000010: a46a 573f 4151 0a3f 57d6 233c b9fc 7f3f
00000020: b7c7 683f 3311 d5be 3ed4 a33c e5f2 7f3f
00000030: c381 103e 2670 7dbf 1fb9 f53c 83e2 7f3f
00000040: cfbd 41bf 3055 27bf dbcb 233d 94cb 7f3f
00000050: 107c 75bf 2c3c 913e f4b6 4c3d 19ae 7f3f
00000060: 8c0f 8fbe b8cd 753f d19c 753d 128a 7f3f
00000070: 4630 283f bdff 403f 323e 8f3d 815f 7f3f
00000080: 9546 7d3f f6fd 14be 50aa a33d 652e 7f3f

positional_encoding_layer_dec.pe f4 [1, 1, 4]
0.0 1.0 0.0 1.0
00000000: 0000 0000 0000 803f 0000 0000 0000 803f

encoder.layers.0.self_attn.in_proj_weight f4 [12, 4]
0.31489456 0.3227096 -0.3007137 0.12631682 0.38723567 -0.08425482 0.060465895 0.14343672
0.3505335 0.6310391 -0.5026736 -0.28807738 0.20464157 0.52028495 0.5166649 0.54273325
0.12634556 -0.565997 0.09009185 -0.39603695 -0.6407583 0.48290977 0.5055259 -0.6086664
0.12223973 -0.14454779 -0.09947951 -0.30096355 0.21969776 -0.4443599 0.26499146 0.32352507
0.3595687 0.1648515 -0.69431466 -0.3970829 0.21004501 0.052612238 -0.58958215 -0.34438717
0.54217494 0.37019107 -0.31748968 -0.13117105 -0.52686095 0.028945722 -0.4083779 -0.4748658
00000000: dc39 a13e 313a a53e 25f7 99be 3259 013e
00000010: c143 c63e cb8d acbd 16ab 773d 13e1 123e
00000020: 2079 b33e c78b 213f 38af 00bf e17e 93be
00000030: 8f8d 513e 6531 053f 2744 043f 91f0 0a3f
00000040: bb60 013e 2ee5 10bf 1382 b83d 5bc5 cabe
00000050: bc08 24bf f33f f73e 256a 013f 90d1 1bbf
00000060: d358 fa3d 5604 14be eabb cbbd e517 9abe
00000070: 73f8 603e 2483 e3be f6ac 873e 14a5 a53e
00000080: 6319 b83e d5ce 283e 9bbe 31bf 734e cbbe
00000090: 0a16 573e ee7f 573d dbee 16bf 8453 b0be
000000a0: facb 0a3f af89 bd3e 028e a2be b451 06be
000000b0: 5ce0 06bf 941f ed3c e816 d1be 9c21 f3be

encoder.layers.0.self_attn.in_proj_bias f4 [12]
0.05264094 0.0684177 -0.050323267 -0.041887246 -0.0004999333 0.0003580954 -0.00033429058 0.0003190257
-0.089642525 -0.123331144 -0.041073445 0.049359776
00000000: 079e 573d 941e 8c3d c51f 4ebd f691 2bbd
00000010: f50d 03ba c0be bb39 b943 afb9 e842 a739
00000020: 8096 b7bd 0a95 fcbd a13c 28bd 7a2d 4a3d

encoder.layers.0.self_attn.out_proj.weight f4 [4, 4]
0.011898852 -0.25774693 0.105056524 -0.5112711 -0.3907071 -0.30059966 0.37253112 0.20422612
-0.10959325 0.109909154 0.3504581 0.5108907 0.16820021 0.07272861 0.24875318 -0.1889558
00000000: 67f3 423c 68f7 83be e027 d73d aae2 02bf
00000010: c30a c8be 33e8 99be 66bc be3e a720 513e
00000020: 6d72 e0bd 0d18 e13d 3e6f b33e bcc9 023f
00000030: ad3c 2c3e bdf2 943d 27b9 7e3e a17d 41be

encoder.layers.0.self_attn.out_proj.bias f4 [4]
0.046696957 0.09546286 -0.013435624 -0.11129057
00000000: 4f45 3f3d 0882 c33d 1721 5cbc 4fec e3bd

encoder.layers.0.linear1.weight f4 [4, 4]
-0.026868833 0.0718563 -0.20189577 0.2944022 -0.2958935 0.33328152 0.3876597 -0.30487642
-0.11064211 0.0359929 0.062358968 0.110446595 0.23192666 0.06282596 -0.28768533 0.19785976
00000000: 071c dcbc 6529 933d c4bd 4ebe e3bb 963e
00000010: 5a7f 97be e0a3 aa3e 557b c63e c318 9cbe
00000020: 5598 e2bd 4b6d 133d 1e6c 7f3d d331 e23d
00000030: 2f7e 6d3e e6aa 803d 7e4b 93be c09b 4a3e

encoder.layers.0.linear1.bias f4 [4]
-0.48246247 -0.41687724 -0.13858786 -0.19866957
00000000: 5205 f7be ef70 d5be fae9 0dbe 0970 4bbe

encoder.layers.0.linear2.weight f4 [4, 4]
-0.17428039 -0.28812712 -0.11772956 0.10000894 -0.3245924 -0.007055884 0.36883596 -0.029946206
0.01386565 -0.045913585 0.1147321 0.34621665 0.47107112 0.232805 0.45998877 -0.07251487
00000000: 8f76 32be 6685 93be 321c f1bd 7dd1 cc3d
00000010: fa30 a6be 0c35 e7bb 11d8 bc3e bf51 f5bc
00000020: c02c 633c e20f 3cbd aaf8 ea3d 4f43 b13e
00000030: 3c30 f13e 6f64 6e3e a683 eb3e ad82 94bd

encoder.layers.0.linear2.bias f4 [4]
-0.3630137 -0.13946949 0.33733356 -0.117601864
00000000: efdc b9be 17d1 0ebe fcb6 ac3e 3fd9 f0bd

encoder.layers.0.norm1.weight f4 [4]
0.94336677 0.9655131 0.9842705 1.1076607
00000000: 7c80 713f de2b 773f 27f9 7b3f d3c7 8d3f

encoder.layers.0.norm1.bias f4 [4]
0.08308342 0.07635683 -0.013430151 -0.11511272
00000000: a427 aa3d f860 9c3d 230a 5cbc 38c0 ebbd

encoder.layers.0.norm2.weight f4 [4]
0.9241763 1.1003565 0.9665546 1.144345
00000000: d196 6c3f 7bd8 8c3f 1f70 773f e679 923f

encoder.layers.0.norm2.bias f4 [4]
-0.064490944 0.15266295 -0.054468654 -0.16117918
00000000: d413 84bd ad53 1c3e 861a 5fbd 280c 25be

decoder.layers.0.self_attn.in_proj_weight f4 [12, 4]
-0.55117095 -0.041327298 0.5385322 -0.24978182 0.5529743 0.22177297 -0.5526422 0.3874464
-0.070664406 -0.27336726 0.4896856 -0.49485525 0.065710604 -0.12821162 0.4373029 0.1709404
0.29424822 0.21626484 -0.14726007 -0.12878525 -0.50464475 0.3318104 0.4862103 0.41900045
-0.43195423 0.027311742 -0.43168223 -0.33710134 -0.3568328 0.20927525 -0.3649208 -0.013360262
-0.080859974 0.3574141 -0.59346336 -0.5134847 -0.25458986 0.5104703 -0.07517182 0.6603478
0.32059595 0.19649886 0.1424824 0.043302484 0.048542295 -0.15262526 -0.033729527 0.071476355
00000000: 8a19 0dbf d046 29bd 3fdd 093f cec6 7fbe
00000010: b98f 0d3f 7418 633e f679 0dbf 605f c63e
00000020: 80b8 90bd cbf6 8bbe 12b8 fa3e ab5d fdbe
00000030: 4893 863d e849 03be 2ae6 df3e 000b 2f3e
00000040: b4a7 963e 8874 5d3e 58cb 16be 48e0 03be
00000050: 6630 01bf 0ee3 a93e 8ef0 f83e 3a87 d63e
00000060: 1b29 ddbe e0bc df3c 7405 ddbe 8c98 acbe
00000070: cab2 b6be 404c 563e e6d6 babe 00e5 5abc
00000080: ea99 a5bd fbfe b63e 37ed 17bf bc73 03bf
00000090: 9a59 82be 2eae 023f aff3 99bd 8e0c 293f
000000a0: 2725 a43e ff36 493e e8e6 113e f25d 313d
000000b0: 49d4 463d cc49 1cbe f927 0abd 3262 923d

decoder.layers.0.self_attn.in_proj_bias f4 [12]
0.0 0.0 0.0 0.0 0.0 0.0 0.0 0.0
-0.13583797 0.17005393 0.17660438 -0.01727412
00000000: 0000 0000 0000 0000 0000 0000 0000 0000
00000010: 0000 0000 0000 0000 0000 0000 0000 0000
00000020: 1c19 0bbe 9e22 2e3e c7d7 343e 7582 8dbc

decoder.layers.0.self_attn.out_proj.weight f4 [4, 4]
-0.19203982 -0.3514749 -0.47539842 -0.50159514 -0.24166325 0.40223128 0.3694949 -0.5041849
0.42364815 -0.41609815 -0.14963557 -0.2657064 0.059625756 -0.25407448 -0.5914305 -0.32493734
00000000: 16a6 44be 85f4 b3be 6c67 f3be 8a68 00bf
00000010: 9276 77be 42f1 cd3e 6f2e bd3e 4312 01bf
00000020: 69e8 d83e d10a d5be 113a 19be ab0a 88be
00000030: 233a 743d 0d16 82be fd67 17bf 305e a6be

decoder.layers.0.self_attn.out_proj.bias f4 [4]
-0.09344512 0.20801193 -0.16671245 -0.1877037
00000000: 2860 bfbd 1401 553e abb6 2abe 6635 40be

decoder.layers.0.multihead_attn.in_proj_weight f4 [12, 4]
0.27465153 -0.43288368 -0.25953886 0.18011266 0.20220053 0.45941895 -0.19713241 0.0009803176
0.31526375 -0.5922206 0.44273347 -0.5063845 0.008440018 -0.10411358 -0.32252002 0.08093792
0.5063823 -0.17900842 -0.36356193 -0.22647911 -0.60695195 0.27642125 -0.29410025 -0.40866083
-0.35278866 0.35208726 0.32429636 0.47000927 0.22212166 -0.20450771 -0.17112637 0.18091315
0.43559527 0.27819622 -0.24874994 -0.3997892 -0.5875658 0.24376495 -0.31917948 -0.67705166
0.42397755 -0.27506974 -0.05068309 0.08877159 0.0225845 -0.49652553 -0.52724344 0.58851933
00000000: 209f 8c3e eea2 ddbe 47e2 84be 746f 383e
00000010: a80d 4f3e f638 eb3e 14dd 49be 007e 803a
00000020: 406a a13e c59b 17bf f6ad e23e 6aa2 01bf
00000030: 0048 0a3c 8039 d5bd 5821 a5be c8c2 a53d
00000040: 45a2 013f fc4d 37be ca24 babe 24ea 67be
00000050: 3461 1bbf 1687 8d3e 4f94 96be fe3b d1be
00000060: b7a0 b4be c844 b43e 2c0a a63e 0ea5 f03e
00000070: dc73 633e 786a 51be c03b 2fbe 4c41 393e
00000080: 5806 df3e bc6f 8e3e 4eb8 7ebe 2cb1 ccbe
00000090: b66a 16bf 859d 793e 7e6b a3be 4253 2dbf
000000a0: 9613 d93e f1d5 8cbe 1299 4fbd e1cd b53d
000000b0: 2103 b93c 9838 febe 6df9 06bf 34a9 163f

decoder.layers.0.multihead_attn.in_proj_bias f4 [12]
0.0 0.0 0.0 0.0 0.0 0.0 0.0 0.0
0.13503675 0.14869635 0.10441634 -0.10603737
00000000: 0000 0000 0000 0000 0000 0000 0000 0000
00000010: 0000 0000 0000 0000 0000 0000 0000 0000
00000020: 1347 0a3e db43 183e 3cd8 d53d 1f2a d9bd

decoder.layers.0.multihead_attn.out_proj.weight f4 [4, 4]
-0.37676558 -0.20944914 0.3410644 -0.44463196 0.10566087 0.6292535 0.07518899 -0.11484142
-0.48363224 0.14309384 -0.24222265 -0.056709114 -0.28076056 -0.17108122 0.05790766 0.51509905
00000000: 6be7 c0be d679 56be fe9f ae3e cda6 e3be
00000010: ba64 d83d c216 213f affc 993d fa31 ebbd
00000020: a59e f7be 3187 123e 3709 78be d147 68bd
00000030: d9bf 8fbe ea2f 2fbe 9530 6d3d 88dd 033f

decoder.layers.0.multihead_attn.out_proj.bias f4 [4]
0.0052809604 0.22285187 -0.11079554 -0.18801089
00000000: e80b ad3b 4833 643e c6e8 e2bd ed85 40be

decoder.layers.0.linear1.weight f4 [4, 4]
-0.052783486 0.55203605 -0.32263976 0.27875656 -0.028057983 -0.16681206 -0.22842576 0.22278017
0.09529488 -0.032153524 -0.15101069 -0.23378849 0.28484857 -0.38130173 0.11013228 -0.081084974
00000000: 7f33 58bd 3c52 0d3f 0a31 a5be 2eb9 8e3e
00000010: dbd9 e5bc c8d0 2abe 71e8 69be 7c20 643e
00000020: f629 c33d 6ab3 03bd 8ca2 1abe 4066 6fbe
00000030: acd7 913e fb39 c3be 088d e13d e10f a6bd

decoder.layers.0.linear1.bias f4 [4]
-0.09833388 0.03317058 -0.33405694 -0.008846236
00000000: 4663 c9bd e0dd 073d 8309 abbe ceef 10bc

decoder.layers.0.linear2.weight f4 [4, 4]
0.21893801 -0.33327943 0.033538215 0.1539982 0.33021474 0.0693152 -0.34735242 0.031415973
0.273266 -0.16778603 0.17256093 0.22952348 -0.4180312 -0.12199142 0.17862631 -0.019652208
00000000: 4931 603e 9aa3 aabe 5e5f 093d b4b1 1d3e
00000010: e811 a93e 21f5 8d3d 2dd8 b1be 09ae 003d
00000020: 85e9 8b3e 1ad0 2bbe d0b3 303e 3408 6b3e
00000030: 2f08 d6be a3d6 f9bd d1e9 363e abfd a0bc

decoder.layers.0.linear2.bias f4 [4]
0.108929455 0.27035016 -0.41178423 -0.13214526
00000000: 6816 df3d 566b 8a3e 62d5 d2be 1651 07be

decoder.layers.0.norm1.weight f4 [4]
0.87739027 1.0329602 0.9011631 0.81287754
00000000: a69c 603f 0a38 843f a0b2 663f be18 503f

decoder.layers.0.norm1.bias f4 [4]
0.018451447 0.24572185 -0.12855938 -0.22535531
00000000: 7d27 973c 829e 7b3e 12a5 03be 8bc3 66be

decoder.layers.0.norm2.weight f4 [4]
0.8159654 1.1951482 0.8268082 0.86257744
00000000: 1ce3 503f 9efa 983f b4a9 533f e0d1 5c3f

decoder.layers.0.norm2.bias f4 [4]
0.08168572 0.24944432 -0.09491558 -0.21369049
00000000: d84a a73d 556e 7f3e 1963 c2bd aed1 5abe

decoder.layers.0.norm3.weight f4 [4]
0.8500967 1.1790994 0.8314864 0.89501226
00000000: f09f 593f bbec 963f 4bdc 543f 861f 653f

decoder.layers.0.norm3.bias f4 [4]
0.1872555 0.19414134 0.18582001 0.18319438
00000000: e8bf 3f3e fdcc 463e 9a47 3e3e 4f97 3b3e

linear_mapping.weight f4 [1, 4]
0.27090243 0.6303045 0.13064203 -0.0062984345
00000000: b9b3 8a3e a35b 213f 06c7 053e 1963 cebb

linear_mapping_with_gender_ind.weight f4 [1, 5]
-0.2175603 -0.3706007 -0.3845684 0.44614464 0.28388643
00000000: 21c8 5ebe 60bf bdbe 26e6 c4be 126d e43e
00000010: 9059 913e

exp_avg f4 [4, 7]
-0.0012178905 -0.0012341046 -0.0012430742 -0.0012590874 -0.0012670727 -0.0012763056 -0.001287618 0.00022669003
0.00022991319 0.0002298181 0.00023273252 0.00023369539 0.00023517426 0.00023703773 -0.00026683038 -0.00026961567
-0.0002675504 -0.00026191666 -0.0002607964 -0.00026056706 -0.00025681668 -0.00090228766 -0.0009145375 -0.00092134404
-0.0009326362 -0.000941223 -0.00094751094 -0.00095551705
00000000: a0a1 9fba aec1 a1ba a6ee a2ba f607 a5ba
00000010: e813 a6ba b649 a7ba 4ac5 a8ba a4b3 6d39
00000020: da14 7139 54fb 7039 a909 7439 210c 7539
00000030: 1c99 7639 558d 7839 5ee5 8bb9 345b 8db9
00000040: 0246 8cb9 dc51 89b9 80bb 88b9 b89c 88b9
00000050: 5aa5 86b9 8087 6cba 93bd 6fba 5a86 71ba
00000060: 287c 74ba 68bc 76ba 6262 78ba aa7b 7aba

exp_avg_sq f4 [4, 7]
1.9648958e-05 1.9492722e-05 1.9439669e-05 1.9383408e-05 1.9296442e-05 1.9424404e-05 1.9661826e-05 1.6843402e-06
1.6695169e-06 1.6759859e-06 1.7024646e-06 1.7080113e-06 1.7170398e-06 1.7430604e-06 7.309086e-06 7.3711944e-06
7.4313702e-06 7.2451035e-06 7.215467e-06 7.1789013e-06 7.259388e-06 5.427916e-06 5.4309353e-06 5.419801e-06
5.4857915e-06 5.5237933e-06 5.5774735e-06 5.631159e-06
00000000: d1d3 a437 4d84 a337 5f12 a337 8d99 a237
00000010: cbde a137 97f1 a237 73ef a437 7d11 e235
00000020: 2a14 e035 70f2 e035 3d80 e435 d23e e535
00000030: 0a75 e635 19f3 e935 9240 f536 1456 f736
00000040: fc5a f936 f71a f336 641c f236 4be2 f036
00000050: ab95 f336 7221 b636 613b b636 bcdb b536
00000060: 9712 b836 0659 b936 2226 bb36 4af3 bc36

exp_avg f4 [4]
0.0003765925 -9.611574e-05 0.00015258807 0.00026143197
00000000: 6471 c539 bf91 c9b8 0c00 2039 ce10 8939

exp_avg_sq f4 [4]
4.8660613e-06 4.3615586e-07 1.8012622e-06 1.4806438e-06
00000000: 2647 a336 ce28 ea34 e6c2 f135 89ba c635

exp_avg f4 [4, 1]
0.0006659825 -0.00028331543 -0.00029888842 -6.777786e-05
00000000: 5495 2e3a f489 94b9 20b4 9cb9 f623 8eb8

exp_avg_sq f4 [4, 1]
2.6526639e-05 3.0101712e-06 1.9865594e-05 4.8468446e-06
00000000: 8685 de37 5902 4a36 0aa5 a637 14a2 a236

exp_avg f4 [4]
-0.00011031161 0.00011662495 0.00028488552 -9.010653e-06
00000000: 1857 e7b8 8b94 f438 b05c 9539 762c 17b7

exp_avg_sq f4 [4]
7.801639e-06 6.757726e-07 6.081121e-06 1.2536951e-06
00000000: c9e3 0237 bd66 3535 6e0c cc36 a344 a835

exp_avg f4 [12, 4]
-1.3215827e-05 -9.558369e-06 -8.5405045e-06 -1.7533787e-06 -5.6649835e-05 -0.00012778325 -9.513383e-06 3.0356541e-05
-7.393513e-06 -2.7425397e-06 -5.856053e-06 1.1678374e-06 2.2646873e-05 4.946055e-05 4.7201243e-06 -1.6835724e-05
5.5982455e-05 1.7487558e-06 -3.3566807e-06 3.013438e-05 4.5139304e-06 3.2057549e-06 -1.4170555e-06 1.3703365e-05
0.00010642158 -3.1382338e-06 -3.3758631e-06 4.994723e-05 6.233019e-05 6.0648117e-06 -6.060299e-06 4.127125e-05
1.0165064e-05 6.4923133e-06 -4.434252e-05 8.588574e-05 -0.00022721707 -4.0354325e-06 -0.00011062214 0.0004038925
-6.784093e-05 -7.914492e-07 -5.36446e-06 8.1891616e-05 -0.0004955575 -2.3361321e-05 -0.00013611618 0.00066314166
00000000: 8bb9 5db7 e25c 20b7 3049 0fb7 a255 ebb5
00000010: 4c9b 6db8 8efd 05b9 ab9b 1fb7 2da6 fe37
00000020: cb15 f8b6 790c 38b6 1d7f c4b6 96be 9c35
00000030: caf9 bd37 dc73 4f38 8f61 9e36 713a 8db7
00000040: b4ce 6a38 cbb6 ea35 5643 61b6 17c9 fc37
00000050: 5e76 9736 7322 5736 a831 beb5 81e7 6537
00000060: a72e df38 729a 52b6 e38c 62b6 6e7e 5138
00000070: 44b7 8238 5680 cb36 9259 cbb6 ab1a 2d38
00000080: 9e8a 2a37 8cd8 d936 6bfc 39b8 8e1d b438
00000090: 1e41 6eb9 1a68 87b6 cffd e7b8 89c1 d339
000000a0: d245 8eb8 fa73 54b5 5c00 b4b6 3abd ab38
000000b0: 4de8 01ba 0ef8 c3b7 69ba 0eb9 afd6 2d3a

exp_avg_sq f4 [12, 4]
6.4739497e-10 2.0422362e-09 6.1533595e-10 6.8669087e-10 1.4270145e-08 4.1605652e-08 8.8904235e-09 1.123836e-08
2.6302102e-10 5.590218e-10 5.88089e-10 1.8986862e-10 2.252106e-09 7.599169e-09 1.268769e-09 2.7424205e-09
8.225507e-09 5.453941e-10 8.775623e-11 1.4715532e-09 4.0626866e-09 1.7840215e-10 3.706766e-11 5.1861765e-10
3.2771872e-08 2.1896909e-09 2.633758e-10 4.7053823e-09 2.3423974e-08 2.0142825e-09 2.9761982e-10 4.217231e-09
4.7720295e-07 3.306323e-08 1.9252916e-07 4.0552766e-07 3.133504e-07 1.7767567e-08 1.1438729e-07 3.4837998e-07
1.1573359e-07 1.2770824e-08 4.4008093e-08 1.278211e-07 1.1924378e-06 9.303518e-08 3.6442196e-07 1.4691886e-06
00000000: 5ff4 3130 6657 0c31 6b24 2930 93c1 3c30
00000010: c328 7532 e6b1 3233 7fbc 1832 d412 4132
00000020: eb98 902f a9a9 1930 16a7 2130 44c3 502f
00000030: 78c3 1a31 808d 0232 d760 ae30 2c75 3c31
00000040: 2a50 0d32 b3ea 1530 5efa c02e ad3f ca30
00000050: c597 8b31 be27 442f 7a06 232e 798e 0e30
00000060: 0ec1 0c33 7379 1631 d9ca 902f fbac a131
00000070: dd35 c932 a26b 0a31 449e a32f 28e7 9031
00000080: 2319 0035 6801 0e33 03ba 4e34 4cb7 d934
00000090: 8d3a a834 4b9f 9832 14a5 f533 fb08 bb34
000000a0: 3789 f833 ae66 5b32 6903 3d33 323f 0934
000000b0: da0b a035 a2ca c733 c6a5 c334 f030 c535

exp_avg f4 [12]
-2.4509356e-05 -5.2351315e-05 -1.5109579e-05 2.200177e-05 -2.2242236e-12 -2.19146e-12 -6.753229e-12 -3.253823e-12
-0.00014298283 -0.00029015748 1.0978929e-05 -0.00029761583
00000000: 7199 cdb7 cc93 5bb8 267f 7db7 7190 b837
00000010: 0d84 1cac d535 1aac ae9b edac aaf7 64ac
00000020: a9ed 15b9 4720 98b9 2432 3837 5209 9cb9

exp_avg_sq f4 [12]
4.1122368e-09 5.0530282e-08 3.597414e-09 7.327039e-09 1.7859476e-23 1.3427396e-23 1.1316603e-22 6.559756e-23
1.0454935e-06 7.073397e-07 3.024816e-07 2.5831132e-06
00000000: 9e4b 8d31 a206 5933 6036 7731 51c1 fb31
00000010: ecb9 ac19 9fdc 8119 31cf 081b ec9a 9e1a
00000020: e252 8c35 04e0 3d35 c164 a234 8c59 2d36

exp_avg f4 [4, 4]
0.0002775436 0.00017535723 0.0002624829 3.038944e-05 0.00010088505 4.76705e-05 9.858596e-05 7.579168e-05
-0.00038237852 -0.0002480156 -0.00035641744 -4.285722e-05 4.197796e-05 3.6550435e-05 5.2310883e-05 -6.3632775e-05
00000000: 4583 9139 19e0 3739 dc9d 8939 d3ec fe37
00000010: 4092 d338 cff1 4738 efbf ce38 59f2 9e38
00000020: fa79 c8b9 1708 82b9 8add bab9 97c1 33b8
00000030: 7e11 3038 bb4d 1938 6268 5b38 9672 85b8

exp_avg_sq f4 [4, 4]
1.1192263e-07 6.3555774e-08 2.1704638e-07 1.1028523e-07 9.3636245e-08 8.561394e-08 4.2995345e-07 4.1584084e-07
2.060669e-07 8.043201e-08 3.4999158e-07 1.06882666e-07 7.100829e-08 4.3409827e-08 2.3682762e-07 2.0196582e-07
00000000: 1e5a f033 287c 8833 410d 6934 f2d5 ec33
00000010: 1215 c933 c3da b733 5ad4 e634 bb40 df34
00000020: 3d43 5d34 f7b9 ac33 7ae6 bb34 5e87 e533
00000030: 387d 9833 9c71 3a33 ae4a 7e34 f1db 5834

exp_avg f4 [4]
0.00037410078 0.00038467773 -0.00039658218 -0.00013111369
00000000: f522 c439 92ae c939 5cec cfb9 907b 09b9

exp_avg_sq f4 [4]
2.2372974e-06 4.036963e-06 2.8286797e-06 2.0856328e-06
00000000: 7a24 1636 4075 8736 59d4 3d36 e6f6 0b36

exp_avg f4 [4, 4]
-1.2696745e-38 2.9062364e-38 1.2709442e-38 -2.9523122e-38 -8.501826e-06 -5.207328e-05 6.5786653e-06 6.024765e-05
-4.4581375e-18 -2.89046e-18 7.341505e-18 5.785352e-20 -1.1043828e-05 -2.5938652e-05 2.0080508e-05 1.9189509e-05
00000000: 5c41 8a80 063b 1e01 c164 8a00 3abd 2081
00000010: 11a3 0eb7 4269 5ab8 4ebe dc36 6cb2 7c38
00000020: eb79 a4a2 3f47 55a2 476d 0723 4f9a 881f
00000030: e148 39b7 d596 d9b7 9072 a837 28f9 a037

exp_avg_sq f4 [4, 4]
5.3656044e-14 5.6551996e-13 9.876127e-13 9.163064e-14 1.092394e-08 2.149464e-07 1.4755417e-08 3.0676287e-07
2.182445e-10 9.180073e-11 5.918535e-10 1.1132717e-13 3.521343e-09 5.0761657e-09 3.1979923e-09 3.3597212e-09
00000000: 35a5 7129 022e 1f2b 7ffe 8a2b 7855 ce29
00000010: ffab 3b32 04cc 6634 037f 7d32 2bb1 a434
00000020: 5ef6 6f2f 37df c92e fdaf 2230 bfaf fa29
00000030: 1ffc 7131 6d6a ae31 adc3 5b31 d7e0 6631

exp_avg f4 [4]
-1.7525999e-38 -3.9433256e-05 4.919037e-18 -1.9230898e-05
00000000: 5bd7 be80 2365 25b8 fe7a b522 0a52 a1b7

exp_avg_sq f4 [4]
4.3112971e-13 1.1361546e-07 2.657376e-10 3.4082224e-09
00000000: 57b4 f22a c2fc f333 3e17 922f 1536 6a31

exp_avg f4 [4, 4]
3.255439e-39 3.7156595e-05 9.6406175e-20 5.0155975e-08 9.3502e-40 3.6657773e-05 -1.6845462e-18 -1.5372059e-06
4.13868e-40 -3.2365795e-05 -5.974194e-19 -4.638887e-06 1.160547e-39 -2.137557e-05 2.1855582e-18 2.4188018e-06
00000000: d772 2300 97d8 1b38 f5a1 e31f 146b 5733
00000010: 752e 0a00 fcc0 1938 5b98 f8a1 fe51 ceb5
00000020: b281 0400 82c0 07b8 bc53 30a1 bca7 9bb6
00000030: 22a3 0c00 b04f b3b7 0744 2122 b352 2236

exp_avg_sq f4 [4, 4]
5.437915e-16 2.0744703e-07 1.02194715e-13 2.2983246e-11 8.966847e-16 9.702084e-08 3.1165504e-11 2.195274e-10
4.455381e-16 2.657697e-07 3.923869e-12 2.712066e-10 1.5600369e-15 6.437078e-08 5.2460453e-11 1.0641401e-09
00000000: bbbc 1c26 9bbe 5e34 3e1f e629 ab29 ca2d
00000010: d439 8126 c559 d033 3d11 092e 785f 712f
00000020: e96a 0026 1caf 8e34 120f 8a2c f018 952f
00000030: 34d3 e026 363c 8a33 38b9 662e 1a41 9230

exp_avg f4 [4]
0.00019709211 0.00016444214 -0.00017971302 -3.4661323e-05
00000000: 83aa 4e39 1a6e 2c39 5971 3cb9 5061 11b8

exp_avg_sq f4 [4]
7.724667e-07 5.2883297e-07 8.00975e-07 1.869682e-07
00000000: 825b 4f35 20f5 0d35 9502 5735 6dc1 4834

exp_avg f4 [4]
4.145418e-05 -8.772521e-05 4.6449466e-05 8.2415434e-05
00000000: 16df 2d38 1df9 b7b8 bcd2 4238 73d6 ac38

exp_avg_sq f4 [4]
1.572395e-07 3.001874e-07 8.0871764e-08 1.5071734e-07
00000000: aad5 2834 7129 a134 b9ab ad33 ded4 2134

exp_avg f4 [4]
0.00015054992 0.00015766936 -0.00025573617 -6.122678e-05
00000000: f0dc 1d39 0c54 2539 5414 86b9 e166 80b8

exp_avg_sq f4 [4]
7.4475446e-07 4.2628744e-07 9.0965216e-07 1.0859253e-07
00000000: 23eb 4735 80dc e434 d22e 7435 6033 e933

exp_avg f4 [4]
-0.00014022015 -0.0002908761 -0.00036105036 -0.00010763924
00000000: 0f08 13b9 bb80 98b9 5c4b bdb9 60bc e1b8

exp_avg_sq f4 [4]
3.9404185e-07 7.6856116e-07 7.714719e-07 4.1833973e-06
00000000: b38c d334 1f4f 4e35 2517 4f35 1c5f 8c36

exp_avg f4 [4]
-0.00011798984 -0.00018037429 -0.0005947585 5.6122724e-05
00000000: 5071 f7b8 db22 3db9 91e9 1bba 5165 6b38

exp_avg_sq f4 [4]
1.2614968e-06 5.483067e-07 2.6670061e-06 1.9770548e-06
00000000: b350 a935 592f 1335 d1fa 3236 8bad 0436

exp_avg f4 [12, 4]
0.0 0.0 0.0 0.0 0.0 0.0 0.0 0.0
0.0 0.0 0.0 0.0 0.0 0.0 0.0 0.0
0.0 0.0 0.0 0.0 0.0 0.0 0.0 0.0
0.0 0.0 0.0 0.0 0.0 0.0 0.0 0.0
6.5899156e-05 -3.3410455e-05 5.504347e-05 0.00022998892 7.2570074e-05 -0.000118486554 7.044867e-05 1.1181834e-05
6.144532e-05 -0.00031390545 9.526625e-05 6.755661e-05 -2.7344897e-05 -0.00034708242 -6.1601655e-05 -0.00019643728
00000000: 0000 0000 0000 0000 0000 0000 0000 0000
00000010: 0000 0000 0000 0000 0000 0000 0000 0000
00000020: 0000 0000 0000 0000 0000 0000 0000 0000
00000030: 0000 0000 0000 0000 0000 0000 0000 0000
00000040: 0000 0000 0000 0000 0000 0000 0000 0000
00000050: 0000 0000 0000 0000 0000 0000 0000 0000
00000060: 0000 0000 0000 0000 0000 0000 0000 0000
00000070: 0000 0000 0000 0000 0000 0000 0000 0000
00000080: 5733 8a38 3422 0cb8 7ade 6638 2e29 7139
00000090: c330 9838 fc7b f8b8 d7bd 9338 9d99 3b37
000000a0: 34dc 8038 ad93 a4b9 aec9 c738 2ead 8d38
000000b0: b862 e5b7 9df8 b5b9 2330 81b8 bbfa 4db9

exp_avg_sq f4 [12, 4]
0.0 0.0 0.0 0.0 0.0 0.0 0.0 0.0
0.0 0.0 0.0 0.0 0.0 0.0 0.0 0.0
0.0 0.0 0.0 0.0 0.0 0.0 0.0 0.0
0.0 0.0 0.0 0.0 0.0 0.0 0.0 0.0
4.0356423e-07 4.014166e-07 2.8084587e-06 3.1973127e-06 1.7820624e-06 2.4632828e-07 1.8560238e-05 4.772098e-05
1.5719233e-06 2.2368909e-06 2.5357114e-05 9.349941e-05 1.9620491e-07 3.766989e-07 1.3474723e-05 6.461325e-05
00000000: 0000 0000 0000 0000 0000 0000 0000 0000
00000010: 0000 0000 0000 0000 0000 0000 0000 0000
00000020: 0000 0000 0000 0000 0000 0000 0000 0000
00000030: 0000 0000 0000 0000 0000 0000 0000 0000
00000040: 0000 0000 0000 0000 0000 0000 0000 0000
00000050: 0000 0000 0000 0000 0000 0000 0000 0000
00000060: 0000 0000 0000 0000 0000 0000 0000 0000
00000070: 0000 0000 0000 0000 0000 0000 0000 0000
00000080: 72a9 d834 4782 d734 f478 3c36 6a91 5636
00000090: 332f ef35 1a3f 8434 cfb1 9b37 0328 4838
000000a0: e0fa d235 7e1d 1636 fdb5 d437 1d15 c438
000000b0: 65ac 5234 1a3d ca34 7f11 6237 f980 8738

exp_avg f4 [12]
0.0 0.0 0.0 0.0 0.0 0.0 0.0 0.0
4.8832244e-05 -2.2585677e-06 1.6020611e-05 -6.8248366e-05
00000000: 0000 0000 0000 0000 0000 0000 0000 0000
00000010: 0000 0000 0000 0000 0000 0000 0000 0000
00000020: 39d1 4c38 e691 17b6 0064 8637 9020 8fb8

exp_avg_sq f4 [12]
0.0 0.0 0.0 0.0 0.0 0.0 0.0 0.0
8.9374726e-07 6.2303475e-06 8.756351e-06 4.812679e-06
00000000: 0000 0000 0000 0000 0000 0000 0000 0000
00000010: 0000 0000 0000 0000 0000 0000 0000 0000
00000020: d8e9 6f35 470e d136 3ee8 1237 997c a136

exp_avg f4 [4, 4]
0.0004369911 -0.00015517423 -0.00012448283 -6.2805884e-05 -0.00025782984 0.00029634766 0.00014886024 -4.6327345e-06
-0.00035426015 0.00032981078 9.87908e-05 2.9732735e-05 -7.500565e-05 0.00045864462 0.00020537204 -5.0801442e-05
00000000: f41b e539 44b6 22b9 9b87 02b9 a7b6 83b8
00000010: 562d 87b9 1c5f 9b39 5e17 1c39 e372 9bb6
00000020: febb b9b9 74ea ac39 e82d cf38 906a f937
00000030: 5a4c 9db8 3d76 f039 2359 5739 a213 55b8

exp_avg_sq f4 [4, 4]
5.338211e-05 3.3478384e-05 2.1851288e-06 1.2786622e-07 1.1903171e-05 4.269605e-06 1.9275922e-06 4.8192707e-08
2.3062863e-05 1.5595924e-05 1.4126545e-06 7.517649e-08 5.4958236e-05 4.180933e-05 2.3723146e-06 1.7439818e-07
00000000: 9be6 5f38 246b 0c38 3aa4 1236 994b 0934
00000010: bbb3 4737 a143 8f36 c85b 0136 71fc 4e33
00000020: 1f77 c137 fed3 8237 709a bd35 b670 a133
00000030: f582 6638 6d5c 2f38 0e34 1f36 3542 3b34

exp_avg f4 [4]
0.00020116002 -0.0009418059 0.00037508493 0.00062173756
00000000: 7bee 5239 86e3 76ba 0ca7 c439 1afc 223a

exp_avg_sq f4 [4]
9.931874e-06 4.714264e-05 6.1241203e-06 1.8214663e-05
00000000: 13a1 2637 06bb 4538 cb7d cd36 b1cb 9837

exp_avg f4 [12, 4]
0.0 0.0 0.0 0.0 0.0 0.0 0.0 0.0
0.0 0.0 0.0 0.0 0.0 0.0 0.0 0.0
0.0 0.0 0.0 0.0 0.0 0.0 0.0 0.0
0.0 0.0 0.0 0.0 0.0 0.0 0.0 0.0
4.2417694e-05 0.00031679598 8.69453e-05 -0.00052977825 0.0001486812 4.1348976e-06 0.0004280497 -0.00075698836
-0.00013525144 0.0002370351 -0.00015562747 0.00011646258 0.00016717004 0.0007538144 0.0003153957 -0.0014827698
00000000: 0000 0000 0000 0000 0000 0000 0000 0000
00000010: 0000 0000 0000 0000 0000 0000 0000 0000
00000020: 0000 0000 0000 0000 0000 0000 0000 0000
00000030: 0000 0000 0000 0000 0000 0000 0000 0000
00000040: 0000 0000 0000 0000 0000 0000 0000 0000
00000050: 0000 0000 0000 0000 0000 0000 0000 0000
00000060: 0000 0000 0000 0000 0000 0000 0000 0000
00000070: 0000 0000 0000 0000 0000 0000 0000 0000
00000080: a7e9 3138 a317 a639 6756 b638 d1e0 0aba
00000090: 4ee7 1b39 80be 8a36 dc6b e039 a170 46ba
000000a0: 48d2 0db9 a08c 7839 ee2f 23b9 5f3d f438
000000b0: 5e4a 2f39 a19b 453a b25b a539 8059 c2ba

exp_avg_sq f4 [12, 4]
0.0 0.0 0.0 0.0 0.0 0.0 0.0 0.0
0.0 0.0 0.0 0.0 0.0 0.0 0.0 0.0
0.0 0.0 0.0 0.0 0.0 0.0 0.0 0.0
0.0 0.0 0.0 0.0 0.0 0.0 0.0 0.0
3.246302e-07 5.130854e-06 6.329958e-07 8.954727e-06 7.7421385e-07 5.158855e-06 7.9841095e-07 1.0072328e-05
3.3139045e-07 2.795737e-06 3.951897e-07 4.4456224e-06 4.551513e-07 7.5921525e-06 7.9238083e-07 1.6020422e-05
00000000: 0000 0000 0000 0000 0000 0000 0000 0000
00000010: 0000 0000 0000 0000 0000 0000 0000 0000
00000020: 0000 0000 0000 0000 0000 0000 0000 0000
00000030: 0000 0000 0000 0000 0000 0000 0000 0000
00000040: 0000 0000 0000 0000 0000 0000 0000 0000
00000050: 0000 0000 0000 0000 0000 0000 0000 0000
00000060: 0000 0000 0000 0000 0000 0000 0000 0000
00000070: 0000 0000 0000 0000 0000 0000 0000 0000
00000080: d648 ae34 b329 ac36 24eb 2935 423c 1637
00000090: 92d3 4f35 3a1a ad36 6252 5635 52fc 2837
000000a0: f5e9 b134 659e 3b36 752a d434 9b2b 9536
000000b0: 855b f434 18c0 fe36 ffb3 5435 9863 8637

exp_avg f4 [12]
0.0 0.0 0.0 0.0 0.0 0.0 0.0 0.0
0.0002894815 0.00039604833 -6.9891656e-05 0.00076419563
00000000: 0000 0000 0000 0000 0000 0000 0000 0000
00000010: 0000 0000 0000 0000 0000 0000 0000 0000
00000020: 8dc5 9739 b5a4 cf39 cc92 92b8 4d54 483a

exp_avg_sq f4 [12]
0.0 0.0 0.0 0.0 0.0 0.0 0.0 0.0
2.6133955e-06 3.1532118e-06 1.453978e-06 4.518995e-06
00000000: 0000 0000 0000 0000 0000 0000 0000 0000
00000010: 0000 0000 0000 0000 0000 0000 0000 0000
00000020: cb61 2f36 c49b 5336 4e26 c335 dfa1 9736

exp_avg f4 [4, 4]
-0.0007904554 -0.00081784197 1.9915336e-05 0.0013391698 0.00068531046 0.0009071042 -0.00015285688 -0.0013921037
-0.0006004091 -0.00093261 0.00035511042 0.00087836926 0.0011757218 0.0015610015 -0.00038322 -0.001956828
00000000: 9036 4fba 7264 56ba dc0f a737 1587 af3a
00000010: 68a6 333a bbca 6d3a 3548 20b9 4077 b6ba
00000020: c664 1dba 667a 74ba 1d2e ba39 5d42 663a
00000030: ad1a 9a3a 859a cc3a ebea c8b9 203e 00bb

exp_avg_sq f4 [4, 4]
1.2302153e-05 2.6537833e-05 2.371453e-06 4.1690473e-05 9.5523055e-06 2.1058357e-05 2.7325236e-06 3.0501871e-05
6.768603e-06 1.7760132e-05 2.2976328e-06 2.443883e-05 6.1934506e-06 1.2165911e-05 9.901057e-07 1.8170229e-05
00000000: 5865 4e37 909d de37 4125 1f36 cedc 2e38
00000010: d742 2037 7aa6 b037 6660 3736 45de ff37
00000020: db1d e336 98fb 9437 0831 1a36 fd01 cd37
00000030: 56d1 cf36 311c 4c37 c6e3 8435 456c 9837

exp_avg f4 [4]
-0.00042153423 -4.0828512e-05 0.00027229128 0.0006163564
00000000: 5e01 ddb9 483f 2bb8 51c2 8e39 fa92 213a

exp_avg_sq f4 [4]
1.2505285e-05 7.4952586e-05 1.2236139e-05 3.2599746e-05
00000000: cacd 5137 dd2f 9d38 d149 4d37 b6bb 0838

exp_avg f4 [4, 4]
-0.00012697079 -0.001716936 0.00012159899 0.0012811881 1.889026e-05 3.0899013e-05 -3.9382227e-05 -2.1115193e-06
-1.0393926e-05 -4.796472e-05 1.4054705e-05 3.211769e-05 1.6627095e-07 2.052747e-07 6.3912177e-07 -9.897077e-07
00000000: 7623 05b9 d00a e1ba f602 ff38 8aed a73a
00000010: 8676 9e37 9099 0138 582e 25b8 a0b3 0db6
00000020: 9261 2eb7 ba2d 49b8 80cc 6b37 1bb6 0638
00000030: 3688 3234 7b69 5c34 1d90 2b35 19d6 84b5

exp_avg_sq f4 [4, 4]
1.2197631e-06 6.407435e-05 2.8833088e-06 2.5521098e-05 6.3541385e-08 3.829652e-07 1.344367e-07 1.09695826e-07
1.5642817e-07 4.3413118e-07 8.9057885e-08 5.5019217e-07 2.2631012e-07 2.2818774e-07 5.8273054e-07 2.6969421e-06
00000000: beb6 a335 a85f 8638 de7e 4136 2416 d637
00000010: 3f74 8833 569a cd34 ae59 1034 eb91 eb33
00000020: a6f6 2734 8912 e934 1740 bf33 ebb0 1335
00000030: a7ff 7234 c503 7534 f06c 1c35 1dfd 3436

exp_avg f4 [4]
-0.00081204076 1.9159956e-05 -2.5280238e-05 6.468676e-07
00000000: 22df 54ba b1b9 a037 e610 d4b7 67a4 2d35

exp_avg_sq f4 [4]
1.5684713e-05 1.3242442e-07 2.6133958e-07 9.96207e-07
00000000: aa92 8337 8c30 0e34 3d4e 8c34 69b5 8535

exp_avg f4 [4, 4]
-0.0023304876 -6.584076e-06 3.550914e-07 3.6236634e-07 0.0015163966 9.047147e-06 2.8463141e-06 -1.2130128e-06
2.6747832e-05 5.811159e-06 2.3997666e-06 5.624851e-07 0.0012889073 -1.4885245e-05 5.638744e-07 -7.952364e-09
00000000: 18bb 18bb c8ec dcb6 64a3 be34 408b c234
00000010: d4c1 c63a 33c9 1737 4e03 3f36 cdce a2b5
00000020: 8860 e037 7afd c236 ad0b 2136 affd 1635
00000030: 8df0 a83a a4bb 79b7 275d 1735 de9e 08b2

exp_avg_sq f4 [4, 4]
4.9712693e-05 1.9622096e-08 1.9437554e-08 2.7429564e-07 9.9725785e-06 9.546791e-08 1.589753e-08 1.4716022e-06
2.2576756e-05 1.2278667e-07 1.0320245e-09 4.4091647e-07 2.3008997e-05 1.1415554e-07 5.5634175e-10 4.1557463e-08
00000000: 9982 5038 728d a832 a2f7 a632 e842 9334
00000010: e64f 2737 0a04 cd33 0a8f 8832 de83 c535
00000020: 3763 bd37 58d7 0334 22d7 8d30 19b7 ec34
00000030: 7203 c137 ac25 f533 12ed 1830 ea7c 3233

exp_avg f4 [4]
-0.002399281 0.0007397332 -0.00015231446 0.0015638253
00000000: 413d 1dbb a8ea 413a 9ab6 1fb9 45f9 cc3a

exp_avg_sq f4 [4]
5.0087285e-05 4.251241e-05 3.0940573e-05 3.3877895e-05
00000000: d014 5238 5a4f 3238 30c6 0138 1d18 0e38

exp_avg f4 [4]
0.00013162218 0.0011348538 0.00018568037 -0.00047468793
00000000: 0f04 0a39 60bf 943a 32b3 4239 89df f8b9

exp_avg_sq f4 [4]
3.166596e-06 1.5071824e-05 1.0552932e-05 4.9829778e-05
00000000: b481 5436 fedc 7c37 7f0c 3137 5100 5138

exp_avg f4 [4]
-0.0006228131 0.00020757856 0.00015339875 0.00026183572
00000000: 4844 23ba 72a9 5939 aad9 2039 ff46 8939

exp_avg_sq f4 [4]
1.0808011e-05 6.330225e-05 9.3235e-06 2.9138968e-05
00000000: 0e54 3537 23c1 8438 216c 1c37 756f f437

exp_avg f4 [4]
-0.00033179612 0.001738492 3.6902646e-05 -0.0019316495
00000000: ecf4 adb9 1dde e33a eac7 1a38 672f fdba

exp_avg_sq f4 [4]
5.173145e-06 3.212282e-05 2.6724814e-05 4.233026e-05
00000000: fa94 ad36 9ebb 0638 1a2f e037 c58b 3138

exp_avg f4 [4]
-0.0018290337 0.0007856308 -0.00015572419 0.00083008787
00000000: 30bc efba caf2 4d3a e549 23b9 419a 593a

exp_avg_sq f4 [4]
3.3648426e-05 5.2828127e-05 2.4934643e-05 4.1343374e-05
00000000: b921 0d38 c593 5d38 bd2a d137 1c68 2d38

exp_avg f4 [4]
-0.00022405859 0.0887094 -0.0061555263 0.0008961121
00000000: 45f1 6ab9 46ad b53d 4cb4 c9bb 11e9 6a3a

exp_avg_sq f4 [4]
3.6239533e-05 0.032513518 0.00016098801 1.9112872e-06
00000000: e7ff 1738 e52c 053d e4ce 2839 aa43 0036

exp_avg f4 [4]
0.024018478 0.05560161 0.011197185 -0.00085484784
00000000: 66c2 c43c 84be 633d 6674 373c de17 60ba

exp_avg_sq f4 [4]
0.0025122704 0.013371816 0.0005922501 1.6831046e-06
00000000: e7a4 243b 7615 5b3c 3b41 1b3a 09e7 e135

exp_avg f4 [1, 4]
0.016050838 0.18285297 -0.02335832 -0.06602376
00000000: 0c7d 833c cf3d 3b3e f359 bfbc 7737 87bd

exp_avg_sq f4 [1, 4]
0.0014351533 0.13907063 0.0023442141 0.021891592
00000000: c11b bc3a 8868 0e3e 63a1 193b ff55 b33c
