Saved_models/best_model_both.pt (torch, 89754 bytes, 198 tensors)

encoder_input_layer.weight f4 [4, 5]
-0.9091195 -0.67699116 -1.2742804 -1.1749505 -1.0791378 -0.606526 -0.76182926 -0.29328734
-0.7781482 -0.56481516 0.39847785 0.52000314 0.11808402 0.1635504 0.3093044 -0.54736626
-0.46764812 -0.33225393 -0.79013973 -0.7886626
00000000: 0ebc 68bf 4b4f 2dbf 9f1b a3bf c764 96bf
00000010: 3021 8abf 4a45 1bbf 3e07 43bf c229 96be
00000020: b834 47bf ba97 10bf 4a05 cc3e ed1e 053f
00000030: 09d6 f13d c279 273e 255d 9e3e 3220 0cbf
00000040: 936f efbe 301d aabe 9946 4abf cbe5 49bf

encoder_input_layer.bias f4 [4]
0.8490701 0.86472 -0.4798817 1.2038671
00000000: a85c 593f 4a5e 5d3f 0eb3 f5be 5118 9a3f

decoder_input_layer.weight f4 [4, 1]
-0.6914922 -0.31707922 0.95833045 0.76720124
00000000: a205 31bf 3558 a2be 2555 753f 4d67 443f

decoder_input_layer.bias f4 [4]
-1.7427604 -1.8695475 2.3558517 1.2002256
00000000: c612 dfbf 554d efbf 46c6 1640 fea0 993f

positional_encoding_layer_enc.pe f4 [1, 9, 4]
0.0 1.0 0.0 1.0 0.84147096 0.54030234 0.009999833 0.99995
0.9092974 -0.41614684 0.019998666 0.9998 0.14112 -0.9899925 0.0299955 0.99955004
-0.7568025 -0.6536436 0.039989334 0.9992001 -0.9589243 0.2836622 0.049979165 0.99875027
-0.2794155 0.96017027 0.059964005 0.99820054 0.6569866 0.75390226 0.06994285 0.997551
0.98935825 -0.14550003 0.07991469 0.9968017
00000000: 0000 0000 0000 803f 0000 0000 0000 803f
00000010: a46a 573f 4151 0a3f 57d6 233c b9fc 7f3f
00000020: b7c7 683f 3311 d5be 3ed4 a33c e5f2 7f3f
00000030: c381 103e 2670 7dbf 1fb9 f53c 83e2 7f3f
00000040: cfbd 41bf 3055 27bf dbcb 233d 94cb 7f3f
00000050: 107c 75bf 2c3c 913e f4b6 4c3d 19ae 7f3f
00000060: 8c0f 8fbe b8cd 753f d19c 753d 128a 7f3f
00000070: 4630 283f bdff 403f 323e 8f3d 815f 7f3f
00000080: 9546 7d3f f6fd 14be 50aa a33d 652e 7f3f

positional_encoding_layer_dec.pe f4 [1, 1, 4]
0.0 1.0 0.0 1.0
00000000: 0000 0000 0000 803f 0000 0000 0000 803f

encoder.layers.0.self_attn.in_proj_weight f4 [12, 4]
0.063674405 -0.7692225 0.43003199 -0.2565074 0.007820008 -0.99739987 -0.92979395 -0.15179206
0.1585593 0.4233409 -0.31069195 -0.311232 1.0772798 0.30309668 0.22705838 1.2318523
0.56504947 -0.0036510846 -0.97784257 0.48663774 1.2410581 0.42091933 -0.36624262 0.5024851
-0.326273 -0.38866594 0.95299864 -0.59094596 -1.0433224 0.7197045 1.2750528 -1.3263209
0.42080083 0.78282 -1.1073349 1.3841635 0.2404399 -0.26155913 0.017478267 0.20949116
0.49334267 1.1347724 -0.7142525 0.17407916 0.9245112 1.3411286 -1.1998849 0.39635262
00000000: ba67 823d c4eb 44bf 272d dc3e f054 83be
00000010: 7e1f 003c 9955 7fbf fa06 6ebf 616f 1bbe
00000020: 5e5d 223e 23c0 d83e 0413 9fbe cd59 9fbe
00000030: 4ee4 893f 7d2f 9b3e fe81 683e 56ad 9d3f
00000040: 15a7 103f 0947 6fbb e453 7abf 9528 f93e
00000050: feda 9e3f bd82 d73e 2784 bbbe dda2 003f
00000060: 410d a7be 39ff c6be b8f7 733f 3c48 17bf
00000070: 978b 85bf 8e3e 383f ee34 a33f e2c4 a9bf
00000080: 3573 d73e e466 483f 26bd 8dbf 452c b13f
00000090: e135 763e 14eb 85be 952e 8f3c da84 563e
000000a0: 6997 fc3e 3940 913f 40d9 36bf cf41 323e
000000b0: c4ac 6c3f 1aaa ab3f d495 99bf bbee ca3e

encoder.layers.0.self_attn.in_proj_bias f4 [12]
-0.12871613 -0.03770135 -0.25048053 0.8196371 -0.00089703035 -7.555793e-06 0.0025920498 8.402159e-05
1.5362607 0.013820797 0.66181576 1.0560738
00000000: 29ce 03be bb6c 1abd fc3e 80be bdd3 513f
00000010: b026 6bba c587 fdb6 61df 293b bf34 b038
00000020: 31a4 c43f a070 623c c26c 293f 6d2d 873f

encoder.layers.0.self_attn.out_proj.weight f4 [4, 4]
-0.28969228 -0.12835453 -0.3252982 -0.43718582 -0.6865779 0.49611288 -0.029951276 -0.073035695
-1.1602257 0.13093469 -1.4740819 -1.8060076 0.15384139 -0.04566845 0.9724318 0.89345354
00000000: 8c52 94be 5f6f 03be 7c8d a6be d2d6 dfbe
00000010: 92c3 2fbf 8202 fe3e 615c f5bc bd93 95bd
00000020: 4782 94bf be13 063e b7ae bcbf 422b e7bf
00000030: 9988 1d3e d70e 3bbd 4af1 783f 5fb9 643f

encoder.layers.0.self_attn.out_proj.bias f4 [4]
-0.26080364 -1.1281015 -1.504196 0.689161
00000000: 0e88 85be a165 90bf 7f89 c0bf db6c 303f

encoder.layers.0.linear1.weight f4 [4, 4]
0.2949913 0.4691978 0.13289751 0.0030529553 -0.3294521 -0.028522432 0.21011741 -0.8191508
-1.089295 0.6857552 0.35014337 -0.25067258 -0.08867086 0.06046272 0.7431866 -0.55365145
00000000: 1a09 973e b23a f03e 4916 083e 1714 483b
00000010: f2ad a8be e0a7 e9bc 0529 573e deb3 51bf
00000020: 056e 8bbf a78d 2f3f fe45 b33e 2858 80be
00000030: 1199 b5bd c2a7 773d 7a41 3e3f 1abc 0dbf

encoder.layers.0.linear1.bias f4 [4]
-0.69664353 -0.4047423 -0.24615148 0.07616212
00000000: 3b57 32bf 623a cfbe 220f 7cbe e3fa 9b3d

encoder.layers.0.linear2.weight f4 [4, 4]
-0.072239935 -0.58131874 -0.56629735 0.494586 -0.33616886 -0.30510688 1.2874818 -0.2094438
-0.3943159 -0.5509093 -0.23802091 -0.08868349 -0.13875474 0.013591106 -0.22799504 0.05332583
00000000: 88f2 93bd 4ed1 14bf ddf8 10bf 603a fd3e
00000010: 531e acbe f836 9cbe 34cc a43f 6f78 56be
00000020: c6e3 c9be 6408 0dbf c1bb 73be b19f b5bd
00000030: b915 0ebe 3bad 5e3c 8877 69be 2f6c 5a3d

encoder.layers.0.linear2.bias f4 [4]
-0.25386629 0.5575445 0.07909768 1.0822229
00000000: c3fa 81be 3dbb 0e3f f7fd a13d 4886 8a3f

encoder.layers.0.norm1.weight f4 [4]
1.4944232 0.37411898 1.8868319 1.4312247
00000000: 4249 bf3f 868c bf3e b583 f13f 5f32 b73f

encoder.layers.0.norm1.bias f4 [4]
0.56051683 0.031256557 -0.9826077 0.6473778
00000000: 087e 0f3f e006 003d 2e8c 7bbf 8dba 253f

encoder.layers.0.norm2.weight f4 [4]
0.9594642 0.505807 1.0447605 2.1510594
00000000: 729f 753f 917c 013f b6ba 853f f5aa 0940

encoder.layers.0.norm2.bias f4 [4]
-0.5202425 -0.2620508 -0.23243736 1.0822263
00000000: 9d2e 05bf 862b 86be 0f04 6ebe 6486 8a3f

encoder.layers.1.self_attn.in_proj_weight f4 [12, 4]
0.8064762 -0.6357534 1.5547112 -0.95224434 0.59908384 -0.9661203 -0.044735927 -0.7990791
-0.14413802 0.92660594 -0.63455904 0.7292523 0.5443308 -0.69083714 0.77715456 -0.26393276
0.4863422 1.5952907 -1.2663993 -1.171651 0.8102896 1.149962 -0.66011757 0.023103243
-0.43909568 -1.0778514 0.87900186 0.4119409 -0.0866063 1.0768192 -0.666013 -0.9813727
0.4740171 1.3071786 1.6238934 -2.4407883 -0.14348295 -2.0189223 -0.21515718 0.7008742
1.1448158 0.11585708 0.03276776 -0.93928546 -0.0067271036 -0.117998034 -0.88125694 0.25108892
00000000: 3975 4e3f bcc0 22bf c700 c73f 49c6 73bf
00000010: 8f5d 193f a953 77bf 053d 37bd 7390 4cbf
00000020: eb98 13be 0c36 6d3f 7672 22bf 47b0 3a3f
00000030: 4359 0b3f b4da 30bf 9af3 463f 3222 87be
00000040: d801 f93e 7c32 cc3f 5f19 a2bf a9f8 95bf
00000050: 246f 4f3f f431 933f 77fd 28bf 0343 bd3c
00000060: 26d1 e0be 09f7 89bf 4406 613f ebe9 d23e
00000070: a55e b1bd 36d5 893f d47f 2abf 3e3b 7bbf
00000080: 5fb2 f23e a151 a73f bddb cf3f e035 1cc0
00000090: 32ed 12be 0636 01c0 2a52 5cbe 7e6c 333f
000000a0: 5389 923f 7a46 ed3d 7d37 063d 0375 70bf
000000b0: 096f dcbb f4a8 f1bd 0e9a 61bf ba8e 803e

encoder.layers.1.self_attn.in_proj_bias f4 [12]
-0.7132013 -0.65634525 0.40461197 -0.2968954 -0.0007738399 -0.0019536582 0.0003656657 -0.002117275
-1.6650628 0.050433926 -0.40082055 0.59759516
00000000: 5c94 36bf 3e06 28bf 4d29 cf3e ad02 98be
00000010: 84db 4aba f208 00bb d2b6 bf39 fbc1 0abb
00000020: c720 d5bf ce93 4e3d 5a38 cdbe fffb 183f

encoder.layers.1.self_attn.out_proj.weight f4 [4, 4]
-0.41971838 0.07585551 -0.5041017 0.16586684 -0.59696543 0.35471997 0.26157638 0.33688214
0.7312847 -0.96827334 1.0434211 -0.63575506 -2.259363 1.3659632 -0.7709512 1.2859691
00000000: 54e5 d6be 225a 9b3d cf0c 01bf ffd8 293e
00000010: bad2 18bf db9d b53e 57ed 853e d17b ac3e
00000020: 7935 3b3f c3e0 77bf d38e 853f d8c0 22bf
00000030: 6799 10c0 e2d7 ae3f 0f5d 45bf a39a a43f

encoder.layers.1.self_attn.out_proj.bias f4 [4]
-0.5343081 0.110218555 -0.33516574 2.025323
00000000: 6ac8 08bf 44ba e13d d89a abbe e49e 0140

encoder.layers.1.linear1.weight f4 [4, 4]
-0.53191906 0.8907877 -0.7046233 0.29879087 -1.1287117 -0.06974567 -0.08716129 -0.51979285
0.8869975 0.9523682 -0.67740667 0.46721673 -0.28029424 0.3169609 0.43762255 -0.43298087
00000000: d92b 08bf aa0a 643f 3162 34bf 1efb 983e
00000010: a079 90bf d1d6 8ebd 9e81 b2bd 2511 05bf
00000020: 4512 633f 67ce 733f 866a 2dbf 0837 ef3e
00000030: ba82 8fbe b348 a23e 1010 e03e abaf ddbe

encoder.layers.1.linear1.bias f4 [4]
0.21534778 -0.32295468 0.60134244 -0.082547106
00000000: 2184 5c3e 515a a5be 94f1 193f 750e a9bd

encoder.layers.1.linear2.weight f4 [4, 4]
0.25858325 0.119196326 -0.45020765 0.022773396 -1.0226357 -0.48968634 -0.9128654 -0.06685001
-0.5438575 -0.8448792 -0.5323161 0.18400873 2.478828 0.5531918 2.5995266 -0.020392742
00000000: 0665 843e 341d f43d 9e81 e6be 468f ba3c
00000010: bae5 82bf 2bb8 fabe 8cb1 69bf a8e8 88bd
00000020: 3f3a 0bbf 014a 58bf de45 08bf c96c 3c3e
00000030: 1ea5 1e40 fa9d 0d3f a55e 2640 ae0e a7bc

encoder.layers.1.linear2.bias f4 [4]
0.33963728 -1.1569684 -0.66600776 2.301871
00000000: f0e4 ad3e 8a17 94bf 7c7f 2abf db51 1340

encoder.layers.1.norm1.weight f4 [4]
0.42618033 0.3704037 1.0041547 2.7127085
00000000: 4f34 da3e 8ea5 bd3e 2488 803f 049d 2d40

encoder.layers.1.norm1.bias f4 [4]
0.34218872 -0.4310327 -0.31756344 1.4898652
00000000: 5c33 af3e 51b0 dcbe ad97 a2be e7b3 be3f

encoder.layers.1.norm2.weight f4 [4]
-0.060201865 0.015724821 0.093408525 0.28209636
00000000: 3b96 76bd 57d1 803c f84c bf3d ef6e 903e

encoder.layers.1.norm2.bias f4 [4]
0.004273935 0.017300228 0.051405076 -0.4393768
00000000: 5e0c 8c3b 35b9 8d3c 218e 523d fff5 e0be

decoder.layers.0.self_attn.in_proj_weight f4 [12, 4]
-0.11795229 -0.12023488 -0.5495124 -0.5287456 -0.095823705 0.0079193115 -0.27818543 0.23068023
-0.55117095 -0.041327298 0.5385322 -0.24978182 0.5529743 0.22177297 -0.5526422 0.3874464
-0.070664406 -0.27336726 0.4896856 -0.49485525 0.065710604 -0.12821162 0.4373029 0.1709404
0.29424822 0.21626484 -0.14726007 -0.12878525 -0.50464475 0.3318104 0.4862103 0.41900045
-0.27556902 0.26690862 -0.060124986 -0.32897273 -1.1743689 0.47201502 0.06344637 0.8007517
-2.601943 1.7940302 -0.25701293 1.4993547 0.5092813 -0.74607784 -0.37128672 0.51079863
00000000: f890 f1bd b43d f6bd d8ac 0cbf df5b 07bf
00000010: 383f c4bd 00c0 013c 526e 8ebe 7037 6c3e
00000020: 8a19 0dbf d046 29bd 3fdd 093f cec6 7fbe
00000030: b98f 0d3f 7418 633e f679 0dbf 605f c63e
00000040: 80b8 90bd cbf6 8bbe 12b8 fa3e ab5d fdbe
00000050: 4893 863d e849 03be 2ae6 df3e 000b 2f3e
00000060: b4a7 963e 8874 5d3e 58cb 16be 48e0 03be
00000070: 6630 01bf 0ee3 a93e 8ef0 f83e 3a87 d63e
00000080: 6217 8dbe 3fa8 883e 9e45 76bd 1d6f a8be
00000090: b851 96bf f4ab f13e 2cf0 813d 10fe 4c3f
000000a0: 3c86 26c0 c8a2 e53f 3397 83be dbea bf3f
000000b0: 4260 023f f5fe 3ebf 4b19 bebe b3c3 023f

decoder.layers.0.self_attn.in_proj_bias f4 [12]
0.0 0.0 0.0 0.0 0.0 0.0 0.0 0.0
0.000102517486 0.11178977 0.033210702 -0.16787425
00000000: 0000 0000 0000 0000 0000 0000 0000 0000
00000010: 0000 0000 0000 0000 0000 0000 0000 0000
00000020: a8fe d638 09f2 e43d f207 083d 3ae7 2bbe

decoder.layers.0.self_attn.out_proj.weight f4 [4, 4]
0.09902876 1.5594846 0.15454651 1.124412 0.09085002 -0.021566464 -0.005988162 0.073812686
0.85243344 0.4604882 -0.08345591 0.4647834 0.44152904 0.5488677 -0.3130797 -0.121169426
00000000: 97cf ca3d 319d c73f 7141 1e3e bbec 8f3f
00000010: 930f ba3d 27ac b0bc 5838 c4bb 1b2b 973d
00000020: 1439 5a3f 1cc5 eb3e efea aabd 17f8 ed3e
00000030: 1810 e23e 9882 0c3f fc4b a0be ad27 f8bd

decoder.layers.0.self_attn.out_proj.bias f4 [4]
-0.034466695 0.001074794 -0.020408263 0.010461947
00000000: f32c 0dbd 1ae0 8c3a 3b2f a7bc 9668 2b3c

decoder.layers.0.multihead_attn.in_proj_weight f4 [12, 4]
-0.20546097 -0.09068465 0.0066983104 0.50508946 0.076447845 0.5484976 0.37459588 -0.3871504
0.27465153 -0.43288368 -0.25953886 0.18011266 0.20220053 0.45941895 -0.19713241 0.0009803176
0.31526375 -0.5922206 0.44273347 -0.5063845 0.008440018 -0.10411358 -0.32252002 0.08093792
0.5063823 -0.17900842 -0.36356193 -0.22647911 -0.60695195 0.27642125 -0.29410025 -0.40866083
0.03792519 0.0026606868 -0.02142626 0.032243375 0.016261442 0.023251694 -0.012026197 -0.008046275
-0.002349228 0.01094904 0.034192808 0.0006042935 0.020457972 0.012714215 -0.003642643 -0.010448091
00000000: 5c64 52be e0b8 b9bd 807d db3b 8b4d 013f
00000010: b090 9c3d 576a 0c3f 08cb bf3e 9438 c6be
00000020: 209f 8c3e eea2 ddbe 47e2 84be 746f 383e
00000030: a80d 4f3e f638 eb3e 14dd 49be 007e 803a
00000040: 406a a13e c59b 17bf f6ad e23e 6aa2 01bf
00000050: 0048 0a3c 8039 d5bd 5821 a5be c8c2 a53d
00000060: 45a2 013f fc4d 37be ca24 babe 24ea 67be
00000070: 3461 1bbf 1687 8d3e 4f94 96be fe3b d1be
00000080: 7257 1b3d eb5e 2e3b 2086 afbc a111 043d
00000090: b736 853c 567a be3c 8709 45bc 86d4 03bc
000000a0: 81f5 19bb 9a63 333c c20d 0c3d 7369 1e3a
000000b0: 7a97 a73c 484f 503c 69b9 6ebb 782e 2bbc

decoder.layers.0.multihead_attn.in_proj_bias f4 [12]
0.0 0.0 0.0 0.0 0.0 0.0 0.0 0.0
-0.005982367 0.012111018 -0.00034946098 0.004334463
00000000: 0000 0000 0000 0000 0000 0000 0000 0000
00000010: 0000 0000 0000 0000 0000 0000 0000 0000
00000020: bb07 c4bb 4b6d 463c dc37 b7b9 1c08 8e3b

decoder.layers.0.multihead_attn.out_proj.weight f4 [4, 4]
0.049840074 0.02635757 -0.03142931 0.04391716 0.04165585 -0.006409305 -0.035762455 0.014183542
0.033429127 -0.0047535677 -0.018795254 0.005289199 0.020166293 0.009290189 -0.03269215 0.015242098
00000000: 1b25 4c3d d5eb d73c 05bc 00bd 7be2 333d
00000010: 539f 2a3d 2605 d2bb a77b 12bd 1662 683c
00000020: fbec 083d d1c3 9bbb 81f8 99bc 0451 ad3b
00000030: c833 a53c e035 183c 34e8 05bd feb9 793c

decoder.layers.0.multihead_attn.out_proj.bias f4 [4]
-0.09084323 0.012544132 0.0212529 -0.007242498
00000000: 040c babd e785 4d3c 901a ae3c 7a52 edbb

decoder.layers.0.linear1.weight f4 [4, 4]
0.04748509 -0.36877525 -1.7018132 -0.15442532 0.6574083 0.24617884 -0.17629676 0.17844954
-0.23826188 -0.18176466 -1.1006757 -0.055173278 -0.062042374 0.12926657 -0.31640056 0.104578055
00000000: ba7f 423d 1cd0 bcbe 04d5 d9bf ac21 1ebe
00000010: e94b 283f 4e16 7c3e 2387 34be 7abb 363e
00000020: ecfa 73be 8420 3abe f1e2 8cbf 60fd 61bd
00000030: 2520 7ebd 755e 043e 41ff a1be 052d d63d

decoder.layers.0.linear1.bias f4 [4]
-1.6409359 -0.93766415 -0.5272169 -0.45338917
00000000: 300a d2bf c20a 70bf b0f7 06bf a022 e8be

decoder.layers.0.linear2.weight f4 [4, 4]
0.48582467 -1.3909928 -0.47131473 -0.10782383 -1.3305218 0.91958386 -0.8664089 -0.10926958
0.19951877 1.3449539 0.048478086 0.25852203 1.0997136 0.22567666 -0.027365489 0.111756645
00000000: 03be f83e 0d0c b2bf 2a50 f1be bdd2 dcbd
00000010: 8a4e aabf d969 6b3f f9cc 5dbf bbc8 dfbd
00000020: a64e 4c3e 7327 ac3f f590 463d 005d 843e
00000030: 6ac3 8c3f c817 673e 972d e0bc abe0 e43d

decoder.layers.0.linear2.bias f4 [4]
0.017410096 -0.009629138 -0.089256264 -0.010459032
00000000: 9e9f 8e3c 88c3 1dbc fdcb b6bd 5c5c 2bbc

decoder.layers.0.norm1.weight f4 [4]
0.59482723 2.1394796 2.532418 2.3546033
00000000: 9946 183f 3ced 0840 2313 2240 d2b1 1640

decoder.layers.0.norm1.bias f4 [4]
-0.03882354 0.38601512 0.50316113 -0.9540819
00000000: 6f05 1fbd c6a3 c53e 2bcf 003f b63e 74bf

decoder.layers.0.norm2.weight f4 [4]
-0.77487487 2.001849 -1.6875621 2.6929073
00000000: 335e 46bf 4b1e 0040 0902 d8bf 9858 2c40

decoder.layers.0.norm2.bias f4 [4]
0.6125202 -0.51379514 0.85052913 -0.49954146
00000000: 20ce 1c3f 1488 03bf 47bc 593f e6c3 ffbe

decoder.layers.0.norm3.weight f4 [4]
-3.6130006 2.4020076 -0.20185322 -0.3551656
00000000: 673b 67c0 7eba 1940 9cb2 4ebe 44d8 b5be

decoder.layers.0.norm3.bias f4 [4]
-1.1515749 1.022601 -0.063160524 0.15828685
00000000: ce66 93bf 97e4 823f 4e5a 81bd f315 223e

decoder.layers.1.self_attn.in_proj_weight f4 [12, 4]
-0.11795229 -0.12023488 -0.5495124 -0.5287456 -0.095823705 0.0079193115 -0.27818543 0.23068023
-0.55117095 -0.041327298 0.5385322 -0.24978182 0.5529743 0.22177297 -0.5526422 0.3874464
-0.070664406 -0.27336726 0.4896856 -0.49485525 0.065710604 -0.12821162 0.4373029 0.1709404
0.29424822 0.21626484 -0.14726007 -0.12878525 -0.50464475 0.3318104 0.4862103 0.41900045
-0.58921105 0.51718646 -0.36793268 -1.0155795 -0.2022102 0.17477044 -0.7179466 -0.51889867
0.03117116 0.04502343 0.8103474 -0.20328248 0.06911723 -0.23501825 0.61854184 1.356985
00000000: f890 f1bd b43d f6bd d8ac 0cbf df5b 07bf
00000010: 383f c4bd 00c0 013c 526e 8ebe 7037 6c3e
00000020: 8a19 0dbf d046 29bd 3fdd 093f cec6 7fbe
00000030: b98f 0d3f 7418 633e f679 0dbf 605f c63e
00000040: 80b8 90bd cbf6 8bbe 12b8 fa3e ab5d fdbe
00000050: 4893 863d e849 03be 2ae6 df3e 000b 2f3e
00000060: b4a7 963e 8874 5d3e 58cb 16be 48e0 03be
00000070: 6630 01bf 0ee3 a93e 8ef0 f83e 3a87 d63e
00000080: 89d6 16bf 5566 043f ac61 bcbe 82fe 81bf
00000090: 3110 4fbe 06f7 323e 59cb 37bf 8bd6 04bf
000000a0: a95a ff3c 7d6a 383d ed72 4f3f 4829 50be
000000b0: 568d 8d3d a0a8 70be c258 1e3f afb1 ad3f

decoder.layers.1.self_attn.in_proj_bias f4 [12]
0.0 0.0 0.0 0.0 0.0 0.0 0.0 0.0
0.43550396 0.098482706 0.32506606 -0.2822831
00000000: 0000 0000 0000 0000 0000 0000 0000 0000
00000010: 0000 0000 0000 0000 0000 0000 0000 0000
00000020: 60fa de3e 4db1 c93d 0f6f a63e 6987 90be

decoder.layers.1.self_attn.out_proj.weight f4 [4, 4]
-0.13013238 0.32562694 0.08999291 -0.03246487 -0.046910584 0.2547904 0.065322205 -0.010842582
-1.8170013 0.08340821 0.15707916 -0.20036434 -0.06788165 0.36567688 0.09803168 -0.041734755
00000000: 6c41 05be 93b8 a63e 344e b83d e2f9 04bd
00000010: 5025 40bd e373 823e a6c7 853d 16a5 31bc
00000020: 8093 e8bf ecd1 aa3d 5cd9 203e 4f2c 4dbe
00000030: 8905 8bbd 003a bb3e d5c4 c83d 10f2 2abd

decoder.layers.1.self_attn.out_proj.bias f4 [4]
-0.012054567 -0.004519915 -0.23882566 0.019025784
00000000: 8580 45bc cc1b 94bb b78e 74be f6db 9b3c

decoder.layers.1.multihead_attn.in_proj_weight f4 [12, 4]
-0.20546097 -0.09068465 0.0066983104 0.50508946 0.076447845 0.5484976 0.37459588 -0.3871504
0.27465153 -0.43288368 -0.25953886 0.18011266 0.20220053 0.45941895 -0.19713241 0.0009803176
0.31526375 -0.5922206 0.44273347 -0.5063845 0.008440018 -0.10411358 -0.32252002 0.08093792
0.5063823 -0.17900842 -0.36356193 -0.22647911 -0.60695195 0.27642125 -0.29410025 -0.40866083
0.025613785 0.026342342 -0.033492636 0.026019054 0.037711997 -0.04335242 0.044153877 0.036447775
0.108791806 -0.0499723 0.10632042 0.050824396 -0.0073816217 -0.078084305 0.060542952 0.038023
00000000: 5c64 52be e0b8 b9bd 807d db3b 8b4d 013f
00000010: b090 9c3d 576a 0c3f 08cb bf3e 9438 c6be
00000020: 209f 8c3e eea2 ddbe 47e2 84be 746f 383e
00000030: a80d 4f3e f638 eb3e 14dd 49be 007e 803a
00000040: 406a a13e c59b 17bf f6ad e23e 6aa2 01bf
00000050: 0048 0a3c 8039 d5bd 5821 a5be c8c2 a53d
00000060: 45a2 013f fc4d 37be ca24 babe 24ea 67be
00000070: 3461 1bbf 1687 8d3e 4f94 96be fe3b d1be
00000080: 00d4 d13c e5cb d73c 932f 09bd e925 d53c
00000090: e577 1a3d 4f92 31bd b2da 343d 434a 153d
000000a0: 3dce de3d c1af 4cbd 85be d93d 3e2d 503d
000000b0: 88e1 f1bb aaea 9fbd e3fb 773d 01be 1b3d

decoder.layers.1.multihead_attn.in_proj_bias f4 [12]
0.0 0.0 0.0 0.0 0.0 0.0 0.0 0.0
0.010695858 -0.037620857 0.021924812 0.0036391024
00000000: 0000 0000 0000 0000 0000 0000 0000 0000
00000010: 0000 0000 0000 0000 0000 0000 0000 0000
00000020: ae3d 2f3c 5418 1abd aa9b b33c 027e 6e3b

decoder.layers.1.multihead_attn.out_proj.weight f4 [4, 4]
-0.013750078 -0.18846822 0.015431561 0.014808743 -0.019530501 -0.22784191 -0.0022598207 0.007833918
-0.0126577215 -0.24327676 0.0054402314 0.0065207244 0.012656411 -0.2584424 0.067376435 0.013408794
00000000: 0248 61bc d0fd 40be a8d4 7c3c 5fa0 723c
00000010: 6efe 9fbc 644f 69be 8019 14bb d559 003c
00000020: 5562 4fbc 8b1d 79be f843 b23b cdab d53b
00000030: d65c 4f3c 9052 84be a8fc 893d 8fb0 5b3c

decoder.layers.1.multihead_attn.out_proj.bias f4 [4]
-0.0045924843 -0.0015689442 0.002273738 0.011801858
00000000: 8d7c 96bb 08a5 cdba fe02 153b 955c 413c

decoder.layers.1.linear1.weight f4 [4, 4]
0.013786175 0.018962419 -0.28193456 -0.072109826 0.8354707 0.27376276 -0.86184657 -0.5662457
-0.5153701 0.6856374 -0.98690647 0.4397588 0.42171213 0.08975896 -1.2099822 -0.15900427
00000000: 69df 613c 1357 9b3c ba59 90be 51ae 93bd
00000010: 68e1 553f a22a 8c3e faa1 5cbf 7af5 10bf
00000020: 4bef 03bf ef85 2f3f e7a5 7cbf 1128 e13e
00000030: a7ea d73e 8cd3 b73d b2e0 9abf 04d2 22be

decoder.layers.1.linear1.bias f4 [4]
-0.21885704 -1.5353514 -0.14045788 -0.4687347
00000000: 0f1c 60be 6586 c4bf 31d4 0fbe fffd efbe

decoder.layers.1.linear2.weight f4 [4, 4]
-0.0617277 -0.42862013 -0.4097337 0.03271443 -0.10781973 0.43226552 -0.5107933 0.08407259
-0.029320989 -0.28641674 0.4157141 0.28631547 0.3910703 -0.96195495 -0.013412308 0.15089336
00000000: 2fd6 7cbd 1974 dbbe 9ec8 d1be 91ff 053d
00000010: 97d0 dcbd e851 dd3e 5ac3 02bf 402e ac3d
00000020: 9232 f0bc 37a5 92be 7ad8 d43e f197 923e
00000030: 5e3a c83e ae42 76bf 4cbf 5bbc ca83 1a3e

decoder.layers.1.linear2.bias f4 [4]
0.007310865 -0.005521911 0.020660328 0.035297718
00000000: fb8f ef3b 26f1 b4bb d93f a93c 5794 103d

decoder.layers.1.norm1.weight f4 [4]
3.4532862 3.4979944 -1.1161287 2.931999
00000000: a402 5d40 24df 5f40 4edd 8ebf dfa5 3b40

decoder.layers.1.norm1.bias f4 [4]
0.6002573 -0.96113914 -1.4469045 -0.0071709785
00000000: 76aa 193f 370d 76bf 2b34 b9bf 87fa eabb

decoder.layers.1.norm2.weight f4 [4]
-3.4665754 2.90084 -0.01779508 3.0376382
00000000: 5fdc 5dc0 5da7 3940 fdc6 91bc aa68 4240

decoder.layers.1.norm2.bias f4 [4]
-1.1176263 -1.2917801 1.4780706 -1.5426205
00000000: 610e 8fbf 0d59 a5bf 6b31 bd3f 9774 c5bf

decoder.layers.1.norm3.weight f4 [4]
-0.0036195503 1.0500245 -0.004032359 0.79591477
00000000: fa35 6dbb 3467 863f e121 84bb 12c1 4b3f

decoder.layers.1.norm3.bias f4 [4]
0.013739081 0.3652103 -0.015817633 -0.5854208
00000000: e219 613c d8fc ba3e fb93 81bc 23de 15bf

linear_mapping.weight f4 [1, 4]
-0.2610758 0.0049309134 0.2067495 0.03918892
00000000: baab 85be 8093 a13b 24b6 533e 9084 203d

linear_mapping_with_gender_ind.weight f4 [1, 5]
0.009697353 -0.62080497 -0.010805762 0.1618282 0.019565165
00000000: a5e1 1e3c 13ed 1ebf a70a 31bc 4bb6 253e
00000010: 2047 a03c

exp_avg f4 [4, 5]
5.1933036e-10 5.5149474e-10 5.1723925e-10 5.064391e-10 5.456826e-10 -6.245736e-10 -6.465978e-10 -6.2922056e-10
-6.403979e-10 -6.571171e-10 1.1043401e-09 1.0476934e-09 1.1200524e-09 1.1186264e-09 1.0698282e-09 1.0080271e-10
1.4784492e-10 8.516553e-11 9.502989e-11 1.3880307e-10
00000000: a0c0 0e30 fe97 1730 7a2d 0e30 7c35 0b30
00000010: 00ff 1530 76ae 2bb0 46bc 31b0 76f5 2cb0
00000020: ff07 30b0 81a0 34b0 83c7 9730 6ffe 8f30
00000030: 57f0 9930 2bbe 9930 3c09 9330 e2aa dd2e
00000040: a58e 222f ee47 bb2e 12f9 d02e 979d 182f

exp_avg_sq f4 [4, 5]
2.1200961e-16 2.1913744e-16 2.1864611e-16 2.185645e-16 2.2092087e-16 3.6244135e-16 3.6461187e-16 3.669012e-16
3.692551e-16 3.7029202e-16 4.1522092e-16 4.1233238e-16 4.1717924e-16 4.2264318e-16 4.2103528e-16 4.2440877e-16
4.2938408e-16 4.3073727e-16 4.343164e-16 4.3481637e-16
00000000: 316e 7425 f5a5 7c25 f114 7c25 dbfc 7b25
00000010: 55b4 7e25 e7ee d025 372f d225 0f81 d325
00000020: 6fdc d425 7575 d525 cb5b ef25 85b1 ed25
00000030: ca7c f025 20a3 f325 d7b5 f225 aea7 f425
00000040: e885 f725 9a4d f825 ca5d fa25 92a7 fa25

exp_avg f4 [4]
-2.0621374e-10 2.3814173e-10 -4.503206e-10 -2.6032627e-11
00000000: 02bc 62af 78eb 822f fd90 f7af 44fc e4ad

exp_avg_sq f4 [4]
3.1319718e-17 4.7755873e-17 5.990382e-17 6.047895e-17
00000000: cc6f 1024 2f3c 5c24 f920 8a24 7974 8b24

exp_avg f4 [4, 1]
-0.013849544 -0.1460915 0.05206058 0.025121447
00000000: 33e9 62bc 0399 15be 7a3d 553d 7ecb cd3c

exp_avg_sq f4 [4, 1]
0.01606666 0.06082121 0.023642713 0.029614678
00000000: 3a9e 833c a91f 793d 5dae c13c 7b9a f23c

exp_avg f4 [4]
0.006685449 0.054893777 -0.020880278 -0.010529614
00000000: 9c11 db3b 4cd8 603d 1e0d abbc 6784 2cbc

exp_avg_sq f4 [4]
0.0026031164 0.008422993 0.0037768423 0.0037665085
00000000: 0c99 2a3b 9800 0a3c e684 773b 87d7 763b

exp_avg f4 [12, 4]
-2.53359e-10 -1.453538e-10 2.6390181e-09 -1.4568426e-10 -8.8940255e-10 -7.6891526e-10 1.1965771e-09 -7.671034e-10
9.873036e-10 4.8879983e-10 -2.924103e-09 5.113678e-10 -6.6246975e-10 -4.762999e-10 -2.7724623e-09 -4.812749e-10
2.0713399e-10 1.3665519e-09 -1.2746822e-09 -5.442363e-12 4.0897885e-10 4.12192e-10 2.510633e-09 -2.1202762e-12
-2.3613754e-12 -6.0971045e-10 7.469397e-10 -4.6411694e-11 -3.1326672e-10 -3.4601246e-09 5.1913482e-12 -4.4247733e-10
-1.2195346e-10 3.549112e-10 -4.8263554e-10 2.5969765e-10 3.2535272e-10 -1.4311774e-11 2.3026121e-10 2.1206309e-10
2.2153931e-10 -3.2942066e-11 2.7582728e-11 2.2299163e-10 2.8100566e-10 2.9261538e-10 -1.5243398e-10 5.77784e-10
00000000: 1c49 8baf 75d1 1faf 195a 3531 792e 20af
00000010: 247a 74b0 9a5b 53b0 d074 a430 1adc 52b0
00000020: a8b1 8730 3b5c 0630 5df1 48b1 4f90 0c30
00000030: 2a19 36b0 a0ec 02b0 ac85 3eb1 b64a 04b0
00000040: 09bf 632f 45d1 bb30 e530 afb0 737c bfac
00000050: a8d6 e02f de9a e22f 8687 2c31 8033 15ac
00000060: c22a 26ac 8f98 27b0 3551 4d30 ec1e 4cae
00000070: 5f38 acaf 28c7 6db1 82a7 b62c 2641 f3af
00000080: d916 06af 501d c32f 75aa 04b0 32c5 8e2f
00000090: 53dd b22f 80c6 7bad c52c 7d2f 742a 692f
000000a0: c695 732f 78e1 10ae c89e f22d 902e 752f
000000b0: 087c 9a2f f4dd a02f 5a9a 27af efd1 1e30

exp_avg_sq f4 [12, 4]
7.718358e-17 6.712854e-19 1.5785568e-16 1.142692e-18 4.1625118e-16 2.292529e-17 2.2330804e-17 2.4268238e-17
2.0504912e-15 8.3088415e-18 1.7567559e-16 1.5629057e-17 5.8512454e-17 4.117816e-18 2.1413346e-16 5.030828e-18
4.3458657e-17 1.960012e-17 4.3242898e-17 1.6949396e-17 1.4949764e-17 7.711618e-18 1.5102551e-16 5.3066908e-18
6.3360003e-17 6.485867e-17 2.1048921e-17 4.0650286e-17 3.7500508e-15 3.4226151e-15 4.8319106e-16 2.3558434e-15
1.0128155e-15 4.891917e-16 1.0502273e-17 5.9133853e-16 3.2411659e-15 1.6031684e-15 1.97061e-17 1.5998975e-15
6.6765906e-16 3.4357067e-16 1.4256924e-17 5.044683e-16 1.0557417e-15 5.394701e-16 1.916397e-17 7.544179e-16
00000000: 25f9 b124 e420 4621 c6fe 3525 afa1 a821
00000010: d5f3 ef25 d072 d323 1ff7 cd23 c2d5 df23
00000020: e3c0 1327 6545 1923 488a 4a25 1127 9023
00000030: a8eb 8624 aceb 9722 0be1 7625 d49a b922
00000040: ed6a 4824 7ac7 b423 346c 4724 a154 9c23
00000050: 22e3 8923 1641 0e23 dd1e 2e25 47c8 c322
00000060: 2519 9224 cd8d 9524 5c24 c223 6377 3b24
00000070: 1d1c 8727 1ba0 7627 3545 0b26 a4c1 2927
00000080: 4cf6 9126 faff 0c26 95bb 4123 1571 2a26
00000090: f58c 6927 790a e726 b7c1 b523 cd91 e626
000000a0: 8b70 4026 150e c625 367f 8323 3167 1126
000000b0: fe25 9826 de7d 1b26 a5c1 b023 3772 5926

exp_avg f4 [12]
-5.7549476e-10 -2.3774618e-10 6.4963596e-10 6.064608e-10 -4.45051e-16 -2.5682005e-16 1.5750509e-16 1.5518176e-15
7.295183e-11 -1.8466825e-13 3.1257132e-11 6.966562e-11
00000000: d830 1eb0 cdb3 82af 1192 3230 e3b3 2630
00000010: f846 00a6 f30b 94a5 4c97 3525 f7a3 df26
00000020: 3b6c a02e 00eb 4faa 6778 092e 4232 992e

exp_avg_sq f4 [12]
7.795959e-18 2.8609144e-18 1.7522794e-17 1.033099e-17 7.730369e-30 2.524456e-30 1.5071687e-30 6.0915467e-29
4.701172e-18 1.2060915e-17 4.257362e-18 6.283748e-18
00000000: 60cf 0f23 2519 5322 879e a123 b992 3e23
00000010: 5fca 1c0f e6ce 4c0e 578d f40d 6670 9a10
00000020: 5071 ad22 107c 5e23 a611 9d22 52d4 e722

exp_avg f4 [4, 4]
4.7051714e-09 -3.1973385e-10 2.9618952e-09 3.9958414e-09 2.113242e-09 1.990275e-10 1.1751375e-09 1.7281501e-09
-3.9900403e-09 5.1425378e-11 -2.405673e-09 -3.4069687e-09 -4.0639954e-09 9.319148e-11 -2.5326707e-09 -3.5645007e-09
00000000: 20ab a131 8ac6 afaf 368a 4b31 cb4b 8931
00000010: 8c38 1131 43d5 5a2f 7a82 a130 e083 ed30
00000020: c418 89b1 d42b 622e 0c51 25b1 0720 6ab1
00000030: 48a3 8bb1 24ee cc2e 370b 2eb1 5cf3 74b1

exp_avg_sq f4 [4, 4]
3.4334284e-14 4.551394e-16 1.8217182e-14 4.1494616e-14 3.0492207e-14 4.1212023e-16 1.6559206e-14 3.7784246e-14
1.1410839e-16 1.0944733e-18 2.603062e-17 5.9787265e-17 2.9457487e-16 2.9486507e-18 1.1441395e-16 2.4825233e-16
00000000: bca0 1a29 5c2f 0326 f615 a428 09e0 3a29
00000010: 1f53 0929 3692 ed25 ee26 9528 452a 2a29
00000020: da8e 0325 0884 a121 1017 f023 2cdc 8924
00000030: 94cf a925 7092 5922 0ae9 0325 941b 8f25

exp_avg f4 [4]
1.3377204e-10 2.4795145e-11 -1.2181393e-10 -7.998362e-11
00000000: 7b15 132f b419 da2d 93ef 05af c6e2 afae

exp_avg_sq f4 [4]
2.1463775e-17 1.789255e-17 2.677314e-19 7.1950703e-19
00000000: e8f7 c523 9707 a523 6d0a 9e20 6a5c 5421

exp_avg f4 [4, 4]
-6e-45 -6e-45 6e-45 6e-45 -6e-45 6e-45 -6e-45 -6e-45
-2.3990998e-09 2.101613e-10 -1.2879617e-09 3.368273e-09 6e-45 -6e-45 -6e-45 -6e-45
00000000: 0400 0080 0400 0080 0400 0000 0400 0000
00000010: 0400 0080 0400 0000 0400 0080 0400 0080
00000020: 69dd 24b1 2613 672f 2004 b1b0 4977 6731
00000030: 0400 0000 0400 0080 0400 0080 0400 0080

exp_avg_sq f4 [4, 4]
3.5e-44 3.5e-44 3.5e-44 3.5e-44 3.5e-44 3.5e-44 3.5e-44 3.5e-44
9.320769e-15 2.0108084e-16 3.1756782e-16 3.4553903e-14 3.5e-44 3.5e-44 3.5e-44 3.5e-44
00000000: 1900 0000 1900 0000 1900 0000 1900 0000
00000010: 1900 0000 1900 0000 1900 0000 1900 0000
00000020: 76e8 2728 97d4 6725 bd10 b725 f09d 1b29
00000030: 1900 0000 1900 0000 1900 0000 1900 0000

exp_avg f4 [4]
-6e-45 6e-45 1.5447649e-09 -6e-45
00000000: 0400 0080 0400 0000 954f d430 0400 0080

exp_avg_sq f4 [4]
3.5e-44 3.5e-44 5.3526993e-15 3.5e-44
00000000: 1900 0000 1900 0000 f0d9 c027 1900 0000

exp_avg f4 [4, 4]
6e-45 -6e-45 7.789983e-10 -6e-45 6e-45 -6e-45 1.0836941e-09 -6e-45
6e-45 -6e-45 -7.114952e-11 -6e-45 -6e-45 -6e-45 -7.097111e-10 -6e-45
00000000: 0400 0000 0400 0080 2221 5630 0400 0080
00000010: 0400 0000 0400 0080 19f1 9430 0400 0080
00000020: 0400 0000 0400 0080 9e75 9cae 0400 0080
00000030: 0400 0080 0400 0080 7b15 43b0 0400 0080

exp_avg_sq f4 [4, 4]
3.5e-44 3.5e-44 1.0726134e-16 3.5e-44 3.5e-44 3.5e-44 6.3762745e-16 3.5e-44
3.5e-44 3.5e-44 2.1333831e-16 3.5e-44 3.5e-44 3.5e-44 1.4744976e-16 3.5e-44
00000000: 1900 0000 1900 0000 eb53 f724 1900 0000
00000010: 1900 0000 1900 0000 9ac8 3726 1900 0000
00000020: 1900 0000 1900 0000 5bf6 7525 1900 0000
00000030: 1900 0000 1900 0000 7dff 2925 1900 0000

exp_avg f4 [4]
-5.3602256e-10 1.7332538e-09 1.4808237e-09 1.1269582e-09
00000000: 3c57 13b0 7237 ee30 da85 cb30 51e3 9a30

exp_avg_sq f4 [4]
8.627813e-16 7.1727295e-16 1.1438634e-15 2.6964643e-16
00000000: 06ae 7826 67bd 4e26 1cd9 a426 ca70 9b25

exp_avg f4 [4]
3.173084e-11 7.2890316e-10 4.7191104e-09 -9.046546e-09
00000000: c08d 0b2e 005c 4830 bc25 a231 216b 1bb2

exp_avg_sq f4 [4]
1.077045e-14 1.6812448e-15 2.5845715e-16 1.1648541e-15
00000000: ef05 4228 fc4a f226 8bfd 9425 88df a726

exp_avg f4 [4]
8.813094e-09 -2.4056135e-10 -1.5282415e-09 -7.53712e-09
00000000: 6668 1732 0040 84af 380a d2b0 9b7c 01b2

exp_avg_sq f4 [4]
7.886193e-15 3.3122063e-15 9.600105e-16 7.4198006e-16
00000000: a510 0e28 6cab 6e27 235a 8a26 77dc 5526

exp_avg f4 [4]
7.648216e-09 2.4817255e-09 3.0345657e-08 -2.48669e-09
00000000: 3665 0332 fa8a 2a31 6755 0233 50e2 2ab1

exp_avg_sq f4 [4]
6.28939e-16 1.358087e-15 4.6441766e-15 3.050975e-16
00000000: 8247 3526 91b8 c326 f852 a727 72e0 af25

exp_avg f4 [4]
2.727189e-08 -4.681994e-09 -1.9131036e-08 -2.9676017e-09
00000000: 8543 ea32 41df a0b1 9855 a4b2 9aee 4bb1

exp_avg_sq f4 [4]
2.1561831e-15 4.0282388e-16 1.6849545e-15 1.961067e-16
00000000: 8f5e 1b27 5036 e825 d9d3 f226 7b18 6225

exp_avg f4 [12, 4]
3.0484757e-11 1.4031427e-11 1.05687785e-10 -2.42869e-10 -5.8063103e-11 -2.1934631e-11 -2.387867e-10 4.9991955e-10
1.1849843e-11 5.150069e-12 5.509762e-11 -1.13384524e-10 7.9081144e-11 2.9262145e-11 3.0836103e-10 -6.5474137e-10
-1.5186157e-09 6.566082e-10 7.737837e-10 -9.2985797e-10 -7.4223594e-10 3.2169983e-10 3.8439762e-10 -4.703112e-10
8.606063e-10 -3.725636e-10 -4.3832407e-10 5.2854277e-10 -6.014955e-10 2.5987346e-10 2.995343e-10 -3.534511e-10
-1.4431286e-09 -8.8485197e-10 -2.204442e-09 8.548458e-09 -3.8580697e-10 -9.283267e-11 -6.079142e-10 1.7641038e-09
1.190883e-09 3.266823e-10 1.4440659e-09 -5.0898934e-09 2.88588e-10 2.386559e-10 4.3369844e-10 -1.934092e-09
00000000: c912 062e eed7 762d ef68 e82e c684 85af
00000010: 3e5d 7fae 66f0 c0ad 3e46 83af b66a 0930
00000020: f376 502d b333 b52c 6852 722e d055 f9ae
00000030: bae6 ad2e 3fb2 002e f585 a92f 54f9 33b0
00000040: 8ab7 d0b0 b27c 3430 30b2 5430 f098 7fb0
00000050: 3606 4cb0 3adb b02f 2853 d32f 3547 01b0
00000060: c98f 6c30 aad1 ccaf a1f8 f0af e448 1130
00000070: 7c56 25b0 f0dd 8e2f b4ab a42f d24f c2af
00000080: 9357 c6b0 ec39 73b0 f47c 17b1 84dc 1232
00000090: 8119 d4af 2624 ccae 291a 27b0 e274 f230
000000a0: 78ac a330 7298 b32f 8d78 c630 2de3 aeb1
000000b0: 26a7 9e2f d533 832f a16d ee2f e8e8 04b1

exp_avg_sq f4 [12, 4]
6.852274e-19 8.8780636e-20 1.01833535e-17 3.8233198e-17 1.042093e-18 1.586855e-19 1.6784436e-17 7.398049e-17
3.7599353e-19 5.2628733e-20 5.9486504e-18 2.4205386e-17 9.386042e-19 1.3586576e-19 1.3148007e-17 5.873528e-17
3.459803e-16 4.3021717e-17 1.8839964e-16 1.964878e-16 8.3174056e-17 1.0463749e-17 4.5334315e-17 4.7151412e-17
1.1024125e-16 1.3706724e-17 5.993332e-17 6.236967e-17 5.3082384e-17 6.5818906e-18 2.901224e-17 3.034545e-17
1.933478e-16 2.019987e-17 2.9354043e-16 3.4361912e-15 1.740233e-17 1.1038666e-18 2.586438e-17 2.4224277e-16
1.2304251e-16 8.698803e-18 1.426061e-16 1.8159258e-15 2.0041423e-17 1.5046874e-18 2.5180849e-17 2.844439e-16
00000000: 523e 4a21 9aa0 d11f 87d9 3b23 cb51 3024
00000010: 29c9 9921 c057 3b20 21cf 9a23 6096 aa24
00000020: 89f2 dd20 3c88 781f 6a77 db22 5a41 df23
00000030: 7783 8a21 e866 2020 b589 7223 316f 8724
00000040: ae71 c725 1467 4624 c235 5925 f688 6225
00000050: 4cc9 bf24 a805 4123 5011 5124 9072 5924
00000060: f332 fe24 2dd8 7c23 6332 8a24 8ed0 8f24
00000070: 9ecc 7424 33d4 f222 9ccb 0524 96f1 0b24
00000080: 33ea 5e25 984f ba23 ec36 a925 8a9a 7727
00000090: 1782 a023 e7e6 a221 8a8e ee23 b9a4 8b25
000000a0: bddb 0d25 f076 2023 e469 2425 ebd9 0227
000000b0: 79d9 b823 7c0d de21 9940 e823 83f8 a325

exp_avg f4 [12]
-6.111659e-11 1.3082196e-10 -3.0035696e-11 -1.700417e-10 -1.5869078e-14 -8.795344e-15 9.187478e-15 -5.7677574e-15
1.7817804e-09 4.5115073e-10 -1.1614938e-09 -3.6768605e-10
00000000: 9565 86ae 1cd7 0f2f 3019 04ae 7cf6 3aaf
00000010: 9aef 8ea8 5d71 1ea8 c481 2528 2cce cfa7
00000020: d3e2 f430 d205 f82f 6ea2 9fb0 3623 caaf

exp_avg_sq f4 [12]
3.0146136e-18 5.122693e-18 1.7825037e-18 4.0796515e-18 8.173233e-27 2.5155605e-27 2.64923e-27 1.1049727e-27
1.7582241e-16 1.4097217e-17 9.269992e-17 1.5634178e-17
00000000: 7170 5e22 78fe bc22 8b86 0322 3883 9622
00000010: 37e3 2114 a14d 4713 c5e4 5113 0517 af12
00000020: 9eb5 4a25 1d06 8223 60c0 d524 2933 9023

exp_avg f4 [4, 4]
4.4363603e-08 -1.332075e-08 1.6251985e-08 -7.757038e-09 4.2572243e-08 -1.2659811e-08 1.6228089e-08 -7.273435e-09
2.9203756e-08 -8.158038e-09 1.0635453e-08 -5.4709055e-09 3.2694978e-09 -7.5480766e-10 9.895766e-10 -7.739135e-10
00000000: 4c8a 3e33 47d9 64b2 7e9a 8b32 d043 05b2
00000010: add8 3633 707e 59b2 f265 8b32 d0e9 f9b1
00000020: bddb fa32 6e27 0cb2 38b7 3632 98fa bbb1
00000030: 9dad 6031 de7a 4fb0 a201 8830 52bb 54b0

exp_avg_sq f4 [4, 4]
1.9315386e-13 1.4855245e-14 2.9156616e-14 6.331255e-15 6.710267e-14 4.9758247e-15 8.5525975e-15 2.512584e-15
3.5546425e-14 2.5743603e-15 4.4316675e-15 1.3558099e-15 9.096682e-15 5.992019e-16 1.0338877e-15 3.8062341e-16
00000000: cf78 592a ddcd 8528 4a4f 0329 851b e427
00000010: 0e1a 9729 e245 b327 e511 1a28 fe0c 3527
00000020: 3d16 2029 9180 3927 ebaa 9f27 8e64 c326
00000030: 0bdf 2328 4cb5 2c26 b9ff 9426 1a6a db25

exp_avg f4 [4]
3.4959392e-08 -8.086118e-09 -2.8388204e-08 -4.9891526e-09
00000000: 4226 1633 20eb 0ab2 52da f3b2 0d6d abb1

exp_avg_sq f4 [4]
3.3463574e-15 4.9373355e-16 2.061642e-15 1.2467183e-16
00000000: 6621 7127 1b4f 0e26 958e 1427 a1bc 0f25

exp_avg f4 [4, 4]
1.8147503e-08 -1.1063416e-08 -6.057246e-08 1.16400095e-07 -6e-45 6e-45 -6e-45 6e-45
7.549891e-09 -1.5031709e-09 -2.8088408e-08 3.284924e-08 -6e-45 6e-45 -6e-45 6e-45
00000000: c8e2 9b32 6b11 3eb2 1014 82b3 a1f7 f933
00000010: 0400 0080 0400 0000 0400 0080 0400 0000
00000020: c6b4 0132 2098 ceb0 1047 f1b2 1f16 0d33
00000030: 0400 0080 0400 0000 0400 0080 0400 0000

exp_avg_sq f4 [4, 4]
1.576649e-14 9.582753e-15 2.1169583e-13 1.3284304e-12 3.5e-44 3.5e-44 3.5e-44 3.5e-44
5.9535384e-15 1.6523962e-15 6.335135e-14 2.1288944e-13 3.5e-44 3.5e-44 3.5e-44 3.5e-44
00000000: 0d03 8e28 a6a0 2c28 2b59 6e2a c0f5 ba2b
00000010: 1900 0000 1900 0000 1900 0000 1900 0000
00000020: b37f d627 a922 ee26 91a7 8e29 34b1 6f2a
00000030: 1900 0000 1900 0000 1900 0000 1900 0000

exp_avg f4 [4]
3.3140953e-08 6e-45 1.4479731e-08 6e-45
00000000: dd56 0e33 0400 0000 88c2 7832 0400 0000

exp_avg_sq f4 [4]
6.739461e-14 3.5e-44 1.8213023e-14 3.5e-44
00000000: 59c2 9729 1900 0000 5f0c a428 1900 0000

exp_avg f4 [4, 4]
-1.3620652e-07 6e-45 -7.244657e-08 6e-45 -2.7655037e-07 -6e-45 -1.2644588e-07 6e-45
2.3083562e-07 -6e-45 4.1505643e-10 6e-45 -2.4650861e-08 -6e-45 -3.8775006e-08 6e-45
00000000: 2a40 12b4 0400 0000 ec93 9bb3 0400 0000
00000010: cb78 94b4 0400 0080 2ec5 07b4 0400 0000
00000020: 9ddb 7734 0400 0080 002e e42f 0400 0000
00000030: d1bf d3b2 0400 0080 9289 26b3 0400 0000

exp_avg_sq f4 [4, 4]
2.523948e-12 3.5e-44 1.3612929e-12 3.5e-44 1.2504709e-12 3.5e-44 2.2498236e-13 3.5e-44
2.0950993e-12 3.5e-44 8.0324576e-13 3.5e-44 1.398185e-14 3.5e-44 1.065681e-14 3.5e-44
00000000: 689b 312c 1900 0000 bf95 bf2b 1900 0000
00000010: f6fc af2b 1900 0000 c04e 7d2a 1900 0000
00000020: f46d 132c 1900 0000 f517 622b 1900 0000
00000030: e7df 7b28 1900 0000 ddf9 3f28 1900 0000

exp_avg f4 [4]
2.3022844e-07 -2.4512107e-07 3.84856e-08 -1.4189884e-08
00000000: b634 7734 2f99 83b4 5d4b 2533 c5c7 73b2

exp_avg_sq f4 [4]
5.4956994e-13 2.7780884e-13 3.8980069e-13 2.717068e-15
00000000: b0b0 1a2b 7964 9c2a 3370 db2a 0fc9 4327

exp_avg f4 [4]
-1.5053241e-07 1.1281774e-08 -3.335441e-08 -1.1439451e-07
00000000: 09a2 21b4 c4d1 4132 9041 0fb3 0ca9 f5b3

exp_avg_sq f4 [4]
1.4016589e-13 3.4025398e-14 5.273072e-13 8.0694186e-14
00000000: 11d0 1d2a 9d3c 1929 7d6c 142b 08b5 b529

exp_avg f4 [4]
1.8155166e-07 -1.4015217e-07 8.353343e-09 -2.76799e-08
00000000: 8af0 4234 bc7c 16b4 6482 0f32 bec4 edb2

exp_avg_sq f4 [4]
3.4714012e-13 1.6134983e-13 2.4858327e-13 1.6624717e-13
00000000: 2a6c c32a eca9 352a a0f0 8b2a 7c2d 3b2a

exp_avg f4 [4]
2.9538508e-06 1.227181e-05 -7.2765833e-06 -1.2083798e-05
00000000: c53a 4636 06e3 4d37 6029 f4b6 84bb 4ab7

exp_avg_sq f4 [4]
9.7291966e-11 2.732168e-09 7.9497803e-10 1.4157533e-09
00000000: 82f2 d52e cfc0 3b31 9b85 5a30 6494 c230

exp_avg f4 [4]
-1.8715979e-05 -8.571539e-06 1.2283712e-05 -6.695791e-06
00000000: 4200 9db7 7bce 0fb7 2416 4e37 68ac e0b6

exp_avg_sq f4 [4]
1.0176574e-09 2.5378282e-09 1.3908357e-09 5.969004e-10
00000000: a3dd 8b30 f265 2e31 ae27 bf30 2213 2430

exp_avg f4 [12, 4]
0.0 0.0 0.0 0.0 0.0 0.0 0.0 0.0
0.0 0.0 0.0 0.0 0.0 0.0 0.0 0.0
0.0 0.0 0.0 0.0 0.0 0.0 0.0 0.0
0.0 0.0 0.0 0.0 0.0 0.0 0.0 0.0
0.0060487743 0.000912381 0.0009179693 -0.0068836715 0.009918097 0.0005591778 0.00063907076 -0.0070678946
-0.00406542 0.00045461667 -0.0016559404 0.000820155 -0.00015552941 0.0016215945 -0.0035056693 -0.0049767233
00000000: 0000 0000 0000 0000 0000 0000 0000 0000
00000010: 0000 0000 0000 0000 0000 0000 0000 0000
00000020: 0000 0000 0000 0000 0000 0000 0000 0000
00000030: 0000 0000 0000 0000 0000 0000 0000 0000
00000040: 0000 0000 0000 0000 0000 0000 0000 0000
00000050: 0000 0000 0000 0000 0000 0000 0000 0000
00000060: 0000 0000 0000 0000 0000 0000 0000 0000
00000070: 0000 0000 0000 0000 0000 0000 0000 0000
00000080: cc34 c63b da2c 6f3a e0a3 703a 6c90 e1bb
00000090: 847f 223c c995 123a 5087 273a cc99 e7bb
000000a0: 3737 85bb 9e59 ee39 240c d9ba acff 563a
000000b0: 9c15 23b9 af8b d43a 5fbf 65bb c813 a3bb

exp_avg_sq f4 [12, 4]
0.0 0.0 0.0 0.0 0.0 0.0 0.0 0.0
0.0 0.0 0.0 0.0 0.0 0.0 0.0 0.0
0.0 0.0 0.0 0.0 0.0 0.0 0.0 0.0
0.0 0.0 0.0 0.0 0.0 0.0 0.0 0.0
0.000109777204 2.2541437e-05 0.00024024803 0.0002357405 0.00029642187 1.7566459e-05 0.0006524507 0.00017692536
6.481925e-05 4.256016e-06 0.00018235497 4.1516323e-05 3.437588e-05 2.5963687e-05 0.00010538204 0.00040133408
00000000: 0000 0000 0000 0000 0000 0000 0000 0000
00000010: 0000 0000 0000 0000 0000 0000 0000 0000
00000020: 0000 0000 0000 0000 0000 0000 0000 0000
00000030: 0000 0000 0000 0000 0000 0000 0000 0000
00000040: 0000 0000 0000 0000 0000 0000 0000 0000
00000050: 0000 0000 0000 0000 0000 0000 0000 0000
00000060: 0000 0000 0000 0000 0000 0000 0000 0000
00000070: 0000 0000 0000 0000 0000 0000 0000 0000
00000080: 3038 e638 5e17 bd37 17eb 7b39 1c31 7739
00000090: 1269 9b39 af5b 9337 3a09 2b3a 0a85 3939
000000a0: 92ef 8738 e6ce 8e36 8a36 3f39 d021 2e38
000000b0: d22e 1038 98cc d937 8d00 dd38 266a d239

exp_avg f4 [12]
0.0 0.0 0.0 0.0 0.0 0.0 0.0 0.0
-0.01510508 0.0032456424 -0.0015780292 -0.0075415215
00000000: 0000 0000 0000 0000 0000 0000 0000 0000
00000010: 0000 0000 0000 0000 0000 0000 0000 0000
00000020: 4c7b 77bc d8b4 543b e0d5 ceba de1e f7bb

exp_avg_sq f4 [12]
0.0 0.0 0.0 0.0 0.0 0.0 0.0 0.0
0.004981468 0.0058669066 0.0012385813 0.0036529764
00000000: 0000 0000 0000 0000 0000 0000 0000 0000
00000010: 0000 0000 0000 0000 0000 0000 0000 0000
00000020: 953b a33b 2e3f c03b e457 a23a c666 6f3b

exp_avg f4 [4, 4]
0.00046244028 -0.0024283996 -0.005007536 -0.00070248026 -0.00060452434 0.013093729 0.03057609 0.004510117
0.0034800486 -0.008790558 -0.0109922355 -0.00048331864 -0.0039301277 -0.015238153 -0.04094001 0.0031508263
00000000: af73 f239 c925 1fbb 4216 a4bb a726 38ba
00000010: f178 1eba 1487 563c b57a fa3c 9bc9 933b
00000020: 8711 643b 4606 10bc c718 34bc ee65 fdb9
00000030: 4dc8 80bb 72a9 79bc b6b0 27bd 187e 4e3b

exp_avg_sq f4 [4, 4]
9.543046e-06 7.60207e-05 0.00016897176 1.39938775e-05 7.559783e-05 0.0005290473 0.002353972 0.00011114579
0.000119196775 0.00071177405 0.0012333149 3.9213006e-05 0.00011733275 0.0011761434 0.0042876177 0.00016779095
00000000: 121b 2037 4d6d 9f38 032e 3139 3fc7 6a37
00000010: 478a 9e38 c3af 0a3a 1945 1a3b f116 e938
00000020: 48f9 f938 5996 3a3a 2ea7 a13a a578 2438
00000030: 8a10 f638 d328 9a3a 257f 8c3b 0af1 2f39

exp_avg f4 [4]
0.004694164 0.020962521 -0.022820821 0.012439907
00000000: 80d1 993b 98b9 ab3c bbf2 babc c0d0 4b3c

exp_avg_sq f4 [4]
0.00078353763 0.008655484 0.0074144937 0.009629387
00000000: 5266 4d3a bbcf 0d3c 48f5 f23b 94c4 1d3c

exp_avg f4 [12, 4]
0.0 0.0 0.0 0.0 0.0 0.0 0.0 0.0
0.0 0.0 0.0 0.0 0.0 0.0 0.0 0.0
0.0 0.0 0.0 0.0 0.0 0.0 0.0 0.0
0.0 0.0 0.0 0.0 0.0 0.0 0.0 0.0
-1.2104867e-06 2.4150592e-07 4.2193155e-06 -6.3768603e-06 -3.1068214e-07 1.3607184e-06 -1.880754e-06 -8.7835815e-08
1.1802048e-06 -2.5050497e-08 -2.2004265e-06 3.1917787e-06 -9.435362e-07 4.5949824e-07 4.5000525e-07 -2.0970674e-06
00000000: 0000 0000 0000 0000 0000 0000 0000 0000
00000010: 0000 0000 0000 0000 0000 0000 0000 0000
00000020: 0000 0000 0000 0000 0000 0000 0000 0000
00000030: 0000 0000 0000 0000 0000 0000 0000 0000
00000040: 0000 0000 0000 0000 0000 0000 0000 0000
00000050: 0000 0000 0000 0000 0000 0000 0000 0000
00000060: 0000 0000 0000 0000 0000 0000 0000 0000
00000070: 0000 0000 0000 0000 0000 0000 0000 0000
00000080: 0278 a2b5 52a8 8134 a593 8d36 d0f8 d5b6
00000090: d4cb a6b4 eea1 b635 376e fcb5 40a0 bcb3
000000a0: 8767 9e35 a02e d7b2 0aab 13b6 5732 5636
000000b0: 5047 7db5 f5b0 f634 4098 f134 58bb 0cb6

exp_avg_sq f4 [12, 4]
0.0 0.0 0.0 0.0 0.0 0.0 0.0 0.0
0.0 0.0 0.0 0.0 0.0 0.0 0.0 0.0
0.0 0.0 0.0 0.0 0.0 0.0 0.0 0.0
0.0 0.0 0.0 0.0 0.0 0.0 0.0 0.0
3.9458353e-11 1.522406e-10 1.1856374e-10 3.38762e-10 1.3234771e-11 3.1456306e-11 4.151247e-11 1.6048585e-10
1.9590636e-11 1.2496545e-10 7.21907e-11 1.6570198e-10 1.3366289e-11 1.1668654e-10 4.363749e-11 1.351119e-10
00000000: 0000 0000 0000 0000 0000 0000 0000 0000
00000010: 0000 0000 0000 0000 0000 0000 0000 0000
00000020: 0000 0000 0000 0000 0000 0000 0000 0000
00000030: 0000 0000 0000 0000 0000 0000 0000 0000
00000040: 0000 0000 0000 0000 0000 0000 0000 0000
00000050: 0000 0000 0000 0000 0000 0000 0000 0000
00000060: 0000 0000 0000 0000 0000 0000 0000 0000
00000070: 0000 0000 0000 0000 0000 0000 0000 0000
00000080: 288a 2d2e eb63 272f ba5c 022f 833c ba2f
00000090: 1cd4 682d a758 0a2e e392 362e c074 302f
000000a0: 3152 ac2d a666 092f c0bf 9e2e f630 362f
000000b0: 6a24 6b2d 574c 002f 72eb 3f2e 9e8e 142f

exp_avg f4 [12]
0.0 0.0 0.0 0.0 0.0 0.0 0.0 0.0
-0.00019412038 -9.224341e-05 0.00021298128 -0.00014809711
00000000: 0000 0000 0000 0000 0000 0000 0000 0000
00000010: 0000 0000 0000 0000 0000 0000 0000 0000
00000020: cb8c 4bb9 ce72 c1b8 ba53 5f39 844a 1bb9

exp_avg_sq f4 [12]
0.0 0.0 0.0 0.0 0.0 0.0 0.0 0.0
2.4051576e-07 4.030926e-08 1.3160779e-07 9.636594e-08
00000000: 0000 0000 0000 0000 0000 0000 0000 0000
00000010: 0000 0000 0000 0000 0000 0000 0000 0000
00000020: 3c20 8134 8020 2d33 1350 0d34 bcf1 ce33

exp_avg f4 [4, 4]
1.3925939e-05 -5.1891384e-06 -6.877553e-06 1.4195882e-06 -3.616222e-05 -2.4417604e-05 2.5179566e-05 -1.5777025e-05
2.5993584e-05 8.226434e-06 -4.3766217e-06 2.6626312e-06 2.7886806e-05 -2.7909007e-05 -1.8970555e-05 -1.1981775e-06
00000000: 74a3 6937 5c1e aeb6 bbc5 e6b6 ae88 be35
00000010: e3ac 17b8 68d4 ccb7 b538 d337 e758 84b7
00000020: cc0c da37 4404 0a37 e5da 92b6 a8af 3236
00000030: 76ee e937 231e eab7 f522 9fb7 11d1 a0b5

exp_avg_sq f4 [4, 4]
4.420987e-09 1.9446061e-10 8.845614e-10 4.2441856e-10 2.8522068e-08 4.3050608e-09 4.8316173e-09 2.6003182e-09
4.237474e-08 2.4233087e-09 1.0106294e-08 5.298553e-09 5.7771413e-08 4.0107064e-09 1.1979952e-08 6.2939827e-09
00000000: 6ae7 9731 cccf 552f 7a25 7330 9a53 e92f
00000010: b100 f532 b7eb 9331 5b03 a631 48b1 3231
00000020: 85ff 3533 4c87 2631 f39f 2d32 910e b631
00000030: 5720 7833 8cce 8931 63d0 4d32 7542 d831

exp_avg f4 [4]
-0.0014576026 0.0025875964 -0.0010670172 -0.004101672
00000000: 070d bfba aa94 293b 28db 8bba 5267 86bb

exp_avg_sq f4 [4]
1.492516e-05 0.000117935735 0.00013593074 0.00022126523
00000000: 1367 7a37 4454 f738 a188 0e39 6f03 6839

exp_avg f4 [4, 4]
1.6903276e-05 -3.7115486e-05 -2.936387e-05 -1.105052e-05 -7.774767e-05 -2.0619587e-05 -4.0859435e-05 -9.698571e-05
-1.5623082e-05 1.4785084e-05 3.6210622e-05 3.780662e-05 -6e-45 6e-45 -6e-45 -6e-45
00000000: 82cb 8d37 73ac 1bb8 6e52 f6b7 9f65 39b7
00000010: 760c a3b8 3af8 acb7 7c60 2bb8 ce64 cbb8
00000020: 500e 83b7 740d 7837 dce0 1738 8d92 1e38
00000030: 0400 0080 0400 0000 0400 0080 0400 0080

exp_avg_sq f4 [4, 4]
5.2235524e-08 1.1916527e-07 8.763704e-08 3.9200795e-08 1.197666e-05 5.762792e-06 1.789497e-05 6.301827e-05
7.024281e-08 5.483988e-07 9.2537604e-08 2.4647943e-07 3.5e-44 3.5e-44 3.5e-44 3.5e-44
00000000: 9159 6033 cde7 ff33 f932 bc33 bb5d 2833
00000010: 5def 4837 025e c136 281d 9637 ad28 8438
00000020: 65d8 9633 ae35 1335 16b9 c633 e053 8434
00000030: 1900 0000 1900 0000 1900 0000 1900 0000

exp_avg f4 [4]
1.5685891e-05 -4.4712004e-05 -1.1625083e-05 6e-45
00000000: 3295 8337 2689 3bb8 5a09 43b7 0400 0000

exp_avg_sq f4 [4]
3.0315764e-08 5.5503033e-06 6.138169e-08 3.5e-44
00000000: 8934 0233 be3c ba36 f1d0 8333 1900 0000

exp_avg f4 [4, 4]
0.00013170429 1.6826234e-05 7.407723e-05 -6e-45 6.468556e-06 -4.904832e-07 -1.0034681e-08 -6e-45
-2.0131374e-05 2.1509572e-06 5.2522732e-06 -6e-45 -1.0575755e-05 -3.178613e-06 2.4462133e-06 6e-45
00000000: 1a1a 0a39 1026 8d37 e959 9b38 0400 0080
00000010: 790c d936 c0a9 03b5 fe64 2cb2 0400 0080
00000020: ccdf a8b7 2a59 1036 af3c b036 0400 0080
00000030: 866e 31b7 2850 55b6 a029 2436 0400 0000

exp_avg_sq f4 [4, 4]
7.230553e-07 9.9040854e-08 2.9840353e-07 3.5e-44 1.1116916e-08 5.410356e-08 1.969085e-09 3.5e-44
2.2969923e-06 1.2687524e-08 1.020696e-07 3.5e-44 2.279703e-08 1.521052e-08 1.3109432e-08 3.5e-44
00000000: fb17 4235 49b0 d433 4534 a034 1900 0000
00000010: b7fc 3e32 7e5f 6833 8250 0731 1900 0000
00000020: 0726 1a36 52f8 5932 5b31 db33 1900 0000
00000030: 33d3 c332 4aa8 8232 e437 6132 1900 0000

exp_avg f4 [4]
-0.0015608135 0.0026205492 -0.000114821945 -0.002000464
00000000: 3694 ccba 85bd 2b3b 90cc f0b8 371a 03bb

exp_avg_sq f4 [4]
0.00034202827 0.00015306188 3.5013276e-05 0.00013511107
00000000: 4252 b339 3c7f 2039 38db 1238 9aac 0d39

exp_avg f4 [4]
-0.0016453073 -0.00016327226 -0.0007665603 0.00017025624
00000000: 5aa7 d7ba 1034 2bb9 fef2 48ba d086 3239

exp_avg_sq f4 [4]
1.9095796e-05 4.337528e-05 7.1742325e-05 4.3485965e-05
00000000: e92f a037 daed 3538 5e74 9638 b364 3638

exp_avg f4 [4]
-0.0012016578 0.0035111208 -0.0008308509 -0.0014786115
00000000: f280 9dba d51a 663b 76cd 59ba f8cd c1ba

exp_avg_sq f4 [4]
1.1305272e-05 9.7177544e-05 0.00013330225 0.00018638058
00000000: c6ab 3d37 cccb cb38 0dc7 0b39 286f 4339

exp_avg f4 [4]
-0.004535558 0.00023267628 0.0016625073 0.00032178365
00000000: 059f 94bb 90fa 7339 7de8 d93a 12b5 a839

exp_avg_sq f4 [4]
0.00025080994 9.112536e-05 3.1265492e-05 1.9016086e-05
00000000: 247f 8339 8e1a bf38 1123 0338 bc84 9f37

exp_avg f4 [4]
-0.0014045628 0.0035093762 -0.0006299919 -0.0015300384
00000000: 4f19 b8ba 90fd 653b 0a26 25ba 928b c8ba

exp_avg_sq f4 [4]
0.000313314 0.00013017988 3.0342262e-05 0.000108476816
00000000: 4b44 a439 e580 0839 8387 fe37 0c7e e338

exp_avg f4 [4]
0.0006064283 7.028466e-06 0.0014841086 -0.0009668636
00000000: b7f8 1e3a 10d6 eb36 6c86 c23a 1e75 7dba

exp_avg_sq f4 [4]
2.298453e-05 7.2801005e-05 6.841667e-06 4.3582208e-05
00000000: e7ce c037 beac 9838 7991 e536 0acc 3638

exp_avg f4 [4]
0.0002904989 0.0034322806 0.0011255163 -0.0028537405
00000000: 1a4e 9839 1df0 603b 0f86 933a d205 3bbb

exp_avg_sq f4 [4]
0.00014417882 0.00010417517 4.1098538e-06 9.7018725e-05
00000000: b52e 1739 9e78 da38 60e7 8936 8876 cb38

exp_avg f4 [12, 4]
0.0 0.0 0.0 0.0 0.0 0.0 0.0 0.0
0.0 0.0 0.0 0.0 0.0 0.0 0.0 0.0
0.0 0.0 0.0 0.0 0.0 0.0 0.0 0.0
0.0 0.0 0.0 0.0 0.0 0.0 0.0 0.0
-0.0017244678 -0.001374628 0.0005370055 -0.0006578305 0.0012594664 0.00058840675 -9.482361e-05 9.932331e-05
0.0004782505 0.00026218075 -7.614342e-05 8.558766e-05 -0.0002671042 -0.0002625552 4.8909234e-05 -7.1666655e-05
00000000: 0000 0000 0000 0000 0000 0000 0000 0000
00000010: 0000 0000 0000 0000 0000 0000 0000 0000
00000020: 0000 0000 0000 0000 0000 0000 0000 0000
00000030: 0000 0000 0000 0000 0000 0000 0000 0000
00000040: 0000 0000 0000 0000 0000 0000 0000 0000
00000050: 0000 0000 0000 0000 0000 0000 0000 0000
00000060: 0000 0000 0000 0000 0000 0000 0000 0000
00000070: 0000 0000 0000 0000 0000 0000 0000 0000
00000080: 8a07 e2ba dd2c b4ba d4c5 0c3a 4272 2cba
00000090: ae14 a53a 4f3f 1a3a 0adc c6b8 cc4b d038
000000a0: b2bd fa39 4e75 8939 30af 9fb8 867d b338
000000b0: 1e0a 8cb9 90a7 89b9 e423 4d38 be4b 96b8

exp_avg_sq f4 [12, 4]
0.0 0.0 0.0 0.0 0.0 0.0 0.0 0.0
0.0 0.0 0.0 0.0 0.0 0.0 0.0 0.0
0.0 0.0 0.0 0.0 0.0 0.0 0.0 0.0
0.0 0.0 0.0 0.0 0.0 0.0 0.0 0.0
1.9000423e-05 2.4927629e-05 5.2273083e-07 7.7367537e-07 1.205947e-05 1.6324211e-05 4.4531438e-07 4.1237797e-07
7.258687e-07 1.2412111e-06 3.5152116e-08 3.2657052e-08 4.343294e-07 4.4438366e-07 1.7969816e-08 1.4926195e-08
00000000: 0000 0000 0000 0000 0000 0000 0000 0000
00000010: 0000 0000 0000 0000 0000 0000 0000 0000
00000020: 0000 0000 0000 0000 0000 0000 0000 0000
00000030: 0000 0000 0000 0000 0000 0000 0000 0000
00000040: 0000 0000 0000 0000 0000 0000 0000 0000
00000050: 0000 0000 0000 0000 0000 0000 0000 0000
00000060: 0000 0000 0000 0000 0000 0000 0000 0000
00000070: 0000 0000 0000 0000 0000 0000 0000 0000
00000080: 1963 9f37 ad1b d137 ca51 0c35 91ae 4f35
00000090: 0753 4a37 faef 8837 8b13 ef34 cc64 dd34
000000a0: 51d9 4235 b097 a635 29fa 1633 cf42 0c33
000000b0: c72d e934 a093 ee34 0b5c 9a32 0d37 8032

exp_avg f4 [12]
0.0 0.0 0.0 0.0 0.0 0.0 0.0 0.0
-0.0015605865 0.00014029483 0.00019314453 -0.00012747778
00000000: 0000 0000 0000 0000 0000 0000 0000 0000
00000010: 0000 0000 0000 0000 0000 0000 0000 0000
00000020: 988c ccba 1b1c 1339 d786 4a39 8eab 05b9

exp_avg_sq f4 [12]
0.0 0.0 0.0 0.0 0.0 0.0 0.0 0.0
6.0230896e-06 4.425868e-06 3.4248538e-07 1.5428762e-07
00000000: 0000 0000 0000 0000 0000 0000 0000 0000
00000010: 0000 0000 0000 0000 0000 0000 0000 0000
00000020: f219 ca36 eb81 9436 d5de b734 42aa 2534

exp_avg f4 [4, 4]
-0.0024312357 -0.00051129115 -0.00012610976 0.0002917097 0.0003017966 0.00032878382 0.00026138825 -0.00032065515
9.4999275e-05 8.715941e-05 4.1064985e-05 -6.2862695e-05 0.0006613246 -0.00012587834 -2.7552895e-05 -6.9439775e-05
00000000: 5e55 1fbb 2b08 06ba 553c 04b9 9df0 9839
00000010: 743a 9e39 9e60 ac39 f00a 8939 9b1d a8b9
00000020: 593a c738 5ac9 b638 313d 2c38 27d5 83b8
00000030: be5c 2d3a 36fe 03b9 6421 e7b7 32a0 91b8

exp_avg_sq f4 [4, 4]
5.136972e-05 4.501981e-06 1.7209384e-06 4.046418e-06 0.000118511074 1.0309452e-05 5.0776606e-07 1.2985082e-06
1.4299329e-06 1.4134568e-07 9.739226e-09 2.6405793e-08 0.00012805036 8.140724e-06 1.170703e-06 3.086703e-06
00000000: d175 5738 b90f 9736 fefa e635 77c6 8736
00000010: 2689 f838 c2f6 2c37 6b4d 0835 6748 ae35
00000020: 1fec bf35 cec4 1734 9251 2732 f4d2 e232
00000030: 4245 0639 2594 0837 0c21 9d35 2725 4f36

exp_avg f4 [4]
0.001100048 0.0045454763 0.0006954572 -0.0040058345
00000000: 7c2f 903a 38f2 943b 584f 363a 6043 83bb

exp_avg_sq f4 [4]
0.00015702062 0.00014149769 1.3019687e-06 0.00013514131
00000000: e7a5 2439 ff5e 1439 4ebf ae35 b8b4 0d39

exp_avg f4 [12, 4]
0.0 0.0 0.0 0.0 0.0 0.0 0.0 0.0
0.0 0.0 0.0 0.0 0.0 0.0 0.0 0.0
0.0 0.0 0.0 0.0 0.0 0.0 0.0 0.0
0.0 0.0 0.0 0.0 0.0 0.0 0.0 0.0
1.9371035e-07 3.6255312e-07 -1.7466117e-07 5.194517e-07 -9.298845e-06 -8.136154e-06 7.778643e-06 -2.8843817e-05
1.224142e-06 1.7424834e-06 -1.4049858e-06 4.421995e-06 6.1512435e-07 5.018123e-07 -3.9253678e-07 2.1859598e-06
00000000: 0000 0000 0000 0000 0000 0000 0000 0000
00000010: 0000 0000 0000 0000 0000 0000 0000 0000
00000020: 0000 0000 0000 0000 0000 0000 0000 0000
00000030: 0000 0000 0000 0000 0000 0000 0000 0000
00000040: 0000 0000 0000 0000 0000 0000 0000 0000
00000050: 0000 0000 0000 0000 0000 0000 0000 0000
00000060: 0000 0000 0000 0000 0000 0000 0000 0000
00000070: 0000 0000 0000 0000 0000 0000 0000 0000
00000080: b2fe 4f34 eca4 c234 7f8a 3bb4 7370 0b35
00000090: 3c02 1cb7 8480 08b7 0481 0237 a0f5 f1b7
000000a0: 334d a435 46df e935 f292 bcb5 a660 9436
000000b0: 061f 2535 47b4 0635 d8bd d2b4 81b2 1236

exp_avg_sq f4 [12, 4]
0.0 0.0 0.0 0.0 0.0 0.0 0.0 0.0
0.0 0.0 0.0 0.0 0.0 0.0 0.0 0.0
0.0 0.0 0.0 0.0 0.0 0.0 0.0 0.0
0.0 0.0 0.0 0.0 0.0 0.0 0.0 0.0
2.3380401e-12 7.1975494e-12 3.201661e-12 1.972234e-11 2.0110071e-09 1.041196e-09 9.064903e-10 1.4508095e-08
9.080125e-11 4.5429313e-11 4.292666e-11 6.9308653e-10 1.5737947e-11 1.0745039e-11 8.880888e-12 1.1262475e-10
00000000: 0000 0000 0000 0000 0000 0000 0000 0000
00000010: 0000 0000 0000 0000 0000 0000 0000 0000
00000020: 0000 0000 0000 0000 0000 0000 0000 0000
00000030: 0000 0000 0000 0000 0000 0000 0000 0000
00000040: 0000 0000 0000 0000 0000 0000 0000 0000
00000050: 0000 0000 0000 0000 0000 0000 0000 0000
00000060: 0000 0000 0000 0000 0000 0000 0000 0000
00000070: 0000 0000 0000 0000 0000 0000 0000 0000
00000080: 6386 242c c33d fd2c ff4b 612c c37a ad2d
00000090: 0332 0a31 d419 8f30 962c 7930 473f 7932
000000a0: 8fac c72e dccc 472e 1fcb 3c2e a183 3e30
000000b0: b56e 8a2d 5b07 3d2d f73b 1c2d 19aa f72e

exp_avg f4 [12]
0.0 0.0 0.0 0.0 0.0 0.0 0.0 0.0
-1.8832716e-05 0.00015041271 -8.13528e-05 -1.7615748e-05
00000000: 0000 0000 0000 0000 0000 0000 0000 0000
00000010: 0000 0000 0000 0000 0000 0000 0000 0000
00000020: f3fa 9db7 1bb8 1d39 f49b aab8 88c5 93b7
