Saved_models/best_model_Male.pt (torch, 86185 bytes, 198 tensors)

encoder_input_layer.weight f4 [4, 5]
-0.69083405 -0.39781815 -1.1389186 -0.9765341 -0.84785926 0.2741801 0.17625938 0.50319964
0.11141673 0.321245 -0.17305839 -0.015379916 -0.46258345 -0.3674299 -0.25871375 -0.08883184
0.08070831 0.1056997 -0.3764264 -0.24734206
00000000: 80da 30bf d2ae cbbe 16c8 91bf 24fe 79bf
00000010: 4e0d 59bf 5661 8c3e 577d 343e b1d1 003f
00000020: 742e e43d 3a7a a43e 3836 31be 0bfc 7bbc
00000030: bdd7 ecbe c61f bcbe 2176 84be 78ed b5bd
00000040: 664a a53d 1679 d83d f6ba c0be 3d47 7dbe

encoder_input_layer.bias f4 [4]
0.96434027 0.30073184 -0.4635464 0.79707015
00000000: 01df 763f 86f9 993e f455 edbe ca0c 4c3f

decoder_input_layer.weight f4 [4, 1]
-0.77792543 0.8565262 1.647121 0.95908564
00000000: 1f26 47bf 4d45 5b3f dcd4 d23f a386 753f

decoder_input_layer.bias f4 [4]
-1.8525069 1.0081971 2.2747207 1.3265347
00000000: f21e edbf 9a0c 813f 0695 1140 e4cb a93f

positional_encoding_layer_enc.pe f4 [1, 9, 4]
0.0 1.0 0.0 1.0 0.84147096 0.54030234 0.009999833 0.99995
0.9092974 -0.41614684 0.019998666 0.9998 0.14112 -0.9899925 0.0299955 0.99955004
-0.7568025 -0.6536436 0.039989334 0.9992001 -0.9589243 0.2836622 0.049979165 0.99875027
-0.2794155 0.96017027 0.059964005 0.99820054 0.6569866 0.75390226 0.06994285 0.997551
0.98935825 -0.14550003 0.07991469 0.9968017
00000000: 0000 0000 0000 803f 0000 0000 0000 803f
00000010: a46a 573f 4151 0a3f 57d6 233c b9fc 7f3f
00000020: b7c7 683f 3311 d5be 3ed4 a33c e5f2 7f3f
00000030: c381 103e 2670 7dbf 1fb9 f53c 83e2 7f3f
00000040: cfbd 41bf 3055 27bf dbcb 233d 94cb 7f3f
00000050: 107c 75bf 2c3c 913e f4b6 4c3d 19ae 7f3f
00000060: 8c0f 8fbe b8cd 753f d19c 753d 128a 7f3f
00000070: 4630 283f bdff 403f 323e 8f3d 815f 7f3f
00000080: 9546 7d3f f6fd 14be 50aa a33d 652e 7f3f

positional_encoding_layer_dec.pe f4 [1, 1, 4]
0.0 1.0 0.0 1.0
00000000: 0000 0000 0000 803f 0000 0000 0000 803f

encoder.layers.0.self_attn.in_proj_weight f4 [12, 4]
0.57940805 -0.31451628 0.37952894 -0.05919664 0.057182886 0.12915875 0.034921255 1.1193858
-0.5110546 -0.1782424 -0.13919848 -0.24404904 -0.18520601 0.38963035 0.16531588 0.8674729
-0.0990207 -0.27693605 -0.6820261 -1.5136594 0.9375182 -0.17272116 0.4368456 1.0929792
-0.69789815 0.00433161 0.18800916 0.043673575 0.11082854 0.6275614 1.0937614 0.66924626
-0.424842 0.68999785 -1.3655037 -2.3407505 1.35051 -0.32024392 0.12523331 1.9536383
-0.5021677 0.23974639 -1.4404534 -2.9840133 -0.03256319 0.5062425 -1.1707906 -2.2774947
00000000: 1654 143f 4708 a1be 9e51 c23e 2d78 72bd
00000010: 9a38 6a3d 3142 043e 9709 0f3d 0948 8f3f
00000020: 79d4 02bf 2d85 36be 0c8a 0ebe fee7 79be
00000030: a5a6 3dbe a17d c73e 9148 293e b412 5e3f
00000040: 5dcb cabd 90ca 8dbe 4399 2ebf 97bf c1bf
00000050: 3101 703f d1dd 30be 3aaa df3e bee6 8b3f
00000060: 74a9 32bf 2ef0 8d3b 7985 403e 10e3 323d
00000070: 13fa e23d dda7 203f 6000 8c3f b953 2b3f
00000080: e484 d9be b3a3 303f d3c8 aebf dbce 15c0
00000090: 83dd ac3f 03f7 a3be 293d 003e d210 fa3f
000000a0: 108e 00bf 1480 753e c760 b8bf 13fa 3ec0
000000b0: fb60 05bd 1c99 013f 77dc 95bf 79c2 11c0

encoder.layers.0.self_attn.in_proj_bias f4 [12]
0.006935711 1.2085402 -0.73859113 0.11413054 0.03556137 0.07368358 0.024337465 -0.014713065
-1.3181051 1.6174504 -1.8563963 -1.2219156
00000000: f644 e33b 72b1 9a3f 4f14 3dbf 46bd e93d
00000010: cda8 113d 6be7 963d 5d5f c73c 110f 71bc
00000020: abb7 a8bf 9d08 cf3f 659e edbf bb67 9cbf

encoder.layers.0.self_attn.out_proj.weight f4 [4, 4]
-1.1269554 0.13297875 -0.8092268 -1.1399674 -0.32197917 0.40011102 0.026943732 0.056912944
0.6473221 -0.61724126 0.5659617 0.12546769 2.386302 -2.27709 2.8673182 2.3920007
00000000: 1340 90bf 952b 083e 7d29 4fbf 74ea 91bf
00000010: 74da a4be 5adb cc3e 1ab9 dc3c 8c1d 693d
00000020: e7b6 253f 8603 1ebf dee2 103f 9a7a 003e
00000030: 2cb9 1840 d8bb 11c0 2482 3740 8a16 1940

encoder.layers.0.self_attn.out_proj.bias f4 [4]
0.94711703 -0.58537275 -1.7108737 -1.0834113
00000000: 4376 723f fdda 15bf e9fd dabf 39ad 8abf

encoder.layers.0.linear1.weight f4 [4, 4]
0.17204478 -0.5609084 0.26875028 1.0997156 -0.9146179 -0.33533823 0.65046763 -0.29889315
0.8218176 0.86577904 -0.9964447 -0.48400173 -0.3956037 0.6237002 -0.17605035 0.15730879
00000000: 822c 303e b197 0fbf a399 893e 7bc3 8c3f
00000010: 6624 6abf 74b1 abbe 0c85 263f 8608 99be
00000020: a362 523f b2a3 5d3f 0017 7fbf 13cf f7be
00000030: 918c cabe d1aa 1f3f 8b46 34be 8e15 213e

encoder.layers.0.linear1.bias f4 [4]
0.16786607 -0.35741323 0.524661 -0.4529817
00000000: 15e5 2b3e defe b6be 2f50 063f 38ed e7be

encoder.layers.0.linear2.weight f4 [4, 4]
0.7452582 0.30736154 -0.3053532 0.37726492 0.5601353 -0.5742497 0.6619778 0.84199786
-0.44406676 -1.0550833 1.1604766 -0.062747166 -0.73903733 0.061335262 -0.44988075 0.41942775
00000000: 3ec9 3e3f 7e5e 9d3e 4157 9cbe de28 c13e
00000010: 0765 0f3f 0702 13bf 6177 293f 2c8d 573f
00000020: b85c e3be f80c 87bf 7f8a 943f 9681 80bd
00000030: 8d31 3dbf af3a 7b3d c556 e6be 3cbf d63e

encoder.layers.0.linear2.bias f4 [4]
0.2514271 0.99304324 -0.35090354 -0.6349388
00000000: 0ebb 803e 1538 7e3f a1a9 b3be 598b 22bf

encoder.layers.0.norm1.weight f4 [4]
1.7933003 0.3183236 0.8526887 1.877793
00000000: dd8a e53f 50fb a23e cf49 5a3f 855b f03f

encoder.layers.0.norm1.bias f4 [4]
0.7665394 0.5156846 -0.5240648 -1.3838208
00000000: ed3b 443f e803 043f 1c29 06bf 0a21 b1bf

encoder.layers.0.norm2.weight f4 [4]
2.160661 0.60590726 0.50073445 2.0266483
00000000: 4548 0a40 bd1c 1b3f 2230 003f 9bb4 0140

encoder.layers.0.norm2.bias f4 [4]
1.3390955 0.79637855 0.22111082 -1.8618343
00000000: 7b67 ab3f 77df 4b3f e06a 623e 9650 eebf

encoder.layers.1.self_attn.in_proj_weight f4 [12, 4]
0.8881204 0.7920726 -0.21430548 -0.95701814 0.48771596 0.8260671 -1.1374317 -1.0401633
-0.28169662 0.36644283 0.60099894 0.42572486 0.3233794 -0.24013676 0.14698376 0.048135873
1.074716 -0.050948665 -0.91123533 0.61630964 0.82946485 0.42836204 -0.011886862 1.1871955
-0.4270473 0.029305367 0.4495531 -0.6368178 0.059767403 0.35654616 0.31779596 0.062907465
1.5769722 0.43239084 -1.8717448 -1.0750061 0.53078765 -1.9957514 0.61518294 0.3957129
0.7328773 -1.4721226 0.114218585 -0.43779558 0.40160614 -1.1578028 0.17113152 -0.119412504
00000000: dc5b 633f 45c5 4a3f e572 5bbe 24ff 74bf
00000010: e8b5 f93e 2279 533f 5d97 91bf 1224 85bf
00000020: 8a3a 90be 659e bb3e 11db 193f 9cf8 d93e
00000030: fc91 a53e 69e6 75be e982 163e 1f2a 453d
00000040: 4b90 893f 8caf 50bd b846 69bf 78c6 1d3f
00000050: cf57 543f 4552 db3e 1dc1 42bc 06f6 973f
00000060: f2a5 dabe cf11 f03c d32b e63e 7e06 23bf
00000070: aace 743d 388d b63e 27b6 a23e a1d5 803d
00000080: 3ada c93f 5562 dd3e 5595 efbf cd99 89bf
00000090: b3e1 073f c874 ffbf a17c 1d3f e29a ca3e
000000a0: d99d 3b3f 836e bcbf 6feb e93d be26 e0be
000000b0: 529f cd3e e232 94bf 1a3d 2f3e 8b8e f4bd

encoder.layers.1.self_attn.in_proj_bias f4 [12]
1.0754623 0.5234046 -0.23212986 -0.0052160365 -0.02802916 0.027459837 -0.0149070425 0.002349704
0.89855653 -0.45656693 0.017465498 -0.32917622
00000000: c0a8 893f d8fd 053f 73b3 6dbe 49eb aabb
00000010: 699d e5bc 74f3 e03c ab3c 74bc 7efd 193b
00000020: cd07 663f 24c3 e9be ce13 8f3c c989 a8be

encoder.layers.1.self_attn.out_proj.weight f4 [4, 4]
1.8198389 0.9634838 1.7562872 1.5792243 0.14739166 0.9735645 0.37392786 0.29699093
-0.024279637 -0.39245647 0.101296455 -0.29751843 -1.6069387 -1.8314123 -1.1546106 -1.436897
00000000: 7bf0 e83f e0a6 763f 05ce e03f 0624 ca3f
00000010: d7ed 163e 863b 793f 7973 bf3e 320f 983e
00000020: 17e6 c6bc 0ef0 c8be 8474 cf3d 5654 98be
00000030: 2bb0 cdbf b86b eabf 48ca 93bf 3eec b7bf

encoder.layers.1.self_attn.out_proj.bias f4 [4]
0.93336356 0.43628424 0.5084499 -0.6633093
00000000: eaf0 6e3f a660 df3e c629 023f a3ce 29bf

encoder.layers.1.linear1.weight f4 [4, 4]
0.09310429 0.22939156 -0.110104166 0.16527021 -0.7690682 -0.19878161 -0.17832236 -0.14321001
-0.15490338 -0.058424544 -0.13081542 0.38730976 -0.24806385 1.0620891 -0.12750354 -0.440572
00000000: 76ad be3d 9fe5 6a3e 4b7e e1bd 983c 293e
00000010: a7e1 44bf 688d 4bbe 239a 36be a5a5 12be
00000020: fe9e 1ebe 934e 6fbd 7af4 05be 774d c63e
00000030: 7304 7ebe 89f2 873f 4a90 02be a792 e1be

encoder.layers.1.linear1.bias f4 [4]
-0.6074829 -0.41733882 -0.21159196 0.21673915
00000000: 0084 1bbf 6fad d5be 90ab 58be def0 5d3e

encoder.layers.1.linear2.weight f4 [4, 4]
0.118044056 -0.0967087 -0.3795167 1.1160572 -0.3107175 -0.33625495 -0.2183322 0.28959224
-0.25137272 0.026134877 0.00052953453 0.0078387 -0.3400261 -0.19088244 0.12409485 -1.7046393
00000000: 15c1 f13d 360f c6bd 0350 c2be f6da 8e3f
00000010: 5d16 9fbe 9c29 acbe 7a92 5fbe 6f45 943e
00000020: edb3 80be cf18 d63c 76d0 0a3a e46d 003c
00000030: e717 aebe b076 43be 7125 fe3d 9f31 dabf

encoder.layers.1.linear2.bias f4 [4]
1.0780816 0.76967055 0.19083004 -1.7018428
00000000: 94fe 893f 2109 453f f368 433e fcd5 d9bf

encoder.layers.1.norm1.weight f4 [4]
1.9339653 0.88460743 -0.03692399 3.222028
00000000: 2d8c f73f a275 623f 9c3d 17bd b535 4e40

encoder.layers.1.norm1.bias f4 [4]
1.3850864 0.34972867 0.35283798 -1.986719
00000000: 834a b13f a30f b33e 2ea7 b43e cf4c febf

encoder.layers.1.norm2.weight f4 [4]
0.14821671 0.0033375479 0.0220892 0.44875875
00000000: 1fc6 173e c3ba 5a3b 69f4 b43c b5c3 e53e

encoder.layers.1.norm2.bias f4 [4]
-0.14600588 0.0055327257 -0.005290027 0.73911375
00000000: 9182 15be de4b b53b f657 adbb 8f36 3d3f

decoder.layers.0.self_attn.in_proj_weight f4 [12, 4]
-0.11795229 -0.12023488 -0.5495124 -0.5287456 -0.095823705 0.0079193115 -0.27818543 0.23068023
-0.55117095 -0.041327298 0.5385322 -0.24978182 0.5529743 0.22177297 -0.5526422 0.3874464
-0.070664406 -0.27336726 0.4896856 -0.49485525 0.065710604 -0.12821162 0.4373029 0.1709404
0.29424822 0.21626484 -0.14726007 -0.12878525 -0.50464475 0.3318104 0.4862103 0.41900045
-0.6283017 -0.088441715 -0.5632869 0.49685925 -0.019997008 1.1543849 -0.478339 -0.056929808
-1.643618 -0.45436293 -0.5206668 -0.16234471 0.3668723 -0.9599751 0.22746573 0.7852919
00000000: f890 f1bd b43d f6bd d8ac 0cbf df5b 07bf
00000010: 383f c4bd 00c0 013c 526e 8ebe 7037 6c3e
00000020: 8a19 0dbf d046 29bd 3fdd 093f cec6 7fbe
00000030: b98f 0d3f 7418 633e f679 0dbf 605f c63e
00000040: 80b8 90bd cbf6 8bbe 12b8 fa3e ab5d fdbe
00000050: 4893 863d e849 03be 2ae6 df3e 000b 2f3e
00000060: b4a7 963e 8874 5d3e 58cb 16be 48e0 03be
00000070: 6630 01bf 0ee3 a93e 8ef0 f83e 3a87 d63e
00000080: 61d8 20bf ee20 b5bd 9233 10bf 5664 fe3e
00000090: c4d0 a3bc e2c2 933f d9e8 f4be 3b2f 69bd
000000a0: 1362 d2bf 42a2 e8be 6b4a 05bf b13d 26be
000000b0: b0d6 bb3e eec0 75bf c7ec 683e e408 493f

decoder.layers.0.self_attn.in_proj_bias f4 [12]
0.0 0.0 0.0 0.0 0.0 0.0 0.0 0.0
-1.1285027 -0.7988656 -0.85594493 0.28562012
00000000: 0000 0000 0000 0000 0000 0000 0000 0000
00000010: 0000 0000 0000 0000 0000 0000 0000 0000
00000020: c772 90bf 7582 4cbf 351f 5bbf cd3c 923e

decoder.layers.0.self_attn.out_proj.weight f4 [4, 4]
0.06402433 -0.03510975 0.068577886 -0.0006278188 -0.81243163 -0.59737116 -0.11661443 0.2291169
0.19164138 -0.037088923 -0.27741635 0.07493532 -0.12658514 0.12805547 -0.020538613 -0.15920226
00000000: 301f 833d 3ecf 0fbd 9072 8c3d 3594 24ba
00000010: 85fb 4fbf 51ed 18bf 8cd3 eebd 9f9d 6a3e
00000020: a33d 443e 8eea 17bd 8409 8ebe b077 993d
00000030: 899f 01be f920 033e 9840 a8bc eb05 23be

decoder.layers.0.self_attn.out_proj.bias f4 [4]
-0.020594466 0.009257784 0.061890025 0.038054932
00000000: bab5 a8bc f6ad 173c 6580 7d3d 7ddf 1b3d

decoder.layers.0.multihead_attn.in_proj_weight f4 [12, 4]
-0.20546097 -0.09068465 0.0066983104 0.50508946 0.076447845 0.5484976 0.37459588 -0.3871504
0.27465153 -0.43288368 -0.25953886 0.18011266 0.20220053 0.45941895 -0.19713241 0.0009803176
0.31526375 -0.5922206 0.44273347 -0.5063845 0.008440018 -0.10411358 -0.32252002 0.08093792
0.5063823 -0.17900842 -0.36356193 -0.22647911 -0.60695195 0.27642125 -0.29410025 -0.40866083
0.032709282 -0.041748844 0.0028186606 0.045385793 -0.033247452 -0.026943658 -0.0035996137 -0.013481291
-0.021119311 0.027260492 -0.03137909 -0.03737351 -0.021612627 -0.00047123487 -0.0108002 -0.01744829
00000000: 5c64 52be e0b8 b9bd 807d db3b 8b4d 013f
00000010: b090 9c3d 576a 0c3f 08cb bf3e 9438 c6be
00000020: 209f 8c3e eea2 ddbe 47e2 84be 746f 383e
00000030: a80d 4f3e f638 eb3e 14dd 49be 007e 803a
00000040: 406a a13e c59b 17bf f6ad e23e 6aa2 01bf
00000050: 0048 0a3c 8039 d5bd 5821 a5be c8c2 a53d
00000060: 45a2 013f fc4d 37be ca24 babe 24ea 67be
00000070: 3461 1bbf 1687 8d3e 4f94 96be fe3b d1be
00000080: 2bfa 053d d600 2bbd 47b9 383b 74e6 393d
00000090: 7b2e 08bd f2b8 dcbc 7fe7 6bbb a2e0 5cbc
000000a0: 6802 adbc 6551 df3c 5c87 00bd f714 19bd
000000b0: f70c b1bc 1310 f7b9 52f3 30bc b7ef 8ebc

decoder.layers.0.multihead_attn.in_proj_bias f4 [12]
0.0 0.0 0.0 0.0 0.0 0.0 0.0 0.0
0.0050087357 0.005612792 0.002748488 0.0074385684
00000000: 0000 0000 0000 0000 0000 0000 0000 0000
00000010: 0000 0000 0000 0000 0000 0000 0000 0000
00000020: 5220 a43b 83eb b73b fa1f 343b 3cbf f33b

decoder.layers.0.multihead_attn.out_proj.weight f4 [4, 4]
-0.016338574 0.008905437 -0.047319937 0.013899291 0.015259552 0.003294431 -0.03483637 0.03510848
-0.05064513 0.025813451 -0.050901413 0.008836321 -0.023553295 0.010696978 -0.04914824 -0.005673144
00000000: 79d8 85bc 1ce8 113c 8dd2 41bd dab9 633c
00000010: 3303 7a3c 61e7 573b 95b0 0ebd e9cd 0f3d
00000020: 4571 4fbd bb76 d33c 007e 50bd 37c6 103c
00000030: d7f2 c0bc 6142 2f3c aa4f 49bd c8e5 b9bb

decoder.layers.0.multihead_attn.out_proj.bias f4 [4]
-0.020383777 0.03499788 -0.036838017 -0.003785289
00000000: e1fb a6bc f059 0f3d 76e3 16bd 9c12 78bb

decoder.layers.0.linear1.weight f4 [4, 4]
0.8476577 0.24080816 -0.08506319 -1.5788665 -0.1878325 -1.8834951 0.38787937 0.37584257
0.7931623 -0.09882697 -0.80572194 -2.2287989 -0.34363806 -1.4547273 0.63469464 -0.045421053
00000000: 1800 593f 6a96 763e 9c35 aebd 4c18 cabf
00000010: 2a57 40be 5e16 f1bf 2098 c63e 706e c03e
00000020: af0c 4b3f cb65 cabd cb43 4ebf a4a4 0ec0
00000030: 54f1 afbe 8134 babf 597b 223f 6d0b 3abd

decoder.layers.0.linear1.bias f4 [4]
-0.05215232 -0.5424915 -0.59234905 -1.052196
00000000: ac9d 55bd b9e0 0abf 30a4 17bf 5cae 86bf

decoder.layers.0.linear2.weight f4 [4, 4]
0.3210965 0.034213632 0.42941827 -0.037578896 -1.4027863 -0.29091564 -1.5606441 1.9017186
-0.20467725 0.17136434 -0.09152219 0.45124137 -0.5382339 -0.29425758 -0.9012511 0.03103073
00000000: c366 a43e 9823 0c3d b6dc db3e 54ec 19bd
00000010: 808e b3bf e5f2 94be 30c3 c7bf 846b f33f
00000020: ea96 51be 227a 2f3e fc6f bbbd 1c09 e73e
00000030: b2c9 09bf eea8 96be 64b8 66bf 2834 fe3c

decoder.layers.0.linear2.bias f4 [4]
-0.028449671 -0.0321365 -0.029889354 0.086415835
00000000: 490f e9bc 90a1 03bd 85da f4bc c9fa b03d

decoder.layers.0.norm1.weight f4 [4]
2.796422 1.4500954 2.2315 2.2823188
00000000: 94f8 3240 ba9c b93f e5d0 0e40 8311 1240

decoder.layers.0.norm1.bias f4 [4]
-1.3866391 -0.6927114 1.2152253 0.20998287
00000000: 647d b1bf 8955 31bf 818c 9b3f c005 573e

decoder.layers.0.norm2.weight f4 [4]
1.8247675 2.7511237 1.994941 3.214853
00000000: fb91 e93f 6912 3040 3a5a ff3f 27c0 4d40

decoder.layers.0.norm2.bias f4 [4]
-0.6187669 -0.3227607 1.016183 -1.1392205
00000000: 8267 1ebf e440 a5be 4912 823f fad1 91bf

decoder.layers.0.norm3.weight f4 [4]
3.1678607 1.3779545 2.9545028 2.2021997
00000000: 3bbe 4a40 d060 b03f 9316 3d40 d7f0 0c40

decoder.layers.0.norm3.bias f4 [4]
-0.014086647 -0.30151147 0.04125102 -1.4954033
00000000: aecb 66bc b65f 9abe d4f6 283d 6069 bfbf

decoder.layers.1.self_attn.in_proj_weight f4 [12, 4]
-0.11795229 -0.12023488 -0.5495124 -0.5287456 -0.095823705 0.0079193115 -0.27818543 0.23068023
-0.55117095 -0.041327298 0.5385322 -0.24978182 0.5529743 0.22177297 -0.5526422 0.3874464
-0.070664406 -0.27336726 0.4896856 -0.49485525 0.065710604 -0.12821162 0.4373029 0.1709404
0.29424822 0.21626484 -0.14726007 -0.12878525 -0.50464475 0.3318104 0.4862103 0.41900045
-0.13571629 -0.3620536 -0.1404251 -0.16632165 -0.0570971 -0.1435604 -0.046752512 -0.06271369
-0.082289435 -0.07056837 -0.08484843 -0.09846472 -0.08074021 1.6646563 -0.45069832 0.0063978797
00000000: f890 f1bd b43d f6bd d8ac 0cbf df5b 07bf
00000010: 383f c4bd 00c0 013c 526e 8ebe 7037 6c3e
00000020: 8a19 0dbf d046 29bd 3fdd 093f cec6 7fbe
00000030: b98f 0d3f 7418 633e f679 0dbf 605f c63e
00000040: 80b8 90bd cbf6 8bbe 12b8 fa3e ab5d fdbe
00000050: 4893 863d e849 03be 2ae6 df3e 000b 2f3e
00000060: b4a7 963e 8874 5d3e 58cb 16be 48e0 03be
00000070: 6630 01bf 0ee3 a93e 8ef0 f83e 3a87 d63e
00000080: 36f9 0abe 175f b9be 99cb 0fbe 3950 2abe
00000090: a6de 69bd 7f01 13be 907f 3fbd 0970 80bd
000000a0: 5d87 a8bd 2686 90bd 03c5 adbd dfa7 c9bd
000000b0: 205b a5bd 7513 d53f eec1 e6be 4ea5 d13b

decoder.layers.1.self_attn.in_proj_bias f4 [12]
0.0 0.0 0.0 0.0 0.0 0.0 0.0 0.0
-0.41110432 -0.18717438 -0.24248888 -0.65862525
00000000: 0000 0000 0000 0000 0000 0000 0000 0000
00000010: 0000 0000 0000 0000 0000 0000 0000 0000
00000020: 447c d2be a4aa 3fbe 014f 78be aa9b 28bf

decoder.layers.1.self_attn.out_proj.weight f4 [4, 4]
0.037412528 0.0192933 -0.008659878 -0.10197208 0.025864601 0.007496744 -0.050730903 0.04845056
0.01094783 -0.0021723988 -0.005812696 -0.07510309 0.023856623 0.00013650721 -0.013197891 0.1015715
00000000: e13d 193d fc0c 9e3c 29e2 0dbc bdd6 d0bd
00000010: 00e2 d33c 3fa7 f53b 35cb 4fbd 1874 463d
00000020: 875e 333c ce5e 0ebb 6e78 bebb a6cf 99bd
00000030: f76e c33c 6023 0f39 f83b 58bc b804 d03d

decoder.layers.1.self_attn.out_proj.bias f4 [4]
0.02656944 -0.041571602 -0.013253132 0.05540235
00000000: 27a8 d93c fc46 2abd aa23 59bc 93ed 623d

decoder.layers.1.multihead_attn.in_proj_weight f4 [12, 4]
-0.20546097 -0.09068465 0.0066983104 0.50508946 0.076447845 0.5484976 0.37459588 -0.3871504
0.27465153 -0.43288368 -0.25953886 0.18011266 0.20220053 0.45941895 -0.19713241 0.0009803176
0.31526375 -0.5922206 0.44273347 -0.5063845 0.008440018 -0.10411358 -0.32252002 0.08093792
0.5063823 -0.17900842 -0.36356193 -0.22647911 -0.60695195 0.27642125 -0.29410025 -0.40866083
0.022775766 -0.024282228 -0.0439084 0.0008875159 0.06322882 0.014780292 0.016987728 0.050538972
-0.021484511 -0.059157312 -0.012339512 0.0064384406 0.0077042105 -0.028478198 -0.012057312 0.0021651895
00000000: 5c64 52be e0b8 b9bd 807d db3b 8b4d 013f
00000010: b090 9c3d 576a 0c3f 08cb bf3e 9438 c6be
00000020: 209f 8c3e eea2 ddbe 47e2 84be 746f 383e
00000030: a80d 4f3e f638 eb3e 14dd 49be 007e 803a
00000040: 406a a13e c59b 17bf f6ad e23e 6aa2 01bf
00000050: 0048 0a3c 8039 d5bd 5821 a5be c8c2 a53d
00000060: 45a2 013f fc4d 37be ca24 babe 24ea 67be
00000070: 3461 1bbf 1687 8d3e 4f94 96be fe3b d1be
00000080: 3e94 ba3c 86eb c6bc 4bd9 33bd 2fa8 683a
00000090: 1d7e 813d 0a29 723c d929 8b3c f401 4f3d
000000a0: 4900 b0bc f04e 72bd aa2b 4abc 8ef9 d23b
000000b0: 9a73 fc3b 1c4b e9bc 088c 45bc dae5 0d3b

decoder.layers.1.multihead_attn.in_proj_bias f4 [12]
0.0 0.0 0.0 0.0 0.0 0.0 0.0 0.0
0.01309661 0.040251046 -0.010135042 0.02363305
00000000: 0000 0000 0000 0000 0000 0000 0000 0000
00000010: 0000 0000 0000 0000 0000 0000 0000 0000
00000020: 2a93 563c 48de 243d 720d 26bc 199a c13c

decoder.layers.1.multihead_attn.out_proj.weight f4 [4, 4]
0.019636411 0.02389174 0.023090482 0.018545602 -0.01752852 -0.018992314 0.02442785 -0.023190303
0.032078665 -0.020944588 0.032330297 0.020611206 0.05427573 0.06869237 -0.006955794 0.06129901
00000000: 8adc a03c 9cb8 c33c 4028 bd3c f2ec 973c
00000010: f997 8fbc c595 9bbc ea1c c83c 97f9 bdbc
00000020: eb64 033d fc93 abbc c66c 043d d5d8 a83c
00000030: 3a50 5e3d 96ae 8c3d 6eed e3bb ac14 7b3d

decoder.layers.1.multihead_attn.out_proj.bias f4 [4]
-0.0045689084 -0.0022303609 -0.016420903 -0.014050315
00000000: c8b6 95bb 3f2b 12bb 2185 86bc 4b33 66bc

decoder.layers.1.linear1.weight f4 [4, 4]
-0.10036897 -0.9644646 0.021225989 -0.0072482903 0.6107302 -0.74442285 -0.12151407 0.022964966
0.22359361 0.08721408 0.102624215 0.101947635 0.012569337 -0.8774656 -0.20244823 0.18463913
00000000: 3f8e cdbd 27e7 76bf 20e2 ad3c 1183 edbb
00000010: d058 1c3f 7f92 3ebf 5edc f8bd 0621 bc3c
00000020: b9f5 643e 4c9d b23d a52c d23d ecc9 d03d
00000030: 9fef 4d3c 96a1 60bf 974e 4fbe 0a12 3d3e

decoder.layers.1.linear1.bias f4 [4]
-0.22176091 -0.5396618 -0.45647448 -0.51013565
00000000: 4b15 63be 4727 0abf 06b7 e9be 4098 02bf

decoder.layers.1.linear2.weight f4 [4, 4]
0.15719157 -0.23779052 -0.042778894 -0.06565949 -0.48522696 0.12456991 -0.10023519 0.37351644
0.023514835 -0.2991115 0.10229972 -0.18480791 0.14752555 -0.16624233 -0.27676553 -0.4145763
00000000: d4f6 203e 5c7f 73be ec38 2fbd 7c78 86bd
00000010: ab6f f8be 821e ff3d 1b48 cdbd 8c3d bf3e
00000020: 2fa2 c03c 2425 99be 8482 d13d 493e 3dbe
00000030: f010 173e 6e3b 2abe 36b4 8dbe 5843 d4be

decoder.layers.1.linear2.bias f4 [4]
-0.037498996 -0.0004722453 -0.0026073782 0.012598965
00000000: 8c98 19bd b197 f7b9 8ce0 2abb e46b 4e3c

decoder.layers.1.norm1.weight f4 [4]
3.0095341 0.28516454 3.1646602 2.931549
00000000: 359c 4040 1601 923e cb89 4a40 809e 3b40

decoder.layers.1.norm1.bias f4 [4]
-0.5738868 0.31612784 -0.8073751 -0.86819977
00000000: 3fea 12bf 82db a13e 22b0 4ebf 5742 5ebf

decoder.layers.1.norm2.weight f4 [4]
2.1455104 2.1799576 1.0264506 4.856969
00000000: 0b50 0940 6d84 0b40 bc62 833f 4a6c 9b40

decoder.layers.1.norm2.bias f4 [4]
-1.0954101 1.3422474 -0.586992 -0.7922936
00000000: 6636 8cbf c3ce ab3f 1c45 16bf c1d3 4abf

decoder.layers.1.norm3.weight f4 [4]
1.1872622 -0.011632207 -0.005604305 -0.0045683803
00000000: 35f8 973f 0395 3ebc 51a4 b7bb 5ab2 95bb

decoder.layers.1.norm3.bias f4 [4]
0.38312423 0.0020533563 0.00010100186 -0.0145526705
00000000: dc28 c43e 9a91 063b f6d0 d338 536e 6ebc

linear_mapping.weight f4 [1, 4]
-0.6710045 -0.002956235 0.0013180274 0.0059096124
00000000: f3c6 2bbf 65bd 41bb a9c1 ac3a 6ca5 c13b

linear_mapping_with_gender_ind.weight f4 [1, 5]
0.055841506 -0.35157594 0.03514573 0.3096819 0.40299034
00000000: 10ba 643d c301 b4be f8f4 0f3d a08e 9e3e
00000010: c054 ce3e

exp_avg f4 [4, 5]
-8.508573e-09 -1.0181326e-08 -9.1277865e-09 -9.229444e-09 -9.767008e-09 1.2439626e-08 1.2860647e-08 1.26897834e-08
1.2710256e-08 1.2976729e-08 1.7496998e-09 2.2439701e-09 1.8081195e-09 1.8695787e-09 2.0825182e-09 8.214123e-09
9.119304e-09 8.655981e-09 9.076366e-09 8.844747e-09
00000000: 1a2d 12b2 f2e9 2eb2 6ed0 1cb2 868f 1eb2
00000010: c1cb 27b2 0eb6 5532 b9f1 5c32 4202 5a32
00000020: 4c5c 5a32 42f0 5e32 177a f030 5734 1a31
00000030: 8d81 f830 fa79 0031 0c1c 0f31 181e 0d32
00000040: 20ab 1c32 68b5 1432 48ee 1b32 9cf3 1732

exp_avg_sq f4 [4, 5]
4.5733486e-15 5.540467e-15 5.044525e-15 5.0089437e-15 5.4056038e-15 6.6984018e-15 7.048277e-15 6.9918284e-15
6.942628e-15 7.23495e-15 6.5524347e-15 6.775474e-15 6.769389e-15 6.7730093e-15 6.9035155e-15 1.244561e-14
1.2881063e-14 1.2823497e-14 1.3207543e-14 1.32466475e-14
00000000: b2c5 a427 ca9d c727 88bf b527 5a77 b427
00000010: e5c1 c227 da55 f127 e2f0 fd27 3ce8 fb27
00000020: 7122 fa27 5155 0228 8b13 ec27 b81c f427
00000030: 98e4 f327 fc05 f427 b1b9 f827 3f33 6028
00000040: 6b0b 6828 f101 6728 0bed 6d28 61a1 6e28

exp_avg f4 [4]
4.9864974e-09 -6.4106476e-09 -1.915513e-09 -4.509781e-09
00000000: b255 ab31 a744 dcb1 10a2 03b1 74f4 9ab1

exp_avg_sq f4 [4]
1.0990504e-15 1.6962663e-15 1.4537172e-15 2.4295099e-15
00000000: ce63 9e26 2e75 f426 b380 d126 8c10 2f27

exp_avg f4 [4, 1]
-0.018713305 -0.005910188 0.03599505 0.045224592
00000000: a54c 99bc 40aa c1bb 8c6f 133d 6c3d 393d

exp_avg_sq f4 [4, 1]
0.026937025 0.01201204 0.0150580555 0.018324649
00000000: 09ab dc3c 26ce 443c 10b6 763c 931d 963c

exp_avg f4 [4]
0.006248692 -0.0003071027 -0.014037827 -0.018678885
00000000: d4c1 cc3b a002 a1b9 eafe 65bc 7604 99bc

exp_avg_sq f4 [4]
0.0048179654 0.0022289946 0.0032627427 0.0029726732
00000000: 06e0 9d3b 5314 123b bdd3 553b 2ed1 423b

exp_avg f4 [12, 4]
4.2636447e-08 -5.132986e-09 1.1544653e-08 1.4090785e-08 -1.43952e-08 1.9007977e-09 -4.613445e-09 -5.422201e-09
-1.0729372e-08 1.093856e-09 -3.9314765e-09 -2.8693876e-09 -6.515257e-08 8.5325516e-09 -2.0429502e-08 -1.9457923e-08
2.2460565e-09 -1.9197529e-08 -3.153833e-08 -2.3121718e-09 1.2781822e-09 -1.4726896e-08 -1.8804448e-08 -4.320397e-09
-2.1887483e-09 1.8985292e-08 2.786778e-08 3.5317531e-09 1.7847303e-10 -1.7984031e-09 -2.7356606e-09 -1.2164376e-09
2.3594002e-10 -5.2693138e-11 9.289014e-11 -1.9586972e-10 -7.65671e-10 2.7315043e-11 -6.736447e-11 -5.6034254e-11
6.1847e-10 -9.161386e-11 1.08089045e-10 4.4212087e-10 -1.6640461e-09 4.3432144e-10 -4.1367265e-10 1.0919264e-10
00000000: 451f 3733 395e b0b1 ec55 4632 ee13 7232
00000010: c24e 77b2 309f 0231 4b84 9eb1 2f4e bab1
00000020: 4754 38b2 a356 9630 a215 87b1 cd2e 45b1
00000030: 01ea 8bb3 8f96 1232 f37c afb2 6d24 a7b2
00000040: 0b59 1a31 d0e7 a4b2 c374 07b3 28e4 1eb1
00000050: 0aac af30 9301 7db2 6b87 a1b2 9d72 94b1
00000060: de68 16b1 1915 a332 e561 ef32 42b3 7231
00000070: b13b 442f af2b f7b0 40fe 3bb1 982f a7b0
00000080: 9bb5 812f 33bf 67ae 8044 cc2e 6d5c 57af
00000090: 4f77 52b0 0244 f02d d322 94ae f670 76ae
000000a0: f500 2a30 0576 c9ae b9b0 ed2e fb0e f32f
000000b0: 6bb4 e4b0 4fc5 ee2f 406b e3af fe1d f02e

exp_avg_sq f4 [12, 4]
2.1875835e-13 3.5973125e-15 1.0894039e-14 1.7698547e-14 2.1770723e-13 3.500943e-15 9.753191e-15 1.6264442e-14
1.6368217e-14 3.7471814e-16 8.8343726e-16 1.1173597e-15 1.4322393e-13 4.741877e-15 1.1140708e-14 1.12736934e-14
1.4831542e-14 8.510514e-14 4.93691e-14 4.087752e-14 6.3198267e-15 4.2089477e-14 2.2693165e-14 2.3091258e-14
1.4004919e-14 7.850159e-14 4.3656475e-14 4.2423394e-14 1.1937725e-16 8.130398e-16 3.883072e-16 4.641863e-16
1.7134381e-15 5.521055e-17 2.1171754e-17 9.6994696e-17 3.705045e-15 1.6243733e-16 5.441084e-17 2.4066273e-16
7.8756705e-16 4.404704e-17 2.3959837e-17 3.351123e-17 9.846354e-15 6.4210497e-16 1.0790506e-16 5.354259e-16
00000000: cd4c 762a 5a9b 8127 e33f 4428 126a 9f28
00000010: d61d 752a 0045 7c27 a8b2 2f28 407f 9228
00000020: 8a6e 9328 a302 d825 2aa2 7e26 4c07 a126
00000030: 7d41 212a 19d8 aa27 73b1 4828 bc16 4b28
00000040: 3597 8528 c6a3 bf29 b256 5e29 9218 3829
00000050: 1db2 e327 dd8d 3d29 e066 cc28 d1fc cf28
00000060: 4a4a 7c28 16c5 b029 7d9c 4429 d80e 3f29
00000070: f2a1 0925 c057 6a26 07d8 df25 e7ca 0526
00000080: b5ee f626 1d9d 7e24 6446 c323 90a7 df24
00000090: 027d 8527 0a47 3b25 fbec 7a24 8dbb 8a25
000000a0: 3100 6326 9121 4b24 91fd dc23 148b 1a24
000000b0: 4b60 3128 fc12 3926 e8cf f824 7553 1a26

exp_avg f4 [12]
4.7865236e-09 -1.9414739e-09 -8.7312674e-10 -6.1630403e-09 -6.9135227e-15 1.611874e-15 2.1647714e-15 4.870754e-16
-1.22930156e-11 -9.607925e-11 8.929601e-11 -9.735408e-11
00000000: b576 a431 c56a 05b1 d500 70b0 adc2 d3b1
00000010: fe15 f9a7 a84b e826 fcfc 1b27 d263 0c26
00000020: d242 58ad cf47 d3ae 2f5d c42e 7a15 d6ae

exp_avg_sq f4 [12]
1.7280935e-15 1.5238369e-15 1.0237323e-16 1.082332e-15 2.64872e-27 1.1764094e-27 2.9422382e-27 1.9959338e-28
9.864506e-18 2.0905003e-17 5.855988e-18 7.7907986e-17
00000000: 660b f926 a99b db26 7d0e ec24 01fb 9b26
00000010: 6dda 5113 d668 ba12 ae1b 6913 c103 7d11
00000020: d0f7 3523 8bd0 c023 3e0c d822 c2a4 b324

exp_avg f4 [4, 4]
-1.5423802e-09 2.0982365e-09 -1.8815436e-09 -1.1508616e-09 -5.8713048e-09 6.6084374e-09 -6.7270145e-09 -4.518473e-09
-6.5559562e-09 9.1983745e-09 -6.8669714e-09 -3.858759e-09 3.2334518e-10 -5.98702e-10 1.7924544e-10 9.72334e-12
00000000: aefb d3b0 9130 1031 774c 01b1 582c 9eb0
00000010: 8bbc c9b1 6e10 e331 7223 e7b1 e940 9bb1
00000020: cd42 e1b1 e106 1e32 85f2 ebb1 0196 84b1
00000030: cac2 b12f e891 24b0 1b15 452f 080e 2b2d

exp_avg_sq f4 [4, 4]
1.33540445e-14 3.285823e-14 1.6501952e-14 4.980382e-15 7.840618e-15 1.4800088e-14 8.986433e-15 3.036911e-15
6.714654e-14 1.5353279e-13 7.642022e-14 2.4366048e-14 3.8506664e-15 9.385334e-15 4.414752e-15 1.2844957e-15
00000000: a990 7028 f6fa 1329 e9a2 9428 eb6f b327
00000010: 783e 0d28 ae4e 8528 9be2 2128 1fd5 5a27
00000020: 5833 9729 d0dc 2c2a 4215 ac29 4878 db28
00000030: 21bc 8a27 3712 2928 e60e 9f27 871d b926

exp_avg f4 [4]
1.9840904e-09 5.4374755e-10 -4.412983e-09 2.7117228e-09
00000000: 7d58 0831 d576 1530 02a1 97b1 2259 3a31

exp_avg_sq f4 [4]
1.8004367e-16 1.523558e-16 6.4866874e-16 3.8807137e-16
00000000: 8393 4f25 7fa7 2f25 4ef7 3a26 3ab5 df25

exp_avg f4 [4, 4]
-1.9757518e-12 -4.274643e-13 2.2820248e-12 -3.1525505e-12 -7.090618e-22 1.3230157e-21 -9.124835e-22 -3.6294755e-21
3.464042e-08 4.778989e-09 -9.218714e-09 -3.0944786e-08 -1.996441e-13 2.9589864e-13 -2.8225005e-13 -6.3425903e-13
00000000: fb07 0bac 19a4 f0aa 4e95 202c 4dd7 5dac
00000010: 004d 569c b1ed c71c ffe3 899c 221e 899d
00000020: 8bc7 1433 6f34 a431 5560 1eb2 27e8 04b3
00000030: 7ec7 60aa 7d93 a62a 85e4 9eaa 2e87 32ab

exp_avg_sq f4 [4, 4]
1.2760086e-18 5.964486e-20 1.6996515e-18 3.2450128e-18 2.2783212e-16 1.5182664e-17 1.0297701e-17 1.3205626e-16
4.1635648e-13 4.6285404e-14 2.7452636e-13 3.1106403e-13 4.9680018e-17 9.040702e-17 8.16038e-17 4.142037e-16
00000000: 3e4e bc21 1bd5 8c1f 05d3 fa21 8f70 6f22
00000010: 1656 8325 0d09 8c23 85f5 3d23 2140 1825
00000020: 4b63 ea2a 7073 5029 6b8b 9a2a 0d1d af2a
00000030: d01b 6524 e376 d024 622a bc24 adc5 ee25

exp_avg f4 [4]
-2.0309264e-12 1.231155e-21 9.337396e-09 2.9421046e-13
00000000: ebe9 0eac 010c ba1c 4d6a 2032 32a0 a52a

exp_avg_sq f4 [4]
1.3506668e-18 2.2264118e-16 9.212255e-14 9.5813184e-17
00000000: c052 c721 0a58 8025 0971 cf29 1fee dc24

exp_avg f4 [4, 4]
1.3374298e-12 2.840264e-22 -1.4960371e-07 5.0524434e-13 4.497384e-22 1.168698e-22 6.5948946e-08 6.315568e-23
5.5815044e-12 -2.353859e-22 3.5524494e-09 -5.5341345e-14 2.457612e-12 -1.6551048e-22 7.216781e-08 -2.4141848e-13
00000000: fd39 bc2b f5ae ab1b c1a2 20b4 b136 0e2b
00000010: d3ec 071c 7449 0d1b d19f 8d33 79b3 981a
00000020: b961 c42c 3448 8e9b 5a1f 7431 3a3c 79a9
00000030: 67f0 2c2c 0317 489b acfa 9a33 12e8 87aa

exp_avg_sq f4 [4, 4]
1.3074496e-18 5.768712e-18 1.8511845e-11 2.5580845e-16 2.25764e-19 1.8452793e-18 7.8538684e-13 4.1419415e-19
1.0167668e-17 1.1715353e-17 7.534092e-13 5.590255e-18 2.2784798e-18 5.9106253e-18 6.8761354e-13 5.819149e-17
00000000: 0df2 c021 f2d3 d422 f8d4 a22d aa76 9325
00000010: 7e44 8520 5728 0822 1611 5d2b 407f f420
00000020: 748f 3b23 311c 5823 db10 542b 773e ce22
00000030: 441f 2822 4710 da22 c78b 412b 312e 8624

exp_avg f4 [4]
-3.185412e-08 8.331139e-09 3.7004277e-08 -1.26499895e-08
00000000: facf 08b3 bd20 0f32 a2ee 1e33 3e53 59b2

exp_avg_sq f4 [4]
6.55981e-13 5.3291307e-13 3.348866e-13 4.278721e-13
00000000: 6aa4 382b 6f00 162b 3f86 bc2a dede f02a

exp_avg f4 [4]
-1.8634495e-08 -1.6518542e-10 -4.3015187e-09 1.3991189e-08
00000000: b011 a0b2 909f 35af 8fcc 93b1 e65d 7032

exp_avg_sq f4 [4]
7.526116e-14 1.1388693e-13 1.7009887e-13 3.32878e-14
00000000: 1b79 a929 ac39 002a a983 3f2a 38ea 1529

exp_avg f4 [4]
-1.612197e-08 2.0739972e-08 8.728938e-09 -1.1357817e-08
00000000: 967c 8ab2 ae27 b232 46f6 1532 3520 43b2

exp_avg_sq f4 [4]
9.104693e-14 1.3541128e-13 3.9583767e-14 4.6154266e-14
00000000: fb04 cd29 a575 182a fa44 3229 3fdc 4f29

exp_avg f4 [4]
-3.316169e-08 1.3267885e-07 -2.7354222e-08 -1.18245485e-08
00000000: aa6d 0eb3 7c76 0e34 92f8 eab2 ea24 4bb2

exp_avg_sq f4 [4]
2.8016166e-13 3.717814e-12 5.6304554e-13 5.6463905e-13
00000000: 8db7 9d2a 17cf 822c b57b 1e2b 88ee 1e2b

exp_avg f4 [4]
-6.5548285e-08 5.2722775e-08 5.056681e-08 1.73853e-09
00000000: 8dc3 8cb3 4e71 6233 cc2e 5933 16f1 ee30

exp_avg_sq f4 [4]
9.597805e-13 1.6338454e-12 2.5411322e-13 1.9883888e-13
00000000: bd13 872b 7cf1 e52b 930d 8f2a 68df 5f2a

exp_avg f4 [12, 4]
-3.706971e-09 -3.9632977e-09 -1.5249203e-09 1.4479887e-08 -3.2104486e-09 -2.5373235e-09 -6.7433603e-10 9.081729e-09
1.9650614e-09 1.5131217e-09 3.7570735e-10 -5.3842837e-09 1.484975e-10 1.8976752e-10 9.640343e-11 -7.3210715e-10
-2.2896856e-08 9.495217e-09 -2.4009474e-09 -4.046788e-10 -1.9718692e-08 8.101689e-09 -2.0016528e-09 -3.66013e-10
5.261441e-09 -2.1582194e-09 4.822541e-10 2.934517e-10 5.588102e-10 -2.079816e-10 1.41198e-10 -4.0026849e-10
-2.0156127e-08 -3.1090636e-08 -5.382735e-10 7.165918e-08 1.1820109e-07 -1.604539e-08 9.008711e-10 -4.853367e-08
-1.016939e-08 -2.4374641e-08 -5.428567e-10 5.33803e-08 -3.254454e-09 -2.5972062e-08 8.123372e-11 4.9455025e-08
00000000: b9bd 7eb1 892d 88b1 5d95 d1b0 37c3 7832
00000010: cf9e 5cb1 115d 2eb1 2e5c 39b0 de05 1c32
00000020: ba09 0731 3df6 cf30 1c8c ce2f a900 b9b1
00000030: 5546 232f cfa6 502f 4efe d32e 763d 49b0
00000040: b8ae c4b2 6820 2332 eafd 24b1 7a79 deaf
00000050: dd61 a9b2 9b2f 0b32 738d 09b1 c037 c9af
00000060: 20c8 b431 cc4f 14b1 9e8f 0430 a853 a12f
00000070: c69a 1930 9ead 64af b43f 1b2f c80c dcaf
00000080: cb23 adb2 8488 05b3 a1f5 13b0 0de3 9933
00000090: bdd5 fd33 30d4 89b2 2ba1 7730 5673 50b3
000000a0: 73b5 2eb2 6760 d1b2 2538 15b0 4344 6533
000000b0: f6a4 5fb1 2b19 dfb2 85a2 b22e 6068 5433

exp_avg_sq f4 [12, 4]
1.6620291e-15 1.7602488e-15 4.880336e-16 2.4908767e-14 2.3970672e-15 6.3806344e-15 2.009712e-15 9.3130026e-14
9.093959e-16 2.3397921e-15 7.380338e-16 3.4179463e-14 3.8738804e-17 1.1538991e-16 3.6688435e-17 1.6961144e-15
1.4934027e-13 2.325339e-13 1.01780583e-13 4.566286e-13 1.1023897e-13 1.7467932e-13 7.6352485e-14 3.4348693e-13
1.0387483e-14 1.3842698e-14 6.0585234e-15 2.8191088e-14 2.9248445e-16 2.6674195e-16 1.1381113e-16 6.202699e-16
7.407344e-14 3.1069613e-13 6.5390804e-15 9.404936e-13 1.2723345e-12 6.855901e-13 1.9536644e-14 4.0513274e-12
5.338793e-14 1.6118914e-13 3.7141023e-15 5.4052867e-13 6.137803e-14 2.4665396e-13 5.2423026e-15 7.5376765e-13
00000000: 0d86 ef26 b8ad fd26 86aa 0c26 b55b e028
00000010: 16ba 2c27 f7e2 e527 a5d0 1027 ceb5 d129
00000020: c90e 8326 8c99 2827 48b9 5426 3dee 1929
00000030: b5a6 3224 1709 0525 0f32 2924 946f f426
00000040: 6724 282a abe7 822a 8330 e529 8f87 002b
00000050: 713c f829 e3ab 442a 36ee ab29 af5d c12a
00000060: cf1f 3b28 2d5e 7928 0448 da27 39ec fd28
00000070: 169b a825 2ac4 9925 1e37 0325 d7c7 3226
00000080: 6ecc a629 08e8 ae2a 5f98 eb27 da5c 842b
00000090: ae10 b32b f9f9 402b 6ff8 af28 1d8b 8e2c
000000a0: 1870 7029 9b7b 352a 8cd0 8527 3225 182b
000000b0: 0636 8a29 95da 8a2a b5df bc27 af2a 542b

exp_avg f4 [12]
-2.8482623e-09 -1.7308804e-09 1.0230532e-09 1.4533846e-10 4.0916008e-14 3.4347776e-14 -8.372653e-15 2.832935e-16
-1.7736472e-08 4.7484514e-09 -1.3211332e-08 -1.3260939e-08
00000000: 29bb 43b1 f1e3 edb0 7c9b 8c30 24cd 1f2f
00000010: f244 3829 4ab0 1a29 0cd4 16a8 be4e a325
00000020: ea5a 98b2 d227 a331 0df8 62b2 3ad2 63b2

exp_avg_sq f4 [12]
1.0318538e-15 3.8269516e-15 1.4050106e-15 6.949023e-17 1.2908803e-24 1.0641835e-24 8.913795e-26 1.29431785e-27
9.61617e-14 2.66942e-13 5.1133126e-14 7.6307084e-14
00000000: b0b4 9426 66e1 8927 be7b ca26 cb3b a024
00000010: 09c1 c717 a7ac a417 e3b1 dc15 c517 cd12
00000020: 7289 d829 6646 962a 7b48 6629 0ad4 ab29

exp_avg f4 [4, 4]
-1.6769405e-07 1.7099609e-08 -5.2891615e-08 -1.4702878e-08 2.7620007e-07 -5.8238943e-09 1.0013038e-07 3.5462207e-08
3.8243147e-08 7.373513e-09 1.6289201e-08 7.911675e-09 -7.886222e-08 -3.6450242e-08 -5.0712462e-08 -2.9577079e-08
00000000: 640f 34b4 70e2 9232 f22a 63b3 f197 7cb2
00000010: a648 9434 841b c8b1 4207 d733 1c4f 1833
00000020: c940 2433 1b5a fd31 55ec 8b32 eaeb 0732
00000030: f75a a9b3 778d 1cb3 f1ce 59b3 af10 feb2

exp_avg_sq f4 [4, 4]
3.697636e-12 5.8667014e-13 1.6157307e-13 4.6400976e-14 1.0731542e-11 1.3525032e-12 4.7473077e-13 5.906508e-14
2.8343554e-12 4.911527e-13 1.3085708e-13 3.936339e-14 5.6330596e-12 1.708905e-12 2.0770393e-13 1.8867431e-13
00000000: 5819 822c 0a22 252b 44ea 352a aff8 5029
00000010: 92ca 3c2d 1059 be2b f59f 052b b300 8529
00000020: 3573 472c 483f 0a2b fc54 132a e646 3129
00000030: 1732 c62c cb81 f02b 95da 692a ab6d 542a

exp_avg f4 [4]
-3.3315168e-08 5.7273887e-08 1.5336676e-08 -5.07999e-09
00000000: 6a16 0fb3 4efd 7533 b5bd 8332 118c aeb1

exp_avg_sq f4 [4]
1.6970897e-13 1.7367215e-13 4.593574e-14 6.621846e-14
00000000: 4813 3f2a 9789 432a 4de0 4e29 581c 9529

exp_avg f4 [4, 4]
6e-45 6e-45 -6e-45 6e-45 -6e-45 6e-45 6e-45 -6e-45
6e-45 -6e-45 6e-45 6e-45 3.991108e-07 4.4973383e-08 3.7073743e-08 -6.839922e-07
00000000: 0400 0000 0400 0000 0400 0080 0400 0000
00000010: 0400 0080 0400 0000 0400 0000 0400 0080
00000020: 0400 0000 0400 0080 0400 0000 0400 0000
00000030: 5f45 d634 c228 4133 033b 1f33 969b 37b5

exp_avg_sq f4 [4, 4]
3.5e-44 3.5e-44 3.5e-44 3.5e-44 3.5e-44 3.5e-44 3.5e-44 3.5e-44
3.5e-44 3.5e-44 3.5e-44 3.5e-44 5.8322354e-11 5.678368e-13 4.0016948e-13 1.229953e-10
00000000: 1900 0000 1900 0000 1900 0000 1900 0000
00000010: 1900 0000 1900 0000 1900 0000 1900 0000
00000020: 1900 0000 1900 0000 1900 0000 1900 0000
00000030: 9140 802e f4d4 1f2b 8046 e12a 193c 072f

exp_avg f4 [4]
6e-45 6e-45 6e-45 1.06303915e-07
00000000: 0400 0000 0400 0000 0400 0000 3249 e433

exp_avg_sq f4 [4]
3.5e-44 3.5e-44 3.5e-44 3.3055943e-12
00000000: 1900 0000 1900 0000 1900 0000 4b9c 682c

exp_avg f4 [4, 4]
6e-45 6e-45 -6e-45 6.2878956e-07 -6e-45 -6e-45 -6e-45 -3.9920334e-07
6e-45 -6e-45 6e-45 -4.0141103e-07 -6e-45 -6e-45 -6e-45 1.9091247e-07
00000000: 0400 0000 0400 0000 0400 0080 17ca 2835
00000010: 0400 0080 0400 0080 0400 0080 1752 d6b4
00000020: 0400 0000 0400 0080 0400 0000 8381 d7b4
00000030: 0400 0080 0400 0080 0400 0080 9ffd 4c34

exp_avg_sq f4 [4, 4]
3.5e-44 3.5e-44 3.5e-44 5.889334e-11 3.5e-44 3.5e-44 3.5e-44 3.717442e-11
3.5e-44 3.5e-44 3.5e-44 4.7250936e-11 3.5e-44 3.5e-44 3.5e-44 1.1863062e-11
00000000: 1900 0000 1900 0000 1900 0000 0182 812e
00000010: 1900 0000 1900 0000 1900 0000 ad7e 232e
00000020: 1900 0000 1900 0000 1900 0000 d3cf 4f2e
00000030: 1900 0000 1900 0000 1900 0000 7bb2 502d

exp_avg f4 [4]
-3.3140702e-07 2.326496e-07 2.2430082e-07 -2.2838627e-07
00000000: 3cec b1b4 3cce 7934 57d7 7034 573a 75b4

exp_avg_sq f4 [4]
8.589988e-12 5.386055e-12 7.059818e-12 2.4519596e-12
00000000: de1d 172d 4581 bd2c 3065 f82c 948a 2c2c

exp_avg f4 [4]
-5.476921e-07 4.3382906e-09 -8.673742e-08 2.1934379e-07
00000000: 1d05 13b5 0210 9531 6744 bab3 c384 6b34

exp_avg_sq f4 [4]
1.8167128e-11 7.680682e-13 4.567493e-13 3.865031e-12
00000000: bccc 9f2d 2631 582b 4190 002b 1bfd 872c

exp_avg f4 [4]
-3.463981e-07 3.1005632e-07 2.382443e-07 -1.7523125e-07
00000000: 98f8 b9b4 d175 a634 18d0 7f34 3327 3cb4

exp_avg_sq f4 [4]
9.294817e-12 6.9277297e-12 6.66532e-12 2.6291616e-12
00000000: 2284 232d 71bf f32c de83 ea2c c402 392c

exp_avg f4 [4]
-1.3690322e-05 -4.3183286e-07 1.1479628e-06 8.233446e-06
00000000: 7caf 65b7 a8d6 e7b4 b413 9a35 6222 0a37

exp_avg_sq f4 [4]
2.8593059e-08 1.1789805e-09 2.7674632e-10 5.1700894e-08
00000000: cd9c f532 b009 a230 9524 982f bc0d 5e33

exp_avg f4 [4]
-1.2476824e-05 -8.6609805e-07 8.952325e-06 -4.705002e-06
00000000: 8d53 51b7 ce7d 68b5 f131 1637 a9df 9db6

exp_avg_sq f4 [4]
2.4958165e-08 7.2732664e-09 4.7773443e-09 1.9801753e-08
00000000: 9663 d632 54e8 f931 f725 a431 8418 aa32

exp_avg f4 [12, 4]
0.0 0.0 0.0 0.0 0.0 0.0 0.0 0.0
0.0 0.0 0.0 0.0 0.0 0.0 0.0 0.0
0.0 0.0 0.0 0.0 0.0 0.0 0.0 0.0
0.0 0.0 0.0 0.0 0.0 0.0 0.0 0.0
0.0012851657 -0.0015271988 -0.036194753 0.0007777148 0.0029683707 -0.0050263633 -0.030551532 -0.0014272974
-0.00079190446 0.0008675069 -0.007385628 0.0016201739 -0.0020447297 0.0034685822 0.014439167 0.0012369716
00000000: 0000 0000 0000 0000 0000 0000 0000 0000
00000010: 0000 0000 0000 0000 0000 0000 0000 0000
00000020: 0000 0000 0000 0000 0000 0000 0000 0000
00000030: 0000 0000 0000 0000 0000 0000 0000 0000
00000040: 0000 0000 0000 0000 0000 0000 0000 0000
00000050: 0000 0000 0000 0000 0000 0000 0000 0000
00000060: 0000 0000 0000 0000 0000 0000 0000 0000
00000070: 0000 0000 0000 0000 0000 0000 0000 0000
00000080: 0173 a83a 4a2c c8ba f340 14bd 8fdf 4b3a
00000090: ff88 423b 31b4 a4bb 3547 fabc 2714 bbba
000000a0: cf97 4fba 6769 633a 2303 f2bb 045c d43a
000000b0: df00 06bb 2751 633b 4292 6c3c e121 a23a

exp_avg_sq f4 [12, 4]
0.0 0.0 0.0 0.0 0.0 0.0 0.0 0.0
0.0 0.0 0.0 0.0 0.0 0.0 0.0 0.0
0.0 0.0 0.0 0.0 0.0 0.0 0.0 0.0
0.0 0.0 0.0 0.0 0.0 0.0 0.0 0.0
0.000106173655 0.00021024623 0.00840018 0.00015524987 4.6905647e-05 6.885192e-05 0.0022346757 7.886361e-05
3.5705372e-05 3.137757e-05 0.0004106271 6.2853964e-05 1.8078832e-05 2.1617961e-05 0.00040566613 2.5800235e-05
00000000: 0000 0000 0000 0000 0000 0000 0000 0000
00000010: 0000 0000 0000 0000 0000 0000 0000 0000
00000020: 0000 0000 0000 0000 0000 0000 0000 0000
00000030: 0000 0000 0000 0000 0000 0000 0000 0000
00000040: 0000 0000 0000 0000 0000 0000 0000 0000
00000050: 0000 0000 0000 0000 0000 0000 0000 0000
00000060: 0000 0000 0000 0000 0000 0000 0000 0000
00000070: 0000 0000 0000 0000 0000 0000 0000 0000
00000080: 8ca9 de38 8b75 5c39 e9a0 093c 92ca 2239
00000090: 8ebc 4438 9864 9038 a373 123b 9463 a538
000000a0: 5ac2 1538 699b 0338 7049 d739 77d0 8338
000000b0: ffa7 9737 3858 b537 96af d439 956d d837

exp_avg f4 [12]
0.0 0.0 0.0 0.0 0.0 0.0 0.0 0.0
0.010433488 0.012803162 0.0028072102 -0.0075219087
00000000: 0000 0000 0000 0000 0000 0000 0000 0000
00000010: 0000 0000 0000 0000 0000 0000 0000 0000
00000020: 38f1 2a3c 5bc4 513c 2cf9 373b 587a f6bb

exp_avg_sq f4 [12]
0.0 0.0 0.0 0.0 0.0 0.0 0.0 0.0
0.0019468995 0.00061931275 0.0003326352 0.00022441294
00000000: 0000 0000 0000 0000 0000 0000 0000 0000
00000010: 0000 0000 0000 0000 0000 0000 0000 0000
00000020: 1b2f ff3a 6059 223a 8a65 ae39 6450 6b39

exp_avg f4 [4, 4]
0.010014531 0.013840618 0.0051861294 -0.0051132296 -0.0063246647 -0.0040557133 -0.007926418 0.00093096355
-0.0009962147 -0.00081882277 -0.0017118452 -0.00011805949 -0.022141872 -0.025700776 -0.015877005 0.013718134
00000000: fd13 243c c2c3 623c 68f0 a93b e18c a7bb
00000010: 223f cfbb cae5 84bb cfdd 01bc e80b 743a
00000020: 6b93 82ba 44a6 56ba fe5f e0ba b596 f7b8
00000030: df62 b5bc 6f8a d2bc 7e10 82bc 06c2 603c

exp_avg_sq f4 [4, 4]
0.0016862849 0.001112561 0.0013036816 0.00030785063 0.00011728606 9.290851e-05 0.00024561526 8.624603e-05
0.0009883773 0.00052329816 0.0006988332 0.00016624111 0.0032015566 0.0020136177 0.0014802185 0.00044841768
00000000: 5506 dd3a 5ad3 913a 4ce0 aa3a 0367 a139
00000010: 79f7 f538 e0d7 c238 ecc5 8039 fcde b438
00000020: 708c 813a f22d 093a e731 373a 0251 2e39
00000030: 35d1 513b e6f6 033b e403 c23a 9a19 eb39

exp_avg f4 [4]
0.014153928 -0.017634302 0.0053247223 0.0137030175
00000000: e0e5 673c d075 90bc 027b ae3b 9f82 603c

exp_avg_sq f4 [4]
0.011595838 0.0019034339 0.002382411 0.005596019
00000000: 78fc 3d3c a57c f93a 3922 1c3b cf5e b73b

exp_avg f4 [12, 4]
0.0 0.0 0.0 0.0 0.0 0.0 0.0 0.0
0.0 0.0 0.0 0.0 0.0 0.0 0.0 0.0
0.0 0.0 0.0 0.0 0.0 0.0 0.0 0.0
0.0 0.0 0.0 0.0 0.0 0.0 0.0 0.0
2.7379567e-06 -1.5790871e-06 -6.5576415e-07 4.3008486e-06 -1.7966801e-06 6.02822e-07 3.8075487e-07 -3.620521e-06
-4.7968288e-06 -7.4722755e-07 -7.431568e-07 -3.6757888e-06 9.268797e-07 -1.5809487e-06 2.719457e-07 -3.3985914e-06
00000000: 0000 0000 0000 0000 0000 0000 0000 0000
00000010: 0000 0000 0000 0000 0000 0000 0000 0000
00000020: 0000 0000 0000 0000 0000 0000 0000 0000
00000030: 0000 0000 0000 0000 0000 0000 0000 0000
00000040: 0000 0000 0000 0000 0000 0000 0000 0000
00000050: 0000 0000 0000 0000 0000 0000 0000 0000
00000060: 0000 0000 0000 0000 0000 0000 0000 0000
00000070: 0000 0000 0000 0000 0000 0000 0000 0000
00000080: bdbd 3736 05f1 d3b5 c507 30b5 0250 9036
00000090: 7525 f1b5 9dd1 2135 8d6a cc34 14f8 72b6
000000a0: 72f4 a0b6 1695 48b5 597d 47b5 92ad 76b6
000000b0: b0ce 7835 fc30 d4b5 efff 9134 5b13 64b6

exp_avg_sq f4 [12, 4]
0.0 0.0 0.0 0.0 0.0 0.0 0.0 0.0
0.0 0.0 0.0 0.0 0.0 0.0 0.0 0.0
0.0 0.0 0.0 0.0 0.0 0.0 0.0 0.0
0.0 0.0 0.0 0.0 0.0 0.0 0.0 0.0
3.0523368e-09 2.6350894e-10 3.14621e-10 5.823564e-09 9.631329e-10 1.0890168e-10 1.7591753e-10 1.8630086e-09
2.7087241e-09 2.33189e-10 5.2371674e-10 4.2783697e-09 1.4339147e-09 1.1890386e-10 1.6360621e-10 2.245383e-09
00000000: 0000 0000 0000 0000 0000 0000 0000 0000
00000010: 0000 0000 0000 0000 0000 0000 0000 0000
00000020: 0000 0000 0000 0000 0000 0000 0000 0000
00000030: 0000 0000 0000 0000 0000 0000 0000 0000
00000040: 0000 0000 0000 0000 0000 0000 0000 0000
00000050: 0000 0000 0000 0000 0000 0000 0000 0000
00000060: 0000 0000 0000 0000 0000 0000 0000 0000
00000070: 0000 0000 0000 0000 0000 0000 0000 0000
00000080: 47c1 5131 96dd 902f f8f6 ac2f 9c18 c831
00000090: 3a5f 8430 327a ef2e 626c 412f 6506 0031
000000a0: 6124 3a31 6f32 802f 4af5 0f30 f000 9331
000000b0: 6313 c530 76bc 022f 0ee3 332f 324d 1a31

exp_avg f4 [12]
0.0 0.0 0.0 0.0 0.0 0.0 0.0 0.0
-0.000238818 8.7003595e-05 -0.00020787831 -0.00021767255
00000000: 0000 0000 0000 0000 0000 0000 0000 0000
00000010: 0000 0000 0000 0000 0000 0000 0000 0000
00000020: 386b 7ab9 b375 b638 e9f9 59b9 083f 64b9

exp_avg_sq f4 [12]
0.0 0.0 0.0 0.0 0.0 0.0 0.0 0.0
1.3927772e-06 4.7325477e-07 1.8699467e-06 6.7899106e-07
00000000: 0000 0000 0000 0000 0000 0000 0000 0000
00000010: 0000 0000 0000 0000 0000 0000 0000 0000
00000020: 76ef ba35 a413 fe34 e1fa fa35 e943 3635

exp_avg f4 [4, 4]
9.47295e-06 -1.3120892e-05 -2.0342251e-05 -1.3424962e-05 -2.4334164e-05 -2.8375527e-05 -7.158795e-06 -3.035151e-05
-2.2954697e-05 9.196628e-06 7.1767104e-06 4.4675553e-06 4.5659996e-05 5.3327847e-05 7.67724e-06 5.6026576e-05
00000000: 03ee 1e37 cd21 5cb7 a7a4 aab7 c63b 61b7
00000010: 3821 ccb7 fb07 eeb7 9535 f0b6 5f9b feb7
00000020: d68e c0b7 374b 1a37 79cf f036 02e8 9536
00000030: 0c83 3f38 57ac 5f38 7fcd 0037 14fe 6a38

exp_avg_sq f4 [4, 4]
2.9877506e-07 1.280716e-07 9.4312654e-08 1.6504194e-07 1.07031624e-07 3.6295006e-08 2.1679435e-08 2.8162262e-08
8.508581e-08 3.221278e-08 2.2835474e-08 3.2722614e-08 1.9607151e-07 9.0793336e-08 6.121081e-08 1.175491e-07
00000000: 5567 a034 0e84 0934 ee88 ca33 6236 3134
00000010: 42d9 e533 c8e2 1b33 9539 ba32 78e9 f132
00000020: 6bb8 b633 545a 0a33 bd27 c432 e58a 0c33
00000030: ba87 5234 2afa c233 0073 8333 4d6f fc33

exp_avg f4 [4]
0.007848809 -0.009037276 0.00090553565 0.0043388754
00000000: 4a98 003c 1511 14bc 7861 6d3a 202d 8e3b

exp_avg_sq f4 [4]
0.0010977333 0.00035115922 0.00031748437 0.00095351157
00000000: d1e1 8f3a cb1b b839 0874 a639 14f5 793a

exp_avg f4 [4, 4]
0.0045270254 -0.0056401966 -0.0030926422 0.0052361405 0.0013875691 -0.0018577134 -0.002786842 0.0024806045
0.0018317205 -0.0021483058 -0.0011669537 0.00187038 -0.00032935385 5.10326e-05 0.00013631026 0.00024154774
00000000: 7157 943b 66d1 b8bb edad 4abb ee93 ab3b
00000010: 18df b53a 857e f3ba 73a3 36bb a391 223b
00000020: 5716 f03a 97ca 0cbb 78f4 98ba 8a27 f53a
00000030: 20ad acb9 d60b 5638 82ee 0e39 fa47 7d39

exp_avg_sq f4 [4, 4]
7.986407e-05 9.626083e-05 3.28393e-05 6.0928876e-05 7.55923e-05 1.2933332e-05 8.730721e-05 0.00011487362
2.0045394e-05 2.6785314e-05 1.4110674e-05 1.7982285e-05 1.9743073e-05 1.170765e-06 6.9508906e-06 5.9668714e-06
00000000: b27c a738 a4df c938 eebc 0938 e28d 7f38
00000010: 4f87 9e38 3dfc 5837 b418 b738 4ee8 f038
00000020: 2827 a837 06b1 e037 e2bc 6c37 aad8 9637
00000030: ed9d a537 2e23 9d35 b23b e936 0937 c836

exp_avg f4 [4]
-0.0016872406 0.0017933222 -0.00072910625 6.0140475e-05
00000000: 6626 ddba e80d eb3a 7e21 3fba 583f 7c38

exp_avg_sq f4 [4]
8.801701e-06 2.312143e-05 3.1494155e-06 1.5304848e-06
00000000: 05ab 1337 e5f4 c137 8c5a 5336 0f6b cd35

exp_avg f4 [4, 4]
-6.1660774e-07 0.003438524 8.8048604e-05 0.0022920198 0.0033019965 -0.0014909494 0.0007552532 -7.1226464e-06
0.003826214 0.0014084359 0.00041211792 0.0004234441 -1.2531714e-07 -0.004440287 -7.029716e-05 -0.002689905
00000000: f684 25b5 dc58 613b bca6 b838 b635 163b
00000010: 4f66 583b f66b c3ba 2ffc 453a 11ff eeb6
00000020: 38c1 7a3b 449b b83a 8811 d839 b401 de39
00000030: ea8e 06b4 d47f 91bb 806c 93b8 1e49 30bb

exp_avg_sq f4 [4, 4]
6.9205744e-06 0.0002543867 3.2076507e-06 8.065788e-05 1.6152959e-05 1.8053412e-05 1.2217231e-06 2.3246092e-07
2.9670204e-05 7.7670404e-05 3.4507086e-06 1.3731734e-05 1.1450585e-05 0.00011081553 3.4797372e-07 4.4409036e-05
00000000: 4837 e836 345f 8539 0543 5736 df26 a938
00000010: 3780 8737 6871 9737 16fa a335 5f9a 7934
00000020: 47e4 f837 fbe2 a238 b992 6736 5961 6637
00000030: e31b 4037 a265 e838 25d1 ba34 d743 3a38

exp_avg f4 [4]
0.0070966072 -0.003257757 0.002747149 -0.00790212
00000000: a88a e83b 1880 55bb 8309 343b e577 01bc

exp_avg_sq f4 [4]
0.00051373034 5.2009716e-05 0.0002912933 0.00032275138
00000000: dcab 063a 0225 5a38 bab8 9839 f536 a939

exp_avg f4 [4]
0.011805659 -0.0047647296 -0.0034644909 -0.009563294
00000000: 866c 413c 7321 9cbb 830c 63bb 5daf 1cbc

exp_avg_sq f4 [4]
0.0005071566 0.00010493583 0.0004642345 0.00016767866
00000000: b4f2 043a ff10 dc38 8064 f339 e6d2 2f39

exp_avg f4 [4]
0.0049995463 -0.010025264 0.0026037407 0.0024219768
00000000: 3cd3 a33b 0141 24bc 85a3 2a3b 07ba 1e3b

exp_avg_sq f4 [4]
0.00091005967 0.00031032338 0.00027332062 0.00065269566
00000000: 1291 6e3a e6b2 a239 794c 8f39 aa19 2b3a

exp_avg f4 [4]
0.009642516 0.0010596006 0.0014401092 -0.0071542044
00000000: a5fb 1d3c 4ce2 8a3a 0cc2 bc3a d16d eabb

exp_avg_sq f4 [4]
0.00032606552 9.163815e-06 0.00023419845 0.00014100588
00000000: c6f3 aa39 49be 1937 2b93 7539 fada 1339

exp_avg f4 [4]
0.0031636416 -0.0061626076 0.0020483665 0.0012054276
00000000: 1955 4f3b b3ef c9bb e33d 063b 70ff 9d3a

exp_avg_sq f4 [4]
0.0004987794 0.0001791364 0.00029127466 0.00031258902
00000000: 85c0 023a 90d6 3b39 39b6 9839 fde2 a339

exp_avg f4 [4]
0.0007756136 -0.0004099937 0.0005523771 -0.004657583
00000000: 8c52 4b3a 6cf4 d6b9 66cd 103a a39e 98bb

exp_avg_sq f4 [4]
0.00012684733 1.3848001e-05 4.5765268e-05 0.00019190974
00000000: 5202 0539 b654 6837 15f4 3f38 613b 4939

exp_avg f4 [4]
0.0026438427 -0.0025300118 0.0016870826 -0.0033610174
00000000: 5244 2d3b 8ece 25bb 1921 dd3a 8444 5cbb

exp_avg_sq f4 [4]
0.0001778146 3.6280988e-05 0.00014087016 0.00023032248
00000000: be73 3a39 6a2c 1838 8cb6 1339 b882 7139

exp_avg f4 [12, 4]
0.0 0.0 0.0 0.0 0.0 0.0 0.0 0.0
0.0 0.0 0.0 0.0 0.0 0.0 0.0 0.0
0.0 0.0 0.0 0.0 0.0 0.0 0.0 0.0
0.0 0.0 0.0 0.0 0.0 0.0 0.0 0.0
-0.00027904895 0.00012283446 -0.00023974276 -1.0036806e-05 -0.000109266955 4.566836e-05 -0.00023949174 2.9665329e-05
0.0002097725 -5.5110188e-05 -0.00015416155 6.787167e-05 0.0014676853 0.00015095303 0.0025876686 -0.00066959317
00000000: 0000 0000 0000 0000 0000 0000 0000 0000
00000010: 0000 0000 0000 0000 0000 0000 0000 0000
00000020: 0000 0000 0000 0000 0000 0000 0000 0000
00000030: 0000 0000 0000 0000 0000 0000 0000 0000
00000040: 0000 0000 0000 0000 0000 0000 0000 0000
00000050: 0000 0000 0000 0000 0000 0000 0000 0000
00000060: 0000 0000 0000 0000 0000 0000 0000 0000
00000070: 0000 0000 0000 0000 0000 0000 0000 0000
00000080: 514d 92b9 20cd 0039 7563 7bb9 c163 28b7
00000090: 4026 e5b8 078c 3f38 1320 7bb9 cfd9 f837
000000a0: 60f6 5b39 1d26 67b8 6da6 21b9 5356 8e38
000000b0: 595f c03a 2549 1e39 e095 293b a387 2fba

exp_avg_sq f4 [12, 4]
0.0 0.0 0.0 0.0 0.0 0.0 0.0 0.0
0.0 0.0 0.0 0.0 0.0 0.0 0.0 0.0
0.0 0.0 0.0 0.0 0.0 0.0 0.0 0.0
0.0 0.0 0.0 0.0 0.0 0.0 0.0 0.0
3.7885948e-06 1.3944256e-07 1.5337168e-06 8.07044e-07 3.4888424e-06 7.0896476e-08 6.695108e-07 4.4516096e-07
2.7686642e-06 8.4801655e-08 7.9783246e-07 3.744944e-07 0.0001846919 1.0293886e-05 8.726818e-05 3.4052304e-05
00000000: 0000 0000 0000 0000 0000 0000 0000 0000
00000010: 0000 0000 0000 0000 0000 0000 0000 0000
00000020: 0000 0000 0000 0000 0000 0000 0000 0000
00000030: 0000 0000 0000 0000 0000 0000 0000 0000
00000040: 0000 0000 0000 0000 0000 0000 0000 0000
00000050: 0000 0000 0000 0000 0000 0000 0000 0000
00000060: 0000 0000 0000 0000 0000 0000 0000 0000
00000070: 0000 0000 0000 0000 0000 0000 0000 0000
00000080: 903f 7e36 aeb9 1534 1cda cd35 a4a3 5835
00000090: db21 6a36 c03f 9833 6fb8 3335 75fe ee34
000000a0: 4acd 3936 341c b633 a12a 5635 1e0e c934
000000b0: dba9 4139 e7b3 2c37 bf03 b738 62d3 0e38

exp_avg f4 [12]
0.0 0.0 0.0 0.0 0.0 0.0 0.0 0.0
9.407522e-05 7.681427e-05 -5.3321555e-06 -0.0012758503
00000000: 0000 0000 0000 0000 0000 0000 0000 0000
00000010: 0000 0000 0000 0000 0000 0000 0000 0000
00000020: 404a c538 5917 a138 deea b2b6 6f3a a7ba

exp_avg_sq f4 [12]
0.0 0.0 0.0 0.0 0.0 0.0 0.0 0.0
2.8973855e-07 2.0920176e-07 1.7443912e-07 1.2752846e-05
00000000: 0000 0000 0000 0000 0000 0000 0000 0000
00000010: 0000 0000 0000 0000 0000 0000 0000 0000
00000020: 5d8d 9b34 f1a0 6034 764d 3b34 0ef5 5537

exp_avg f4 [4, 4]
-0.00018064333 -0.00027968205 0.00016670678 0.007372686 -3.818411e-05 1.8365072e-05 4.1088093e-05 -0.0003436141
0.00010900683 6.4916276e-05 -0.00015712221 -0.0043408307 -7.926698e-05 0.0001249625 0.000283999 0.0024125637
00000000: 136b 3db9 4aa2 92b9 03ce 2e39 9396 f13b
00000010: e027 20b8 b10e 9a37 0156 2c38 1b27 b4b9
00000020: 999a e438 a923 8838 2cc1 24b9 873d 8ebb
00000030: 233c a6b8 5e08 0339 b3e5 9439 1a1c 1e3b

exp_avg_sq f4 [4, 4]
1.8744508e-06 9.044174e-07 1.8466123e-06 0.00044319232 1.6569435e-07 1.2728766e-07 1.16836766e-07 1.3210815e-05
2.800696e-06 2.071523e-06 1.934809e-06 0.000121925834 3.4601014e-06 2.0383704e-06 2.5866593e-06 0.00036131093
00000000: a495 fb35 17c7 7235 1ed9 f735 445c e839
00000010: b7e9 3134 91ac 0834 b1e7 fa33 05a4 5d37
00000020: 97f3 3b36 7f04 0b36 c4d7 0136 6fb2 ff38
00000030: 1734 6836 f0ca 0836 7896 2d36 556e bd39

exp_avg f4 [4]
0.004360191 4.0547005e-05 0.00091443287 -0.0026671211
00000000: efdf 8e3b 0411 2a38 8db6 6f3a deca 2ebb

exp_avg_sq f4 [4]
0.00020453766 1.2438889e-05 0.00016509613 0.0002772072
00000000: 2979 5639 9fb0 5037 a81d 2d39 1f56 9139

exp_avg f4 [12, 4]
0.0 0.0 0.0 0.0 0.0 0.0 0.0 0.0
0.0 0.0 0.0 0.0 0.0 0.0 0.0 0.0
0.0 0.0 0.0 0.0 0.0 0.0 0.0 0.0
0.0 0.0 0.0 0.0 0.0 0.0 0.0 0.0
-5.174679e-06 -5.038233e-07 5.329015e-07 -6.1977953e-06 -4.6009995e-06 -7.83422e-07 3.9671465e-07 -5.3166273e-06
-2.2977135e-07 8.062198e-07 -3.6733385e-09 -7.029856e-07 -5.4020575e-06 -6.867832e-07 5.387644e-07 -6.403294e-06
00000000: 0000 0000 0000 0000 0000 0000 0000 0000
00000010: 0000 0000 0000 0000 0000 0000 0000 0000
00000020: 0000 0000 0000 0000 0000 0000 0000 0000
00000030: 0000 0000 0000 0000 0000 0000 0000 0000
00000040: 0000 0000 0000 0000 0000 0000 0000 0000
00000050: 0000 0000 0000 0000 0000 0000 0000 0000
00000060: 0000 0000 0000 0000 0000 0000 0000 0000
00000070: 0000 0000 0000 0000 0000 0000 0000 0000
00000080: 27a2 adb6 793e 07b5 b60c 0f35 a8f6 cfb6
00000090: 4962 9ab6 5a4c 52b5 0cfc d434 7b65 b2b6
000000a0: 11b7 76b4 016b 5835 0e6e 7cb1 cdb4 3cb5
000000b0: 5243 b5b6 625b 38b5 9c9f 1035 e0db d6b6

exp_avg_sq f4 [12, 4]
0.0 0.0 0.0 0.0 0.0 0.0 0.0 0.0
0.0 0.0 0.0 0.0 0.0 0.0 0.0 0.0
0.0 0.0 0.0 0.0 0.0 0.0 0.0 0.0
0.0 0.0 0.0 0.0 0.0 0.0 0.0 0.0
8.456551e-10 1.0587103e-10 1.6786751e-10 2.1647995e-09 1.4225264e-09 2.1547424e-10 3.4231598e-10 3.1244005e-09
4.808839e-10 8.6296886e-11 1.3742438e-10 8.0228457e-10 1.0081403e-09 1.4098775e-10 2.2475959e-10 2.4945304e-09
00000000: 0000 0000 0000 0000 0000 0000 0000 0000
00000010: 0000 0000 0000 0000 0000 0000 0000 0000
00000020: 0000 0000 0000 0000 0000 0000 0000 0000
00000030: 0000 0000 0000 0000 0000 0000 0000 0000
00000040: 0000 0000 0000 0000 0000 0000 0000 0000
00000050: 0000 0000 0000 0000 0000 0000 0000 0000
00000060: 0000 0000 0000 0000 0000 0000 0000 0000
00000070: 0000 0000 0000 0000 0000 0000 0000 0000
00000080: b073 6830 17d0 e82e 8192 382f 8ec3 1431
00000090: b382 c330 9bea 6c2f b130 bc2f 09b5 5631
000000a0: 322f 0430 d4c4 bd2e 8619 172f c287 5c30
000000b0: c98e 8a30 8604 1b2f 3320 772f 3e6c 2b31
