Saved_models/best_model_Male.pt (torch, 86746 bytes, 198 tensors)

encoder_input_layer.weight f4 [4, 3]
0	0xbdfa2e6b	-0.12215885
1	0x3e21783a	0.15768519
2	0xbf1ca6fb	-0.6119229
3	0xbecf3435	-0.40469518
4	0xbe6ecb66	-0.23319778
5	0x3e19f762	0.15035775
6	0xbd51d033	-0.051223945
7	0x3ee4af3a	0.44664937
8	0xbd8e2d00	-0.06942177
9	0x3ecf301c	0.40466392
10	0x3defc03a	0.11706586
11	0x3e26d7d0	0.16293263

encoder_input_layer.bias f4 [4]
0	0xbf906cc0	-1.1283188
1	0xbf80ad19	-1.0052825
2	0x3ebf4592	0.37357765
3	0x3edc57cc	0.43035734

decoder_input_layer.weight f4 [4, 1]
0	0x3ecd71aa	0.4012578
1	0x3f575740	0.8411751
2	0xbf010233	-0.5039398
3	0x3ea7d77e	0.32781595

decoder_input_layer.bias f4 [4]
0	0x3f772bb0	0.96551037
1	0x3f874a52	1.0569556
2	0xbf91ee4b	-1.1400846
3	0x3dfb7183	0.1227751

positional_encoding_layer_enc.pe f4 [1, 7, 4]
0	0x00000000	0.0
1	0x3f800000	1.0
2	0x00000000	0.0
3	0x3f800000	1.0
4	0x3f576aa4	0.84147096
5	0x3f0a5141	0.54030234
6	0x3c23d657	0.009999833
7	0x3f7ffcb9	0.99995
8	0x3f68c7b7	0.9092974
9	0xbed51133	-0.41614684
10	0x3ca3d43e	0.019998666
11	0x3f7ff2e5	0.9998
12	0x3e1081c3	0.14112
13	0xbf7d7026	-0.9899925
14	0x3cf5b91f	0.0299955
15	0x3f7fe283	0.99955004
16	0xbf41bdcf	-0.7568025
17	0xbf275530	-0.6536436
18	0x3d23cbdb	0.039989334
19	0x3f7fcb94	0.9992001
20	0xbf757c10	-0.9589243
21	0x3e913c2c	0.2836622
22	0x3d4cb6f4	0.049979165
23	0x3f7fae19	0.99875027
24	0xbe8f0f8c	-0.2794155
25	0x3f75cdb8	0.96017027
26	0x3d759cd1	0.059964005
27	0x3f7f8a12	0.99820054

positional_encoding_layer_dec.pe f4 [1, 3, 4]
0	0x00000000	0.0
1	0x3f800000	1.0
2	0x00000000	0.0
3	0x3f800000	1.0
4	0x3f576aa4	0.84147096
5	0x3f0a5141	0.54030234
6	0x3c23d657	0.009999833
7	0x3f7ffcb9	0.99995
8	0x3f68c7b7	0.9092974
9	0xbed51133	-0.41614684
10	0x3ca3d43e	0.019998666
11	0x3f7ff2e5	0.9998

encoder.layers.0.self_attn.in_proj_weight f4 [12, 4]
0	0xbf1d9593	-0.6155636
1	0x3cbfda24	0.023419447
2	0x3d560eac	0.052260086
3	0x3b004f08	0.0019578356
4	0x3e5d77c0	0.21627712
5	0x3f2d1f80	0.6762619
6	0x3f90f160	1.1323662
7	0x3f84188e	1.0319993
8	0x3c5b9c3d	0.013403949
9	0x3ec95397	0.39321586
10	0x3ea60eba	0.3243311
11	0xbf50bead	-0.8154095
12	0xbebca085	-0.36841217
13	0xbeebd0c5	-0.46057716
14	0xbe99624e	-0.29957813
15	0xbf582ce4	-0.844435
16	0x3ded19dc	0.11577198
17	0x3d95bac4	0.07311013
18	0x3ee99101	0.45618442
19	0x3ed251d5	0.41078058
20	0x3ef550fb	0.47913346
21	0xbe56361c	-0.20919079
22	0x3d272678	0.04080817
23	0x3fc31e22	1.5243571
24	0x3f60a1f8	0.87747145
25	0x3e201532	0.15633085
26	0xbe3634fc	-0.1779365
27	0x3f357fad	0.7089794
28	0x3e063591	0.13106371
29	0x3e97005f	0.2949247
30	0x3f6cf8e1	0.9256726
31	0x3f10ac18	0.56512594
32	0x3e80476b	0.25054488
33	0xbeb7b206	-0.3587801
34	0x3ca4fa75	0.020138958
35	0xbfcf917d	-1.6216274
36	0xbf12a61b	-0.57284707
37	0x3f3e3e4e	0.7431382
38	0x3ea980cd	0.3310608
39	0xbebc31f3	-0.36756858
40	0x3e7e8ee8	0.24859202
41	0x3cf5b249	0.02999224
42	0xbddeed9f	-0.108851664
43	0xbfdf77d3	-1.7458442
44	0x3d8cbf79	0.06872458
45	0xbec3f497	-0.38272545
46	0x3e4c4617	0.19948612
47	0x3fe443e3	1.7833217

encoder.layers.0.self_attn.in_proj_bias f4 [12]
0	0x3e304e2b	0.17217319
1	0xbf5d7d8d	-0.865197
2	0xbe28bb68	-0.1647774
3	0xbe976fa0	-0.2957735
4	0xbb9c4604	-0.0047690887
5	0xbc09830d	-0.008393061
6	0x3bdb3d0b	0.0066906265
7	0xbdaf2a7d	-0.08553026
8	0xbe062864	-0.13101345
9	0x3eb8341b	0.35977253
10	0xbe3e5139	-0.18585671
11	0x3e921a2b	0.2853559

encoder.layers.0.self_attn.out_proj.weight f4 [4, 4]
0	0x3e0b26a6	0.13588962
1	0x3f09c850	0.5382128
2	0x3f81eeba	1.0150979
3	0xbf94b6e9	-1.161832
4	0x3cd4b6dc	0.0259661
5	0xbce4a03e	-0.02790844
6	0x3ee963e4	0.45584023
7	0x3e584730	0.21120906
8	0xbecfb625	-0.40568653
9	0xbee3af34	-0.44469607
10	0xbecc8d9f	-0.39951798
11	0xbe81e7c9	-0.2537215
12	0xbf03c780	-0.5147629
13	0x3d8f7c8e	0.07006179
14	0xbeaf5b23	-0.3424922
15	0x3f2fe494	0.6870816

encoder.layers.0.self_attn.out_proj.bias f4 [4]
0	0xbe4af77a	-0.19820967
1	0x3d52fa3d	0.051508177
2	0xbe76e576	-0.2411097
3	0x3e17c041	0.14819433

encoder.layers.0.linear1.weight f4 [4, 4]
0	0x3d57e610	0.05270964
1	0xbd87d16d	-0.06631742
2	0xbbeba00e	-0.007190711
3	0xbea09634	-0.31364596
4	0xbd1a769a	-0.037710764
5	0xbd9f0d2f	-0.077661864
6	0xbd7cc80e	-0.061714225
7	0xbf0132f1	-0.50468355
8	0x3e4d6c60	0.20060873
9	0x3e4a2562	0.19740823
10	0x3e623353	0.22089891
11	0xbe91cedc	-0.28478134
12	0xbe992a12	-0.2991491
13	0xbe88fb4d	-0.26754227
14	0xbe8d4b66	-0.27596587
15	0xbe15e153	-0.14636736

encoder.layers.0.linear1.bias f4 [4]
0	0xbf0480a6	-0.517588
1	0xbe22d13b	-0.15900128
2	0xbf28346d	-0.65704995
3	0xbdc60e2e	-0.09670673

encoder.layers.0.linear2.weight f4 [4, 4]
0	0xbe29c85b	-0.16580336
1	0x3e9e76d3	0.3095003
2	0x3e9d1f25	0.30687824
3	0xbeb7e020	-0.3591318
4	0xbe2aa1dd	-0.16663308
5	0x3d47df3c	0.048796877
6	0x3db3230a	0.087469175
7	0xbe27ee87	-0.16399585
8	0x3c963355	0.018335024
9	0xbd3f10d3	-0.046646904
10	0xbe3f8d7f	-0.1870632
11	0x3d0a286b	0.03372995
12	0xbe944a63	-0.28963003
13	0xbdc90989	-0.09816272
14	0xbe6f0b3b	-0.23344128
15	0xbdfdeaf2	-0.12398328

encoder.layers.0.linear2.bias f4 [4]
0	0xbdb094c5	-0.086221255
1	0xbe2d0509	-0.16896452
2	0x3d8de334	0.06928101
3	0x3c943673	0.01809237

encoder.layers.0.norm1.weight f4 [4]
0	0x3f7f4819	0.9971939
1	0x3f9a0d8a	1.2035382
2	0x3f2c5df1	0.67330843
3	0x3feada3f	1.8347853

encoder.layers.0.norm1.bias f4 [4]
0	0xbd879731	-0.06620634
1	0x3e186bc6	0.14884862
2	0x3ede271c	0.43389213
3	0xbd30da62	-0.043177016

encoder.layers.0.norm2.weight f4 [4]
0	0x3f73b411	0.95196635
1	0x3f96c6bc	1.1779399
2	0x3f373c89	0.71576744
3	0x3faf05ae	1.3673608

encoder.layers.0.norm2.bias f4 [4]
0	0xbe324e32	-0.17412642
1	0x3da181ed	0.078861095
2	0x3c94c732	0.01816139
3	0xbdac5f0c	-0.08416566

encoder.layers.1.self_attn.in_proj_weight f4 [12, 4]
0	0xbf65902f	-0.8967313
1	0xbd60e24e	-0.05490332
2	0x3eb1aa7a	0.34700376
3	0x3f090a23	0.5353109
4	0xbf34831d	-0.70512563
5	0x3f0bd026	0.54614484
6	0x3e15bd58	0.1462301
7	0x3edb671e	0.4285211
8	0xbeaf6f3a	-0.34264547
9	0x3df8815b	0.121340476
10	0x3f20e1d1	0.6284457
11	0xbda767b5	-0.081740774
12	0x3ec93047	0.39294645
13	0xbf40fcd0	-0.7538576
14	0xbec3d07d	-0.38245
15	0xbe9613b9	-0.29311922
16	0x3ddde8f8	0.10835451
17	0x3f592b4c	0.8483169
18	0xbea70a1f	-0.3262491
19	0xb96f33fa	-0.00022812179
20	0x3ea1bad7	0.3158786
21	0x3f0aece2	0.54267704
22	0x3ef88e63	0.48546132
23	0xbe2c9069	-0.16851963
24	0x3e2acff2	0.16680887
25	0x3f4d85a4	0.80282044
26	0xbf3f3e8e	-0.74704826
27	0xbe58e3e9	-0.21180691
28	0x3e868167	0.262706
29	0x3e39febc	0.1816358
30	0x3de30eb4	0.11086789
31	0x3f4b66f0	0.79453945
32	0xbcc4b9e1	-0.024014415
33	0xbf1b5d15	-0.60688907
34	0xbec6d708	-0.3883593
35	0xbeb75679	-0.3580816
36	0xbf7085ae	-0.9395398
37	0x3f421282	0.7580949
38	0x3f14518e	0.5793694
39	0xbed90af5	-0.42391172
40	0x3e060c89	0.1309072
41	0xbe369352	-0.17829636
42	0xbe7044cc	-0.23463744
43	0xbecd0c63	-0.40048513
44	0x3da996dc	0.08280727
45	0xbe5748ed	-0.21023913
46	0x3f17e9d4	0.5934117
47	0x3ebd8740	0.3701725

encoder.layers.1.self_attn.in_proj_bias f4 [12]
0	0xbebd3fb6	-0.3696267
1	0xbd6bd580	-0.057576656
2	0xbf1c9b3f	-0.61174387
3	0x3e985a24	0.29756272
4	0xbc9a0da0	-0.018805325
5	0xbcb97d1e	-0.022642668
6	0xbc826282	-0.015916113
7	0xbd2f1c98	-0.04275188
8	0xbd7642e0	-0.06012237
9	0xbd87cb31	-0.066305526
10	0xbdd865cb	-0.105662905
11	0xbc8f0f68	-0.017463401

encoder.layers.1.self_attn.out_proj.weight f4 [4, 4]
0	0xbbeddbe1	-0.0072588776
1	0x3d12d52a	0.03584782
2	0x3f26ad4f	0.651082
3	0xbeaca967	-0.33722994
4	0xbde17689	-0.11008937
5	0xbef8dcc5	-0.48605934
6	0xbdcb99cb	-0.09941443
7	0x3ed54221	0.41652015
8	0xbeb5f59f	-0.35538957
9	0xbf11c572	-0.569419
10	0xbf0b61dd	-0.544462
11	0xbeb8e06b	-0.36108717
12	0xbef80b3a	-0.48446065
13	0x3efc3ef7	0.49266788
14	0xbd134036	-0.03594991
15	0x3eac650d	0.33670846

encoder.layers.1.self_attn.out_proj.bias f4 [4]
0	0xbdddc86e	-0.108292446
1	0x3e5585a3	0.2085176
2	0x3e969bbb	0.29415688
3	0xbdec4da3	-0.115382455

encoder.layers.1.linear1.weight f4 [4, 4]
0	0xbd3578e2	-0.044304736
1	0x3dda2f29	0.10653526
2	0xbe43bcbc	-0.19114965
3	0xbd915dd5	-0.07097975
4	0xbd82df22	-0.063902155
5	0xbcb170fb	-0.021660319
6	0xbe3093aa	-0.1724383
7	0xbdeb7440	-0.11496782
8	0xbd952d39	-0.07284016
9	0x3eb6340f	0.35586593
10	0xbe4baa9e	-0.19889304
11	0x3eded321	0.43520454
12	0xbec2b45a	-0.38028222
13	0xbe7b4f8e	-0.24542066
14	0xbee246b5	-0.4419457
15	0xbeaba3e0	-0.33523464

encoder.layers.1.linear1.bias f4 [4]
0	0xbec49da5	-0.38401523
1	0xbe2a862f	-0.1665275
2	0xbe947ef1	-0.290031
3	0xbe1fbe08	-0.15599835

encoder.layers.1.linear2.weight f4 [4, 4]
0	0xbe8a69b7	-0.2703378
1	0x3e0ab5ab	0.13545863
2	0x3e8d6148	0.27613282
3	0xbe41df1f	-0.1893277
4	0xbdebeba1	-0.11519552
5	0x3d96e3a6	0.07367639
6	0x3cffe163	0.031235402
7	0x3cd8d4f1	0.026468726
8	0x3e61c4fd	0.22047801
9	0x3e5973c7	0.21235572
10	0xbe9b1d8e	-0.30295986
11	0x3dd81892	0.105515614
12	0xbeb3cc40	-0.35116768
13	0x3cfe3ccc	0.03103485
14	0x3e8f35de	0.27970785
15	0xbe8a756c	-0.2704271

encoder.layers.1.linear2.bias f4 [4]
0	0xbe1b1f71	-0.15148713
1	0xbe16f38e	-0.14741346
2	0xbe09c95a	-0.13455716
3	0x3dc16a8e	0.09444152

encoder.layers.1.norm1.weight f4 [4]
0	0x3f91e2d0	1.1397343
1	0x3f99a2ed	1.2002846
2	0x3f4b8c72	0.7951118
3	0x3fc7f149	1.5620509

encoder.layers.1.norm1.bias f4 [4]
0	0x3ca33344	0.019921906
1	0x3d4e3ba6	0.050349854
2	0x3ec49f10	0.38402605
3	0x3d634f54	0.055495575

encoder.layers.1.norm2.weight f4 [4]
0	0x3f83bf85	1.0292822
1	0x3f23c74a	0.63975966
2	0x3e92e6b4	0.28691638
3	0x3f795660	0.9739742

encoder.layers.1.norm2.bias f4 [4]
0	0x3dff30cb	0.124604784
1	0xbecb7b47	-0.3974249
2	0xbdfdd631	-0.123943694
3	0x3df0d686	0.11759667

decoder.layers.0.self_attn.in_proj_weight f4 [12, 4]
0	0x3f49c1d2	0.7881137
1	0x3f9c780a	1.2224133
2	0x400e065d	2.2191384
3	0xbec93056	-0.3929469
4	0xbe673fbf	-0.22582911
5	0xbf6bbc90	-0.920846
6	0xc000bc4d	-2.011493
7	0xbf3062c5	-0.6890071
8	0xbe53cae4	-0.20682865
9	0x3f24067e	0.64072406
10	0xbfd1fd7c	-1.6405482
11	0xbf410106	-0.75392187
12	0xbe54d60f	-0.20784782
13	0x3f597a47	0.84952205
14	0xbfdb8360	-1.7149467
15	0xbf06c686	-0.5264667
16	0xbf866fd3	-1.0502876
17	0xbfd18b30	-1.6370602
18	0x3f1b5d23	0.6068899
19	0x3ddadd64	0.10686758
20	0x3fd24e47	1.6430138
21	0x3f5b02f4	0.8555138
22	0xbf5b03d8	-0.8555274
23	0x3f837c52	1.0272315
24	0x3f342e39	0.7038303
25	0xbee6b420	-0.450593
26	0x3eea6970	0.45783567
27	0xbebca329	-0.3684323
28	0x3f4c2472	0.7974311
29	0xbee96e40	-0.45591927
30	0x3ec498ca	0.3839782
31	0x3dde5182	0.1085539
32	0xbe6d7b65	-0.23191603
33	0xbfb0e4cb	-1.3819822
34	0x3eac59bf	0.3366222
35	0xbec9e1a9	-0.39429978
36	0xbf9f7040	-1.2456131
37	0xbfa043b3	-1.252066
38	0x3fc31bc7	1.5242852
39	0x3dd89223	0.10574748
40	0xbf8e5b71	-1.1121656
41	0xbfbd3146	-1.4780662
42	0x3ee3779d	0.44427195
43	0xbeb7f032	-0.35925442
44	0x3f4b3334	0.79375005
45	0x3fc1c837	1.5139226
46	0xbfd469c5	-1.6594778
47	0x3e0cdbc0	0.13755703

decoder.layers.0.self_attn.in_proj_bias f4 [12]
0	0x3f1707d5	0.58996326
1	0xbf131141	-0.574482
2	0xbf27df81	-0.65575415
3	0xbf28799f	-0.6581058
4	0xbc5868fc	-0.013208624
5	0xbccb0114	-0.024780788
6	0xbc63b239	-0.013897472
7	0xbcbb3043	-0.022850161
8	0xbf04ba19	-0.5184646
9	0xbe263339	-0.16230477
10	0xbe0b7f82	-0.13622859
11	0xbde3baad	-0.1111959

decoder.layers.0.self_attn.out_proj.weight f4 [4, 4]
0	0xbfd1148f	-1.6334399
1	0xbe1222e4	-0.14271122
2	0xbe6cf691	-0.23140933
3	0x3e58e3f4	0.21180707
4	0x3d9b9ba7	0.07598048
5	0xbeeb0a4d	-0.45906296
6	0xbd1dc8ee	-0.0385217
7	0x3fbe8cd7	1.4886731
8	0x3f3d57a1	0.73961836
9	0x3efdf2f5	0.49599424
10	0x3f283192	0.6570064
11	0xbed6a18e	-0.4192013
12	0xbf8e44e9	-1.111478
13	0xbdcfa1ea	-0.101383045
14	0xbd0cfa82	-0.03441859
15	0xbe801963	-0.2501937

decoder.layers.0.self_attn.out_proj.bias f4 [4]
0	0x3eaee2ab	0.3415731
1	0xbe1e32f6	-0.15449128
2	0xbddf9738	-0.109175146
3	0x3d4e80cd	0.050415803

decoder.layers.0.multihead_attn.in_proj_weight f4 [12, 4]
0	0xbdee0d36	-0.116236135
1	0x3f0f445e	0.55963695
2	0x3f4882c9	0.7832456
3	0x3dc324a1	0.09528471
4	0xbf0301a6	-0.5117439
5	0xbd191a6e	-0.03737872
6	0x3e9d2af5	0.30696836
7	0x3d85f347	0.06540542
8	0xbf072849	-0.52795845
9	0x3c8738f4	0.01650665
10	0x3f404a4b	0.7511336
11	0x3ebdd6cc	0.3707794
12	0x3e8f779b	0.2802094
13	0x3e81810f	0.25293776
14	0x3f5e4bfc	0.8683469
15	0xbda93702	-0.08262445
16	0x3f18a9fc	0.59634376
17	0xbee90c94	-0.4551741
18	0xbdb1d584	-0.08683303
19	0xbd9abf8a	-0.075560644
20	0x3f079feb	0.5297839
21	0x3e667e54	0.22509128
22	0x3dab7727	0.08372336
23	0xbcde16c4	-0.027110465
24	0x3f05784d	0.5213669
25	0xbf08e4a9	-0.5347391
26	0x3f15931e	0.5842761
27	0xbf1a2d5f	-0.6022548
28	0x3ee8639c	0.45388496
29	0xbe5d90a6	-0.2163721
30	0xbdd932e8	-0.10605413
31	0xbe858dfc	-0.26084888
32	0x3f24d93f	0.6439399
33	0xbd6715dc	-0.05641733
34	0xbe90f64b	-0.28312907
35	0xbeba43e5	-0.36379924
36	0xbf248b3c	-0.64274955
37	0x3dbc09f7	0.09181588
38	0xbed49237	-0.41517803
39	0xbe95dd58	-0.29270434
40	0x3e5310ca	0.20611873
41	0x3e94bf52	0.29052216
42	0x3e806e1f	0.25084016
43	0x3e05eaa8	0.13077796
44	0x3e00b6bc	0.12569708
45	0xbecf962e	-0.40544266
46	0xbe173302	-0.14765552
47	0x3edc2464	0.42996514

decoder.layers.0.multihead_attn.in_proj_bias f4 [12]
0	0x3e0cc680	0.13747597
1	0x3e338ad1	0.17533423
2	0xbe0b9463	-0.13630824
3	0x3ec46f60	0.38366222
4	0x3d87702a	0.066131905
5	0x3c869abe	0.016431209
6	0x3cd85a75	0.02641032
7	0x3cf25347	0.029580725
8	0x3d3ea1ed	0.046541143
9	0xbe5b1df1	-0.2139814
10	0x3debd3d8	0.11515015
11	0x3e80ba1d	0.25141993

decoder.layers.0.multihead_attn.out_proj.weight f4 [4, 4]
0	0xbe892ea7	-0.26793405
1	0x3eef3872	0.46722752
2	0xbe02ab5f	-0.12760685
3	0xbe6d4b12	-0.23173168
4	0xbeb5d280	-0.3551216
5	0x3e60bec2	0.21947768
6	0xbd3e202b	-0.046417397
7	0x3ebfe89c	0.37482154
8	0x3ea8f967	0.3300278
9	0xbc202975	-0.009775509
10	0xbe050401	-0.12989809
11	0x3d0f9834	0.03505726
12	0x3d18b741	0.03728414
13	0xbd30e928	-0.043191105
14	0x3d8a3cb2	0.06749858
15	0x3e648724	0.22317177

decoder.layers.0.multihead_attn.out_proj.bias f4 [4]
0	0xbcd57559	-0.026056932
1	0x3d8bf0ec	0.068330616
2	0xbcd11e29	-0.025527077
3	0x3dcad081	0.0990305

decoder.layers.0.linear1.weight f4 [4, 4]
0	0x3e82f43b	0.25576958
1	0x3f69bd1a	0.9130417
2	0xbe9582a6	-0.2920124
3	0xbea4b9a5	-0.32172886
4	0xbf38c20e	-0.72171104
5	0x3f8d4c24	1.1038861
6	0xbe5a8fb5	-0.21343882
7	0xbec93b40	-0.39303017
8	0x3cdc3d2e	0.026884641
9	0xbdc89432	-0.09793891
10	0xbc5ab672	-0.013349162
11	0x3946cd9b	0.00018959345
12	0xbf314f7b	-0.692619
13	0xbe6512a5	-0.22370394
14	0xbe90acb5	-0.28256765
15	0x3f13b93c	0.5770452

decoder.layers.0.linear1.bias f4 [4]
0	0xbe371a6a	-0.1788117
1	0x3eb6f006	0.35729998
2	0xbee5bc51	-0.44870237
3	0xbe4a2a7c	-0.19742769

decoder.layers.0.linear2.weight f4 [4, 4]
0	0xbeb14f5c	-0.3463086
1	0xbe4e63cd	-0.20155258
2	0xbd89e53a	-0.067331746
3	0x3ea6fce5	0.32614818
4	0x3ee5aee7	0.44860002
5	0x3edfd559	0.4371746
6	0x3da3c553	0.07996621
7	0xbeff29c9	-0.49836567
8	0x3e21d453	0.15803652
9	0xbf0a8185	-0.5410388
10	0xbd9c9dd6	-0.07647292
11	0xbd97fe68	-0.07421571
12	0xbe38ba1a	-0.18039742
13	0xbe1f03ad	-0.15528746
14	0xbe1d235a	-0.15345517
15	0x3e16092e	0.1465194

decoder.layers.0.linear2.bias f4 [4]
0	0x3dfb1943	0.12260678
1	0xbb11b02b	-0.0022230248
2	0xbcaeaf2c	-0.021323763
3	0x3d723e7a	0.059141614

decoder.layers.0.norm1.weight f4 [4]
0	0x3f991245	1.19587
1	0x3fa8ad4d	1.3177887
2	0x3fd8dbab	1.6942037
3	0x3f905d4a	1.127847

decoder.layers.0.norm1.bias f4 [4]
0	0x3dd6b070	0.104828715
1	0xbbd440c4	-0.006477447
2	0xbe02047e	-0.12697026
3	0xbda53133	-0.08066025

decoder.layers.0.norm2.weight f4 [4]
0	0x3f911b33	1.1336426
1	0x3f9947a9	1.1974994
2	0x3fad7650	1.3551731
3	0x3f7ec0ce	0.99512947

decoder.layers.0.norm2.bias f4 [4]
0	0x3cb88d74	0.022528388
1	0x3e0101ef	0.12598394
2	0xbdfbdc1c	-0.12297842
3	0xbe55860b	-0.20851915

decoder.layers.0.norm3.weight f4 [4]
0	0x3f7efd97	0.996057
1	0x3fa4bd56	1.2870281
2	0x3fbb57be	1.4636152
3	0x3f49d649	0.788426

decoder.layers.0.norm3.bias f4 [4]
0	0x3d38b96e	0.045098715
1	0x3d37beb1	0.044859592
2	0xbe2db799	-0.16964568
3	0xbcc38d41	-0.023871066

decoder.layers.1.self_attn.in_proj_weight f4 [12, 4]
0	0xbe4658e5	-0.19369848
1	0x3f5939c8	0.8485379
2	0xbebeddea	-0.37278682
3	0xbf72a303	-0.94779986
4	0x3ec57171	0.3856311
5	0xbf41e929	-0.757464
6	0x3f02d051	0.51099116
7	0xbe470e97	-0.1943916
8	0xbe7dcd14	-0.24785262
9	0x3e2d09c8	0.16898263
10	0xbf955714	-1.1667199
11	0xbf405f7d	-0.75145704
12	0x3f11f4e9	0.5701433
13	0xbee59fd5	-0.44848505
14	0xbf9dc37b	-1.2325281
15	0x3f2d89be	0.677883
16	0xbd515144	-0.05110289
17	0xbf8e8d87	-1.1136941
18	0x3ecf02b0	0.40431738
19	0x3f4b9371	0.7952185
20	0xbe4c3d62	-0.1994529
21	0x3f80d293	1.0064262
22	0xbf0df161	-0.5544644
23	0x3e292de7	0.16521417
24	0xbf4124db	-0.7544686
25	0xbf418692	-0.75595963
26	0x3f33b335	0.70195323
27	0x3e41779a	0.1889328
28	0xbf75603d	-0.9584997
29	0x3f0c6927	0.5484795
30	0x3f460c92	0.7736293
31	0xbf4bcff9	-0.79614216
32	0x3eb0d388	0.34536386
33	0x3c957d69	0.018248277
34	0x3e1e0241	0.15430547
35	0x3e34bb12	0.17649487
36	0xbf38b65c	-0.7215326
37	0x3e3a2506	0.18178186
38	0x3f83466c	1.0255866
39	0x3e9d1621	0.30680946
40	0xbed95d1b	-0.42453846
41	0xbea1728f	-0.31532714
42	0xbe9f402e	-0.31103653
43	0xbe8e84c4	-0.27835667
44	0xbea212e6	-0.31655043
45	0x3f0b1cb5	0.5434068
46	0xbf027426	-0.5095848
47	0xbe323ee4	-0.17406803

decoder.layers.1.self_attn.in_proj_bias f4 [12]
0	0xbe287b8a	-0.16453376
1	0xbcf16965	-0.029469201
2	0xbd684a46	-0.056711458
3	0x3f36670d	0.71250993
4	0xbc81006a	-0.015747268
5	0x3cc654a2	0.024210278
6	0xbd047093	-0.03233392
7	0xbadf3340	-0.0017028823
8	0xbdc635b2	-0.0967821
9	0xbd77c7a5	-0.06049313
10	0xbe9915c7	-0.29899427
11	0xbd8fa43d	-0.07013748

decoder.layers.1.self_attn.out_proj.weight f4 [4, 4]
0	0x3e8ed50a	0.2789691
1	0xbf16862e	-0.5879849
2	0x3ecb2723	0.39678296
3	0x3cd3c5ca	0.02585115
4	0xbbb2aac9	-0.005452488
5	0x3e05be74	0.13060933
6	0x3e9ac220	0.3022623
7	0x3f77efbf	0.968502
8	0xbd144289	-0.036196265
9	0x3f440f3d	0.7658575
10	0x3ebdad2c	0.37046182
11	0xbef7e6f0	-0.4841838
12	0xbd83cd18	-0.06435603
13	0xbf053a16	-0.5204176
14	0x3e98908a	0.29797775
15	0x3d5451b6	0.051835738

decoder.layers.1.self_attn.out_proj.bias f4 [4]
0	0x3da58398	0.0808174
1	0xbd71e5b2	-0.059056945
2	0xbdf9210e	-0.12164508
3	0xbc7347f2	-0.014848696

decoder.layers.1.multihead_attn.in_proj_weight f4 [12, 4]
0	0xbd393380	-0.04521513
1	0x3f24d2f5	0.64384395
2	0x3e93c854	0.28863776
3	0x3e072488	0.1319753
4	0xbebe92f3	-0.37221488
5	0x3c040991	0.008058921
6	0xbdf69390	-0.12039864
7	0xbefffb91	-0.49996617
8	0xbd1c353b	-0.038136702
9	0x3e16afc9	0.14715494
10	0xbd8d840c	-0.069099516
11	0xbd1b9d19	-0.037991617
12	0x3e9fdf78	0.3122518
13	0x3f023fe1	0.5087872
14	0x3ebef440	0.37295723
15	0xbec0354f	-0.3754067
16	0x3f00a89b	0.5025727
17	0xbf03d7b3	-0.51501006
18	0xbe89b333	-0.2689453
19	0x3de6b01c	0.11264059
20	0x3e84f691	0.25969365
21	0x3d44331a	0.047900297
22	0x3dec1b2d	0.11528621
23	0x3e739126	0.23785838
24	0xbd4dd4fd	-0.05025195
25	0xbf41ef83	-0.7575609
26	0x3ee38000	0.44433594
27	0xbe2ebab2	-0.17063406
28	0x3df8f093	0.12155261
29	0xbe840c78	-0.25790763
30	0xbda24e0c	-0.079250425
31	0x3cb2636e	0.021775927
32	0x3f35cef2	0.710189
33	0x3e744b76	0.23856911
34	0xbe3c7e8f	-0.18407653
35	0xbf20e961	-0.6285611
36	0xbf281552	-0.6565753
37	0xbcdb4c3f	-0.026769755
38	0xbed1829a	-0.40919954
39	0xbe83986b	-0.25702223
40	0x3d3d9027	0.046280053
41	0x3d175bcd	0.036952782
42	0x3da0fb64	0.07860449
43	0x3eb7e05c	0.3591336
44	0x3dafc14c	0.0858179
45	0xbf16c62d	-0.5889614
46	0xbe33af27	-0.17547284
47	0x3f045bd4	0.5170262

decoder.layers.1.multihead_attn.in_proj_bias f4 [12]
0	0xbdcab3a4	-0.09897545
1	0x3e8cc053	0.27490482
2	0x3d2f8f8e	0.042861514
3	0x3e2695ec	0.16268128
4	0xbd51af6f	-0.051192697
5	0x3aa1332a	0.0012298573
6	0xbbfe2491	-0.007755824
7	0xbcf4aaf3	-0.029866671
8	0x3ca8d64b	0.020609995
9	0xbd6017e7	-0.054710295
10	0x3df82cfb	0.12117954
11	0xbe3f5219	-0.18683662

decoder.layers.1.multihead_attn.out_proj.weight f4 [4, 4]
0	0xbe381164	-0.17975384
1	0x3ee2bcc5	0.44284645
2	0xbe541551	-0.20711257
3	0xbeb15416	-0.34634465
4	0xbf08de35	-0.5346406
5	0x3ea79a92	0.32735115
6	0x3dcc33f6	0.09970848
7	0x3f13d29c	0.5774324
8	0x3ee0968b	0.43864855
9	0xbdc28376	-0.094977304
10	0xbe39d090	-0.18145967
11	0x3d58e0de	0.052948825
12	0x3e56d3ea	0.20979276
13	0xbda055c9	-0.07828862
14	0xbe938e47	-0.28819486
15	0xbd2566af	-0.04038113

decoder.layers.1.multihead_attn.out_proj.bias f4 [4]
0	0x3d99e746	0.07514815
1	0xbe70a95d	-0.23502107
2	0xbe753cc7	-0.23948966
3	0x3e71c8a6	0.23611698

decoder.layers.1.linear1.weight f4 [4, 4]
0	0x3da842e8	0.08215886
1	0x3d75c637	0.060003486
2	0xbca028c1	-0.019550683
3	0x3c49572c	0.01228885
4	0xbf6d4c9a	-0.9269501
5	0x3db4587f	0.08805942
6	0xbd873372	-0.06601609
7	0xbf126ce7	-0.5719742
8	0x3d485576	0.048909627
9	0xbd8df363	-0.06931188
10	0xbe029343	-0.12751488
11	0x3e0c2006	0.13684091
12	0xbf63917b	-0.8889386
13	0xbe100f7a	-0.14068404
14	0x3cc3fadc	0.02392333
15	0x3e550c43	0.20805459

decoder.layers.1.linear1.bias f4 [4]
0	0xbe79ca02	-0.24393466
1	0x3f479897	0.7796721
2	0xbf0a0e4b	-0.5392806
3	0x3d501e59	0.05081019

decoder.layers.1.linear2.weight f4 [4, 4]
0	0x3db3107e	0.0874338
1	0x3f3b818d	0.73244554
2	0xbdcdd2a7	-0.10049944
3	0x3d6918e1	0.056908492
4	0x3e269744	0.16268641
5	0xbf7d3bac	-0.9891918
6	0x3e550c53	0.20805483
7	0xbf8a82a7	-1.0821122
8	0x3e48835a	0.19581357
9	0xbf0a8641	-0.54111105
10	0xbd9e974d	-0.07743702
11	0xbd78a69d	-0.06070577
12	0xbd652a3b	-0.055948477
13	0x3e06c9b7	0.13162886
14	0xbdf364d4	-0.11884466
15	0xbb9db996	-0.0048133833

decoder.layers.1.linear2.bias f4 [4]
0	0x3e4621f3	0.19348888
1	0xbeb612c9	-0.35561207
2	0xbdc03252	-0.09384598
3	0x3ef45c82	0.47726828

decoder.layers.1.norm1.weight f4 [4]
0	0x3fa1189a	1.2585633
1	0x3fabc8b8	1.342063
2	0x3fbfa029	1.4970752
3	0x3f3fffd6	0.7499975

decoder.layers.1.norm1.bias f4 [4]
0	0x3ed84eaa	0.42247516
1	0xbe9a3c8f	-0.30124328
2	0xbe93b4de	-0.28848928
3	0x3e38913f	0.18024157

decoder.layers.1.norm2.weight f4 [4]
0	0x3f9a8bcc	1.2073913
1	0x3facf7ae	1.3513086
2	0x3f9438e0	1.1579857
3	0x3f3e994f	0.7445268

decoder.layers.1.norm2.bias f4 [4]
0	0x3ef612a3	0.48061094
1	0xbf16d954	-0.58925366
2	0xbe841ff8	-0.2580564
3	0x3e6b80f9	0.22998418

decoder.layers.1.norm3.weight f4 [4]
0	0x3f581d35	0.84419566
1	0x3bdec7d4	0.0067987237
2	0x3f8dc88d	1.1076828
3	0x3f0582dd	0.52152807

decoder.layers.1.norm3.bias f4 [4]
0	0x3a401680	0.00073275715
1	0x3bf2f9b4	0.007415021
2	0xbe3013d6	-0.17195067
3	0xbe919733	-0.28435668

linear_mapping.weight f4 [1, 4]
0	0x3e666171	0.22498108
1	0xbb804ed8	-0.003915649
2	0xbf12bd6c	-0.57320285
3	0xbce5375f	-0.027980505

linear_mapping_with_gender_ind.weight f4 [1, 5]
0	0xbe271822	-0.163178
1	0x3e2dd3f4	0.16975385
2	0x3e987cda	0.29782754
3	0xbe6f1e1b	-0.23351328
4	0x3b9084c0	0.0044103563

exp_avg f4 [4, 3]
0	0x3ac06698	0.0014679013
1	0x3ac6a78d	0.0015156135
2	0x3ac8f15e	0.0015330722
3	0x3a8309e0	0.000999745
4	0x3a8be349	0.0010672595
5	0x3a8fb08f	0.0010962653
6	0xb9f9df0b	-0.0004765916
7	0xba09f51c	-0.00052626594
8	0xba0f0a53	-0.00054565555
9	0x3b253f4d	0.0025214732
10	0x3aeeae1c	0.0018209848
11	0x3ad4f2ec	0.0016246713

exp_avg_sq f4 [4, 3]
0	0x397d7161	0.00024170197
1	0x397d6e80	0.00024169125
2	0x397e9ddf	0.00024282139
3	0x39817f49	0.00024699632
4	0x397fe0ef	0.0002440249
5	0x398052c6	0.00024475734
6	0x382b831f	4.0891693e-05
7	0x3825bc0c	3.9514198e-05
8	0x38253553	3.9388728e-05
9	0x3c5fcec7	0.013660139
10	0x3c5b3359	0.013378941
11	0x3c5acd2e	0.013354583

exp_avg f4 [4]
0	0xba113337	-0.00055389426
1	0xb99158bf	-0.00027722676
2	0x3981f5cd	0.00024787933
3	0xbad35291	-0.0016122629

exp_avg_sq f4 [4]
0	0x386e1a1f	5.676795e-05
1	0x3864556d	5.4438995e-05
2	0x37189f57	9.097005e-06
3	0x3b4853a3	0.003056743

exp_avg f4 [4, 1]
0	0xbd02f64e	-0.031973176
1	0xbd4d6409	-0.05014423
2	0x3d8b19b6	0.06792013
3	0xbce65f04	-0.028121479

exp_avg_sq f4 [4, 1]
0	0x3bdc55ed	0.0067241103
1	0x3cb60501	0.022219183
2	0x3ca05a55	0.019574324
3	0x3a91c253	0.0011120535

exp_avg f4 [4]
0	0x3c30510a	0.010761509
1	0x3c9348b5	0.017979005
2	0xbcbe0794	-0.023196973
3	0x3c254de3	0.01008937

exp_avg_sq f4 [4]
0	0x3a85417c	0.0010166611
1	0x3b634685	0.0034679484
2	0x3b42329b	0.0029632214
3	0x3920e7de	0.00015345166

exp_avg f4 [12, 4]
0	0x36858a1a	3.979786e-06
1	0xb724778c	-9.802996e-06
2	0xb72b9531	-1.0227131e-05
3	0xb6d9bf34	-6.489363e-06
4	0x384ed738	4.9314665e-05
5	0x390c211d	0.00013363776
6	0xb7e53502	-2.7323611e-05
7	0xb773d32e	-1.4533098e-05
8	0x3683780a	3.9180786e-06
9	0x37baea58	2.2282053e-05
10	0xb76d10d2	-1.4130217e-05
11	0xb7018623	-7.72023e-06
12	0xb6e1b37a	-6.7264164e-06
13	0xb8a1e836	-7.720331e-05
14	0xb7906b00	-1.7215963e-05
15	0xb74062d7	-1.1467105e-05
16	0x370721ba	8.05448e-06
17	0x3833f204	4.290232e-05
18	0xb5a4de9c	-1.228374e-06
19	0xb6e8564f	-6.9241864e-06
20	0x37e2a452	2.7017817e-05
21	0xb987c29f	-0.0002589421
22	0xb73f078e	-1.1386246e-05
23	0xb8580b2a	-5.150881e-05
24	0x3781ea7d	1.548719e-05
25	0xb8e07911	-0.00010703703
26	0xb69ac2ac	-4.6122204e-06
27	0x371e2034	9.425032e-06
28	0xb7adb21e	-2.070615e-05
29	0x39346145	0.00017202373
30	0x3728248d	1.00220905e-05
31	0xb7cdbb56	-2.452514e-05
32	0xb8d81029	-0.00010302693
33	0xb8cfefdc	-9.9152065e-05
34	0x390120b0	0.00012314576
35	0x368f6060	4.2729516e-06
36	0x37907492	1.722042e-05
37	0x38ae5119	8.312072e-05
38	0xb8b1f10a	-8.484915e-05
39	0xb86cfa6c	-5.650001e-05
40	0xb926123a	-0.00015837784
41	0xb8fad005	-0.000119596756
42	0x38c817b2	9.541157e-05
43	0xb7366848	-1.0872325e-05
44	0x3934b15e	0.00017232212
45	0x394358f0	0.00018629781
46	0xb9093f24	-0.0001308886
47	0x3323c800	3.8133294e-08

exp_avg_sq f4 [12, 4]
0	0x31ee0d27	6.928207e-09
1	0x321989c9	8.937101e-09
2	0x30f59455	1.7868255e-09
3	0x2f853642	2.4231112e-10
4	0x33d77b0a	1.0034098e-07
5	0x3453b4d0	1.9716686e-07
6	0x32a7f180	1.955118e-08
7	0x31809193	3.74184e-09
8	0x34244c69	1.5301488e-07
9	0x33d6707a	9.985611e-08
10	0x3295e349	1.744924e-08
11	0x318f0fdf	4.163652e-09
12	0x33cf2f11	9.64775e-08
13	0x34024c5e	1.2134976e-07
14	0x328bda8b	1.6281112e-08
15	0x3109993c	2.0023228e-09
16	0x32eebb87	2.7792124e-08
17	0x34922fba	2.7229345e-07
18	0x2fc34e22	3.552581e-10
19	0x2fd52495	3.8770467e-10
20	0x3447527a	1.8563324e-07
21	0x36075317	2.0164932e-06
22	0x32333434	1.0431041e-08
23	0x324e22de	1.1998706e-08
24	0x328a1561	1.6075036e-08
25	0x34489935	1.8682188e-07
26	0x3038b5aa	6.719697e-10
27	0x30535f71	7.6896983e-10
28	0x33ded2b5	1.0376008e-07
29	0x35b8d5c5	1.3771283e-06
30	0x30b85dd4	1.341443e-09
31	0x3153927e	3.0787812e-09
32	0x34c8a79e	3.737486e-07
33	0x35bc5a61	1.4033395e-06
34	0x35d5734a	1.590329e-06
35	0x348ded64	2.643602e-07
36	0x34778106	2.3050606e-07
37	0x34b8b9e1	3.4407915e-07
38	0x34eea0b3	4.444788e-07
39	0x33b65fca	8.4924594e-08
40	0x35b97d30	1.3820008e-06
41	0x36a8000a	5.0067947e-06
42	0x36c04347	5.729878e-06
43	0x357f4fab	9.5110835e-07
44	0x36648e13	3.4057346e-06
45	0x37115173	8.661637e-06
46	0x373befe5	1.1201923e-05
47	0x360c2cd5	2.0887721e-06

exp_avg f4 [12]
0	0x37b5d5f4	2.1676511e-05
1	0x389cfcc0	7.485738e-05
2	0x384efcf1	4.9349797e-05
3	0x37fb5330	2.9960269e-05
4	0x2c12bf84	2.085416e-12
5	0x2e08ed06	3.113334e-11
6	0xacd85952	-6.149006e-12
7	0x2dd45c1f	2.414252e-11
8	0xb9fcbfef	-0.00048208187
9	0x39b69438	0.00034824177
10	0xb998c05e	-0.00029135024
11	0x396ba5ba	0.00022473084

exp_avg_sq f4 [12]
0	0x329cd90f	1.8259497e-08
1	0x348bea2d	2.6061153e-07
2	0x3485c5f4	2.491721e-07
3	0x348442c7	2.4635503e-07
4	0x1cc15949	1.2794748e-21
5	0x1ea1ff5d	1.7152154e-20
6	0x1d08f65f	1.812682e-21
7	0x1e114e65	7.692448e-21
8	0x37e290ad	2.700867e-05
9	0x37158cd2	8.913879e-06
10	0x38ccd6f6	9.7675176e-05
11	0x394e9b04	0.00019703439

exp_avg f4 [4, 4]
0	0x379df9d6	1.8832197e-05
1	0x3924e0fb	0.0001572407
2	0x3778d9e8	1.4832687e-05
3	0xb5a09840	-1.196524e-06
4	0xb5a6cdc0	-1.2427845e-06
5	0xb9894337	-0.00026180755
6	0xb877a650	-5.904428e-05
7	0x37e1dcf8	2.6924987e-05
8	0xb842c2d3	-4.643465e-05
9	0xb8d5b1ae	-0.00010189727
10	0xb8d94ebb	-0.00010362031
11	0x390a046c	0.00013162353
12	0xb8c67ba4	-9.4644056e-05
13	0x39c375f2	0.00037281174
14	0x3730f7f0	1.0548145e-05
15	0x3814d154	3.54809e-05

exp_avg_sq f4 [4, 4]
0	0x35a5884d	1.2333127e-06
1	0x371182df	8.673144e-06
2	0x35a9c30d	1.2648248e-06
3	0x35d3f4cc	1.579197e-06
4	0x34e67685	4.2927073e-07
5	0x361773bf	2.2568126e-06
6	0x3530c58f	6.5852595e-07
7	0x35831e0f	9.769009e-07
8	0x33e1955f	1.05045494e-07
9	0x35019c8c	4.828405e-07
10	0x344dc3e0	1.9163372e-07
11	0x349695b0	2.804859e-07
12	0x362b9c24	2.5571871e-06
13	0x37a63eeb	1.981804e-05
14	0x364f9cba	3.093663e-06
15	0x36a326ca	4.862294e-06

exp_avg f4 [4]
0	0x39a09c25	0.00030633915
1	0xba2e9e56	-0.0006661167
2	0xb8e81f8a	-0.00011068497
3	0x3a803b8a	0.0009783369

exp_avg_sq f4 [4]
0	0x384708d3	4.7453515e-05
1	0x370e52d8	8.483148e-06
2	0x365b7e71	3.2707142e-06
3	0x38cdd6d9	9.81518e-05

exp_avg f4 [4, 4]
0	0xb6dd0c88	-6.587772e-06
1	0x37ef019d	2.8491771e-05
2	0xb6c4efff	-5.8691944e-06
3	0xb735adcd	-1.0828907e-05
4	0xb8914906	-6.9277405e-05
5	0xb8b3ad02	-8.56761e-05
6	0x36843242	3.9397573e-06
7	0x3943bc26	0.0001866674
8	0xb98c4280	-0.00026752427
9	0xb9074f13	-0.0001290406
10	0x37d37e3d	2.5211944e-05
11	0x39c115b5	0.00036828002
12	0x00000004	6e-45
13	0x00000004	6e-45
14	0x80000004	-6e-45
15	0x00000004	6e-45

exp_avg_sq f4 [4, 4]
0	0x34250e95	1.5372127e-07
1	0x3349b0f7	4.6959908e-08
2	0x318413c8	3.8439545e-09
3	0x33d170ae	9.752817e-08
4	0x34bf479d	3.5628628e-07
5	0x3508e00b	5.0989973e-07
6	0x333670d1	4.2477783e-08
7	0x351fd36e	5.9539786e-07
8	0x342e033b	1.6206188e-07
9	0x3485411d	2.4820557e-07
10	0x327a07f0	1.455372e-08
11	0x34ecf59e	4.4137136e-07
12	0x1b92ba16	2.427393e-22
13	0x1c35a609	6.010247e-22
14	0x1bd8ca51	3.5864946e-22
15	0x1b73b903	2.016027e-22

exp_avg f4 [4]
0	0x36085a90	2.0318294e-06
1	0xb850e44f	-4.9803693e-05
2	0xb9527bae	-0.00020073235
3	0x80000004	-6e-45

exp_avg_sq f4 [4]
0	0x338993fb	6.406477e-08
1	0x34b6fdab	3.408471e-07
2	0x341cede4	1.4615176e-07
3	0x1bca4e61	3.3468748e-22

exp_avg f4 [4, 4]
0	0xb8898261	-6.556954e-05
1	0xb947131e	-0.0001898524
2	0xb95e8604	-0.00021221495
3	0x00000004	6e-45
4	0x38670919	5.5083165e-05
5	0xb9276712	-0.00015964758
6	0x3951ed18	0.00020020118
7	0x80000004	-6e-45
8	0xb68f2b4b	-4.266772e-06
9	0xb800669a	-3.0613133e-05
10	0xb7253ed8	-9.849398e-06
11	0x80000004	-6e-45
12	0x3609b060	2.0517255e-06
13	0x38f876d4	0.00011847695
14	0xb7758370	-1.4633741e-05
15	0x00000004	6e-45

exp_avg_sq f4 [4, 4]
0	0x33fd0d96	1.1783702e-07
1	0x353e6089	7.092099e-07
2	0x340f97b1	1.3373098e-07
3	0x186bb377	3.0463645e-24
4	0x33726296	5.643468e-08
5	0x34b80946	3.4279418e-07
6	0x340e161f	1.3232828e-07
7	0x19186bf2	7.880015e-24
8	0x3291bb83	1.6965492e-08
9	0x33680567	5.4021623e-08
10	0x31d175f8	6.096112e-09
11	0x186c1ab7	3.0515773e-24
12	0x3352a5cf	4.9045237e-08
13	0x345ae52a	2.0386202e-07
14	0x3214b915	8.656817e-09
15	0x19891910	1.417559e-23

exp_avg f4 [4]
0	0xb9cd40e6	-0.00039149
1	0xba20ba26	-0.0006131254
2	0x38fb30ca	0.000119777
3	0x37f68dc8	2.9391507e-05

exp_avg_sq f4 [4]
0	0x37210d0a	9.599384e-06
1	0x3609c837	2.0531131e-06
2	0x35cdfe10	1.5347632e-06
3	0x37185331	9.0792755e-06

exp_avg f4 [4]
0	0x3938a5ee	0.00017609421
1	0x3905f181	0.00012773836
2	0xb8c48414	-9.37061e-05
3	0xb9ac2cca	-0.00032839767

exp_avg_sq f4 [4]
0	0x36acbb0d	5.147775e-06
1	0x36bcd5a7	5.627709e-06
2	0x36336e65	2.6737337e-06
3	0x35b93be7	1.3801008e-06

exp_avg f4 [4]
0	0xb924b40d	-0.00015707333
1	0xba01314c	-0.0004928305
2	0x38894d1f	6.547034e-05
3	0x3a1071cc	0.0005510121

exp_avg_sq f4 [4]
0	0x3727c055	9.9987565e-06
1	0x35d6498d	1.5965649e-06
2	0x35a0f9aa	1.1993591e-06
3	0x3737047f	1.0908697e-05

exp_avg f4 [4]
0	0x3a0946d8	0.0005236692
1	0x3a873d11	0.0010317882
2	0xb706d938	-8.037598e-06
3	0xba9aa158	-0.0011797352

exp_avg_sq f4 [4]
0	0x36a19ab5	4.816184e-06
1	0x36ce2a2f	6.1441892e-06
2	0x3548b1cb	7.476453e-07
3	0x36eafc14	7.003089e-06

exp_avg f4 [4]
0	0xb991a494	-0.00027779175
1	0x3a075954	0.0005163152
2	0x39f55004	0.00046789658
3	0x39e92cfc	0.0004447474

exp_avg_sq f4 [4]
0	0x370bd99a	8.33571e-06
1	0x36882d0c	4.05836e-06
2	0x369fc9c6	4.762059e-06
3	0x373011c0	1.049455e-05

exp_avg f4 [12, 4]
0	0xb93e268b	-0.0001813417
1	0x393a7cf7	0.00017784895
2	0xb837d114	-4.382532e-05
3	0x38fffb5b	0.00012206166
4	0xb8d49d56	-0.00010138254
5	0x392b5e2c	0.00016342913
6	0xb80b4d3d	-3.3212116e-05
7	0x35023780	4.8509537e-07
8	0xb9114d76	-0.00013857134
9	0x3919eee5	0.00014680212
10	0xb837b20a	-4.379641e-05
11	0x38d1ec32	0.000100098914
12	0x3862b6e3	5.4052925e-05
13	0xb91e7232	-0.00015110595
14	0x37ea8383	2.7956214e-05
15	0x3886999e	6.418231e-05
16	0xb9837ebe	-0.00025080697
17	0x39875f7f	0.00025820357
18	0xb61abcae	-2.3057614e-06
19	0x3884d6fe	6.334296e-05
20	0xb9b19bf8	-0.00033876277
21	0x39cd14b4	0.00039116072
22	0x38769bb0	5.8795966e-05
23	0xb8b18fe9	-8.466823e-05
24	0xb86972ef	-5.565857e-05
25	0x3838f25a	4.4094726e-05
26	0xb5315a8e	-6.606941e-07
27	0x37f7a935	2.9523488e-05
28	0x39899dcf	0.00026248253
29	0xb9a11abe	-0.00030728237
30	0xb861d7cf	-5.3845168e-05
31	0x38b5ca14	8.6683925e-05
32	0xb63bf130	-2.800556e-06
33	0xb994f4cb	-0.00028411145
34	0xb6b15237	-5.284582e-06
35	0x39aebf24	0.00033330277
36	0xbabf7a36	-0.0014608565
37	0xb9967a02	-0.00028701132
38	0xb8a09831	-7.6577424e-05
39	0x3b352266	0.0027638911
40	0xba9c0f4a	-0.0011906412
41	0xba9eff13	-0.0012130461
42	0xb60903ec	-2.0416874e-06
43	0x3b594ab5	0.00331561
44	0x3a1722e1	0.000576539
45	0x3a049564	0.00050576613
46	0x38128e0c	3.4941404e-05
47	0xbac9f98a	-0.0015409451

exp_avg_sq f4 [12, 4]
0	0x348a149b	2.5719496e-07
1	0x355696fb	7.994092e-07
2	0x3345ffed	4.61004e-08
3	0x34d77c78	4.0137434e-07
4	0x33be49af	8.8609674e-08
5	0x34dc2a67	4.1009045e-07
6	0x32ac4387	2.0054143e-08
7	0x34901a42	2.6841195e-07
8	0x347363f5	2.2667503e-07
9	0x35630dde	8.458427e-07
10	0x33779b13	5.7650208e-08
11	0x352900ff	6.2958856e-07
12	0x33eb3296	1.0952242e-07
13	0x3514cb0f	5.5429786e-07
14	0x331b2653	3.6123605e-08
15	0x34d3f827	3.9482367e-07
16	0x35686679	8.657585e-07
17	0x3564132e	8.496453e-07
18	0x336f8c85	5.5774326e-08
19	0x35836b07	9.79141e-07
20	0x361d2551	2.3416544e-06
21	0x35e541fe	1.7081036e-06
22	0x33e1cf22	1.0515056e-07
23	0x34e3ef92	4.2456355e-07
24	0x345518cd	1.9846193e-07
25	0x344c4e90	1.9027561e-07
26	0x323b1958	1.0890595e-08
27	0x343d5674	1.7633448e-07
28	0x35c89643	1.4944893e-06
29	0x3594603b	1.1054866e-06
30	0x3396ea87	7.0275796e-08
31	0x34a58b2a	3.08349e-07
32	0x35532ede	7.8671826e-07
33	0x3503c805	4.909237e-07
34	0x33ad96fe	8.0834056e-08
35	0x360c73e1	2.0929076e-06
36	0x37128485	8.733133e-06
37	0x36005ce5	1.9127558e-06
38	0x3456ca9d	2.0004013e-07
39	0x37d4886d	2.5335898e-05
40	0x3752b2a6	1.255857e-05
41	0x3681cd4b	3.868399e-06
42	0x34b201c1	3.315636e-07
43	0x38126d4c	3.4910903e-05
44	0x3637d568	2.7393344e-06
45	0x35de0a43	1.6543275e-06
46	0x342bb6a9	1.5992067e-07
47	0x3708ed6d	8.161512e-06

exp_avg f4 [12]
0	0x383fc724	4.5723413e-05
1	0x38995562	7.311512e-05
2	0x38116335	3.4663088e-05
3	0xb8b1c982	-8.4775515e-05
4	0xabfdeca0	-1.8042408e-12
5	0x2d266d04	9.460214e-12
6	0x2d4d9f56	1.16882806e-11
7	0xad9a33ea	-1.7530827e-11
8	0x37ea1be1	2.7907956e-05
9	0xba8c4602	-0.0010702016
10	0xba9095a2	-0.0011030922
11	0x39c5b3cd	0.0003770873

exp_avg_sq f4 [12]
0	0x34a2861b	3.0272426e-07
1	0x34218afe	1.5044859e-07
2	0x34bdd946	3.536208e-07
3	0x3468ce44	2.1681723e-07
4	0x1f356871	3.8414633e-20
5	0x1e8e3fe5	1.5061261e-20
6	0x1e497765	1.0665542e-20
7	0x1eaa1e49	1.8011976e-20
8	0x3587b2e6	1.011035e-06
9	0x37012130	7.696726e-06
10	0x373af382	1.114316e-05
11	0x364e0137	3.06971e-06

exp_avg f4 [4, 4]
0	0xb97cd430	-0.00024111639
1	0xbab37aa6	-0.0013693168
2	0xba92f171	-0.0011210871
3	0x3ac4017a	0.0014954053
4	0x3a362330	0.00069479924
5	0x3701b618	7.731396e-06
6	0x3a94902b	0.0011334469
7	0xba6eaa0e	-0.00091043196
8	0x394a18fe	0.00019273532
9	0x399fb078	0.00030458323
10	0x39fc50ea	0.0004812547
11	0xba0d4d59	-0.0005390249
12	0xb9c8c77e	-0.00038295606
13	0x39de51be	0.00042404042
14	0xb9d5f043	-0.00040805535
15	0x3972ac86	0.00023143188

exp_avg_sq f4 [4, 4]
0	0x366de7e2	3.5450726e-06
1	0x3744b3f0	1.1724405e-05
2	0x36cb65dd	6.06173e-06
3	0x369a073a	4.590399e-06
4	0x3665908e	3.42078e-06
5	0x36bfe094	5.718388e-06
6	0x36c9e042	6.016374e-06
7	0x368ae025	4.1388143e-06
8	0x35519dd7	7.8088254e-07
9	0x35b20032	1.326209e-06
10	0x35c0c9eb	1.4363881e-06
11	0x356c1cb5	8.7958625e-07
12	0x358e116a	1.0584893e-06
13	0x3621b2b6	2.4094893e-06
14	0x360b7e05	2.0785967e-06
15	0x35b0f649	1.31847e-06

exp_avg f4 [4]
0	0xba8cad5a	-0.0010732815
1	0x3a86f5c4	0.0010296633
2	0x3a074005	0.0005159381
3	0xba40ae84	-0.00073502236

exp_avg_sq f4 [4]
0	0x3745cc0c	1.1789623e-05
1	0x371de473	9.411119e-06
2	0x3620d6e8	2.396695e-06
3	0x3697ae2d	4.5204274e-06

exp_avg f4 [4, 4]
0	0x80000004	-6e-45
1	0x00000004	6e-45
2	0x80000004	-6e-45
3	0x80000004	-6e-45
4	0x00000004	6e-45
5	0x00000004	6e-45
6	0x80000004	-6e-45
7	0x80000004	-6e-45
8	0x378ee792	1.7035552e-05
9	0x37f8091e	2.956815e-05
10	0xb7a34357	-1.9462472e-05
11	0xb7f5adf4	-2.928728e-05
12	0x80000004	-6e-45
13	0x00000004	6e-45
14	0x00000004	6e-45
15	0x80000004	-6e-45

exp_avg_sq f4 [4, 4]
0	0x2362af33	1.22885844e-17
1	0x23221894	8.787242e-18
2	0x21ab9284	1.1626193e-18
3	0x23b24d22	1.9331466e-17
4	0x23dc99ac	2.391753e-17
5	0x23ac6470	1.8690814e-17
6	0x22b38cdd	4.866719e-18
7	0x23609c69	1.21761855e-17
8	0x342040bb	1.492471e-07
9	0x34102ded	1.3427753e-07
10	0x32430070	1.1350593e-08
11	0x32c32e32	2.2721995e-08
12	0x24be92bc	8.264794e-17
13	0x24502d44	4.5141152e-17
14	0x231c9380	8.488011e-18
15	0x2490566d	6.2596456e-17

exp_avg f4 [4]
0	0x00000004	6e-45
1	0x00000004	6e-45
2	0xb6d2d0e2	-6.282805e-06
3	0x00000004	6e-45

exp_avg_sq f4 [4]
0	0x233085f0	9.5693415e-18
1	0x2382affe	1.4169164e-17
2	0x33689643	5.415337e-08
3	0x244fa526	4.5025856e-17

exp_avg f4 [4, 4]
0	0x80000004	-6e-45
1	0x00000004	6e-45
2	0xb888b40b	-6.518521e-05
3	0x00000004	6e-45
4	0x80000004	-6e-45
5	0x80000004	-6e-45
6	0xb89759de	-7.21698e-05
7	0x00000004	6e-45
8	0x00000004	6e-45
9	0x00000004	6e-45
10	0x3821ea44	3.8603568e-05
11	0x80000004	-6e-45
12	0x00000004	6e-45
13	0x00000004	6e-45
14	0x38d30819	0.00010062772
15	0x80000004	-6e-45

exp_avg_sq f4 [4, 4]
0	0x21b28695	1.2097373e-18
1	0x22bf552c	5.1860833e-18
2	0x32522e7d	1.2234179e-08
3	0x22db93a5	5.9516394e-18
4	0x2146676c	6.7221887e-19
5	0x224db1b8	2.7876764e-18
6	0x3402b62e	1.217347e-07
7	0x223c3877	2.5508643e-18
8	0x1fb50c47	7.667679e-20
9	0x208e8b41	2.4147886e-19
10	0x31cdc927	5.9891536e-09
11	0x2077d9d3	2.0993786e-19
12	0x20590448	1.8382032e-19
13	0x229ac545	4.195065e-18
14	0x3417fc2e	1.4154713e-07
15	0x22e77bfa	6.274394e-18

exp_avg f4 [4]
0	0xbacdeedc	-0.0015711444
1	0x3acf9a88	0.00158389
2	0x3a58bc52	0.0008267808
3	0xba5429b8	-0.0008093375

exp_avg_sq f4 [4]
0	0x3806481e	3.2015254e-05
1	0x37801a4b	1.5271033e-05
2	0x36dd9040	6.603106e-06
3	0x36a31ad7	4.860903e-06

exp_avg f4 [4]
0	0xbb1edc65	-0.0024240252
1	0x39b8d441	0.00035253356
2	0x3805682a	3.180668e-05
3	0x3aa2eadc	0.0012429613

exp_avg_sq f4 [4]
0	0x37d83ad3	2.5776599e-05
1	0x36c4f645	5.8699247e-06
2	0x344e5284	1.9215264e-07
3	0x36bf1903	5.6951553e-06

exp_avg f4 [4]
0	0xbad6584d	-0.001635322
1	0x3ac1e966	0.001479429
2	0x3a810b9d	0.000984538
3	0xba592d42	-0.0008284637

exp_avg_sq f4 [4]
0	0x38065144	3.2023774e-05
1	0x3772830e	1.4454838e-05
2	0x36f0ec9c	7.1801023e-06
3	0x369b69a8	4.63166e-06

exp_avg f4 [4]
0	0xbb9135fd	-0.0044314847
1	0x3a83faa2	0.0010069201
2	0x38d2785f	0.00010036001
3	0x3af2d9ca	0.0018528041

exp_avg_sq f4 [4]
0	0x390a76d1	0.00013204968
1	0x371f11d3	9.4812885e-06
2	0x33b6defa	8.5155946e-08
3	0x38bf7eaa	9.131183e-05

exp_avg f4 [4]
0	0xbb77b70b	-0.003779831
1	0x3af612a8	0.001877387
2	0x39194e4e	0.00014620388
3	0xbace666d	-0.0015747078

exp_avg_sq f4 [4]
0	0x3926db5b	0.0001591271
1	0x3778d7a7	1.4832162e-05
2	0x350f3c22	5.3359156e-07
3	0x382bbc71	4.0945077e-05

exp_avg f4 [12, 4]
0	0xb93ec008	-0.00018191349
1	0x398f3bff	0.00027319786
2	0xb88d575a	-6.7396744e-05
3	0xb854a21a	-5.0695708e-05
4	0xb6b73d10	-5.4609336e-06
5	0x37caed18	2.4190682e-05
6	0xb6e653d4	-6.864293e-06
7	0xb7124d4c	-8.720275e-06
8	0xb8ed1433	-0.00011304803
9	0x3941f32a	0.000184965
10	0xb85974be	-5.1845556e-05
11	0xb80e57f0	-3.3937336e-05
12	0xb9077818	-0.00012919342
13	0x3958d887	0.00020680028
14	0xb86c132b	-5.6284636e-05
15	0xb828709f	-4.0159208e-05
16	0xb82e069b	-4.1490985e-05
17	0x3895d69c	7.144848e-05
18	0xb7074dd2	-8.064746e-06
19	0xb6c3de94	-5.8373644e-06
20	0x386dd989	5.67078e-05
21	0xb8c777c4	-9.5113675e-05
22	0x35ba2328	1.3868312e-06
23	0x370bdc2e	8.33631e-06
24	0x3980e9bf	0.00024588217
25	0xba010b90	-0.00049226824
26	0xb84bffc2	-4.8637165e-05
27	0x3804974d	3.1612162e-05
28	0x398cfd9f	0.00026891843
29	0xba0db54d	-0.0005405739
30	0xb8673112	-5.5120392e-05
31	0x380a7a16	3.3015465e-05
32	0x3a31f9b3	0.0006789222
33	0x3b172664	0.0023063654
34	0xbb43bc08	-0.0029866714
35	0xbb4cfaa4	-0.0031277323
36	0x3990b03d	0.00027597128
37	0x39f0fc90	0.0004596454
38	0xba7ec8b2	-0.0009719237
39	0xbab8567c	-0.001406386
40	0x398723cc	0.00025775877
41	0x3a3337dc	0.0006836632
42	0xba970a3e	-0.0011523438
43	0xbac2fc95	-0.0014876301
44	0xb9d6ee22	-0.00040994684
45	0xb9622443	-0.00021566548
46	0x3a8e2d10	0.001084717
47	0x3afb52e7	0.0019174487

exp_avg_sq f4 [12, 4]
0	0x3527753d	6.238295e-07
1	0x35e56a88	1.7092834e-06
2	0x325d49be	1.288066e-08
3	0x336633b0	5.3598058e-08
4	0x359ad7d8	1.1536713e-06
5	0x3618b8c9	2.2757324e-06
6	0x328ddb4d	1.6514287e-08
7	0x33f3730c	1.1336496e-07
8	0x346003ef	2.0863057e-07
9	0x3491e476	2.7174582e-07
10	0x31e17413	6.561558e-09
11	0x32e695d3	2.6843656e-08
12	0x348fd048	2.678737e-07
13	0x34bc802e	3.5110992e-07
14	0x3209880f	8.005386e-09
15	0x3314cad5	3.464341e-08
16	0x34838731	2.4499016e-07
17	0x33745cc7	5.6895058e-08
18	0x319deafe	4.596017e-09
19	0x30e5d762	1.6723158e-09
20	0x34226359	1.5123568e-07
21	0x331109bb	3.3769293e-08
22	0x312e3b42	2.5354017e-09
23	0x30888130	9.93202e-10
24	0x35ce3d93	1.5366116e-06
25	0x35232fd0	6.079181e-07
26	0x32818f2e	1.5082687e-08
27	0x320e6b33	8.289862e-09
28	0x35f9c5bf	1.8609497e-06
29	0x354a0d70	7.527042e-07
30	0x32a65686	1.936429e-08
31	0x321f2cc4	9.265197e-09
32	0x3656a3de	3.1983868e-06
33	0x3757a108	1.2852492e-05
34	0x3787f363	1.620659e-05
35	0x3794bc40	1.7730636e-05
36	0x352e92c8	6.5033646e-07
37	0x357c9d52	9.4106247e-07
38	0x35efb022	1.7858149e-06
39	0x36a6ff4b	4.9769055e-06
40	0x35131368	5.479001e-07
41	0x35b3cc74	1.3396043e-06
42	0x361a1341	2.2958995e-06
43	0x3678cecc	3.7075251e-06
44	0x3612bb59	2.1864746e-06
45	0x3614ac81	2.215413e-06
46	0x3667aba9	3.4521602e-06
47	0x37a58a8b	1.9734047e-05

exp_avg f4 [12]
0	0xb97bf362	-0.00024027893
1	0xb80a1f06	-3.2930657e-05
2	0xb9309ce9	-0.00016843122
3	0xb947bc03	-0.00019048159
4	0xad93e3bd	-1.6813101e-11
5	0x2db2d6bc	2.0331618e-11
6	0x2dbc4cd8	2.1407251e-11
7	0x2d8341cc	1.4922195e-11
8	0xbc36d363	-0.011158797
9	0xbb82a547	-0.0039869878
10	0xbb971c7d	-0.0046115504
11	0x3b97f9e3	0.004637943

exp_avg_sq f4 [12]
0	0x3586af66	1.0034826e-06
1	0x35d7c1ae	1.6075116e-06
2	0x348ed68a	2.660566e-07
3	0x34b5f68c	3.3893264e-07
4	0x1e3b8f67	9.9293525e-21
5	0x1e171963	7.999123e-21
6	0x1ef14560	2.554556e-20
7	0x1f13f5f2	3.1331902e-20
8	0x39a0739a	0.00030603708
9	0x385be628	5.242802e-05
10	0x385b2d6d	5.2255975e-05
11	0x39228ba1	0.0001550154

exp_avg f4 [4, 4]
0	0xba1acd0d	-0.0005905189
1	0x3b0fc4df	0.0021937413
2	0x3a8804fe	0.0010377464
3	0xbb503930	-0.0031772368
4	0xba83e3fd	-0.0010062453
5	0x39b021ee	0.00033594616
6	0xb9a0d482	-0.0003067591
7	0xb9e8ec3a	-0.0004442649
8	0x3b110fb2	0.00221346
9	0xbb2e450e	-0.0026591453
10	0xba0975d1	-0.0005243691
11	0x3b83b6c6	0.004019591
12	0xb97702f8	-0.00023556862
13	0x3a83d7af	0.0010058786
14	0x3a0883a2	0.0005207603
15	0xbab50da5	-0.001381327

exp_avg_sq f4 [4, 4]
0	0x36a49726	4.905177e-06
1	0x374bbdb4	1.2143912e-05
2	0x369e3e28	4.716003e-06
3	0x37cc368a	2.4344092e-05
4	0x379b4961	1.851161e-05
5	0x36a85af8	5.0173803e-06
6	0x36e779f7	6.898535e-06
7	0x369a9c9b	4.607789e-06
8	0x37732ce9	1.4494385e-05
9	0x37698c16	1.39204985e-05
10	0x36a3f8bb	4.8867346e-06
11	0x380c393e	3.3431912e-05
12	0x35c4cff2	1.4663658e-06
13	0x363b49aa	2.790805e-06
14	0x35c1af7a	1.4430691e-06
15	0x36966e6a	4.4832022e-06

exp_avg f4 [4]
0	0x3baf2cb6	0.005345906
1	0x3b12c377	0.0022394338
2	0xbc1d071f	-0.009584217
3	0x3aedfd60	0.0018157177

exp_avg_sq f4 [4]
0	0x3896d834	7.192828e-05
1	0x3848bcda	4.7859598e-05
2	0x393de4ef	0.00018109729
3	0x3771ed01	1.4419901e-05

exp_avg f4 [12, 4]
0	0xb7f82146	-2.9579398e-05
1	0x38d5206c	0.000101626705
2	0xb830b950	-4.2134256e-05
3	0xb7f238d9	-2.887512e-05
4	0xb7770155	-1.4722657e-05
5	0x383058fd	4.2044547e-05
6	0xb75a43aa	-1.3009567e-05
7	0xb751be56	-1.2501687e-05
8	0xb82bfbbc	-4.1004023e-05
9	0x38bcb300	8.99788e-05
10	0xb771866e	-1.4396019e-05
11	0xb7de3fb2	-2.6494123e-05
12	0xb7bfeb94	-2.2878674e-05
13	0x3880e926	6.146943e-05
14	0xb7924bc9	-1.7439846e-05
15	0xb7975072	-1.8038063e-05
16	0x37c4f8e4	2.348092e-05
17	0xb76e1cd7	-1.419262e-05
18	0x36e13524	6.711709e-06
19	0xb7a7df81	-2.0012028e-05
20	0xb7138bb1	-8.794407e-06
21	0x36d5c208	6.370483e-06
22	0x36afef3c	5.243257e-06
23	0xb78bf320	-1.6683305e-05
24	0xb7c39314	-2.33143e-05
25	0x3789a5ef	1.6408942e-05
26	0x373912e4	1.1031258e-05
27	0xb81372a5	-3.5154302e-05
28	0xb804260b	-3.1506683e-05
29	0x37b893ff	2.2003425e-05
30	0x36b5fc6b	5.4236057e-06
31	0xb7a2b31b	-1.9395307e-05
32	0xbb155b2c	-0.0022789938
33	0x399090a7	0.00027573595
34	0x3898e37d	7.290298e-05
35	0x3b42e251	0.0029736946
36	0x3ad21d89	0.0016030531
37	0xb94b837f	-0.00019408575
38	0xb8439fc0	-4.66404e-05
39	0xbb10bc08	-0.0022084732
40	0x39836a80	0.00025065616
41	0xb7b20755	-2.1222668e-05
42	0xb6b9c8be	-5.536799e-06
43	0xb9bbcb9b	-0.00035819117
44	0xba3fe429	-0.000732007
45	0x3887ac8a	6.4694395e-05
46	0x3765378f	1.3662399e-05
47	0x3ab0c1cc	0.001348549

exp_avg_sq f4 [12, 4]
0	0x3281dd68	1.511826e-08
1	0x3397a8f8	7.062221e-08
2	0x3232b31b	1.04016875e-08
3	0x31a535a0	4.8082285e-09
4	0x3111c4f3	2.121223e-09
5	0x323e13e5	1.1063979e-08
6	0x30e57127	1.6694103e-09
7	0x303e7259	6.9284095e-10
8	0x3257a369	1.2551802e-08
9	0x334b7d08	4.7378336e-08
10	0x3225feb8	9.66218e-09
11	0x31629419	3.2971512e-09
12	0x318987be	4.002657e-09
13	0x32a7a557	1.9516547e-08
14	0x31192a00	2.2288305e-09
15	0x30be803a	1.3860764e-09
16	0x32c2c8db	2.2675911e-08
17	0x3235fda7	1.05932605e-08
18	0x3122ec5a	2.3708453e-09
19	0x3276acd2	1.4358379e-08
20	0x317ca16c	3.6762584e-09
21	0x30f9bc6c	1.8170687e-09
22	0x305f6a98	8.1278406e-10
23	0x31a39189	4.76047e-09
24	0x326bc2c6	1.3723087e-08
25	0x31f1a31b	7.032566e-09
26	0x316dadb5	3.458678e-09
27	0x32aad901	1.9889287e-08
28	0x318fbdba	4.183417e-09
29	0x310b23d8	2.0247537e-09
30	0x30379aae	6.6794825e-10
31	0x3191bb4b	4.241348e-09
32	0x37c4617e	2.3410419e-05
33	0x352aefcb	6.367888e-07
34	0x338b105d	6.4756684e-08
35	0x384cd39f	4.8834478e-05
36	0x3747a829	1.1900477e-05
37	0x34521a99	1.956745e-07
38	0x32fca14e	2.9410014e-08
39	0x37c11e7c	2.3021588e-05
40	0x34c9578d	3.750287e-07
41	0x32ede932	2.7696476e-08
42	0x31258b1c	2.4089735e-09
43	0x352f1cfc	6.523476e-07
44	0x3699890c	4.5757097e-06
45	0x348f72aa	2.6719255e-07
46	0x32c38f6d	2.276621e-08
47	0x371dfc80	9.416719e-06

exp_avg f4 [12]
0	0xb81c679c	-3.7289792e-05
1	0xb78b5910	-1.6611564e-05
2	0xb8255a53	-3.9423187e-05
3	0xb7cf4d8c	-2.4712434e-05
4	0x2cfe2596	7.223287e-12
5	0x2b0e4a68	5.0551794e-13
6	0x2cd2e741	5.9942333e-12
7	0xac26d82e	-2.3710023e-12
8	0xbaecbe50	-0.0018062089
9	0x3aba9974	0.0014236406
10	0x3961cbfc	0.00021533662
11	0xba894cd2	-0.0010475165

exp_avg_sq f4 [12]
0	0x3277fd19	1.443484e-08
1	0x311756f3	2.2022817e-09
2	0x3230452e	1.0260278e-08
3	0x3186fbc9	3.928538e-09
4	0x1eb79019	1.9435476e-20
5	0x1dc468ba	5.1989053e-21
6	0x1ed919af	2.2986391e-20
7	0x1db26b92	4.7227433e-21
8	0x37b30fbf	2.1345795e-05
9	0x3727d1c4	1.00028155e-05
10	0x34ab2e71	3.1885023e-07
11	0x36942306	4.414821e-06

exp_avg f4 [4, 4]
0	0x3b8cbc44	0.004294904
1	0xbab9f25f	-0.0014186612
2	0x39be47aa	0.00036293018
3	0xba517fd4	-0.0007991765
4	0xb90068c8	-0.00012246065
5	0xb8311208	-4.221688e-05
6	0x38329f44	4.2586835e-05
7	0x38bf9f54	9.137267e-05
8	0xbba505c8	-0.0050360896
9	0x3adefa17	0.0017011788
10	0xb9f229f6	-0.000461891
11	0x3a6a0c74	0.0008928247
12	0x3aca918a	0.0015454751
13	0xba0d8862	-0.0005399046
14	0x38fb1c9c	0.000119739416
15	0xb981d848	-0.0002476594

exp_avg_sq f4 [4, 4]
0	0x38a71b1f	7.968232e-05
1	0x373f6c8a	1.1409758e-05
2	0x35d851e3	1.6117086e-06
3	0x36775503	3.6855351e-06
4	0x380abe0e	3.3078766e-05
5	0x36a0f719	4.7971375e-06
6	0x355ba7ba	8.182793e-07
7	0x36a21eea	4.831575e-06
8	0x38dbd47a	0.000104823106
9	0x377b3d80	1.4975085e-05
10	0x3603bcdb	1.963045e-06
11	0x36b7d9ac	5.4791653e-06
12	0x3734c8e6	1.0775611e-05
13	0x35eb888b	1.7548604e-06
14	0x349387b4	2.747962e-07
15	0x352300a8	6.0723187e-07

exp_avg f4 [4]
0	0x3b8d8f09	0.0043200296
1	0xb9ef4f11	-0.0004564454
2	0xbba581b5	-0.0050508627
3	0x3aad47b8	0.0013220226

exp_avg_sq f4 [4]
0	0x38598d50	5.186844e-05
1	0x37f524a4	2.9223338e-05
2	0x38904323	6.87896e-05
3	0x36d25c24	6.2692143e-06

exp_avg f4 [4, 4]
0	0xb8f184be	-0.00011516501
1	0xb62ae9cf	-2.5468069e-06
2	0x39860c69	0.00025567718
3	0xb8aa8f48	-8.13292e-05
4	0x3888fae7	6.5317196e-05
5	0xb60f7874	-2.1378773e-06
6	0xb8262859	-3.961506e-05
7	0xb800858a	-3.0641946e-05
8	0x00000004	6e-45
9	0x80000004	-6e-45
10	0x00000004	6e-45
11	0x00000004	6e-45
12	0x38177f90	3.6120007e-05
13	0xbaeffa30	-0.0018308815
14	0x3ad34182	0.0016117545
15	0x3935dcc8	0.00017343753

exp_avg_sq f4 [4, 4]
0	0x37023c49	7.76264e-06
1	0x35a82bed	1.252976e-06
2	0x37cb5e87	2.4243504e-05
3	0x34b70186	3.4087515e-07
4	0x359101ac	1.0803828e-06
5	0x3403c8d3	1.2273385e-07
6	0x367f132f	3.8009127e-06
7	0x338479ba	6.168871e-08
8	0x1fedbab0	1.0068225e-19
9	0x21605b4b	7.6014977e-19
10	0x1f15a37a	3.1687202e-20
11	0x1f21076e	3.4099222e-20
12	0x34e5bf4c	4.279376e-07
13	0x37289d97	1.0050272e-05
14	0x36b65082	5.433395e-06
15	0x357c4f31	9.3992554e-07

exp_avg f4 [4]
0	0xb8f6122e	-0.0001173358
1	0x374d86b0	1.2250312e-05
2	0x00000004	6e-45
3	0x3a4a2df7	0.0007712538

exp_avg_sq f4 [4]
0	0x36aa21e3	5.0703397e-06
1	0x354ec474	7.7026857e-07
2	0x205b9053	1.8597774e-19
3	0x36609ee6	3.3471092e-06

exp_avg f4 [4, 4]
0	0x36fc5ff1	7.5213543e-06
1	0x39448ff8	0.00018745649
2	0x80000004	-6e-45
3	0x3867f8b6	5.5306322e-05
4	0xb873eef9	-5.8158275e-05
5	0xb8f51eff	-0.00011688284
6	0x80000004	-6e-45
7	0x3989ed7f	0.00026307625
8	0xb846a742	-4.736265e-05
9	0xb8e55c28	-0.00010936736
10	0x00000004	6e-45
11	0xb97c2f60	-0.00024050241
12	0xb83204f9	-4.244314e-05
13	0x37c565bf	2.353161e-05
14	0x80000004	-6e-45
15	0xb77fc8e6	-1.524596e-05

exp_avg_sq f4 [4, 4]
0	0x371ef450	9.474417e-06
1	0x369ef7e4	4.737625e-06
2	0x1c3145aa	5.8654426e-22
3	0x35013196	4.81284e-07
4	0x36e1bd86	6.727586e-06
5	0x3614c43e	2.2167947e-06
6	0x1a867fa6	5.562733e-23
7	0x34e3fe9f	4.2467306e-07
8	0x35e27b0e	1.6874126e-06
9	0x35a4fe89	1.2293032e-06
10	0x1c7c7a3d	8.3537795e-22
11	0x353d95c4	7.0625924e-07
12	0x3567707b	8.6217887e-07
13	0x34d7e969	4.02167e-07
14	0x19a2b624	1.6823973e-23
15	0x3311cd25	3.394702e-08

exp_avg f4 [4]
0	0x3bbaf69d	0.005705668
1	0x38c70fd0	9.492005e-05
2	0xbbe587f7	-0.0070047337
3	0x3a3e955c	0.0007270181

exp_avg_sq f4 [4]
0	0x38bfbe9b	9.143093e-05
1	0x37d0c90b	2.488915e-05
2	0x38f2431b	0.000115519586
3	0x367606a5	3.6660724e-06

exp_avg f4 [4]
0	0x3b331fee	0.0027332264
1	0x39ba0f3c	0.00035488035
2	0xbaf9524f	-0.0019021722
3	0x3a5a6bce	0.0008332104

exp_avg_sq f4 [4]
0	0x37f272cc	2.8902105e-05
1	0x37a4cc52	1.9645468e-05
2	0x37d5d650	2.5491376e-05
3	0x364019eb	2.8625316e-06

exp_avg f4 [4]
0	0x3b90164f	0.0043971906
1	0xb8af7548	-8.3664956e-05
2	0xbbbf3a63	-0.0058358177
3	0x3aba6726	0.0014221414

exp_avg_sq f4 [4]
0	0x385b9a24	5.2357223e-05
1	0x37e33726	2.708619e-05
2	0x389fd32d	7.6210454e-05
3	0x36e19604	6.7229867e-06

exp_avg f4 [4]
0	0x3b079d7e	0.0020693238
1	0x3a05e530	0.0005107699
2	0xbb85a76d	-0.0040787966
3	0x3a54dfb8	0.0008120495

exp_avg_sq f4 [4]
0	0x37a0a56f	1.9150522e-05
1	0x3815feae	3.5761557e-05
2	0x388bd4b0	6.6676526e-05
3	0x36421cfb	2.8925122e-06

exp_avg f4 [4]
0	0x3bacbc4a	0.0052714692
1	0xb9c5b2bc	-0.00037707936
2	0xbbe2688a	-0.0069094347
3	0x3ac32f8d	0.001489149

exp_avg_sq f4 [4]
0	0x38a506d0	7.869082e-05
1	0x38458d04	4.709979e-05
2	0x38e7539e	0.00011030513
3	0x371625e2	8.949517e-06

exp_avg f4 [4]
0	0x3b115d0d	0.0022180707
1	0x3a26c810	0.0006362209
2	0xbb358222	-0.0027695973
3	0xb99c9a38	-0.0002986954

exp_avg_sq f4 [4]
0	0x37b46ac4	2.1507389e-05
1	0x3807f2d4	3.241266e-05
2	0x387b8dfd	5.99753e-05
3	0x351e47cb	5.896406e-07

exp_avg f4 [4]
0	0x3b9bf62e	0.0047595715
1	0xba3a5fce	-0.0007109613
2	0xbbc1492b	-0.005898615
3	0xb9cb8a08	-0.00038822019

exp_avg_sq f4 [4]
0	0x38a2454d	7.73767e-05
1	0x37e0e410	2.680908e-05
2	0x38c6c9ea	9.478985e-05
3	0x35e98fae	1.7401669e-06

exp_avg f4 [12, 4]
0	0xb8d1e0e3	-0.00010007785
1	0x38bf1eec	9.1133494e-05
2	0x3853bb17	5.048056e-05
3	0xb52db20d	-6.470662e-07
4	0x38a86923	8.0304475e-05
5	0xb8cec520	-9.859563e-05
6	0xb7bffa68	-2.2885579e-05
7	0x36c2ab2a	5.8015767e-06
8	0xb951d66c	-0.00020011672
9	0x39df6af3	0.00042613558
10	0xb915b1c5	-0.00014275972
11	0xb76fe3c8	-1.4298545e-05
12	0xb945cded	-0.00018864097
13	0x3a1b3760	0.0005921032
14	0xb9a98a70	-0.00032337336
15	0xb7cc239d	-2.4335279e-05
16	0xb9af8947	-0.0003348088
17	0x38a72ab2	7.971133e-05
18	0x39e9eaa8	0.00044616056
19	0xb7dd74dc	-2.639967e-05
20	0x39a4ee60	0.0003145812
21	0xb8a26571	-7.743657e-05
22	0xb9d62643	-0.00040845768
23	0x37aba8cb	2.0463389e-05
24	0xb98178af	-0.00024694714
25	0x38e5f267	0.00010964722
26	0x39a010ae	0.00030530005
27	0xb81d265b	-3.746744e-05
28	0x38e14df7	0.00010743358
29	0x38b339e2	8.546167e-05
30	0xb94c227e	-0.00019467805
31	0xb80259a2	-3.1077892e-05
32	0x39af9da5	0.00033496055
33	0xbabba776	-0.0014316875
34	0x3a46d253	0.00075844413
35	0x392cb07c	0.00016468944
36	0xbb105576	-0.0022023595
37	0x3be01408	0.0068383254
38	0xbb1cf7f1	-0.0023951496
39	0xba79fc2c	-0.0009536173
40	0xb91e9db1	-0.00015126799
41	0x38233c84	3.8918588e-05
42	0x397da088	0.00024187763
43	0xb80bf172	-3.3365046e-05
44	0x3ab72bab	0.0013974806
45	0xbaf67490	-0.0018803049
46	0xba8f5d58	-0.0010937853
47	0x3a15aae9	0.00057093665
