Saved_models/best_model_Male.pt (torch, 90074 bytes, 198 tensors)

encoder_input_layer.weight f4 [4, 5]
0.013934194 0.22363216 -0.37602586 -0.36184466 -0.17875561 -0.09296264 -0.1960608 0.26505315
-0.13260575 0.0762035 0.89392686 0.8998906 0.49033874 0.62060016 0.70095783 -0.58277786
-0.39434376 -0.22561036 -0.79726607 -0.69390863
00000000: 3f4c 643c d4ff 643e 7686 c0be b443 b9be
00000010: b60b 37be 3263 bebd 2ac4 48be 0cb5 873e
00000020: cdc9 07be 9510 9c3d 64d8 643f 3b5f 663f
00000030: ae0d fb3e a7df 1e3f f971 333f ee30 15bf
00000040: 6de7 c9be 6706 67be a119 4cbf ffa3 31bf

encoder_input_layer.bias f4 [4]
0.31259328 1.6486001 -1.8546691 1.9861712
00000000: 3a0c a03e 5405 d33f cc65 edbf dc3a fe3f

decoder_input_layer.weight f4 [4, 1]
-0.78869766 1.1349177 -1.065255 1.1277652
00000000: 17e8 49bf fc44 913f 475a 88bf 9c5a 903f

decoder_input_layer.bias f4 [4]
-2.063406 1.5371403 -2.1354852 1.4774457
00000000: d80e 04c0 03c1 c43f caab 08c0 f11c bd3f

positional_encoding_layer_enc.pe f4 [1, 9, 4]
0.0 1.0 0.0 1.0 0.84147096 0.54030234 0.009999833 0.99995
0.9092974 -0.41614684 0.019998666 0.9998 0.14112 -0.9899925 0.0299955 0.99955004
-0.7568025 -0.6536436 0.039989334 0.9992001 -0.9589243 0.2836622 0.049979165 0.99875027
-0.2794155 0.96017027 0.059964005 0.99820054 0.6569866 0.75390226 0.06994285 0.997551
0.98935825 -0.14550003 0.07991469 0.9968017
00000000: 0000 0000 0000 803f 0000 0000 0000 803f
00000010: a46a 573f 4151 0a3f 57d6 233c b9fc 7f3f
00000020: b7c7 683f 3311 d5be 3ed4 a33c e5f2 7f3f
00000030: c381 103e 2670 7dbf 1fb9 f53c 83e2 7f3f
00000040: cfbd 41bf 3055 27bf dbcb 233d 94cb 7f3f
00000050: 107c 75bf 2c3c 913e f4b6 4c3d 19ae 7f3f
00000060: 8c0f 8fbe b8cd 753f d19c 753d 128a 7f3f
00000070: 4630 283f bdff 403f 323e 8f3d 815f 7f3f
00000080: 9546 7d3f f6fd 14be 50aa a33d 652e 7f3f

positional_encoding_layer_dec.pe f4 [1, 1, 4]
0.0 1.0 0.0 1.0
00000000: 0000 0000 0000 803f 0000 0000 0000 803f

encoder.layers.0.self_attn.in_proj_weight f4 [12, 4]
-0.0022925683 -1.4068451 0.96052766 -1.5835828 -0.24796867 -0.95127743 -0.5099544 0.05745
0.66001916 1.4642844 -1.1191728 1.1831589 0.5957482 0.290445 0.28754693 0.5692859
0.82323486 0.92886823 -0.67309386 -1.3799356 0.6694946 0.34065852 0.909725 1.5104203
-0.89092946 -0.4669076 0.25909647 1.3990797 -0.93042773 0.30114284 0.25814757 -1.5827706
-0.80062044 -0.06086474 0.7684016 -2.33353 -0.102716714 -0.34857503 0.1983246 0.63685215
0.5681415 0.43592924 -0.13109723 -1.1492206 0.58098024 0.5457061 -0.063020185 0.70686543
00000000: ea3e 16bb 8013 b4bf 24e5 753f d7b2 cabf
00000010: 80eb 7dbe eb86 73bf 5f8c 02bf b150 6b3d
00000020: 04f7 283f ac6d bb3f 0e41 8fbf c071 973f
00000030: f482 183f 35b5 943e 5a39 933e b9bc 113f
00000040: 85bf 523f 4fca 6d3f e14f 2cbf bba1 b0bf
00000050: 0064 2b3f cb6a ae3e bde3 683f 7455 c13f
00000060: f413 64bf 830e efbe 4ba8 843e 0b15 b33f
00000070: 8330 6ebf 652f 9a3e eb2b 843e 3a98 cabf
00000080: 76f5 4cbf 4e4d 79bd f8b5 443f 8e58 15c0
00000090: 245d d2bd 6d78 b2be 9b15 4b3e be08 233f
000000a0: b971 113f 1e32 df3e 5a3e 06be a919 93bf
000000b0: 1fbb 143f 65b3 0b3f ba10 81bd 22f5 343f

encoder.layers.0.self_attn.in_proj_bias f4 [12]
-0.14664266 -1.2973988 0.18893158 0.75289637 -0.12536584 0.26340532 0.08706859 -0.27376917
-2.2232838 0.4594708 -0.9365642 0.43135062
00000000: 7e29 16be 2a11 a6bf 4877 413e d1bd 403f
00000010: e75f 00be 10dd 863e 0451 b23d 792b 8cbe
00000020: 484a 0ec0 c23f eb3e acc2 6fbf fdd9 dc3e

encoder.layers.0.self_attn.out_proj.weight f4 [4, 4]
-1.143325 0.1701393 -0.9309117 -0.071302935 -0.312648 0.40987226 -0.52039015 -0.8738303
2.0333014 0.034651857 0.25557002 -0.85235476 -1.5194744 0.30198374 -0.64821 0.3435169
00000000: 7958 92bf ff38 2e3e 3b50 6ebf 4607 92bd
00000010: 6613 a0be c7da d13e 4a38 05bf 58b3 5fbf
00000020: 9c21 0240 1bef 0d3d 13da 823e ec33 5abf
00000030: 237e c2bf 9d9d 9a3e 17f1 25bf 72e1 af3e

encoder.layers.0.self_attn.out_proj.bias f4 [4]
0.55900526 0.52516735 -1.4441624 0.48155048
00000000: f81a 0f3f 5e71 063f 50da b8bf c98d f63e

encoder.layers.0.linear1.weight f4 [4, 4]
0.14284796 0.10961786 0.019776328 0.04242065 -0.5032051 -0.30076975 -0.16426086 -0.28079486
1.0190859 -0.00668577 -1.2271237 1.1857749 -0.8801479 0.6015317 0.46984926 -0.3285125
00000000: bc46 123e 547f e03d f701 a23c 47c1 2d3d
00000010: 0dd2 00bf 7efe 99be 0034 28be 58c4 8fbe
00000020: 6871 823f 4e14 dbbb 6412 9dbf 79c7 973f
00000030: 5f51 61bf fbfd 193f 1590 f03e ca32 a8be

encoder.layers.0.linear1.bias f4 [4]
-0.41627562 -0.5235795 0.41640893 -0.5669857
00000000: 1422 d5be 4e09 06bf 8d33 d53e fa25 11bf

encoder.layers.0.linear2.weight f4 [4, 4]
0.092417575 -0.34522432 -0.73657626 0.89435214 -0.45264855 -0.23176828 -1.9096209 -0.25402722
-0.25929198 -0.23007761 0.19890666 -0.3191583 -0.118873216 -0.26445496 3.115786 -0.08424198
00000000: 6d45 bd3d 3ec1 b0be 4390 3cbf 43f4 643f
00000010: 8dc1 e7be aa54 6dbe 756e f4bf db0f 82be
00000020: ebc1 84be 7799 6bbe 30ae 4b3e b768 a3be
00000030: cd73 f3bd a466 87be 0a69 4740 0f87 acbd

encoder.layers.0.linear2.bias f4 [4]
0.6888101 -1.0709548 -0.18964803 1.1065137
00000000: dc55 303f 0c15 89bf 1833 42be 3ea2 8d3f

encoder.layers.0.norm1.weight f4 [4]
1.3333092 0.22140574 2.1650581 0.94854593
00000000: e0a9 aa3f 30b8 623e 5090 0a40 e8d3 723f

encoder.layers.0.norm1.bias f4 [4]
0.56477916 -0.65246755 -0.98414874 0.7203662
00000000: 5e95 103f 1d08 27bf 2cf1 7bbf eb69 383f

encoder.layers.0.norm2.weight f4 [4]
0.59716135 0.14282651 0.95173085 3.9381564
00000000: 91df 183f 1d41 123e a2a4 733f c10a 7c40

encoder.layers.0.norm2.bias f4 [4]
-0.47451994 -0.2376607 -0.8040493 2.6294823
00000000: 47f4 f2be 545d 73be 2dd6 4dbf 7049 2840

encoder.layers.1.self_attn.in_proj_weight f4 [12, 4]
0.4083187 -0.06922034 1.1953621 -0.62893736 -0.8849438 0.0077025606 -1.0129542 0.7136262
0.22214392 -0.277289 0.096288115 0.22221163 0.27444753 -0.016614985 -0.010231701 0.67542636
0.6179478 0.58803976 0.048435666 -1.2036561 0.06829966 0.38078216 0.303908 1.6178629
-0.48430288 -0.4664524 -0.0024618602 0.16738193 -0.47354642 0.21428591 0.024286976 0.71178836
-0.16769257 -0.8929251 -0.104772724 -0.094031885 0.4223466 -0.18458733 -0.009036885 0.09720434
-0.078043304 0.76288015 -0.25349873 0.0041797613 -1.1563181 -1.8093319 -2.161159 1.8792495
00000000: 260f d13e 65c3 8dbd a001 993f 0a02 21bf
00000010: ad8b 62bf c365 fc3b 7ca8 81bf 35b0 363f
00000020: b279 633e d3f8 8dbe b432 c53d 728b 633e
00000030: 6384 8c3e 261c 88bc dda2 27bc bee8 2c3f
00000040: d431 1e3f c689 163f 7a64 463d 6711 9abf
00000050: b1e0 8b3d e1f5 c23e d499 9b3e 2216 cf3f
00000060: 8cf6 f7be d9d2 eebe 2957 21bb 2b66 2b3e
00000070: ad74 f2be c46d 5b3e 7bf5 c63c c337 363f
00000080: 9ab7 2bbe bd96 64bf 1593 d6bd ca93 c0bd
00000090: d03d d83e 7604 3dbe 710f 14bc 1213 c73d
000000a0: 2bd5 9fbd 1d4c 433f 96ca 81be 61f6 883b
000000b0: 3b02 94bf 3098 e7bf 6e50 0ac0 3f8b f03f

encoder.layers.1.self_attn.in_proj_bias f4 [12]
-0.16183868 0.42559952 -0.2516912 -0.15779743 -0.09181435 0.0023795785 0.09075837 0.00024246893
0.033563655 -0.26385832 -0.048614327 1.5539689
00000000: 0ab9 25be 2ee8 d93e abdd 80be a695 21be
00000010: 2909 bcbd b4f2 1b3b 86df b93d 423f 7e39
00000020: 0b7a 093d 7018 87be d11f 47bd 74e8 c63f

encoder.layers.1.self_attn.out_proj.weight f4 [4, 4]
0.8643279 0.36241713 0.20497477 -1.2022544 0.22189863 0.08726102 0.020890078 -0.038721543
0.8173326 0.2620953 0.22053687 -1.1768628 -2.6424987 -0.61395276 -0.6328051 2.6147895
00000000: 9844 5d3f bd8e b93e e8e4 513e 79e3 99bf
00000010: 6539 633e e8b5 b23d ab21 ab3c 7b9a 1ebd
00000020: b63c 513f 5b31 863e 6bd4 613e 71a3 96bf
00000030: b31e 29c0 022c 1dbf 84ff 21bf b658 2740

encoder.layers.1.self_attn.out_proj.bias f4 [4]
-0.53961015 -0.005916263 -1.0952146 1.9730206
00000000: e423 0abf 36dd c1bb fe2f 8cbf f08b fc3f

encoder.layers.1.linear1.weight f4 [4, 4]
0.58381385 0.2960028 -0.027641002 -0.20159112 -0.50791115 0.7412485 0.4064847 -0.34184805
0.061995793 0.49738437 0.34449816 0.9955241 -0.2315727 -0.13660394 0.50020033 -0.11423461
00000000: d374 153f ae8d 973e 626f e2bc e76d 4ebe
00000010: 7706 02bf 76c2 3d3f c31e d03e b506 afbe
00000020: 4def 7d3d 2aa9 fe3e 1062 b03e abda 7e3f
00000030: 6521 6dbe e7e1 0bbe 210d 003f d6f3 e9bd

encoder.layers.1.linear1.bias f4 [4]
-0.5187936 -1.1734073 -0.7950586 -0.8976292
00000000: a8cf 04bf 3632 96bf f688 4bbf 07cb 65bf

encoder.layers.1.linear2.weight f4 [4, 4]
0.3109253 -1.0523788 -1.357231 0.0081906 -0.101411715 -0.60307235 -0.15691821 -0.015525516
-0.2618096 -0.39042053 -0.33891457 0.07816329 -0.29521245 1.7960216 1.9199946 0.99095505
00000000: 9a31 9f3e 59b4 86bf bfb9 adbf de31 063c
00000010: f2b0 cfbd f362 1abf 2baf 20be bc5e 7ebc
00000020: e80b 86be 33e5 c7be 3686 adbe 1314 a03d
00000030: 1626 97be 09e4 e53f 62c2 f53f 3baf 7d3f

encoder.layers.1.linear2.bias f4 [4]
-1.283564 -0.032517307 -0.036468625 1.3866341
00000000: d34b a4bf de30 05bd 2060 15bd 3a7d b13f

encoder.layers.1.norm1.weight f4 [4]
2.250616 0.18508035 1.4571989 3.434026
00000000: 180a 1040 b485 3d3e 7e85 ba3f 15c7 5b40

encoder.layers.1.norm1.bias f4 [4]
-1.3906043 -0.0746928 -0.35692433 2.5048122
00000000: 52ff b1bf 8af8 98bd c9be b6be d84e 2040

encoder.layers.1.norm2.weight f4 [4]
0.2778444 -0.06697121 -0.0348841 0.49500948
00000000: 9f41 8e3e 3428 89bd a1e2 0ebd e271 fd3e

encoder.layers.1.norm2.bias f4 [4]
0.31712478 -0.0016456944 -0.010326842 -0.81681055
00000000: 2e5e a23e 57b4 d7ba ea31 29bc 7f1a 51bf

decoder.layers.0.self_attn.in_proj_weight f4 [12, 4]
-0.11795229 -0.12023488 -0.5495124 -0.5287456 -0.095823705 0.0079193115 -0.27818543 0.23068023
-0.55117095 -0.041327298 0.5385322 -0.24978182 0.5529743 0.22177297 -0.5526422 0.3874464
-0.070664406 -0.27336726 0.4896856 -0.49485525 0.065710604 -0.12821162 0.4373029 0.1709404
0.29424822 0.21626484 -0.14726007 -0.12878525 -0.50464475 0.3318104 0.4862103 0.41900045
-1.4410448 -0.13131437 0.7171139 -0.18421136 -0.68058306 -0.8151501 0.19202434 0.6992044
0.14275967 1.3312215 1.6610196 0.22266501 0.5679178 0.45976868 -0.04994276 -0.051727142
00000000: f890 f1bd b43d f6bd d8ac 0cbf df5b 07bf
00000010: 383f c4bd 00c0 013c 526e 8ebe 7037 6c3e
00000020: 8a19 0dbf d046 29bd 3fdd 093f cec6 7fbe
00000030: b98f 0d3f 7418 633e f679 0dbf 605f c63e
00000040: 80b8 90bd cbf6 8bbe 12b8 fa3e ab5d fdbe
00000050: 4893 863d e849 03be 2ae6 df3e 000b 2f3e
00000060: b4a7 963e 8874 5d3e 58cb 16be 48e0 03be
00000070: 6630 01bf 0ee3 a93e 8ef0 f83e 3a87 d63e
00000080: 2874 b8bf 4677 06be c794 373f e7a1 3cbe
00000090: b13a 2ebf adad 50bf 07a2 443e 0fff 323f
000000a0: 972f 123e 7765 aa3f 4a9c d43f 4c02 643e
000000b0: 1063 113f cd66 eb3e c890 4cbd d7df 53bd

decoder.layers.0.self_attn.in_proj_bias f4 [12]
0.0 0.0 0.0 0.0 0.0 0.0 0.0 0.0
-0.68391514 -0.2664352 -0.42479473 0.19245173
00000000: 0000 0000 0000 0000 0000 0000 0000 0000
00000010: 0000 0000 0000 0000 0000 0000 0000 0000
00000020: 1015 2fbf 326a 88be b27e d9be 1112 453e

decoder.layers.0.self_attn.out_proj.weight f4 [4, 4]
0.3395755 0.101112895 0.14474075 -0.13700354 0.08566161 -0.51109457 0.36577788 -0.13124414
-0.13456048 -0.05322147 -0.0475354 -0.12968633 -0.10389035 0.12967692 0.0798108 -0.07385718
00000000: d7dc ad3e 4714 cf3d eb36 143e a84a 0cbe
00000010: 5b6f af3d 18d7 02bf 3d47 bb3e dd64 06be
00000020: 39ca 09be c2fe 59bd 7bb4 42bd 7ecc 04be
00000030: 77c4 d4bd 07ca 043e d873 a33d 6f42 97bd

decoder.layers.0.self_attn.out_proj.bias f4 [4]
-0.03085964 -0.0031926075 0.010909214 0.008571974
00000000: 5bcd fcbc 113b 51bb 8fbc 323c 7771 0c3c

decoder.layers.0.multihead_attn.in_proj_weight f4 [12, 4]
-0.20546097 -0.09068465 0.0066983104 0.50508946 0.076447845 0.5484976 0.37459588 -0.3871504
0.27465153 -0.43288368 -0.25953886 0.18011266 0.20220053 0.45941895 -0.19713241 0.0009803176
0.31526375 -0.5922206 0.44273347 -0.5063845 0.008440018 -0.10411358 -0.32252002 0.08093792
0.5063823 -0.17900842 -0.36356193 -0.22647911 -0.60695195 0.27642125 -0.29410025 -0.40866083
0.01955225 0.039034836 0.024829816 0.036100484 0.0009057297 -0.020825995 -0.042341493 0.013837891
-0.013854285 -0.007591328 -0.016791224 -0.025881074 -0.044373862 -0.056219134 0.015120025 0.031239675
00000000: 5c64 52be e0b8 b9bd 807d db3b 8b4d 013f
00000010: b090 9c3d 576a 0c3f 08cb bf3e 9438 c6be
00000020: 209f 8c3e eea2 ddbe 47e2 84be 746f 383e
00000030: a80d 4f3e f638 eb3e 14dd 49be 007e 803a
00000040: 406a a13e c59b 17bf f6ad e23e 6aa2 01bf
00000050: 0048 0a3c 8039 d5bd 5821 a5be c8c2 a53d
00000060: 45a2 013f fc4d 37be ca24 babe 24ea 67be
00000070: 3461 1bbf 1687 8d3e 4f94 96be fe3b d1be
00000080: 0a2c a03c fee2 1f3d e667 cb3c 1ade 133d
00000090: 7e6e 6d3a 479b aabc 466e 2dbd 52b8 623c
000000a0: 15fd 62bc adc0 f8bb c08d 89bc 8c04 d4bc
000000b0: 5ec1 35bd 0946 66bd fbb9 773c 59ea ff3c

decoder.layers.0.multihead_attn.in_proj_bias f4 [12]
0.0 0.0 0.0 0.0 0.0 0.0 0.0 0.0
-0.0053280937 -0.012726102 0.0034381733 -0.01056292
00000000: 0000 0000 0000 0000 0000 0000 0000 0000
00000010: 0000 0000 0000 0000 0000 0000 0000 0000
00000020: 4a97 aebb 2481 50bc fa52 613b 1910 2dbc

decoder.layers.0.multihead_attn.out_proj.weight f4 [4, 4]
0.02496086 0.027581591 -0.0098060835 0.024163796 -0.012719057 -0.011716724 0.04667039 0.00785588
0.0039602844 0.0041173366 -0.0004036337 0.0006874717 0.0060678436 -0.012328153 -0.020037297 -0.017420558
00000000: b87a cc3c caf2 e13c b2a9 20bc 27f3 c53c
00000010: 9763 50bc 81f7 3fbc 7329 3f3d f3b5 003c
00000020: 46c5 813b b9ea 863b cc9e d3b9 7237 343a
00000030: c3d4 c63b 05fc 49bc 4225 a4bc 8fb5 8ebc

decoder.layers.0.multihead_attn.out_proj.bias f4 [4]
0.019743212 -0.014704792 -0.0016355047 -0.023508111
00000000: 84bc a13c 5eec 70bc 6e5e d6ba 1594 c0bc

decoder.layers.0.linear1.weight f4 [4, 4]
-0.26938522 -1.1875054 0.7945949 0.6659423 0.5972583 0.33264968 -0.020018052 -0.13637792
0.1394658 0.17081212 -0.14964113 -0.21713403 0.6296199 0.08561551 -0.241188 -0.28989026
00000000: dcec 89be 2d00 98bf 926a 4b3f 327b 2a3f
00000010: ece5 183f 0f51 aa3e e6fc a3bc a7a6 0bbe
00000020: 1fd0 0e3e 5fe9 2e3e 863b 19be 6258 5ebe
00000030: c52e 213f 2f57 af3d fdf9 76be 7f6c 94be

decoder.layers.0.linear1.bias f4 [4]
-1.6678767 -1.1754382 -1.3426161 -1.1398908
00000000: fc7c d5bf c274 96bf d8da abbf f1e7 91bf

decoder.layers.0.linear2.weight f4 [4, 4]
0.18079121 0.21135506 -0.35121694 0.85543525 -1.7716013 -0.48962295 0.09346889 -0.034244638
0.08151745 -0.5443282 -0.24772616 -0.07385916 -0.86567897 0.18431269 0.37649217 0.9497538
00000000: 5521 393e 766d 583e b5d2 b3be cefd 5a3f
00000010: d5c3 e2bf dcaf fabe 9e6c bf3d 1b44 0cbd
00000020: 9ff2 a63d 1859 0bbf edab 7dbe 7943 97bd
00000030: 239d 5dbf 77bc 3c3e 95c3 c03e 1123 733f

decoder.layers.0.linear2.bias f4 [4]
-0.0124380505 -0.2296457 0.0011054648 0.010643274
00000000: f7c8 4bbc 3e28 6bbe 3ee5 903a 2061 2e3c

decoder.layers.0.norm1.weight f4 [4]
2.5974264 2.8645551 2.2146757 2.7086623
00000000: 3c3c 2640 df54 3740 3fbd 0d40 b95a 2d40

decoder.layers.0.norm1.bias f4 [4]
0.5380948 0.18301706 -1.123276 0.3948199
00000000: 95c0 093f d368 3b3e 82c7 8fbf d525 ca3e

decoder.layers.0.norm2.weight f4 [4]
2.315764 0.9873917 2.3640747 1.4781275
00000000: 7a35 1440 b4c5 7c3f 004d 1740 4833 bd3f

decoder.layers.0.norm2.bias f4 [4]
0.5169452 0.6357444 -0.9527369 -0.20028846
00000000: 8556 043f 25c0 223f 91e6 73bf 6b18 4dbe

decoder.layers.0.norm3.weight f4 [4]
3.0545454 -0.1551543 2.7740123 1.6383488
00000000: ac7d 4340 c5e0 1ebe 6b89 3140 6ab5 d13f

decoder.layers.0.norm3.bias f4 [4]
0.37378186 -0.11062457 0.104772955 0.120283276
00000000: 5660 bf3e 228f e2bd 3493 d63d 1457 f63d

decoder.layers.1.self_attn.in_proj_weight f4 [12, 4]
-0.11795229 -0.12023488 -0.5495124 -0.5287456 -0.095823705 0.0079193115 -0.27818543 0.23068023
-0.55117095 -0.041327298 0.5385322 -0.24978182 0.5529743 0.22177297 -0.5526422 0.3874464
-0.070664406 -0.27336726 0.4896856 -0.49485525 0.065710604 -0.12821162 0.4373029 0.1709404
0.29424822 0.21626484 -0.14726007 -0.12878525 -0.50464475 0.3318104 0.4862103 0.41900045
0.042158153 -0.76212215 0.054825805 0.049729925 -0.09593111 0.5131141 -0.07240591 -0.2782997
0.005854738 -0.210789 0.005231658 0.04846818 0.017722603 -0.3721979 0.010650921 -0.0086027095
00000000: f890 f1bd b43d f6bd d8ac 0cbf df5b 07bf
00000010: 383f c4bd 00c0 013c 526e 8ebe 7037 6c3e
00000020: 8a19 0dbf d046 29bd 3fdd 093f cec6 7fbe
00000030: b98f 0d3f 7418 633e f679 0dbf 605f c63e
00000040: 80b8 90bd cbf6 8bbe 12b8 fa3e ab5d fdbe
00000050: 4893 863d e849 03be 2ae6 df3e 000b 2f3e
00000060: b4a7 963e 8874 5d3e 58cb 16be 48e0 03be
00000070: 6630 01bf 0ee3 a93e 8ef0 f83e 3a87 d63e
00000080: 07ae 2c3d 701a 43bf 0691 603d 9bb1 4b3d
00000090: 8877 c4bd 725b 033f 8d49 94bd 4c7d 8ebe
000000a0: 1ad9 bf3b 12d9 57be 546e ab3b 9286 463d
000000b0: fe2e 913c b990 bebe 3381 2e3c 61f2 0cbc

decoder.layers.1.self_attn.in_proj_bias f4 [12]
0.0 0.0 0.0 0.0 0.0 0.0 0.0 0.0
-0.12434983 0.045898493 -0.023808917 -0.05713975
00000000: 0000 0000 0000 0000 0000 0000 0000 0000
00000010: 0000 0000 0000 0000 0000 0000 0000 0000
00000020: 20ab febd 0f00 3c3d eb0a c3bc 5f0b 6abd

decoder.layers.1.self_attn.out_proj.weight f4 [4, 4]
-0.009960695 -0.040765435 0.0162132 -0.011298734 -0.026307348 -0.63563037 0.032551706 -0.006910822
0.015010875 -0.042780682 -0.00032391894 -0.002618386 0.017760174 0.1322435 0.006453191 -0.023725001
00000000: 2f32 23bc a8f9 26bd 8bd1 843c 531e 39bc
00000010: 8282 d7bc acb8 22bf f054 053d 2d74 e2bb
00000020: 2cf0 753c cc3a 2fbd aad3 a9b9 3a99 2bbb
00000030: c97d 913c d76a 073e 4a75 d33b ef5a c2bc

decoder.layers.1.self_attn.out_proj.bias f4 [4]
0.0061403317 -0.034297485 -0.027169185 -0.039553907
00000000: d634 c93b 857b 0cbd e991 debc 4703 22bd

decoder.layers.1.multihead_attn.in_proj_weight f4 [12, 4]
-0.20546097 -0.09068465 0.0066983104 0.50508946 0.076447845 0.5484976 0.37459588 -0.3871504
0.27465153 -0.43288368 -0.25953886 0.18011266 0.20220053 0.45941895 -0.19713241 0.0009803176
0.31526375 -0.5922206 0.44273347 -0.5063845 0.008440018 -0.10411358 -0.32252002 0.08093792
0.5063823 -0.17900842 -0.36356193 -0.22647911 -0.60695195 0.27642125 -0.29410025 -0.40866083
-0.036225714 -0.007536304 0.0051760618 -0.01375287 -0.041118696 0.008701088 -0.00035583082 -0.007559585
0.030225499 0.022509182 -0.023768269 0.015243501 0.0163085 0.0022474183 0.013175721 -0.011723891
00000000: 5c64 52be e0b8 b9bd 807d db3b 8b4d 013f
00000010: b090 9c3d 576a 0c3f 08cb bf3e 9438 c6be
00000020: 209f 8c3e eea2 ddbe 47e2 84be 746f 383e
00000030: a80d 4f3e f638 eb3e 14dd 49be 007e 803a
00000040: 406a a13e c59b 17bf f6ad e23e 6aa2 01bf
00000050: 0048 0a3c 8039 d5bd 5821 a5be c8c2 a53d
00000060: 45a2 013f fc4d 37be ca24 babe 24ea 67be
00000070: 3461 1bbf 1687 8d3e 4f94 96be fe3b d1be
00000080: 6a61 14bd 1af3 f6bb f49b a93b b853 61bc
00000090: 146c 28bd 028f 0e3c ce8e bab9 65b6 f7bb
000000a0: 779b f73c 2d65 b83c acb5 c2bc e1bf 793c
000000b0: 6799 853c 6c49 133b fbde 573c 9015 40bc

decoder.layers.1.multihead_attn.in_proj_bias f4 [12]
0.0 0.0 0.0 0.0 0.0 0.0 0.0 0.0
0.0068605207 0.0065803416 -0.008385307 -0.008867284
00000000: 0000 0000 0000 0000 0000 0000 0000 0000
00000010: 0000 0000 0000 0000 0000 0000 0000 0000
00000020: 38ce e03b e89f d73b 8762 09bc 1648 11bc

decoder.layers.1.multihead_attn.out_proj.weight f4 [4, 4]
-0.06474047 -0.06389707 0.038284604 0.041611385 -0.0916383 -0.09493289 0.018898003 0.038386006
-0.097267546 -0.09744174 0.06839516 0.0754909 -0.08391623 -0.08123967 0.06935159 0.065791436
00000000: a796 84bd 78dc 82bd 51d0 1c3d b370 2a3d
00000010: dcac bbbd 2d6c c2bd fccf 9a3c a53a 1d3d
00000020: 3534 c7bd 898f c7bd c312 8c3d f99a 9a3d
00000030: 46dc abbd fc60 a6bd 3508 8e3d a9bd 863d

decoder.layers.1.multihead_attn.out_proj.bias f4 [4]
-0.041382384 0.054716624 0.032347597 0.019103786
00000000: 9380 29bd 8a1e 603d ea7e 043d 8b7f 9c3c

decoder.layers.1.linear1.weight f4 [4, 4]
0.312828 -0.08584006 -1.3776717 0.6334256 0.06481405 -0.6453876 -1.8917044 0.32364696
0.14713168 0.012677359 -0.5934217 0.019525778 0.062069006 -0.8055635 -2.1269145 0.1801045
00000000: fe2a a03e eacc afbd 8c57 b0bf 2e28 223f
00000010: 3bbd 843d 1f38 25bf 5f23 f2bf 0eb5 a53e
00000020: b0a9 163e b3b4 4f3c 7cea 17bf 86f4 9f3c
00000030: 123c 7e3d 6939 4ebf 5e1f 08c0 506d 383e

decoder.layers.1.linear1.bias f4 [4]
-0.025352467 -0.71695125 -0.54382646 -0.41248658
00000000: faaf cfbc 1e8a 37bf 3638 0bbf 7131 d3be

decoder.layers.1.linear2.weight f4 [4, 4]
0.24374081 -0.68453413 -0.6772743 -0.82475203 0.2059617 0.3991583 0.034801684 -0.014892853
0.79792666 -0.22743611 -0.16521353 0.03004772 -0.30676022 0.02000719 -0.06400315 0.13461925
00000000: 3197 793e a13d 2fbf d961 2dbf f322 53bf
00000010: a0e7 523e 7a5e cc3e 368c 0e3d 2701 74bc
00000020: ec44 4c3f 03e5 68be bc2d 29be a326 f63c
00000030: ad0f 9dbe 1ee6 a33c 1514 83bd a1d9 093e

decoder.layers.1.linear2.bias f4 [4]
-0.003437603 -0.056761246 -0.038295373 0.003213015
00000000: 6849 61bb 7b7e 68bd 9cdb 1cbd 7291 523b

decoder.layers.1.norm1.weight f4 [4]
3.0884368 0.2547856 2.900941 1.5275189
00000000: f3a8 4540 4273 823e 04a9 3940 bd85 c33f

decoder.layers.1.norm1.bias f4 [4]
-1.5893648 0.2191611 1.0130428 1.457985
00000000: 4e70 cbbf c46b 603e 63ab 813f 419f ba3f

decoder.layers.1.norm2.weight f4 [4]
3.1968443 -2.6684835 1.4024398 1.9107116
00000000: 1999 4c40 6fc8 2ac0 2683 b33f 3392 f43f

decoder.layers.1.norm2.bias f4 [4]
-2.428243 -0.0016807078 1.6764238 -0.07258064
00000000: 5568 1bc0 324b dcba 0e95 d63f 29a5 94bd

decoder.layers.1.norm3.weight f4 [4]
0.46061608 -0.012647468 0.005958931 1.1732457
00000000: dfd5 eb3e 5337 4fbc 2343 c33b ea2c 963f

decoder.layers.1.norm3.bias f4 [4]
0.762348 -0.008850813 0.0050829495 -0.1808399
00000000: 3d29 433f 0003 11bc df8e a63b 182e 39be

linear_mapping.weight f4 [1, 4]
0.014128256 -0.010416084 0.0043371837 0.61235964
00000000: 337a 673c 39a8 2abc ef1e 8e3b 9ac3 1c3f

linear_mapping_with_gender_ind.weight f4 [1, 5]
0.055841506 -0.35157594 0.03514573 0.3096819 0.40299034
00000000: 10ba 643d c301 b4be f8f4 0f3d a08e 9e3e
00000010: c054 ce3e

exp_avg f4 [4, 5]
1.2873598e-10 1.3040428e-10 1.31004e-10 1.3222229e-10 1.3295814e-10 -1.2289765e-11 -1.2679461e-11 -1.2489511e-11
-1.3171106e-11 -1.3014711e-11 -1.4900498e-11 -1.5257403e-11 -1.5211925e-11 -1.4874803e-11 -1.4891297e-11 -2.5352016e-11
-2.6094748e-11 -2.6836002e-11 -2.608303e-11 -2.6319728e-11
00000000: f58b 0d2f 8b61 0f2f 590a 102f 4461 112f
00000010: 6430 122f 2e34 58ad 370f 5fad c2b7 5bad
00000020: 63b5 67ad 0cf5 64ad f010 83ad 9e34 86ad
00000030: 36ce 85ad 14d7 82ad 38fc 82ad aaff dead
00000040: 2688 e5ad 4e0d ecad c36d e5ad c282 e7ad

exp_avg_sq f4 [4, 5]
4.78849e-19 4.865121e-19 4.866117e-19 4.9671865e-19 5.0709423e-19 1.629654e-19 1.585186e-19 1.5771418e-19
1.5698204e-19 1.5665696e-19 1.4859051e-19 1.4844347e-19 1.5170564e-19 1.5708778e-19 1.5853489e-19 9.513946e-20
9.812225e-20 9.063937e-20 9.4826434e-20 9.577333e-20
00000000: cf54 0d21 d197 0f21 579f 0f21 009b 1221
00000010: f5aa 1521 4565 4020 4f25 3b20 3032 3a20
00000020: e954 3920 a9f2 3820 ba6c 2f20 4940 2f20
00000030: 371a 3320 de74 3920 3b2a 3b20 46a4 e01f
00000040: 43af e71f 2304 d61f 10e7 df1f 6d23 e21f

exp_avg f4 [4]
-5.1617426e-11 4.2974383e-12 3.9353815e-12 8.560978e-12
00000000: 0e04 63ae e233 972c c476 8a2c 389b 162d

exp_avg_sq f4 [4]
8.919026e-20 2.5958296e-20 4.1250095e-20 2.3977911e-20
00000000: 3498 d21f 4f2b f51e 4ecc 421f 0877 e21e

exp_avg f4 [4, 1]
-0.027924366 0.1539888 -0.03381344 0.08034871
00000000: a4c1 e4bc 3daf 1d3e f67f 0abd dd8d a43d

exp_avg_sq f4 [4, 1]
0.008775379 0.039814048 0.012545502 0.021610282
00000000: 9bc6 0f3c 0e14 233d a68b 4d3c 0c08 b13c

exp_avg f4 [4]
0.010698497 -0.06549815 0.015243721 -0.03433778
00000000: c048 2f3c e523 86bd cdc0 793c c6a5 0cbd

exp_avg_sq f4 [4]
0.0014960917 0.007842807 0.0029474972 0.003947943
00000000: 8218 c43a 1e7f 003c cc2a 413b bf5d 813b

exp_avg f4 [12, 4]
1.2565222e-12 2.8611561e-13 3.048518e-12 -2.7117666e-12 -6.6134267e-13 4.4258797e-13 -2.2510763e-12 2.0188684e-12
-1.0407592e-12 -5.7646043e-13 3.0776948e-12 -2.729373e-12 -1.5480517e-12 -1.0362082e-12 1.2603187e-11 -1.1174738e-11
-2.4279388e-11 2.9013951e-11 4.9099857e-13 2.2968886e-14 3.2977158e-12 -6.0435715e-12 1.8621367e-12 -3.3607686e-14
2.3181759e-11 -2.7067858e-11 -1.4037991e-12 -1.2502068e-14 3.5855537e-12 -3.1064203e-12 -1.7376287e-12 1.2181796e-14
9.615338e-12 3.7865965e-12 8.584595e-12 1.563849e-11 -4.0804946e-12 -4.9864193e-12 3.7029137e-11 -3.60484e-11
3.2662458e-12 5.9635265e-12 -3.44148e-11 1.5768992e-11 2.5315587e-12 1.0292331e-11 -8.1592524e-11 5.711056e-11
00000000: fcd6 b02b 9b11 a12a 3885 562c d8d2 3eac
00000010: c326 3aab a627 f92a c967 1eac b310 0e2c
00000020: 4d79 92ab 5a42 22ab d292 582c 0310 40ac
00000030: 71de d9ab 56d5 91ab b5b7 5d2d 8c96 44ad
00000040: 5290 d5ad 9c35 ff2d 2d34 0a2b a5e2 ce28
00000050: 5e0e 682c a7a3 d4ac 4609 032c 065b 17a9
00000060: aee8 cb2d 6617 eead 3191 c5ab 9d37 61a8
00000070: 984f 7c2c 4b98 5aac ac8c f4ab 9e72 5b28
00000080: a227 292d a13a 852c 9405 172d c08e 892d
00000090: d491 8fac ac71 afac 1adb 222e e48a 1eae
000000a0: 74d7 652c acd2 d12c 9f5b 17ae 9db4 8a2d
000000b0: 8224 322c 8a10 352d 826c b3ae c62c 7b2e

exp_avg_sq f4 [12, 4]
5.879199e-23 2.0151162e-22 9.67516e-22 7.737236e-22 9.299116e-23 2.6004405e-22 3.529921e-22 2.0090266e-21
1.906758e-23 5.1035457e-23 4.1376507e-22 3.4012158e-22 3.0614117e-22 7.6264326e-22 1.17717705e-20 1.1602106e-20
4.4819825e-20 6.96752e-20 5.2851954e-22 1.3082456e-21 6.5575965e-22 1.4035603e-21 1.0765267e-22 7.796623e-23
4.07461e-20 6.4085954e-20 5.360996e-22 1.0510637e-21 1.4262842e-21 1.7688193e-21 9.1771004e-23 2.0941014e-22
1.01854704e-19 3.088085e-20 2.1897393e-21 1.0716375e-18 2.3480368e-21 1.8451104e-21 1.09854884e-20 4.254039e-20
2.5064553e-20 1.0928482e-20 2.4420588e-20 3.2570381e-19 7.366906e-21 6.935223e-21 3.7999853e-20 1.6271069e-19
00000000: 7b26 8e1a d39c 731b f634 921c f7d7 691c
00000010: bdd6 e01a de2f 9d1b e25e d51b 3acc 171d
00000020: 0b69 b819 d6ca 761a 0b1b fa1b 4497 cd1b
00000030: 0d0d b91b aa7e 661c ca5c 5e1e 5828 5b1e
00000040: d8a7 531f 1384 a41f 38bc 1f1c 4db2 c51c
00000050: f230 461c 9c19 d41c e324 021b c282 bc1a
00000060: 036b 401f 9551 971f b306 221c 0fd5 9e1c
00000070: b388 d71c f1a5 051d 80e3 dd1a 4d29 7d1b
00000080: 647f f01f a8d4 111f b873 251d 5225 9e21
00000090: a369 311d a069 0b1d 9082 4f1e 2de4 481f
000000a0: 5fba ec1e e56e 4e1e 5ca5 e61e f842 c020
000000b0: 2c28 0b1e ae00 031e 0173 331f 4a18 4020

exp_avg f4 [12]
1.3976067e-12 -6.0586497e-13 -9.562435e-13 -1.0371733e-12 1.2544898e-17 -8.0306747e-19 -1.5032514e-17 -2.1601586e-18
2.4802389e-12 -3.396543e-12 2.8525498e-12 5.6059606e-12
00000000: 17b2 c42b 2c89 2aab 4e94 86ab 1bf8 91ab
00000010: 9b69 6723 1006 6da1 85a6 8aa3 3e64 1fa2
00000020: 0388 2e2c ae02 6fac f8ba 482c 013e c52c

exp_avg_sq f4 [12]
4.206575e-23 3.564724e-23 1.2598699e-23 1.3153166e-22 5.693358e-33 1.3825037e-34 6.2106135e-33 3.3754274e-34
1.3263513e-20 4.6897066e-22 3.864031e-21 1.7253635e-21
00000000: e06a 4b1a 2561 2c1a bcb1 7319 1403 1f1b
00000010: 2b7e ec09 2ac4 3707 49fd 000a ec55 e007
00000020: 6a8a 7a1e d9bc 0d1c 9dfa 911d 625d 021d

exp_avg f4 [4, 4]
-1.519321e-10 3.252437e-11 -6.0479746e-11 4.5087732e-11 2.7656158e-10 -3.4694757e-11 8.096616e-11 -7.7390025e-11
2.3883014e-11 2.1573424e-12 2.0653913e-12 -2.641794e-12 1.1845569e-10 -2.1441947e-11 4.121751e-11 -3.43787e-11
00000000: 160d 27af 2f0b 0f2e 12ff 84ae 464c 462e
00000010: 950a 982f d396 18ae e50b b22e b62e aaae
00000020: c413 d22d 3acf 172c c856 112c 54e6 39ac
00000030: 503e 022f f99a bcad ca46 352e fa32 17ae

exp_avg_sq f4 [4, 4]
4.993162e-18 1.8000166e-19 6.308477e-19 5.5074316e-19 1.5528532e-18 5.1777047e-20 1.8980101e-19 1.6597853e-19
2.851635e-19 1.0906694e-20 3.4453834e-20 3.3709885e-20 2.6445824e-18 9.44348e-20 3.3137918e-19 2.8795413e-19
00000000: 1537 b822 2a82 5420 8131 3a21 fa8c 2221
00000010: 2329 e521 9c82 741f d613 6020 eff3 4320
00000020: b154 a820 8905 4e1e 21b4 221f c030 1f1f
00000030: c022 4322 56fa de1f 9b9c c320 66fa a920

exp_avg f4 [4]
-1.4083106e-11 1.5620205e-12 -1.879111e-13 6.0932804e-12
00000000: acc0 77ad b8d5 db2b b091 53aa 6463 d62c

exp_avg_sq f4 [4]
2.2339626e-20 6.6627137e-21 2.4773427e-21 4.4387994e-21
00000000: e7fd d21e d0b5 fb1d c72e 3b1d 6fb1 a71d

exp_avg f4 [4, 4]
6e-45 6e-45 -6e-45 -6e-45 6e-45 6e-45 6e-45 -6e-45
9.2817753e-11 1.1530249e-11 -3.0004685e-10 -4.4502832e-11 -6e-45 -6e-45 6e-45 6e-45
00000000: 0400 0000 0400 0000 0400 0080 0400 0080
00000010: 0400 0000 0400 0000 0400 0000 0400 0080
00000020: c01b cc2e a0d7 4a2d d7f3 a4af bcb9 43ae
00000030: 0400 0080 0400 0080 0400 0000 0400 0000

exp_avg_sq f4 [4, 4]
3.5e-44 3.5e-44 3.5e-44 3.5e-44 4.6294108e-37 9.815685e-38 1.8109552e-35 1.9745084e-36
2.2259087e-18 5.8585377e-19 2.390639e-17 4.0654616e-18 3.5e-44 3.5e-44 3.5e-44 3.5e-44
00000000: 1900 0000 1900 0000 1900 0000 1900 0000
00000010: db87 1d03 ac9a 0502 e492 c005 fcf8 2704
00000020: 3a3e 2422 dce9 2c21 5e7f dc23 33fd 9522
00000030: 1900 0000 1900 0000 1900 0000 1900 0000

exp_avg f4 [4]
6e-45 -6e-45 2.8818947e-11 6e-45
00000000: 0400 0000 0400 0080 807e fd2d 0400 0000

exp_avg_sq f4 [4]
3.5e-44 1.707224e-36 1.2956217e-18 3.5e-44
00000000: 1900 0000 0c3c 1104 3433 bf21 1900 0000

exp_avg f4 [4, 4]
6e-45 6e-45 -3.1412535e-09 6e-45 -6e-45 -6e-45 8.9850216e-10 6e-45
6e-45 6e-45 -1.0274062e-09 -6e-45 -6e-45 -6e-45 -1.6120438e-11 6e-45
00000000: 0400 0000 0400 0000 84dd 57b1 0400 0000
00000010: 0400 0080 0400 0080 78fa 7630 0400 0000
00000020: 0400 0000 0400 0000 a434 8db0 0400 0080
00000030: 0400 0080 0400 0080 00cc 8dad 0400 0000

exp_avg_sq f4 [4, 4]
3.5e-44 7.711551e-37 2.3566909e-15 3.5e-44 3.5e-44 5.7042883e-36 2.2399308e-15 3.5e-44
3.5e-44 4.760943e-36 1.5382943e-15 3.5e-44 3.5e-44 1.8931193e-36 4.0862857e-16 3.5e-44
00000000: 1900 0000 8b34 8303 46d1 2927 1900 0000
00000010: 1900 0000 33a2 f204 6e67 2127 1900 0000
00000020: 1900 0000 1482 ca04 0bb1 dd26 1900 0000
00000030: 1900 0000 7d0c 2104 ef8e eb25 1900 0000

exp_avg f4 [4]
-4.916121e-10 1.024186e-10 -1.4806584e-10 2.4262153e-10
00000000: 2022 07b0 8c38 e12e d4cc 22af f261 852f

exp_avg_sq f4 [4]
1.6514327e-17 1.8430165e-17 7.319261e-18 2.3971156e-17
00000000: 5a51 9823 fffc a923 3c04 0723 4b18 dd23

exp_avg f4 [4]
-1.6066133e-10 5.920816e-10 1.970034e-10 -1.7543245e-11
00000000: 25a6 30af 0ac0 2230 879b 582f e04f 9aad

exp_avg_sq f4 [4]
2.0956106e-17 8.3113624e-19 9.983322e-18 1.3091834e-17
00000000: 3549 c123 e14e 7521 e828 3823 7080 7123

exp_avg f4 [4]
-4.3238985e-10 2.8728953e-10 -6.3799195e-11 2.3688387e-10
00000000: 76b5 edaf 68f0 9d2f c14b 8cae 713a 822f

exp_avg_sq f4 [4]
1.1547785e-17 2.5896975e-17 3.214686e-18 2.26524e-17
00000000: df04 5523 81db ee23 b433 6d22 78ee d023

exp_avg f4 [4]
2.5477676e-09 -1.8262567e-09 -4.1432613e-10 -5.694075e-10
00000000: cd14 2f31 b2ff fab0 38c7 e3af 7e84 1cb0

exp_avg_sq f4 [4]
5.667466e-16 1.3548821e-16 2.6921028e-16 2.7725755e-16
00000000: 855a 2326 1035 1c25 6d30 9b25 fed3 9f25

exp_avg f4 [4]
-9.5333075e-09 1.0814878e-09 4.0411146e-09 -2.2507016e-10
00000000: eec7 23b2 78a3 9430 05da 8a31 9e77 77af

exp_avg_sq f4 [4]
1.7470263e-15 1.0012257e-16 7.0187183e-16 3.86009e-17
00000000: e5c5 fb26 efdd e624 004d 4a26 e603 3224

exp_avg f4 [12, 4]
-1.1967904e-10 -3.008135e-11 6.530067e-11 8.159594e-10 1.0129214e-10 2.0650908e-11 -8.3186555e-11 -5.9706906e-10
2.8303661e-11 6.612145e-12 -1.7781419e-11 -1.8459351e-10 8.612033e-11 2.2562518e-11 -4.1352657e-11 -6.056123e-10
-2.935089e-10 1.6739143e-10 -7.342977e-10 3.1194855e-10 3.7094805e-10 -2.0637977e-10 8.976171e-10 -4.139492e-10
7.953575e-11 -4.2810495e-11 1.8398594e-10 -9.3914626e-11 2.782575e-10 -1.5060095e-10 6.484151e-10 -3.2549446e-10
-2.6226568e-10 -1.1125413e-10 -3.777979e-10 2.9922687e-09 7.2386086e-10 2.678799e-10 1.0210462e-09 -7.762855e-09
-1.3664554e-10 -5.2916567e-11 -1.9419771e-10 1.4949335e-09 -1.0937443e-09 -3.9977743e-10 -1.5495085e-09 1.16823e-08
00000000: a896 03af 974c 04ae 0299 8f2e 0a4a 6030
00000010: 68be de2e b6a5 b52d deed b6ae 001f 24b0
00000020: 2ef6 f82d e8a4 e82c 3268 9cad 74f6 4aaf
00000030: 7061 bd2e 4676 c62d f4de 35ae 2d78 26b0
00000040: b55b a1af 800c 382f 9bd7 49b0 db7e ab2f
00000050: 4cee cb2f beea 62af 30bc 7630 2c92 e3af
00000060: a6e6 ae2e 5548 3cae 704b 4a2f 3c85 ceae
00000070: 43f9 982f 6696 25af 283c 3230 46f1 b2af
00000080: 9d2e 90af 82a6 f4ae 54b2 cfaf 8ca0 4d31
00000090: 2ef9 4630 bf44 932f df54 8c30 665d 05b2
000000a0: 4d3e 16af c2ba 68ae cc85 55af 4c76 cd30
000000b0: b552 96b0 acc7 dbaf 7cf6 d4b0 4cb3 4832

exp_avg_sq f4 [12, 4]
1.7158149e-18 1.3214248e-18 3.9962564e-17 4.114793e-16 1.5517349e-18 1.1978976e-18 3.6297714e-17 3.7245378e-16
1.0183811e-19 8.0619737e-20 2.4677904e-18 2.4789543e-17 8.243123e-19 6.414439e-19 1.949748e-17 1.9871478e-16
6.668076e-17 9.8740955e-18 1.3859574e-16 1.8522079e-16 7.654248e-17 1.1315434e-17 1.6075775e-16 2.1301607e-16
2.179663e-18 3.2085809e-19 4.6360566e-18 6.067324e-18 2.932999e-17 4.3246007e-18 6.239374e-17 8.177884e-17
9.6270076e-18 1.7598995e-18 1.9569834e-17 1.2397744e-15 9.182446e-18 1.4579849e-18 1.8457415e-17 1.1017089e-15
4.4285254e-19 8.817679e-20 9.058012e-19 5.920538e-17 1.1712264e-17 1.9940804e-18 2.3513861e-17 1.4530302e-15
00000000: a735 fd21 0402 c321 784b 3824 a033 ed25
00000010: e3fe e421 4bc7 b021 c764 2724 7ab4 d625
00000020: 5c75 f01f a45b be1f 3e17 3622 a7a4 e423
00000030: 474b 7321 2152 3d21 1fd5 b323 401a 6525
00000040: 60c1 9924 1925 3623 3eca 1f25 878b 5525
00000050: b57e b024 a0bb 5023 5057 3925 3f97 7525
00000060: acd4 2022 b466 bd20 510a ab22 41d8 df22
00000070: be42 0724 b38c 9f22 c3de 8f24 b591 bc24
00000080: 4296 3123 90db 0122 f77f b423 9aab b226
00000090: e062 2923 1d29 d721 573d aa23 e2c5 9e26
000000a0: feb4 0221 9933 d01f 34ac 8521 b084 8824
000000b0: 9a0d 5823 1d23 1322 89e0 d823 5a67 d126

exp_avg f4 [12]
5.4661893e-11 -3.1698248e-11 -1.1496387e-11 -4.2170552e-11 5.2901006e-15 -3.395454e-15 -8.902571e-16 -2.2553345e-15
3.241561e-10 -8.330532e-10 1.6094892e-10 1.2519197e-09
00000000: d267 702e 0e69 0bae 203f 4aad d277 39ae
00000010: 9198 be27 12ab 74a7 b14c 80a6 9483 22a7
00000020: ea34 b22f e8fc 64b0 18f7 302f 0210 ac30

exp_avg_sq f4 [12]
1.1175008e-17 1.0136326e-17 6.8362936e-19 5.430758e-18 1.2345965e-27 1.4971878e-27 5.765796e-29 6.940247e-28
1.4575215e-17 1.2843954e-17 7.008779e-19 1.7020752e-17
00000000: 7c24 4e23 72fb 3a23 93c5 4921 0f5c c822
00000010: 2fa1 c312 273d ed12 282e 9210 f9f1 5b12
00000020: c16e 8623 dced 6c23 d6dc 4e21 1dfd 9c23

exp_avg f4 [4, 4]
2.3987599e-09 -2.9810932e-09 -1.1229219e-09 -2.0535677e-07 -7.5759354e-10 9.800912e-10 3.391422e-10 6.61525e-08
-1.5055494e-09 1.8586737e-09 6.510181e-10 1.272613e-07 2.8473918e-10 -3.6237455e-10 -1.5347028e-10 -2.5190523e-08
00000000: 6ed7 2431 f2db 4cb1 4d55 9ab0 0a80 5cb4
00000010: e83e 50b0 e5b3 8630 0572 ba2f b90f 8e33
00000020: cfeb ceb0 4474 ff30 53f3 3230 52a5 0834
00000030: 7a89 9c2f af37 c7af 0bbe 28af 8c62 d8b2

exp_avg_sq f4 [4, 4]
1.955396e-16 1.9012912e-16 1.6953915e-17 5.9060894e-13 3.3476476e-17 3.2847216e-17 3.15346e-18 9.5364004e-14
1.3414905e-16 1.233157e-16 1.0674747e-17 3.848598e-13 2.7248715e-18 4.1192623e-18 2.636454e-19 1.1768821e-14
00000000: 1a71 6125 3634 5b25 4d5f 9c23 dc3d 262b
00000010: 0c62 1a24 267b 1724 2daf 6822 9bbd d629
00000020: d0a9 1a25 5f2c 0e25 11ea 4423 24a8 d82a
00000030: 5e0f 4922 55f9 9722 f7a0 9b20 1b02 5428

exp_avg f4 [4]
-1.0874275e-08 3.0260812e-09 7.29165e-09 -9.042115e-10
00000000: 91d1 3ab2 62f3 4f31 088a fa31 3a8c 78b0

exp_avg_sq f4 [4]
1.6159215e-15 2.1862034e-16 8.891722e-16 2.4235674e-17
00000000: fbe0 e826 560d 7c25 aa24 8026 de88 df23

exp_avg f4 [4, 4]
6e-45 -6e-45 -6e-45 -6e-45 -6e-45 6e-45 6e-45 6e-45
1.4370426e-07 4.790316e-09 8.5448136e-08 -4.1420938e-07 -6e-45 6e-45 6e-45 6e-45
00000000: 0400 0000 0400 0080 0400 0080 0400 0080
00000010: 0400 0080 0400 0000 0400 0000 0400 0000
00000020: 204d 1a34 1198 a431 9c7f b733 8160 deb4
00000030: 0400 0080 0400 0000 0400 0000 0400 0000

exp_avg_sq f4 [4, 4]
3.5e-44 3.5e-44 3.5e-44 3.5e-44 3.5e-44 3.5e-44 3.5e-44 3.5e-44
2.5211753e-13 4.226714e-16 9.046453e-14 2.163939e-12 3.5e-44 3.5e-44 3.5e-44 3.5e-44
00000000: 1900 0000 1900 0000 1900 0000 1900 0000
00000010: 1900 0000 1900 0000 1900 0000 1900 0000
00000020: f7ed 8d2a 4aa7 f325 40b5 cb29 0f46 182c
00000030: 1900 0000 1900 0000 1900 0000 1900 0000

exp_avg f4 [4]
6e-45 6e-45 -5.144685e-08 6e-45
00000000: 0400 0000 0400 0000 69f6 5cb3 0400 0000

exp_avg_sq f4 [4]
3.5e-44 3.5e-44 3.2433634e-14 3.5e-44
00000000: 1900 0000 1900 0000 6f11 1229 1900 0000

exp_avg f4 [4, 4]
6e-45 6e-45 -3.5651473e-07 -6e-45 -6e-45 -6e-45 3.5535555e-07 6e-45
-6e-45 -6e-45 4.2560873e-07 6e-45 -6e-45 6e-45 -3.2039082e-07 -6e-45
00000000: 0400 0000 0400 0000 0367 bfb4 0400 0080
00000010: 0400 0080 0400 0080 b2c7 be34 0400 0000
00000020: 0400 0080 0400 0080 387f e434 0400 0000
00000030: 0400 0080 0400 0000 2e02 acb4 0400 0080

exp_avg_sq f4 [4, 4]
3.5e-44 3.5e-44 9.707765e-12 3.5e-44 3.5e-44 3.5e-44 6.776827e-12 3.5e-44
3.5e-44 3.5e-44 5.3933065e-12 3.5e-44 3.5e-44 3.5e-44 1.7746104e-12 3.5e-44
00000000: 1900 0000 1900 0000 e3c7 2a2d 1900 0000
00000010: 1900 0000 1900 0000 3b70 ee2c 1900 0000
00000020: 1900 0000 1900 0000 96c2 bd2c 1900 0000
00000030: 1900 0000 1900 0000 14c1 f92b 1900 0000

exp_avg f4 [4]
-1.1428611e-07 1.1307862e-07 1.1661857e-07 -7.290921e-08
00000000: 746d f5b3 a1d5 f233 bd6f fa33 4392 9cb3

exp_avg_sq f4 [4]
3.9561927e-13 2.6639354e-13 1.9436433e-13 5.972652e-14
00000000: bfb6 de2a 5bf7 952a b4d5 5a2a ff7d 8629

exp_avg f4 [4]
1.5750233e-07 -3.668292e-09 -5.651569e-08 -1.1389145e-07
00000000: e91d 2934 4615 7cb1 a9bb 72b3 7d94 f4b3

exp_avg_sq f4 [4]
2.3345678e-13 2.075747e-14 1.4285676e-13 1.0880786e-13
00000000: ab6c 832a 78f7 ba28 a8d7 202a 7603 f529

exp_avg f4 [4]
-1.8061381e-07 6.72955e-08 8.5750585e-08 -7.041785e-08
00000000: bfee 41b4 1884 9033 e225 b833 9f38 97b3

exp_avg_sq f4 [4]
3.874832e-13 2.7846242e-13 1.9675646e-13 4.3498506e-14
00000000: 3722 da2a aac2 9c2a 3087 5d2a 5de6 4329

exp_avg f4 [4]
3.39651e-05 1.7428958e-06 -3.0145582e-06 3.568444e-05
00000000: c075 0e38 72ed e935 b74d 4ab6 e0ab 1538

exp_avg_sq f4 [4]
2.4300881e-09 2.0198584e-11 3.520362e-11 1.4198149e-09
00000000: 90fe 2631 2bab b12d c1d3 1a2e 4c23 c330

exp_avg f4 [4]
-3.1463027e-05 -1.5297719e-05 8.0799555e-06 2.2654145e-05
00000000: 2bf7 03b8 9a53 80b7 258f 0737 6809 be37

exp_avg_sq f4 [4]
1.9932247e-09 6.1176997e-10 2.529334e-10 5.602627e-10
00000000: 2ef9 0831 7c29 2830 360d 8b2f fc00 1a30

exp_avg f4 [12, 4]
0.0 0.0 0.0 0.0 0.0 0.0 0.0 0.0
0.0 0.0 0.0 0.0 0.0 0.0 0.0 0.0
0.0 0.0 0.0 0.0 0.0 0.0 0.0 0.0
0.0 0.0 0.0 0.0 0.0 0.0 0.0 0.0
0.0050064726 -0.016553288 0.023317821 -0.017850392 -0.00044086028 -0.0076699834 0.011503074 -0.007314316
0.0048559364 -0.0036960496 0.00239361 -0.0040524816 0.00049282995 0.00076467125 -0.0019061787 0.0011682713
00000000: 0000 0000 0000 0000 0000 0000 0000 0000
00000010: 0000 0000 0000 0000 0000 0000 0000 0000
00000020: 0000 0000 0000 0000 0000 0000 0000 0000
00000030: 0000 0000 0000 0000 0000 0000 0000 0000
00000040: 0000 0000 0000 0000 0000 0000 0000 0000
00000050: 0000 0000 0000 0000 0000 0000 0000 0000
00000060: 0000 0000 0000 0000 0000 0000 0000 0000
00000070: 0000 0000 0000 0000 0000 0000 0000 0000
00000080: 560d a43b c39a 87bc 0405 bf3c fc3a 92bc
00000090: 4423 e7b9 7c54 fbbb 6477 3c3c eeac efbb
000000a0: 8c1e 9f3b 6c39 72bb 1dde 1c3b aeca 84bb
000000b0: 4231 013a 3874 483a bed8 f9ba ae20 993a

exp_avg_sq f4 [12, 4]
0.0 0.0 0.0 0.0 0.0 0.0 0.0 0.0
0.0 0.0 0.0 0.0 0.0 0.0 0.0 0.0
0.0 0.0 0.0 0.0 0.0 0.0 0.0 0.0
0.0 0.0 0.0 0.0 0.0 0.0 0.0 0.0
0.00034003117 0.000723323 0.0013553468 0.0008174465 7.180669e-05 0.00013453345 0.00024952847 0.00011858226
0.00017490085 0.00011007394 8.908273e-05 8.736721e-05 9.910113e-06 1.0782139e-05 2.1825552e-05 1.3149869e-05
00000000: 0000 0000 0000 0000 0000 0000 0000 0000
00000010: 0000 0000 0000 0000 0000 0000 0000 0000
00000020: 0000 0000 0000 0000 0000 0000 0000 0000
00000030: 0000 0000 0000 0000 0000 0000 0000 0000
00000040: 0000 0000 0000 0000 0000 0000 0000 0000
00000050: 0000 0000 0000 0000 0000 0000 0000 0000
00000060: 0000 0000 0000 0000 0000 0000 0000 0000
00000070: 0000 0000 0000 0000 0000 0000 0000 0000
00000080: 3646 b239 639d 3d3a e4a5 b13a e849 563a
00000090: ec96 9638 8c11 0d39 25d3 8239 5eaf f838
000000a0: 9765 3739 7fd7 e638 edd1 ba38 ea38 b738
000000b0: 9c43 2637 efe4 3437 0416 b737 429e 5c37

exp_avg f4 [12]
0.0 0.0 0.0 0.0 0.0 0.0 0.0 0.0
0.024627829 0.018499408 -0.0065244627 -0.0042195055
00000000: 0000 0000 0000 0000 0000 0000 0000 0000
00000010: 0000 0000 0000 0000 0000 0000 0000 0000
00000020: 4dc0 c93c 128c 973c 29cb d5bb c743 8abb

exp_avg_sq f4 [12]
0.0 0.0 0.0 0.0 0.0 0.0 0.0 0.0
0.0029379777 0.0007874634 0.000608527 6.641457e-05
00000000: 0000 0000 0000 0000 0000 0000 0000 0000
00000010: 0000 0000 0000 0000 0000 0000 0000 0000
00000020: 168b 403b c66d 4e3a 8e85 1f3a 0d48 8b38

exp_avg f4 [4, 4]
-0.005331593 -0.010002217 0.0052116974 -0.000749638 0.002449586 0.00086567935 0.002409089 0.00059597346
-0.0026150772 0.0027412 -0.006790323 0.0014904239 0.002941383 0.0040886165 -0.0023964255 -0.0004949671
00000000: a5b4 aebb 57e0 23bc e3c6 aa3b 5b83 44ba
00000010: 3c89 203b c2ee 623a cee1 1d3b 1a3b 1c3a
00000020: b761 2bbb b4a5 333b 5c81 debb 545a c33a
00000030: 38c4 403b cdf9 853b 590d 1dbb aec0 01ba

exp_avg_sq f4 [4, 4]
0.0004974136 0.00081599155 0.0014543581 0.0001460981 8.299349e-05 6.9064656e-05 0.00020065314 1.6635453e-05
0.00041793843 0.00031606955 0.0006956977 8.8844165e-05 0.00020420077 0.0002045364 0.00053325034 4.6538637e-05
00000000: dd64 023a 44e8 553a 29a0 be3a e931 1939
00000010: ca0c ae38 ced6 9038 6b66 5239 5d8c 8b37
00000020: bf1e db39 23b6 a539 7b5f 363a d951 ba38
00000030: ba1e 5639 d278 5639 d3c9 0b3a 7b32 4338

exp_avg f4 [4]
0.066405125 -0.031739697 0.013875186 -0.040849283
00000000: 69ff 873d 7c01 02bd c054 633c 9451 27bd

exp_avg_sq f4 [4]
0.015011245 0.0020856513 0.01045088 0.0044075614
00000000: baf1 753c 6caf 083b 2b3a 2b3c 4e6d 903b

exp_avg f4 [12, 4]
0.0 0.0 0.0 0.0 0.0 0.0 0.0 0.0
0.0 0.0 0.0 0.0 0.0 0.0 0.0 0.0
0.0 0.0 0.0 0.0 0.0 0.0 0.0 0.0
0.0 0.0 0.0 0.0 0.0 0.0 0.0 0.0
-1.3110221e-06 8.301035e-07 1.6921592e-06 -6.493712e-06 -2.2639902e-06 6.736153e-07 1.8332165e-06 -8.123459e-06
1.1690175e-06 -2.6753872e-07 -6.261724e-07 1.4959965e-06 -1.0203948e-06 8.117812e-07 1.7474666e-06 -7.2363337e-06
00000000: 0000 0000 0000 0000 0000 0000 0000 0000
00000010: 0000 0000 0000 0000 0000 0000 0000 0000
00000020: 0000 0000 0000 0000 0000 0000 0000 0000
00000030: 0000 0000 0000 0000 0000 0000 0000 0000
00000040: 0000 0000 0000 0000 0000 0000 0000 0000
00000050: 0000 0000 0000 0000 0000 0000 0000 0000
00000060: 0000 0000 0000 0000 0000 0000 0000 0000
00000070: 0000 0000 0000 0000 0000 0000 0000 0000
00000080: 60f6 afb5 47d4 5e35 261e e335 90e4 d9b6
00000090: 0eef 17b6 7ed2 3435 d70c f635 fe49 08b7
000000a0: 23e7 9c35 3ea2 8fb4 3d16 28b5 0cca c835
000000b0: 80f4 88b5 2ee9 5935 7f8a ea35 a2cf f2b6

exp_avg_sq f4 [12, 4]
0.0 0.0 0.0 0.0 0.0 0.0 0.0 0.0
0.0 0.0 0.0 0.0 0.0 0.0 0.0 0.0
0.0 0.0 0.0 0.0 0.0 0.0 0.0 0.0
0.0 0.0 0.0 0.0 0.0 0.0 0.0 0.0
1.7378587e-10 1.0908711e-11 9.104118e-12 1.7570229e-10 1.9296525e-10 1.7099917e-11 1.2925643e-11 1.8149718e-10
2.1358024e-10 2.1217956e-11 2.0847686e-11 2.350882e-10 2.4274852e-10 2.3361816e-11 1.8715288e-11 2.1046345e-10
00000000: 0000 0000 0000 0000 0000 0000 0000 0000
00000010: 0000 0000 0000 0000 0000 0000 0000 0000
00000020: 0000 0000 0000 0000 0000 0000 0000 0000
00000030: 0000 0000 0000 0000 0000 0000 0000 0000
00000040: 0000 0000 0000 0000 0000 0000 0000 0000
00000050: 0000 0000 0000 0000 0000 0000 0000 0000
00000060: 0000 0000 0000 0000 0000 0000 0000 0000
00000070: 0000 0000 0000 0000 0000 0000 0000 0000
00000080: 6014 3f2f 77e8 3f2d 4d29 202d cc2f 412f
00000090: e42a 542f 9769 962d ec63 632d ea8e 472f
000000a0: 7ed5 6a2f 97a2 ba2d d160 b72d b93d 812f
000000b0: d173 852f 227e cd2d 159f a42d 3268 672f

exp_avg f4 [12]
0.0 0.0 0.0 0.0 0.0 0.0 0.0 0.0
0.00032896103 0.00037240374 -0.00011962193 0.00034416863
00000000: 0000 0000 0000 0000 0000 0000 0000 0000
00000010: 0000 0000 0000 0000 0000 0000 0000 0000
00000020: 6778 ac39 2f3f c339 89dd fab8 8871 b439

exp_avg_sq f4 [12]
0.0 0.0 0.0 0.0 0.0 0.0 0.0 0.0
1.1470874e-07 1.009901e-07 1.1099802e-07 1.0157779e-07
00000000: 0000 0000 0000 0000 0000 0000 0000 0000
00000010: 0000 0000 0000 0000 0000 0000 0000 0000
00000020: cc55 f633 e5df d833 cf5d ee33 fb22 da33

exp_avg f4 [4, 4]
-2.9169249e-05 -0.00011945952 3.1426054e-05 -0.0001001696 -2.5244296e-06 9.019611e-06 -4.608443e-06 5.015793e-06
2.7247168e-05 0.0001098912 -1.9303941e-05 9.692289e-05 -8.363428e-07 2.1171298e-05 -9.643299e-06 1.6017624e-05
00000000: 7cb0 f4b7 5786 fab8 78cf 0338 2512 d2b8
00000010: 5f69 29b6 ef52 1737 39a2 9ab6 554d a836
00000020: d990 e437 6475 e638 e6ee a1b7 1543 cb38
00000030: 0a81 60b5 0499 b137 a7c9 21b7 965d 8637

exp_avg_sq f4 [4, 4]
2.3330974e-08 2.5925369e-08 8.731692e-09 2.36154e-08 7.06896e-10 5.5892446e-10 2.8828767e-10 5.492492e-10
1.8416886e-08 2.2201325e-08 7.252289e-09 1.9496765e-08 2.09653e-09 2.0192807e-09 7.837266e-10 1.9281696e-09
00000000: 5b69 c832 7db2 de32 6302 1632 d0da ca32
00000010: 624f 4230 d0a2 1930 e27c 9e2f faf9 1630
00000020: 2933 9e32 3bb5 be32 cf2f f931 d779 a732
00000030: 8c12 1031 90c3 0a31 db6d 5730 b880 0431

exp_avg f4 [4]
0.009614192 -0.0027220238 -0.0062481253 -0.004116122
00000000: d884 1d3c fb63 32bb 13bd ccbb 89e0 86bb

exp_avg_sq f4 [4]
0.00061226386 2.016983e-05 0.00051647006 5.9305985e-05
00000000: 5580 203a 6132 a937 b863 073a 51bf 7838

exp_avg f4 [4, 4]
-0.0010893103 -0.00018255555 0.002959734 -0.0003643309 0.0046926956 0.00073153916 0.004094395 -0.005329112
6e-45 6e-45 -6e-45 -6e-45 0.006196726 -0.0008968436 0.005218044 -0.004578998
00000000: 30c7 8eba 626c 3fb9 19f8 413b aa03 bfb9
00000010: 2fc5 993b c3c4 3f3a 462a 863b d59f aebb
00000020: 0400 0000 0400 0000 0400 0080 0400 0080
00000030: e80d cb3b 281a 6bba 20fc aa3b 6b0b 96bb

exp_avg_sq f4 [4, 4]
2.5865442e-05 4.6243836e-06 6.123312e-05 4.582122e-06 0.00012641064 1.1134821e-05 0.00011846267 0.00014922096
3.5e-44 3.5e-44 3.5e-44 3.5e-44 0.0001775589 3.1409659e-06 0.00015809346 0.00013817364
00000000: 9df9 d837 272b 9b36 486a 8038 21c0 9936
00000010: 198d 0439 b1cf 3a37 296f f838 3278 1c39
00000020: 1900 0000 1900 0000 1900 0000 1900 0000
00000030: 1b2f 3a39 62c9 5236 e4c5 2539 b4e2 1039

exp_avg f4 [4]
0.0011111065 0.0027585502 6e-45 0.0027038488
00000000: 8ca2 913a cbc8 343b 0400 0000 0e33 313b

exp_avg_sq f4 [4]
1.1796625e-05 3.9018625e-05 3.5e-44 4.069659e-05
00000000: 1eea 4537 eea7 2338 1900 0000 a1b1 2a38

exp_avg f4 [4, 4]
0.0011455842 0.0008102584 -6e-45 0.00074533676 -0.00012497032 1.834988e-05 6e-45 2.6004182e-05
-0.00064791227 -0.00057319883 -6e-45 -0.0006773154 -0.0004783387 0.00012129522 6e-45 0.00017597634
00000000: 6d27 963a 8567 543a 0400 0080 b462 433a
00000010: 770a 03b9 11ee 9937 0400 0000 8e23 da37
00000020: a8d8 29ba b942 16ba 0400 0080 de8d 31ba
00000030: 89c9 fab9 e05f fe38 0400 0000 4a86 3839

exp_avg_sq f4 [4, 4]
2.0113084e-05 2.0146163e-06 3.5e-44 1.5161555e-06 3.8159678e-07 2.847992e-09 3.5e-44 1.9033946e-09
5.9969957e-06 2.3028747e-06 3.5e-44 2.0382577e-06 2.6454202e-06 8.402765e-08 3.5e-44 9.640315e-08
00000000: 85b8 a837 d832 0736 1900 0000 b57e cb35
00000010: 43de cc34 68b6 4331 1900 0000 dfcc 0231
00000020: cd39 c936 168b 1a36 1900 0000 00c9 0836
00000030: f987 3136 b072 b433 1900 0000 3106 cf33

exp_avg f4 [4]
0.0052150986 -0.00054153166 -0.002291286 -0.0020425792
00000000: 6be3 aa3b 93f5 0dba 6629 16bb cbdc 05bb

exp_avg_sq f4 [4]
0.0005116108 2.5389902e-06 0.00045660452 4.3826447e-05
00000000: 9f1d 063a 8563 2a36 6c64 ef39 4ad2 3738

exp_avg f4 [4]
0.0039259284 0.0010897486 -0.012136793 0.0015652119
00000000: 13a5 803b e5d5 8e3a 66d9 46bc cc27 cd3a

exp_avg_sq f4 [4]
0.00028615902 1.4986932e-05 0.0005425931 4.3431304e-05
00000000: 9d07 9639 6270 7b37 ce3c 0e3a 022a 3638

exp_avg f4 [4]
0.010814536 -0.0025266653 -0.0042725266 -0.0040153433
00000000: 742f 313c 6996 25bb 8d00 8cbb 2493 83bb

exp_avg_sq f4 [4]
0.00060444925 1.799377e-05 0.00046760682 5.175145e-05
00000000: e773 1e3a 54f1 9637 2029 f539 b20f 5938

exp_avg f4 [4]
0.009557177 0.000690902 -0.009500872 0.0005957132
00000000: b595 1c3c a61d 353a 8ca9 1bbc a329 1c3a

exp_avg_sq f4 [4]
0.00048755077 3.4038956e-05 0.00036337308 3.4178272e-05
00000000: f59d ff39 0dc5 0e38 1c83 be39 a45a 0f38

exp_avg f4 [4]
0.008086221 -0.00074406667 -0.0025085893 -0.0021864981
00000000: 127c 043c 780d 43ba 2567 24bb 5a4b 0fbb

exp_avg_sq f4 [4]
0.0006536224 3.0512254e-05 0.0004474887 3.8531547e-05
00000000: db57 2b3a 91f4 ff37 eb9c ea39 ef9c 2138

exp_avg f4 [4]
0.004730892 -0.00048731576 -0.005337352 -0.0004970583
00000000: 9905 9b3b 6a7e ffb9 f4e4 aebb 054d 02ba

exp_avg_sq f4 [4]
0.00012093545 2.1388644e-06 0.00014345029 1.8304805e-05
00000000: ba9e fd38 6989 0f36 256b 1639 458d 9937

exp_avg f4 [4]
0.0025993695 -0.00031586486 -0.0010891274 -0.0011477501
00000000: 2f5a 2a3b aa9a a5b9 0dc1 8eba 1a70 96ba

exp_avg_sq f4 [4]
0.00017642458 2.6561981e-06 0.00016149654 2.580024e-05
00000000: 9dfe 3839 2341 3236 6657 2939 986d d837

exp_avg f4 [12, 4]
0.0 0.0 0.0 0.0 0.0 0.0 0.0 0.0
0.0 0.0 0.0 0.0 0.0 0.0 0.0 0.0
0.0 0.0 0.0 0.0 0.0 0.0 0.0 0.0
0.0 0.0 0.0 0.0 0.0 0.0 0.0 0.0
-0.00033852627 -1.1261112e-06 -0.0003573041 0.00021784416 -0.0004488494 -2.0304591e-05 -0.00051675434 0.00023939021
0.0003039218 6.6951543e-06 0.00019548151 -0.00016212826 -0.000324719 -1.30087665e-05 -0.00011715773 0.00014978115
00000000: 0000 0000 0000 0000 0000 0000 0000 0000
00000010: 0000 0000 0000 0000 0000 0000 0000 0000
00000020: 0000 0000 0000 0000 0000 0000 0000 0000
00000030: 0000 0000 0000 0000 0000 0000 0000 0000
00000040: 0000 0000 0000 0000 0000 0000 0000 0000
00000050: 0000 0000 0000 0000 0000 0000 0000 0000
00000060: 0000 0000 0000 0000 0000 0000 0000 0000
00000070: 0000 0000 0000 0000 0000 0000 0000 0000
00000080: 3a7c b1b9 e324 97b5 8b54 bbb9 196d 6439
00000090: 8c53 ebb9 c753 aab7 cc76 07ba d204 7b39
000000a0: b257 9f39 f0a6 e036 2bfa 4c39 f900 2ab9
000000b0: 0c3f aab9 3a40 5ab7 94b2 f5b8 920e 1d39

exp_avg_sq f4 [12, 4]
0.0 0.0 0.0 0.0 0.0 0.0 0.0 0.0
0.0 0.0 0.0 0.0 0.0 0.0 0.0 0.0
0.0 0.0 0.0 0.0 0.0 0.0 0.0 0.0
0.0 0.0 0.0 0.0 0.0 0.0 0.0 0.0
2.0070264e-07 9.454301e-10 1.9937929e-07 8.2117715e-08 3.2677972e-06 1.8907345e-08 3.8130022e-06 1.1305715e-06
1.6341906e-07 8.775663e-10 1.4985264e-07 5.4314025e-08 4.0531816e-07 1.9394106e-09 2.5807046e-07 8.9060414e-08
00000000: 0000 0000 0000 0000 0000 0000 0000 0000
00000010: 0000 0000 0000 0000 0000 0000 0000 0000
00000020: 0000 0000 0000 0000 0000 0000 0000 0000
00000030: 0000 0000 0000 0000 0000 0000 0000 0000
00000040: 0000 0000 0000 0000 0000 0000 0000 0000
00000050: 0000 0000 0000 0000 0000 0000 0000 0000
00000060: 0000 0000 0000 0000 0000 0000 0000 0000
00000070: 0000 0000 0000 0000 0000 0000 0000 0000
00000080: b980 5734 5df0 8130 f614 5634 b158 b033
00000090: 544c 5b36 b169 a232 e1e2 7f36 24be 9735
000000a0: 4a78 2f34 3d39 7130 2ee7 2034 e746 6933
000000b0: 819a d934 7946 0531 ef8c 8a34 7b41 bf33

exp_avg f4 [12]
0.0 0.0 0.0 0.0 0.0 0.0 0.0 0.0
-0.000104980194 -6.245059e-05 3.1813688e-05 2.3213079e-05
00000000: 0000 0000 0000 0000 0000 0000 0000 0000
00000010: 0000 0000 0000 0000 0000 0000 0000 0000
00000020: d028 dcb8 e8f7 82b8 b06f 0538 b5b9 c237

exp_avg_sq f4 [12]
0.0 0.0 0.0 0.0 0.0 0.0 0.0 0.0
2.5322665e-08 4.25475e-07 1.9449327e-08 3.8162394e-08
00000000: 0000 0000 0000 0000 0000 0000 0000 0000
00000010: 0000 0000 0000 0000 0000 0000 0000 0000
00000020: 2185 d932 d76c e434 8611 a732 ffe7 2333

exp_avg f4 [4, 4]
0.00027735744 0.0006654068 -0.0002895286 8.356537e-05 1.3412997e-05 -8.06653e-06 -1.2930407e-05 4.7516155e-06
-0.00029763568 -0.00059437775 0.00032538097 -0.00013479144 -7.766604e-06 -3.0902134e-05 4.682071e-06 1.7555536e-05
00000000: 496a 9139 b26e 2e3a dfcb 97b9 d13f af38
00000010: 6208 6137 7c55 07b7 adef 58b7 1170 9f36
00000020: fc0b 9cb9 04d0 1bba e597 aa39 cd56 0db9
00000030: 4f4d 02b7 ea9c 01b8 af1a 9d36 3a44 9337

exp_avg_sq f4 [4, 4]
2.0915563e-07 4.5146044e-06 3.4799655e-07 5.0803425e-07 2.2319766e-09 8.891302e-08 4.1936423e-09 6.4804038e-09
1.9455946e-07 3.6149263e-06 3.301945e-07 4.589376e-07 2.2899759e-08 1.0126226e-06 4.1747008e-08 7.3856114e-08
00000000: 4394 6034 287c 9736 48d4 ba34 d95f 0835
00000010: 5961 1931 73f0 be33 ab17 9031 3caa de31
00000020: 19e8 5034 f697 7236 9645 b134 e763 f634
00000030: 1ab5 c432 73e9 8735 524d 3333 d49a 9e33

exp_avg f4 [4]
0.0027510566 -0.00029292773 -0.0016061144 -0.0012770683
00000000: 124b 343b 1894 99b9 4284 d2ba 4d63 a7ba

exp_avg_sq f4 [4]
0.00018521513 3.0812696e-06 0.00018020708 3.0394072e-05
00000000: 4f36 4239 cfc7 4e36 f8f5 3c39 c6f6 fe37

exp_avg f4 [12, 4]
0.0 0.0 0.0 0.0 0.0 0.0 0.0 0.0
0.0 0.0 0.0 0.0 0.0 0.0 0.0 0.0
0.0 0.0 0.0 0.0 0.0 0.0 0.0 0.0
0.0 0.0 0.0 0.0 0.0 0.0 0.0 0.0
3.117325e-06 1.5194167e-06 1.3230033e-06 5.290521e-07 3.0790775e-06 1.4977758e-06 1.3081785e-06 4.5237434e-07
-2.9370963e-06 -1.5134781e-06 -1.2618138e-06 -2.931161e-07 -3.1597046e-06 -1.5183953e-06 -1.2114423e-06 -3.172768e-07
00000000: 0000 0000 0000 0000 0000 0000 0000 0000
00000010: 0000 0000 0000 0000 0000 0000 0000 0000
00000020: 0000 0000 0000 0000 0000 0000 0000 0000
00000030: 0000 0000 0000 0000 0000 0000 0000 0000
00000040: 0000 0000 0000 0000 0000 0000 0000 0000
00000050: 0000 0000 0000 0000 0000 0000 0000 0000
00000060: 0000 0000 0000 0000 0000 0000 0000 0000
00000070: 0000 0000 0000 0000 0000 0000 0000 0000
00000080: 3c33 5136 c3ee cb35 0c92 b135 2f04 0e35
00000090: 26a2 4e36 2f07 c935 ac94 af35 dbdd f234
000000a0: ee1a 45b6 b622 cbb5 985b a9b5 925d 9db4
000000b0: 500b 54b6 aacb cbb5 d798 a2b5 3156 aab4

exp_avg_sq f4 [12, 4]
0.0 0.0 0.0 0.0 0.0 0.0 0.0 0.0
0.0 0.0 0.0 0.0 0.0 0.0 0.0 0.0
0.0 0.0 0.0 0.0 0.0 0.0 0.0 0.0
0.0 0.0 0.0 0.0 0.0 0.0 0.0 0.0
2.9283387e-10 1.2404739e-11 1.0161e-11 2.3700422e-10 2.8931246e-10 1.2205955e-11 1.0128933e-11 2.3144342e-10
1.5984296e-10 8.729499e-12 5.450526e-12 1.6510537e-10 1.7343361e-10 9.515431e-12 6.214954e-12 1.7405752e-10
00000000: 0000 0000 0000 0000 0000 0000 0000 0000
00000010: 0000 0000 0000 0000 0000 0000 0000 0000
00000020: 0000 0000 0000 0000 0000 0000 0000 0000
00000030: 0000 0000 0000 0000 0000 0000 0000 0000
00000040: 0000 0000 0000 0000 0000 0000 0000 0000
00000050: 0000 0000 0000 0000 0000 0000 0000 0000
00000060: 0000 0000 0000 0000 0000 0000 0000 0000
00000070: 0000 0000 0000 0000 0000 0000 0000 0000
00000080: b4fc a02f fa39 5a2d 13c1 322d 614b 822f
00000090: 1c0d 9f2f bcba 562d a930 322d 8879 7e2f
000000a0: cbbf 2f2f 2b92 192d f9c5 bf2c 0889 352f
000000b0: 39b1 3e2f b165 272d 54ab da2c d660 3f2f

exp_avg f4 [12]
0.0 0.0 0.0 0.0 0.0 0.0 0.0 0.0
0.00019485095 0.0001925979 -0.00019562492 -0.00018379261
00000000: 0000 0000 0000 0000 0000 0000 0000 0000
00000010: 0000 0000 0000 0000 0000 0000 0000 0000
00000020: e750 4c39 1bf4 4939 aa20 4db9 74b8 40b9
