Saved_models/best_model_Female.pt (torch, 90362 bytes, 198 tensors)

encoder_input_layer.weight f4 [4, 5]
0.15726736 0.2745107 -0.37266716 -0.40447527 -0.31298003 0.20681234 0.24931371 0.76497006
0.51186633 0.74918854 0.04452596 0.013455091 -0.4175499 -0.32911837 -0.23651445 0.22646005
0.43905234 0.6622308 0.16041648 0.30839705
00000000: b20a 213e ab8c 8c3e 3bce bebe 6217 cfbe
00000010: eb3e a0be 9dc6 533e 184c 7f3e 14d5 433f
00000020: ac09 033f d2ca 3f3f da60 363d be72 5c3c
00000030: 1ac9 d5be 3482 a8be d830 72be 25e5 673e
00000040: 78cb e03e f587 293f 3844 243e 38e6 9d3e

encoder_input_layer.bias f4 [4]
-0.13395137 2.8665385 -2.8576043 2.7582707
00000000: 8c2a 09be 5e75 3740 fde2 36c0 8287 3040

decoder_input_layer.weight f4 [4, 1]
-0.88857085 0.4356547 1.8385117 0.8320895
00000000: 6179 63bf 220e df3e 5a54 eb3f d103 553f

decoder_input_layer.bias f4 [4]
-2.2141285 0.07082707 2.5701158 1.0975817
00000000: 48b4 0dc0 c80d 913d c77c 2440 8f7d 8c3f

positional_encoding_layer_enc.pe f4 [1, 9, 4]
0.0 1.0 0.0 1.0 0.84147096 0.54030234 0.009999833 0.99995
0.9092974 -0.41614684 0.019998666 0.9998 0.14112 -0.9899925 0.0299955 0.99955004
-0.7568025 -0.6536436 0.039989334 0.9992001 -0.9589243 0.2836622 0.049979165 0.99875027
-0.2794155 0.96017027 0.059964005 0.99820054 0.6569866 0.75390226 0.06994285 0.997551
0.98935825 -0.14550003 0.07991469 0.9968017
00000000: 0000 0000 0000 803f 0000 0000 0000 803f
00000010: a46a 573f 4151 0a3f 57d6 233c b9fc 7f3f
00000020: b7c7 683f 3311 d5be 3ed4 a33c e5f2 7f3f
00000030: c381 103e 2670 7dbf 1fb9 f53c 83e2 7f3f
00000040: cfbd 41bf 3055 27bf dbcb 233d 94cb 7f3f
00000050: 107c 75bf 2c3c 913e f4b6 4c3d 19ae 7f3f
00000060: 8c0f 8fbe b8cd 753f d19c 753d 128a 7f3f
00000070: 4630 283f bdff 403f 323e 8f3d 815f 7f3f
00000080: 9546 7d3f f6fd 14be 50aa a33d 652e 7f3f

positional_encoding_layer_dec.pe f4 [1, 1, 4]
0.0 1.0 0.0 1.0
00000000: 0000 0000 0000 803f 0000 0000 0000 803f

encoder.layers.0.self_attn.in_proj_weight f4 [12, 4]
0.49737823 -0.30465835 1.3070867 -0.97532976 0.15139762 0.04953069 -0.9360499 0.9020956
-0.007997276 0.022451863 -0.32249382 -0.13205694 -0.32279146 0.21839163 0.4559794 0.56817394
0.09486126 0.5365761 0.09433898 -2.6842268 0.54923064 0.57038116 -0.09114158 0.3177154
0.028288238 -0.02399665 -0.29078346 0.06792483 -0.30926126 -0.21134575 -0.5491611 0.1321366
0.3484992 -0.76107436 -0.2072075 -3.3638463 0.5715564 -0.062423263 -0.3129301 2.763092
0.37055972 0.19515114 0.07588653 -1.6432768 -0.13047302 0.20540056 0.12103387 -0.31192815
00000000: 5ca8 fe3e 2efc 9bbe 9e4e a73f 36af 79bf
00000010: fa07 1b3e b1e0 4a3d f7a0 6fbf bdef 663f
00000020: 0207 03bc f8ec b73c e91d a5be ef39 07be
00000030: ec44 a5be 0ea2 5f3e 2276 e93e d973 113f
00000040: 9f46 c23d 0d5d 093f cc34 c13d 5fca 2bc0
00000050: 619a 0c3f 8004 123f 70a8 babd 98ab a23e
00000060: bcbc e73c 9f94 c4bc 92e1 94be 2c1c 8b3d
00000070: 7e57 9ebe 056b 58be d295 0cbf d14e 073e
00000080: 7d6e b23e c5d5 42bf 342e 54be 4249 57c0
00000090: 8551 123f 89af 7fbd 6038 a0be 80d6 3040
000000a0: 01ba bd3e b3d5 473e 666a 9b3d e556 d2bf
000000b0: b89a 05be 8654 523e 9be0 f73d 0cb5 9fbe

encoder.layers.0.self_attn.in_proj_bias f4 [12]
-1.4621596 -1.0041434 -0.118402034 1.0832083 0.15395361 -0.11344687 -0.14699036 -0.00014439048
-1.0695962 1.8750011 -2.4873629 0.896163
00000000: 0c28 bbbf c587 80bf c47c f2bd 92a6 8a3f
00000010: 04a6 1d3e d556 e8bd a484 16be 8667 17b9
00000020: 87e8 88bf 0900 f03f f430 1fc0 f06a 653f

encoder.layers.0.self_attn.out_proj.weight f4 [4, 4]
-0.15786599 -0.62969494 -0.63929147 -0.07882077 -1.7990451 0.032714717 0.26997125 -0.48047593
0.5934998 -0.15210171 0.6223249 -0.06225551 0.39067867 -1.7974974 2.6271412 -0.33253166
00000000: 9fa7 21be b033 21bf 9ba8 23bf c96c a1bd
00000010: 1c47 e6bf deff 053d ac39 8a3e f100 f6be
00000020: 9aef 173f 8dc0 1bbe af50 1f3f a2ff 7ebd
00000030: 0907 c83e 6514 e6bf 1523 2840 9741 aabe

encoder.layers.0.self_attn.out_proj.bias f4 [4]
1.3267958 -0.43467984 -0.62074155 -1.4542688
00000000: 72d4 a93f 5b8e debe ebe8 1ebf 7b25 babf

encoder.layers.0.linear1.weight f4 [4, 4]
-1.2551641 -0.18591301 1.401367 -0.39874333 -0.31427494 -0.13504696 -0.3839268 -0.110666126
-1.3010017 -0.25210914 -0.2792502 1.7896563 -0.93015856 0.21622957 1.4714227 -0.11186366
00000000: 38a9 a0bf fb5f 3ebe fe5f b33f 1628 ccbe
00000010: a5e8 a0be c049 0abe 0e92 c4be eca4 e2bd
00000020: 3987 a6bf 7314 81be e2f9 8ebe 7513 e53f
00000030: df1e 6ebf 496b 5d3e 9457 bc3f c618 e5bd

encoder.layers.0.linear1.bias f4 [4]
-0.14485133 -0.97907704 -0.56520003 -0.31627673
00000000: e853 14be cba4 7abf f3b0 10bf 06ef a1be

encoder.layers.0.linear2.weight f4 [4, 4]
0.5108434 -0.13074058 -0.38804778 0.59202003 -1.1031413 -0.33597955 0.22417377 -0.51552707
-0.022843186 -0.15189698 2.561659 -0.46211907 -0.33707473 -0.4364675 0.6137077 -0.07553954
00000000: a2c6 023f dce0 05be 33ae c6be a08e 173f
00000010: bc33 8dbf 8305 acbe cf8d 653e 95f9 03bf
00000020: a221 bbbc e28a 1bbe 39f2 2340 df9a ecbe
00000030: 0f95 acbe ab78 dfbe f31b 1d3f 79b4 9abd

encoder.layers.0.linear2.bias f4 [4]
-0.09138952 -0.0104792435 0.034972746 0.88995636
00000000: 6e2a bbbd 22b1 2bbc 953f 0f3d 2ed4 633f

encoder.layers.0.norm1.weight f4 [4]
2.6943731 2.600411 1.0967755 1.6724222
00000000: 9c70 2c40 226d 2640 2463 8c3f ee11 d63f

encoder.layers.0.norm1.bias f4 [4]
-0.097225875 0.5052737 -0.48193812 0.46293232
00000000: 5c1e c7bd 9e59 013f 98c0 f6be 7705 ed3e

encoder.layers.0.norm2.weight f4 [4]
1.6747245 1.3009883 1.1330297 0.7495598
00000000: 5f5d d63f c986 a63f 1e07 913f 27e3 3f3f

encoder.layers.0.norm2.bias f4 [4]
-0.60216856 0.17577109 0.1931261 0.53348446
00000000: b827 1abf 56fd 333e d9c2 453e 7092 083f

encoder.layers.1.self_attn.in_proj_weight f4 [12, 4]
-0.29342714 0.026133323 0.4515412 -0.39652452 0.17791809 -0.20701018 0.20793994 -0.84012014
-0.5541932 0.82293355 -0.07822026 -0.0076217684 -0.15190388 0.35859817 -0.1619618 0.8515063
0.12799622 0.20886636 0.03577932 0.4827771 0.35965812 -0.2904444 0.3163715 1.5063316
0.44300586 -0.17452128 -0.32785863 -0.20204656 0.07229402 0.31849125 -0.20190032 -0.3487972
0.85786235 -1.0492077 0.11591931 -0.5651197 -0.90713704 0.85522646 -0.44464839 1.3149236
1.3065284 -0.24137713 -0.45670268 -0.37760937 0.82116616 0.1629706 -1.1089482 0.14080574
00000000: 153c 96be 8d15 d63c 6830 e73e 4305 cbbe
00000010: 2930 363e 7afa 53be 35ee 543e 1d12 57bf
00000020: 9bdf 0dbf c6ab 523f f231 a0bd 07c0 f9bb
00000030: b18c 1bbe 2e9a b73e 50d9 25be 51fc 593f
00000040: 7111 033e 10e1 553e 568d 123d 8f2e f73e
00000050: 1c25 b83e 21b5 94be 72fb a13e 79cf c03f
00000060: aad1 e23e b5b5 32be 16dd a7be 4be5 4ebe
00000070: e30e 943d 4911 a33e f5be 4ebe 8c95 b2be
00000080: de9c 5b3f 704c 86bf 1a67 ed3d afab 10bf
00000090: 223a 68bf 1ff0 5a3f f4a8 e3be 6b4f a83f
000000a0: 533c a73f 912b 77be efd4 e9be 0456 c1be
000000b0: f237 523f c4e1 263e 04f2 8dbf 612f 103e

encoder.layers.1.self_attn.in_proj_bias f4 [12]
0.10052356 -0.6226834 -0.18879527 0.025588734 0.04322965 -0.033168986 0.020492569 -0.012380088
-0.31856525 0.02660582 -0.48213562 -0.38619044
00000000: 4cdf cd3d 2e68 1fbf 8c53 41be 779f d13c
00000010: 9311 313d 34dc 07bd 08e0 a73c dad5 4abc
00000020: fc1a a3be 73f4 d93c 7bda f6be c1ba c5be

encoder.layers.1.self_attn.out_proj.weight f4 [4, 4]
0.4289775 -0.7890598 0.7851874 0.28389618 -0.6167104 0.31795007 0.04184341 0.16862345
-0.19445169 -0.11476993 -0.27890903 -0.69573593 -1.7784793 1.5443795 -0.9394813 -0.25706032
00000000: f0a2 db3e d3ff 49bf 0b02 493f d75a 913e
00000010: bce0 1dbf 5aca a23e ff63 2b3d a0ab 2c3e
00000020: 581e 47be 7f0c ebbd 2acd 8ebe c01b 32bf
00000030: 36a5 e3bf 3aae c53f d981 70bf 699d 83be

encoder.layers.1.self_attn.out_proj.bias f4 [4]
0.005815048 0.19230184 0.3048257 -0.6903912
00000000: 288c be3b c6ea 443e 1d12 9c3e 7abd 30bf

encoder.layers.1.linear1.weight f4 [4, 4]
-0.8544313 0.9330966 -0.1502184 0.9033144 -0.9052017 -0.13488941 -0.30000308 0.15847519
-0.097761974 -0.039648704 -0.077937484 -0.019211428 -0.946979 -0.5095133 1.1278067 0.7712644
00000000: 02bc 5abf 6bdf 6e3f dad2 19be 9d3f 673f
00000010: 4cbb 67bf 7320 0abe 019a 99be 5247 223e
00000020: 6e37 c8bd ae66 22bd b09d 9fbd 4961 9dbc
00000030: 376d 72bf 776f 02bf f85b 903f 9571 453f

encoder.layers.1.linear1.bias f4 [4]
-1.2589803 -0.6578703 -0.38828626 -0.6461015
00000000: 4426 a1bf 306a 28bf 75cd c6be e866 25bf

encoder.layers.1.linear2.weight f4 [4, 4]
0.15921167 0.3661268 -0.112649314 0.15613908 0.440515 -0.2552367 -0.26080635 -0.49743083
-0.94941366 -0.058192797 -0.06905955 0.86037475 0.2482963 -0.2053129 0.09439688 -0.16183157
00000000: 6208 233e f974 bb3e afb4 e6bd ece2 1f3e
00000010: 2f8b e13e 62ae 82be 6988 85be 41af febe
00000020: c60c 73bf 925b 6ebd 186f 8dbd 8541 5c3f
00000030: 6341 7e3e 8b3d 52be 2753 c13d 2db7 25be

encoder.layers.1.linear2.bias f4 [4]
0.12273118 -0.006421821 -0.06773734 -0.051237345
00000000: 7c5a fb3d 246e d2bb e0b9 8abd 40de 51bd

encoder.layers.1.norm1.weight f4 [4]
4.017575 1.8201067 1.0717514 1.4794341
00000000: f98f 8040 42f9 e83f 262f 893f 195e bd3f

encoder.layers.1.norm1.bias f4 [4]
2.7673442 -0.044038713 -0.49129194 -1.9240912
00000000: 2b1c 3140 f061 34bd 9e8a fbbe 9f48 f6bf

encoder.layers.1.norm2.weight f4 [4]
0.5761126 1.0813539 1.410493 0.9132784
00000000: 1e7c 133f ce69 8a3f 098b b43f 9dcc 693f

encoder.layers.1.norm2.bias f4 [4]
-0.8086274 0.22092666 0.19739646 0.777434
00000000: 3502 4fbf 993a 623e 4c22 4a3e ea05 473f

decoder.layers.0.self_attn.in_proj_weight f4 [12, 4]
-0.11795229 -0.12023488 -0.5495124 -0.5287456 -0.095823705 0.0079193115 -0.27818543 0.23068023
-0.55117095 -0.041327298 0.5385322 -0.24978182 0.5529743 0.22177297 -0.5526422 0.3874464
-0.070664406 -0.27336726 0.4896856 -0.49485525 0.065710604 -0.12821162 0.4373029 0.1709404
0.29424822 0.21626484 -0.14726007 -0.12878525 -0.50464475 0.3318104 0.4862103 0.41900045
-0.13955282 0.1555311 -0.19822268 0.123056464 -1.1178106 0.79235774 -0.2785711 -0.7799389
-0.9411648 -2.2536442 -0.35993618 0.9516852 -0.015819298 -0.02188415 0.008512913 0.041433446
00000000: f890 f1bd b43d f6bd d8ac 0cbf df5b 07bf
00000010: 383f c4bd 00c0 013c 526e 8ebe 7037 6c3e
00000020: 8a19 0dbf d046 29bd 3fdd 093f cec6 7fbe
00000030: b98f 0d3f 7418 633e f679 0dbf 605f c63e
00000040: 80b8 90bd cbf6 8bbe 12b8 fa3e ab5d fdbe
00000050: 4893 863d e849 03be 2ae6 df3e 000b 2f3e
00000060: b4a7 963e 8874 5d3e 58cb 16be 48e0 03be
00000070: 6630 01bf 0ee3 a93e 8ef0 f83e 3a87 d63e
00000080: efe6 0ebe 8b43 1f3e e3fa 4abe 0705 fc3d
00000090: 6b14 8fbf f5d7 4a3f dfa0 8ebe 13aa 47bf
000000a0: 2df0 70bf b53b 10c0 8e49 b8be a4a1 733f
000000b0: 7997 81bc 6446 b3bc bf79 0b3c 1eb6 293d

decoder.layers.0.self_attn.in_proj_bias f4 [12]
0.0 0.0 0.0 0.0 0.0 0.0 0.0 0.0
-0.48513752 -0.5826436 -0.83051246 -0.0008872171
00000000: 0000 0000 0000 0000 0000 0000 0000 0000
00000010: 0000 0000 0000 0000 0000 0000 0000 0000
00000020: f263 f8be 2228 15bf 779c 54bf 2294 68ba

decoder.layers.0.self_attn.out_proj.weight f4 [4, 4]
0.30129457 0.23135048 0.11431513 0.014031792 -0.43282557 -0.06402151 0.22931828 -0.008522486
0.0034528165 -0.17044486 -0.0016730952 0.026125839 0.028600872 0.18410869 -0.09723166 0.007302447
00000000: 4843 9a3e 24e7 6c3e 0d1e ea3d 9ae5 653c
00000010: 509b ddbe b61d 83bd 69d2 6a3e e6a1 0bbc
00000020: a648 623b 1989 2ebe c24b dbba db05 d63c
00000030: 604c ea3c fd86 3c3e 6421 c7bd 5e49 ef3b

decoder.layers.0.self_attn.out_proj.bias f4 [4]
0.0072003743 -1.3196471 0.0017832953 0.013725371
00000000: 1ef1 eb3b 32ea a8bf 76bd e93a 61e0 603c

decoder.layers.0.multihead_attn.in_proj_weight f4 [12, 4]
-0.20546097 -0.09068465 0.0066983104 0.50508946 0.076447845 0.5484976 0.37459588 -0.3871504
0.27465153 -0.43288368 -0.25953886 0.18011266 0.20220053 0.45941895 -0.19713241 0.0009803176
0.31526375 -0.5922206 0.44273347 -0.5063845 0.008440018 -0.10411358 -0.32252002 0.08093792
0.5063823 -0.17900842 -0.36356193 -0.22647911 -0.60695195 0.27642125 -0.29410025 -0.40866083
0.07564502 -0.15027341 0.38660145 -0.0053003053 -0.21253166 0.09416092 -0.0023206056 0.190292
0.12436057 -0.0068086567 -0.020994527 0.0088578705 -0.0863312 -0.043792687 -0.0257104 -0.052406494
00000000: 5c64 52be e0b8 b9bd 807d db3b 8b4d 013f
00000010: b090 9c3d 576a 0c3f 08cb bf3e 9438 c6be
00000020: 209f 8c3e eea2 ddbe 47e2 84be 746f 383e
00000030: a80d 4f3e f638 eb3e 14dd 49be 007e 803a
00000040: 406a a13e c59b 17bf f6ad e23e 6aa2 01bf
00000050: 0048 0a3c 8039 d5bd 5821 a5be c8c2 a53d
00000060: 45a2 013f fc4d 37be ca24 babe 24ea 67be
00000070: 3461 1bbf 1687 8d3e 4f94 96be fe3b d1be
00000080: c7eb 9a3d 46e1 19be a0f0 c53e 2fae adbb
00000090: e6a1 59be 71d7 c03d 4d15 18bb e8db 423e
000000a0: c1b0 fe3d 271b dfbb b7fc abbc 9a20 113c
000000b0: 6ace b0bd f65f 33bd 9e9e d2bc 31a8 56bd

decoder.layers.0.multihead_attn.in_proj_bias f4 [12]
0.0 0.0 0.0 0.0 0.0 0.0 0.0 0.0
-0.039295893 0.0012362942 -0.0013181814 0.012856469
00000000: 0000 0000 0000 0000 0000 0000 0000 0000
00000010: 0000 0000 0000 0000 0000 0000 0000 0000
00000020: bbf4 20bd 260b a23a d4c6 acba f0a3 523c

decoder.layers.0.multihead_attn.out_proj.weight f4 [4, 4]
0.17794372 -0.16114962 0.033352878 0.014632311 0.15222265 -0.11296207 0.029473968 0.032940097
-0.00021332622 -0.05306743 0.028211696 0.005369972 -0.15327254 -0.113871604 -0.0077178045 0.019753449
00000000: e136 363e 6804 25be 079d 083d 5cbc 6f3c
00000010: 41e0 1b3e a858 e7bd 6473 f13c 32ec 063d
00000020: 52b0 5fb9 3c5d 59bd 371c e73c 97f6 af3b
00000030: 7af3 1cbe 8435 e9bd a3e5 fcbb fcd1 a13c

decoder.layers.0.multihead_attn.out_proj.bias f4 [4]
0.00143816 0.01412208 0.011218843 -0.0020257612
00000000: a480 bc3a 4c60 673c 3dcf 373c a2c2 04bb

decoder.layers.0.linear1.weight f4 [4, 4]
1.0799046 -2.1832194 0.863383 1.0708195 0.29585338 -0.5785101 -0.09397916 0.10252197
0.3169927 1.0803509 0.31213418 -1.1738032 0.07333352 -0.3800803 0.004487689 0.04519004
00000000: 503a 8a3f deb9 0bc0 ab06 5d3f 9d10 893f
00000010: 187a 973e 3d19 14bf 2578 c0bd 0af7 d13d
00000020: de4c a23e f048 8a3f 0dd0 9f3e 2f3f 96bf
00000030: e22f 963d e399 c2be 770d 933b 3119 393d

decoder.layers.0.linear1.bias f4 [4]
0.17141499 -0.65286624 -1.0867951 -0.7147093
00000000: 6987 2f3e 3e22 27bf 1a1c 8bbf 30f7 36bf

decoder.layers.0.linear2.weight f4 [4, 4]
-0.9474569 0.03461462 0.37869993 -0.038463827 1.4461129 1.0382994 -0.568743 0.18861549
0.19691639 -0.12607004 0.16255073 0.35042208 0.13370372 -0.001410561 -0.4233615 0.03511096
00000000: 898c 72bf 0fc8 0d3d f5e4 c13e 3f8c 1dbd
00000010: 3a1a b93f ffe6 843f 2499 11bf 6b24 413e
00000020: 73a4 493e 8118 01be b373 263e 866a b33e
00000030: a1e9 083e 93e2 b8ba d7c2 d8be 83d0 0f3d

decoder.layers.0.linear2.bias f4 [4]
0.010390905 -0.06293453 0.0022491552 -0.024406012
00000000: 9d3e 2a3c d2e3 80bd 9066 133b 1eef c7bc

decoder.layers.0.norm1.weight f4 [4]
2.7224889 0.74240005 2.0715554 2.336787
00000000: 423d 2e40 ee0d 3e3f 5d94 0440 eb8d 1540

decoder.layers.0.norm1.bias f4 [4]
-1.9394648 -0.017691635 1.4666901 -0.17296822
00000000: 6240 f8bf 0cee 90bc 80bc bb3f 951e 31be

decoder.layers.0.norm2.weight f4 [4]
1.8845627 0.51467466 2.335427 2.2274435
00000000: 5a39 f13f b8c1 033f a377 1540 6f8e 0e40

decoder.layers.0.norm2.bias f4 [4]
-1.2857745 0.17043371 0.8836957 -1.9464338
00000000: 4294 a4bf 2d86 2e3e e239 623f be24 f9bf

decoder.layers.0.norm3.weight f4 [4]
2.5898304 1.0290704 2.0922494 3.127749
00000000: c8bf 2540 94b8 833f 6ae7 0540 0a2d 4840

decoder.layers.0.norm3.bias f4 [4]
0.8109033 0.004093674 0.13653694 -1.3758602
00000000: 5c97 4f3f 3a24 863b 57d0 0b3e 301c b0bf

decoder.layers.1.self_attn.in_proj_weight f4 [12, 4]
-0.11795229 -0.12023488 -0.5495124 -0.5287456 -0.095823705 0.0079193115 -0.27818543 0.23068023
-0.55117095 -0.041327298 0.5385322 -0.24978182 0.5529743 0.22177297 -0.5526422 0.3874464
-0.070664406 -0.27336726 0.4896856 -0.49485525 0.065710604 -0.12821162 0.4373029 0.1709404
0.29424822 0.21626484 -0.14726007 -0.12878525 -0.50464475 0.3318104 0.4862103 0.41900045
-0.23476139 -0.6073931 -0.2943147 -0.19828957 -0.115477316 -0.3153821 -0.12754665 -0.08303263
-0.014931231 -0.113603204 -0.049041994 -0.038066972 -0.047397073 -0.15812269 -0.11662035 -0.04001357
00000000: f890 f1bd b43d f6bd d8ac 0cbf df5b 07bf
00000010: 383f c4bd 00c0 013c 526e 8ebe 7037 6c3e
00000020: 8a19 0dbf d046 29bd 3fdd 093f cec6 7fbe
00000030: b98f 0d3f 7418 633e f679 0dbf 605f c63e
00000040: 80b8 90bd cbf6 8bbe 12b8 fa3e ab5d fdbe
00000050: 4893 863d e849 03be 2ae6 df3e 000b 2f3e
00000060: b4a7 963e 8874 5d3e 58cb 16be 48e0 03be
00000070: 6630 01bf 0ee3 a93e 8ef0 f83e 3a87 d63e
00000080: 4a65 70be 1d7e 1bbf 6bb0 96be 6c0c 4bbe
00000090: 5f7f ecbd c379 a1be 979b 02be 030d aabd
000000a0: 1fa2 74bc cca8 e8bd 42e0 48bd 1dec 1bbd
000000b0: 6f23 42bd eaea 21be a6d6 eebd 45e5 23bd

decoder.layers.1.self_attn.in_proj_bias f4 [12]
0.0 0.0 0.0 0.0 0.0 0.0 0.0 0.0
-0.014308991 0.052201364 -0.002062129 -0.03590093
00000000: 0000 0000 0000 0000 0000 0000 0000 0000
00000010: 0000 0000 0000 0000 0000 0000 0000 0000
00000020: 4270 6abc 19d1 553d c924 07bb db0c 13bd

decoder.layers.1.self_attn.out_proj.weight f4 [4, 4]
-0.0021122042 -0.0210815 0.0058017466 -0.014002264 -0.028377427 0.01847926 0.07425702 -0.01736609
-0.0009954268 -0.041172307 0.014502749 0.029209914 -0.006914936 -0.025485354 0.013816088 0.034913786
00000000: e86c 0abb 1cb3 acbc 941c be3b c069 65bc
00000010: c777 e8bc d161 973c 1114 983d 5543 8ebc
00000020: fb78 82ba 4ba4 28bd f09c 6d3c a149 ef3c
00000030: b096 e2bb a9c6 d0bc e05c 623c c201 0f3d

decoder.layers.1.self_attn.out_proj.bias f4 [4]
0.004970869 0.056813795 0.0119098835 -0.025828918
00000000: ace2 a23b 95b5 683d ac21 433c 2b97 d3bc

decoder.layers.1.multihead_attn.in_proj_weight f4 [12, 4]
-0.20546097 -0.09068465 0.0066983104 0.50508946 0.076447845 0.5484976 0.37459588 -0.3871504
0.27465153 -0.43288368 -0.25953886 0.18011266 0.20220053 0.45941895 -0.19713241 0.0009803176
0.31526375 -0.5922206 0.44273347 -0.5063845 0.008440018 -0.10411358 -0.32252002 0.08093792
0.5063823 -0.17900842 -0.36356193 -0.22647911 -0.60695195 0.27642125 -0.29410025 -0.40866083
-0.49407783 0.4248086 0.18565822 0.6250289 0.39350766 -0.014748336 -0.1177405 -0.25380293
0.0797168 0.6021104 -0.8042497 0.14960377 0.04641117 0.009907522 -0.055425987 -0.042879585
00000000: 5c64 52be e0b8 b9bd 807d db3b 8b4d 013f
00000010: b090 9c3d 576a 0c3f 08cb bf3e 9438 c6be
00000020: 209f 8c3e eea2 ddbe 47e2 84be 746f 383e
00000030: a80d 4f3e f638 eb3e 14dd 49be 007e 803a
00000040: 406a a13e c59b 17bf f6ad e23e 6aa2 01bf
00000050: 0048 0a3c 8039 d5bd 5821 a5be c8c2 a53d
00000060: 45a2 013f fc4d 37be ca24 babe 24ea 67be
00000070: 3461 1bbf 1687 8d3e 4f94 96be fe3b d1be
00000080: c5f7 fcbe 8380 d93e 301d 3e3e e501 203f
00000090: d679 c93e 01a3 71bc ee21 f1bd 75f2 81be
000000a0: 9042 a33d e823 1a3f 4fe3 4dbf bb31 193e
000000b0: a419 3e3d 2953 223c 5c06 63bd 81a2 2fbd

decoder.layers.1.multihead_attn.in_proj_bias f4 [12]
0.0 0.0 0.0 0.0 0.0 0.0 0.0 0.0
-0.60387784 -0.05823377 -0.03827138 -0.034221526
00000000: 0000 0000 0000 0000 0000 0000 0000 0000
00000010: 0000 0000 0000 0000 0000 0000 0000 0000
00000020: bd97 1abf 8986 6ebd 73c2 1cbd df2b 0cbd

decoder.layers.1.multihead_attn.out_proj.weight f4 [4, 4]
-0.016118754 0.6888216 -0.9540362 0.04006004 -1.7198963 0.6876536 0.12968083 0.0063051432
0.28285125 0.49191317 0.13048527 0.039805975 0.06643374 0.6674162 0.16409022 0.018819809
00000000: 7a0b 84bc 9d56 303f b73b 74bf ff15 243d
00000010: 9025 dcbf 110a 303f 0dcb 043e 609b ce3b
00000020: e1d1 903e 0bdc fb3e ee9d 053e 970b 233d
00000030: 6a0e 883d cadb 2a3f 4407 283e 002c 9a3c

decoder.layers.1.multihead_attn.out_proj.bias f4 [4]
0.06630311 -0.48277965 0.03861881 -0.06665202
00000000: edc9 873d e52e f7be c22e 1e3d db80 88bd

decoder.layers.1.linear1.weight f4 [4, 4]
1.4264995 -0.98966914 -0.042712886 0.22036204 1.2716929 -0.94830745 -0.055009395 0.34150758
0.4984384 -0.12859984 0.7866427 -0.2879154 0.22945483 -0.8380157 -0.17185612 0.16341074
00000000: 8997 b63f f55a 7dbf b5f3 2ebd 96a6 613e
00000010: d5c6 a23f 47c4 72bf 8851 61bd 15da ae3e
00000020: 5133 ff3e adaf 03be 6a61 493f a669 93be
00000030: 35f6 6a3e 3288 56bf 0dfb 2fbe 2555 273e

decoder.layers.1.linear1.bias f4 [4]
-0.7910134 -0.7191593 -1.0428418 -0.5603304
00000000: db7f 4abf d31a 38bf d77b 85bf d071 0fbf

decoder.layers.1.linear2.weight f4 [4, 4]
0.009687747 0.065622784 0.1742888 -0.6028205 0.10731603 -0.041531548 -0.40471146 0.25579295
-0.65879655 -0.83139026 -0.7193377 -0.031613525 -0.114765115 -0.14395805 -0.35648942 0.1189003
00000000: 5bb9 1e3c 3d65 863d c378 323e 7252 1abf
00000010: 82c8 db3d fc1c 2abd 5736 cfbe 4bf7 823e
00000020: e4a6 28bf fed5 54bf 8426 38bf 2f7d 01bd
00000030: f909 ebbd bd69 13be c885 b6be 0082 f33d

decoder.layers.1.linear2.bias f4 [4]
-0.0033022054 0.027651161 0.0001269227 -0.0091372235
00000000: d069 58bb b084 e23c 8e16 0539 4bb4 15bc

decoder.layers.1.norm1.weight f4 [4]
3.2966168 0.9671173 2.1229496 3.8441145
00000000: c5fb 5240 0095 773f 68de 0740 f905 7640

decoder.layers.1.norm1.bias f4 [4]
0.53117204 0.42694917 -1.5947893 -0.319855
00000000: e4fa 073f 1599 da3e 0e22 ccbf 09c4 a3be

decoder.layers.1.norm2.weight f4 [4]
2.009231 0.62589467 2.2369807 3.558394
00000000: 3e97 0040 a23a 203f b12a 0f40 babc 6340

decoder.layers.1.norm2.bias f4 [4]
-0.9016723 1.7615223 -1.2933885 -0.09027201
00000000: ffd3 66bf 9079 e13f c18d a5bf 88e0 b8bd

decoder.layers.1.norm3.weight f4 [4]
1.1869915 0.005332589 -0.006017553 0.8127031
00000000: 56ef 973f 00bd ae3b e52e c5bb 4f0d 503f

decoder.layers.1.norm3.bias f4 [4]
0.45275173 -0.007470389 -0.005061091 -0.8098387
00000000: 13cf e73e 2aca f4bb 82d7 a5bb 9751 4fbf

linear_mapping.weight f4 [1, 4]
-0.6500927 -0.0027593754 -0.0034969768 0.018822936
00000000: 7a6c 26bf a3d6 34bb 892d 65bb 8f32 9a3c

linear_mapping_with_gender_ind.weight f4 [1, 5]
0.055841506 -0.35157594 0.03514573 0.3096819 0.40299034
00000000: 10ba 643d c301 b4be f8f4 0f3d a08e 9e3e
00000010: c054 ce3e

exp_avg f4 [4, 5]
0.00035906996 0.00036423496 0.00036522327 0.00036905415 0.00037551497 0.00040240597 0.00039543185 0.00039237074
0.0003890039 0.00038684322 -0.00094102474 -0.0009446861 -0.0009489384 -0.00095722044 -0.0009585024 0.0021559652
0.0022128727 0.0022398122 0.0021840092 0.0022808742
00000000: 8e41 bc39 caf6 be39 707b bf39 9c7d c139
00000010: c4e0 c439 04fa d239 f751 cf39 1cb7 cd39
00000020: 38f3 cb39 38d1 ca39 1aaf 76ba d0a4 77ba
00000030: 2ec2 78ba faed 7aba 0244 7bba 184b 0d3b
00000040: d805 113b d0c9 123b 9821 0f3b b87a 153b

exp_avg_sq f4 [4, 5]
1.0791412e-05 1.0890135e-05 1.0996973e-05 1.0972267e-05 1.1108117e-05 4.2673717e-05 4.2660824e-05 4.2853695e-05
4.3214004e-05 4.3627308e-05 1.8514267e-05 1.8688752e-05 1.8891315e-05 1.916038e-05 1.9386871e-05 0.0034344713
0.0034686583 0.0035032993 0.0035407706 0.0035729632
00000000: c30c 3537 c6b4 3637 a47f 3837 8715 3837
00000010: 005d 3a37 8efc 3238 b6ee 3238 cebd 3338
00000020: af40 3538 77fc 3638 164f 9b37 cac5 9c37
00000030: ca78 9e37 9aba a037 fda0 a237 de14 613b
00000040: 6e52 633b 9c97 653b 460c 683b 6028 6a3b

exp_avg f4 [4]
-0.00012980192 -0.00017883063 0.00035427138 -0.0010823268
00000000: 701b 08b9 7b84 3bb9 80bd b939 dcdc 8dba

exp_avg_sq f4 [4]
1.9360218e-06 1.314626e-05 2.5754e-06 0.00052756123
00000000: 9aec 0136 c28e 5c37 09d5 2c36 094c 0a3a

exp_avg f4 [4, 1]
-0.0016140547 -0.023105811 0.0016131838 -0.030649481
00000000: b08e d3ba 6648 bdbc 7771 d33a 9f14 fbbc

exp_avg_sq f4 [4, 1]
0.01035137 0.009338111 0.0129455775 0.01402555
00000000: cb98 293c e0fe 183c b019 543c 6ccb 653c

exp_avg f4 [4]
-0.0016532085 0.010483991 -0.0023835865 0.012549696
00000000: 79b0 d8ba 0cc5 2b3c f235 1cbb 3d9d 4d3c

exp_avg_sq f4 [4]
0.0018330263 0.0016885124 0.0032954083 0.0022949162
00000000: 2842 f03a 1351 dd3a c7f7 573b 4e66 163b

exp_avg f4 [12, 4]
0.0003252054 -0.0005094901 2.890245e-06 -5.020765e-05 -7.565832e-07 -0.00020590553 3.0617655e-05 0.00013333393
-1.3349123e-05 2.6098229e-05 2.2016968e-06 5.4427082e-06 1.233349e-05 -1.5383994e-05 -8.934496e-06 -9.4386676e-05
-0.00039419852 0.00036543366 -5.4064476e-05 -9.856049e-06 0.00041701406 -0.00024372159 3.0826348e-05 2.3700857e-05
-1.947517e-05 -3.657307e-05 7.827754e-07 1.4016257e-06 0.00026557097 -0.00020572249 2.4646519e-05 7.602768e-06
-0.0001714261 0.00062103197 -8.224078e-05 5.2472053e-05 -0.00038462935 -0.00037111458 0.00019182135 0.00018633727
-0.00070799305 0.0038389652 6.5486325e-05 0.00030343048 -4.149694e-05 -0.000172775 -2.3700559e-06 2.4945271e-05
00000000: 5480 aa39 4d8f 05ba 08f6 4136 0e96 52b8
00000010: 0018 4bb5 58e8 57b9 756b 0038 8ecf 0b39
00000020: 0cf6 5fb7 85ed da37 ddc0 1336 82a0 b636
00000030: f0eb 4e37 e00c 81b7 5ee5 15b7 76f1 c5b8
00000040: 6eac ceb9 ad97 bf39 4ac3 62b8 685b 25b7
00000050: aea2 da39 848f 7fb9 8a4b 0138 34d1 c637
00000060: 9c5e a3b7 0966 19b8 ea1f 5235 7e1f bc35
00000070: 553c 8b39 36b7 57b9 ffbf ce37 481b ff36
00000080: d8c0 33b9 c0cc 223a af78 acb8 7015 5c38
00000090: 14a8 c9b9 2892 c2b9 a723 4939 8863 4339
000000a0: 9c98 39ba 2697 7b3b b455 8938 c015 9f39
000000b0: 000d 2eb8 f02a 35b9 400d 1fb6 9041 d137

exp_avg_sq f4 [12, 4]
4.374091e-06 2.1867267e-05 1.6797651e-07 6.6250124e-07 2.6965556e-06 1.2229353e-05 3.3826112e-07 9.3283e-07
2.5925152e-08 7.940603e-08 1.0217306e-09 8.853376e-09 6.024483e-07 3.0899776e-06 5.493534e-08 2.2430653e-07
6.6139455e-06 1.0035964e-05 5.3203202e-08 3.1128153e-08 6.5635336e-06 6.156486e-06 1.2402072e-08 1.0293865e-07
2.508673e-08 2.9064513e-08 1.3315224e-10 3.290092e-09 1.962191e-06 2.2950844e-06 4.465579e-09 1.37933025e-08
1.2073178e-05 4.4246997e-05 7.840215e-06 5.474488e-06 2.1964952e-05 8.063859e-05 2.5119284e-06 1.168674e-05
0.00010240071 0.0005073937 3.2396042e-06 6.7603294e-05 1.0481693e-06 3.7900122e-06 3.718844e-07 5.4672677e-07
00000000: 28c5 9236 996f b737 085d 3434 bdd6 3135
00000010: 79f6 3436 ac2c 4d37 419a b534 9767 7a35
00000020: 03b2 de32 ed85 aa33 f36c 8c30 8f19 1832
00000030: efb7 2135 695d 4f36 0cf2 6b33 e9d8 7034
00000040: 5ced dd36 2360 2837 8a81 6433 c4b1 0533
00000050: 533c dc36 d093 ce36 e410 5532 1f0f dd33
00000060: 4d7e d732 8aa9 f932 0667 122f e917 6231
00000070: 2fae 0336 4005 1a36 a66f 9931 96f7 6c32
00000080: e88d 4a37 da95 3938 7889 0337 7eb1 b736
00000090: 6041 b837 831c a938 9a92 2836 2b12 4437
000000a0: f6bf d638 9d02 053a fa67 5936 3ec6 8d38
000000b0: d3ae 8c35 ea57 7e36 67a7 c734 c7c2 1235

exp_avg f4 [12]
0.00013037353 -1.2720353e-05 -8.188659e-06 1.3185549e-05 -6.345431e-11 9.606997e-11 -2.4418796e-12 5.5649044e-11
4.6616187e-06 -0.00031074998 -0.00017055916 -2.8912866e-05
00000000: e1b4 0839 8069 55b7 0662 09b7 8037 5d37
00000010: 9a89 8bae 9642 d32e fed4 2bac 41bf 742e
00000020: 006b 9c36 28ec a2b9 20d8 32b9 e889 f2b7

exp_avg_sq f4 [12]
1.4376724e-06 8.1594123e-07 6.381937e-09 1.9800123e-07 7.678042e-19 4.5356743e-19 1.7587395e-21 1.5751283e-19
8.013068e-06 7.0375927e-06 3.3189557e-05 4.84505e-07
00000000: 0cf6 c035 0e07 5b35 1d48 db31 2a9a 5434
00000010: a59d 6221 96de 0521 f8e2 041d 55f5 3920
00000020: dd6f 0637 7624 ec36 0435 0b38 ee0e 0235

exp_avg f4 [4, 4]
0.0027940418 0.0003394818 -0.00048416323 -8.067356e-05 1.0812986e-05 -9.109157e-05 9.7558936e-05 -6.8013424e-06
0.00017826736 -0.00016397622 7.568928e-05 3.500623e-05 -0.0008898275 6.9377245e-05 1.911974e-05 0.00020925948
00000000: 3e1c 373b 7afc b139 4ad7 fdb9 4a2f a9b8
00000010: 6c69 3537 6a08 bfb8 8e98 cc38 1637 e4b6
00000020: 48ed 3a39 08f1 2bb9 5fbb 9e38 a7d3 1238
00000030: 5043 69ba a07e 9138 5463 a037 aa6c 5b39

exp_avg_sq f4 [4, 4]
0.0001813083 7.7248675e-05 4.0518982e-05 4.4215963e-07 6.737181e-06 4.7644564e-05 2.7094542e-05 1.1893112e-08
8.935996e-06 2.255969e-06 1.5650505e-06 1.7340655e-08 0.0001617472 3.578595e-06 6.4219125e-07 4.3058012e-07
00000000: 941d 3e39 9100 a238 edf2 2938 f561 ed34
00000010: f20f e236 f6d5 4738 1649 e337 7652 4c32
00000020: d0eb 1537 4165 1736 ba0e d235 81f4 9432
00000030: af9a 2939 cb27 7036 0c63 2c35 7b2a e734

exp_avg f4 [4]
0.00037582417 -3.971692e-05 -1.9966921e-05 2.230925e-05
00000000: 440a c539 b895 26b8 a37e a7b7 c024 bb37

exp_avg_sq f4 [4]
5.60638e-06 2.1677886e-06 3.9748895e-07 2.5043455e-06
00000000: 701e bc36 537a 1136 7766 d534 5410 2836

exp_avg f4 [4, 4]
6.7844085e-05 -0.00042034182 7.972587e-05 0.000105894214 -6e-45 6e-45 -6e-45 6e-45
0.0012832845 -0.0026073256 1.2648699e-05 0.00085463736 -6.040597e-08 -3.927159e-07 8.948135e-08 1.5206346e-07
00000000: 8447 8e38 5361 dcb9 8032 a738 8613 de38
00000010: 0400 0080 0400 0000 0400 0080 0400 0000
00000020: e233 a83a aadf 2abb c035 5437 be09 603a
00000030: 88b8 81b3 76d6 d2b4 e428 c033 e346 2334

exp_avg_sq f4 [4, 4]
1.06207864e-07 2.1542562e-06 8.637753e-08 1.0210462e-07 3.5e-44 3.5e-44 3.5e-44 3.5e-44
3.1872954e-05 0.00024570513 3.1439022e-06 2.4730469e-05 6.1152816e-10 1.5186767e-08 1.9740491e-09 7.376558e-10
00000000: 6414 e433 d791 1036 8d7e b933 9c44 db33
00000010: 1900 0000 1900 0000 1900 0000 1900 0000
00000020: 53af 0538 fcd1 8039 d4fb 5236 4774 cf37
00000030: 7818 2830 0e74 8232 d7a7 0731 eac3 4a30

exp_avg f4 [4]
0.00011195345 6e-45 0.00063695025 1.08158424e-07
00000000: 8dc8 ea38 0400 0000 02f9 263a b944 e833

exp_avg_sq f4 [4]
1.5623883e-07 3.5e-44 1.527453e-05 1.6382886e-09
00000000: 9ac2 2734 1900 0000 ce21 8037 282a e130

exp_avg f4 [4, 4]
6.5923115e-05 6e-45 0.00018704875 -1.7584883e-08 -2.0628281e-06 -6e-45 -7.69271e-06 -1.105618e-07
-1.5168027e-05 -6e-45 0.00012686221 -7.0317743e-09 -3.0924566e-05 6e-45 -0.000114777606 -3.590204e-08
00000000: 3440 8a38 0400 0000 8422 4439 910d 97b2
00000010: 1e6f 0ab6 0400 0080 f00f 01b7 fe6d edb3
00000020: 2e7a 7eb7 0400 0080 5106 0539 249c f1b1
00000030: 00b5 01b8 0400 0000 c2b4 f0b8 b632 1ab3

exp_avg_sq f4 [4, 4]
4.6660958e-08 3.5e-44 6.3866223e-06 2.3652456e-09 5.36138e-09 3.5e-44 1.5480693e-06 6.8112954e-10
7.3727193e-09 3.5e-44 6.849197e-07 6.40153e-11 5.3001292e-09 3.5e-44 5.037064e-07 1.173624e-10
00000000: 4468 4833 1900 0000 ab4c d636 d789 2231
00000010: 3237 b831 1900 0000 42c7 cf35 3b3a 3b30
00000020: 2053 fd31 1900 0000 53db 3735 69c5 8c2e
00000030: 6e1c b631 1900 0000 7136 0735 940a 012f

exp_avg f4 [4]
0.00033023662 2.0770676e-06 0.00020048095 -0.00038955087
00000000: 9c23 ad39 c063 0b36 3238 5239 a23c ccb9

exp_avg_sq f4 [4]
3.8292714e-05 2.8474038e-05 5.9927565e-06 3.0035183e-06
00000000: 7d9c 2038 88db ee37 6315 c936 0d90 4936

exp_avg f4 [4]
-0.00037323905 0.00024539742 4.0779123e-06 0.0004863165
00000000: 4caf c3b9 afa8 8039 00d5 8836 4cf8 fe39

exp_avg_sq f4 [4]
3.724086e-05 1.1360164e-05 1.6779595e-06 1.6429496e-05
00000000: 1233 1c38 8897 3e37 4036 e135 13d2 8937

exp_avg f4 [4]
-0.00048063626 -0.00037606992 -5.2924064e-05 0.0008388562
00000000: e8fd fbb9 402b c5b9 c8fa 5db8 b0e6 5b3a

exp_avg_sq f4 [4]
8.6981134e-05 2.4381865e-05 5.3619333e-06 6.6365195e-05
00000000: a469 b638 a887 cc37 a8ea b336 8b2d 8b38

exp_avg f4 [4]
0.00053568324 0.00040154636 0.000111177644 -0.00048246776
00000000: 186d 0c3a a486 d239 0b28 e938 baf3 fcb9

exp_avg_sq f4 [4]
3.5063636e-05 2.9811674e-05 3.028759e-06 3.0877007e-05
00000000: 4b11 1338 1514 fa37 af41 4b36 ef81 0138

exp_avg f4 [4]
0.0008080967 -0.0005966474 9.237007e-05 -0.00079428527
00000000: 74d6 533a 5468 1cba ceb6 c138 9537 50ba

exp_avg_sq f4 [4]
6.658756e-05 2.4226822e-05 1.20455e-05 2.8098753e-05
00000000: eda4 8b38 b43a cb37 0717 4a37 9db5 eb37

exp_avg f4 [12, 4]
-2.5672043e-05 -3.046735e-05 2.8449895e-05 4.8972506e-06 -4.981099e-06 -0.00010561909 6.916095e-05 9.069847e-05
-0.00011833486 0.0001348322 5.3086806e-05 -9.0015936e-05 -5.3148953e-05 6.370182e-05 4.618043e-06 -6.67377e-05
0.00013707482 1.6318801e-05 -0.00010343226 -2.3157431e-06 0.00011833111 0.00014486535 -0.00010439003 -6.7300054e-05
0.0003243973 5.8435246e-05 -7.412169e-05 -0.00012984406 -2.5044708e-05 -4.5912715e-05 4.3416872e-05 8.931836e-06
-0.00018691218 -0.00028908945 0.00018947464 0.00025601598 0.00012396023 0.00019897515 -0.00011151272 -0.0001880559
9.5562646e-05 -9.896417e-05 2.0426814e-06 8.059238e-05 0.0002168222 -4.0510145e-05 -4.4073895e-05 5.2859687e-06
00000000: 4b5a d7b7 2394 ffb7 afa7 ee37 1053 a436
00000010: 5123 a7b6 d17f ddb8 810a 9138 5f35 be38
00000020: 8b2a f8b8 be61 0d39 86a9 5e38 f0c6 bcb8
00000030: 41ec 5eb8 a797 8538 b0f4 9a36 88f5 8bb8
00000040: bebb 0f39 5ce4 8837 c6e9 d8b8 2a68 1bb6
00000050: 8828 f838 ffe6 1739 f8eb dab8 7123 8db8
00000060: de13 aa39 5e18 7538 c871 9bb8 c026 08b9
00000070: 1a17 d2b7 6792 40b8 831a 3638 f2d9 1537
00000080: dbfd 43b9 ee90 97b9 b6ad 4639 e239 8639
00000090: 52fb 0139 fca3 5039 f0db e9b8 df30 45b9
000000a0: ce68 c838 fc8a cfb8 0015 0936 b403 a938
000000b0: c45a 6339 70e9 29b8 fcdb 38b8 205e b136

exp_avg_sq f4 [12, 4]
1.9168686e-08 9.058668e-08 2.0743075e-08 1.8564513e-08 5.5363836e-07 1.611716e-06 2.3437036e-07 2.9960546e-07
2.639987e-07 1.5719064e-06 4.4075477e-07 4.6132288e-07 1.1007154e-07 3.2579058e-07 3.6317523e-08 5.997717e-08
3.4633922e-07 4.9067772e-08 1.0917126e-07 2.2261723e-08 1.0398511e-06 1.5253389e-07 4.005908e-07 1.0897107e-07
3.1211205e-06 3.849442e-07 1.3475566e-06 2.7740728e-07 1.5448171e-07 2.7401802e-08 4.2971017e-08 1.9430232e-08
3.149518e-06 1.2535607e-05 2.9791165e-06 2.3812445e-06 3.3713638e-06 1.2178478e-05 3.008302e-06 2.0660036e-06
2.0096113e-06 9.613894e-06 2.0607579e-06 1.4629059e-06 2.875531e-06 5.5968094e-06 7.8386716e-07 7.113875e-07
00000000: 63a8 a432 8e88 c233 812e b232 cc77 9f32
00000010: bd9d 1435 2452 d835 3ca7 7b34 76d9 a034
00000020: b4bb 8d34 4bfa d235 e0a0 ec34 bcab f734
00000030: 7860 ec33 51e8 ae34 8afb 1b33 cccc 8033
00000040: 80f0 b934 96be 5233 8971 ea33 0c3a bf32
00000050: 0391 8b35 32c8 2334 c810 d734 7b03 ea33
00000060: 7174 5136 54aa ce34 b1dd b435 91ee 9434
00000070: 9cdf 2534 3361 eb32 228f 3833 88e7 a632
00000080: 4f5c 5336 0650 5237 d5ec 4736 78cd 1f36
00000090: 973f 6236 2a52 4c37 3ce2 4936 aca5 0a36
000000a0: dcdc 0636 5c4b 2137 8d4b 0a36 1059 c435
000000b0: 3ff9 4036 3acc bb36 f16a 5235 2df6 3e35

exp_avg f4 [12]
-1.1039101e-05 0.00014870861 -6.071503e-05 -0.000102993974 -2.7782785e-12 6.5114225e-12 -4.366574e-12 -1.3005702e-11
0.00026973418 -0.0001896573 0.00014002627 0.00010209605
00000000: 9434 39b7 aaee 1b39 44a8 7eb8 78fe d7b8
00000010: 0481 43ac ae19 e52c 9aa2 99ac 7acc 64ad
00000020: 1c6b 8d39 bede 46b9 04d4 1239 661c d638

exp_avg_sq f4 [12]
3.0118755e-08 6.0316773e-07 4.798211e-07 1.2461956e-07 2.564803e-21 1.5198544e-20 4.0770152e-20 1.8842562e-21
4.8093693e-06 4.887034e-06 3.6071967e-06 2.3434716e-06
00000000: ec5b 0133 5fe9 2135 0ecd 0035 2acf 0534
00000010: 81ca 411d d38b 8f1e 1788 401f d15e 0e1d
00000020: 2b60 a136 4dfb a336 2b13 7236 8944 1d36

exp_avg f4 [4, 4]
-9.820376e-05 6.533328e-05 6.354181e-05 0.0001292317 0.00042866642 -0.00043879863 0.00062448916 0.00045970944
-0.00016428085 0.00019402329 -0.00023384439 -0.00015373933 -0.000117756885 4.4948058e-05 9.762829e-05 0.00015682232
00000000: bef2 cdb8 8a03 8938 c041 8538 5f82 0739
00000010: a2be e039 8e0e e6b9 c2b4 233a 2805 f139
00000020: ce42 2cb9 bb72 4b39 2034 75b9 1635 21b9
00000030: 3ff4 f6b8 9c86 3c38 cabd cc38 ac70 2439

exp_avg_sq f4 [4, 4]
4.1772387e-06 1.332537e-06 1.8909117e-06 5.179239e-06 2.9669177e-06 2.690681e-06 4.2376278e-06 3.5799815e-06
9.4417255e-06 6.7246788e-06 4.6527894e-06 3.068718e-06 6.666751e-07 2.182829e-07 6.040018e-07 1.3537701e-06
00000000: 352a 8c36 9fd9 b235 3bcb fd35 53c9 ad36
00000010: 421b 4736 8c91 3436 f230 8e36 9d3f 7036
00000020: e767 1e37 8da4 e136 281f 9c36 2cf0 4d36
00000030: 90f5 3235 2661 6a34 b022 2235 30b3 b535

exp_avg f4 [4]
-0.0001821927 2.9366449e-05 5.7325844e-05 -0.00020538554
00000000: fb0a 3fb9 f857 f637 2871 7038 c35c 57b9

exp_avg_sq f4 [4]
3.2239984e-06 1.6345382e-06 3.1601223e-06 5.7736753e-07
00000000: df5b 5836 4e62 db35 7d12 5436 65fc 1a35

exp_avg f4 [4, 4]
1.3178369e-05 1.4530897e-05 -5.3220856e-06 -8.8450015e-06 -1.1851409e-05 1.4286911e-05 -1.2466372e-05 -4.2076363e-06
-6e-45 6e-45 -6e-45 -6e-45 1.0956645e-05 1.4494341e-05 -6.4648875e-06 6.9521e-06
00000000: aa18 5d37 bac9 7337 5e94 b2b6 fe64 14b7
00000010: 6ad5 46b7 d1b1 6f37 a926 51b7 522f 8db6
00000020: 0400 0080 0400 0000 0400 0080 0400 0080
00000030: 6fd2 3737 b82c 7337 f6ec d8b6 1646 e936

exp_avg_sq f4 [4, 4]
4.1800217e-06 7.3645583e-07 2.2749637e-07 4.5886694e-07 1.591734e-07 1.9304538e-07 1.9784375e-07 1.3759859e-08
3.5e-44 3.5e-44 3.5e-44 3.5e-44 2.3918826e-06 3.763334e-07 6.8490293e-09 2.3162019e-07
00000000: 1d42 8c36 dcb0 4535 ba45 7434 315a f634
00000010: 40e9 2a34 e947 4f34 e06e 5434 8064 6c32
00000020: 1900 0000 1900 0000 1900 0000 1900 0000
00000030: 3b84 2036 de0a ca34 b354 eb31 46b3 7834

exp_avg f4 [4]
-2.8150097e-07 8.717066e-06 6e-45 -8.549533e-06
00000000: 3321 97b4 833f 1237 0400 0000 f76f 0fb7

exp_avg_sq f4 [4]
3.902732e-07 8.819194e-08 3.5e-44 1.5953576e-07
00000000: bd86 d134 0864 bd33 1900 0000 db4c 2b34

exp_avg f4 [4, 4]
2.428934e-05 1.2905664e-05 -6e-45 -2.5157413e-05 -1.0395496e-05 -2.921608e-06 -6e-45 -5.467584e-06
2.0466914e-06 2.7367823e-06 6e-45 1.0348576e-06 -7.3328606e-06 -3.8457392e-06 6e-45 9.445654e-05
00000000: f6c0 cb37 6885 5837 0400 0080 2209 d3b7
00000010: 5168 2eb7 d810 44b6 0400 0080 3076 b7b6
00000020: e459 0936 90a9 3736 0400 0000 70e5 8a35
00000030: cb0c f6b6 a60a 81b6 0400 0000 f816 c638

exp_avg_sq f4 [4, 4]
5.6392497e-07 1.9019468e-07 3.5e-44 3.1939157e-07 5.6236992e-08 4.7846466e-08 3.5e-44 5.1706515e-08
1.1629076e-06 2.4930472e-07 3.5e-44 4.11656e-07 3.5420496e-07 2.0763872e-07 3.5e-44 1.2631301e-06
00000000: a160 1735 5138 4c34 1900 0000 d878 ab34
00000010: 3a89 7133 bf7f 4d33 1900 0000 ea13 5e33
00000020: 3315 9c35 2ed8 8534 1900 0000 9201 dd34
00000030: 8f29 be34 4cf3 5e34 1900 0000 d288 a935

exp_avg f4 [4]
0.00018443682 0.0007228646 -0.0005995379 -0.00010054399
00000000: 6265 4139 9f7e 3d3a 4f2a 1dba 25db d2b8

exp_avg_sq f4 [4]
1.8462989e-06 7.0965016e-06 1.69571e-05 1.3027881e-06
00000000: 59ce f735 7c1e ee36 183f 8e37 75db ae35

exp_avg f4 [4]
3.1616917e-05 -0.00017179779 -0.00015565308 -0.00029857925
00000000: 689c 0438 9e24 34b9 ce36 23b9 a18a 9cb9

exp_avg_sq f4 [4]
7.89539e-07 3.338374e-06 4.6159976e-06 1.7605519e-06
00000000: b5f0 5335 d408 6036 1ee3 9a36 1a4c ec35

exp_avg f4 [4]
0.00015496035 0.00058042695 -0.000787437 3.7617174e-05
00000000: da7c 2239 cb27 183a 016c 4eba 22c7 1d38

exp_avg_sq f4 [4]
1.522819e-06 6.5219247e-06 1.26212135e-05 1.1649977e-06
00000000: aa63 cc35 e8d6 da36 b3bf 5337 045d 9c35

exp_avg f4 [4]
0.0019742576 -0.00045395544 0.0009326726 -0.00036948203
00000000: 8c62 013b de00 eeb9 997e 743a 0ab7 c1b9

exp_avg_sq f4 [4]
4.343713e-05 1.6093654e-05 2.6236405e-05 3.754816e-05
00000000: 4330 3638 dc00 8737 4016 dc37 087d 1d38

exp_avg f4 [4]
0.001283914 0.0022829534 -0.003223453 9.162605e-05
00000000: 0149 a83a 9a9d 153b 9140 53bb 5c27 c038

exp_avg_sq f4 [4]
2.0383997e-05 9.459649e-05 0.00012711594 3.4504894e-05
00000000: 4dfe aa37 1b62 c638 6d4a 0539 59b9 1038

exp_avg f4 [12, 4]
0.0 0.0 0.0 0.0 0.0 0.0 0.0 0.0
0.0 0.0 0.0 0.0 0.0 0.0 0.0 0.0
0.0 0.0 0.0 0.0 0.0 0.0 0.0 0.0
0.0 0.0 0.0 0.0 0.0 0.0 0.0 0.0
0.0025975201 -0.0013176466 -0.011050481 -0.0016705728 -0.0015224804 0.00027308744 -0.007465656 0.0021855473
0.0016624837 -0.00018437859 -0.0026870854 -0.00064882875 0.00019956472 -0.00013322422 -0.00033615407 -0.00024458536
00000000: 0000 0000 0000 0000 0000 0000 0000 0000
00000010: 0000 0000 0000 0000 0000 0000 0000 0000
00000020: 0000 0000 0000 0000 0000 0000 0000 0000
00000030: 0000 0000 0000 0000 0000 0000 0000 0000
00000040: 0000 0000 0000 0000 0000 0000 0000 0000
00000050: 0000 0000 0000 0000 0000 0000 0000 0000
00000060: 0000 0000 0000 0000 0000 0000 0000 0000
00000070: 0000 0000 0000 0000 0000 0000 0000 0000
00000080: 283b 2a3b e2b4 acba 140d 35bc 1ff7 daba
00000090: f78d c7ba 2d2d 8f39 76a2 f4bb 663b 0f3b
000000a0: b2e7 d93a c055 41b9 d019 30bb 2916 2aba
000000b0: 3f42 5139 1bb2 0bb9 d63d b0b9 b13b 80b9

exp_avg_sq f4 [12, 4]
0.0 0.0 0.0 0.0 0.0 0.0 0.0 0.0
0.0 0.0 0.0 0.0 0.0 0.0 0.0 0.0
0.0 0.0 0.0 0.0 0.0 0.0 0.0 0.0
0.0 0.0 0.0 0.0 0.0 0.0 0.0 0.0
6.007024e-05 1.4236761e-05 0.0024601459 4.9818802e-05 0.0001302363 3.6687994e-05 0.0012789188 0.00012560167
3.7314425e-05 1.0389552e-05 0.0015608774 3.770106e-05 4.7783374e-07 1.284119e-07 1.0646326e-05 3.8976125e-07
00000000: 0000 0000 0000 0000 0000 0000 0000 0000
00000010: 0000 0000 0000 0000 0000 0000 0000 0000
00000020: 0000 0000 0000 0000 0000 0000 0000 0000
00000030: 0000 0000 0000 0000 0000 0000 0000 0000
00000040: 0000 0000 0000 0000 0000 0000 0000 0000
00000050: 0000 0000 0000 0000 0000 0000 0000 0000
00000060: 0000 0000 0000 0000 0000 0000 0000 0000
00000070: 0000 0000 0000 0000 0000 0000 0000 0000
00000080: eef3 7b38 6cda 6e37 663a 213b 88f4 5038
00000090: 0a90 0839 6fe1 1938 65a1 a73a f1b3 0339
000000a0: 0f82 1c38 c94e 2e37 5b96 cc3a 3421 1e38
000000b0: 7c44 0035 98e1 0934 9f9d 3237 6140 d134

exp_avg f4 [12]
0.0 0.0 0.0 0.0 0.0 0.0 0.0 0.0
0.0013573004 0.0075938962 -0.0007827239 -0.00033186955
00000000: 0000 0000 0000 0000 0000 0000 0000 0000
00000010: 0000 0000 0000 0000 0000 0000 0000 0000
00000020: 72e7 b13a 38d6 f83b b62f 4dba c7fe adb9

exp_avg_sq f4 [12]
0.0 0.0 0.0 0.0 0.0 0.0 0.0 0.0
0.00054419757 0.0007317271 0.00040297542 3.407272e-06
00000000: 0000 0000 0000 0000 0000 0000 0000 0000
00000010: 0000 0000 0000 0000 0000 0000 0000 0000
00000020: 7ba8 0e3a 60d1 3f3a 7246 d339 7da8 6436

exp_avg f4 [4, 4]
0.0016624851 -0.002307749 0.002407541 -0.00038944656 -0.0009149709 -0.00070444116 -0.002223625 3.2645312e-05
0.0063833697 0.008141606 0.007953158 -0.00018620526 -0.0058455346 -0.0013404752 -0.00046120098 0.00022707187
00000000: bee7 d93a 9a3d 17bb d6c7 1d3b a22e ccb9
00000010: a8da 6fba 3faa 38ba 3dba 11bb a3ec 0838
00000020: 962b d13b 5f64 053c f64d 023c 1840 43b9
00000030: e68b bfbb e2b2 afba 59cd f1b9 241a 6e39

exp_avg_sq f4 [4, 4]
7.369602e-05 0.0002779275 0.00093265413 6.6133175e-06 3.1967927e-05 0.00018107418 0.00027111493 6.5665273e-07
0.0004954719 0.0009080664 0.002063239 1.994122e-06 0.00059413 0.0009516342 0.0023068332 4.184027e-06
00000000: 408d 9a38 ccb6 9139 5c7d 743a f7e7 dd36
00000010: 4d15 0638 bbde 3d39 6e24 8e39 d544 3035
00000020: 8ee2 013a 4e0b 6e3a 6837 073b c1d2 0536
00000030: 64bf 1b3a 1777 793a 3d2e 173b 8564 8c36

exp_avg f4 [4]
0.0024224748 0.00025638216 -0.016175171 0.013727426
00000000: 62c2 1e3b 086b 8639 cb81 84bc ffe8 603c

exp_avg_sq f4 [4]
0.0053994944 0.0011242672 0.0053899186 0.0047863396
00000000: 3eee b03b 265c 933a ea9d b03b bad6 9c3b

exp_avg f4 [12, 4]
0.0 0.0 0.0 0.0 0.0 0.0 0.0 0.0
0.0 0.0 0.0 0.0 0.0 0.0 0.0 0.0
0.0 0.0 0.0 0.0 0.0 0.0 0.0 0.0
0.0 0.0 0.0 0.0 0.0 0.0 0.0 0.0
0.00032798815 -0.0021794527 0.00063765014 0.00057291845 -3.0491483e-06 -0.00012669792 0.00034631792 -6.441004e-05
7.2691895e-05 -0.00031984798 7.532949e-05 4.5366098e-05 -2.1760916e-05 9.455855e-05 -6.939737e-05 6.715831e-06
00000000: 0000 0000 0000 0000 0000 0000 0000 0000
00000010: 0000 0000 0000 0000 0000 0000 0000 0000
00000020: 0000 0000 0000 0000 0000 0000 0000 0000
00000030: 0000 0000 0000 0000 0000 0000 0000 0000
00000040: 0000 0000 0000 0000 0000 0000 0000 0000
00000050: 0000 0000 0000 0000 0000 0000 0000 0000
00000060: 0000 0000 0000 0000 0000 0000 0000 0000
00000070: 0000 0000 0000 0000 0000 0000 0000 0000
00000080: d3f5 ab39 26d5 0ebb fa27 273a e82f 163a
00000090: f89f 4cb6 37da 04b9 0192 b539 e013 87b8
000000a0: 2a72 9838 45b1 a7b9 36fa 9d38 7a47 3e38
000000b0: 368b b6b7 bc4d c638 6e89 91b8 8d58 e136

exp_avg_sq f4 [12, 4]
0.0 0.0 0.0 0.0 0.0 0.0 0.0 0.0
0.0 0.0 0.0 0.0 0.0 0.0 0.0 0.0
0.0 0.0 0.0 0.0 0.0 0.0 0.0 0.0
0.0 0.0 0.0 0.0 0.0 0.0 0.0 0.0
9.081287e-06 3.7529124e-05 4.9297258e-05 9.816085e-06 1.1406617e-06 4.7520475e-06 7.0940114e-06 1.6411713e-06
2.538357e-07 6.521659e-07 1.3754141e-06 1.819888e-07 5.6052215e-08 1.0388663e-07 3.0321002e-07 3.6463927e-08
00000000: 0000 0000 0000 0000 0000 0000 0000 0000
00000010: 0000 0000 0000 0000 0000 0000 0000 0000
00000020: 0000 0000 0000 0000 0000 0000 0000 0000
00000030: 0000 0000 0000 0000 0000 0000 0000 0000
00000040: 0000 0000 0000 0000 0000 0000 0000 0000
00000050: 0000 0000 0000 0000 0000 0000 0000 0000
00000060: 0000 0000 0000 0000 0000 0000 0000 0000
00000070: 0000 0000 0000 0000 0000 0000 0000 0000
00000080: d55b 1837 9768 1d38 87c4 4e38 c4af 2437
00000090: d618 9935 c773 9f36 1809 ee36 3746 dc35
000000a0: ea46 8834 8010 2f35 de9a b835 b368 4334
000000b0: 10be 7033 4718 df33 dec8 a234 839c 1c33

exp_avg f4 [12]
0.0 0.0 0.0 0.0 0.0 0.0 0.0 0.0
0.0018152599 -0.00025968958 0.00033148186 -3.984113e-05
00000000: 0000 0000 0000 0000 0000 0000 0000 0000
00000010: 0000 0000 0000 0000 0000 0000 0000 0000
00000020: 04ee ed3a f226 88b9 beca ad39 161b 27b8

exp_avg_sq f4 [12]
0.0 0.0 0.0 0.0 0.0 0.0 0.0 0.0
0.00010238162 2.0447087e-05 2.0188102e-06 4.7652034e-07
00000000: 0000 0000 0000 0000 0000 0000 0000 0000
00000010: 0000 0000 0000 0000 0000 0000 0000 0000
00000020: b7b5 d638 c985 ab37 e57a 0736 75d4 ff34

exp_avg f4 [4, 4]
0.00021106686 -0.00026958474 0.00015840417 0.00015036864 0.00045192358 8.373288e-05 -3.621659e-05 -2.4091576e-05
0.0008254642 -0.000678725 0.00015821026 2.9095356e-05 -0.002674168 0.0008334176 -0.00021957635 -0.00010880943
00000000: d451 5d39 0d57 8db9 4c19 2639 46ac 1d39
00000010: 28f0 ec39 bf99 af38 44e7 17b8 4418 cab7
00000020: f763 583a 77ec 31ba 3ee5 2539 cd11 f437
00000030: 1841 2fbb b579 5a3a 143e 66b9 9e30 e4b8

exp_avg_sq f4 [4, 4]
8.131472e-05 1.03747025e-05 3.4144357e-06 4.1270584e-07 2.9391986e-06 9.068619e-07 1.1681397e-07 2.3858702e-08
6.763298e-05 1.26784225e-05 1.1235617e-06 2.2416202e-07 0.000101147794 1.3098605e-05 2.744664e-06 3.6417447e-07
00000000: 8287 aa38 020f 2e37 8f23 6536 dc91 dd34
00000010: 0c3f 4536 136f 7335 29db fa33 d7f1 cc32
00000020: 2ed6 8d38 69b5 5437 49cd 9635 30b1 7034
00000030: 4f1f d438 15c2 5b37 f830 3836 c283 c334

exp_avg f4 [4]
0.0023981952 -0.00068980904 0.0002345191 -0.0051471787
00000000: 0a2b 1d3b 4dd4 34ba 3ee9 7539 aaa9 a8bb

exp_avg_sq f4 [4]
0.00091063016 0.00013773491 0.0007862803 0.00071656966
00000000: 5bb7 6e3a ef6c 1039 611e 4e3a 2dd8 3b3a

exp_avg f4 [4, 4]
0.0007926613 -7.4850475e-05 0.0022064564 -0.0021613305 6e-45 -6e-45 -6e-45 6e-45
0.0031658346 0.00026279932 -0.0042222827 0.0010517933 6e-45 -6e-45 6e-45 6e-45
00000000: 99ca 4f3a 0bf9 9cb8 329a 103b 1ca5 0dbb
00000010: 0400 0000 0400 0080 0400 0080 0400 0000
00000020: e479 4f3b 54c8 8939 135b 8abb 54dc 893a
00000030: 0400 0000 0400 0080 0400 0000 0400 0000

exp_avg_sq f4 [4, 4]
0.00010918982 2.4536978e-06 5.7725356e-05 9.741564e-05 3.5e-44 3.5e-44 3.5e-44 3.5e-44
5.961669e-05 4.8238263e-07 9.585943e-05 9.735222e-06 3.5e-44 3.5e-44 3.5e-44 3.5e-44
00000000: d7fc e438 35aa 2436 211e 7238 a04b cc38
00000010: 1900 0000 1900 0000 1900 0000 1900 0000
00000020: ef0c 7a38 157d 0135 2408 c938 7654 2337
00000030: 1900 0000 1900 0000 1900 0000 1900 0000

exp_avg f4 [4]
-0.0003015878 6e-45 -0.0010041763 6e-45
00000000: 6e1e 9eb9 0400 0000 919e 83ba 0400 0000

exp_avg_sq f4 [4]
3.2234326e-05 3.5e-44 5.530469e-06 3.5e-44
00000000: 5833 0738 1900 0000 5e92 b936 1900 0000

exp_avg f4 [4, 4]
-0.0006824861 6e-45 -0.00023337042 -6e-45 -1.1506878e-05 6e-45 -6.117922e-05 -6e-45
8.4067244e-05 -6e-45 -0.00011251495 6e-45 -0.00056065514 -6e-45 0.0001697027 6e-45
00000000: dee8 32ba 0400 0000 e5b4 74b9 0400 0080
00000010: aa0d 41b7 0400 0000 584d 80b8 0400 0080
00000020: 424d b038 0400 0080 01f6 ebb8 0400 0000
00000030: eef8 12ba 0400 0080 39f2 3139 0400 0000

exp_avg_sq f4 [4, 4]
6.9170223e-06 3.5e-44 4.976442e-06 3.5e-44 9.229118e-07 3.5e-44 1.8156139e-07 3.5e-44
6.8937393e-06 3.5e-44 4.0152975e-07 3.5e-44 1.761626e-05 3.5e-44 3.1281993e-06 3.5e-44
00000000: c518 e836 1900 0000 50fb a636 1900 0000
00000010: 04be 7735 1900 0000 37f3 4234 1900 0000
00000020: c550 e736 1900 0000 d491 d734 1900 0000
00000030: a1c6 9337 1900 0000 0eee 5136 1900 0000

exp_avg f4 [4]
-0.005735074 -0.00014589672 0.0023138155 0.0043955864
00000000: 4aed bbbb dafb 18b9 62a3 173b da08 903b

exp_avg_sq f4 [4]
0.0003549499 2.134229e-05 0.00046749174 0.00065561425
00000000: 9218 ba39 3808 b337 ae19 f539 87dd 2b3a

exp_avg f4 [4]
-0.0013892557 0.0007857209 -0.0064929035 0.0050136205
00000000: b017 b6ba d6f8 4d3a 6cc2 d4bb 4c49 a43b

exp_avg_sq f4 [4]
0.0004930495 9.471072e-05 0.00059536187 0.0003723091
00000000: fe3f 013a 6e9f c638 0f12 1c3a 7b32 c339

exp_avg f4 [4]
-0.0030107044 0.00013242234 -0.0006471457 0.0035254273
00000000: 3d4f 45bb dada 0a39 36a5 29ba db0a 673b

exp_avg_sq f4 [4]
0.00061670074 9.663258e-05 0.00063932687 0.00042627545
00000000: 16aa 213a 39a7 ca38 8098 273a b97d df39

exp_avg f4 [4]
0.0044658245 0.0010289524 -0.005671929 0.0023079838
00000000: 0d56 923b eadd 863a 97db b9bb 8b41 173b

exp_avg_sq f4 [4]
0.00013836526 0.00012167576 0.0002493619 0.0006489475
00000000: 2416 1139 2d2c ff38 cabc 8239 211e 2a3a

exp_avg f4 [4]
-0.0050859847 -0.00039612176 0.0002684868 0.0044170064
00000000: 55a8 a6bb 90ae cfb9 b0c3 8c39 89bc 903b

exp_avg_sq f4 [4]
0.0002669804 0.00015967022 0.00043520407 0.0005266944
00000000: 81f9 8b39 266d 2739 1a2c e439 dd11 0a3a

exp_avg f4 [4]
0.00632953 -9.224986e-05 -0.0038596997 0.0004284292
00000000: f267 cf3b 4476 c1b8 04f3 7cbb cb9e e039

exp_avg_sq f4 [4]
0.00023194733 4.853311e-07 7.968647e-05 9.4972536e-05
00000000: e336 7339 b347 0235 591d a738 fe2b c738

exp_avg f4 [4]
-0.0048988345 -0.00017227902 0.00080593646 0.004143198
00000000: 6786 a0bb cca5 34b9 7b45 533a aac3 873b

exp_avg_sq f4 [4]
0.00014617528 1.1054071e-05 0.00012998858 0.00031326603
00000000: a146 1939 e074 3937 8b4d 0839 db3d a439

exp_avg f4 [12, 4]
0.0 0.0 0.0 0.0 0.0 0.0 0.0 0.0
0.0 0.0 0.0 0.0 0.0 0.0 0.0 0.0
0.0 0.0 0.0 0.0 0.0 0.0 0.0 0.0
0.0 0.0 0.0 0.0 0.0 0.0 0.0 0.0
-3.5482233e-05 1.3115877e-05 4.21434e-06 -6.984141e-06 -0.0001670279 -2.0756772e-05 0.00033102045 -0.00024052212
0.000116180876 -1.7551674e-05 -7.18492e-05 2.6612805e-05 -0.00047968098 4.275038e-05 0.00024318096 4.695157e-05
00000000: 0000 0000 0000 0000 0000 0000 0000 0000
00000010: 0000 0000 0000 0000 0000 0000 0000 0000
00000020: 0000 0000 0000 0000 0000 0000 0000 0000
00000030: 0000 0000 0000 0000 0000 0000 0000 0000
00000040: 0000 0000 0000 0000 0000 0000 0000 0000
00000050: 0000 0000 0000 0000 0000 0000 0000 0000
00000060: 0000 0000 0000 0000 0000 0000 0000 0000
00000070: 0000 0000 0000 0000 0000 0000 0000 0000
00000080: c2d2 14b8 430c 5c37 e868 8d36 5059 eab6
00000090: 3624 2fb9 d41e aeb7 d08c ad39 aa34 7cb9
000000a0: 22a6 f338 ef3b 93b7 bfad 96b8 903e df37
000000b0: b17d fbb9 df4e 3338 64fe 7e39 dded 4438

exp_avg_sq f4 [12, 4]
0.0 0.0 0.0 0.0 0.0 0.0 0.0 0.0
0.0 0.0 0.0 0.0 0.0 0.0 0.0 0.0
0.0 0.0 0.0 0.0 0.0 0.0 0.0 0.0
0.0 0.0 0.0 0.0 0.0 0.0 0.0 0.0
3.0025276e-07 2.6399047e-09 1.9682832e-07 9.296418e-08 2.2788988e-06 1.7994829e-08 9.549215e-07 6.9892934e-07
1.0913441e-06 7.673338e-09 6.906976e-07 4.603116e-07 5.2188434e-06 6.4590516e-08 4.3971427e-06 1.7529213e-06
00000000: 0000 0000 0000 0000 0000 0000 0000 0000
00000010: 0000 0000 0000 0000 0000 0000 0000 0000
00000020: 0000 0000 0000 0000 0000 0000 0000 0000
00000030: 0000 0000 0000 0000 0000 0000 0000 0000
00000040: 0000 0000 0000 0000 0000 0000 0000 0000
00000050: 0000 0000 0000 0000 0000 0000 0000 0000
00000060: 0000 0000 0000 0000 0000 0000 0000 0000
00000070: 0000 0000 0000 0000 0000 0000 0000 0000
00000080: 6d32 a134 b269 3531 c257 5334 99a3 c733
00000090: 2fef 1836 0c93 9a32 da2a 8035 0f9e 3b35
000000a0: 4c7a 9235 b3d3 0332 6168 3935 bf20 f734
000000b0: 861d af36 03b5 8a33 2b8b 9336 eb45 eb35

exp_avg f4 [12]
0.0 0.0 0.0 0.0 0.0 0.0 0.0 0.0
1.8060091e-05 5.0058898e-05 -2.6264885e-05 0.0001995112
00000000: 0000 0000 0000 0000 0000 0000 0000 0000
00000010: 0000 0000 0000 0000 0000 0000 0000 0000
00000020: c07f 9737 55f6 5138 6953 dcb7 e133 5139

exp_avg_sq f4 [12]
0.0 0.0 0.0 0.0 0.0 0.0 0.0 0.0
3.2191117e-08 2.3063936e-07 1.1875364e-07 6.185227e-07
00000000: 0000 0000 0000 0000 0000 0000 0000 0000
00000010: 0000 0000 0000 0000 0000 0000 0000 0000
00000020: 8242 0a33 aaa5 7734 8105 ff33 8e08 2635

exp_avg f4 [4, 4]
-0.00014111165 -0.0005635377 0.00032704728 0.0008193828 -3.1253621e-06 -5.7899615e-06 3.5265526e-05 -1.5283254e-05
-3.0540198e-06 -9.970667e-05 9.564564e-05 0.00026583154 9.544313e-05 0.0004531834 -0.00038508934 -0.0005600817
00000000: 5ff7 13b9 60ba 13ba 8b77 ab39 d9cb 563a
00000010: 50bd 51b6 6447 c2b6 12ea 1338 8a34 80b7
00000020: a9f3 4cb6 9c19 d1b8 5d95 c838 4e5f 8b39
00000030: a428 c838 3f99 ed39 d1e5 c9b9 72d2 12ba

exp_avg_sq f4 [4, 4]
2.5239177e-07 1.8380061e-06 8.998695e-07 5.1835523e-06 3.097272e-08 2.2421064e-07 1.0956343e-07 4.2114274e-07
2.3540319e-07 1.7635083e-06 1.055091e-06 2.0956777e-06 8.862072e-07 5.252311e-06 2.9395276e-06 1.0997777e-05
00000000: 7680 8734 69b1 f635 908e 7135 60ee ad36
00000010: de06 0533 8dbe 7034 2249 eb33 6b19 e234
00000020: 23c3 7c34 afb1 ec35 a79c 8d35 78a3 0c36
00000030: b2e3 6d35 023d b036 b344 4536 1883 3837

exp_avg f4 [4]
-0.007477978 -0.0005109038 0.0011043907 0.003916184
00000000: d309 f5bb 2cee 05ba 34c1 903a 5553 803b

exp_avg_sq f4 [4]
0.00016465597 1.4834518e-05 0.00016206109 0.0003567814
00000000: 80a7 2c39 c5e1 7837 f1ee 2939 640e bb39

exp_avg f4 [12, 4]
0.0 0.0 0.0 0.0 0.0 0.0 0.0 0.0
0.0 0.0 0.0 0.0 0.0 0.0 0.0 0.0
0.0 0.0 0.0 0.0 0.0 0.0 0.0 0.0
0.0 0.0 0.0 0.0 0.0 0.0 0.0 0.0
3.3416032e-05 0.0005883825 -0.0003308319 -0.00026818225 9.719971e-05 -0.000109258486 -0.00041677186 -1.751633e-05
0.000561942 -0.0009254802 -0.0005525551 -0.0005942144 5.513767e-06 -1.303739e-05 1.1062564e-05 4.2822417e-06
00000000: 0000 0000 0000 0000 0000 0000 0000 0000
00000010: 0000 0000 0000 0000 0000 0000 0000 0000
00000020: 0000 0000 0000 0000 0000 0000 0000 0000
00000030: 0000 0000 0000 0000 0000 0000 0000 0000
00000040: 0000 0000 0000 0000 0000 0000 0000 0000
00000050: 0000 0000 0000 0000 0000 0000 0000 0000
00000060: 0000 0000 0000 0000 0000 0000 0000 0000
00000070: 0000 0000 0000 0000 0000 0000 0000 0000
00000080: 3128 0c38 ae3d 1a3a 8273 adb9 d09a 8cb9
00000090: b2d7 cb38 b421 e5b8 2c82 dab9 08f0 92b7
000000a0: 4a4f 133a ed9b 72ba 58d9 10ba 0ec5 1bba
000000b0: e602 b936 2abb 5ab7 5a99 3937 2db0 8f36

exp_avg_sq f4 [12, 4]
0.0 0.0 0.0 0.0 0.0 0.0 0.0 0.0
0.0 0.0 0.0 0.0 0.0 0.0 0.0 0.0
0.0 0.0 0.0 0.0 0.0 0.0 0.0 0.0
0.0 0.0 0.0 0.0 0.0 0.0 0.0 0.0
2.83303e-06 2.2826853e-05 3.4523582e-05 5.918798e-06 6.612704e-06 2.1586959e-05 2.4937282e-05 9.151638e-06
5.1723705e-06 1.9302222e-05 2.756745e-05 1.1276239e-05 1.4612961e-08 6.8413996e-08 9.3664184e-08 2.0706368e-08
00000000: 0000 0000 0000 0000 0000 0000 0000 0000
00000010: 0000 0000 0000 0000 0000 0000 0000 0000
00000020: 0000 0000 0000 0000 0000 0000 0000 0000
00000030: 0000 0000 0000 0000 0000 0000 0000 0000
00000040: 0000 0000 0000 0000 0000 0000 0000 0000
00000050: 0000 0000 0000 0000 0000 0000 0000 0000
00000060: 0000 0000 0000 0000 0000 0000 0000 0000
00000070: 0000 0000 0000 0000 0000 0000 0000 0000
00000080: 161f 3e36 4b7c bf37 6acd 1038 169a c636
00000090: b2e2 dd36 a415 b537 6830 d137 fc89 1937
000000a0: 538e ad36 35eb a137 a640 e737 142f 3d37
000000b0: 7b0c 7b32 feea 9233 6e24 c933 c9dd b132
