Saved_models/best_model_LSTM_both.pt (torch, 81405 bytes, 39 tensors)

lstm1.weight_ih_l0 f4 [80, 5]
0	0xbd7603c6	-0.060062192
1	0x3e313847	0.17306624
2	0x3a81af35	0.0009894135
3	0x3e564749	0.2092563
4	0xbd3764bf	-0.044773813
5	0xbe37b3e9	-0.17939724
6	0xbce6e435	-0.02818499
7	0xbe06e9aa	-0.13175073
8	0x3dee3b6e	0.11632429
9	0xbd90a43f	-0.070625775
10	0xbe0c205e	-0.13684222
11	0x3cd1fe40	0.025633931
12	0x3e304de0	0.17217207
13	0xbdd8f11c	-0.10592863
14	0x3d0a1c35	0.033718307
15	0xbe380bbe	-0.1797323
16	0xbe872704	-0.26396954
17	0xbe9c0cb0	-0.3047843
18	0xbcc81f9d	-0.024429137
19	0xbe115c58	-0.14195383
20	0xbd315c79	-0.04330108
21	0x3d804c30	0.062645316
22	0x3e3e36f7	0.18575655
23	0xbd5560aa	-0.05209414
24	0x3e2791f2	0.16364267
25	0xbe2d1a41	-0.16904546
26	0x3d869356	0.06571071
27	0xbe5258a3	-0.20541625
28	0xbe622654	-0.22084934
29	0xbcd4e8cb	-0.02598991
30	0xbe0f5980	-0.13998985
31	0x3e378944	0.17923456
32	0xbd0f0670	-0.03491825
33	0xbe0345b6	-0.12819561
34	0x3d71c72b	0.059027832
35	0x3e285447	0.164384
36	0xbddc86a0	-0.10767865
37	0xbe453fe7	-0.19262658
38	0xbe3716d0	-0.17879796
39	0xbe30f8fd	-0.17282481
40	0x3e13dc9e	0.14439628
41	0x3e149521	0.14510013
42	0x3dbbc3f3	0.09168234
43	0x3dfb4407	0.122688346
44	0xbdfde484	-0.123971015
45	0xbdbdf953	-0.092760704
46	0xbe17f198	-0.14838254
47	0x3daf94f1	0.0857333
48	0xbe52dedb	-0.20592825
49	0x3d2dc363	0.042422663
50	0x3cf93e51	0.030425223
51	0xbd8d3f98	-0.06896895
52	0xbb5d68d1	-0.00337844
53	0x3c567427	0.013089216
54	0xbe593308	-0.21210873
55	0xbdf8f5aa	-0.12156232
56	0x3c0a0f5c	0.0084265135
57	0xbd00bb6f	-0.03142875
58	0xbd37f5ba	-0.044912077
59	0x3dfcf5ab	0.12351545
60	0xbe4c37d0	-0.19943166
61	0xbe213017	-0.15741001
62	0x3d8581db	0.065189086
63	0x3d5a2079	0.053253625
64	0x3da55b32	0.08074035
65	0x3db8f1d7	0.09030502
66	0xbe363f66	-0.17797622
67	0x3d7df4d5	0.06200107
68	0x3d201e46	0.03909137
69	0xbe3cc01b	-0.18432657
70	0xbea56402	-0.32302862
71	0xbe93dc25	-0.28878894
72	0x3db41d0e	0.08794604
73	0x3db61b2a	0.088919
74	0x3cd2e83c	0.025745504
75	0x3deedc2e	0.1166309
76	0x3d9f6234	0.07782403
77	0xbdc5cc79	-0.09658141
78	0x3e5c715d	0.2152762
79	0x3d7043be	0.058658354
80	0xbe4e33d2	-0.20136955
81	0xbe009729	-0.12557663
82	0xbd95694f	-0.07295477
83	0xbe849839	-0.25897387
84	0x3d8b4ddc	0.0680196
85	0xbe7a9ded	-0.24474306
86	0xbe78829c	-0.24268574
87	0xbe34edb8	-0.17668808
88	0x3e1d4e16	0.15361819
89	0x3d3f0e6b	0.04664461
90	0xbe41bfd0	-0.18920827
91	0xbcaec927	-0.021336151
92	0xbdcd234f	-0.100165
93	0xbbc05908	-0.0058699884
94	0xbe200efb	-0.15630715
95	0x3d89ab18	0.06722087
96	0x3c858b6c	0.016301833
97	0x3d0b5d84	0.03402473
98	0xbe648b92	-0.22318867
99	0xbe26221d	-0.1622395
100	0x3e2878ef	0.16452383
101	0xbb1f1a2b	-0.0024277072
102	0x3e1e1ccf	0.15440677
103	0xbe1465bd	-0.14491935
104	0xbd001a14	-0.03127487
105	0xbce753ca	-0.028238196
106	0x3e5241cb	0.2053291
107	0xbd14b0f1	-0.036301557
108	0x3e1ae8bc	0.15127844
109	0xbc90f840	-0.0176965
110	0xbe434cc2	-0.1907225
111	0xbbe30ed9	-0.00692926
112	0xbc75fa24	-0.015013251
113	0xbe612c48	-0.21989548
114	0xbe0e50cc	-0.13898009
115	0xbdcc8493	-0.09986224
116	0xbd91f42b	-0.071266495
117	0xbd8a59f6	-0.0675544
118	0xbe827bf2	-0.25485188
119	0xbe1668b0	-0.14688373
120	0x3d89701d	0.06710837
121	0x3e231031	0.15924145
122	0x3e428cf1	0.18999077
123	0xbb15b1bd	-0.0022841536
124	0x3e104cb8	0.14091766
125	0xbe84ca0a	-0.25935394
126	0xbc181c06	-0.009284025
127	0xbe2930fb	-0.16522591
128	0xbdfe28c3	-0.124101184
129	0xbe9c9862	-0.3058501
130	0xbe32793f	-0.17429064
131	0x3d4c4c25	0.049877305
132	0x3cc2680d	0.023731256
133	0xbd30e163	-0.043183696
134	0xbe819ab9	-0.25313357
135	0xbe053a61	-0.13010551
136	0xbd83c8f3	-0.064348124
137	0xbdf05653	-0.11735215
138	0xbd8e6028	-0.06951934
139	0x3c9bd9da	0.019024778
140	0xbdc2ecde	-0.09517835
141	0xbe54cd05	-0.20781334
142	0x3d609b71	0.05483574
143	0xbd12f9ee	-0.035882883
144	0xbde7b4b6	-0.11313765
145	0x3e55db99	0.20884551
146	0x3da08c78	0.07839292
147	0x3cdd8a6e	0.027043547
148	0xbb042dfd	-0.0020169013
149	0xbdeca892	-0.1155559
150	0x3ddf9019	0.10916156
151	0x3dd54046	0.1041265
152	0xbe38e8cd	-0.18057556
153	0x3e5c6499	0.2152275
154	0xbd3ac0bc	-0.045593962
155	0x3e27658b	0.1634733
156	0xbde3bf63	-0.111204885
157	0xbe4daecd	-0.20086212
158	0xbe375ac9	-0.17905726
159	0xbe34aad8	-0.17643297
160	0x3e2a0c5f	0.16606282
161	0xbdb1847b	-0.08667847
162	0xbccd03f9	-0.025026308
163	0x3e38d6a3	0.18050627
164	0xbe23f9bc	-0.16013235
165	0xbe4e04de	-0.20119044
166	0x3c0d25de	0.008614985
167	0xbe253717	-0.16134296
168	0x3e1ec9a0	0.15506601
169	0xbe8f7907	-0.28022024
170	0xbe89cc1a	-0.2691353
171	0xbe19e036	-0.15026936
172	0x3dc64630	0.09681356
173	0xbd44089e	-0.04785978
174	0xbe8398f5	-0.25702634
175	0xbd81982c	-0.063278526
176	0x3cfd7cca	0.030943293
177	0x3e4c0ba1	0.19926311
178	0xbce21938	-0.027599916
179	0xbbeedb29	-0.0072893095
180	0x3e15fb5c	0.14646667
181	0x3ccfa933	0.025349235
182	0xbd6084f8	-0.05481431
183	0xbdccb647	-0.09995704
184	0xbe5bb339	-0.21455087
185	0xbcc7ccb2	-0.024389599
186	0xbe3e5698	-0.1858772
187	0xbde9c772	-0.11414994
188	0xbe5d3d75	-0.21605475
189	0xbe032be8	-0.12809718
190	0xbc9c211d	-0.019058758
191	0xbdbb2118	-0.091371715
192	0x3d8118fc	0.063035935
193	0x3dd50b21	0.10402513
194	0xbe13b69d	-0.1442513
195	0x3bef47bd	0.007302253
196	0x3e4b0c05	0.19828804
197	0x3d201b4c	0.039088532
198	0xbe454d4a	-0.19267765
199	0xbe4acb0c	-0.19804019
200	0xbd0cc4a7	-0.03436723
201	0x3e9f41f5	0.3110501
202	0x3d75b7b9	0.059989665
203	0x3e5926e4	0.21206242
204	0x3e85c0dc	0.26123703
205	0xbdd5b6cc	-0.10435256
206	0x3e73ab6e	0.23795864
207	0x3e39c3e2	0.1814113
208	0x3dd0a5c6	0.10187869
209	0x3e1e293a	0.15445414
210	0x3e082ab3	0.13297538
211	0x3e5ee98c	0.21768779
212	0x3e1da293	0.15394048
213	0xbd012208	-0.031526595
214	0xbdc5cdbb	-0.096583806
215	0x3e5b33a2	0.21406415
216	0x3e1f7538	0.15572059
217	0x3d497523	0.049183976
218	0xbdbde892	-0.09272875
219	0xbe4881a2	-0.19580701
220	0xbc972b12	-0.018453155
221	0x3b68df36	0.0035533435
222	0xbd5c8e19	-0.053846452
223	0xbe41b07b	-0.18914978
224	0xbdf1d74e	-0.11808644
225	0xbe7cdbc6	-0.24693212
226	0xbe4b22e0	-0.19837523
227	0xbe20bb2d	-0.15696402
228	0x3cf818d4	0.030285276
229	0xbe24ea8d	-0.16105099
230	0x3e3fce71	0.18731095
231	0x3e094c13	0.13407926
232	0x3d4dde33	0.050260734
233	0xbdc35589	-0.09537799
234	0x3d876ab9	0.066121526
235	0xbe26f58c	-0.16304606
236	0xbdbc4474	-0.09192744
237	0x3d0b24f1	0.033970777
238	0x3d92a4d9	0.071603484
239	0xbd7e15e9	-0.062032614
240	0x3e3a0c4c	0.18168753
241	0x3e45056a	0.19240347
242	0xbbb8bb0a	-0.005637531
243	0x3e13c8a1	0.14432003
244	0xbe37bb17	-0.17942463
245	0xbcbb1170	-0.022835463
246	0x3dfe5033	0.124176405
247	0x3e29cab2	0.16581228
248	0xbd1f12b3	-0.038836192
249	0xbd4c2d07	-0.04984763
250	0xbeac1430	-0.33609152
251	0xbe4f0230	-0.20215678
252	0xbe8aa100	-0.27075958
253	0xbea8622d	-0.32887402
254	0xbddbc91e	-0.107317194
255	0x3cfe17ed	0.031017268

lstm1.weight_hh_l0 f4 [80, 20]
0	0xbb091838	-0.0020918977
1	0xbe5f7941	-0.21823598
2	0xbbcd7aff	-0.006270766
3	0x3e3cef69	0.18450703
4	0xbdc4bac0	-0.09605932
5	0x3e28308b	0.16424768
6	0xba48f785	-0.0007666278
7	0xbc2028c1	-0.0097753415
8	0xbe2063fb	-0.1566314
9	0x3cdc1902	0.026867393
10	0xbd8b14a4	-0.06791046
11	0x3d8beeb6	0.0683264
12	0xbd951d82	-0.07281019
13	0x3dd4adba	0.10384698
14	0x3d7d430f	0.06183153
15	0xbe24e60f	-0.16103385
16	0x3dbfe371	0.09369553
17	0xbd13b481	-0.036060814
18	0x3e160dc9	0.14653696
19	0xbe3a173c	-0.18172926
20	0xbd2f009d	-0.042725194
21	0xbdc69031	-0.09695471
22	0x3e31e5b8	0.17372787
23	0x3d79322a	0.060838856
24	0xbdd5f4c7	-0.10447078
25	0x3d9076cc	0.07053909
26	0xbca33692	-0.019923482
27	0x3e66c664	0.22536618
28	0x3dc71aae	0.097218856
29	0xbdf80289	-0.121098585
30	0xbdbd2b45	-0.09236769
31	0xbe840723	-0.25786695
32	0x3e07e768	0.13271868
33	0x3cb64b74	0.022252776
34	0x3e0f30a0	0.13983393
35	0xbdb68cd3	-0.08913579
36	0x3cf20f09	0.029548185
37	0xbe25b5e8	-0.16182673
38	0xbd13c099	-0.036072347
39	0x3e1f0c83	0.15532117
40	0x3dde8ae2	0.108663335
41	0x3c79ba28	0.015242137
42	0x3c33d48d	0.010975969
43	0x3e78b90d	0.24289341
44	0x3d87301e	0.066009745
45	0x3e6acbb2	0.22929266
46	0x3e11bb48	0.14231598
47	0xbe1917fe	-0.14950559
48	0xbe019299	-0.12653579
49	0x3e3194b0	0.17341876
50	0x3e0b8e23	0.1362844
51	0x3e577933	0.21042328
52	0x3e6a9ee6	0.22912177
53	0xbd7196d1	-0.05898172
54	0x3c2acbf5	0.010424604
55	0xbe632974	-0.22183782
56	0x3e3522ea	0.176891
57	0x3e0a3d3f	0.13499926
58	0xbd418722	-0.047248013
59	0xbdf0f359	-0.11765165
60	0x3d4d0d2f	0.0500614
61	0xbdbe8250	-0.09302199
62	0x3e120dbd	0.14263053
63	0x3c378dba	0.011203224
64	0x3d407c7c	0.046993718
65	0x3e64d1ef	0.22345708
66	0xbc05bce1	-0.008162708
67	0x3e720665	0.23635252
68	0xbe9397b1	-0.2882667
69	0xbd0ccd02	-0.0343752
70	0xbdf0b86b	-0.11753925
71	0xbe93dbe3	-0.28878698
72	0x3e2d11f7	0.16901384
73	0xbe8e9000	-0.27844238
74	0xbe4a1ee6	-0.1973835
75	0xbe9385e9	-0.28813103
76	0xbcb071d0	-0.021538645
77	0xbd91191b	-0.070848666
78	0x3de71905	0.11284069
79	0xbe73b1d2	-0.23798302
80	0x3e4a8838	0.19778526
81	0x3e5a3184	0.21307951
82	0x3e22b610	0.15889764
83	0xbe146f0c	-0.14495486
84	0xbe1c8fa1	-0.15289165
85	0x3b2eb84e	0.0026660147
86	0xbe04eac4	-0.12980181
87	0x3dd54d16	0.104150936
88	0x3db49119	0.08816738
89	0x3e665341	0.22492696
90	0x3e34d77e	0.17660329
91	0x3d1f9535	0.038960654
92	0xbe5d1c0a	-0.21592727
93	0x3e314234	0.1731041
94	0x3abefcfe	0.0014571247
95	0x3d81ce22	0.06338145
96	0xbc1cb5e6	-0.009564852
97	0xbe57340f	-0.21015953
98	0x3e815d97	0.25266716
99	0xbdc90990	-0.09816277
100	0xbe84a2d3	-0.25905475
101	0xbe726e87	-0.23674975
102	0xbdea9761	-0.114546545
103	0xbe96d42a	-0.29458743
104	0x3e5cc60c	0.21559924
105	0xbce821e8	-0.02833648
106	0x3d18f314	0.037341192
107	0x3daf3b95	0.08556286
108	0x3da493db	0.08036014
109	0xbe68b0df	-0.22723721
110	0x3e3fa5be	0.1871557
111	0xbde12adb	-0.10994502
112	0x3e005e67	0.12536012
113	0x3e038ec1	0.12847425
114	0x3e06b267	0.13153993
115	0xbe10fe40	-0.14159489
116	0x3d092088	0.03347829
117	0x3e37e648	0.17958939
118	0x3d9ce4d2	0.076608315
119	0xbd56e98a	-0.052468814
120	0x3d84482a	0.06459077
121	0x3d19a827	0.03751388
122	0x3d4ae1e4	0.049531832
123	0xbe179244	-0.1480189
124	0x3e2acb28	0.1667906
125	0xbd5f5895	-0.054527838
126	0xbe8ab485	-0.2709085
127	0x3e25fdc9	0.16210093
128	0xbd878610	-0.06617367
129	0xbd41fe5e	-0.047361724
130	0xbe1a9925	-0.15097483
131	0x3e1478e4	0.14499241
132	0x3e18b5a9	0.14913048
133	0xbca0eaf9	-0.019643294
134	0xbe3c64e0	-0.18397856
135	0xbddead59	-0.10872907
136	0x3e8b5e4e	0.27220386
137	0xbd5fdb8e	-0.054652743
138	0xbdc41219	-0.09573764
139	0x3e2897e8	0.16464198
140	0x3de8de58	0.11370534
141	0xbdc87e5d	-0.09789727
142	0x3e612e30	0.21990275
143	0xbe3ca076	-0.18420586
144	0xbd907d22	-0.07055117
145	0xbe25f003	-0.16204838
146	0xbd87ea6f	-0.066365115
147	0x3d6ddffa	0.05807493
148	0xbcfdf079	-0.030998455
149	0xbdad5353	-0.084631585
150	0xbe73d98b	-0.23813455
151	0xbe2c73d1	-0.16841055
152	0x3dbaf4bc	0.09128711
153	0xbcd356f5	-0.0257983
154	0x3df7b1d6	0.120944664
155	0x3e3698e5	0.17831762
156	0x3dee6290	0.11639893
157	0xbe17b76e	-0.14816067
158	0x3d26d370	0.040728986
159	0x3bee62c4	0.0072749574
160	0xbdc61c90	-0.096734166
161	0xbe4b2c40	-0.19841099
162	0xbe654989	-0.22391333
163	0x3e1fca28	0.1560446
164	0xbd6faee9	-0.058516417
165	0x3d8a0c59	0.067406364
166	0xbe2847aa	-0.16433588
167	0x3cb34484	0.021883257
168	0xbe2ca556	-0.16859946
169	0xbe3be304	-0.18348318
170	0xbd4319d2	-0.047632046
171	0xbc9a19a3	-0.018811053
172	0x3e783ea5	0.24242647
173	0xbe2eff74	-0.17089635
174	0xbe459a41	-0.19297124
175	0xbdcabf06	-0.09899716
176	0x3e73f767	0.23824845
177	0x3e3b767e	0.1830692
178	0xbe3dff5f	-0.18554448
179	0x3c9f9348	0.019479409
180	0xbe2efbb0	-0.17088199
181	0xbdbd4bdc	-0.09242985
182	0xbb129d68	-0.0022371653
183	0x3bee0d02	0.0072647342
184	0xbdd4f252	-0.103977814
185	0xbd7212d9	-0.059100006
186	0x3e3677d3	0.17819147
187	0xbe5bb1ee	-0.21454594
188	0x3d4ff28e	0.050768428
189	0x3e6a9990	0.22910142
190	0xbe862579	-0.26200464
191	0xbd96bba6	-0.0736001
192	0xbc18c580	-0.009324431
193	0xbe24c3ed	-0.16090365
194	0x3d5c195f	0.053735133
195	0xbe2537a0	-0.161345
196	0x3d4ab793	0.049491476
197	0x3e370fc2	0.17877105
198	0x3d7fcd61	0.062451724
199	0x3da2081f	0.07911705
200	0xbe8fc9c9	-0.28083637
201	0xbe19e3c9	-0.150283
202	0xbe096f55	-0.13421376
203	0x3daabf9a	0.08337326
204	0xbd952c8e	-0.07283889
205	0xbdaac804	-0.08338931
206	0xbe26a24d	-0.1627285
207	0x3c646e55	0.013942321
208	0xbd54af0d	-0.051924754
209	0xbdf4f265	-0.119602956
210	0x3da19436	0.07889597
211	0x3dc92f2c	0.098234504
212	0xbdeb8bbc	-0.115012616
213	0x3e21b638	0.15792167
214	0xbe41c4c9	-0.18922724
215	0xbe62fa6e	-0.22165844
216	0xbdfa52be	-0.12222813
217	0x3e6ed886	0.23324785
218	0xbe205631	-0.1565788
219	0xbe71bfcd	-0.23608322
220	0xbe314e8b	-0.17315118
221	0xbdca8c71	-0.09890068
222	0xbcee49eb	-0.029087981
223	0x3ea81e68	0.32835698
224	0x3d58ee72	0.052961774
225	0x3df727f5	0.12068168
226	0x3c453c08	0.012038238
227	0x3e3e0f89	0.18560614
228	0x3d915b02	0.070974365
229	0x3d0f6787	0.03501084
230	0xbe0d530c	-0.13801211
231	0xbe215931	-0.1575668
232	0x3d7b0480	0.06128359
233	0xbda751d2	-0.08169903
234	0xbddee46c	-0.10883412
235	0xbdfdfaa9	-0.12401325
236	0xbe2aba94	-0.16672736
237	0xbe437585	-0.19087799
238	0xbc5c7484	-0.013455514
239	0xbe2e7ac6	-0.17039022
240	0xbc25a776	-0.010110727
241	0x3e2c1509	0.168049
242	0xbe159d5b	-0.14610808
243	0x3e84adc9	0.25913838
244	0xbe518f1a	-0.20464745
245	0x3d5b4e90	0.05354172
246	0x3c3056fd	0.010762927
247	0x3e82e2fa	0.25563794
248	0x3e4e7bb0	0.2016437
249	0x3d97840e	0.07398234
250	0xbe1d29fb	-0.15348046
251	0xbdbd9168	-0.0925625
252	0xbe0ee40d	-0.13954182
253	0x3e246058	0.16052377
254	0xbe1ffcee	-0.15623829
255	0x3e2b9314	0.16755325

lstm1.bias_ih_l0 f4 [80]
0	0xbde00bae	-0.10939728
1	0x3bf1cee5	0.0073794
2	0x3cee8c95	0.02911977
3	0x3e202232	0.15638044
4	0xbe52f16e	-0.2059991
5	0xbde74073	-0.112915896
6	0x3e245db1	0.16051365
7	0xbd4d18eb	-0.05007259
8	0x3e460903	0.19339375
9	0xbe6a2299	-0.2286476
10	0x3dc1d79d	0.09464953
11	0x3e20a05b	0.15686171
12	0x3e3fcf18	0.18731344
13	0x3c799354	0.01523288
14	0x3de9b227	0.11410933
15	0x3c6fb71c	0.014631059
16	0x3e378d52	0.17925003
17	0x3b0def73	0.0021657615
18	0xbe289010	-0.16461205
19	0xbd901d62	-0.07036854
20	0xbe1a2f32	-0.15057066
21	0x3d10cf5e	0.03535401
22	0x3cb7dd1b	0.022444298
23	0x3e9a8e91	0.30186895
24	0x3e3c6b2c	0.18400258
25	0x3d9a9b6c	0.075491756
26	0x3e7cd09d	0.24688955
27	0xbe43495e	-0.19070956
28	0xbd973d3c	-0.073847264
29	0xbdac4463	-0.08411481
30	0x3d50557e	0.05086278
31	0x3e46a0fc	0.19397348
32	0xbb0fc16a	-0.0021935352
33	0xbd9fda0a	-0.078052595
34	0x3d5e793f	0.054314848
35	0x3c9bf453	0.019037401
36	0xbdb363cd	-0.0875927
37	0xbdf360e8	-0.11883718
38	0x3d2df150	0.04246646
39	0x3d06cf23	0.032912385
40	0xbcc0fb34	-0.023557283
41	0xbe37a9f6	-0.17935929
42	0xbe1fdd29	-0.1561171
43	0x3e27b933	0.16379242
44	0x3e334dad	0.175101
45	0x3e87d234	0.2652756
46	0xbe1c1fb1	-0.15246464
47	0xbe062870	-0.13101363
48	0xbde37b5c	-0.11107513
49	0xbe0f165e	-0.13973376
50	0x3e7f117c	0.24909014
51	0xbe076bb6	-0.13224682
52	0x3da0d95a	0.078539565
53	0x3e80fba1	0.25191978
54	0xb8b1e00b	-8.481749e-05
55	0xbe2fe0b7	-0.17175566
56	0xbda22a8a	-0.0791827
57	0xbe0121e1	-0.1261058
58	0xbde9b308	-0.114111006
59	0xbe0d787d	-0.13815494
60	0x3e3ee9e0	0.18643904
61	0x3e2dce11	0.1697314
62	0x3d8b376d	0.06797681
63	0x3e4a870a	0.19778076
64	0xbe6f9cf9	-0.23399724
65	0x3daffe56	0.085934326
66	0x3debc800	0.11512756
67	0x3e3bb828	0.18331969
68	0xbdb4d955	-0.08830515
69	0xbe1a3db8	-0.15062606
70	0x3e488bfa	0.19584647
71	0xbcde5cf5	-0.027143935
72	0x3c09eb29	0.008417883
73	0x3dc4f275	0.096165575
74	0x3e848ec7	0.2589018
75	0xbe125750	-0.1429112
76	0x3ddc22fb	0.107488595
77	0x3e5b2b97	0.21403347
78	0xbd6c9bdb	-0.057765823
79	0xbe410754	-0.18850452

lstm1.bias_hh_l0 f4 [80]
0	0xbe06820c	-0.13135546
1	0xbe146b00	-0.14493942
2	0x3dd194c4	0.10233453
3	0x3e1cf5e4	0.15328175
4	0xbdaa9f29	-0.08331139
5	0xbd055d88	-0.0325599
6	0xbe0da27c	-0.13831514
7	0x3dfe83a5	0.12427453
8	0xbe427597	-0.1899017
9	0xbdf25fb5	-0.11834661
10	0xbd6570d4	-0.056015804
11	0x3bc0cec5	0.005884024
12	0x3e3aa026	0.18225154
13	0xbe22ba74	-0.15891439
14	0xbdbc345b	-0.091896735
15	0xbd24633e	-0.040133707
16	0xbe2f597c	-0.1712398
17	0xbe21c52d	-0.15797873
18	0x3d465833	0.048423957
19	0xbe054855	-0.13015874
20	0xbdb6f999	-0.08934326
21	0xbd097bbc	-0.033565268
22	0x3d736b67	0.0594286
23	0x3d145439	0.036213133
24	0x3c9a7140	0.01885283
25	0x3e011688	0.12606251
26	0x3e64db12	0.22349194
27	0xbe3f569c	-0.18685383
28	0x3da38e1c	0.079860896
29	0xbe106c34	-0.14103776
30	0x3cf06230	0.029343694
31	0x3e8cbccb	0.27487788
32	0x3e1680e9	0.14697613
33	0xbcb438e7	-0.02199979
34	0xbdc10572	-0.09424867
35	0xbdc1bc62	-0.09459759
36	0xbd9db1dd	-0.0769994
37	0xbe3c7a3b	-0.18406002
38	0x3e0969da	0.13419285
39	0xbcfe13e2	-0.03101534
40	0xbe8a0ff8	-0.26965308
41	0xbe8416ea	-0.25798732
42	0x3dc79039	0.09744305
43	0x3df61b82	0.120169654
44	0x3bc2f2ec	0.0059493687
45	0x3e9278f5	0.28607908
46	0xbca678e1	-0.020321311
47	0x3df335ea	0.11875518
48	0x3e0157f2	0.12631205
49	0x3e878f4f	0.26476523
50	0x3dd80703	0.105482124
51	0xbe3c07fb	-0.1836242
52	0xbe0e53e8	-0.13899195
53	0xbdc70d0b	-0.097192846
54	0xbe301f7d	-0.17199512
55	0xbeadf11f	-0.33973023
56	0xbe2acdf1	-0.16680123
57	0x3d20af2a	0.03922955
58	0xbd8e50d0	-0.069490075
59	0xbde1833b	-0.11011358
60	0x3e82e164	0.25562584
61	0xbe2a14f0	-0.1660955
62	0x3e81284b	0.25226054
63	0x3e01b2ca	0.12665859
64	0x3db80776	0.08985798
65	0x3e40f85d	0.18844743
66	0xbe4184d2	-0.18898323
67	0xbd9e9192	-0.07742609
68	0xbdca0b1f	-0.098654024
69	0xbd2d0472	-0.042240568
70	0x3e5dd01f	0.21661423
71	0xbe105b9d	-0.14097448
72	0xbd35e07b	-0.044403534
73	0x3e0d7560	0.13814306
74	0xbe06711e	-0.13129088
75	0xbd6841b4	-0.056703284
76	0x3e072c17	0.13200413
77	0xbe167a49	-0.14695086
78	0xbe116c66	-0.14201507
79	0x3abffaf8	0.0014646938

lstm2.weight_ih_l0 f4 [60, 20]
0	0xbe6c80fe	-0.23096082
1	0x3d3e8195	0.046510298
2	0xbe2ded81	-0.16985132
3	0x3e72d269	0.23713078
4	0x3d8d8bc5	0.069114245
5	0xbb917efe	-0.0044401875
6	0x3df9b180	0.121920586
7	0x3e838aa1	0.25691703
8	0xbd6d921d	-0.058000673
9	0x3e77e0ba	0.2420682
10	0x3e72b832	0.23703077
11	0x3b13fd7e	0.0022581513
12	0xbe6eddf9	-0.23326863
13	0x3e319b57	0.17344414
14	0x3d98d371	0.07462204
15	0xbe71bbe9	-0.23606838
16	0x3a4d34c2	0.0007827991
17	0x3e40a362	0.18812326
18	0x3d825c06	0.06365208
19	0xbcf5c5d7	-0.030001564
20	0xbe2b29dd	-0.16715188
21	0xbdf66fe2	-0.12033059
22	0xbdc8747e	-0.09787844
23	0x3d31416b	0.043275278
24	0xbd082c22	-0.033245213
25	0x3e0b2600	0.13588715
26	0xbe9aaf56	-0.30211896
27	0x3e05a782	0.1305218
28	0x3da43c04	0.080192596
29	0xbea4ab5a	-0.3216198
30	0xbd2ed9ec	-0.042688295
31	0xbd41d0e5	-0.047318358
32	0x3ebe62bd	0.37184706
33	0xbe41bcf0	-0.1891973
34	0x3dec8d1d	0.11550353
35	0xbe157e2e	-0.14598915
36	0xbda0861e	-0.07838081
37	0x3e24ce9d	0.16094442
38	0xbcb0365c	-0.021510296
39	0xbca512ab	-0.020150503
40	0xbe0c451e	-0.13698241
41	0x3e04b564	0.1295982
42	0xbe9885ee	-0.2978968
43	0x3e85d52c	0.261392
44	0x3bdd4448	0.0067525245
45	0x3db377e2	0.087631
46	0xbe0beaf5	-0.13663848
47	0x3e583991	0.2111571
48	0xbe867be7	-0.26266405
49	0x3e17450b	0.14772432
50	0xbd77ad86	-0.06046822
51	0x3d1904a5	0.037357945
52	0xbdb309fb	-0.08742138
53	0xbe954ba6	-0.29159278
54	0xbca20894	-0.019779481
55	0x3d1e9afc	0.038722023
56	0x3eb190dd	0.34680834
57	0x3c67801d	0.014129666
58	0xbe165994	-0.14682609
59	0xbda37801	-0.07981873
60	0xbd8213ee	-0.063514575
61	0x3ddb2d9a	0.10702057
62	0xbd14bd54	-0.03631337
63	0x3ebf9b87	0.37423345
64	0x3e143bab	0.14475887
65	0x3e93f35a	0.288966
66	0xbe8b1764	-0.27166283
67	0x3e31ba69	0.17356266
68	0x3e1ae1e0	0.15125227
69	0x3e45ed5f	0.19328831
70	0x3e8e03e6	0.2773735
71	0xbcaa5046	-0.02079023
72	0x3d91f6c6	0.071271464
73	0x3ad1af37	0.0015997653
74	0xbd28a1af	-0.04116982
75	0x3e23bcda	0.1599001
76	0x3ea8d155	0.32972208
77	0x3e5bafd3	0.2145379
78	0x3de082c4	0.109624416
79	0xbd3b3f38	-0.045714587
80	0x3b9b2d7c	0.004735647
81	0xbe8d3ca3	-0.27585325
82	0xbdaa3fbc	-0.083129376
83	0x3e993b7c	0.29928195
84	0x3d8c0079	0.06836028
85	0x3d919cac	0.07109961
86	0xbe0d387e	-0.13791081
87	0x3d4fc93f	0.050729033
88	0x3d90b3db	0.07065555
89	0x3e7ae4eb	0.24501388
90	0xbe0d9d9b	-0.13829653
91	0xbe2a2eb4	-0.16619378
92	0xbe084d03	-0.13310628
93	0xbe73085c	-0.23733658
94	0x3e3db3ad	0.18525572
95	0xbe47f286	-0.19526109
96	0x3eb6cb11	0.35701802
97	0xbe07a7c6	-0.13247594
98	0xbcdf1182	-0.027230028
99	0xbd8cc4ec	-0.06873497
100	0x3e52bb12	0.20579174
101	0x3e69e22a	0.22840181
102	0xbe2ccd9e	-0.16875312
103	0x3d572069	0.052521143
104	0x3e94025f	0.2890806
105	0x3e14c2cc	0.14527434
106	0x3dc6673b	0.096876584
107	0x3e26d0f2	0.16290644
108	0x3df51355	0.11966578
109	0x3e1d8eb5	0.1538647
110	0x3e5b1e06	0.21398172
111	0x3e2b64b3	0.16737632
112	0x3da320b6	0.079652235
113	0xbe01b757	-0.12667595
114	0xbd9d2d2c	-0.076746315
115	0xbde734dd	-0.1128938
116	0xbe26ba65	-0.16282041
117	0xbe7b0632	-0.24514082
118	0x3da74406	0.08167271
119	0x3e48f93a	0.19626322
120	0xbe80edde	-0.25181478
121	0x3e1a5f1f	0.15075348
122	0x3e0488c0	0.12942791
123	0xbe808471	-0.25101045
124	0x3ccb3715	0.024806539
125	0xbd78b9d7	-0.060724106
126	0xbe76a243	-0.24085335
127	0x3cd97d6c	0.026549064
128	0x3cb29605	0.02180005
129	0xbe55c897	-0.208773
130	0x3d6e404c	0.058166787
131	0xbd07e5b0	-0.03317803
132	0xbe144077	-0.14477716
133	0x3dbc6a5f	0.09199976
134	0xbe7d8331	-0.24757077
135	0x3e38146b	0.17976539
136	0xbd52209e	-0.051300637
137	0xbe849645	-0.25895897
138	0xbe80c9e4	-0.2515403
139	0x3a062b26	0.0005118124
140	0x3c149311	0.0090682665
141	0xbe87cdc2	-0.26524168
142	0x3e1970d1	0.14984442
143	0x3ea3d558	0.31998706
144	0xbc0eabb2	-0.008707928
145	0x3d6cba8f	0.057795104
146	0x3dbe04a0	0.09278226
147	0xbe13555b	-0.1438803
148	0xbeb855f9	-0.36003092
149	0x3e0c2d18	0.13689077
150	0x3e2b3c57	0.16722237
151	0xbe425d52	-0.18980911
152	0x3e140e5d	0.14458604
153	0xbe85b24f	-0.261126
154	0x3c6d2f4b	0.014476608
155	0xbeb42b72	-0.35189396
156	0xbe2d3bae	-0.16917297
157	0x3e509d3f	0.20372485
158	0x3dcf38b7	0.101182394
159	0xbdc5328c	-0.09628782
160	0x3d6270aa	0.055283226
161	0xbde48f93	-0.11160197
162	0x3e1f92cb	0.15583341
163	0xbe0f4685	-0.13991745
164	0xbe364d7f	-0.17803
165	0xbde71ce5	-0.11284808
166	0xbe0a9e71	-0.13537003
167	0x3e877aed	0.26460972
168	0x3da629c8	0.08113438
169	0x3da80093	0.082032345
170	0xbe5452af	-0.20734666
171	0x3e6dcf21	0.23223545
172	0xbcc83b45	-0.024442324
173	0xbc982308	-0.018571392
174	0x3df246b5	0.118298925
175	0x3e823117	0.25428078
176	0x3d84f19c	0.06491396
177	0x3e3b3add	0.18284173
178	0x3c91c79d	0.017795378
179	0xbe322499	-0.17396773
180	0x3e0898ce	0.1333954
181	0x3e1e7491	0.15474154
182	0x3e4676ef	0.19381307
183	0xbe0957a2	-0.13412336
184	0x3cd50cd9	0.026007103
185	0xbe0e2787	-0.13882266
186	0xbe9462f1	-0.28981736
187	0xbe2a0c2c	-0.16606206
188	0x3d97cb38	0.07411808
189	0xbe13a6ac	-0.14419049
190	0x3d3ad78c	0.045615718
191	0xbe9cfade	-0.30660146
192	0x3e642bbe	0.22282311
193	0xbe838178	-0.25684714
194	0xbe7864b2	-0.24257162
195	0xbe5961a3	-0.21228652
196	0x3e945008	0.2896731
197	0x3e605468	0.21907198
198	0xbd1bb37e	-0.038012974
199	0xbe36a70e	-0.17837164
200	0x3d7d48c1	0.06183696
201	0xbddc0883	-0.10743811
202	0x3e4fac67	0.2028061
203	0xbd97a183	-0.07403853
204	0x3dbc2660	0.09187007
205	0x3e260ba6	0.16215381
206	0xbd1d813e	-0.038453333
207	0x3e466255	0.19373448
208	0x3db9d68c	0.09074125
209	0xbe6cb260	-0.2311492
210	0x3dab2253	0.08356156
211	0xbe6be8df	-0.23038052
212	0xbde94a67	-0.11391144
213	0x3e246a10	0.16056085
214	0xbe03a740	-0.1285677
215	0x3d5627a1	0.052283887
216	0x3e64500d	0.22296162
217	0x3e89fd2a	0.2695096
218	0xbd9b7614	-0.07590881
219	0xbd101da5	-0.03518452
220	0xbc5a36f9	-0.013318771
221	0xbdd32e99	-0.10311622
222	0x3c552839	0.013010078
223	0x3da0dc9b	0.07854577
224	0xbdd05d58	-0.10174054
225	0x3e47fc8b	0.19529931
226	0x3cb585c0	0.022158504
227	0x3db29445	0.087196864
228	0xbe6b89e6	-0.23001823
229	0xbd8670c0	-0.06564474
230	0x3da6ca0a	0.08144005
231	0xbe9ea6c1	-0.30986598
232	0xbe45f4fa	-0.19331732
233	0xbe5c64ac	-0.21522778
234	0xbeba75bc	-0.3641795
235	0xbe37f47a	-0.17964354
236	0x3e16f74a	0.14742771
237	0x3e6359b6	0.22202191
238	0xbd744625	-0.059637208
239	0xbda0ae22	-0.07845713
240	0x3d982f59	0.07430906
241	0xbdc6ff3f	-0.09716653
242	0xbddd85c7	-0.10816532
243	0x3e423c19	0.18968238
244	0x3dfbe166	0.12298851
245	0x3e67bc82	0.22630504
246	0xbcf86ab8	-0.030324325
247	0x3e3e86fc	0.1860618
248	0xbbe901dd	-0.007110818
249	0x3db9c5c1	0.09070922
250	0x3e257501	0.16157915
251	0xbe151124	-0.1455732
252	0xbd92ab70	-0.07161605
253	0x3d821faf	0.063536994
254	0x3dae19ef	0.0850104
255	0x3c9e8e7d	0.019355053

lstm2.weight_hh_l0 f4 [60, 15]
0	0x3e55d028	0.20880187
1	0xbb98b610	-0.0046603754
2	0xbd8f6e51	-0.07003463
3	0xbe601c7e	-0.21885869
4	0x3c9aa1ad	0.018875921
5	0x3d475428	0.048664242
6	0xbe4f8b49	-0.20267977
7	0xbd90f813	-0.070785664
8	0x3e2d9b51	0.1695378
9	0x3dc17645	0.09446386
10	0xbe065e1d	-0.13121839
11	0xbe28e891	-0.16494967
12	0xbcef36ca	-0.02920093
13	0x3e0f01fb	0.13965599
14	0x3e2caf14	0.16863662
15	0xbcd481d9	-0.025940822
16	0xbe9d969a	-0.30778962
17	0x3e219d45	0.1578265
18	0xbe59bd36	-0.21263584
19	0xbea9156b	-0.33024153
20	0xbbf3a466	-0.0074353693
21	0xbd7241c7	-0.05914476
22	0xbdf7da87	-0.12102228
23	0xbe3d17ac	-0.18466061
24	0x3ea7458a	0.32670242
25	0x3c98ed8e	0.018667962
26	0xbe48f924	-0.1962629
27	0xbe8b209c	-0.27173316
28	0x3e91e7cc	0.2849716
29	0xbe7318a4	-0.23739868
30	0x3d285529	0.04109684
31	0xbe6d7623	-0.23189597
32	0xbc791e8d	-0.015205038
33	0xbeb47f85	-0.3525354
34	0xbd03a7e5	-0.03214254
35	0x3e8d406b	0.2758821
36	0x3d261f00	0.040556908
37	0xbc825b5a	-0.0159127
38	0xbe3f6e32	-0.1869438
39	0x3e721853	0.23642091
40	0xbdf88bb1	-0.12136019
41	0x3e355b3c	0.17710584
42	0x3e633a7d	0.2219028
43	0x3e0624a2	0.13099912
44	0xbe0e0e5b	-0.13872664
45	0xbdf39511	-0.118936665
46	0xbdc26be9	-0.094932385
47	0x3e72654b	0.23671453
48	0xbe682715	-0.22671159
49	0xbe290a05	-0.16507728
50	0x3e2a4bec	0.16630524
51	0x3de12972	0.10994233
52	0xbdeb0202	-0.11474992
53	0xbdb76884	-0.08955482
54	0x3e9285c7	0.2861769
55	0x3dc8258f	0.09772789
56	0x3ddcd279	0.10782332
57	0x3df3d7f9	0.11906428
58	0xbdb33cfd	-0.08751867
59	0xbe6e5a91	-0.23276736
60	0x3dc139a5	0.09434823
61	0xbe1159e9	-0.14194454
62	0x3e070fa8	0.13189566
63	0xbe901f36	-0.28148812
64	0xbe3013b6	-0.17195019
65	0x3e8dcc55	0.27694955
66	0xbe653591	-0.22383715
67	0xbea7a504	-0.32743084
68	0xbde2ed2f	-0.110803954
69	0x3e166ac8	0.14689171
70	0xbe5d7eab	-0.21630351
71	0x3eb65bd0	0.35616922
72	0xbdf9e3db	-0.12201663
73	0xbda44059	-0.08020086
74	0xbe2bf877	-0.16794
75	0xbddc8988	-0.107684195
76	0x3dac5a3c	0.08415648
77	0x3e59b1d5	0.21259244
78	0xbe287631	-0.16451336
79	0xbe83b3aa	-0.2572301
80	0x3e0c77e2	0.13717607
81	0xbde82250	-0.113346696
82	0xbe24b3d6	-0.16084227
83	0x3dc7cf98	0.09756392
84	0xbe1c35a1	-0.15254833
85	0xbd662010	-0.05618292
86	0xbdfb8b52	-0.122824326
87	0x3e466034	0.19372636
88	0xbe10f053	-0.14154176
89	0xbe630146	-0.22168455
90	0x3c7da1b6	0.015480449
91	0x3e251e7f	0.16124915
92	0xbe3ee5bd	-0.18642326
93	0x3dfe1683	0.124066375
94	0xbd2e06c2	-0.042486914
95	0x3e7004ef	0.23439382
96	0xbc9a8434	-0.018861867
97	0x3e194d5b	0.14970915
98	0x3e063c1e	0.1310887
99	0xbe0b6551	-0.13612868
100	0xbe6463df	-0.22303723
101	0x3dc3f087	0.09567361
102	0xbe51e55e	-0.20497653
103	0x3d5dd542	0.054158457
104	0xbd88845a	-0.06665869
105	0x3db6c61e	0.089245066
106	0x3d381a0e	0.044946723
107	0xbdfe98f1	-0.12431515
108	0xbe87319a	-0.2640503
109	0xbe8f1093	-0.27942333
110	0x3e942c87	0.28940222
111	0x3cd188d5	0.025577942
112	0x3e9cd859	0.3063381
113	0xbe92b833	-0.28656158
114	0x3e9414e5	0.2892219
115	0x3df1bc0f	0.118034475
116	0x3db9c824	0.09071377
117	0xbe1fa1c2	-0.1558905
118	0x3e4d8eec	0.20074052
119	0xbe99cb40	-0.3003788
120	0x3cdca416	0.026933711
121	0xbe96bb1d	-0.2943963
122	0x3e494644	0.1965571
123	0x3db53199	0.088473506
124	0xbe6ac4f8	-0.229267
125	0xbe212efb	-0.15740578
126	0x3d0f01ae	0.03491371
127	0x3df54412	0.11975874
128	0xbe861f1f	-0.2619562
129	0x3dd5334f	0.10410177
130	0xbe231797	-0.15926968
131	0x3daa0866	0.08302383
132	0xbd546a76	-0.05185934
133	0x3c59713b	0.013271625
134	0xbe4fee4c	-0.20305747
135	0xbdc604d0	-0.09668887
136	0x3e458c5b	0.19291823
137	0xbbdf6610	-0.0068175867
138	0x3e02b3ea	0.12763944
139	0xbe9ebf25	-0.31005207
140	0xbdfc4dfe	-0.12319563
141	0x3dd267fc	0.1027374
142	0xbd1d0ed3	-0.038344216
143	0x3e12c23f	0.14331912
144	0xbd250d26	-0.040295742
145	0xbe3668b7	-0.17813383
146	0x3dcf6d5f	0.10128283
147	0x3e14b01d	0.14520307
148	0x3ded5b87	0.11589723
149	0xbe7b771a	-0.24557152
150	0xbdb47e99	-0.08813209
151	0xbe3af0b6	-0.18255886
152	0xbc888c25	-0.016668389
153	0xbe9aa988	-0.30207467
154	0xbe6c39fb	-0.23068993
155	0x3da5b78e	0.08091651
156	0x3e81e8bb	0.25372872
157	0x3de9c3cb	0.11414298
158	0xbd7b3098	-0.06132564
159	0x3d815d22	0.06316592
160	0xbd217e68	-0.03942719
161	0x3ea2b81a	0.31781083
162	0xbcce7baf	-0.025205461
163	0x3e5842ae	0.21119186
164	0x3d92ef88	0.07174593
165	0x3e03a957	0.12857567
166	0x3de4a7fb	0.11164852
167	0x3e088a55	0.1333402
168	0xbe214e95	-0.15752633
169	0xbd00bb5a	-0.031428672
170	0x3e1891d0	0.14899373
171	0xbdd7f114	-0.10544029
172	0x3e1f4d88	0.1555692
173	0x3ccf9efc	0.025344364
174	0x3e1d8eb1	0.15386464
175	0x3c5aa84b	0.013345788
176	0x3db61f2c	0.08892664
177	0xbdf80103	-0.12109568
178	0x3e59e7e3	0.21279864
179	0xbea1a074	-0.3156773
180	0x3de6324f	0.11240064
181	0xbdeafe19	-0.114742465
182	0x3dc41689	0.09574611
183	0x3c36f71d	0.011167315
184	0xbe0b179e	-0.13583228
185	0x3dd4535f	0.10367464
186	0xbc147fd0	-0.009063676
187	0xbd92008b	-0.0712901
188	0x3d9728e1	0.07380844
189	0xbdc13c7c	-0.094353646
190	0x3d64ddb4	0.055875495
191	0x3d1b8e58	0.037977546
192	0xbd80d9b6	-0.06291525
193	0x3e4b4245	0.19849499
194	0xbea7a0e7	-0.32739946
195	0xbdb69e6a	-0.08916934
196	0x3e5f4351	0.21803023
197	0x3bfb6521	0.0076719676
198	0x3e8ecd3c	0.27890956
199	0x3dafccf2	0.08584012
200	0xbd939a8c	-0.07207212
201	0x3d49cefe	0.04926967
202	0x3eabbe06	0.33543414
203	0x3dec1919	0.115282245
204	0x3e039777	0.12850748
205	0xbe54031e	-0.20704314
206	0x3d99daad	0.07512412
207	0x3df83d94	0.1212112
208	0xbe20cd65	-0.15703352
209	0x3e751c50	0.23936582
210	0xbe097fb2	-0.13427618
211	0xbe0997a8	-0.13436759
212	0xbbbbddf9	-0.0057332483
213	0xbd7d1998	-0.061791986
214	0x3e513c18	0.2043308
215	0xbe3999bc	-0.18125051
216	0xbe2986e4	-0.16555363
217	0xbd52dd12	-0.05148036
218	0xbd905c56	-0.07048862
219	0xbdfa3aa3	-0.12218215
220	0xbd84c2d8	-0.06482476
221	0xbdf235a6	-0.11826639
222	0xbda673e4	-0.08127573
223	0xbd41896e	-0.047250204
224	0xbdffc4bc	-0.12488696
225	0x3e45f422	0.1933141
226	0x3e1245fa	0.14284506
227	0xbd49caec	-0.049265787
228	0xbe8da1ca	-0.27662498
229	0xbe29669a	-0.16543046
230	0xbdcecb13	-0.10097327
231	0x3ba22927	0.0049487534
232	0x3e8c20c3	0.27368745
233	0xbe145bfd	-0.14488216
234	0x3b06d664	0.0020574564
235	0xbe8b4ec6	-0.27208537
236	0x3e029ad3	0.12754373
237	0x3c2a7bb5	0.010405471
238	0xbe23ebe8	-0.1600796
239	0x3d72154f	0.059102353
240	0x3e5853d6	0.21125731
241	0xbd391bc4	-0.045192495
242	0x3d390df1	0.04517931
243	0xbe991d88	-0.29905343
244	0x3d49c467	0.04925957
245	0x3e9cab50	0.3059945
246	0xbe6aee69	-0.22942509
247	0xbd961bfb	-0.073295556
248	0xbdd34617	-0.10316103
249	0x3dcc1791	0.099654324
250	0xbe42210e	-0.18957922
251	0x3e60f151	0.21967055
252	0xbdf5be2c	-0.11999163
253	0x3c9817df	0.01856607
254	0xbe13c286	-0.14429674
255	0x3e717af5	0.2358206

lstm2.bias_ih_l0 f4 [60]
0	0x3e6c84b5	0.23097499
1	0x3eac582c	0.3366102
2	0x3e1f25f8	0.15541828
3	0x3e7805d3	0.24220972
4	0x3e04ba24	0.12961632
5	0x3e96b050	0.2943139
6	0xbe2281ae	-0.15869781
7	0xbdc721e5	-0.09723262
8	0xbe3bbfa7	-0.18334828
9	0x3e3981e0	0.1811595
10	0xbd46a230	-0.048494518
11	0x3dc4a636	0.09602015
12	0x3ea3b8f7	0.31977054
13	0xbdc2e72f	-0.09516751
14	0xbe6817b6	-0.22665295
15	0xbde56a27	-0.112018876
16	0x3ce4b277	0.02791713
17	0xbd57d354	-0.052691773
18	0x3dfb400d	0.12268076
19	0x3df7ccc3	0.12099602
20	0xbda57812	-0.08079542
21	0x3e80be69	0.2514527
22	0xbe215dad	-0.1575839
23	0x3e3d8820	0.18508959
24	0x3c0d7c0a	0.00863553
25	0x3c38ccde	0.011279313
26	0x3cecaad6	0.028890055
27	0x3e6a8a78	0.22904384
28	0x3e6d0c03	0.23149113
29	0x3e46dcd2	0.19420174
30	0x3ce53a37	0.02798186
31	0x3ddea972	0.10872163
32	0x3dc056c0	0.09391546
33	0xbb4ccdf8	-0.0031250697
34	0xbd5904b4	-0.052983
35	0x3d209686	0.03920605
36	0x3d78cb66	0.06074085
37	0x3e3cba24	0.18430382
38	0x3b58909e	0.0033045183
39	0x3db6471f	0.08900284
40	0xbe0944b3	-0.13405113
41	0xbd304692	-0.04303605
42	0xbe8284d5	-0.25491968
43	0xbdcf014f	-0.101076715
44	0x3e75ce88	0.24004567
45	0xbc384768	-0.011247493
46	0xbc87a103	-0.016556269
47	0x3db61149	0.08890016
48	0x3e457740	0.19283772
49	0xbd4891eb	-0.048967283
50	0xbd985520	-0.07438111
51	0x3de13670	0.10996711
52	0xbc867c62	-0.016416732
53	0x3e54b2f8	0.20771396
54	0xbe1ada80	-0.15122414
55	0x3e838a7f	0.25691602
56	0x3e6dfcb9	0.23240937
57	0xbe19b107	-0.15008937
58	0x3ce5161f	0.02796465
59	0x3e5fe7ae	0.21865723

lstm2.bias_hh_l0 f4 [60]
0	0x3e0452db	0.12922232
1	0x3e1690d7	0.1470369
2	0x3c468d7e	0.012118695
3	0xbe2ceab5	-0.16886409
4	0xbd4eb72d	-0.05046766
5	0xbe0bbeee	-0.13647053
6	0x3e8a739e	0.27041334
7	0x3da2a9f4	0.07942572
8	0xbda7ba7c	-0.08189866
9	0x3e603639	0.21895684
10	0xbd784617	-0.060613718
11	0xbd8e9c11	-0.06963361
12	0x3e7d32f9	0.24726476
13	0xbe3b47b7	-0.18289076
14	0x3e4d35b1	0.20040013
15	0x3e7f37a9	0.24923576
16	0x3e65c355	0.22437795
17	0xbe449052	-0.19195679
18	0x3e335541	0.1751299
19	0x3bc680a6	0.0060578166
20	0x3e853140	0.26014137
21	0x3d18f2b8	0.03734085
22	0x3e2671b5	0.16254313
23	0x3e100c0f	0.140671
24	0xbb7c6638	-0.0038513076
25	0xbe764695	-0.24050362
26	0x3e574304	0.21021658
27	0x3e9ba798	0.304013
28	0xbd0d1ec0	-0.034453154
29	0x3e526c4b	0.20549123
30	0x3c739260	0.0148664415
31	0xbdc32be2	-0.09529854
32	0xbce230c0	-0.027611136
33	0x3e86a321	0.26296332
34	0x3c1f8a1e	0.00973752
35	0x3e97b448	0.2962973
36	0xbe7b3e6b	-0.2453553
37	0x3e5b6e76	0.21428856
38	0xbdc20f9c	-0.094756335
39	0x3e885106	0.26624316
40	0xbe4c6d66	-0.19963607
41	0xbe74c0d9	-0.2390169
42	0xbe22323e	-0.15839478
43	0x3e41cd59	0.1892599
44	0xbe399e9f	-0.18126915
45	0x3c50b643	0.012738767
46	0x3e8eb791	0.27874425
47	0x3ea25667	0.31706545
48	0x3e7cd59a	0.24690858
49	0x3e7fe155	0.24988301
50	0xbda7c594	-0.08191982
51	0xbe0480ac	-0.1293971
52	0x3e943e6e	0.2895388
53	0xbd107bb4	-0.035274222
54	0xbc782043	-0.015144411
55	0x3e82139d	0.2540559
56	0x3e1449e5	0.14481314
57	0x3e36a280	0.17835426
58	0x3d0bd018	0.034134
59	0xbdb58ec7	-0.08865123

lstm3.weight_ih_l0 f4 [40, 15]
0	0xbc1e3afb	-0.009657617
1	0xbdb3bd5c	-0.08776352
2	0xbea52794	-0.32256758
3	0x3ca0d75b	0.01963394
4	0xbd9b8f1f	-0.075956576
5	0x3cb3c1bb	0.021942964
6	0x3e152e1f	0.14568375
7	0xbcc361ff	-0.02385044
8	0x3e83f4c0	0.25772667
9	0xbdf5f9bd	-0.120105244
10	0x3e8c00a4	0.2734424
11	0x3e0adf0c	0.13561648
12	0xbd8e6a1d	-0.06953833
13	0x3d947b86	0.07250123
14	0x3e8f2751	0.27959684
15	0x3e30ad1c	0.17253536
16	0xbeb12e48	-0.34605622
17	0xbcdb6d78	-0.026785597
18	0xbeea4012	-0.45752007
19	0xbe7fc051	-0.24975707
20	0x3ee95a0c	0.45576513
21	0xbec63e42	-0.38719374
22	0x3e7fa0b6	0.2496365
23	0xbd532865	-0.051552195
24	0x3eb851ab	0.35999808
25	0xbeaab375	-0.3334004
26	0x3d70693f	0.05869412
27	0xbe043487	-0.12910663
28	0x3b41dd73	0.0029581457
29	0xbe924d21	-0.2857447
30	0x3ed2af2a	0.41149265
31	0xbe833dec	-0.2563318
32	0x3da5c4a5	0.080941476
33	0xbe05223c	-0.1300134
34	0xbed55b7e	-0.41671365
35	0xbd057461	-0.03258169
36	0xbea46c7e	-0.32114023
37	0x3c9e247f	0.019304512
38	0x3de82e2a	0.1133693
39	0x3ec0ebd0	0.3767991
40	0xbe83f8cd	-0.25775757
41	0xbe9e07fb	-0.30865464
42	0x3d97b21c	0.074070185
43	0x3e555add	0.20835443
44	0x3cde5dd5	0.027144352
45	0xbdf983e4	-0.12183359
46	0x3e42f72b	0.190396
47	0xbe0825c1	-0.13295652
48	0x3e6c6c41	0.2308817
49	0x3d64067f	0.055670258
50	0x3d9abfff	0.075561516
51	0x3e669062	0.22516015
52	0x3e3b1c66	0.18272552
53	0x3d015939	0.03157923
54	0xbe0ad6f2	-0.13558558
55	0x3d395fc0	0.04525733
56	0xbd3e0dc7	-0.046399858
57	0xbe2ea3eb	-0.17054717
58	0x3d8e674d	0.06953297
59	0x3d3c73a3	0.046008717
60	0x3e92ff8c	0.28710592
61	0x3e627c54	0.2211774
62	0x3e7c3c53	0.24632387
63	0x3e161d03	0.14659505
64	0x3e840aff	0.2578964
65	0x3c60fe4a	0.013732502
66	0x3dab08ea	0.083513096
67	0x3e58cb13	0.21171217
68	0x3e4f5665	0.202478
69	0x3d34569b	0.044027906
70	0xbe91bae0	-0.28462887
71	0xbe793656	-0.24337134
72	0x3e93a60e	0.28837627
73	0x3e7dea27	0.24796353
74	0x3e8b6b00	0.27230072
75	0x3e9f8f24	0.31163895
76	0x3dccd0cb	0.100007616
77	0xbd813cbc	-0.06310412
78	0xbee7a79b	-0.4524506
79	0xbe432003	-0.1905518
80	0x3d35e90c	0.044411704
81	0x3e50ee77	0.20403467
82	0xbeff2efe	-0.4984054
83	0xbe9bbcca	-0.30417472
84	0x3dd76d95	0.10518948
85	0xbe474f45	-0.19463833
86	0xbdd9e55c	-0.1063945
87	0x3eb9af3c	0.36266506
88	0xbe59fa7c	-0.21286958
89	0xbd515c34	-0.051113322
90	0x3ed7f313	0.42177638
91	0xbe2b1e3a	-0.1671075
92	0x3eca11ac	0.39466608
93	0xbe676e2b	-0.2260062
94	0xbef4141c	-0.47671592
95	0x3f0d1aa6	0.5511879
96	0xbe0d9d06	-0.13829431
97	0x3e03f2ee	0.12885639
98	0xbde15de2	-0.11004235
99	0x3f02859b	0.50985116
100	0xbe8a152e	-0.26969284
101	0xbe80f467	-0.25186464
102	0x3dc32b83	0.095297836
103	0xbdcf7889	-0.10130412
104	0xbd923ace	-0.07140122
105	0xbda9f9e1	-0.08299614
106	0x3e8da02c	0.27661264
107	0x3cc303e4	0.023805566
108	0xbe58b82d	-0.21164007
109	0xbda5a586	-0.08088212
110	0xbe37a1f1	-0.1793287
111	0xbda48c17	-0.080345325
112	0x3e239778	0.1597575
113	0x3e5c3b38	0.21506965
114	0x3df6d507	0.120523505
115	0x3dd0f247	0.10202461
116	0x3d33718c	0.04380946
117	0x3da80648	0.08204323
118	0xbdcd38d1	-0.100206025
119	0xbe35819e	-0.17725226
120	0xbe670270	-0.22559524
121	0xbd45eff5	-0.048324544
122	0xbe0cab04	-0.13737112
123	0xbdad4664	-0.084606916
124	0xbe675453	-0.22590761
125	0xbea510d0	-0.3223939
126	0xbe17afaa	-0.14813104
127	0xbe78f9d8	-0.24314058
128	0x3e9abd37	0.30222484
129	0x3e0189a1	0.12650158
130	0x3d97eaa5	0.07417802
131	0xbd846ac4	-0.064656764
132	0xbe945c7f	-0.2897682
133	0x3e12d8d5	0.14340527
134	0x3dd3911b	0.10330411
135	0xbe06415a	-0.13110867
136	0xbd92cae8	-0.071676075
137	0x3e829025	0.255006
138	0x3eb04085	0.34424224
139	0x3c79c818	0.01524546
140	0xbdfe9d7f	-0.12432384
141	0x3e94d022	0.29065043
142	0xbd49f5e3	-0.04930676
143	0x3e56c658	0.209741
144	0x3c547bf4	0.012969006
145	0xbe38c46c	-0.18043679
146	0xbd64758d	-0.055776168
147	0xbcc24443	-0.02371419
148	0xbce538dd	-0.027981216
149	0xbe6c9f88	-0.23107731
150	0xbe5b2e99	-0.21404494
151	0x3e41b21f	0.18915604
152	0xbe80aa77	-0.25130054
153	0x3cdcfcd0	0.02697602
154	0xbe77ffae	-0.24218628
155	0x3daee366	0.085394666
156	0x3e9d147f	0.306797
157	0xbe328063	-0.17431788
158	0x3e85887a	0.26080686
159	0x3e529bce	0.20567247
160	0xbe96c835	-0.2944962
161	0x3dc96c70	0.09835136
162	0xbe88aebc	-0.26695812
163	0xbe1d2228	-0.15345061
164	0x3ceedec9	0.029158967
165	0x3ed05075	0.40686384
166	0xbeb53a3a	-0.35395986
167	0x3ed1c098	0.4096725
168	0xbe1148af	-0.14187883
169	0x3e0b8a12	0.13626888
170	0x3ee4d2e2	0.4469214
171	0x3d190e5c	0.03736721
172	0xbe1d6f00	-0.15374374
173	0xbeeeb279	-0.4662054
174	0x3e92ec3b	0.28695855
175	0xbea95daa	-0.33079273
176	0x3a8a6994	0.0010560029
177	0x3e841efe	0.25804895
178	0x3e8b745f	0.27237222
179	0xbec3fc1e	-0.38278288
180	0xbe6d7c29	-0.23191895
181	0xbe4172ab	-0.18891399
182	0x3e51c1e1	0.20484115
183	0x3e655be2	0.22398332
184	0xbdfd457c	-0.12366769
185	0x3d39e06a	0.045380034
186	0x3e6f4be8	0.233688
187	0x3e2af4c7	0.16694938
188	0x3e24810d	0.16064854
189	0x3e2d6f15	0.16936906
190	0xbec4d17e	-0.3844108
191	0xbd22e344	-0.03976752
192	0xbaa9c969	-0.0012953702
193	0xbe3e72c6	-0.1859847
194	0xbe77354c	-0.24141425
195	0x3de41fc4	0.11138871
196	0x3e2622e0	0.16224241
197	0xbdca8a11	-0.09889615
198	0x3da51651	0.08060897
199	0x3e06fe46	0.13182935
200	0xbe0e9c64	-0.13926846
201	0x3dca1e29	0.09869034
202	0x3d734530	0.059392154
203	0xbba616c2	-0.005068631
204	0xbe6496b8	-0.2232312
205	0x3d7ace51	0.061231915
206	0xbea05648	-0.31315827
207	0x3db983e9	0.09058363
208	0xbe47e0fd	-0.1951942
209	0xbe10592d	-0.14096518
210	0xbd848305	-0.064703025
211	0xbc3e8c24	-0.011630092
212	0x3d213b65	0.039363284
213	0x3df3df75	0.119078554
214	0x3db05b65	0.08611182
215	0x3dcba718	0.0994398
216	0xbe82b710	-0.2553029
217	0x3e8bf14d	0.27332535
218	0xbe73f825	-0.23825128
219	0x3e42eee1	0.19036438
220	0x3da7b69e	0.08189128
221	0x3dc1d747	0.09464889
222	0xbdfa45c4	-0.12220338
223	0x3e812020	0.25219822
224	0x3dec2663	0.11530759
225	0x3e2200fe	0.15820691
226	0xbe29748a	-0.16548362
227	0x3da95910	0.082689404
228	0xbeb0f1ea	-0.34559566
229	0xbed07961	-0.40717605
230	0xbdc1a6af	-0.094556205
231	0xbe04a420	-0.12953234
232	0xbc64ebf6	-0.013972273
233	0x3d0c8510	0.034306586
234	0x3eb286c9	0.34868458
235	0xbeb5e2ef	-0.355247
236	0x3de1c404	0.11023715
237	0x3e4dfb6e	0.20115444
238	0xbe63192a	-0.22177568
239	0xbd933b85	-0.07189087
240	0x3e84005c	0.25781524
241	0xbe0c6620	-0.13710833
242	0x3ecfea28	0.40608335
243	0xbedb969d	-0.42888346
244	0x3cd5295c	0.026020698
245	0x3f02b919	0.51063687
246	0xbd9f0d59	-0.07766218
247	0x3e7ce532	0.24696806
248	0xbe3e020b	-0.18555467
249	0x3da3d952	0.08000435
250	0xbef47e3c	-0.4775256
251	0xbc365681	-0.011129023
252	0x3da5eb89	0.081015654
253	0x3ec5ba2c	0.386186
254	0xbeed55b5	-0.46354452
255	0xbe7ff578	-0.24995983

lstm3.weight_hh_l0 f4 [40, 10]
0	0xbe899233	-0.26869354
1	0x3e6a2666	0.2286621
2	0xbea35a8f	-0.31905028
3	0xbe8b0a47	-0.27156278
4	0xbe6a162f	-0.22860025
5	0x3dc212fc	0.09476277
6	0x3d4429cd	0.047891427
7	0xbe9be102	-0.30445105
8	0xbcfdf61f	-0.031001149
9	0xbd85ab84	-0.06526855
10	0x3da51d72	0.08062257
11	0x3e1cb3d4	0.15302974
12	0xbeda4286	-0.42628878
13	0xbe1f30fa	-0.15546027
14	0xbbf76049	-0.00754932
15	0xbdfc2535	-0.12311784
16	0xbe931d05	-0.28733078
17	0x3ed84d49	0.42246464
18	0xbe2551f7	-0.16144548
19	0x3d91fadb	0.07127925
20	0x3d5272a6	0.05137887
21	0x3e5a3ef7	0.21313082
22	0x3e5890d1	0.21148993
23	0xbc39f586	-0.011350041
24	0x3e0e4555	0.13893636
25	0xbe6e9097	-0.23297344
26	0x3dfd8ae4	0.12380007
27	0xbdc90e9d	-0.098172404
28	0x3e663e20	0.22484636
29	0x3db542b9	0.08850617
30	0x3e0f3cb5	0.13988002
31	0x3e464eff	0.19366072
32	0x3c93d31c	0.018045
33	0x3eb37d7f	0.35056683
34	0xbea01321	-0.31264594
35	0xbde8573c	-0.11344764
36	0x3e034320	0.12818575
37	0x3e628c25	0.22123773
38	0x3eb0dcc8	0.34543443
39	0xbeb0918f	-0.34486052
40	0xbd4ab775	-0.049491365
41	0xbdb34564	-0.087534696
42	0xbe26d59d	-0.16292424
43	0xbe600b2a	-0.21879259
44	0x3e380bb4	0.17973214
45	0xbed806c7	-0.4219267
46	0xbe8b074a	-0.27154
47	0xbe2b81dc	-0.16748756
48	0xbe42d044	-0.1902476
49	0xbe586f49	-0.21136202
50	0xbcd69d9d	-0.026198203
51	0xbcc8e983	-0.02452541
52	0xbe4d56f8	-0.20052707
53	0x3e3f94cd	0.18709107
54	0x3e518985	0.20462616
55	0xbe1dcef0	-0.15410972
56	0xbe539758	-0.20663202
57	0xbe873b9a	-0.2641266
58	0xbe6f826c	-0.23389596
59	0xbe382bfc	-0.17985529
60	0x3db6d6a2	0.08927657
61	0xbda17622	-0.0788386
62	0xbee50e24	-0.4473735
63	0x3e31df7c	0.17370409
64	0xbce4822b	-0.0278941
65	0xbd89f28a	-0.06735714
66	0xbdc01aaa	-0.09380086
67	0x3da041c0	0.07825041
68	0x3d93f924	0.07225254
69	0x3dd3dc0c	0.10344705
70	0x3e469941	0.19394399
71	0x3e2a00fd	0.1660194
72	0xbe5d14a4	-0.21589905
73	0xbc8461c1	-0.016159894
74	0xbea5b927	-0.32367823
75	0xbe0fd1fd	-0.14044948
76	0x3eb60bfd	0.3555602
77	0xbde99a3c	-0.11406371
78	0xbe21b2ee	-0.15790913
79	0xbea46c29	-0.3211377
80	0x3ea47b9c	0.32125556
81	0x3cfb1bda	0.03065293
82	0x3dc4df3d	0.09612892
83	0xbe04b0c4	-0.12958056
84	0x3e1e8983	0.15482144
85	0xbdc3295e	-0.095293745
86	0x3e97cc0a	0.29647857
87	0xbea79b53	-0.3273569
88	0x3d830517	0.06397455
89	0xbe6e1975	-0.23251899
90	0x3d59a196	0.053132616
91	0xbe3dc870	-0.18533492
92	0x3eb183c7	0.3467085
93	0xbdb0fb17	-0.086416416
94	0x3e9f54d2	0.311194
95	0xbd1cc534	-0.038274005
96	0xbd9bbafe	-0.07604025
97	0xbe9e1994	-0.3087889
98	0xbd3e487f	-0.046455856
99	0xbe6e8420	-0.23292589
100	0xbe8cb793	-0.27483806
101	0x3eb0f09a	0.34558564
102	0x3e78801b	0.24267618
103	0xbe2fc4aa	-0.17164865
104	0x3e316250	0.1732266
105	0x3e8645bd	0.2622508
106	0x3e1a6c12	0.15080288
107	0xbd948156	-0.07251231
108	0xbdf0f1b4	-0.11764851
109	0x3e34decd	0.17663117
110	0xbcd231f2	-0.025658581
111	0xbe6648a3	-0.22488646
112	0xbe878a59	-0.26472738
113	0xbc1740eb	-0.009231786
114	0x3d5a80e7	0.053345587
115	0x3dcafbfb	0.09911343
116	0xbc2f2168	-0.010689117
117	0x3da26baa	0.079306915
118	0xbdaf801d	-0.085693575
119	0x3dc818f7	0.09770387
120	0xbe1aafc7	-0.15106116
121	0x3e5f6a5f	0.21817921
122	0xbdd3d221	-0.10342813
123	0xbdeefe60	-0.11669612
124	0x3d8bcf6b	0.06826671
125	0xbeb36340	-0.3503666
126	0xbd5b1a4f	-0.053491887
127	0xbde3b66b	-0.11118778
128	0x3e7436f1	0.23849083
129	0xbe8ff52a	-0.28116733
130	0x3d8836af	0.06651055
131	0x3eaae19c	0.3337525
132	0x3df09918	0.1174795
133	0x3e980ac7	0.29695722
134	0x3d253bfa	0.0403404
135	0xbc7b0d6f	-0.015323027
136	0xbe1ff1bf	-0.15619563
137	0xbe126703	-0.14297108
138	0x3e8a5b90	0.27022982
139	0x3e76b25f	0.2409148
140	0x3e8904db	0.26761517
141	0xbe512e6b	-0.20427863
142	0x3e1c7c11	0.15281703
143	0xbdfadf31	-0.12249602
144	0x3e527420	0.2055211
145	0xbe8aaf84	-0.27087033
146	0x3dc454b0	0.09586465
147	0x3e4d66c3	0.20058732
148	0x3e221e79	0.15831937
149	0x3b8198ce	0.0039549833
150	0xbd413e5c	-0.04717861
151	0x3e5dc80a	0.2165834
152	0xbd202d6f	-0.03910583
153	0xbe7a4ec7	-0.24444114
154	0xbd1cd49d	-0.0382887
155	0xbe326f6c	-0.17425317
156	0xbe441830	-0.19149852
157	0x3ea2ad35	0.3177277
158	0x3c2aab86	0.010416871
159	0xbd44bd43	-0.048032057
160	0xbed25999	-0.41083983
161	0x3dbd968a	0.09257229
162	0x3d480d67	0.048840906
163	0x3ef49cf6	0.47776002
164	0xbe0f39e2	-0.13986924
165	0x3e393670	0.18087173
166	0xbe455092	-0.19269016
167	0x3d91c196	0.07117002
168	0x3e0f2225	0.13977869
169	0xbd2a99ed	-0.0416507
170	0x3e605483	0.21907239
171	0x3ec81c36	0.39084023
172	0x3e1b095e	0.15140292
173	0x3e9826a0	0.2971697
174	0xbea33acb	-0.31880793
175	0xbdf499be	-0.119433865
176	0xbe201854	-0.1563428
177	0x3e346771	0.17617585
178	0xbe93636f	-0.287868
179	0x3d507966	0.050897025
180	0x3e97e43d	0.2966632
181	0x3e237c44	0.15965372
182	0xbdcb0278	-0.0991258
183	0x3e2f8c7d	0.17143436
184	0xbe925f3a	-0.28588277
185	0x3e5b83f2	0.21437052
186	0x3e2d520a	0.16925827
187	0xbdd518b9	-0.10405106
188	0xbe9d3f72	-0.30712467
189	0x3e0b4490	0.13600373
190	0x3e0c7222	0.13715413
191	0x3e96de77	0.29466602
192	0xbe28468c	-0.16433161
193	0x3e202cf4	0.15642148
194	0xbe3e240a	-0.18568435
195	0xbdfb6f2a	-0.12277062
196	0x3e59d1e0	0.21271467
197	0xbe00d9df	-0.12583111
198	0x3bd3cecb	0.0064638606
199	0x3d8e2c17	0.06942003
200	0x3d605077	0.054764237
201	0x3d6979dd	0.057000984
202	0xbe368b0b	-0.17826478
203	0x3d053e4c	0.032530114
204	0x3d8193a5	0.06326989
205	0xbe528170	-0.20557189
206	0x3e69274c	0.22768897
207	0xbe27a414	-0.16371185
208	0xbe3239b3	-0.17404823
209	0xbe05056d	-0.12990351
210	0x3e5313a6	0.20612964
211	0x3ebe05fd	0.37113944
212	0xbeb31abb	-0.3498133
213	0x3dcec685	0.10096458
214	0xbd5687eb	-0.052375715
215	0xbd433e77	-0.047666993
216	0x3eab5ee2	0.33470827
217	0x3e836b77	0.25667927
218	0xbcd0d070	-0.025490016
219	0xbdfb8185	-0.12280563
220	0x3e34bedf	0.17650937
221	0xbe83cfcc	-0.25744474
222	0x3ea613dc	0.32437027
223	0x3e403bfb	0.1877288
224	0xbe26253b	-0.1622514
225	0xbe34a46a	-0.17640844
226	0xbd71b86a	-0.05901376
227	0x3e8529e4	0.26008523
228	0xbe829df7	-0.25511143
229	0x3b9c0b2b	0.0047620735
230	0x3e612db2	0.21990088
231	0xbe0d9b68	-0.13828814
232	0xbe272866	-0.16324005
233	0xbe9b52cf	-0.30336615
234	0xbdb52c6f	-0.08846366
235	0x3b350299	0.0027619957
236	0x3ea641d4	0.32472098
237	0xbce56f31	-0.028007122
238	0xbe161575	-0.14656623
239	0xbd763a12	-0.060113974
240	0x3d460631	0.04834575
241	0xbbd318b8	-0.0064421557
242	0x3da43a25	0.08018903
243	0x3e77b9e5	0.24192007
244	0x3e0228f3	0.12710933
245	0xbe807475	-0.2508885
246	0xbedd088b	-0.4317058
247	0xbe97fc69	-0.2968476
248	0x3e325cd7	0.17418228
249	0xbe5cb1e2	-0.21552232
250	0xbe72ac47	-0.23698531
251	0xbd63720a	-0.055528678
252	0x3e8a0aff	0.26961514
253	0x3beb2ee0	0.007177219
254	0x3e7cbacd	0.24680634
255	0xbd9b7a59	-0.07591695

lstm3.bias_ih_l0 f4 [40]
0	0xbe996734	-0.2996155
1	0xbc11552a	-0.008870402
2	0x3eb7644e	0.35818714
3	0x3e65d1af	0.22443269
4	0x3de22f33	0.11044159
5	0xbdbb4cab	-0.09145483
6	0x3f0cfa16	0.550691
7	0x3b921f69	0.004459311
8	0x3e6bce4d	0.23027916
9	0x3e68e84b	0.22744863
10	0xbe30440f	-0.17213462
11	0x3d1c6524	0.038182393
12	0x3e92ef0a	0.28697997
13	0xbd842fe0	-0.06454444
14	0xbe8f1ec3	-0.27953157
15	0x3e5c1cb2	0.21495321
16	0x3edc9104	0.43079388
17	0xbc9e7534	-0.019342996
18	0xbde4048d	-0.111336805
19	0x3dd92706	0.10603146
20	0x3e00c949	0.12576784
21	0xbd96c3ff	-0.07361602
22	0x3e316566	0.17323837
23	0x3e8a3b49	0.26998356
24	0x3b8ba330	0.004261397
25	0x3e3c89eb	0.18411987
26	0xbe1a9686	-0.15096483
27	0x3e94bcc3	0.29050264
28	0xbe0ba99f	-0.13638924
29	0xbb7dcf7a	-0.0038728402
30	0xbc4268a6	-0.01186577
31	0x3e3d8f61	0.18511726
32	0x3eb163d0	0.34646463
33	0xbd643b90	-0.055720866
34	0xbe4f6265	-0.20252378
35	0x3d933367	0.071875386
36	0x3ede8e66	0.43468016
37	0xbe4170a3	-0.18890624
38	0xbe98c7e1	-0.29839996
39	0x3d9c512a	0.07632668

lstm3.bias_hh_l0 f4 [40]
0	0xbe86d49c	-0.26334083
1	0x3de29aa0	0.11064649
2	0xbe20c879	-0.15701474
3	0xbdc28fbb	-0.09500071
4	0xbc3e06c1	-0.01159829
5	0xbdc7ed27	-0.0976203
6	0x3e481d5d	0.19542451
7	0x3b8999f0	0.004199259
8	0xbe889d89	-0.2668269
9	0x3e8e526c	0.27797258
10	0x3e5e4a7b	0.217081
11	0x3dad0e7e	0.0845003
12	0xbdc62f10	-0.09676945
13	0xbe341b1c	-0.17588466
14	0xbe907b1e	-0.2821893
15	0xbe1be921	-0.1522565
16	0x3da0cd5a	0.07851668
17	0x3e851133	0.25989684
18	0x3e03c775	0.12869056
19	0x3da63c58	0.081169784
20	0xbe98621d	-0.29762354
21	0x3cafe17d	0.021469826
22	0xbe3ce11e	-0.1844525
23	0x3df2bd94	0.118525654
24	0xbe78c2da	-0.2429308
25	0xbab94384	-0.0014134501
26	0x3d2adec6	0.04171636
27	0x3df36583	0.11884596
28	0x3db01e75	0.08599559
29	0xbca313cc	-0.0199069
30	0x3d077d7d	0.03307866
31	0xbc5f75a5	-0.0136388885
32	0x3ecfdf7a	0.40600187
33	0x3ebb8b2a	0.3662961
34	0xbe58e6a5	-0.21181734
35	0x3e516286	0.2044774
36	0x3e9d7041	0.30749705
37	0x3e355b79	0.17710675
38	0xbea3eb78	-0.32015586
39	0xbe846faf	-0.25866458

output.weight f4 [1, 11]
0	0xbb1bdf7c	-0.002378433
1	0x3e2d2c6b	0.16911475
2	0xbd86bc5f	-0.06578898
3	0x3d085fe5	0.033294577
4	0xbce33d59	-0.027739214
5	0x3db83afe	0.08995627
6	0x3e7804bb	0.24220555
7	0x3ab002d6	0.001342858
8	0xbc0884de	-0.008332459
9	0xbcbf432b	-0.023347458
10	0x3d93ed7c	0.07223031
