Saved_models/best_model_Male.pt (torch, 89050 bytes, 198 tensors)

encoder_input_layer.weight f4 [4, 5]
-0.042578977 0.19238582 -0.37630233 -0.3475743 -0.18389262 -0.39654967 -0.6706418 -0.012664624
-0.42424318 -0.24389203 0.63335013 0.632953 0.18727823 0.3108948 0.46266586 -0.40451953
-0.2447549 -0.22225906 -0.6582449 -0.52528363
00000000: 4b67 2ebd ca00 453e b3aa c0be 42f5 b1be
00000010: 594e 3cbe 8f08 cbbe 2eaf 2bbf 487f 4fbc
00000020: 6736 d9be d5be 79be 3c23 223f 3509 223f
00000030: ddc5 3f3e 9a2d 9f3e 8ae2 ec3e 2f1d cfbe
00000040: 07a1 7abe e197 63be bd82 28bf fd78 06bf

encoder_input_layer.bias f4 [4]
0.6205916 1.5483761 -1.0834727 1.4520209
00000000: 17df 1e3f 3031 c63f 3caf 8abf d2db b93f

decoder_input_layer.weight f4 [4, 1]
-0.789302 0.605521 1.1112653 0.9994119
00000000: b20f 4abf 6d03 1b3f f13d 8e3f 75d9 7f3f

decoder_input_layer.bias f4 [4]
-1.7425411 0.4686335 2.2637227 1.571424
00000000: 960b dfbf bbf0 ef3e d5e0 1040 6c24 c93f

positional_encoding_layer_enc.pe f4 [1, 9, 4]
0.0 1.0 0.0 1.0 0.84147096 0.54030234 0.009999833 0.99995
0.9092974 -0.41614684 0.019998666 0.9998 0.14112 -0.9899925 0.0299955 0.99955004
-0.7568025 -0.6536436 0.039989334 0.9992001 -0.9589243 0.2836622 0.049979165 0.99875027
-0.2794155 0.96017027 0.059964005 0.99820054 0.6569866 0.75390226 0.06994285 0.997551
0.98935825 -0.14550003 0.07991469 0.9968017
00000000: 0000 0000 0000 803f 0000 0000 0000 803f
00000010: a46a 573f 4151 0a3f 57d6 233c b9fc 7f3f
00000020: b7c7 683f 3311 d5be 3ed4 a33c e5f2 7f3f
00000030: c381 103e 2670 7dbf 1fb9 f53c 83e2 7f3f
00000040: cfbd 41bf 3055 27bf dbcb 233d 94cb 7f3f
00000050: 107c 75bf 2c3c 913e f4b6 4c3d 19ae 7f3f
00000060: 8c0f 8fbe b8cd 753f d19c 753d 128a 7f3f
00000070: 4630 283f bdff 403f 323e 8f3d 815f 7f3f
00000080: 9546 7d3f f6fd 14be 50aa a33d 652e 7f3f

positional_encoding_layer_dec.pe f4 [1, 1, 4]
0.0 1.0 0.0 1.0
00000000: 0000 0000 0000 803f 0000 0000 0000 803f

encoder.layers.0.self_attn.in_proj_weight f4 [12, 4]
0.061086558 -1.1093532 1.2458993 -2.7608209 -0.18311998 -0.23228976 0.04783146 0.040550515
-0.35500106 1.2166845 -0.9539359 1.3386743 0.5026935 0.41652596 -0.11043733 0.7773246
0.20875974 1.6480148 -0.95907086 -0.47406262 0.06973514 -0.43350875 0.505606 0.28319722
0.089757 -1.2777839 0.4810132 -0.062576026 -0.2779954 -0.5224941 0.55273855 -0.20048946
-0.146938 -0.55049294 -0.08191313 -3.3398676 0.6546934 0.08034765 0.38270667 2.1132333
-0.19773999 0.023145104 -0.4632179 -2.4783144 -0.048620284 -0.1263571 -0.47894734 -1.5066736
00000000: e635 7a3d 49ff 8dbf a179 9f3f 4ab1 30c0
00000010: ce83 3bbe 5edd 6dbe ecea 433d 4c18 263d
00000020: b3c2 b5be 51bc 9b3f 2535 74bf ae59 ab3f
00000030: 85b0 003f e442 d53e f82c e2bd bffe 463f
00000040: 1dc5 553e 26f2 d23f ab85 75bf 56b8 f2be
00000050: 4cd1 8e3d dcf4 ddbe 656f 013f 3aff 903e
00000060: 85d2 b73d 6c8e a3bf 5d47 f63e dc27 80bd
00000070: 6a55 8ebe 2cc2 05bf 4680 0d3f 1c4d 4dbe
00000080: ea76 16be 1bed 0cbf 12c2 a7bd 64c0 55c0
00000090: fd99 273f 4f8d a43d 21f2 c33e 373f 0740
000000a0: 5a7c 4abe cd9a bd3c e62a edbe b49c 1ec0
000000b0: 1026 47bd c163 01be 9638 f5be aeda c0bf

encoder.layers.0.self_attn.in_proj_bias f4 [12]
-0.40864027 -0.46168324 1.4218475 0.5746214 -0.044639863 0.068491705 -0.009642014 -0.03021599
-0.9386245 0.1914931 -0.7344331 -0.5034203
00000000: 4c39 d1be bf61 ecbe 19ff b53f 631a 133f
00000010: 4ad8 36bd 6145 8c3d 8af9 1dbc 8687 f7bc
00000020: b249 70bf c416 443e cf03 3cbf 27e0 00bf

encoder.layers.0.self_attn.out_proj.weight f4 [4, 4]
-1.9190203 0.52646697 -1.174975 -0.9447812 -1.1436824 1.1260362 0.041084383 -0.3544014
2.2832327 -1.03868 1.2144293 0.59548503 -0.11909588 -0.5371205 0.26624233 0.18141587
00000000: 75a2 f5bf 8ac6 063f 9565 96bf 2edd 71bf
00000010: 2f64 92bf f421 903f 1948 283d 1a74 b5be
00000020: 7c20 1240 77f3 84bf 6b72 9b3f b571 183f
00000030: 8ae8 f3bd bb80 09bf ea50 883e 15c5 393e

encoder.layers.0.self_attn.out_proj.bias f4 [4]
0.47645324 0.24635927 -0.59861547 -0.038233418
00000000: aef1 f33e 9b45 7c3e dd3e 19bf a59a 1cbd

encoder.layers.0.linear1.weight f4 [4, 4]
-0.10829117 0.38416928 0.11391101 0.16260451 -1.237427 -0.7326496 0.31679007 -0.44332078
-0.17287463 -0.005847352 0.6556211 -0.1428904 -1.2644811 1.7615392 -0.14987944 0.18971021
00000000: c3c7 ddbd d6b1 c43e 2d4a e93d cc81 263e
00000010: 0264 9ebf ed8e 3bbf 4f32 a23e f1fa e2be
00000020: 0c06 31be 259b bfbb c9d6 273f dc51 12be
00000030: 84da a1bf 1e7a e13f ff79 19be 6543 423e

encoder.layers.0.linear1.bias f4 [4]
-0.9363462 -0.82004124 -0.4218492 0.07137032
00000000: 62b4 6fbf 39ee 51bf 9efc d7be 9a2a 923d

encoder.layers.0.linear2.weight f4 [4, 4]
0.19619575 0.6611973 -0.14436553 0.99413615 0.008284728 -0.54259723 -0.04034203 -0.2824041
-0.4478561 -0.1063206 0.0851774 0.48024124 -0.36898446 -0.67018014 0.06974267 -0.6305489
00000000: 8ae7 483e 3a44 293f 8fd4 13be b57f 7e3f
00000010: abbc 073c a7e7 0abf af3d 25bd 4597 90be
00000020: 654d e5be 9dbe d9bd 7d71 ae3d 2ee2 f53e
00000030: 88eb bcbe ed90 2bbf 3fd5 8e3d a76b 21bf

encoder.layers.0.linear2.bias f4 [4]
-0.121876255 1.1139662 -1.1412003 0.9905667
00000000: 429a f9bd 7296 8e3f da12 92bf c795 7d3f

encoder.layers.0.norm1.weight f4 [4]
1.3729597 1.310309 2.70077 0.3204577
00000000: 25bd af3f 35b8 a73f 6ad9 2c40 0813 a43e

encoder.layers.0.norm1.bias f4 [4]
0.51324576 -0.18860535 -1.1538674 0.3704162
00000000: 1364 033f c321 41be edb1 93bf 31a7 bd3e

encoder.layers.0.norm2.weight f4 [4]
0.52685434 0.53285533 2.3960881 0.5074639
00000000: eddf 063f 3569 083f 8259 1940 27e9 013f

encoder.layers.0.norm2.bias f4 [4]
0.5125676 -0.47558326 -0.5349508 0.16972147
00000000: a137 033f a67f f3be 89f2 08bf 77cb 2d3e

encoder.layers.1.self_attn.in_proj_weight f4 [12, 4]
0.19765851 -0.43130296 1.1350112 -0.4485526 0.572048 0.023272486 -1.3754356 0.034574565
-0.61643255 -0.1997686 0.5359328 -0.22680733 0.26791295 0.40084046 -0.66127074 0.22565286
0.75632316 -0.22140062 0.95247704 -1.0682216 0.33659622 1.1935061 -1.1454712 1.2374345
-0.32950857 0.033299834 1.1259129 -0.5745492 -1.0383515 0.7561734 -0.84866226 0.7703813
0.6583607 0.5056919 -1.1361912 1.7271343 -0.46782807 -1.0293559 1.0144446 -0.027738936
0.8457769 -0.002107073 -1.1944555 -0.043726947 0.9375781 -0.35789114 -1.5619725 -0.56790996
00000000: fe66 4a3e bed3 dcbe 0c48 913f b0a8 e5be
00000010: bd71 123f f1a5 be3c 460e b0bf 0f9e 0d3d
00000020: 86ce 1dbf 2490 4cbe e432 093f 2e40 68be
00000030: e32b 893e f63a cd3e 0a49 29bf 8b11 673e
00000040: 659e 413f d8b6 62be 89d5 733f 7cbb 88bf
00000050: 5756 ac3e cfc4 983f cd9e 92bf 4164 9e3f
00000060: 59b5 a8be 6865 083d ea1d 903f a815 13bf
00000070: b4e8 84bf 9494 413f ee41 59bf b537 453f
00000080: 548a 283f 0675 013f b76e 91bf bd12 dd3f
00000090: 2987 efbe efc1 83bf 52d9 813f c43c e3bc
000000a0: d684 583f d216 0abb ebe3 98bf 071b 33bd
000000b0: 1e05 703f 823d b7be b7ee c7bf 8c62 11bf

encoder.layers.1.self_attn.in_proj_bias f4 [12]
-0.10461291 0.29801846 -0.6871389 -0.26455444 -0.051107317 -0.06443003 -0.032364678 -0.029419959
0.47254318 -0.73247707 0.17036214 0.46880412
00000000: 4b3f d6bd e095 983e 56e8 2fbf ae73 87be
00000010: e855 51bd e4f3 83bd d390 04bd 2002 f1bc
00000020: 2ef1 f13e 9e83 3bbf 6a73 2e3e 1807 f03e

encoder.layers.1.self_attn.out_proj.weight f4 [4, 4]
2.3286755 -3.036924 2.6359549 2.542478 -0.22413434 0.2793768 -0.07257557 -0.16255644
-0.86433303 0.44370532 -0.61513054 -0.84521717 -0.7058337 0.16778727 -0.22689813 -0.40136132
00000000: 0509 1540 f65c 42c0 7cb3 2840 f6b7 2240
00000010: 7983 65be 7a0a 8f3e 80a2 94bd 3275 26be
00000020: ee44 5dbf 582d e33e 3279 1dbf 2760 58bf
00000030: 84b1 34bf 6dd0 2b3e fc57 68be 3b7f cdbe

encoder.layers.1.self_attn.out_proj.bias f4 [4]
1.561692 0.045987044 -0.2783703 -0.46432468
00000000: 86e5 c73f e95c 3c3d 8d86 8ebe f7bb edbe

encoder.layers.1.linear1.weight f4 [4, 4]
-0.12870784 0.37741968 -0.13414547 -0.0007314119 -1.6445936 0.72674054 0.07917415 0.7713683
-0.020580795 -0.49977154 0.75608575 0.2500998 -1.1571352 1.1874472 0.2235636 1.0087292
00000000: fdcb 03be 273d c13e 6e5d 09be 39bc 3fba
00000010: 0b82 d2bf ab0b 3a3f 0f26 a23d 6578 453f
00000020: 0e99 a8bc 0ee2 ffbe d68e 413f 150d 803e
00000030: 021d 94bf 45fe 973f dbed 643e 0a1e 813f

encoder.layers.1.linear1.bias f4 [4]
-0.5903973 0.54195434 0.11876025 0.32825103
00000000: 4724 17bf 85bd 0a3f 9338 f33d 8510 a83e

encoder.layers.1.linear2.weight f4 [4, 4]
0.6831992 1.1124822 0.70448923 1.1525258 0.14563948 0.1846912 -0.33117762 -0.054080203
-1.0378515 -1.4720825 -0.5374393 -0.4342151 -0.2658783 0.22543785 0.17092903 -0.45432955
00000000: 25e6 2e3f d165 8e3f 6859 343f f785 933f
00000010: 8422 153e b11f 3d3e 1d90 a9be 3483 5dbd
00000020: 51d8 84bf 336d bcbf 9f95 09bf 7151 debe
00000030: 3321 88be 2ed9 663e 0508 2f3e e29d e8be

encoder.layers.1.linear2.bias f4 [4]
1.2486328 0.13216412 -1.3208225 0.43255806
00000000: 33d3 9f3f 0856 073e b610 a9bf 4078 dd3e

encoder.layers.1.norm1.weight f4 [4]
1.9240018 -0.33101827 1.2405869 0.7146643
00000000: b145 f63f 3a7b a9be 8dcb 9e3f 3df4 363f

encoder.layers.1.norm1.bias f4 [4]
1.3875754 0.14490789 -1.1884195 0.25568685
00000000: 129c b13f bc62 143e 211e 98bf 63e9 823e

encoder.layers.1.norm2.weight f4 [4]
0.46257597 0.10577738 0.5143353 -0.0255077
00000000: c2d6 ec3e d0a1 d83d 7aab 033f 86f5 d0bc

encoder.layers.1.norm2.bias f4 [4]
-0.68939567 0.010130425 0.6771746 0.0004530405
00000000: 3c7c 30bf 15fa 253c 515b 2d3f 1186 ed39

decoder.layers.0.self_attn.in_proj_weight f4 [12, 4]
-0.11795229 -0.12023488 -0.5495124 -0.5287456 -0.095823705 0.0079193115 -0.27818543 0.23068023
-0.55117095 -0.041327298 0.5385322 -0.24978182 0.5529743 0.22177297 -0.5526422 0.3874464
-0.070664406 -0.27336726 0.4896856 -0.49485525 0.065710604 -0.12821162 0.4373029 0.1709404
0.29424822 0.21626484 -0.14726007 -0.12878525 -0.50464475 0.3318104 0.4862103 0.41900045
-0.38482013 -0.07402007 -0.2686374 0.1975119 -0.021965891 0.1672576 0.25803274 -0.42022365
-1.2437212 -1.9753186 -0.13806635 0.080741905 0.15385932 -0.07214258 0.053039905 -0.0287621
00000000: f890 f1bd b43d f6bd d8ac 0cbf df5b 07bf
00000010: 383f c4bd 00c0 013c 526e 8ebe 7037 6c3e
00000020: 8a19 0dbf d046 29bd 3fdd 093f cec6 7fbe
00000030: b98f 0d3f 7418 633e f679 0dbf 605f c63e
00000040: 80b8 90bd cbf6 8bbe 12b8 fa3e ab5d fdbe
00000050: 4893 863d e849 03be 2ae6 df3e 000b 2f3e
00000060: b4a7 963e 8874 5d3e 58cb 16be 48e0 03be
00000070: 6630 01bf 0ee3 a93e 8ef0 f83e 3a87 d63e
00000080: 2507 c5be d697 97bd d78a 89be 8f40 4a3e
00000090: d0f1 b3bc 9445 2b3e de1c 843e 8e27 d7be
000000a0: 4232 9fbf 3dd7 fcbf 4461 0dbe 035c a53d
000000b0: 4c8d 1d3e 7dbf 93bd 5f40 593d 7f9e ebbc

decoder.layers.0.self_attn.in_proj_bias f4 [12]
0.0 0.0 0.0 0.0 0.0 0.0 0.0 0.0
-0.6058547 0.14384261 0.22348247 0.0016819487
00000000: 0000 0000 0000 0000 0000 0000 0000 0000
00000010: 0000 0000 0000 0000 0000 0000 0000 0000
00000020: 4b19 1bbf 7a4b 133e 97d8 643e d574 dc3a

decoder.layers.0.self_attn.out_proj.weight f4 [4, 4]
0.015732594 -0.02578899 0.14603838 -0.13075607 -2.025088 -1.0676608 0.30659693 -0.16616702
0.06973833 -0.34490097 -0.086563796 -0.09083568 -0.032054942 0.48686302 -0.11855817 -0.13013832
00000000: a4e1 803c 6f43 d3bc 168b 153e ebe4 05be
00000010: 0b9b 01c0 1ca9 88bf 46fa 9c3e b027 2abe
00000020: f8d2 8e3d dc96 b0be 5c48 b1bd 0f08 babd
00000030: 0b4c 03bd 1c46 f93e a0ce f2bd fb42 05be

decoder.layers.0.self_attn.out_proj.bias f4 [4]
0.00528097 -1.0923663 0.005667601 0.039937433
00000000: fd0b ad3b a9d2 8bbf 48b7 b93b 6f95 233d

decoder.layers.0.multihead_attn.in_proj_weight f4 [12, 4]
-0.20546097 -0.09068465 0.0066983104 0.50508946 0.076447845 0.5484976 0.37459588 -0.3871504
0.27465153 -0.43288368 -0.25953886 0.18011266 0.20220053 0.45941895 -0.19713241 0.0009803176
0.31526375 -0.5922206 0.44273347 -0.5063845 0.008440018 -0.10411358 -0.32252002 0.08093792
0.5063823 -0.17900842 -0.36356193 -0.22647911 -0.60695195 0.27642125 -0.29410025 -0.40866083
-0.057753433 -0.007036787 -0.06282413 0.0030741403 -0.012668991 0.003277017 -0.021255845 0.005777055
-0.0065071387 -0.03039826 0.05897215 -0.029382624 0.04396038 -0.008703229 0.030528352 0.032355756
00000000: 5c64 52be e0b8 b9bd 807d db3b 8b4d 013f
00000010: b090 9c3d 576a 0c3f 08cb bf3e 9438 c6be
00000020: 209f 8c3e eea2 ddbe 47e2 84be 746f 383e
00000030: a80d 4f3e f638 eb3e 14dd 49be 007e 803a
00000040: 406a a13e c59b 17bf f6ad e23e 6aa2 01bf
00000050: 0048 0a3c 8039 d5bd 5821 a5be c8c2 a53d
00000060: 45a2 013f fc4d 37be ca24 babe 24ea 67be
00000070: 3461 1bbf 1687 8d3e 4f94 96be fe3b d1be
00000080: dd8e 6cbd d994 e6bb f0a9 80bd 8477 493b
00000090: 9a91 4fbc 39c3 563b bd20 aebc 734d bd3b
000000a0: d639 d5bb c605 f9bc c88c 713d d4b3 f0bc
000000b0: cd0f 343d fd97 0ebc 9816 fa3c 7887 043d

decoder.layers.0.multihead_attn.in_proj_bias f4 [12]
0.0 0.0 0.0 0.0 0.0 0.0 0.0 0.0
-0.010127652 0.014896538 0.008371944 0.0004532451
00000000: 0000 0000 0000 0000 0000 0000 0000 0000
00000010: 0000 0000 0000 0000 0000 0000 0000 0000
00000020: 74ee 25bc 9c10 743c 7a2a 093c 87a1 ed39

decoder.layers.0.multihead_attn.out_proj.weight f4 [4, 4]
0.04376607 -0.0038344306 -0.028480576 -0.0091455765 0.040027563 -0.024646059 -0.018784286 0.03238532
0.0030387521 0.00016969632 0.015352832 0.038862713 0.0026354096 0.012095776 -0.01000806 -0.006799584
00000000: 0d44 333d 124b 7bbb 1950 e9bc 54d7 15bc
00000010: f1f3 233d 88e6 c9bc 81e1 99bc 78a6 043d
00000020: cd25 473b 82f0 3139 728a 7b3c 822e 1f3d
00000030: d6b6 2c3b 5d2d 463c d9f8 23bc 0bcf debb

decoder.layers.0.multihead_attn.out_proj.bias f4 [4]
-0.031852897 -0.022167468 0.008628354 0.009870219
00000000: 2f78 02bd 8d98 b5bc f15d 0d3c b3b6 213c

decoder.layers.0.linear1.weight f4 [4, 4]
0.116215244 -1.233123 -1.0473188 -0.04592035 -0.88033515 -0.7806469 -0.41557908 1.2821748
0.21594879 0.20395043 0.13908677 0.17592481 -1.2317178 0.0942293 -1.0688026 -0.5410256
00000000: 4202 ee3d f9d6 9dbf 8b0e 86bf fa16 3cbd
00000010: a55d 61bf 7ad8 47bf c8c6 d4be 4e1e a43f
00000020: ae21 5d3e 62d8 503e c36c 0e3e a225 343e
00000030: eea8 9dbf 4bfb c03d 86ce 88bf a780 0abf

decoder.layers.0.linear1.bias f4 [4]
-1.2340434 -1.3983065 -0.6158294 -1.1650469
00000000: 22f5 9dbf b5fb b2bf ffa6 1dbf 4220 95bf

decoder.layers.0.linear2.weight f4 [4, 4]
-0.1588381 -0.054154117 -0.21616359 -0.05905361 1.9115036 1.3316389 -0.30375397 0.49754372
-0.30950344 -0.016615443 -0.008582868 -0.07288742 -0.010218519 0.043581687 -0.17082866 0.055916704
00000000: 74a6 22be b5d0 5dbd fd59 5dbe 33e2 71bd
00000010: 26ac f43f 2573 aa3f a485 9bbe 0dbe fe3e
00000020: 3c77 9ebe 1c1d 88bc 289f 0cbc 0046 95bd
00000030: 936b 27bc b682 323d b5ed 2ebe ea08 653d

decoder.layers.0.linear2.bias f4 [4]
0.022957169 -0.063150845 -0.008303644 -0.0076749194
00000000: ac10 bc3c 3b55 81bd 020c 08bc e47d fbbb

decoder.layers.0.norm1.weight f4 [4]
2.547829 1.3442208 2.2941701 2.2137902
00000000: a10f 2340 6d0f ac3f afd3 1240 bdae 0d40

decoder.layers.0.norm1.bias f4 [4]
-1.0290473 -0.64565146 1.5938275 0.23368593
00000000: d2b7 83bf 6a49 25bf 8a02 cc3f 5d4b 6f3e

decoder.layers.0.norm2.weight f4 [4]
1.4293894 1.8866494 2.396006 1.8871963
00000000: 3bf6 b63f ba7d f13f 2a58 1940 a68f f13f

decoder.layers.0.norm2.bias f4 [4]
0.864648 1.3910357 0.81367135 -0.9466704
00000000: 9259 5d3f 750d b23f c44c 503f fe58 72bf

decoder.layers.0.norm3.weight f4 [4]
2.2931645 1.7543604 2.526814 1.6527666
00000000: 35c3 1240 e28e e03f 52b7 2140 db8d d33f

decoder.layers.0.norm3.bias f4 [4]
0.62562066 -1.0650507 -0.76445425 1.0924795
00000000: ad28 203f 9553 88bf 46b3 43bf 5ed6 8b3f

decoder.layers.1.self_attn.in_proj_weight f4 [12, 4]
-0.11795229 -0.12023488 -0.5495124 -0.5287456 -0.095823705 0.0079193115 -0.27818543 0.23068023
-0.55117095 -0.041327298 0.5385322 -0.24978182 0.5529743 0.22177297 -0.5526422 0.3874464
-0.070664406 -0.27336726 0.4896856 -0.49485525 0.065710604 -0.12821162 0.4373029 0.1709404
0.29424822 0.21626484 -0.14726007 -0.12878525 -0.50464475 0.3318104 0.4862103 0.41900045
-0.20644961 -0.22404832 -0.17126648 -0.26218122 0.1380532 0.24377273 0.2849931 -0.48667985
-0.06005402 -0.08707356 -0.056605548 -0.08030652 -0.009434602 0.019412113 0.010109466 0.01580336
00000000: f890 f1bd b43d f6bd d8ac 0cbf df5b 07bf
00000010: 383f c4bd 00c0 013c 526e 8ebe 7037 6c3e
00000020: 8a19 0dbf d046 29bd 3fdd 093f cec6 7fbe
00000030: b98f 0d3f 7418 633e f679 0dbf 605f c63e
00000040: 80b8 90bd cbf6 8bbe 12b8 fa3e ab5d fdbe
00000050: 4893 863d e849 03be 2ae6 df3e 000b 2f3e
00000060: b4a7 963e 8874 5d3e 58cb 16be 48e0 03be
00000070: 6630 01bf 0ee3 a93e 8ef0 f83e 3a87 d63e
00000080: 8767 53be ec6c 65be 7b60 2fbe 9e3c 86be
00000090: d15d 0d3e 8f9f 793e 9eea 913e 1a2e f9be
000000a0: 34fb 75bd 9f53 b2bd 38db 67bd bf77 a4bd
000000b0: 9793 1abc 2706 9f3c 2ca2 253c 0c76 813c

decoder.layers.1.self_attn.in_proj_bias f4 [12]
0.0 0.0 0.0 0.0 0.0 0.0 0.0 0.0
-0.006342129 0.7189754 0.0022237373 0.024578463
00000000: 0000 0000 0000 0000 0000 0000 0000 0000
00000010: 0000 0000 0000 0000 0000 0000 0000 0000
00000020: a2d1 cfbb c60e 383f 1fbc 113b c658 c93c

decoder.layers.1.self_attn.out_proj.weight f4 [4, 4]
-0.0052732127 0.1029173 0.0017158814 -0.012823988 0.008411579 -0.1588733 0.013648344 0.012672388
-0.024211483 0.010549058 0.0104395505 -0.02247173 -0.016247295 0.008425021 0.01025482 0.0001173215
00000000: eaca acbb 4ec6 d23d 6de7 e03a b41b 52bc
00000010: b8d0 093c afaf 22be 4e9d 5f3c d99f 4f3c
00000020: 2957 c6bc f5d5 2c3c a60a 2b3c a216 b8bc
00000030: 0c19 85bc 1909 0a3c d503 283c 800a f638

decoder.layers.1.self_attn.out_proj.bias f4 [4]
-0.027821317 -0.028914621 -0.03478548 0.044590835
00000000: 88e9 e3bc 5bde ecbc 387b 0ebd e1a4 363d

decoder.layers.1.multihead_attn.in_proj_weight f4 [12, 4]
-0.20546097 -0.09068465 0.0066983104 0.50508946 0.076447845 0.5484976 0.37459588 -0.3871504
0.27465153 -0.43288368 -0.25953886 0.18011266 0.20220053 0.45941895 -0.19713241 0.0009803176
0.31526375 -0.5922206 0.44273347 -0.5063845 0.008440018 -0.10411358 -0.32252002 0.08093792
0.5063823 -0.17900842 -0.36356193 -0.22647911 -0.60695195 0.27642125 -0.29410025 -0.40866083
0.02335277 -0.07287069 0.0014515454 0.02525023 0.041106634 -0.03132563 0.03308066 0.0017048568
-0.065853454 0.027323514 -0.051364243 -0.04207517 0.00756231 0.0029774974 0.0061805686 0.007760024
00000000: 5c64 52be e0b8 b9bd 807d db3b 8b4d 013f
00000010: b090 9c3d 576a 0c3f 08cb bf3e 9438 c6be
00000020: 209f 8c3e eea2 ddbe 47e2 84be 746f 383e
00000030: a80d 4f3e f638 eb3e 14dd 49be 007e 803a
00000040: 406a a13e c59b 17bf f6ad e23e 6aa2 01bf
00000050: 0048 0a3c 8039 d5bd 5821 a5be c8c2 a53d
00000060: 45a2 013f fc4d 37be ca24 babe 24ea 67be
00000070: 3461 1bbf 1687 8d3e 4f94 96be fe3b d1be
00000080: 4f4e bf3c 3a3d 95bd c841 be3a 92d9 ce3c
00000090: 6e5f 283d 4e4f 00bd 967f 073d 8075 df3a
000000a0: 2dde 86bd 90d5 df3c 5063 52bd 0357 2cbd
000000b0: 41cd f73b 1e22 433b 5e86 ca3b cd47 fe3b

decoder.layers.1.multihead_attn.in_proj_bias f4 [12]
0.0 0.0 0.0 0.0 0.0 0.0 0.0 0.0
-0.004311963 0.00018355169 4.88633e-05 0.0069306693
00000000: 0000 0000 0000 0000 0000 0000 0000 0000
00000010: 0000 0000 0000 0000 0000 0000 0000 0000
00000020: 5e4b 8dbb c877 4039 92f2 4c38 ab1a e33b

decoder.layers.1.multihead_attn.out_proj.weight f4 [4, 4]
-0.030572323 3.955298e-05 0.04688324 -0.008357387 -0.027505603 -0.0077580386 0.034589082 -0.015574522
-0.007696228 0.01593504 0.0051474087 -0.006282687 -0.025230728 -0.0012414341 0.024357187 0.006278719
00000000: cf72 fabc b0e5 2538 a408 403d 6ced 08bc
00000010: 6e53 e1bc 2537 febb 48ad 0d3d 482c 7fbc
00000020: a430 fcbb 338a 823c 98ab a83b 00df cdbb
00000030: acb0 cebc 9eb7 a2ba b988 c73c b6bd cd3b

decoder.layers.1.multihead_attn.out_proj.bias f4 [4]
0.0025179065 -0.009971663 -0.00092410657 0.050720494
00000000: 7603 253b 3060 23bc be3f 72ba 4bc0 4f3d

decoder.layers.1.linear1.weight f4 [4, 4]
1.3679827 -0.014011971 -1.3651187 0.6821352 1.4288563 -0.19290897 -1.4608208 0.523973
0.21364947 0.1195486 0.049331307 0.12841402 0.06690247 -0.90186083 -0.39045313 0.02847005
00000000: 0f1a af3f 7792 65bc 36bc aebf 6aa0 2e3f
00000010: c3e4 b63f ee89 45be 2dfc babf 1823 063f
00000020: edc6 5a3e e5d5 f43d a00f 4a3d f77e 033e
00000030: 2a04 893d 5ae0 66bf 79e9 c7be 063a e93c

decoder.layers.1.linear1.bias f4 [4]
0.035559412 0.15354887 -0.3777681 -1.1605511
00000000: bfa6 113d ea3b 1d3e d26a c1be f08c 94bf

decoder.layers.1.linear2.weight f4 [4, 4]
-0.2726997 -0.23757017 0.11650563 -0.50479627 1.9431536 1.3577564 -0.2338391 0.43839335
0.3371976 0.2942132 0.12219395 0.7180675 0.50103444 -1.5935438 -0.2736877 1.0115952
00000000: 4c9f 8bbe 9845 73be 819a ee3d 543a 01bf
00000010: 42b9 f83f f6ca ad3f 8473 6fbe 1875 e03e
00000020: 2aa5 ac3e 1da3 963e d240 fa3d 46d3 373f
00000030: cb43 003f 3ef9 cbbf cb20 8cbe f47b 813f

decoder.layers.1.linear2.bias f4 [4]
0.024210459 -0.0038252636 -0.01151137 0.00071029493
00000000: 0355 c63c 46b1 7abb 2f9a 3cbc 1633 3a3a

decoder.layers.1.norm1.weight f4 [4]
2.547622 2.220641 2.2649271 2.7495372
00000000: 3d0c 2340 fb1e 0e40 91f4 1040 6bf8 2f40

decoder.layers.1.norm1.bias f4 [4]
-0.1323534 -0.4862602 -0.008837561 0.8876716
00000000: a687 07be 19f7 f8be 6bcb 10bc 723e 633f

decoder.layers.1.norm2.weight f4 [4]
1.7780684 2.3004103 0.46052498 3.131347
00000000: bf97 e33f ec39 1340 eec9 eb3e fd67 4840

decoder.layers.1.norm2.bias f4 [4]
-1.5488511 1.8397121 1.001816 -1.9370366
00000000: c140 c6bf b07b eb3f 823b 803f d1f0 f7bf

decoder.layers.1.norm3.weight f4 [4]
1.1162989 -0.0021424016 1.1314331 0.007677347
00000000: e2e2 8e3f 8967 0cbb cdd2 903f 4192 fb3b

decoder.layers.1.norm3.bias f4 [4]
0.44774956 -0.0053105573 -0.30895424 0.0033919862
00000000: 6e3f e53e 2f04 aebb 402f 9ebe 164c 5e3b

linear_mapping.weight f4 [1, 4]
-0.6686439 -0.003462444 0.39326566 0.00013511775
00000000: 3f2c 2bbf 2cea 62bb 1e5a c93e 65ae 0d39

linear_mapping_with_gender_ind.weight f4 [1, 5]
0.055841506 -0.35157594 0.03514573 0.3096819 0.40299034
00000000: 10ba 643d c301 b4be f8f4 0f3d a08e 9e3e
00000010: c054 ce3e

exp_avg f4 [4, 5]
6.7184716e-09 6.5099313e-09 6.4609713e-09 6.2638414e-09 6.1396266e-09 -5.6750746e-09 -5.667361e-09 -5.7133565e-09
-5.7183898e-09 -5.6740945e-09 5.125938e-09 5.5558633e-09 5.2476543e-09 5.3392886e-09 4.904707e-09 5.838463e-09
5.9612337e-09 5.9701906e-09 6.0703575e-09 5.9555414e-09
00000000: 4dd8 e631 f6ad df31 4eff dd31 5539 d731
00000010: baf4 d231 7cfe c2b1 a2ba c2b1 374f c4b1
00000020: 7d7b c4b1 ddf5 c2b1 3a20 b031 e4e5 be31
00000030: db4e b431 e174 b731 4286 a831 aa9b c831
00000040: 91d3 cc31 5a22 cd31 6e93 d031 7fa1 cc31

exp_avg_sq f4 [4, 5]
3.262048e-15 3.4022415e-15 3.4707018e-15 3.655099e-15 3.69698e-15 2.0850254e-15 2.115487e-15 2.1280172e-15
2.1299637e-15 2.164617e-15 2.146771e-15 2.2176837e-15 2.233688e-15 2.377322e-15 2.3615975e-15 6.4334053e-16
6.523447e-16 6.535351e-16 6.577055e-16 6.6781385e-16
00000000: 2a0e 6b27 4728 7527 2617 7a27 57b0 8327
00000010: 9f32 8527 ee3d 1627 d96f 1827 fd56 1927
00000020: e57a 1927 23fa 1b27 efb0 1a27 0bcd 1f27
00000030: 45f4 2027 da4d 2b27 c92b 2a27 276e 3926
00000040: 8b06 3c26 615e 3c26 1a92 3d26 f77b 4026

exp_avg f4 [4]
-1.1051091e-09 2.036948e-09 -8.1297524e-10 -2.2040139e-09
00000000: 92e2 97b0 5efa 0b31 0c78 5fb0 6c75 17b1

exp_avg_sq f4 [4]
9.563017e-16 3.307487e-16 6.4175504e-16 1.09895696e-16
00000000: 4ed1 8926 e5a9 be25 2af9 3826 f866 fd24

exp_avg f4 [4, 1]
-0.06667562 0.09912146 0.006832308 0.05453069
00000000: 3a8d 88bd 3100 cb3d 8ee1 df3b 935b 5f3d

exp_avg_sq f4 [4, 1]
0.019849634 0.01940835 0.015126063 0.01759727
00000000: b39b a23c 43fe 9e3c 4ed3 773c 2628 903c

exp_avg f4 [4]
0.027060628 -0.04141225 -0.0049490356 -0.023996737
00000000: 40ae dd3c e49f 29bd 852b a2bb ce94 c4bc

exp_avg_sq f4 [4]
0.0041123508 0.0032199172 0.0034308245 0.0026940585
00000000: e6c0 863b 3f05 533b afd7 603b cd8e 303b

exp_avg f4 [12, 4]
1.4006335e-10 2.6210153e-10 -3.75886e-10 -5.1206824e-11 7.182714e-11 6.261852e-11 -9.987296e-11 -5.908339e-11
1.0593484e-10 1.1862876e-10 -1.7406307e-10 -3.6785325e-11 -2.1700076e-10 -3.282808e-10 4.788452e-10 1.011601e-10
-2.3728073e-09 1.04183225e-10 2.3760072e-10 1.7843901e-10 -6.5100164e-10 7.395418e-12 3.0910504e-12 1.3040885e-11
2.6227758e-09 -6.731731e-11 -1.5467799e-10 -1.294076e-10 9.322346e-10 -3.4574472e-11 -5.3923373e-11 -5.110327e-11
1.4429926e-08 -1.7634472e-11 -2.7985129e-08 -1.4486484e-11 -5.185573e-09 -2.546509e-10 1.1938335e-09 3.0596292e-10
9.11335e-09 -1.6227845e-10 -2.2092e-08 7.34229e-10 5.138593e-09 -3.4670704e-11 -1.0004366e-08 2.5448116e-10
00000000: 5400 1a2f 8317 902f 40a5 ceaf c235 61ae
00000010: 16f3 9d2e 18b3 892e 7a9f dbae feec 81ae
00000020: 03f4 e82e 076f 022f 6662 3faf 98c8 21ae
00000030: 4998 6eaf 6a79 b4af bc9f 0330 1374 de2e
00000040: de0e 23b1 f119 e52e 549f 822f 1e32 442f
00000050: 2bf2 32b0 001a 022d 6a83 592c ed6a 652d
00000060: 5c3c 3431 4708 94ae fc11 2aaf 0049 0eaf
00000070: 1720 8030 650f 18ae 5228 6dae 2bc1 60ae
00000080: 7ce7 7732 4d1d 9bad f363 f0b2 53d9 7ead
00000090: c82c b2b1 eefe 8baf 4814 a430 7434 a82f
000000a0: f090 1c32 536d 32af d2c4 bdb2 c6d2 4930
000000b0: 8b8f b031 be7b 18ae abdf 2bb2 0ae7 8b2f

exp_avg_sq f4 [12, 4]
7.3808975e-19 4.6647784e-18 5.0431415e-18 7.870896e-19 2.6565128e-19 1.7142684e-18 1.676962e-18 1.2258573e-18
7.2370394e-19 4.4991127e-18 4.4219843e-18 3.9678423e-18 1.6351982e-18 1.0708761e-17 1.1170064e-17 3.8188038e-18
2.3031656e-15 2.4505712e-17 9.1662125e-18 3.4053974e-17 3.074489e-17 1.3079426e-19 9.477468e-20 2.3024386e-19
1.3708101e-15 1.0924936e-17 5.019627e-18 1.726836e-17 2.3563877e-16 2.441914e-18 9.165757e-19 3.2128828e-18
9.663069e-15 3.1602343e-17 4.9093626e-14 2.4690012e-18 8.34891e-16 1.1353452e-16 9.6960116e-15 4.0068576e-17
4.626326e-15 1.6726054e-16 2.1381432e-14 3.910309e-17 1.4936045e-15 3.370759e-17 7.817249e-15 9.082102e-18
00000000: 7cd8 5921 9619 ac22 200f ba22 cf4e 6821
00000010: 16d0 9c20 3bfb fc21 d579 f721 94e7 b421
00000020: 8699 5521 ebfc a522 7624 a322 3663 9222
00000030: 0b50 f121 b28a 4523 230d 4e23 95e3 8c22
00000040: e8f5 2527 7a06 e223 3716 2923 d60b 1d24
00000050: 29c9 0d24 246a 1a20 c7c7 df1f 78e9 8720
00000060: f78d c526 8d87 4923 0931 b922 c345 9f23
00000070: 25d6 8725 742e 3422 4043 8721 a411 6d22
00000080: 0a13 2e28 76bd 1124 1919 5d29 1d2e 3622
00000090: 15a4 7026 7ae5 0225 f6aa 2e28 a0c8 3824
000000a0: 53ae a627 99d6 4025 3a96 c028 c854 3424
000000b0: 4840 d726 e672 1b24 b3d2 0c28 0489 2723

exp_avg f4 [12]
5.6467036e-11 1.5400665e-11 2.6811853e-11 -7.215881e-11 1.9888228e-15 5.2714645e-16 -1.897771e-15 -9.560826e-16
1.8058728e-09 -1.275523e-10 1.5605601e-09 4.2053294e-10
00000000: 3b58 782e 3777 872d edd6 eb2d ccad 9eae
00000010: 4e4f 0f27 8bf0 1726 b2bf 08a7 39c9 89a6
00000020: 8032 f830 c83e 0caf 547b d630 c030 e72f

exp_avg_sq f4 [12]
1.0157553e-19 3.652632e-20 9.7155794e-20 2.314286e-19 1.7985801e-28 1.0488553e-29 1.838868e-28 4.2905693e-29
1.4444686e-15 2.4326312e-16 6.88142e-16 2.4953538e-16
00000000: a4d6 ef1f 9d7d 2c1f 1367 e51f 809c 8820
00000010: 43ff 6311 aebb 540f ae1a 6911 c68e 5910
00000020: 7c2b d026 4d3b 8c25 eb57 4626 ecd8 8f25

exp_avg f4 [4, 4]
9.676502e-10 6.4705336e-10 -2.5202802e-09 -3.5712433e-09 -2.6764928e-09 -1.4021219e-09 2.064654e-09 3.384319e-09
-1.183966e-09 -4.9982185e-10 2.6969253e-09 3.8649763e-09 -2.096255e-09 2.884866e-09 -3.0486837e-09 -2.527865e-09
00000000: 2afe 8430 55dc 3130 3d31 2db1 fa69 75b1
00000010: 5ced 37b1 c7b4 c0b0 c7e1 0d31 9291 6831
00000020: 1ab9 a2b0 d663 09b0 d054 3931 b1cc 8431
00000030: b50d 10b1 193f 4631 0381 51b1 acb6 2db1

exp_avg_sq f4 [4, 4]
7.960856e-16 5.184245e-16 9.787363e-16 1.3958388e-15 1.0997793e-15 1.3842702e-15 1.4415014e-15 1.4452452e-15
1.7770833e-16 7.3571846e-17 2.417333e-16 4.0583148e-16 3.6598367e-16 4.2594296e-16 5.8855327e-16 6.643163e-16
00000000: c074 6526 fa6c 1526 ff0c 8d26 5d29 c926
00000010: b27e 9e26 8e7e c726 04be cf26 2348 d026
00000020: 3ee2 4c25 27a5 a924 8a59 8b25 28f2 e925
00000030: a8f9 d225 168a f525 91a3 2926 e479 3f26

exp_avg f4 [4]
4.4900716e-10 3.5045594e-10 6.991098e-10 2.0049146e-10
00000000: 24d8 f62f 4aaa c02f 7b2b 4030 5471 5c2f

exp_avg_sq f4 [4]
3.2434493e-16 3.4939887e-16 6.899466e-17 8.8661195e-17
00000000: ddf8 ba25 2c6a c925 4217 9f24 5570 cc24

exp_avg f4 [4, 4]
6e-45 -6e-45 -6e-45 -6e-45 4.240386e-15 -1.1586015e-14 -1.7284072e-14 4.245735e-15
-2.7519144e-19 -2.4553545e-20 1.3592925e-19 9.3232057e-20 -6.845454e-09 4.6598814e-09 -2.86964e-08 6.6579613e-09
00000000: 0400 0000 0400 0080 0400 0080 0400 0080
00000010: a8c6 9827 10b7 50a8 5bae 9ba8 fef7 9827
00000020: c171 a2a0 d4e6 e79e 187a 2020 5223 dc1f
00000030: 4035 ebb1 c01c a031 0d80 f6b2 0cc4 e431

exp_avg_sq f4 [4, 4]
3.5e-44 3.5e-44 3.5e-44 3.5e-44 2.615313e-17 2.4618272e-18 1.6145477e-17 9.023863e-18
2.8864966e-18 2.3024727e-20 7.029648e-19 3.3151173e-19 5.923074e-15 4.277313e-15 9.28315e-14 1.8779534e-15
00000000: 1900 0000 1900 0000 1900 0000 1900 0000
00000010: 5538 f123 9aa6 3522 6eea 9423 fd75 2623
00000020: 61fc 5422 6076 d91e 857a 4f21 a3b0 c320
00000030: b766 d527 401b 9a27 b709 d129 2052 0727

exp_avg f4 [4]
-6e-45 2.9249653e-15 1.5715686e-19 9.250833e-09
00000000: 0400 0080 16c4 5227 bf89 3920 98ed 1e32

exp_avg_sq f4 [4]
3.5e-44 1.4602163e-17 9.414899e-19 4.6188224e-15
00000000: 1900 0000 62ae 8623 7cf0 8a21 1e69 a627

exp_avg f4 [4, 4]
-6e-45 3.2806823e-14 -3.1248666e-19 1.5100637e-08 -6e-45 1.7645577e-14 9.388048e-20 -2.3525235e-09
6e-45 -9.4764745e-14 9.3642565e-20 -6.8136257e-09 -6e-45 4.4312315e-14 1.2429645e-19 -1.7027856e-08
00000000: 0400 0080 b1bf 1329 a675 b8a0 a7b6 8132
00000010: 0400 0080 eeef 9e28 45ab dd1f 08aa 21b1
00000020: 0400 0000 2864 d5a9 751b dd1f 491d eab1
00000030: 0400 0080 9f90 4729 4cbe 1220 a744 92b2

exp_avg_sq f4 [4, 4]
3.5e-44 2.5758222e-18 3.7087482e-18 4.075572e-15 3.5e-44 2.768769e-18 3.3620433e-19 1.7246416e-15
3.5e-44 1.2580252e-17 3.3315332e-19 1.0656229e-14 3.5e-44 2.897683e-18 5.8938997e-19 1.13241105e-14
00000000: 1900 0000 e80f 3e22 23d4 8822 84d6 9227
00000010: 1900 0000 914c 4c22 c375 c620 0b8c f826
00000020: 1900 0000 8f10 6823 b5a8 c420 2ff7 3f28
00000030: 1900 0000 afcf 5522 0cf5 2d21 3eff 4b28

exp_avg f4 [4]
-4.6852304e-09 -2.3026692e-11 -2.380942e-09 -9.072609e-09
00000000: b9fb a0b1 808b caad fa9d 23b1 c2dd 1bb2

exp_avg_sq f4 [4]
7.456793e-15 1.3416591e-15 6.411986e-16 3.5076896e-15
00000000: 6354 0628 7c5a c126 1bd0 3826 74c1 7c27

exp_avg f4 [4]
2.487761e-09 9.2453885e-09 3.5416448e-10 -3.4120886e-09
00000000: 28f5 2a31 a6d5 1e32 38b4 c22f 197a 6ab1

exp_avg_sq f4 [4]
1.0378003e-14 9.440106e-15 3.166787e-16 1.6453478e-15
00000000: 17f4 3a28 ce0e 2a28 878d b625 9f1e ed26

exp_avg f4 [4]
-8.863674e-09 2.0766844e-08 -2.2220314e-10 -6.7121935e-09
00000000: da46 18b2 c662 b232 a050 74af 14a1 e6b1

exp_avg_sq f4 [4]
8.318544e-15 1.3210322e-14 3.1622485e-16 2.8083492e-15
00000000: 83da 1528 dbf9 6d28 8d4a b625 e65c 4a27

exp_avg f4 [4]
-5.981062e-09 -6.1730057e-09 8.1068485e-10 1.4448695e-08
00000000: fa81 cdb1 551a d4b1 e0d6 5e30 083a 7832

exp_avg_sq f4 [4]
4.4112883e-14 4.850967e-15 2.2176497e-14 1.4792197e-14
00000000: b1aa 4629 46c6 ae27 85bf c728 7c3c 8528

exp_avg f4 [4]
-2.348699e-09 3.298084e-09 -9.576686e-10 -5.1690794e-09
00000000: c066 21b1 82a4 6231 f89e 83b0 b49b b1b1

exp_avg_sq f4 [4]
1.0237393e-13 6.352167e-15 7.902169e-15 4.161096e-14
00000000: 8d86 e629 66dc e427 535a 0e28 2c66 3b29

exp_avg f4 [12, 4]
1.5521184e-10 -4.8396984e-11 -6.584635e-10 5.0828293e-11 -2.278667e-10 7.753908e-11 9.809277e-10 -8.3328205e-11
-1.8389831e-11 1.2342525e-11 3.184858e-11 -1.2792128e-12 -3.381553e-10 1.1794926e-10 1.4051277e-09 -1.1477602e-10
-6.4980077e-10 1.0903451e-09 -3.8364228e-10 -3.3254138e-10 9.372921e-10 -1.5526409e-09 5.295768e-10 4.6636106e-10
-5.034879e-10 8.260119e-10 -2.7753427e-10 -2.4444305e-10 3.796095e-10 -6.3782185e-10 2.2343997e-10 1.9533805e-10
-2.6433402e-09 6.3469896e-10 9.982514e-09 -3.0803537e-10 2.8270692e-09 -6.116484e-10 -1.2465261e-08 7.040235e-10
3.8708287e-10 -6.8998446e-11 -2.2858737e-09 2.2377913e-10 2.5517904e-10 -1.2948906e-11 -1.1999415e-09 3.7394157e-11
00000000: 40a8 2a2f 29da 54ae 40ff 34b0 928b 5f2e
00000010: c68a 7aaf 9f82 aa2e 53d1 8630 9c3d b7ae
00000020: 38c2 a1ad ca21 592d 5012 0c2e 8008 b4ab
00000030: 21e7 b9af c4af 012f 891e c130 2865 fcae
00000040: aa9d 32b0 1cdb 9530 dae8 d2af 0ad1 b6af
00000050: 09d2 8030 b264 d5b0 a891 1130 3e31 0030
00000060: d065 0ab0 6c0d 6330 7a93 98af 4d62 86af
00000070: 4ab1 d02f b952 2fb0 c3ac 752f c6c6 562f
00000080: 22a6 35b1 f876 2e30 907f 2b32 2058 a9af
00000090: 5446 4231 ee20 28b0 cc26 56b2 4085 4130
000000a0: 12cd d42f acba 97ae 8415 1db1 3a0c 762f
000000b0: 4249 8c2f b0cc 63ad 30eb a4b0 1476 242e

exp_avg_sq f4 [12, 4]
1.6949857e-17 7.63611e-19 4.443154e-16 3.075059e-18 7.17988e-18 3.355762e-19 1.809936e-16 1.2050147e-18
3.4475955e-18 1.5637957e-19 9.27397e-17 6.760148e-19 2.2691228e-17 7.9580756e-19 6.642783e-16 4.9416163e-18
3.032269e-16 1.6222698e-16 5.380069e-17 1.4245343e-16 5.3365754e-16 2.881495e-16 9.584364e-17 2.607107e-16
1.4331853e-16 7.7328265e-17 2.5619461e-17 6.992897e-17 1.01615545e-16 5.4714662e-17 1.8266876e-17 4.892912e-17
8.100798e-15 3.218149e-16 2.5659027e-13 2.3256778e-15 2.5806718e-15 1.06113144e-16 7.651249e-14 6.30981e-16
6.2543653e-16 2.4717176e-17 1.9489484e-14 1.7292244e-16 1.7799979e-16 6.4463e-18 5.4751185e-15 4.537081e-17
00000000: b855 9c23 d160 6121 b110 0026 39e6 6222
00000010: 0672 0423 d716 c620 e2ab 5025 2bd4 b121
00000020: 3d63 7e22 d39e 3820 dbd7 d524 3c86 4721
00000030: 264a d123 85e1 6a21 1677 3f26 3f50 b622
00000040: 64cc ae25 f408 3b25 a51c 7824 d53c 2425
00000050: fad0 1926 5c1b a625 1900 dd24 1c4a 9625
00000060: 2a3c 2525 8d4e b224 3e4c ec23 c73e a124
00000070: 3b4f ea24 ac53 7c24 717b a823 4fa5 6124
00000080: 56ee 1128 7f83 b925 8e72 902a 2f95 2727
00000090: fef4 3927 25ae f424 734a ac29 2ede 3526
000000a0: 1245 3426 c8f9 e323 b18b af28 b25d 4725
000000b0: 4438 4d25 95d3 ed22 0e43 c527 663c 5124

exp_avg f4 [12]
1.466557e-10 -2.1591595e-10 -9.019799e-12 -3.1219924e-10 -2.4271482e-14 2.2074288e-14 -1.7211232e-14 1.013734e-14
-1.9622934e-09 2.5627775e-09 4.954656e-10 2.5622418e-10
00000000: e93f 212f f066 6daf 90ad 1ead 23a2 abaf
00000010: 3a9e daa8 d8d3 c628 6606 9ba8 3b9e 3628
00000020: 08d9 06b1 dc1c 3031 4b31 0830 59dc 8c2f

exp_avg_sq f4 [12]
2.1128726e-17 8.648083e-18 4.456362e-18 3.1502416e-17 3.6260512e-26 6.5600853e-26 1.8747039e-26 1.2495552e-26
1.1888294e-14 3.5299624e-15 9.03736e-16 2.531104e-16
00000000: cbe0 c223 6b87 1f23 2669 a422 7d47 1124
00000010: a98d 3315 7b6b a215 64a9 b914 fa7f 7714
00000020: 1429 5628 505c 7e27 f93d 8226 81e8 9125

exp_avg f4 [4, 4]
-6.0688095e-09 5.1323195e-09 -6.23149e-09 -8.447326e-09 6.3600865e-08 -5.208136e-08 5.978878e-08 7.762958e-08
-4.9777398e-08 4.2773593e-08 -5.174421e-08 -6.8172724e-08 4.498412e-08 -4.003529e-08 4.9230238e-08 6.3060284e-08
00000000: d085 d0b1 5c58 b031 c41c d6b1 bc1f 11b2
00000010: f294 8833 10b0 5fb3 3b65 8033 50b5 a633
00000020: d4ca 55b3 10b6 3733 5c3d 5eb3 5a66 92b3
00000030: 9034 4133 44f3 2bb3 3871 5333 c26b 8733

exp_avg_sq f4 [4, 4]
6.0422296e-14 3.932401e-14 5.0805057e-14 8.83988e-14 3.1557322e-13 2.0734402e-13 2.6636977e-13 4.602071e-13
2.9241824e-12 1.8940628e-12 2.4332298e-12 4.2281022e-12 6.344905e-12 4.0933147e-12 5.2406564e-12 9.109653e-12
00000000: 150f 8829 7f19 3129 3ece 6429 700e c729
00000010: e5a6 b12a d872 692a eef3 952a 6b89 012b
00000020: 63c5 4d2c 6748 052c 2c39 2b2c 5cc3 942c
00000030: d33d df2c 4d05 902c a363 b82c 3b42 202d

exp_avg f4 [4]
-1.6594215e-09 1.07368034e-08 -1.36608325e-08 1.4015418e-08
00000000: b411 e4b0 f674 3832 fab0 6ab2 76c8 7032

exp_avg_sq f4 [4]
1.1901018e-15 6.7230072e-15 5.995655e-14 1.3390797e-13
00000000: 0283 ab26 cc38 f227 9902 8729 58c4 162a

exp_avg f4 [4, 4]
-6e-45 6e-45 -6e-45 6e-45 -6e-45 6e-45 6e-45 6e-45
6e-45 -6e-45 -6e-45 -6e-45 6e-45 -6e-45 -6e-45 -6e-45
00000000: 0400 0080 0400 0000 0400 0080 0400 0000
00000010: 0400 0080 0400 0000 0400 0000 0400 0000
00000020: 0400 0000 0400 0080 0400 0080 0400 0080
00000030: 0400 0000 0400 0080 0400 0080 0400 0080

exp_avg_sq f4 [4, 4]
3.5e-44 3.5e-44 3.5e-44 3.5e-44 8.719556e-31 3.962044e-33 2.1944406e-32 7.627068e-32
1.4229211e-30 6.465561e-33 3.5810548e-32 1.2446399e-31 5.799188e-30 2.6350657e-32 1.4594764e-31 5.0726004e-31
00000000: 1900 0000 1900 0000 1900 0000 1900 0000
00000010: 9e7b 8d0d ae93 a409 3de2 e30a 9002 c60b
00000020: d4e1 e60d d248 060a 62f0 390b 4190 210c
00000030: 363e eb0e 08d2 080b 6c73 3d0c 849d 240d

exp_avg f4 [4]
6e-45 6e-45 -6e-45 -6e-45
00000000: 0400 0000 0400 0000 0400 0080 0400 0080

exp_avg_sq f4 [4]
3.5e-44 3.1130276e-31 5.080069e-31 2.0704129e-30
00000000: 1900 0000 0b0c ca0c 90db 240d cbf8 270e

exp_avg f4 [4, 4]
6e-45 -6e-45 -6e-45 -6e-45 -6e-45 6e-45 6e-45 6e-45
6e-45 -6e-45 -6e-45 -6e-45 -6e-45 6e-45 6e-45 6e-45
00000000: 0400 0000 0400 0080 0400 0080 0400 0080
00000010: 0400 0080 0400 0000 0400 0000 0400 0000
00000020: 0400 0000 0400 0080 0400 0080 0400 0080
00000030: 0400 0080 0400 0000 0400 0000 0400 0000

exp_avg_sq f4 [4, 4]
3.5e-44 2.543273e-29 2.4121852e-31 1.4674816e-29 3.5e-44 3.6368777e-29 3.4494235e-31 2.098495e-29
3.5e-44 1.5081301e-29 1.4303975e-31 8.70198e-30 3.5e-44 8.3861956e-30 7.953955e-32 4.838883e-30
00000000: 1900 0000 92f5 0010 4d8f 9c0c 00d2 940f
00000010: 1900 0000 5f69 3810 61e1 df0c 0cd0 d40f
00000020: 1900 0000 4cf1 980f 1cad 390c 437f 300f
00000030: 1900 0000 9e17 2a0f 197f ce0b d649 c40e

exp_avg f4 [4]
9.599205e-08 -1.2329668e-06 1.3386059e-06 1.7731588e-07
00000000: 3024 ce33 6b7c a5b5 26aa b335 3864 3e34

exp_avg_sq f4 [4]
3.5504478e-11 6.9257135e-11 5.7904553e-11 4.5823716e-11
00000000: 7d26 1c2e 4d4c 982e bbaa 7e2e eb88 492e

exp_avg f4 [4]
8.819583e-07 2.7025894e-07 -1.6524433e-07 1.1980214e-07
00000000: b6bf 6c35 1b18 9134 046e 31b4 f6a2 0034

exp_avg_sq f4 [4]
8.858447e-11 9.716642e-12 5.4001654e-11 9.764044e-12
00000000: a0cc c22e deef 2a2d 7580 6d2e 58c5 2b2d

exp_avg f4 [4]
5.6799615e-07 -6.329443e-07 3.484784e-07 -2.8353043e-07
00000000: 6678 1835 9ae7 29b5 8216 bb34 2038 98b4

exp_avg_sq f4 [4]
3.4041915e-11 5.7354205e-11 6.6889126e-11 4.0549876e-11
00000000: cab7 152e 183f 7c2e 3b17 932e 1a57 322e

exp_avg f4 [4]
7.0007472e-06 3.203886e-07 -6.100693e-06 -2.7505948e-08
00000000: f6e7 ea36 e001 ac34 8eb4 ccb6 3846 ecb2

exp_avg_sq f4 [4]
1.3160528e-08 3.879924e-11 1.6287666e-08 3.3728652e-11
00000000: 9d18 6232 10a4 2a2e f5e8 8b32 1657 142e

exp_avg f4 [4]
5.422839e-06 -1.39070435e-05 3.5414414e-06 7.917509e-06
00000000: d5f5 b536 4c52 69b7 80a9 6d36 71d5 0437

exp_avg_sq f4 [4]
5.737862e-09 2.4608413e-09 9.824594e-09 1.4858499e-09
00000000: c526 c531 941b 2931 05c9 2832 b236 cc30

exp_avg f4 [12, 4]
0.0 0.0 0.0 0.0 0.0 0.0 0.0 0.0
0.0 0.0 0.0 0.0 0.0 0.0 0.0 0.0
0.0 0.0 0.0 0.0 0.0 0.0 0.0 0.0
0.0 0.0 0.0 0.0 0.0 0.0 0.0 0.0
0.010940426 -0.008258835 -0.010983575 -0.00048627448 -0.0048998445 0.0020073839 0.0023941174 -0.000109561486
0.0013751073 0.0016388284 -0.00022062776 0.003239133 0.0005497349 -0.0007669264 -0.0010024746 0.00023280487
00000000: 0000 0000 0000 0000 0000 0000 0000 0000
00000010: 0000 0000 0000 0000 0000 0000 0000 0000
00000020: 0000 0000 0000 0000 0000 0000 0000 0000
00000030: 0000 0000 0000 0000 0000 0000 0000 0000
00000040: 0000 0000 0000 0000 0000 0000 0000 0000
00000050: 0000 0000 0000 0000 0000 0000 0000 0000
00000060: 0000 0000 0000 0000 0000 0000 0000 0000
00000070: 0000 0000 0000 0000 0000 0000 0000 0000
00000080: 793f 333c 1150 07bc 74f4 33bc a8f2 feb9
00000090: e08e a0bb 508e 033b a0e6 1c3b 60c4 e5b8
000000a0: f23c b43a f5cd d63a 5058 67b9 a247 543b
000000b0: 161c 103a 8f0b 49ba 7765 83ba 151d 7439

exp_avg_sq f4 [12, 4]
0.0 0.0 0.0 0.0 0.0 0.0 0.0 0.0
0.0 0.0 0.0 0.0 0.0 0.0 0.0 0.0
0.0 0.0 0.0 0.0 0.0 0.0 0.0 0.0
0.0 0.0 0.0 0.0 0.0 0.0 0.0 0.0
0.0006380497 0.00043822528 0.001888675 0.0010942498 0.0001973205 8.670423e-05 0.00078616134 0.00030387897
3.7413225e-05 3.559962e-05 0.0001073547 9.692251e-05 8.150925e-06 7.0390906e-06 2.2157592e-05 2.626685e-05
00000000: 0000 0000 0000 0000 0000 0000 0000 0000
00000010: 0000 0000 0000 0000 0000 0000 0000 0000
00000020: 0000 0000 0000 0000 0000 0000 0000 0000
00000030: 0000 0000 0000 0000 0000 0000 0000 0000
00000040: 0000 0000 0000 0000 0000 0000 0000 0000
00000050: 0000 0000 0000 0000 0000 0000 0000 0000
00000060: 0000 0000 0000 0000 0000 0000 0000 0000
00000070: 0000 0000 0000 0000 0000 0000 0000 0000
00000080: ca42 273a 9ac1 e539 6b8d f73a ee6c 8f3a
00000090: d2e7 4e39 fbd4 b538 6516 4e3a f251 9f39
000000a0: 25ec 1c38 cd50 1538 9e23 e138 e042 cb38
000000b0: f5bf 0837 5431 ec36 11df b937 a257 dc37

exp_avg f4 [12]
0.0 0.0 0.0 0.0 0.0 0.0 0.0 0.0
0.0020485679 0.003686844 0.0068918006 -0.0016293366
00000000: 0000 0000 0000 0000 0000 0000 0000 0000
00000010: 0000 0000 0000 0000 0000 0000 0000 0000
00000020: 4441 063b fa9e 713b 9dd4 e13b 778f d5ba

exp_avg_sq f4 [12]
0.0 0.0 0.0 0.0 0.0 0.0 0.0 0.0
0.005059126 0.0021566576 0.0007513037 0.00012324781
00000000: 0000 0000 0000 0000 0000 0000 0000 0000
00000010: 0000 0000 0000 0000 0000 0000 0000 0000
00000020: 06c7 a53b b656 0d3b 23f3 443a 153c 0139

exp_avg f4 [4, 4]
-0.021700358 -0.0014409733 -0.009512214 0.0007806232 0.0011363605 0.001812979 -0.0021176557 -0.0007861097
0.009688018 -0.0020491844 0.005718941 0.001995024 0.0059779324 0.0057428917 0.004353838 -0.0018072277
00000000: f3c4 b1bc 0adf bcba 1ed9 1bbc bca2 4c3a
00000010: eef1 943a 7ba1 ed3a 5ec8 0abb ee12 4eba
00000020: 7eba 1e3c 9c4b 06bb f465 bb3b f3be 023b
00000030: 88e2 c33b de2e bc3b a4aa 8e3b 80e0 ecba

exp_avg_sq f4 [4, 4]
0.004699764 0.00025635777 0.00078072975 1.7843673e-05 0.00034317013 2.2465367e-05 8.7903216e-05 2.9765963e-06
0.0025801396 0.00013841622 0.0009959285 2.9578685e-05 0.0031227204 8.137644e-05 0.00071806775 1.2547929e-05
00000000: 7a00 9a3b c267 8639 e3a9 4c3a ffae 9537
00000010: 84eb b339 0274 bc37 ae58 b838 89c1 4736
00000020: 8f17 293b d223 1139 d189 823a be1f f837
00000030: 8ea6 4c3b a5a8 aa38 b63c 3c3a f284 5237

exp_avg f4 [4]
0.027482452 -0.0017848021 -0.010586134 -0.006179616
00000000: e122 e13c 05f0 e9ba 7771 2dbc 607e cabb

exp_avg_sq f4 [4]
0.0103154285 0.0009490996 0.0069211163 0.006872145
00000000: 0b02 293c ffcc 783a 88ca e23b bb2f e13b

exp_avg f4 [12, 4]
0.0 0.0 0.0 0.0 0.0 0.0 0.0 0.0
0.0 0.0 0.0 0.0 0.0 0.0 0.0 0.0
0.0 0.0 0.0 0.0 0.0 0.0 0.0 0.0
0.0 0.0 0.0 0.0 0.0 0.0 0.0 0.0
2.527265e-06 -1.8614364e-06 3.824066e-06 1.3149744e-06 -8.1834605e-07 7.779505e-07 -1.246913e-06 -5.21119e-07
-1.5326118e-06 1.3332418e-06 -2.1637743e-06 -2.0863058e-07 -2.593843e-06 9.881087e-07 -3.8153457e-06 4.6518028e-07
00000000: 0000 0000 0000 0000 0000 0000 0000 0000
00000010: 0000 0000 0000 0000 0000 0000 0000 0000
00000020: 0000 0000 0000 0000 0000 0000 0000 0000
00000030: 0000 0000 0000 0000 0000 0000 0000 0000
00000040: 0000 0000 0000 0000 0000 0000 0000 0000
00000050: 0000 0000 0000 0000 0000 0000 0000 0000
00000060: 0000 0000 0000 0000 0000 0000 0000 0000
00000070: 0000 0000 0000 0000 0000 0000 0000 0000
00000080: 159a 2936 78d6 f9b5 7a50 8036 2d7e b035
00000090: 50ac 5bb5 5ad4 5035 9b5b a7b5 06e3 0bb5
000000a0: 24b4 cdb5 d7f1 b235 5c35 11b6 f003 60b4
000000b0: e211 2eb6 289f 8435 9205 80b6 e4bd f934

exp_avg_sq f4 [12, 4]
0.0 0.0 0.0 0.0 0.0 0.0 0.0 0.0
0.0 0.0 0.0 0.0 0.0 0.0 0.0 0.0
0.0 0.0 0.0 0.0 0.0 0.0 0.0 0.0
0.0 0.0 0.0 0.0 0.0 0.0 0.0 0.0
7.7834184e-10 1.2675792e-10 1.17753e-09 1.3625394e-10 1.07172216e-10 1.6465272e-11 1.4099419e-10 1.604052e-11
6.982139e-10 1.1061945e-10 1.0695074e-09 1.1953841e-10 7.506626e-10 1.3157873e-10 1.227053e-09 1.5987375e-10
00000000: 0000 0000 0000 0000 0000 0000 0000 0000
00000010: 0000 0000 0000 0000 0000 0000 0000 0000
00000020: 0000 0000 0000 0000 0000 0000 0000 0000
00000030: 0000 0000 0000 0000 0000 0000 0000 0000
00000040: 0000 0000 0000 0000 0000 0000 0000 0000
00000050: 0000 0000 0000 0000 0000 0000 0000 0000
00000060: 0000 0000 0000 0000 0000 0000 0000 0000
00000070: 0000 0000 0000 0000 0000 0000 0000 0000
00000080: f0f2 5530 2f5f 0b2f a7d6 a130 13d0 152f
00000090: 98ac eb2e 7fd4 902d 5606 1b2f 0a18 8d2d
000000a0: 6fec 3f30 3741 f32e f2fd 9230 126f 032f
000000b0: 2f57 4e30 1fac 102f 17a5 a830 76c8 2f2f

exp_avg f4 [12]
0.0 0.0 0.0 0.0 0.0 0.0 0.0 0.0
0.00011691243 -3.314999e-06 4.769058e-05 0.00011182012
00000000: 0000 0000 0000 0000 0000 0000 0000 0000
00000010: 0000 0000 0000 0000 0000 0000 0000 0000
00000020: e22e f538 4077 5eb6 5f07 4838 f880 ea38

exp_avg_sq f4 [12]
0.0 0.0 0.0 0.0 0.0 0.0 0.0 0.0
6.149286e-07 7.6019276e-08 4.607352e-07 6.08308e-07
00000000: 0000 0000 0000 0000 0000 0000 0000 0000
00000010: 0000 0000 0000 0000 0000 0000 0000 0000
00000020: 9211 2535 0a40 a333 f75a f734 9c4a 2335

exp_avg f4 [4, 4]
-2.509453e-05 3.912617e-05 3.3012628e-05 1.6220802e-05 -1.0890655e-05 -1.2706123e-06 1.0996668e-05 1.0026331e-05
1.2670694e-05 3.0478986e-05 -3.7187865e-06 -1.2249832e-05 5.359521e-05 -7.339502e-05 -6.008528e-05 -2.6848134e-05
00000000: 1882 d2b7 681b 2438 0a77 0a38 e811 8837
00000010: 02b7 36b7 e889 aab5 547e 3837 c436 2837
00000020: 3794 5437 20ad ff37 4490 79b6 a184 4db7
00000030: 6bcb 6038 a7eb 99b8 1404 7cb8 ee37 e1b7

exp_avg_sq f4 [4, 4]
4.8953126e-08 2.8958983e-08 2.836779e-08 3.3550858e-08 1.3826149e-08 7.3940436e-09 8.926389e-09 8.464962e-09
4.8110277e-08 1.953029e-08 2.7981642e-08 3.013832e-08 3.3239036e-08 2.8499674e-08 2.0791564e-08 2.3119535e-08
00000000: 8840 5233 7ac1 f832 6ead f332 8f19 1033
00000010: 0c88 6d32 b20e fe31 ad5a 1932 4c6d 1132
00000020: cfa1 4e33 90c3 a732 485c f032 6f71 0133
00000030: b5c2 0e33 72cf f432 2299 b232 6598 c632

exp_avg f4 [4]
0.004030515 0.00052761566 0.00064928824 -0.0067144786
00000000: 6912 843b b04f 0a3a ff34 2a3a 2105 dcbb

exp_avg_sq f4 [4]
0.00030444367 0.00011716848 0.00033222258 0.00023917106
00000000: bd9d 9f39 59b8 f538 292e ae39 fec9 7a39

exp_avg f4 [4, 4]
-0.005220506 -0.00017427525 0.0029615774 0.00067980867 -1.8006922e-05 0.0001062546 -7.797269e-05 5.5761415e-05
-6e-45 6e-45 -6e-45 -6e-45 -0.00047415704 -0.0008120715 0.00089422084 6.281854e-05
00000000: c710 abbb a8bd 36b9 0617 423b 3035 323a
00000010: 920d 97b7 01d5 de38 4585 a3b8 5de1 6938
00000020: 0400 0080 0400 0000 0400 0080 0400 0080
00000030: 4898 f8b9 32e1 54ba 256a 6a3a 72bd 8338

exp_avg_sq f4 [4, 4]
0.00015521044 6.484845e-05 9.66381e-05 5.7630627e-06 3.4869984e-06 1.9331343e-05 7.76098e-05 2.3214807e-05
1.8282938e-24 4.6566133e-20 3.0398225e-21 5.1487623e-21 8.3159e-06 1.5431388e-05 1.9054036e-05 1.8084221e-06
00000000: fcbf 2239 3fff 8738 2faa ca38 5560 c136
00000010: 2d02 6a36 be29 a237 72c2 a238 6bbd c237
00000020: 1775 0d18 00e7 5b1f b8ae 651d c683 c21d
00000030: 8584 0b37 a772 8137 3bd6 9f37 e9b8 f235

exp_avg f4 [4]
-0.0018135202 3.4320135e-05 6e-45 -0.00029940327
00000000: a4b3 edba f7f2 0f38 0400 0000 3af9 9cb9

exp_avg_sq f4 [4]
2.4151479e-05 1.1985013e-05 2.2399934e-21 2.0729617e-06
00000000: e898 ca37 3d13 4937 c63f 291d 361d 0b36

exp_avg f4 [4, 4]
0.0012069119 -0.00014722548 -6e-45 0.0018012741 -0.00046547054 -3.2288804e-06 6e-45 8.60884e-05
0.0006123248 0.0004104411 -6e-45 -0.00034711344 -0.000710801 -0.00023650627 6e-45 -0.0020522662
00000000: 3e31 9e3a 8a60 1ab9 0400 0080 bb18 ec3a
00000010: 660a f4b9 beaf 58b6 0400 0000 5c8a b438
00000020: 6c84 203a 7930 d739 0400 0080 c7fc b5b9
00000030: 0c55 3aba abfe 77b9 0400 0000 507f 06bb

exp_avg_sq f4 [4, 4]
1.0746819e-05 1.0402449e-05 1.5731745e-24 2.9362955e-05 1.0177331e-06 9.4665376e-07 3.5910277e-26 6.2882197e-07
4.02087e-06 1.3656286e-05 3.5e-44 4.301021e-06 2.3149592e-05 2.2971985e-06 1.06052695e-24 2.4050376e-05
00000000: 3c4d 3437 2e86 2e37 dd6f f317 7750 f637
00000010: 0b99 8835 8d1d 7e35 afd1 3115 51cc 2835
00000020: 03eb 8636 4d1d 6537 1900 0000 7d51 9036
00000030: 5f31 c237 9229 1a36 cd1b a417 cabf c937

exp_avg f4 [4]
0.0058520595 -0.0016671442 0.0026785738 -0.004351939
00000000: a2c2 bf3b 1484 daba 038b 2f3b b69a 8ebb

exp_avg_sq f4 [4]
0.00024523734 0.00015296416 0.00025098884 0.00028696406
00000000: 3393 8039 0165 2039 2797 8339 aa73 9639

exp_avg f4 [4]
0.0023764772 0.0015053288 -0.0014381496 -0.00095693336
00000000: acbe 1b3b 744e c53a 4b80 bcba b6da 7aba

exp_avg_sq f4 [4]
0.00018256987 0.000119757715 0.00015868283 7.1674025e-05
00000000: 3a70 3f39 6f26 fb38 1964 2639 b34f 9638

exp_avg f4 [4]
0.0037501638 0.0005430738 0.0017730306 -0.0060662692
00000000: 4fc5 753b 115d 0e3a 0965 e83a 8ec7 c6bb

exp_avg_sq f4 [4]
0.00024123503 8.946144e-05 0.00021335165 0.00021978721
00000000: 09f4 7c39 3f9d bb38 26b7 5f39 ae76 6639

exp_avg f4 [4]
-0.0010031946 -0.0009314928 -0.0037740518 -0.0030027134
00000000: a07d 83ba 6c2f 74ba 1556 77bb 2cc9 44bb

exp_avg_sq f4 [4]
0.00021365227 0.00014260953 0.00017445743 0.00021092736
00000000: d807 6039 7489 1539 8fee 3639 622c 5d39

exp_avg f4 [4]
0.004003837 0.002527766 0.0035206063 -0.0052475324
00000000: 9e32 833b e0a8 253b f9b9 663b 7ef3 abbb

exp_avg_sq f4 [4]
0.00023286206 0.00013084029 0.00024848935 0.0002451737
00000000: 6f2c 7439 2c32 0939 ad47 8239 a88a 8039

exp_avg f4 [4]
0.0011498684 0.0014758556 -0.00056817406 0.0020398204
00000000: 2eb7 963a 7f71 c13a 84f1 14ba 82ae 053b

exp_avg_sq f4 [4]
0.00011303197 7.387356e-05 0.0001371405 3.7577334e-05
00000000: 940b ed38 91ec 9a38 5fcd 0f39 5b9c 1d38

exp_avg f4 [4]
0.0034234063 0.0012416061 0.0014253662 -0.0062098056
00000000: 3a5b 603b 63bd a23a 5ad3 ba3a a07b cbbb

exp_avg_sq f4 [4]
0.00015355619 5.78588e-05 9.591912e-05 0.00022219933
00000000: ed03 2139 6aad 7238 2f28 c938 2efe 6839

exp_avg f4 [12, 4]
0.0 0.0 0.0 0.0 0.0 0.0 0.0 0.0
0.0 0.0 0.0 0.0 0.0 0.0 0.0 0.0
0.0 0.0 0.0 0.0 0.0 0.0 0.0 0.0
0.0 0.0 0.0 0.0 0.0 0.0 0.0 0.0
-0.00028015207 0.00025643935 -9.514783e-05 2.9800798e-05 0.0010262609 -9.583584e-05 -0.0014558894 0.00029463426
8.7382214e-05 -0.00010175079 9.6540156e-05 -3.2283126e-05 -0.0001973609 0.00015433507 2.014266e-05 -1.1334114e-05
00000000: 0000 0000 0000 0000 0000 0000 0000 0000
00000010: 0000 0000 0000 0000 0000 0000 0000 0000
00000020: 0000 0000 0000 0000 0000 0000 0000 0000
00000030: 0000 0000 0000 0000 0000 0000 0000 0000
00000040: 0000 0000 0000 0000 0000 0000 0000 0000
00000050: 0000 0000 0000 0000 0000 0000 0000 0000
00000060: 0000 0000 0000 0000 0000 0000 0000 0000
00000070: 0000 0000 0000 0000 0000 0000 0000 0000
00000080: 60e1 92b9 b572 8639 1a8a c7b8 bafc f937
00000090: 9a83 863a 7afb c8b8 8bd3 beba 2479 9a39
000000a0: f840 b738 0a63 d5b8 9a75 ca38 be67 07b8
000000b0: aaf2 4eb9 01d5 2139 08f8 a837 a627 3eb7

exp_avg_sq f4 [12, 4]
0.0 0.0 0.0 0.0 0.0 0.0 0.0 0.0
0.0 0.0 0.0 0.0 0.0 0.0 0.0 0.0
0.0 0.0 0.0 0.0 0.0 0.0 0.0 0.0
0.0 0.0 0.0 0.0 0.0 0.0 0.0 0.0
1.0327415e-06 6.3820454e-07 9.5045544e-07 2.750886e-07 1.9523359e-05 2.7128062e-05 4.8867692e-05 8.242587e-06
3.677724e-07 2.0097453e-07 6.162172e-07 1.14487904e-07 1.394656e-06 7.204575e-07 2.1409533e-06 2.9971224e-07
00000000: 0000 0000 0000 0000 0000 0000 0000 0000
00000010: 0000 0000 0000 0000 0000 0000 0000 0000
00000020: 0000 0000 0000 0000 0000 0000 0000 0000
00000030: 0000 0000 0000 0000 0000 0000 0000 0000
00000040: 0000 0000 0000 0000 0000 0000 0000 0000
00000050: 0000 0000 0000 0000 0000 0000 0000 0000
00000060: 0000 0000 0000 0000 0000 0000 0000 0000
00000070: 0000 0000 0000 0000 0000 0000 0000 0000
00000080: ba9c 8a35 1551 2b35 cd22 7f35 e4af 9334
00000090: 18c6 a337 1291 e337 49f7 4c38 a449 0a37
000000a0: 4172 c534 75cb 5734 206a 2535 64dc f533
000000b0: 0430 bb35 7665 4135 4cad 0f36 23e8 a034

exp_avg f4 [12]
0.0 0.0 0.0 0.0 0.0 0.0 0.0 0.0
0.00012452657 -0.00013131721 -2.9475468e-05 8.637269e-05
00000000: 0000 0000 0000 0000 0000 0000 0000 0000
00000010: 0000 0000 0000 0000 0000 0000 0000 0000
00000020: 5993 0239 32b2 09b9 1642 f7b7 fc22 b538

exp_avg_sq f4 [12]
0.0 0.0 0.0 0.0 0.0 0.0 0.0 0.0
1.986995e-07 5.447125e-06 6.307141e-08 2.4465825e-07
00000000: 0000 0000 0000 0000 0000 0000 0000 0000
00000010: 0000 0000 0000 0000 0000 0000 0000 0000
00000020: 1a5a 5534 73c6 b636 e071 8733 9359 8334

exp_avg f4 [4, 4]
0.00010980412 -0.0016519153 -0.0001553627 -1.4822997e-05 0.00015876723 0.002502067 -7.643987e-05 0.00022401694
-0.00019307311 -1.2971344e-05 0.00010781569 -0.00012892466 -0.00031067862 -0.0015284771 0.00012379064 -0.00020734445
00000000: a346 e638 1485 d8ba dbe8 22b9 4ab0 78b7
00000010: c17a 2639 b8f9 233b 584e a0b8 17e6 6a39
00000020: ab73 4ab9 809f 59b7 1c1b e238 f32f 07b9
00000030: 94e2 a2b9 2e57 c8ba cccd 0139 9a6a 59b9

exp_avg_sq f4 [4, 4]
1.1456024e-06 5.574239e-05 9.016377e-07 1.5319146e-06 5.8534977e-07 7.899474e-05 2.428532e-07 7.7637566e-07
9.18543e-07 4.5967707e-05 4.25988e-07 7.614193e-07 1.0192034e-06 0.00012204648 7.209803e-07 2.2272282e-06
00000000: 99c2 9935 efcc 6938 1208 7235 2f9c cd35
00000010: ee20 1d35 faa9 a538 7d61 8234 2168 5035
00000020: cb91 7635 73cd 4038 58b3 e434 5664 4c35
00000030: 90cb 8835 34f3 ff38 6489 4135 7d77 1536

exp_avg f4 [4]
0.006134083 0.0009469057 1.4033751e-05 -0.002296527
00000000: 6b00 c93b c439 783a 8072 6b37 5481 16bb

exp_avg_sq f4 [4]
0.00017320679 8.8023946e-05 0.00012684269 0.0002545215
00000000: d89e 3539 7f99 b838 1301 0539 4c71 8539

exp_avg f4 [12, 4]
0.0 0.0 0.0 0.0 0.0 0.0 0.0 0.0
0.0 0.0 0.0 0.0 0.0 0.0 0.0 0.0
0.0 0.0 0.0 0.0 0.0 0.0 0.0 0.0
0.0 0.0 0.0 0.0 0.0 0.0 0.0 0.0
-1.7388664e-06 1.16263166e-07 -3.945829e-06 6.465849e-07 3.3374005e-07 -1.445126e-07 -2.6656423e-08 6.7126933e-07
3.324243e-06 -6.8182464e-07 6.5043473e-06 -3.0568089e-07 -7.4453453e-07 2.944247e-07 -7.7022975e-07 -3.487149e-07
00000000: 0000 0000 0000 0000 0000 0000 0000 0000
00000010: 0000 0000 0000 0000 0000 0000 0000 0000
00000020: 0000 0000 0000 0000 0000 0000 0000 0000
00000030: 0000 0000 0000 0000 0000 0000 0000 0000
00000040: 0000 0000 0000 0000 0000 0000 0000 0000
00000050: 0000 0000 0000 0000 0000 0000 0000 0000
00000060: 0000 0000 0000 0000 0000 0000 0000 0000
00000070: 0000 0000 0000 0000 0000 0000 0000 0000
00000080: ff62 e9b5 5aac f933 6a66 84b6 fa90 2d35
00000090: e22c b334 522b 1bb4 18fa e4b2 4731 3435
000000a0: 0f16 5f36 a206 37b5 eb3f da36 761c a4b4
000000b0: 06dc 47b5 6c11 9e34 c9c1 4eb5 0337 bbb4

exp_avg_sq f4 [12, 4]
0.0 0.0 0.0 0.0 0.0 0.0 0.0 0.0
0.0 0.0 0.0 0.0 0.0 0.0 0.0 0.0
0.0 0.0 0.0 0.0 0.0 0.0 0.0 0.0
0.0 0.0 0.0 0.0 0.0 0.0 0.0 0.0
1.5727751e-10 2.2089608e-11 2.3800587e-10 2.8102224e-11 8.745102e-11 1.4813904e-11 1.3956583e-10 1.9313438e-11
3.0832922e-10 3.881398e-11 5.0388865e-10 4.7167402e-11 3.3909715e-11 6.7859746e-12 4.1855314e-11 7.4239885e-12
00000000: 0000 0000 0000 0000 0000 0000 0000 0000
00000010: 0000 0000 0000 0000 0000 0000 0000 0000
00000020: 0000 0000 0000 0000 0000 0000 0000 0000
00000030: 0000 0000 0000 0000 0000 0000 0000 0000
00000040: 0000 0000 0000 0000 0000 0000 0000 0000
00000050: 0000 0000 0000 0000 0000 0000 0000 0000
00000060: 0000 0000 0000 0000 0000 0000 0000 0000
00000070: 0000 0000 0000 0000 0000 0000 0000 0000
00000080: afed 2c2f 604d c22d 59d8 822f 9530 f72d
00000090: 8c4e c02e f24d 822d 4a74 192f ffe1 a92d
000000a0: 7b81 a92f a8b4 2a2e 0382 0a30 c671 4f2e
000000b0: f222 152e a0c2 ee2c e514 382e ac9a 022d
