Saved_models/best_model_both.pt (torch, 86761 bytes, 198 tensors)

encoder_input_layer.weight f4 [4, 3]
0.68616563 1.1880893 0.47837394 -0.819126 -0.82419676 -0.410513 0.61472315 0.8651986
0.37481079 0.21322735 -0.17342152 -0.1881991
00000000: 8da8 2f3f 4f13 983f 6eed f43e 3eb2 51bf
00000010: 8ffe 52bf c32e d2be 7f5e 1d3f a87d 5d3f
00000020: 33e7 bf3e 4558 5a3e 6995 31be 44b7 40be

encoder_input_layer.bias f4 [4]
-1.4916974 -0.14213166 -0.5185288 0.28850052
00000000: f1ef bebf f68a 11be 4ebe 04bf 57b6 933e

decoder_input_layer.weight f4 [4, 1]
0.9895765 1.0367075 -0.77833915 0.7524958
00000000: e354 7d3f d5b2 843f 3c41 47bf 91a3 403f

decoder_input_layer.bias f4 [4]
2.3838186 1.8898158 -2.0345151 0.9022118
00000000: 7c90 1840 7ce5 f13f 7f35 02c0 5af7 663f

positional_encoding_layer_enc.pe f4 [1, 9, 4]
0.0 1.0 0.0 1.0 0.84147096 0.54030234 0.009999833 0.99995
0.9092974 -0.41614684 0.019998666 0.9998 0.14112 -0.9899925 0.0299955 0.99955004
-0.7568025 -0.6536436 0.039989334 0.9992001 -0.9589243 0.2836622 0.049979165 0.99875027
-0.2794155 0.96017027 0.059964005 0.99820054 0.6569866 0.75390226 0.06994285 0.997551
0.98935825 -0.14550003 0.07991469 0.9968017
00000000: 0000 0000 0000 803f 0000 0000 0000 803f
00000010: a46a 573f 4151 0a3f 57d6 233c b9fc 7f3f
00000020: b7c7 683f 3311 d5be 3ed4 a33c e5f2 7f3f
00000030: c381 103e 2670 7dbf 1fb9 f53c 83e2 7f3f
00000040: cfbd 41bf 3055 27bf dbcb 233d 94cb 7f3f
00000050: 107c 75bf 2c3c 913e f4b6 4c3d 19ae 7f3f
00000060: 8c0f 8fbe b8cd 753f d19c 753d 128a 7f3f
00000070: 4630 283f bdff 403f 323e 8f3d 815f 7f3f
00000080: 9546 7d3f f6fd 14be 50aa a33d 652e 7f3f

positional_encoding_layer_dec.pe f4 [1, 1, 4]
0.0 1.0 0.0 1.0
00000000: 0000 0000 0000 803f 0000 0000 0000 803f

encoder.layers.0.self_attn.in_proj_weight f4 [12, 4]
-0.5501349 0.56314987 0.14583725 1.1179764 0.69805086 -0.38310808 1.350958 0.04504511
0.48938462 0.1383359 0.20483643 -0.50167525 -1.2285532 0.9000729 -1.6052477 0.67123914
0.965976 0.4268252 0.5066381 0.38634282 0.05065031 -0.99133456 -0.20462409 -0.665189
0.6784776 -0.047324233 -1.2703544 -0.783561 -0.34469292 0.90700555 1.4920218 0.97140616
-0.00666775 0.45727405 -0.8075415 -0.35834044 -1.3096164 1.0815208 0.16377543 0.096512064
-0.6683749 0.12837186 -0.82176334 0.041045647 1.2441038 -1.3859855 1.0415956 0.28117177
00000000: a4d5 0cbf 972a 103f 5c56 153e da19 8f3f
00000010: 76b3 323f be26 c4be 31ec ac3f 3981 383d
00000020: 9f90 fa3e eda7 0d3e a4c0 513e ca6d 00bf
00000030: 3b41 9dbf 2d6b 663f c278 cdbf 54d6 2b3f
00000040: 344a 773f d588 da3e 09b3 013f bace c53e
00000050: b376 4f3d 1ac8 7dbf fa88 51be d449 2abf
00000060: b5b0 2d3f 0ed7 41bd f99a a2bf 7497 48bf
00000070: 977b b0be 8431 683f 92fa be3f 13ae 783f
00000080: 247d dabb d31f ea3e 0abb 4ebf 6678 b7be
00000090: 83a1 a7bf 466f 8a3f bfb4 273e 1ea8 c53d
000000a0: 9e1a 2bbf ea73 033e 155f 52bf 7b1f 283d
000000b0: cb3e 9f3f f967 b1bf 0153 853f bff5 8f3e

encoder.layers.0.self_attn.in_proj_bias f4 [12]
0.20692682 -0.8385464 -0.068500705 1.5361849 -0.01222986 -0.0024365291 0.007436756 -0.016568989
-0.36192483 1.548671 1.0206608 -1.0744156
00000000: a0e4 533e faaa 56bf 194a 8cbd b5a1 c43f
00000010: c05f 48bc 2dae 1fbb 08b0 f33b b0bb 87bc
00000020: 364e b9be da3a c63f 03a5 823f 7386 89bf

encoder.layers.0.self_attn.out_proj.weight f4 [4, 4]
-0.7341367 -0.051540934 0.32574952 -0.16001897 -0.18646032 -0.19325586 0.123190336 0.54154366
-0.5097588 1.6235691 1.7652074 -2.5028212 -0.002554631 -0.5456167 -0.71734667 1.1219667
00000000: 62f0 3bbf 961c 53bd a4c8 a63e 03dc 23be
00000010: 74ef 3ebe dde4 45be 374b fc3d 9ba2 0a3f
00000020: 8d7f 02bf 1dd1 cf3f 51f2 e13f 392e 20c0
00000030: 996b 27bb 89ad 0bbf 08a4 37bf 9b9c 8f3f

encoder.layers.0.self_attn.out_proj.bias f4 [4]
0.41431886 0.31167266 0.58602864 0.8854804
00000000: 9a21 d43e 8f93 9f3e f905 163f d8ae 623f

encoder.layers.0.linear1.weight f4 [4, 4]
0.41989854 -0.1679506 -0.2921431 -0.2384655 0.15069914 0.08906802 -0.39126286 -0.13831761
0.30226594 0.06648325 0.06787487 -0.042976357 -0.712832 -0.26451063 -0.48910925 -0.36494064
00000000: f1fc d63e 3efb 2bbe c893 95be 4d30 74be
00000010: e050 1a3e 4b69 b63d 9b53 c8be 22a3 0dbe
00000020: 9ac2 9a3e 5f28 883d fb01 8b3d fa07 30bd
00000030: 287c 36bf f06d 87be 876c fabe 80d9 babe

encoder.layers.0.linear1.bias f4 [4]
-0.7165784 -0.6679145 -0.6308969 -0.47824922
00000000: af71 37bf 72fc 2abf 7682 21bf 15dd f4be

encoder.layers.0.linear2.weight f4 [4, 4]
-0.4512396 0.12655504 0.22492664 0.08260928 0.05500242 0.09616888 0.035386648 0.10602259
0.098862186 0.19164726 -0.35402602 -0.0871773 -0.2426162 -0.42729455 -0.11090842 0.23402296
00000000: e008 e7be a597 013e 2b53 663e 0e2f a93d
00000010: 384a 613d 31f4 c43d 97f1 103d 5f22 d93d
00000020: 4278 ca3d 2e3f 443e e642 b5be 038a b2bd
00000030: 6270 78be 5ac6 dabe f423 e3bd b7a3 6f3e

encoder.layers.0.linear2.bias f4 [4]
0.468816 -1.5299414 0.87891287 0.4811369
00000000: a708 f03e 1fd5 c3bf 6f00 613f 9357 f63e

encoder.layers.0.norm1.weight f4 [4]
-0.1824598 0.8957638 0.5691541 2.0142112
00000000: bed6 3abe c750 653f 15b4 113f d6e8 0040

encoder.layers.0.norm1.bias f4 [4]
0.3501746 -0.98069483 1.0947208 0.1370722
00000000: 164a b33e d10e 7bbf d01f 8c3f a85c 0c3e

encoder.layers.0.norm2.weight f4 [4]
0.20480932 2.2519772 1.4430968 0.851076
00000000: 89b9 513e 6520 1040 65b7 b83f 1ee0 593f

encoder.layers.0.norm2.bias f4 [4]
-0.43290475 -1.6187007 1.2839082 -0.22016907
00000000: b1a5 ddbe 9631 cfbf 1b57 a43f 0074 61be

encoder.layers.1.self_attn.in_proj_weight f4 [12, 4]
-0.56269926 -0.61808085 0.4169316 -0.33595932 -0.0058331597 -0.4986026 1.1589539 -0.06392605
-0.3916418 -0.57466114 0.658637 -0.5114282 0.8337629 0.7553285 -1.7549412 -0.16440243
0.042171404 0.41886806 -1.5478586 0.46804288 -0.20858912 0.41214892 -1.4955325 0.9049808
0.900756 0.3473699 -1.317267 0.28506613 0.61960924 0.032234874 1.9484173 -0.582763
0.59267277 0.33678985 -1.2356986 -0.9692929 -1.580794 -0.35809654 1.7970293 -0.48583594
-0.053020414 -0.2754955 0.17949958 0.3887822 0.2213601 -0.7131947 0.43765086 -0.17113629
00000000: 0f0d 10bf 8c3a 1ebf 0f78 d53e dc02 acbe
00000010: 1724 bfbb d748 ffbe 9a58 943f a9eb 82bd
00000020: 4685 c8be fe1c 13bf 6f9c 283f f5ec 02bf
00000030: 7c71 553f 355d 413f eaa1 e0bf 1c59 28be
00000040: ecbb 2c3d e075 d63e 3b20 c6bf 51a3 ef3e
00000050: 6398 55be 2f05 d33e 9c6d bfbf d2ac 673f
00000060: f297 663f 78da b13e 349c a8bf 30f4 913e
00000070: b69e 1e3f b708 043d bd65 f93f f52f 15bf
00000080: 67b9 173f b86f ac3e 5f2b 9ebf 9423 78bf
00000090: 7557 cabf 6e58 b7be 0e05 e63f 7dbf f8be
000000a0: ef2b 59bd bf0d 8dbe bdce 373e 760e c73e
000000b0: 39ac 623e ee93 36bf c613 e03e 5a3e 2fbe

encoder.layers.1.self_attn.in_proj_bias f4 [12]
-0.008038104 0.45381528 0.17510794 -0.8986359 -0.008376556 -0.007873839 -0.0062383283 0.0048986725
-0.41065684 0.28974447 0.31805277 0.39143506
00000000: 40b2 03bc 7a5a e83e 7f4f 333e 010d 66bf
00000010: d33d 09bc 4601 01bc e46a ccbb 0b85 a03b
00000020: 9d41 d2be 6359 943e d0d7 a23e 2d6a c83e

encoder.layers.1.self_attn.out_proj.weight f4 [4, 4]
-0.74883306 0.7590921 0.7460619 0.45024604 0.3391739 0.043614764 -0.63731843 1.2923844
-0.14658128 -0.5337078 0.21872112 -1.9950606 -1.4014124 1.0701896 1.1703058 1.2897216
00000000: 86b3 3fbf dc53 423f eafd 3e3f a686 e63e
00000010: 34a8 ad3e 65a5 323d 4d27 23bf da6c a53f
00000020: 6719 16be 13a1 08bf 6ef8 5f3e 255e ffbf
00000030: 7b61 b3bf f9fb 883f 95cc 953f 9915 a53f

encoder.layers.1.self_attn.out_proj.bias f4 [4]
0.07344054 1.1840172 -1.0974399 0.60028297
00000000: fe67 963d e08d 973f e978 8cbf 25ac 193f

encoder.layers.1.linear1.weight f4 [4, 4]
2.1958601 0.013732615 -0.25903767 -0.31149077 0.65142196 0.018650023 -0.116057634 -0.16198458
-0.8638364 1.867773 0.24075072 -0.044419784 -0.11769088 0.693898 -2.4392054 0.67606395
00000000: f988 0c40 c3fe 603c 96a0 84be b87b 9fbe
00000010: 97c3 263f efc7 983c a0af edbd 49df 25be
00000020: 6224 5dbf 3013 ef3f 5b87 763e 85f1 35bd
00000030: eb07 f1bd 4da3 313f f11b 1cc0 8712 2d3f

encoder.layers.1.linear1.bias f4 [4]
-0.92929083 -0.65962505 -0.24133334 0.9992277
00000000: 01e6 6dbf 30dd 28bf 1620 77be 63cd 7f3f

encoder.layers.1.linear2.weight f4 [4, 4]
-0.6592375 -0.12830408 1.5586553 -0.5096464 0.7274649 0.11913563 0.46816346 1.7846284
-0.3378505 -0.20364949 -0.08164828 0.47203478 -0.39734164 -0.034228563 -1.6291205 -1.7368963
00000000: cac3 28bf 2562 03be 0482 c73f 3078 02bf
00000010: 243b 3a3f 62fd f33d 1fb3 ef3e b46e e43f
00000020: befa acbe 7e89 50be 3737 a7bd 8bae f13e
00000030: 5d70 cbbe 4033 0cbd 0587 d0bf 9e52 debf

encoder.layers.1.linear2.bias f4 [4]
0.2910454 -1.7466908 -0.7307687 0.34201485
00000000: e703 953e 9093 dfbf a813 3bbf 921c af3e

encoder.layers.1.norm1.weight f4 [4]
-0.05407348 2.6165478 2.2974496 1.5179195
00000000: 277c 5dbd 8575 2740 6a09 1340 304b c23f

encoder.layers.1.norm1.bias f4 [4]
-0.20787323 -0.39427453 -0.3906771 0.8072017
00000000: b8dc 54be 5ade c9be d406 c8be c5a4 4e3f

encoder.layers.1.norm2.weight f4 [4]
0.18374762 -0.04844895 -0.011751088 -0.0024892418
00000000: 5628 3c3e 6872 46bd a387 40bc 8c22 23bb

encoder.layers.1.norm2.bias f4 [4]
0.021571552 0.010093191 -0.013539739 -0.0077301515
00000000: d3b6 b03c e95d 253c c8d5 5dbc 364d fdbb

decoder.layers.0.self_attn.in_proj_weight f4 [12, 4]
-0.12421164 0.33582872 0.3310737 -0.59059155 0.38198692 -0.47918725 -0.12946182 -0.24830028
-0.11795229 -0.12023488 -0.5495124 -0.5287456 -0.095823705 0.0079193115 -0.27818543 0.23068023
-0.55117095 -0.041327298 0.5385322 -0.24978182 0.5529743 0.22177297 -0.5526422 0.3874464
-0.070664406 -0.27336726 0.4896856 -0.49485525 0.065710604 -0.12821162 0.4373029 0.1709404
1.2886645 -0.68900067 -0.43532926 -1.3373302 -0.3787001 -0.21756995 -0.5481138 0.06701075
-0.9458568 0.16027014 -1.6244384 -0.5624124 0.10722063 -0.5503225 0.80395794 1.5408366
00000000: ac62 febd bef1 ab3e 7e82 a93e 0231 17bf
00000010: ca93 c33e 0858 f5be a491 04be 6e42 7ebe
00000020: f890 f1bd b43d f6bd d8ac 0cbf df5b 07bf
00000030: 383f c4bd 00c0 013c 526e 8ebe 7037 6c3e
00000040: 8a19 0dbf d046 29bd 3fdd 093f cec6 7fbe
00000050: b98f 0d3f 7418 633e f679 0dbf 605f c63e
00000060: 80b8 90bd cbf6 8bbe 12b8 fa3e ab5d fdbe
00000070: 4893 863d e849 03be 2ae6 df3e 000b 2f3e
00000080: f5f2 a43f 5962 30bf 7ae3 debe a32d abbf
00000090: fbe4 c1be a8ca 5ebe 3051 0cbf ef3c 893d
000000a0: ac23 72bf db1d 243e 99ed cfbf 42fa 0fbf
000000b0: 7d96 db3d efe1 0cbf 30d0 4d3f 223a c53f

decoder.layers.0.self_attn.in_proj_bias f4 [12]
0.0 0.0 0.0 0.0 0.0 0.0 0.0 0.0
0.3007192 -0.022064613 -0.29365999 0.2670422
00000000: 0000 0000 0000 0000 0000 0000 0000 0000
00000010: 0000 0000 0000 0000 0000 0000 0000 0000
00000020: def7 993e d9c0 b4bc 9a5a 96be c1b9 883e

decoder.layers.0.self_attn.out_proj.weight f4 [4, 4]
-0.15638664 -0.17785159 0.0028967722 0.005707943 0.18211927 -0.008864272 0.18363082 0.35021383
0.04984526 -0.13742624 0.11638247 -0.09551041 -1.3107508 0.5084599 1.2813632 -0.022929756
00000000: d223 20be ba1e 36be c6d7 3d3b b209 bb3b
00000010: 797d 3a3e 743b 11bc b809 3c3e 3a4f b33e
00000020: 8b2a 4c3d 77b9 0cbe ef59 ee3d f69a c3bd
00000030: afc6 a7bf 6e2a 023f b603 a43f 2fd7 bbbc

decoder.layers.0.self_attn.out_proj.bias f4 [4]
-0.0071127634 0.017916914 -0.0020259963 -0.15875928
00000000: 2f12 e9bb 7ec6 923c 94c6 04bb cb91 22be

decoder.layers.0.multihead_attn.in_proj_weight f4 [12, 4]
-0.043972135 0.60578257 0.22121161 0.017338097 -0.53068805 0.30335575 -0.43618113 -0.17383066
-0.20546097 -0.09068465 0.0066983104 0.50508946 0.076447845 0.5484976 0.37459588 -0.3871504
0.27465153 -0.43288368 -0.25953886 0.18011266 0.20220053 0.45941895 -0.19713241 0.0009803176
0.31526375 -0.5922206 0.44273347 -0.5063845 0.008440018 -0.10411358 -0.32252002 0.08093792
-0.006629207 0.0136997355 -0.04619594 -0.00510983 0.045767166 -0.03974708 0.0056148223 -0.018357737
-0.008916725 0.020920787 -0.022149282 0.0057659526 -0.03409464 -0.049917564 -0.0109799635 -0.022974156
00000000: 201c 34bd 9114 1b3f 4c85 623e a008 8e3c
00000010: 2cdb 07bf 7251 9b3e 2253 dfbe aa00 32be
00000020: 5c64 52be e0b8 b9bd 807d db3b 8b4d 013f
00000030: b090 9c3d 576a 0c3f 08cb bf3e 9438 c6be
00000040: 209f 8c3e eea2 ddbe 47e2 84be 746f 383e
00000050: a80d 4f3e f638 eb3e 14dd 49be 007e 803a
00000060: 406a a13e c59b 17bf f6ad e23e 6aa2 01bf
00000070: 0048 0a3c 8039 d5bd 5821 a5be c8c2 a53d
00000080: d239 d9bb db74 603c f437 3dbd 5c70 a7bb
00000090: 5a76 3b3d d6cd 22bd 8bfc b73b f762 96bc
000000a0: 7517 12bc 1262 ab3c 6972 b5bc 51f0 bc3b
000000b0: d2a6 0bbd 5c76 4cbd 4ee5 33bc 4c34 bcbc

decoder.layers.0.multihead_attn.in_proj_bias f4 [12]
0.0 0.0 0.0 0.0 0.0 0.0 0.0 0.0
0.011769626 0.016154127 0.011390155 -0.0004031849
00000000: 0000 0000 0000 0000 0000 0000 0000 0000
00000010: 0000 0000 0000 0000 0000 0000 0000 0000
00000020: 64d5 403c a955 843c c69d 3a3c 9062 d3b9

decoder.layers.0.multihead_attn.out_proj.weight f4 [4, 4]
0.011859704 0.029979462 0.01194194 0.02357662 -0.00969609 0.0045376704 -0.010440641 2.8589307e-05
0.021266704 0.03490606 0.02066416 0.02679782 0.050914656 0.040972073 0.04907009 -0.055986617
00000000: 344f 423c 7d97 f53c 20a8 433c c123 c13c
00000010: 59dc 1ebc bdb0 943b 390f 2bbc 12d3 ef37
00000020: 8337 ae3c a8f9 0e3d e247 a93c 1a87 db3c
00000030: e38b 503d 55d2 273d b8fd 483d 3952 65bd

decoder.layers.0.multihead_attn.out_proj.bias f4 [4]
0.031899814 0.02052626 -0.015372156 -0.013181818
00000000: 61a9 023d b026 a83c 7fdb 7bbc 8df8 57bc

decoder.layers.0.linear1.weight f4 [4, 4]
0.5137929 -1.1562692 0.21668018 -0.28922436 0.041300505 -0.60859555 -1.219009 0.3287583
2.5075085 0.08459164 -0.26676026 -0.002796874 1.066138 -0.34076765 -0.62848693 -0.26039708
00000000: ee87 033f a100 94bf 69e1 5d3e 3715 94be
00000010: b82a 293d ebcc 1bbf 7d08 9cbf 0253 a83e
00000020: 057b 2040 623e ad3d cd94 88be c24b 37bb
00000030: 3677 883f 1979 aebe 85e4 20bf c452 85be

decoder.layers.0.linear1.bias f4 [4]
-0.31721804 -0.3216886 -0.7306827 -0.48495683
00000000: 676a a2be 5eb4 a4be 050e 3bbf 434c f8be

decoder.layers.0.linear2.weight f4 [4, 4]
-0.23544577 0.069214165 0.12105905 -0.37747577 0.51496404 0.28453717 0.07158261 0.89093757
0.47611186 -0.348259 -0.19425593 -0.27027348 -2.643383 -1.360238 0.24081118 -0.06920665
00000000: b218 71be 28c0 8d3d cfed f73d 8144 c1be
00000010: afd4 033f dbae 913e e799 923d 7c14 643f
00000020: efc4 f33e 014f b2be 07eb 46be 4961 8abe
00000030: 302d 29c0 471c aebf 3597 763e 37bc 8dbd

decoder.layers.0.linear2.bias f4 [4]
0.0054343636 -0.029426562 0.04160436 0.01843981
00000000: bf12 b23b f90f f1bc 5569 2a3d 160f 973c

decoder.layers.0.norm1.weight f4 [4]
1.8409189 3.184496 2.5837455 0.5117929
00000000: 3ba3 eb3f c8ce 4b40 165c 2540 dc04 033f

decoder.layers.0.norm1.bias f4 [4]
0.08346581 -0.043422118 0.3466984 0.08534295
00000000: 1ff0 aa3d 64db 31bd 7482 b13e 49c8 ae3d

decoder.layers.0.norm2.weight f4 [4]
2.6731648 2.3728385 1.8719392 1.8457574
00000000: 2215 2b40 96dc 1740 b49b ef3f c741 ec3f

decoder.layers.0.norm2.bias f4 [4]
0.82784563 -0.21959509 0.38320014 0.86115
00000000: b1ed 533f 89dd 60be cf32 c43e 5474 5c3f

decoder.layers.0.norm3.weight f4 [4]
2.3950424 2.795228 1.247994 3.3703592
00000000: 6048 1940 04e5 3240 44be 9f3f f7b3 5740

decoder.layers.0.norm3.bias f4 [4]
1.1506032 -0.17919658 -0.16820128 0.1792877
00000000: f746 933f 4f7f 37be f53c 2cbe 3297 373e

decoder.layers.1.self_attn.in_proj_weight f4 [12, 4]
-0.12421164 0.33582872 0.3310737 -0.59059155 0.38198692 -0.47918725 -0.12946182 -0.24830028
-0.11795229 -0.12023488 -0.5495124 -0.5287456 -0.095823705 0.0079193115 -0.27818543 0.23068023
-0.55117095 -0.041327298 0.5385322 -0.24978182 0.5529743 0.22177297 -0.5526422 0.3874464
-0.070664406 -0.27336726 0.4896856 -0.49485525 0.065710604 -0.12821162 0.4373029 0.1709404
0.19770283 0.09597818 0.33235398 0.10779878 0.07889357 0.01698407 0.1631678 0.026054153
-0.37638143 -0.27782783 -0.6609157 -0.25596377 -0.2608534 -0.116234004 -0.36653674 -0.14729567
00000000: ac62 febd bef1 ab3e 7e82 a93e 0231 17bf
00000010: ca93 c33e 0858 f5be a491 04be 6e42 7ebe
00000020: f890 f1bd b43d f6bd d8ac 0cbf df5b 07bf
00000030: 383f c4bd 00c0 013c 526e 8ebe 7037 6c3e
00000040: 8a19 0dbf d046 29bd 3fdd 093f cec6 7fbe
00000050: b98f 0d3f 7418 633e f679 0dbf 605f c63e
00000060: 80b8 90bd cbf6 8bbe 12b8 fa3e ab5d fdbe
00000070: 4893 863d e849 03be 2ae6 df3e 000b 2f3e
00000080: 9c72 4a3e 3590 c43d 4d2a aa3e 9bc5 dc3d
00000090: f492 a13d 2d22 8b3c 7615 273e 856f d53c
000000a0: 11b5 c0be 733f 8ebe c531 29bf af0d 83be
000000b0: 948e 85be 180c eebd b4aa bbbe add4 16be

decoder.layers.1.self_attn.in_proj_bias f4 [12]
0.0 0.0 0.0 0.0 0.0 0.0 0.0 0.0
-0.030987058 -0.07213775 0.18738975 -0.13596039
00000000: 0000 0000 0000 0000 0000 0000 0000 0000
00000010: 0000 0000 0000 0000 0000 0000 0000 0000
00000020: 92d8 fdbc f5bc 93bd 19e3 3f3e 3339 0bbe

decoder.layers.1.self_attn.out_proj.weight f4 [4, 4]
0.029866451 0.07449093 0.001555234 0.03829925 0.0068702595 0.051305152 0.023862977 0.05572039
0.011774333 0.03043715 0.008575788 0.025582878 -0.09852704 -0.07401154 0.037190557 0.1810621
00000000: 7daa f43c b38e 983d fed8 cb3a addf 1c3d
00000010: ea1f e13b 5a25 523d 4a7c c33c 103b 643d
00000020: 22e9 403c 5457 f93c 7681 0c3c 2f93 d13c
00000030: 8bc8 c9bd 5d93 97bd 2055 183d 5868 393e

decoder.layers.1.self_attn.out_proj.bias f4 [4]
-0.018890722 0.031135762 -0.004849118 -0.020433372
00000000: b7c0 9abc 6d10 ff3c 5ae5 9ebb e363 a7bc

decoder.layers.1.multihead_attn.in_proj_weight f4 [12, 4]
-0.043972135 0.60578257 0.22121161 0.017338097 -0.53068805 0.30335575 -0.43618113 -0.17383066
-0.20546097 -0.09068465 0.0066983104 0.50508946 0.076447845 0.5484976 0.37459588 -0.3871504
0.27465153 -0.43288368 -0.25953886 0.18011266 0.20220053 0.45941895 -0.19713241 0.0009803176
0.31526375 -0.5922206 0.44273347 -0.5063845 0.008440018 -0.10411358 -0.32252002 0.08093792
0.15513654 0.005788797 0.0021759793 -0.00794542 -0.13025397 -0.003388028 -0.031705722 -0.01590628
0.094773926 0.050979152 -0.027050555 -0.0053923987 0.10508183 0.0073086624 0.03303077 -0.005261552
00000000: 201c 34bd 9114 1b3f 4c85 623e a008 8e3c
00000010: 2cdb 07bf 7251 9b3e 2253 dfbe aa00 32be
00000020: 5c64 52be e0b8 b9bd 807d db3b 8b4d 013f
00000030: b090 9c3d 576a 0c3f 08cb bf3e 9438 c6be
00000040: 209f 8c3e eea2 ddbe 47e2 84be 746f 383e
00000050: a80d 4f3e f638 eb3e 14dd 49be 007e 803a
00000060: 406a a13e c59b 17bf f6ad e23e 6aa2 01bf
00000070: 0048 0a3c 8039 d5bd 5821 a5be c8c2 a53d
00000080: 1ddc 1e3e f3af bd3b e09a 0e3b 822d 02bc
00000090: 4c61 05be ad09 5ebb dcdd 01bd e34d 82bc
000000a0: d518 c23d 84cf 503d 2099 ddbc b8b2 b0bb
000000b0: 2435 d73d 817d ef3b 464b 073d 1969 acbb

decoder.layers.1.multihead_attn.in_proj_bias f4 [12]
0.0 0.0 0.0 0.0 0.0 0.0 0.0 0.0
-0.011292904 0.009459611 -0.01166812 -0.009725453
00000000: 0000 0000 0000 0000 0000 0000 0000 0000
00000010: 0000 0000 0000 0000 0000 0000 0000 0000
00000020: df05 39bc 7cfc 1a3c a42b 3fbc 8257 1fbc

decoder.layers.1.multihead_attn.out_proj.weight f4 [4, 4]
-0.04863774 0.051320132 -0.044508383 -0.049071867 -0.036398973 0.036553074 -0.023376893 -0.0357144
-0.059027772 0.059672043 -0.048700783 -0.054290414 -0.06175511 0.07027797 -0.07224131 -0.066934064
00000000: 5e38 47bd 0f35 523d 6c4e 36bd 95ff 48bd
00000010: 1717 15bd adb8 153d e680 bfbc 4349 12bd
00000020: 1bc7 71bd ac6a 743d 797a 47bd a05f 5ebd
00000030: edf2 7cbd e5ed 8f3d 40f3 93bd ba14 89bd

decoder.layers.1.multihead_attn.out_proj.bias f4 [4]
-0.014628301 0.016930625 0.020126479 -0.032658797
00000000: 8bab 6fbc 18b2 8a3c 49e0 a43c 3bc5 05bd

decoder.layers.1.linear1.weight f4 [4, 4]
1.275885 -0.23682451 -0.50839883 0.0529611 0.6348147 -1.2595087 -0.08799863 -0.012144702
1.3300889 0.1211351 -0.4170426 0.70574707 -0.10839751 -0.10781923 -1.1976205 0.8811026
00000000: 3350 a33f 2082 72be 6d26 02bf bded 583d
00000010: 3783 223f 9537 a1bf a038 b4bd 92fa 46bc
00000020: 5a40 aa3f ae15 f83d 9c86 d5be d7ab 343f
00000030: 84ff ddbd 54d0 dcbd a14b 99bf f18f 613f

decoder.layers.1.linear1.bias f4 [4]
-0.6242351 0.64487475 -0.06637066 0.5629491
00000000: dfcd 1fbf 8316 253f 57ed 87bd 6f1d 103f

decoder.layers.1.linear2.weight f4 [4, 4]
-0.2285328 -0.72377145 -0.34747326 0.12289334 1.6080834 0.31755584 0.45149747 0.6029216
-0.14944372 0.4366881 -0.21204948 -0.02719237 0.27717614 -0.5175333 0.017837029 -0.59050053
00000000: 8104 6abe 1649 39bf 04e8 b1be 81af fb3d
00000010: add5 cd3f ae96 a23e ad2a e73e 1259 1a3f
00000020: c607 19be 9595 df3e 8023 59be 88c2 debc
00000030: 08ea 8d3e 107d 04bf f61e 923c 0b2b 17bf

decoder.layers.1.linear2.bias f4 [4]
0.023343557 -0.03381438 -0.00042024447 0.046467092
00000000: fd3a bf3c f380 0abd 4254 dcb9 4754 3e3d

decoder.layers.1.norm1.weight f4 [4]
2.8761091 2.8652523 1.9005882 1.0434525
00000000: 2c12 3840 4b60 3740 7946 f33f da8f 853f

decoder.layers.1.norm1.bias f4 [4]
-0.1903753 0.035097446 1.0800525 -0.6436823
00000000: bef1 42be 57c2 0f3d 293f 8a3f 5dc8 24bf

decoder.layers.1.norm2.weight f4 [4]
2.5448415 2.3895073 2.352174 0.46646205
00000000: afde 2240 b0ed 1840 058a 1640 1dd4 ee3e

decoder.layers.1.norm2.bias f4 [4]
-0.67867833 0.20434071 1.7363216 0.11385183
00000000: ddbd 2dbf b13e 513e c93f de3f 262b e93d

decoder.layers.1.norm3.weight f4 [4]
-0.012224734 1.2892783 -0.007791194 0.0063068457
00000000: 404a 48bc 1207 a53f 464d ffbb a8a9 ce3b

decoder.layers.1.norm3.bias f4 [4]
0.017228302 -0.48898283 0.0028297615 -0.016962033
00000000: 5e22 8d3c f55b fabe 8573 393b f6f3 8abc

linear_mapping.weight f4 [1, 4]
0.1979155 -0.062939346 -0.4098938 -0.07707703
00000000: 5caa 4a3e 58e6 80bd 9add d1be 90da 9dbd

linear_mapping_with_gender_ind.weight f4 [1, 5]
0.016109409 0.77627647 0.002742751 -0.012386486 0.011787859
00000000: e1f7 833c 0eba 463f babf 333b b0f0 4abc
00000010: dd21 413c

exp_avg f4 [4, 3]
4.7303722e-08 4.9312128e-08 5.3021825e-08 2.1861617e-06 2.1871126e-06 2.185225e-06 5.6193215e-07 5.633323e-07
5.5582404e-07 -2.5898894e-06 -2.5966701e-06 -2.602114e-06
00000000: fe2a 4b33 42cb 5333 1dba 6333 f9b5 1236
00000010: 4fc6 1236 e1a5 1236 afd7 1635 e737 1735
00000020: f033 1535 f6cd 2db6 7442 2eb6 fa9f 2eb6

exp_avg_sq f4 [4, 3]
5.969544e-12 6.0633855e-12 6.376724e-12 1.3353112e-10 1.2783938e-10 1.0468054e-10 5.2545537e-11 5.2272155e-11
5.219171e-11 8.5516254e-11 8.3071744e-11 7.771984e-11
00000000: df08 d22c 1f56 d52c 6c5c e02c abd1 122f
00000010: 968f 0c2f e831 e62e 0419 672e 37e5 652e
00000020: a48a 652e 5f0d bc2e 3cad b62e 61e8 aa2e

exp_avg f4 [4]
-1.6468476e-08 -8.2114644e-07 -2.1503236e-07 9.796312e-07
00000000: 9076 8db2 c16c 5cb5 a5e3 66b4 df7b 8335

exp_avg_sq f4 [4]
1.5450324e-12 7.0567597e-12 9.386291e-12 1.697785e-11
00000000: a971 d92b a449 f82c 1920 252d b856 952d

exp_avg f4 [4, 1]
0.00058398023 -0.021136202 -0.05352555 0.02969591
00000000: 4016 193a d425 adbc 9b3d 5bbd d644 f33c

exp_avg_sq f4 [4, 1]
0.045033455 0.030049715 0.03813601 0.015208034
00000000: 0075 383d d22a f63c 8134 1c3d 1e2b 793c

exp_avg f4 [4]
-0.0010838741 0.0066713737 0.020273559 -0.009976051
00000000: c810 8eba 8a9b da3b bc14 a63c 9772 23bc

exp_avg_sq f4 [4]
0.006761227 0.0036817272 0.0053696423 0.0023044543
00000000: 488d dd3b 2249 713b d3f3 af3b 5406 173b

exp_avg f4 [12, 4]
1.6744805e-07 -8.9910586e-08 1.2017661e-07 -4.772504e-08 -2.0860108e-08 8.329234e-09 -1.4927068e-08 5.7886966e-09
1.1094661e-07 -6.0597536e-08 7.9822385e-08 -3.184461e-08 -3.1824737e-08 2.012402e-08 -2.3059469e-08 9.3975245e-09
-1.7634837e-07 -3.078085e-08 2.4357585e-09 -4.3941312e-11 3.1736968e-07 5.7570976e-08 -4.3275232e-09 7.807827e-11
1.1550264e-07 2.1715673e-08 -1.5895574e-09 3.4521584e-11 -5.2483296e-07 -9.4298535e-08 7.1699944e-09 -1.2949743e-10
-7.311522e-07 5.915865e-07 -5.7472594e-08 1.6297116e-07 -6.789659e-07 5.516604e-07 -1.8485396e-08 1.5106201e-07
5.238232e-07 -4.256173e-07 9.936947e-08 -1.1541148e-07 1.9240156e-06 -1.5635312e-06 7.8074564e-08 -4.2738128e-07
00000000: c5cb 3334 de14 c1b3 e509 0134 3dfa 4cb3
00000010: dd2f b3b2 5c18 0f32 f838 80b2 eae5 c631
00000020: 8b41 ee33 d921 82b3 d26a ab33 85c5 08b3
00000030: abaf 08b3 30dd ac32 4f14 c6b2 c072 2132
00000040: 455a 3db4 e733 04b3 5162 2731 8541 41ae
00000050: f562 aa34 f543 7733 4cb1 94b1 29b2 ab2e
00000060: 3f0a f833 4589 ba32 9477 dab0 d9d3 172e
00000070: 3fe2 0cb5 2b81 cab3 f05b f631 4962 0eaf
00000080: 6644 44b5 84cd 1e35 c9d7 76b3 2cfd 2e34
00000090: 2e42 36b5 d015 1435 d1c9 9eb2 9c33 2234
000000a0: db9c 0c35 6580 e4b4 f264 d533 22d8 f7b3
000000b0: 561e 0136 86da d1b5 f2a9 a733 d672 e5b4

exp_avg_sq f4 [12, 4]
8.1323715e-12 1.6028509e-12 3.74073e-12 4.5832245e-13 2.1994467e-11 1.3740756e-11 9.268117e-12 1.2191963e-12
7.302888e-12 3.3346264e-12 3.1952037e-12 4.0579047e-13 2.667585e-11 1.6862916e-11 1.1194905e-11 1.4800885e-12
2.1445665e-11 3.6489357e-11 2.6247515e-13 1.2950673e-13 5.959312e-11 8.972844e-11 8.1806263e-13 3.1529895e-13
6.82382e-12 8.380906e-12 7.71713e-14 2.9025315e-14 1.6576449e-10 2.5855262e-10 2.243993e-12 9.111076e-13
3.5567833e-12 2.3525754e-12 5.24017e-14 1.8379624e-13 4.0705894e-12 2.753179e-12 7.170586e-15 2.2328293e-13
4.04952e-12 2.9807394e-12 4.6395484e-14 2.765474e-13 2.6337339e-11 1.7431504e-11 5.4205314e-14 1.3526624e-12
00000000: f210 0f2d ca94 e12b 809d 832c 9d01 012b
00000010: 2377 c12d ddba 712d e30b 232d 2d96 ab2b
00000020: 4979 002d 4aa7 6a2c acd7 602c 9270 e42a
00000030: ada4 ea2d e953 942d 5ff1 442d cf4d d02b
00000040: 58a3 bc2d 5d7b 202e a8c2 932a c6cf 112a
00000050: f20b 832e 9f50 c52e a043 662b 5e7f b12a
00000060: 8217 f02c 3f70 132d 3ac6 ad29 e9b7 0229
00000070: 8e42 362f 0c24 8e2f 2fe8 1d2c 1c3a 802b
00000080: 5049 7a2c 3b8c 252c 0cff 6b29 a9ef 4e2a
00000090: 9c38 8f2c ddbc 412c 7e2c 0128 ec64 7b2a
000000a0: d57a 8e2c 3ac0 512c 5af2 5029 aeae 9b2a
000000b0: 6aaa e72d 4254 992d 791e 7429 cd5e be2b

exp_avg f4 [12]
-2.0468319e-08 2.573402e-09 -1.3580782e-08 3.891933e-09 5.448049e-15 -1.5127043e-15 5.181616e-16 9.301006e-15
8.4474536e-08 7.820002e-08 -5.980238e-08 -2.2139606e-07
00000000: 4fd2 afb2 c4d7 3031 e950 69b2 ceb9 8531
00000010: 6249 c427 f000 daa6 9459 1526 528d 2728
00000020: 5e68 b533 eaee a733 b56c 80b3 e3b8 6db4

exp_avg_sq f4 [12]
1.3368713e-13 3.4619407e-13 1.1607711e-13 4.1980343e-13 4.18319e-23 9.7622345e-23 4.2052084e-24 1.2069128e-22
4.9843972e-14 6.066219e-14 7.725933e-14 3.645697e-13
00000000: b184 162a d3e3 c22a f3b0 022a 0d54 ec2a
00000010: 6249 4a1a 4e09 ec1a 5eae a218 24e8 111b
00000020: 307a 6029 5f99 8829 f9f8 ad29 083c cd2a

exp_avg f4 [4, 4]
1.7206792e-09 3.8632115e-09 -4.024428e-10 -4.746285e-09 -1.2739588e-06 -8.948253e-06 -3.6068143e-06 9.5045825e-06
1.9458615e-09 -3.4713278e-08 -7.531601e-09 2.7006958e-08 1.05141666e-07 1.8776281e-07 1.5741665e-07 -3.144326e-07
00000000: 047d ec30 2bbd 8431 ca3e ddaf c414 a3b1
00000010: e4fc aab5 7420 16b7 990c 72b6 df75 1f37
00000020: f5b7 0531 a717 15b3 5564 01b2 eefc e732
00000030: 3eca e133 d99b 4934 5c06 2934 4acf a8b4

exp_avg_sq f4 [4, 4]
1.2411155e-13 2.7615666e-12 6.590101e-13 3.6404976e-12 6.5909895e-12 4.9543447e-10 6.9671456e-11 5.175472e-10
1.0197418e-14 8.773907e-13 1.3466135e-13 9.310357e-13 1.0288721e-13 8.789168e-12 1.3363517e-12 9.31402e-12
00000000: b8bc 0b2a f653 422c af7e 392b b016 802c
00000010: 5be6 e72c 1a2f 0830 8b35 992e 2643 0e30
00000020: 4ab3 3728 aaf6 762b 7e9d 172a 1908 832b
00000030: 70ae e729 e59e 1a2d 2513 bc2b 9eda 232d

exp_avg f4 [4]
2.6071524e-07 -3.846495e-07 -8.2510286e-07 1.6260595e-06
00000000: 6ef8 8b34 d381 ceb4 a37c 5db5 fb3e da35

exp_avg_sq f4 [4]
9.585765e-13 3.3924061e-12 7.179035e-12 2.9847656e-11
00000000: 5ce8 862b 28b8 6e2c 0097 fc2c 7945 032e

exp_avg f4 [4, 4]
-6e-45 6e-45 -6e-45 -6e-45 6e-45 6e-45 -6e-45 -6e-45
6e-45 6e-45 6e-45 -6e-45 2.1999654e-08 -6.127176e-08 1.4346196e-07 -3.419984e-07
00000000: 0400 0080 0400 0000 0400 0080 0400 0080
00000010: 0400 0000 0400 0000 0400 0080 0400 0080
00000020: 0400 0000 0400 0000 0400 0000 0400 0080
00000030: c0f9 bc32 8294 83b3 860a 1a34 e79b b7b4

exp_avg_sq f4 [4, 4]
3.5e-44 3.5e-44 3.5e-44 3.5e-44 3.5e-44 3.5e-44 3.5e-44 3.5e-44
3.5e-44 3.5e-44 3.5e-44 3.5e-44 1.6449058e-14 1.908244e-13 7.6013425e-13 3.7571877e-12
00000000: 1900 0000 1900 0000 1900 0000 1900 0000
00000010: 1900 0000 1900 0000 1900 0000 1900 0000
00000020: 1900 0000 1900 0000 1900 0000 1900 0000
00000030: f228 9428 63d9 562a 72f5 552b bd31 842c

exp_avg f4 [4]
-6e-45 6e-45 6e-45 1.04473855e-07
00000000: 0400 0080 0400 0000 0400 0000 1c5b e033

exp_avg_sq f4 [4]
3.5e-44 3.5e-44 3.5e-44 3.4880313e-13
00000000: 1900 0000 1900 0000 1900 0000 d45b c42a

exp_avg f4 [4, 4]
6e-45 6e-45 6e-45 -9.5215675e-08 6e-45 -6e-45 6e-45 1.736884e-09
-6e-45 6e-45 -6e-45 8.6103874e-10 6e-45 -6e-45 -6e-45 5.6518154e-08
00000000: 0400 0000 0400 0000 0400 0000 5f79 ccb3
00000010: 0400 0000 0400 0080 0400 0000 2cb7 ee30
00000020: 0400 0080 0400 0000 0400 0080 37ae 6c30
00000030: 0400 0000 0400 0080 0400 0080 5ebe 7233

exp_avg_sq f4 [4, 4]
3.5e-44 3.5e-44 3.5e-44 6.155518e-13 3.5e-44 3.5e-44 3.5e-44 2.1559864e-17
3.5e-44 3.5e-44 3.5e-44 2.1174431e-16 3.5e-44 3.5e-44 3.5e-44 8.82746e-15
00000000: 1900 0000 1900 0000 1900 0000 2f43 2d2b
00000010: 1900 0000 1900 0000 1900 0000 cada c623
00000020: 1900 0000 1900 0000 1900 0000 e41f 7425
00000030: 1900 0000 1900 0000 1900 0000 7905 1f28

exp_avg f4 [4]
8.139968e-07 -2.9332375e-07 -5.1371007e-06 4.617571e-06
00000000: 6f81 5a35 1c7a 9db4 5c5f acb6 a2f0 9a36

exp_avg_sq f4 [4]
2.7962943e-11 1.9445634e-11 3.125695e-10 2.5067562e-10
00000000: f3f6 f52d ad0b ab2d 3fd6 ab2f 75cf 892f

exp_avg f4 [4]
-2.7442572e-06 9.044303e-07 7.1195427e-06 -8.9895485e-07
00000000: fb29 38b6 fac7 7235 68e4 ee36 b54f 71b5

exp_avg_sq f4 [4]
1.2460691e-10 4.1469418e-11 4.0941292e-10 8.354713e-11
00000000: ba01 092f 6a62 362e bf13 e12f dab8 b72e

exp_avg f4 [4]
5.830102e-07 -8.8104775e-07 -3.4088232e-06 3.515535e-06
00000000: 2880 1c35 2481 6cb5 23c3 64b6 6eec 6b36

exp_avg_sq f4 [4]
1.6318353e-11 7.4312806e-11 1.6416754e-10 1.8045523e-10
00000000: aa89 8f2d 646a a32e 0e81 342f a269 462f

exp_avg f4 [4]
-1.0593686e-07 -7.2140335e-07 -8.5636503e-07 7.8826145e-07
00000000: 687f e3b3 76a6 41b5 f5e0 65b5 ea98 5335

exp_avg_sq f4 [4]
1.1065044e-12 1.8815564e-11 4.041555e-11 9.0097985e-11
00000000: 06ba 9b2b e280 a52d ddbf 312e a820 c62e

exp_avg f4 [4]
-1.0432086e-07 2.2896694e-07 -1.17415404e-07 3.4868515e-07
00000000: 0007 e0b3 f4d9 7534 cd25 fcb3 ec32 bb34

exp_avg_sq f4 [4]
2.029567e-12 9.441084e-13 2.2988063e-12 6.7338984e-13
00000000: 6ed1 0e2c 17df 842b 9dc3 212c da8a 3d2b

exp_avg f4 [12, 4]
3.015877e-08 3.6214468e-07 -2.82047e-07 6.58481e-08 2.4284457e-08 2.867412e-07 -2.344054e-07 6.430934e-08
2.5347985e-08 3.0759705e-07 -2.3433431e-07 5.070841e-08 -5.7784857e-09 -6.7194414e-08 6.8350815e-08 -3.2525794e-08
1.696229e-08 -7.250654e-07 9.3911325e-08 1.4776056e-07 2.5450694e-08 -1.047516e-06 1.3589262e-07 2.0939869e-07
2.1306452e-08 -8.5871903e-07 1.1272045e-07 1.6902386e-07 -3.923703e-08 1.6466362e-06 -2.1239137e-07 -3.3310636e-07
4.4054314e-08 6.6022943e-07 -2.1754181e-07 -7.258248e-08 -1.4732964e-08 -1.955648e-07 1.1380197e-07 -7.1868897e-09
-7.677657e-08 -1.1556369e-06 3.630435e-07 1.365638e-07 1.0833784e-07 1.6884742e-06 -4.1325944e-07 -2.6828636e-07
00000000: eb87 0133 c96c c234 3f6c 97b4 6068 8d33
00000010: 169a d032 69f1 9934 deb0 7bb4 6f1a 8a33
00000020: cfbc d932 d123 a534 539d 7bb4 7dca 5933
00000030: 198c c6b1 854c 90b3 42c8 9233 7db2 0bb3
00000040: 78b4 9132 1da2 42b5 4cac c933 1da8 1e34
00000050: ab9e da32 6098 8cb5 e1e9 1134 13d7 6034
00000060: 6205 b732 b982 66b5 b910 f233 ed7c 3534
00000070: 9285 28b3 fd01 dd35 b20d 64b4 cad5 b2b4
00000080: 3b36 3d33 9f3a 3135 7095 69b4 a4de 9bb3
00000090: 431c 7db2 71fc 51b4 4b63 f433 8df0 f6b1
000000a0: 5ee0 a4b3 621b 9bb5 52e8 c234 5fa2 1234
000000b0: 5ba7 e833 889f e235 f2dd ddb4 ff08 90b4

exp_avg_sq f4 [12, 4]
2.880582e-14 4.1395437e-12 2.4464564e-12 1.6314452e-13 1.1294648e-14 1.7848967e-12 1.0196084e-12 7.492581e-14
2.608876e-14 3.660613e-12 2.1584928e-12 1.3587836e-13 1.5809326e-14 2.3024555e-12 1.2588452e-12 6.82178e-14
7.307532e-14 3.9351956e-11 4.673573e-13 5.554069e-12 1.5154143e-13 8.232249e-11 9.580573e-13 1.1585587e-11
1.0539068e-13 5.6739047e-11 6.677743e-13 7.954691e-12 3.9140352e-13 2.0616193e-10 2.4413815e-12 2.887584e-11
3.56088e-14 7.1652016e-12 1.5394049e-12 5.8165265e-14 9.550478e-15 1.3891734e-12 2.2923476e-13 2.6544828e-14
1.2529867e-13 2.6140156e-11 5.3479773e-12 2.2241235e-13 6.1694194e-13 1.2679033e-10 2.4071248e-11 1.2837789e-12
00000000: d9ba 0129 b2a5 912c 7127 2c2c 35af 372a
00000010: 5f77 4b28 ae33 fb2b 447f 8f2b cab7 a829
00000020: 96fc ea28 dfcb 802c f3e3 172c 45fc 182a
00000030: d365 8e28 5a05 222c ae2a b12b e29c 9929
00000040: 0e8d a429 5d12 2d2e a58c 032b 9b6a c32c
00000050: d89e 2a2a 7107 b52e a7d5 862b d8d0 4b2d
00000060: 9751 ed29 7d8a 792e 36f6 3b2b bef0 0b2d
00000070: 3157 dc2a 6dad 622f 05cc 2b2c 9cfe fd2d
00000080: 275e 2029 661a fc2c e8a6 d82b fef9 8229
00000090: ce0b 2c28 3f82 c32b 360c 812a 3518 ef28
000000a0: e212 0d2a 66ee e52d 4c2a bc2c ff69 7a2a
000000b0: 5aa7 2d2b 4e68 0b2f a2bb d32d 02ad b42b

exp_avg f4 [12]
-8.617926e-08 -7.20996e-08 -7.148141e-08 2.212409e-08 1.348475e-13 1.4227354e-13 2.777737e-13 -2.0294122e-13
-1.2364737e-07 4.0109207e-08 2.1616813e-07 -3.0754043e-07
00000000: 8d11 b9b3 2dd5 9ab3 5281 99b3 630b be32
00000010: 25d3 172a 8e2f 202a 695f 9c2a d37d 64aa
00000020: eec3 04b4 8a44 2c33 d81b 6834 091c a5b4

exp_avg_sq f4 [12]
2.3423364e-13 1.01248254e-13 2.0448396e-13 1.2053151e-13 2.8814632e-24 5.3463415e-24 4.0643956e-24 1.4477983e-23
2.6359167e-13 5.5173304e-14 9.577943e-13 4.6745624e-12
00000000: a0dc 832a a5fd e329 7d3a 662a d8b4 072a
00000010: 42f1 5e18 9ad3 ce18 d33b 9d18 c005 8c19
00000020: 9063 942a 7d7a 7829 2dcc 862b b778 a42c

exp_avg f4 [4, 4]
-3.6377742e-07 4.9081723e-07 1.4129975e-07 3.270669e-07 1.5497267e-06 -1.600513e-06 -7.3345285e-07 -1.4374748e-06
2.098822e-07 -2.6655147e-07 -8.75893e-08 -1.9323676e-07 9.4767785e-08 -1.2855166e-07 -3.675183e-08 -8.47493e-08
00000000: 304d c3b4 b4c0 0335 2eb8 1734 bc97 af34
00000010: 3400 d035 35d1 d6b5 7fe2 44b5 42ef c0b5
00000020: fb5b 6134 8e1a 8fb4 ba18 bcb3 847c 4fb4
00000030: 2483 cb33 0308 0ab4 10d9 1db3 6cff b5b3

exp_avg_sq f4 [4, 4]
1.9354275e-12 2.463755e-12 3.8080758e-13 1.4179906e-12 7.294045e-11 1.1082069e-10 1.3468676e-11 6.089532e-11
1.1339184e-12 1.6960532e-12 1.9933714e-13 8.291687e-13 2.4370333e-13 3.6252853e-13 4.4883907e-14 1.869255e-13
00000000: 9031 082c 105f 2d2c 2860 d62a 7f90 c72b
00000010: d365 a02e 81b2 f32e 86f1 6c2d 04e9 852e
00000020: b795 9f2b c2b2 ee2b 056f 602a e763 692b
00000030: 5a31 892a de15 cc2a 9f23 4a29 9b75 522a

exp_avg f4 [4]
1.7290186e-07 -1.4623987e-07 -1.514044e-07 1.7646656e-08
00000000: e7a6 3934 1c06 1db4 b991 22b4 6895 9732

exp_avg_sq f4 [4]
1.315961e-12 2.1685112e-12 1.2398326e-12 1.4896499e-13
00000000: 7e34 b92b 6d98 182c ad7d ae2b 3cb8 272a

exp_avg f4 [4, 4]
-6e-45 6e-45 -6e-45 6e-45 6e-45 6e-45 -6e-45 -6e-45
1.8765386e-08 -9.768964e-08 3.0489144e-08 -3.3045726e-08 4.2723127e-09 -2.4318547e-07 1.015456e-08 3.4638e-07
00000000: 0400 0080 0400 0000 0400 0080 0400 0000
00000010: 0400 0000 0400 0000 0400 0080 0400 0080
00000020: 8531 a132 73c9 d1b3 2bf3 0233 29ee 0db3
00000030: a9cb 9231 288f 82b4 3a74 2e32 1bf6 b934

exp_avg_sq f4 [4, 4]
3.5e-44 3.5e-44 3.5e-44 3.5e-44 3.5e-44 3.5e-44 3.5e-44 3.5e-44
1.9353072e-15 8.524935e-14 7.0283807e-13 7.488395e-14 1.6325817e-13 1.3133572e-11 4.0890884e-12 2.657308e-12
00000000: 1900 0000 1900 0000 1900 0000 1900 0000
00000010: 1900 0000 1900 0000 1900 0000 1900 0000
00000020: 1e74 0b27 e8f6 bf29 d2d4 452b a89f a829
00000030: f7cf 372a 5a0c 672d 3cdf 8f2c cefd 3a2c

exp_avg f4 [4]
6e-45 6e-45 -9.791272e-08 7.9052125e-09
00000000: 0400 0000 0400 0000 1644 d2b3 7ecf 0732

exp_avg_sq f4 [4]
3.5e-44 3.5e-44 4.3939702e-14 2.283206e-12
00000000: 1900 0000 1900 0000 07e3 4529 95aa 202c

exp_avg f4 [4, 4]
6e-45 -6e-45 -7.9059255e-08 3.868377e-06 6e-45 -6e-45 9.631108e-08 -1.518056e-06
6e-45 -6e-45 3.4306918e-08 -7.517932e-07 -6e-45 6e-45 5.1072487e-08 -2.9014511e-06
00000000: 0400 0000 0400 0080 49c7 a9b3 1bcd 8136
00000010: 0400 0000 0400 0080 93d3 ce33 02c0 cbb5
00000020: 0400 0000 0400 0080 db58 1333 d6ce 49b5
00000030: 0400 0080 0400 0000 cb5a 5b33 8db6 42b6

exp_avg_sq f4 [4, 4]
3.5e-44 3.5e-44 3.513454e-14 6.265221e-10 3.5e-44 3.5e-44 1.477356e-13 2.1407673e-11
3.5e-44 3.5e-44 6.113186e-14 6.6709936e-11 3.5e-44 3.5e-44 6.2617134e-14 9.3319207e-11
00000000: 1900 0000 1900 0000 5e3b 1e29 9337 2c30
00000010: 1900 0000 1900 0000 e355 262a cb4d bc2d
00000020: 1900 0000 1900 0000 1ea8 8929 5bb2 922e
00000030: 1900 0000 1900 0000 5200 8d29 0b36 cd2e

exp_avg f4 [4]
-9.204358e-08 -5.270966e-07 -2.6844302e-07 -8.44536e-07
00000000: 7ea9 c5b3 cd7d 0db5 871e 90b4 12b4 62b5

exp_avg_sq f4 [4]
1.4275908e-10 1.7615057e-11 1.8965924e-11 2.4853656e-11
00000000: 1cf7 1c2f 95f1 9a2d 77d3 a62d 759d da2d

exp_avg f4 [4]
9.2987756e-07 -1.4344346e-07 5.094158e-07 -6.737212e-07
00000000: b39c 7935 7005 1ab4 cabe 0835 c5d9 34b5

exp_avg_sq f4 [4]
6.089996e-11 7.3126435e-12 1.9445695e-11 1.8570043e-11
00000000: a1eb 852e 38a5 002d d00b ab2d 0558 a32d

exp_avg f4 [4]
1.1335496e-06 -2.9922222e-07 -2.581441e-07 -7.0622167e-07
00000000: 7824 9835 caa4 a0b4 0e97 8ab4 2f93 3db5

exp_avg_sq f4 [4]
1.204263e-10 1.7080747e-11 1.7736606e-11 1.9168271e-11
00000000: fd68 042f 6c3e 962d 4903 9c2d 1c9b a82d

exp_avg f4 [4]
8.830297e-07 8.604255e-06 -1.6336413e-05 4.8658935e-06
00000000: 5709 6d35 fe5a 1037 2e0a 89b7 b545 a336

exp_avg_sq f4 [4]
4.4190758e-09 3.0442249e-09 1.2167336e-09 9.170306e-10
00000000: 9ad6 9731 9232 5131 023a a730 4b12 7c30

exp_avg f4 [4]
4.3932276e-05 1.0274595e-05 1.3603689e-05 3.114556e-06
00000000: ec43 3838 0d61 2c37 663b 6437 aa03 5136

exp_avg_sq f4 [4]
4.933882e-08 2.373377e-09 2.7705023e-09 7.13363e-10
00000000: 9be8 5333 e418 2331 3163 3e31 7516 4430

exp_avg f4 [12, 4]
0.0 0.0 0.0 0.0 0.0 0.0 0.0 0.0
0.0 0.0 0.0 0.0 0.0 0.0 0.0 0.0
0.0 0.0 0.0 0.0 0.0 0.0 0.0 0.0
0.0 0.0 0.0 0.0 0.0 0.0 0.0 0.0
-0.0018348389 -0.0011737993 -0.0024702023 -0.00047504247 0.001094881 0.0005251345 -0.0004700633 0.00093812135
-5.7813464e-05 0.00026278448 9.8318305e-05 0.00044627028 6.911738e-05 -0.00096191035 -0.0028430345 0.0014422263
00000000: 0000 0000 0000 0000 0000 0000 0000 0000
00000010: 0000 0000 0000 0000 0000 0000 0000 0000
00000020: 0000 0000 0000 0000 0000 0000 0000 0000
00000030: 0000 0000 0000 0000 0000 0000 0000 0000
00000040: 0000 0000 0000 0000 0000 0000 0000 0000
00000050: 0000 0000 0000 0000 0000 0000 0000 0000
00000060: 0000 0000 0000 0000 0000 0000 0000 0000
00000070: 0000 0000 0000 0000 0000 0000 0000 0000
00000080: fa7e f0ba 2bda 99ba 1ee3 21bb 1f0f f9b9
00000090: 1c82 8f3a 2ea9 093a d472 f6b9 42ec 753a
000000a0: bc7c 72b8 56c6 8939 3d30 ce38 62f9 e939
000000b0: 1cf3 9038 b628 7cba 3452 3abb 1609 bd3a

exp_avg_sq f4 [12, 4]
0.0 0.0 0.0 0.0 0.0 0.0 0.0 0.0
0.0 0.0 0.0 0.0 0.0 0.0 0.0 0.0
0.0 0.0 0.0 0.0 0.0 0.0 0.0 0.0
0.0 0.0 0.0 0.0 0.0 0.0 0.0 0.0
0.00032823454 0.00012989681 6.9066904e-05 0.00011168618 1.3833912e-05 1.6104956e-05 5.115096e-06 6.608116e-06
7.12579e-05 3.065519e-05 1.3280184e-05 1.6106687e-05 0.0004258374 4.1331925e-05 8.3324645e-05 0.00014016923
00000000: 0000 0000 0000 0000 0000 0000 0000 0000
00000010: 0000 0000 0000 0000 0000 0000 0000 0000
00000020: 0000 0000 0000 0000 0000 0000 0000 0000
00000030: 0000 0000 0000 0000 0000 0000 0000 0000
00000040: 0000 0000 0000 0000 0000 0000 0000 0000
00000050: 0000 0000 0000 0000 0000 0000 0000 0000
00000060: 0000 0000 0000 0000 0000 0000 0000 0000
00000070: 0000 0000 0000 0000 0000 0000 0000 0000
00000080: e516 ac39 e934 0839 03d8 9038 1039 ea38
00000090: 3318 6837 2119 8737 57a2 ab36 49bb dd36
000000a0: 4b70 9538 c293 0038 f5cd 5e37 d91c 8737
000000b0: ee42 df39 d15b 2d38 94be ae38 64fa 1239

exp_avg f4 [12]
0.0 0.0 0.0 0.0 0.0 0.0 0.0 0.0
0.0007223068 0.0012847754 0.0010857341 -0.001368342
00000000: 0000 0000 0000 0000 0000 0000 0000 0000
00000010: 0000 0000 0000 0000 0000 0000 0000 0000
00000020: 3059 3d3a e965 a83a 314f 8e3a f059 b3ba

exp_avg_sq f4 [12]
0.0 0.0 0.0 0.0 0.0 0.0 0.0 0.0
0.0016991544 0.0002640286 0.0005004439 0.0019002552
00000000: 0000 0000 0000 0000 0000 0000 0000 0000
00000010: 0000 0000 0000 0000 0000 0000 0000 0000
00000020: 29b6 de3a 526d 8a39 3930 033a fc11 f93a

exp_avg f4 [4, 4]
-0.0022275036 -0.001399722 -0.0021870567 2.4374916e-05 -0.0009439633 0.0054622116 0.011743078 -0.000705238
-0.00087136356 -3.8871425e-05 0.0015632348 -0.0045842454 -0.00022345518 -0.0008343197 -0.0023264065 0.001240746
00000000: 4ffb 11bb e076 b7ba b954 0fbb bc78 cc37
00000010: 4e74 77ba 5afc b23b 0a66 403c b9df 38ba
00000020: 386c 64ba e009 23b8 75e5 cc3a 7037 96bb
00000030: 4b4f 6ab9 3fb6 5aba a076 18bb 87a0 a23a

exp_avg_sq f4 [4, 4]
0.000288181 4.464809e-05 0.00024230996 0.00012439332 0.0009816039 0.000104082814 0.00048733683 0.00051605445
0.00067374704 5.7056062e-05 0.000335923 0.00033899292 8.605249e-06 3.1571071e-06 1.0241576e-05 6.658255e-06
00000000: 0017 9739 8644 3b38 9614 7e39 946f 0239
00000010: 29a9 803a 0947 da38 3e81 ff39 d447 073a
00000020: 669e 303a 7b4f 6f38 d21e b039 dcba b139
00000030: 435f 1037 b0de 5336 3cd3 2b37 fa69 df36

exp_avg f4 [4]
-0.0035258092 0.0175899 -0.009648678 0.0010588465
00000000: 4311 67bb b218 903c 7d15 1ebc fec8 8a3a

exp_avg_sq f4 [4]
0.008296721 0.01480988 0.01297661 0.00022405067
00000000: f8ee 073c 24a5 723c d99b 543c 25ef 6a39

exp_avg f4 [12, 4]
0.0 0.0 0.0 0.0 0.0 0.0 0.0 0.0
0.0 0.0 0.0 0.0 0.0 0.0 0.0 0.0
0.0 0.0 0.0 0.0 0.0 0.0 0.0 0.0
0.0 0.0 0.0 0.0 0.0 0.0 0.0 0.0
-6.5301233e-06 -4.522867e-06 -1.4360625e-06 1.2219344e-06 -7.909713e-06 -3.430232e-06 -1.9835022e-06 1.0168919e-06
-6.310766e-06 -4.225527e-06 -1.4171172e-06 1.2332184e-06 -7.774482e-06 1.4197691e-06 -1.786785e-06 4.4080696e-07
00000000: 0000 0000 0000 0000 0000 0000 0000 0000
00000010: 0000 0000 0000 0000 0000 0000 0000 0000
00000020: 0000 0000 0000 0000 0000 0000 0000 0000
00000030: 0000 0000 0000 0000 0000 0000 0000 0000
00000040: 0000 0000 0000 0000 0000 0000 0000 0000
00000050: 0000 0000 0000 0000 0000 0000 0000 0000
00000060: 0000 0000 0000 0000 0000 0000 0000 0000
00000070: 0000 0000 0000 0000 0000 0000 0000 0000
00000080: 551d dbb6 22c3 97b6 bbbe c0b5 5901 a435
00000090: f5b3 04b7 f032 66b6 4f1c 05b6 247c 8835
000000a0: 11c1 d3b6 00c9 8db6 c733 beb5 1085 a535
000000b0: 256f 02b7 e58e be35 77d1 efb5 0ca8 ec34

exp_avg_sq f4 [12, 4]
0.0 0.0 0.0 0.0 0.0 0.0 0.0 0.0
0.0 0.0 0.0 0.0 0.0 0.0 0.0 0.0
0.0 0.0 0.0 0.0 0.0 0.0 0.0 0.0
0.0 0.0 0.0 0.0 0.0 0.0 0.0 0.0
1.2294664e-09 4.3961604e-10 7.651706e-11 4.3340616e-11 1.7443964e-09 5.9562294e-10 9.4900296e-11 5.081941e-11
1.249299e-09 4.5846044e-10 7.5889156e-11 4.4570358e-11 2.995559e-09 1.4597061e-09 1.8435511e-10 2.1049501e-10
00000000: 0000 0000 0000 0000 0000 0000 0000 0000
00000010: 0000 0000 0000 0000 0000 0000 0000 0000
00000020: 0000 0000 0000 0000 0000 0000 0000 0000
00000030: 0000 0000 0000 0000 0000 0000 0000 0000
00000040: 0000 0000 0000 0000 0000 0000 0000 0000
00000050: 0000 0000 0000 0000 0000 0000 0000 0000
00000060: 0000 0000 0000 0000 0000 0000 0000 0000
00000070: 0000 0000 0000 0000 0000 0000 0000 0000
00000080: 01fa a830 75ae f12f 4643 a82e 329d 3e2e
00000090: 7ebf ef30 3db9 2330 1eb0 d02e 9281 5f2e
000000a0: cdb3 ab30 920a fc2f cce1 a62e c305 442e
000000b0: 6eda 4d31 d89e c830 5ab3 4a2f 1471 672f

exp_avg f4 [12]
0.0 0.0 0.0 0.0 0.0 0.0 0.0 0.0
-0.00012741178 -0.00012002331 -0.00012889285 -0.00010996951
00000000: 0000 0000 0000 0000 0000 0000 0000 0000
00000010: 0000 0000 0000 0000 0000 0000 0000 0000
00000020: d799 05b9 06b5 fbb8 6927 07b9 6e9f e6b8

exp_avg_sq f4 [12]
0.0 0.0 0.0 0.0 0.0 0.0 0.0 0.0
2.4900527e-07 2.7287263e-07 2.5047189e-07 6.3172035e-07
00000000: 0000 0000 0000 0000 0000 0000 0000 0000
00000010: 0000 0000 0000 0000 0000 0000 0000 0000
00000020: 06af 8534 547f 9234 9878 8634 7e93 2935

exp_avg f4 [4, 4]
5.7444336e-06 7.577988e-07 6.0421644e-06 -4.4988487e-06 3.7701153e-05 5.8212456e-05 3.5993555e-05 -1.0011022e-05
-4.4131775e-05 -7.1408045e-05 -4.289181e-05 3.8249294e-05 -7.2282837e-06 -1.0612849e-05 -7.3191754e-06 3.3142971e-06
00000000: 4fc0 c036 896b 4b35 ccbd ca36 d1f4 96b6
00000010: 4e21 1e38 2629 7438 c9f7 1638 03f5 27b7
00000020: 221a 39b8 e7c0 95b8 bbe6 33b8 de6d 2038
00000030: 7c8a f2b6 d70d 32b7 3d97 f5b6 316b 5e36

exp_avg_sq f4 [4, 4]
9.37324e-09 2.4933351e-08 8.773759e-09 3.200111e-08 1.9719886e-08 3.1815865e-08 1.9514435e-08 4.0176733e-08
2.1951648e-08 4.0752994e-08 2.0356039e-08 4.023698e-08 1.4945183e-09 2.758493e-09 1.3904692e-09 4.0675725e-09
00000000: f207 2132 052d d632 66bb 1632 9871 0933
00000010: 7d64 a932 eaa5 0833 b2a0 a732 c98e 2c33
00000020: 2f90 bc32 6408 2f33 67db ae32 07d1 2c33
00000030: b067 cd30 ec8f 3d31 c91a bf30 bfc2 8b31

exp_avg f4 [4]
0.00011663977 0.001902659 -0.0027375203 -0.00026878607
00000000: 809c f438 a462 f93a f867 33bb dbeb 8cb9

exp_avg_sq f4 [4]
0.00018754856 0.00025902284 0.00021670035 1.7695937e-05
00000000: afa8 4439 75cd 8739 0f3a 6339 bc71 9437

exp_avg f4 [4, 4]
0.0010359864 0.0007971642 -0.0031137438 0.0001494812 -1.3507529e-06 -0.00031101686 0.00018741886 -9.821746e-05
0.00028709328 0.0014500835 0.00029120696 -0.0008111368 4.6459343e-05 8.2354076e-05 -3.833391e-05 -1.39918175e-05
00000000: efc9 873a c9f8 503a f40f 4cbb 0ebe 1c39
00000010: 844b b5b5 fa0f a3b9 de85 4439 19fa cdb8
00000020: 0285 9639 ba10 be3a 23ad 9839 78a2 54ba
00000030: 57dd 4238 82b5 ac38 b9c8 20b8 66be 6ab7

exp_avg_sq f4 [4, 4]
6.4569476e-06 3.3805209e-06 0.00016633068 2.2226031e-05 2.63586e-07 6.5323406e-06 2.2063512e-06 7.8351655e-07
1.4951095e-06 3.347963e-05 7.937165e-06 1.0159318e-05 7.577672e-07 3.1236345e-06 1.6675796e-06 3.7657284e-07
00000000: c2a8 d836 e8dc 6236 0d69 2e39 0a72 ba37
00000010: fc82 8d34 6130 db36 d310 1436 d952 5235
00000020: 92ab c835 7b6c 0c38 dd29 0537 f071 2a37
00000030: 5e69 4b35 a29f 5136 99d1 df35 c72b ca34

exp_avg f4 [4]
-0.00096392806 -9.382994e-05 0.00048309963 2.6516385e-05
00000000: 1eb0 7cba 91c6 c4b8 8948 fd39 816f de37

exp_avg_sq f4 [4]
1.6340839e-05 5.9578167e-07 3.8735097e-06 3.624548e-07
00000000: af13 8937 ceed 1f35 32f9 8136 6997 c234

exp_avg f4 [4, 4]
0.000610933 -0.0003092544 -0.00015404535 -4.6006553e-05 -0.0010661825 0.00031657642 -0.00013304203 2.2217726e-05
0.0001879525 3.0939413e-05 -0.001809424 6.6578366e-07 6.976472e-05 7.412112e-05 0.0003852355 -6.8483297e-07
00000000: 0527 203a 6c23 a2b9 3c87 21b9 29f7 40b8
00000010: 26bf 8bba 2bfa a539 3381 0bb9 3460 ba37
00000020: 1d15 4539 f1c4 0138 322a edba 4eb8 3235
00000030: a64e 9238 7971 9b38 6ff9 c939 5dd5 37b5

exp_avg_sq f4 [4, 4]
8.288193e-06 2.2260037e-06 6.811319e-05 1.370023e-06 1.7077287e-05 3.0565707e-06 6.375498e-05 3.6323033e-07
3.7800538e-07 2.4199701e-07 4.978745e-05 1.7960163e-07 3.310844e-08 1.8801163e-07 2.8147333e-06 1.0531661e-07
00000000: 850d 0b37 7462 1536 fed7 8e38 a2e1 b735
00000010: 3241 8f37 7c1f 4d36 32b4 8538 ff01 c334
00000020: aaf0 ca34 d1eb 8134 ded2 5038 85d8 4034
00000030: 1d33 0e33 3ee0 4934 c0e4 3c36 6b2a e233

exp_avg f4 [4]
0.0008324619 0.0011454558 -0.0006570986 0.0007516358
00000000: 9339 5a3a 1e23 963a 2441 2cba 6d09 453a

exp_avg_sq f4 [4]
0.0001303522 0.0001629039 7.93922e-05 1.6995831e-05
00000000: 27af 0839 2fd1 2a39 5d7f a638 4592 8e37

exp_avg f4 [4]
0.0019912352 -0.0002176738 -0.00079788355 -0.00096202455
00000000: 627f 023b 5e3f 64b9 0f29 51ba 6030 7cba

exp_avg_sq f4 [4]
5.5674947e-05 6.8780304e-05 0.00010767477 1.555288e-05
00000000: 8584 6938 253e 9038 74cf e138 8e77 8237

exp_avg f4 [4]
0.0011404287 0.0010460815 -0.0017103318 -0.00047617836
00000000: 707a 953a ac1c 893a 362d e0ba 94a7 f9b9

exp_avg_sq f4 [4]
0.00018256236 0.00018368282 0.00016470524 1.4369501e-05
00000000: 366e 3f39 fb9a 4039 bab4 2c39 8914 7137

exp_avg f4 [4]
0.00048664783 0.00071807695 -0.0005484175 -0.001457216
00000000: c424 ff39 543d 3c3a adc3 0fba 0e00 bfba

exp_avg_sq f4 [4]
3.8171816e-05 5.7724694e-05 8.4135645e-05 1.18392445e-05
00000000: ad1a 2038 6b1d 7238 fb71 b038 2ba1 4637

exp_avg f4 [4]
0.0005169482 0.0010305645 -0.0003087322 0.00070324354
00000000: ce83 073a 0214 873a 56dd a1b9 e059 383a

exp_avg_sq f4 [4]
0.00013895302 0.000119696284 8.3488536e-05 1.6870357e-05
00000000: ebb3 1139 7405 fb38 9116 af38 d184 8d37

exp_avg f4 [4]
0.00041433217 0.0007464895 3.8130907e-05 -0.00092561735
00000000: b93a d939 10b0 433a c0ee 1f38 21a5 72ba

exp_avg_sq f4 [4]
4.491535e-05 3.5337758e-05 8.781549e-05 4.542934e-06
00000000: 7d63 3c38 a137 1438 9529 b838 826f 9836

exp_avg f4 [4]
-0.00020179545 1.03323255e-05 -0.00044500627 0.00033446337
00000000: 0e99 53b9 0059 2d37 bb4f e9b9 ea5a af39

exp_avg_sq f4 [4]
0.00010427445 8.2891784e-05 8.623802e-05 4.507559e-06
00000000: ebad da38 30d6 ad38 afda b438 a33f 9736

exp_avg f4 [12, 4]
0.0 0.0 0.0 0.0 0.0 0.0 0.0 0.0
0.0 0.0 0.0 0.0 0.0 0.0 0.0 0.0
0.0 0.0 0.0 0.0 0.0 0.0 0.0 0.0
0.0 0.0 0.0 0.0 0.0 0.0 0.0 0.0
-0.00014534037 -0.00022909929 5.1781215e-05 0.00029916823 -0.00038794763 -0.000100988094 9.7124896e-05 0.0004989267
-0.000144449 9.3432536e-05 1.3460011e-05 0.00012932665 -0.00014291263 0.0004670065 1.9514897e-05 -0.00016441665
00000000: 0000 0000 0000 0000 0000 0000 0000 0000
00000010: 0000 0000 0000 0000 0000 0000 0000 0000
00000020: 0000 0000 0000 0000 0000 0000 0000 0000
00000030: 0000 0000 0000 0000 0000 0000 0000 0000
00000040: 0000 0000 0000 0000 0000 0000 0000 0000
00000050: 0000 0000 0000 0000 0000 0000 0000 0000
00000060: 0000 0000 0000 0000 0000 0000 0000 0000
00000070: 0000 0000 0000 0000 0000 0000 0000 0000
00000080: 8266 18b9 5f3a 70b9 a82f 5938 aed9 9c39
00000090: 7365 cbb9 92c9 d3b8 88af cb38 67ca 023a
000000a0: 3c77 17b9 36f1 c338 4fd2 6137 dc9b 0739
000000b0: d1da 15b9 8dd8 f439 ecb3 a337 4267 2cb9

exp_avg_sq f4 [12, 4]
0.0 0.0 0.0 0.0 0.0 0.0 0.0 0.0
0.0 0.0 0.0 0.0 0.0 0.0 0.0 0.0
0.0 0.0 0.0 0.0 0.0 0.0 0.0 0.0
0.0 0.0 0.0 0.0 0.0 0.0 0.0 0.0
3.1587498e-07 1.9250049e-06 1.8184372e-07 1.5130454e-06 1.0351989e-06 3.478245e-06 6.493754e-07 1.3057684e-06
1.9588815e-07 5.347981e-07 1.2119617e-07 6.881901e-07 7.662649e-07 4.06627e-06 3.836334e-07 3.5155101e-06
00000000: 0000 0000 0000 0000 0000 0000 0000 0000
00000010: 0000 0000 0000 0000 0000 0000 0000 0000
00000020: 0000 0000 0000 0000 0000 0000 0000 0000
00000030: 0000 0000 0000 0000 0000 0000 0000 0000
00000040: 0000 0000 0000 0000 0000 0000 0000 0000
00000050: 0000 0000 0000 0000 0000 0000 0000 0000
00000060: 0000 0000 0000 0000 0000 0000 0000 0000
00000070: 0000 0000 0000 0000 0000 0000 0000 0000
00000080: 8795 a934 552f 0136 d240 4334 d813 cb35
00000090: 2af1 8a35 cb6b 6936 bd50 2e35 dc41 af35
000000a0: 5355 5234 0c8f 0f35 2622 0234 10bc 3835
000000b0: 53b1 4d35 fe70 8836 2cf6 cd34 01ec 6b36

exp_avg f4 [12]
0.0 0.0 0.0 0.0 0.0 0.0 0.0 0.0
-3.5398392e-05 8.481845e-05 6.636985e-05 0.00022000803
00000000: 0000 0000 0000 0000 0000 0000 0000 0000
00000010: 0000 0000 0000 0000 0000 0000 0000 0000
00000020: bc78 14b8 8fe0 b138 0b30 8b38 f5b1 6639

exp_avg_sq f4 [12]
0.0 0.0 0.0 0.0 0.0 0.0 0.0 0.0
1.5968064e-07 3.7162783e-07 7.141717e-08 3.385588e-07
00000000: 0000 0000 0000 0000 0000 0000 0000 0000
00000010: 0000 0000 0000 0000 0000 0000 0000 0000
00000020: ae74 2b34 2484 c734 015e 9933 2bc3 b534

exp_avg f4 [4, 4]
5.455257e-05 2.5023062e-06 -3.1482206e-05 -0.00014099272 -0.00013443879 -0.00030568813 -1.6564486e-06 -0.00014648389
5.890845e-05 0.0001548497 2.2401875e-05 0.00011646031 -1.4229503e-05 -5.5289547e-05 -6.202452e-06 -7.196277e-05
00000000: 60cf 6438 4bed 2736 c30b 04b8 72d7 13b9
00000010: 23f8 0cb9 c444 a0b9 2453 deb5 7899 19b9
00000020: 7714 7738 265f 2239 a9eb bb37 273c f438
00000030: 40bb 6eb7 b3e6 67b8 a81e d0b6 b8ea 96b8

exp_avg_sq f4 [4, 4]
1.7634345e-06 2.8456545e-06 3.2429827e-07 2.4557116e-06 1.8023095e-06 1.2388416e-06 4.2197797e-07 3.0951153e-06
1.2903629e-06 1.7681556e-06 3.5698167e-07 1.7543146e-06 6.643838e-08 1.3075795e-07 1.6089077e-08 9.76709e-08
00000000: 26af ec35 f9f7 3e36 371b ae34 cecc 2436
00000010: e2e6 f135 4646 a635 368c e234 adb5 4f36
00000020: 8830 ad35 5d51 ed35 30a7 bf34 ca75 eb35
00000030: e3ac 8e33 7966 0c34 4134 8a32 25bf d133

exp_avg f4 [4]
0.00012175762 0.0016070938 -0.0006772878 0.0005737708
00000000: 2058 ff38 1fa5 d23a 048c 31ba 1b69 163a

exp_avg_sq f4 [4]
0.000115305345 8.999989e-05 0.00010409034 6.2885088e-06
00000000: 16d0 f138 53be bc38 134b da38 e101 d336

exp_avg f4 [12, 4]
0.0 0.0 0.0 0.0 0.0 0.0 0.0 0.0
0.0 0.0 0.0 0.0 0.0 0.0 0.0 0.0
0.0 0.0 0.0 0.0 0.0 0.0 0.0 0.0
0.0 0.0 0.0 0.0 0.0 0.0 0.0 0.0
2.9338457e-06 -3.0012832e-06 3.6387192e-08 -6.014516e-07 -2.4761266e-06 3.4497757e-06 -8.358747e-08 6.200048e-07
1.0745756e-06 -2.9031503e-06 2.5735338e-07 -4.6039483e-07 1.8488842e-06 -3.356831e-06 7.603178e-08 -5.509163e-07
00000000: 0000 0000 0000 0000 0000 0000 0000 0000
00000010: 0000 0000 0000 0000 0000 0000 0000 0000
00000020: 0000 0000 0000 0000 0000 0000 0000 0000
00000030: 0000 0000 0000 0000 0000 0000 0000 0000
00000040: 0000 0000 0000 0000 0000 0000 0000 0000
00000050: 0000 0000 0000 0000 0000 0000 0000 0000
00000060: 0000 0000 0000 0000 0000 0000 0000 0000
00000070: 0000 0000 0000 0000 0000 0000 0000 0000
00000080: 16e3 4436 a769 49b6 2448 1c33 7073 21b5
00000090: 882b 26b6 b282 6736 b380 b3b3 686e 2635
000000a0: 233a 9035 bed3 42b6 612a 8a34 2f2c f7b4
000000b0: 2d27 f835 eb45 61b6 ea46 a333 aee2 13b5

exp_avg_sq f4 [12, 4]
0.0 0.0 0.0 0.0 0.0 0.0 0.0 0.0
0.0 0.0 0.0 0.0 0.0 0.0 0.0 0.0
0.0 0.0 0.0 0.0 0.0 0.0 0.0 0.0
0.0 0.0 0.0 0.0 0.0 0.0 0.0 0.0
7.844892e-10 4.600719e-10 9.6882e-11 5.4183012e-11 8.1961593e-10 4.9375404e-10 1.0736575e-10 5.6241106e-11
5.8322897e-10 3.1248787e-10 6.5074564e-11 3.8127057e-11 6.896865e-10 4.1725903e-10 9.256863e-11 4.8994604e-11
00000000: 0000 0000 0000 0000 0000 0000 0000 0000
00000010: 0000 0000 0000 0000 0000 0000 0000 0000
00000020: 0000 0000 0000 0000 0000 0000 0000 0000
00000030: 0000 0000 0000 0000 0000 0000 0000 0000
00000040: 0000 0000 0000 0000 0000 0000 0000 0000
00000050: 0000 0000 0000 0000 0000 0000 0000 0000
00000060: 0000 0000 0000 0000 0000 0000 0000 0000
00000070: 0000 0000 0000 0000 0000 0000 0000 0000
00000080: 85a3 5730 5ded fc2f b80b d52e a64c 6e2e
00000090: 584b 6130 dab8 0730 8b19 ec2e db59 772e
000000a0: 1751 2030 c2ca ab2f b919 8f2e 40af 272e
000000b0: 5f94 3d30 fd63 e52f 828f cb2e 057b 572e

exp_avg f4 [12]
0.0 0.0 0.0 0.0 0.0 0.0 0.0 0.0
9.232667e-05 -9.348742e-05 6.374593e-05 8.290559e-05
00000000: 0000 0000 0000 0000 0000 0000 0000 0000
00000010: 0000 0000 0000 0000 0000 0000 0000 0000
00000020: 819f c138 ad0e c4b8 56af 8538 9add ad38

exp_avg_sq f4 [12]
0.0 0.0 0.0 0.0 0.0 0.0 0.0 0.0
1.960822e-07 2.0580717e-07 1.4440018e-07 1.75405e-07
00000000: 0000 0000 0000 0000 0000 0000 0000 0000
00000010: 0000 0000 0000 0000 0000 0000 0000 0000
00000020: aa8a 5234 d8fb 5c34 6b0c 1b34 f656 3c34
