Saved_models/best_model_both.pt (torch, 47641 bytes, 108 tensors)

encoder_input_layer.weight f4 [4, 3]
0	0x3d825cbf	0.06365346
1	0x3ec1b655	0.3783442
2	0xbecfbb68	-0.40572667
3	0xbeafad16	-0.34311742
4	0xbe0f23ed	-0.13978548
5	0x3e7429fb	0.2384414
6	0xbd9ab632	-0.07554282
7	0x3ec95ebc	0.3933009
8	0xbdeb89c7	-0.11500888
9	0x3d9d5a8d	0.07683287
10	0xbe805bf5	-0.25070158
11	0xbe423b6b	-0.18967979

encoder_input_layer.bias f4 [4]
0	0xbf188c45	-0.59589034
1	0xbed83102	-0.4222489
2	0xbe32ed26	-0.17473277
3	0x3d94fdbe	0.0727496

decoder_input_layer.weight f4 [4, 1]
0	0x3f2aa58d	0.6665886
1	0x3f21752f	0.6306943
2	0xbf5bd273	-0.85867995
3	0xbeb38ee6	-0.3506996

decoder_input_layer.bias f4 [4]
0	0x3d8f88e7	0.07008534
1	0x3f43f7d5	0.76550037
2	0xbcd1aaf4	-0.025594212
3	0x3f26375c	0.6492822

positional_encoding_layer_enc.pe f4 [1, 7, 4]
0	0x00000000	0.0
1	0x3f800000	1.0
2	0x00000000	0.0
3	0x3f800000	1.0
4	0x3f576aa4	0.84147096
5	0x3f0a5141	0.54030234
6	0x3c23d657	0.009999833
7	0x3f7ffcb9	0.99995
8	0x3f68c7b7	0.9092974
9	0xbed51133	-0.41614684
10	0x3ca3d43e	0.019998666
11	0x3f7ff2e5	0.9998
12	0x3e1081c3	0.14112
13	0xbf7d7026	-0.9899925
14	0x3cf5b91f	0.0299955
15	0x3f7fe283	0.99955004
16	0xbf41bdcf	-0.7568025
17	0xbf275530	-0.6536436
18	0x3d23cbdb	0.039989334
19	0x3f7fcb94	0.9992001
20	0xbf757c10	-0.9589243
21	0x3e913c2c	0.2836622
22	0x3d4cb6f4	0.049979165
23	0x3f7fae19	0.99875027
24	0xbe8f0f8c	-0.2794155
25	0x3f75cdb8	0.96017027
26	0x3d759cd1	0.059964005
27	0x3f7f8a12	0.99820054

positional_encoding_layer_dec.pe f4 [1, 3, 4]
0	0x00000000	0.0
1	0x3f800000	1.0
2	0x00000000	0.0
3	0x3f800000	1.0
4	0x3f576aa4	0.84147096
5	0x3f0a5141	0.54030234
6	0x3c23d657	0.009999833
7	0x3f7ffcb9	0.99995
8	0x3f68c7b7	0.9092974
9	0xbed51133	-0.41614684
10	0x3ca3d43e	0.019998666
11	0x3f7ff2e5	0.9998

encoder.layers.0.self_attn.in_proj_weight f4 [12, 4]
0	0xbedc75e4	-0.43058693
1	0xbecdca31	-0.40193322
2	0x3ed07f78	0.4072225
3	0x3e917c3d	0.284151
4	0xbe9da739	-0.30791643
5	0xbdbb2722	-0.09138323
6	0x3ee46e61	0.44615462
7	0x3f0dbcdf	0.5536632
8	0x3e847307	0.2586901
9	0x3d78db8b	0.060756247
10	0x3ef0b95d	0.4701642
11	0xbeb74092	-0.3579145
12	0x3e3c8c41	0.18412878
13	0xbef0695d	-0.46955386
14	0xbf04240f	-0.5161752
15	0xbeaf3595	-0.34220567
16	0x3ebb066b	0.36528334
17	0x3dc5759d	0.096415736
18	0xbede091e	-0.4336633
19	0x3daadaaa	0.08342488
20	0x3eb04624	0.34428513
21	0xbe244479	-0.16041745
22	0x3cfde2bc	0.030991904
23	0x3c7bffba	0.015380794
24	0x3ed22936	0.41047066
25	0x3f1f6289	0.6225973
26	0xbf0ad8e7	-0.54237217
27	0xbe340295	-0.1757911
28	0x3e71e21a	0.23621407
29	0x3f10bafd	0.5653532
30	0x3ee2cc9f	0.44296739
31	0x3f1bb903	0.6082918
32	0x3de447c8	0.11146504
33	0xbf149900	-0.5804596
34	0x3db2ffb9	0.087401815
35	0xbec2fed2	-0.38085037
36	0xbf2b8526	-0.67000043
37	0x3f476133	0.7788269
38	0x3eb09283	0.3448678
39	0xbf00db48	-0.50334597
40	0x3e2d2cde	0.16911647
41	0xbcd83b04	-0.026395328
42	0xbdbcb724	-0.09214619
43	0xbe9377e5	-0.2880241
44	0x3b34d111	0.0027590434
45	0xbe903fb5	-0.28173605
46	0x3d3e159e	0.046407335
47	0x3ef94a2d	0.48689404

encoder.layers.0.self_attn.in_proj_bias f4 [12]
0	0x3c26cc53	0.010180551
1	0xbc090674	-0.008363355
2	0xbd1d57f5	-0.03841396
3	0x3dc92efa	0.09823413
4	0xb947664c	-0.00019016227
5	0xb9035f5e	-0.0001252866
6	0xb8e4401c	-0.000108838285
7	0x389330a4	7.018566e-05
8	0xbc610340	-0.013733685
9	0x3dc4a6e8	0.09602147
10	0xbd0a0c6a	-0.033703245
11	0x3e4ede10	0.20201898

encoder.layers.0.self_attn.out_proj.weight f4 [4, 4]
0	0x3dfdee32	0.12398948
1	0x3d9b6a49	0.07588632
2	0x3f24f9cd	0.64443666
3	0xbf15c001	-0.584961
4	0xbe7a3acd	-0.24436493
5	0xbd96e7cb	-0.0736843
6	0xbe04b5fe	-0.1296005
7	0x3ee43129	0.44568756
8	0xbe87a8f6	-0.26496094
9	0xbe2e360e	-0.17012808
10	0xbe89b776	-0.26897782
11	0xbf067652	-0.5252429
12	0xbece127a	-0.40248471
13	0x3ea753fa	0.32681257
14	0x3dead6d9	0.1146676
15	0x3e86a886	0.26300448

encoder.layers.0.self_attn.out_proj.bias f4 [4]
0	0xbe5e43ae	-0.21705505
1	0xbd4d9a2e	-0.050195865
2	0xbd2c3eba	-0.04205201
3	0x3dce1616	0.10062806

encoder.layers.0.linear1.weight f4 [4, 4]
0	0x3ef5c0c5	0.47998634
1	0x3db7c7cf	0.08973657
2	0xbeed8006	-0.46386737
3	0xbe6783fd	-0.22608943
4	0x3ec3e93c	0.3826388
5	0xbd13abc0	-0.036052465
6	0xbe8a3b3a	-0.2699831
7	0xbe93d646	-0.28874415
8	0x3f0a1ae1	0.53947264
9	0x3e6c33ee	0.23066685
10	0xbdd00cb2	-0.101586714
11	0xbe1ac992	-0.15115955
12	0xbed477f5	-0.4149777
13	0xbe0a86d9	-0.13528003
14	0xbeb50b84	-0.35360348
15	0xbeb7f4db	-0.35928997

encoder.layers.0.linear1.bias f4 [4]
0	0xbddbb570	-0.10727966
1	0xbd836e01	-0.06417466
2	0xbea62c12	-0.32455498
3	0x3e88bf3a	0.26708394

encoder.layers.0.linear2.weight f4 [4, 4]
0	0xbedbdc15	-0.42941347
1	0x3e9c3134	0.3050629
2	0x3e672898	0.22574079
3	0xbf0fa2bd	-0.56107694
4	0xbe29f990	-0.16599107
5	0xbd2a684f	-0.041603383
6	0x3d408b97	0.047008123
7	0xb8ab07a8	-8.1553415e-05
8	0x3e5f80f0	0.2182653
9	0x3d3fc6c1	0.046820406
10	0xbe71d1ab	-0.23615138
11	0x3e13745d	0.14399858
12	0xbec3beaa	-0.38231403
13	0xbe427690	-0.1899054
14	0xbd491432	-0.049091525
15	0xbd34fd6f	-0.044187006

encoder.layers.0.linear2.bias f4 [4]
0	0xbebae741	-0.36504558
1	0xbef69ea0	-0.48167896
2	0xbdf13ed6	-0.11779563
3	0x3e6a7515	0.22896226

encoder.layers.0.norm1.weight f4 [4]
0	0x3f8b2ee9	1.0873691
1	0x3f68a271	0.90872866
2	0x3f75e973	0.9605934
3	0x3f83b1c2	1.0288622

encoder.layers.0.norm1.bias f4 [4]
0	0xbdd3b0c3	-0.10336449
1	0xbd9fa21b	-0.07794591
2	0xbb08c6ca	-0.002087044
3	0x3de53cff	0.11193275

encoder.layers.0.norm2.weight f4 [4]
0	0x3f7ce5cc	0.9878814
1	0x3f87f097	1.0620297
2	0x3f67f9c3	0.9061548
3	0x3f8fe797	1.1242551

encoder.layers.0.norm2.bias f4 [4]
0	0xbc79723f	-0.015224992
1	0x3e200a99	0.15629043
2	0x3dade5b4	0.08491078
3	0x3e0b4119	0.13599052

decoder.layers.0.self_attn.in_proj_weight f4 [12, 4]
0	0x3ca8e6c2	0.020617846
1	0x3eb6db4a	0.3571418
2	0x3ec5d1c9	0.38636616
3	0xbf0e21ba	-0.5552021
4	0x3e8a4c69	0.2701142
5	0xbf047c5e	-0.5175227
6	0xbe4a016b	-0.19727103
7	0xbe8d3f08	-0.27587152
8	0x390afee8	0.00013255666
9	0xbdb1b088	-0.08676249
10	0xbef12c84	-0.47104275
11	0xbf0cd602	-0.5501405
12	0x3da3d413	0.07999434
13	0x3d9327bb	0.07185312
14	0xbec2006f	-0.37890956
15	0x3e344427	0.17604123
16	0xbed02bb6	-0.4065835
17	0xbe0fdc8c	-0.14048976
18	0x3f10b60f	0.565278
19	0xbe9754bd	-0.29556838
20	0x3f23eca3	0.64032954
21	0x3dae7a95	0.085194744
22	0xbf009391	-0.5022517
23	0x3f011215	0.50418216
24	0xbcb6d0ff	-0.022316454
25	0xbeb294f1	-0.34879258
26	0x3f044dbc	0.51681113
27	0xbeb0bb92	-0.34518105
28	0xbdbe1742	-0.0928178
29	0x3c247e23	0.010039839
30	0x3ed610b9	0.41809633
31	0x3e8c9564	0.27457726
32	0x3eda49ad	0.42634335
33	0xbd562405	-0.052280445
34	0xbe6b8fba	-0.23004046
35	0xbda95a70	-0.08269203
36	0xbef2cf85	-0.4742395
37	0x3e759826	0.23983821
38	0x3efd433d	0.4946536
39	0x3f04a8c4	0.51820016
40	0xbece42c0	-0.402853
41	0x3e8eaca4	0.2786609
42	0xbedddeac	-0.43333948
43	0xbeb55ec1	-0.35423854
44	0xbe89aeea	-0.2689126
45	0xbed3ad87	-0.41343328
46	0xbef66eed	-0.48131505
47	0x3b6a3a59	0.0035740344

decoder.layers.0.self_attn.in_proj_bias f4 [12]
0	0x3d92e465	0.07172469
1	0xbda5a748	-0.08088547
2	0x3d947e3f	0.07250642
3	0xbdb8eada	-0.090291694
4	0xba6edfe0	-0.00091123395
5	0xb8a9537a	-8.074097e-05
6	0xb81e9808	-3.7811726e-05
7	0x39385352	0.00017578647
8	0xbd84b10e	-0.06479083
9	0x3dadc0ad	0.084840156
10	0xbc8bc63b	-0.017062297
11	0xbe06f10c	-0.1317789

decoder.layers.0.self_attn.out_proj.weight f4 [4, 4]
0	0xbbfcf513	-0.007719645
1	0xbe9d1f07	-0.30687734
2	0x3f1277ed	0.5721424
3	0x3e63d190	0.2224791
4	0xbdaa923f	-0.083286755
5	0x3c49cca6	0.012316858
6	0x3a5059c9	0.00079479493
7	0x3e7197ef	0.23593114
8	0x3ebdc23d	0.37062255
9	0x3ed255ac	0.41080987
10	0x3ead1fb3	0.33813247
11	0xbe2776e4	-0.16353947
12	0xbf2bb8fc	-0.6707914
13	0x3d1f6a42	0.038919695
14	0x3e0e0b4f	0.13871501
15	0xbe717d2c	-0.23582906

decoder.layers.0.self_attn.out_proj.bias f4 [4]
0	0xbeb11571	-0.3458667
1	0xbc95f81a	-0.01830678
2	0x3e2a2331	0.16614987
3	0x3e90c97c	0.2827872

decoder.layers.0.multihead_attn.in_proj_weight f4 [12, 4]
0	0x3c9e23f6	0.019304257
1	0x3f1c5351	0.6106463
2	0x3e6c07d1	0.23049857
3	0xbd6b9940	-0.057519197
4	0xbf104ea4	-0.56369996
5	0x3ea7fd3d	0.32810393
6	0xbef67dab	-0.48142752
7	0xbdefcb45	-0.117086925
8	0xbe1945f0	-0.14968085
9	0xbd9b6de2	-0.07589318
10	0x3d5d767f	0.054068085
11	0x3ec95526	0.39322776
12	0x3df1a897	0.11799734
13	0x3f0bb0d6	0.54566705
14	0x3ebf8650	0.3740716
15	0xbed8be83	-0.4233285
16	0x3eaa6933	0.33283386
17	0xbed68745	-0.41900077
18	0xbe4c9ab2	-0.19980887
19	0x3df670dd	0.12033246
20	0x3e98a9bf	0.29817006
21	0x3efcb340	0.49355507
22	0xbe80e3d8	-0.2517383
23	0xbd071286	-0.03297665
24	0x3e49f696	0.19722971
25	0xbf045788	-0.5169606
26	0x3edfdac4	0.43721592
27	0xbf08e3b9	-0.5347248
28	0x3dd7e811	0.1054231
29	0xbe34bead	-0.17650862
30	0xbe8e756a	-0.27823955
31	0x3db551cf	0.088534944
32	0x3ee7c63f	0.45268437
33	0xbe4f78e9	-0.20260967
34	0xbead98b9	-0.3390558
35	0xbe49371a	-0.19649926
36	0xbf05405b	-0.52051324
37	0x3e66d0e1	0.22540618
38	0xbe7b5380	-0.24543571
39	0xbeebcc71	-0.46054414
40	0xbf267b79	-0.65032154
41	0x3f139229	0.576449
42	0x3e67216d	0.22571345
43	0x3f417126	0.75563276
44	0x3e077cd2	0.13231209
45	0xbd9390f8	-0.07205385
46	0xbe630403	-0.22169499
47	0x3e94b96a	0.2904771

decoder.layers.0.multihead_attn.in_proj_bias f4 [12]
0	0xbc87f642	-0.016596917
1	0xbc45beed	-0.012069446
2	0xbd082d0e	-0.033246092
3	0xbbd30e43	-0.006440909
4	0xb911fe89	-0.000139231
5	0x398a8dd0	0.0002642707
6	0x39114ccc	0.00013856887
7	0x399d65f1	0.00030021326
8	0x3c27f137	0.010250381
9	0xbd81789d	-0.06321833
10	0x3e8fce46	0.28087062
11	0x3de3e7c6	0.11128192

decoder.layers.0.multihead_attn.out_proj.weight f4 [4, 4]
0	0x3e8d83d0	0.27639627
1	0x3ed1737a	0.40908414
2	0xbf2b3270	-0.66873837
3	0xbebd6e21	-0.36998084
4	0xbe80365a	-0.25041467
5	0x3e5ff9c1	0.21872617
6	0xbe369a35	-0.17832263
7	0x3ec57376	0.38564652
8	0xbc03de8b	-0.008048664
9	0xbd7a2606	-0.06107142
10	0x3e4b9fb9	0.19885148
11	0x3ca5bf36	0.020232778
12	0xbdf24526	-0.11829595
13	0x3bd3559f	0.006449416
14	0x3e2208d0	0.15823674
15	0x3e3e9df9	0.1861495

decoder.layers.0.multihead_attn.out_proj.bias f4 [4]
0	0xbeafe912	-0.34357506
1	0x3d7022d4	0.058626965
2	0x3e53ad3f	0.20671557
3	0x3e37d9f3	0.17954235

decoder.layers.0.linear1.weight f4 [16, 4]
0	0x3ecea36e	0.40359062
1	0x3dc68192	0.09692682
2	0xbe39d521	-0.18147708
3	0xbe7cbbf4	-0.24681073
4	0xbec3d6b8	-0.38249755
5	0x3ec8cf8d	0.3922085
6	0xbebc93f8	-0.3683164
7	0xbefdb2af	-0.49550387
8	0x3ecd800b	0.40136752
9	0xbec3863f	-0.3818836
10	0xbcc4f374	-0.024041869
11	0x3e4c361b	0.19942515
12	0x3d4a9eef	0.049467977
13	0xbe089da5	-0.13341387
14	0xbf0bd46a	-0.54620993
15	0x3eaa8289	0.33302715
16	0xbd80b28e	-0.062840566
17	0x3f2f6218	0.68509054
18	0xbd8a4331	-0.06751097
19	0x3e166c1d	0.1468968
20	0xbd89aec2	-0.067227855
21	0x3d9834f0	0.07431972
22	0xbf07c2b8	-0.5303149
23	0x3e4139ba	0.18869677
24	0x3e45389d	0.19259878
25	0x3d412a05	0.047159214
26	0xbe275c4f	-0.16343807
27	0xbe8f2733	-0.27959594
28	0x3e359ac5	0.17734821
29	0xbf296b6d	-0.66179544
30	0x3ee1b302	0.44081885
31	0xbda6d5b8	-0.08146232
32	0xbeb3066e	-0.34965843
33	0x3ebeda92	0.3727613
34	0xbe355f63	-0.17712168
35	0x3de46bb3	0.111533545
36	0x3e0558a2	0.13022092
37	0xbe98d838	-0.29852462
38	0xbd279439	-0.04091284
39	0x3e68d1ae	0.22736236
40	0x3da6df86	0.081481025
41	0xbcdded75	-0.027090767
42	0xbee16073	-0.44018897
43	0x3cc7c1df	0.024384437
44	0x3d6f75f2	0.05846209
45	0x3de66bbf	0.1125102
46	0x3eb7cefa	0.35900098
47	0x3e4f32ba	0.20234194
48	0xbe9617b6	-0.29314965
49	0xbee91c40	-0.45529366
50	0x3eaa72cb	0.33290705
51	0x3e44323b	0.19159786
52	0x3d46c62f	0.048528846
53	0xbeb12a5d	-0.34602633
54	0xbea45abc	-0.32100475
55	0x3e21e2de	0.15809199
56	0x3eb3dd99	0.35130003
57	0x3ebe7d93	0.3720518
58	0x3ebff1ee	0.37489265
59	0x3c267277	0.0101591265
60	0x3e637749	0.22213472
61	0xbe6ba6a0	-0.23012781
62	0xbedb6d4a	-0.42856818
63	0xbed5e77b	-0.41778168

decoder.layers.0.linear1.bias f4 [16]
0	0x3f0e0031	0.5546904
1	0x3e63b155	0.22235616
2	0xbe92fd5c	-0.28708923
3	0x3dfa134b	0.12210711
4	0x3f013ace	0.50480354
5	0x3ee456ad	0.44597378
6	0x3ec99aa6	0.393758
7	0x3f14e499	0.5816131
8	0xbd06b8b1	-0.03289098
9	0xbe68f29f	-0.22748803
10	0x3eff86bb	0.4990748
11	0x3eb57cb1	0.35446694
12	0xbe42db49	-0.19028963
13	0x3f0427c4	0.5162318
14	0x3e92b8c9	0.28656605
15	0x3e827aa5	0.25484195

decoder.layers.0.linear2.weight f4 [4, 16]
0	0xbe4e3f01	-0.20141222
1	0x3db7f7c8	0.089828074
2	0xbe0a1e4c	-0.1348812
3	0xbdad9946	-0.084765
4	0xbeba4be9	-0.3638604
5	0xbe15debe	-0.1463575
6	0x3b5a8bad	0.0033347413
7	0xbe63d72e	-0.22250053
8	0xbeae2489	-0.3401225
9	0xbd213c89	-0.03936437
10	0xbec4ea7d	-0.3846015
11	0xbe875d9d	-0.2643861
12	0xbef4b098	-0.4779098
13	0xbecb7790	-0.39739656
14	0xbe96ab9f	-0.29427812
15	0x3e34f438	0.17671287
16	0x3e044f17	0.12920795
17	0xbd5c3f1b	-0.05377112
18	0x3e7701bb	0.24121754
19	0x3c275b6b	0.010214667
20	0xbe60eeaa	-0.21966043
21	0xbd13afa5	-0.03605618
22	0xbe4c763a	-0.19966975
23	0x3e88bac3	0.26704988
24	0xbe916aca	-0.28401786
25	0x3d1956dc	0.03743635
26	0xbd366188	-0.044526607
27	0xbd372d3a	-0.044720866
28	0x3e0163e0	0.12635756
29	0x3e1e6f71	0.15472199
30	0xbbe9ea13	-0.0071384995
31	0x3e388e6b	0.18023078
32	0x3e82b4ec	0.25528657
33	0x3e034864	0.12820584
34	0x3e07b43a	0.13252345
35	0x3ec941ed	0.3930811
36	0x3e3356cb	0.17513578
37	0x3e9a0734	0.3008362
38	0x3e20a634	0.15688401
39	0x3e0eaa54	0.13932163
40	0x3d835d48	0.06414276
41	0x3e1852bf	0.14875315
42	0x3e49370a	0.19649902
43	0x3d2389d5	0.03992637
44	0xbd7831a5	-0.06059422
45	0x3d8dd7f0	0.069259524
46	0xbe0d52a1	-0.13801052
47	0x3e3f99df	0.18711041
48	0x3e60306c	0.21893471
49	0x3e97f546	0.29679316
50	0xbde60bcf	-0.11232721
51	0xbd8fa442	-0.070137516
52	0x3e6da51c	0.23207515
53	0x3d0c5900	0.034264565
54	0xbd959460	-0.07303691
55	0x3ec473b4	0.38369524
56	0x3d67593e	0.056481592
57	0xbe553803	-0.20822148
58	0x3d5ce8f1	0.053933088
59	0x3e8c9c1b	0.2746285
60	0x3de15918	0.110033214
61	0x3dac26da	0.08405848
62	0x3cd0ea83	0.025502449
63	0xbcd1c266	-0.025605392

decoder.layers.0.linear2.bias f4 [4]
0	0xbddf1f24	-0.108946115
1	0xbb177bc3	-0.002311454
2	0xbda5ec68	-0.081017315
3	0x3de26b03	0.11055567

decoder.layers.0.norm1.weight f4 [4]
0	0x3fabe39e	1.3428838
1	0x3f364251	0.7119494
2	0x3f658654	0.89658093
3	0x3f4e3d16	0.8056196

decoder.layers.0.norm1.bias f4 [4]
0	0xbeca39e1	-0.39497283
1	0x3d818410	0.06324017
2	0x3e602723	0.2188993
3	0x3e4bcc90	0.19902253

decoder.layers.0.norm2.weight f4 [4]
0	0x3facdf48	1.350564
1	0x3f1293f9	0.5725704
2	0x3f80ff06	1.0077827
3	0x3f5cb02b	0.8620631

decoder.layers.0.norm2.bias f4 [4]
0	0xbec3e58a	-0.38261062
1	0xbcac5522	-0.021036688
2	0x3e60e8a0	0.2196374
3	0x3e6610b3	0.22467308

decoder.layers.0.norm3.weight f4 [4]
0	0x3f8ee10d	1.116243
1	0x3f553935	0.83290416
2	0x3f8d9570	1.106123
3	0x3f88eb58	1.0696821

decoder.layers.0.norm3.bias f4 [4]
0	0xbdf5bd09	-0.11998946
1	0x3d6b557f	0.057454582
2	0x3de8d715	0.11369149
3	0x3de7ab65	0.11311988

linear_mapping.weight f4 [1, 4]
0	0xbe0afadc	-0.13572258
1	0xbdc58f20	-0.096464396
2	0x3d43feb0	0.04785031
3	0x3eecc1a2	0.4624148

linear_mapping_with_gender_ind.weight f4 [1, 5]
0	0xbed03d37	-0.40671703
1	0x3c7a51ef	0.015278324
2	0x3eacf42f	0.33780047
3	0x3e9f91e4	0.31165993
4	0xbc8cbf43	-0.017181044

exp_avg f4 [4, 3]
0	0x361256cb	2.1806215e-06
1	0x36161bc1	2.2367897e-06
2	0x36164cd2	2.2396457e-06
3	0x363e20f3	2.8331385e-06
4	0x363fe2b6	2.859318e-06
5	0x36400aa7	2.861643e-06
6	0xb6830d52	-3.905655e-06
7	0xb6848bb7	-3.9501715e-06
8	0xb684e077	-3.9600377e-06
9	0xb5bc99c6	-1.4051845e-06
10	0xb5bcb818	-1.406067e-06
11	0xb5bd19b6	-1.408908e-06

exp_avg_sq f4 [4, 3]
0	0x308b1c2d	1.0121589e-09
1	0x308cc9de	1.0243715e-09
2	0x308dbf9c	1.0313559e-09
3	0x2f917111	2.6455685e-10
4	0x2f9215f2	2.6572838e-10
5	0x2f931458	2.67536e-10
6	0x3016a24e	5.480033e-10
7	0x3017917a	5.5140215e-10
8	0x301817a5	5.533088e-10
9	0x2eb481bf	8.2085e-11
10	0x2eb49a91	8.212909e-11
11	0x2eb5a4d7	8.2602085e-11

exp_avg f4 [4]
0	0xb565921c	-8.5521765e-07
1	0xb586c78b	-1.0041853e-06
2	0x35c56f0b	1.4709962e-06
3	0x3508e88e	5.100236e-07

exp_avg_sq f4 [4]
0	0x2f3a4fcb	1.694495e-10
1	0x2e3c6230	4.283346e-11
2	0x2ec0addb	8.762032e-11
3	0x2d60d97d	1.2781218e-11

exp_avg f4 [4, 1]
0	0xb86faa49	-5.714063e-05
1	0x391cf16c	0.00014967256
2	0xb99dd195	-0.00030101524
3	0x39c6c884	0.000379149

exp_avg_sq f4 [4, 1]
0	0x3487154a	2.51612e-07
1	0x34a1f34b	3.0165606e-07
2	0x34e20743	4.2101064e-07
3	0x34b5faf0	3.3896458e-07

exp_avg f4 [4]
0	0x37b73185	2.183836e-05
1	0xb85842ad	-5.156051e-05
2	0x38e3d090	0.00010863051
3	0xb90da092	-0.00013506625

exp_avg_sq f4 [4]
0	0x3331e0e5	4.1415564e-08
1	0x334cf216	4.7717627e-08
2	0x33928e7d	6.824573e-08
3	0x336284a3	5.2740358e-08

exp_avg f4 [12, 4]
0	0x331b4dc0	3.6159463e-08
1	0x3425a7c0	1.542785e-07
2	0xb41f2d6e	-1.4824556e-07
3	0x34cc5867	3.8062282e-07
4	0x3232a25d	1.0397881e-08
5	0x3375b7c2	5.7210634e-08
6	0x31280956	2.4452524e-09
7	0x32bc218b	2.1901334e-08
8	0x3366928e	5.368434e-08
9	0x33d9eeb3	1.0148269e-07
10	0xb4626292	-2.108375e-07
11	0x34ac745d	3.2122162e-07
12	0x33e5f799	1.0708681e-07
13	0x34e66160	4.2911688e-07
14	0xb5086314	-5.0808126e-07
15	0x35c12753	1.4391065e-06
16	0xb395135f	-6.941877e-08
17	0xb2d2ebf6	-2.455452e-08
18	0x31b4b0c7	5.2587867e-09
19	0x336be882	5.4926666e-08
20	0x3397a33a	7.061176e-08
21	0x3454cf76	1.9819512e-07
22	0xb33c174d	-4.3793353e-08
23	0x352d47f9	6.4552256e-07
24	0xb4182d1b	-1.4172512e-07
25	0xb4d5e05a	-3.983758e-07
26	0x33a9daca	7.909473e-08
27	0xb562b356	-8.445253e-07
28	0xb3d0bbf7	-9.7199454e-08
29	0xb3c2943f	-9.060795e-08
30	0x32fc2399	2.9352849e-08
31	0xb4eb5d34	-4.3839975e-07
32	0x351546cd	5.5609854e-07
33	0xb311014d	-3.3761626e-08
34	0x350106b1	4.806598e-07
35	0xb59b9970	-1.1593056e-06
36	0x34d78d21	4.0149556e-07
37	0xb2b3dddb	-2.093923e-08
38	0x34e601ef	4.2842245e-07
39	0xb5a7c8b3	-1.2500881e-06
40	0x35a867b2	1.2547155e-06
41	0x335dd91f	5.1653043e-08
42	0x359e2fef	1.1785868e-06
43	0xb63fe88b	-2.8596576e-06
44	0x34ee5744	4.439445e-07
45	0xb28aa58f	-1.6140602e-08
46	0x34b384e4	3.343804e-07
47	0xb602ef29	-1.951072e-06

exp_avg_sq f4 [12, 4]
0	0x2a197380	1.3629202e-13
1	0x2aef7139	4.2533492e-13
2	0x2a3eeedb	1.695826e-13
3	0x2c188d83	2.1679054e-12
4	0x2a305a4d	1.566327e-13
5	0x2af420bd	4.3365824e-13
6	0x2a14181c	1.3153405e-13
7	0x2bc3b7e4	1.3906623e-12
8	0x2afcdcc8	4.491739e-13
9	0x2bb99cfc	1.3188613e-12
10	0x2b8983de	9.771036e-13
11	0x2cec665c	6.7188876e-12
12	0x2b99cc04	1.092793e-12
13	0x2c7b8690	3.5743943e-12
14	0x2b9e4622	1.1246041e-12
15	0x2d997e8b	1.7450283e-11
16	0x2ad2909f	3.7403845e-13
17	0x2b334351	6.3686995e-13
18	0x28d73253	2.389162e-14
19	0x2c16ac58	2.1411952e-12
20	0x2c18703b	2.16628e-12
21	0x2c02b694	1.8575462e-12
22	0x29e8c589	1.03371366e-13
23	0x2d232254	9.2731e-12
24	0x2c3ce12d	2.6841405e-12
25	0x2c239adc	2.3249657e-12
26	0x2a1760dd	1.34451e-13
27	0x2d30d239	1.00511205e-11
28	0x2bfdbe1a	1.8029495e-12
29	0x2bcc6718	1.4523686e-12
30	0x2984adc0	5.8921184e-14
31	0x2cf05803	6.8309815e-12
32	0x2df4ad9a	2.7816683e-11
33	0x2bc904ee	1.4283277e-12
34	0x2c827b2d	3.7084975e-12
35	0x2e9c524f	7.1086796e-11
36	0x2da8f469	1.9207929e-11
37	0x2bf8b4c4	1.7671632e-12
38	0x2c895ef3	3.9043157e-12
39	0x2eb0e3e5	8.0440356e-11
40	0x2e34eb04	4.1135997e-11
41	0x2c14b9f6	2.1135294e-12
42	0x2d2b3308	9.731556e-12
43	0x2f2d881a	1.5782611e-10
44	0x2df57ff0	2.7910091e-11
45	0x2c5e84d4	3.1621832e-12
46	0x2cc0acf0	5.476168e-12
47	0x2f1b40b3	1.4120154e-10

exp_avg f4 [12]
0	0x3453cdf8	1.9725837e-07
1	0x32d25172	2.4484255e-08
2	0x34043505	1.2312746e-07
3	0x353d4aea	7.0517e-07
4	0xa8962b62	-1.667216e-14
5	0x288b0644	1.5434817e-14
6	0xa904e07f	-2.9504607e-14
7	0xa921e751	-3.5949816e-14
8	0xb54ae447	-7.558305e-07
9	0xb5181ea4	-5.6669e-07
10	0xb5f27ec9	-1.8067304e-06
11	0xb49da264	-2.9361684e-07

exp_avg_sq f4 [12]
0	0x2b0e4f52	5.0558613e-13
1	0x2aed8cbc	4.219731e-13
2	0x2c48ee88	2.855412e-12
3	0x2c4aa15b	2.8795497e-12
4	0x14ee8495	2.4084153e-26
5	0x160ad781	1.1215552e-25
6	0x161680bf	1.2157529e-25
7	0x15a354d1	6.596899e-26
8	0x2db46f2c	2.0513001e-11
9	0x2daf2dc0	1.9915514e-11
10	0x2e389523	4.1969216e-11
11	0x2e01ff2a	2.9557835e-11

exp_avg f4 [4, 4]
0	0x3593406e	1.0971105e-06
1	0x35440ffd	7.3038956e-07
2	0x35780442	9.2393395e-07
3	0xb5c43a31	-1.4620074e-06
4	0x34f1fe4f	4.5074782e-07
5	0x350a227e	5.14592e-07
6	0x34f1318e	4.4925804e-07
7	0xb54fb303	-7.7374006e-07
8	0xb6226d01	-2.420333e-06
9	0xb5e7cae8	-1.7269895e-06
10	0xb5f7b300	-1.845503e-06
11	0x363cfbbb	2.816071e-06
12	0x34925ee0	2.726365e-07
13	0x34cb7896	3.7899434e-07
14	0x345c592f	2.0521541e-07
15	0xb499f554	-2.867697e-07

exp_avg_sq f4 [4, 4]
0	0x2dec8dee	2.6893123e-11
1	0x2d561325	1.2168743e-11
2	0x2d85a9b3	1.5195711e-11
3	0x2df4c2a9	2.7826035e-11
4	0x2eaaa345	7.7597075e-11
5	0x2d9a0274	1.7508862e-11
6	0x2e2c5f2f	3.9192812e-11
7	0x2e8710c4	6.1420674e-11
8	0x2f3ffd9e	1.7461452e-10
9	0x2e6ce470	5.386308e-11
10	0x2ed2d384	9.587267e-11
11	0x2f252665	1.5020303e-10
12	0x2f014206	1.1755938e-10
13	0x2ddb188c	2.4908318e-11
14	0x2e8323c5	5.963544e-11
15	0x2ec12076	8.78239e-11

exp_avg f4 [4]
0	0xb5ed6192	-1.7686273e-06
1	0xb51d754e	-5.865776e-07
2	0x362455d6	2.4487867e-06
3	0x3468f75e	2.1696675e-07

exp_avg_sq f4 [4]
0	0x2e39e12e	4.226413e-11
1	0x2e974f4d	6.8807716e-11
2	0x2f0ceec8	1.2817758e-10
3	0x2ec38c57	8.892503e-11

exp_avg f4 [4, 4]
0	0xb3f4dfda	-1.1402854e-07
1	0x349c6cbe	2.9136385e-07
2	0xb43c0005	-1.7508872e-07
3	0xb34fa2ac	-4.8343892e-08
4	0xb3d5192d	-9.923165e-08
5	0x352c04d4	6.408202e-07
6	0xb525457f	-6.156842e-07
7	0xb2508406	-1.2137212e-08
8	0xb3540ecd	-4.9373558e-08
9	0x34b5b3a4	3.3844583e-07
10	0xb4a02bc4	-2.9834166e-07
11	0xb31cc1fd	-3.649801e-08
12	0xb5fe85ab	-1.8963377e-06
13	0x34450ec5	1.8352428e-07
14	0xb5896f28	-1.0239646e-06
15	0x362b0e2e	2.548924e-06

exp_avg_sq f4 [4, 4]
0	0x2b52d8d4	7.4907897e-13
1	0x2c2b1f07	2.4317785e-12
2	0x2b6b80b1	8.3667367e-13
3	0x2abb79ff	3.3302525e-13
4	0x29964de9	6.6748534e-14
5	0x2c130a21	2.089558e-12
6	0x2c143e18	2.1066534e-12
7	0x29f45acf	1.08515295e-13
8	0x2873cb8e	1.3533349e-14
9	0x2b286c5e	5.983598e-13
10	0x2b04df54	4.720575e-13
11	0x28179d29	8.4162625e-15
12	0x2ee62e6c	1.0467435e-10
13	0x2d8caa6b	1.5991838e-11
14	0x2d9e7456	1.8014184e-11
15	0x2edbf76c	1.0002918e-10

exp_avg f4 [4]
0	0x34350f97	1.686261e-07
1	0x350c1e81	5.2198453e-07
2	0x3488bb7b	2.5468384e-07
3	0x35c83cac	1.4918819e-06

exp_avg_sq f4 [4]
0	0x2bb997f7	1.3187219e-12
1	0x2bd5ef91	1.5201053e-12
2	0x2ac05ac5	3.4169035e-13
3	0x2e6bd1c7	5.3619133e-11

exp_avg f4 [4, 4]
0	0x34a4a959	3.0670597e-07
1	0x34497ac3	1.8764244e-07
2	0x3329ce38	3.9535934e-08
3	0xb5008893	-4.788246e-07
4	0x3483c675	2.4545048e-07
5	0x3419c0c9	1.431937e-07
6	0x3327e8ea	3.909455e-08
7	0xb5d18f47	-1.5613413e-06
8	0x32ed751d	2.7643688e-08
9	0xb358119e	-5.030744e-08
10	0xa3aac5fb	-1.8515285e-17
11	0x361a46c4	2.298898e-06
12	0xb5118d0b	-5.4221954e-07
13	0xb480e529	-2.4008594e-07
14	0xb38fc034	-6.693918e-08
15	0xb4ed828d	-4.4239678e-07

exp_avg_sq f4 [4, 4]
0	0x2b141221	5.260532e-13
1	0x2a6f2d9b	2.1243287e-13
2	0x281f65f3	8.84838e-15
3	0x2da518f9	1.8769418e-11
4	0x2aa0deee	2.8576398e-13
5	0x29df3451	9.912265e-14
6	0x28101969	7.999116e-15
7	0x2f0f0af5	1.3009667e-10
8	0x292d7682	3.8516506e-14
9	0x29f47354	1.0855783e-13
10	0x251449fa	1.2862018e-16
11	0x2f2655d9	1.5128111e-10
12	0x2bf761eb	1.7577583e-12
13	0x2aa54a71	2.9361542e-13
14	0x28d5f247	2.3752821e-14
15	0x2efa522c	1.13832804e-10

exp_avg f4 [4]
0	0xb581ed07	-9.680233e-07
1	0xb66d395a	-3.5349135e-06
2	0x369642e2	4.4781345e-06
3	0x347c02a6	2.3470292e-07

exp_avg_sq f4 [4]
0	0x2e91a1d8	6.622586e-11
1	0x30069a25	4.896797e-10
2	0x2fa3f903	2.982646e-10
3	0x2f578ac6	1.9603438e-10

exp_avg f4 [4]
0	0x35fed1d8	1.8985547e-06
1	0xb59afb00	-1.1546945e-06
2	0xb5e3bed6	-1.6968359e-06
3	0xb5cadc04	-1.5114206e-06

exp_avg_sq f4 [4]
0	0x2f25c42d	1.5076358e-10
1	0x2f2a3526	1.5480292e-10
2	0x2e440c26	4.457603e-11
3	0x2f2d289b	1.5748684e-10

exp_avg f4 [4]
0	0xb585580a	-9.934895e-07
1	0xb63dd231	-2.8285542e-06
2	0x36702c68	3.5788635e-06
3	0xb5ddffaf	-1.6540197e-06

exp_avg_sq f4 [4]
0	0x2f56ff7d	1.9553954e-10
1	0x2fce418b	3.7517753e-10
2	0x2f23b788	1.4889967e-10
3	0x2f6fdaa0	2.1814595e-10

exp_avg f4 [4]
0	0xb83ff5a5	-4.5766723e-05
1	0x35340308	6.7059636e-07
2	0xb7160466	-8.941721e-06
3	0x3567e9a8	8.639422e-07

exp_avg_sq f4 [4]
0	0x32003722	7.463116e-09
1	0x2f669ca0	2.0974023e-10
2	0x2f266001	1.513172e-10
3	0x3292ca87	1.7088736e-08

exp_avg f4 [4]
0	0x380deff4	3.3840493e-05
1	0x36cbc83e	6.0731827e-06
2	0x37e8792d	2.7712982e-05
3	0xb4b67050	-3.398186e-07

exp_avg_sq f4 [4]
0	0x31808866	3.740797e-09
1	0x319443fc	4.315096e-09
2	0x3156f364	3.127945e-09
3	0x3234b847	1.0519279e-08

exp_avg f4 [12, 4]
0	0xb664b701	-3.408117e-06
1	0xb6b37ff9	-5.3495137e-06
2	0xb71cb774	-9.341038e-06
3	0x3835f0de	4.3378088e-05
4	0x3516ac34	5.6129943e-07
5	0x36c65aba	5.911422e-06
6	0x373afe80	1.1145719e-05
7	0xb833f99e	-4.29094e-05
8	0xb6df8491	-6.6613507e-06
9	0xb612c122	-2.1868113e-06
10	0xb6f237da	-7.218664e-06
11	0x38183a06	3.6293663e-05
12	0xb6af0272	-5.215691e-06
13	0xb6c79d84	-5.9489994e-06
14	0xb647def0	-2.9783077e-06
15	0x38112ec7	3.461426e-05
16	0x369ee346	4.735225e-06
17	0xb7047c91	-7.896816e-06
18	0xb84c7adb	-4.875181e-05
19	0x35d4b3b8	1.5847536e-06
20	0xb683f443	-3.93254e-06
21	0x359f196d	1.1853823e-06
22	0xb7b05214	-2.1019056e-05
23	0xb30a1550	-3.2150012e-08
24	0x34d46a38	3.9565361e-07
25	0xb627a9de	-2.4983815e-06
26	0xb80eca93	-3.40441e-05
27	0xb66f9277	-3.569903e-06
28	0xb63fa82b	-2.8559105e-06
29	0x363cac27	2.811439e-06
30	0x3789c4c7	1.6423304e-05
31	0xb6540bea	-3.1597397e-06
32	0xb961d679	-0.0002153757
33	0xb86cae10	-5.6428893e-05
34	0x3992ec4d	0.00028023348
35	0x39d3148d	0.00040260368
36	0xb8b2055d	-8.4887004e-05
37	0xb7dd416f	-2.6375723e-05
38	0x38be7977	9.0825306e-05
39	0x395f7a68	0.00021312537
40	0xb85f672f	-5.326344e-05
41	0xb6a52557	-4.92173e-06
42	0x389f967b	7.60974e-05
43	0x38b6453b	8.6913315e-05
44	0x37a59f7d	1.97438e-05
45	0x36c539e6	5.877798e-06
46	0x35f09df8	1.7927368e-06
47	0xb88635d8	-6.399647e-05

exp_avg_sq f4 [12, 4]
0	0x2fb93056	3.368565e-10
1	0x30b4a5e6	1.3143875e-09
2	0x30c426af	1.4271871e-09
3	0x31d7cbde	6.2805006e-09
4	0x2fc66b3b	3.6092182e-10
5	0x3103b3a4	1.9165123e-09
6	0x3129a720	2.4687736e-09
7	0x320ecd9e	8.31224e-09
8	0x3006a82b	4.8987897e-10
9	0x3022e904	5.926639e-10
10	0x310346bc	1.9103217e-09
11	0x3194a691	4.3263033e-09
12	0x2f2da8b2	1.5794191e-10
13	0x304e24d2	7.499469e-10
14	0x3051455e	7.6132334e-10
15	0x3167a373	3.3707834e-09
16	0x31031db8	1.9079902e-09
17	0x30975899	1.1011877e-09
18	0x31d78103	6.2719905e-09
19	0x303cdd92	6.870887e-10
20	0x302313fd	5.932746e-10
21	0x2ef0ed65	1.0956106e-10
22	0x30c8e527	1.4617044e-09
23	0x3023b4d2	5.9556016e-10
24	0x31484333	2.9142029e-09
25	0x3083e0ec	9.595431e-10
26	0x31a6facf	4.8597495e-09
27	0x314065ad	2.7997473e-09
28	0x2fac95a5	3.1392947e-10
29	0x2eeb1c0d	1.06915456e-10
30	0x30441e88	7.134777e-10
31	0x3037a09a	6.680324e-10
32	0x34047fdc	1.2339973e-07
33	0x320160cf	7.5308e-09
34	0x34f5eaa7	4.5805538e-07
35	0x34fcbc1d	4.7075528e-07
36	0x32c5bdd9	2.3020151e-08
37	0x313f809c	2.7867264e-09
38	0x33789201	5.787479e-08
39	0x340ad2ff	1.2929011e-07
40	0x32c68042	2.3108559e-08
41	0x3096f05f	1.0982254e-09
42	0x3307805f	3.154889e-08
43	0x33b2f01e	8.332448e-08
44	0x3211ecb2	8.493929e-09
45	0x2fe8273f	4.222844e-10
46	0x3280d5c4	1.499837e-08
47	0x32feb295	2.9650701e-08

exp_avg f4 [12]
0	0x37230305	9.71626e-06
1	0xb718f0ff	-9.116017e-06
2	0x37200d29	9.539807e-06
3	0x37063da5	8.001375e-06
4	0x2c084ff2	1.937114e-12
5	0x2b1a1923	5.4746675e-13
6	0x2acae172	3.6038842e-13
7	0xab1c1cd7	-5.5462357e-13
8	0x3937dfe2	0.00017535643
9	0x38a30371	7.773087e-05
10	0x381dc042	3.761077e-05
11	0xb79c6158	-1.8641978e-05

exp_avg_sq f4 [12]
0	0x304d0613	7.45872e-10
1	0x308c4112	1.0204835e-09
2	0x3033ccbc	6.5410766e-10
3	0x2fed4835	4.3161355e-10
4	0x19ffd830	2.64537e-23
5	0x1909524c	7.099354e-24
6	0x1a91c350	6.028614e-23
7	0x1999536f	1.5853528e-23
8	0x33cb0f8f	9.455754e-08
9	0x32a231fd	1.8882014e-08
10	0x32526b9f	1.2248079e-08
11	0x31a04592	4.664522e-09

exp_avg f4 [4, 4]
0	0xb7860a00	-1.5978701e-05
1	0x37c3d127	2.3343206e-05
2	0x3488b7fd	2.5465843e-07
3	0xb7fcf677	-3.015551e-05
4	0x38abd5bb	8.193726e-05
5	0xb94adce0	-0.00019346504
6	0x38741055	5.8189344e-05
7	0x378d0337	1.6810007e-05
8	0xb948899b	-0.00019124748
9	0x3a065d85	0.000512563
10	0xb95abfd3	-0.0002086156
11	0xb895b72e	-7.1389935e-05
12	0x392b4a08	0.0001633541
13	0xb9d791e1	-0.00041116684
14	0x392aeca7	0.00016300623
15	0x38a9c51f	8.095265e-05

exp_avg_sq f4 [4, 4]
0	0x331bf6a3	3.6313065e-08
1	0x34851389	2.4787394e-07
2	0x3313de7e	3.442846e-08
3	0x3280a7c2	1.4977449e-08
4	0x3392a474	6.8285686e-08
5	0x34f6c345	4.5963148e-07
6	0x337af0de	5.842673e-08
7	0x32c0d5b6	2.2448926e-08
8	0x33ba869f	8.6857874e-08
9	0x354bcae8	7.591866e-07
10	0x34045fb3	1.2328273e-07
11	0x335af232	5.0977356e-08
12	0x33e03a60	1.0441431e-07
13	0x35757f36	9.145473e-07
14	0x3424253e	1.5287239e-07
15	0x33d709ba	1.0013487e-07

exp_avg f4 [4]
0	0xb78279d5	-1.555394e-05
1	0xb88c690f	-6.695289e-05
2	0x396c75e0	0.00022550626
3	0xb90296c8	-0.00012453937

exp_avg_sq f4 [4]
0	0x333e21f2	4.4268695e-08
1	0x3386862c	6.264267e-08
2	0x33d1295f	9.739846e-08
3	0x3404b41d	1.2358983e-07

exp_avg f4 [12, 4]
0	0x3645bdfb	2.946587e-06
1	0x349adc6c	2.8845113e-07
2	0xb59a2afd	-1.1486405e-06
3	0xb5b3dadd	-1.3400237e-06
4	0x359ff017	1.1916298e-06
5	0x33f1a901	1.1253179e-07
6	0xb417d2eb	-1.4139702e-07
7	0xb55ff891	-8.3435685e-07
8	0xb5df5759	-1.6640216e-06
9	0xb3d52529	-9.925345e-08
10	0x34d99879	4.0530338e-07
11	0x3572591d	9.02817e-07
12	0x3608e286	2.0397433e-06
13	0x345108f5	1.94679e-07
14	0xb5431b97	-7.268331e-07
15	0xb5841c29	-9.842962e-07
16	0x34645fe8	2.1269045e-07
17	0x3311aa44	3.39153e-08
18	0xb4655e2f	-2.1361551e-07
19	0xb251496e	-1.2182097e-08
20	0xb58f9ebf	-1.0700531e-06
21	0x349bcc07	2.901945e-07
22	0x35acd0b5	1.287574e-06
23	0xb538a332	-6.878282e-07
24	0xb5b45061	-1.3434438e-06
25	0x34da3203	4.0642053e-07
26	0x35c90cdd	1.4979411e-06
27	0xb54bb920	-7.5892785e-07
28	0x358bda74	1.0419885e-06
29	0xb3c3002f	-9.0804285e-08
30	0xb59e3db0	-1.1789871e-06
31	0x34c93efd	3.7484998e-07
32	0xb9229803	-0.00015506153
33	0x3882f8db	6.245236e-05
34	0xb7d40eec	-2.5279318e-05
35	0x394a5644	0.00019296358
36	0x38d3a8a2	0.00010092674
37	0xb8349cc7	-4.3061355e-05
38	0x378d4896	1.684231e-05
39	0xb902245f	-0.00012411315
40	0xb88331e6	-6.255861e-05
41	0x37cc266c	2.4336587e-05
42	0xb74e2bca	-1.2288752e-05
43	0x38ad5ff5	8.267156e-05
44	0x397e225e	0.0002423613
45	0xb8cd57db	-9.791526e-05
46	0x381f3237	3.795532e-05
47	0xb99d1aa8	-0.00029965234

exp_avg_sq f4 [12, 4]
0	0x2fc27a37	3.5375233e-10
1	0x2e3f4146	4.3486346e-11
2	0x2f2e2b2d	1.5840547e-10
3	0x2eedba6e	1.0810629e-10
4	0x2eda4583	9.92584e-11
5	0x2d5acd8b	1.2437505e-11
6	0x2e3f1883	4.3450143e-11
7	0x2e16a784	3.4254835e-11
8	0x2ea2cb73	7.403047e-11
9	0x2d132f59	8.366496e-12
10	0x2e3e3fde	4.3257724e-11
11	0x2d9cd04f	1.7827654e-11
12	0x2f142391	1.3473157e-10
13	0x2d907d80	1.6426638e-11
14	0x2e890fdc	6.232856e-11
15	0x2e2f40e2	3.984802e-11
16	0x2d18b8b7	8.681215e-12
17	0x2d9c42a4	1.7764741e-11
18	0x2cc06904	5.4686273e-12
19	0x2d4bdc00	1.1588064e-11
20	0x2d1e2db8	8.991412e-12
21	0x2d7b3c58	1.4281097e-11
22	0x2cf2e24f	6.903179e-12
23	0x2d1376f4	8.3823955e-12
24	0x2e154922	3.3943633e-11
25	0x2e86580a	6.1092534e-11
26	0x2e060f5e	3.048172e-11
27	0x2e44ad65	4.4719246e-11
28	0x2e12e791	3.340223e-11
29	0x2e936253	6.702252e-11
30	0x2dd1c543	2.3848151e-11
31	0x2e4565cf	4.4883038e-11
32	0x339e9cea	7.385991e-08
33	0x31d337f2	6.1472685e-09
34	0x30990016	1.113224e-09
35	0x33e5a792	1.0694124e-07
36	0x331ced6d	3.6537518e-08
37	0x3147e702	2.9089624e-09
38	0x3070efd2	8.7652297e-10
39	0x336a1d97	5.4509282e-08
40	0x32f12a53	2.807534e-08
41	0x31126e28	2.1308413e-09
42	0x3065dd18	8.362391e-10
43	0x3336c889	4.2557563e-08
44	0x34454b00	1.837434e-07
45	0x3287f2f3	1.5826549e-08
46	0x315065de	3.0325888e-09
47	0x348e3fd8	2.6496014e-07

exp_avg f4 [12]
0	0xb5b1e1fb	-1.3253297e-06
1	0xb519df5a	-5.732196e-07
2	0x3549023a	7.4881575e-07
3	0xb5780a53	-9.2402223e-07
4	0xaaa5835b	-2.9401034e-13
5	0x2a34777e	1.6028669e-13
6	0x2b66eeae	8.204365e-13
7	0xab778ee7	-8.7950345e-13
8	0x38fbf994	0.000120151
9	0xb8a3b7d4	-7.806686e-05
10	0x3851ed7e	5.0050665e-05
11	0xb9443451	-0.00018711506

exp_avg_sq f4 [12]
0	0x2f00f18e	1.172735e-10
1	0x2e14a6b9	3.3799383e-11
2	0x2dd5916e	2.427988e-11
3	0x2e439c29	4.4476565e-11
4	0x18930234	3.8000834e-24
5	0x18a014af	4.1379916e-24
6	0x19a90332	1.7475481e-23
7	0x198b5eca	1.4410548e-23
8	0x3329c89a	3.9530825e-08
9	0x32b24f4e	2.075799e-08
10	0x328b5b06	1.6223122e-08
11	0x33d5b158	9.950844e-08

exp_avg f4 [4, 4]
0	0xb84b43cf	-4.8462123e-05
1	0xb6fd40be	-7.5475245e-06
2	0x3916fb30	0.0001439869
3	0x37a56629	1.9717105e-05
4	0x39506633	0.00019874498
5	0xb6f118f2	-7.1852637e-06
6	0xba1ce856	-0.00059855485
7	0xb8afb2d1	-8.3779574e-05
8	0xba100af6	-0.00054947974
9	0xb8553018	-5.0827948e-05
10	0x3ad54858	0.001627217
11	0x397a0d9d	0.00023846929
12	0x3a182c8d	0.00058049784
13	0x379089a0	1.7230224e-05
14	0xbaddb6c4	-0.001691543
15	0xb96e3ab4	-0.00022719317

exp_avg_sq f4 [4, 4]
0	0x3326052e	3.8654598e-08
1	0x312b67e8	2.494284e-09
2	0x34ab594a	3.1916198e-07
3	0x3131c03d	2.5866165e-09
4	0x35066f20	5.00806e-07
5	0x331dd85e	3.6751196e-08
6	0x367bbe14	3.7512555e-06
7	0x3345fa22	4.609513e-08
8	0x352a63af	6.3474994e-07
9	0x32f70393	2.875621e-08
10	0x36ae85b3	5.2011687e-06
11	0x335e2b27	5.172765e-08
12	0x358f9fba	1.0700817e-06
13	0x3333e311	4.18832e-08
14	0x370f7901	8.551638e-06
15	0x3393c886	6.881696e-08

exp_avg f4 [4]
0	0x387af657	5.9834067e-05
1	0xb97ce9aa	-0.0002411964
2	0x3a2f0ad5	0.00066773343
3	0xba2e18d2	-0.0006641272

exp_avg_sq f4 [4]
0	0x338bc2cd	6.508126e-08
1	0x351bb7e4	5.8009596e-07
2	0x355aa25e	8.1447604e-07
3	0x35a71134	1.2447476e-06

exp_avg f4 [16, 4]
0	0x80000004	-6e-45
1	0x00000004	6e-45
2	0x80000004	-6e-45
3	0x80000004	-6e-45
4	0x36b79a68	5.4718003e-06
5	0xb6126883	-2.181653e-06
6	0x3833bbe0	4.2851898e-05
7	0xb812b54b	-3.4977955e-05
8	0x892328ad	-1.9639537e-33
9	0x897c6a1b	-3.0383287e-33
10	0x094a13f4	2.4324247e-33
11	0x098160ed	3.114677e-33
12	0xba366a64	-0.00069586025
13	0xb7889391	-1.628118e-05
14	0x3960ec12	0.00021450248
15	0x39a93c76	0.0003227924
16	0xba5e3370	-0.0008476293
17	0x36980ba3	4.5313077e-06
18	0x39ad798f	0.000330877
19	0x399df93c	0.00030131068
20	0xbb154441	-0.0022776278
21	0xb7d029a6	-2.4814926e-05
22	0x3a777590	0.00094398204
23	0x3a562d06	0.0008170161
24	0x00000004	6e-45
25	0x80000004	-6e-45
26	0x80000004	-6e-45
27	0x00000004	6e-45
28	0x3b664fda	0.003514281
29	0x3834d712	4.3115644e-05
30	0xbac0b48d	-0.0014702246
31	0xbaa333cd	-0.0012451351
32	0xbaecf548	-0.0018078471
33	0xb72d91fd	-1.0345594e-05
34	0x3a466634	0.000756833
35	0x3a241fe6	0.0006260857
36	0x2e8da903	6.44196e-11
37	0x2e06fd9c	3.0693323e-11
38	0xadfbff14	-2.8648674e-11
39	0xae8e7b09	-6.479268e-11
40	0xb98de72c	-0.00027065852
41	0xb7015d66	-7.710745e-06
42	0x38a9cede	8.09708e-05
43	0x39083493	0.00012989556
44	0x3aba127e	0.0014196185
45	0x3829a6ad	4.044797e-05
46	0xba18e6ae	-0.0005832714
47	0xba0f91ce	-0.00054767437
48	0x3b431797	0.00297687
49	0x383137f8	4.2252213e-05
50	0xbaa49d4b	-0.0012559084
51	0xba8a2cb7	-0.001054189
52	0x3ad1ece9	0.0016016039
53	0x36b829ab	5.488478e-06
54	0xba2ad298	-0.0006516366
55	0xba1291dd	-0.00055911933
56	0x3707cabd	8.093831e-06
57	0x36013bc6	1.925729e-06
58	0xb6a18775	-4.813943e-06
59	0xb6a017ad	-4.771128e-06
60	0x00000004	6e-45
61	0x00000004	6e-45
62	0x00000004	6e-45
63	0x80000004	-6e-45

exp_avg_sq f4 [16, 4]
0	0x2438e0ba	4.008899e-17
1	0x2831255a	9.833573e-15
2	0x27a27f35	4.510195e-15
3	0x27344a88	2.5020422e-15
4	0x36b72f4e	5.459332e-06
5	0x331eb2b3	3.6949768e-08
6	0x35a4e35f	1.2285126e-06
7	0x355b649b	8.173026e-07
8	0x28e44527	2.5343075e-14
9	0x2a032fbc	1.1651698e-13
10	0x29bb52fc	8.318864e-14
11	0x29a34462	7.2505166e-14
12	0x351c7661	5.828679e-07
13	0x30f22486	1.7618198e-09
14	0x3382259d	6.0604386e-08
15	0x34065be1	1.2513148e-07
16	0x371d99aa	9.393707e-06
17	0x33927e17	6.8215904e-08
18	0x361dabfe	2.3494936e-06
19	0x35996176	1.1427753e-06
20	0x37214c11	9.614058e-06
21	0x33045e68	3.0819507e-08
22	0x36487908	2.9872772e-06
23	0x35762289	9.1692397e-07
24	0x21073193	4.580539e-19
25	0x20d63195	3.628582e-19
26	0x21da9136	1.4810692e-18
27	0x1fd441a0	8.989406e-20
28	0x371a4247	9.194547e-06
29	0x3299279d	1.7829558e-08
30	0x35f7ed6b	1.8472032e-06
31	0x358ad5a9	1.0343985e-06
32	0x372b0153	1.0192703e-05
33	0x338db4f3	6.5987386e-08
34	0x362fdae4	2.6204443e-06
35	0x35aaf42c	1.273705e-06
36	0x2dbbeb4d	2.1363933e-11
37	0x2cd6a168	6.1001655e-12
38	0x2d137882	8.382741e-12
39	0x2daff908	2.0005789e-11
40	0x3464eec5	2.1321019e-07
41	0x310b6e8b	2.0289999e-09
42	0x32e5228c	2.6674819e-08
43	0x3366ae22	5.370942e-08
44	0x36361fd2	2.7138635e-06
45	0x32919cb9	1.695149e-08
46	0x352853ba	6.2706715e-07
47	0x34da7c60	4.069616e-07
48	0x37450cd8	1.1745105e-05
49	0x3300b014	2.9962465e-08
50	0x361e3544	2.357484e-06
51	0x35a96a4a	1.2622415e-06
52	0x3717b0bd	9.041451e-06
53	0x335623da	4.9858365e-08
54	0x35f54792	1.8274752e-06
55	0x3593c944	1.101093e-06
56	0x32ae2f48	2.0277767e-08
57	0x3087c111	9.877416e-10
58	0x32988655	1.7756216e-08
59	0x30d0a7b1	1.5181653e-09
60	0x1df4c7a8	6.47927e-21
61	0x1ed4195c	2.2456861e-20
62	0x1f1f7faf	3.3775177e-20
63	0x1e8544b7	1.4110343e-20

exp_avg f4 [16]
0	0x80000004	-6e-45
1	0xb59573cc	-1.1135066e-06
2	0x095ac6dc	2.6334299e-33
3	0x399320bc	0.00028062414
4	0x39ac8587	0.00032905882
5	0x3a6abe05	0.0008954707
6	0x80000004	-6e-45
7	0xbab518f5	-0.0013816642
8	0x3a3a0ede	0.00070975523
9	0xae436f53	-4.4436742e-11
10	0x38e8a899	0.00011094026
11	0xba14a887	-0.00056708645
12	0xba994ab6	-0.0011695239
13	0xba22f7fe	-0.0006216763
14	0xb66fb194	-3.571714e-06
15	0x80000004	-6e-45

exp_avg_sq f4 [16]
0	0x27a8c55a	4.6843336e-15
1	0x358492b3	9.877461e-07
2	0x29a8e494	7.500351e-14
3	0x33d316ba	9.829587e-08
4	0x35df9abc	1.6659828e-06
5	0x35dfd71e	1.6677402e-06
6	0x211d88b8	5.3374615e-19
7	0x35c4664f	1.4632914e-06
8	0x35f39fe4	1.8151445e-06
9	0x2d444f47	1.1158913e-11
10	0x332cddf7	4.0248747e-08
11	0x35025c7b	4.856335e-07
12	0x35fcbc5f	1.8830286e-06
13	0x35cbf407	1.51957e-06
14	0x31c5f771	5.7615854e-09
15	0x1ed8600d	2.2909615e-20

exp_avg f4 [4, 16]
0	0x00000004	6e-45
1	0x398a0c26	0.00026330462
2	0x88a5ba45	-9.974368e-34
3	0xb60993e4	-2.0500675e-06
4	0x3a0406e9	0.000503643
5	0x395dbcf5	0.00021146594
6	0x00000004	6e-45
7	0x39c49744	0.00037496735
8	0x3a263e58	0.00063416874
9	0x2c30ef0a	2.5143798e-12
10	0x34ac0744	3.2042783e-07
11	0x3a01858e	0.00049408607
12	0x3a68f86e	0.00088871166
13	0x38bfdad9	9.148353e-05
14	0x360c4a30	2.0904808e-06
15	0x00000004	6e-45
16	0x80000004	-6e-45
17	0xba8d6a1c	-0.0010789069
18	0x04b61f10	4.281652e-36
19	0xb829390c	-4.034587e-05
20	0xbaf483a5	-0.0018654956
21	0xba5ca546	-0.00084169616
22	0x00000004	6e-45
23	0xbabce2f6	-0.0014410901
24	0xbb176a20	-0.0023104027
25	0x9a605b58	-4.63959e-23
26	0xb7c628b5	-2.3622395e-05
27	0xbaee1388	-0.001816378
28	0xbb6e7db8	-0.0036390852
29	0xb9f7d005	-0.00047266498
30	0xb7174210	-9.015683e-06
31	0x00000004	6e-45
32	0x80000004	-6e-45
33	0x3a8b639c	0.0010634544
34	0x080da686	4.262639e-34
35	0x387d0cc6	6.0331797e-05
36	0x3b050620	0.002029784
37	0x3a71eae6	0.0009228423
38	0x00000004	6e-45
39	0x3abd712f	0.0014453287
40	0x3b21edae	0.0024708319
41	0xac01a58d	-1.8423902e-12
42	0x3850ca77	4.9779625e-05
43	0x3b13a77d	0.002253025
44	0x3b6aca74	0.0035826238
45	0x3a0f8d3d	0.0005476063
46	0x35c354d4	1.455332e-06
47	0x80000004	-6e-45
48	0x80000004	-6e-45
49	0xba663026	-0.00087809784
50	0x8826f51b	-5.024193e-34
51	0xb8afbb28	-8.379511e-05
52	0xbaebb48b	-0.0017982883
53	0xba518818	-0.0007992997
54	0x80000004	-6e-45
55	0xba8a1d00	-0.0010537207
56	0xbb098ee9	-0.0020989722
57	0x964837ab	-1.6173437e-25
58	0xb84bc2ed	-4.858051e-05
59	0xbafb0ccf	-0.0019153598
60	0xbb12f18f	-0.0022421812
61	0xb9fac6d8	-0.00047831866
62	0x38359741	4.329463e-05
63	0x80000004	-6e-45

exp_avg_sq f4 [4, 16]
0	0x2497d86e	6.585246e-17
1	0x348df5bc	2.6442092e-07
2	0x28530a3f	1.1715075e-14
3	0x313da67a	2.759775e-09
4	0x35986dcc	1.1356838e-06
5	0x34bc3cec	3.5062055e-07
6	0x21ce4957	1.3978516e-18
7	0x34c253cc	3.6196286e-07
8	0x35ef4c8d	1.7829167e-06
9	0x2aaa75b4	3.027974e-13
10	0x304d26ab	7.4633516e-10
11	0x3589c6c1	1.026514e-06
12	0x35ede04b	1.7723154e-06
13	0x33816a6f	6.026391e-08
14	0x2f333b09	1.6300929e-10
15	0x209ee404	2.691713e-19
16	0x242fb54c	3.810064e-17
17	0x3663910b	3.3910062e-06
18	0x293f2101	4.2439146e-14
19	0x3285406d	1.5512535e-08
20	0x373b1956	1.1151968e-05
21	0x3623f756	2.4432861e-06
22	0x20272f60	1.4161125e-19
23	0x36a4e1c2	4.9138625e-06
24	0x3789d889	1.6432505e-05
25	0x2b68fbd6	8.277245e-13
26	0x31bdd4fe	5.5248384e-09
27	0x371126f3	8.651742e-06
28	0x37fc7b4d	3.0098157e-05
29	0x3598d462	1.1386694e-06
30	0x30e001f3	1.6298699e-09
31	0x1f7810ec	5.253004e-20
32	0x21204961	5.4307225e-19
33	0x35b4dfc0	1.3476165e-06
34	0x271ed389	2.2041578e-15
35	0x32362f87	1.0604601e-08
36	0x36d469e3	6.330419e-06
37	0x35998636	1.1438449e-06
38	0x20c630cf	3.3574804e-19
39	0x36568c46	3.1970135e-06
40	0x3711f173	8.69889e-06
41	0x2ad0e011	3.71037e-13
42	0x320022e8	7.458517e-09
43	0x36bb2851	5.5777277e-06
44	0x3772f009	1.4480212e-05
45	0x34c40261	3.6509576e-07
46	0x30a1e55d	1.1779481e-09
47	0x2091f257	2.4724323e-19
48	0x22310a73	2.3993505e-18
49	0x3588b9c5	1.0186856e-06
50	0x26a99355	1.1766665e-15
51	0x321fe4e9	9.307066e-09
52	0x369cd478	4.673897e-06
53	0x35925167	1.0901539e-06
54	0x219f7eb1	1.0807794e-18
55	0x360832f9	2.029525e-06
56	0x36f29dd8	7.2305374e-06
57	0x2b6e698a	8.470105e-13
58	0x319908b3	4.453875e-09
59	0x369f7c45	4.753036e-06
60	0x37220027	9.655988e-06
61	0x3468dede	2.1687762e-07
62	0x32575eec	1.253623e-08
63	0x1f682491	4.9158158e-20

exp_avg f4 [4]
0	0x3a4ca533	0.0007806599
1	0xbb3d7248	-0.0028907228
2	0x3b4c2926	0.0031152456
3	0xbb203e7e	-0.002445131

exp_avg_sq f4 [4]
0	0x360c1ce4	2.0878442e-06
1	0x37c7b496	2.380674e-05
2	0x3760c424	1.3397108e-05
3	0x372fdfe4	1.0482941e-05

exp_avg f4 [4]
0	0xb75f72ff	-1.331861e-05
1	0x38b71198	8.729397e-05
2	0x39e1a814	0.00043040572
3	0xba225160	-0.00061919354

exp_avg_sq f4 [4]
0	0x348cd38f	2.623096e-07
1	0x343f6730	1.78258e-07
2	0x353c5bae	7.016887e-07
3	0x35688f34	8.6635123e-07

exp_avg f4 [4]
0	0xb7c14603	-2.3039995e-05
1	0xb97fbb91	-0.00024388569
2	0x3a441f58	0.0007481477
3	0xb9fcd0f8	-0.0004822088

exp_avg_sq f4 [4]
0	0x34752f10	2.2834524e-07
1	0x3509e300	5.1366806e-07
2	0x3555ca4d	7.964307e-07
3	0x35a602cd	1.2368779e-06

exp_avg f4 [4]
0	0xb79ea24c	-1.8910643e-05
1	0xb87bae69	-6.0005495e-05
2	0x3ac4b083	0.0015006218
3	0xba908854	-0.0011026957

exp_avg_sq f4 [4]
0	0x36317393	2.6442328e-06
1	0x3469313f	2.1717732e-07
2	0x368a7ad7	4.127021e-06
3	0x3687e614	4.050098e-06

exp_avg f4 [4]
0	0xb7be7ad1	-2.2706956e-05
1	0xba55a19b	-0.0008149386
2	0x3b07e7da	0.002073756
3	0xba90585a	-0.0011012659

exp_avg_sq f4 [4]
0	0x35b04392	1.3132687e-06
1	0x369a4821	4.5979546e-06
2	0x3695b0c6	4.461125e-06
3	0x372daff2	1.0352569e-05

exp_avg f4 [4]
0	0x3dbdb581	0.09263135
1	0xb746b169	-1.1843026e-05
2	0x3d103ac6	0.0352123
3	0x3d22101e	0.03956615

exp_avg_sq f4 [4]
0	0x3c5c9311	0.013462798
1	0x35b1199c	1.3194981e-06
2	0x3b3971cd	0.002829659
3	0x3b01ef15	0.0019826342

exp_avg f4 [4]
0	0xbd6aa28d	-0.057283927
1	0x3b39282d	0.0028252706
2	0x3d43546e	0.04768794
3	0x3d368f89	0.04457048

exp_avg_sq f4 [4]
0	0x3badbfc3	0.005302401
1	0x380f2e68	3.4137076e-05
2	0x3b6c0c09	0.0036017916
3	0x3b575a22	0.003286012

exp_avg f4 [1, 5]
0	0xbe889296	-0.26674336
1	0x3c0a12ee	0.008427365
2	0x3e0493b7	0.12946974
3	0x3e1808cf	0.1484711
4	0x3d8cc866	0.068741605

exp_avg_sq f4 [1, 5]
0	0x3de797fe	0.11308287
1	0x39d13813	0.00039905365
2	0x3d1a9ad9	0.03774533
3	0x3ce9e6d2	0.028552447
4	0x3c0132d9	0.007885658
