Saved_models/checkpoint_Male.pt (torch, 86874 bytes, 198 tensors)

encoder_input_layer.weight f4 [4, 3]
0	0xbe9d14ce	-0.30679935
1	0xbd34dbce	-0.044154935
2	0xbf551078	-0.83228254
3	0xbe02fc34	-0.1279152
4	0x3d143e44	0.036192194
5	0x3ed9b18e	0.42518276
6	0x3d73330b	0.05937485
7	0x3f0d8cf4	0.552932
8	0x3d25387f	0.040337082
9	0x3f0f7f8f	0.56054014
10	0x3e8c01dd	0.27345172
11	0x3ea4179b	0.3204926

encoder_input_layer.bias f4 [4]
0	0xbf907d23	-1.1288189
1	0xbfc231a4	-1.5171399
2	0x3ed03078	0.4066198
3	0x3ef281f3	0.47364768

decoder_input_layer.weight f4 [4, 1]
0	0x3f157cd2	0.58393586
1	0x3f74889e	0.9552096
2	0xbf20ab86	-0.62761724
3	0x3f0a42ee	0.54008377

decoder_input_layer.bias f4 [4]
0	0x3fa74c5f	1.3070182
1	0x3fa629a1	1.2981454
2	0xbfc4ecf7	-1.5384816
3	0x3ec310d9	0.3809879

positional_encoding_layer_enc.pe f4 [1, 7, 4]
0	0x00000000	0.0
1	0x3f800000	1.0
2	0x00000000	0.0
3	0x3f800000	1.0
4	0x3f576aa4	0.84147096
5	0x3f0a5141	0.54030234
6	0x3c23d657	0.009999833
7	0x3f7ffcb9	0.99995
8	0x3f68c7b7	0.9092974
9	0xbed51133	-0.41614684
10	0x3ca3d43e	0.019998666
11	0x3f7ff2e5	0.9998
12	0x3e1081c3	0.14112
13	0xbf7d7026	-0.9899925
14	0x3cf5b91f	0.0299955
15	0x3f7fe283	0.99955004
16	0xbf41bdcf	-0.7568025
17	0xbf275530	-0.6536436
18	0x3d23cbdb	0.039989334
19	0x3f7fcb94	0.9992001
20	0xbf757c10	-0.9589243
21	0x3e913c2c	0.2836622
22	0x3d4cb6f4	0.049979165
23	0x3f7fae19	0.99875027
24	0xbe8f0f8c	-0.2794155
25	0x3f75cdb8	0.96017027
26	0x3d759cd1	0.059964005
27	0x3f7f8a12	0.99820054

positional_encoding_layer_dec.pe f4 [1, 3, 4]
0	0x00000000	0.0
1	0x3f800000	1.0
2	0x00000000	0.0
3	0x3f800000	1.0
4	0x3f576aa4	0.84147096
5	0x3f0a5141	0.54030234
6	0x3c23d657	0.009999833
7	0x3f7ffcb9	0.99995
8	0x3f68c7b7	0.9092974
9	0xbed51133	-0.41614684
10	0x3ca3d43e	0.019998666
11	0x3f7ff2e5	0.9998

encoder.layers.0.self_attn.in_proj_weight f4 [12, 4]
0	0xbf358780	-0.7090988
1	0x3dc06775	0.09394733
2	0x3e197568	0.14986193
3	0x3e943891	0.28949407
4	0x3eade22a	0.33961612
5	0x3dc29e9a	0.09502907
6	0x3f88ee35	1.0697695
7	0x3f8161db	1.0107988
8	0x3eaf0016	0.34179753
9	0xbe90e1a6	-0.28297156
10	0x3e097aa4	0.1342569
11	0xbfa049cf	-1.2522525
12	0xbe365387	-0.178053
13	0xbf368651	-0.712987
14	0xbe4761d6	-0.19470915
15	0xbf4a8c0a	-0.7911993
16	0xbe881349	-0.26577213
17	0x3eadba36	0.3393113
18	0x3e4142aa	0.18873087
19	0x3f0732ce	0.52811897
20	0x3e025da9	0.12731041
21	0xbcf15891	-0.029461177
22	0x3e6ef34b	0.23334996
23	0x40023160	2.0342636
24	0x3f70aa34	0.9400971
25	0xbe9f6d57	-0.31138107
26	0xbd52e325	-0.051486153
27	0x3e80d039	0.2515886
28	0x3f2ad2c3	0.66727847
29	0x3a544d72	0.00080986985
30	0x3f2eab26	0.682299
31	0x3eeefded	0.46678105
32	0x3f25efdb	0.64819115
33	0xbf515559	-0.81770855
34	0x3c245fd3	0.010032612
35	0xc00f0581	-2.234711
36	0xbf515f07	-0.81785625
37	0x3f522859	0.82092816
38	0x3ee89128	0.45423245
39	0x3e60df39	0.21960153
40	0x3f37e5c5	0.71834975
41	0xbefda1e1	-0.49537566
42	0xbe400497	-0.18751751
43	0xc00b389e	-2.1753306
44	0xbd99251f	-0.074777834
45	0xbe59cdaa	-0.21269861
46	0x3f06144d	0.52374727
47	0x3fe6ed50	1.8041172

encoder.layers.0.self_attn.in_proj_bias f4 [12]
0	0xbf16d813	-0.58923453
1	0xbf5693dc	-0.83819366
2	0x3e24a2cd	0.16077729
3	0xbeaf22cc	-0.34206235
4	0xbc0eea52	-0.0087228585
5	0x3c8fba6d	0.01754495
6	0x3bb07d7d	0.005386053
7	0xbdb6b6d9	-0.08921594
8	0x3d54ebfe	0.051982872
9	0x3cd0b463	0.02547664
10	0x3a977db5	0.0011557849
11	0x3ebd8b37	0.37020275

encoder.layers.0.self_attn.out_proj.weight f4 [4, 4]
0	0x3eb475fd	0.35246268
1	0x3d7953d2	0.060870953
2	0x3f86d86e	1.0534799
3	0xbf38a597	-0.7212767
4	0x3f4d3329	0.8015619
5	0xbf2c06a9	-0.6719766
6	0x3f96419a	1.173877
7	0xbe271cf6	-0.16319641
8	0xbf3056b6	-0.6888231
9	0xbd4ffc7e	-0.050777905
10	0xbf055641	-0.5208474
11	0xbedc096c	-0.42975938
12	0xbf4495ac	-0.7679088
13	0x3ea6350d	0.3246235
14	0xbf1da350	-0.6157732
15	0x3f477469	0.77912

encoder.layers.0.self_attn.out_proj.bias f4 [4]
0	0xbf0ac469	-0.5420595
1	0x3ecfc650	0.40580988
2	0xbf4c1e12	-0.79733384
3	0x3eb3e653	0.3513666

encoder.layers.0.linear1.weight f4 [4, 4]
0	0xbd82d75b	-0.06388732
1	0xbe04dbaf	-0.12974428
2	0xbb84885e	-0.0040445765
3	0xbe3a3f28	-0.18188155
4	0xbecba410	-0.39773607
5	0xbeb782ca	-0.35841972
6	0x3ea05309	0.3131335
7	0xbe4bb0ab	-0.19891612
8	0x3da1156b	0.07865413
9	0xbc761991	-0.015020744
10	0x3e99bfb7	0.3002908
11	0xbe00ae38	-0.12566459
12	0xbe8d25eb	-0.27567992
13	0xbe7cd483	-0.24690442
14	0xbe997b9e	-0.29977125
15	0xbe28ecc5	-0.1649657

encoder.layers.0.linear1.bias f4 [4]
0	0xbf28978c	-0.6585624
1	0xbef77855	-0.48333994
2	0xbf574955	-0.8409627
3	0xbe3f9313	-0.18708448

encoder.layers.0.linear2.weight f4 [4, 4]
0	0xbdef0b36	-0.1167206
1	0x3ee221f2	0.44166523
2	0x3e847174	0.25867808
3	0xbe9b3a14	-0.30317748
4	0xbe1ff811	-0.15621974
5	0xbbce1db6	-0.006290163
6	0x3de34fe0	0.11099219
7	0xbe60d104	-0.21954733
8	0xbdb4781b	-0.08811971
9	0xbd9f9d5e	-0.07793687
10	0xbe77524d	-0.24152489
11	0xbcaa98c4	-0.020824797
12	0xbe8d2369	-0.27566078
13	0x3df0931b	0.11746808
14	0xbd6874ab	-0.05675189
15	0xbd8e824e	-0.069584474

encoder.layers.0.linear2.bias f4 [4]
0	0xbec29851	-0.38006833
1	0x3e6097f1	0.21932961
2	0xbd29255b	-0.04129539
3	0x3eb38971	0.35065797

encoder.layers.0.norm1.weight f4 [4]
0	0x3f67188f	0.9027185
1	0x3fb86d14	1.4408288
2	0x3f843ef6	1.0331714
3	0x400083d2	2.0080457

encoder.layers.0.norm1.bias f4 [4]
0	0xbebfcf3e	-0.374628
1	0x3ec155ee	0.37760872
2	0x3e4bc308	0.19898617
3	0x3e22bdad	0.15892668

encoder.layers.0.norm2.weight f4 [4]
0	0x3f64ec07	0.8942265
1	0x3fad06e1	1.3517724
2	0x3f5cbab0	0.8622236
3	0x3fd71990	1.6804676

encoder.layers.0.norm2.bias f4 [4]
0	0xbec8f163	-0.39246663
1	0x3f12db80	0.5736618
2	0xbe6cada8	-0.2311312
3	0xbcae16ce	-0.021251108

encoder.layers.1.self_attn.in_proj_weight f4 [12, 4]
0	0xbf923d8b	-1.1425031
1	0x3d1042f9	0.03522012
2	0x3dfae4cd	0.122506715
3	0x3f6374e4	0.88850236
4	0xbf710b41	-0.941578
5	0x3f2b422c	0.66897845
6	0xbe9489d2	-0.290114
7	0x3f3fab01	0.74870306
8	0xbf269046	-0.65063894
9	0x3e952505	0.29129806
10	0x3ed6bc6a	0.41940624
11	0x3e6b89cc	0.23001784
12	0x3eff615c	0.49878967
13	0xbf60ad6a	-0.8776461
14	0x3ddd59d6	0.108081505
15	0xbee37724	-0.44426835
16	0x3ed39039	0.4132097
17	0x3f6a0689	0.9141622
18	0xbf2d334f	-0.67656416
19	0xbe999aae	-0.30000824
20	0x3e9489c0	0.29011345
21	0x3f1b1771	0.60582644
22	0x3ed6c7c4	0.41949284
23	0xbf13b6bd	-0.5770071
24	0x3f173a29	0.5907312
25	0x3f0e4cb4	0.5558579
26	0xbf65a335	-0.8970216
27	0xbe73ecc3	-0.23820786
28	0x3e8db68b	0.27678332
29	0x3ea92332	0.33034664
30	0x3e212f3c	0.15740675
31	0x3f7f172b	0.99644727
32	0xbd1459d2	-0.03621847
33	0x3d82b9d6	0.06383102
34	0xbf7b7998	-0.9823241
35	0xbf27744c	-0.6541183
36	0xbf385d40	-0.7201729
37	0x3fbcc79b	1.4748415
38	0xbdaa1391	-0.08304513
39	0xbf90a84d	-1.1301361
40	0x3edfb852	0.43695313
41	0x3f0a7f82	0.5410081
42	0xbf236f4d	-0.63841707
43	0xbfa17f4a	-1.261697
44	0x3eac0b34	0.33602297
45	0xbec3a01f	-0.382081
46	0x3f15c5b1	0.5850478
47	0x3f04adbc	0.518276

encoder.layers.1.self_attn.in_proj_bias f4 [12]
0	0xbdaebda6	-0.08532266
1	0x3e8597ac	0.2609228
2	0xbf134349	-0.57524544
3	0x3e2081fc	0.15674585
4	0x3cb3c299	0.021943377
5	0xbc66249d	-0.014046815
6	0x3c421e7b	0.011848087
7	0xbd83b4d7	-0.06430977
8	0x3da5393e	0.08067559
9	0x3f1cba01	0.6122132
10	0x3ea67cb8	0.32517028
11	0xbd1f8c37	-0.03895208

encoder.layers.1.self_attn.out_proj.weight f4 [4, 4]
0	0x3d8ac44c	0.06775722
1	0x3dfa18c7	0.12211757
2	0x3f77d519	0.96809536
3	0xbf37747d	-0.7166212
4	0xbe46428e	-0.19361326
5	0xbed1c18d	-0.4096798
6	0xbdd42c0a	-0.10359962
7	0x3ed75b66	0.4206192
8	0xbf8e7cdc	-1.1131854
9	0xbfa2be28	-1.2714281
10	0xbfcfcefe	-1.6235044
11	0x3f889030	1.0669003
12	0x3dae5d3c	0.08513877
13	0x3f1fd23a	0.62430155
14	0x3e8c183d	0.27362242
15	0xbce34426	-0.027742457

encoder.layers.1.self_attn.out_proj.bias f4 [4]
0	0x3c54ead7	0.012995443
1	0x3d6b5030	0.05744952
2	0xbec8bf9a	-0.3920868
3	0x3f11efbf	0.5700645

encoder.layers.1.linear1.weight f4 [4, 4]
0	0xbda8eaf3	-0.08247938
1	0x3c9eb589	0.019373672
2	0xbdd32c8b	-0.1031123
3	0xbe284d6b	-0.16435783
4	0xbdeed692	-0.1166202
5	0xbd985580	-0.07438183
6	0xbdf53053	-0.11972108
7	0xbd7ef8b3	-0.062248897
8	0xbf1d3dcb	-0.61422414
9	0x3f5204be	0.82038486
10	0x3eaa68d6	0.33283108
11	0x3eebb1b2	0.46034008
12	0xbece1847	-0.40252897
13	0xbea64178	-0.32471824
14	0xbec313d5	-0.38101068
15	0xbebe3bea	-0.37155086

encoder.layers.1.linear1.bias f4 [4]
0	0xbef23e56	-0.47313184
1	0xbe6081f3	-0.21924572
2	0xbe6ae3e0	-0.2293849
3	0xbe6af4a4	-0.22944885

encoder.layers.1.linear2.weight f4 [4, 4]
0	0xbe4b4d66	-0.19853744
1	0x3da9adab	0.08285078
2	0x3ed81656	0.4220454
3	0xbe2fd804	-0.17172247
4	0xbe640628	-0.22267973
5	0x3e013623	0.12618308
6	0x3e6539d8	0.22385347
7	0x3c8f6d47	0.017508162
8	0x3e0498f5	0.12948973
9	0x3e23a5e3	0.1598125
10	0xbf7a039f	-0.97661775
11	0x3db2ef72	0.08737077
12	0xbea8958d	-0.32926598
13	0x3dab52ec	0.083654255
14	0x3f23302d	0.63745385
15	0xbe43ddaf	-0.19127534

encoder.layers.1.linear2.bias f4 [4]
0	0xbf203699	-0.6258331
1	0xbd639f17	-0.05557164
2	0xbee13dab	-0.4399236
3	0x3f60bdf5	0.8778985

encoder.layers.1.norm1.weight f4 [4]
0	0x3f9df69d	1.2340885
1	0x3fa37fa1	1.2773324
2	0x3fb3b88c	1.4040694
3	0x3fabd0fb	1.3423151

encoder.layers.1.norm1.bias f4 [4]
0	0xbec81b27	-0.39083216
1	0xbd4de077	-0.050262894
2	0x3d495133	0.049149703
3	0x3f4d9721	0.8030873

encoder.layers.1.norm2.weight f4 [4]
0	0x3e5c8006	0.21533212
1	0x3e3f7a63	0.1869903
2	0xbdd2b911	-0.10289205
3	0x3e95c27b	0.2924994

encoder.layers.1.norm2.bias f4 [4]
0	0x3d7e3dad	0.062070537
1	0xbd5db7f3	-0.054130506
2	0xb98ba1c4	-0.0002663267
3	0xbe420170	-0.18945861

decoder.layers.0.self_attn.in_proj_weight f4 [12, 4]
0	0x3f449179	0.76784474
1	0x3f8d27ec	1.1027808
2	0x40941001	4.6269536
3	0xc03dd2c2	-2.9659886
4	0xbedd4bb3	-0.43221816
5	0xbfa07d7e	-1.2538297
6	0xc05b8b5d	-3.430381
7	0x3f6eb71a	0.9324814
8	0xbf0edd1c	-0.55806136
9	0x3d3a059e	0.045415513
10	0xbf133ad1	-0.5751162
11	0xbf9f310e	-1.2436845
12	0xbf05dbf8	-0.5228877
13	0x3ea38688	0.31938577
14	0xbf51f4d8	-0.82014227
15	0xbf46f67e	-0.7771987
16	0xbfa9ced8	-1.3266249
17	0xc0354311	-2.8322184
18	0x400cf2bb	2.202315
19	0xbe61cc01	-0.22050478
20	0x3fd520f4	1.6650681
21	0x3fcab52b	1.5836538
22	0xbfff9126	-1.9966171
23	0x3f35fdfd	0.7109068
24	0x3f3b3430	0.73126507
25	0xbe92fa67	-0.28706667
26	0x3e11e3a2	0.14246991
27	0xbf094b44	-0.5363047
28	0x3f39852e	0.7246884
29	0xbe30de9e	-0.17272422
30	0xbdaae172	-0.083437815
31	0x3dc21cbc	0.09478137
32	0xbd7cf262	-0.06175459
33	0xbf9d63fc	-1.2296138
34	0x3ed8e075	0.42358747
35	0xbf38a1ae	-0.72121704
36	0xbfa1b7e2	-1.2634242
37	0xbf028025	-0.50976783
38	0x3fc0b3d8	1.5054884
39	0xbf9f0845	-1.2424399
40	0xbf276126	-0.6538261
41	0xbeefec2a	-0.46859866
42	0x3e95c856	0.29254407
43	0xbf86cba2	-1.0530894
44	0x3f8bdc3c	1.0926585
45	0x3f57ed28	0.84346247
46	0xbfd1c7ca	-1.6389096
47	0x3fba8a6c	1.4573493

decoder.layers.0.self_attn.in_proj_bias f4 [12]
0	0x3ec028ea	0.37531215
1	0xbf2d8e6e	-0.67795455
2	0xbf831595	-1.0240961
3	0xbf7e4427	-0.9932274
4	0x3c99e6c4	0.018786795
5	0xbdc268d3	-0.0949265
6	0x3d084228	0.033266217
7	0x3da74f82	0.08169462
8	0xbf460c5d	-0.77362615
9	0xbd493e2b	-0.049131554
10	0xbd006129	-0.03134266
11	0xbec50cd3	-0.38486347

decoder.layers.0.self_attn.out_proj.weight f4 [4, 4]
0	0xc004eaa0	-2.0768204
1	0xbd2285f0	-0.039678514
2	0x3b8c4f86	0.004281941
3	0xbc12ee25	-0.008967911
4	0x3ec322e2	0.3811255
5	0xbedc81ca	-0.4306777
6	0x3c85e1a4	0.016342945
7	0x3ff234f2	1.8922408
8	0x3e8f5476	0.27994126
9	0x3e8646c3	0.26225862
10	0x3e34ef23	0.17669348
11	0xbedbb8b2	-0.4291435
12	0xc001e5ee	-2.0296588
13	0xbedaebfc	-0.42758167
14	0xbef29da2	-0.4738589
15	0xbe807981	-0.250927

decoder.layers.0.self_attn.out_proj.bias f4 [4]
0	0x3edcfe45	0.43162742
1	0xbe03f000	-0.12884521
2	0x3c86c4a6	0.016451191
3	0x3e6cb385	0.23115356

decoder.layers.0.multihead_attn.in_proj_weight f4 [12, 4]
0	0xbf475aa6	-0.77872694
1	0x3fbece6b	1.4906744
2	0x3f0862e5	0.532759
3	0xbf5241de	-0.82131755
4	0xbfa4f2a3	-1.2886547
5	0x3f4a9bd9	0.79144055
6	0x3ec1faed	0.37886754
7	0xbf795f61	-0.9741116
8	0xbfc46287	-1.5342568
9	0x3f7d6793	0.98986167
10	0x3f69c705	0.91319305
11	0xbf2a7761	-0.6658841
12	0xbf05932d	-0.521777
13	0x3f93f3fe	1.1558836
14	0x3f54ccd6	0.83125055
15	0xbf91cd1e	-1.1390722
16	0x3fc77298	1.5581846
17	0xbf83fa9f	-1.0310858
18	0x3e152b92	0.14567402
19	0xbdd46130	-0.103700995
20	0x3fb3944f	1.4029635
21	0xbe7ed5da	-0.24886265
22	0x3ea1fe2b	0.31639227
23	0xbda22faa	-0.079192474
24	0x3fae7a87	1.3631142
25	0xbf6a2534	-0.9146302
26	0x3f5550fd	0.83326703
27	0xbf31330c	-0.69218516
28	0x3f9274c0	1.1441879
29	0xbf006b17	-0.50163406
30	0x3e21e666	0.15810546
31	0xbe7c3aab	-0.24631755
32	0x3d723bf3	0.059139203
33	0xbdbad8d9	-0.09123392
34	0xbde4b472	-0.1116723
35	0xbd39a44c	-0.0453227
36	0x3cabd290	0.020974427
37	0xbde8245e	-0.113350615
38	0x3db9acc5	0.09066156
39	0x3d3fbc33	0.04681034
40	0xbd23e55c	-0.040013656
41	0x3d6c188e	0.057640605
42	0xbd74f345	-0.059802312
43	0x3c8b5474	0.017008044
44	0x3e3408f4	0.1758154
45	0xbd054aee	-0.03254216
46	0x3de1afea	0.11019881
47	0x3e0960c0	0.13415813

decoder.layers.0.multihead_attn.in_proj_bias f4 [12]
0	0xbf08017b	-0.5312726
1	0xbf0a0a65	-0.5392211
2	0xbf8e031d	-1.10947
3	0xbed8225b	-0.4221371
4	0x3dacbe0f	0.08434688
5	0x3cb61e34	0.022231199
6	0x3ca8196e	0.020519938
7	0x3d0345f6	0.03204914
8	0x3b0dcdff	0.0021637676
9	0x3da9c47a	0.08289428
10	0xbc0c2c0a	-0.008555422
11	0x3d7e8e4f	0.062147435

decoder.layers.0.multihead_attn.out_proj.weight f4 [4, 4]
0	0xbde14715	-0.10999886
1	0x3e1887dd	0.14895578
2	0x3cebe74d	0.028796816
3	0x3dcea6ab	0.10090383
4	0xbcb2b3d8	-0.021814272
5	0x3c19cf2f	0.009387775
6	0x3d1c5f9c	0.038177118
7	0xbd0fe107	-0.035126712
8	0x3d1f3c06	0.038875602
9	0x3ddeb20e	0.10873805
10	0xba5f6592	-0.000852191
11	0x3da84be7	0.08217602
12	0x3e346c43	0.17619424
13	0x3df3ca09	0.119037695
14	0xbd902af1	-0.070394404
15	0x3e06ac57	0.1315168

decoder.layers.0.multihead_attn.out_proj.bias f4 [4]
0	0xbd8a595a	-0.06755324
1	0x3d126ddf	0.035749312
2	0x3c86e472	0.016466353
3	0xbb62b0c3	-0.0034590221

decoder.layers.0.linear1.weight f4 [4, 4]
0	0x3d5de273	0.054171037
1	0x4011a0ab	2.2754314
2	0xbe96b19c	-0.2943238
3	0x3eb51a4a	0.3537162
4	0xbeb03a53	-0.34419498
5	0x400c72c9	2.194506
6	0xbf25f146	-0.6482128
7	0x3c2281f2	0.009918677
8	0x3cdc3d2e	0.026884641
9	0xbdc89432	-0.09793891
10	0xbc5ab672	-0.013349162
11	0x3946cd9b	0.00018959345
12	0xbfa50e38	-1.2894964
13	0xbf196f42	-0.5993539
14	0xbeb046ea	-0.34429103
15	0x3f651228	0.8948083

decoder.layers.0.linear1.bias f4 [4]
0	0xbebe656f	-0.37186763
1	0x3e953dcf	0.2914872
2	0xbee5bc51	-0.44870237
3	0xbe89ecde	-0.26938528

decoder.layers.0.linear2.weight f4 [4, 4]
0	0xbf1e2726	-0.61778486
1	0xbeda6987	-0.42658636
2	0xbd89e53a	-0.067331746
3	0x3f821d98	1.0165281
4	0x3f502d8c	0.813195
5	0x3f3f1018	0.7463393
6	0x3da3c553	0.07996621
7	0xbf1bd3f4	-0.6087029
8	0x3e734e89	0.23760428
9	0xbf16f1bc	-0.5896261
10	0xbd9c9dd6	-0.07647292
11	0xbef0fb37	-0.47066662
12	0xbec76154	-0.38941443
13	0xbe86c778	-0.26324058
14	0xbe1d235a	-0.15345517
15	0x3f292ac8	0.66080904

decoder.layers.0.linear2.bias f4 [4]
0	0xbc8739df	-0.016507087
1	0x3daacf67	0.0834034
2	0xbc10b1b6	-0.008831432
3	0xbc3a668a	-0.011376986

decoder.layers.0.norm1.weight f4 [4]
0	0x3fb4905e	1.4106557
1	0x3fd9ff9f	1.7031134
2	0x4017823e	2.3673244
3	0x3fafd71a	1.3737519

decoder.layers.0.norm1.bias f4 [4]
0	0x3da16dc8	0.07882267
1	0x3d14cb21	0.03632653
2	0xbe0bcc91	-0.13652255
3	0xbe0c11e7	-0.13678704

decoder.layers.0.norm2.weight f4 [4]
0	0x3fcda7e8	1.6066866
1	0x3fb9e331	1.4522458
2	0x3fd94cb2	1.697653
3	0x3fb225b2	1.3917754

decoder.layers.0.norm2.bias f4 [4]
0	0xbda90c88	-0.08254343
1	0x3e73d9c7	0.23813544
2	0xbd05c007	-0.032653835
3	0xbee3cdf1	-0.44493058

decoder.layers.0.norm3.weight f4 [4]
0	0x3f947b1a	1.1600068
1	0x3fc59653	1.54365
2	0x3fb0ce81	1.381302
3	0x3fa97854	1.3239846

decoder.layers.0.norm3.bias f4 [4]
0	0xbeb238a7	-0.34808847
1	0x3ecffcfa	0.40622693
2	0xbe5a12a8	-0.2129618
3	0xbe64b84e	-0.22335932

decoder.layers.1.self_attn.in_proj_weight f4 [12, 4]
0	0x3e8696d1	0.2628694
1	0x3eab4e72	0.33458287
2	0x3d5b3bd9	0.053523872
3	0xbfd77615	-1.6832911
4	0x3ecce04e	0.4001488
5	0xbf0d34f4	-0.55158925
6	0x3ebc47a3	0.36773404
7	0xbeef3de1	-0.46726897
8	0xbd916a81	-0.07100392
9	0xbd477723	-0.048697602
10	0xbf16d12c	-0.5891292
11	0xbfe56efb	-1.7924494
12	0x3eb3dbdd	0.3512868
13	0xbea3bab9	-0.31978396
14	0xbf9b4bc3	-1.2132496
15	0xbcf83f7f	-0.030303715
16	0xbeb0aa19	-0.34504774
17	0xbf77abc8	-0.9674649
18	0x3f15968a	0.5843283
19	0x3f29c95f	0.6632289
20	0xbecc7470	-0.39932585
21	0x3f155b9a	0.583429
22	0xbeeb9bfc	-0.46017444
23	0x3f7ecf7e	0.9953536
24	0xbf8688fd	-1.0510556
25	0xbf156c8f	-0.5836877
26	0x3f0d8973	0.55287856
27	0x3eca02c1	0.39455226
28	0xbfb7855b	-1.4337572
29	0x3f32f02b	0.6989772
30	0x3f08cabc	0.5343435
31	0xbe4979c0	-0.1967535
32	0x3e13b043	0.14422707
33	0x3d832c5e	0.06404947
34	0x3d8eeba3	0.06978538
35	0x3ceb3688	0.028712526
36	0xbf4d91b4	-0.8030045
37	0x3f0098a2	0.502329
38	0x3f65043f	0.89459604
39	0xbec17210	-0.37782335
40	0x3d40dcf6	0.047085725
41	0xbf2e4978	-0.68080854
42	0xbf0bd23b	-0.5461766
43	0x3de94be5	0.11391429
44	0xbf1a0732	-0.6016723
45	0x3f2cd96c	0.6751926
46	0xbebebacc	-0.3725189
47	0xbe8d2aa5	-0.27571598

decoder.layers.1.self_attn.in_proj_bias f4 [12]
0	0xbe8dba7c	-0.2768134
1	0x3eca6035	0.39526525
2	0x3ed2fe5f	0.41209695
3	0x3fcca955	1.5989176
4	0x3d71c6fe	0.059027664
5	0xbd895f57	-0.06707638
6	0x3d35437c	0.04425381
7	0xbd3aca23	-0.04560293
8	0xbbd392f0	-0.0064567253
9	0x3e3d366c	0.18477792
10	0xbef87934	-0.4852997
11	0x3eadd6c9	0.3395293

decoder.layers.1.self_attn.out_proj.weight f4 [4, 4]
0	0x3e0802f7	0.13282381
1	0xbf63aa83	-0.88932055
2	0x3f3ffd8f	0.74996275
3	0xbe0e5659	-0.13900127
4	0x3da0d067	0.078522496
5	0x3e5cd6b7	0.21566282
6	0x3e407a73	0.1879671
7	0x3f63b25e	0.8894404
8	0x3dd41d2f	0.10357129
9	0x3ee3dcfa	0.4450453
10	0x3ec37766	0.3817703
11	0xbeba281b	-0.36358723
12	0x3c1ac44d	0.009446216
13	0xbf6b5cba	-0.91938365
14	0x3f3b6970	0.7320776
15	0xbe42b875	-0.19015677

decoder.layers.1.self_attn.out_proj.bias f4 [4]
0	0xbcd51796	-0.026012223
1	0x3d13c109	0.036072765
2	0xbc9ae4e3	-0.01890797
3	0x3e167211	0.1469195

decoder.layers.1.multihead_attn.in_proj_weight f4 [12, 4]
0	0x3c9944e9	0.018709617
1	0x3f5afb92	0.85540116
2	0x3eeac2e9	0.4585183
3	0xbd938e96	-0.072049305
4	0xbed6d3aa	-0.41958362
5	0x3e2668fe	0.16250989
6	0xbd94b681	-0.07261372
7	0xbe94ea59	-0.29085043
8	0x3dde0e12	0.108425274
9	0x3ca594c4	0.020212539
10	0x3d848e62	0.0647247
11	0xbc9ff7df	-0.019527374
12	0x3ed64284	0.41847622
13	0x3f1c8566	0.6114105
14	0x3ef2644b	0.47342142
15	0xbf149a62	-0.5804807
16	0x3f435bd1	0.76311976
17	0xbe43a934	-0.19107515
18	0xbed1fce2	-0.41013247
19	0xbeb2f634	-0.34953463
20	0x3dd450a8	0.103669465
21	0x3ea1d40b	0.31607088
22	0xbe595d52	-0.21227005
23	0xbda7fdd3	-0.0820271
24	0x3d3c6b2b	0.04600064
25	0xbec37628	-0.38176084
26	0x3e10ea0e	0.14151785
27	0xbe11e49a	-0.14247361
28	0x3ec81db2	0.39085156
29	0xbe295100	-0.16534805
30	0xbee1c78b	-0.44097552
31	0xbe700a93	-0.23441534
32	0xbe1b40a8	-0.15161383
33	0x3d036285	0.032076377
34	0xbd7571cb	-0.059922975
35	0xbd50b86e	-0.050957136
36	0xbc724366	-0.014786577
37	0xbd7bc058	-0.06146273
38	0xbd9ba4f9	-0.075998254
39	0xbdd37ae5	-0.10326175
40	0x3e316d6d	0.17326899
41	0x3dccbdfd	0.09997175
42	0x3d3f667a	0.04672859
43	0x3dbacee4	0.091214925
44	0x3b93c8b4	0.0045100097
45	0x3da40342	0.08008434
46	0xbc716951	-0.014734582
47	0xbdee3a3e	-0.116322026

decoder.layers.1.multihead_attn.in_proj_bias f4 [12]
0	0x3e19da19	0.15024604
1	0x3ea74f49	0.32677677
2	0x3e64d271	0.22345902
3	0x3ed20ced	0.41025487
4	0x3c30dd26	0.010794913
5	0x3beb2751	0.0071763177
6	0x3b2b0268	0.0026093964
7	0xbbe29240	-0.006914407
8	0x3c0bea0a	0.008539686
9	0xbbd7fbda	-0.0065913023
10	0x3d28c7a8	0.041206032
11	0xbc0977d5	-0.008390387

decoder.layers.1.multihead_attn.out_proj.weight f4 [4, 4]
0	0xbe100253	-0.14063387
1	0x3e3a9b97	0.18223415
2	0xbe13411a	-0.14380303
3	0x3ca958e4	0.02067227
4	0x3cdf1182	0.027230028
5	0x3d7a8f70	0.06117195
6	0xbde99449	-0.11405236
7	0x3cbdb180	0.023155928
8	0x3d717f85	0.058959503
9	0x3dc6c621	0.09705759
10	0xbe4b2191	-0.19837023
11	0x3dab8405	0.0837479
12	0x3e62eb16	0.2215999
13	0xbc64ffa7	-0.013976968
14	0xbe427e8c	-0.18993586
15	0x3d909214	0.07059112

decoder.layers.1.multihead_attn.out_proj.bias f4 [4]
0	0x3e3c7d6d	0.18407221
1	0xbdf6755c	-0.12034103
2	0xbe2bd701	-0.16781236
3	0x3ea9d944	0.33173573

decoder.layers.1.linear1.weight f4 [4, 4]
0	0x3da842e8	0.08215886
1	0x3d75c637	0.060003486
2	0xbca028c1	-0.019550683
3	0x3c49572c	0.01228885
4	0xbf4dee93	-0.8044216
5	0xbca74a11	-0.02042106
6	0x3d35a017	0.044342127
7	0xbf1f7e5d	-0.6230219
8	0xbcafce7d	-0.021460766
9	0xbc9f2635	-0.019427398
10	0xbd7c6271	-0.06161732
11	0x3d9890fe	0.0744953
12	0xbf6fe748	-0.9371228
13	0xbe503529	-0.20332779
14	0x3efb704c	0.49109113
15	0xbe4225ee	-0.18959782

decoder.layers.1.linear1.bias f4 [4]
0	0xbe79ca02	-0.24393466
1	0x3f73a766	0.95177305
2	0xbf1bead2	-0.6090518
3	0x3e6ed5cf	0.23323749

decoder.layers.1.linear2.weight f4 [4, 4]
0	0x3db3107e	0.0874338
1	0x3f016870	0.50549984
2	0x3e3d9d65	0.18517072
3	0xbd37a485	-0.044834632
4	0x3e269744	0.16268641
5	0xbfa356ed	-1.2760903
6	0x3d94b725	0.072614945
7	0xbff6b527	-1.9274033
8	0x3e48835a	0.19581357
9	0xbf114ce7	-0.5675797
10	0x3d0750b0	0.033035934
11	0x3e3b1485	0.18269546
12	0xbd652a3b	-0.055948477
13	0x3b50f6da	0.0031885416
14	0x3dc8ba5f	0.098011725
15	0xbe21441d	-0.1574864

decoder.layers.1.linear2.bias f4 [4]
0	0x3e675e6d	0.22594614
1	0xbd9ce882	-0.07661535
2	0xbd80d059	-0.06289739
3	0x3ecadf73	0.39623603

decoder.layers.1.norm1.weight f4 [4]
0	0x3f7f28bf	0.9967155
1	0x3fe9700b	1.8237318
2	0x4000fdc1	2.015488
3	0x3f7ce940	0.9879341

decoder.layers.1.norm1.bias f4 [4]
0	0x3f361507	0.71125835
1	0xbf046f67	-0.51732486
2	0xbf027160	-0.50954247
3	0x3f040423	0.5156881

decoder.layers.1.norm2.weight f4 [4]
0	0x3f86e4a2	1.0538523
1	0x3fbbf00f	1.4682635
2	0x3fd1064c	1.6330047
3	0x3f64d63c	0.89389396

decoder.layers.1.norm2.bias f4 [4]
0	0x3f494ea8	0.78635645
1	0xbf88e635	-1.0695254
2	0xbed1e603	-0.40995798
3	0x3f2c0bdc	0.67205596

decoder.layers.1.norm3.weight f4 [4]
0	0x3d3ee580	0.046605587
1	0x3cac288d	0.02101543
2	0x3f8ac271	1.0840589
3	0x3e43cd6b	0.1912133

decoder.layers.1.norm3.bias f4 [4]
0	0xbb9d7a66	-0.004805851
1	0x3b5a2b15	0.003328984
2	0xbdd79363	-0.10526159
3	0xbd247b89	-0.040156875

linear_mapping.weight f4 [1, 4]
0	0x3c35d9ae	0.011099262
1	0x3b3cfc06	0.002883674
2	0xbf1b99db	-0.6078164
3	0x3d43caa6	0.047800682

linear_mapping_with_gender_ind.weight f4 [1, 5]
0	0xbe271822	-0.163178
1	0x3e2dd3f4	0.16975385
2	0x3e987cda	0.29782754
3	0xbe6f1e1b	-0.23351328
4	0x3b9084c0	0.0044103563

exp_avg f4 [4, 3]
0	0xb42d7362	-1.6153857e-07
1	0xb41dc7c3	-1.4694437e-07
2	0xb40d9ffd	-1.3189852e-07
3	0x34b4c204	3.3668778e-07
4	0x34b32a10	3.3371953e-07
5	0x34b1518b	3.302815e-07
6	0xb45b004e	-2.0396075e-07
7	0xb45e23da	-2.0688404e-07
8	0xb45b7ec8	-2.0442087e-07
9	0x3434dc0e	1.6843862e-07
10	0x3422ac58	1.5150124e-07
11	0x34067260	1.2521332e-07

exp_avg_sq f4 [4, 3]
0	0x2b8cb236	9.997062e-13
1	0x2b8bd4cf	9.93561e-13
2	0x2b8d3fb7	1.0036337e-12
3	0x2db1d346	2.0216395e-11
4	0x2dafe0d8	1.9995047e-11
5	0x2db3430f	2.0379724e-11
6	0x2c19572e	2.1791002e-12
7	0x2c16acaa	2.141213e-12
8	0x2c18f603	2.1737063e-12
9	0x2ce28ec5	6.439157e-12
10	0x2cdc44b3	6.2604032e-12
11	0x2ce04ba1	6.3748594e-12

exp_avg f4 [4]
0	0x335c58f6	5.130365e-08
1	0xb3e20a05	-1.05257676e-07
2	0x3385abf5	6.224574e-08
3	0xb3425cb2	-4.525345e-08

exp_avg_sq f4 [4]
0	0x2a9e7404	2.814694e-13
1	0x2c9dc1af	4.4837116e-12
2	0x2b322e38	6.3302445e-13
3	0x2c061085	1.9051716e-12

exp_avg f4 [4, 1]
0	0x3ca57e9a	0.02020197
1	0x3d35df6a	0.044402517
2	0xbd042e67	-0.032270815
3	0x3ce0c318	0.027436778

exp_avg_sq f4 [4, 1]
0	0x3c1aaf3f	0.009441196
1	0x3cac69f7	0.021046622
2	0x3d0c6a49	0.03428105
3	0x3cdf8b42	0.027288083

exp_avg f4 [4]
0	0xbc0c5d50	-0.008567169
1	0xbc94c37a	-0.018159617
2	0x3c6d1b38	0.0144718215
3	0xbc48a6be	-0.012246786

exp_avg_sq f4 [4]
0	0x3ad3c95d	0.0016158033
1	0x3b54bf5e	0.0032462697
2	0x3bc325e0	0.005955443
3	0x3b8c0e18	0.004274141

exp_avg f4 [12, 4]
0	0xb32a0ab9	-3.959096e-08
1	0x3003d0e8	4.7954396e-10
2	0x32386348	1.07327836e-08
3	0x32c426de	2.2835078e-08
4	0xb123b8f0	-2.3824747e-09
5	0x32582e2f	1.2583356e-08
6	0x30384550	6.703731e-10
7	0xae098c80	-3.1274983e-11
8	0x339f5564	7.419547e-08
9	0x3214b38c	8.655558e-09
10	0xb2e0c72e	-2.6167609e-08
11	0xb3466fbb	-4.6202086e-08
12	0x32e9b34b	2.7206303e-08
13	0x31f066b4	6.9965953e-09
14	0xb24b9258	-1.184943e-08
15	0xb2b89b60	-2.1491076e-08
16	0xb3862702	-6.246957e-08
17	0x3360ffcf	5.238672e-08
18	0x32bda8b6	2.2079217e-08
19	0x313188db	2.5834683e-09
20	0xb34ffa13	-4.8423384e-08
21	0x32707fe4	1.3998918e-08
22	0x328270e0	1.5185321e-08
23	0x30bf516e	1.3920223e-09
24	0x338dd890	6.6052166e-08
25	0xb359dbef	-5.0724278e-08
26	0xb29f9a57	-1.8580222e-08
27	0xb1327a6b	-2.5971996e-09
28	0x3294c5ea	1.7319469e-08
29	0xb1a95ce8	-4.9291096e-09
30	0xb1ee9bb5	-6.9444135e-09
31	0xb0fc5526	-1.8359614e-09
32	0xb3b57718	-8.450132e-08
33	0x33ae60ac	8.120091e-08
34	0x3314cc4d	3.4644746e-08
35	0x335f9afd	5.2062195e-08
36	0xb14e9f20	-3.0067397e-09
37	0x32431802	1.1355953e-08
38	0x310d3b70	2.0551987e-09
39	0xb1091868	-1.9949997e-09
40	0xb26392cc	-1.3246517e-08
41	0x3282551a	1.5172692e-08
42	0x314da803	2.992693e-09
43	0x3201c654	7.553883e-09
44	0xb3e688db	-1.07351035e-07
45	0x33efaaa8	1.1160347e-07
46	0x33496395	4.688953e-08
47	0x33a0ed20	7.4937134e-08

exp_avg_sq f4 [12, 4]
0	0x29b8d6b1	8.2084845e-14
1	0x2ade3374	3.9470825e-13
2	0x292ac6d5	3.7920042e-14
3	0x29d81534	9.596005e-14
4	0x2922a0dc	3.611075e-14
5	0x29a79214	7.44163e-14
6	0x27c0d639	5.3522966e-15
7	0x28511cd4	1.1608082e-14
8	0x2af3848b	4.3257441e-13
9	0x2ba5b6b0	1.1774661e-12
10	0x29d2aa78	9.355445e-14
11	0x2ab72f41	3.254012e-13
12	0x2ada17c5	3.8741073e-13
13	0x2b8c45b1	9.966942e-13
14	0x298f5c2c	6.366465e-14
15	0x2a418d1d	1.7190802e-13
16	0x2b9898cf	1.0842662e-12
17	0x2c0af48a	1.9746726e-12
18	0x2ad0e929	3.711001e-13
19	0x27b3e400	4.992968e-15
20	0x2b4de8a1	7.315347e-13
21	0x2c30cd70	2.5125145e-12
22	0x2ac7396c	3.5389346e-13
23	0x26cce9b2	1.4218687e-15
24	0x2bc62821	1.4079884e-12
25	0x2c4777c0	2.8346075e-12
26	0x2af7b539	4.4001762e-13
27	0x2797ce1f	4.2134396e-15
28	0x2b5d22ae	7.85631e-13
29	0x2c219583	2.2962472e-12
30	0x2acf800d	3.685944e-13
31	0x270f24a8	1.9865108e-15
32	0x299de360	7.011644e-14
33	0x298f94cf	6.37629e-14
34	0x286a7daf	1.3016863e-14
35	0x28a03319	1.7785728e-14
36	0x2932184b	3.954501e-14
37	0x29379963	4.0767204e-14
38	0x27fca96d	7.0127742e-15
39	0x27f70966	6.856646e-15
40	0x2a22b5ab	1.4451519e-13
41	0x299ce5a4	6.967628e-14
42	0x28f05c4c	2.668538e-14
43	0x292a8220	3.7860448e-14
44	0x2b1fdc15	5.679357e-13
45	0x2b1856cc	5.4121703e-13
46	0x29d00d4d	9.239363e-14
47	0x29fc00ca	1.1191185e-13

exp_avg f4 [12]
0	0xb1a47103	-4.785876e-09
1	0xb16f6972	-3.4839016e-09
2	0x31fdcafc	7.3863458e-09
3	0x312283b0	2.3648958e-09
4	0x27f1b958	6.7091887e-15
5	0x2864029a	1.2657107e-14
6	0x26b901a0	1.2837394e-15
7	0x28502cb1	1.155601e-14
8	0xb2c63598	-2.3074605e-08
9	0xb18ebd7c	-4.154286e-09
10	0xb08b8dbe	-1.0153867e-09
11	0xb2fec692	-2.9659791e-08

exp_avg_sq f4 [12]
0	0x29549701	4.720443e-14
1	0x28122b51	8.114021e-15
2	0x2a2afe83	1.5187335e-13
3	0x29d71315	9.551228e-14
4	0x1614980a	1.200332e-25
5	0x1617a091	1.2248349e-25
6	0x16117a2a	1.1751555e-25
7	0x14d0952a	2.1061468e-26
8	0x2829e6da	9.4314425e-15
9	0x27ad1ff5	4.8051794e-15
10	0x286007bf	1.24361775e-14
11	0x298e492a	6.318759e-14

exp_avg f4 [4, 4]
0	0x344b05e3	1.890799e-07
1	0xb3fdb732	-1.18145536e-07
2	0x344078d7	1.7925355e-07
3	0xb3bbc1c1	-8.74311e-08
4	0xb2847b50	-1.5422899e-08
5	0xb1857830	-3.884473e-09
6	0xb293be08	-1.7199469e-08
7	0x32afe392	2.0476168e-08
8	0x34e846f4	4.3264993e-07
9	0xb4a0159c	-2.9818045e-07
10	0x34d61de6	3.988236e-07
11	0xb43059b2	-1.6423908e-07
12	0x31173b60	2.2007143e-09
13	0xb2274a00	-9.737505e-09
14	0x316330c0	3.3060559e-09
15	0x318ced98	4.1015475e-09

exp_avg_sq f4 [4, 4]
0	0x2bb53299	1.2874867e-12
1	0x2b4780c2	7.087769e-13
2	0x2b9d116a	1.1160354e-12
3	0x2a260e97	1.4748824e-13
4	0x2b4c080d	7.248653e-13
5	0x2aea93e7	4.1669378e-13
6	0x2b2bfb13	6.109984e-13
7	0x299a3c8d	6.849478e-14
8	0x2c082853	1.9349147e-12
9	0x2ba6e418	1.1858318e-12
10	0x2be1bb4a	1.6039195e-12
11	0x2a100148	1.2790214e-13
12	0x2be311df	1.613428e-12
13	0x2b8aa67a	9.851696e-13
14	0x2bbd9a57	1.3472096e-12
15	0x29cdd304	9.140434e-14

exp_avg f4 [4]
0	0x331b4654	3.6152713e-08
1	0xb34f6c2a	-4.8294318e-08
2	0x3395a5ab	6.968488e-08
3	0x31b30f64	5.2113354e-09

exp_avg_sq f4 [4]
0	0x29acc1b1	7.6719345e-14
1	0x2ada4ae6	3.877655e-13
2	0x2a324937	1.5834977e-13
3	0x2aaa9ab8	3.0305424e-13

exp_avg f4 [4, 4]
0	0x00000004	6e-45
1	0x80000004	-6e-45
2	0x00000004	6e-45
3	0x80000004	-6e-45
4	0x0d4437b4	6.0464213e-31
5	0x8ee79b2a	-5.7095314e-30
6	0x0e55f67a	2.6372951e-30
7	0x0e5f3e9c	2.7517017e-30
8	0x00000004	6e-45
9	0x00000004	6e-45
10	0x00000004	6e-45
11	0x80000004	-6e-45
12	0x00000004	6e-45
13	0x00000004	6e-45
14	0x80000004	-6e-45
15	0x80000004	-6e-45

exp_avg_sq f4 [4, 4]
0	0x03c3f65c	1.1517631e-36
1	0x03850ad9	7.819528e-37
2	0x038222f7	7.648741e-37
3	0x04855ff0	3.1356254e-36
4	0x223f2196	2.5903107e-18
5	0x202caccc	1.462614e-19
6	0x21ac61fa	1.1681108e-18
7	0x23f4d618	2.6545205e-17
8	0x00000350	1.188e-42
9	0x00000794	2.719e-42
10	0x00000098	2.13e-43
11	0x00001f5e	1.1252e-41
12	0x1363d66d	2.8757148e-27
13	0x13ea213a	5.910267e-27
14	0x13547324	2.681493e-27
15	0x145a2de5	1.10152385e-26

exp_avg f4 [4]
0	0x00000004	6e-45
1	0x0e62cd14	2.7955392e-30
2	0x00000004	6e-45
3	0x00000004	6e-45

exp_avg_sq f4 [4]
0	0x039481b7	8.728439e-37
1	0x228e89e9	3.8635195e-18
2	0x00000481	1.616e-42
3	0x138cab96	3.5510165e-27

exp_avg f4 [4, 4]
0	0x80000004	-6e-45
1	0x0d8744bf	8.336567e-31
2	0x00000004	6e-45
3	0x80000004	-6e-45
4	0x80000004	-6e-45
5	0x0c01b628	9.992614e-32
6	0x80000004	-6e-45
7	0x00000004	6e-45
8	0x00000004	6e-45
9	0x8e44081f	-2.4162775e-30
10	0x00000004	6e-45
11	0x80000004	-6e-45
12	0x00000004	6e-45
13	0x0df08dd1	1.4825283e-30
14	0x80000004	-6e-45
15	0x00000004	6e-45

exp_avg_sq f4 [4, 4]
0	0x017bb9b7	4.6234663e-38
1	0x1ed985a6	2.3031044e-20
2	0x000000c1	2.7e-43
3	0x0cda4805	3.3631563e-31
4	0x00a87ed6	1.5473864e-38
5	0x1eeef74a	2.5301507e-20
6	0x000000e3	3.18e-43
7	0x00000019	3.5e-44
8	0x01b18c98	6.5221273e-38
9	0x1d01e6ef	1.7192398e-21
10	0x0000001d	4e-44
11	0x0d2e35c9	5.368263e-31
12	0x004ce3fe	7.061286e-39
13	0x1c4d869a	6.800278e-22
14	0x00000019	3.5e-44
15	0x0d5b77fe	6.762902e-31

exp_avg f4 [4]
0	0x3537df32	6.8497604e-07
1	0xb55030da	-7.7557127e-07
2	0x34b252be	3.3215287e-07
3	0x33a78e74	7.8024556e-08

exp_avg_sq f4 [4]
0	0x2cc3850b	5.557004e-12
1	0x2d73b6f3	1.3853574e-11
2	0x2d7aca0a	1.4255716e-11
3	0x2ce4190f	6.482932e-12

exp_avg f4 [4]
0	0x3576e85e	9.198028e-07
1	0xb3b32180	-8.341431e-08
2	0xb46312df	-2.1147888e-07
3	0x344ae45c	1.8895793e-07

exp_avg_sq f4 [4]
0	0x2cd80591	6.1397072e-12
1	0x2cab2a30	4.864796e-12
2	0x2bcbdcaf	1.448527e-12
3	0x2c7ffa9e	3.63768e-12

exp_avg f4 [4]
0	0x352d593f	6.457739e-07
1	0xb53c15ee	-7.006737e-07
2	0x3481de9b	2.419009e-07
3	0xb448ca7e	-1.8700118e-07

exp_avg_sq f4 [4]
0	0x2cb1b8da	5.051165e-12
1	0x2d461864	1.1260413e-11
2	0x2d490e0f	1.1428649e-11
3	0x2c94425d	4.213781e-12

exp_avg f4 [4]
0	0x34504d20	1.9399567e-07
1	0xb4adc738	-3.2368712e-07
2	0x327c4852	1.4684774e-08
3	0x34b75db8	3.4154596e-07

exp_avg_sq f4 [4]
0	0x2bc61c66	1.4076628e-12
1	0x2d1aaaed	8.79184e-12
2	0x2adf2274	3.9636664e-13
3	0x2d4883b9	1.1397932e-11

exp_avg f4 [4]
0	0x35129342	5.4603527e-07
1	0xb5016cce	-4.8214577e-07
2	0xb3f08f96	-1.1201989e-07
3	0xb46da6bc	-2.2133003e-07

exp_avg_sq f4 [4]
0	0x2cdcba4b	6.2734587e-12
1	0x2c93cc24	4.2006554e-12
2	0x2c59cc30	3.0950902e-12
3	0x2d0d8574	8.044555e-12

exp_avg f4 [12, 4]
0	0xb22dd852	-1.0119111e-08
1	0xb3204a12	-3.732027e-08
2	0x3231436e	1.0318088e-08
3	0x335045d7	4.8492293e-08
4	0x324dba38	1.1974912e-08
5	0xb3724634	-5.6408865e-08
6	0x32dfd3eb	2.6056986e-08
7	0x318c1e68	4.077993e-09
8	0xb26b67e2	-1.37024205e-08
9	0x33f951f6	1.1609875e-07
10	0xb3066df7	-3.129932e-08
11	0xb3b1c164	-8.277382e-08
12	0xb28f6222	-1.6692017e-08
13	0xb3bcc010	-8.789368e-08
14	0x32254840	9.620692e-09
15	0x3417ad42	1.4126002e-07
16	0xb47e61f0	-2.3691223e-07
17	0x346e1662	2.217362e-07
18	0x32a79917	1.9510976e-08
19	0x340d49d8	1.3158513e-07
20	0x334b71cf	4.736813e-08
21	0xb2daed0c	-2.5486337e-08
22	0xb37454a2	-5.688765e-08
23	0x33630f74	5.286661e-08
24	0xb39a454a	-7.1837874e-08
25	0x3392a922	6.82942e-08
26	0x31affe44	5.122077e-09
27	0x332b5358	3.988984e-08
28	0xb407ea61	-1.2658121e-07
29	0x33db013e	1.0198208e-07
30	0x338012a1	5.963853e-08
31	0xb1943480	-4.3133355e-09
32	0x333b0b9b	4.3549885e-08
33	0xb4d26ea6	-3.9196055e-07
34	0x337c6290	5.8762964e-08
35	0x34c72314	3.709216e-07
36	0xb30921a0	-3.192838e-08
37	0xb4175251	-1.4092917e-07
38	0x328ecf86	1.6625346e-08
39	0x347d6974	2.3600825e-07
40	0xb38cc586	-6.555187e-08
41	0x353e77b0	7.0954684e-07
42	0xb3e03a39	-1.04414035e-07
43	0xb5420185	-7.2272843e-07
44	0x33dd4b3d	1.03048e-07
45	0xb530d0f4	-6.5869176e-07
46	0x33af8d78	8.1748055e-08
47	0x3527cdbb	6.2511725e-07

exp_avg_sq f4 [12, 4]
0	0x29c11852	8.5751407e-14
1	0x2b20ae0c	5.708496e-13
2	0x29ac95ce	7.6643214e-14
3	0x2b2be5df	6.1070414e-13
4	0x294f7a47	4.6069292e-14
5	0x2b91c9f8	1.0358927e-12
6	0x29d1696a	9.299751e-14
7	0x2b2062b2	5.6980386e-13
8	0x28abaa70	1.905873e-14
9	0x2a4c75b3	1.8159675e-13
10	0x28ee87ee	2.6482258e-14
11	0x29ecd788	1.0517894e-13
12	0x29479b0c	4.4321358e-14
13	0x2b60ceb1	7.986763e-13
14	0x298199c1	5.755423e-14
15	0x2afb3637	4.4624176e-13
16	0x2b0fd25d	5.1095743e-13
17	0x2bdd197d	1.5710069e-12
18	0x299c4407	6.9395925e-14
19	0x2abd72c4	3.365278e-13
20	0x2a845c54	2.3511976e-13
21	0x2b219b18	5.7413926e-13
22	0x2a110438	1.2880051e-13
23	0x2ab7affd	3.2629447e-13
24	0x29f2d5f1	1.0784072e-13
25	0x2ae770d3	4.111213e-13
26	0x281c2593	8.667887e-15
27	0x29661206	5.1085892e-14
28	0x2a92cd5b	2.6077304e-13
29	0x2b24426c	5.8356683e-13
30	0x2a272241	1.4844464e-13
31	0x2b017143	4.598719e-13
32	0x296db3f9	5.2780673e-14
33	0x2b82ed6e	9.302956e-13
34	0x2988d6da	6.076884e-14
35	0x2b254fd3	5.8730554e-13
36	0x2a31a355	1.5777425e-13
37	0x2ccd3eb3	5.8334114e-12
38	0x2ad3b40a	3.7606057e-13
39	0x2c438acd	2.7788217e-12
40	0x2abd24fc	3.3598807e-13
41	0x2d40ea1d	1.096592e-11
42	0x2b12fbd7	5.221912e-13
43	0x2cc374d4	5.555204e-12
44	0x2b28515c	5.97985e-13
45	0x2df7e0ef	2.818054e-11
46	0x2bc7d03b	1.4197596e-12
47	0x2d87afed	1.542585e-11

exp_avg f4 [12]
0	0xb256aec2	-1.2496175e-08
1	0xb298b48e	-1.7777236e-08
2	0x33571a9a	5.0082782e-08
3	0xb334ed78	-4.2125492e-08
4	0x2921fb31	3.5967055e-14
5	0x289b80a4	1.7264246e-14
6	0x27353a3e	2.515037e-15
7	0xa8c36958	-2.1695035e-14
8	0xb42afb74	-1.5923962e-07
9	0xb3a815b4	-7.8270574e-08
10	0x34a881a4	3.1386764e-07
11	0xb494d85d	-2.7724573e-07

exp_avg_sq f4 [12]
0	0x2a57a2c4	1.9152307e-13
1	0x2a4e75f0	1.8337393e-13
2	0x2940bd77	4.27969e-14
3	0x2a1213fa	1.2974336e-13
4	0x161923af	1.2370501e-25
5	0x1666fb4c	1.8658547e-25
6	0x147eaf6f	1.2858321e-26
7	0x16b0cefc	2.856496e-25
8	0x2a60206b	1.9906444e-13
9	0x2b7f069e	9.060338e-13
10	0x2be31de0	1.6137612e-12
11	0x2c95534e	4.2440834e-12

exp_avg f4 [4, 4]
0	0x35ad1712	1.2896219e-06
1	0x3693fe3e	4.410539e-06
2	0x36472c66	2.9679154e-06
3	0xb5d3cf60	-1.5781079e-06
4	0xb3cb7210	-9.473672e-08
5	0xb557920c	-8.030627e-07
6	0xb4b57120	-3.3796186e-07
7	0x34a3a3ac	3.0480203e-07
8	0x34f2ba8b	4.521174e-07
9	0x35d9f6a1	1.6239538e-06
10	0x358b7e76	1.0393112e-06
11	0xb51b53a3	-5.7863707e-07
12	0x347bc09a	2.3446265e-07
13	0x357312c2	9.055185e-07
14	0x3503fd77	4.917014e-07
15	0xb4aa37bc	-3.170552e-07

exp_avg_sq f4 [4, 4]
0	0x2de2e61a	2.5795411e-11
1	0x2f9ae0b6	2.8172104e-10
2	0x2ef88be7	1.1302586e-10
3	0x2e1266ca	3.328785e-11
4	0x2e553284	4.847546e-11
5	0x3008671b	4.9623033e-10
6	0x2f5b51d9	1.9947012e-10
7	0x2e795d5c	5.6698965e-11
8	0x2c6f26ee	3.3985553e-12
9	0x2e1c20ec	3.5499534e-11
10	0x2d831566	1.4902479e-11
11	0x2c975876	4.3014993e-12
12	0x2d03c972	7.491218e-12
13	0x2eae98cb	7.9397454e-11
14	0x2e0326a0	2.9820257e-11
15	0x2d1e9588	9.014463e-12

exp_avg f4 [4]
0	0x35169bce	5.610608e-07
1	0xb3681080	-5.4031716e-08
2	0x345ff7d8	2.0858658e-07
3	0x346fe1ee	2.2340802e-07

exp_avg_sq f4 [4]
0	0x2cef224a	6.7965954e-12
1	0x2d5c7269	1.2530956e-11
2	0x2b68a490	8.2651334e-13
3	0x2c66578b	3.2733562e-12

exp_avg f4 [4, 4]
0	0x0000129a	6.673e-42
1	0x00002471	1.3073e-41
2	0x80004c0f	-2.7285e-41
3	0x00000dc1	4.934e-42
4	0x00000004	6e-45
5	0x00000004	6e-45
6	0x80000004	-6e-45
7	0x80000004	-6e-45
8	0xb4ae26c4	-3.243823e-07
9	0xb4995d70	-2.8566456e-07
10	0x356597a5	8.552982e-07
11	0xb46d9520	-2.2126596e-07
12	0x80000004	-6e-45
13	0x00000004	6e-45
14	0x80000004	-6e-45
15	0x00000004	6e-45

exp_avg_sq f4 [4, 4]
0	0x1f178f5a	3.209407e-20
1	0x205d8e67	1.8766545e-19
2	0x213fb67f	6.495485e-19
3	0x1ed01554	2.2031678e-20
4	0x0056d1ce	7.973116e-39
5	0x00ee1eb1	2.1867858e-38
6	0x00481ef9	6.623267e-39
7	0x006ab16c	9.79821e-39
8	0x2ac26cae	3.4536734e-13
9	0x2bba1f7a	1.3224831e-12
10	0x2dad490e	1.9700266e-11
11	0x2d7987c6	1.4184159e-11
12	0x17fc3d5f	1.6300611e-24
13	0x199b02b8	1.6027722e-23
14	0x1a8cf4bd	5.829804e-23
15	0x1997ff26	1.5716088e-23

exp_avg f4 [4]
0	0x00001d14	1.0431e-41
1	0x00000004	6e-45
2	0xb445d762	-1.842541e-07
3	0x00000004	6e-45

exp_avg_sq f4 [4]
0	0x1fef2a45	1.01290366e-19
1	0x005ae741	8.348153e-39
2	0x2c7c31b3	3.5838942e-12
3	0x1953977b	1.09390356e-23

exp_avg f4 [4, 4]
0	0x80000052	-1.15e-43
1	0x00000004	6e-45
2	0x32a858f2	1.9598222e-08
3	0x80000004	-6e-45
4	0x000003cc	1.362e-42
5	0x80000004	-6e-45
6	0xb5687ded	-8.660998e-07
7	0x00000004	6e-45
8	0x00000095	2.09e-43
9	0x00000004	6e-45
10	0xb418af3e	-1.4219856e-07
11	0x00000004	6e-45
12	0x800004c3	-1.708e-42
13	0x80000004	-6e-45
14	0x34d46ff9	3.9569548e-07
15	0x80000004	-6e-45

exp_avg_sq f4 [4, 4]
0	0x1b8f1c81	2.3675786e-22
1	0x00007557	4.2094e-41
2	0x2b3ae420	6.639706e-13
3	0x1882474d	3.3676208e-24
4	0x1d11218a	1.920793e-21
5	0x00002221	1.2243e-41
6	0x2c30be32	2.5116684e-12
7	0x17eb1bb7	1.5193515e-24
8	0x1ac9ddeb	8.349018e-23
9	0x0000311d	1.7619e-41
10	0x29e999e8	1.0373977e-13
11	0x174197a8	6.255308e-25
12	0x1d12f5b0	1.9449957e-21
13	0x00009001	5.1659e-41
14	0x2b05928c	4.7454467e-13
15	0x16ad7ef4	2.8029776e-25

exp_avg f4 [4]
0	0x36f041ae	7.1602035e-06
1	0xb6d4bd64	-6.3401403e-06
2	0xb53dcad0	-7.070312e-07
3	0x34935f02	2.745001e-07

exp_avg_sq f4 [4]
0	0x3034bf6c	6.5755645e-10
1	0x30894a4c	9.989178e-10
2	0x2d55cf99	1.2153744e-11
3	0x2e180ef0	3.4574066e-11

exp_avg f4 [4]
0	0x36b56c6e	5.4068432e-06
1	0xb5979406	-1.1293457e-06
2	0x34ab47d2	3.1903488e-07
3	0xb3d7bb20	-1.00457555e-07

exp_avg_sq f4 [4]
0	0x2ff37a6b	4.4288426e-10
1	0x2e2fd5bd	3.998023e-11
2	0x2e00c1bb	2.9275898e-11
3	0x2da6f005	1.8978605e-11

exp_avg f4 [4]
0	0x36caa8cc	6.0397197e-06
1	0xb6b58cb4	-5.4106004e-06
2	0xb4b037f7	-3.2823274e-07
3	0xb501845c	-4.8248853e-07

exp_avg_sq f4 [4]
0	0x301f65d2	5.798856e-10
1	0x30671211	8.4062984e-10
2	0x2d4dbf9b	1.1695446e-11
3	0x2e31a6e2	4.0393362e-11

exp_avg f4 [4]
0	0xb691f0e4	-4.34938e-06
1	0xb63d6bd3	-2.8225957e-06
2	0xb8715170	-5.7534722e-05
3	0x3822ed1a	3.8844628e-05

exp_avg_sq f4 [4]
0	0x307b96ec	9.152774e-10
1	0x317573c5	3.5718e-09
2	0x33f6ee3a	1.1498601e-07
3	0x33c9743a	9.3809334e-08

exp_avg f4 [4]
0	0x38875b70	6.454333e-05
1	0xb83834e2	-4.391827e-05
2	0x38293916	4.0345905e-05
3	0x37d96d7e	2.5919402e-05

exp_avg_sq f4 [4]
0	0x33bd1bf2	8.8060816e-08
1	0x338763ce	6.304582e-08
2	0x3378e58f	5.7950782e-08
3	0x335d150e	5.147472e-08

exp_avg f4 [12, 4]
0	0x3828cb40	4.0243613e-05
1	0x38785668	5.920828e-05
2	0xb8e6487b	-0.00010980755
3	0x37e72784	2.7555747e-05
4	0xb983e873	-0.00025159455
5	0x393f90f9	0.00018269186
6	0x38abceb8	8.19242e-05
7	0xb882abfe	-6.230919e-05
8	0xb954c507	-0.00020291294
9	0x393ca296	0.00017989645
10	0x3779b280	1.4883117e-05
11	0xb830f7fa	-4.2192616e-05
12	0xb94f53f0	-0.00019772328
13	0x3942ae28	0.0001856616
14	0x376e92cc	1.4220084e-05
15	0xb82ba8ac	-4.0926665e-05
16	0x396e8fbd	0.00022750995
17	0x38c1876c	9.2281814e-05
18	0xb6857b1a	-3.97804e-06
19	0xb72ef5c8	-1.0428434e-05
20	0xb8f40c02	-0.00011637063
21	0xb8d1d3de	-0.0001000536
22	0x3680942b	3.8319463e-06
23	0x3706ddbe	8.038651e-06
24	0x39f2d1f7	0.00046314273
25	0xb99ec28a	-0.0003028105
26	0xb7837b6f	-1.5673895e-05
27	0x383f37af	4.5589808e-05
28	0x39f9249a	0.0004752025
29	0xb9ac069f	-0.0003281133
30	0xb78e7a38	-1.6984632e-05
31	0x38610814	5.3651704e-05
32	0x3a1579bc	0.0005702039
33	0xba01b708	-0.0004948233
34	0xbaaed6bc	-0.0013339142
35	0x3aaa47cf	0.0012991371
36	0x38edec0c	0.00011345008
37	0xba13e2fa	-0.0005641427
38	0x3784f8f0	1.5851547e-05
39	0x38cce7f4	9.770683e-05
40	0x38b12dbe	8.448538e-05
41	0xb987c61c	-0.0002589681
42	0xb8dfe748	-0.00010676548
43	0x391aae7c	0.00014751585
44	0xb8dec2d3	-0.00010622074
45	0x3ab447d0	0.0013754312
46	0xba1eb966	-0.0006054848
47	0x398f4c11	0.0002733176

exp_avg_sq f4 [12, 4]
0	0x35c14c3f	1.4401811e-06
1	0x37111f45	8.649954e-06
2	0x34591180	2.0216066e-07
3	0x3395470e	6.951278e-08
4	0x36861142	3.9955203e-06
5	0x3648727f	2.9868968e-06
6	0x342c5790	1.6050603e-07
7	0x348c9667	2.6186464e-07
8	0x3635615f	2.702778e-06
9	0x36146f09	2.211835e-06
10	0x340fe17e	1.3399946e-07
11	0x3447008c	1.8533518e-07
12	0x3626be78	2.4846795e-06
13	0x35f37b70	1.8140836e-06
14	0x33fd5a7c	1.17976896e-07
15	0x3437ac66	1.7105921e-07
16	0x36c4a7e7	5.8608016e-06
17	0x35dc06bc	1.6393237e-06
18	0x33071a90	3.1456295e-08
19	0x33411f2e	4.4964672e-08
20	0x360e169a	2.1172805e-06
21	0x35247d61	6.127721e-07
22	0x31b41a27	5.2416627e-09
23	0x31ebbf79	6.861168e-09
24	0x3741baa9	1.1547157e-05
25	0x365fbabb	3.333828e-06
26	0x32cb128d	2.3640746e-08
27	0x33a30a62	7.5921676e-08
28	0x373ab238	1.1127959e-05
29	0x3691221b	4.325307e-06
30	0x32d02683	2.42319e-08
31	0x33856468	6.211559e-08
32	0x38699a4a	5.569522e-05
33	0x3923917e	0.00015599091
34	0x3843a54a	4.664556e-05
35	0x3795c6f1	1.7854823e-05
36	0x36418cd0	2.8841205e-06
37	0x36b86b43	5.496114e-06
38	0x35f2d387	1.8091968e-06
39	0x35c2abd5	1.4504136e-06
40	0x35b2e9ce	1.333008e-06
41	0x365e6e93	3.314494e-06
42	0x35700e4d	8.942778e-07
43	0x34c5d008	3.6845472e-07
44	0x378d51d1	1.6846609e-05
45	0x37e33633	2.7085747e-05
46	0x3733bf56	1.071378e-05
47	0x3783faf6	1.573328e-05

exp_avg f4 [12]
0	0xb94c8d0c	-0.000195075
1	0xb91b5c6f	-0.00014816386
2	0xb96d6ee6	-0.00022643394
3	0xb96cc148	-0.00022578717
4	0x2eabc9c4	7.8120205e-11
5	0xacb82e88	-5.2347605e-12
6	0x2e23ae60	3.7216785e-11
7	0xadc9c90c	-2.2940337e-11
8	0x3b98bb3d	0.0046609924
9	0x3b083339	0.0020782484
10	0x3a8d044f	0.001075873
11	0xbb8c09c2	-0.004273624

exp_avg_sq f4 [12]
0	0x366c6d58	3.5230387e-06
1	0x367ed79d	3.7974453e-06
2	0x362aac51	2.5432275e-06
3	0x361a350a	2.297866e-06
4	0x202dd47a	1.4723973e-19
5	0x1e154eca	7.9042875e-21
6	0x1fc6e8ab	8.424118e-20
7	0x1fbb8f04	7.943418e-20
8	0x3a95b006	0.0011420257
9	0x38ad9e6c	8.278791e-05
10	0x37fbb250	3.0004565e-05
11	0x3a0ae932	0.0005299031

exp_avg f4 [4, 4]
0	0x3a943a20	0.0011308827
1	0x3aa09ffa	0.0012254708
2	0x3a12118d	0.0005572073
3	0xba63df70	-0.00086926576
4	0x39ec1bbc	0.0004503409
5	0xba7e4226	-0.0009699188
6	0xba08d67c	-0.0005219949
7	0x3b01f6f5	0.0019831036
8	0xba931424	-0.0011221212
9	0xba416a70	-0.0007378226
10	0xb9505f70	-0.00019871979
11	0xba32bc30	-0.0006818203
12	0x3a7774c2	0.00094397005
13	0x3a02e4cc	0.00049932
14	0x395711d0	0.00020510633
15	0x372bf680	1.0249787e-05

exp_avg_sq f4 [4, 4]
0	0x373f66d7	1.1408431e-05
1	0x3845f0ab	4.71926e-05
2	0x3757152c	1.2819928e-05
3	0x39063a53	0.00012800963
4	0x3902f657	0.00012489535
5	0x383c5e34	4.4910426e-05
6	0x37940950	1.7647311e-05
7	0x37c9064d	2.3964001e-05
8	0x38fb0d52	0.00011971094
9	0x3902c4a0	0.00012471015
10	0x381a49f3	3.678533e-05
11	0x39a4367c	0.00031321112
12	0x36df6601	6.6577927e-06
13	0x37e1f304	2.6935253e-05
14	0x36f9c0df	7.4432314e-06
15	0x38a5ad56	7.9000994e-05

exp_avg f4 [4]
0	0xbadd4199	-0.0016880512
1	0x38099dc0	3.281026e-05
2	0x3ac5e0b6	0.0015096876
3	0xbad80591	-0.0016481151

exp_avg_sq f4 [4]
0	0x39042622	0.00012602707
1	0x39bee665	0.0003641128
2	0x3a22a5d5	0.00062045205
3	0x38e45aed	0.000108888235

exp_avg f4 [12, 4]
0	0xb3debd9d	-1.0372171e-07
1	0x348bd14c	2.604305e-07
2	0xb3f0bc8e	-1.1210169e-07
3	0xb3078b20	-3.155867e-08
4	0xb391ae6f	-6.783818e-08
5	0x3447fe87	1.8625916e-07
6	0xb3c4e4e9	-9.1686e-08
7	0xb2c27418	-2.2637366e-08
8	0xb3c3e5fe	-9.1222304e-08
9	0x348188e7	2.4127732e-07
10	0xb3ebddcd	-1.09833856e-07
11	0xb3052a14	-3.1004745e-08
12	0xb38f9274	-6.685596e-08
13	0x343b03be	1.7417094e-07
14	0xb3a7fc92	-7.822486e-08
15	0xb2bc3aa7	-2.1912753e-08
16	0x346116f4	2.0963108e-07
17	0xb4288676	-1.5695136e-07
18	0x322d6c44	1.0094542e-08
19	0xb27b31ad	-1.4621418e-08
20	0x342dbada	1.6179857e-07
21	0xb409f703	-1.2848982e-07
22	0x318a46ac	4.024363e-09
23	0xb2446d58	-1.1433563e-08
24	0x3444dbf4	1.8333941e-07
25	0xb42b331b	-1.5944208e-07
26	0xb0fb67d0	-1.8292159e-09
27	0xb23eb0a4	-1.1099619e-08
28	0x3419b252	1.4314108e-07
29	0xb3f98022	-1.1618273e-07
30	0x309cdc00	1.1413022e-09
31	0xb27301f2	-1.4144904e-08
32	0x361335de	2.1936062e-06
33	0xb5c16ea2	-1.4411819e-06
34	0x375e0e1c	1.3235516e-05
35	0x37a3f81c	1.954665e-05
36	0x36822538	3.8786347e-06
37	0xb64aa590	-3.0196716e-06
38	0x37a978c2	2.0202602e-05
39	0x38033c47	3.128897e-05
40	0xb6e78e57	-6.900907e-06
41	0x36cbb7f6	6.0712873e-06
42	0xb7bc88eb	-2.2475104e-05
43	0xb80ff328	-3.4320314e-05
44	0x36d6be68	6.399863e-06
45	0xb6b1eb4a	-5.3024023e-06
46	0x37f55998	2.9247996e-05
47	0x383e378d	4.5351266e-05

exp_avg_sq f4 [12, 4]
0	0x2a0d7559	1.2564029e-13
1	0x2a84de79	2.3602282e-13
2	0x2aae8f23	3.100793e-13
3	0x29013806	2.8692347e-14
4	0x290fa384	3.1894206e-14
5	0x29e0dd04	9.9859384e-14
6	0x29e09dd9	9.9749805e-14
7	0x281dc1da	8.757286e-15
8	0x29956f2f	6.6362165e-14
9	0x2a4cb23d	1.8180679e-13
10	0x2a510298	1.8563829e-13
11	0x2891ca25	1.61859e-14
12	0x291f4374	3.53636e-14
13	0x29cac5cf	9.0049164e-14
14	0x29f05905	1.06735835e-13
15	0x282a6825	9.4594785e-15
16	0x2a5ccf62	1.9611876e-13
17	0x2b580102	7.6740014e-13
18	0x29277a9e	3.7187802e-14
19	0x2a93b94d	2.6241024e-13
20	0x2a21a892	1.4358157e-13
21	0x2b3351c0	6.3707026e-13
22	0x2901417a	2.8700546e-14
23	0x2a6ab2a5	2.0845355e-13
24	0x2a89b5a9	2.446214e-13
25	0x2ba5cdf3	1.1781118e-12
26	0x2964efce	5.0834167e-14
27	0x2acb04ee	3.6063464e-13
28	0x2a2125b7	1.4312758e-13
29	0x2b282074	5.973063e-13
30	0x29097a0f	3.052598e-14
31	0x2a43fc24	1.7406958e-13
32	0x30b734f3	1.3330052e-09
33	0x311db91f	2.2951736e-09
34	0x31069d77	1.9589075e-09
35	0x323216fc	1.036619e-08
36	0x31811cc3	3.757664e-09
37	0x31a9291d	4.9232214e-09
38	0x32569ed3	1.2492552e-08
39	0x32e45cce	2.6584896e-08
40	0x3094c177	1.0823403e-09
41	0x30e5cf6d	1.6720897e-09
42	0x31861bb5	3.903063e-09
43	0x322845d7	9.794767e-09
44	0x31bcff8d	5.500573e-09
45	0x31dcdefc	6.428193e-09
46	0x3297859e	1.7639476e-08
47	0x3323a409	3.8100584e-08

exp_avg f4 [12]
0	0xb3d9e508	-1.01465105e-07
1	0xb393ae4e	-6.876927e-08
2	0xb3c1b0c4	-9.019416e-08
3	0xb38da21d	-6.5953124e-08
4	0x2c933f85	4.1850434e-12
5	0x2c4e7264	2.933786e-12
6	0x2ca3d6a5	4.656569e-12
7	0x2c859447	3.7965494e-12
8	0x38b2cc85	8.525796e-05
9	0x388cf378	6.72107e-05
10	0xb90bc6e2	-0.00013330163
11	0x38f3b5cc	0.00011621005

exp_avg_sq f4 [12]
0	0x297656fa	5.4698413e-14
1	0x28a7b501	1.8619222e-14
2	0x291e2474	3.5114666e-14
3	0x28a6bb42	1.8510912e-14
4	0x1a2a8e16	3.5269952e-23
5	0x1a09558f	2.840005e-23
6	0x1a6a4180	4.8442976e-23
7	0x1a1b0c7a	3.2063327e-23
8	0x355c326c	8.202976e-07
9	0x3587c287	1.0114899e-06
10	0x351bd7e4	5.805616e-07
11	0x35c75642	1.485176e-06

exp_avg f4 [4, 4]
0	0xb75b9f20	-1.3090466e-05
1	0xb7ba8aa0	-2.223748e-05
2	0x36169500	2.2438471e-06
3	0xb7a42c70	-1.9571016e-05
4	0x37d54a62	2.5426216e-05
5	0xb89871c7	-7.2691175e-05
6	0x378f7fde	1.7106471e-05
7	0xb8b3e740	-8.578459e-05
8	0x370851c8	8.125273e-06
9	0xb83d02f8	-4.5063876e-05
10	0x371cd330	9.3474955e-06
11	0xb837e770	-4.3846143e-05
12	0xb784e7b9	-1.584353e-05
13	0x387a9da0	5.9751444e-05
14	0xb7608a84	-1.3383691e-05
15	0x388956c2	6.548829e-05

exp_avg_sq f4 [4, 4]
0	0x32c4f07d	2.2926764e-08
1	0x3512a9ac	5.4636143e-07
2	0x330fa00c	3.3440344e-08
3	0x351dad46	5.8739204e-07
4	0x33324d28	4.1514028e-08
5	0x3503c3f2	4.908644e-07
6	0x336fceb2	5.5834512e-08
7	0x350e7a56	5.3077144e-07
8	0x3390346a	6.7150566e-08
9	0x35b0f2b1	1.3183654e-06
10	0x33ce4f62	9.607062e-08
11	0x35bc20ae	1.4016603e-06
12	0x32e61e0f	2.6789193e-08
13	0x34d9ee26	4.0592676e-07
14	0x33186bcb	3.5488295e-08
15	0x34eae24a	4.3750543e-07

exp_avg f4 [4]
0	0xba4547c4	-0.00075256475
1	0xba0ca4db	-0.00053651416
2	0x398e0db0	0.0002709455
3	0xb80b4f20	-3.3213873e-05

exp_avg_sq f4 [4]
0	0x38ba339c	8.878784e-05
1	0x3934b2ca	0.00017232742
2	0x39811cb0	0.0002462617
3	0x38978ec2	7.226832e-05

exp_avg f4 [4, 4]
0	0x3a5f738c	0.0008523993
1	0xb8957e89	-7.128443e-05
2	0xbad7188d	-0.0016410515
3	0x39f637b1	0.0004696227
4	0x3a3854c0	0.00070316717
5	0xb8fc80f2	-0.00012040314
6	0xba9f3157	-0.0012145442
7	0x39b23934	0.00033993425
8	0x00000004	6e-45
9	0x80000004	-6e-45
10	0x00000004	6e-45
11	0x00000004	6e-45
12	0x37bf9821	2.2839815e-05
13	0xb860b1c2	-5.357131e-05
14	0xb8cee28c	-9.865043e-05
15	0x38bcaa1b	8.996223e-05

exp_avg_sq f4 [4, 4]
0	0x3793defa	1.7627597e-05
1	0x34fba01f	4.6868897e-07
2	0x385c8a82	5.2581083e-05
3	0x3684aca8	3.9540064e-06
4	0x37b563df	2.1623388e-05
5	0x35880fc6	1.013738e-06
6	0x38641779	5.4381297e-05
7	0x36ace4be	5.1526285e-06
8	0x00000019	3.5e-44
9	0x00000019	3.5e-44
10	0x00000019	3.5e-44
11	0x00000019	3.5e-44
12	0x3687dc91	4.048991e-06
13	0x37656b94	1.3674511e-05
14	0x3745b470	1.1784126e-05
15	0x361aad26	2.3048574e-06

exp_avg f4 [4]
0	0x3a2468f0	0.00062717404
1	0x39fc3a02	0.00048108405
2	0x00000004	6e-45
3	0x3894ec19	7.1011666e-05

exp_avg_sq f4 [4]
0	0x370309c0	7.810479e-06
1	0x37185d56	9.0816375e-06
2	0x00000019	3.5e-44
3	0x368904cb	4.083476e-06

exp_avg f4 [4, 4]
0	0xb97be318	-0.00024021824
1	0xb9aec457	-0.0003333415
2	0x80000004	-6e-45
3	0xb7a6fa9f	-1.9905447e-05
4	0x3926d74f	0.00015911202
5	0x39d91fa3	0.00041413037
6	0x80000004	-6e-45
7	0xba40c1d9	-0.00073531043
8	0x39067ffa	0.00012826911
9	0x370726ec	8.055689e-06
10	0x00000004	6e-45
11	0x3a11ceff	0.0005562156
12	0xb915c0eb	-0.00014281615
13	0xb8350461	-4.315784e-05
14	0x80000004	-6e-45
15	0xb9090e42	-0.0001307065

exp_avg_sq f4 [4, 4]
0	0x3665574d	3.4174475e-06
1	0x371997cc	9.154854e-06
2	0x00000019	3.5e-44
3	0x360113ea	1.923409e-06
4	0x36271e4c	2.4902574e-06
5	0x369cfbd2	4.678478e-06
6	0x00000019	3.5e-44
7	0x36e99012	6.960713e-06
8	0x35cac46e	1.5107341e-06
9	0x36078388	2.019313e-06
10	0x00000019	3.5e-44
11	0x36ca42b7	6.0278358e-06
12	0x36351a21	2.698631e-06
13	0x36c08bbb	5.7383127e-06
14	0x00000019	3.5e-44
15	0x35211afb	6.0016436e-07

exp_avg f4 [4]
0	0x3975d3f0	0.00023443974
1	0xbb46e543	-0.0030349053
2	0x3aab6326	0.0013075813
3	0x39d74f80	0.00041067228

exp_avg_sq f4 [4]
0	0x38d79f36	0.00010281654
1	0x38ef54b6	0.00011412187
2	0x394dd64f	0.0001963016
3	0x38a0406b	7.641393e-05

exp_avg f4 [4]
0	0xba559dce	-0.000814882
1	0x3b2592fc	0.0025264611
2	0xba89a53c	-0.0010501514
3	0xba244909	-0.00062669866

exp_avg_sq f4 [4]
0	0x383d4f6d	4.5135082e-05
1	0x39024056	0.00012421733
2	0x3915625a	0.00014246386
3	0x3789632e	1.6377857e-05

exp_avg f4 [4]
0	0xb9c7e500	-0.00038126856
1	0xba4cca35	-0.00078121136
2	0x3ab3aaf0	0.001370756
3	0xb95a5a40	-0.00020823721

exp_avg_sq f4 [4]
0	0x38b7d352	8.7654815e-05
1	0x392705bb	0.00015928496
2	0x396d7731	0.00022646484
3	0x388b1dcc	6.6335866e-05

exp_avg f4 [4]
0	0xba0285b8	-0.0004979032
1	0x3b50e1c9	0.003187286
2	0xbaf11b00	-0.0018394887
3	0xb97e762a	-0.00024267347

exp_avg_sq f4 [4]
0	0x3822087b	3.8631708e-05
1	0x394260af	0.00018537299
2	0x39339535	0.00017126354
3	0x37341e02	1.0735823e-05

exp_avg f4 [4]
0	0x39528b80	0.00020079128
1	0xb9963d34	-0.0002865583
2	0x3ad6053a	0.0016328462
3	0x39e9f660	0.00044624787

exp_avg_sq f4 [4]
0	0x38d4ed3e	0.000101531376
1	0x39af1636	0.0003339515
2	0x3948b563	0.00019141058
3	0x38b35064	8.550359e-05

exp_avg f4 [4]
0	0x39854b20	0.0002542371
1	0x3b816a26	0.0039494215
2	0xbb3e3a55	-0.0029026468
3	0xb95966c3	-0.00020733014

exp_avg_sq f4 [4]
0	0x388c27c1	6.683125e-05
1	0x39731269	0.00023181144
2	0x393a0116	0.00017738747
3	0x36ae6074	5.1968327e-06

exp_avg f4 [4]
0	0x3a91297c	0.0011074985
1	0xbb409f7a	-0.002939193
2	0x3b21dfde	0.0024700086
3	0x3a12f2a2	0.0005605613

exp_avg_sq f4 [4]
0	0x391a3b71	0.00014708728
1	0x3937ebc5	0.00017540071
2	0x3929642d	0.00016154414
3	0x38720e46	5.771059e-05

exp_avg f4 [12, 4]
0	0x3891a680	6.945152e-05
1	0xb96bf189	-0.00022501325
2	0x388407f4	6.295732e-05
3	0x3801ffd4	3.0994255e-05
4	0xb8004dd0	-3.0590047e-05
5	0x382d41d0	4.1307707e-05
6	0xb6fd8210	-7.555129e-06
7	0x37f05e0c	2.8654023e-05
8	0x37dc5046	2.6263424e-05
9	0xb756a5f8	-1.2794037e-05
10	0xb8a183d2	-7.701632e-05
11	0x3897c932	7.2377166e-05
12	0xb894ab9a	-7.089153e-05
13	0x39d79ca9	0.00041124717
14	0xb9a23d22	-0.00030944595
15	0x38e42830	0.00010879373
16	0x382d0cb9	4.1258263e-05
17	0x3842a50e	4.6406924e-05
18	0xb807a147	-3.233671e-05
19	0xb869ca3f	-5.5739885e-05
20	0x393a0862	0.00017741465
21	0xb97b746e	-0.00023980599
22	0xb8c9dc38	-9.625446e-05
23	0x38c7e9d8	9.532616e-05
24	0x3887f429	6.48278e-05
25	0xb698576c	-4.5401302e-06
26	0xb7b88bea	-2.1999662e-05
27	0xb84e5072	-4.9189148e-05
28	0x37d510f1	2.5399468e-05
29	0xb8a7ae6e	-7.9956706e-05
30	0x385b2786	5.2250478e-05
31	0xb74008ae	-1.1446113e-05
32	0x36871924	4.0262403e-06
33	0x38e26078	0.000107944885
34	0xb8aed810	-8.337211e-05
35	0x378748e0	1.612719e-05
36	0x3a1c8ca3	0.0005971884
37	0x3a5b0fdc	0.000835655
38	0xbb298115	-0.0025864292
39	0x3a847f4a	0.0010108736
40	0x37ad6534	2.0670333e-05
41	0xb9afe2d0	-0.0003354759
42	0x39a00496	0.00030520995
43	0xb7442180	-1.169031e-05
44	0xba69ab63	-0.0008913783
45	0x3b198263	0.0023423664
46	0x3a88fc9f	0.0010451264
47	0xbaa7bb0f	-0.0012796837
