Saved_models/checkpoint_both.pt (torch, 91098 bytes, 198 tensors)

encoder_input_layer.weight f4 [4, 5]
000000 cb 7a 80 bf 03 3b 44 bf a2 74 ad bf 4c ba a0 bf
       -1.0037473 -0.76652545 -1.3551219 -1.2556853
000010 eb 61 93 bf ac 70 0c bf 9e ce 2f bf ad 88 73 be
       -1.1514257 -0.54859424 -0.6867465 -0.23782606
000020 5f a5 34 bf a8 d1 f7 be 97 7f b1 3e 12 ed 00 3f
       -0.70564836 -0.48402143 0.34667656 0.5036174
000030 27 82 1a 3d d2 4f f3 3d b6 fe 88 3e 83 22 28 bf
       0.03772178 0.11880459 0.2675683 -0.6567766
000040 09 7e 15 bf b0 d8 d0 be a0 4e 65 bf 30 aa 63 bf
       -0.5839544 -0.4079032 -0.895731 -0.8893156

encoder_input_layer.bias f4 [4]
000000 b6 5c 6c 3f f4 c8 51 3f 0a 40 e6 be 8f d8 a2 3f
       0.92328966 0.81947255 -0.44970733 1.2722338

decoder_input_layer.weight f4 [4, 1]
000000 6b 56 3d bf 24 db ee be 34 9b 8a 3f 99 15 4a 3f
       -0.7395999 -0.46651566 1.0828614 0.78939205

decoder_input_layer.bias f4 [4]
000000 f5 ae ed bf 70 57 12 c0 79 d2 2b 40 e9 20 a0 3f
       -1.8569018 -2.2865868 2.6847212 1.2510043

positional_encoding_layer_enc.pe f4 [1, 9, 4]
000000 00 00 00 00 00 00 80 3f 00 00 00 00 00 00 80 3f
       0.0 1.0 0.0 1.0
000010 a4 6a 57 3f 41 51 0a 3f 57 d6 23 3c b9 fc 7f 3f
       0.84147096 0.54030234 0.009999833 0.99995
000020 b7 c7 68 3f 33 11 d5 be 3e d4 a3 3c e5 f2 7f 3f
       0.9092974 -0.41614684 0.019998666 0.9998
000030 c3 81 10 3e 26 70 7d bf 1f b9 f5 3c 83 e2 7f 3f
       0.14112 -0.9899925 0.0299955 0.99955004
000040 cf bd 41 bf 30 55 27 bf db cb 23 3d 94 cb 7f 3f
       -0.7568025 -0.6536436 0.039989334 0.9992001
000050 10 7c 75 bf 2c 3c 91 3e f4 b6 4c 3d 19 ae 7f 3f
       -0.9589243 0.2836622 0.049979165 0.99875027
000060 8c 0f 8f be b8 cd 75 3f d1 9c 75 3d 12 8a 7f 3f
       -0.2794155 0.96017027 0.059964005 0.99820054
000070 46 30 28 3f bd ff 40 3f 32 3e 8f 3d 81 5f 7f 3f
       0.6569866 0.75390226 0.06994285 0.997551
000080 95 46 7d 3f f6 fd 14 be 50 aa a3 3d 65 2e 7f 3f
       0.98935825 -0.14550003 0.07991469 0.9968017

positional_encoding_layer_dec.pe f4 [1, 1, 4]
000000 00 00 00 00 00 00 80 3f 00 00 00 00 00 00 80 3f
       0.0 1.0 0.0 1.0

encoder.layers.0.self_attn.in_proj_weight f4 [12, 4]
000000 34 c9 2e 3d 5f e0 54 bf d6 54 0e 3f 81 f1 b0 be
       0.04267235 -0.83154863 0.555982 -0.34559253
000010 ca 5f 95 bd 0b ee 82 bf 04 11 36 bf e3 cc 81 be
       -0.07293661 -1.0228895 -0.71119714 -0.2535163
000020 da f0 c7 3d 75 04 d4 3e fa ec b5 be 7d a9 b4 be
       0.09762736 0.4140965 -0.3553236 -0.3528556
000030 e0 02 89 3f 4e ca a0 3e 71 34 4f 3e 60 a4 ad 3f
       1.0704002 0.31404346 0.20234849 1.3565788
000040 e4 e2 2e 3f 02 29 1a bd 27 f0 80 bf 72 a8 db 3e
       0.6831496 -0.037636764 -1.0073289 0.4290195
000050 97 ae 9b 3f dd cf a1 3e d1 af c4 be 87 fa 00 3f
       1.2162656 0.316039 -0.38415387 0.50382274
000060 7e 43 b9 be 81 46 cf be 65 b9 78 3f 6b ca 0c bf
       -0.36184305 -0.40483478 0.9715789 -0.54996365
000070 38 9b 91 bf 1b 7e 55 3f f2 8a a5 3f 8d 96 9e bf
       -1.1375494 0.83395547 1.2933028 -1.2389694
000080 b8 53 d3 3e 20 d2 45 3f fb f7 81 bf 33 3d c0 3f
       0.4127481 0.7727375 -1.0153803 1.5018677
000090 fa ef 56 3e d4 a1 8b be 53 27 b2 bd 84 5b c3 3d
       0.20989981 -0.27271903 -0.08698907 0.095389396
0000a0 01 d9 08 3f 84 d5 90 3f 4d 92 2e bf 70 d2 23 3e
       0.5345612 1.131516 -0.6819199 0.15998244
0000b0 be 6d 7c 3f b0 14 b3 3f 08 d5 9f bf ea dd ed 3e
       0.98604953 1.3990688 -1.2486887 0.4645837

encoder.layers.0.self_attn.in_proj_bias f4 [12]
000000 f9 f3 4c be d9 37 1e be c1 cd 6a be 33 ad 58 3f
       -0.20014943 -0.15450992 -0.22930051 0.8463928
000010 6a b9 6c ba 8a 1a 3b b7 97 0a 2a 3b 12 c7 c9 38
       -0.00090303144 -1.1152248e-05 0.0025946253 9.6215066e-05
000020 0c 45 be 3f 80 6e 1a 3d d1 6e 20 3f 66 41 85 3f
       1.4864821 0.037703037 0.6266909 1.0410583

encoder.layers.0.self_attn.out_proj.weight f4 [4, 4]
000000 04 ee 5f be 04 c1 2c be f7 35 7d be 4b 24 b9 be
       -0.2186814 -0.16870505 -0.24727617 -0.36160502
000010 68 c4 15 bf cd 1a a4 3e f3 2c c7 3d e9 f1 8f 3d
       -0.5850282 0.32051697 0.0972537 0.070285626
000020 9b f8 9d bf 68 f1 0a 3e de 88 c1 bf 61 b1 ec bf
       -1.2341493 0.13568652 -1.5119894 -1.8491632
000030 9c e1 34 3e c3 51 2d be fb 2f 84 3f b8 fb 6e 3f
       0.17664188 -0.16925721 1.0327142 0.9335284

encoder.layers.0.self_attn.out_proj.bias f4 [4]
000000 1d 53 d0 be 97 e1 8c bf 1c 2f c1 bf 1b 2c 2e 3f
       -0.4068841 -1.1006345 -1.5092502 0.6803605

encoder.layers.0.linear1.weight f4 [4, 4]
000000 e2 9e 96 3e 18 33 f0 3e 7d bf 08 3e 00 b3 50 3b
       0.29418093 0.4691398 0.13354297 0.0031844974
000010 f2 ad a8 be e0 a7 e9 bc 05 29 57 3e de b3 51 bf
       -0.3294521 -0.028522432 0.21011741 -0.8191508
000020 02 bb 85 bf b6 95 32 3f 75 09 c6 3e 0f 28 8e be
       -1.0447695 0.6975969 0.3867909 -0.27764937
000030 11 99 b5 bd c2 a7 77 3d 7a 41 3e 3f 1a bc 0d bf
       -0.08867086 0.06046272 0.7431866 -0.55365145

encoder.layers.0.linear1.bias f4 [4]
000000 65 68 32 bf 62 3a cf be 8d ee 96 be e3 fa 9b 3d
       -0.69690543 -0.4047423 -0.29478875 0.07616212

encoder.layers.0.linear2.weight f4 [4, 4]
000000 9f f4 93 bd 4e d1 14 bf a5 a6 17 bf 60 3a fd 3e
       -0.07224392 -0.58131874 -0.59238654 0.494586
000010 2a 1c ac be f8 36 9c be 44 6f 9e 3f 6f 78 56 be
       -0.33615237 -0.30510688 1.2377706 -0.2094438
000020 5d e3 c9 be 64 08 0d bf 93 c4 6b be b1 9f b5 bd
       -0.39431277 -0.5509093 -0.23024206 -0.08868349
000030 b9 15 0e be 3b ad 5e 3c 6a f4 69 be 2f 6c 5a 3d
       -0.13875474 0.013591106 -0.22847143 0.05332583

encoder.layers.0.linear2.bias f4 [4]
000000 cb 78 40 be 26 aa 77 3e 07 c2 21 bd 25 8c d2 3f
       -0.18796079 0.24186 -0.03949168 1.6449019

encoder.layers.0.norm1.weight f4 [4]
000000 aa 4b 9c 3f fb fc 8b 3e e2 b2 e5 3f 5e 65 c4 3f
       1.2210591 0.27341446 1.7945216 1.5343435

encoder.layers.0.norm1.bias f4 [4]
000000 d1 fc 1d 3f 6b 52 05 3e 68 a0 9f bf fe 9c 32 3f
       0.6171389 0.13019721 -1.2470827 0.697708

encoder.layers.0.norm2.weight f4 [4]
000000 40 fe 60 3f 6c 68 ff 3e 7b 26 63 3f c7 24 0c 40
       0.87887955 0.49884355 0.8873059 2.1897447

encoder.layers.0.norm2.bias f4 [4]
000000 43 bd 3b bf 08 dc a0 bd 16 3b 4b be 6d 83 99 3f
       -0.73335665 -0.07854468 -0.19846758 1.1993233

encoder.layers.1.self_attn.in_proj_weight f4 [12, 4]
000000 19 ed 31 3f b3 15 30 bf da 51 c5 3f 72 b9 6f bf
       0.6950241 -0.6878311 1.5415604 -0.9364234
000010 14 a0 fb 3e 84 1b 83 bf 4d 8a fd bd 71 e1 39 bf
       0.49145567 -1.0242772 -0.123798944 -0.7260962
000020 40 dd 90 bc f1 d4 7c 3f 1d 6a 18 bf 14 97 2e 3f
       -0.017683625 0.9876242 -0.59536916 0.68199277
000030 2d c0 da 3e 95 36 3e bf 94 cb 48 3f 66 08 80 be
       0.42724743 -0.74302036 0.78435636 -0.25006407
000040 d1 05 06 3f 8e 9d d0 3f 20 0a 9c bf 00 9d 9d bf
       0.52352625 1.6298082 -1.219059 -1.2313538
000050 29 27 56 3f 1e 3a 91 3f 5e 15 10 bf f2 72 59 bc
       0.83653504 1.1345861 -0.56282604 -0.013272034
000060 97 7e e7 be 44 74 8d bf 94 aa 4d 3f 2a 28 eb 3e
       -0.45213768 -1.1051106 0.80338407 0.4592908
000070 38 85 af bd 07 ea 8b 3f ad 54 14 bf 09 70 82 bf
       -0.08570331 1.0930794 -0.57941705 -1.019044
000080 75 83 e6 3e 10 cb 9a 3f 40 dc b9 3f 10 95 14 c0
       0.4502217 1.209322 1.452034 -2.321598
000090 36 76 21 ba 2e 75 fc bf d1 3b be bd 15 43 0d 3f
       -0.00061592774 -1.972326 -0.09288753 0.55180484
0000a0 5c 70 9a 3f 65 f0 c6 3d bc c8 c3 3d 21 98 81 bf
       1.2065539 0.0971382 0.095597714 -1.0124551
0000b0 4d 6e e9 3d a6 cd 6b bd 74 6a 28 bf 5a c5 93 3b
       0.11397991 -0.05756917 -0.65787435 0.00450961

encoder.layers.1.self_attn.in_proj_bias f4 [12]
000000 ea 70 31 bf dc 97 13 bf 17 95 b5 3e 32 3e 96 be
       -0.6931292 -0.57653594 0.3546531 -0.29344326
000010 80 74 47 ba f6 02 ff ba 16 61 bb 39 98 56 0a bb
       -0.00076086074 -0.0019455838 0.00035739754 -0.0021108743
000020 fb 32 c5 bf 28 37 99 bd 7c 57 e6 be 88 2b d6 3e
       -1.5406183 -0.07481223 -0.4498862 0.41830087

encoder.layers.1.self_attn.out_proj.weight f4 [4, 4]
000000 31 5b 51 be c0 bb 12 be 49 dc 99 be 8e fa 64 bd
       -0.20444943 -0.14329433 -0.30050877 -0.05590301
000010 35 e7 93 be dd 7a 4e 3d ef 0e 10 3f 3f 71 a3 3c
       -0.28887334 0.05041014 0.56272787 0.01995146
000020 d0 ef 6b 3f 0e 71 8d bf 20 ca 97 3f df 39 42 bf
       0.921628 -1.1050127 1.1858559 -0.75869554
000030 52 03 17 c0 d9 82 c0 3f 6b fe 67 bf b0 6d b7 3f
       -2.3595777 1.5039932 -0.90622586 1.4330349

encoder.layers.1.self_attn.out_proj.bias f4 [4]
000000 a3 97 2a bf 38 12 af 3d ad e3 34 be 02 98 05 40
       -0.6663763 0.08548397 -0.17664976 2.0874028

encoder.layers.1.linear1.weight f4 [4, 4]
000000 56 89 53 bf 9a 22 94 3f 18 09 9c be e7 71 2e bd
       -0.82631433 1.157306 -0.30475688 -0.042589094
000010 a0 79 90 bf d1 d6 8e bd 9e 81 b2 bd 25 11 05 bf
       -1.1287117 -0.06974567 -0.08716129 -0.51979285
000020 c5 a2 44 3f 55 5d 8b 3f e8 43 13 bf a8 d4 c9 3e
       0.76810867 1.0887858 -0.5752549 0.39420056
000030 ba 82 8f be b3 48 a2 3e 10 10 e0 3e ab af dd be
       -0.28029424 0.3169609 0.43762255 -0.43298087

encoder.layers.1.linear1.bias f4 [4]
000000 19 69 31 be 51 5a a5 be f9 5f 05 3f 75 0e a9 bd
       -0.17325248 -0.32295468 0.5209957 -0.082547106

encoder.layers.1.linear2.weight f4 [4, 4]
000000 d0 31 be 3c 34 1d f4 3d 72 a4 99 be 46 8f ba 3c
       0.023217112 0.119196326 -0.30008274 0.022773396
000010 64 e6 56 bf 2b b8 fa be bf 10 8c bf a8 e8 88 bd
       -0.839453 -0.48968634 -1.094261 -0.06685001
000020 12 d7 19 bf 01 4a 58 bf 34 54 11 bf c9 6c 3c 3e
       -0.60093796 -0.8448792 -0.5676911 0.18400873
000030 98 f8 1f 40 fa 9d 0d 3f c4 6e 22 40 ae 0e a7 bc
       2.499548 0.5531918 2.5380106 -0.020392742

encoder.layers.1.linear2.bias f4 [4]
000000 39 2d 9a 3d 8e be 95 bf ea f7 6a bf 21 ad 18 40
       0.07528157 -1.1698778 -0.91784537 2.385567

encoder.layers.1.norm1.weight f4 [4]
000000 81 1a 98 39 30 fb d3 3e 6e a0 71 3f 78 a5 31 40
       0.00029011446 0.41402578 0.9438542 2.7757244

encoder.layers.1.norm1.bias f4 [4]
000000 77 3c 0d 3e 34 f6 30 bf 4f a3 9c be 26 18 ef 3f
       0.13792597 -0.69125676 -0.30593345 1.8679245

encoder.layers.1.norm2.weight f4 [4]
000000 e4 b8 93 bd d3 48 44 bc 79 e6 ef 3c 4f 13 85 3e
       -0.072129995 -0.011980253 0.029284703 0.25991294

encoder.layers.1.norm2.bias f4 [4]
000000 ac 72 82 bc 7c 6f c8 ba 6f 76 f7 bc f1 73 dc be
       -0.01592382 -0.0015292014 -0.03020784 -0.43057206

decoder.layers.0.self_attn.in_proj_weight f4 [12, 4]
000000 f8 90 f1 bd b4 3d f6 bd d8 ac 0c bf df 5b 07 bf
       -0.11795229 -0.12023488 -0.5495124 -0.5287456
000010 38 3f c4 bd 00 c0 01 3c 52 6e 8e be 70 37 6c 3e
       -0.095823705 0.0079193115 -0.27818543 0.23068023
000020 8a 19 0d bf d0 46 29 bd 3f dd 09 3f ce c6 7f be
       -0.55117095 -0.041327298 0.5385322 -0.24978182
000030 b9 8f 0d 3f 74 18 63 3e f6 79 0d bf 60 5f c6 3e
       0.5529743 0.22177297 -0.5526422 0.3874464
000040 80 b8 90 bd cb f6 8b be 12 b8 fa 3e ab 5d fd be
       -0.070664406 -0.27336726 0.4896856 -0.49485525
000050 48 93 86 3d e8 49 03 be 2a e6 df 3e 00 0b 2f 3e
       0.065710604 -0.12821162 0.4373029 0.1709404
000060 b4 a7 96 3e 88 74 5d 3e 58 cb 16 be 48 e0 03 be
       0.29424822 0.21626484 -0.14726007 -0.12878525
000070 66 30 01 bf 0e e3 a9 3e 8e f0 f8 3e 3a 87 d6 3e
       -0.50464475 0.3318104 0.4862103 0.41900045
000080 e9 cc ed be a6 1d 10 3d 92 fd b5 be d6 1b 67 be
       -0.46445397 0.035184525 -0.3554502 -0.22569212
000090 a3 e7 6d bf 32 bf dd 3e 65 27 87 3d 12 82 22 3f
       -0.92931575 0.43309933 0.06599311 0.6347972
0000a0 62 9e 16 c0 66 27 ec 3f 89 1c 1b bf 5b a9 ad 3f
       -2.353417 1.8449523 -0.60590416 1.3567308
0000b0 23 64 fe 3e af a2 67 bf 1f 0e 6b be 04 8e 27 3f
       0.49685773 -0.9048261 -0.22954606 0.65451074

decoder.layers.0.self_attn.in_proj_bias f4 [12]
000000 00 00 00 00 00 00 00 00 00 00 00 00 00 00 00 00
       0.0 0.0 0.0 0.0
000010 00 00 00 00 00 00 00 00 00 00 00 00 00 00 00 00
       0.0 0.0 0.0 0.0
000020 45 e7 32 bc 0f 9f 86 3d 51 59 1a bd 92 00 4c be
       -0.010919397 0.06573307 -0.037682835 -0.19922093

decoder.layers.0.self_attn.out_proj.weight f4 [4, 4]
000000 35 a4 23 bf 97 01 c0 3f 32 3b cd 3c 53 33 56 3f
       -0.63922435 1.5000485 0.02505264 0.83672065
000010 c8 31 fb 3c c9 27 8a 3d 44 cd 9f bd 3a a3 93 3b
       0.030663386 0.0674587 -0.07802823 0.004505542
000020 55 d0 1b 3f f9 82 1e 3e 5f fa d3 3c 8c fd 32 3e
       0.60864764 0.1547965 0.025876222 0.17479533
000030 a2 d3 b4 3e 6f 84 03 3f 87 f4 91 be b9 bc 6a be
       0.35317713 0.5137395 -0.28506872 -0.22923554

decoder.layers.0.self_attn.out_proj.bias f4 [4]
000000 8e 00 9d bb 24 3d da bb 7a 2a cb bc 35 0e b7 3c
       -0.004791326 -0.0066601206 -0.024800528 0.022345642

decoder.layers.0.multihead_attn.in_proj_weight f4 [12, 4]
000000 5c 64 52 be e0 b8 b9 bd 80 7d db 3b 8b 4d 01 3f
       -0.20546097 -0.09068465 0.0066983104 0.50508946
000010 b0 90 9c 3d 57 6a 0c 3f 08 cb bf 3e 94 38 c6 be
       0.076447845 0.5484976 0.37459588 -0.3871504
000020 20 9f 8c 3e ee a2 dd be 47 e2 84 be 74 6f 38 3e
       0.27465153 -0.43288368 -0.25953886 0.18011266
000030 a8 0d 4f 3e f6 38 eb 3e 14 dd 49 be 00 7e 80 3a
       0.20220053 0.45941895 -0.19713241 0.0009803176
000040 40 6a a1 3e c5 9b 17 bf f6 ad e2 3e 6a a2 01 bf
       0.31526375 -0.5922206 0.44273347 -0.5063845
000050 00 48 0a 3c 80 39 d5 bd 58 21 a5 be c8 c2 a5 3d
       0.008440018 -0.10411358 -0.32252002 0.08093792
000060 45 a2 01 3f fc 4d 37 be ca 24 ba be 24 ea 67 be
       0.5063823 -0.17900842 -0.36356193 -0.22647911
000070 34 61 1b bf 16 87 8d 3e 4f 94 96 be fe 3b d1 be
       -0.60695195 0.27642125 -0.29410025 -0.40866083
000080 c3 58 5e 3b d4 4e 40 bd 64 d4 19 bb 99 ad d1 3c
       0.0033927418 -0.046950176 -0.0023472542 0.025595473
000090 c9 f9 59 bc d2 7d df 3c 01 30 90 3d d4 32 38 3c
       -0.013304182 0.027281675 0.07040406 0.011242587
0000a0 f0 b9 cc 3c 35 ec c6 bc 3b 09 23 bd cb 2e 70 3b
       0.024991006 -0.024282554 -0.039803725 0.0036648985
0000b0 9c c5 95 bb 11 22 12 3d 67 3c 80 bc 33 b7 86 ba
       -0.004570676 0.03567702 -0.015653802 -0.0010277986

decoder.layers.0.multihead_attn.in_proj_bias f4 [12]
000000 00 00 00 00 00 00 00 00 00 00 00 00 00 00 00 00
       0.0 0.0 0.0 0.0
000010 00 00 00 00 00 00 00 00 00 00 00 00 00 00 00 00
       0.0 0.0 0.0 0.0
000020 5b 65 96 3a ab 3d 51 bc 76 a7 44 3c 4b 59 ad 3c
       0.0011474298 -0.01277105 0.012002816 0.021160742

decoder.layers.0.multihead_attn.out_proj.weight f4 [4, 4]
000000 06 c1 98 bc 77 92 a8 3b c2 b1 6a bc 54 7f c0 3c
       -0.018646728 0.005144413 -0.014324607 0.023498215
000010 73 0a af 3c fd ba 28 3b fd 35 11 bc 37 14 95 bc
       0.021367287 0.002574622 -0.008862969 -0.018198116
000020 1e 4d e0 3c ae 3e eb 3b 41 ff 81 bc ca fe b6 bc
       0.027380522 0.007179103 -0.015868785 -0.02233829
000030 64 ec ff 3c 8c fe c9 bc db 80 76 3c 92 ec cc 3c
       0.03124065 -0.02465751 0.01504537 0.02501515

decoder.layers.0.multihead_attn.out_proj.bias f4 [4]
000000 7d 3e 3e bb 48 b8 50 3c 1d 19 c7 3b be 3e 5c 3b
       -0.0029028945 0.012739249 0.006075992 0.0033606733

decoder.layers.0.linear1.weight f4 [4, 4]
000000 ed c9 9a be f3 b1 2c be 2a 84 bb bf 75 e4 a2 be
       -0.30232182 -0.16864757 -1.4649708 -0.31814924
000010 aa 13 ba 3e fb e4 eb 3e 6e fc da be 4b 74 75 3e
       0.36343127 0.46073136 -0.42770714 0.23970143
000020 e9 8a 15 bf 62 a5 4e be 2b 65 92 bf 50 c9 8a bd
       -0.58415085 -0.20180276 -1.1437124 -0.067766786
000030 25 20 7e bd 75 5e 04 3e 41 ff a1 be 05 2d d6 3d
       -0.062042374 0.12926657 -0.31640056 0.104578055

decoder.layers.0.linear1.bias f4 [4]
000000 6e 74 f2 bf 6a a8 9b bf 41 17 42 bf a0 22 e8 be
       -1.8941782 -1.2160771 -0.7581673 -0.45338917

decoder.layers.0.linear2.weight f4 [4, 4]
000000 5f 58 05 3f 00 ab 8b bf ed 06 f0 be bd d2 dc bd
       0.5208797 -1.091156 -0.46880284 -0.10782383
000010 fb 99 e0 bf 99 c4 80 3f 41 06 33 bf bb c8 df bd
       -1.7546991 1.0059997 -0.6993142 -0.10926958
000020 9b d9 a1 3e 12 3c 14 3f a6 eb e9 3e 00 5d 84 3e
       0.31611332 0.5790416 0.45687598 0.25852203
000030 11 0a 59 3f 40 d1 95 be b6 20 0d 3e ab e0 e4 3d
       0.84780985 -0.29261208 0.1378201 0.111756645

decoder.layers.0.linear2.bias f4 [4]
000000 5c de 29 bb fe b2 8d bb 34 2e ca bb b2 10 ee bb
       -0.002591989 -0.004324316 -0.0061700586 -0.007265174

decoder.layers.0.norm1.weight f4 [4]
000000 38 ed cd 3f 04 87 b9 3f 2d e6 37 40 f0 2e 1a 40
       1.6088018 1.4494328 2.8734238 2.4091148

decoder.layers.0.norm1.bias f4 [4]
000000 79 a8 31 bf e6 6f 05 3f d5 8d 36 3f d8 a2 95 bf
       -0.69397694 0.5212387 0.7131017 -1.1690321

decoder.layers.0.norm2.weight f4 [4]
000000 5d a2 67 bf ce 73 14 40 cf f4 c3 bf 05 76 4e 40
       -0.9048212 2.3195682 -1.5309085 3.2259533

decoder.layers.0.norm2.bias f4 [4]
000000 ae ad 25 3f c1 2e da be e6 b8 11 3f da 8f 14 bf
       0.6471814 -0.42613795 0.5692276 -0.58032

decoder.layers.0.norm3.weight f4 [4]
000000 01 f9 6d c0 7e 59 3d 40 48 95 6d be 20 8f fd be
       -3.718323 2.9585872 -0.23201478 -0.49523258

decoder.layers.0.norm3.bias f4 [4]
000000 6e d5 68 bf 84 3d 0c 3f e7 7d 02 bf 9d ab 1c 3f
       -0.9095067 0.54781365 -0.5097336 0.6119936

decoder.layers.1.self_attn.in_proj_weight f4 [12, 4]
000000 f8 90 f1 bd b4 3d f6 bd d8 ac 0c bf df 5b 07 bf
       -0.11795229 -0.12023488 -0.5495124 -0.5287456
000010 38 3f c4 bd 00 c0 01 3c 52 6e 8e be 70 37 6c 3e
       -0.095823705 0.0079193115 -0.27818543 0.23068023
000020 8a 19 0d bf d0 46 29 bd 3f dd 09 3f ce c6 7f be
       -0.55117095 -0.041327298 0.5385322 -0.24978182
000030 b9 8f 0d 3f 74 18 63 3e f6 79 0d bf 60 5f c6 3e
       0.5529743 0.22177297 -0.5526422 0.3874464
000040 80 b8 90 bd cb f6 8b be 12 b8 fa 3e ab 5d fd be
       -0.070664406 -0.27336726 0.4896856 -0.49485525
000050 48 93 86 3d e8 49 03 be 2a e6 df 3e 00 0b 2f 3e
       0.065710604 -0.12821162 0.4373029 0.1709404
000060 b4 a7 96 3e 88 74 5d 3e 58 cb 16 be 48 e0 03 be
       0.29424822 0.21626484 -0.14726007 -0.12878525
000070 66 30 01 bf 0e e3 a9 3e 8e f0 f8 3e 3a 87 d6 3e
       -0.50464475 0.3318104 0.4862103 0.41900045
000080 f3 e5 80 be 51 5e c7 3e d1 99 de be 39 15 45 bf
       -0.25175437 0.38939145 -0.43476728 -0.7698551
000090 cf 97 b1 bd df 79 e9 3d 77 36 27 bf 72 a9 f8 be
       -0.08671533 0.11400198 -0.6531748 -0.48566777
0000a0 40 ca fb 3c 9b 2a 57 bd f1 9b 24 3f 2c 6d ab 3e
       0.030736089 -0.052530866 0.6430045 0.3348173
0000b0 10 3b af 3d 02 ad 0b be 27 f4 5d 3f f0 96 39 3f
       0.08556187 -0.13640216 0.8670067 0.7249594

decoder.layers.1.self_attn.in_proj_bias f4 [12]
000000 00 00 00 00 00 00 00 00 00 00 00 00 00 00 00 00
       0.0 0.0 0.0 0.0
000010 00 00 00 00 00 00 00 00 00 00 00 00 00 00 00 00
       0.0 0.0 0.0 0.0
000020 36 b9 03 3f 19 50 33 bd 8f 34 44 3e 2d bc 92 bd
       0.51454484 -0.04377756 0.19160675 -0.07164798

decoder.layers.1.self_attn.out_proj.weight f4 [4, 4]
000000 21 3c 11 bd 20 ae a0 3d ed 4c 45 3c 46 ad 38 bc
       -0.035457734 0.07845712 0.012042266 -0.01127178
000010 b9 55 90 3c 97 86 81 3d 49 8a 10 3c ee fa c0 3b
       0.017619 0.06324499 0.008822032 0.005889288
000020 e2 98 ca bf 3c 05 7a 3e 2c a2 9c bd fc 79 c9 bd
       -1.5827906 0.2441606 -0.07648119 -0.0983772
000030 bd 31 42 3d 11 18 de 3d 9a 0f 4d 3b 1b 2e 1b bc
       0.047410715 0.10844434 0.0031289817 -0.009471442

decoder.layers.1.self_attn.out_proj.bias f4 [4]
000000 2e 66 3d 3c 3d ae 3f bd 6e 93 70 be 09 47 5d 3c
       0.011560006 -0.046797026 -0.2349374 0.013505706

decoder.layers.1.multihead_attn.in_proj_weight f4 [12, 4]
000000 5c 64 52 be e0 b8 b9 bd 80 7d db 3b 8b 4d 01 3f
       -0.20546097 -0.09068465 0.0066983104 0.50508946
000010 b0 90 9c 3d 57 6a 0c 3f 08 cb bf 3e 94 38 c6 be
       0.076447845 0.5484976 0.37459588 -0.3871504
000020 20 9f 8c 3e ee a2 dd be 47 e2 84 be 74 6f 38 3e
       0.27465153 -0.43288368 -0.25953886 0.18011266
000030 a8 0d 4f 3e f6 38 eb 3e 14 dd 49 be 00 7e 80 3a
       0.20220053 0.45941895 -0.19713241 0.0009803176
000040 40 6a a1 3e c5 9b 17 bf f6 ad e2 3e 6a a2 01 bf
       0.31526375 -0.5922206 0.44273347 -0.5063845
000050 00 48 0a 3c 80 39 d5 bd 58 21 a5 be c8 c2 a5 3d
       0.008440018 -0.10411358 -0.32252002 0.08093792
000060 45 a2 01 3f fc 4d 37 be ca 24 ba be 24 ea 67 be
       0.5063823 -0.17900842 -0.36356193 -0.22647911
000070 34 61 1b bf 16 87 8d 3e 4f 94 96 be fe 3b d1 be
       -0.60695195 0.27642125 -0.29410025 -0.40866083
000080 52 12 8b bc 13 da ca 3c fc 5d 1e 3c 32 42 84 3b
       -0.01697651 0.024762189 0.009665962 0.0040362114
000090 2d bc 8f bc 19 b1 06 bd b4 e4 00 3d bf 93 05 3b
       -0.017545784 -0.032883737 0.03146811 0.0020382253
0000a0 a5 c4 7d 3d 9f f7 98 bc 18 6e 75 3c 1c 56 cf ba
       0.061955113 -0.018672762 0.014979862 -0.0015818509
0000b0 ca 9b 3e 3c 2e 6c 25 ba 6c 08 cd bc 80 32 f1 3c
       0.011633823 -0.00063103705 -0.02502843 0.029443026

decoder.layers.1.multihead_attn.in_proj_bias f4 [12]
000000 00 00 00 00 00 00 00 00 00 00 00 00 00 00 00 00
       0.0 0.0 0.0 0.0
000010 00 00 00 00 00 00 00 00 00 00 00 00 00 00 00 00
       0.0 0.0 0.0 0.0
000020 c3 d2 25 3b 19 d1 b0 ba 89 0e a2 bc 14 95 7f 3a
       0.0025302626 -0.001349005 -0.019782322 0.00097496924

decoder.layers.1.multihead_attn.out_proj.weight f4 [4, 4]
000000 d4 e0 29 bb 4c b2 7f bd 80 37 0a 3d a8 95 aa 3b
       -0.0025921362 -0.062425897 0.033744335 0.0052058287
000010 d4 8a 33 bc 86 de 92 bd f9 a9 f1 3c d1 33 36 bc
       -0.010958392 -0.07171349 0.029499995 -0.011120752
000020 61 65 45 3b 9e c0 45 bd 1e 7b ca 3c 2e 0f be 3b
       0.003012024 -0.048279397 0.02471691 0.0058001494
000030 6d dd 33 bc 02 a0 9e bd 78 59 17 bd 9f e1 82 bc
       -0.010978085 -0.07745363 -0.03695056 -0.015976725

decoder.layers.1.multihead_attn.out_proj.bias f4 [4]
000000 17 bb 38 3d 03 89 14 bd e6 68 35 3a e4 21 20 3d
       0.045100298 -0.036263477 0.0006920233 0.03909482

decoder.layers.1.linear1.weight f4 [4, 4]
000000 69 df 61 3c 13 57 9b 3c ba 59 90 be 51 ae 93 bd
       0.013786175 0.018962419 -0.28193456 -0.072109826
000010 c8 77 42 3f 00 74 b6 3e cb 76 4d bf 2e 67 1b bf
       0.7596402 0.35635376 -0.8025939 -0.60704315
000020 7c d8 b8 be 57 09 0c 3f e4 63 93 bf b8 51 34 3f
       -0.36102664 0.5470175 -1.1514859 0.7043719
000030 a7 ea d7 3e 8c d3 b7 3d b2 e0 9a bf 04 d2 22 be
       0.42171213 0.08975896 -1.2099822 -0.15900427

decoder.layers.1.linear1.bias f4 [4]
000000 0f 1c 60 be 93 b2 bc bf b4 a3 9b be ff fd ef be
       -0.21885704 -1.4741997 -0.30398333 -0.4687347

decoder.layers.1.linear2.weight f4 [4, 4]
000000 2f d6 7c bd e7 06 ce be 4b 13 08 bf 91 ff 05 3d
       -0.0617277 -0.4023964 -0.5315444 0.03271443
000010 97 d0 dc bd 83 4d f3 3e f8 c6 f5 be 40 2e ac 3d
       -0.10781973 0.47520074 -0.48003364 0.08407259
000020 92 32 f0 bc 92 20 27 bf 06 05 97 3e f1 97 92 3e
       -0.029320989 -0.65284073 0.2949602 0.28631547
000030 5e 3a c8 3e 57 8c 93 be e3 3d 3a 3e ca 83 1a 3e
       0.3910703 -0.28818008 0.1818767 0.15089336

decoder.layers.1.linear2.bias f4 [4]
000000 15 1d 66 3c 8b a4 50 bb ca 15 cd 3c 05 c1 09 3c
       0.01404502 -0.0031836357 0.025034804 0.008407836

decoder.layers.1.norm1.weight f4 [4]
000000 3c 9d 53 40 97 f5 61 40 6c f8 70 bf 6d 97 5a 40
       3.3064718 3.5306146 -0.9412906 3.4154923

decoder.layers.1.norm1.bias f4 [4]
000000 c9 53 5b 3f 0b 33 39 bf ea 19 cc bf 47 7f b4 be
       0.8567472 -0.7234351 -1.5945408 -0.35253355

decoder.layers.1.norm2.weight f4 [4]
000000 e2 f6 6f c0 62 79 49 40 f7 35 91 3e 6a 3f 43 40
       -3.7494435 3.1480336 0.28361484 3.0507455

decoder.layers.1.norm2.bias f4 [4]
000000 59 b2 b8 bf 20 ae 87 bf e3 05 cc 3f 85 05 b7 bf
       -1.4429427 -1.0600014 1.5939296 -1.429856

decoder.layers.1.norm3.weight f4 [4]
000000 a3 33 b2 3c 9a f2 8c 3f f7 0b 50 3b 2e 43 49 3f
       0.021753138 1.1011536 0.0031745413 0.78618133

decoder.layers.1.norm3.bias f4 [4]
000000 09 a1 8f 3c 8c 9d e5 3e 3e e6 87 ba df 83 35 bf
       0.017532842 0.4484676 -0.00103683 -0.70904344

linear_mapping.weight f4 [1, 4]
000000 ba ab 85 be 80 93 a1 3b 24 b6 53 3e 90 84 20 3d
       -0.2610758 0.0049309134 0.2067495 0.03918892

linear_mapping_with_gender_ind.weight f4 [1, 5]
000000 b8 00 ef 3b 71 fb 1d bf 5d 04 a9 3b 03 6c 52 3d
       0.007293787 -0.61711794 0.005157991 0.05137254
000010 a3 3f ac ba
       -0.0013141524

exp_avg f4 [4, 5]
000000 82 a4 cb af e7 26 c9 af 0c 13 ca af c8 02 ca af
       -3.7042375e-10 -3.658933e-10 -3.675712e-10 -3.6745562e-10
000010 46 10 ca af f8 12 c2 2f da ba c5 2f eb 04 cb 2f
       -3.675515e-10 3.5301873e-10 3.5966857e-10 3.692898e-10
000020 6f 97 c6 2f fb 85 c6 2f f5 c5 05 2f e5 b6 22 2f
       3.612359e-10 3.611119e-10 1.2166608e-10 1.4798791e-10
000030 7b 71 33 2f 44 60 17 2f c4 b6 1a 2f 89 a0 8f 2f
       1.6320272e-10 1.376757e-10 1.407115e-10 2.6125616e-10
000040 bf 06 82 2f f0 f8 76 2f df 58 86 2f e4 ae 85 2f
       2.3651656e-10 2.246201e-10 2.4437605e-10 2.4316826e-10

exp_avg_sq f4 [4, 5]
000000 3c 5a 7b 22 f7 c0 7d 22 c5 7e 7e 22 11 60 7e 22
       3.4064613e-18 3.4390048e-18 3.449053e-18 3.4474276e-18
000010 3b 37 7f 22 f4 8a 7a 23 4a 51 42 23 a0 33 2e 23
       3.4588183e-18 1.3581952e-17 1.0533975e-17 9.443491e-18
000020 8a 72 56 23 d5 46 4c 23 8f f7 82 23 ae 4a e3 23
       1.1625218e-17 1.10738614e-17 1.4199473e-17 2.4643017e-17
000030 a9 b6 0c 24 a3 a3 b0 23 5a e6 c7 23 e8 ed f9 23
       3.051238e-17 1.9151261e-17 2.1673181e-17 2.7097391e-17
000040 74 72 88 23 37 f0 44 23 a8 6f af 23 92 c1 9a 23
       1.4793622e-17 1.0676049e-17 1.9020826e-17 1.6778694e-17

exp_avg f4 [4]
000000 d8 c1 10 2f 3f 03 0c af 10 43 5d ae 1f 50 bf ae
       1.3165591e-10 -1.2734079e-10 -5.0309146e-11 -8.699907e-11

exp_avg_sq f4 [4]
000000 8c 4b 0d 21 44 70 14 22 4a 5e 87 22 e5 13 77 22
       4.7872644e-19 2.0117173e-18 3.6691656e-18 3.3485274e-18

exp_avg f4 [4, 1]
000000 89 34 0b bc 76 d6 89 bd 7f dd 42 bc 63 eb 8f 3d
       -0.008496412 -0.06730358 -0.011893629 0.07027318

exp_avg_sq f4 [4, 1]
000000 d2 93 84 3c a5 67 2e 3d 20 82 9e 3c 90 33 3c 3d
       0.016183767 0.042579312 0.019349158 0.04594761

exp_avg f4 [4]
000000 11 7c 10 3b 56 c0 d4 3c 09 90 a2 3b 45 49 c6 bc
       0.0022046606 0.02597062 0.004961018 -0.02420486

exp_avg_sq f4 [4]
000000 35 10 27 3b 5d 7a b7 3b 77 c0 4b 3b d4 6c c5 3b
       0.0025491838 0.0055993036 0.003109006 0.006024936

exp_avg f4 [12, 4]
000000 a1 3c 9b 2c 87 12 7d ab ec 6b 4a ab fb 6e 86 2c
       4.412096e-12 -8.990937e-13 -7.191459e-13 3.8208304e-12
000010 98 03 b2 2d eb 2d e3 ad f6 59 27 2d 57 a0 f0 ad
       2.0237853e-11 -2.5827304e-11 9.512826e-12 -2.7356046e-11
000020 00 49 8d ad 3c e0 2d 2e cf 75 6b ad 01 57 37 2e
       -1.6062263e-11 3.9534806e-11 -1.3384362e-11 4.1686658e-11
000030 e2 a4 8c 2d 62 2d 91 ae 1e 61 ec 2d fe 12 bd ae
       1.598938e-11 -6.601898e-11 2.6873222e-11 -8.5980986e-11
000040 bf 2b bc ac ea a3 0b 2f 8b 93 d1 ac 7f a1 e6 2b
       -5.348138e-12 1.270021e-10 -5.956518e-12 1.6387307e-12
000050 31 c9 c1 ac 3f e1 c8 2e 0c 2b c3 ac 6b e5 35 2c
       -5.5077267e-12 9.134959e-11 -5.5470125e-12 2.5849e-12
000060 27 b5 57 2b 65 74 06 ad 3e e7 bf 2b 17 0f 9f 2a
       7.6634743e-13 -7.642863e-12 1.3635549e-12 2.8254544e-13
000070 b7 a6 95 2d 84 f5 0e af 7d 75 e6 2c b9 d5 9c ab
       1.7013375e-11 -1.300205e-10 6.550037e-12 -1.1143787e-12
000080 35 c0 14 2f 9c ff 11 b0 cf 74 76 2f 0c 09 34 b0
       1.3528807e-10 -5.3113935e-10 2.2415068e-10 -6.5496475e-10
000090 87 86 21 ae 52 b8 18 ae 4f 0f 09 2e c7 45 75 ae
       -3.6726646e-11 -3.4724508e-11 3.116379e-11 -5.5768525e-11
0000a0 74 58 16 ad c1 26 9d af fd bb 09 2f 5f 6d c2 af
       -8.546153e-12 -2.858567e-10 1.2526864e-10 -3.5366107e-10
0000b0 69 25 0c 2e 9c c3 e5 af 2d 48 4b 2f eb ea 13 b0
       3.186554e-11 -4.1793846e-10 1.8488384e-10 -5.3812127e-10

exp_avg_sq f4 [12, 4]
000000 86 dd 9f 1d d4 7b 07 1d df d0 2d 1c 74 4a bc 1d
       4.2316e-21 1.7931119e-21 5.751086e-22 4.984017e-21
000010 45 99 7f 1f e9 13 82 22 06 9c 3f 21 f5 96 d0 22
       5.4125132e-20 3.525765e-18 6.491981e-19 5.6538345e-18
000020 76 0d d6 1f e5 bc d7 22 b7 72 9e 21 8a 77 2c 23
       9.0654795e-20 5.8475867e-18 1.0736861e-18 9.349452e-18
000030 2e 0d 13 20 eb 93 b7 23 15 d4 86 22 ad be 12 24
       1.2455745e-19 1.9903545e-17 3.6545323e-18 3.1820212e-17
000040 62 de ca 1d 55 ba a9 24 bc 3a 0f 1f 6b 82 87 1d
       5.3698893e-21 7.3607726e-17 3.0330012e-20 3.586905e-21
000050 8f 1b 35 1c 8c 20 28 24 90 5b 8f 1e cb 2b 91 1c
       5.9923495e-22 3.645676e-17 1.5178583e-20 9.606615e-22
000060 e1 a9 92 1c 08 2d f8 20 12 05 9e 1b e8 89 5c 1c
       9.705382e-22 4.2042633e-19 2.6142184e-22 7.2970134e-22
000070 4c 2f 33 1f 58 8c 13 25 74 7f 8c 1f 15 26 f6 1e
       3.7943847e-20 1.2797768e-16 5.950316e-20 2.6062013e-20
000080 c1 da d5 22 bc 21 00 23 6e 6b c7 21 0b bb 7c 22
       5.796538e-18 6.9460374e-18 1.3513201e-18 3.4251388e-18
000090 b8 e2 b3 21 0d f5 14 22 7c ad 8f 21 f9 7c 1f 23
       1.2189524e-18 2.018747e-18 9.735978e-19 8.645871e-18
0000a0 b0 96 be 1f 92 fe ae 22 3c 2a b5 21 61 66 35 23
       8.071742e-20 4.743233e-18 1.2276216e-18 9.833709e-18
0000b0 dc 6a f8 1f 72 89 a4 22 63 91 b7 21 cc 2c 33 23
       1.0520887e-19 4.4597815e-18 1.2439046e-18 9.7130956e-18

exp_avg f4 [12]
000000 18 fb 14 ac 74 15 b3 ac b9 be 01 2d 7a 45 82 ac
       -2.117145e-12 -5.0898678e-12 7.37515e-12 -3.7025357e-12
000010 46 d3 a5 25 db d5 6b 25 0e ad 4b a4 24 2d 7f a6
       2.8766102e-16 2.0455458e-16 -4.416519e-17 -8.8532074e-16
000020 03 11 60 ae 7d 05 f5 ac a4 50 f3 ad e8 49 35 ae
       -5.0946813e-11 -6.963928e-12 -2.7661713e-11 -4.1220277e-11

exp_avg_sq f4 [12]
000000 c0 ba 41 1d bb d3 65 1f 4e aa bf 1f ac 72 99 20
       2.5639885e-21 4.8667776e-20 8.117339e-20 2.5995092e-19
000010 70 04 73 0f 65 a9 fc 0e 9b bf d0 0c 72 b7 ce 10
       1.198168e-29 6.2285917e-30 3.2162793e-31 8.1535315e-29
000020 ae f2 c7 1f 85 72 8e 1f 5b 23 a4 1f 96 9b c1 1f
       8.468126e-20 6.0328796e-20 6.951519e-20 8.1996075e-20

exp_avg f4 [4, 4]
000000 20 4b 83 31 e8 d5 07 af 0c 11 14 31 fc 8e 65 31
       3.8211425e-09 -1.2354173e-10 2.1546525e-09 3.3405163e-09
000010 a9 3e c4 30 13 60 bc ae 7e 32 5a 30 6e 0c a4 30
       1.4278686e-09 -8.5663164e-11 7.937969e-10 1.1936103e-09
000020 54 f2 3c ae 19 ba 53 ad 41 e1 02 af 5e d9 4b af
       -4.296148e-11 -1.2035283e-11 -1.1903457e-10 -1.8539967e-10
000030 a7 38 54 af 73 90 1b ad 13 ea 6c af 5b 8a b7 af
       -1.9301415e-10 -8.842804e-12 -2.1547235e-10 -3.3385814e-10

exp_avg_sq f4 [4, 4]
000000 5a 3c 0f 26 ed fa ee 21 15 32 02 25 a9 6e a1 25
       4.9694883e-16 1.6193927e-18 1.1292671e-16 2.8004034e-16
000010 33 59 d1 24 64 91 21 21 f9 9d 4b 24 9c 52 f5 24
       9.079041e-17 5.4741345e-19 4.4152416e-17 1.0639176e-16
000020 98 ea 82 22 bb fa 11 1e ca 3f 94 21 cc 7c 31 22
       3.5484956e-18 7.728086e-21 1.0045755e-18 2.405404e-18
000030 77 53 eb 24 bf 1f 08 20 4a 91 e7 23 13 d5 8e 24
       1.020564e-16 1.1530152e-19 2.5106602e-17 6.1943645e-17

exp_avg f4 [4]
000000 7a 03 3a 2f a3 54 c1 2d f9 19 73 2b 06 b7 6d ad
       1.6917837e-10 2.1979146e-11 8.6366987e-13 -1.351253e-11

exp_avg_sq f4 [4]
000000 90 a7 96 22 a3 8d 8f 21 36 dc 45 22 83 07 de 21
       4.0834995e-18 9.727548e-19 2.6815057e-18 1.5045293e-18

exp_avg f4 [4, 4]
000000 04 00 00 80 04 00 00 80 04 00 00 00 04 00 00 00
       -6e-45 -6e-45 6e-45 6e-45
000010 04 00 00 80 04 00 00 00 04 00 00 80 04 00 00 80
       -6e-45 6e-45 -6e-45 -6e-45
000020 b7 70 91 2c b8 aa 2d ab 40 41 00 2c c2 f2 e1 ac
       4.1336617e-12 -6.1698867e-13 1.8226115e-12 -6.421836e-12
000030 04 00 00 00 04 00 00 80 04 00 00 80 04 00 00 80
       6e-45 -6e-45 -6e-45 -6e-45

exp_avg_sq f4 [4, 4]
000000 19 00 00 00 19 00 00 00 19 00 00 00 19 00 00 00
       3.5e-44 3.5e-44 3.5e-44 3.5e-44
000010 19 00 00 00 19 00 00 00 19 00 00 00 19 00 00 00
       3.5e-44 3.5e-44 3.5e-44 3.5e-44
000020 2b fc 51 20 a9 ad 19 1e ac 71 8e 1f 8e 4b cc 20
       1.7786424e-19 8.135665e-21 6.0327394e-20 3.4608942e-19
000030 19 00 00 00 19 00 00 00 19 00 00 00 19 00 00 00
       3.5e-44 3.5e-44 3.5e-44 3.5e-44

exp_avg f4 [4]
000000 04 00 00 80 04 00 00 00 fa 38 47 ac 04 00 00 80
       -6e-45 6e-45 -2.831123e-12 -6e-45

exp_avg_sq f4 [4]
000000 19 00 00 00 19 00 00 00 b9 40 ca 1f 19 00 00 00
       3.5e-44 3.5e-44 8.56574e-20 3.5e-44

exp_avg f4 [4, 4]
000000 04 00 00 00 04 00 00 80 94 fe 1b 2c 04 00 00 80
       6e-45 -6e-45 2.2168144e-12 -6e-45
000010 04 00 00 00 04 00 00 80 51 91 47 ab 04 00 00 80
       6e-45 -6e-45 -7.090067e-13 -6e-45
000020 04 00 00 80 04 00 00 80 66 e3 84 ac 04 00 00 80
       -6e-45 -6e-45 -3.776912e-12 -6e-45
000030 04 00 00 80 04 00 00 80 04 ae 87 2a 04 00 00 80
       -6e-45 -6e-45 2.4101565e-13 -6e-45

exp_avg_sq f4 [4, 4]
000000 19 00 00 00 19 00 00 00 c7 22 3b 1b 19 00 00 00
       3.5e-44 3.5e-44 1.5479515e-22 3.5e-44
000010 19 00 00 00 19 00 00 00 52 3a 77 1e 19 00 00 00
       3.5e-44 3.5e-44 1.30881315e-20 3.5e-44
000020 19 00 00 00 19 00 00 00 6f 35 b2 1d 19 00 00 00
       3.5e-44 3.5e-44 4.7171457e-21 3.5e-44
000030 19 00 00 00 19 00 00 00 cf aa 9b 1d 19 00 00 00
       3.5e-44 3.5e-44 4.120477e-21 3.5e-44

exp_avg f4 [4]
000000 54 4d c6 b0 42 cf 21 30 ba c2 fe af 28 71 6f 2f
       -1.4428374e-09 5.886599e-10 -4.6340692e-10 2.1777125e-10

exp_avg_sq f4 [4]
000000 ed a9 51 25 e6 5b c1 25 1a 55 9d 25 c5 d6 ac 23
       1.8185433e-16 3.3542436e-16 2.7292826e-16 1.8739236e-17

exp_avg f4 [4]
000000 e8 44 a4 2f 5a 2a 0a b0 ea fe c8 b0 ac 38 a5 30
       2.9880387e-10 -5.026429e-10 -1.4624366e-09 1.2021437e-09

exp_avg_sq f4 [4]
000000 40 fd a6 24 f2 4a b3 24 95 3c 37 24 5a b7 09 24
       7.2420046e-17 7.775584e-17 3.9733114e-17 2.9862444e-17

exp_avg f4 [4]
000000 40 96 f4 af ea b8 1d b0 50 18 b1 2f 2a a7 3f 30
       -4.44901e-10 -5.7379046e-10 3.2213388e-10 6.972295e-10

exp_avg_sq f4 [4]
000000 6e ec bf 23 bb 85 2e 23 16 ea 5f 23 a3 c0 bd 23
       2.0808393e-17 9.4608774e-18 1.2138424e-17 2.0573006e-17

exp_avg f4 [4]
000000 86 89 9e af 3f e5 da b0 60 1e c9 b0 fb 18 aa b0
       -2.883775e-10 -1.5926743e-09 -1.4633308e-09 -1.2376228e-09

exp_avg_sq f4 [4]
000000 73 76 99 24 0e cd 88 24 bb 28 61 25 30 e0 71 24
       6.6553834e-17 5.9327974e-17 1.9529439e-16 5.244844e-17

exp_avg f4 [4]
000000 8e e4 f5 2e 60 26 6c ad 0a b7 72 2f c1 b7 11 b0
       1.11819096e-10 -1.3423568e-11 2.20748e-10 -5.301182e-10

exp_avg_sq f4 [4]
000000 d4 92 81 24 7d 8c 0b 24 7d b8 b4 24 1f 0b 82 23
       5.619357e-17 3.025982e-17 7.837509e-17 1.4099338e-17

exp_avg f4 [12, 4]
000000 53 83 f8 ae 41 a9 33 ad 02 99 1b b0 57 64 a6 30
       -1.1301062e-10 -1.0212554e-11 -5.660611e-10 1.2106608e-09
000010 13 ed 50 ae 12 b8 ae ac bd 62 8d af 25 22 15 30
       -4.750429e-11 -4.9658134e-12 -2.5717908e-10 5.4254407e-10
000020 3e 21 8a 2e c3 9b d3 2c 37 15 b3 2f 6c 42 3e b0
       6.2814184e-11 6.0142737e-12 3.2574984e-10 -6.921599e-10
000030 f9 07 93 ae 37 41 c4 ac fa 64 b2 af fe c7 3f 30
       -6.686202e-11 -5.5778954e-12 -3.244976e-10 6.97696e-10
000040 b3 43 04 b0 7e 6d 87 af b0 22 2d 30 d8 b5 48 30
       -4.8117527e-10 -2.4634156e-10 6.298633e-10 7.301799e-10
000050 c4 34 70 af ff 04 f4 ae d2 3c 9b 2f 64 22 b9 2f
       -2.1846619e-10 -1.1096723e-10 2.823755e-10 3.367574e-10
000060 90 5a 91 2f ff 2f 15 2f f1 7c be af ce cf dc af
       2.6439695e-10 1.3568523e-10 -3.4649575e-10 -4.016542e-10
000070 d5 42 49 af 8e f4 cf ae a8 60 84 2f 76 25 99 2f
       -1.8304587e-10 -9.456712e-11 2.4079339e-10 2.7857155e-10
000080 c7 ae 32 b0 f5 dd 22 af 0e 87 51 b0 3b db 5a 31
       -6.5004396e-10 -1.4812669e-10 -7.622568e-10 3.1847793e-09
000090 94 a4 85 af 9c a3 62 ae e9 0f b7 af 41 5c ad 30
       -2.43095e-10 -5.1531765e-11 -3.329881e-10 1.2613627e-09
0000a0 cf 97 68 2f 5f 26 62 2e 34 26 94 2f 88 3c 95 b0
       2.115421e-10 5.142053e-11 2.6948188e-10 -1.0858381e-09
0000b0 b0 26 db ae 4d 20 92 ad 5f 36 0b af 7f 8c 04 30
       -9.965839e-11 -1.6612623e-11 -1.2661293e-10 4.8220977e-10

exp_avg_sq f4 [12, 4]
000000 18 fa af 21 ad 70 3e 1e 8e 04 9a 22 2d 25 20 24
       1.1924661e-18 1.0081817e-20 4.1746606e-18 3.472596e-17
000010 d6 fe d3 20 84 bf 68 1d 59 a1 a2 21 b5 e7 34 23
       3.5913427e-19 3.0803956e-21 1.1020255e-18 9.8068854e-18
000020 4b 43 e8 20 f2 ec 7c 1d f9 6b c3 21 fe eb 4e 23
       3.934686e-19 3.347442e-21 1.3242294e-18 1.1217256e-17
000030 31 d3 8b 20 77 71 1b 1d 00 13 92 21 00 a6 0a 23
       2.368727e-19 2.057274e-21 9.898374e-19 7.516147e-18
000040 2d 47 14 24 e3 45 d2 21 d7 bf 17 23 59 65 a0 23
       3.2152673e-17 1.4248652e-18 8.22635e-18 1.7390157e-17
000050 f5 70 1c 23 30 78 cd 20 f6 d9 20 22 c1 39 a4 22
       8.4806965e-18 3.4807884e-19 2.179943e-18 4.451344e-18
000060 cf a2 2f 23 20 be f9 20 a0 1a 34 22 4b 9e be 22
       9.521245e-18 4.2308055e-19 2.4408644e-18 5.1667202e-18
000070 05 6f 9e 22 8b ee 65 20 f2 ef a2 21 9c f1 2d 22
       4.2943532e-18 1.9475982e-19 1.104106e-18 2.3573779e-18
000080 e2 a5 c6 23 a3 4e 89 21 01 e4 ea 23 ea 73 01 26
       2.1537457e-17 9.304296e-19 2.5466894e-17 4.491296e-16
000090 c4 9f 1b 22 03 f5 d2 1f 43 44 48 22 22 51 4f 24
       2.1090996e-18 8.93438e-20 2.7141192e-18 4.4954692e-17
0000a0 4a 5f b0 22 3f 4a 15 20 23 76 02 23 eb ca ea 24
       4.7805787e-18 1.2645357e-19 7.0723305e-18 1.0182508e-16
0000b0 56 9b fe 20 2b d6 9d 1e c6 12 36 21 14 e9 2e 23
       4.3132066e-19 1.67116e-20 6.1688845e-19 9.481915e-18

exp_avg f4 [12]
000000 e4 a7 c0 2f e4 8e 2e 2f 56 71 5d af 0c 22 5d 2f
       3.504389e-10 1.5875973e-10 -2.0140098e-10 2.0111929e-10
000010 78 0f f7 26 d7 6d 95 26 82 75 94 a6 7b 7b 51 26
       1.7143261e-15 1.0368724e-15 -1.0301414e-15 7.267879e-16
000020 5b 29 36 30 a2 d1 93 2f 13 80 79 af fd 5f e4 2e
       6.6269984e-10 2.6888097e-10 -2.2691919e-10 1.03852905e-10

exp_avg_sq f4 [12]
000000 ea d4 14 22 5a 09 23 21 0c b7 3e 21 15 ca 06 21
       2.0170456e-18 5.5238925e-19 6.4616765e-19 4.566842e-19
000010 78 21 cf 10 e4 4d 40 10 eb d1 4c 10 41 9b 9e 0f
       8.169867e-29 3.7925328e-29 4.039362e-29 1.5639805e-29
000020 35 4e bd 23 23 35 19 22 a7 a4 b2 22 06 6a 03 21
       2.0524543e-17 2.0763497e-18 4.842133e-18 4.4524847e-19

exp_avg f4 [4, 4]
000000 9d 39 da 32 ee 32 b4 b1 89 4b 40 32 20 af 02 b1
       2.540474e-08 -5.2444795e-09 1.1193046e-08 -1.9017037e-09
000010 88 c5 8a 32 6c 9d 66 b1 79 38 f7 31 70 3d a0 b0
       1.6155141e-08 -3.355889e-09 7.1950663e-09 -1.1658994e-09
000020 3a 2b 1f 31 84 df 02 b0 11 18 81 30 1f 0d 60 af
       2.3162117e-09 -4.761136e-10 9.392825e-10 -2.0377343e-10
000030 64 39 8b 30 da 5b 6c af 78 90 de 2f b1 6d c2 ae
       1.0129892e-09 -2.1496707e-10 4.0484216e-10 -8.841584e-11

exp_avg_sq f4 [4, 4]
000000 0a 05 18 29 69 1c cd 26 b8 78 f4 27 7e d9 4b 25
       3.375515e-14 1.4232433e-15 6.785449e-15 1.7681133e-16
000010 6b 2c 56 28 30 49 0f 26 48 bc 2b 27 88 bf 93 24
       1.1889018e-14 4.971228e-16 2.3833085e-15 6.4075554e-17
000020 27 31 45 26 c6 0c ef 23 a9 01 17 25 70 11 ae 22
       6.841472e-16 2.5917842e-17 1.3097725e-16 4.7181257e-18
000030 53 77 7f 25 c4 4e 1c 23 90 a3 44 24 0d 9b de 21
       2.2158153e-16 8.473456e-18 4.2639268e-17 1.5084347e-18

exp_avg f4 [4]
000000 a9 67 74 af 5c 69 61 30 08 76 06 b1 c3 ce 40 b0
       -2.2228498e-10 8.200425e-10 -1.956666e-09 -7.014302e-10

exp_avg_sq f4 [4]
000000 a2 32 10 25 2b 76 7b 24 10 3b 39 24 9b 9e 9b 22
       1.2507164e-16 5.452704e-17 4.0165508e-17 4.2180764e-18

exp_avg f4 [4, 4]
000000 04 00 00 00 04 00 00 00 04 00 00 80 04 00 00 00
       6e-45 6e-45 -6e-45 6e-45
000010 04 00 00 80 04 00 00 00 04 00 00 80 04 00 00 00
       -6e-45 6e-45 -6e-45 6e-45
000020 94 5f 30 31 52 7d 79 b2 31 2d c1 b2 14 58 fb 33
       2.56657e-09 -1.4522202e-08 -2.2488708e-08 1.17041196e-07
000030 04 00 00 80 04 00 00 00 04 00 00 80 04 00 00 00
       -6e-45 6e-45 -6e-45 6e-45

exp_avg_sq f4 [4, 4]
000000 57 ec 02 04 67 f2 86 00 ec e7 5d 07 20 82 b4 07
       1.5389948e-36 1.2392914e-38 1.6694348e-34 2.715987e-34
000010 19 00 00 00 19 00 00 00 19 00 00 00 19 00 00 00
       3.5e-44 3.5e-44 3.5e-44 3.5e-44
000020 58 d7 27 25 fa b6 90 27 92 2e 6d 28 5f 1f 7f 2a
       1.4557902e-16 4.0166412e-15 1.3166241e-14 2.2659434e-13
000030 19 00 00 00 19 00 00 00 19 00 00 00 19 00 00 00
       3.5e-44 3.5e-44 3.5e-44 3.5e-44

exp_avg f4 [4]
000000 04 00 00 00 04 00 00 00 1d 5f 9b 32 04 00 00 00
       6e-45 6e-45 1.8087627e-08 6e-45

exp_avg_sq f4 [4]
000000 5d ee bf 06 19 00 00 00 9e 4c e6 27 19 00 00 00
       7.219646e-35 3.5e-44 6.3920892e-15 3.5e-44

exp_avg f4 [4, 4]
000000 04 00 00 80 04 00 00 00 92 b0 0a b3 04 00 00 00
       -6e-45 6e-45 -3.229122e-08 6e-45
000010 04 00 00 00 04 00 00 80 b6 f7 65 b3 04 00 00 00
       6e-45 -6e-45 -5.354351e-08 6e-45
000020 04 00 00 80 04 00 00 80 a6 a9 49 b2 04 00 00 00
       -6e-45 -6e-45 -1.1738313e-08 6e-45
000030 04 00 00 00 04 00 00 80 16 02 09 b2 04 00 00 00
       6e-45 -6e-45 -7.974924e-09 6e-45

exp_avg_sq f4 [4, 4]
000000 f2 0f ed 05 19 00 00 00 5f 78 5a 2b 19 00 00 00
       2.229323e-35 3.5e-44 7.7616207e-13 3.5e-44
000010 ba 1b d1 04 19 00 00 00 3f 94 95 2a 19 00 00 00
       4.9161127e-36 3.5e-44 2.6570583e-13 3.5e-44
000020 db db 03 00 19 00 00 00 ba 46 62 29 19 00 00 00
       3.54376e-40 3.5e-44 5.0243426e-14 3.5e-44
000030 e0 e7 05 04 19 00 00 00 c4 0e a6 28 19 00 00 00
       1.5740547e-36 3.5e-44 1.8436106e-14 3.5e-44

exp_avg f4 [4]
000000 40 08 88 32 3b 64 04 b3 74 63 61 b2 ad 94 07 b2
       1.5836235e-08 -3.0824804e-08 -1.3119337e-08 -7.891839e-09

exp_avg_sq f4 [4]
000000 7d 67 1a 2a 46 9c 46 29 70 cc 2b 28 3c 23 8c 27
       1.3713852e-13 4.4100377e-14 9.536737e-15 3.8896007e-15

exp_avg f4 [4]
000000 ac 20 d3 b2 90 3c df b1 4c ea 7b 30 a9 eb 48 b2
       -2.457849e-08 -6.4970394e-09 9.1646224e-10 -1.1695115e-08

exp_avg_sq f4 [4]
000000 80 c3 82 28 76 ae ae 26 67 3f 8a 28 03 c9 80 28
       1.4517684e-14 1.2120963e-15 1.5348574e-14 1.429803e-14

exp_avg f4 [4]
000000 7b 2c 1d 33 51 e8 93 31 58 6c ac b1 23 2f bf b1
       3.6594866e-08 4.3046744e-09 -5.018176e-09 -5.5641904e-09

exp_avg_sq f4 [4]
000000 4a 7d 0e 2a 79 88 15 29 01 0a 36 28 2a 72 1e 28
       1.2655602e-13 3.3203017e-14 1.0105199e-14 8.795517e-15

exp_avg f4 [4]
000000 de b0 25 34 00 b0 81 35 27 19 1f b6 a0 5b 82 b6
       1.5431166e-07 9.662472e-07 -2.3707487e-06 -3.8849685e-06

exp_avg_sq f4 [4]
000000 8a 1b 84 2e 51 ef 85 30 24 48 3a 2f 6e 46 a4 30
       6.007557e-11 9.745041e-10 1.6942231e-10 1.1952588e-09

exp_avg f4 [4]
000000 ac 42 af b5 68 d0 30 35 32 c9 ce 36 e4 c6 1e b6
       -1.305792e-06 6.586838e-07 6.1627006e-06 -2.3659604e-06

exp_avg_sq f4 [4]
000000 ff 06 94 30 d3 2d da 30 70 49 91 2f de 5b eb 2f
       1.0770406e-09 1.5874612e-09 2.6427527e-10 4.2811527e-10

exp_avg f4 [12, 4]
000000 00 00 00 00 00 00 00 00 00 00 00 00 00 00 00 00
       0.0 0.0 0.0 0.0
000010 00 00 00 00 00 00 00 00 00 00 00 00 00 00 00 00
       0.0 0.0 0.0 0.0
000020 00 00 00 00 00 00 00 00 00 00 00 00 00 00 00 00
       0.0 0.0 0.0 0.0
000030 00 00 00 00 00 00 00 00 00 00 00 00 00 00 00 00
       0.0 0.0 0.0 0.0
000040 00 00 00 00 00 00 00 00 00 00 00 00 00 00 00 00
       0.0 0.0 0.0 0.0
000050 00 00 00 00 00 00 00 00 00 00 00 00 00 00 00 00
       0.0 0.0 0.0 0.0
000060 00 00 00 00 00 00 00 00 00 00 00 00 00 00 00 00
       0.0 0.0 0.0 0.0
000070 00 00 00 00 00 00 00 00 00 00 00 00 00 00 00 00
       0.0 0.0 0.0 0.0
000080 e4 b2 6c b9 a8 6c 9a 3a a4 8e d8 b9 7b aa 70 bb
       -0.00022573356 0.001178165 -0.00041305006 -0.0036722708
000090 bc ea d8 ba 95 c0 34 3a c0 74 d8 3b ef 7e 16 3a
       -0.0016549448 0.0006895152 0.0066057146 0.00057409605
0000a0 b0 c1 19 ba 21 90 b2 ba 22 9e b9 39 6a 94 33 3b
       -0.00058653485 -0.0013623276 0.00035403768 0.0027401694
0000b0 8a a1 bd ba 8c f9 0e bb a0 7f 47 3b 63 95 b1 3b
       -0.0014467698 -0.0021816222 0.003044106 0.0054194196

exp_avg_sq f4 [12, 4]
000000 00 00 00 00 00 00 00 00 00 00 00 00 00 00 00 00
       0.0 0.0 0.0 0.0
000010 00 00 00 00 00 00 00 00 00 00 00 00 00 00 00 00
       0.0 0.0 0.0 0.0
000020 00 00 00 00 00 00 00 00 00 00 00 00 00 00 00 00
       0.0 0.0 0.0 0.0
000030 00 00 00 00 00 00 00 00 00 00 00 00 00 00 00 00
       0.0 0.0 0.0 0.0
000040 00 00 00 00 00 00 00 00 00 00 00 00 00 00 00 00
       0.0 0.0 0.0 0.0
000050 00 00 00 00 00 00 00 00 00 00 00 00 00 00 00 00
       0.0 0.0 0.0 0.0
000060 00 00 00 00 00 00 00 00 00 00 00 00 00 00 00 00
       0.0 0.0 0.0 0.0
000070 00 00 00 00 00 00 00 00 00 00 00 00 00 00 00 00
       0.0 0.0 0.0 0.0
000080 be 6e 3c 38 5f dc ee 37 47 ed a3 38 6f 5b 0b 39
       4.492583e-05 2.847443e-05 7.816642e-05 0.00013290135
000090 c4 12 50 39 3a 00 3c 38 90 d1 02 3a dd fa 00 39
       0.00019843417 4.4822904e-05 0.00049903337 0.00012300485
0000a0 27 2a ea 37 d3 2b ca 37 ba 49 71 38 eb a0 16 39
       2.7914602e-05 2.4100684e-05 5.752754e-05 0.00014365061
0000b0 0a 4c 6a 38 01 db e7 38 d4 49 8c 38 e8 ed 3a 3a
       5.5860764e-05 0.00011055731 6.689472e-05 0.00071307877

exp_avg f4 [12]
000000 00 00 00 00 00 00 00 00 00 00 00 00 00 00 00 00
       0.0 0.0 0.0 0.0
000010 00 00 00 00 00 00 00 00 00 00 00 00 00 00 00 00
       0.0 0.0 0.0 0.0
000020 7c 95 13 bc ad 89 7b bc a5 72 dd 3b 38 c5 e3 3b
       -0.009007808 -0.015352649 0.0067580515 0.0069510005

exp_avg_sq f4 [12]
000000 00 00 00 00 00 00 00 00 00 00 00 00 00 00 00 00
       0.0 0.0 0.0 0.0
000010 00 00 00 00 00 00 00 00 00 00 00 00 00 00 00 00
       0.0 0.0 0.0 0.0
000020 b8 81 4e 3b dd 0c ac 3b ff 79 a6 3a 6e a6 b5 3b
       0.0031510424 0.005250557 0.0012701153 0.0055435216

exp_avg f4 [4, 4]
000000 b9 08 ce ba 74 9a 3f 3b 6b 67 52 3b b9 32 de 3a
       -0.0015719152 0.0029236348 0.00321051 0.0016952372
000010 cc f5 03 3a 6d d0 cb ba 2c 23 54 bb d1 2d cc 3a
       0.000503388 -0.0015549787 -0.0032369597 0.0015577619
000020 eb 40 38 ba 75 6d 52 3b ba e4 83 3b 10 3d dc 3a
       -0.00070287165 0.0032108699 0.004025069 0.0016802866
000030 e5 99 fc 3a f4 bd c8 bb 35 b0 ba bb e0 cb 9e bb
       0.0019271938 -0.00612616 -0.005697275 -0.004846081

exp_avg_sq f4 [4, 4]
000000 30 f4 b9 37 da ea 44 39 4a 8c af 39 55 11 7a 38
       2.2167427e-05 0.00018779506 0.00033483125 5.9620786e-05
000010 db 85 8d 38 43 41 8c 39 83 6f a1 3a 63 77 02 39
       6.7483365e-05 0.00026751505 0.0012316558 0.00012442241
000020 ed 09 57 38 e6 71 05 3a 7f 8b 38 3a a7 48 03 39
       5.126924e-05 0.00050905196 0.00070398295 0.00012520199
000030 e6 8a 40 39 57 1f 9b 3a 31 08 25 3b 95 d6 9c 39
       0.0001836229 0.0011834902 0.0025181884 0.00029914515

exp_avg f4 [4]
000000 5a fd 8f bb b8 6b dd 3c 4f 53 3d 3c 5f bf 15 bd
       -0.0043942155 0.027028903 0.011555507 -0.03655946

exp_avg_sq f4 [4]
000000 14 ae 08 3b ea 97 19 3c ec e1 f0 3b bc 04 52 3c
       0.0020855712 0.009374598 0.0073511507 0.012818512

exp_avg f4 [12, 4]
000000 00 00 00 00 00 00 00 00 00 00 00 00 00 00 00 00
       0.0 0.0 0.0 0.0
000010 00 00 00 00 00 00 00 00 00 00 00 00 00 00 00 00
       0.0 0.0 0.0 0.0
000020 00 00 00 00 00 00 00 00 00 00 00 00 00 00 00 00
       0.0 0.0 0.0 0.0
000030 00 00 00 00 00 00 00 00 00 00 00 00 00 00 00 00
       0.0 0.0 0.0 0.0
000040 00 00 00 00 00 00 00 00 00 00 00 00 00 00 00 00
       0.0 0.0 0.0 0.0
000050 00 00 00 00 00 00 00 00 00 00 00 00 00 00 00 00
       0.0 0.0 0.0 0.0
000060 00 00 00 00 00 00 00 00 00 00 00 00 00 00 00 00
       0.0 0.0 0.0 0.0
000070 00 00 00 00 00 00 00 00 00 00 00 00 00 00 00 00
       0.0 0.0 0.0 0.0
000080 68 44 37 33 32 e9 e0 b4 eb 38 c1 35 87 91 2f 35
       4.2670223e-08 -4.1892923e-07 1.4396186e-06 6.540435e-07
000090 92 68 b7 b4 16 f2 84 35 18 46 0b b6 4f 01 f4 b4
       -3.416249e-07 9.905223e-07 -2.0753414e-06 -4.5449494e-07
0000a0 b0 70 60 34 dd a0 47 b5 2f 0c c3 35 4b ed fa 33
       2.0902621e-07 -7.4367364e-07 1.4532178e-06 1.16846955e-07
0000b0 cc cc 77 35 1d 5f fc b5 0e 5c 91 36 06 b5 58 35
       9.231269e-07 -1.8803145e-06 4.3320533e-06 8.0729694e-07

exp_avg_sq f4 [12, 4]
000000 00 00 00 00 00 00 00 00 00 00 00 00 00 00 00 00
       0.0 0.0 0.0 0.0
000010 00 00 00 00 00 00 00 00 00 00 00 00 00 00 00 00
       0.0 0.0 0.0 0.0
000020 00 00 00 00 00 00 00 00 00 00 00 00 00 00 00 00
       0.0 0.0 0.0 0.0
000030 00 00 00 00 00 00 00 00 00 00 00 00 00 00 00 00
       0.0 0.0 0.0 0.0
000040 00 00 00 00 00 00 00 00 00 00 00 00 00 00 00 00
       0.0 0.0 0.0 0.0
000050 00 00 00 00 00 00 00 00 00 00 00 00 00 00 00 00
       0.0 0.0 0.0 0.0
000060 00 00 00 00 00 00 00 00 00 00 00 00 00 00 00 00
       0.0 0.0 0.0 0.0
000070 00 00 00 00 00 00 00 00 00 00 00 00 00 00 00 00
       0.0 0.0 0.0 0.0
000080 ab 2a 30 2e 86 ca f8 2e 7f f9 8b 2d 3e da 61 2f
       4.0055664e-11 1.131371e-10 1.5913269e-11 2.0541166e-10
000090 de 99 85 2d b3 72 4a 2e a3 91 24 2e cd 77 bf 2e
       1.518868e-11 4.6031356e-11 3.7418634e-11 8.706955e-11
0000a0 c2 07 6d 2d be 66 12 2e df e9 01 2e 63 34 88 2e
       1.3473613e-11 3.328781e-11 2.9538923e-11 6.19387e-11
0000b0 56 cf 0b 2d 4e dd 46 2d 58 c7 2a 2f 58 93 99 2d
       7.947273e-12 1.13041364e-11 1.5532231e-10 1.745952e-11

exp_avg f4 [12]
000000 00 00 00 00 00 00 00 00 00 00 00 00 00 00 00 00
       0.0 0.0 0.0 0.0
000010 00 00 00 00 00 00 00 00 00 00 00 00 00 00 00 00
       0.0 0.0 0.0 0.0
000020 a1 2a 26 b8 b2 41 ab 38 4e 14 76 b8 3e a9 33 b9
       -3.9617185e-05 8.166152e-05 -5.866988e-05 -0.00017133818

exp_avg_sq f4 [12]
000000 00 00 00 00 00 00 00 00 00 00 00 00 00 00 00 00
       0.0 0.0 0.0 0.0
000010 00 00 00 00 00 00 00 00 00 00 00 00 00 00 00 00
       0.0 0.0 0.0 0.0
000020 1f be 25 34 f8 87 a3 33 84 89 89 33 b6 90 dd 33
       1.5435988e-07 7.6150116e-08 6.4045736e-08 1.0317437e-07

exp_avg f4 [4, 4]
000000 21 ba 2a 36 58 41 40 36 b0 46 64 b6 a8 0d 01 b6
       2.5440315e-06 2.8648265e-06 -3.4015793e-06 -1.9230447e-06
000010 56 82 d4 b5 df 69 ba b7 0f 27 b7 37 3b f5 a3 37
       -1.5833164e-06 -2.2222228e-05 2.1833488e-05 1.9545309e-05
000020 b5 93 8d 35 14 6a 1b b8 f2 ed 13 38 23 fa 14 38
       1.0548307e-06 -3.7053673e-05 3.5269135e-05 3.5518908e-05
000030 d7 93 18 b5 12 26 82 38 57 d6 77 b8 44 ec 73 b8
       -5.683955e-07 6.205974e-05 -5.908901e-05 -5.8155754e-05

exp_avg_sq f4 [4, 4]
000000 5e 64 b2 30 3c 69 93 30 f8 75 7e 30 ed 32 80 30
       1.2979731e-09 1.0725567e-09 9.2572305e-10 9.3277e-10
000010 a6 92 12 32 34 c4 10 32 c1 98 f4 31 d8 8b 06 32
       8.5316625e-09 8.426515e-09 7.1187007e-09 7.831623e-09
000020 99 39 4a 32 e8 0c 0a 32 be ca e6 31 37 01 9a 31
       1.1771044e-08 8.035592e-09 6.71693e-09 4.482128e-09
000030 06 44 b1 32 37 9f 95 32 31 9b 81 32 cb c9 57 32
       2.0636445e-08 1.7418285e-08 1.508815e-08 1.25605295e-08

exp_avg f4 [4]
000000 45 7f 5e ba c2 ae 36 3b 5a 7a 41 3b 50 bc bc bb
       -0.00084875926 0.002787516 0.002952239 -0.0057597533

exp_avg_sq f4 [4]
000000 5f da a5 37 44 3c f7 38 8b 5c fe 38 32 e7 91 39
       1.977122e-05 0.00011789103 0.00012128901 0.0002782881

exp_avg f4 [4, 4]
000000 1e 86 0e 38 74 2f 8d b8 f6 c4 64 b8 3c 59 03 b8
       3.3980345e-05 -6.732243e-05 -5.454287e-05 -3.131594e-05
000010 b8 45 15 ba fa af 78 ba 52 13 f6 b9 e1 7f 4c b9
       -0.0005694288 -0.0009486672 -0.0004693517 -0.00019502595
000020 07 32 72 b8 55 b4 dc 38 28 df 5f 38 90 72 7e b8
       -5.7743888e-05 0.00010524007 5.3375174e-05 -6.0665014e-05
000030 04 00 00 80 04 00 00 00 04 00 00 80 04 00 00 80
       -6e-45 6e-45 -6e-45 -6e-45

exp_avg_sq f4 [4, 4]
000000 a3 12 c1 34 f5 72 37 35 da 57 0a 35 bf b6 0a 35
       3.596261e-07 6.8340097e-07 5.1536847e-07 5.1674937e-07
000010 7d 1a 20 37 2a 5a 18 36 40 85 78 36 7e f2 28 38
       9.54291e-06 2.2702247e-06 3.7032441e-06 4.028016e-05
000020 13 6a cb 35 5e 16 d7 36 22 d0 ef 35 b9 d3 a1 35
       1.515555e-06 6.410103e-06 1.7867462e-06 1.2057054e-06
000030 19 00 00 00 19 00 00 00 19 00 00 00 19 00 00 00
       3.5e-44 3.5e-44 3.5e-44 3.5e-44

exp_avg f4 [4]
000000 b0 d1 eb 37 fa ea a8 b9 7e 38 21 b8 04 00 00 00
       2.8111826e-05 -0.00032218528 -3.8438004e-05 6e-45

exp_avg_sq f4 [4]
000000 d7 f0 2d 34 8c ea 3a 36 5a 2f 4e 35 19 00 00 00
       1.6199498e-07 2.7852684e-06 7.6809886e-07 3.5e-44

exp_avg f4 [4, 4]
000000 ae 60 28 b8 1a 82 8c 38 5b bf 85 37 04 00 00 80
       -4.014436e-05 6.6999535e-05 1.5943942e-05 -6e-45
000010 2f 53 1e b3 08 7b 77 b7 1b 65 a5 36 04 00 00 80
       -3.6862897e-08 -1.4750993e-05 4.9291534e-06 -6e-45
000020 1d 67 88 38 86 a5 a2 b7 6e 35 ae b6 04 00 00 80
       6.504192e-05 -1.9388983e-05 -5.191824e-06 -6e-45
000030 31 2d 3b 38 70 cd a8 b7 ff de 04 b7 04 00 00 00
       4.4626362e-05 -2.0122825e-05 -7.919733e-06 6e-45

exp_avg_sq f4 [4, 4]
000000 44 5a f4 33 ce b4 2f 33 b0 7c f4 34 19 00 00 00
       1.13785546e-07 4.0909804e-08 4.5539264e-07 3.5e-44
000010 82 3e c0 31 15 fb 64 32 b6 8b 4c 32 19 00 00 00
       5.5950418e-09 1.3328436e-08 1.1906129e-08 3.5e-44
000020 5a 5f 61 34 f0 f3 79 32 6d 91 8f 34 19 00 00 00
       2.0989447e-07 1.45491725e-08 2.6741637e-07 3.5e-44
000030 6a 8c c3 33 a4 5c 47 31 21 59 f3 33 19 00 00 00
       9.105936e-08 2.9010971e-09 1.1331782e-07 3.5e-44

exp_avg f4 [4]
000000 68 b8 0f 3b 60 02 87 3b 0a 19 57 bb e9 ac 73 bb
       0.0021929983 0.004120156 -0.003282132 -0.003718192

exp_avg_sq f4 [4]
000000 10 10 90 39 f0 7d 38 39 b7 c6 54 38 a6 12 cb 38
       0.00027477788 0.00017594523 5.0729806e-05 9.683268e-05

exp_avg f4 [4]
000000 b2 02 93 39 71 c7 19 ba 4e da c6 ba 58 85 3e bb
       0.00028040033 -0.0005866206 -0.0015171261 -0.0029071178

exp_avg_sq f4 [4]
000000 8f 5c ae 37 15 8f 9b 38 9e e8 49 38 57 aa 3d 38
       2.0785517e-05 7.417627e-05 4.8138776e-05 4.5219753e-05

exp_avg f4 [4]
000000 34 c4 75 ba df 32 80 3b be 1b 3a 3b 36 88 be bb
       -0.0009375245 0.0039123143 0.0028397883 -0.0058145775

exp_avg_sq f4 [4]
000000 eb 7b 78 37 a1 bb e1 38 95 17 da 38 b5 f2 8f 39
       1.4810804e-05 0.00010763785 0.000103994425 0.00027455916

exp_avg f4 [4]
000000 48 3f 7d 3a a9 93 c7 3a a6 d7 00 3b 9c cb a9 38
       0.0009660614 0.0015226501 0.0019659786 8.096473e-05

exp_avg_sq f4 [4]
000000 62 47 9f 39 93 37 90 38 47 70 84 38 18 2d 45 37
       0.00030380028 6.8768066e-05 6.315164e-05 1.1752614e-05

exp_avg f4 [4]
000000 5a 66 be 3a 4c 9d 5d 3b e1 6c 25 bb 45 cc 23 bb
       0.0014526353 0.003381568 -0.00252419 -0.002499358

exp_avg_sq f4 [4]
000000 10 46 89 39 e6 2c 1d 39 60 6b 38 38 75 6a bc 38
       0.00026182877 0.00014989413 4.396902e-05 8.984368e-05

exp_avg f4 [4]
000000 eb f0 57 ba ac fb 17 bb 10 a8 64 38 eb 46 94 ba
       -0.00082374987 -0.002319078 5.4515956e-05 -0.0011312639

exp_avg_sq f4 [4]
000000 ff 7a 9d 37 b4 52 22 38 de 60 5f 36 ad 30 48 38
       1.8773133e-05 3.8700833e-05 3.3285974e-06 4.772905e-05

exp_avg f4 [4]
000000 60 16 08 bb 02 13 14 3b 1c d7 2b b9 44 c6 14 ba
       -0.002076529 0.0022594337 -0.00016387965 -0.0005675296

exp_avg_sq f4 [4]
000000 99 be b1 38 59 d7 87 38 81 75 13 36 1b b0 95 38
       8.475519e-05 6.477413e-05 2.1973103e-06 7.137676e-05
