Saved_models/checkpoint_both.pt (torch, 48921 bytes, 108 tensors)

encoder_input_layer.weight f4 [4, 3]
00000000: da51 083e 1cf7 e43e 953c adbe de89 ecbe
00000010: 7b16 85be 6709 f03d 969b 34bd d8a4 d93e
00000020: d96b abbd 2ef8 223e 220b 2cbe 40ad dbbd
0.13312474 0.4471978 -0.33835283 -0.46198934 -0.25993714 0.11720543 -0.04409369 0.42508578
-0.0837018 0.15914986 -0.16801122 -0.10726404

encoder_input_layer.bias f4 [4]
00000000: 6897 33bf 3687 b6be 135f 5dbe 002b 983c
-0.701529 -0.35650033 -0.21618299 0.018575191

decoder_input_layer.weight f4 [4, 1]
00000000: 7163 403f dbd9 cc3e 85fb 5bbf 3cdd d1bc
0.75151736 0.4000996 -0.85930663 -0.025618188

decoder_input_layer.bias f4 [4]
00000000: 9ea5 c2bd f722 8e3f 62a0 9dbd 5d12 8b3e
-0.09504245 1.110442 -0.07696606 0.27162448

positional_encoding_layer_enc.pe f4 [1, 7, 4]
00000000: 0000 0000 0000 803f 0000 0000 0000 803f
00000010: a46a 573f 4151 0a3f 57d6 233c b9fc 7f3f
00000020: b7c7 683f 3311 d5be 3ed4 a33c e5f2 7f3f
00000030: c381 103e 2670 7dbf 1fb9 f53c 83e2 7f3f
00000040: cfbd 41bf 3055 27bf dbcb 233d 94cb 7f3f
00000050: 107c 75bf 2c3c 913e f4b6 4c3d 19ae 7f3f
00000060: 8c0f 8fbe b8cd 753f d19c 753d 128a 7f3f
0.0 1.0 0.0 1.0 0.84147096 0.54030234 0.009999833 0.99995
0.9092974 -0.41614684 0.019998666 0.9998 0.14112 -0.9899925 0.0299955 0.99955004
-0.7568025 -0.6536436 0.039989334 0.9992001 -0.9589243 0.2836622 0.049979165 0.99875027
-0.2794155 0.96017027 0.059964005 0.99820054

positional_encoding_layer_dec.pe f4 [1, 3, 4]
00000000: 0000 0000 0000 803f 0000 0000 0000 803f
00000010: a46a 573f 4151 0a3f 57d6 233c b9fc 7f3f
00000020: b7c7 683f 3311 d5be 3ed4 a33c e5f2 7f3f
0.0 1.0 0.0 1.0 0.84147096 0.54030234 0.009999833 0.99995
0.9092974 -0.41614684 0.019998666 0.9998

encoder.layers.0.self_attn.in_proj_weight f4 [12, 4]
00000000: a67e efbe bb36 acbe 70b0 c53e 39e9 d03e
00000010: 5f2b 94be 9b02 52bd 9cde cc3e c41f 2a3f
00000020: 3152 343e 369e b53d 7eea d23e 0375 cabe
00000030: 5acb 003c 87ac 91be dd54 22bf 6862 1bbe
00000040: 76bc cb3e 5dba 093e 1eb7 e1be 612f 593e
00000050: 8a95 cf3e 9e9a 1cbe 2aa0 8d3d d404 503e
00000060: f14f ac3e 2f5f 103f a988 24bf 0402 8cbe
00000070: dd2c 4f3e 19af 053f 0430 ec3e c701 ef3e
00000080: 3380 f23d 798b 09bf efb8 833d 02a2 c6be
00000090: e952 23bf fdd8 323f f9c7 cc3e 1e08 0bbf
000000a0: 96fd b63d d791 01bd 8596 05be c270 83be
000000b0: 8481 823d c8b5 73be e749 4b3d 6f13 fc3e
-0.46776313 -0.33635506 0.38611174 0.40802935 -0.2893934 -0.051272016 0.40013587 0.6645472
0.17609479 0.08868067 0.41194528 -0.39542398 0.007860983 -0.2845194 -0.6341074 -0.15174258
0.39792222 0.13449998 -0.4408502 0.2120948 0.40543777 -0.15293357 0.069153145 0.20314342
0.3365474 0.5639524 -0.64271027 -0.27345288 0.20231958 0.522203 0.46130383 0.46681044
0.11840858 -0.53728443 0.06431758 -0.38795477 -0.63798386 0.6986235 0.39996317 -0.5430926
0.089350864 -0.031633224 -0.130457 -0.25671965 0.063723594 -0.23799813 0.049631026 0.49233577

encoder.layers.0.self_attn.in_proj_bias f4 [12]
00000000: dc7d 85bc 42d6 1fbd 92bb e4bb 37a0 453e
00000010: 509a dc39 66c6 3eba 4239 8c3a b9d8 d83a
00000020: 45ea 663c 4fc9 bf3d 0a36 503d e24a 293e
-0.016295366 -0.03902269 -0.006980368 0.19299398 0.00042076642 -0.00072774885 0.0010698217 0.001654408
0.01409394 0.093645684 0.050832786 0.16532472

encoder.layers.0.self_attn.out_proj.weight f4 [4, 4]
00000000: 5539 93bb a9dd b23d 94cc 023f 0332 edbe
00000010: f50f a8be ea47 4fbe 4826 3ebe 2706 003f
00000020: dc05 29be 90ff 1abe 0e48 3cbe f933 0dbf
00000030: d986 c1be 79dd c53e ee04 fe3d 368c 5d3e
-0.0044929185 0.087336846 0.5109341 -0.46327218 -0.32824674 -0.20242277 -0.1856929 0.5000939
-0.16506141 -0.15136552 -0.18386862 -0.5515743 -0.37798193 0.38645533 0.12403284 0.21635517

encoder.layers.0.self_attn.out_proj.bias f4 [4]
00000000: e0f6 a2bd a575 843c 3246 30be e29f a33d
-0.07957244 0.016169379 -0.17214277 0.079894796

encoder.layers.0.linear1.weight f4 [16, 4]
00000000: 128b c23e fa37 073e 4522 c7be 27aa e5be
00000010: d1ed 883d cdb2 8c3e 1f8c 0ebf 7576 0bbe
00000020: 2122 993e 8655 123f b044 e6be 6691 ad3c
00000030: 2d00 f0be 9197 19bd 76f6 c2be 4b1a a8be
00000040: 52cd 903d 4963 ecbc f9f6 c3bd 3572 443e
00000050: c7e3 d5be 73f2 163f 5d6e 733e 63de d4be
00000060: 88db febd 80d2 b83c 1867 953d d0dd f23d
00000070: 370a 363e 6994 be3d b796 b2be 4d0b ae3e
00000080: e413 cebe f7ba c8be fb88 6fbd bfaf 93be
00000090: 7a0e 82be 7b8f c3be d9b1 80be 1148 923e
000000a0: 8244 a1be 1e4d c2bd f288 b33e 61a8 61bc
000000b0: 02c5 dcbd 374d b63d d4b0 b23c d368 b43e
000000c0: 11be f73e 5651 a33e ecdb f13e a8a1 1ebd
000000d0: 8878 0dbf 5b18 16be 77f1 9b3e f3a4 283d
000000e0: 34da 81be 141c a6be a1d6 f4be 2f5a 04bf
000000f0: 26da 67bd 3118 4e3e 5200 b73e 21ba edbe
0.37996727 0.13204947 -0.38893333 -0.44856378 0.06685985 0.27480164 -0.5568256 -0.13619407
0.2990885 0.5716175 -0.4497428 0.021187495 -0.46875134 -0.03749806 -0.3807866 -0.3283256
0.07070412 -0.028855937 -0.09568591 0.19184192 -0.41775343 0.589637 0.23772569 -0.41575918
-0.12444216 0.022561312 0.07295054 0.118587136 0.17777334 0.09305651 -0.3488061 0.33992997
-0.4024955 -0.39205143 -0.058480244 -0.2884502 -0.2540167 -0.38195404 -0.25135687 0.28570607
-0.3149758 -0.09487365 0.35065418 -0.013773055 -0.10779764 0.08901446 0.021812834 0.35236225
0.48387197 0.31897992 0.472381 -0.038728386 -0.5526204 -0.14657728 0.3045766 0.041172933
-0.25361788 -0.32443297 -0.4782 -0.5170011 -0.056604527 0.20126416 0.35742432 -0.46431068

encoder.layers.0.linear1.bias f4 [16]
00000000: 85d1 643e 2e54 57be 4012 0a3e fae9 59be
00000010: ed7d 56be 1cde c53c bab8 e5be a597 abbe
00000020: 099e 27be 5895 0c3e 3ccc 7ebe c432 973e
00000030: 0b32 e5be 513c 7b3d d5de eb3e 997d 8bbe
0.2234555 -0.21028206 0.13483524 -0.21280661 -0.20946474 0.024153762 -0.44867498 -0.33514133
-0.1636888 0.13728845 -0.24882597 0.2953092 -0.44764742 0.06133682 0.46068445 -0.2724426

encoder.layers.0.linear2.weight f4 [4, 16]
00000000: 8a06 2a3d 8ee7 cebc 0a4d c7be 9a13 6f3c
00000010: 1bf8 1bbe 2f60 8abe 14b6 4c3e 8254 b3be
00000020: 1deb 963d 639c 4bbe 92bf 0e3e 0d52 e1bd
00000030: a78f eb3d 555e 673c b2a8 9bbe 81da ccbd
00000040: d021 58be d6ba c53d 0462 f53d 175b 233e
00000050: 2f56 f9bd 8821 0ebd 9076 34be d91b 07bd
00000060: 95c4 f4bd 6d88 863e 97cf 17be 2428 bf3d
00000070: 2098 863c fa9a 553e 4673 06be e103 31be
00000080: 3ae7 07be b0e3 0e3e 6d07 17be da34 1b3e
00000090: 1d5b b43d 677f c5bc 00ed f3ba 9474 ddbd
000000a0: 7711 adbd 9d68 25be 0159 9ebd 6cc6 9cbc
000000b0: b7c0 4fbe 4d7c 49be 97e3 033e 27b3 3dbe
000000c0: 9c7b 9e3d 4a4f b03e d872 783e be49 1d3e
000000d0: dcf9 2dbe e3b3 743e 0858 36be a895 9a3b
000000e0: f11d 613c eb54 923c 3774 843d fb25 943e
000000f0: f736 1a3d 40e1 953e f02c 6b3e 3d10 1dbe
0.041510142 -0.025256898 -0.38925964 0.014592076 -0.15231363 -0.27026507 0.19991332 -0.35025412
0.07369063 -0.19883876 0.13940266 -0.11001978 0.11502009 0.014121612 -0.30402142 -0.10002614
-0.21106648 0.09654777 0.119815856 0.15952717 -0.12174641 -0.034699947 -0.17623353 -0.032985542
-0.119515575 0.2627596 -0.14825283 0.09333828 0.01642996 0.208599 -0.13129911 -0.17286636
-0.132718 0.13954043 -0.14748926 0.1515688 0.08806441 -0.024108602 -0.001861006 -0.10813251
-0.08450597 -0.16153188 -0.0773182 -0.019137584 -0.20288359 -0.19676323 0.12879787 -0.18525372
0.0773842 0.34435493 0.2426256 0.15360162 -0.16989845 0.23896746 -0.17807019 0.0047175474
0.013740049 0.017862758 0.06467479 0.28935227 0.037650075 0.29273415 0.22966361 -0.15338226

encoder.layers.0.linear2.bias f4 [4]
00000000: 3a55 d5bd 2582 05be 9385 3fbe 3f27 373e
-0.10416646 -0.13037927 -0.18703298 0.17886065

encoder.layers.0.norm1.weight f4 [4]
00000000: 1e24 8f3f 8b66 7f3f aa21 873f 237d 793f
1.1182897 0.99765843 1.0557148 0.9745657

encoder.layers.0.norm1.bias f4 [4]
00000000: 0126 6abe 48c7 163d 5326 c8bd 8859 6e3d
-0.2286606 0.036811143 -0.09772935 0.058190852

encoder.layers.0.norm2.weight f4 [4]
00000000: 207b 833f 20db 843f 9204 763f a253 843f
1.027195 1.0379372 0.96100724 1.0338023

encoder.layers.0.norm2.bias f4 [4]
00000000: 8c49 77bc 90ab c83d 6ab0 583b 7904 933d
-0.015093219 0.09798348 0.0033064135 0.071785875

decoder.layers.0.self_attn.in_proj_weight f4 [12, 4]
00000000: 4b49 81be 7779 d03e 85ff 603e 761f 993e
00000010: e3cf e13e 6725 56be e00d d9bd 3de4 ce3d
00000020: c38c 203f 7910 873d 7d3a 89bd 16a9 55be
00000030: ba3b b3be f191 3e3e 8603 8fbe e7a8 1bbf
00000040: e49e c23e 310e 42be f80c 8abc 782a 763e
00000050: c679 7ebd 4056 a5be 2886 e6be c004 1c3f
00000060: bf28 713e 2424 9d3e a22c a3be d800 013e
00000070: f258 f63c a357 78be 15d0 bebe 157e 9b3d
00000080: 0e19 cd3e 563f ddbd 62d9 babe ee38 1fbf
00000090: ca14 143f 6846 29bf 4218 333c 59a0 04bf
000000a0: 3b6a cbbe daa9 5a3e e459 e3bd 5d77 c43e
000000b0: e2e7 ed3b f901 f3be 0ec5 103e 5d78 b83e
-0.2525123 0.4071767 0.21972473 0.29906815 0.44103917 -0.20912705 -0.105983496 0.10102127
0.62714785 0.06594939 -0.06700609 -0.20865282 -0.35006505 0.1861036 -0.27932376 -0.608046
0.3801185 -0.18950726 -0.016851887 0.24039638 -0.06212785 -0.32292366 -0.45024228 0.6094475
0.235507 0.30691636 -0.3186999 0.12597978 0.03007171 -0.24252181 -0.3726813 0.075924076
0.40058178 -0.10803096 -0.36493975 -0.6219624 0.5784422 -0.66123056 0.0109310765 -0.5180717
-0.39729485 0.21353856 -0.1110113 0.38372317 0.0072603086 -0.47462443 0.1413767 0.3602933

decoder.layers.0.self_attn.in_proj_bias f4 [12]
00000000: 95a8 46be ddd2 04bc 36b4 3f3e ac6f 0fbd
00000010: 4242 8c3b 415f d239 0d9a f2ba 7359 cfba
00000020: d198 80be 8c2f a4be b38a 5a3e 043e a83d
-0.19400246 -0.008106914 0.18721089 -0.035018608 0.0042803595 0.0004012529 -0.0018509045 -0.0015819505
-0.2511659 -0.32067525 0.21341972 0.082149535

decoder.layers.0.self_attn.out_proj.weight f4 [4, 4]
00000000: ca2e b03e b23d 163f b9e5 b3be a620 2bbe
00000010: b6c8 7b3d 41c2 27bf 7ff0 f13e dfc1 14be
00000020: 759c 6fbe 1846 aebe b3cd dcbc 4d0c 433e
00000030: 715c 263f 8dec bf3d aad9 f7be 181a d3be
0.34410697 0.5868789 -0.35136202 -0.16711673 0.06147071 -0.6553078 0.47253796 -0.14527081
-0.23399527 -0.34037852 -0.026953554 0.19047661 0.64984804 0.0937129 -0.48408252 -0.41230845

decoder.layers.0.self_attn.out_proj.bias f4 [4]
00000000: 69ea 98be 3d7a 8e3e 0b47 803e 0fc7 a9be
-0.2986634 0.27827635 0.250542 -0.33159682

decoder.layers.0.multihead_attn.in_proj_weight f4 [12, 4]
00000000: 851c e83d fbe6 2ebe 2078 d3be 0286 02bf
00000010: 5890 113f 624d 5c3e 8a98 9ebe 114f 803e
00000020: 2c0d 873e b1d9 373f 9ad3 303f de21 eb3e
00000030: b703 babd 8d94 a9be 4104 fa3e 6b00 b93e
00000040: 19ab 25be 5fe6 0f3f d713 233e 7abc 973e
00000050: 714f 45be 4c9d 5d3e caef a8be 1cdf d23e
00000060: 51a6 87be aab0 663e 9784 6a3e 45aa 8d3e
00000070: 20d8 b4be ed75 753e ad52 b0be ffbc 663e
00000080: d0ed 75be 52ab 34bf fc71 8fbe 8639 883e
00000090: bf72 ad3e 86be 073f defe e53e a9f6 05bf
000000a0: b1fb 11bf dea1 673d 462e f9be 232e 0a3f
000000b0: 44e1 d2be f73f b5be c0fa 03bf 4cb1 cebe
0.11333565 -0.170803 -0.41302586 -0.5098573 0.56860876 0.21513894 -0.30975753 0.25060323
0.26377237 0.71816546 0.6907288 0.45924276 -0.0908274 -0.33121148 0.4883137 0.3613313
-0.1617855 0.56210893 0.15925537 0.29635984 -0.19268586 0.21642035 -0.32995445 0.41185844
-0.26494077 0.2252833 0.22902142 0.27668968 -0.3532114 0.23970766 -0.34438077 0.22533034
-0.240165 -0.70573914 -0.2801665 0.26606387 0.33876607 0.5302509 0.4492101 -0.523295
-0.57024676 0.056550853 -0.48668116 0.5397665 -0.4118749 -0.35400364 -0.5155449 -0.40369642

decoder.layers.0.multihead_attn.in_proj_bias f4 [12]
00000000: 6db5 1f3e f173 4a3d 0db6 523e 4e88 5ebd
00000010: 1eae 67bb 16d6 86bb f939 053a 9669 153b
00000020: 37a6 49be 28aa 3d3b 94e1 113e ab08 6bbd
0.15596552 0.049426977 0.2057726 -0.05432921 -0.0035351585 -0.0041148765 0.0005082186 0.002279853
-0.19692312 0.0028940532 0.14246207 -0.057381313

decoder.layers.0.multihead_attn.out_proj.weight f4 [4, 4]
00000000: 2b95 d83c aae4 113d fd73 ebbe 26ef 33be
00000010: f186 523d 2106 e9bd 4167 303e fc44 7e3e
00000020: 0c2c 563d c9f7 89be b1ba d83e 1e1d 9a3e
00000030: aae5 fa3d 23cf da3d e4a5 03bf 78ea cfbc
0.026438316 0.03561846 -0.4598693 -0.17571697 0.05139822 -0.11378122 0.17226888 0.24831003
0.0522881 -0.26946858 0.42329934 0.3010034 0.12250836 0.106840394 -0.51425004 -0.025380358

decoder.layers.0.multihead_attn.out_proj.bias f4 [4]
00000000: 307e 5fbd 126f 103e fe7e 903e 13c9 9bbe
-0.0545637 0.1410487 0.28221887 -0.30426845

decoder.layers.0.linear1.weight f4 [16, 4]
00000000: e28d d23e 429a d13e 2441 b73e 22aa c53e
00000010: 144a e63e 0772 fbbd b4c1 5e3e d4ee df3e
00000020: e6e8 8f3e 3edc b63e 7de4 5a3e 0fbb b73e
00000030: 0cfe 403c 0232 ab3e 7053 f5bd f445 7ebe
00000040: 63b7 d7be 3ab3 67be fbb8 aabe 23b0 f53e
00000050: 1e13 d43e cdaa dcbd 4efb 7bbe 5b2a ab3e
00000060: 960e 833e 95d7 ef3c 0e8e 89be 5181 053f
00000070: fc1f 1e3e 8a42 f9be aafa 193f 3785 a63e
00000080: f504 37be 7701 813e 3b01 a9be e7b6 eabb
00000090: cfce d73e 2890 b03c 60a0 b4be ba55 28be
000000a0: 3446 a9bd c114 fc3c 250a e8bd 5abb 0a3f
000000b0: 737c 90bd 8639 e3be ee99 023e 5ddf bd3e
000000c0: d56a 6d3e 8ae4 2cbf d82d 19bd c851 92be
000000d0: 8d6a babe ba25 083e 7a6a 60be 447a c13e
000000e0: e8b5 d93e 3554 ff3c 54f1 a9be 743f 38be
000000f0: 00b2 f7bb dd1b 04bf ba8e 973e d517 2dbe
0.41123873 0.40938002 0.35791886 0.38606364 0.44978392 -0.12277608 0.2175358 0.437369
0.28107375 0.35714906 0.21376224 0.35884902 0.0117793195 0.3343659 -0.11978805 -0.24831372
-0.421321 -0.22626963 -0.33344254 0.47985944 0.41420835 -0.10774765 -0.24607584 0.33430752
0.25597066 0.029277602 -0.26866192 0.52150446 0.15441889 -0.48683578 0.6014811 0.3252351
-0.17872985 0.2519643 -0.3300875 -0.007162917 0.4214997 0.021553114 -0.35278606 -0.16438952
-0.08265343 0.030771615 -0.1133006 0.54192126 -0.07054987 -0.44379824 0.12754032 0.37084475
0.23185284 -0.6753622 -0.037397236 -0.2857802 -0.36409417 0.13295642 -0.21915618 0.37788594
0.42521596 0.031168083 -0.3319193 -0.17992955 -0.007559061 -0.51605016 0.2960108 -0.16903622

decoder.layers.0.linear1.bias f4 [16]
00000000: 5217 f6be 12a5 fbbe 7559 24be 8a2c 533e
00000010: 8884 adbe 3a35 ba3e 309b 0bbe ebaa 7f3e
00000020: 7ab2 bbbc 9551 e8be 1f09 b13e 7306 ba3e
00000030: 8838 073f 2a79 c03e c493 a8be 9cb4 e83e
-0.48064667 -0.49149376 -0.1604975 0.20622459 -0.33890176 0.36368734 -0.13633418 0.24967544
-0.022912253 -0.45374742 0.3457727 0.36333045 0.52820635 0.3759244 -0.32925236 0.45450294

decoder.layers.0.linear2.weight f4 [4, 16]
00000000: 2023 5c3c d84e cc3d f9de 04be 49b1 c2bd
00000010: da7f 4fbe 79d3 09be 285f 0b3c b60e 81be
00000020: 8ed4 8f3c c880 063e 2cb5 463e 4204 1ebe
00000030: 306d c7be 464f a6bc 5421 db3d fc15 853d
00000040: 1a35 133e dd4a 9dbb 3aae 9d3d 8e12 24be
00000050: 3831 59bd 61e2 333e e06c b5bd 4641 9a3e
00000060: 68e2 77be 68b3 f5bd 7dee 443b 2c64 9b3e
00000070: fc9f db3b 3594 493e 1703 223e 40ac 323e
00000080: 20b6 033c 154f 6fbd 8a02 f33d 55a9 323e
00000090: 569c 813e 9766 d7bd 2cbc 863e ea47 1ebd
000000a0: 12ba 823d 15ee 08be cb89 943e 29ee 713e
000000b0: 57ce 05be 7d66 c03e 22aa 023e 506b 493e
000000c0: 24b6 583e 10a7 1ebe 2165 99bd 922e 0dbe
000000d0: 8240 80be 7410 643c addf 02be bb74 fabd
000000e0: 8d5b 3ebe e0e6 c4bd 835d 75be dd73 3fbe
000000f0: 662f 39be 6a38 49be 9cf4 113e a1e1 34be
0.013436109 0.09975976 -0.12975682 -0.09506471 -0.20263615 -0.13459577 0.008506574 -0.25206536
0.017557409 0.13135064 0.19405049 -0.15431312 -0.3895049 -0.020301472 0.10699716 0.06498334
0.14375725 -0.004800184 0.07699247 -0.16022703 -0.053025454 0.17566825 -0.08858657 0.30127925
-0.24207461 -0.1199711 0.0030049377 0.30349863 0.0067024212 0.19685443 0.15821491 0.1744852
0.008039027 -0.058425028 0.11865719 0.17447408 0.25314587 -0.10517614 0.2631544 -0.0386428
0.06383146 -0.13372071 0.29011378 0.23626007 -0.13066994 0.37578192 0.12760213 0.19669843
0.21163231 -0.15493417 -0.07489992 -0.13787296 -0.25049216 0.013919938 -0.12780638 -0.12229296
-0.18589611 -0.096143484 -0.23961453 -0.18696542 -0.18084487 -0.19650427 0.14253467 -0.17664196

decoder.layers.0.linear2.bias f4 [4]
00000000: f901 abbc 7d33 2b3c 9cbc 8a3e d5f7 d8be
-0.020874964 0.0104492875 0.27097023 -0.4237658

decoder.layers.0.norm1.weight f4 [4]
00000000: fac5 8c3f 6efd 4e3f e009 943f 3e58 233f
1.0997918 0.80855453 1.1565514 0.6380652

decoder.layers.0.norm1.bias f4 [4]
00000000: 9816 38be 0d72 943e f643 d83e 7669 cbbe
-0.17977369 0.28993264 0.4223935 -0.39728898

decoder.layers.0.norm2.weight f4 [4]
00000000: d5b3 6d3f c554 693f d8d3 953f 706f 553f
0.92852527 0.91144973 1.1705275 0.83373165

decoder.layers.0.norm2.bias f4 [4]
00000000: 9dca b5bd 5318 a53e 6c77 c13e 9508 babe
-0.08876536 0.3224512 0.37786424 -0.36334673

decoder.layers.0.norm3.weight f4 [4]
00000000: aa78 893f 7ba9 743f 39a6 8a3f 3501 723f
1.0739949 0.95571107 1.0831977 0.9453309

decoder.layers.0.norm3.bias f4 [4]
00000000: 61ee 8ebd ca0e a53d f15f b13d 4cc4 8dbd
-0.06979061 0.080594614 0.086608775 -0.06922206

linear_mapping.weight f4 [1, 4]
00000000: 0e89 96be 74f1 81be 4c44 eb3e 64c5 09be
-0.2940144 -0.25379527 0.45950544 -0.13454205

linear_mapping_with_gender_ind.weight f4 [1, 5]
00000000: 55c2 9ebe 3427 d43e f439 063f 7784 9cbe
00000010: 55ad 81bc
-0.3100764 0.4143616 0.5243218 -0.30569813 -0.015829721

exp_avg f4 [4, 3]
00000000: 1126 96b7 34b6 96b7 b829 97b7 8c4a 1ab8
00000010: c89f 1ab8 510d 1bb8 7e7f a3b7 fb9b a3b7
00000020: 6307 a4b7 4310 0138 ac83 0138 ebe4 0138
-1.789912e-05 -1.7966238e-05 -1.802003e-05 -3.678589e-05 -3.686527e-05 -3.696728e-05 -1.9490482e-05 -1.9503748e-05
-1.9553763e-05 3.077114e-05 3.0878626e-05 3.0969193e-05

exp_avg_sq f4 [4, 3]
00000000: ed6b b130 bf44 b230 0671 b330 0a7c 5031
00000010: 9a8c 5131 b587 5231 ab8d 9d30 20b3 9d30
00000020: 0475 9e30 18de 4131 b40d 4331 9418 4431
1.2909119e-09 1.2970743e-09 1.3056087e-09 3.0338492e-09 3.0493426e-09 3.0636162e-09 1.1463518e-09 1.1474164e-09
1.1529271e-09 2.8211442e-09 2.8384024e-09 2.8535725e-09

exp_avg f4 [4]
00000000: 2efe d036 edda 5537 94c7 e736 660c 32b7
6.2284735e-06 1.2746762e-05 6.9075704e-06 -1.06125135e-05

exp_avg_sq f4 [4]
00000000: 149f 452f e03f eb2f 3bb1 3a2f cbfd de2f
1.7973562e-10 4.2791637e-10 1.6979566e-10 4.0561896e-10

exp_avg f4 [4, 1]
00000000: 58e4 623a 40d2 8aba e232 8f3a 1dbd 1dba
0.00086552417 -0.0010591224 0.0010925198 -0.0006017255

exp_avg_sq f4 [4, 1]
00000000: 833b 2435 dec4 4b36 93c6 9d35 bee6 1c35
6.118136e-07 3.036395e-06 1.1755204e-06 5.84503e-07

exp_avg f4 [4]
00000000: 72f7 9cb9 d293 c039 31a3 c7b9 584a 5d39
-0.00029939 0.00036731228 -0.00038077825 0.00021103898

exp_avg_sq f4 [4]
00000000: de8d b633 4211 f534 5124 3634 424f b833
8.500841e-08 4.5647363e-07 1.6963283e-07 8.5825846e-08

exp_avg f4 [12, 4]
00000000: c1c2 e9b5 16f5 7b36 888d acb5 fb2f 1636
00000010: da6c 39b6 fa26 cd36 6278 08b6 c14f 5636
00000020: 4c1e f535 2061 8cb6 abe5 a035 b8b7 e5b5
00000030: b855 0136 efb9 9bb6 14ab c235 6265 fcb5
00000040: c87c 23b4 d6c8 1c35 1539 f932 9ca8 e933
00000050: e88c 2236 0a3b 6bb6 c180 8eb5 63aa e635
00000060: 16cf 42b6 da6a 8d36 ae7b 9d35 96bc eab5
00000070: 00c5 3eb5 ef76 c635 1c9c cc34 5129 19b5
00000080: 0b62 8635 d4d9 4db5 cded 8635 c6e4 93b5
00000090: b4e1 9e37 0883 8fb7 e411 5237 82d9 94b7
000000a0: 0124 5e37 b702 44b7 4134 1837 ecd6 4eb7
000000b0: fd94 1cb5 5b79 76b5 b609 8a35 b053 c5b5
-1.7416534e-06 3.7544573e-06 -1.285619e-06 2.237967e-06 -2.7630508e-06 6.1140136e-06 -2.0335651e-06 3.1934908e-06
1.826274e-06 -4.183632e-06 1.1987771e-06 -1.7115299e-06 1.9272393e-06 -4.6410055e-06 1.4503917e-06 -1.8804969e-06
-1.5225953e-07 5.8406783e-07 2.9013373e-08 1.0880578e-07 2.42219e-06 -3.5052094e-06 -1.0617297e-06 1.7185924e-06
-2.9028793e-06 4.2145666e-06 1.1733407e-06 -1.7489244e-06 -7.106719e-07 1.4786764e-06 3.8111546e-07 -5.7057065e-07
1.0012312e-06 -7.668543e-07 1.0052987e-06 -1.1018935e-06 1.8940169e-05 -1.7107945e-05 1.2521141e-05 -1.774426e-05
1.3240614e-05 -1.16831425e-05 9.072072e-06 -1.2328597e-05 -5.8331335e-07 -9.1818737e-07 1.0284627e-06 -1.4702e-06

exp_avg_sq f4 [12, 4]
00000000: a85f a42c 7607 ba2d 2013 522c fd18 832d
00000010: f8c3 4c2d 5169 8c2e 509f eb2c fc99 f02d
00000020: c405 592d 2785 9d2e be77 ef2c 9134 c62d
00000030: b3f9 9e2d 263c c82e 1ff9 462d baf9 0e2e
00000040: b805 9d2c 75ca 112d c3e3 cb2a 37d3 8a2c
00000050: b636 cd2d cc3d 392e 28f6 402c fd48 8c2d
00000060: 4ebe ba2d 7e08 342e 8f32 5a2c f3ff 7c2d
00000070: fcf7 a02c 03bc 542d eddf 012b c423 582c
00000080: c336 8a2e 50f5 3c2e 8d4e a02d 503d c32e
00000090: e7b6 5430 cf9b 2730 9e10 852f e05c 8630
000000a0: a085 f42f d1c6 bb2f 923f 1e2f 5648 3a30
000000b0: 1038 ec2e 2d44 b82e 906b 132e fa12 472f
4.6717803e-12 2.1149065e-11 2.9853411e-12 1.4904073e-11 1.1639571e-11 6.385171e-11 6.696789e-12 2.7353224e-11
1.2336302e-11 7.163186e-11 6.8060826e-12 2.2533338e-11 1.8073409e-11 9.1056315e-11 1.1310313e-11 3.2508864e-11
4.4628433e-12 8.28725e-12 3.6218085e-13 3.9456455e-12 2.3330098e-11 4.2119017e-11 2.7421485e-12 1.594857e-11
2.1230264e-11 4.0934804e-11 3.100773e-12 1.4381374e-11 4.5750053e-12 1.2092552e-11 4.6140766e-13 3.07153e-12
6.285241e-11 4.2964132e-11 1.8224778e-11 8.8784646e-11 7.738507e-10 6.0975663e-10 2.4204366e-10 9.77618e-10
4.4478288e-10 3.415637e-10 1.4392601e-10 6.77692e-10 1.0741996e-10 8.379462e-11 3.3519465e-11 1.8105686e-10

exp_avg f4 [12]
00000000: cdf4 d335 689e 1d36 9811 bbb5 c984 c4b5
00000010: 96e7 46a8 cce0 9729 155f 6b29 8cce 66a9
00000020: c25a b4b5 0e5f 64b7 b444 25b7 10fa 58b5
1.5791971e-06 2.3487028e-06 -1.3937706e-06 -1.4641784e-06 -1.1041425e-14 6.744743e-14 5.2262953e-14 -5.124941e-14
-1.3437459e-06 -1.3611991e-05 -9.850763e-06 -8.083016e-07

exp_avg_sq f4 [12]
00000000: 235c c82c b6fa 642d a0ba 652d a235 742d
00000010: d561 9416 3040 4d17 bc80 0b17 b516 bb15
00000020: da69 432e 4619 0030 2ab9 a72f 15c0 b12e
5.694571e-12 1.30159685e-11 1.3058582e-11 1.3881703e-11 2.397243e-25 6.632009e-25 4.507581e-25 7.5564524e-26
4.4431882e-11 4.6602044e-10 3.050869e-10 8.083149e-11

exp_avg f4 [4, 4]
00000000: 5e81 0435 4da7 85b4 87b4 c233 d860 12b4
00000010: bcb7 eab7 67ed 7437 d424 08b7 8550 ef36
00000020: 488c 8bb7 d936 ca36 ac50 9cb6 abde a236
00000030: c89f 0438 e641 87b7 a5a9 1a37 fbc6 04b7
4.9362086e-07 -2.4894908e-07 9.066667e-08 -1.3632541e-07 -2.7980532e-05 1.4598808e-05 -8.114806e-06 7.1321288e-06
-1.6635415e-05 6.0264542e-06 -4.6585537e-06 4.853898e-06 3.162006e-05 -1.612394e-05 9.218614e-06 -7.914142e-06

exp_avg_sq f4 [4, 4]
00000000: 4594 1c2f fa29 be2d 776c c72d 3b37 132e
00000010: 6321 0931 feb5 c72f cdbd a12f 23b7 b82f
00000020: d848 3a30 bf29 012f c6de d12e d17f ef2e
00000030: a814 6e31 70df 3130 e4aa 0930 0459 1130
1.4240793e-10 2.161914e-11 2.2671849e-11 3.3472985e-11 1.9955102e-09 3.6327202e-10 2.942059e-10 3.3599531e-10
6.7769923e-10 1.1747313e-10 9.543792e-11 1.08911664e-10 3.46453e-09 6.470975e-10 5.008316e-10 5.287719e-10

exp_avg f4 [4]
00000000: feb7 21b5 2a07 a237 ca1f 4937 bc00 b2b7
-6.024492e-07 1.9315241e-05 1.1987935e-05 -2.1219596e-05

exp_avg_sq f4 [4]
00000000: edaa a22e 562a 7a30 dc58 b02f dd5d df30
7.3972696e-11 9.1009633e-10 3.2077352e-10 1.6252063e-09

exp_avg f4 [16, 4]
00000000: 1749 af36 00a5 deb6 1907 a436 ff42 f6b5
00000010: 2f31 a235 8c22 11b6 2056 9535 345d 8734
00000020: 408a 2035 02c5 3fb5 dc27 6bb4 3a62 f434
00000030: f4ea 14b7 8f2d 0937 6daf b7b6 b241 7d36
00000040: 4d3c 62b4 caef be33 d925 c632 cb31 8233
00000050: 3acd d236 987e fdb6 92cb ad36 ab22 0ab6
00000060: 0000 0000 0000 0000 0000 0000 0000 0000
00000070: ec45 9eb5 6d74 1834 da8d 30b5 f207 b535
00000080: 83a6 01b4 a7ad ddb3 2ecf aeb3 0f85 8a34
00000090: 203d 9cb7 9870 8737 cbea 69b7 3dcc 3737
000000a0: 4605 1d35 aa69 95b4 0e0c 3434 36e8 b0b4
000000b0: 78b2 db36 79ce eeb6 0233 9336 6f51 04b6
000000c0: 0400 0080 0400 0000 0400 0080 0400 0000
000000d0: 3279 9336 dcdd b4b6 0023 8a35 3f29 6f35
000000e0: ba1d eb36 4845 15b7 bb14 b336 944a c3b5
000000f0: b9cd 05b2 1d52 1b33 8ce7 cfb2 da14 01b2
5.223915e-06 -6.635324e-06 4.888407e-06 -1.8347927e-06 1.2084255e-06 -2.1626793e-06 1.1126431e-06 2.5213524e-07
5.9805825e-07 -7.143973e-07 -2.1900581e-07 4.552001e-07 -8.876192e-06 8.176444e-06 -5.4742472e-06 3.7738178e-06
-2.1069827e-07 8.891182e-08 2.3067445e-08 6.062654e-08 6.282379e-06 -7.554725e-06 5.1795005e-06 -2.0583782e-06
0.0 0.0 0.0 0.0 -1.1792267e-06 1.4198459e-07 -6.577153e-07 1.3487863e-06
-1.2074638e-07 -1.03227016e-07 -8.140192e-08 2.5801316e-07 -1.8625113e-05 1.6145685e-05 -1.3942549e-05 1.0955203e-05
5.849473e-07 -2.7830293e-07 1.6768192e-07 -3.295151e-07 6.547485e-06 -7.1169893e-06 4.3868795e-06 -1.9716933e-06
-6e-45 6e-45 -6e-45 6e-45 4.3950504e-06 -5.390246e-06 1.0291988e-06 8.909446e-07
7.0070064e-06 -8.897223e-06 5.337029e-06 -1.4550337e-06 -7.788395e-09 3.616343e-08 -2.4203267e-08 -7.513529e-09

exp_avg_sq f4 [16, 4]
00000000: 0c0a f82d e68d 822e 8610 c92d 6a2c a02c
00000010: 778a 5a2f e1e1 7d2f f46d d52e 5be7 422e
00000020: 5517 1f2f cfc9 fc2e 7eb5 3d2e 082c 212e
00000030: 4caa c92f c16a 8c2f cb54 fa2e 2245 d72e
00000040: a678 1d2c a130 e02a 4dad 812c d9d7 b62c
00000050: e825 9a2f e29b 932f ab5c e32e 83f8 982e
00000060: 0000 0000 0000 0000 0000 0000 0000 0000
00000070: a366 232f 6127 992e 3e81 322e 88ec 8f2e
00000080: dff1 b02d 0c72 df2c a8d8 562c ddbd 292d
00000090: a373 a230 ea1c 5730 4eb6 ed2f c4ae d72f
000000a0: f932 a72d 03d8 8a2c 7382 bc2b 487b 132d
000000b0: 0c1a ac2f 3c43 9c2f 6b0c db2e 243a a42e
000000c0: ca3d 591b fcfd 691c c36b ce1c 60e1 3c1d
000000d0: b1b2 0230 c954 c92f bf35 162f dcf2 ec2e
000000e0: 2c8a d92f 3fd7 d72f 99de 1a2f 4cf7 bf2e
000000f0: bc49 662c f709 ef2c 0bd2 862b 68b2 0e2a
2.8198797e-11 5.936922e-11 2.2858392e-11 4.5524045e-12 1.9876177e-10 2.3090464e-10 9.70565e-11 4.4315978e-11
1.4469255e-10 1.14954816e-10 4.3134822e-11 3.664627e-11 3.668269e-10 2.5541705e-10 1.1383746e-10 9.7893485e-11
2.2378015e-12 3.9824136e-13 3.6856408e-12 5.196715e-12 2.803937e-10 2.6849906e-10 1.0339226e-10 6.956304e-11
0.0 0.0 0.0 0.0 1.4861228e-10 6.9646296e-11 4.0587304e-11 6.5449035e-11
2.0116296e-11 6.350703e-12 3.0531497e-12 9.648696e-12 1.1819917e-09 7.8257634e-10 4.3239584e-10 3.923245e-10
1.9008338e-11 3.946178e-12 1.339441e-12 8.3833565e-12 3.1305125e-10 2.8424008e-10 9.961173e-11 7.4681844e-11
1.7969784e-22 7.74215e-22 1.3659792e-21 2.4998109e-21 4.754766e-10 3.662193e-10 1.3661515e-10 1.0775178e-10
3.9570247e-10 3.9261214e-10 1.4085301e-10 8.729603e-11 3.2725897e-12 6.793895e-12 9.579571e-13 1.267403e-13

exp_avg f4 [16]
00000000: a54e 95b6 e8ce b3b5 82bd d5b4 bac5 c836
00000010: f740 9733 498e a6b6 0000 0000 edae 6535
00000020: e374 ec33 f8d8 6337 aa19 abb4 a96f a4b6
00000030: 0400 0080 b783 26b6 e599 bcb6 52f6 a332
-4.4497015e-06 -1.3396757e-06 -3.9812227e-07 5.983483e-06 7.0433025e-08 -4.9637497e-06 0.0 8.55637e-07
1.1010868e-07 1.3580771e-05 -3.1869905e-07 -4.90058e-06 -6e-45 -2.4812596e-06 -5.6207523e-06 1.9087711e-08

exp_avg_sq f4 [16]
00000000: 465c c92d 9d60 ee2e 4e1e 8c2e 3de8 2e2f
00000010: d611 2b2c 43f7 162f 0000 0000 8265 882e
00000020: 8df5 032d 8d8b 1330 8a46 d82c c157 212f
00000030: 55a1 d61c cfe1 5d2f fba0 532f 86ff 182c
2.2892032e-11 1.0840149e-10 6.371846e-11 1.5907715e-10 2.4310462e-12 1.3730266e-10 0.0 6.2025954e-11
7.501011e-12 5.36766e-10 6.1469206e-12 1.4674041e-10 1.4203035e-21 2.0180056e-10 1.924753e-10 2.1742343e-12

exp_avg f4 [4, 16]
00000000: 13ea f2b3 bbd9 9fb6 a7b8 9cb6 f718 a0b6
00000010: 9d16 d1b3 11d8 12b7 0000 0000 30c2 8db5
00000020: a8f5 ce33 4836 c6b6 411e 3d34 42a7 a3b6
00000030: 0400 0080 325e cdb6 3631 bcb6 d80e 9330
00000040: 43b8 1d36 8e56 f637 82c2 1d38 8049 e537
00000050: ee36 9433 87be 1c38 0000 0000 4b30 1e37
00000060: d67d 7333 e57b f937 e8d2 3234 f055 fe37
00000070: 0400 0080 89c9 bf37 d34f dd37 756c 3331
00000080: 958b 9c34 1d4d 2637 9d45 1337 4b7e 4337
00000090: a0d7 7eb4 e186 9037 0000 0000 e4b2 14b4
000000a0: 52d6 ecb1 b64b 0a37 b00a c133 5e41 0437
000000b0: 0400 0000 9c6a 4337 2400 3637 0d10 0b31
000000c0: 18dd 01b6 a571 94b7 9104 d4b7 2d12 a3b7
000000d0: ded6 cab1 8002 e3b7 0000 0000 3c84 a5b6
000000e0: 0b8d 1b32 8dac 80b7 de6f 2432 59b3 cdb7
000000f0: 0400 0000 54f0 7db7 90e7 7db7 09c4 a931
-1.1311581e-07 -4.7639164e-06 -4.6706587e-06 -4.771278e-06 -9.736434e-08 -8.752585e-06 0.0 -1.0561835e-06
9.637307e-08 -5.907179e-06 1.7613003e-07 -4.87725e-06 -6e-45 -6.120442e-06 -5.6085655e-06 1.0699877e-09
2.3502078e-06 2.936579e-05 3.7612866e-05 2.7333153e-05 6.901779e-08 3.737074e-05 0.0 9.428778e-06
5.6692294e-08 2.9740806e-05 1.6654269e-07 3.0319177e-05 -6e-45 2.2862821e-05 2.6382424e-05 2.610958e-09
2.9158824e-07 9.912325e-06 8.778091e-06 1.1652311e-05 -2.3734037e-07 1.7228946e-05 0.0 -1.3848654e-07
-6.8928694e-09 8.243069e-06 8.989207e-08 7.883033e-06 6e-45 1.1647728e-05 1.0848078e-05 2.0236286e-09
-1.9351191e-06 -1.7695895e-05 -2.5274496e-05 -1.9439578e-05 -5.9034013e-09 -2.7061673e-05 0.0 -4.9327773e-06
9.054257e-09 -1.533914e-05 9.571492e-09 -2.452142e-05 6e-45 -1.5135931e-05 -1.513389e-05 4.940834e-09

exp_avg_sq f4 [4, 16]
00000000: 524f 3d2b 34ed c82d f10c 162f f990 152f
00000010: 7492 022b 3289 902f 0000 0000 eb96 8d2d
00000020: a8e0 7f2a 5e45 9b2f f791 b52a ff5f 8d2f
00000030: 8478 911c 851e e42e f471 692e ce84 2b29
00000040: 0482 f32d 8e53 9330 49ad 5231 8fe1 0b31
00000050: 11e4 ec29 2b99 6431 0000 0000 6b3f 662f
00000060: 4cbc 562b 8da1 3d31 08e7 882b f294 3031
00000070: 1cdd a81c da4e 8d30 8c76 8230 4f87 242b
00000080: 031c 742c c547 032f 2eb3 0230 4c0b 0930
00000090: a23d 862a 0dbd 9630 0000 0000 1d01 012e
000000a0: 8efd 112b b54f 1430 b92e d12b 6c13 1a30
000000b0: 7b08 891b bfff b12f 722c 302f 0092 132b
000000c0: 7434 512e 0c59 3430 f164 5d31 2d59 1d31
000000d0: 31f9 f328 a3b9 8831 0000 0000 a302 412f
000000e0: 891d 2f2b 0ec7 3931 dfce 9c2b c16e 3831
000000f0: fa44 051c 9f98 7b30 12e8 3530 5d28 062c
6.725637e-13 2.2842707e-11 1.3647018e-10 1.3602976e-10 4.638852e-13 2.629093e-10 0.0 1.6096865e-11
2.2726493e-13 2.8243624e-10 3.2253342e-13 2.571596e-10 9.626448e-22 1.0373661e-10 5.3079277e-11 3.8084817e-14
2.768364e-11 1.0719405e-09 3.0657523e-09 2.0355377e-09 1.05200686e-13 3.3265433e-09 0.0 2.0940909e-10
7.6289387e-13 2.759495e-09 9.727505e-13 2.5696036e-09 1.1174463e-21 1.0281511e-09 9.492438e-10 5.8452283e-13
3.4690035e-12 1.1939878e-10 4.7548354e-10 4.9856363e-10 2.3845948e-13 1.0967668e-09 0.0 2.9332193e-11
5.1866226e-13 5.3955357e-10 1.4863311e-12 5.6052474e-10 2.267023e-22 3.237783e-10 1.6022897e-10 5.2427507e-13
4.7567686e-11 6.561016e-10 3.2217111e-09 2.2897197e-09 2.7086489e-14 3.9792254e-09 0.0 1.7554184e-10
6.221348e-13 2.7034193e-09 1.1141885e-12 2.683848e-09 4.409516e-22 9.1530156e-10 6.617721e-10 1.9064951e-12

exp_avg f4 [4]
00000000: a032 3db7 8054 6738 d2ae 9d37 29c4 1fb8
-1.1277065e-05 5.515339e-05 1.8797266e-05 -3.8091242e-05

exp_avg_sq f4 [4]
00000000: 371d f32f 1aba d231 9841 af30 f64c d831
4.42222e-10 6.1329617e-09 1.2751569e-09 6.295177e-09

exp_avg f4 [4]
00000000: 6a33 1737 214c 6138 cab1 56b7 3d77 08b8
9.012272e-06 5.371508e-05 -1.2796789e-05 -3.2535976e-05

exp_avg_sq f4 [4]
00000000: 596d e52f d699 b631 23e7 992f bec9 4531
4.1732554e-10 5.3143863e-09 2.799477e-10 2.878195e-09

exp_avg f4 [4]
00000000: 9021 e3b6 3e06 2138 f1f4 a437 f510 6fb8
-6.7690344e-06 3.8391205e-05 1.9664383e-05 -5.6997833e-05

exp_avg_sq f4 [4]
00000000: bebc ab2f e4ce 8331 f2e2 3a30 8495 d731
3.1238828e-10 3.8361225e-09 6.7988914e-10 6.2743215e-09

exp_avg f4 [4]
00000000: fca7 53b9 6e15 a1b8 e5d2 9ab8 8b21 afb9
-0.00020185107 -7.68107e-05 -7.3825744e-05 -0.00033403593

exp_avg_sq f4 [4]
00000000: bc70 0934 f996 ed32 c58f ff32 b6f3 af33
1.2800132e-07 2.7659086e-08 2.9751286e-08 8.193403e-08

exp_avg f4 [4]
00000000: 5fd3 2939 6156 dfb8 a212 fc38 c5db a9b9
0.00016195838 -0.00010649558 0.00012019767 -0.00032397933

exp_avg_sq f4 [4]
00000000: 0383 aa33 cf89 0e33 4902 a333 cbac a933
7.940073e-08 3.3187288e-08 7.590695e-08 7.9011066e-08

exp_avg f4 [12, 4]
00000000: 0b24 56b7 5e9b 11b6 4596 29b8 325c c8b6
00000010: 8cf2 d7b6 40d3 ac36 834c 0eb8 c1a8 bdb7
00000020: 0cbf d4b7 4a0d 65b4 cc2d 8537 b3a3 7837
00000030: ea43 61b7 93c0 e236 cd5f 10b7 16a5 c1b6
00000040: 6299 df35 f3ce b637 3593 c1b7 0e59 a2b7
00000050: f000 3eb7 f11c 04b7 92b2 ce37 081b 1537
00000060: 7613 cdb7 5786 8ab7 7e41 d037 4160 1a37
00000070: f226 8537 c346 22b8 0e34 b335 1188 db37
00000080: 566a ccb9 52b7 1839 fa00 153a cafc a039
00000090: 5191 4939 5c3e 95b8 f3f2 eeb9 be36 56b9
000000a0: c7ad f538 80f7 19b8 9f6b 3f37 d301 0bb8
000000b0: b7b6 9739 09b3 e5b8 1e18 f1b9 6513 7bb9
-1.2763786e-05 -2.169712e-06 -4.043269e-05 -5.9711974e-06 -6.4357355e-06 5.150592e-06 -3.3926695e-05 -2.2609138e-05
-2.5361333e-05 -2.1332121e-07 1.5876161e-05 1.4820066e-05 -1.3426858e-05 6.7577434e-06 -8.605374e-06 -5.7710668e-06
1.6659435e-06 2.1792459e-05 -2.3075941e-05 -1.9353374e-05 -1.1325101e-05 -7.874552e-06 2.4640267e-05 8.887386e-06
-2.4446967e-05 -1.6513439e-05 2.482603e-05 9.201526e-06 1.587297e-05 -3.868971e-05 1.3351689e-06 2.6170195e-05
-0.0003898914 0.00014564142 0.00056840444 0.0003070592 0.00019222988 -7.116489e-05 -0.0004557591 -0.00020429023
0.00011714879 -3.6708545e-05 1.1409545e-05 -3.314188e-05 0.00028937098 -0.00010952919 -0.0004598507 -0.0002394445

exp_avg_sq f4 [12, 4]
00000000: 858c 3e31 5fa8 4c30 28bd 9632 87ac 3032
00000010: 1b22 0032 7532 7a30 f6b6 2032 92c5 0432
00000020: 8e74 0731 232b c42f 90f2 8c31 efac 4831
00000030: a0cc 7431 d797 f72f 09df 2031 5eb6 7631
00000040: 6ee3 8032 927e c631 568e f331 411d 4831
00000050: 5631 5431 cea1 b230 e392 7831 444c ac30
00000060: 3f63 2432 5849 7a31 eb43 3f32 70ea 3531
00000070: b85f 0033 0b37 5732 ac44 9c31 9fde 6c31
00000080: 2d51 f333 81dc 1e33 7c8d 8434 7859 bc33
00000090: f1e8 8433 18a0 4932 e88d 8734 75d7 bc33
000000a0: 1c40 d633 5b43 3d33 ce4a 7d34 ca99 ff33
000000b0: d02c 8a33 63f8 0b33 bdf0 3934 5888 7833
2.7728515e-09 7.445404e-10 1.7548317e-08 1.02837765e-08 7.458335e-09 9.1021174e-10 9.354826e-09 7.7283335e-09
1.971134e-09 3.5682843e-10 4.1021124e-09 2.9202132e-09 3.562299e-09 4.5036927e-10 2.3409845e-09 3.5901375e-09
1.5004584e-08 5.776948e-09 7.0884125e-09 2.912046e-09 3.0878105e-09 1.2997192e-09 3.6172245e-09 1.2536323e-09
9.568622e-09 3.642148e-09 1.1133106e-08 2.6472229e-09 2.9889378e-08 1.2527162e-08 4.5480046e-09 3.4469065e-09
1.1330335e-07 3.698779e-08 2.468986e-07 8.7707065e-08 6.189101e-08 1.1736141e-08 2.524896e-07 8.7936236e-08
9.976813e-08 4.406625e-08 2.3589675e-07 1.1902337e-07 6.434277e-08 3.2589366e-08 1.7317048e-07 5.7866004e-08

exp_avg f4 [12]
00000000: 9523 1bb6 313f f8b6 00c4 6137 5570 b736
00000010: 0aaf ed2b fee3 deab 1617 102b 1c40 80ab
00000020: 9019 6539 7951 22b9 b630 b6b7 75c5 33b9
-2.3117511e-06 -7.3983324e-06 1.345668e-05 5.466902e-06 1.6888446e-12 -1.5837329e-12 5.1191115e-13 -9.112741e-13
0.00021848665 -0.00015479875 -2.1718773e-05 -0.00017144329

exp_avg_sq f4 [12]
00000000: 51e9 4b31 7535 5531 d9ad 8d30 e322 cc30
00000010: 14bb 9a1b 78a5 e81a 2d0f 8f1b c565 cd1b
00000020: 8638 4b33 bc74 2233 3140 6533 9f2d 1533
2.9673013e-09 3.1025966e-09 1.0308511e-09 1.4852869e-09 2.559806e-22 9.622028e-23 2.3667173e-22 3.3980172e-22
4.731603e-08 3.7824734e-08 5.33766e-08 3.4733258e-08

exp_avg f4 [4, 4]
00000000: 9e59 393a 8144 273a 1cb4 a4b9 e60a 13b9
00000010: c160 c0b9 4b5b 8cb9 dcb6 f838 8a3d d938
00000020: 34dd 113a 0d72 fd39 5197 6fb9 5a1c f2b8
00000030: 1022 93ba 5902 8cba 9978 0d3a b110 5639
0.0007070544 0.00063807523 -0.0003141471 -0.00014023072 -0.0003669318 -0.000267709 0.00011859622 0.00010358829
0.0005564273 0.00048340895 -0.00022849186 -0.0001154474 -0.0011225361 -0.0010681852 0.00053966936 0.00020414848

exp_avg_sq f4 [4, 4]
00000000: d201 a634 06ad a534 445d a733 cbe7 6b32
00000010: a37d 3b35 414f 3d35 89dd 2134 777b 4e33
00000020: 977f 1c35 08f2 4a35 3123 3834 0d09 e332
00000030: ec36 6935 7725 6e35 0195 6e34 0dee 0c33
3.0921234e-07 3.0859536e-07 7.7935084e-08 1.3731504e-08 6.9845754e-07 7.0523316e-07 1.5074887e-07 4.8075403e-08
5.8300196e-07 7.5603066e-07 1.7149138e-07 2.6430394e-08 8.6879186e-07 8.871643e-07 2.2219685e-07 3.2812796e-08

exp_avg f4 [4]
00000000: d6da 95b9 9edf 2d39 c2c6 7bb9 411b d239
-0.0002858254 0.0001658187 -0.00024011268 0.00040074627

exp_avg_sq f4 [4]
00000000: 4d01 9733 fde1 3e34 e18c 2734 a8dd 2b34
7.031722e-08 1.7777343e-07 1.5604338e-07 1.6006254e-07

exp_avg f4 [12, 4]
00000000: d44e 0db5 83ed d835 2195 d3b3 8a1f 7cb5
00000010: 30e7 3c36 b08b b8b5 2b35 2eb6 eac8 8035
00000020: ca34 f0b5 af0e 8e35 3606 1d36 a3c5 99b5
00000030: 322f b335 890e 9132 728b dbb5 9c7d 1c34
00000040: c570 7e35 4fbe c735 590d 0eb6 6ade 46b4
00000050: 4054 6b36 2640 9e35 ed53 c6b6 7566 d235
00000060: 7f86 62b6 b2e6 0b34 c45f a736 0c95 07b6
00000070: 73fb 47b5 28b3 58b6 7515 1036 7ecf df35
00000080: e5e9 6ab9 20a8 2f39 22ad ecb8 e837 5839
00000090: b008 6bb9 ec73 3739 c55e e0b8 50c1 4939
000000a0: ffcf 063a 01ab d5b9 2fc4 8339 2375 e7b9
000000b0: 0733 6ab9 a59e 2239 4ffd f0b8 f5ee 6639
-5.2641303e-07 1.6162379e-06 -9.8525796e-08 -9.392321e-07 2.8148752e-06 -1.3749723e-06 -2.5958968e-06 9.595217e-07
-1.7896757e-06 1.0584098e-06 2.3398438e-06 -1.1456908e-06 1.3350275e-06 1.6886831e-08 -1.6357355e-06 1.4574329e-07
9.4786475e-07 1.4882042e-06 -2.1167418e-06 -1.8521101e-07 3.5066769e-06 1.1790587e-06 -5.91063e-06 1.5676038e-06
-3.3754911e-06 1.302931e-07 4.9881364e-06 -2.0203324e-06 -7.4499184e-07 -3.229079e-06 2.1470162e-06 1.6675183e-06
-0.00022403112 0.00016751932 -0.000112856054 0.00020620192 -0.00022414583 0.00017495424 -0.000106988045 0.00019240868
0.0005142688 -0.00040753934 0.00025132435 -0.00044147027 -0.00022334988 0.00015508624 -0.00011491274 0.00022023528

exp_avg_sq f4 [12, 4]
00000000: 06a1 3c2f 66be 012e 1e3e d12e cee4 472d
00000010: 0594 9a2e 07bd 8b2d 2f1d 3d2e ec02 d52c
00000020: 78f9 452e db30 3c2d de19 1f2e fd3f be2c
00000030: 898c 002e ee78 c62c 57d3 952d 3356 f82b
00000040: 313b 062e faca 2a2f 34fd 4b2e 8ad4 122f
00000050: 5eb0 1a2f 4e4b 3130 b05f 5f2f f791 1930
00000060: 52e4 be2e 22cf c62f ad3e 062f b0c4 af2f
00000070: 29e4 972d ba70 b12e 14a3 d92d d5c3 872e
00000080: a6a6 6733 6722 0833 11af 3032 be13 1e33
00000090: 5037 2933 660f d132 53fe 0732 6db3 e032
000000a0: d6b3 b534 031e 6534 4cf3 a033 cf6c 7a34
000000b0: e848 c933 2709 7a33 c23f 9e32 e0b3 8533
1.7155707e-10 2.9500312e-11 9.515254e-11 1.1362645e-11 7.029403e-11 1.5886415e-11 4.2999545e-11 6.0541485e-12
4.5014187e-11 1.0697411e-11 3.617539e-11 5.407229e-12 2.922865e-11 5.6409244e-12 1.7033193e-11 1.7645385e-12
3.0520645e-11 1.5533522e-10 4.6381746e-11 1.3354132e-10 1.4068877e-10 6.449924e-10 2.0315727e-10 5.5868504e-10
8.6807575e-11 3.6163167e-10 1.2209496e-10 3.197207e-10 1.7268036e-11 8.0690524e-11 2.4742465e-11 6.173876e-11
5.3935445e-08 3.1696256e-08 1.0284354e-08 3.6805197e-08 3.9398685e-08 2.4337805e-08 7.915861e-09 2.6158625e-08
3.3844725e-07 2.1338205e-07 7.494836e-08 2.3322649e-07 9.3730534e-08 5.8215985e-08 1.8422615e-08 6.226014e-08

exp_avg f4 [12]
00000000: 20be e834 6255 c4b5 3771 9f35 c84f 29b5
00000010: ea98 962b 7a96 822c c815 f1aa 2b5d d6ab
00000020: e980 3d39 449a 3939 61a8 d7b9 9a9c 3d39
4.3351702e-07 -1.4627988e-06 1.1879373e-06 -6.3073503e-07 1.0700583e-12 3.7115285e-12 -4.2825314e-13 -1.5231474e-12
0.00018072467 0.00017700443 -0.00041133448 0.00018082783

exp_avg_sq f4 [12]
00000000: 8da5 512e 6178 b22d 3bfc 6f2d 47a5 0e2d
00000010: 35df ae1a b641 f61b 68eb 9d1b f050 5f1a
00000020: 1663 0c33 1fdb ca32 2598 6334 f4d6 7033
4.7668137e-11 2.0289716e-11 1.36415835e-11 8.108464e-12 7.2325324e-23 4.073975e-22 2.61256e-22 4.61807e-23
3.268641e-08 2.361554e-08 2.1196372e-07 5.6074853e-08

exp_avg f4 [4, 4]
00000000: afcd 1437 0d1b 783a d183 15bb df58 0cb8
00000010: 74d8 4e37 1359 0aba 0dd3 a33a 7ba4 b137
00000020: 090f f737 967d e639 5b54 96ba 73d1 bbb7
00000030: 7f63 aeb7 8726 a3ba 9951 4a3b d599 7638
8.869377e-06 0.000946448 -0.0022814164 -3.346137e-05 1.2328954e-05 -0.00052775553 0.0012498811 2.1176636e-05
2.9451696e-05 0.00043962587 -0.0011469232 -2.238967e-05 -2.0788748e-05 -0.0012447395 0.003087139 5.8794238e-05

exp_avg_sq f4 [4, 4]
00000000: 0bcb 2033 be58 2235 2219 6d36 c95c 7932
00000010: ee29 0d34 ea2d 1a35 41d3 a536 fc43 2233
00000020: fdab 4333 2108 a334 15ac 1936 41f7 8032
00000030: ae95 fe33 937e 9c35 1f8b f436 5950 3633
3.743757e-08 6.047884e-07 3.5330381e-06 1.45148045e-08 1.3146902e-07 5.7436284e-07 4.9419764e-06 3.7780396e-08
4.5558398e-08 3.036703e-07 2.2898942e-06 1.50136e-08 1.1855023e-07 1.1659744e-06 7.2879625e-06 4.2448253e-08

exp_avg f4 [4]
00000000: 1bb4 b5ba f86a 443a 95ee 2aba 5805 ee3a
-0.001386288 0.0007492746 -0.0006520537 0.0018159552

exp_avg_sq f4 [4]
00000000: 2e51 b735 a019 0a36 b8b6 8d35 423b 3936
1.3658189e-06 2.0578518e-06 1.0558497e-06 2.760164e-06

exp_avg f4 [16, 4]
00000000: 0000 0000 0000 0000 0000 0000 0000 0000
00000010: 0400 0080 0400 0080 0400 0000 0400 0000
00000020: b974 cda2 8923 8322 9d6d e822 3bfc 44a2
00000030: e32e b13a cc08 7fba 6949 0dbb aee8 8d3a
00000040: 9333 ad90 a0aa 5010 3525 1110 943f 2c0e
00000050: 2a01 0080 9600 0000 2f00 0080 9800 0000
00000060: 0400 0000 0400 0080 0400 0000 0400 0080
00000070: 0bbe eaba bac7 b43a 3c23 463b 30cf d4ba
00000080: 2f28 55b8 07a0 5e37 44c9 c237 c0ef 9937
00000090: 0400 0000 0400 0080 0400 0080 0400 0080
000000a0: 7e0c 03b9 3349 a138 80af f438 b434 08b8
000000b0: 781e 03ba a32c a839 d90e 373a c166 9fb9
000000c0: 2475 68ba 7d21 433a 609f e53a 603c 86ba
000000d0: 024e 773a ca2a 5bba 897e b4ba 7a92 523a
000000e0: 0400 0080 0400 0000 0400 0080 0400 0000
000000f0: e074 583a 4ae5 5cba edd3 aeba 3c4d 673a
0.0 0.0 0.0 0.0 -6e-45 -6e-45 6e-45 6e-45
-5.5688946e-18 3.5545245e-18 6.2999784e-18 -2.6696483e-18 0.0013518002 -0.0009728789 -0.0021558648 0.001082679
-6.831593e-29 4.1152212e-29 2.862487e-29 2.1231249e-30 -4.18e-43 2.1e-43 -6.6e-44 2.13e-43
6e-45 -6e-45 6e-45 -6e-45 -0.001790942 0.0013792433 0.0030233404 -0.0016236063
-5.082058e-05 1.326949e-05 2.3220324e-05 1.8350664e-05 6e-45 -6e-45 -6e-45 -6e-45
-0.00012497787 7.690713e-05 0.00011667516 -3.247401e-05 -0.00050017936 0.00032076714 0.00069831085 -0.000304034
-0.0008867553 0.000744365 0.0017518811 -0.0010241382 0.00094339263 -0.0008360563 -0.001377062 0.0008032691
-6e-45 6e-45 -6e-45 6e-45 0.0008257162 -0.0008426501 -0.0013338305 0.00088234595

exp_avg_sq f4 [16, 4]
00000000: 0000 0000 0000 0000 0000 0000 0000 0000
00000010: 82a1 c21c bafd 8c1e 18d7 f91d 5586 da1d
00000020: a080 9230 2d37 0b30 1982 ac30 ab80 972f
00000030: cc47 5e36 00ea c135 10a7 cb36 e7a7 9e35
00000040: 6b8b 812a 1ce6 a329 d4e8 4929 b2f3 0527
00000050: bb83 ff25 9400 0225 24b8 6523 ea14 0b25
00000060: 34b9 b623 208d 3722 9f33 7d22 c22a a923
00000070: dae1 1637 6976 a836 b4f8 6537 ee20 5a36
00000080: 734a da34 4405 a634 f8ac a334 5ad6 ac33
00000090: 6c15 d21b 71ee c61a 44a7 f719 c203 711b
000000a0: 63b6 8135 b774 0835 087e 8c35 3fe0 6934
000000b0: 5829 1836 3720 9335 2937 6b36 ef35 3a35
000000c0: cab4 4e35 0089 fd34 7012 2836 ebbc 5135
000000d0: 4b2c b035 d420 8d35 7b29 1d36 c9fb 5535
000000e0: ae30 2e1b 8199 131a c8ad a21a 10a2 7e1b
000000f0: b296 a535 680c 8a35 8b42 1f36 93ff 6b35
0.0 0.0 0.0 0.0 1.2879592e-21 1.4928015e-20 6.6132153e-21 5.7843016e-21
1.0659456e-09 5.0646315e-10 1.2551623e-09 2.7558164e-10 3.312237e-06 1.4447724e-06 6.06932e-06 1.1820783e-06
2.3011744e-13 7.278572e-14 4.4832912e-14 1.8589565e-15 4.4324713e-16 1.1275898e-16 1.2453108e-17 1.2063414e-16
1.9810916e-17 2.4875836e-18 3.4315222e-18 1.8341125e-17 8.993282e-06 5.020575e-06 1.3707369e-05 3.25037e-06
4.0659833e-07 3.092374e-07 3.0486967e-07 8.0483645e-08 3.475543e-22 8.2276104e-23 2.560676e-23 1.9936267e-22
9.66433e-07 5.083379e-07 1.0467493e-06 2.1781396e-07 2.267383e-06 1.0961729e-06 3.5049836e-06 6.9368883e-07
7.7004063e-07 4.7224603e-07 2.5044683e-06 7.813348e-07 1.3125913e-06 1.0514873e-06 2.3418968e-06 7.971508e-07
1.4408672e-22 3.0522887e-23 6.728239e-23 2.1062753e-22 1.2337316e-06 1.0285412e-06 2.373158e-06 8.791623e-07

exp_avg f4 [16]
00000000: 0000 0000 0400 0000 262e 8d22 f9e1 94ba
00000010: 42dc 4610 c700 0000 0400 0080 3439 d13a
00000020: 5683 ae37 0400 0000 e11e a738 426a c539
00000030: 9a77 6b3a c6c2 50ba 0400 0080 6a40 4cba
0.0 6e-45 3.826699e-18 -0.0011358849 3.9218295e-29 2.79e-43 -6e-45 0.0015962482
2.0803574e-05 6e-45 7.968932e-05 0.00037653936 0.00089823606 -0.0007963594 -6e-45 -0.0007791581

exp_avg_sq f4 [16]
00000000: 0000 0000 94fb 0e1e bb89 0c30 cc75 f335
00000010: f110 aa29 9868 6425 5b68 7723 db60 a136
00000020: c763 4134 7cf1 451b cfaf ec34 7c39 9c35
00000030: 072f 3535 9a2e 6735 c3be 081b 9688 6835
0.0 7.5694425e-21 5.112743e-10 1.8139194e-06 7.5524554e-14 1.9811285e-16 1.3411995e-17 4.8094494e-06
1.8010824e-07 1.6373486e-22 4.4086343e-07 1.1639636e-06 6.749619e-07 8.612202e-07 1.1311295e-22 8.6625494e-07

exp_avg f4 [4, 16]
00000000: 0000 0000 0400 0000 d483 92a1 3ee2 17bb
00000010: c9e8 4b0e 1c00 0080 0400 0000 2b92 cdba
00000020: 937e d5b7 0400 0000 6dc2 c737 d974 7fb8
00000030: 8459 87b9 f2c1 4cb9 0400 0000 5dd5 4fbb
00000040: 0000 0000 0400 0080 71be f5a1 6a7d e83a
00000050: f2f9 0a0d 0400 0080 0400 0080 01a1 ed3a
00000060: da5b 5fb8 0400 0080 d8e9 88b7 37e6 9139
00000070: d20a 4539 5c7b 8d39 0400 0080 6c1b 3c3b
00000080: 0000 0000 0400 0080 f31f e421 5f06 abba
00000090: d626 5e0d 1000 0080 0400 0080 b20d c0ba
000000a0: 30c3 9337 0400 0080 e4b1 b636 9e63 38b9
000000b0: c43b 06b9 c9c0 99b9 0400 0080 c761 faba
000000c0: 0000 0000 0400 0000 8b5c 6a21 3fcb 0b3b
000000d0: 8c18 938e 2c00 0000 0400 0000 683c df3a
000000e0: 7360 0738 0400 0000 313f f5b7 0a7d 5738
000000f0: d5a3 5839 d58d 8a39 0400 0000 76b7 3e3b
0.0 6e-45 -9.928239e-19 -0.0023175622 2.5133764e-30 -3.9e-44 6e-45 -0.001568382
-2.545052e-05 6e-45 2.3813185e-05 -6.090556e-05 -0.000258159 -0.00019527206 6e-45 -0.0031712868
0.0 -6e-45 -1.6652255e-18 0.0017737572 4.2825394e-31 -6e-45 -6e-45 0.0018129648
-5.3252887e-05 -6e-45 -1.6321355e-05 0.0002782808 0.00018791415 0.00026985526 -6e-45 0.0028702868
0.0 -6e-45 1.5458338e-18 -0.0013048163 6.845578e-31 -2.2e-44 -6e-45 -0.0014652519
1.7614657e-05 -6e-45 5.444732e-06 -0.00017584718 -0.000128015 -0.0002932607 -6e-45 -0.0019102626
0.0 6e-45 7.9404763e-19 0.002133086 -3.6261936e-30 6.2e-44 6e-45 0.0017031552
3.2276334e-05 6e-45 -2.9235702e-05 5.1376446e-05 0.00020660397 0.00026427084 6e-45 0.002910105

exp_avg_sq f4 [4, 16]
00000000: 0000 0000 a519 2f1e 8d22 7f2f f12e 6636
00000010: 343f 5228 4131 1023 0812 ac21 7595 6136
00000020: eddd e032 8862 431c 0411 0a34 2367 d634
00000030: 9a50 0e34 1391 9135 cd82 5d1c 1733 d436
00000040: 0000 0000 b1d6 851e e5e0 882f 5efa a436
00000050: 2df2 0b28 1cca 1623 4559 4022 d211 c736
00000060: 5b1a 8a33 a60f 401c b63b af34 ea1f 1e35
00000070: f70e d433 888e 2536 0996 ee1b 7707 0837
00000080: 0000 0000 ebec 541e 0b6b 2c2f ba85 2a36
00000090: cdef 0d27 9f8d d024 240d 2823 65ab 7936
000000a0: 7555 3633 2fa4 0e1c fbf9 fe33 49b2 b634
000000b0: 0ada 5a33 5482 9135 ad04 7a1c dfeb 8a36
000000c0: 0000 0000 3a3b 6b1e b927 8e2f 32ff 5f36
000000d0: b696 2b29 a58e 4d24 fe28 6123 1eb3 4536
000000e0: cf34 8a32 9b06 cc1c a631 5f34 7f5b 7534
000000f0: 5d80 0c34 4f03 7535 a987 8b1c 64e4 bb36
0.0 9.269726e-21 2.320439e-10 3.4299994e-06 1.1671047e-14 7.8166856e-18 1.1659946e-18 3.3614608e-06
2.6177952e-08 6.4647436e-22 1.2858442e-07 3.9935648e-07 1.3254103e-07 1.0845564e-06 7.329182e-22 6.32404e-06
0.0 1.4170717e-20 2.4898053e-10 4.9167274e-06 7.7685635e-15 8.174315e-18 2.6068111e-18 5.9327367e-06
6.43092e-08 6.3547696e-22 3.2639736e-07 5.890603e-07 9.8747414e-08 2.466988e-06 3.9470755e-22 8.10797e-06
0.0 1.127218e-20 1.5681338e-10 2.5409813e-06 1.9697677e-15 9.0445536e-17 9.110081e-18 3.7203656e-06
4.24529e-08 4.719606e-22 1.1873268e-07 3.402986e-07 5.0955386e-08 1.0841272e-06 8.2724105e-22 4.1401795e-06
0.0 1.2453044e-20 2.5857874e-10 3.3378133e-06 3.810035e-14 4.4573114e-17 1.2205955e-17 2.9459547e-06
1.6089329e-08 1.3501295e-21 2.0786555e-07 2.2850689e-07 1.3085214e-07 9.1274427e-07 9.233316e-22 5.5996225e-06

exp_avg f4 [4]
00000000: 0326 9bbb 0ca6 773b f74a 39bb 72c0 8e3b
-0.004734756 0.003778818 -0.0028273442 0.0043564374

exp_avg_sq f4 [4]
00000000: 59ef 8037 e6ef ce37 56e8 5537 9d92 5f37
1.5370244e-05 2.4668825e-05 1.2749884e-05 1.3325972e-05

exp_avg f4 [4]
00000000: 0749 133b 06fd d439 2942 4eba 2c15 62ba
0.0022473948 0.00040624308 -0.0007868135 -0.00086243707

exp_avg_sq f4 [4]
00000000: 4e41 4f36 8b3b 7835 e351 7635 3a3d 3135
3.0883416e-06 9.2473846e-07 9.17613e-07 6.6026735e-07

exp_avg f4 [4]
00000000: edb4 f2ba 6625 813a 93a5 14ba 9afc bb3a
-0.0018517055 0.0009853065 -0.00056704244 0.0014342249

exp_avg_sq f4 [4]
00000000: c56b 0536 2673 1736 c2d3 a035 4583 3036
1.9881275e-06 2.2567779e-06 1.1982559e-06 2.6302453e-06

exp_avg f4 [4]
00000000: b59f 9a3b 9293 bb3a 5a22 8dba a40d 54bb
0.0047187456 0.0014310947 -0.0010767684 -0.0032356763

exp_avg_sq f4 [4]
00000000: 4f05 8037 f18d 8d36 a45f a536 b084 fb36
1.5261261e-05 4.2186516e-06 4.9285172e-06 7.49583e-06

exp_avg f4 [4]
00000000: f206 9ebb 1cc6 3a3b 5fc7 27ba 6403 573b
-0.0048226053 0.002849943 -0.0006400253 0.0032808417

exp_avg_sq f4 [4]
00000000: 9517 6437 1006 4e37 e619 8336 871d 8a37
1.359535e-05 1.2279968e-05 3.907119e-06 1.6464632e-05

exp_avg f4 [4]
00000000: 14be 253d d235 213d 81cf c43d 3028 3f3d
0.040464476 0.039357968 0.09609891 0.046669185

exp_avg_sq f4 [4]
00000000: 9841 5c3b 1be4 4e3b 9cfb 613c f611 403b
0.0033608433 0.0031569067 0.0137928985 0.002930758

exp_avg f4 [4]
00000000: 8481 39bd 4464 753d d389 9a3d 545e 38bd
-0.04528953 0.059910074 0.07545819 -0.045011833

exp_avg_sq f4 [4]
00000000: 8820 573b 4d66 bf3b 1263 183c 4368 593b
0.0032825787 0.0058410526 0.009300964 0.0033173717

exp_avg f4 [1, 5]
00000000: ea18 17be f89c d13d c9e4 563e 89f4 1abe
00000010: a576 913d
-0.14755598 0.102350175 0.20985712 -0.15132345 0.07102708

exp_avg_sq f4 [1, 5]
00000000: 7c7a 383d fcd2 aa3c afc1 873d a77c 003d
00000010: 1b5a 0a3c
0.045038685 0.020852558 0.06628739 0.031368878 0.008444334
