Saved_models/checkpoint_Female.pt (torch, 91258 bytes, 198 tensors)

encoder_input_layer.weight f4 [4, 5]
-1.0737987 -0.6789899 -1.0996032 -1.0455923 -1.0549017 0.7901008 0.8093784 1.2496336
0.8143364 0.9348196 -0.43903205 -0.26359078 -0.8296217 -0.6089347 -0.45294032 -0.5147684
-0.22201863 -0.08769675 -0.6040383 -0.5291122
00000000: 3c72 89bf 48d2 2dbf ccbf 8cbf f8d5 85bf
00000010: 0507 87bf 0c44 4a3f 6c33 4f3f fef3 9f3f
00000020: 5a78 503f 5650 6f3f cfc8 e0be 5ff5 86be
00000030: 1662 54bf 25e3 1bbf cbe7 e7be ddc7 03bf
00000040: da58 63be 5b9a b3bd 41a2 1abf e673 07bf

encoder_input_layer.bias f4 [4]
1.5038092 0.14099193 0.01838553 1.0922997
00000000: d27c c03f 3060 103e 409d 963c 7ad0 8b3f

decoder_input_layer.weight f4 [4, 1]
-0.97250575 0.4686121 2.0449939 0.74328357
00000000: 23f6 78bf eded ef3e 2ee1 0240 d547 3e3f

decoder_input_layer.bias f4 [4]
-2.4368699 0.16097197 2.7998676 0.8261669
00000000: adf5 1bc0 d6d5 243e 0831 3340 ad7f 533f

positional_encoding_layer_enc.pe f4 [1, 9, 4]
0.0 1.0 0.0 1.0 0.84147096 0.54030234 0.009999833 0.99995
0.9092974 -0.41614684 0.019998666 0.9998 0.14112 -0.9899925 0.0299955 0.99955004
-0.7568025 -0.6536436 0.039989334 0.9992001 -0.9589243 0.2836622 0.049979165 0.99875027
-0.2794155 0.96017027 0.059964005 0.99820054 0.6569866 0.75390226 0.06994285 0.997551
0.98935825 -0.14550003 0.07991469 0.9968017
00000000: 0000 0000 0000 803f 0000 0000 0000 803f
00000010: a46a 573f 4151 0a3f 57d6 233c b9fc 7f3f
00000020: b7c7 683f 3311 d5be 3ed4 a33c e5f2 7f3f
00000030: c381 103e 2670 7dbf 1fb9 f53c 83e2 7f3f
00000040: cfbd 41bf 3055 27bf dbcb 233d 94cb 7f3f
00000050: 107c 75bf 2c3c 913e f4b6 4c3d 19ae 7f3f
00000060: 8c0f 8fbe b8cd 753f d19c 753d 128a 7f3f
00000070: 4630 283f bdff 403f 323e 8f3d 815f 7f3f
00000080: 9546 7d3f f6fd 14be 50aa a33d 652e 7f3f

positional_encoding_layer_dec.pe f4 [1, 1, 4]
0.0 1.0 0.0 1.0
00000000: 0000 0000 0000 803f 0000 0000 0000 803f

encoder.layers.0.self_attn.in_proj_weight f4 [12, 4]
0.8662606 -1.0182337 0.9157802 -0.8607259 0.2694152 -0.30646366 0.0793606 1.3574221
0.20886825 0.2312583 0.22749886 1.2968763 0.6451224 0.26109874 -0.099154346 0.7944548
0.50993556 1.3111945 -1.7047747 -0.23957156 0.52125895 0.8074286 0.25589532 0.8593102
0.368309 -0.5370711 1.0577236 0.91979 0.092631124 0.8745312 0.21224003 1.442807
-0.9581117 0.85752404 -1.4799926 -2.0014539 1.275612 -2.2046733 0.42017868 1.6216276
-1.1213096 1.2098063 -2.409587 -2.3673038 -0.73106235 0.63849354 -1.2937171 -1.4785799
00000000: 41c3 5d3f 7b55 82bf 9270 6a3f 8858 5cbf
00000010: caf0 893e cee8 9cbe cf87 a23d 02c0 ad3f
00000020: 8fe1 553e face 6c3e 76f5 683e 0b00 a63f
00000030: be26 253f bcae 853e 6f11 cbbd 6461 4b3f
00000040: 238b 023f 39d5 a73f 0f36 dabf 3f52 75be
00000050: 3a71 053f a4b3 4e3f b604 833e c1fb 5b3f
00000060: ff92 bc3e 7e7d 09bf 7d63 873f 5c77 6b3f
00000070: 63b5 bd3d 47e1 5f3f 7355 593e e6ad b83f
00000080: cf46 75bf b286 5b3f 6670 bdbf d217 00c0
00000090: 4147 a33f 5e19 0dc0 a921 d73e 7e91 cf3f
000000a0: 1387 8fbf efda 9a3f ac36 1ac0 e881 17c0
000000b0: e726 3bbf 5074 233f 8698 a5bf 1b42 bdbf

encoder.layers.0.self_attn.in_proj_bias f4 [12]
-0.19089822 0.6173243 0.8561193 0.44229898 -0.016689794 0.045758475 -0.010401512 -0.03494222
-1.2885413 0.9903847 -1.6984544 -0.8066373
00000000: d37a 43be f708 1e3f a22a 5b3f 0375 e23e
00000010: 09b9 88bc 3d6d 3b3d 1a6b 2abc 931f 0fbd
00000020: ecee a4bf da89 7d3f f466 d9bf c87f 4ebf

encoder.layers.0.self_attn.out_proj.weight f4 [4, 4]
-0.92150074 -0.11658669 -0.50163066 -0.5168346 -2.1009982 1.9872948 -1.7477846 -1.6770344
0.87386036 -0.72751737 0.80162483 0.5889532 0.041556086 -0.5265773 0.68437546 0.4528375
00000000: 79e7 6bbf 01c5 eebd de6a 00bf 464f 04bf
00000010: c176 06c0 ad5f fe3f 68b7 dfbf 10a9 d6bf
00000020: 50b5 5f3f 943e 3abf 4937 4d3f a3c5 163f
00000030: b736 2a3d c5cd 06bf 3b33 2f3f 51da e73e

encoder.layers.0.self_attn.out_proj.bias f4 [4]
1.0959522 -0.07569637 -0.3991205 -0.7867357
00000000: 2948 8c3f b306 9bbd 8659 ccbe 8367 49bf

encoder.layers.0.linear1.weight f4 [4, 4]
-0.015811443 0.073812164 0.18310073 0.09641159 -0.86714196 0.02869952 -0.12508698 0.02776917
-0.96367747 -0.0130741745 0.3912766 0.6740794 -1.1322263 0.77530015 0.6269427 -0.1671382
00000000: 0087 81bc d52a 973d c27e 3b3e 7173 c53d
00000010: 04fd 5dbf 411b eb3c cd16 00be 2c7c e33c
00000020: 91b3 76bf 1035 56bc 6855 c83e 7890 2c3f
00000030: cbec 90bf 127a 463f 517f 203f 4726 2bbe

encoder.layers.0.linear1.bias f4 [4]
-0.2617168 -0.45050898 -0.37141198 -0.26981366
00000000: bfff 85be 1da9 e6be b629 bebe 0425 8abe

encoder.layers.0.linear2.weight f4 [4, 4]
0.1959778 -0.09223434 0.4355226 1.0061402 -0.0702888 -0.40055647 -0.49420637 0.3577398
-0.17920664 -0.5243262 -0.56351274 -0.83257246 -0.46114945 -0.39444295 -0.06723146 -0.3048976
00000000: 68ae 483e 5ce5 bcbd d1fc de3e 34c9 803f
00000010: 93f3 8fbd bd15 cdbe 9e08 fdbe ac29 b73e
00000020: f281 37be 3e3a 06bf 5f42 10bf 7823 55bf
00000030: c81b ecbe 6df4 c9be a6b0 89bd 8a1b 9cbe

encoder.layers.0.linear2.bias f4 [4]
0.43510985 1.5503376 0.13432546 -0.60081965
00000000: b8c6 de3e 7671 c63f 9d8c 093e 51cf 19bf

encoder.layers.0.norm1.weight f4 [4]
1.8252854 2.9090602 0.3031309 1.1037529
00000000: f4a2 e93f 0b2e 3a40 f933 9b3e c647 8d3f

encoder.layers.0.norm1.bias f4 [4]
0.81333965 0.88220793 -0.5890736 -0.18168454
00000000: 0737 503f 61d8 613f 87cd 16bf 830b 3abe

encoder.layers.0.norm2.weight f4 [4]
0.75472283 2.8824441 0.65025836 1.2204452
00000000: 8435 413f f779 3840 5577 263f 8c37 9c3f

encoder.layers.0.norm2.bias f4 [4]
-0.016040456 2.4329474 -0.78285164 -0.50869834
00000000: 4667 83bc 69b5 1b40 f768 48bf 0e3a 02bf

encoder.layers.1.self_attn.in_proj_weight f4 [12, 4]
-0.12889662 0.32706445 0.52754086 -0.38408402 0.07405134 -0.514663 -0.42097744 -0.22230475
0.032097675 0.6528569 -0.10327903 0.21450067 0.25875676 -0.14671916 0.08566967 0.63335556
0.64294815 -0.058576666 -0.1541491 -0.59211236 -0.13899775 0.90631926 0.37190285 0.25057107
0.4854093 -0.8321475 0.08253236 -0.04196339 -0.28215805 0.30700526 0.009645032 0.37521297
-0.26160812 0.23504938 -0.06866938 -0.15250328 0.5431045 -0.8409886 0.4652139 0.17957999
0.9664457 -0.09934227 -0.8824783 -0.58990073 1.6407399 0.92831504 -0.8996897 -2.0830631
00000000: 7afd 03be fe74 a73e eb0c 073f a9a6 c4be
00000010: 3ba8 973d f4c0 03bf 5b8a d7be dba3 63be
00000020: da78 033d a121 273f f583 d3bd 10a6 5b3e
00000030: c47b 843e 8c3d 16be 9473 af3d 9723 223f
00000040: 4098 243f 16ee 6fbd 43d9 1dbe ad94 17bf
00000050: 6d55 0ebe 8a04 683f 0d6a be3e da4a 803e
00000060: 9187 f83e 9e07 55bf ba06 a93d cee1 2bbd
00000070: 0577 90be cb2f 9d3e 3206 1e3c ea1b c03e
00000080: 80f1 85be c9b0 703e 88a2 8cbd d229 1cbe
00000090: e608 0b3f 074b 57bf 8430 ee3e d1e3 373e
000000a0: fc68 773f f673 cbbd 19ea 61bf bc03 17bf
000000b0: c403 d23f 0ea6 6d3f 1052 66bf e850 05c0

encoder.layers.1.self_attn.in_proj_bias f4 [12]
-0.13796782 -0.1933958 -0.26878846 -0.19139732 -0.027486661 0.02150001 0.02705573 0.01381519
-0.22608751 -0.007016901 0.15134427 0.9795922
00000000: 7047 0dbe 8c09 46be a49e 89be a9fd 43be
00000010: b52b e1bc ca20 b03c faa3 dd3c 1b59 623c
00000020: 7c83 67be 08ee e5bb fef9 1a3e 8ec6 7a3f

encoder.layers.1.self_attn.out_proj.weight f4 [4, 4]
0.5904587 -0.6998599 -0.45343208 -0.6125059 -2.619391 -0.8626513 2.9114356 3.0987258
0.16169842 0.63502115 -0.6226418 -1.1342891 0.31910324 0.22374262 -0.5384158 -0.7509489
00000000: 4d28 173f 052a 33bf 4028 e8be 30cd 1cbf
00000010: 1aa4 27c0 b7d6 5cbf f654 3a40 8651 4640
00000020: 4594 253e bf90 223f 7465 1fbf 6330 91bf
00000030: 8061 a33e c91c 653e 9ed5 09bf 303e 40bf

encoder.layers.1.self_attn.out_proj.bias f4 [4]
-0.17197391 2.5211127 -0.6229886 -0.71604675
00000000: ee19 30be e959 2140 2e7c 1fbf d74e 37bf

encoder.layers.1.linear1.weight f4 [4, 4]
-0.010879449 -0.13574633 -0.26564524 0.45774493 -0.5194268 0.8662619 -0.805828 -0.6988511
-0.03930533 -0.12302738 0.061727952 0.23548782 -0.7748529 0.7354849 0.7267758 -0.8436867
00000000: b73f 32bc 1601 0bbe a702 88be 8b5d ea3e
00000010: 28f9 04bf 57c3 5d3f be4a 4ebf e8e7 32bf
00000020: a0fe 20bd c7f5 fbbd 73d6 7c3d b823 713e
00000030: c25c 46bf bd48 3c3f fb0d 3a3f dafb 57bf

encoder.layers.1.linear1.bias f4 [4]
-0.71345085 0.37754142 -0.32617128 0.05064346
00000000: b7a4 36bf 1c4d c13e ecff a6be 846f 4f3d

encoder.layers.1.linear2.weight f4 [4, 4]
0.35493815 0.65069544 -0.086984694 0.9682998 -0.13088351 2.9519925 -0.100918435 2.5280871
-0.48450324 -0.80430937 -0.28935918 -0.6095519 -0.48026526 -0.76041585 0.12170957 -0.12918028
00000000: 74ba b53e fa93 263f 0825 b2bd 7fe2 773f
00000010: 5406 06be 72ed 3c40 53ae cebd 2ecc 2140
00000020: cf10 f8be 38e7 4dbf e326 94be 980b 1cbf
00000030: 54e5 f5be 9daa 42bf de42 f93d d647 04be

encoder.layers.1.linear2.bias f4 [4]
1.0551561 3.0601768 -0.63329107 0.24027942
00000000: 5b0f 873f f0d9 4340 5d1f 22bf cf0b 763e

encoder.layers.1.norm1.weight f4 [4]
-0.22296627 4.091427 1.1905555 0.9737017
00000000: 4551 64be f8ec 8240 1f64 983f 8444 793f

encoder.layers.1.norm1.bias f4 [4]
0.24195406 3.628747 -0.92531246 -0.462101
00000000: cec2 773e 643d 6840 47e1 6cbf 8198 ecbe

encoder.layers.1.norm2.weight f4 [4]
-0.20211543 0.14210558 0.3070916 0.30859435
00000000: 59f7 4ebe 2084 113e 1c3b 9d3e 1400 9e3e

encoder.layers.1.norm2.bias f4 [4]
0.016262062 -0.22242393 0.3040851 0.20879789
00000000: 0438 853c 19c3 63be 0bb1 9b3e 1dcf 553e

decoder.layers.0.self_attn.in_proj_weight f4 [12, 4]
-0.11795229 -0.12023488 -0.5495124 -0.5287456 -0.095823705 0.0079193115 -0.27818543 0.23068023
-0.55117095 -0.041327298 0.5385322 -0.24978182 0.5529743 0.22177297 -0.5526422 0.3874464
-0.070664406 -0.27336726 0.4896856 -0.49485525 0.065710604 -0.12821162 0.4373029 0.1709404
0.29424822 0.21626484 -0.14726007 -0.12878525 -0.50464475 0.3318104 0.4862103 0.41900045
0.3977527 0.39249372 -0.053350102 0.21063964 -0.7963834 0.9624727 -0.25067607 -0.9696732
-1.289631 -3.6471593 -0.18676907 1.1003556 0.02455251 -0.010937553 -0.0067995745 0.072718166
00000000: f890 f1bd b43d f6bd d8ac 0cbf df5b 07bf
00000010: 383f c4bd 00c0 013c 526e 8ebe 7037 6c3e
00000020: 8a19 0dbf d046 29bd 3fdd 093f cec6 7fbe
00000030: b98f 0d3f 7418 633e f679 0dbf 605f c63e
00000040: 80b8 90bd cbf6 8bbe 12b8 fa3e ab5d fdbe
00000050: 4893 863d e849 03be 2ae6 df3e 000b 2f3e
00000060: b4a7 963e 8874 5d3e 58cb 16be 48e0 03be
00000070: 6630 01bf 0ee3 a93e 8ef0 f83e 3a87 d63e
00000080: 3ea6 cb3e f0f4 c83e a385 5abd ebb1 573e
00000090: c8df 4bbf 9c64 763f 9d58 80be 813c 78bf
000000a0: a112 a5bf 0f6b 69c0 6440 3fbe 74d8 8c3f
000000b0: 5822 c93c 6c33 33bc f7ce debb 43ed 943d

decoder.layers.0.self_attn.in_proj_bias f4 [12]
0.0 0.0 0.0 0.0 0.0 0.0 0.0 0.0
-0.13502279 -0.5912163 -0.6244908 0.0003294473
00000000: 0000 0000 0000 0000 0000 0000 0000 0000
00000010: 0000 0000 0000 0000 0000 0000 0000 0000
00000020: 6a43 0abe f459 17bf a1de 1fbf abb9 ac39

decoder.layers.0.self_attn.out_proj.weight f4 [4, 4]
0.05584047 0.2711042 0.11267472 0.00046469242 -0.25521007 -0.22822163 0.073306434 -0.009745119
-0.09247421 -0.1945535 -0.012267996 0.008027087 -0.114860095 0.14072384 -0.0640812 -0.024642263
00000000: fab8 643d 2bce 8a3e 01c2 e63d f6a1 f339
00000010: e5aa 82be eeb2 69be af21 963d fea9 1fbc
00000020: 1e63 bdbd 0839 47be b4ff 48bc 0b84 033c
00000030: c53b ebbd e919 103e 013d 83bd 92de c9bc

decoder.layers.0.self_attn.out_proj.bias f4 [4]
-0.0104342 -1.5315583 0.011456356 -0.003947044
00000000: 35f4 2abc 1a0a c4bf 71b3 3b3c 3456 81bb

decoder.layers.0.multihead_attn.in_proj_weight f4 [12, 4]
-0.20546097 -0.09068465 0.0066983104 0.50508946 0.076447845 0.5484976 0.37459588 -0.3871504
0.27465153 -0.43288368 -0.25953886 0.18011266 0.20220053 0.45941895 -0.19713241 0.0009803176
0.31526375 -0.5922206 0.44273347 -0.5063845 0.008440018 -0.10411358 -0.32252002 0.08093792
0.5063823 -0.17900842 -0.36356193 -0.22647911 -0.60695195 0.27642125 -0.29410025 -0.40866083
0.016331317 0.011090902 -0.019086374 0.022949465 -0.086605676 -0.023424929 0.053628363 -0.026740132
-0.052877262 -0.033726856 0.003949276 0.0147187635 0.053844612 0.016159073 -0.05575049 0.024764266
00000000: 5c64 52be e0b8 b9bd 807d db3b 8b4d 013f
00000010: b090 9c3d 576a 0c3f 08cb bf3e 9438 c6be
00000020: 209f 8c3e eea2 ddbe 47e2 84be 746f 383e
00000030: a80d 4f3e f638 eb3e 14dd 49be 007e 803a
00000040: 406a a13e c59b 17bf f6ad e23e 6aa2 01bf
00000050: 0048 0a3c 8039 d5bd 5821 a5be c8c2 a53d
00000060: 45a2 013f fc4d 37be ca24 babe 24ea 67be
00000070: 3461 1bbf 1687 8d3e 4f94 96be fe3b d1be
00000080: 41c9 853c 9db6 353c 075b 9cbc 8400 bc3c
00000090: 515e b1bd a3e5 bfbc 6aa9 5b3d 1f0e dbbc
000000a0: d495 58bd 2c25 0abd ee68 813b f826 713c
000000b0: 2b8c 5c3d 0860 843c a05a 64bd 6ede ca3c

decoder.layers.0.multihead_attn.in_proj_bias f4 [12]
0.0 0.0 0.0 0.0 0.0 0.0 0.0 0.0
0.007775368 0.0034674285 -0.0040577776 0.00023612341
00000000: 0000 0000 0000 0000 0000 0000 0000 0000
00000010: 0000 0000 0000 0000 0000 0000 0000 0000
00000020: 84c8 fe3b cc3d 633b 1bf7 84bb e597 7739

decoder.layers.0.multihead_attn.out_proj.weight f4 [4, 4]
0.02408706 -0.017909782 -0.039702598 0.013533126 -0.00597391 -0.040522203 -0.034974404 0.003426179
0.0057103503 -0.021045743 -0.020536188 -0.00026314124 0.013886091 -0.035444297 -0.035198834 0.0133922305
00000000: 3a52 c53c 89b7 92bc 319f 22bd 0bba 5d3c
00000010: cac0 c3bb 9cfa 25bd 5241 0fbd bf89 603b
00000020: e41d bb3b 1f68 acbc 823b a8bc 38f6 89b9
00000030: 7d82 633c 0a2e 11bd a72c 10bd 166b 5b3c

decoder.layers.0.multihead_attn.out_proj.bias f4 [4]
0.0087795 -0.00653692 -0.005999617 0.01883962
00000000: e4d7 0f3c a933 d6bb 6f98 c4bb 8c55 9a3c

decoder.layers.0.linear1.weight f4 [4, 4]
1.22621 -0.9901852 0.4598342 -2.1203923 1.036013 -2.139261 0.29979888 0.6999083
0.8120369 -0.34428617 0.76468104 -1.6204283 1.1979145 -3.19199 0.4342198 0.6966822
00000000: 73f4 9c3f c77c 7dbf 636f eb3e 82b4 07c0
00000010: 139c 843f a7e9 08c0 3d7f 993e 312d 333f
00000020: a6e1 4f3f 4746 b0be 23c2 433f 326a cfbf
00000030: 4355 993f 9049 4cc0 0f52 de3e c459 323f

decoder.layers.0.linear1.bias f4 [4]
-0.015224581 -0.66635126 -1.010588 -0.28496858
00000000: 8570 79bc ff95 2abf f35a 81bf 67e7 91be

decoder.layers.0.linear2.weight f4 [4, 4]
0.15249962 -0.118782036 0.14743511 -0.22105809 -1.2095144 2.7136564 -1.0868597 1.6001495
0.87318295 0.09945922 0.6590468 0.032638874 -0.6522998 0.048862945 -0.2461573 0.03987897
00000000: dc28 1c3e ff43 f3bd 3bf9 163e 0d5d 62be
00000010: 5ed1 9abf 8cac 2d40 381e 8bbf b3d1 cc3f
00000020: eb88 5f3f 47b1 cb3d 4bb7 283f 57b0 053d
00000030: 1ffd 26bf 8324 483d a910 7cbe 2158 233d

decoder.layers.0.linear2.bias f4 [4]
0.04161053 -0.4860765 -0.011018659 -0.01888044
00000000: ce6f 2a3d 05df f8be 9b87 34bc 27ab 9abc

decoder.layers.0.norm1.weight f4 [4]
2.2486691 1.5819017 1.9937533 2.3655198
00000000: 32ea 0f40 c17b ca3f 4f33 ff3f ad64 1740

decoder.layers.0.norm1.bias f4 [4]
-2.2441318 0.15848677 1.1325957 -0.62545776
00000000: db9f 0fc0 5b4a 223e e5f8 903f 001e 20bf

decoder.layers.0.norm2.weight f4 [4]
2.516481 0.954347 2.5835617 2.8147333
00000000: 060e 2140 1650 743f 1359 2540 9724 3440

decoder.layers.0.norm2.bias f4 [4]
-1.8230444 0.12363465 0.34458998 -1.546662
00000000: 8559 e9bf 2a34 fd3d 196e b03e 05f9 c5bf

decoder.layers.0.norm3.weight f4 [4]
3.5460153 0.10610651 2.9921656 2.5162926
00000000: eaf1 6240 5f4e d93d a47f 3f40 f00a 2140

decoder.layers.0.norm3.bias f4 [4]
0.75100225 -0.701293 -0.67923754 -1.2192353
00000000: af41 403f f087 33bf 83e2 2dbf e70f 9cbf

decoder.layers.1.self_attn.in_proj_weight f4 [12, 4]
-0.11795229 -0.12023488 -0.5495124 -0.5287456 -0.095823705 0.0079193115 -0.27818543 0.23068023
-0.55117095 -0.041327298 0.5385322 -0.24978182 0.5529743 0.22177297 -0.5526422 0.3874464
-0.070664406 -0.27336726 0.4896856 -0.49485525 0.065710604 -0.12821162 0.4373029 0.1709404
0.29424822 0.21626484 -0.14726007 -0.12878525 -0.50464475 0.3318104 0.4862103 0.41900045
0.021211755 -0.27642953 0.0022961874 0.008359849 0.032277096 -0.51629776 -0.0061293067 0.011817415
-0.021584218 -0.57656854 -0.027768593 -0.011169356 0.02381957 -0.3480742 -0.021292483 0.0036022132
00000000: f890 f1bd b43d f6bd d8ac 0cbf df5b 07bf
00000010: 383f c4bd 00c0 013c 526e 8ebe 7037 6c3e
00000020: 8a19 0dbf d046 29bd 3fdd 093f cec6 7fbe
00000030: b98f 0d3f 7418 633e f679 0dbf 605f c63e
00000040: 80b8 90bd cbf6 8bbe 12b8 fa3e ab5d fdbe
00000050: 4893 863d e849 03be 2ae6 df3e 000b 2f3e
00000060: b4a7 963e 8874 5d3e 58cb 16be 48e0 03be
00000070: 6630 01bf 0ee3 a93e 8ef0 f83e 3a87 d63e
00000080: 46c4 ad3c 2c88 8dbe a27b 163b c0f7 083c
00000090: fd34 043d 172c 04bf 5ad8 c8bb d59d 413c
000000a0: 63d1 b0bc ff99 13bf f67a e3bc adff 36bc
000000b0: 4221 c33c c836 b2be 936d aebc 1c13 6c3b

decoder.layers.1.self_attn.in_proj_bias f4 [12]
0.0 0.0 0.0 0.0 0.0 0.0 0.0 0.0
-0.16801181 -0.22818328 -0.4069601 -0.11937087
00000000: 0000 0000 0000 0000 0000 0000 0000 0000
00000010: 0000 0000 0000 0000 0000 0000 0000 0000
00000020: 4a0b 2cbe e1a8 69be 135d d0be b778 f4bd

decoder.layers.1.self_attn.out_proj.weight f4 [4, 4]
0.0046902597 -0.014601887 -0.025182106 -0.01670316 0.043478947 0.0638755 -0.011908904 0.029292505
-0.016790712 -0.012117833 0.010369502 0.01937037 0.022272276 0.023271644 -0.015245126 0.03296464
00000000: c0b0 993b c13c 6fbc b44a cebc 11d5 88bc
00000010: fb16 323d 28d1 823d 901d 43bc d6f6 ef3c
00000020: ad8c 89bc e089 46bc d8e4 293c 9cae 9e3c
00000030: 5974 b63c 2da4 be3c b1c6 79bc ee05 073d

decoder.layers.1.self_attn.out_proj.bias f4 [4]
-0.019386137 -0.0036053376 -0.019839967 -0.015398348
00000000: adcf 9ebc 8747 6cbb 6d87 a2bc 5a49 7cbc

decoder.layers.1.multihead_attn.in_proj_weight f4 [12, 4]
-0.20546097 -0.09068465 0.0066983104 0.50508946 0.076447845 0.5484976 0.37459588 -0.3871504
0.27465153 -0.43288368 -0.25953886 0.18011266 0.20220053 0.45941895 -0.19713241 0.0009803176
0.31526375 -0.5922206 0.44273347 -0.5063845 0.008440018 -0.10411358 -0.32252002 0.08093792
0.5063823 -0.17900842 -0.36356193 -0.22647911 -0.60695195 0.27642125 -0.29410025 -0.40866083
0.029103111 -0.036322802 -0.054952487 0.0029302398 0.072004795 -0.020214757 -0.014139956 -0.013024032
-0.015962956 -0.007811872 -0.0006180202 -0.012004439 -0.03382883 -0.0074731554 0.0043592774 0.03243066
00000000: 5c64 52be e0b8 b9bd 807d db3b 8b4d 013f
00000010: b090 9c3d 576a 0c3f 08cb bf3e 9438 c6be
00000020: 209f 8c3e eea2 ddbe 47e2 84be 746f 383e
00000030: a80d 4f3e f638 eb3e 14dd 49be 007e 803a
00000040: 406a a13e c59b 17bf f6ad e23e 6aa2 01bf
00000050: 0048 0a3c 8039 d5bd 5821 a5be c8c2 a53d
00000060: 45a2 013f fc4d 37be ca24 babe 24ea 67be
00000070: 3461 1bbf 1687 8d3e 4f94 96be fe3b d1be
00000080: a669 ee3c 38c7 14bd dc15 61bd 4409 403b
00000090: 4077 933d 6b99 a5bc 46ab 67bc c062 55bc
000000a0: bfc4 82bc bbfa ffbb a202 22ba 44ae 44bc
000000b0: 1990 0abd 5fe1 f4bb 45d8 8e3b 03d6 043d

decoder.layers.1.multihead_attn.in_proj_bias f4 [12]
0.0 0.0 0.0 0.0 0.0 0.0 0.0 0.0
-0.013032138 0.009166617 0.0103059895 0.006482597
00000000: 0000 0000 0000 0000 0000 0000 0000 0000
00000010: 0000 0000 0000 0000 0000 0000 0000 0000
00000020: c084 55bc 942f 163c 74da 283c f76b d43b

decoder.layers.1.multihead_attn.out_proj.weight f4 [4, 4]
0.047360696 -0.00059643097 -0.042811964 -0.036136355 0.09089913 -0.01274837 -0.06571951 -0.048276916
-0.01205705 0.0011016086 -0.00805161 -0.0128816655 0.01802157 0.007317553 -0.018833177 -0.016725637
00000000: 4afd 413d ce59 1cba 995b 2fbd b703 14bd
00000010: 5329 ba3d 8ade 50bc f397 86bd 04be 45bd
00000020: ef8a 45bc da63 903a e6ea 03bc 9f0d 53bc
00000030: f9a1 933c 15c8 ef3b 0948 9abc 3404 89bc

decoder.layers.1.multihead_attn.out_proj.bias f4 [4]
-0.016883042 -0.018644935 0.004949936 -0.027307983
00000000: 4e4e 8abc 43bd 98bc 1333 a23b feb4 dfbc

decoder.layers.1.linear1.weight f4 [4, 4]
0.2552515 -0.5343285 0.07185796 0.058503125 0.5202332 -1.1397697 0.11993568 0.17345789
0.1890621 0.096659906 0.13750035 0.06506057 0.5264548 -1.1805446 -0.20170666 0.2369192
00000000: 53b0 823e c1c9 08bf 442a 933d f9a0 6f3d
00000010: 012e 053f f9e3 91bf d6a0 f53d f29e 313e
00000020: 7f99 413e a1f5 c53d e4cc 0c3e 7a3e 853d
00000030: bec5 063f 161c 97bf 318c 4ebe f29a 723e

decoder.layers.1.linear1.bias f4 [4]
-0.29296845 -0.5828221 -0.44060296 -0.8772094
00000000: f6ff 95be d433 15bf b696 e1be cc90 60bf

decoder.layers.1.linear2.weight f4 [4, 4]
0.10846058 0.1397196 -0.063579395 0.24576668 -0.22934283 -0.019508846 -0.055246416 -0.3138568
0.4273861 -0.2890926 0.18206201 0.018007712 0.4266142 -0.23597622 -0.14740267 -0.22676735
00000000: 9520 de3d a812 0f3e ea35 82bd 43aa 7b3e
00000010: d9d8 6abe 04d1 9fbc 114a 62bd d7b1 a0be
00000020: 5ad2 da3e f203 94be 776e 3a3e e984 933c
00000030: 2d6d da3e c0a3 71be baf0 16be b335 68be

decoder.layers.1.linear2.bias f4 [4]
0.0097499965 -0.0015399802 0.00441678 0.00088549836
00000000: 73be 1f3c 29d9 c9ba a3ba 903b ca20 683a

decoder.layers.1.norm1.weight f4 [4]
3.0548186 0.56209624 2.7707062 3.5391576
00000000: 2682 4340 8ae5 0f3f 4053 3140 8f81 6240

decoder.layers.1.norm1.bias f4 [4]
0.76639086 -0.32923785 -1.1177562 -1.7081544
00000000: 3132 443f dd91 a8be a312 8fbf cea4 dabf

decoder.layers.1.norm2.weight f4 [4]
2.9003968 1.2318112 0.9988079 4.641874
00000000: 1aa0 3940 fdab 9d3f e0b1 7f3f 3b8a 9440

decoder.layers.1.norm2.bias f4 [4]
-0.10002811 0.8174315 -0.8791351 -1.3238599
00000000: 8adb ccbd 3143 513f ff0e 61bf 3e74 a9bf

decoder.layers.1.norm3.weight f4 [4]
1.198686 -0.00275867 0.0019926762 0.0041657668
00000000: 8b6e 993f cdca 34bb 8f97 023b fc80 883b

decoder.layers.1.norm3.bias f4 [4]
0.47939825 0.008631988 0.0015736341 -0.003036754
00000000: b073 f53e 2f6d 0d3c 6642 ce3a 4704 47bb

linear_mapping.weight f4 [1, 4]
-0.62884706 0.003279996 0.0009496717 0.0013809105
00000000: 1ffc 20bf 34f5 563b 64f3 783a abff b43a

linear_mapping_with_gender_ind.weight f4 [1, 5]
0.055841506 -0.35157594 0.03514573 0.3096819 0.40299034
00000000: 10ba 643d c301 b4be f8f4 0f3d a08e 9e3e
00000010: c054 ce3e

exp_avg f4 [4, 5]
-4.7333293e-09 -4.8088173e-09 -4.8920574e-09 -5.368757e-09 -5.185191e-09 -8.2217466e-10 -9.595721e-10 -1.132676e-09
-1.8630322e-09 -1.5134239e-09 4.9919113e-10 4.2055678e-10 4.5717702e-10 5.7499705e-10 4.867512e-10 6.625036e-09
6.461677e-09 6.3620527e-09 5.7155125e-09 6.111052e-09
00000000: cea2 a2b1 ce3a a5b1 fe16 a8b1 1678 b8b1
00000010: 6c29 b2b1 66ff 61b0 f1e1 83b0 7eac 9bb0
00000020: cf06 00b1 df00 d0b0 7437 0930 1b34 e72f
00000030: f255 fb2f d20d 1e30 12cc 0530 6fa2 e331
00000040: 8305 de31 3599 da31 2e62 c431 62f9 d131

exp_avg_sq f4 [4, 5]
3.0634762e-16 3.0909733e-16 3.0976445e-16 3.1380723e-16 3.1875592e-16 5.2077894e-16 4.588655e-16 4.1531743e-16
3.3756253e-16 3.2278229e-16 2.262204e-16 2.2142879e-16 2.1604876e-16 2.1269561e-16 2.1603751e-16 8.641596e-16
8.8796407e-16 8.493914e-16 8.571916e-16 8.028752e-16
00000000: ee98 b025 b72e b225 2a91 b225 c6e5 b425
00000010: 12c0 b725 b41a 1626 4c42 0426 096a ef25
00000020: 7097 c225 4212 ba25 3d68 8225 3e4a 7f25
00000030: 5716 7925 aa38 7525 0513 7925 b913 7926
00000040: 2ff0 7f26 06d2 7426 9411 7726 bc69 6726

exp_avg f4 [4]
2.408471e-09 1.0122936e-09 -3.484694e-10 -2.356601e-09
00000000: 4582 2531 ea20 8b30 b592 bfaf c3f1 21b1

exp_avg_sq f4 [4]
5.928662e-17 7.54021e-17 5.850351e-17 2.2582933e-16
00000000: a5b4 8824 8bdd ad24 60e6 8624 872e 8225

exp_avg f4 [4, 1]
0.027484821 -0.017509734 0.005109573 0.007802205
00000000: d927 e13c 9370 8fbc 346e a73b a4a9 ff3b

exp_avg_sq f4 [4, 1]
0.012414794 0.02121889 0.011234863 0.020076683
00000000: 6c67 4b3c 3dd3 ad3c 6e12 383c db77 a43c

exp_avg f4 [4]
-0.011545271 0.006439855 -0.0024512548 -0.0025415113
00000000: 6028 3dbc 6b05 d33b 3ba5 20bb 7c8f 26bb

exp_avg_sq f4 [4]
0.0021603757 0.00410174 0.002487218 0.003252346
00000000: 1795 0d3b e467 863b 9800 233b 5025 553b

exp_avg f4 [12, 4]
3.536078e-09 -3.2609848e-09 1.8260083e-09 1.6750518e-09 8.1120527e-10 -5.722041e-10 2.948908e-10 1.4048178e-10
-2.0223512e-09 1.7897368e-09 -1.0162116e-09 -9.081423e-10 5.4290855e-10 -2.7294325e-10 1.3983274e-10 -4.4146922e-11
4.0665118e-10 2.9691225e-09 -1.2970656e-09 -1.0248855e-09 5.114331e-10 1.5334629e-09 -1.2612787e-09 -6.573995e-10
3.472947e-10 8.235973e-10 -8.4212337e-10 -3.8934567e-10 2.0836387e-10 1.1006867e-09 -6.347789e-10 -4.2861958e-10
2.3669164e-10 -4.4736253e-11 6.145512e-11 9.635069e-11 1.7604831e-10 6.800202e-11 1.6951535e-10 1.9168414e-10
2.4596533e-10 -9.6104166e-11 6.940106e-11 8.164014e-11 1.5429052e-10 -7.160696e-11 5.816339e-11 6.149116e-11
00000000: 58ff 7231 da17 60b1 f5f6 fa30 a537 e630
00000010: 7ffb 5e30 4949 1db0 311e a22f 1b76 1a2f
00000020: 94f9 0ab1 c4fa f530 c4aa 8bb0 d5a0 79b0
00000030: cb3b 1530 590d 96af 6bbf 192f 0429 42ae
00000040: 118f df2f 5b09 4c31 7044 b2b0 f4db 8cb0
00000050: e894 0c30 eec1 d230 4d59 adb0 61b4 34b0
00000060: 62ed be2f 8263 6230 2a7b 67b0 880b d6af
00000070: 3719 652f f846 9730 987c 2eb0 d8a2 ebaf
00000080: 631f 822f 8bc0 44ae 2824 872e 9ee0 d32e
00000090: 3291 412f bc89 952e 5462 3a2f 4ac2 522f
000000a0: 8b38 872f d655 d3ae 539d 982e 5087 b32e
000000b0: eca4 292f 2377 9dae 28ce 7f2e 7238 872e

exp_avg_sq f4 [12, 4]
7.1893594e-16 2.325119e-15 6.6034027e-16 1.0459952e-15 9.685569e-17 9.850671e-17 3.0137333e-17 4.2724752e-17
4.5969563e-16 9.993995e-16 2.871405e-16 4.4857536e-16 1.1795577e-16 1.07510914e-16 3.2234388e-17 4.557084e-17
9.926251e-16 6.55482e-16 1.01346e-15 4.5545594e-17 6.3238903e-16 4.0891304e-16 1.5628277e-15 2.7423201e-17
2.7332393e-16 1.7197416e-16 6.5522694e-16 1.1222888e-17 2.7395653e-16 1.76951e-16 2.4394586e-16 1.1957e-17
1.709209e-17 4.792859e-18 1.7994712e-18 4.220673e-18 5.1976357e-17 7.771682e-18 9.094798e-18 1.3324109e-17
5.367423e-18 1.5953997e-18 6.5767337e-19 1.424893e-18 6.9392383e-19 2.4076004e-19 1.2835288e-19 1.9140958e-19
00000000: 1c38 4f26 e08a 2727 8354 3e26 69be 9626
00000010: 8255 df24 1924 e324 e2fb 0a24 7c08 4524
00000020: 8d7f 0426 5507 9026 7586 a525 054b 0126
00000030: 66fe 0725 3ee7 f724 a6a7 1424 8d28 5224
00000040: 670d 8f26 09ee 3c26 130e 9226 bf0a 5224
00000050: 1346 3626 eab8 eb25 2a3a e126 34ef fc23
00000060: 7e8f 9d25 d045 4625 37db 3c26 9706 4f23
00000070: d9ec 9d25 b802 4c25 0ea0 8c25 5691 5c23
00000080: 8ea5 9d23 46d3 b022 0dc7 0422 21b7 9b22
00000090: dab2 6f24 bb5c 0f23 f8c4 2723 53c9 7523
000000a0: e005 c622 7f70 eb21 651c 4221 f046 d221
000000b0: 67cf 4c21 a11e 8e20 4788 1720 fff9 6120

exp_avg f4 [12]
3.2571337e-10 4.649169e-11 -1.8116177e-10 1.8510932e-11 6.857442e-16 5.74072e-16 1.5757053e-16 -5.5082156e-17
1.4425557e-11 3.1099966e-11 9.5674545e-12 8.392523e-12
00000000: 1510 b32f fd78 4c2e 8130 47af ead2 a22d
00000010: fea6 4526 0977 2526 9daa 3525 8805 7ea4
00000020: efc6 7d2d 73c7 082e fc4f 282d 90a4 132d

exp_avg_sq f4 [12]
3.1431212e-17 1.070795e-18 1.3076688e-17 1.1610298e-18 1.0802659e-28 5.1697244e-29 3.2337267e-29 3.1479942e-29
7.2010854e-20 2.2504064e-19 2.6525374e-20 4.1272443e-21
00000000: 6df3 1024 7e05 9e21 ea38 7123 7756 ab21
00000010: a2f0 0811 6e11 8310 2cf8 2310 4d9f 1f10
00000020: e407 aa1f 2ed7 8420 6b86 fa1e 42ec 9b1d

exp_avg f4 [4, 4]
1.7668509e-09 -1.4674484e-09 2.3148625e-09 1.3738792e-09 -5.704928e-10 4.9983007e-10 -7.269815e-10 -4.4063395e-10
-1.2283405e-10 3.0702418e-10 -8.7653204e-11 -8.157847e-11 -9.035908e-10 8.715674e-10 -1.1983277e-09 -7.041283e-10
00000000: 8ad5 f230 40af c9b0 7e13 1f31 14d3 bc30
00000010: ddd0 1cb0 6a64 0930 c6d4 47b0 b73d f2af
00000020: b60e 07af d0c9 a82f 5ec0 c0ae 9964 b3ae
00000030: 8d60 78b0 1a93 6f30 68b2 a4b0 a08c 41b0

exp_avg_sq f4 [4, 4]
7.286416e-16 7.2469656e-16 1.1793585e-15 4.257153e-16 2.4686992e-17 2.0676623e-17 4.059144e-17 1.460052e-17
1.2472372e-16 1.1276245e-16 2.0250753e-16 7.325918e-17 2.393829e-16 3.3689963e-16 3.757771e-16 1.357798e-16
00000000: 4304 5226 2be1 5026 a6f6 a926 7d68 f525
00000010: 83b2 e323 4cb5 be23 ea31 3b24 81aa 8623
00000020: f2cb 0f25 9a01 0225 ac79 6925 96ec a824
00000030: aefe 8925 9c35 c225 e99e d825 208b 1c25

exp_avg f4 [4]
1.9026438e-09 1.0349519e-09 -1.0688577e-09 -7.194981e-10
00000000: aabf 0231 223e 8e30 16e7 92b0 2ec6 45b0

exp_avg_sq f4 [4]
6.8469935e-17 2.3813248e-17 1.4525604e-17 4.7694867e-17
00000000: 84e1 9d24 71a3 db23 9df9 8523 29f4 5b24

exp_avg f4 [4, 4]
-6e-45 6e-45 -6e-45 6e-45 9.163248e-21 3.451592e-20 4.1021167e-21 -1.1190303e-20
-6.551561e-16 -4.5368546e-15 -1.3616634e-15 3.603021e-15 3.321017e-09 1.7103407e-08 -2.8126343e-09 -2.9879574e-09
00000000: 0400 0080 0400 0000 0400 0080 0400 0000
00000010: c016 2d1e 30ff 221f 3df9 9a1d fc60 539e
00000020: fdd5 3ca6 1975 a3a7 833c c4a6 01d0 8127
00000030: f337 6431 caea 9232 6348 41b1 b454 4db1

exp_avg_sq f4 [4, 4]
3.5e-44 3.5e-44 3.5e-44 3.5e-44 2.3758881e-20 3.2247535e-19 6.094828e-21 4.543699e-20
3.9926328e-19 1.5409703e-17 2.6425127e-19 2.0352721e-18 9.315525e-16 1.5067398e-14 4.7624353e-16 4.6815125e-16
00000000: 1900 0000 1900 0000 1900 0000 1900 0000
00000010: 7365 e01e 195b be20 8f41 e61d f391 561f
00000020: f6ae eb20 2221 8e23 86fc 9b20 342d 1622
00000030: 3940 8626 0eb7 8728 9244 0926 77ef 0626

exp_avg f4 [4]
6e-45 -1.3906386e-20 2.2541806e-15 3.143361e-09
00000000: 0400 0000 9457 839e 4b6e 2227 9702 5831

exp_avg_sq f4 [4]
3.5e-44 5.0755447e-20 2.059241e-18 5.3744267e-16
00000000: 1900 0000 92af 6f1f f6f1 1722 45e8 1a26

exp_avg f4 [4, 4]
6e-45 1.310442e-26 1.0134218e-13 3.908839e-09 -6e-45 4.1802566e-21 9.6631734e-14 -1.1688385e-09
-6e-45 -2.9195469e-21 1.3835128e-16 -5.84505e-09 -6e-45 3.4490806e-21 -7.423171e-14 3.106105e-09
00000000: 0400 0000 a7c7 8114 ca33 e429 834e 8631
00000010: 0400 0080 f6ec 9d1d 6798 d929 d9a4 a0b0
00000020: 0400 0080 4098 5c9d 1782 1f25 9bd5 c8b1
00000030: 0400 0080 764d 821d ab27 a7a9 2d73 5531

exp_avg_sq f4 [4, 4]
3.5e-44 3.7350294e-21 1.9272436e-19 2.0354687e-15 3.5e-44 1.5682918e-19 2.6534703e-18 1.6611102e-15
3.5e-44 7.344122e-20 6.9367254e-18 6.1032023e-15 3.5e-44 3.506095e-20 8.737163e-19 9.541843e-15
00000000: 1900 0000 fd1a 8d1d 5d87 6320 c5ab 1227
00000010: 1900 0000 b626 3920 a3ca 4322 2664 ef26
00000020: 1900 0000 7e68 ad1f 85eb ff22 1be4 db27
00000030: 1900 0000 1692 251f 12f0 8021 fce3 2b28

exp_avg f4 [4]
7.9421545e-09 1.7233498e-08 -1.4105753e-08 -9.245707e-09
00000000: f771 0832 dd08 9432 c255 72b2 0dd7 1eb2

exp_avg_sq f4 [4]
1.3683085e-15 3.9711547e-15 2.8079093e-15 2.7982119e-15
00000000: ac31 c526 7013 8f27 c954 4a27 e6a1 4927

exp_avg f4 [4]
5.9617813e-09 -2.1151342e-08 7.97488e-10 -6.817921e-09
00000000: 62d8 cc31 4bb0 b5b2 3b36 5b30 1143 eab1

exp_avg_sq f4 [4]
2.3142035e-15 7.028928e-15 1.014241e-15 1.2905532e-15
00000000: 85c1 2627 6b3e fd27 e32a 9226 02fd b926

exp_avg f4 [4]
2.7403715e-09 1.6702584e-08 -1.0225291e-08 -8.894214e-09
00000000: 2051 3c31 5f79 8f32 4eab 2fb2 2bcd 18b2

exp_avg_sq f4 [4]
1.7771317e-15 4.3002486e-15 2.213305e-15 2.318948e-15
00000000: 4b0e 0027 cbee 9a27 457c 1f27 0a19 2727

exp_avg f4 [4]
6.0810716e-09 -2.1470381e-08 2.0217183e-08 -1.10068825e-08
00000000: acf1 d031 de6d b8b2 0eaa ad32 c818 3db2

exp_avg_sq f4 [4]
5.4898382e-15 7.647094e-15 2.634317e-14 2.4869575e-14
00000000: d2ca c527 ffc1 0928 3747 ed28 5601 e028

exp_avg f4 [4]
4.458762e-09 1.24351764e-08 -2.991381e-08 3.3087e-09
00000000: af33 9931 7ca2 5532 957a 00b3 445f 6331

exp_avg_sq f4 [4]
3.5019514e-15 2.5427796e-15 3.166281e-14 2.6095328e-14
00000000: 9a57 7c27 013a 3727 bc98 0e29 bb0b eb28

exp_avg f4 [12, 4]
-1.9303555e-10 -3.884941e-10 1.9644208e-10 2.586976e-10 6.8081807e-10 1.6539119e-09 -7.40321e-10 -9.477981e-10
-6.9770356e-10 -1.73431e-09 7.6473267e-10 9.809101e-10 3.0600864e-10 8.503221e-10 -3.4865835e-10 -4.5648185e-10
4.7451657e-11 4.3433676e-10 -2.466014e-10 2.004693e-10 -7.912373e-11 -4.8288035e-10 3.0859001e-10 -2.446196e-10
4.434489e-11 9.94712e-10 -4.68433e-10 3.8283565e-10 6.455736e-11 -9.505152e-10 3.1102532e-10 -2.8317154e-10
9.303518e-09 2.346205e-09 -8.4994465e-09 -8.3439895e-09 -1.2804039e-08 -6.171173e-09 1.179504e-08 1.2417565e-08
-1.1491197e-09 2.3964577e-09 8.1543294e-10 3.280519e-10 8.991162e-09 4.369089e-09 -8.209954e-09 -8.683151e-09
00000000: ad3e 54af af93 d5af 88fd 572f 7338 8e2f
00000010: 5024 3b30 da4f e330 767f 4bb0 ae43 82b0
00000020: 86c8 3fb0 9c5c eeb0 4735 5230 b5d0 8630
00000030: e33a a82f 19bc 6930 4dad bfaf 1cf4 faaf
00000040: d1b1 502e 77c7 ee2f 1092 87af 176b 5c2f
00000050: b3fe adae afbb 04b0 2fa6 a92f 267b 86af
00000060: e807 432e 51b6 8830 0bc3 00b0 5477 d22f
00000070: 90f6 8d2e 48a3 82b0 ecfc aa2f daac 9baf
00000080: 4ed5 1f32 e03a 2131 f604 12b2 4159 0fb2
00000090: c2f8 5bb2 360a d4b1 22a3 4a32 0755 5532
000000a0: 0eef 9db0 eeae 2431 fe24 6030 3359 b42f
000000b0: 8c77 1a32 ea1e 9631 c20b 0db2 e72c 15b2

exp_avg_sq f4 [12, 4]
4.4706833e-18 3.1833708e-16 1.9223309e-17 2.8575454e-17 2.6463817e-17 1.8848827e-15 1.1351041e-16 1.478848e-16
2.7723263e-17 1.9760989e-15 1.1901754e-16 1.550164e-16 4.2374387e-18 3.6347542e-16 2.17267e-17 2.69055e-17
1.7816112e-17 1.8756396e-16 1.2904329e-18 1.8637244e-17 3.178211e-17 3.3580206e-16 2.0834775e-18 2.9290717e-17
7.206532e-17 7.5288095e-16 4.792767e-18 6.7874186e-17 2.7939848e-17 2.930993e-16 2.1511632e-18 3.1152654e-17
9.08115e-16 7.0160683e-15 9.091118e-16 1.325446e-15 1.4925341e-15 1.5137907e-14 1.6345899e-15 2.3852922e-15
3.159221e-16 4.3122994e-15 4.2113247e-16 6.6232105e-16 1.301829e-15 6.9132106e-15 1.1203759e-15 1.3462981e-15
00000000: 69f0 a422 4382 b725 c14d b123 f1c7 0324
00000010: ec15 f423 f3d1 0727 5cde 0225 e47f 2a25
00000020: b4b3 ff23 9764 0e27 c737 0925 c4b8 3225
00000030: 7a55 9c22 8187 d125 b864 c823 d128 f823
00000040: 1b53 a423 1c3f 5825 2d6f be21 f3e5 ab23
00000050: b191 1224 a393 c125 c7bb 1922 6014 0724
00000060: db2b a624 cf00 5926 68d2 b022 d981 9c24
00000070: 8dd9 0024 d2f5 a825 53ba 1e22 90aa 0f24
00000080: 88df 8226 cfc7 fc27 4e04 8326 5404 bf26
00000090: ca18 d726 a359 8828 b991 eb26 e0e0 2b27
000000a0: df1d b625 f15d 9b27 2fc4 f225 abe6 3e26
000000b0: 039d bb26 1d13 f927 9376 a126 a205 c226

exp_avg f4 [12]
-1.5446451e-10 5.497257e-10 -5.6774063e-10 2.6240174e-10 -3.3552767e-15 4.199441e-15 -6.279673e-15 4.015598e-15
8.485521e-09 -1.15535865e-08 -1.0389516e-09 7.9239975e-09
00000000: e5d5 29af 821b 1730 320f 1cb0 c341 902f
00000010: eec5 71a7 024d 9727 c33f e2a7 5bad 9027
00000020: b7c7 1132 367d 46b2 dcca 8eb0 1c22 0832

exp_avg_sq f4 [12]
9.763683e-18 5.709265e-17 5.984052e-17 1.0537332e-17 2.7962733e-27 4.5112613e-27 9.813347e-27 4.1160786e-27
7.391004e-16 1.2989862e-15 3.08237e-16 9.829657e-16
00000000: b01b 3423 8da5 8324 9cfb 8924 2561 4223
00000010: 298b 5d13 a0b5 b213 955f 4214 ff0d a313
00000020: fc07 5526 2234 bb26 c1af b125 09a9 8d26

exp_avg f4 [4, 4]
2.0820905e-09 -7.148008e-09 9.717063e-10 1.14625704e-08 -3.0017328e-10 2.7226437e-09 -4.4463886e-09 -1.28688225e-08
1.03961195e-08 -5.2157643e-09 -7.9802135e-08 -1.6259888e-07 -1.7277038e-08 3.067218e-08 7.295226e-08 1.1522343e-07
00000000: 8614 0f31 8b9a f5b1 e08c 8530 ebec 4432
00000010: a205 a5af 4119 3b31 d9c6 98b1 ae15 5db2
00000020: 9e9a 3232 5936 b3b1 b05f abb3 d796 2eb4
00000030: 9c68 94b2 6bbc 0333 eea9 9c33 c070 f733

exp_avg_sq f4 [4, 4]
6.238995e-16 9.531669e-15 2.8026489e-15 5.265662e-14 3.9155273e-17 5.5137525e-16 2.9351738e-16 3.3712875e-15
4.9659687e-15 5.4884933e-14 7.5389016e-14 5.2258073e-13 8.998377e-15 1.1533907e-13 1.06708045e-13 9.22851e-13
00000000: a8d3 3326 11b5 2b28 bff3 4927 f324 6d29
00000010: 6392 3424 50ec 1e26 8533 a925 47ed 7227
00000020: faea b227 052e 7729 cfc2 a929 e917 132b
00000030: b019 2228 39dc 012a 0049 f029 36e1 812b

exp_avg f4 [4]
8.622016e-10 -1.8397649e-09 -2.4320585e-08 2.016057e-08
00000000: 0b00 6d30 f9da fcb0 88e9 d0b2 902d ad32

exp_avg_sq f4 [4]
9.626327e-16 3.111919e-16 1.037291e-14 3.485473e-14
00000000: e1ba 8a26 d263 b325 9bdc 3a28 c5f8 1c29

exp_avg f4 [4, 4]
6e-45 6e-45 -6e-45 -6e-45 -4.336049e-09 -1.2672587e-07 3.538623e-08 -2.3241364e-10
6e-45 -6e-45 -6e-45 6e-45 -9.291512e-08 -2.9301339e-06 4.845467e-07 2.800077e-07
00000000: 0400 0000 0400 0000 0400 0080 0400 0080
00000010: 4afc 94b1 2412 08b4 92fb 1733 a08a 7faf
00000020: 0400 0000 0400 0080 0400 0080 0400 0000
00000030: a188 c7b3 51a3 44b6 cc11 0235 f753 9634

exp_avg_sq f4 [4, 4]
3.5e-44 3.5e-44 3.5e-44 3.5e-44 4.342486e-14 4.958718e-11 1.4797943e-12 5.1178045e-13
3.5e-44 3.5e-44 3.5e-44 3.5e-44 8.7549305e-14 9.268441e-11 2.6886915e-12 8.834186e-13
00000000: 1900 0000 1900 0000 1900 0000 1900 0000
00000010: 7491 4329 3416 5a2e 3543 d02b ab0d 102b
00000020: 1900 0000 1900 0000 1900 0000 1900 0000
00000030: bd24 c529 afd0 cb2e 2933 3d2c 05a9 782b

exp_avg f4 [4]
6e-45 -1.2682138e-08 6e-45 -2.7475338e-07
00000000: 0400 0000 a2e0 59b2 0400 0000 d181 93b4

exp_avg_sq f4 [4]
3.5e-44 4.4381225e-13 3.5e-44 8.208311e-13
00000000: 1900 0000 16d8 f92a 1900 0000 1d0b 672b

exp_avg f4 [4, 4]
6e-45 -3.4075128e-06 -6e-45 -2.9986422e-06 -6e-45 -2.7664825e-07 6e-45 -8.368584e-08
6e-45 -2.2054382e-06 -6e-45 -1.7172026e-06 -6e-45 -1.4444672e-06 6e-45 -6.824449e-07
00000000: 0400 0000 a0ac 64b6 0400 0080 483c 49b6
00000010: 0400 0080 3f86 94b4 0400 0000 c7b6 b3b3
00000020: 0400 0000 2401 14b6 0400 0080 a27a e6b5
00000030: 0400 0080 84df c1b5 0400 0000 4231 37b5

exp_avg_sq f4 [4, 4]
3.5e-44 3.878168e-10 3.5e-44 2.274925e-10 3.5e-44 1.35819255e-11 3.5e-44 7.3345115e-12
3.5e-44 2.3662444e-10 3.5e-44 1.06298706e-10 3.5e-44 2.895387e-10 3.5e-44 1.3611155e-10
00000000: 1900 0000 5d34 d52f 1900 0000 7221 7a2f
00000010: 1900 0000 8eef 6e2d 1900 0000 b407 012d
00000020: 1900 0000 ee15 822f 1900 0000 dac0 e92e
00000030: 1900 0000 f32c 9f2f 1900 0000 ffa7 152f

exp_avg f4 [4]
-3.7444195e-07 -3.2647742e-09 -2.4784717e-07 -1.5654091e-08
00000000: e906 c9b4 845a 60b1 db0f 85b4 b677 86b2

exp_avg_sq f4 [4]
4.0547257e-12 1.4933793e-13 1.7809351e-12 2.9670945e-12
00000000: b9a9 8e2c ba23 282a f3a4 fa2b 6cca 502c

exp_avg f4 [4]
8.0781504e-08 2.9264173e-08 2.5810832e-07 -2.2352096e-07
00000000: 1a7a ad33 9960 fb32 2392 8a34 f900 70b4

exp_avg_sq f4 [4]
1.7537938e-13 8.8590634e-14 1.0237029e-12 3.4968623e-12
00000000: aa75 452a 067d c729 c912 902b df11 762c

exp_avg f4 [4]
-1.6576759e-07 1.462141e-08 -3.3276888e-07 5.416177e-07
00000000: d9fd 31b4 a431 7b32 68a7 b2b4 af63 1135

exp_avg_sq f4 [4]
1.3937039e-12 3.5962698e-14 1.8408424e-12 7.724713e-12
00000000: 7a25 c42b 2bf6 2129 ab89 012c 04e5 072d

exp_avg f4 [4]
2.7959026e-05 1.42820845e-05 1.935733e-05 3.6068172e-08
00000000: 8d89 ea37 169d 6f37 8d61 a237 60e9 1a33

exp_avg_sq f4 [4]
3.0107515e-08 2.8922237e-08 2.1589551e-08 2.1441748e-09
00000000: 904f 0133 ac70 f832 ed73 b932 b958 1331

exp_avg f4 [4]
2.9565163e-05 1.6727534e-05 -7.679534e-06 7.4331806e-06
00000000: b402 f837 1b52 8c37 59d7 00b7 896a f936

exp_avg_sq f4 [4]
6.980801e-08 1.3988749e-08 1.9478065e-08 4.384659e-09
00000000: 5ce9 9533 2b53 7032 b850 a732 dea7 9631

exp_avg f4 [12, 4]
0.0 0.0 0.0 0.0 0.0 0.0 0.0 0.0
0.0 0.0 0.0 0.0 0.0 0.0 0.0 0.0
0.0 0.0 0.0 0.0 0.0 0.0 0.0 0.0
0.0 0.0 0.0 0.0 0.0 0.0 0.0 0.0
-0.00039857553 0.00045923667 -0.005279271 0.00018809189 -0.0013180681 0.0010526145 -0.011386103 0.0012680618
-0.00038188894 0.00010240087 0.0047518467 -0.00041000138 5.4413948e-05 -5.2909163e-06 -0.00047529046 -6.733251e-05
00000000: 0000 0000 0000 0000 0000 0000 0000 0000
00000010: 0000 0000 0000 0000 0000 0000 0000 0000
00000020: 0000 0000 0000 0000 0000 0000 0000 0000
00000030: 0000 0000 0000 0000 0000 0000 0000 0000
00000040: 0000 0000 0000 0000 0000 0000 0000 0000
00000050: 0000 0000 0000 0000 0000 0000 0000 0000
00000060: 0000 0000 0000 0000 0000 0000 0000 0000
00000070: 0000 0000 0000 0000 0000 0000 0000 0000
00000080: e7f7 d0b9 b4c5 f039 bcfd acbb 883a 4539
00000090: 07c3 acba e2f7 893a c78c 3abc 1835 a63a
000000a0: 4438 c8b9 0cc0 d638 61b5 9b3b 74f5 d6b9
000000b0: 883a 6438 a088 b1b6 6830 f9b9 de34 8db8

exp_avg_sq f4 [12, 4]
0.0 0.0 0.0 0.0 0.0 0.0 0.0 0.0
0.0 0.0 0.0 0.0 0.0 0.0 0.0 0.0
0.0 0.0 0.0 0.0 0.0 0.0 0.0 0.0
0.0 0.0 0.0 0.0 0.0 0.0 0.0 0.0
1.3849644e-05 3.3500587e-06 0.0012449287 7.0585766e-06 0.000115688585 2.807145e-05 0.0015236308 6.6778724e-05
1.5328798e-05 3.5594226e-06 0.0012640195 8.845521e-06 2.441107e-06 4.3073018e-07 3.8677426e-05 9.0778e-07
00000000: 0000 0000 0000 0000 0000 0000 0000 0000
00000010: 0000 0000 0000 0000 0000 0000 0000 0000
00000020: 0000 0000 0000 0000 0000 0000 0000 0000
00000030: 0000 0000 0000 0000 0000 0000 0000 0000
00000040: 0000 0000 0000 0000 0000 0000 0000 0000
00000050: 0000 0000 0000 0000 0000 0000 0000 0000
00000060: 0000 0000 0000 0000 0000 0000 0000 0000
00000070: 0000 0000 0000 0000 0000 0000 0000 0000
00000080: c55b 6837 92d1 6036 e02c a33a b6d8 ec36
00000090: d69d f238 fb7a eb37 91b4 c73a 8e0b 8c38
000000a0: 5896 8037 6ade 6e36 75ad a53a 3967 1437
000000b0: e6d1 2336 1b3f e734 9239 2238 2bae 7335

exp_avg f4 [12]
0.0 0.0 0.0 0.0 0.0 0.0 0.0 0.0
0.003078917 0.008103513 -0.0012572429 8.055396e-05
00000000: 0000 0000 0000 0000 0000 0000 0000 0000
00000010: 0000 0000 0000 0000 0000 0000 0000 0000
00000020: a8c7 493b 99c4 043c 12ca a4ba 14ef a838

exp_avg_sq f4 [12]
0.0 0.0 0.0 0.0 0.0 0.0 0.0 0.0
0.0002114385 0.00055756525 0.00019181176 1.15643725e-05
00000000: 0000 0000 0000 0000 0000 0000 0000 0000
00000010: 0000 0000 0000 0000 0000 0000 0000 0000
00000020: 97b5 5d39 9229 123a 1421 4939 9a04 4237

exp_avg f4 [4, 4]
-0.0008208024 0.000598384 -0.0074104876 0.00016521974 -0.00138304 0.0005120719 0.0045622042 -0.00075764855
0.0022595439 0.002422773 0.0031803357 0.0005699845 0.0008019145 -0.0041824435 -0.00019429263 0.00040377557
00000000: 1e2b 57ba dfdc 1c3a add3 f2bb d63e 2d39
00000010: 1f47 b5ba 903c 063a 8b7e 953b ef9c 46ba
00000020: db14 143b 63c7 1e3b 2e6d 503b 036b 153a
00000030: 9237 523a e10c 89bb 08bb 4bb9 d7b1 d339

exp_avg_sq f4 [4, 4]
7.6226286e-05 0.0003168163 0.0011687394 3.0889446e-06 3.405014e-05 0.00014239967 0.00047237094 2.103389e-06
0.00023122554 0.0005824954 0.0017773525 2.9092218e-06 0.00015187224 0.0009269704 0.0020934076 2.3000798e-06
00000000: addb 9f38 5d1a a639 6330 993a aa4b 4f36
00000010: 0fd1 0e38 1f51 1539 8ea8 f739 f327 0d36
00000020: 2275 7239 9bb2 183a 0ef6 e83a 0d3c 4336
00000030: e53f 1f39 eeff 723a 8d31 093b 125b 1a36

exp_avg f4 [4]
-0.012066515 0.0010867682 0.0028443916 0.02599413
00000000: a2b2 45bc e471 8e3a f968 3a3b a4f1 d43c

exp_avg_sq f4 [4]
0.0052781785 0.0027418726 0.0052379253 0.0066116075
00000000: 92f4 ac3b fdb0 333b e7a2 ab3b 2fa6 d83b

exp_avg f4 [12, 4]
0.0 0.0 0.0 0.0 0.0 0.0 0.0 0.0
0.0 0.0 0.0 0.0 0.0 0.0 0.0 0.0
0.0 0.0 0.0 0.0 0.0 0.0 0.0 0.0
0.0 0.0 0.0 0.0 0.0 0.0 0.0 0.0
-2.3493776e-05 -9.605216e-06 -8.468918e-06 -4.874323e-06 1.2672206e-05 1.8909857e-05 3.3647553e-05 -5.866432e-05
6.0006292e-05 3.8462076e-05 4.209028e-05 -3.6534126e-05 -1.25851875e-05 -5.502909e-06 -8.438884e-06 2.2835363e-06
00000000: 0000 0000 0000 0000 0000 0000 0000 0000
00000010: 0000 0000 0000 0000 0000 0000 0000 0000
00000020: 0000 0000 0000 0000 0000 0000 0000 0000
00000030: 0000 0000 0000 0000 0000 0000 0000 0000
00000040: 0000 0000 0000 0000 0000 0000 0000 0000
00000050: 0000 0000 0000 0000 0000 0000 0000 0000
00000060: 0000 0000 0000 0000 0000 0000 0000 0000
00000070: 0000 0000 0000 0000 0000 0000 0000 0000
00000080: 8014 c5b7 1726 21b7 ba15 0eb7 1e8e a3b6
00000090: b69a 5437 9ca0 9e37 c920 0d38 550e 76b8
000000a0: 44af 7b38 5752 2138 188a 3038 383c 19b8
000000b0: f824 53b7 a1a5 b8b6 bb94 0db7 db3e 1936

exp_avg_sq f4 [12, 4]
0.0 0.0 0.0 0.0 0.0 0.0 0.0 0.0
0.0 0.0 0.0 0.0 0.0 0.0 0.0 0.0
0.0 0.0 0.0 0.0 0.0 0.0 0.0 0.0
0.0 0.0 0.0 0.0 0.0 0.0 0.0 0.0
6.1261525e-09 1.9749984e-09 2.0666737e-09 1.3206248e-09 4.0673253e-08 1.2485523e-08 1.40228975e-08 9.74637e-09
3.014544e-08 1.01043796e-08 1.252759e-08 9.158737e-09 7.596989e-09 2.3444076e-09 1.8026044e-09 8.359114e-10
00000000: 0000 0000 0000 0000 0000 0000 0000 0000
00000010: 0000 0000 0000 0000 0000 0000 0000 0000
00000020: 0000 0000 0000 0000 0000 0000 0000 0000
00000030: 0000 0000 0000 0000 0000 0000 0000 0000
00000040: 0000 0000 0000 0000 0000 0000 0000 0000
00000050: 0000 0000 0000 0000 0000 0000 0000 0000
00000060: 0000 0000 0000 0000 0000 0000 0000 0000
00000070: 0000 0000 0000 0000 0000 0000 0000 0000
00000080: 357e d231 8ab8 0731 4f05 0e31 5b81 b530
00000090: b7b0 2e33 e97f 5632 5be9 7032 fd70 2732
000000a0: 4379 0133 8897 2d32 ec38 5732 8d58 1d32
000000b0: e983 0232 411b 2131 81bf f730 09c6 6530

exp_avg f4 [12]
0.0 0.0 0.0 0.0 0.0 0.0 0.0 0.0
4.1229934e-05 -0.00032038597 -0.00018926391 2.200577e-07
00000000: 0000 0000 0000 0000 0000 0000 0000 0000
00000010: 0000 0000 0000 0000 0000 0000 0000 0000
00000020: 4eee 2c38 7af9 a7b9 2575 46b9 0049 6c34

exp_avg_sq f4 [12]
0.0 0.0 0.0 0.0 0.0 0.0 0.0 0.0
1.1832693e-06 2.8553375e-06 2.94183e-06 6.657663e-07
00000000: 0000 0000 0000 0000 0000 0000 0000 0000
00000010: 0000 0000 0000 0000 0000 0000 0000 0000
00000020: d3d0 9e35 539e 3f36 416c 4536 1db7 3235

exp_avg f4 [4, 4]
-0.00010295409 0.00019411533 0.00018009492 -0.00011764311 -1.774904e-05 4.9486836e-05 8.88606e-05 -2.410771e-05
0.00013798667 -0.00013000531 -0.000110392815 0.000104799125 0.0001008085 -0.00010196799 -0.00011682895 8.603857e-05
00000000: 0ee9 d7b8 708b 4b39 ddd7 3c39 2ab7 f6b8
00000010: c6e3 94b7 1690 4f38 ac5a ba38 ea3a cab7
00000020: 84b0 1039 0952 08b9 b182 e7b8 9ac7 db38
00000030: 2769 d338 a6d7 d5b8 1102 f5b8 9b6f b438

exp_avg_sq f4 [4, 4]
2.4024138e-07 2.2409655e-07 1.9965942e-07 1.1027458e-07 1.3436947e-07 5.648678e-08 1.0525986e-07 3.591524e-08
2.7207972e-07 1.4864254e-07 1.8158237e-07 8.7955996e-08 1.0123275e-07 1.14334284e-07 1.0238589e-07 5.0051725e-08
00000000: 86fa 8034 319f 7034 f761 5634 17d0 ec33
00000010: 3347 1034 df9b 7233 380b e233 3941 1a33
00000020: 5a12 9234 8d9a 1f34 fbf8 4234 52e2 bc33
00000030: 4b65 d933 f087 f533 3ddf db33 74f8 5633

exp_avg f4 [4]
-0.0016651489 0.004025115 0.0028123576 0.0019627297
00000000: 2041 daba 1de5 833b 884f 383b 24a1 003b

exp_avg_sq f4 [4]
0.0020084288 0.0009834496 0.0017775077 0.00087592547
00000000: d89f 033b 18e7 803a 43fb e83a 5d9e 653a

exp_avg f4 [4, 4]
-0.00016130146 -5.566027e-05 0.00020269185 -2.2347442e-05 -0.0028367685 -0.0009472797 -0.0028250103 0.004607091
-0.00024845867 -7.177611e-05 0.00029730308 -4.0384588e-05 5.7317535e-05 -5.668866e-05 0.0012571411 -0.00050554797
00000000: 0823 29b9 c374 69b8 ae89 5439 c476 bbb7
00000010: 14e9 39bb dd52 78ba cf23 39bb 15f7 963b
00000020: 8f43 82b9 8186 96b8 58df 9b39 9f62 29b8
00000030: 3c68 7038 fcc4 6db8 a8c6 a43a c086 04ba

exp_avg_sq f4 [4, 4]
1.7583901e-05 2.7271844e-06 3.1377487e-05 7.246248e-07 4.6071335e-05 4.996959e-06 0.00011240565 0.00014659109
2.7220745e-05 2.4149783e-06 3.83438e-05 8.0279966e-07 6.915492e-05 6.7257515e-06 0.0001926334 0.00019615433
00000000: 2481 9337 ac04 3736 529b 0338 d683 4235
00000010: b83c 4138 8dab a736 53bb eb38 3fb6 1939
00000020: 1b58 e437 0311 2236 57d3 2038 f97f 5735
00000030: 4407 9138 c4ad e136 a2fd 4939 c7ae 4d39

exp_avg f4 [4]
5.172593e-05 0.0015567729 7.308111e-05 -0.00027277326
00000000: 4bf4 5838 a10c cc3a 1f43 9938 0203 8fb9

exp_avg_sq f4 [4]
2.076407e-06 1.9098345e-05 2.3650084e-06 2.9018549e-05
00000000: 6758 0b36 6235 a037 89b6 1e36 dc6c f337

exp_avg f4 [4, 4]
-3.258648e-05 -0.0020847344 1.8639123e-05 -0.002863984 -5.631753e-07 -2.6470277e-06 -1.601513e-05 -0.00012302096
-3.6826257e-06 0.002166782 1.487682e-05 0.0037056347 -1.1548031e-05 6.257523e-05 -6.510968e-05 -0.00021140306
00000000: 77ad 08b8 0aa0 08bb 365b 9c37 aeb1 3bbb
00000010: 1d2d 17b5 97a3 31b6 3b58 86b7 30ff 00b9
00000020: 0723 77b6 9200 0e3b 7597 7937 3cda 723b
00000030: 6abe 41b7 d23a 8338 7e8b 88b8 14ac 5db9

exp_avg_sq f4 [4, 4]
7.10791e-06 2.2213666e-05 1.1382204e-05 7.930622e-05 5.3571803e-08 2.9321386e-08 2.0603153e-07 1.2295732e-07
5.4517e-08 2.4478026e-05 1.6362465e-07 0.00010195557 3.6616228e-07 3.4678865e-06 1.9487738e-06 1.7648836e-05
00000000: 7b80 ee36 7c57 ba37 32f6 3e37 3451 a638
00000010: d216 6633 69de fb32 8439 5d34 4006 0434
00000020: 1326 6a33 2956 cd37 cdb0 2f34 fbd0 d538
00000030: f694 c434 d6b9 6836 aec7 0236 960c 9437

exp_avg f4 [4]
-0.009740739 -0.00077810773 0.002626513 0.0074203755
00000000: 9f97 1fbc edf9 4bba 9321 2c3b 9f26 f33b

exp_avg_sq f4 [4]
0.0004402499 6.4237665e-06 0.0008743842 0.0004314642
00000000: 57d1 e639 bc8b d736 ee36 653a 2536 e239

exp_avg f4 [4]
-0.002081791 0.0020434246 -0.008109211 0.0030340753
00000000: a86e 08bb faea 053b 7fdc 04bc 56d7 463b

exp_avg_sq f4 [4]
0.0011122868 0.00025626188 0.0019154252 0.0005494015
00000000: 27ca 913a e35a 8639 010f fb3a b605 103a

exp_avg f4 [4]
-0.005666483 -0.0005398062 0.00084220245 0.0053640855
00000000: e8ad b9bb c881 0dba 40c7 5c3a 36c5 af3b

exp_avg_sq f4 [4]
0.001651955 0.0006096399 0.0012194576 0.00075517927
00000000: 6986 d83a 3ed0 1f3a 35d6 9f3a 39f7 453a

exp_avg f4 [4]
0.0026127445 0.0024865435 -0.00665923 0.0043773884
00000000: 943a 2b3b 47f5 223b ac35 dabb 3270 8f3b

exp_avg_sq f4 [4]
0.0001246829 0.00024749243 0.00060599495 0.00041632535
00000000: 50bd 0239 dfc1 8139 a2db 1e3a 3e46 da39

exp_avg f4 [4]
-0.0029675034 -0.003037433 0.0006085972 0.005344359
00000000: 727a 42bb ab0f 47bb 448a 1f3a bc1f af3b

exp_avg_sq f4 [4]
0.00040428172 0.00053396245 0.0005720539 0.00037385165
00000000: c6f5 d339 9df9 0b3a e3f5 153a 8501 c439

exp_avg f4 [4]
0.004129176 7.954413e-05 -0.0039570094 0.0018432251
00000000: 0a4e 873b eed0 a638 cda9 81bb 5f98 f13a

exp_avg_sq f4 [4]
0.00019903596 6.5760723e-06 0.00016271099 0.00021338095
00000000: 4fb4 5039 08a8 dc36 669d 2a39 03bf 5f39

exp_avg f4 [4]
-0.003497297 -0.00061186485 -0.0008445622 0.004782975
00000000: e832 65bb 8e65 20ba 9c65 5dba 81ba 9c3b

exp_avg_sq f4 [4]
0.00021707115 1.9054147e-05 0.00024236795 0.00037676212
00000000: 989d 6339 78d6 9f37 2724 7e39 2888 c539

exp_avg f4 [12, 4]
0.0 0.0 0.0 0.0 0.0 0.0 0.0 0.0
0.0 0.0 0.0 0.0 0.0 0.0 0.0 0.0
0.0 0.0 0.0 0.0 0.0 0.0 0.0 0.0
0.0 0.0 0.0 0.0 0.0 0.0 0.0 0.0
3.066591e-05 7.5478983e-06 0.00015382866 -8.8366134e-05 -0.00018306139 -4.123009e-05 -0.00018889413 -6.512112e-05
-0.00023236334 -5.3736938e-05 -0.00040671334 9.476778e-05 -0.00056615664 -0.00013012058 -0.00072191353 7.390452e-05
00000000: 0000 0000 0000 0000 0000 0000 0000 0000
00000010: 0000 0000 0000 0000 0000 0000 0000 0000
00000020: 0000 0000 0000 0000 0000 0000 0000 0000
00000030: 0000 0000 0000 0000 0000 0000 0000 0000
00000040: 0000 0000 0000 0000 0000 0000 0000 0000
00000050: 0000 0000 0000 0000 0000 0000 0000 0000
00000060: 0000 0000 0000 0000 0000 0000 0000 0000
00000070: 0000 0000 0000 0000 0000 0000 0000 0000
00000080: 459f 0038 f443 fd36 114d 2139 3551 b9b8
00000090: 2bf4 3fb9 79ee 2cb8 e211 46b9 a391 88b8
000000a0: 8fa6 73b9 9963 61b8 243c d5b9 11be c638
000000b0: 216a 14ba fa70 08b9 cc3e 3dba 30fd 9a38

exp_avg_sq f4 [12, 4]
0.0 0.0 0.0 0.0 0.0 0.0 0.0 0.0
0.0 0.0 0.0 0.0 0.0 0.0 0.0 0.0
0.0 0.0 0.0 0.0 0.0 0.0 0.0 0.0
0.0 0.0 0.0 0.0 0.0 0.0 0.0 0.0
1.2710278e-06 3.3682394e-08 5.8749026e-07 1.2311847e-07 2.5656395e-06 9.0084015e-08 2.4753826e-06 3.5808006e-07
1.1029873e-06 4.3919165e-08 1.441074e-06 2.7100234e-07 5.631433e-06 2.2570332e-07 7.135202e-06 9.664606e-07
00000000: 0000 0000 0000 0000 0000 0000 0000 0000
00000010: 0000 0000 0000 0000 0000 0000 0000 0000
00000020: 0000 0000 0000 0000 0000 0000 0000 0000
00000030: 0000 0000 0000 0000 0000 0000 0000 0000
00000040: 0000 0000 0000 0000 0000 0000 0000 0000
00000050: 0000 0000 0000 0000 0000 0000 0000 0000
00000060: 0000 0000 0000 0000 0000 0000 0000 0000
00000070: 0000 0000 0000 0000 0000 0000 0000 0000
00000080: 2f98 aa35 2faa 1033 06b4 1d35 8c32 0434
00000090: 5a2d 2c36 3674 c133 c01e 2636 263e c034
000000a0: 5b0a 9435 a2a1 3c33 ed6a c135 477e 9134
000000b0: a4f5 bc36 db58 7234 eb6a ef36 55b7 8135

exp_avg f4 [12]
0.0 0.0 0.0 0.0 0.0 0.0 0.0 0.0
-1.36860035e-05 7.442773e-05 9.451746e-05 0.00022464685
00000000: 0000 0000 0000 0000 0000 0000 0000 0000
00000010: 0000 0000 0000 0000 0000 0000 0000 0000
00000020: f09c 65b7 1516 9c38 ad37 c638 2e8f 6b39

exp_avg_sq f4 [12]
0.0 0.0 0.0 0.0 0.0 0.0 0.0 0.0
7.151131e-08 1.9089792e-07 1.0839456e-07 4.8813064e-07
00000000: 0000 0000 0000 0000 0000 0000 0000 0000
00000010: 0000 0000 0000 0000 0000 0000 0000 0000
00000020: c291 9933 9ff9 4c34 8ac6 e833 1508 0335

exp_avg f4 [4, 4]
0.00019865218 -0.00010434288 -0.0002981737 -0.0003725144 5.6730405e-05 -3.7366237e-05 -8.319078e-05 -8.596835e-05
-9.183093e-05 6.283552e-05 0.00014580681 0.00024828486 -0.00024228774 0.00010712723 0.00028983227 0.00038344992
00000000: 4a4d 5039 a8d2 dab8 3254 9cb9 094e c3b9
00000010: cff1 6d38 b1b9 1cb8 b676 aeb8 e849 b4b8
00000020: 5b95 c0b8 90c6 8338 b8e3 1839 3b2c 8239
00000030: 9f0e 7eb9 7ea9 e038 a1f4 9739 c709 c939

exp_avg_sq f4 [4, 4]
9.293654e-07 2.4921262e-06 1.056051e-06 5.0513386e-06 7.0191184e-08 7.795454e-08 3.2592343e-08 8.175272e-08
7.455232e-07 8.5898995e-07 4.914654e-07 1.1620203e-06 8.218343e-07 1.6779593e-06 5.7684065e-07 1.8891805e-06
00000000: 8179 7935 673e 2736 a3bd 8d35 ab7e a936
00000010: 03bc 9633 f667 a733 a9fb 0b33 0890 af33
00000020: f71f 4835 5795 6635 3fed 0335 b7f6 9b35
00000030: 069c 5c35 3e36 e135 30d8 1a35 bf8f fd35

exp_avg f4 [4]
-0.004242319 -0.0008957216 0.0013151033 0.0057600355
00000000: 2703 8bbb dcce 6aba 8b5f ac3a aebe bc3b

exp_avg_sq f4 [4]
0.0002903734 2.6204973e-05 0.00032738823 0.00050593494
00000000: 423d 9839 c0d2 db37 4ea5 ab39 b8a0 043a

exp_avg f4 [12, 4]
0.0 0.0 0.0 0.0 0.0 0.0 0.0 0.0
0.0 0.0 0.0 0.0 0.0 0.0 0.0 0.0
0.0 0.0 0.0 0.0 0.0 0.0 0.0 0.0
0.0 0.0 0.0 0.0 0.0 0.0 0.0 0.0
-1.0671594e-05 -5.0152134e-06 -8.026646e-06 -2.7925148e-07 6.7803617e-06 4.8082657e-06 1.1060034e-06 2.5347225e-07
8.38217e-06 4.1189005e-06 6.9956986e-06 3.7206291e-09 6.630446e-06 3.2615928e-06 5.8539795e-06 3.012599e-08
00000000: 0000 0000 0000 0000 0000 0000 0000 0000
00000010: 0000 0000 0000 0000 0000 0000 0000 0000
00000020: 0000 0000 0000 0000 0000 0000 0000 0000
00000030: 0000 0000 0000 0000 0000 0000 0000 0000
00000040: 0000 0000 0000 0000 0000 0000 0000 0000
00000050: 0000 0000 0000 0000 0000 0000 0000 0000
00000060: 0000 0000 0000 0000 0000 0000 0000 0000
00000070: 0000 0000 0000 0000 0000 0000 0000 0000
00000080: 260a 33b7 5b48 a8b6 2faa 06b7 08ec 95b4
00000090: dd82 e336 b056 a136 fd71 9435 f614 8834
000000a0: 25a1 0c37 1635 8a36 98bc ea36 00ae 7f31
000000b0: 197b de36 bde1 5a36 4d6d c436 e063 0133

exp_avg_sq f4 [12, 4]
0.0 0.0 0.0 0.0 0.0 0.0 0.0 0.0
0.0 0.0 0.0 0.0 0.0 0.0 0.0 0.0
0.0 0.0 0.0 0.0 0.0 0.0 0.0 0.0
0.0 0.0 0.0 0.0 0.0 0.0 0.0 0.0
2.1524662e-09 7.067331e-10 8.366765e-10 9.880069e-10 6.3008637e-10 1.9919068e-10 1.8583891e-10 2.0973605e-10
1.519871e-09 4.7432736e-10 5.2950483e-10 5.0792015e-10 1.0519732e-09 3.2057854e-10 3.5171313e-10 3.060249e-10
00000000: 0000 0000 0000 0000 0000 0000 0000 0000
00000010: 0000 0000 0000 0000 0000 0000 0000 0000
00000020: 0000 0000 0000 0000 0000 0000 0000 0000
00000030: 0000 0000 0000 0000 0000 0000 0000 0000
00000040: 0000 0000 0000 0000 0000 0000 0000 0000
00000050: 0000 0000 0000 0000 0000 0000 0000 0000
00000060: 0000 0000 0000 0000 0000 0000 0000 0000
00000070: 0000 0000 0000 0000 0000 0000 0000 0000
00000080: 96ea 1331 ec43 4230 e0fb 6530 67ca 8730
00000090: 6332 2d30 3103 5b2f 0155 4c2f 739b 662f
000000a0: b5e3 d030 d261 0230 978c 1130 b49d 0b30
000000b0: 0495 9030 6b3d b02f 395b c12f 2d3d a82f
