Saved_models/checkpoint_Female.pt (torch, 46361 bytes, 108 tensors)

encoder_input_layer.weight f4 [4, 3]
-0.049617473 0.26380944 -0.5213779 -0.39904767 -0.19748919 0.17930363 -0.0040048603 0.4658186
-0.043081004 0.26870987 -0.057543002 0.003451997
00000000: b13b 4bbd 0812 873e 0679 05bf fa4f ccbe
00000010: 9b3a 4abe 5f9b 373e 343b 83bb c77f ee3e
00000020: b575 30bd 5794 893e 36b2 6bbd e63a 623b

encoder_input_layer.bias f4 [4]
-0.56123924 -0.43786895 -0.18709213 -0.038483363
00000000: 60ad 0fbf 5c30 e0be 1495 3fbe bba0 1dbd

decoder_input_layer.weight f4 [4, 1]
0.20402147 0.59178907 -0.47181234 -0.36550272
00000000: 01eb 503e 7d7f 173f 6391 f1be 2c23 bbbe

decoder_input_layer.bias f4 [4]
0.5777875 0.8979812 -0.4691217 0.6603107
00000000: e2e9 133f 19e2 653f b830 f0be 1f0a 293f

positional_encoding_layer_enc.pe f4 [1, 9, 4]
0.0 1.0 0.0 1.0 0.84147096 0.54030234 0.009999833 0.99995
0.9092974 -0.41614684 0.019998666 0.9998 0.14112 -0.9899925 0.0299955 0.99955004
-0.7568025 -0.6536436 0.039989334 0.9992001 -0.9589243 0.2836622 0.049979165 0.99875027
-0.2794155 0.96017027 0.059964005 0.99820054 0.6569866 0.75390226 0.06994285 0.997551
0.98935825 -0.14550003 0.07991469 0.9968017
00000000: 0000 0000 0000 803f 0000 0000 0000 803f
00000010: a46a 573f 4151 0a3f 57d6 233c b9fc 7f3f
00000020: b7c7 683f 3311 d5be 3ed4 a33c e5f2 7f3f
00000030: c381 103e 2670 7dbf 1fb9 f53c 83e2 7f3f
00000040: cfbd 41bf 3055 27bf dbcb 233d 94cb 7f3f
00000050: 107c 75bf 2c3c 913e f4b6 4c3d 19ae 7f3f
00000060: 8c0f 8fbe b8cd 753f d19c 753d 128a 7f3f
00000070: 4630 283f bdff 403f 323e 8f3d 815f 7f3f
00000080: 9546 7d3f f6fd 14be 50aa a33d 652e 7f3f

positional_encoding_layer_dec.pe f4 [1, 1, 4]
0.0 1.0 0.0 1.0
00000000: 0000 0000 0000 803f 0000 0000 0000 803f

encoder.layers.0.self_attn.in_proj_weight f4 [12, 4]
-0.40256855 -0.23766935 0.31527543 0.4245762 -0.30785167 0.0112799 0.33743218 0.64470893
0.37365812 0.13885564 0.39668375 -0.35532498 0.011722187 -0.46678692 -0.45048207 -0.2703493
0.19973035 0.22639893 -0.2810592 0.2502468 0.3316447 -0.09684429 0.03352387 0.2324807
0.34010318 0.601894 -0.43315658 -0.2823348 0.20617563 0.49659362 0.59925675 0.52814376
0.24422033 -0.5089351 0.05797301 -0.42541698 -0.54409647 0.45922804 0.5126819 -0.64028966
0.25761184 -0.114034414 -0.08389611 -0.34065738 0.10564574 -0.40415788 0.24870528 0.33172306
00000000: 771d cebe 985f 73be c86b a13e 0d62 d93e
00000010: bc9e 9dbe 54cf 383c e9c3 ac3e a50b 253f
00000020: 1e50 bf3e 2c30 0e3e 221a cb3e 28ed b5be
00000030: 6a0e 403c b2fe eebe 96a5 e6be 396b 8abe
00000040: 1d86 4c3e 1fd5 673e fee6 8fbe 5920 803e
00000050: 56cd a93e 4d56 c6bd 5350 093d 6c0f 6e3e
00000060: 0122 ae3e ba15 1a3f b3c6 ddbe 308e 90be
00000070: b41f 533e 8541 fe3e e468 193f 6e34 073f
00000080: e514 7a3e 9249 02bf 1b75 6d3d 41d0 d9be
00000090: e849 0bbf f01f eb3e 1f3f 033f 06ea 23bf
000000a0: b3e5 833e e08a e9bd b9d1 abbd a56a aebe
000000b0: cb5c d83d c8ed cebe 99ac 7e3e 9bd7 a93e

encoder.layers.0.self_attn.in_proj_bias f4 [12]
0.07753238 0.048765335 0.0072071645 0.038977876 0.0007816914 0.0005276739 -0.0005050339 0.00053654396
-0.03593807 -0.036753535 -0.051684186 0.011970313
00000000: 4cc9 9e3d 29be 473d 142a ec3b 44a7 1f3d
00000010: 6cea 4c3a 9953 0a3a 4064 04ba dba6 0c3a
00000020: cc33 13bd e08a 16bd ccb2 53bd 221f 443c

encoder.layers.0.self_attn.out_proj.weight f4 [4, 4]
-0.080276236 0.067105524 0.48184916 -0.57218236 -0.3327359 -0.1269278 -0.21641184 0.4142491
-0.3480118 -0.27520555 -0.3986085 -0.36467838 -0.21693555 0.47157362 0.27299726 0.39538965
00000000: de67 a4bd 9f6e 893d efb4 f63e 8b7a 12bf
00000010: 5c5c aabe 5cf9 01be 119b 5dbe 7518 d43e
00000020: 9a2e b2be bee7 8cbe 6a16 ccbe 20b7 babe
00000030: 5a24 5ebe 1972 f13e 4cc6 8b3e 8370 ca3e

encoder.layers.0.self_attn.out_proj.bias f4 [4]
-0.026881864 0.024168234 0.04413549 -0.05719093
00000000: 5b37 dcbc 76fc c53c 6ac7 343d 0941 6abd

encoder.layers.0.linear1.weight f4 [4, 4]
0.31383485 0.19961947 -0.5084381 -0.25635105 0.2300645 0.16373071 -0.4517094 -0.33519813
0.45134878 0.38980973 -0.26304737 -0.21097869 -0.5455266 -0.011065174 -0.3992023 -0.27960113
00000000: f6ae a03e 0c69 4c3e 0029 02bf 7240 83be
00000010: 0796 6b3e 06a9 273e 7446 e7be 179f abbe
00000020: 3017 e73e 2495 c73e 25ae 86be cc0a 58be
00000030: a2a7 0bbf b44a 35bc 3e64 ccbe e127 8fbe

encoder.layers.0.linear1.bias f4 [4]
-0.023276696 0.13144438 -0.15399644 0.31865877
00000000: c5ae bebc 5b99 063e 3eb1 1dbe 3e27 a33e

encoder.layers.0.linear2.weight f4 [4, 4]
-0.25096393 0.5006147 0.41007417 -0.3996755 -0.18347959 -0.028021613 0.04114863 0.12442001
0.20490986 0.054566335 -0.23050165 0.28115404 -0.54232997 -0.35988313 -0.21801335 -0.29288334
00000000: 587e 80be 4928 003f 3ef5 d13e 44a2 ccbe
00000010: 13e2 3bbe 958d e5bc 778b 283d ebcf fe3d
00000020: e4d3 513e f380 5f3d a008 6cbe 6cf3 8f3e
00000030: 23d6 0abf 9a42 b8be e43e 5fbe cef4 95be

encoder.layers.0.linear2.bias f4 [4]
-0.15984745 -0.42210636 -0.05947858 0.040971376
00000000: 0daf 23be 531e d8be d09f 73bd 9ad1 273d

encoder.layers.0.norm1.weight f4 [4]
1.0629144 0.98808664 0.9978367 0.95837146
00000000: 940d 883f 3ff3 7c3f 3a72 7f3f d557 753f

encoder.layers.0.norm1.bias f4 [4]
0.0070923404 0.009480442 0.02345962 -0.08656506
00000000: dd66 e83b db53 1b3c 642e c03c 0649 b1bd

encoder.layers.0.norm2.weight f4 [4]
1.1420927 1.0958807 1.0558591 1.0629613
00000000: 1830 923f d245 8c3f 6426 873f 1e0f 883f

encoder.layers.0.norm2.bias f4 [4]
-0.09009874 0.10428082 -0.04185495 -0.110548265
00000000: b085 b8bd 2f91 d53d 1970 2bbd 2167 e2bd

decoder.layers.0.self_attn.in_proj_weight f4 [12, 4]
-0.12421164 0.33582872 0.3310737 -0.59059155 0.38198692 -0.47918725 -0.12946182 -0.24830028
-0.11795229 -0.12023488 -0.5495124 -0.5287456 -0.095823705 0.0079193115 -0.27818543 0.23068023
-0.55117095 -0.041327298 0.5385322 -0.24978182 0.5529743 0.22177297 -0.5526422 0.3874464
-0.070664406 -0.27336726 0.4896856 -0.49485525 0.065710604 -0.12821162 0.4373029 0.1709404
0.23835476 0.063363224 -0.21608394 -0.15304667 -0.54259855 0.24838717 0.48343438 0.5228964
-0.4984259 -0.08896834 -0.43304285 -0.28926638 -0.1940568 0.27770138 -0.45957157 -0.063929304
00000000: ac62 febd bef1 ab3e 7e82 a93e 0231 17bf
00000010: ca93 c33e 0858 f5be a491 04be 6e42 7ebe
00000020: f890 f1bd b43d f6bd d8ac 0cbf df5b 07bf
00000030: 383f c4bd 00c0 013c 526e 8ebe 7037 6c3e
00000040: 8a19 0dbf d046 29bd 3fdd 093f cec6 7fbe
00000050: b98f 0d3f 7418 633e f679 0dbf 605f c63e
00000060: 80b8 90bd cbf6 8bbe 12b8 fa3e ab5d fdbe
00000070: 4893 863d e849 03be 2ae6 df3e 000b 2f3e
00000080: 4513 743e 94c4 813d 1c45 5dbe 44b8 1cbe
00000090: bde7 0abf 3559 7e3e b684 f73e 8adc 053f
000000a0: ae31 ffbe 0835 b6bd cbb7 ddbe b91a 94be
000000b0: d3b6 46be e02e 8e3e f74c ebbe 5eed 82bd

decoder.layers.0.self_attn.in_proj_bias f4 [12]
0.0 0.0 0.0 0.0 0.0 0.0 0.0 0.0
-0.11153968 -0.03905168 -0.05610887 0.0024591414
00000000: 0000 0000 0000 0000 0000 0000 0000 0000
00000010: 0000 0000 0000 0000 0000 0000 0000 0000
00000020: ea6e e4bd a8f4 1fbd 6ad2 65bd 8c29 213b

decoder.layers.0.self_attn.out_proj.weight f4 [4, 4]
-0.5137627 0.15940958 0.15866773 -0.12998343 0.013304049 -0.02617503 0.06687317 0.4032082
0.4804611 0.3272634 0.5066781 -0.07894445 -0.42761868 -0.26322764 0.34946617 0.014144999
00000000: f485 03bf 443c 233e cb79 223e 601a 05be
00000010: 3af9 593c 046d d6bc cdf4 883d 4e71 ce3e
00000020: fffe f53e 128f a73e a8b5 013f a1ad a1bd
00000030: d6f0 dabe c6c5 86be 3bed b23e 6dc0 673c

decoder.layers.0.self_attn.out_proj.bias f4 [4]
0.245597 0.1286002 -0.18501659 0.0038533232
00000000: c87d 7b3e c5af 033e fd74 3dbe 0988 7c3b

decoder.layers.0.multihead_attn.in_proj_weight f4 [12, 4]
-0.043972135 0.60578257 0.22121161 0.017338097 -0.53068805 0.30335575 -0.43618113 -0.17383066
-0.20546097 -0.09068465 0.0066983104 0.50508946 0.076447845 0.5484976 0.37459588 -0.3871504
0.27465153 -0.43288368 -0.25953886 0.18011266 0.20220053 0.45941895 -0.19713241 0.0009803176
0.31526375 -0.5922206 0.44273347 -0.5063845 0.008440018 -0.10411358 -0.32252002 0.08093792
0.63804454 -0.24569584 -0.38903725 -0.27003798 -0.70988387 0.3279427 -0.27947164 -0.37481073
-0.29854137 0.28024542 0.37462997 0.5027558 0.3445322 -0.37107944 -0.10250536 0.2904998
00000000: 201c 34bd 9114 1b3f 4c85 623e a008 8e3c
00000010: 2cdb 07bf 7251 9b3e 2253 dfbe aa00 32be
00000020: 5c64 52be e0b8 b9bd 807d db3b 8b4d 013f
00000030: b090 9c3d 576a 0c3f 08cb bf3e 9438 c6be
00000040: 209f 8c3e eea2 ddbe 47e2 84be 746f 383e
00000050: a80d 4f3e f638 eb3e 14dd 49be 007e 803a
00000060: 406a a13e c59b 17bf f6ad e23e 6aa2 01bf
00000070: 0048 0a3c 8039 d5bd 5821 a5be c8c2 a53d
00000080: e356 233f b197 7bbe e42f c7be 6b42 8abe
00000090: f3ba 35bf 1be8 a73e e816 8fbe 31e7 bfbe
000000a0: 6ada 98be 547c 8f3e 80cf bf3e 9bb4 003f
000000b0: 8666 b03e 20fe bdbe 55ee d1bd 64bc 943e

decoder.layers.0.multihead_attn.in_proj_bias f4 [12]
0.0 0.0 0.0 0.0 0.0 0.0 0.0 0.0
-0.07492313 0.060108982 -0.07471713 -0.16651821
00000000: 0000 0000 0000 0000 0000 0000 0000 0000
00000010: 0000 0000 0000 0000 0000 0000 0000 0000
00000020: 4c71 99bd d634 763d 4b05 99bd c083 2abe

decoder.layers.0.multihead_attn.out_proj.weight f4 [4, 4]
-0.10545557 0.46521285 -0.2830182 -0.4898891 -0.31338492 0.33406645 -0.12132193 0.4347028
0.3377546 -0.05412481 -0.18006489 0.02366942 0.0157494 -0.046876803 0.030921917 0.0020649827
00000000: 17f9 d7bd 6130 ee3e c3e7 90be bed2 fabe
00000010: fd73 a0be c20a ab3e a277 f8bd 5e91 de3e
00000020: 2cee ac3e fab1 5dbd ee62 38be 5fe6 c13c
00000030: e304 813c e401 40bd f64f fd3c a954 073b

decoder.layers.0.multihead_attn.out_proj.bias f4 [4]
0.25295815 0.068049334 -0.20170572 0.0005600668
00000000: bb83 813e 735d 8b3d f28b 4ebe 72d1 123a

decoder.layers.0.linear1.weight f4 [4, 4]
0.309456 -0.026209813 -0.2058791 -0.036118 -0.50214607 0.2574803 -0.3355157 -0.47669932
0.39226037 -0.2554065 -0.016348314 0.13596435 -0.015546366 -0.27985957 -0.5277458 0.42423505
00000000: 0471 9e3e f6b5 d6bc f9d1 52be 78f0 13bd
00000010: a58c 00bf 75d4 833e b7c8 abbe ef11 f4be
00000020: 5ad6 c83e a4c4 82be e6ec 85bc 3d3a 0b3e
00000030: 2fb6 7ebc c149 8fbe 591a 07bf 5635 d93e

decoder.layers.0.linear1.bias f4 [4]
-0.08210852 0.58825713 -0.26242536 0.30237013
00000000: 8328 a8bd 0598 163f 9e5c 86be 42d0 9a3e

decoder.layers.0.linear2.weight f4 [4, 4]
0.08156047 0.1985906 -0.20611535 0.30462453 0.08297582 -0.08495975 -0.095488526 -0.23058257
0.20895097 -0.55100787 0.16142692 -0.25226986 -0.17200848 0.10470296 -0.22580536 0.006461609
00000000: 2d09 a73d 565b 4b3e e70f 53be bff7 9b3e
00000010: 3aef a93d 61ff adbd 7d8f c3bd d61d 6cbe
00000020: 3ef7 553e da0e 0dbf 194d 253e 8429 81be
00000030: fe22 30be 816e d63d 8539 67be e8bb d33b

decoder.layers.0.linear2.bias f4 [4]
0.35210678 -0.39118275 -0.114732586 0.21438046
00000000: 5747 b43e 1b49 c8be ebf8 eabd 8d86 5b3e

decoder.layers.0.norm1.weight f4 [4]
0.77311283 1.0475539 0.9753627 0.8781506
00000000: b9ea 453f 3f16 863f 5fb1 793f 7ace 603f

decoder.layers.0.norm1.bias f4 [4]
0.2743039 0.07648889 -0.23022708 0.00024470338
00000000: 9071 8c3e 35a6 9c3d a6c0 6bbe 884b 8039

decoder.layers.0.norm2.weight f4 [4]
0.88897747 0.88813615 1.113515 0.8118684
00000000: 0794 633f e45c 633f a987 8e3f 9cd6 4f3f

decoder.layers.0.norm2.bias f4 [4]
0.26839185 -0.07172236 -0.22929959 -0.013151654
00000000: a86a 893e 2ce3 92bd 83cd 6abe 097a 57bc

decoder.layers.0.norm3.weight f4 [4]
1.0615627 0.97456425 1.1350954 0.86418027
00000000: 49e1 873f 0b7d 793f ce4a 913f eb3a 5d3f

decoder.layers.0.norm3.bias f4 [4]
0.19442563 -0.19262747 -0.19577189 -0.16627176
00000000: 8317 473e 2340 45be 6d78 48be 2543 2abe

linear_mapping.weight f4 [1, 4]
0.26891968 -0.09151299 -0.5487955 0.012406324
00000000: d7af 893e 2a6b bbbd dd7d 0cbf e543 4b3c

linear_mapping_with_gender_ind.weight f4 [1, 5]
-0.163178 0.16975385 0.29782754 -0.23351328 0.0044103563
00000000: 2218 27be f4d3 2d3e da7c 983e 1b1e 6fbe
00000010: c084 903b

exp_avg f4 [4, 3]
0.021611046 0.021815658 0.021865394 -0.0025108913 -0.0025184406 -0.002529549 -0.0072829565 -0.0073449826
-0.0073791617 -0.019270485 -0.01944359 -0.019541895
00000000: a609 b13c c0b6 b23c 0e1f b33c c48d 24bb
00000010: 6c0c 25bb cac6 25bb dea5 eebb 2eae f0bb
00000020: e5cc f1bb 23dd 9dbc 2a48 9fbc 5316 a0bc

exp_avg_sq f4 [4, 3]
0.0012049021 0.0012241016 0.0012404736 1.7298758e-05 1.7524433e-05 1.772356e-05 0.00018437563 0.0001872301
0.00019018775 0.0007986146 0.00081047695 0.0008207486
00000000: ceed 9d3a 0972 a03a 6397 a23a cd1c 9137
00000010: 6f01 9337 0ead 9437 f554 4139 3353 4439
00000020: 236d 4739 1e5a 513a 3076 543a 8227 573a

exp_avg f4 [4]
-0.007326806 0.00092878565 0.0024806128 0.006949976
00000000: b415 f0bb c079 733a c791 223b a0bc e33b

exp_avg_sq f4 [4]
0.0002285747 3.2082337e-06 3.7126552e-05 0.00014271792
00000000: 8ead 6f39 094d 5736 55b8 1b38 8da6 1539

exp_avg f4 [4, 1]
-0.00616193 -0.03636145 0.023096113 2.6562135e-05
00000000: 04ea c9bb beef 14bd 0f34 bd3c c0d1 de37

exp_avg_sq f4 [4, 1]
0.0011504892 0.001561512 0.0039769155 4.7786747e-05
00000000: 03cc 963a a6ab cc3a c950 823b a16e 4838

exp_avg f4 [4]
0.0013999663 0.0131338155 -0.0059674303 2.4236797e-05
00000000: 137f b73a 372f 573c 6f8a c3bb 2050 cb37

exp_avg_sq f4 [4]
0.0002765209 0.00025582398 0.0008671589 1.131136e-05
00000000: 02fa 9039 1d20 8639 0c52 633a ecc5 3d37

exp_avg f4 [12, 4]
-5.5052802e-05 -0.0004145974 0.0003232341 -9.315785e-05 -8.947591e-06 -2.8121798e-05 -3.9237824e-05 -8.945519e-06
-0.00013657128 -0.00089750346 0.0007840525 -0.00021294555 -5.668549e-06 3.052736e-05 4.1734143e-05 7.1082713e-06
0.0001405624 0.0003462294 -0.00026375867 -6.4554355e-05 1.34512675e-05 0.00014687217 -6.897242e-05 -2.8098648e-05
4.592978e-05 0.00021970712 -0.00013108608 -4.573768e-05 0.00010741173 1.9934305e-05 -0.0001202943 7.2690614e-06
-0.0006362766 -0.0013294305 0.0021370167 -0.0007698088 -0.00019339657 -0.0005117148 0.0011972946 -0.00037033405
-0.0017945536 -0.0035401494 0.0057960954 -0.0021141565 0.0018708932 0.0038132872 -0.0056611327 0.00220213
00000000: 7fe8 66b8 525e d9b9 bf77 a939 bd5d c3b8
00000010: 9c1d 16b7 1ae7 ebb7 4b93 24b8 b614 16b7
00000020: 9334 0fb9 7046 6bba df88 4d3a 234a 5fb9
00000030: 7734 beb6 810a 0038 b20b 2f38 9683 ee36
00000040: ef63 1339 2086 b539 1749 8ab9 5b61 87b8
00000050: c1ac 6137 b301 1a39 49a5 90b8 63b5 ebb7
00000060: baa4 4038 2e61 6639 2774 09b9 76d6 3fb8
00000070: 3c42 e138 9838 a737 8346 fcb8 c3e8 f336
00000080: cdcb 26ba 4940 aeba 310d 0c3b fecc 49ba
00000090: 7fca 4ab9 9924 06ba 8aee 9c3a 6529 c2b9
000000a0: 3a37 ebba da01 68bb 2ced bd3b a98d 0abb
000000b0: c238 f53a 58e8 793b 0681 b9bb 9c51 103b

exp_avg_sq f4 [12, 4]
3.8645016e-09 2.5285937e-07 1.642715e-07 2.4836194e-08 4.5946713e-10 2.7201892e-08 6.3008706e-08 1.7816097e-08
1.9264613e-08 1.2019968e-06 8.7673686e-07 1.3485189e-07 1.3957865e-09 7.558873e-08 1.3433014e-07 3.3620136e-08
5.367026e-08 1.5540746e-07 1.05916406e-07 1.1300599e-08 1.0542098e-08 3.0929883e-08 1.1179159e-08 3.8584087e-09
1.2451498e-07 1.9420983e-07 6.286015e-08 2.7894577e-08 6.946606e-08 7.734912e-08 3.6678966e-08 1.1308971e-08
3.697259e-07 2.6869764e-06 7.552901e-06 1.8604811e-06 1.7150595e-07 1.7439105e-06 6.2408544e-06 1.6303908e-06
2.8674156e-06 2.0957756e-05 6.3620995e-05 1.7524328e-05 3.0415142e-06 3.4461096e-05 0.00010228575 2.8501348e-05
00000000: 84c8 8431 bac0 8734 9b62 3034 5e57 d532
00000010: 4098 fc2f 98a9 e932 674f 8733 030a 9932
00000020: 557b a532 4c54 a135 e658 6b35 cecb 1034
00000030: dfd5 bf30 5853 a233 633c 1034 bb65 1033
00000040: 1383 6633 14de 2634 2974 e333 8f24 4232
00000050: a31c 3532 c4d7 0433 760e 4032 ec92 8431
00000060: 6bb2 0534 fe87 5034 bcfd 8633 d39c ef32
00000070: 5f2d 9533 211b a633 f388 1d33 6149 4232
00000080: be7e c634 e751 3436 ed6e fd36 a5b5 f935
00000090: 3227 3834 4f10 ea35 8868 d136 cdd3 da35
000000a0: d36d 4036 70ce af37 436c 8538 3501 9337
000000b0: d11c 4c36 528a 1038 3e82 d638 2e16 ef37

exp_avg f4 [12]
-0.00025477193 -2.9541114e-05 -0.000598748 -1.747737e-05 2.0771642e-12 2.995732e-13 8.902649e-12 2.8881435e-12
-0.0018273483 -0.0009104803 -0.0051538097 0.0052993987
00000000: e992 85b9 0fcf f7b7 4cf5 1cba 5e9c 92b7
00000010: dd2a 122c 0ca5 a82a f79d 1c2d 2b3c 4b2c
00000020: a283 efba 4cad 6eba 4ae1 a8bb 94a6 ad3b

exp_avg_sq f4 [12]
9.32063e-08 3.9724732e-08 5.1180695e-07 7.92019e-08 1.0500127e-21 2.4259884e-22 2.2839226e-21 1.4651615e-21
6.546839e-06 5.300432e-06 5.822893e-05 8.569587e-05
00000000: b528 c833 ce9d 2a33 1b63 0935 b415 aa33
00000010: 66ac 9e1c 5aa4 921b 7d91 2c1d b168 dd1c
00000020: ebac db36 5dda b136 d63a 7438 9fb7 b338

exp_avg f4 [4, 4]
0.0043863137 0.005825147 0.00079052855 0.0027789627 -0.0017583439 -0.0021809891 -0.0003843551 -0.0011258083
-0.0016392373 -0.0023915016 -0.00024346099 -0.0011094029 -0.00109375 -0.0012704126 -0.00017216308 -0.0006628413
00000000: 11bb 8f3b e0e0 be3b 793b 4f3a 421f 363b
00000010: 3b78 e6ba edee 0ebb 4583 c9b9 dc8f 93ba
00000020: addb d6ba bdba 1cbb 9049 7fb9 6269 91ba
00000030: 295c 8fba f983 a6ba ad86 34b9 87c2 2dba

exp_avg_sq f4 [4, 4]
8.5941894e-05 0.00012404873 1.1222895e-05 1.5786594e-05 5.722558e-06 8.273567e-06 5.5841434e-07 1.4772595e-06
7.577007e-06 1.34166485e-05 1.063351e-06 1.2876736e-06 1.6436805e-05 2.4195977e-05 2.2302015e-06 3.0374379e-06
00000000: b43b b438 1413 0239 f849 3c37 746d 8437
00000010: 6604 c036 b3ce 0a37 f1e5 1535 4046 c635
00000020: ff3d fe36 1118 6137 76b8 8e35 21d4 ac35
00000030: c5e1 8937 77f8 ca37 92aa 1536 c9d6 4b36

exp_avg f4 [4]
-0.0077325827 0.0029068077 0.002770093 0.0020775485
00000000: 9b61 fdbb 2480 3e3b 738a 353b 7b27 083b

exp_avg_sq f4 [4]
0.0001884726 1.3992645e-05 1.984802e-05 3.982401e-05
00000000: baa0 4539 f4c1 6a37 4c7f a637 b508 2738

exp_avg f4 [4, 4]
0.00012507445 0.0008749231 -0.00058275997 -0.00041997124 0.0004809567 -0.0036917343 0.001555813 0.0017257511
0.00032616017 -0.0031904334 0.0018119549 0.0011210847 -0.00013404002 0.003241035 -0.0017662098 -0.0013979984
00000000: 6b26 0339 185b 653a 5cc4 18ba 962f dcb9
00000010: ea28 fc39 06f1 71bb 6cec cb3a 9932 e23a
00000020: 7a00 ab39 9716 51bb 1e7f ed3a 5cf1 923a
00000030: 188d 0cb9 8b67 543b 2b80 e7ba 0b3d b7ba

exp_avg_sq f4 [4, 4]
3.8799914e-07 2.6459545e-06 1.8205043e-06 4.7075466e-07 3.0486015e-06 3.240224e-05 1.7943461e-05 4.3310583e-06
1.3642157e-06 1.7580483e-05 8.0031705e-06 1.5555834e-06 1.1030094e-06 1.5589456e-05 1.0479445e-05 3.8258795e-06
00000000: 324e d034 2791 3136 0d58 f435 07bc fc34
00000010: 9396 4c36 a4e7 0738 4a85 9637 8253 9136
00000020: 181a b735 cd79 9337 5b45 0637 70c9 d035
00000030: 1d0b 9435 1ac6 8237 e0d0 2f37 0e60 8036

exp_avg f4 [4]
0.0005905763 -0.0023064562 -0.0019343625 0.0021412626
00000000: e8d0 1a3a ea27 17bb 6f8a fdba 6d54 0c3b

exp_avg_sq f4 [4]
1.4297918e-06 1.533997e-05 7.439493e-06 8.90116e-06
00000000: 46e7 bf35 56ae 8037 c2a0 f936 3156 1537

exp_avg f4 [4, 4]
-0.0045636646 -0.0040534954 -0.0032947897 -0.0037249967 0.0036423423 0.0028170543 0.002289995 0.0021828124
0.00089066173 0.0013533841 0.0010528637 0.0011566901 0.00017075219 8.935455e-05 2.4570288e-06 0.0009082128
00000000: cb8a 95bb 2fd3 84bb 66ed 57bb 131f 74bb
00000010: 5db4 6e3b 549e 383b be13 163b 840d 0f3b
00000020: 4c7b 693a 0964 b13a 3e00 8a3a 149c 973a
00000030: f10b 3339 dc63 bb38 6fe3 2436 2115 6e3a

exp_avg_sq f4 [4, 4]
3.494478e-05 3.58413e-05 1.6839424e-05 2.8839524e-05 1.3621853e-05 1.9062181e-05 9.890667e-06 7.702373e-06
2.4592803e-06 5.02376e-06 2.3205005e-06 3.6584916e-06 2.7066874e-06 2.404041e-06 8.717899e-07 5.496203e-06
00000000: ac91 1238 4e54 1638 6342 8d37 68ec f137
00000010: 6a89 6437 b9e7 9f37 17f0 2537 7139 0137
00000020: 1d0a 2536 c591 a836 e5b9 1b36 6884 7536
00000030: 89a4 3536 1c55 2136 f204 6a35 066c b836

exp_avg f4 [4]
-0.004450697 0.002652213 0.0013991133 0.000785008
00000000: 27d7 91bb c0d0 2d3b 7462 b73a ffc8 4d3a

exp_avg_sq f4 [4]
4.190546e-05 1.575227e-05 5.0572507e-06 4.5863767e-06
00000000: a5c3 2f38 be23 8437 74b1 a936 ade4 9936

exp_avg f4 [4]
0.00055757514 0.0016306217 -0.0014989708 -0.0010069882
00000000: 3c2a 123a 96ba d53a 1d79 c4ba ebfc 83ba

exp_avg_sq f4 [4]
1.0535628e-05 5.4267875e-06 7.2020293e-06 3.2320156e-06
00000000: 2dc2 3037 c017 b636 f6a8 f136 9be5 5836

exp_avg f4 [4]
-0.007309813 0.0012412979 0.002112922 0.0013212645
00000000: 2887 efbb 0cb3 a23a f378 0a3b 482e ad3a

exp_avg_sq f4 [4]
8.831704e-05 6.029511e-06 7.983853e-06 1.03437005e-05
00000000: da36 b938 1b51 ca36 63f2 0537 db89 2d37

exp_avg f4 [4]
-0.0016064583 0.0014370226 0.0003851523 -0.0019303596
00000000: cc8f d2ba 7a5a bc3a 44ee c939 1f04 fdba

exp_avg_sq f4 [4]
3.187204e-05 4.810869e-06 1.2613787e-06 6.5261574e-06
00000000: 58ae 0538 0d6d a136 a44c a935 44fb da36

exp_avg f4 [4]
-0.005223467 0.00133556 0.0010780403 0.0016774979
00000000: 9e29 abbb f50d af3a 084d 8d3a 7ddf db3a

exp_avg_sq f4 [4]
4.683703e-05 6.3341527e-06 3.37321e-06 6.3732864e-06
00000000: e172 4438 f589 d436 4e5f 6236 1dda d536

exp_avg f4 [12, 4]
0.0 0.0 0.0 0.0 0.0 0.0 0.0 0.0
0.0 0.0 0.0 0.0 0.0 0.0 0.0 0.0
0.0 0.0 0.0 0.0 0.0 0.0 0.0 0.0
0.0 0.0 0.0 0.0 0.0 0.0 0.0 0.0
-5.9316048e-05 -0.0031431785 -0.007974866 -0.012985339 -0.00013865535 -0.0020957012 -0.0042459094 -0.009107319
-0.00018608353 -0.0026370164 -0.0048669735 -0.012059463 -4.6530182e-05 0.0022362976 0.0040873154 0.014209927
00000000: 0000 0000 0000 0000 0000 0000 0000 0000
00000010: 0000 0000 0000 0000 0000 0000 0000 0000
00000020: 0000 0000 0000 0000 0000 0000 0000 0000
00000030: 0000 0000 0000 0000 0000 0000 0000 0000
00000040: 0000 0000 0000 0000 0000 0000 0000 0000
00000050: 0000 0000 0000 0000 0000 0000 0000 0000
00000060: 0000 0000 0000 0000 0000 0000 0000 0000
00000070: 0000 0000 0000 0000 0000 0000 0000 0000
00000080: 1fca 78b8 c9fd 4dbb 03a9 02bc 76c0 54bc
00000090: 0364 11b9 0858 09bb 4521 8bbb dd36 15bc
000000a0: 6b1f 43b9 cbd1 2cbb 227b 9fbb 0e95 45bc
000000b0: 6729 43b8 d98e 123b e3ee 853b c1d0 683c

exp_avg_sq f4 [12, 4]
0.0 0.0 0.0 0.0 0.0 0.0 0.0 0.0
0.0 0.0 0.0 0.0 0.0 0.0 0.0 0.0
0.0 0.0 0.0 0.0 0.0 0.0 0.0 0.0
0.0 0.0 0.0 0.0 0.0 0.0 0.0 0.0
1.2470828e-06 3.6441434e-05 8.488072e-05 0.00026900246 3.361189e-07 1.086665e-05 2.2833192e-05 9.701833e-05
4.6000432e-07 2.073146e-05 4.6562425e-05 0.00026548628 7.469055e-07 1.4609112e-05 3.2862376e-05 0.0003116741
00000000: 0000 0000 0000 0000 0000 0000 0000 0000
00000010: 0000 0000 0000 0000 0000 0000 0000 0000
00000020: 0000 0000 0000 0000 0000 0000 0000 0000
00000030: 0000 0000 0000 0000 0000 0000 0000 0000
00000040: 0000 0000 0000 0000 0000 0000 0000 0000
00000050: 0000 0000 0000 0000 0000 0000 0000 0000
00000060: 0000 0000 0000 0000 0000 0000 0000 0000
00000070: 0000 0000 0000 0000 0000 0000 0000 0000
00000080: 7061 a735 b1d8 1838 fd01 b238 e608 8d39
00000090: d473 b434 e84f 3637 e889 bf37 5276 cb38
000000a0: 83f6 f634 79e8 ad37 064c 4338 f730 8b39
000000b0: f57e 4835 a919 7537 b5d5 0938 3168 a339

exp_avg f4 [12]
0.0 0.0 0.0 0.0 0.0 0.0 0.0 0.0
-0.008656757 -0.005473046 -0.007208527 0.0058973716
00000000: 0000 0000 0000 0000 0000 0000 0000 0000
00000010: 0000 0000 0000 0000 0000 0000 0000 0000
00000020: 12d5 0dbc 3d57 b3bb 8235 ecbb bd3e c13b

exp_avg_sq f4 [12]
0.0 0.0 0.0 0.0 0.0 0.0 0.0 0.0
0.000116421645 3.4793306e-05 6.8190544e-05 5.750362e-05
00000000: 0000 0000 0000 0000 0000 0000 0000 0000
00000010: 0000 0000 0000 0000 0000 0000 0000 0000
00000020: 6527 f438 07ef 1138 8501 8f38 0b30 7138

exp_avg f4 [4, 4]
-0.0008321711 0.0016949003 -0.0012533609 -0.0010562394 -0.007969736 0.020897482 -0.013908476 -0.004412155
0.008491231 -0.020576457 0.015147443 0.0055545247 -0.00030545052 0.0004900875 -0.0006305569 -0.00063855556
00000000: 0f26 5aba 6b27 de3a d047 a4ba 8371 8aba
00000010: 7f93 02bc 3231 ab3c 60e0 63bc d793 90bb
00000020: ce1e 0b3c f58f a8bc fb2c 783c bb02 b63b
00000030: e024 a0b9 3779 003a f54b 25ba bd64 27ba

exp_avg_sq f4 [4, 4]
1.108498e-05 5.05756e-05 3.7842074e-05 4.5840716e-06 0.00011667129 0.00068826944 0.00039535286 3.512881e-05
9.213474e-05 0.00049229694 0.00029849604 4.078126e-05 1.1104104e-05 7.200949e-05 4.205957e-05 2.510189e-06
00000000: a0f9 3937 2321 5438 9eb8 1e38 e0d0 9936
00000010: 6cad f438 fb6c 343a 5d47 cf39 4657 1338
00000020: 7638 c138 7d0d 013a 767f 9c39 8b0c 2b38
00000030: c34b 3a37 cd03 9738 1f69 3038 b874 2836

exp_avg f4 [4]
-0.00023074835 0.008696703 -0.009335547 0.0017626
00000000: 0af5 71b9 9e7c 0e3c 1ff4 18bc 0b07 e73a

exp_avg_sq f4 [4]
0.00023106662 0.00028050155 0.00056758313 5.2335432e-05
00000000: 794a 7239 4810 9339 dcc9 143a be82 5b38

exp_avg f4 [12, 4]
0.0 0.0 0.0 0.0 0.0 0.0 0.0 0.0
0.0 0.0 0.0 0.0 0.0 0.0 0.0 0.0
0.0 0.0 0.0 0.0 0.0 0.0 0.0 0.0
0.0 0.0 0.0 0.0 0.0 0.0 0.0 0.0
-0.0013256057 -0.008310815 0.00015750315 0.009861663 0.0010327816 0.0052626324 -0.0003968435 -0.0061077513
-8.012841e-05 0.00039427375 0.00039073252 -0.0007515584 0.0005875449 0.006080148 -0.0015011457 -0.0054494007
00000000: 0000 0000 0000 0000 0000 0000 0000 0000
00000010: 0000 0000 0000 0000 0000 0000 0000 0000
00000020: 0000 0000 0000 0000 0000 0000 0000 0000
00000030: 0000 0000 0000 0000 0000 0000 0000 0000
00000040: 0000 0000 0000 0000 0000 0000 0000 0000
00000050: 0000 0000 0000 0000 0000 0000 0000 0000
00000060: 0000 0000 0000 0000 0000 0000 0000 0000
00000070: 0000 0000 0000 0000 0000 0000 0000 0000
00000080: f2bf adba 162a 08bc 6e27 2539 d092 213c
00000090: 665e 873a 2972 ac3b 6f0f d0b9 8823 c8bb
000000a0: 9d0a a8b8 87b6 ce39 3bdb cc39 3b04 45ba
000000b0: 7905 1a3a fa3b c73b 17c2 c4ba e390 b2bb

exp_avg_sq f4 [12, 4]
0.0 0.0 0.0 0.0 0.0 0.0 0.0 0.0
0.0 0.0 0.0 0.0 0.0 0.0 0.0 0.0
0.0 0.0 0.0 0.0 0.0 0.0 0.0 0.0
0.0 0.0 0.0 0.0 0.0 0.0 0.0 0.0
3.6052326e-05 0.00012081156 3.9546114e-05 8.925794e-05 2.1746113e-05 4.1033363e-05 2.2214565e-05 3.235344e-05
1.6530646e-06 5.3757744e-06 7.4362544e-07 3.5273674e-06 2.2422419e-05 9.78746e-05 9.767147e-06 4.859752e-05
00000000: 0000 0000 0000 0000 0000 0000 0000 0000
00000010: 0000 0000 0000 0000 0000 0000 0000 0000
00000020: 0000 0000 0000 0000 0000 0000 0000 0000
00000030: 0000 0000 0000 0000 0000 0000 0000 0000
00000040: 0000 0000 0000 0000 0000 0000 0000 0000
00000050: 0000 0000 0000 0000 0000 0000 0000 0000
00000060: 0000 0000 0000 0000 0000 0000 0000 0000
00000070: 0000 0000 0000 0000 0000 0000 0000 0000
00000080: e436 1738 365c fd38 51de 2538 fe2f bb38
00000090: 6c6b b637 3d1b 2c38 6a59 ba37 3eb3 0738
000000a0: dede dd35 8d61 b436 8d9d 4735 b6b7 6c36
000000b0: c717 bc37 0742 cd38 94dd 2337 31d5 4b38

exp_avg f4 [12]
0.0 0.0 0.0 0.0 0.0 0.0 0.0 0.0
-0.006150705 0.003700604 0.00047456764 0.0042759245
00000000: 0000 0000 0000 0000 0000 0000 0000 0000
00000010: 0000 0000 0000 0000 0000 0000 0000 0000
00000020: da8b c9bb d585 723b 64cf f839 0e1d 8c3b

exp_avg_sq f4 [12]
0.0 0.0 0.0 0.0 0.0 0.0 0.0 0.0
5.9315316e-05 2.131535e-05 2.429893e-06 3.7371246e-05
00000000: 0000 0000 0000 0000 0000 0000 0000 0000
00000010: 0000 0000 0000 0000 0000 0000 0000 0000
00000020: 56c9 7838 5ece b237 3e11 2336 12bf 1c38

exp_avg f4 [4, 4]
0.00044632435 -0.00059367955 -0.0003897922 0.00017440353 0.001738279 0.010141071 -0.005542098 -0.010025229
-0.001093682 -0.008526773 0.0051374445 0.009628147 0.00049983116 -0.0006669348 -0.0005421368 9.1667025e-05
00000000: a400 ea39 29a1 1bba 065d ccb9 17e0 3639
00000010: f7d6 e33a bc26 263c 7d9a b5bb dc40 24bc
00000020: e159 8fba e1b3 0bbc 0258 a83b 60bf 1d3c
00000030: 1a07 033a 3dd5 2eba 2f1e 0eba 5c3d c038

exp_avg_sq f4 [4, 4]
2.1241778e-05 3.1095402e-05 8.3167515e-06 1.9605512e-05 0.00010029322 0.0002993654 4.413159e-05 0.00021212838
9.28845e-05 0.00021464167 6.159938e-05 0.00016770727 3.083773e-05 7.939334e-05 7.394655e-06 5.0090483e-05
00000000: 5f30 b237 6f6c 0238 2d88 0b37 8476 a437
00000010: 8354 d238 25f4 9c39 ef19 3938 c76e 5e39
00000020: fcca c238 6f11 6139 ea2e 8138 94da 2f39
00000030: c357 0138 fa7f a638 9a1f f836 3f18 5238

exp_avg f4 [4]
-0.0037506542 0.007187482 -0.00411124 0.0013272937
00000000: 89cd 75bb f884 eb3b 95b7 86bb 96f8 ad3a

exp_avg_sq f4 [4]
0.00012763655 0.00018824545 0.00032387386 4.55978e-05
00000000: 2dd6 0539 c163 4539 9dcd a939 4440 3f38

exp_avg f4 [4, 4]
-0.0018027709 0.00050358986 0.0016031121 2.5112382e-05 0.004367194 -0.0005373649 -0.0043245326 -0.0003782673
-0.0015803098 0.00047907126 0.0014545714 -5.0682407e-05 0.0005229501 -0.0004944729 -0.00059281645 0.0004079908
00000000: f44a ecba 5803 043a 841f d23a 6ea8 d237
00000010: ae1a 8f3b f3dd 0cba cfb4 8dbb 2d52 c6b9
00000020: 6622 cfba db2b fb39 51a7 be3a d293 54b8
00000030: 9616 093a 849f 01ba 3d67 1bba 99e7 d539

exp_avg_sq f4 [4, 4]
1.565378e-05 5.1781653e-06 1.8043194e-05 7.727236e-06 4.4513694e-05 1.0925094e-05 6.501189e-05 2.5154723e-05
3.4351535e-05 1.26739715e-05 3.8550617e-05 1.3342882e-05 1.6864105e-05 5.3870735e-06 3.024542e-05 4.6527466e-06
00000000: 3d50 8337 1ac0 ad36 775b 9737 3aa4 0137
00000010: 37b4 3a38 ec4a 3737 fe56 8838 5b03 d337
00000020: ae14 1038 4ba2 5437 69b1 2138 3edb 5f37
00000030: 6477 8d37 9cc2 b436 8bb7 fd37 ca1e 9c36

exp_avg f4 [4]
-0.0013482007 0.0033041667 -0.0009059969 0.00044084803
00000000: 1cb6 b0ba b88a 583b 6c80 6dba 9f21 e739

exp_avg_sq f4 [4]
1.1407614e-05 3.7366302e-05 2.347835e-05 1.2156587e-05
00000000: 5463 3f37 c3b9 1c38 5ff3 c437 25f4 4b37

exp_avg f4 [4, 4]
-0.00096104556 -0.00031057876 -0.00037045873 0.0008715843 0.0025901727 -0.00041527723 0.0028242762 0.009891574
-0.003919721 -0.0018225354 -0.0028492145 -0.01077457 0.00076011015 0.002750909 -0.00054302596 -0.003675383
00000000: adee 7bba 2dd5 a2b9 213a c2b9 087b 643a
00000010: e3bf 293b 91b9 d9b9 7e17 393b 4510 223c
00000020: 0171 80bb 24e2 eeba e3b9 3abb d287 30bc
00000030: 2142 473a 9848 343b db59 0eba b2de 70bb

exp_avg_sq f4 [4, 4]
7.651511e-06 2.0580794e-05 4.8347497e-06 2.9171231e-05 0.00012387017 5.757051e-05 8.4114414e-05 0.000892091
9.0661655e-05 3.0756946e-05 6.6483095e-05 0.00045312903 1.8754452e-05 5.19928e-05 4.8724323e-06 0.00013797141
00000000: fd5e 0037 eba4 ac37 2f3a a236 beb4 f437
00000010: 25e3 0139 dd77 7138 9566 b038 37db 693a
00000020: 9b21 be38 0501 0138 d76c 8b38 f391 ed39
00000030: e152 9d37 d812 5a38 e07d a336 6bac 1039

exp_avg f4 [4]
-0.0030786004 0.0044898875 -0.006803704 0.0025818436
00000000: 58c2 49bb e81f 933b 9bf1 debb 2634 293b

exp_avg_sq f4 [4]
8.3640385e-05 0.00037102247 0.0002994626 0.00011430973
00000000: 1768 af38 cb85 c239 3101 9d39 92b9 ef38

exp_avg f4 [4]
0.0021449178 -0.0045917216 0.0039759018 -0.0006772848
00000000: c091 0c3b 2776 96bb 4848 823b d08b 31ba

exp_avg_sq f4 [4]
6.313582e-05 7.7321936e-05 0.00012313358 8.834215e-05
00000000: c967 8438 e627 a238 6b1d 0139 5544 b938

exp_avg f4 [4]
-0.003452534 0.0071335686 -0.0044733346 0.0007923008
00000000: e943 62bb b6c0 e93b 0d95 92bb 68b2 4f3a

exp_avg_sq f4 [4]
9.721107e-05 0.00018655336 0.00026009753 3.617171e-05
00000000: ccdd cb38 899d 4339 b35d 8839 14b7 1738

exp_avg f4 [4]
-0.00304471 -0.0068537677 0.0075576636 -0.00041235646
00000000: c289 47bb 9295 e0bb 47a6 f73b 8c31 d8b9

exp_avg_sq f4 [4]
6.146202e-05 0.0001539996 0.00037094855 0.00019964672
00000000: 2ce5 8038 f47a 2139 df7b c239 4258 5139

exp_avg f4 [4]
-0.0062186047 0.009304904 -0.0073978966 0.00034783198
00000000: 70c5 cbbb 9973 183c 0e6a f2bb 385d b639

exp_avg_sq f4 [4]
0.000105585365 0.00033790394 0.0003512888 0.00010978798
00000000: b66d dd38 b328 b139 2f2d b839 f93d e638

exp_avg f4 [4]
0.02798517 0.0043718317 0.043240286 0.0003794949
00000000: 2841 e53c 9541 8f3b ba1c 313d f1f6 c639

exp_avg_sq f4 [4]
0.0032730699 6.143495e-05 0.01450985 2.628822e-07
00000000: 0081 563b a3d6 8038 b9ba 6d3c 4122 8d34

exp_avg f4 [4]
0.01843857 -0.0064457497 -0.037331045 0.0009896221
00000000: 7c0c 973c de36 d3bb 70e8 18bd 35b6 813a

exp_avg_sq f4 [4]
0.0020382348 0.00023415254 0.008457255 1.0495083e-06
00000000: e893 053b d886 7539 4c90 0a3c d5dc 8c35

exp_avg f4 [1, 4]
0.12279304 -0.058485057 -0.10259146 0.008167025
00000000: eb7a fb3d 078e 6fbd 791b d2bd fcce 053c

exp_avg_sq f4 [1, 4]
0.06692625 0.012066175 0.079644956 0.0033181875
00000000: a110 893d 35b1 453c e51c a33d f375 593b
