Saved_models/checkpoint_Female.pt (torch, 87226 bytes, 198 tensors)

encoder_input_layer.weight f4 [4, 3]
000000 20 86 60 bd dc f3 5d 3e 6b a6 10 bf 07 a2 80 be
       -0.05481541 0.21675056 -0.56503934 -0.25123617
000010 0b 6f bf bd 9b d9 90 3e 58 e3 88 bd 7a 2c e2 3e
       -0.09347352 0.2829102 -0.066839874 0.44174558
000020 a2 59 8d bd ae f8 b7 3e 90 22 a1 3d 51 0a 0d 3e
       -0.06901862 0.35931915 0.078679204 0.13773467

encoder_input_layer.bias f4 [4]
000000 6b 11 80 bf f4 b9 80 bf 56 4d 94 3e 3e 78 92 3e
       -1.0005316 -1.0056748 0.28965253 0.28607363

decoder_input_layer.weight f4 [4, 1]
000000 26 77 be 3e af f4 4e 3f f2 eb e6 be 32 9c 87 3e
       0.37200278 0.8084211 -0.45101887 0.26486355

decoder_input_layer.bias f4 [4]
000000 63 1e 5f 3f 75 e8 83 3f 5f 07 83 bf 00 88 47 3e
       0.8715574 1.0305315 -1.0236624 0.19485474

positional_encoding_layer_enc.pe f4 [1, 7, 4]
000000 00 00 00 00 00 00 80 3f 00 00 00 00 00 00 80 3f
       0.0 1.0 0.0 1.0
000010 a4 6a 57 3f 41 51 0a 3f 57 d6 23 3c b9 fc 7f 3f
       0.84147096 0.54030234 0.009999833 0.99995
000020 b7 c7 68 3f 33 11 d5 be 3e d4 a3 3c e5 f2 7f 3f
       0.9092974 -0.41614684 0.019998666 0.9998
000030 c3 81 10 3e 26 70 7d bf 1f b9 f5 3c 83 e2 7f 3f
       0.14112 -0.9899925 0.0299955 0.99955004
000040 cf bd 41 bf 30 55 27 bf db cb 23 3d 94 cb 7f 3f
       -0.7568025 -0.6536436 0.039989334 0.9992001
000050 10 7c 75 bf 2c 3c 91 3e f4 b6 4c 3d 19 ae 7f 3f
       -0.9589243 0.2836622 0.049979165 0.99875027
000060 8c 0f 8f be b8 cd 75 3f d1 9c 75 3d 12 8a 7f 3f
       -0.2794155 0.96017027 0.059964005 0.99820054

positional_encoding_layer_dec.pe f4 [1, 3, 4]
000000 00 00 00 00 00 00 80 3f 00 00 00 00 00 00 80 3f
       0.0 1.0 0.0 1.0
000010 a4 6a 57 3f 41 51 0a 3f 57 d6 23 3c b9 fc 7f 3f
       0.84147096 0.54030234 0.009999833 0.99995
000020 b7 c7 68 3f 33 11 d5 be 3e d4 a3 3c e5 f2 7f 3f
       0.9092974 -0.41614684 0.019998666 0.9998

encoder.layers.0.self_attn.in_proj_weight f4 [12, 4]
000000 34 45 ed be b3 ec fb 3d 14 c1 ce 3e b1 ca 97 3d
       -0.4634186 0.12301006 0.40381682 0.07411707
000010 5c 2e c0 be b0 f0 9c 3d 7d 06 2e 3f 30 e2 f8 3e
       -0.3753537 0.07663095 0.6797865 0.48610067
000020 8d 48 d1 3c c8 96 af 3e 09 2f fd 3e c7 db 4b bf
       0.02554729 0.34294724 0.49449947 -0.7963223
000030 c0 8e 31 bd c8 98 ba be bc 7b 9a 3d b6 37 43 bf
       -0.043349028 -0.36444688 0.07543132 -0.76256883
000040 11 8b 92 3e f7 0f 3b 3e f8 c5 a2 3e 30 78 97 bd
       0.28621724 0.18267809 0.31791663 -0.07395971
000050 a5 92 02 3f 43 aa d0 3d f3 05 d3 3e 7a 5c 08 3f
       0.5100501 0.10188725 0.41215476 0.5326611
000060 cc 71 1a 3f e1 85 19 3f 32 08 18 3e 26 e8 22 bb
       0.6032989 0.5996991 0.14846876 -0.002485761
000070 97 97 b1 3e 6b 8c ae 3e 65 12 69 3f 0b 14 30 3e
       0.34685966 0.34091505 0.9104369 0.17195146
000080 b9 82 fa 3d c9 7b e2 be f8 3b 19 3d 16 68 a8 bf
       0.122319646 -0.44235066 0.037410706 -1.3156765
000090 6d b3 16 bf ab 61 fb 3e 36 f1 b5 3e 56 2a 36 bf
       -0.5886753 0.49097952 0.35535592 -0.7115835
0000a0 5a da 91 3e 2b 5a 01 be 06 33 01 be b9 47 bc bf
       0.28486902 -0.12632053 -0.1261712 -1.4709388
0000b0 29 c3 a5 3d 39 6f a1 be 56 a8 24 3e d5 b3 a8 3f
       0.080938645 -0.3153017 0.1607984 1.317988

encoder.layers.0.self_attn.in_proj_bias f4 [12]
000000 2d 26 04 be 56 24 a8 be 93 89 65 be b6 5b 14 bf
       -0.12905188 -0.32840222 -0.22415762 -0.5795244
000010 e0 e4 b1 39 6a dc a4 bc f9 2f b2 39 9e b2 5a 3c
       0.00033930596 -0.020124633 0.00033986548 0.01334825
000020 ed 32 1b be ee ce 86 3e 10 15 23 be 57 f7 8e 3e
       -0.15156145 0.2632975 -0.15926003 0.2792308

encoder.layers.0.self_attn.out_proj.weight f4 [4, 4]
000000 b8 af 98 3e bc 29 82 3e 7c d2 78 3f 1e 58 6c bf
       0.29821563 0.25422466 0.97196174 -0.92321956
000010 29 e8 71 3d cc 38 c0 3a be 4c 10 3f d6 b2 18 be
       0.059059296 0.0014665364 0.563671 -0.1491197
000020 e1 e9 32 bf 66 1f f1 be cb e2 42 bf 71 93 a0 bd
       -0.6988812 -0.47094268 -0.7612731 -0.07840622
000030 b3 af a3 be bf 12 da 3d ae a9 a9 bd b7 3a 24 3f
       -0.31969985 0.10648107 -0.08284317 0.6415209

encoder.layers.0.self_attn.out_proj.bias f4 [4]
000000 21 cf 67 be fb 0e 04 bc f9 97 a0 3d 67 fe 76 3e
       -0.22637607 -0.008060212 0.078414865 0.24120484

encoder.layers.0.linear1.weight f4 [4, 4]
000000 e2 8a 2c 3e 3f 9f b3 3e 8b 21 d6 be 15 0c a1 be
       0.16849855 0.35082433 -0.41822466 -0.3145453
000010 48 c5 bf bb 8b 90 e2 3d 48 15 6f be f7 b5 39 bf
       -0.005852375 0.11062726 -0.23347962 -0.7254328
000020 e1 82 bb 3e 01 22 aa 3e 9a fd 6b bd db fa da be
       0.3662329 0.33229068 -0.0576149 -0.42769513
000030 1a 71 dc bd d5 ab 97 be b3 99 84 be e1 8f cc be
       -0.1076376 -0.29623285 -0.25898513 -0.3995352

encoder.layers.0.linear1.bias f4 [4]
000000 27 2c 1d be 63 3b 23 be 8c 0d fe be 94 fd 81 3a
       -0.15348874 -0.15940623 -0.4961971 0.0009917491

encoder.layers.0.linear2.weight f4 [4, 4]
000000 5d 49 bc be e9 46 b8 3e 35 98 b0 3e 42 d9 d5 be
       -0.36774722 0.359916 0.34491125 -0.41767317
000010 a0 d8 6d 3d 98 fa 55 3d 75 81 dc 3d 38 7c 63 be
       0.058067918 0.052240938 0.107668795 -0.22215354
000020 76 18 2c 3e 3f 72 cb 3d 96 9f 68 be 5d 51 05 3e
       0.16806206 0.099339 -0.22717127 0.13019319
000030 ab d7 da be 5d 7f b7 be 6f cd ae be 12 1f 04 be
       -0.42742667 -0.35839358 -0.34141108 -0.12902477

encoder.layers.0.linear2.bias f4 [4]
000000 d2 7d 25 be a6 e3 97 be fc 50 24 3e 82 7c 36 3d
       -0.16161278 -0.2966587 0.16046518 0.044552334

encoder.layers.0.norm1.weight f4 [4]
000000 f5 f2 5d 3f 66 d6 98 3f 88 26 74 3f 8b ea c1 3f
       0.8669885 1.1940429 0.95371294 1.5149702

encoder.layers.0.norm1.bias f4 [4]
000000 d2 49 8e bd 54 bf 3d bd 6d 01 14 3f cb 04 f1 bc
       -0.06947674 -0.046325043 0.57814676 -0.02942123

encoder.layers.0.norm2.weight f4 [4]
000000 63 c1 72 3f 8b 39 88 3f e5 8e 88 3f f6 75 a0 3f
       0.94826335 1.0642561 1.0668608 1.2535999

encoder.layers.0.norm2.bias f4 [4]
000000 a8 9e ce bc e9 65 46 bd ff 30 49 3d 16 78 89 bd
       -0.025222138 -0.048437033 0.049118992 -0.06712358

encoder.layers.1.self_attn.in_proj_weight f4 [12, 4]
000000 be 3b 4c bf 90 c9 40 be 57 8d 7f 3e 2a 02 11 3f
       -0.7977866 -0.1882689 0.2495626 0.5664393
000010 f4 d6 3b bf 43 20 88 3e 79 f1 c6 3d 85 d5 33 3f
       -0.7337487 0.26587114 0.09714026 0.7024768
000020 ca fb b4 bd f5 db 91 3d 8b ef c9 3e 23 20 29 be
       -0.088370875 0.071220316 0.3944057 -0.16516165
000030 eb 6d ab 3e 5f 2e 04 bf 61 5e 74 be b1 3e 01 bf
       0.33482298 -0.51633257 -0.23864128 -0.50486284
000040 8d 5a cb 3e 46 67 1b 3f 30 52 db bd b2 7b ef bd
       0.39717522 0.6070446 -0.107090354 -0.11693515
000050 56 2e 0c 3f 10 98 ca 3e 5f 05 6b 3e 99 aa 8a be
       0.54758203 0.3956914 0.22951268 -0.2708328
000060 74 62 4a 3d f1 f7 c5 3e 5c 20 62 be 9e 29 a2 bb
       0.0494103 0.38665727 -0.22082657 -0.004948809
000070 e4 f1 0c 3e 77 cf db 3e 6e a2 a3 3e 84 2f 3c 3f
       0.13764149 0.4293172 0.31959862 0.73510003
000080 cb 42 07 be 25 50 0d bf 88 07 e4 3d 00 22 e3 be
       -0.13209073 -0.55200416 0.11134249 -0.44361877
000090 73 51 3e bf 83 16 fc 3e db c2 4b 3f 14 71 10 bf
       -0.7434303 0.49235925 0.795942 -0.56422544
0000a0 fa 81 13 3e 29 90 e2 bd 91 9d aa 3b 9e e1 09 bf
       0.14405051 -0.110626526 0.0052067717 -0.5385989
0000b0 3c c4 88 3e 6a 2a b5 be ca 44 3a 3e 67 75 09 3f
       0.26712215 -0.35383922 0.18190303 0.53694767

encoder.layers.1.self_attn.in_proj_bias f4 [12]
000000 8b e7 27 be 0b 02 24 bc 22 f5 93 be 00 84 42 3e
       -0.1639692 -0.010010253 -0.2889796 0.18995667
000010 e3 6c bf 3c e1 a8 0a 3d c7 30 99 bc 4b c9 ac bc
       0.02336735 0.03385246 -0.018700017 -0.021092078
000020 81 8e 26 bc ad 49 b3 3d 34 2a 12 bd 51 91 0b 3d
       -0.0101658115 0.08754287 -0.03568478 0.03407413

encoder.layers.1.self_attn.out_proj.weight f4 [4, 4]
000000 3a f7 15 be 97 11 11 3e 34 f1 28 3f 0c 3f 0b bf
       -0.1464509 0.14166866 0.65993047 -0.54393077
000010 33 59 6b be c8 3c ce be f4 73 6f be 52 b2 c9 3e
       -0.22983246 -0.40280747 -0.23384076 0.3939386
000020 59 09 aa be f4 bb 81 be 86 70 1d bf 3c 4e af be
       -0.33210257 -0.2533871 -0.6149982 -0.34239376
000030 7a a0 42 be 50 8b d8 3e b2 70 e2 3d de 0d bb 3e
       -0.1900653 0.42293787 0.11056651 0.36534017

encoder.layers.1.self_attn.out_proj.bias f4 [4]
000000 0d 8a 22 bc e0 8a c2 3d dc ec 84 bd d8 17 55 bc
       -0.009920609 0.094991446 -0.0649049 -0.013006173

encoder.layers.1.linear1.weight f4 [4, 4]
000000 92 73 d3 bc 5e 7d e3 3d d8 d2 85 bd 7b 5a 7e bd
       -0.025811944 0.11107896 -0.06534356 -0.062098008
000010 3c bd c3 3d 06 8d 09 3e 24 fd ef bc 3b ec 7a be
       0.09557578 0.13432702 -0.029295512 -0.24504177
000020 82 b1 95 3e 85 92 02 3e fd f0 1c 3e b9 cd e9 3d
       0.2923699 0.12751205 0.15326305 0.114161916
000030 9c ff a2 be 0b 65 ce bd f4 fd 15 bf b6 4a cf be
       -0.3183564 -0.10077866 -0.58590627 -0.40486687

encoder.layers.1.linear1.bias f4 [4]
000000 ef d5 be be 00 03 1e 3c c3 91 b5 be fb 7c 66 3d
       -0.37272593 0.00964427 -0.3546277 0.056271534

encoder.layers.1.linear2.weight f4 [4, 4]
000000 9d 07 2c be ba 64 7b 3e 8e 36 e8 3d c0 b7 8c bd
       -0.16799779 0.24550143 0.113385305 -0.06870985
000010 6d 25 ba bd 92 c7 0d 3e a9 c2 41 3e 7e 28 f0 3d
       -0.0908917 0.13845661 0.18921913 0.11726473
000020 49 9d 00 3e 7b bf 91 3e c4 04 87 bd ba 90 e5 bd
       0.1256 0.284664 -0.06592706 -0.11209245
000030 de ba f8 be 64 4d d9 bd fe 3a ed 3d 67 0a bd be
       -0.48580068 -0.10610464 0.115835175 -0.36922

encoder.layers.1.linear2.bias f4 [4]
000000 64 4c 80 bd 1f 5e 3f be 88 96 97 be ea 17 92 3d
       -0.0626457 -0.18688248 -0.29607034 0.071334675

encoder.layers.1.norm1.weight f4 [4]
000000 15 30 81 3f 4d dc 96 3f a8 9b 97 3f 54 75 9e 3f
       1.0092798 1.178598 1.1844378 1.2379556

encoder.layers.1.norm1.bias f4 [4]
000000 51 53 c2 3c be 41 dc 3c 32 c3 65 3d 22 29 67 3d
       0.023721369 0.026886817 0.056094356 0.05643571

encoder.layers.1.norm2.weight f4 [4]
000000 95 42 7b 3f 7e e7 34 3f 85 ae 3d 3f ea 62 6d 3f
       0.9814847 0.7066573 0.7409442 0.92729056

encoder.layers.1.norm2.bias f4 [4]
000000 73 d7 12 3e 04 1f 55 be 53 4f aa 3d dd 03 96 bc
       0.1434 -0.20812613 0.08315911 -0.018312389

decoder.layers.0.self_attn.in_proj_weight f4 [12, 4]
000000 64 cd 99 3e 15 21 91 3f 4f d2 ca 3f 1d 55 a1 be
       0.30039513 1.1338221 1.5845431 -0.3151025
000010 6c 30 46 3e b7 9f 78 bf d7 57 99 bf d3 cd 2b bf
       0.19354409 -0.97118706 -1.1979932 -0.6711094
000020 03 49 29 be ae dd ed 3e 4f c9 4b bf af f2 05 bf
       -0.16531758 0.4645819 -0.7960405 -0.5232343
000030 01 5a 87 bd 04 15 19 3f b6 e1 76 bf 2c 9c d5 be
       -0.06608964 0.5979769 -0.9643816 -0.41720712
000040 34 27 8a bf a8 4c 9e bf 13 9e 91 3e 51 c1 60 3e
       -1.0793214 -1.2367144 0.28440914 0.21948744
000050 86 b6 c5 3f c5 59 43 3f ef e4 52 bf 1d de 80 3f
       1.5446327 0.7630885 -0.82380575 1.0067784
000060 39 11 df 3e b4 f5 06 bf d0 68 85 3e 45 e7 d5 be
       0.43567827 -0.52718663 0.26056528 -0.41778007
000070 ee dd 0a 3f 03 d7 fa be 61 a6 39 3e f1 20 31 3d
       0.5424489 -0.48992166 0.18129875 0.043244306
000080 dd 87 8b bc 90 c4 92 bf c6 75 38 3d e5 51 21 be
       -0.017032558 -1.1466236 0.045034193 -0.15753897
000090 43 f0 b2 bf f4 cb 6c bf 25 ce 80 3f 8d 78 ae 3e
       -1.3979572 -0.9249871 1.006291 0.34076348
0000a0 fa b4 99 bf 39 ad 98 bf 32 a3 48 3d 08 c6 1b be
       -1.2008355 -1.1927863 0.04898376 -0.15212262
0000b0 18 9b 83 3f c5 55 92 3f 50 b9 89 bf 32 a9 f5 bb
       1.0281706 1.1432425 -1.0759678 -0.0074969763

decoder.layers.0.self_attn.in_proj_bias f4 [12]
000000 63 b2 ce 3e 63 a4 96 be 31 73 d6 be 40 23 cb be
       0.40370473 -0.29422292 -0.4188476 -0.3967533
000010 7e 72 1e bd 21 51 81 bb 77 d5 26 3c da dd 2c bd
       -0.038683407 -0.003946439 0.01018273 -0.04220376
000020 0b 97 92 be e9 e0 eb bd d0 d9 37 bd 35 0c 51 bd
       -0.28630862 -0.115175076 -0.044885457 -0.051037032

decoder.layers.0.self_attn.out_proj.weight f4 [4, 4]
000000 61 ed 99 bf d0 8a b2 3d ac 5a 8a be bb 4a cc 3c
       -1.2025567 0.08717883 -0.27022302 0.024937978
000010 e5 fc 84 3b e2 6c 23 bf 77 fd 59 be ee fd a0 3f
       0.0040584677 -0.63838017 -0.21288095 1.2577493
000020 df 2f 1a 3f 36 5b 00 3f 88 92 23 3f 74 e0 bf be
       0.60229295 0.50139177 0.63895464 -0.37475932
000030 7c 46 18 bf 50 76 fe bd 10 80 a7 3d d0 0e da 3d
       -0.5948255 -0.1242491 0.08178723 0.106473565

decoder.layers.0.self_attn.out_proj.bias f4 [4]
000000 0c 74 a0 3e 5b d6 20 bd d3 91 82 bc c7 03 7c be
       0.31338537 -0.039266925 -0.015938675 -0.24610816

decoder.layers.0.multihead_attn.in_proj_weight f4 [12, 4]
000000 9c 51 11 be 7e f0 34 3f a5 35 be 3e de 26 4e 3d
       -0.14191288 0.7067946 0.37150303 0.050330035
000010 05 3a c5 be 8c 85 fb bd d3 3d c6 3d 39 b8 58 bd
       -0.38520828 -0.122813314 0.09679761 -0.052910063
000020 dd 8f a4 be cc 2c be bc 91 11 a3 3e 80 68 b2 3e
       -0.3214101 -0.02321472 0.3184934 0.34845352
000030 45 c5 3a 3e 92 cd c9 3e 83 ee 29 3f 06 8d 3f be
       0.18239315 0.3941465 0.66379565 -0.1870614
000040 a7 b5 be 3e 71 b5 0e bf e7 aa 92 be 79 52 85 3d
       0.37247965 -0.5574561 -0.28646013 0.06509871
000050 77 de 8d 3e 95 c2 1b 3e c9 b6 41 be 06 d2 30 3e
       0.2770879 0.15210946 -0.18917383 0.17267618
000060 e5 33 95 3e ac 64 e2 be 6e 19 9a 3e 1a 5d 0c bf
       0.29141155 -0.44217432 0.30097526 -0.5482956
000070 ce 21 a2 3d e9 fc 08 be 88 31 c3 be 85 ae 86 bd
       0.07916604 -0.13377728 -0.38123727 -0.06576256
000080 8e 83 02 3f c9 83 bb bd fb a4 93 be 8e 4b 9a be
       0.50981987 -0.091559954 -0.28836808 -0.3013577
000090 4b 76 ec be a1 a7 47 3d d1 c1 07 bf 11 f4 93 be
       -0.46184 0.048743848 -0.53030115 -0.28897145
0000a0 99 61 4c 3e 73 22 c8 3e 83 4d ca 3c 79 0f cb 3d
       0.19959106 0.39088783 0.024695164 0.099150605
0000b0 ad e0 33 3d df 56 9d be 0e c9 2c 3e e7 ad ac 3e
       0.04391544 -0.3073034 0.16873571 0.33726427

decoder.layers.0.multihead_attn.in_proj_bias f4 [12]
000000 5a 15 0c 3d e1 bf 3c 3e 16 b3 6f bd e8 04 41 3e
       0.03420005 0.18432571 -0.0585204 0.18849528
000010 aa f3 53 3d 47 ee 28 3d 06 3f 6a 3c b6 36 23 3d
       0.051746048 0.041242864 0.0142972525 0.0398471
000020 e9 ec 86 3d e0 c9 7b be 93 80 42 bd d9 c5 fe 3d
       0.06588156 -0.24588728 -0.0474859 0.1244008

decoder.layers.0.multihead_attn.out_proj.weight f4 [4, 4]
000000 80 70 d7 38 f8 cd b0 3e 0b 6f 1c bd b5 ec 8f be
       0.00010272954 0.34532142 -0.038191836 -0.2811028
000010 6a f8 96 be 98 6a c9 3d 51 29 63 be d8 0d c4 3e
       -0.294864 0.09834784 -0.2218373 0.38291812
000020 85 76 2d 3e d8 a2 1a 3e cf 92 48 be f6 85 01 3b
       0.16939743 0.15101182 -0.19587253 0.0019763685
000030 1e eb 4a 3d 29 36 22 bc 0c eb 1f 3e cb 80 67 3d
       0.04954063 -0.009900608 0.15617007 0.05651931

decoder.layers.0.multihead_attn.out_proj.bias f4 [4]
000000 7d 69 bb bd 1a 67 47 3c 55 09 00 bd 09 9a e8 bd
       -0.0915098 0.012170577 -0.0312589 -0.11357505

decoder.layers.0.linear1.weight f4 [4, 4]
000000 06 5b 35 3e 3f 76 80 3f 98 95 a8 be dc e2 c9 be
       0.17710504 1.0036086 -0.3292663 -0.39430892
000010 3c 6d 4c bf c5 5f 40 3e 51 d8 c2 bd 91 64 cd be
       -0.7985418 0.18786533 -0.09513915 -0.4011579
000020 89 9f b0 3d e0 19 86 be 16 2c 26 3e a1 54 3a 3e
       0.08624179 -0.26191616 0.16227755 0.18196346
000030 e1 e2 4c bf 2b 5e 26 be 26 5f 42 be ac 2d d0 3e
       -0.8003369 -0.1624686 -0.18981609 0.40659845

decoder.layers.0.linear1.bias f4 [4]
000000 1d 5f 19 be 3f e3 24 3f 69 d6 96 be ae f5 c5 bd
       -0.14977689 0.6440925 -0.29460457 -0.09666

decoder.layers.0.linear2.weight f4 [4, 4]
000000 5c 9a e3 be 18 80 02 3e 4f 27 0a be 89 a0 e6 3e
       -0.44453704 0.12744176 -0.13491558 0.45044354
000010 05 be 06 3f 24 a8 6f 3e 8d 1f 98 3e 24 fb 8c be
       0.52633697 0.23403984 0.2971157 -0.27535355
000020 18 d3 74 3d 7a a7 5d bf 5c 3b 9b bc 10 8f 82 be
       0.059771627 -0.86583674 -0.018949203 -0.25499773
000030 1f 36 c5 bd 3e fd 3a be f1 cc 3b be 8c 9a 08 3e
       -0.096294634 -0.18260667 -0.18339898 0.13340205

decoder.layers.0.linear2.bias f4 [4]
000000 5d f1 ae 3d 23 40 58 be 51 46 2a 3d 89 17 36 3e
       0.0854213 -0.21118216 0.041570965 0.17782415

decoder.layers.0.norm1.weight f4 [4]
000000 d6 1c 78 3f 3a 40 9f 3f 77 5e c1 3f 4f 74 90 3f
       0.96919 1.2441475 1.5106953 1.1285495

decoder.layers.0.norm1.bias f4 [4]
000000 ca 23 92 3c 03 48 96 3b 88 8a 06 bd 29 b8 19 be
       0.017839331 0.004586221 -0.032846957 -0.15011658

decoder.layers.0.norm2.weight f4 [4]
000000 71 f3 66 3f e9 3c 99 3f 77 47 a0 3f 8a db 61 3f
       0.9021521 1.1971713 1.2521809 0.88225615

decoder.layers.0.norm2.bias f4 [4]
000000 4d 5d d4 3c cd da 33 3d 8e 54 a5 bd cc 03 60 be
       0.025923396 0.043909837 -0.08072768 -0.21876448

decoder.layers.0.norm3.weight f4 [4]
000000 6c 44 73 3f 93 3c 8f 3f 46 31 af 3f 4f 7e 4e 3f
       0.9502628 1.1190361 1.3686912 0.8066148

decoder.layers.0.norm3.bias f4 [4]
000000 b3 80 4d 3d 5a b9 86 bc 74 85 e7 bd a5 38 96 bc
       0.050171565 -0.016445804 -0.11304751 -0.018337557

decoder.layers.1.self_attn.in_proj_weight f4 [12, 4]
000000 b5 1f 8a bd 21 d2 07 3f d5 0f 82 be e5 f1 59 bf
       -0.06744329 0.53055006 -0.25402704 -0.85134727
000010 2b d5 c5 3e a6 2f 1b bf 8d a6 bc 3e 76 0d 2a be
       0.38639197 -0.6061958 0.36845818 -0.16606697
000020 01 93 62 be 96 83 04 3e 77 3a 7c bf 1e 16 43 bf
       -0.2212639 0.12940821 -0.9852671 -0.76205623
000030 f2 3f 05 3f 4e 76 ac be 0b 94 aa bf 3f 66 03 3f
       0.520507 -0.3368401 -1.3326429 0.5132789
000040 94 e8 8e 3c cf a8 3c bf 33 68 cc 3e 50 37 eb 3e
       0.017444886 -0.7369508 0.39923248 0.45940638
000050 aa 69 86 be 99 e3 50 3f 0b da 0b bf 32 e1 4c 3e
       -0.2625249 0.81597286 -0.5462958 0.2000778
000060 22 76 eb be c5 34 6d bf 2b 23 28 3f 8e 55 2b 3e
       -0.45988566 -0.92658645 0.6567866 0.16731855
000070 cc b4 8a bf ff 41 e4 3e 2a b7 48 3f 92 30 ed be
       -1.0836425 0.445816 0.78404486 -0.4632612
000080 fa eb 70 3e 03 08 25 3d 3d 7e 12 3e 0f 7e ea bc
       0.23527518 0.040290844 0.14305969 -0.028624563
000090 59 b2 04 bf 83 29 0e 3e 45 1e 74 3f 23 46 d2 3e
       -0.51834637 0.13883023 0.9535869 0.41069135
0000a0 a2 00 c8 be c1 19 7b be b1 9d 61 be d1 27 3e be
       -0.39062983 -0.24521543 -0.22032811 -0.18569876
0000b0 3e 59 ba be 96 7c 15 3f 64 6d 38 bf 04 32 d8 bd
       -0.3639621 0.5839323 -0.72041917 -0.10556415

decoder.layers.1.self_attn.in_proj_bias f4 [12]
000000 b6 0f 28 3c a0 6f 60 bb 6e ab c6 bd b3 bd 07 3f
       0.010257652 -0.0034246221 -0.09700666 0.53023833
000010 ca d3 82 3c d1 98 13 bd 96 54 ba 3c 10 1d 37 bc
       0.01597013 -0.03603441 0.022745412 -0.011176363
000020 61 08 d5 bd e5 41 81 bd 9a 27 b1 bd 78 b1 51 bd
       -0.10401989 -0.063113965 -0.086501315 -0.051194638

decoder.layers.1.self_attn.out_proj.weight f4 [4, 4]
000000 a1 bb e5 3d 69 87 a9 be 96 8e 7c 3e 03 1f a0 3d
       0.11217428 -0.33111122 0.24663767 0.07818415
000010 37 63 36 3d c9 6a 4d bd 8d 3c 83 3e 5b 05 66 3f
       0.044528212 -0.050150666 0.25632134 0.8985192
000020 96 3c b6 3d 24 09 14 3f 79 a6 6f 3e 42 3b da be
       0.088982746 0.5782645 0.23403348 -0.42623335
000030 3f f5 e8 be 05 ac d3 bd 5f e6 b0 3e a1 59 a4 bc
       -0.45499608 -0.103355445 0.3455076 -0.02006227

decoder.layers.1.self_attn.out_proj.bias f4 [4]
000000 39 80 27 3d 0c 0a a1 bc 40 0e 5c bd bd aa d3 bd
       0.040893767 -0.019658111 -0.053724527 -0.103353

decoder.layers.1.multihead_attn.in_proj_weight f4 [12, 4]
000000 31 0e 5d 3d 18 a0 59 3f 34 b9 ad bd 7f 3d 21 bd
       0.053968612 0.8500991 -0.0848259 -0.039365288
000010 86 b2 28 bf 06 71 5a 3e e8 45 15 be 63 da 10 bf
       -0.65897405 0.21332178 -0.14577448 -0.5658323
000020 ca 92 77 be c2 e6 7b 3e 9d a2 f4 bd 6c ac 30 be
       -0.2417709 0.24599746 -0.119450785 -0.17253274
000030 b9 5f 5d 3e ce 3e 17 3f 60 7a 7c 3e fc 6e cd be
       0.21618547 0.5908021 0.24656057 -0.40123737
000040 b3 a0 04 3f 8d c0 15 bf 0b a1 af be 68 fa 82 3d
       0.5180771 -0.58496934 -0.34302554 0.063954175
000050 9a 7c f9 3e 34 24 94 3e 4f c8 b4 be 21 f3 4b bd
       0.48727876 0.2893387 -0.35309073 -0.049792413
000060 ef 3e 4d 3e dd 52 ed be c7 c6 17 3e f2 9c fe be
       0.20043539 -0.46352282 0.14821921 -0.49729115
000070 06 6b 63 3e d5 50 26 be 1a bc ee be 21 6f e4 bd
       0.22208795 -0.16241772 -0.46627885 -0.11154009
000080 1a bb 1d 3f 07 41 d1 3d 6f 40 b1 be 0e f9 eb be
       0.6161362 0.10217481 -0.3461947 -0.4608845
000090 ec 7c 1f bf 2e b9 ab 3c 3b 20 e8 be 2d 47 6f be
       -0.6229999 0.020962324 -0.4533709 -0.23366995
0000a0 39 b4 fc 3d c7 5c c5 3d 33 49 33 3d f0 08 24 3e
       0.12339062 0.096368365 0.04377098 0.16019034
0000b0 54 d0 ff 3d 5f 07 f9 be 10 a4 15 3d 19 77 b6 3e
       0.12490907 -0.48638436 0.036533415 0.3563774

decoder.layers.1.multihead_attn.in_proj_bias f4 [12]
000000 b0 6d 02 bd 58 24 bd bd eb 3f 1d be be d0 a1 3d
       -0.031842887 -0.09235448 -0.15356414 0.079011425
000010 30 9b 6a 3d 02 94 34 3c ae e7 cd 3c 16 a6 31 3d
       0.057276905 0.011021616 0.025134888 0.043371283
000020 d5 78 41 3e a1 a0 06 be 86 bb a8 bd cc 8e 5d be
       0.1889375 -0.13147213 -0.08238892 -0.21636504

decoder.layers.1.multihead_attn.out_proj.weight f4 [4, 4]
000000 7c e7 ae bd 37 57 d4 3e 68 72 05 be ef a1 a3 be
       -0.08540246 0.4147279 -0.13031924 -0.31959483
000010 28 ce f9 be 34 20 6a 3e 5c 19 0a be 2c 21 1e 3f
       -0.48790097 0.22863847 -0.13486236 0.61769366
000020 99 55 7f 3e c5 f3 b5 3d 66 0e 05 be 72 02 c3 bc
       0.24934997 0.08884386 -0.12993774 -0.023804877
000030 1b 1e cb 3e 78 51 82 be 1c a6 87 be 97 b4 ef bd
       0.39671406 -0.2545278 -0.2649392 -0.11704367

decoder.layers.1.multihead_attn.out_proj.bias f4 [4]
000000 e2 38 eb 3c 9b 3c 40 be 22 37 e4 bd 50 6e 04 3d
       0.028713647 -0.18773119 -0.11143328 0.032331765

decoder.layers.1.linear1.weight f4 [4, 4]
000000 ad bd f1 3c 0f 7a 8d 3c f0 fa ae bc 1d 23 1d 3e
       0.02950939 0.017270116 -0.02135989 0.15345426
000010 c7 eb 22 bf d5 ba d7 3e ec 2a 0a be 44 b2 34 bf
       -0.6364102 0.4213473 -0.13492936 -0.7058451
000020 aa 6b 06 3e 7a 98 4b be e3 4d 2f 3d ee dd 6d 3e
       0.13127008 -0.19882384 0.042798888 0.2322919
000030 70 8d 18 bf 56 bc 8f 3e 2b 4d 82 be 63 b5 96 3d
       -0.59590816 0.28073376 -0.254495 0.073588155

decoder.layers.1.linear1.bias f4 [4]
000000 3b 2c 92 be eb ef cf 3e eb 9c 02 bf 0f e3 3e bd
       -0.2854937 0.4061273 -0.5102069 -0.04660326

decoder.layers.1.linear2.weight f4 [4, 4]
000000 fb 8a 4f 3e 4d ab f0 3e 76 ec 36 be 99 b1 e9 3e
       0.2026786 0.47005692 -0.1786364 0.4564331
000010 0a 31 03 3e df d6 0a be 05 c9 08 3e ab 94 44 be
       0.12811676 -0.1355853 0.13357933 -0.19197337
000020 db 73 1b 3e 0b c4 2e bf 80 45 45 3d 12 37 9e be
       0.15180914 -0.6826789 0.048161983 -0.3090139
000030 70 e2 69 bd e6 b7 e9 bd a1 37 3e be d2 64 f1 bd
       -0.057100713 -0.11412029 -0.18575908 -0.11786808

decoder.layers.1.linear2.bias f4 [4]
000000 c1 19 1b 3e a5 00 a0 be 8e 7e 74 bb ed 7b 97 3e
       0.15146543 -0.31250492 -0.0037306878 0.29586735

decoder.layers.1.norm1.weight f4 [4]
000000 f1 02 8c 3f 46 ce a9 3f 35 71 ac 3f e8 54 2e 3f
       1.0938398 1.3266075 1.3472048 0.68098307

decoder.layers.1.norm1.bias f4 [4]
000000 c0 4b 95 3e d7 e9 88 be 19 16 be bd 0a 52 a2 bc
       0.29159355 -0.26740906 -0.092815585 -0.01981451

decoder.layers.1.norm2.weight f4 [4]
000000 c0 cc 85 3f 35 a5 a1 3f 57 1e 90 3f 96 5e 41 3f
       1.045311 1.2628542 1.1259259 0.7553495

decoder.layers.1.norm2.bias f4 [4]
000000 d5 3b ae 3e 04 2d cc be 41 85 14 be 06 e0 2d 3e
       0.34030023 -0.39878094 -0.14503957 0.1697999

decoder.layers.1.norm3.weight f4 [4]
000000 84 2e 82 3f bc 46 1e 3f 19 f2 90 3f 47 d6 45 3f
       1.0170445 0.6182668 1.1323882 0.77280086

decoder.layers.1.norm3.bias f4 [4]
000000 6e 4c ee 3d e4 7b bd 3d 14 42 31 be 7e 17 2d be
       0.116356716 0.09252146 -0.17310363 -0.16903493

linear_mapping.weight f4 [1, 4]
000000 eb b5 98 3e d3 6b 04 3d b4 b8 11 bf 3d 64 2b 3d
       0.29826292 0.03232939 -0.5692246 0.04184364

linear_mapping_with_gender_ind.weight f4 [1, 5]
000000 22 18 27 be f4 d3 2d 3e da 7c 98 3e 1b 1e 6f be
       -0.163178 0.16975385 0.29782754 -0.23351328
000010 c0 84 90 3b
       0.0044103563

exp_avg f4 [4, 3]
000000 af 5f 0f 3b 0c 93 0f 3b d4 fe 0f 3b 3c d1 5a 3c
       0.00218771 0.0021907715 0.0021971958 0.013355549
000010 c2 51 5c 3c 0e df 5d 3c 06 13 ea bb 65 1e ec bb
       0.013447227 0.01354195 -0.007143381 -0.0072057717
000020 3c be ed bb fa dc 64 bd 75 53 66 bd 20 c8 67 bd
       -0.0072553437 -0.055874802 -0.056231935 -0.05658734

exp_avg_sq f4 [4, 3]
000000 23 c6 6c 39 3a e0 6d 39 32 f0 70 39 4d 62 13 3a
       0.00022580526 0.00022685612 0.00022977663 0.0005622253
000010 ac 72 15 3a 86 89 17 3a 7e 5e de 38 be 56 e1 38
       0.00057009864 0.00057806855 0.000106033855 0.00010744993
000020 3a 63 e4 38 21 51 3b 3c 71 bf 3c 3c 84 a7 3e 3c
       0.000108903696 0.011432917 0.011520253 0.0116366185

exp_avg f4 [4]
000000 01 fb 32 ba fc 3c a6 bb bb 61 36 3b 8e 86 aa 3c
       -0.00068275636 -0.005073188 0.0027829248 0.020816114

exp_avg_sq f4 [4]
000000 5d e4 26 38 1c 3b cb 38 db 8e b2 37 2e 39 0e 3b
       3.9790164e-05 9.690804e-05 2.1285776e-05 0.0021701562

exp_avg f4 [4, 1]
000000 0c 22 84 3d 40 1d cd 3d 88 0d a2 bd c8 2f f4 3a
       0.064518064 0.100153446 -0.07912737 0.0018629963

exp_avg_sq f4 [4, 1]
000000 f5 ef 4e 3c 1b 2f 9e 3c a6 ba 91 3c be e4 49 3a
       0.012630452 0.019309571 0.017789196 0.0007701627

exp_avg f4 [4]
000000 77 6f 01 bd 4c 4f 3c bd ff 93 26 3d 80 25 74 b8
       -0.03160044 -0.04597406 0.040668484 -5.8209058e-05

exp_avg_sq f4 [4]
000000 79 f9 17 3b a2 af 68 3b ba 7f 6c 3b 69 e4 0e 39
       0.0023189469 0.0035505076 0.0036086873 0.00013627265

exp_avg f4 [12, 4]
000000 94 69 75 b5 e6 bb 11 b6 e5 dc f6 37 c9 d0 51 37
       -9.142325e-07 -2.1716055e-06 2.9428347e-05 1.2505982e-05
000010 10 e0 35 b7 1a 82 92 36 f2 3a 60 38 42 1f a3 37
       -1.0840609e-05 4.366285e-06 5.346066e-05 1.944567e-05
000020 43 68 7c 37 b1 40 9a b7 f3 06 44 38 04 a7 c5 37
       1.5044646e-05 -1.8388355e-05 4.6736513e-05 2.3562003e-05
000030 1c b2 8b 36 32 19 4b b7 a0 6e cf 37 89 d5 65 37
       4.1632575e-06 -1.2105609e-05 2.4727837e-05 1.3699181e-05
000040 7f cf ec 38 0d 0f 9f b8 10 c4 9f 35 60 41 45 b7
       0.00011292006 -7.584514e-05 1.1903485e-06 -1.1757336e-05
000050 cc b9 69 39 8c 95 f4 b8 40 86 e9 33 54 2c c3 b7
       0.00022289826 -0.00011662682 1.0874328e-07 -2.3266453e-05
000060 f0 0e df 38 3c c0 9d b8 c6 c7 21 b6 45 61 4a b7
       0.00010636251 -7.52215e-05 -2.4107153e-06 -1.2062786e-05
000070 df 6e 18 39 8f 6c 95 b8 38 16 01 b6 5a 2b 65 b7
       0.00014537152 -7.125094e-05 -1.923543e-06 -1.3659557e-05
000080 57 1c 09 3a 5b a6 56 3b 6f 88 90 3a 64 34 e7 39
       0.0005230358 0.0032752964 0.0011026989 0.00044098787
000090 ed c9 85 39 fa a0 86 3a b7 62 66 39 62 67 c0 37
       0.00025518183 0.0010271363 0.00021971283 2.2936325e-05
0000a0 06 2c 87 3a 7e 2c c2 3b 39 8f 03 3b a0 e3 50 3a
       0.0010312803 0.005925714 0.002007438 0.0007968489
0000b0 73 8d df b9 31 c6 63 bb 03 69 c5 ba 98 f9 5d ba
       -0.00042639262 -0.0034755582 -0.0015061203 -0.00084676733

exp_avg_sq f4 [12, 4]
000000 3d 48 44 31 57 61 f1 31 ac 44 fc 31 e3 e4 c3 30
       2.8562817e-09 7.0250894e-09 7.3419724e-09 1.4253171e-09
000010 08 92 12 32 8d b0 cc 32 80 a7 89 32 09 3a 80 31
       8.531522e-09 2.3829012e-08 1.602507e-08 3.731888e-09
000020 6c 3e 01 33 5c 50 a1 33 e1 46 8f 33 25 75 52 32
       3.0091925e-08 7.511764e-08 6.671849e-08 1.2250244e-08
000030 e1 5b ef 31 cf 6c c1 32 72 3e 9f 32 ea 8f 84 31
       6.966261e-09 2.2517638e-08 1.8538433e-08 3.8580668e-09
000040 0d 63 36 33 da ca 68 33 1a 38 bb 30 8e 19 b3 31
       4.2465263e-08 5.42012e-08 1.3621986e-09 5.212491e-09
000050 3c 0b 2a 34 73 a6 94 34 42 bb dd 31 73 b3 dd 32
       1.5836571e-07 2.7688256e-07 6.4532353e-09 2.580939e-08
000060 b1 0f f6 32 12 46 b7 33 74 45 19 31 c6 72 28 32
       2.8645305e-08 8.534347e-08 2.230391e-09 9.8049835e-09
000070 0f 2b 80 33 ab 45 c3 33 c0 5a ca 30 49 af 0c 31
       5.968297e-08 9.0930676e-08 1.4723227e-09 2.047232e-09
000080 f3 d3 fb 35 63 36 88 37 e6 0f da 36 f4 f2 58 35
       1.8762643e-06 1.623779e-05 6.498757e-06 8.0819814e-07
000090 2d 8b e5 34 62 ad 7e 36 d3 28 84 35 83 fa 53 34
       4.2755838e-07 3.7949872e-06 9.846648e-07 1.9742042e-07
0000a0 92 06 b5 36 73 47 55 38 6c 51 8c 37 2b 92 fe 35
       5.3949852e-06 5.08497e-05 1.6727216e-05 1.8967015e-06
0000b0 c8 01 ec 36 8e 9d 45 38 6c 6d 09 38 06 0b d3 36
       7.0335554e-06 4.7115194e-05 3.2765252e-05 6.2895733e-06

exp_avg f4 [12]
000000 02 e1 88 b8 8c 53 03 b9 16 53 c5 b8 3d 62 4f b8
       -6.526896e-05 -0.00012524257 -9.409168e-05 -4.9444137e-05
000010 f0 70 8a 2c 90 ec e7 2c 8a b9 09 2c a8 45 e1 ab
       3.9347345e-12 6.5916786e-12 1.9571866e-12 -1.6006545e-12
000020 3c 7e 50 bb 80 e2 80 ba 3d 2b c4 bb 7f eb 70 3b
       -0.0031813523 -0.0009833127 -0.0059865997 0.003676146

exp_avg_sq f4 [12]
000000 01 fe cd 32 70 57 6d 33 48 41 61 34 0e 1f 69 33
       2.3980649e-08 5.5260386e-08 2.0978507e-07 5.4277784e-08
000010 ce 21 94 1c 8f 03 26 1e b3 0e 40 1d 83 ca df 1c
       9.802557e-22 8.788703e-21 2.5418588e-21 1.480925e-21
000020 07 a2 15 38 9e 8b 0c 37 2b 97 da 38 ce 6c 17 39
       3.5675268e-05 8.377157e-06 0.00010423207 0.00014441015

exp_avg f4 [4, 4]
000000 b6 ec c1 b8 50 10 2a b9 f1 65 12 b9 84 af 40 39
       -9.247048e-05 -0.0001621854 -0.00013961621 0.00018375932
000010 5e db 30 bb 38 ba a9 3a ed 6f 66 ba e7 f2 1e bb
       -0.0026986222 0.0012949174 -0.0008790482 -0.0024253668
000020 9a ed 4c 3a 61 1a 1f ba 08 a4 58 b8 90 56 a3 3a
       0.0007817388 -0.00060692994 -5.165118e-05 0.0012461711
000030 8c f3 0a 3b 1a ca 34 ba 11 97 9d 3a 47 dc 74 3a
       0.0021202294 -0.00068965706 0.0012023171 0.0009340685

exp_avg_sq f4 [4, 4]
000000 11 f2 8a 36 36 65 34 35 70 28 c6 35 32 d2 00 36
       4.1409007e-06 6.7202507e-07 1.4763918e-06 1.9195836e-06
000010 22 5b 53 37 29 10 54 36 a5 41 5e 36 3b 62 1c 37
       1.2597799e-05 3.1599868e-06 3.3118788e-06 9.321196e-06
000020 11 b1 19 36 14 06 14 35 df f2 95 35 64 c5 15 36
       2.2901843e-06 5.514314e-07 1.117205e-06 2.2317627e-06
000030 de 1d ac 37 cd e1 62 36 52 6e 3a 37 2f 44 25 37
       2.0517906e-05 3.3808058e-06 1.111215e-05 9.850642e-06

exp_avg f4 [4]
000000 c8 02 33 b8 fc c6 d7 bb 94 60 1e 3b 47 99 75 3b
       -4.2679516e-05 -0.006585 0.0024166452 0.0037475394

exp_avg_sq f4 [4]
000000 37 59 25 38 77 25 c2 38 64 8b 8f 37 b2 ad 28 39
       3.9422153e-05 9.257619e-05 1.7111837e-05 0.00016086435

exp_avg f4 [4, 4]
000000 a2 3a 67 38 b2 66 9d b9 4e 76 aa 39 f8 eb ce b9
       5.5129298e-05 -0.00030021888 0.0003251307 -0.00039467192
000010 1b 67 08 39 9e fe a4 b8 b6 61 b9 b7 0e b2 2d b8
       0.0001300838 -7.8675555e-05 -2.2099219e-05 -4.141224e-05
000020 6d c4 84 38 d2 15 da b7 1d bd c0 b6 f2 e2 f8 b7
       6.330838e-05 -2.5997786e-05 -5.7440616e-06 -2.9669583e-05
000030 64 67 3e b8 34 4d 9a 37 d6 4e 22 b7 75 03 83 38
       -4.539582e-05 1.8394181e-05 -9.674308e-06 6.247211e-05

exp_avg_sq f4 [4, 4]
000000 27 08 22 36 48 a1 b9 35 b6 77 97 35 a0 52 4c 35
       2.4144626e-06 1.3830513e-06 1.1285217e-06 7.611616e-07
000010 d2 1b 56 35 cf 39 59 35 70 fd ef 34 78 3f ad 34
       7.9761696e-07 8.092292e-07 4.470162e-07 3.226994e-07
000020 e9 1b e2 34 61 8e 99 35 13 af c8 34 dc 99 10 34
       4.2116088e-07 1.1440826e-06 3.7380286e-07 1.3467019e-07
000030 a9 e8 2a 35 9d f8 41 34 b0 9a 27 34 22 f4 39 34
       6.36685e-07 1.806497e-07 1.5609362e-07 1.7318283e-07

exp_avg f4 [4]
000000 51 38 67 b9 be af 9d 38 18 de 6c 38 f0 52 5e b7
       -0.00022050856 7.519078e-05 5.6473626e-05 -1.32515415e-05

exp_avg_sq f4 [4]
000000 71 17 23 36 2b 00 8a 35 44 4c 7a 35 3c fd f9 34
       2.4302537e-06 1.028185e-06 9.324324e-07 4.6564116e-07

exp_avg f4 [4, 4]
000000 56 d3 0e b9 7a 6a 05 b8 13 a3 2a b8 88 a6 f0 36
       -0.00013620904 -3.1808835e-05 -4.0683033e-05 7.171944e-06
000010 77 ac 0f b9 47 79 01 39 c8 0d 64 38 a0 b5 c2 38
       -0.00013701791 0.00012347578 5.437227e-05 9.284471e-05
000020 eb 0b f7 b7 3e 07 d6 b7 28 a8 6d 35 d4 ac 33 b8
       -2.9450244e-05 -2.551416e-05 8.853408e-07 -4.2837884e-05
000030 60 ef 78 39 e6 05 88 b8 ab 4a e4 b7 62 4b 6b b8
       0.00023740297 -6.486084e-05 -2.7214488e-05 -5.609857e-05

exp_avg_sq f4 [4, 4]
000000 48 b1 f2 35 32 88 06 35 96 1a 02 35 0a 99 bc 33
       1.8082001e-06 5.011708e-07 4.846746e-07 8.78227e-08
000010 0e 6b ad 35 da 49 53 35 a5 d9 2d 35 01 85 b4 33
       1.2920661e-06 7.8711093e-07 6.4764237e-07 8.4060964e-08
000020 53 6a 06 36 e5 27 83 35 f8 6e 32 35 d0 f8 e2 34
       2.0029445e-06 9.771871e-07 6.647165e-07 4.2276815e-07
000030 b8 bf 16 36 7e 03 d0 34 e0 d9 9c 34 e2 7b 15 35
       2.2463337e-06 3.874556e-07 2.921579e-07 5.56871e-07

exp_avg f4 [4]
000000 ac a2 cd b8 74 fd bf ba d3 d0 ab 3a 21 c6 7b 39
       -9.805462e-05 -0.0014647678 0.0013108499 0.00024011034

exp_avg_sq f4 [4]
000000 1d cb b3 36 bf 78 06 37 00 9b d6 36 bd 68 40 37
       5.358261e-06 8.015136e-06 6.3957414e-06 1.1468478e-05

exp_avg f4 [4]
000000 f6 7d fb b9 74 6c 31 ba 84 3c 63 ba 82 c4 70 39
       -0.000479683 -0.0006768175 -0.00086683803 0.00022961388

exp_avg_sq f4 [4]
000000 23 65 80 36 62 6a 93 36 ff a4 8a 36 6e 5a 67 36
       3.826471e-06 4.393326e-06 4.1319286e-06 3.447432e-06

exp_avg f4 [4]
000000 26 a7 44 b9 4e 2d b7 ba 44 34 b9 3a 06 a8 41 39
       -0.00018754284 -0.0013975294 0.0014129956 0.00018468508

exp_avg_sq f4 [4]
000000 e4 10 ca 36 9d 34 1b 37 63 e8 9e 36 ee 37 af 37
       6.0220354e-06 9.25097e-06 4.7358203e-06 2.088767e-05

exp_avg f4 [4]
000000 c9 3e 75 ba 3f 24 1c 39 2d 45 9e 39 d2 96 66 3a
       -0.0009355364 0.00014890822 0.00030187648 0.00087962777

exp_avg_sq f4 [4]
000000 22 27 2f 36 25 d3 01 37 0c f9 85 35 5c 51 0d 37
       2.609981e-06 7.73816e-06 9.981754e-07 8.423198e-06

exp_avg f4 [4]
000000 69 b1 23 ba b8 be 8a ba f6 08 82 3a 8a f4 b7 39
       -0.0006244393 -0.0010585403 0.0009920883 0.00035086676

exp_avg_sq f4 [4]
000000 6b 61 7e 36 16 d2 b6 36 54 1f 8f 36 f7 2f 50 37
       3.7905654e-06 5.44848e-06 4.265379e-06 1.2408934e-05

exp_avg f4 [12, 4]
000000 26 60 c2 b8 6d 3b 10 b8 f1 07 92 38 58 35 c7 38
       -9.26855e-05 -3.438762e-05 6.963302e-05 9.4989955e-05
000010 a5 70 ea b8 c0 6e 2b b7 33 8b 51 38 40 f0 fb 38
       -0.00011178971 -1.021818e-05 4.9959122e-05 0.00012013363
000020 3e 60 1b b8 4f 94 06 b8 1f b6 2d 38 e2 a5 2e 38
       -3.7044512e-05 -3.2086213e-05 4.1416028e-05 4.1639323e-05
000030 9c 09 94 38 58 c7 bb b7 bd f7 0c b8 a0 7d 40 b8
       7.05898e-05 -2.2384964e-05 -3.3609325e-05 -4.5893365e-05
000040 50 1d 22 b9 68 0f af 39 f6 c5 3b 39 6a 81 ce b9
       -0.00015460444 0.0003339008 0.00017907456 -0.00039387803
000050 f9 1c 43 b9 f8 6b 9f 39 97 f8 60 39 01 58 bc b9
       -0.00018607442 0.00030407286 0.00021454912 -0.00035923722
000060 ee 1e 27 39 26 90 16 b8 2f c5 d3 b8 bb 54 5f b8
       0.00015937883 -3.5897036e-05 -0.00010097992 -5.3246255e-05
000070 4a 7d 81 37 fa 6c 17 b9 eb fa b8 b8 87 99 84 39
       1.543634e-05 -0.00014441079 -8.820541e-05 0.0002529139
000080 a8 97 4d 36 89 d3 b7 b8 64 6f be b6 80 d0 c6 38
       3.0635656e-06 -8.7655215e-05 -5.675409e-06 9.480212e-05
000090 d9 bf 8b 39 fc 13 91 ba 8f 41 c8 b8 68 c3 79 3a
       0.00026655084 -0.0011068578 -9.5489544e-05 0.0009527714
0000a0 61 fb 32 39 40 0f be b8 f5 a5 b2 b8 d8 4e 1b b8
       0.00017069049 -9.0627465e-05 -8.518613e-05 -3.702831e-05
0000b0 35 e1 2f 3a dc 13 0e 39 e6 48 3c ba 44 f2 50 b9
       0.00067092787 0.00013549573 -0.00071824936 -0.00019926677

exp_avg_sq f4 [12, 4]
000000 13 39 03 34 31 10 7a 35 a2 9d 1a 34 06 3b 33 35
       1.2221089e-07 9.315582e-07 1.4399714e-07 6.6768587e-07
000010 c3 61 06 34 d1 50 66 35 71 5d 11 34 e6 41 49 35
       1.2515288e-07 8.579928e-07 1.3538171e-07 7.497423e-07
000020 e5 48 72 33 9f 20 a0 34 93 a6 45 33 97 00 82 34
       5.6411313e-08 2.9826057e-07 4.6019135e-08 2.4214816e-07
000030 da 83 d1 33 2e 53 dd 34 66 83 a3 33 e0 eb d9 34
       9.7563046e-08 4.122498e-07 7.61418e-08 4.059102e-07
000040 44 f8 33 35 9f 74 de 35 60 2c b7 34 1f 76 3c 36
       6.704397e-07 1.657423e-06 3.4118693e-07 2.8082939e-06
000050 08 2c 54 35 65 5b 9e 35 21 82 72 34 8f 3d b4 35
       7.904023e-07 1.1798517e-06 2.2585347e-07 1.3428961e-06
000060 c4 15 a8 33 e3 b4 01 34 4d 19 b6 32 1c 7c 21 34
       7.827069e-08 1.2079867e-07 2.1199094e-08 1.5039444e-07
000070 a8 26 8b 34 22 f0 d2 34 16 74 8b 33 3e bc d5 34
       2.5918894e-07 3.9290268e-07 6.493808e-08 3.9811306e-07
000080 30 d1 05 34 ba 89 4e 34 87 b9 3f 33 60 ed 09 35
       1.2462692e-07 1.923535e-07 4.463939e-08 5.1381903e-07
000090 f7 0c 12 36 91 55 52 36 c9 4c 94 35 7e 81 04 37
       2.1763242e-06 3.1342245e-06 1.1049207e-06 7.897963e-06
0000a0 70 5a 4b 36 35 d3 e0 36 7d 81 d2 35 cd e8 32 37
       3.0301999e-06 6.700308e-06 1.5683905e-06 1.066383e-05
0000b0 43 47 d3 35 8b a4 92 36 9b 93 33 35 14 be 01 37
       1.5741465e-06 4.3702944e-06 6.689749e-07 7.733255e-06

exp_avg f4 [12]
000000 2b d6 03 b9 28 c2 36 b9 6e 15 08 b8 34 77 30 39
       -0.00012572917 -0.00017429201 -3.2444885e-05 0.00016829075
000010 19 45 4e ad 54 fa 7c ad b0 a9 71 ad ed 8a a0 2c
       -1.1725087e-11 -1.43801256e-11 -1.3736942e-11 4.5628974e-12
000020 36 5a b1 38 c1 17 6a 3a 80 38 6d 36 48 2f 95 b8
       8.456821e-05 0.0008929931 3.534864e-06 -7.1136805e-05

exp_avg_sq f4 [12]
000000 67 96 0a 35 3c 64 03 35 3a 5f 38 34 ff b9 7f 34
       5.162787e-07 4.8947163e-07 1.7170979e-07 2.381639e-07
000010 ce c1 19 1f 5b a4 b0 1e 94 1c b8 1c fd 60 18 1e
       3.2559322e-20 1.87027e-20 1.2183486e-21 8.06687e-21
000020 85 59 b9 34 a2 66 96 36 47 86 22 37 05 74 c3 36
       3.452407e-07 4.4822964e-06 9.687216e-06 5.8249593e-06

exp_avg f4 [4, 4]
000000 6a 66 ce 38 25 36 53 3a 42 6e e6 38 02 ba 95 b9
       9.8419216e-05 0.00080570794 0.00010987792 -0.0002855808
000010 b8 52 bc b9 be 08 88 3a 62 3b 3f 3a ac e2 c7 ba
       -0.00035919785 0.0010378582 0.00072949205 -0.0015250049
000020 35 3c e0 38 f2 ab a2 39 5a 3d b8 b9 e4 9e ae 39
       0.00010692367 0.00031027157 -0.00035140925 0.0003330625
000030 a5 e6 1c 39 6e 35 05 bb db c3 a2 b9 01 a0 a2 3a
       0.00014963241 -0.0020326036 -0.00031044972 0.0012407304

exp_avg_sq f4 [4, 4]
000000 b1 eb 33 35 3a 85 b9 36 82 26 3e 36 4d 63 c1 36
       6.702567e-07 5.5289393e-06 2.833462e-06 5.7634084e-06
000010 98 86 cc 35 80 d7 eb 36 31 e6 03 37 ef 5a 1d 37
       1.5238356e-06 7.0286333e-06 7.861804e-06 9.379101e-06
000020 b1 e5 2e 34 47 5d 9d 35 7f 5f 4e 35 31 17 af 35
       1.6288574e-07 1.1724559e-06 7.6879945e-07 1.3045266e-06
000030 f9 ed ee 34 cf 62 9b 36 8a 50 3b 36 38 41 96 36
       4.4504102e-07 4.630863e-06 2.7912051e-06 4.477941e-06

exp_avg f4 [4]
000000 9c a0 5d b9 97 8f b7 ba 68 0d b2 39 d4 a6 8a 3a
       -0.00021136034 -0.0014004585 0.00033960794 0.0010578283

exp_avg_sq f4 [4]
000000 fc e7 20 37 f8 13 3f 37 fb b4 51 36 be 99 fb 36
       9.590756e-06 1.13891365e-05 3.1248771e-06 7.498281e-06

exp_avg f4 [4, 4]
000000 b2 56 7a a5 6a fa 04 27 a5 3e 0f a6 e2 b5 84 a6
       -2.1713417e-16 1.845443e-15 -4.969799e-16 -9.208639e-16
000010 a3 ad 29 38 9e 58 9a b9 92 51 9e 38 de 2d 20 39
       4.045445e-05 -0.00029439194 7.549221e-05 0.00015275876
000020 4b 64 db 34 9f ea 94 34 8a cb 58 b4 a5 2f 11 b5
       4.0864902e-07 2.7737858e-07 -2.0190615e-07 -5.408604e-07
000030 49 9e 80 39 3d 58 d0 b9 66 d5 a0 39 a0 a4 87 b9
       0.00024531994 -0.00039738594 0.00030676572 -0.00025871862

exp_avg_sq f4 [4, 4]
000000 4d 10 0b 2f da db 4f 2f a1 4e 07 2e 35 da e9 2e
       1.2647768e-10 1.8904647e-10 3.0765283e-11 1.06343746e-10
000010 21 46 57 34 16 e3 9f 35 18 23 a1 33 5d 55 eb 34
       2.0048948e-07 1.1912514e-06 7.50353e-08 4.383427e-07
000020 d0 f0 36 33 4d e0 a9 32 a9 b3 0d 32 41 2e 8e 33
       4.2594195e-08 1.977619e-08 8.24813e-09 6.620804e-08
000030 86 07 04 36 80 a4 a8 35 55 4e a0 34 35 54 08 36
       1.9673912e-06 1.2564851e-06 2.9859316e-07 2.0314594e-06

exp_avg f4 [4]
000000 8a 93 80 26 9a e1 2b b9 73 df b7 34 e3 19 9c b9
       8.921775e-16 -0.00016391874 3.4248987e-07 -0.00029773926

exp_avg_sq f4 [4]
000000 d1 f0 d0 2e 1c f2 cb 34 43 39 e9 32 8a 06 9e 35
       9.5015225e-11 3.7987854e-07 2.715081e-08 1.177382e-06

exp_avg f4 [4, 4]
000000 e3 dc 36 24 9c 44 d4 b9 bd fd 1f b4 05 81 2b b9
       3.9652057e-17 -0.0004048691 -1.4900338e-07 -0.00016355894
000010 4d fd e1 97 86 60 18 39 a2 6f 68 34 63 81 4b b9
       -1.4604226e-24 0.00014531807 2.1647296e-07 -0.00019407789
000020 f9 2a b4 21 14 27 99 38 66 c5 52 31 15 fe d5 b8
       1.2208649e-18 7.3028874e-05 3.067123e-09 -0.00010203958
000030 82 b9 d7 a3 04 c9 2c 39 a1 e4 05 b2 da 02 b1 39
       -2.3388912e-17 0.00016478082 -7.793603e-09 0.00033762195

exp_avg_sq f4 [4, 4]
000000 dd 2c 55 2f a8 47 5a 36 3c 02 eb 33 dd 83 62 36
       1.9388176e-10 3.252624e-06 1.0943447e-07 3.3753379e-06
000010 f2 1e 33 2e 5a b1 ee 35 e9 f8 53 34 a7 3e b5 35
       4.0727373e-11 1.7783998e-06 1.974146e-07 1.3503785e-06
000020 b3 9a 95 2d 8d 7c 88 34 4f b2 44 31 84 e7 14 35
       1.7008039e-11 2.5422597e-07 2.862311e-09 5.5471196e-07
000030 b6 b7 32 2e 4a 5c 45 35 a6 94 37 33 a8 50 60 35
       4.0635682e-11 7.3522517e-07 4.2743203e-08 8.3563873e-07

exp_avg f4 [4]
000000 68 f5 4f 39 b3 6f dd ba 57 01 ae 39 77 ba 7b 3a
       0.0001983248 -0.0016894251 0.00033188864 0.00096026756

exp_avg_sq f4 [4]
000000 f4 71 79 37 65 dd 68 37 f3 f6 76 36 62 94 f9 36
       1.4868088e-05 1.3879825e-05 3.68006e-06 7.4380523e-06

exp_avg f4 [4]
000000 9a e1 7d ba 0a b8 03 ba 52 1d 83 39 00 ba 1d 3a
       -0.00096848013 -0.00050246774 0.00025008112 0.0006016791

exp_avg_sq f4 [4]
000000 13 e0 4c 37 bd df 95 36 90 4c b2 35 fb cf 13 37
       1.2211519e-05 4.4665926e-06 1.3284316e-06 8.810307e-06

exp_avg f4 [4]
000000 08 ee 52 39 00 7b d6 ba 25 86 1b 3a 4d 27 a6 3a
       0.00020115834 -0.0016363561 0.000593277 0.0012676507

exp_avg_sq f4 [4]
000000 78 f0 72 37 23 54 5a 37 ee e5 8a 36 6b 0b 28 37
       1.44803125e-05 1.3013402e-05 4.139488e-06 1.0016239e-05

exp_avg f4 [4]
000000 13 58 35 bb 80 e4 9d b8 76 1c 89 ba 90 0d a0 3a
       -0.0027670905 -7.528905e-05 -0.0010460753 0.0012211073

exp_avg_sq f4 [4]
000000 6f 2b 0d 39 20 66 db 37 60 ac f2 35 ed d2 7d 38
       0.00013462988 2.615439e-05 1.8080573e-06 6.051634e-05

exp_avg f4 [4]
000000 17 df d2 3a e0 02 d6 b9 c8 56 17 39 8c e8 06 ba
       0.0016088214 -0.00040819403 0.0001443281 -0.00051463465

exp_avg_sq f4 [4]
000000 7e 75 b1 38 bd 39 15 38 a6 8a 11 37 25 2f 40 38
       8.461902e-05 3.557814e-05 8.674955e-06 4.5820274e-05

exp_avg f4 [12, 4]
000000 d5 b8 0a 3a 19 8c 8a 3a 2e 85 4b b9 4c ca a8 b5
       0.00052918243 0.0010570317 -0.00019409202 -1.2575852e-06
000010 7a 79 34 ba 7f 5c d5 ba 1d de 8a 39 4f a0 6f b7
       -0.00068845565 -0.0016278176 0.00026486898 -1.4282835e-05
000020 1c 59 49 b9 fb 7c d9 b9 2f e8 49 38 60 9b b4 b7
       -0.0001920205 -0.00041482583 4.8138372e-05 -2.1530024e-05
000030 e2 66 6e b9 f0 11 11 ba be fc 91 38 50 36 c4 b7
       -0.00022735776 -0.0005533984 6.961216e-05 -2.3390312e-05
000040 ce f9 88 ba fd 28 a2 38 f5 d7 25 b6 e8 8a 39 b8
       -0.0010450424 7.7323966e-05 -2.471262e-06 -4.4236804e-05
000050 e1 1e 45 3a e6 c1 b1 b8 43 58 27 37 48 3e 6d 38
       0.0007519555 -8.476134e-05 9.974526e-06 5.6563207e-05
000060 b9 2b 05 ba 9a 62 e5 b7 ed 5d 23 37 15 78 6a b8
       -0.00050800625 -2.7344842e-05 9.737426e-06 -5.5901783e-05
000070 19 82 39 ba ce 8d ee b7 77 19 f2 36 8f 72 87 b8
       -0.0007076576 -2.8437844e-05 7.2151265e-06 -6.45864e-05
000080 70 64 f3 b8 20 53 c8 ba e1 b5 0d 3a 31 f2 2a 3b
       -0.00011605851 -0.0015283562 0.0005405825 0.0026084299
000090 3b 5e e3 39 cb 7e 44 3a 46 87 94 39 54 78 b4 3b
       0.0004336702 0.00074957 0.00028329546 0.0055075083
0000a0 8c 1f 45 39 0c cb 81 b9 56 fa c3 39 e2 ee 78 3b
       0.00018799136 -0.0002475608 0.00037379813 0.0037984182
0000b0 f2 f1 28 ba c5 1d cc ba a5 5f 85 b9 cd 8b f9 bb
       -0.0006444744 -0.0015572837 -0.00025438998 -0.0076155425

exp_avg_sq f4 [12, 4]
000000 3b 36 81 35 a4 b0 ec 36 ec 1b 67 34 68 03 a9 35
       9.627032e-07 7.0539118e-06 2.152371e-07 1.2592473e-06
000010 bf c3 02 36 ff 9a 41 37 33 06 be 34 b9 28 20 36
       1.9485449e-06 1.1539784e-05 3.5394768e-07 2.3865562e-06
000020 83 39 64 34 41 52 1c 35 6b a6 d1 32 46 d0 4d 34
       2.1255077e-07 5.8234224e-07 2.440648e-08 1.9167882e-07
000030 8b 71 9c 34 a4 f0 7e 35 71 a0 1c 33 92 7d 98 34
       2.9139878e-07 9.497255e-07 3.64675e-08 2.840357e-07
000040 07 15 1e 36 a7 2c 47 34 d7 ab 0b 32 19 96 65 32
       2.3556074e-06 1.8549564e-07 8.129937e-09 1.3363683e-08
000050 67 24 86 35 00 ba ba 33 13 88 08 32 9c 34 8a 32
       9.994372e-07 8.695133e-08 7.947182e-09 1.6089238e-08
000060 60 8c b4 36 00 a1 1e 35 ba ef 4a 33 0c b5 9a 33
       5.38076e-06 5.909387e-07 4.724982e-08 7.204116e-08
000070 86 e8 c9 36 e8 09 30 35 4b 83 3f 33 94 06 a5 33
       6.017336e-06 6.5579525e-07 4.4590063e-08 7.684608e-08
000080 75 17 b6 36 c0 7b 97 37 15 1a f9 37 74 84 3d 39
       5.4267534e-06 1.8058228e-05 2.9695258e-05 0.00018073787
000090 95 7c 47 36 47 40 a4 36 0e 43 84 36 71 a7 ca 38
       2.9725827e-06 4.8950637e-06 3.9417127e-06 9.663299e-05
0000a0 a4 72 13 36 be f1 88 36 cb 80 04 37 8a b1 9a 38
       2.1971437e-06 4.0812583e-06 7.8978e-06 7.3763615e-05
0000b0 d2 7c c9 36 11 c7 42 37 56 e6 bb 36 33 9d 4c 39
       6.004798e-06 1.160965e-05 5.599849e-06 0.00019513517

exp_avg f4 [12]
000000 5c 59 4d b9 3d d9 8a 39 10 87 c9 b6 d9 b7 d0 37
       -0.00019583612 0.00026483266 -6.00599e-06 2.4881143e-05
000010 8c f1 1e 2e 2b 05 f5 ae d5 fd 57 2d 1a 9d 8c 2f
       3.6139577e-11 -1.1142228e-10 1.2277697e-11 2.557748e-10
000020 76 b1 ac 3b ea c3 e6 3b e0 d9 b7 3b 87 d7 17 bc
       0.0052701784 0.0070423977 0.0056106895 -0.009267694

exp_avg_sq f4 [12]
000000 06 dc 5c 36 06 fc c3 36 e3 4c e6 34 d0 8e 27 35
       3.2910625e-06 5.8407923e-06 4.289678e-07 6.242017e-07
000010 72 d3 bd 1d 6a 97 0f 1f 11 0d d2 1e 85 56 44 20
       5.0246513e-21 3.0406675e-20 2.2240019e-20 1.6630473e-19
000020 93 6c b7 39 5d 9e 20 39 cd a1 09 39 29 74 9e 39
       0.00034985374 0.00015317784 0.00013125614 0.00030222654

exp_avg f4 [4, 4]
000000 28 58 1f ba bc b1 89 ba 18 e4 88 ba 53 d4 a6 3a
       -0.0006078505 -0.001050524 -0.0010443954 0.0012728072
000010 90 69 7e 3b 8e 32 f8 38 14 53 33 3b 64 e0 71 ba
       0.0038820244 0.00011834978 0.002736275 -0.0009226857
000020 ac 03 1b bb c7 3c 00 3b 28 02 13 ba ba 6f de ba
       -0.0023653312 0.0019567476 -0.0005607926 -0.0016970553
000030 ff e1 1e ba 09 22 c3 b9 0f 30 2d ba 9e 7f 01 3a
       -0.0006060898 -0.00037218657 -0.00066065876 0.0004939976

exp_avg_sq f4 [4, 4]
000000 2e db 03 37 be d9 0b 38 ad 40 e9 36 d4 98 0a 38
       7.85924e-06 3.334297e-05 6.9514704e-06 3.3044096e-05
000010 1a d2 64 38 9b 06 ea 36 dc 8d 00 38 ab de 0d 37
       5.455511e-05 6.9745124e-06 3.0649695e-05 8.456099e-06
000020 aa 02 1c 38 80 0a 5c 38 84 54 86 37 e4 ac 49 38
       3.719578e-05 5.2461866e-05 1.60134e-05 4.808315e-05
000030 24 23 6b 36 65 44 98 36 23 5d 17 36 8f d4 91 36
       3.5038183e-06 4.537915e-06 2.2554966e-06 4.346082e-06

exp_avg f4 [4]
000000 85 dd 3f bb a9 a3 e0 bb 37 b4 8b 3c 7b 8b bb ba
       -0.0029276323 -0.0068554473 0.017053707 -0.0014308536

exp_avg_sq f4 [4]
000000 62 69 00 39 08 77 72 39 6f a3 5c 3a 44 6f 7d 38
       0.0001224629 0.00023123261 0.00084166875 6.0423525e-05

exp_avg f4 [12, 4]
000000 e8 fa 21 38 64 26 ab b8 32 5a d5 37 2a a5 b7 b5
       3.8619066e-05 -8.161066e-05 2.543358e-05 -1.3682632e-06
000010 e5 f1 c7 b6 73 29 5d 37 d4 9e c0 b5 d0 05 66 b6
       -5.9588224e-06 1.3182277e-05 -1.435134e-06 -3.4276054e-06
000020 50 cb 60 38 97 01 f2 b8 7f 26 07 38 2e fb be 36
       5.359511e-05 -0.00011539755 3.222236e-05 5.6916824e-06
000030 5a e3 a3 b6 ee ce 53 37 f0 c9 40 b6 b3 05 6a b6
       -4.8842458e-06 1.262476e-05 -2.8727773e-06 -3.4872035e-06
000040 6f b1 37 b8 e2 7c b5 38 2c 25 67 b8 18 83 15 b6
       -4.3795848e-05 8.654014e-05 -5.510931e-05 -2.2279037e-06
000050 39 c9 4d 37 8a b1 96 b7 4c 12 e8 36 6c 37 5e 36
       1.2265803e-05 -1.7964067e-05 6.916269e-06 3.3112838e-06
000060 03 d4 c1 36 1c 5f fc b6 e4 02 c5 35 fe e5 38 36
       5.7765296e-06 -7.5212574e-06 1.4678485e-06 2.755201e-06
000070 74 ab 2d 37 18 0d fa b6 56 ff 58 b6 b0 5b 8f 36
       1.0351523e-05 -7.452105e-06 -3.2335133e-06 4.272406e-06
000080 62 ce c8 ba e6 07 b2 ba 23 6f 5a 3a 5d 22 01 3b
       -0.0015320296 -0.0013582676 0.00083326007 0.001970432
000090 66 82 2e 3a cb 72 0f 3a 36 b5 18 39 b4 b8 c7 ba
       0.0006657004 0.00054721226 0.00014563356 -0.0015237541
0000a0 56 70 49 3a b8 f2 30 3a 10 cd d0 38 9f 11 e2 ba
       0.0007684281 0.0006750035 9.956409e-05 -0.0017247683
0000b0 b7 5c 31 3a a8 5f b0 39 f9 1d a9 ba 0b 9f 58 3a
       0.000676583 0.00033640605 -0.0012902609 0.00082634453

exp_avg_sq f4 [12, 4]
000000 22 91 a0 33 a2 ac 08 35 1a 19 fd 33 c3 d6 35 32
       7.47698e-08 5.091516e-07 1.17857965e-07 1.0584418e-08
000010 45 c9 cf 30 b4 af b7 31 84 78 e0 30 aa 7c 25 2f
       1.5118437e-09 5.345976e-09 1.6332398e-09 1.5050952e-10
000020 bd e0 98 33 49 9d d7 34 b0 dc d9 33 00 4d 10 32
       7.118931e-08 4.016131e-07 1.0144993e-07 8.399411e-09
000030 3b ea 35 31 a1 c2 7f 32 17 b4 68 31 54 bb d3 2f
       2.6472111e-09 1.4887207e-08 3.3862813e-09 3.851378e-10
000040 08 34 65 34 1c 0d a6 34 46 c4 27 33 34 16 d9 32
       2.1346216e-07 3.0929448e-07 3.9061227e-08 2.5272222e-08
000050 b9 f9 96 31 07 75 cc 31 2b 55 d2 30 f9 f7 65 31
       4.3939647e-09 5.950486e-09 1.5303717e-09 3.3464842e-09
000060 d6 fb 87 31 c5 9c cb 31 20 87 d8 30 d2 91 d6 31
       3.9576475e-09 5.9259e-09 1.5754473e-09 6.2447976e-09
000070 36 33 61 32 46 16 87 32 a9 d3 4b 31 15 50 1a 32
       1.3108368e-08 1.5726197e-08 2.9660703e-09 8.982188e-09
000080 2d db dd 37 c2 a1 c8 36 9e d1 3a 36 c0 f3 b0 37
       2.6447315e-05 5.9792956e-06 2.7838173e-06 2.109434e-05
000090 ea 84 d7 36 ef 3c 96 35 c8 5b b7 34 7c 4d ac 36
       6.4229725e-06 1.1193605e-06 3.4153186e-07 5.13502e-06
0000a0 62 1c 6f 36 da fe 62 35 18 fd b9 34 a8 72 79 36
       3.5630296e-06 8.456242e-07 3.4643085e-07 3.717063e-06
0000b0 0a 69 c2 37 89 8c b4 36 4d 99 4c 36 95 cf b1 37
       2.3175515e-05 5.3807785e-06 3.0487602e-06 2.1196707e-05

exp_avg f4 [12]
000000 61 b6 28 38 3b 45 ee b6 e8 01 75 38 23 76 db b6
       4.0224175e-05 -7.101012e-06 5.8414327e-05 -6.5404615e-06
000010 42 b9 8b ad 13 c1 a8 ac 95 4e e9 ac a6 a4 48 ad
       -1.5884741e-11 -4.7962827e-12 -6.6309827e-12 -1.1405243e-11
000020 eb b7 c0 3a 2f 8c 23 ba 5c 85 14 ba 78 87 62 ba
       0.0014703249 -0.00062388455 -0.0005665624 -0.0008641402

exp_avg_sq f4 [12]
000000 64 17 f4 33 2b 37 c5 30 cf 4f c9 33 e4 08 6c 31
       1.136639e-07 1.4349316e-09 9.374309e-08 3.4347574e-09
000010 52 b4 8b 1d cd a2 ce 1b 1a 26 1a 1c d4 4d 8a 1c
       3.697944e-21 3.418505e-22 5.100357e-22 9.152192e-22
000020 39 ad a2 37 1c 47 b1 36 32 60 65 36 db 91 b0 37
       1.9392568e-05 5.2832893e-06 3.4179652e-06 2.1048754e-05

exp_avg f4 [4, 4]
000000 e7 23 c2 3a 81 ce 0c 3a 82 92 00 3a 3b 6f 18 bb
       0.0014811725 0.00053713477 0.0004904644 -0.0023259658
000010 93 f3 2d 3b e4 0e 0b 3b eb d3 16 3b 96 a9 fc ba
       0.0026542887 0.0021218592 0.0023014497 -0.0019276615
000020 d0 89 72 bb be 96 24 bb f5 f0 27 bb 6e 49 88 3b
       -0.0037008412 -0.0025114263 -0.00256258 0.004159144
000030 b0 87 10 b8 6b aa 77 38 5a 39 2e b8 dc 57 cb b9
       -3.4458644e-05 5.9048103e-05 -4.1538246e-05 -0.00038784638

exp_avg_sq f4 [4, 4]
000000 21 38 7c 38 81 d0 27 37 fd 62 8e 36 8e a6 46 37
       6.0133756e-05 1.0002522e-05 4.2434535e-06 1.1840499e-05
000010 68 8c 83 38 b1 83 34 37 d8 d1 75 37 18 1c ad 37
       6.2727195e-05 1.0759498e-05 1.4651996e-05 2.063629e-05
000020 e3 0e 00 39 ea 84 af 37 51 8b 48 37 c1 d3 e0 37
       0.00012212577 2.0923519e-05 1.1953366e-05 2.6801486e-05
000030 09 0d f2 36 6e 1d bc 35 3c 83 29 35 b8 41 9c 35
       7.2136795e-06 1.4015657e-06 6.314838e-07 1.1642032e-06

exp_avg f4 [4]
000000 20 6a 14 ba 22 80 a7 bb db f6 90 3b ed 38 f3 39
       -0.0005661566 -0.00511171 0.0044239587 0.00046390985

exp_avg_sq f4 [4]
000000 a4 b9 b7 38 44 fb e3 38 57 67 26 39 d8 cc 14 37
       8.760698e-05 0.00010871005 0.00015869491 8.869181e-06

exp_avg f4 [4, 4]
000000 bb d6 97 ba 4e 72 e9 b9 38 bc 32 3b 4c b3 aa b9
       -0.001158438 -0.00044526387 0.0027272832 -0.00032558513
000010 3f 66 2f 39 9c 22 bf 3a 60 22 d6 ba 96 54 42 39
       0.0001672739 0.0014582458 -0.0016337149 0.00018532792
000020 c0 d2 dc 37 ff 07 92 ba 98 2d a0 3a 46 85 60 b9
       2.6324182e-05 -0.0011141299 0.0012220619 -0.00021411953
000030 ec 83 af 38 de 7c cc 39 20 e7 52 b9 ec 02 34 b9
       8.3692226e-05 0.00039002945 -0.00020113261 -0.00017167226

exp_avg_sq f4 [4, 4]
000000 1b 81 f1 36 91 be c6 35 3b 5e 12 38 3c 54 2a 35
       7.1973896e-06 1.4807612e-06 3.489687e-05 6.345251e-07
000010 31 37 bc 35 5c 3b 96 36 d7 f8 d3 36 b9 0c 7d 36
       1.4023154e-06 4.4772587e-06 6.317259e-06 3.7707343e-06
000020 c7 34 83 35 40 27 3e 37 02 ec af 36 f5 62 71 34
       9.775621e-07 1.1334021e-05 5.2428813e-06 2.2480874e-07
000030 6d 25 ca 34 a3 b0 82 36 ce c3 c0 35 4d bb 9f 35
       3.7652663e-07 3.894865e-06 1.4362101e-06 1.1900935e-06

exp_avg f4 [4]
000000 94 e9 ac ba 42 5e b7 ba 0d f7 24 3a 1a ed 43 b9
       -0.001319217 -0.0013989883 0.0006292917 -0.00018684976

exp_avg_sq f4 [4]
000000 e3 3b 0b 37 a1 60 75 36 e6 83 70 36 ee 2c f1 35
       8.298989e-06 3.656409e-06 3.5839562e-06 1.7968975e-06

exp_avg f4 [4, 4]
000000 57 d3 5c 3a 12 52 92 b9 65 d9 b6 ba d3 94 20 b9
       0.0008423826 -0.00027908437 -0.0013950287 -0.0001531423
000010 29 75 8f ba d0 06 b1 b9 13 80 9b 39 48 54 c0 b9
       -0.0010944951 -0.00033765147 0.00029659327 -0.00036683888
000020 46 7a 6b b5 ea 12 0d 3a da 58 4d 3a 0f 30 3c 3a
       -8.7722253e-07 0.00053815416 0.00078333693 0.0007178792
000030 9e 18 25 39 fc 62 8b 38 0a 60 f4 b8 60 4f 1f b8
       0.00015744797 6.646474e-05 -0.00011652715 -3.7982478e-05
