Saved_models/checkpoint_both.pt (torch, 86618 bytes, 198 tensors)

encoder_input_layer.weight f4 [4, 3]
0.07015695 0.3840135 -0.40146828 -0.4988925 -0.2968284 0.08001408 -0.048946407 0.41996348
-0.08874916 0.12289065 -0.20411187 -0.14260545
00000000: 72ae 8f3d 6b9d c43e 408d cdbe d66e ffbe
00000010: e4f9 97be 6cde a33d 077c 48bd 7405 d73e
00000020: 1fc2 b5bd 18ae fb3d b402 51be 2a07 12be

encoder_input_layer.bias f4 [4]
-0.64073336 -0.31391653 -0.20331492 0.06893233
00000000: 1a07 24bf abb9 a0be c931 50be 652c 8d3d

decoder_input_layer.weight f4 [4, 1]
0.58811545 0.5064077 -0.8384857 -0.27924806
00000000: bc8e 163f efa3 013f 00a7 56bf 9af9 8ebe

decoder_input_layer.bias f4 [4]
0.08324885 1.0012138 -0.0477266 0.58293945
00000000: 607e aa3d c627 803f f87c 43bd 853b 153f

positional_encoding_layer_enc.pe f4 [1, 7, 4]
0.0 1.0 0.0 1.0 0.84147096 0.54030234 0.009999833 0.99995
0.9092974 -0.41614684 0.019998666 0.9998 0.14112 -0.9899925 0.0299955 0.99955004
-0.7568025 -0.6536436 0.039989334 0.9992001 -0.9589243 0.2836622 0.049979165 0.99875027
-0.2794155 0.96017027 0.059964005 0.99820054
00000000: 0000 0000 0000 803f 0000 0000 0000 803f
00000010: a46a 573f 4151 0a3f 57d6 233c b9fc 7f3f
00000020: b7c7 683f 3311 d5be 3ed4 a33c e5f2 7f3f
00000030: c381 103e 2670 7dbf 1fb9 f53c 83e2 7f3f
00000040: cfbd 41bf 3055 27bf dbcb 233d 94cb 7f3f
00000050: 107c 75bf 2c3c 913e f4b6 4c3d 19ae 7f3f
00000060: 8c0f 8fbe b8cd 753f d19c 753d 128a 7f3f

positional_encoding_layer_dec.pe f4 [1, 3, 4]
0.0 1.0 0.0 1.0 0.84147096 0.54030234 0.009999833 0.99995
0.9092974 -0.41614684 0.019998666 0.9998
00000000: 0000 0000 0000 803f 0000 0000 0000 803f
00000010: a46a 573f 4151 0a3f 57d6 233c b9fc 7f3f
00000020: b7c7 683f 3311 d5be 3ed4 a33c e5f2 7f3f

encoder.layers.0.self_attn.in_proj_weight f4 [12, 4]
-0.37425902 -0.22022383 0.27403772 0.43069753 -0.3015626 -0.02021342 0.3795948 0.6602178
0.2844423 0.13954328 0.39105204 -0.38165104 0.24235696 -0.3056463 -0.5706691 -0.20660333
0.3284969 0.11287688 -0.32383558 0.09869037 0.39821932 -0.10125689 0.107109904 0.10425474
0.36054638 0.59064555 -0.51007015 -0.28428704 0.20619266 0.48362386 0.46287772 0.561023
0.14266571 -0.61397845 0.14071207 -0.40199268 -0.6212255 0.6197129 0.4037854 -0.5376565
0.15759362 -0.18168983 -0.014196497 -0.3063695 0.03954959 -0.25301018 0.093723685 0.47315308
00000000: e19e bfbe 5b82 61be ac4e 8c3e 6384 dc3e
00000010: 6a66 9abe 9d96 a5bc 405a c23e 0904 293f
00000020: 6ca2 913e 6fe4 0e3e f937 c83e c467 c3be
00000030: 6c2c 783e ac7d 9cbe 5f17 12bf d38f 53be
00000040: bf30 a83e fe2b e73d c7cd a5be 2d1e ca3d
00000050: 67e3 cb3e c65f cfbd 705c db3d 8283 d53d
00000060: 8999 b83e 8c34 173f f593 02bf 128e 91be
00000070: 2b24 533e 8c9d f73e 4ffe ec3e 349f 0f3f
00000080: f616 123e b12d 1dbf d316 103e fcd1 cdbe
00000090: a208 1fbf 81a5 1e3f f6bc ce3e dba3 09bf
000000a0: 3960 213e e60c 3abe 6d98 68bc 77dc 9cbe
000000b0: c0fe 213d 8d8a 81be 34f2 bf3d 1f41 f23e

encoder.layers.0.self_attn.in_proj_bias f4 [12]
0.09816449 0.014074321 -0.0016080725 0.1265413 0.00052408886 7.960669e-05 0.0007151108 -0.0006167719
-0.048006766 0.09004519 -0.041533235 0.16856986
00000000: 770a c93d fb97 663c f6c5 d2ba 0b94 013e
00000010: 0263 093a 84f2 a638 4676 3b3a ddae 21ba
00000020: bea2 44bd 9d69 b83d c11e 2abd 949d 2c3e

encoder.layers.0.self_attn.out_proj.weight f4 [4, 4]
0.03632387 0.18149854 0.5627948 -0.44984582 -0.38026404 -0.13357215 -0.25768235 0.46282268
-0.33589223 -0.20362744 -0.34979013 -0.5507109 -0.3465747 0.33810964 0.16659428 0.21414143
00000000: 57c8 143d c1da 393e 5213 103f 3152 e6be
00000010: f8b1 c2be 23c7 08be f1ee 83be 18f7 ec3e
00000020: 11fa abbe b683 50be b117 b3be 64fb 0cbf
00000030: 3d72 b1be b51c ad3e b197 2a3e e447 5b3e

encoder.layers.0.self_attn.out_proj.bias f4 [4]
-0.1349921 0.058741283 0.006628195 0.07451978
00000000: 5e3b 0abe b39a 703d 5431 d93b d49d 983d

encoder.layers.0.linear1.weight f4 [4, 4]
0.41555768 0.110059835 -0.45540667 -0.3057296 0.3721265 -0.036155157 -0.25540942 -0.33241996
0.5753781 0.23594214 -0.12891404 -0.15892005 -0.41340277 -0.053232078 -0.3960115 -0.41215047
00000000: fac3 d43e 0d67 e13d 102b e9be 9788 9cbe
00000010: 5d87 be3e 6e17 14bd 06c5 82be f332 aabe
00000020: fb4b 133f d19a 713e 0b02 04be f0bb 22be
00000030: 87a9 d3be e109 5abd 05c2 cabe 6305 d3be

encoder.layers.0.linear1.bias f4 [4]
-0.08684662 -0.06474939 -0.30105194 0.24195991
00000000: a4dc b1bd 549b 84bd 7b23 9abe 57c4 773e

encoder.layers.0.linear2.weight f4 [4, 4]
-0.42681432 0.38474342 0.2793006 -0.540402 -0.18325421 -0.0112327505 0.06500748 0.1431728
0.22300974 0.056120094 -0.26234597 0.21104993 -0.35487735 -0.2032282 -0.04312918 -0.1614375
00000000: 6887 dabe 17fd c43e 7d00 8f3e c957 0abf
00000010: fea6 3bbe 9209 38bc a422 853d e49b 123e
00000020: aa5c 643e 2fde 653d 3652 86be 791d 583e
00000030: 7cb2 b5be 0e1b 50be 39a8 30bd df4f 25be

encoder.layers.0.linear2.bias f4 [4]
-0.31187943 -0.3213031 -0.14589278 0.16839488
00000000: a9ae 9fbe d781 a4be eb64 15be b56f 2c3e

encoder.layers.0.norm1.weight f4 [4]
1.1036165 1.0371982 0.9607706 0.9736929
00000000: 4e43 8d3f e9c2 843f 10f5 753f f043 793f

encoder.layers.0.norm1.bias f4 [4]
-0.15706313 0.084177405 -0.020450644 0.05244038
00000000: 28d5 20be 3465 ac3d 1c88 a7bc b9cb 563d

encoder.layers.0.norm2.weight f4 [4]
1.037232 1.0398756 0.9129294 0.99784404
00000000: 05c4 843f a51a 853f beb5 693f b572 7f3f

encoder.layers.0.norm2.bias f4 [4]
-0.09008751 0.116992205 -0.0025830034 0.095700786
00000000: cd7f b8bd 9c99 ef3d 9b47 29bb c6fe c33d

encoder.layers.1.self_attn.in_proj_weight f4 [12, 4]
-0.49271908 -0.3532202 0.3959099 0.46167707 -0.34116086 -0.048274916 0.42301673 0.7255173
0.30975634 0.09402275 0.32235628 -0.43578765 0.028789151 -0.3338056 -0.47342357 -0.3087977
0.44682464 0.12839621 -0.49948692 0.2878677 0.4819761 -0.18273497 -0.085449666 0.23733503
0.27514294 0.66477543 -0.39770722 -0.29943952 0.19384009 0.54125017 0.5440752 0.5088315
0.25097474 -0.6479554 0.16936392 -0.5070513 -0.48537973 0.53653526 0.42021182 -0.7222552
0.22828302 -0.14992602 -0.09326978 -0.40994063 -0.039452087 -0.1556437 0.21653253 0.602397
00000000: ad45 fcbe 47d9 b4be b4b4 ca3e f060 ec3e
00000010: a3ac aebe ebbb 45bd a695 d83e 80bb 393f
00000020: 6298 9e3e 008f c03d e20b a53e 8f1f dfbe
00000030: 3ad7 eb3c 91e8 aabe 9364 f2be bb1a 9ebe
00000040: 33c6 e43e 4c7a 033e c0bc ffbe 6563 933e
00000050: 92c5 f63e e01e 3bbe 3c00 afbd f407 733e
00000060: 89df 8c3e b92e 2a3f 48a0 cbbe 2350 99be
00000070: 047e 463e 5f8f 0a3f 8348 0b3f c842 023f
00000080: c37f 803e 68e0 25bf bc6d 2d3e 1dce 01bf
00000090: b183 f8be 605a 093f 0126 d73e b7e5 38bf
000000a0: 06c3 693e 3586 19be 3a04 bfbd bde3 d1be
000000b0: 8398 21bd 1061 1fbe b4ba 5d3e b136 1a3f

encoder.layers.1.self_attn.in_proj_bias f4 [12]
0.034814212 0.059813537 -0.05681011 0.08806626 0.00012646726 0.00017061846 0.000105617146 -0.00014682894
-0.12688696 -0.07355085 -0.10190067 0.26791894
00000000: 5999 0e3d 0aff 743d b8b1 68bd 155c b43d
00000010: 4c9c 0439 0be8 3239 c67e dd38 18f6 19b9
00000020: a8ee 01be d4a1 96bd 4cb1 d0bd ac2c 893e

encoder.layers.1.self_attn.out_proj.weight f4 [4, 4]
0.16789594 -0.13871823 0.70539105 -0.53607756 -0.44743198 -0.052829303 -0.33026004 0.5709972
-0.2544684 -0.3063442 -0.26434547 -0.5208026 -0.25446853 0.44224566 0.26366675 0.10885459
00000000: eaec 2b3e 270c 0ebe 8294 343f 613c 09bf
00000010: ce15 e5be 8a63 58bd d817 a9be df2c 123f
00000020: af49 82be 26d9 9cbe 4a58 87be 5253 05bf
00000030: b349 82be 066e e23e 54ff 863e 28ef de3d

encoder.layers.1.self_attn.out_proj.bias f4 [4]
-0.24537833 0.139654 -0.075835325 -0.049267624
00000000: 7544 7bbe 7501 0f3e 8d4f 9bbd d9cc 49bd

encoder.layers.1.linear1.weight f4 [4, 4]
0.38056442 0.15258953 -0.47985253 -0.30092758 0.316976 0.051053997 -0.3566291 -0.274457
0.49498406 0.32707933 -0.22462761 -0.09214247 -0.5706801 0.044495773 -0.4747907 -0.21787144
00000000: 57d9 c23e 6e40 1c3e 3baf f5be 2e13 9abe
00000010: ae4a a23e ff1d 513d 1798 b6be a185 8cbe
00000020: 8d6e fd3e f176 a73e c804 66be 31b5 bcbd
00000030: 1718 12bf 3341 363d c417 f3be b119 5fbe

encoder.layers.1.linear1.bias f4 [4]
-0.060605925 0.02288841 -0.20861644 0.40000638
00000000: eb3d 78bd 7a80 bb3c 8c9f 55be a3cd cc3e

encoder.layers.1.linear2.weight f4 [4, 4]
-0.34627157 0.43297622 0.3282154 -0.7000987 -0.14257471 0.03317551 0.09226663 0.23831044
0.13504434 -0.04413639 -0.28146076 0.11584844 -0.43822497 -0.29058367 -0.10971745 -0.2541673
00000000: 824a b1be 0faf dd3e d90b a83e ab39 33bf
00000010: 1bff 11be 0be3 073d 49f6 bc3d a707 743e
00000020: 1049 0a3e 5cc8 34bd a01b 90be f241 ed3d
00000030: 065f e0be 62c7 94be 8bb3 e0bd 3722 82be

encoder.layers.1.linear2.bias f4 [4]
-0.5193897 -0.27134567 -0.24030013 0.06998169
00000000: b9f6 04bf d2ed 8abe 3d11 76be 8f52 8f3d

encoder.layers.1.norm1.weight f4 [4]
1.3434353 1.0666016 0.88724947 0.8639393
00000000: b0f5 ab3f 6786 883f c822 633f 202b 5d3f

encoder.layers.1.norm1.bias f4 [4]
-0.3407725 0.120554715 -0.15089175 -0.03590894
00000000: bc79 aebe 64e5 f63d 5e83 1abe 4115 13bd

encoder.layers.1.norm2.weight f4 [4]
1.0609014 0.8947222 0.98307437 0.8798604
00000000: 9ecb 873f 840c 653f c3aa 7b3f 883e 613f

encoder.layers.1.norm2.bias f4 [4]
-0.058195174 -0.06673361 -0.09022983 -0.030139927
00000000: 105e 6ebd a2ab 88bd 6bca b8bd 02e8 f6bc

decoder.layers.0.self_attn.in_proj_weight f4 [12, 4]
0.0133251175 0.29844165 0.3485216 -0.54829675 0.27417755 -0.44770223 -0.118599124 -0.28090304
-0.020650985 -0.004081666 -0.75514513 -0.6578692 0.069783404 0.100151464 -0.32861948 0.22829308
-0.4478005 -0.1431828 0.5157086 -0.30826116 0.64529496 0.09363771 -0.5681829 0.29297802
0.05147692 -0.42475086 0.4734166 -0.6171358 0.021684846 -0.095719814 0.4584085 0.09378196
0.21858814 0.51462984 -0.032619517 0.041202534 -0.6101006 0.5078981 0.590435 0.56309336
-0.52811635 -0.15414736 -0.4201315 -0.3427601 -0.32444668 0.374965 -0.32314095 0.045937262
00000000: 9851 5a3c 58cd 983e 6c71 b23e 2d5d 0cbf
00000010: 0061 8c3e 3a39 e5be 19e4 f2bd 86d2 8fbe
00000020: 412c a9bc 7fbf 85bb 3151 41bf 1e6a 28bf
00000030: 9aea 8e3d 361c cd3d d040 a8be a9c5 693e
00000040: 1b46 e5be 839e 12be 7b05 043f 68d4 9dbe
00000050: 0d32 253f 21c5 bf3d 6f74 11bf 3701 963e
00000060: 76d9 523d f278 d9be a963 f23e 9dfc 1dbf
00000070: 6ba4 b13c c008 c4bd 85b4 ea3e c210 c03d
00000080: 92d5 5f3e c8be 033f 0b9c 05bd fdc3 283d
00000090: 8e2f 1cbf 9c05 023f c026 173f e326 103f
000000a0: a232 07bf ced8 1dbe 7a1b d7be 407e afbe
000000b0: e01d a6be 6afb bf3e bb72 a5be b628 3c3d

decoder.layers.0.self_attn.in_proj_bias f4 [12]
0.033451416 -0.0151536735 -0.11782636 0.009948683 0.0030478206 0.002921875 0.0063152662 -0.0009735941
0.18494533 0.14134996 -0.031779137 0.08562493
00000000: 5a04 093d 1d47 78bc f24e f1bd cdff 223c
00000010: f2bd 473b ee7c 3f3b 4bf0 ce3b cb38 7fba
00000020: 4f62 3d3e 0bbe 103e d72a 02bd 205c af3d

decoder.layers.0.self_attn.out_proj.weight f4 [4, 4]
-0.5031276 -0.16614997 0.53141433 0.15338647 0.15120898 0.036186468 -0.0016736998 0.14279374
0.32067484 0.47161272 0.31725332 -0.0055792816 -0.23546804 -0.34928447 0.44171843 0.01669017
00000000: f8cc 00bf 3823 2abe c50a 083f 5811 1d3e
00000010: 87d6 1a3e 4338 143d 0c60 dbba 8638 123e
00000020: 7e2f a43e 3977 f13e 076f a23e 68d2 b6bb
00000030: 891e 71be 6ad5 b2be eb28 e23e d3b9 883c

decoder.layers.0.self_attn.out_proj.bias f4 [4]
-0.2198211 0.13536021 0.14874442 -0.12951747
00000000: c818 61be de9b 0a3e 7550 183e 3aa0 04be

decoder.layers.0.multihead_attn.in_proj_weight f4 [12, 4]
-0.025627801 0.6370818 0.20306188 -0.009843692 -0.57760966 0.20528167 -0.38128552 -0.10266592
-0.112960346 0.028837495 -0.08804317 0.39839372 0.050643627 0.5027656 0.407109 -0.3549869
0.29945132 -0.4408981 -0.2546242 0.1457442 0.24367872 0.43009478 -0.16707496 -0.043642033
0.31329185 -0.5370559 0.3893837 -0.45687428 0.038550798 -0.11857645 -0.338998 0.05630036
0.53336036 -0.18637614 -0.4246079 -0.27036598 -0.6271793 0.2476416 -0.26404393 -0.29409394
-0.56930006 0.58321965 0.46925753 0.60309833 0.1285924 -0.1002355 -0.104749285 0.21945362
00000000: 65f1 d1bc cb17 233f 74ef 4f3e 7047 21bc
00000010: 3ade 13bf 5c35 523e db37 c3be 8342 d2bd
00000020: c157 e7bd 9c3c ec3c fa4f b4bd 43fa cb3e
00000030: b16f 4f3d 3fb5 003f 9770 d03e d8c0 b5be
00000040: af51 993e 65bd e1be 1a5e 82be f83d 153e
00000050: ea86 793e 6235 dc3e b315 2bbe fdc1 32bd
00000060: ca67 a03e 7f7c 09bf 4d5d c73e 6deb e9be
00000070: 71e7 1d3d 36d8 f2bd 2591 adbe 359b 663d
00000080: 4e8a 083f 63d9 3ebe 3566 d9be 696d 8abe
00000090: d38e 20bf c295 7d3e c430 87be 7b93 96be
000000a0: a6bd 11bf e24d 153f 8642 f03e a764 1a3f
000000b0: baad 033e 4548 cdbd cb86 d6bd 73b8 603e

decoder.layers.0.multihead_attn.in_proj_bias f4 [12]
-0.006504155 0.04568667 -0.11029038 0.04572567 -0.0002744765 -0.0006270415 -0.00038840203 0.0007976144
-0.030055704 0.025593352 0.20717399 0.09704331
00000000: cf20 d5bb f221 3b3d ecdf e1bd d74a 3b3d
00000010: 9de7 8fb9 0b60 24ba 70a2 cbb9 ff16 513a
00000020: 6137 f6bc 26a9 d13c 6b25 543e a5be c63d

decoder.layers.0.multihead_attn.out_proj.weight f4 [4, 4]
0.22316141 0.10863828 -0.5780559 -0.08736615 -0.35039058 0.39575076 -0.09668071 0.2938313
-0.0019180479 0.21563831 0.17138986 -0.15960474 0.15431659 -0.1632164 -0.11962229 0.115880035
00000000: 6d84 643e bf7d de3d 79fb 13bf 06ed b2bd
00000010: 6566 b3be d89f ca3e 8900 c6bd 0e71 963e
00000020: 0267 fbba 4ad0 5c3e d380 2f3e 6d6f 23be
00000030: 2b05 1e3e 3322 27be 88fc f4bd 8352 ed3d

decoder.layers.0.multihead_attn.out_proj.bias f4 [4]
-0.18693675 0.07375408 0.18718056 -0.118005306
00000000: 596c 3fbe 610c 973d 43ac 3f3e c4ac f1bd

decoder.layers.0.linear1.weight f4 [4, 4]
0.432272 0.117546484 -0.23096013 -0.23700258 -0.20816036 -0.081706196 -0.4817403 -0.4795639
0.39782578 -0.36036327 -0.022615068 0.17878892 0.07515261 -0.2900011 -0.4749061 0.34263152
00000000: c152 dd3e 36bc f03d d080 6cbe ceb0 72be
00000010: fd27 55be 9455 a7bd aaa6 f6be 6689 f5be
00000020: d2af cb3e 8981 b8be 3c43 b9bc 7114 373e
00000030: 9de9 993d 067b 94be e426 f3be 666d af3e

decoder.layers.0.linear1.bias f4 [4]
0.0847738 0.17296427 -0.12870376 0.09123214
00000000: e39d ad3d 8c1d 313e ebca 03be ebd7 ba3d

decoder.layers.0.linear2.weight f4 [4, 4]
-0.112778895 -0.13543428 -0.33923614 0.124418296 0.17833002 -0.013837049 -0.09824411 -0.27758068
0.34246236 -0.1372514 0.23106012 -0.11901601 -0.23066458 -0.032170385 -0.28144613 0.06985329
00000000: 9ff8 e6bd 49af 0abe 5cb0 adbe 05cf fe3d
00000010: 259c 363e cab4 62bc 3534 c9bd 0e1f 8ebe
00000020: 3a57 af3e a28b 0cbe 069b 6c3e aabe f3bd
00000030: 5633 6cbe 18c5 03bd b519 90be 3e0f 8f3d

decoder.layers.0.linear2.bias f4 [4]
-0.09212964 -0.26264074 0.3218403 0.055643328
00000000: 77ae bcbd d978 86be 40c8 a43e 42ea 633d

decoder.layers.0.norm1.weight f4 [4]
1.1839728 0.83124435 1.1698056 0.74622315
00000000: 6c8c 973f 6ecc 543f 31bc 953f 7b08 3f3f

decoder.layers.0.norm1.bias f4 [4]
-0.19974253 0.08601312 0.20393805 -0.14079158
00000000: 4e89 4cbe a627 b03d 23d5 503e ab2b 10be

decoder.layers.0.norm2.weight f4 [4]
1.154453 0.8235369 1.2120624 0.6498172
00000000: 1ec5 933f 50d3 523f dc24 9b3f 6c5a 263f

decoder.layers.0.norm2.bias f4 [4]
-0.17615004 0.10018094 0.25126368 -0.12813435
00000000: ad60 34be aa2b cd3d a2a5 803e a735 03be

decoder.layers.0.norm3.weight f4 [4]
1.1022584 0.644367 1.245385 0.5594629
00000000: ce16 8d3f 3cf5 243f c768 9f3f f638 0f3f

decoder.layers.0.norm3.bias f4 [4]
-0.12411403 0.12983872 0.27944556 -0.14751257
00000000: 7f2f febd 71f4 043e 7d13 8f3e 890d 17be

decoder.layers.1.self_attn.in_proj_weight f4 [12, 4]
-0.012991267 0.17400338 0.18781467 -0.4493444 0.25990224 -0.3265976 0.032026827 -0.33665997
0.011922553 -0.16125283 -0.6681068 -0.5798046 0.046908975 0.003615336 -0.388439 0.14572997
-0.52408516 -0.109692656 0.4125481 -0.123938754 0.6507562 0.18022746 -0.44730416 0.32073092
0.028055025 -0.3112214 0.5874716 -0.5707905 0.09227501 -0.09685236 0.55684394 0.03349328
-0.06209148 0.4387271 0.18428934 -0.14373845 -0.7316464 0.33058995 0.66904235 0.6163482
-0.42655277 0.18502474 -0.4943401 -0.3057841 -0.43190187 -0.013630973 -0.29330012 0.1770815
00000000: 53d9 54bc f12d 323e 7d52 403e 7810 e6be
00000010: e811 853e cd37 a7be 902e 033d b25e acbe
00000020: d056 433c 761f 25be 0c09 2bbf 136e 14bf
00000030: a023 403d 46ef 6c3b 7ae1 c6be 3d3a 153e
00000040: 722a 06bf 8ba6 e0bd 8139 d33e 9ad3 fdbd
00000050: f597 263f 8c8d 383e 0d05 e5be d836 a43e
00000060: a7d3 e53c 6958 9fbe 8a64 163f 541f 12bf
00000070: aefa bc3d 885a c6bd 538d 0e3f 4030 093d
00000080: a353 7ebd d7a0 e03e 58b6 3c3e 2c30 13be
00000090: 2e4d 3bbf 1643 a93e 5c46 2b3f ffc8 1d3f
000000a0: 2065 dabe 2077 3d3e 251a fdbe bc8f 9cbe
000000b0: 3e22 ddbe 7254 5fbc 6f2b 96be da54 353e

decoder.layers.1.self_attn.in_proj_bias f4 [12]
-0.114130095 0.11749736 -0.108025536 -0.11644358 0.0006726271 -0.0010180856 -0.00048122 -0.00013234999
0.33817112 0.1993316 -0.024166428 0.06628113
00000000: 0abd e9bd 75a2 f03d 7e3c ddbd f979 eebd
00000010: 3e53 303a 4971 85ba 414c fcb9 6ec7 0ab9
00000020: c424 ad3e 951d 4c3e acf8 c5bc 67be 873d

decoder.layers.1.self_attn.out_proj.weight f4 [4, 4]
-0.3624453 -0.10632227 0.4850744 -0.067762345 0.0017861626 0.07031529 -0.07521959 0.14793898
0.44598147 0.5055661 0.530412 0.30007014 -0.3160106 -0.44006902 0.29271612 -0.08034595
00000000: 6e92 b9be 7ebf d9bd ac5b f83e fcc6 8abd
00000010: ac1d ea3a 7601 903d ba0c 9abd 517d 173e
00000020: af57 e43e c86c 013f 15c9 073f cba2 993e
00000030: 24cc a1be ba50 e1be e3de 953e 6b8c a4bd

decoder.layers.1.self_attn.out_proj.bias f4 [4]
-0.08532018 0.103578694 0.19952813 -0.18918966
00000000: 59bc aebd 1121 d43d 1a51 4c3e efba 41be

decoder.layers.1.multihead_attn.in_proj_weight f4 [12, 4]
0.026210416 0.5960955 0.17836805 -0.04421051 -0.46192718 0.21409145 -0.53024316 -0.044064492
-0.24519005 0.010607867 0.028234815 0.47354713 0.17343764 0.49222133 0.30794656 -0.41074264
0.1413408 -0.4987251 -0.18722148 0.15728213 0.2744041 0.49441856 -0.25147375 -0.050438017
0.39348173 -0.49624914 0.45207182 -0.56069154 -0.12820032 -0.19845499 -0.27326685 0.10328147
0.5514166 -0.1959613 -0.4241576 -0.3067481 -0.6811646 0.30214846 -0.263943 -0.24152946
-0.40834925 0.44883046 0.3607859 0.42267525 0.14289647 -0.097212866 -0.15286519 0.19487432
00000000: 3ab7 d63c b799 183f 1da6 363e 1416 35bd
00000010: b881 ecbe ca3a 5b3e 04be 07bf f87c 34bd
00000020: 1a13 7bbe 9ecc 2d3c b34c e73c c574 f23e
00000030: a399 313e 6f04 fc3e 2cab 9d3e dc4c d2be
00000040: a5bb 103e e558 ffbe fdb6 3fbe 910e 213e
00000050: b27e 8c3e 6e24 fd3e 2bc1 80be 1898 4ebd
00000060: 7076 c93e 5e14 febe f575 e73e 7b89 0fbf
00000070: f246 03be c937 4bbe a2e9 8bbe 3c85 d33d
00000080: a329 0d3f 14aa 48be 2f2b d9be 160e 9dbe
00000090: ce60 2ebf 34b3 9a3e 8923 87be 8053 77be
000000a0: 2713 d1be 1bcd e53e eeb8 b83e e468 d83e
000000b0: 7453 123e 8a17 c7bd b188 1cbe 228d 473e

decoder.layers.1.multihead_attn.in_proj_bias f4 [12]
-0.043548252 -0.08922957 0.02151766 -0.06741899 0.0002713455 0.0008580422 0.0010757297 -0.0006977085
-0.04954755 0.08037612 0.049464393 0.08630597
00000000: a75f 32bd febd b6bd ce45 b03c f812 8abd
00000010: 6043 8e39 3dee 603a 80ff 8c3a 6de6 36ba
00000020: 5ff2 4abd 3c9c a43d 2d9b 4a3d 2fc1 b03d

decoder.layers.1.multihead_attn.out_proj.weight f4 [4, 4]
0.09136309 0.22231716 -0.42608815 -0.22361302 -0.36987957 0.4153456 -0.0739484 0.31331694
-0.054181084 0.30344686 0.20292196 -0.2862479 0.23239158 -0.23729733 -0.20440291 0.18078661
00000000: 921c bb3d 1ca7 633e 3a28 dabe d0fa 64be
00000010: db60 bdbe 2ea8 d43e 4272 97bd 146b a03e
00000020: fcec 5dbd 635d 9b3e c6ca 4f3e 168f 92be
00000030: 0ff8 6d3e 12fe 72be ff4e 51be 2020 393e

decoder.layers.1.multihead_attn.out_proj.bias f4 [4]
-0.060419645 0.10680875 0.21980137 -0.17382486
00000000: 977a 77bd 8cbe da3d 9c13 613e 25ff 31be

decoder.layers.1.linear1.weight f4 [4, 4]
0.06587752 0.44208962 0.13350163 -0.56856 -0.23009795 -0.10103588 -0.5065515 -0.29881966
0.41667584 -0.34487066 -0.03373949 0.16277997 0.057190083 -0.31272784 -0.43641618 0.3643541
00000000: cbea 863d 9259 e23e a7b4 083e 268d 11bf
00000010: cc9e 6bbe e6eb cebd 5cad 01bf e4fe 98be
00000020: 8956 d53e e392 b0be 6b32 0abd cbaf 263e
00000030: 2640 6a3d dd1d a0be f171 dfbe 9f8c ba3e

decoder.layers.1.linear1.bias f4 [4]
0.4429717 0.17010342 -0.14684713 0.11170851
00000000: 30cd e23e 972f 2e3e 185f 16be 6ec7 e43d

decoder.layers.1.linear2.weight f4 [4, 4]
-0.26209137 -0.071895115 -0.32172984 0.14394994 0.12736835 -0.008733619 -0.10951328 -0.2838384
0.6754859 -0.12616055 0.2202602 -0.14529206 -0.15361363 -0.0028228685 -0.27686226 0.088531926
00000000: d730 86be bf3d 93bd c6b9 a4be 9d67 133e
00000010: d96c 023e 7417 0fbc 8048 e0bd 4453 91be
00000020: a5ec 2c3f 3b30 01be e48b 613e 71c7 14be
00000030: e44c 1dbe e0ff 38bb e4c0 8dbe 3a50 b53d

decoder.layers.1.linear2.bias f4 [4]
-0.005427939 -0.1941364 0.40667582 0.020146908
00000000: dadc b1bb b1cb 46be d037 d03e 210b a53c

decoder.layers.1.norm1.weight f4 [4]
1.0156106 0.7236264 1.2224438 0.96294147
00000000: 87ff 813f 943f 393f 0a79 9c3f 5583 763f

decoder.layers.1.norm1.bias f4 [4]
-0.05260314 0.15088975 0.24451411 -0.19339924
00000000: 6476 57bd d882 1a3e e861 7a3e 730a 46be

decoder.layers.1.norm2.weight f4 [4]
1.0045153 0.87322515 1.2987726 1.0170785
00000000: f593 803f af8b 5f3f 2e3e a63f a12f 823f

decoder.layers.1.norm2.bias f4 [4]
-0.07698115 0.16774365 0.31749845 -0.18809898
00000000: 4ba8 9dbd fec4 2b3e 288f a23e 059d 40be

decoder.layers.1.norm3.weight f4 [4]
1.0551283 0.7372498 1.1036513 0.9567311
00000000: 720e 873f 67bc 3c3f 7244 8d3f 54ec 743f

decoder.layers.1.norm3.bias f4 [4]
-0.08286186 0.07339787 0.10218225 -0.07783936
00000000: 7bb3 a9bd 9f51 963d ed44 d13d 3e6a 9fbd

linear_mapping.weight f4 [1, 4]
0.1979155 -0.062939346 -0.4098938 -0.07707703
00000000: 5caa 4a3e 58e6 80bd 9add d1be 90da 9dbd

linear_mapping_with_gender_ind.weight f4 [1, 5]
-0.25026298 -0.055201855 0.41592294 -0.22468044 -0.015019853
00000000: 7822 80be 571b 62bd daf3 d43e a112 66be
00000010: d415 76bc

exp_avg f4 [4, 3]
-8.96129e-06 -9.022083e-06 -9.042962e-06 9.650422e-08 9.710119e-08 9.675445e-08 7.958871e-06 8.018836e-06
8.036197e-06 4.873073e-06 4.867937e-06 4.881493e-06
00000000: 7358 16b7 8d5d 17b7 3ab7 17b7 c23d cf33
00000010: f285 d033 52c7 cf33 1787 0537 a388 0637
00000020: 34d3 0637 6183 a336 4357 a336 b5cb a336

exp_avg_sq f4 [4, 3]
1.484502e-10 1.491374e-10 1.4968926e-10 4.861087e-11 4.8652266e-11 4.8857845e-11 9.594432e-11 9.656006e-11
9.688162e-11 1.4126977e-10 1.4137361e-10 1.4191051e-10
00000000: 0439 232f 72fa 232f c895 242f f9ca 552e
00000010: 95f9 552e 0be1 562e dafb d22e 7b56 d42e
00000020: 810b d52e e853 1b2f 2271 1b2f 4208 1c2f

exp_avg f4 [4]
3.0828166e-06 -5.5616184e-08 -2.7262704e-06 -1.6235351e-06
00000000: 63e2 4e36 a4de 6eb3 f8f4 36b6 3ee8 d9b5

exp_avg_sq f4 [4]
2.1800067e-11 7.558045e-12 1.3882117e-11 2.1420693e-11
00000000: 63c1 bf2d 69f6 042d 7f37 742d 1d6b bc2d

exp_avg f4 [4, 1]
3.7921436e-06 7.6422046e-05 2.028706e-05 -2.4040723e-05
00000000: 887c 7e36 c644 a038 212e aa37 0fab c9b7

exp_avg_sq f4 [4, 1]
8.5203133e-10 1.3891927e-08 1.6631011e-09 1.8446359e-09
00000000: 6034 6a30 57a9 6e32 2b93 e430 5b86 fd30

exp_avg f4 [4]
-1.2166832e-06 -2.7309434e-05 -7.063732e-06 8.51989e-06
00000000: eb4c a3b5 9016 e5b7 ff04 edb6 a6f0 0e37

exp_avg_sq f4 [4]
1.3404183e-10 2.191056e-09 2.6605912e-10 3.0002847e-10
00000000: 6c61 132f 7791 1631 7e44 922f 41f1 a42f

exp_avg f4 [12, 4]
4.27481e-09 -1.0123783e-07 3.8357722e-08 -5.6322286e-08 -1.2603793e-08 -3.2867788e-09 -2.4000808e-08 2.5721079e-08
3.7910358e-08 -2.1773428e-07 1.1011197e-07 -2.0258008e-07 3.476711e-08 -2.2395628e-07 1.2235553e-07 -1.481299e-07
1.1955338e-08 -4.4983814e-08 -7.613975e-09 4.210173e-08 -1.3616603e-08 -1.4341957e-07 1.0208396e-08 1.8635546e-08
-1.358131e-08 1.7380566e-07 -2.136247e-08 2.2858563e-08 3.8464325e-08 4.8308642e-08 -4.9335696e-09 -9.969592e-11
-7.736936e-07 1.5769629e-06 -1.2094711e-06 2.0427108e-06 -8.3747517e-07 1.6237695e-06 -1.2126329e-06 2.0324117e-06
-1.8384046e-06 3.6906456e-06 -2.81728e-06 4.734987e-06 -6.607328e-07 1.4834003e-06 -1.0477073e-06 1.6469273e-06
00000000: a0e1 9231 1668 d9b3 c3be 2433 02e7 71b3
00000010: 1188 58b2 a0dd 61b1 562a ceb2 40f1 dc32
00000020: e1d2 2233 58ca 69b4 b276 ec33 ca84 59b4
00000030: d752 1533 a278 70b4 d560 0334 a30d 1fb4
00000040: 2264 4d32 3a34 41b3 9ece 02b2 57d3 3433
00000050: 74ee 69b2 dffe 19b4 0061 2f32 0014 a032
00000060: 3c53 69b2 569f 3a34 9180 b7b2 835a c432
00000070: f933 2533 ea7b 4f33 2384 a9b1 d03b dbae
00000080: d2af 4fb5 08a8 d335 1c55 a2b5 8115 0936
00000090: dbce 60b5 4cf0 d935 c0c1 a2b5 9164 0836
000000a0: 1abf f6b5 cfac 7736 8010 3db6 3be1 9e36
000000b0: 365d 31b5 3f19 c735 f39e 8cb5 fe0b dd35

exp_avg_sq f4 [12, 4]
4.9254504e-15 6.14395e-14 1.0077115e-14 3.6373285e-14 9.3835276e-15 2.2025243e-13 3.8645465e-14 1.1644002e-13
2.0544686e-14 4.4434327e-13 1.221287e-13 3.1872947e-13 2.5477116e-14 4.1914375e-13 9.5498574e-14 3.363619e-13
2.5158529e-14 6.594856e-14 2.6698963e-15 3.2207964e-14 7.697171e-14 2.77051e-13 1.0061411e-14 7.078114e-14
7.7956745e-14 2.9327216e-13 1.0170061e-14 6.940152e-14 6.840245e-14 1.5609248e-13 3.7418633e-15 4.4928586e-14
1.4563989e-12 4.1834435e-12 2.3462068e-12 8.642962e-12 1.6239676e-12 4.601074e-12 2.7289436e-12 8.234695e-12
4.0794664e-12 1.3504294e-11 7.276441e-12 2.5174942e-11 1.958904e-12 5.0998828e-12 2.8833047e-12 1.1108891e-11
00000000: 4375 b127 7659 8a29 7e88 3528 8bcf 2329
00000010: e209 2928 71fb 772a 300b 2e29 8d19 032a
00000020: d20c b928 9d24 fa2a 3381 092a c26d b32a
00000030: 3b7a e528 fbf4 eb2a 2e0b d729 dc5a bd2a
00000040: 9e9b e228 c280 9429 e562 4027 410d 1129
00000050: 2b53 ad29 42f7 9b2a 1240 3528 8d62 9f29
00000060: 018b af29 f918 a52a 2135 3728 4147 9c29
00000070: 5407 9a29 98be 2f2a 99d0 8627 2257 4a29
00000080: 4df8 cc2b 1c31 932c 8119 252c 710c 182d
00000090: 998d e42b cae2 a12c 4708 402c c5dd 102d
000000a0: 9188 8f2c ef91 6d2d 2d02 002d ee70 dd2d
000000b0: 7ad8 092c a96f b32c 00e5 4a2c ff6d 432d

exp_avg f4 [12]
-2.731256e-08 1.8406748e-08 -8.6126434e-08 -8.9948855e-08 -1.2132451e-14 -1.6979904e-14 9.062592e-15 -1.6098034e-14
1.1215567e-06 1.1469288e-06 2.6236844e-06 9.463023e-07
00000000: f49c eab2 de1c 9e32 82f4 b8b3 e829 c1b3
00000010: 0e8f 5aa8 fef0 98a8 d441 2328 8aff 90a8
00000020: 6588 9635 2cf0 9935 8e12 3036 6605 7e35

exp_avg_sq f4 [12]
1.0077015e-14 3.8526555e-14 1.1404027e-13 1.08754545e-13 2.9122607e-27 8.546086e-27 9.9242184e-27 2.8556992e-27
2.809275e-12 2.8888415e-12 7.939516e-12 3.6429176e-12
00000000: 0788 3528 1882 2d29 df65 002a bae4 f429
00000010: aabb 6613 ce45 2914 c491 4414 7640 6213
00000020: 66af 452c be48 4b2c 67ac 0b2d 7c2c 802c

exp_avg f4 [4, 4]
-5.1455772e-06 3.3126156e-08 -2.4407557e-06 1.6489881e-06 -8.934534e-07 -3.5072816e-08 -4.191355e-07 2.2768648e-07
6.62293e-06 -2.5727456e-07 3.1141496e-06 -1.9984473e-06 3.399514e-07 1.7262579e-07 1.791529e-07 -1.409957e-07
00000000: 2ca8 acb6 9846 0e33 ddcb 23b6 cd52 dd35
00000010: a6d5 6fb5 f8a2 16b3 8b05 e1b4 fc79 7434
00000020: 893a de36 8c1f 8ab4 affc 5036 101d 06b6
00000030: 9182 b634 045b 3934 2d5d 4034 9a64 17b4

exp_avg_sq f4 [4, 4]
4.3484296e-11 1.1095669e-12 1.1049674e-11 3.3922236e-12 4.24421e-11 1.1909023e-12 1.2287887e-11 3.1465171e-12
5.7276413e-11 8.470663e-13 1.5040302e-11 4.9989687e-12 5.2537683e-11 1.754862e-12 1.4208097e-11 3.4668728e-12
00000000: f73e 3f2e 5c28 9c2b 4f63 422d deb4 6e2c
00000010: 8ea9 3a2e c79a a72b b92b 582d 9d6a 5d2c
00000020: 82e7 7b2e 8f6d 6e2b c04b 842d b5e2 af2c
00000030: 2c10 672e 91f9 f62b 95f3 792d a1f5 732c

exp_avg f4 [4]
2.7755793e-06 5.631125e-07 -3.5560688e-06 -2.9725624e-07
00000000: 1744 3a36 cc28 1735 cca4 6eb6 9696 9fb4

exp_avg_sq f4 [4]
1.5408093e-11 1.7404751e-11 1.9442475e-11 2.1670134e-11
00000000: f187 872d 0418 992d 9004 ab2d ce9c be2d

exp_avg f4 [4, 4]
4.0113497e-07 -7.554527e-07 4.7374425e-07 -1.1698711e-07 -1.8318605e-14 5.416933e-14 -1.9984536e-14 -1.5444214e-14
-1.5069512e-16 6.7324736e-16 -3.7885915e-16 -1.2264349e-16 4.0902655e-06 -4.4837057e-06 2.9646842e-06 -2.3611065e-06
00000000: 925b d734 50ca 4ab5 ea56 fe34 583a fbb3
00000010: d4ff a4a8 fcf4 7329 3401 b4a8 ef1b 8ba8
00000020: 59bd 2da5 e30c 4226 be65 daa5 f865 0da5
00000030: 1d3f 8936 bd72 96b6 e3f4 4636 8073 1eb6

exp_avg_sq f4 [4, 4]
6.3879165e-13 2.3747562e-12 9.175066e-13 1.2736675e-13 5.00351e-15 3.301373e-14 8.757853e-15 3.1041458e-15
1.1128846e-15 1.4644763e-14 7.106355e-15 4.171046e-16 2.0959495e-11 1.8542135e-11 8.015596e-12 9.058993e-12
00000000: cacd 332b ce1b 272c a920 812b f766 0f2a
00000010: 3c45 b427 3dae 1429 78c4 1d28 62ad 5f27
00000020: 3262 a026 86e8 8328 4704 0028 c671 f025
00000030: 965c b82d 2d19 a32d 0903 0d2d 145e 1f2d

exp_avg f4 [4]
-4.5527753e-07 2.941564e-14 3.783715e-16 -3.2885673e-06
00000000: de6c f4b4 ed79 0429 c71d da25 28b1 5cb6

exp_avg_sq f4 [4]
8.453152e-13 1.114316e-14 5.1346087e-15 1.1624235e-11
00000000: 61ef 6d2b c1bc 4828 68fe b827 e77e 4c2d

exp_avg f4 [4, 4]
4.8368268e-08 2.486724e-16 -4.7513033e-17 3.0604651e-06 2.008592e-08 6.542639e-17 -5.4241446e-17 2.0177813e-06
-4.4475787e-08 5.3333618e-17 -2.2889782e-16 -4.3977484e-06 -1.6294232e-08 -3.6743148e-16 3.30653e-16 -1.08962254e-07
00000000: 79bd 4f33 9259 8f25 7d1d 5ba4 6462 4d36
00000010: 6889 ac32 eddc 9624 ff24 7aa4 3869 0736
00000020: a505 3fb3 39f5 7524 5bf3 83a5 5f90 93b6
00000030: 65f7 8bb2 51cf d3a5 c59b be25 a2fe e9b3

exp_avg_sq f4 [4, 4]
3.6523217e-14 2.005829e-16 1.2533155e-15 1.458133e-11 5.0891454e-14 7.180929e-17 1.421155e-16 4.1896722e-11
1.1379439e-14 1.09657686e-16 4.6567833e-16 3.013861e-11 1.3386459e-13 3.025754e-16 4.0221825e-15 3.2365163e-11
00000000: 677c 2429 9f41 6725 2e9f b426 3c42 802d
00000010: da31 6529 b994 a524 18d9 2325 8443 382e
00000020: 66fe 4c28 79da fc24 ff38 0626 0f8d 042e
00000030: d7b7 162a 3f6c ae25 16ea 9027 ef57 0e2e

exp_avg f4 [4]
5.1740217e-06 2.7852732e-06 -7.254819e-06 -1.06619765e-07
00000000: 829c ad36 a1ea 3a36 6c6e f3b6 d6f6 e4b3

exp_avg_sq f4 [4]
3.2214953e-11 8.391025e-11 7.043684e-11 5.2428527e-11
00000000: d0ae 0d2e 4585 b82e 6ae4 9a2e 4695 662e

exp_avg f4 [4]
-6.6411862e-06 3.6106865e-06 4.9723135e-06 1.1071064e-06
00000000: 5bd7 deb6 1f4f 7236 d9d7 a636 e397 9435

exp_avg_sq f4 [4]
5.472501e-11 1.08674764e-10 2.7464118e-11 1.6079115e-11
00000000: e2ae 702e 74fa ee2e b293 f12d f36e 8d2d

exp_avg f4 [4]
6.461027e-06 2.7500714e-06 -6.0018783e-06 1.0793839e-06
00000000: cdcb d836 de8d 3836 be63 c9b6 59df 9035

exp_avg_sq f4 [4]
4.563756e-11 7.882638e-11 5.590068e-11 4.4256532e-11
00000000: 53b7 482e 4f57 ad2e 92da 752e 6da4 422e

exp_avg f4 [4]
-9.202197e-06 3.8099568e-06 5.187215e-06 -1.9472797e-07
00000000: 2363 1ab7 8fae 7f36 d60d ae36 6b16 51b4

exp_avg_sq f4 [4]
1.5429649e-10 1.3477414e-10 1.8714462e-11 1.988203e-11
00000000: 9aa6 292f 8c2f 142f 399d a42d 5ae2 ae2d

exp_avg f4 [4]
6.9846183e-06 3.246037e-06 -9.85613e-06 -6.7295605e-07
00000000: 6a5d ea36 7ed6 5936 c25b 25b7 30a5 34b5

exp_avg_sq f4 [4]
8.077147e-11 1.6341756e-10 1.01907476e-10 4.6032272e-11
00000000: 4c9e b12e f4ad 332f cf18 e02e bb73 4a2e

exp_avg f4 [12, 4]
1.9553053e-08 -2.0530942e-08 2.2258188e-08 -2.5192332e-08 7.0109394e-09 -1.27239534e-08 1.3380045e-08 -9.495942e-09
1.2910238e-08 -5.760068e-09 6.3238836e-09 -1.5849803e-08 -2.2266633e-10 3.4571679e-09 -4.089241e-09 1.3810135e-09
2.7792337e-09 -1.175324e-08 9.2691455e-09 -1.7645228e-09 -3.214355e-09 -1.1526506e-08 2.0651056e-08 -8.535025e-09
1.04790505e-08 6.4100014e-09 -2.7897148e-08 1.4041969e-08 -2.583267e-12 3.425538e-09 -3.6981014e-09 8.878125e-10
-1.3863315e-06 9.547994e-07 -3.773127e-07 9.4080207e-07 -4.079111e-06 2.7746137e-06 -1.127883e-06 2.8232246e-06
-7.809569e-06 5.3880744e-06 -2.2019117e-06 5.3775734e-06 -7.910965e-06 5.385502e-06 -2.1509582e-06 5.427294e-06
00000000: 9ef5 a732 055c b0b2 4632 bf32 8666 d8b2
00000010: e0e4 f031 8a98 5ab2 0fde 6532 9823 23b2
00000020: d4cb 5d32 18ea c5b1 7849 d931 1626 88b2
00000030: 00d3 74af 2493 6d31 5881 8cb1 18ce bd30
00000040: ccfc 3e31 4ceb 49b2 223e 1f32 a083 f2b0
00000050: 88e3 5cb1 1c06 46b2 2764 b132 70a1 12b2
00000060: 5a07 3432 f83e dc31 7aa2 efb2 3c3d 7132
00000070: 00c8 35ac b466 6b31 b021 7eb1 400a 7430
00000080: fd11 bab5 a826 8035 7691 cab4 6d8b 7c35
00000090: 4cdf 88b6 8033 3a36 c461 97b5 a176 3d36
000000a0: d805 03b7 35cb b436 8ec4 13b6 0171 b436
000000b0: 56b9 04b7 1cb5 b436 2e59 10b6 1a1c b636

exp_avg_sq f4 [12, 4]
2.5701408e-13 1.1254474e-13 3.8897372e-14 1.9720281e-13 3.9529572e-13 1.6804265e-13 5.0716047e-14 2.6895153e-13
6.4924796e-13 3.1112783e-13 5.956547e-14 3.1420645e-13 2.1199466e-14 1.0696867e-14 4.1705175e-15 1.8794143e-14
7.6911235e-14 3.2863152e-13 5.9514486e-14 2.8910937e-13 1.5423786e-13 6.861455e-13 1.254317e-13 6.1020747e-13
1.3510006e-13 5.7120416e-13 1.11788874e-13 5.061107e-13 1.4656567e-14 1.0258505e-13 1.659986e-14 1.0044293e-13
9.478311e-12 2.9912015e-12 5.7645127e-13 5.189785e-12 2.2498e-10 6.931172e-11 1.1196411e-11 1.13393635e-10
1.4671044e-10 4.8173805e-11 8.505746e-12 7.6882216e-11 1.7216306e-10 4.0769662e-11 6.4757557e-12 8.749838e-11
00000000: a2af 902a a06d fd29 9e2d 2f29 d707 5e2a
00000010: 1e88 de2a ff32 3d2a 9f67 6429 0068 972a
00000020: 3fbf 362b 3f26 af2a 2821 8629 ece1 b02a
00000030: a4f2 be28 98b2 4028 3c42 9627 5848 a928
00000040: 4f30 ad29 cb00 b92a c403 8629 0dc1 a22a
00000050: 09a8 2d2a fe21 412b 3a39 0d2a 15c2 2b2b
00000060: f11b 182a 99c7 202b e6b9 fb29 1f75 0e2b
00000070: be03 8428 4100 e729 ac84 9528 682d e229
00000080: 85be 262d b27c 522c b141 222b 6d99 b62c
00000090: 3e5e 772f 086b 982e 27f8 442d f15a f92e
000000a0: 514f 212f e2de 532e 79a2 152d d710 a92e
000000b0: 984b 3d2f 8f4e 332e 6cd8 e32c 3569 c02e

exp_avg f4 [12]
-1.7893424e-08 -5.6522502e-09 -1.4961344e-08 7.182188e-10 -5.9189477e-16 1.25252016e-14 -2.2652436e-14 5.1844494e-15
9.108598e-07 2.6986972e-06 5.1831976e-06 5.237412e-06
00000000: 0eb4 99b2 b835 c2b1 5884 80b2 286c 4530
00000010: 209a 2aa6 4ca2 6128 f608 cca8 1bca ba27
00000020: cf81 7435 441b 3536 54eb ad36 07bd af36

exp_avg_sq f4 [12]
1.3125216e-13 1.9200504e-13 2.9065208e-13 1.2133753e-14 3.2471093e-26 7.2395214e-26 5.2655227e-26 8.37528e-27
3.9705535e-12 9.176748e-11 6.1190455e-11 6.552621e-11
00000000: dcc6 132a af2d 582a 619f a32a 0f95 5a28
00000010: 00ca 2015 eb3d b315 375e 8215 b7e3 2514
00000020: 91b3 8b2c 80cc c92e 2a8f 862e fa17 902e

exp_avg f4 [4, 4]
-1.0075863e-05 1.8296223e-06 -5.3497333e-06 4.2787174e-06 -8.189889e-06 1.4226996e-06 -4.4900175e-06 3.466916e-06
1.7609544e-05 -3.2058522e-06 9.428192e-06 -7.525752e-06 -1.7333462e-06 4.198826e-07 -7.159174e-07 8.013876e-07
00000000: 810b 29b7 5891 f535 dc81 b3b6 e791 8f36
00000010: 4e67 09b7 96f3 be35 f5a8 96b6 2aa9 6836
00000020: 35b8 9337 1f24 57b6 c72d 1e37 b885 fcb6
00000030: 52a5 e8b5 3a6c e134 782d 40b5 f01e 5735

exp_avg_sq f4 [4, 4]
1.2356632e-10 5.3282526e-12 3.249081e-11 2.2146915e-11 7.653927e-10 4.2333918e-11 2.1270515e-10 1.5522775e-10
3.253201e-10 1.5731201e-11 9.089084e-11 6.227824e-11 9.889863e-10 4.8677718e-11 2.5967645e-10 1.7902597e-10
00000000: d4dc 072f a278 bb2c 66e5 0e2e 6bce c22d
00000010: b963 5230 c12f 3a2e 2ddf 692f baac 2a2f
00000020: bcd8 b22f 845f 8a2d ffde c72e 88f3 882e
00000030: ddec 8730 3d16 562e 36c2 8e2f 55d7 442f

exp_avg f4 [4]
5.7587113e-06 4.5366705e-06 -1.0339655e-05 1.2141478e-06
00000000: f43a c136 b439 9836 7b78 2db7 cdf5 a235

exp_avg_sq f4 [4]
4.1162396e-11 2.9544447e-10 1.1562153e-10 3.5365108e-10
00000000: bd08 352e 1d6c a22f 2341 fe2e f76b c22f

exp_avg f4 [4, 4]
-8.071894e-11 9.411734e-11 -5.1699967e-11 1.0295569e-11 -5.787738e-18 6.826113e-18 -3.8765373e-18 1.1903453e-18
1.4879337e-38 -2.718876e-38 2.2117089e-38 -5.125145e-39 5.6804092e-06 -3.89522e-06 1.7056361e-06 -1.375294e-06
00000000: b980 b1ae 5af7 ce2e fd60 63ae 1f1f 352d
00000010: a487 d5a2 d1d6 fb22 dc04 8fa2 f9a9 af21
00000020: 8a05 a200 9a07 1481 72d5 f000 d2ce 3780
00000030: 589a be36 afb3 82b6 36ed e435 be96 b8b5

exp_avg_sq f4 [4, 4]
1.478723e-14 2.0214111e-14 6.193234e-15 3.2769667e-16 5.124879e-15 7.8772895e-15 2.3512572e-15 1.8253612e-16
5.201746e-18 2.4913102e-17 2.6013345e-17 2.888375e-18 5.6388727e-10 1.5500207e-10 1.2521456e-11 4.139465e-11
00000000: 0831 8528 9112 b628 8022 df27 7ee7 bc25
00000010: aaa4 b827 96e7 0d28 0a6d 2927 2773 5225
00000020: 1ae9 bf22 66c8 e523 46ee ef23 dc1f 5522
00000030: 0a00 1b30 346d 2a2f a047 5c2d 3c0e 362e

exp_avg f4 [4]
5.4108492e-11 4.0302986e-18 -1.7528267e-38 -2.7614092e-06
00000000: bff8 6d2e 18b1 9422 addd be80 a650 39b6

exp_avg_sq f4 [4]
6.7677704e-15 2.700675e-15 1.335806e-17 1.0797507e-10
00000000: aad5 f327 a99a 4227 a869 7623 9070 ed2e

exp_avg f4 [4, 4]
2.007539e-11 1.5904912e-19 -2.42722e-39 9.693793e-06 2.7549919e-11 4.8132275e-19 -2.111517e-39 1.9786235e-05
-6.5038864e-12 1.6848901e-19 1.616738e-39 -3.4503093e-05 -4.112142e-11 1.06968815e-26 1.928842e-39 -1.7661512e-06
00000000: c295 b02d a6c5 3b20 1a6e 1a80 86a2 2237
00000010: e754 f22d b80f 0e21 0dfe 1680 9efa a537
00000020: cdd5 e4ac aeea 4620 cf9a 1100 6ab7 10b8
00000030: 9ada 34ae a2df 5314 d400 1500 7e0c edb5

exp_avg_sq f4 [4, 4]
7.8570294e-16 2.0582277e-17 7.2987464e-18 3.0936653e-10 1.4289123e-15 3.172491e-17 1.2471213e-19 3.0008809e-09
9.019584e-17 5.444401e-18 4.0931688e-19 1.460266e-09 3.1284751e-15 1.6363146e-17 4.094218e-18 3.6426646e-09
00000000: a576 6226 87d6 bd23 5ba3 0623 7813 aa2f
00000010: 8fed cd26 2a4e 1224 ee3b 1320 0e38 4e31
00000020: 3afa cf24 eadc c822 389e f120 8bb2 c830
00000030: 2e6e 6127 63ec 9623 cc0c 9722 6f52 7a31

exp_avg f4 [4]
8.145997e-06 1.2049388e-05 -2.559841e-05 2.5662466e-06
00000000: caaa 0837 ba27 4a37 2bbc d6b7 c837 2c36

exp_avg_sq f4 [4]
1.1685124e-10 1.3927492e-09 6.156231e-10 1.5211782e-09
00000000: b37a 002f 026b bf30 a038 2930 b311 d130

exp_avg f4 [4]
-1.8800485e-05 1.4424269e-05 7.864712e-06 3.3740253e-06
00000000: bcb5 9db7 c3ff 7137 aef2 0337 506d 6236

exp_avg_sq f4 [4]
3.0606645e-10 1.472918e-09 4.1615905e-11 6.951685e-10
00000000: 0643 a82f b26f ca30 5807 372e 2216 3f30

exp_avg f4 [4]
1.3445049e-05 1.0993375e-05 -2.4714329e-05 3.6239292e-06
00000000: 0c92 6137 3070 3837 9e51 cfb7 a132 7336

exp_avg_sq f4 [4]
1.5068084e-10 1.4056946e-09 5.8090127e-10 1.7512118e-09
00000000: e3ac 252f 7b32 c130 4bad 1f30 4aaf f030

exp_avg f4 [4]
-0.0008704814 -0.00011332898 8.2980505e-06 2.8822986e-05
00000000: 0531 64ba 08ab edb8 db37 0b37 e4c8 f137

exp_avg_sq f4 [4]
5.895887e-07 9.738412e-09 8.945867e-10 9.3937675e-09
00000000: 3a44 1e35 fd4d 2732 f1e6 7530 3a62 2132

exp_avg f4 [4]
0.00054806256 -0.00010015485 9.791918e-05 8.632971e-05
00000000: dbab 0f3a 3a0a d2b8 f659 cd38 e90b b538

exp_avg_sq f4 [4]
2.2856067e-07 8.225815e-09 3.3946634e-08 4.089451e-08
00000000: 476a 7534 8451 0d32 b8cc 1133 fda3 2f33

exp_avg f4 [12, 4]
-6.2189784e-08 8.2444856e-08 2.2388849e-07 8.452051e-08 1.3189985e-07 -6.389521e-08 -3.0751198e-07 -2.7393264e-07
2.0692013e-08 4.5728928e-08 2.1749014e-07 -2.3415987e-07 2.2643526e-07 2.8954472e-07 -2.6626e-07 -4.4223077e-07
4.2534282e-07 1.02567355e-07 5.2251744e-07 3.058713e-08 3.477157e-07 -3.4287027e-08 1.3239921e-07 1.3564934e-07
1.0301268e-06 5.5081898e-08 9.377889e-07 8.420393e-07 -2.2268736e-08 -3.3232084e-09 5.264627e-08 2.3150824e-07
8.974816e-06 -1.1452224e-06 -1.4329053e-05 -2.0042196e-05 6.725409e-06 -1.3787411e-06 -1.22398305e-05 -1.5317746e-05
-1.0037229e-05 1.4414774e-06 1.6035205e-05 2.0887665e-05 2.3955768e-06 -7.971612e-07 -4.1437706e-06 -5.151715e-06
00000000: 328d 85b3 8a0c b133 0066 7034 a481 b533
00000010: 5ba0 0d34 c336 89b3 2018 a5b4 0411 93b4
00000020: 38be b132 7d67 4433 3c87 6934 606d 7bb4
00000030: 0d22 7334 b972 9b34 7ff2 8eb4 bc6b edb4
00000040: ac5a e434 0043 dc33 2043 0c35 e85e 0333
00000050: afad ba34 fc42 13b3 9e29 0e34 02a7 1134
00000060: e342 8a35 3093 6c33 5dbc 7b35 8008 6235
00000070: 7849 bfb2 805e 64b1 301d 6233 8094 7834
00000080: 8b92 1637 8bb5 99b5 d066 70b7 4a20 a8b7
00000090: d3aa e136 2f0d b9b5 ac59 4db7 9c7e 80b7
000000a0: 9265 28b7 c978 c135 5783 8637 eb37 af37
000000b0: b2c3 2036 80fc 55b5 b80a 8bb6 e5dc acb6

exp_avg_sq f4 [12, 4]
1.752995e-12 1.1836835e-12 2.296386e-12 2.920482e-11 2.8027012e-12 1.9338832e-12 4.5236627e-12 4.6171896e-11
5.767746e-13 4.645588e-13 1.7343015e-12 7.726958e-12 1.1596809e-12 1.2143386e-12 1.0743032e-12 1.23456766e-11
4.3317663e-12 4.7873784e-12 2.020365e-11 6.584028e-13 3.4990123e-12 1.5603814e-12 6.7569986e-12 9.115595e-13
2.526605e-11 1.3867539e-11 3.7471838e-11 7.721912e-12 5.491598e-13 4.583183e-13 2.431116e-12 2.7774002e-13
3.3645506e-10 4.5576327e-11 7.75962e-10 2.07996e-09 1.9100883e-10 2.9399035e-11 4.0391554e-10 1.0371005e-09
2.5459795e-10 3.809396e-11 5.976363e-10 1.3187281e-09 1.8335868e-11 3.6317169e-12 4.402389e-11 9.407993e-11
00000000: 4db6 f62b b196 a62b 0398 212c b471 002e
00000010: fa38 452c be15 082c 8829 9f2c ef10 4b2e
00000020: fd58 222b fdc2 022b cc14 f42b 20ef 072d
00000030: e835 a32b 29e7 aa2b da31 972b fc2f 592d
00000040: 1569 982c df70 a82c 93b6 b12d ec52 392b
00000050: 9a38 762c aa9a db2b a2bd ed2c 644a 802b
00000060: 163e de2d d8f5 732d 8acd 242e 66d8 072d
00000070: 2293 1a2b 5001 012b 1813 2b2c 8e5a 9c2a
00000080: d7f7 b82f 6272 482e 794b 5530 0bef 0e31
00000090: 3504 522f 5f4c 012e 0f0e de2f bb89 8e30
000000a0: 7af7 8b2f fc89 272e ea46 2430 9f3e b530
000000b0: b448 a12d 328f 7f2c 7e9e 412e 4be2 ce2e

exp_avg f4 [12]
5.1900315e-09 -6.4589784e-08 3.3006394e-08 -3.56248e-07 -9.074103e-14 -9.522758e-14 -5.617232e-13 -6.920457e-14
-7.897279e-06 -5.952517e-06 8.243689e-06 -2.0066714e-06
00000000: 0054 b231 9cb4 8ab3 eac2 0d33 5a42 bfb4
00000010: a454 cca9 f66e d6a9 6c1c 1eab b8d5 9ba9
00000020: 8e7e 04b7 bbbb c7b6 604e 0a37 5aaa 06b6

exp_avg_sq f4 [12]
4.035322e-12 6.4177296e-12 1.2463296e-12 2.3334076e-12 2.8366174e-25 2.473429e-25 2.0329654e-24 6.081319e-26
3.041456e-10 1.6169573e-10 1.9795324e-10 1.5054038e-11
00000000: f3fa 8d2c c5cd e12c c267 af2b ef32 242c
00000010: ff93 af16 0c19 9916 074b 1d18 f090 9615
00000020: b034 a72f 4dc9 312f e2a6 592f ae6a 842d

exp_avg f4 [4, 4]
-1.063384e-06 6.8979657e-06 -1.2683836e-06 -1.6204879e-07 1.7139955e-07 -6.084985e-05 1.7645802e-05 7.293405e-07
-2.882036e-08 2.1556468e-06 -8.897476e-08 3.405759e-07 4.4606293e-07 5.861922e-05 -1.81707e-05 -1.3918526e-06
00000000: 99b9 8eb5 1375 e736 543d aab5 a2ff 2db4
00000010: f309 3834 0739 7fb8 1206 9437 e6c7 4335
00000020: a490 f7b2 bba9 1036 6412 bfb3 65d8 b634
00000030: 6c7a ef34 e9dd 7538 486d 98b7 b1cf bab5

exp_avg_sq f4 [4, 4]
1.37842e-11 2.9315332e-09 2.906548e-10 4.999582e-11 3.9655505e-11 1.0655138e-08 8.480686e-10 9.204612e-11
8.676364e-12 1.6180027e-09 1.4863857e-10 2.3561863e-11 2.5188842e-11 8.148778e-09 6.8557326e-10 5.730711e-11
00000000: 857e 722d 1474 4931 07ca 9f2f 4ae2 5b2e
00000010: 2168 2e2e cb0d 3732 861d 6930 5c69 ca2e
00000020: dfa2 182d 6960 de30 0a6e 232f 9940 cf2d
00000030: 3b90 dd2d b4fe 0b32 ee72 3c30 120a 7c2e

exp_avg f4 [4]
3.4525522e-06 -1.8181932e-05 1.0542875e-06 1.5692762e-05
00000000: 65b2 6736 6785 98b7 0b81 8d35 f3a3 8337

exp_avg_sq f4 [4]
3.1421107e-10 1.0423654e-09 1.7454783e-10 7.9065693e-10
00000000: 47bd ac2f f942 8f30 d9ea 3f2f 8955 5930

exp_avg f4 [12, 4]
-6.832816e-08 -9.606044e-09 8.4616374e-08 -4.800011e-09 1.031416e-08 7.750923e-09 1.5259001e-08 -2.2911786e-08
5.274154e-08 7.007244e-09 -8.7713175e-08 1.8516687e-08 -4.3403915e-08 -4.7982516e-09 6.4361444e-08 -1.1041537e-08
1.2323088e-08 9.628458e-10 -2.8866172e-08 1.4778162e-08 -1.7874583e-09 -1.3736129e-08 8.9399e-10 1.427205e-08
-1.1724108e-08 -9.233067e-09 2.585004e-08 -4.3474566e-09 2.7582907e-08 4.262163e-09 -7.0112186e-08 3.629247e-08
-3.1688436e-05 1.7014614e-05 3.134951e-07 5.990384e-06 3.4499648e-05 -1.8641967e-05 -2.953774e-07 -6.4035116e-06
-8.247984e-06 4.451879e-06 2.082161e-07 1.4272885e-06 1.665947e-05 -8.88238e-06 -2.851395e-07 -3.2682235e-06
00000000: cebb 92b3 d407 25b2 58b6 b533 58ed a4b1
00000010: 2832 3132 eb28 0532 e612 8332 8dcf c4b2
00000020: f085 6233 5fc4 f031 d45c bcb3 a00e 9f32
00000030: 1c6b 3ab3 dedd a4b1 1437 8a33 31b1 3db2
00000040: 84b5 5332 2055 8430 62f5 f7b2 0be3 7d32
00000050: 99aa f5b0 22fc 6bb2 f4bc 7530 2431 7532
00000060: 2c6b 49b2 759f 1eb2 d70c de32 a260 95b1
00000070: 74ef ec32 6272 9231 9590 96b3 fedf 1b33
00000080: 33e9 04b8 9bba 8e37 704e a834 0201 c936
00000090: b7b3 1038 5261 9cb7 5c94 9eb4 bfdd d6b6
000000a0: d260 0ab7 5961 9536 0192 5f34 4291 bf35
000000b0: f0bf 8b37 8805 15b7 4615 99b4 a753 5bb6

exp_avg_sq f4 [12, 4]
5.236223e-14 4.907505e-15 7.8016823e-14 3.5514709e-15 1.08104044e-13 1.2802665e-14 1.8059324e-13 4.9766125e-15
7.4200344e-14 7.158577e-15 1.127022e-13 6.209626e-15 2.5235637e-14 2.1919667e-15 3.737171e-14 2.216118e-15
2.3492048e-15 6.3726392e-15 9.032595e-15 8.463532e-15 1.6320691e-15 4.777747e-15 5.134857e-15 5.4405523e-15
1.2763876e-15 3.694968e-15 5.5788093e-15 4.6047307e-15 1.1588328e-14 3.2659114e-14 4.1350966e-14 4.159449e-14
2.1979543e-09 6.597904e-10 1.4417182e-11 1.5825381e-10 2.2795499e-09 6.8646955e-10 1.6893245e-11 1.6462134e-10
2.5564317e-10 7.957326e-11 2.1422807e-12 1.7322197e-11 1.7434532e-09 5.4595467e-10 1.5325989e-11 1.2265734e-10
00000000: 8ad1 6b29 bfcf b027 a3ad af29 13e9 7f27
00000010: bd6d f329 dfa1 6628 7554 4b2a 264d b327
00000020: 9615 a729 1cf5 0028 65c8 fd29 b1b9 df27
00000030: 6b4d e328 a6f2 1d27 a64e 2829 29b0 1f27
00000040: 2e47 2927 3999 e527 7eb7 2228 2777 1828
00000050: b934 eb26 f022 ac27 b200 b927 3d04 c427
00000060: 64f2 b726 1120 8527 6fff c827 25e7 a527
00000070: bbc1 5028 6515 1329 6b3a 3a29 2f53 3b29
00000080: d20a 1731 9f5c 3530 37a1 7d2d 7d00 2e2f
00000090: 44a6 1c31 00b2 3c30 3598 942d ca00 352f
000000a0: 948a 8c2f c3fb ae2e e6bf 162c 1f5e 982d
000000b0: 4e9e ef30 2512 1630 0fcf 862d f9dc 062f

exp_avg f4 [12]
4.2907732e-08 -6.980617e-09 -3.4812892e-08 2.7550621e-08 -4.4040614e-15 -5.98856e-14 -4.2083196e-14 6.2221475e-14
1.8724011e-05 -2.0420284e-05 4.8818206e-06 -9.856967e-06
00000000: 8d49 3833 28da efb1 2e85 15b3 75a8 ec32
00000010: 4cac 9ea7 b3d9 86a9 9f86 3da9 3d1c 8c29
00000020: 8211 9d37 3a4c abb7 85ce a336 5a5f 25b7

exp_avg_sq f4 [12]
2.1516887e-14 4.8084356e-14 3.1151236e-14 1.034123e-14 3.077376e-26 2.8986173e-26 1.593984e-26 1.1627557e-25
8.147858e-10 8.3625795e-10 9.1159275e-11 6.3698696e-10
00000000: 90ce c128 7d8d 5829 ee4a 0c29 814a 3a28
00000010: 6062 1815 5788 0f15 4cdc 9d14 33f1 0f16
00000020: 74f7 5f30 6cde 6530 1c76 c82e f917 2f30

exp_avg f4 [4, 4]
5.6063645e-06 -5.864606e-06 -9.239208e-06 8.740461e-07 4.7985024e-05 -4.8536385e-05 -8.193109e-05 7.68158e-06
-1.1420419e-05 1.1357853e-05 1.9095674e-05 -1.7568983e-06 -4.6165587e-05 4.6957328e-05 7.8822224e-05 -7.360605e-06
00000000: 4e1e bc36 95c8 c4b6 1902 1bb7 fe9f 6a35
00000010: 8743 4938 8c93 4bb8 6bd2 abb8 23e0 0037
00000020: 539a 3fb7 9b8d 3e37 a62f a037 91ce ebb5
00000030: eca1 41b8 0cf4 4438 5c4d a538 1efb f6b6

exp_avg_sq f4 [4, 4]
8.9730756e-10 8.5438306e-10 2.6449158e-09 5.42686e-11 5.710917e-09 4.7339066e-09 2.0420295e-08 2.849835e-10
9.656881e-10 7.893077e-10 2.9639837e-09 4.104037e-11 4.9241504e-09 4.012323e-09 1.6971555e-08 2.4571276e-10
00000000: 68a6 7630 ddd9 6a30 dac1 3531 03ad 6e2e
00000010: c239 c431 e2a7 a231 b468 af32 ddab 9c2f
00000020: 21b9 8430 97f6 5830 f4ae 4b31 597f 342e
00000030: 4931 a931 c4dc 8931 d8c8 9132 ff14 872f

exp_avg f4 [4]
-4.8376655e-06 -4.4340828e-05 9.9697445e-06 4.2750424e-05
00000000: 3b53 a2b6 9afa 39b8 ba43 2737 eb4e 3338

exp_avg_sq f4 [4]
7.397915e-10 5.3677383e-09 8.329922e-10 4.5078346e-09
00000000: 335a 4b30 206f b831 9df8 6430 55e3 9a31

exp_avg f4 [4, 4]
-6e-45 6e-45 6e-45 -6e-45 2.2494505e-07 -8.177653e-08 -1.2355773e-07 6.896119e-09
6e-45 6e-45 -6e-45 6e-45 4.826623e-26 -6.1967905e-27 2.312906e-27 -2.660719e-26
00000000: 0400 0080 0400 0000 0400 0000 0400 0080
00000010: 6d88 7134 1f9d afb3 4aab 04b4 e7f2 ec31
00000020: 0400 0000 0400 0000 0400 0080 0400 0000
00000030: b700 6f15 ec7a f593 4f3f 3713 9fc0 0395

exp_avg_sq f4 [4, 4]
8.6541604e-18 2.1795435e-17 5.128696e-19 8.157602e-18 7.375958e-11 5.4115787e-12 4.2289817e-11 1.3427409e-12
5.7857763e-19 1.8226522e-18 1.1184343e-18 2.1619294e-18 3.109131e-14 5.158534e-16 9.1553806e-17 9.473368e-15
00000000: 1ea4 1f23 0407 c923 555f 1721 307b 1623
00000010: f432 a22e 2b67 be2c 1afe 392e 57f9 bc2b
00000020: 17c4 2a21 ed7c 0622 410d a521 b185 1f22
00000030: d705 0c29 43af 1426 d41b d324 33a8 2a28

exp_avg f4 [4]
6e-45 -1.0678128e-07 -6e-45 -2.759198e-26
00000000: 0400 0000 a14f e5b3 0400 0080 fda0 0895

exp_avg_sq f4 [4]
9.575896e-18 1.9820878e-11 1.5472719e-18 1.0166744e-14
00000000: e4a4 3023 a658 ae2d 4856 e421 d525 3728

exp_avg f4 [4, 4]
-6e-45 2.5769737e-09 6e-45 -8.039838e-27 -6e-45 -8.899898e-09 -6e-45 9.2202086e-27
6e-45 -3.475867e-10 -6e-45 1.2381054e-26 -6e-45 6.806079e-09 -6e-45 -1.3561456e-26
00000000: 0400 0080 9a16 3131 0400 0000 d23e 1f94
00000010: 0400 0080 2ae6 18b2 0400 0080 03a0 3614
00000020: 0400 0000 7b16 bfaf 0400 0080 673b 7514
00000030: 0400 0080 e7da e931 0400 0080 604e 8694

exp_avg_sq f4 [4, 4]
5.971461e-20 5.876408e-12 6.4558674e-20 8.63708e-16 1.0835934e-19 5.946575e-11 6.439222e-21 1.1244652e-15
4.3366523e-19 1.6153344e-11 1.1720437e-19 2.080837e-15 1.5610971e-20 5.840882e-11 2.8208788e-20 2.4550778e-15
00000000: 44ff 8c1f fac1 ce2c 536f 981f 67f2 7826
00000010: 34db ff1f 3ec4 822e 5544 f31d 720d a226
00000020: a3fd ff20 1916 8e2d d95e 0a20 abf0 1527
00000030: 0371 931e 3e71 802e 5536 051f 31e8 3027

exp_avg f4 [4]
-1.3293142e-05 -0.00013488246 6.258763e-06 0.00012803862
00000000: 9c05 5fb7 3c6f 0db9 5d02 d236 1b42 0639

exp_avg_sq f4 [4]
4.5487765e-09 4.134562e-08 2.7531122e-09 3.7123723e-08
00000000: 764b 9c31 fd93 3133 4331 3d31 f771 1f33

exp_avg f4 [4]
1.1334711e-05 1.2179149e-05 1.4507348e-05 2.4749004e-06
00000000: 372a 3e37 0c55 4c37 9664 7337 7716 2636

exp_avg_sq f4 [4]
1.133497e-09 8.6656815e-10 1.4342172e-09 6.4585537e-10
00000000: 61c9 9b30 5033 6e30 081e c530 0888 3130

exp_avg f4 [4]
-9.039978e-06 -4.692652e-05 1.173107e-05 4.4284465e-05
00000000: 69aa 17b7 f8d2 44b8 90d0 4437 15be 3938

exp_avg_sq f4 [4]
7.6923967e-10 5.7496807e-09 8.402544e-10 4.4963357e-09
00000000: 6e72 5330 ba8e c531 a6f7 6630 307e 9a31

exp_avg f4 [4]
1.5902287e-05 -3.6531896e-05 7.6138167e-06 -3.981637e-05
00000000: e765 8537 d339 19b8 307a ff36 8000 27b8

exp_avg_sq f4 [4]
7.3580146e-09 1.7520154e-09 4.036453e-09 1.5660342e-09
00000000: c8d1 fc31 90cb f030 04b1 8a31 ee3b d730

exp_avg f4 [4]
-1.4134756e-05 -0.00012788778 6.7336496e-06 0.00013542286
00000000: 5124 6db7 9d19 06b9 9cf1 e136 4c00 0e39

exp_avg_sq f4 [4]
4.0443546e-09 3.822616e-08 2.5593858e-09 3.744544e-08
00000000: 85f6 8a31 1b2e 2433 31e1 2f31 b2d3 2033

exp_avg f4 [4]
0.00013266962 -3.4879713e-06 2.1595355e-05 -4.765617e-05
00000000: 3b1d 0b39 e412 6ab6 ac27 b537 6ce2 47b8

exp_avg_sq f4 [4]
2.7246703e-08 6.449952e-09 8.657058e-09 2.5181717e-09
00000000: 220c ea32 619e dd31 25ba 1432 250c 2d31

exp_avg f4 [4]
-0.00010385875 -0.0003631601 1.3170352e-05 0.00025590693
00000000: bece d9b8 8666 beb9 3bf6 5c37 3f2b 8639

exp_avg_sq f4 [4]
1.5974663e-08 2.2979751e-07 4.3240527e-09 1.642303e-07
00000000: a838 8932 42be 7634 c592 9431 4857 3034

exp_avg f4 [12, 4]
1.16409325e-07 -9.343128e-09 -1.711252e-07 2.3943715e-08 -8.7016005e-08 7.525085e-09 1.3396345e-07 -2.078138e-08
-5.588593e-07 5.4683493e-08 7.214248e-07 -8.5457664e-08 -2.5602753e-07 3.064523e-08 3.2166076e-07 -4.0734296e-08
1.9376014e-07 4.2455275e-09 1.07633994e-07 -1.4611805e-07 -8.206719e-08 1.400053e-09 -5.6670753e-08 6.372021e-08
-6.1328166e-07 -4.8985555e-08 -3.392765e-07 4.9153766e-07 -4.4999013e-07 -3.3527417e-08 -2.4526014e-07 3.570362e-07
9.586082e-06 -6.6187494e-07 -1.183353e-05 9.721547e-07 0.00019986145 -1.9011932e-05 -0.00025353153 2.6959355e-05
-0.00016753495 1.6119491e-05 0.00021726149 -2.4544821e-05 6.45623e-05 -4.5448223e-06 -8.171926e-05 7.528569e-06
00000000: b4fc f933 8383 20b2 89be 37b4 c9ac cd32
00000010: 8edd bab3 ad47 0132 98d7 0f34 bd82 b2b2
00000020: 8504 16b5 23dd 6a33 efa7 4135 d984 b7b3
00000030: 2874 89b4 c99e 0333 b8b0 ac34 d5f3 2eb3
00000040: 620c 5034 0ee0 9131 6a24 e733 a0e4 1cb4
00000050: ea3c b0b3 fc6b c030 2766 73b3 8ed6 8833
00000060: 65a0 24b5 3064 52b3 cf25 b6b4 36f2 0335
00000070: 2c96 f1b4 c9ff 0fb3 4cac 83b4 afae bf34
00000080: e9d3 2037 b3ab 31b5 a088 46b7 fb7a 8235
00000090: e691 5139 d07b 9fb7 6dec 84b9 c626 e237
000000a0: 52ac 2fb9 5838 8737 b0d0 6339 9ae5 cdb7
000000b0: 9f65 8738 ba7f 98b6 b260 abb8 ea9d fc36

exp_avg_sq f4 [12, 4]
2.5993641e-13 2.8245879e-15 3.5018315e-13 4.05498e-15 3.5816724e-13 4.0837745e-15 4.4909817e-13 3.8050113e-15
6.1909275e-12 5.946777e-14 9.818526e-12 7.93708e-14 2.1494074e-12 2.1803328e-14 3.4134687e-12 2.427392e-14
6.18923e-13 2.715283e-13 4.5843055e-13 2.8381748e-13 2.4719682e-13 1.3519462e-13 2.8828489e-13 1.4930228e-13
4.52198e-12 1.9100038e-12 3.621692e-12 1.6045423e-12 2.1023478e-12 8.7760094e-13 1.6274183e-12 7.326332e-13
1.252365e-09 1.12949546e-11 1.7819395e-09 1.5514076e-11 5.5561276e-08 3.5770836e-10 8.2178936e-08 6.0689126e-10
4.4730033e-08 3.6475697e-10 6.689219e-08 5.8973204e-10 3.2826886e-08 1.3082357e-10 4.8088552e-08 1.7047559e-10
00000000: c954 922a 7388 4b27 b622 c52a 9718 9227
00000010: 57a1 c92a 2c22 9327 ded1 fc2a 0917 8927
00000020: ebd2 d92c d6e8 8529 b6ba 2c2d 27ba b229
00000030: 4840 172c 0d63 c428 9633 702c d9a3 da28
00000040: 1a36 2e2b 5adb 982a 6709 012b 69c6 9f2a
00000050: d128 8b2a 3237 182a 3b4a a22a 7419 282a
00000060: 601a 9f2c 9267 062c 9ada 7e2c bbd1 e12b
00000070: 88f0 132c d005 772b ec09 e52b c937 4e2b
00000080: ad1f ac30 f4b3 462d 6ce8 f430 9876 882d
00000090: 45a2 6e33 faa6 c42f 597a b033 2dd2 2630
000000a0: 311d 4033 fb86 c82f 5fa6 8f33 b41a 2230
000000b0: 8bfd 0c33 90d7 0f2f ec89 4e33 9d70 3b2f

exp_avg f4 [12]
-7.815119e-08 6.040577e-08 3.454211e-07 1.562585e-07 1.6485402e-14 -4.0725473e-14 -2.6275775e-13 -4.2799342e-13
-5.7124907e-06 -0.00012166556 0.000103509476 -3.913525e-05
00000000: 12d4 a7b3 6cb8 8133 5172 b934 02c8 2734
00000010: c07c 9428 4669 37a9 62eb 93aa 5af0 f0aa
00000020: ecad bfb6 b326 ffb8 3a13 d938 2825 24b8

exp_avg_sq f4 [12]
8.9397334e-14 1.183538e-13 2.2898235e-12 7.9391555e-13 1.9072024e-24 1.0521858e-24 1.8181849e-23 8.9804525e-24
4.3604456e-10 1.9639337e-08 1.5989624e-08 1.1455519e-08
00000000: 0e4e c929 2941 052a cb21 212c a577 5f2b
00000010: 0990 1318 60d1 a217 14d8 af19 0cb5 2d19
00000020: d1b7 ef2f 5cb3 a832 8e59 8932 e8cd 4432

exp_avg f4 [4, 4]
-0.00015693941 -0.00046256706 3.366123e-05 -1.4369907e-05 -0.00029807593 -0.00088797073 6.91063e-05 -2.179822e-05
9.798127e-05 0.00028531387 -2.3651031e-05 7.817055e-06 0.00037491877 0.0011144321 -8.3398234e-05 2.916732e-05
00000000: 1a90 24b9 b384 f2b9 782f 0d38 4816 71b7
00000010: 1347 9cb9 b5c6 68ba 2aed 9038 52db b6b7
00000020: 4b7b cd38 2e96 9539 3466 c6b7 ff25 0337
00000030: bf90 c439 2312 923a 16e6 aeb8 58ac f437
