Saved_models/checkpoint_Male.pt (torch, 87130 bytes, 198 tensors)

encoder_input_layer.weight f4 [4, 5]
0.023142144 0.30188903 -0.29279974 -0.24676071 -0.08776509 -0.17164446 -0.2530215 0.13421972
-0.23499595 -0.07434583 0.15592279 0.14808746 -0.21209149 -0.101585284 0.013440028 -0.26380697
-0.17641814 0.01844078 -0.5437102 -0.42547017
00000000: 9894 bd3c 3391 9a3e d9e9 95be d7ae 7cbe
00000010: 2fbe b3bd 91c3 2fbe 098c 81be e570 093e
00000020: c7a2 70be a042 98bd 39aa 1f3e 3da4 173e
00000030: 832e 59be f20b d0bd 9033 5c3c b511 87be
00000040: f5a6 34be 1e11 973c 9730 0bbf 3ad7 d9be

encoder_input_layer.bias f4 [4]
0.48842132 1.2632627 -0.7443849 1.3100137
00000000: 5c12 fa3e 98b2 a13f 0290 3ebf 87ae a73f

decoder_input_layer.weight f4 [4, 1]
-0.604728 0.36636958 0.58234113 0.53116244
00000000: 74cf 1abf cb94 bb3e 4f14 153f 43fa 073f

decoder_input_layer.bias f4 [4]
-1.4516604 -0.07492197 1.4351857 0.24453546
00000000: 02d0 b9bf b170 99bd 2ab4 b73f 8167 7a3e

positional_encoding_layer_enc.pe f4 [1, 9, 4]
0.0 1.0 0.0 1.0 0.84147096 0.54030234 0.009999833 0.99995
0.9092974 -0.41614684 0.019998666 0.9998 0.14112 -0.9899925 0.0299955 0.99955004
-0.7568025 -0.6536436 0.039989334 0.9992001 -0.9589243 0.2836622 0.049979165 0.99875027
-0.2794155 0.96017027 0.059964005 0.99820054 0.6569866 0.75390226 0.06994285 0.997551
0.98935825 -0.14550003 0.07991469 0.9968017
00000000: 0000 0000 0000 803f 0000 0000 0000 803f
00000010: a46a 573f 4151 0a3f 57d6 233c b9fc 7f3f
00000020: b7c7 683f 3311 d5be 3ed4 a33c e5f2 7f3f
00000030: c381 103e 2670 7dbf 1fb9 f53c 83e2 7f3f
00000040: cfbd 41bf 3055 27bf dbcb 233d 94cb 7f3f
00000050: 107c 75bf 2c3c 913e f4b6 4c3d 19ae 7f3f
00000060: 8c0f 8fbe b8cd 753f d19c 753d 128a 7f3f
00000070: 4630 283f bdff 403f 323e 8f3d 815f 7f3f
00000080: 9546 7d3f f6fd 14be 50aa a33d 652e 7f3f

positional_encoding_layer_dec.pe f4 [1, 1, 4]
0.0 1.0 0.0 1.0
00000000: 0000 0000 0000 803f 0000 0000 0000 803f

encoder.layers.0.self_attn.in_proj_weight f4 [12, 4]
0.09942795 -0.7479965 1.3310086 -2.0943823 -0.15843968 -0.079318635 -0.39605975 0.20773554
0.09226513 0.5610096 -0.711419 1.0695541 0.30768737 0.40163806 -0.19340032 1.0500582
0.5792532 0.9663172 -0.6213261 -0.8897675 0.02674081 0.17946547 0.57139444 1.1568005
-0.15238847 -0.68342745 0.12955877 0.22567765 -0.61023456 -0.16383743 0.37538925 0.0016842932
-0.4702921 0.076965556 -0.0037018328 -2.3112872 0.19611003 -0.7045768 0.33854663 1.8281232
-0.23530424 0.017981045 -0.23260202 -2.094575 -0.41076478 -0.078918196 -0.21368334 -0.8415013
00000000: e2a0 cb3d b37c 3fbf 7d5e aa3f 5c0a 06c0
00000010: 033e 22be cf71 a2bd 58c8 cabe a0b8 543e
00000020: 80f5 bc3d 539e 0f3f 8e1f 36bf 26e7 883f
00000030: 3389 9d3e 81a3 cd3e bc0a 46be 4f68 863f
00000040: f049 143f 9060 773f 3a0f 1fbf cec7 63bf
00000050: 8b0f db3c ccc5 373e e846 123f 0a12 943f
00000060: b90b 1cbe 1af5 2ebf 0eab 043e 0b18 673e
00000070: 5538 1cbf 00c5 27be 0533 c03e 80c3 dc3a
00000080: 20ca f0be 1ea0 9d3d 739a 72bb 21ec 13c0
00000090: 11d1 483e 255f 34bf fc55 ad3e f1ff e93f
000000a0: 98f3 70be fc4c 933c 392f 6ebe 840d 06c0
000000b0: c34f d2be dd9f a1bd cecf 5abe a16c 57bf

encoder.layers.0.self_attn.in_proj_bias f4 [12]
-0.24109405 -0.13635042 0.43637562 0.2912726 -0.06069353 0.07328848 -0.00094951486 -0.02940393
-0.79692894 0.30823275 -0.7998756 -0.28285214
00000000: 5ce1 76be 729f 0bbe a06c df3e af21 953e
00000010: c799 78bd 4518 963d dde8 78ba 83e0 f0bc
00000020: 8903 4cbf afd0 9d3e a6c4 4cbf ffd1 90be

encoder.layers.0.self_attn.out_proj.weight f4 [4, 4]
-1.8009856 0.65041596 -1.2100208 -1.1539922 -0.75809324 0.5773892 0.21752504 0.2633681
1.1437978 -0.96275616 0.5987513 0.12047904 0.34077293 -0.5729096 0.44433635 0.18002708
00000000: b286 e6bf a981 263f f6e1 9abf 04b6 93bf
00000010: 6612 42bf c7cf 133f e2be 5e3e 2fd8 863e
00000020: f767 923f 3077 76bf c447 193f b7bd f63d
00000030: ca79 ae3e 34aa 12bf 0e80 e33e 0559 383e

encoder.layers.0.self_attn.out_proj.bias f4 [4]
0.1575165 0.7956709 -0.64274764 0.002124292
00000000: 014c 213e 17b1 4b3f 1c8b 24bf b537 0b3b

encoder.layers.0.linear1.weight f4 [4, 4]
-0.24082157 0.89616245 -0.09380375 0.59914017 -1.2395468 -0.063822456 -0.29131237 0.1051473
-0.4236004 -0.24702051 0.3182529 0.27090952 -0.8721703 0.81031203 0.506087 0.03657594
00000000: ee99 76be e76a 653f 2e1c c0bd 4061 193f
00000010: 78a9 9ebf 59b5 82bd e526 95be 7857 d73d
00000020: 27e2 d8be f2f2 7cbe 0bf2 a23e a7b4 8a3e
00000030: 8e46 5fbf 9c70 4f3f eb8e 013f a7d0 153d

encoder.layers.0.linear1.bias f4 [4]
-0.46406394 -0.35299438 -0.22976251 -0.658526
00000000: ca99 edbe aebb b4be dd46 6bbe 2995 28bf

encoder.layers.0.linear2.weight f4 [4, 4]
0.44285393 0.5082139 -0.038481146 0.23798454 0.32188645 -0.3097412 -0.098933235 0.26310492
-0.7824028 -0.37867218 -0.027886624 -0.055086564 -0.3360815 -0.63735604 0.3190051 -0.30112413
00000000: c0bd e23e 4e1a 023f 689e 1dbd 38b2 733e
00000010: 4dce a43e 6696 9ebe 829d cabd b0b5 863e
00000020: 8d4b 48bf 52e1 c1be 7d72 e4bc 73a2 61bd
00000030: e012 acbe c429 23bf a354 a33e f12c 9abe

encoder.layers.0.linear2.bias f4 [4]
0.2540596 0.3545733 -0.52208894 0.6408756
00000000: 1a14 823e a28a b53e 9fa7 05bf 6c10 243f

encoder.layers.0.norm1.weight f4 [4]
1.5760304 1.138759 1.5675046 1.0323416
00000000: 5dbb c93f dbc2 913f fea3 c83f c523 843f

encoder.layers.0.norm1.bias f4 [4]
0.51499015 0.032713726 -0.6326337 0.21144888
00000000: 65d6 033f d4fe 053d 48f4 21bf 0e86 583e

encoder.layers.0.norm2.weight f4 [4]
1.3173926 0.7935325 1.665455 0.6795603
00000000: 52a0 a83f f224 4b3f a12d d53f aaf7 2d3f

encoder.layers.0.norm2.bias f4 [4]
0.1983405 0.42799765 -0.514107 0.008134266
00000000: c619 4b3e 8222 db3e 849c 03bf 9645 053c

encoder.layers.1.self_attn.in_proj_weight f4 [12, 4]
-0.49667034 -0.56172055 1.0919608 -0.48117152 0.97307336 0.22542861 -1.1652346 -0.21554637
-0.510581 -0.26246268 0.38461292 -0.08500123 1.2398607 0.78681546 -0.7352509 0.20448776
1.1614612 -0.10868077 0.11559855 -0.5270937 -0.6428567 1.2510493 -0.23493439 1.0682827
0.45852986 -0.5555758 0.351631 -0.5236537 -1.499609 0.99582803 -0.27411497 0.34874454
0.76240164 0.22528651 -0.78732437 0.82247275 -0.53801715 -1.0746236 0.9245057 0.47955602
0.64644957 -0.26255053 -0.7476988 -0.42924064 0.46396852 -0.3173087 -0.8332252 -0.8180323
00000000: 934b febe ebcc 0fbf 5fc5 8b3f 1d5c f6be
00000010: 561b 793f c2d6 663e 6826 95bf 30b8 5cbe
00000020: 70b5 02bf 8261 86be fceb c43e 2015 aebd
00000030: c1b3 9e3f bd6c 493f 6739 3cbf 3d65 513e
00000040: c3aa 943f 0694 debd efbe ec3d 9def 06bf
00000050: 4292 24bf 6222 a03f a492 70be 7dbd 883f
00000060: 6dc4 ea3e 373a 0ebf fa08 b43e 2b0e 06bf
00000070: 30f3 bfbf 96ee 7e3f cc58 8cbe a58e b23e
00000080: c12c 433f 82b1 663e 178e 49bf 938d 523f
00000090: 7ebb 09bf 448d 89bf 68ac 6c3f 5e88 f53e
000000a0: b87d 253f 066d 86be 3069 3fbf 6ec5 dbbe
000000b0: 488d ed3e 4976 a2be 3f4e 55bf 916a 51bf

encoder.layers.1.self_attn.in_proj_bias f4 [12]
-0.6349302 0.6876985 -0.6409283 0.6374088 -0.055659644 -0.06349274 -0.032474317 -0.02839588
0.2926647 -0.49763668 -0.014877784 -0.107726775
00000000: c98a 22bf 020d 303f e113 24bf 392d 233f
00000010: 5efb 63bd 7b08 82bd ca03 05bd 7a9e e8bc
00000020: 26d8 953e 3cca febe f3c1 73bc db9f dcbd

encoder.layers.1.self_attn.out_proj.weight f4 [4, 4]
1.0531294 -1.560833 1.1130528 0.8927965 -0.04197969 0.18514508 0.21808259 0.24621993
-0.5071789 0.2753878 -0.44952807 -0.8680051 -0.65515774 0.12707947 -0.15272932 -0.20906438
00000000: f2cc 863f 60c9 c7bf 8478 8e3f 508e 643f
00000010: e5f2 2bbd ac96 3d3e 0b51 5f3e 1421 7c3e
00000020: 7ad6 01bf a1ff 8c3e 8b28 e6be 9535 5ebf
00000030: 6bb8 27bf 1f21 023e 1365 1cbe f914 56be

encoder.layers.1.self_attn.out_proj.bias f4 [4]
0.62933916 0.21672283 -0.22537236 -0.29188102
00000000: 5f1c 213f 97ec 5d3e 03c8 66be 6e71 95be

encoder.layers.1.linear1.weight f4 [4, 4]
0.34824458 0.60704374 -0.65114415 -0.3770206 -0.638198 0.09152164 -0.8708892 -0.08889675
-0.34618816 -0.35157126 0.07354286 0.35733324 -0.33757973 0.9621968 0.0006504431 0.3412355
00000000: 1d4d b23e 3867 1b3f 62b1 26bf d808 c1be
00000010: f260 23bf b36f bb3d 98f2 5ebf 800f b6bd
00000020: 933f b1be 2601 b4be a49d 963d 62f4 b63e
00000030: 40d7 acbe 8852 763f 7f82 2a3a 6bb6 ae3e

encoder.layers.1.linear1.bias f4 [4]
-0.15959555 -0.38926616 0.22357453 -0.08734527
00000000: 046d 23be e54d c7be b9f0 643e 14e2 b2bd

encoder.layers.1.linear2.weight f4 [4, 4]
0.87309027 1.0304377 -0.22909282 0.40790054 0.14226407 -0.15133516 -0.44700947 0.16903484
-0.8811949 -0.9113873 0.04555329 -0.06043862 -0.216622 -0.18101346 0.33009994 -0.52764755
00000000: d882 5f3f 62e5 833f 4f97 6abe 57d8 d03e
00000010: acad 113e 9bf7 1abe 6dde e4be 7817 2d3e
00000020: fd95 61bf ae50 69bf 1696 3a3d 7d8e 77bd
00000030: 28d2 5dbe 985b 39be dc02 a93e e913 07bf

encoder.layers.1.linear2.bias f4 [4]
0.6470918 0.64699614 -0.4828871 0.25228637
00000000: cfa7 253f 8aa1 253f fa3c f7be ae2b 813e

encoder.layers.1.norm1.weight f4 [4]
1.5599478 0.7233459 1.3916527 0.9714514
00000000: 5fac c73f 322d 393f ad21 b23f 0ab1 783f

encoder.layers.1.norm1.bias f4 [4]
0.7402918 0.18045126 -0.36904484 -0.013424567
00000000: c383 3d3f 37c8 383e 72f3 bcbe b7f2 5bbc

encoder.layers.1.norm2.weight f4 [4]
0.756105 0.8132825 0.6939782 0.36689594
00000000: 1990 413f 4833 503f 8ea8 313f c9d9 bb3e

encoder.layers.1.norm2.bias f4 [4]
-0.8348309 -0.1791131 0.7843321 0.08606797
00000000: 7ab7 55bf 6d69 37be fdc9 483f 6744 b03d

decoder.layers.0.self_attn.in_proj_weight f4 [12, 4]
-0.11795229 -0.12023488 -0.5495124 -0.5287456 -0.095823705 0.0079193115 -0.27818543 0.23068023
-0.55117095 -0.041327298 0.5385322 -0.24978182 0.5529743 0.22177297 -0.5526422 0.3874464
-0.070664406 -0.27336726 0.4896856 -0.49485525 0.065710604 -0.12821162 0.4373029 0.1709404
0.29424822 0.21626484 -0.14726007 -0.12878525 -0.50464475 0.3318104 0.4862103 0.41900045
-0.0611209 0.5521611 -0.05968731 0.03753826 -0.5931168 0.7024748 0.4776569 0.095893875
0.6096966 -1.0924213 -0.65892154 -0.69648814 0.1688873 -1.2540199 -0.5256739 0.4441554
00000000: f890 f1bd b43d f6bd d8ac 0cbf df5b 07bf
00000010: 383f c4bd 00c0 013c 526e 8ebe 7037 6c3e
00000020: 8a19 0dbf d046 29bd 3fdd 093f cec6 7fbe
00000030: b98f 0d3f 7418 633e f679 0dbf 605f c63e
00000040: 80b8 90bd cbf6 8bbe 12b8 fa3e ab5d fdbe
00000050: 4893 863d e849 03be 2ae6 df3e 000b 2f3e
00000060: b4a7 963e 8874 5d3e 58cb 16be 48e0 03be
00000070: 6630 01bf 0ee3 a93e 8ef0 f83e 3a87 d63e
00000080: e959 7abd 6e5a 0d3f ae7a 74bd b8c1 193d
00000090: 81d6 17bf 63d5 333f 728f f43e 0264 c43d
000000a0: 1415 1c3f 76d4 8bbf 15af 28bf 0c4d 32bf
000000b0: cbf0 2c3e b983 a0bf 9192 06bf 5668 e33e

decoder.layers.0.self_attn.in_proj_bias f4 [12]
0.0 0.0 0.0 0.0 0.0 0.0 0.0 0.0
-0.6163228 -0.12145599 -0.13177218 -0.3363666
00000000: 0000 0000 0000 0000 0000 0000 0000 0000
00000010: 0000 0000 0000 0000 0000 0000 0000 0000
00000020: 55c7 1dbf ebbd f8bd 49ef 06be 3e38 acbe

decoder.layers.0.self_attn.out_proj.weight f4 [4, 4]
0.17041804 0.10072591 0.62056804 -0.21760714 -0.98265475 -0.63321084 0.7571363 -0.5341714
0.55392337 -0.21524431 -0.59401494 -0.047387287 -0.44970158 0.36007676 -0.4855807 -0.7661254
00000000: 1182 2e3e 6349 ce3d 8cdd 1e3f 68d4 5ebe
00000010: 438f 7bbf 1b1a 22bf afd3 413f 75bf 08bf
00000020: eccd 0d3f 0169 5cbe 5d11 18bf 2c19 42bd
00000030: 493f e6be fb5b b83e 099e f8be cb20 44bf

decoder.layers.0.self_attn.out_proj.bias f4 [4]
-0.03041575 -0.50415933 0.15522546 -0.1476275
00000000: 732a f9bc 9610 01bf 6cf3 1e3e aa2b 17be

decoder.layers.0.multihead_attn.in_proj_weight f4 [12, 4]
-0.20546097 -0.09068465 0.0066983104 0.50508946 0.076447845 0.5484976 0.37459588 -0.3871504
0.27465153 -0.43288368 -0.25953886 0.18011266 0.20220053 0.45941895 -0.19713241 0.0009803176
0.31526375 -0.5922206 0.44273347 -0.5063845 0.008440018 -0.10411358 -0.32252002 0.08093792
0.5063823 -0.17900842 -0.36356193 -0.22647911 -0.60695195 0.27642125 -0.29410025 -0.40866083
-0.40474096 -0.034489136 0.30410737 -0.006314228 0.16410495 -0.050679922 -0.15586708 -0.103506714
0.4343564 -0.032828726 -0.22953641 0.017740797 -0.33702347 -0.1964418 -0.13569398 -0.09695272
00000000: 5c64 52be e0b8 b9bd 807d db3b 8b4d 013f
00000010: b090 9c3d 576a 0c3f 08cb bf3e 9438 c6be
00000020: 209f 8c3e eea2 ddbe 47e2 84be 746f 383e
00000030: a80d 4f3e f638 eb3e 14dd 49be 007e 803a
00000040: 406a a13e c59b 17bf f6ad e23e 6aa2 01bf
00000050: 0048 0a3c 8039 d5bd 5821 a5be c8c2 a53d
00000060: 45a2 013f fc4d 37be ca24 babe 24ea 67be
00000070: 3461 1bbf 1687 8d3e 4f94 96be fe3b d1be
00000080: 353a cfbe 7b44 0dbd f6b3 9b3e 95e7 cebb
00000090: 210b 283e c095 4fbd 9f9b 1fbe 54fb d3bd
000000a0: f663 de3e 6a77 06bd 980b 6bbe 2655 913c
000000b0: 578e acbe 0a28 49be 5df3 0abe 268f c6bd

decoder.layers.0.multihead_attn.in_proj_bias f4 [12]
0.0 0.0 0.0 0.0 0.0 0.0 0.0 0.0
0.19422872 -0.111673735 -0.25261813 0.09666884
00000000: 0000 0000 0000 0000 0000 0000 0000 0000
00000010: 0000 0000 0000 0000 0000 0000 0000 0000
00000020: e5e3 463e 33b5 e4bd 2a57 81be 50fa c53d

decoder.layers.0.multihead_attn.out_proj.weight f4 [4, 4]
0.053799137 0.01841938 0.077510685 0.028415818 0.035883028 -0.05827151 0.028088287 0.021689072
0.053263873 -0.046950426 -0.012850364 0.021926537 -0.016027287 -0.006627311 0.008287989 0.05626905
00000000: 7c5c 5c3d 3de4 963c ecbd 9e3d 4ac8 e83c
00000010: 15fa 123d 1bae 6ebd 6819 e63c 48ad b13c
00000020: 382b 5a3d 174f 40bd 558a 52bc 489f b33c
00000030: a84b 83bc ea29 d9bb 58ca 073c 607a 663d

decoder.layers.0.multihead_attn.out_proj.bias f4 [4]
0.08513697 -0.12168598 0.059681784 -0.06753852
00000000: 4b5c ae3d 8036 f9bd e374 743d a351 8abd

decoder.layers.0.linear1.weight f4 [4, 4]
0.52336097 -0.7304794 -0.44619384 0.4020151 0.34931743 -0.3431153 -0.6315401 0.6845774
0.10940258 0.24402365 0.1537394 0.091074415 -0.2753317 0.100172885 -0.5566848 0.33452845
00000000: fcfa 053f b300 3bbf 8573 e4be ecd4 cd3e
00000010: bcd9 b23e cfac afbe 9dac 21bf 7740 2f3f
00000020: 760e e03d 56e1 793e dc6d 1d3e 3985 ba3d
00000030: 47f8 8cbe 7127 cd3d e582 0ebf 5047 ab3e

decoder.layers.0.linear1.bias f4 [4]
-0.10369113 -0.5150383 -0.44409066 -0.67350423
00000000: 045c d4bd 8dd9 03bf da5f e3be c66a 2cbf

decoder.layers.0.linear2.weight f4 [4, 4]
-0.15003292 -0.53905135 -0.051554278 -0.41107115 0.7037368 0.80103296 -0.1433947 0.5423466
0.063183784 -0.5104752 0.046817034 -0.060366347 -0.21436077 0.38935614 -0.29363948 0.16022418
00000000: 3ba2 19be 45ff 09bf 942a 53bd eb77 d2be
00000010: 1828 343f 7f10 4d3f 0fd6 12be 3ad7 0a3f
00000020: 8066 813d 81ae 02bf 38c3 3f3d b442 77bd
00000030: 6481 5bbe b059 c73e ea57 96be cf11 243e

decoder.layers.0.linear2.bias f4 [4]
0.13942854 -0.20159931 -0.010233066 0.042608447
00000000: 5bc6 0e3e 0d70 4ebe 97a8 27bc 3286 2e3d

decoder.layers.0.norm1.weight f4 [4]
2.2046125 1.3772744 1.5779109 1.2603555
00000000: 5f18 0d40 874a b03f fcf8 c93f 5453 a13f

decoder.layers.0.norm1.bias f4 [4]
-0.12759267 -0.043536592 0.34668183 -0.38473776
00000000: a7a7 02be 6d53 32bd 4880 b13e 59fc c4be

decoder.layers.0.norm2.weight f4 [4]
1.5932263 1.129816 1.9547565 1.256165
00000000: d7ee cb3f d09d 903f 7635 fa3f 04ca a03f

decoder.layers.0.norm2.bias f4 [4]
0.14497729 -0.027485 0.20497231 -0.2956551
00000000: ed74 143e 3928 e1bc 43e4 513e 1b60 97be

decoder.layers.0.norm3.weight f4 [4]
1.6002604 1.3759962 1.8653193 1.3805034
00000000: 55d5 cc3f a520 b03f c8c2 ee3f 56b4 b03f

decoder.layers.0.norm3.bias f4 [4]
0.021908203 -0.19873053 0.00586915 0.1355462
00000000: d578 b33c 0480 4bbe 0052 c03b a0cc 0a3e

decoder.layers.1.self_attn.in_proj_weight f4 [12, 4]
-0.11795229 -0.12023488 -0.5495124 -0.5287456 -0.095823705 0.0079193115 -0.27818543 0.23068023
-0.55117095 -0.041327298 0.5385322 -0.24978182 0.5529743 0.22177297 -0.5526422 0.3874464
-0.070664406 -0.27336726 0.4896856 -0.49485525 0.065710604 -0.12821162 0.4373029 0.1709404
0.29424822 0.21626484 -0.14726007 -0.12878525 -0.50464475 0.3318104 0.4862103 0.41900045
-0.31035474 0.042651024 -0.07349266 -0.6204137 -0.21574196 0.26191705 0.039803296 -0.52046776
-0.23779435 0.049437363 -0.0024701455 -0.20527114 -0.0029559045 0.037470553 -0.00522182 -0.018233374
00000000: f890 f1bd b43d f6bd d8ac 0cbf df5b 07bf
00000010: 383f c4bd 00c0 013c 526e 8ebe 7037 6c3e
00000020: 8a19 0dbf d046 29bd 3fdd 093f cec6 7fbe
00000030: b98f 0d3f 7418 633e f679 0dbf 605f c63e
00000040: 80b8 90bd cbf6 8bbe 12b8 fa3e ab5d fdbe
00000050: 4893 863d e849 03be 2ae6 df3e 000b 2f3e
00000060: b4a7 963e 8874 5d3e 58cb 16be 48e0 03be
00000070: 6630 01bf 0ee3 a93e 8ef0 f83e 3a87 d63e
00000080: d1e6 9ebe d7b2 2e3d 5283 96bd 6fd3 1ebf
00000090: 76eb 5cbe fe19 863e c808 233d 603d 05bf
000000a0: 5d80 73be d57e 4a3d 2ae2 21bb 9932 52be
000000b0: d9b7 41bb b97a 193d cd1b abbb 285e 95bc

decoder.layers.1.self_attn.in_proj_bias f4 [12]
0.0 0.0 0.0 0.0 0.0 0.0 0.0 0.0
-0.22161625 -0.263552 -0.034599032 0.011613815
00000000: 0000 0000 0000 0000 0000 0000 0000 0000
00000010: 0000 0000 0000 0000 0000 0000 0000 0000
00000020: 5fef 62be 4af0 86be b7b7 0dbd df47 3e3c

decoder.layers.1.self_attn.out_proj.weight f4 [4, 4]
0.031274945 0.07083523 0.08137954 0.0428545 -0.016399719 -0.062766 0.08184566 -0.008225501
-0.10179609 -0.12930861 0.12312535 0.037417047 0.091318265 0.16960292 0.083999634 0.031739395
00000000: 281a 003d 1012 913d 51aa a63d 3388 2f3d
00000010: b458 86bc 768b 80bd b39e a73d 40c4 06bc
00000020: 787a d0bd 7a69 04be 2529 fc3d 9e42 193d
00000030: 1205 bb3d 63ac 2d3e 0008 ac3d 2b01 023d

decoder.layers.1.self_attn.out_proj.bias f4 [4]
0.010316225 -0.078130655 -0.0568162 0.11895756
00000000: 6205 293c f702 a0bd 1bb8 68bd 05a0 f33d

decoder.layers.1.multihead_attn.in_proj_weight f4 [12, 4]
-0.20546097 -0.09068465 0.0066983104 0.50508946 0.076447845 0.5484976 0.37459588 -0.3871504
0.27465153 -0.43288368 -0.25953886 0.18011266 0.20220053 0.45941895 -0.19713241 0.0009803176
0.31526375 -0.5922206 0.44273347 -0.5063845 0.008440018 -0.10411358 -0.32252002 0.08093792
0.5063823 -0.17900842 -0.36356193 -0.22647911 -0.60695195 0.27642125 -0.29410025 -0.40866083
-0.22451873 -0.1765864 0.10305367 -0.13302332 0.45833445 0.27184862 -0.5884733 0.11213476
0.56025696 0.2496104 -0.4108177 0.18318637 -0.35315463 -0.1385777 -0.2630521 0.027789215
00000000: 5c64 52be e0b8 b9bd 807d db3b 8b4d 013f
00000010: b090 9c3d 576a 0c3f 08cb bf3e 9438 c6be
00000020: 209f 8c3e eea2 ddbe 47e2 84be 746f 383e
00000030: a80d 4f3e f638 eb3e 14dd 49be 007e 803a
00000040: 406a a13e c59b 17bf f6ad e23e 6aa2 01bf
00000050: 0048 0a3c 8039 d5bd 5821 a5be c8c2 a53d
00000060: 45a2 013f fc4d 37be ca24 babe 24ea 67be
00000070: 3461 1bbf 1687 8d3e 4f94 96be fe3b d1be
00000080: 3de8 65be 11d3 34be cd0d d33d 4437 08be
00000090: d0aa ea3e be2f 8b3e 30a6 16bf e9a6 e53d
000000a0: 006d 0f3f de99 7f3e b356 d2be 3595 3b3e
000000b0: afd0 b4be 50e7 0dbe c4ae 86be 35a6 e33c

decoder.layers.1.multihead_attn.in_proj_bias f4 [12]
0.0 0.0 0.0 0.0 0.0 0.0 0.0 0.0
0.11947385 -0.21042849 -0.23787709 0.11414604
00000000: 0000 0000 0000 0000 0000 0000 0000 0000
00000010: 0000 0000 0000 0000 0000 0000 0000 0000
00000020: b5ae f43d 917a 57be 0d96 73be 66c5 e93d

decoder.layers.1.multihead_attn.out_proj.weight f4 [4, 4]
0.01631435 0.041776128 0.03496563 0.041387618 -0.0118575785 0.11791751 0.07231493 0.11070664
0.009557133 0.068679534 0.05788791 0.08069861 0.07618973 -0.01845764 -0.0009857207 -0.054085042
00000000: aca5 853c 721d 2b3d 1f38 0f3d 1086 293d
00000010: 4a46 42bc bc7e f13d da19 943d 2aba e23d
00000020: 8595 1c3c dba7 8c3d e01b 6d3d 5045 a53d
00000030: 5c09 9c3d 7a34 97bc 4c33 81ba 4788 5dbd

decoder.layers.1.multihead_attn.out_proj.bias f4 [4]
-0.004340438 -0.033873696 0.075535245 0.08361636
00000000: 3c3a 8ebb 25bf 0abd 39b2 9a3d 0e3f ab3d

decoder.layers.1.linear1.weight f4 [4, 4]
0.86853576 -0.26636866 -0.46522185 0.23487416 1.2335604 -0.39804807 -0.711603 0.13263547
0.18342818 0.14615604 0.04966101 0.15972076 -0.0537292 -0.7233262 -0.21836546 0.5742145
00000000: 5c58 5e3f 7961 88be 8f31 eebe da82 703e
00000010: 4fe5 9d3f f5cc cbbe 9d2b 36bf 98d1 073e
00000020: 99d4 3b3e eea9 153e 5869 4b3d d78d 233e
00000030: 2613 5cbd e82b 39bf 329b 5fbe b9ff 123f

decoder.layers.1.linear1.bias f4 [4]
0.25066718 0.27813762 -0.34733883 -0.6395433
00000000: 7357 803e 0e68 8e3e 65d6 b1be 1cb9 23bf

decoder.layers.1.linear2.weight f4 [4, 4]
-0.036404353 -0.30455264 0.07775499 -0.5048131 0.4334035 1.2081577 -0.25141957 0.0031667124
0.41651806 -0.14504951 0.16229583 0.23587538 -1.3633149 -1.780675 -0.3476538 -0.44051608
00000000: bb1c 15bd 53ee 9bbe 023e 9f3d 6e3b 01bf
00000010: 10e7 dd3e e9a4 9a3f 11ba 80be 9e88 4f3b
00000020: db41 d53e dc87 14be e130 263e 5189 713e
00000030: 1a81 aebf 29ed e3bf aeff b1be 538b e1be

decoder.layers.1.linear2.bias f4 [4]
-0.013210837 0.10028776 -0.06463685 -0.2127908
00000000: 4472 58bc ab63 cd3d 5360 84bd d5e5 59be

decoder.layers.1.norm1.weight f4 [4]
1.7210028 1.5039531 1.9977746 1.6874862
00000000: d249 dc3f 8981 c03f 14b7 ff3f 8cff d73f

decoder.layers.1.norm1.bias f4 [4]
-0.42815548 0.113785766 0.054376766 0.06123006
00000000: 3237 dbbe 8308 e93d 2cba 5e3d 5fcc 7a3d

decoder.layers.1.norm2.weight f4 [4]
1.4199312 2.101333 0.9652762 1.6146084
00000000: 4ec0 b53f 3d7c 0640 571c 773f 7dab ce3f

decoder.layers.1.norm2.bias f4 [4]
-1.025682 0.9399426 0.3986724 -0.64562994
00000000: 8c49 83bf 14a0 703f ca1e cc3e 0148 25bf

decoder.layers.1.norm3.weight f4 [4]
1.0642471 0.014722485 0.9153601 0.47376317
00000000: 4039 883f 9436 713c 0a55 6a3f 1691 f23e

decoder.layers.1.norm3.bias f4 [4]
-0.08591285 0.061837573 0.038700063 -0.028195977
00000000: 14f3 afbd 6549 7d3d f583 1e3d 40fb e6bc

linear_mapping.weight f4 [1, 4]
-0.52524567 0.048296303 0.37770975 0.058088284
00000000: 8076 06bf 58d2 453d 2c63 c13e fbed 6d3d

linear_mapping_with_gender_ind.weight f4 [1, 5]
0.055841506 -0.35157594 0.03514573 0.3096819 0.40299034
00000000: 10ba 643d c301 b4be f8f4 0f3d a08e 9e3e
00000010: c054 ce3e

exp_avg f4 [4, 5]
1.371431e-07 1.9821562e-07 1.61283e-07 7.6077555e-08 5.56781e-08 1.4704128e-08 7.066326e-09 2.5362574e-08
2.7134305e-08 -1.756042e-08 -6.2239083e-06 -6.252223e-06 -6.2168992e-06 -6.167503e-06 -6.146699e-06 -2.9327597e-07
-3.7228136e-07 -3.2712896e-07 -2.391715e-07 -2.1081894e-07
00000000: 9c41 1334 18d5 5434 222d 2d34 1460 a333
00000010: b822 6f33 709d 7c32 10cc f231 e4dc d932
00000020: f814 e932 c6d7 96b2 f7d6 d0b6 30ca d1b6
00000030: c29a d0b6 73f2 ceb6 be3f ceb6 8b73 9db4
00000040: f6dd c7b4 43a0 afb4 7b67 80b4 785d 62b4

exp_avg_sq f4 [4, 5]
1.4003867e-09 1.3788983e-09 1.4006102e-09 1.4184797e-09 1.4186347e-09 5.4217207e-11 5.6301623e-11 5.3763518e-11
5.6724354e-11 5.8751656e-11 9.576322e-11 9.554702e-11 9.356265e-11 9.464375e-11 9.4761296e-11 1.2451631e-11
1.4093688e-11 1.7456864e-11 1.4556516e-11 1.4463679e-11
00000000: ba77 c030 ac83 bd30 977f c030 51f4 c230
00000010: c5f9 c230 2673 6e2e fe9d 772e 5774 6c2e
00000020: f279 792e 3e32 812e e695 d22e 311c d22e
00000030: 17bf cd2e b21f d02e de61 d02e 290d 5b2d
00000040: 54f0 772d 5d8d 992d 5c0a 802d 9f72 7e2d

exp_avg f4 [4]
-1.2905672e-07 -1.1057722e-08 2.2224626e-06 1.469806e-07
00000000: d792 0ab4 60f8 3db2 9e25 1536 b8d1 1d34

exp_avg_sq f4 [4]
2.8893338e-10 1.3722752e-11 1.4275879e-11 3.3788124e-12
00000000: c2d7 9e2f c869 712d d824 7b2d 46c3 6d2c

exp_avg f4 [4, 1]
-0.058099512 0.07841148 -0.011112835 0.06716651
00000000: c1f9 6dbd 3396 a03d 9c12 36bc 988e 893d

exp_avg_sq f4 [4, 1]
0.029267235 0.019512389 0.025438176 0.013306068
00000000: d7c1 ef3c 72d8 9f3c b963 d03c b201 5a3c

exp_avg f4 [4]
0.029720604 -0.03492359 -0.001759395 -0.030223742
00000000: a078 f33c 0a0c 0fbd 809b e6ba c897 f7bc

exp_avg_sq f4 [4]
0.0051474688 0.003364666 0.0042404607 0.0025853245
00000000: 19ac a83b ba81 5c3b 90f3 8a3b 8c6e 293b

exp_avg f4 [12, 4]
-4.3872504e-08 1.0905232e-08 -2.5437277e-09 -9.034656e-08 -5.762075e-08 -7.534924e-09 3.4969003e-09 -4.6599862e-07
1.986297e-08 6.769758e-09 -1.4085197e-10 5.9955624e-08 5.735093e-08 -2.5873018e-08 1.7866011e-09 3.0963628e-07
1.8485634e-06 7.3157246e-08 1.3720543e-06 1.3145508e-07 -1.4272128e-07 -2.4025455e-09 -1.0101347e-07 -1.6271184e-08
-9.988642e-07 -4.4081695e-08 -7.495497e-07 -6.3237806e-08 -1.0098721e-06 -3.9857817e-08 -7.478966e-07 -5.816696e-08
1.0072854e-09 2.8350424e-09 -1.9046775e-09 3.1566437e-08 3.3822882e-08 -6.796084e-09 -1.0344802e-08 5.9401692e-08
2.65234e-08 -3.6039093e-08 4.5126547e-09 1.761424e-08 4.733101e-08 -3.4211123e-08 -4.977808e-09 7.268858e-08
00000000: 546e 3cb3 b859 3b32 bbcd 2eb1 8c04 c2b3
00000010: af7a 77b3 f272 01b2 1f4e 7031 5d2e fab4
00000020: 229f aa32 6c9b e831 4ede 1aaf f4c0 8033
00000030: 0452 7633 5e3f deb2 708c f530 163c a634
00000040: 281c f835 9f1a 9d33 6d27 b835 1926 0d34
00000050: ed3e 19b4 071a 25b1 beec d8b3 b6c4 8bb2
00000060: b610 86b5 5654 3db3 aa34 49b5 5acd 87b3
00000070: f18a 87b5 2230 2bb3 10c3 48b5 40d3 79b3
00000080: b470 8a30 98d2 4231 71e3 02b1 aa93 0733
00000090: a744 1133 fd82 e9b1 ecb8 31b2 da20 7f33
000000a0: 93d5 e332 67c9 1ab3 bb0d 9b31 204e 9732
000000b0: ff48 4b33 87ef 12b3 4309 abb1 f818 9c33

exp_avg_sq f4 [12, 4]
1.4152852e-12 5.454043e-12 2.2361675e-13 7.883462e-12 3.4220546e-13 1.1458044e-12 5.2477672e-14 2.4063611e-12
1.4708489e-12 7.025947e-12 2.35742e-13 1.2169516e-11 2.150054e-12 1.221588e-11 8.7914853e-13 2.5582406e-11
7.2877293e-10 3.4631553e-10 7.614055e-12 2.644119e-13 5.2592037e-12 3.2520484e-12 6.667163e-14 2.708391e-15
2.5266053e-10 1.1709128e-10 2.3984209e-12 8.889576e-14 1.9248499e-10 9.380706e-11 2.2872546e-12 6.702454e-14
1.9212237e-14 9.726846e-14 2.3247992e-14 1.062639e-12 2.0828269e-14 4.567394e-14 1.5472365e-14 7.6964525e-13
2.8429705e-14 1.02110235e-13 3.0052902e-14 1.3543188e-12 4.1938912e-14 1.0411853e-13 3.5707548e-14 1.5604528e-12
00000000: 062f c72b a7e5 bf2c 24c5 7b2a f5af 0a2d
00000010: 01a5 c02a f441 a12b a356 6c29 2655 292c
00000020: eb00 cf2b 1b34 f72c 01b6 842a a116 562d
00000030: ee4b 172c 6fe7 562d 5475 772b 7506 e12d
00000040: d652 4830 9463 be2f a8f2 052d c5d9 942a
00000050: b20a b92c b2d7 642c 9421 9629 ff28 4327
00000060: cfe6 8a2f 44be 002f 1cc6 282c eb2c c829
00000070: b5a3 532f ae48 ce2e 84f3 202c 04ed 9629
00000080: 670c ad28 7307 db29 3866 d128 9b8d 952b
00000090: b89a bb28 78b2 4d29 d85c 8b28 c9a2 582b
000000a0: 3809 0029 8bee e529 a358 0729 7a9a be2b
000000b0: 46e0 3c29 3f74 ea29 00d0 2029 3d9d db2b

exp_avg f4 [12]
-2.4623056e-08 -5.165986e-08 1.1792458e-08 4.3920586e-08 -1.4127379e-13 1.8447395e-14 2.3775082e-13 2.454798e-13
2.146689e-09 9.934745e-09 3.1114133e-09 1.1654234e-08
00000000: ac82 d3b2 9ee0 5db3 c797 4a32 32a3 3c33
00000010: 660f 1faa cc28 a628 81d7 852a 5e31 8a2a
00000020: f484 1331 78ad 2a32 90d0 5531 dd37 4832

exp_avg_sq f4 [12]
2.8280413e-13 7.4227666e-14 3.9530198e-13 9.672258e-13 2.3888665e-23 2.1102912e-25 2.1792028e-23 8.9138655e-24
3.6618684e-14 2.6656723e-14 4.6693403e-14 5.453362e-14
00000000: 5f34 9f2a 5625 a729 0589 de2a fb1f 882b
00000010: 7809 e719 e69e 8216 73c2 d219 536b 2c19
00000020: 78ea 2429 381a f028 d449 5229 fc98 7529

exp_avg f4 [4, 4]
2.335597e-07 -1.8236383e-07 2.0115748e-07 8.942537e-08 3.3200763e-08 -1.3388046e-10 3.7361715e-08 9.680541e-09
2.9642163e-07 -2.2262287e-07 2.5651488e-07 1.1193333e-07 6.2844435e-08 -3.0004188e-08 5.736218e-08 2.5134874e-08
00000000: 67c8 7a34 cacf 43b4 bffd 5734 1e0a c033
00000010: a098 0e33 0034 13af a477 2033 784f 2632
00000020: e123 9f34 1c0a 6fb4 23b7 8934 0060 f033
00000030: 18f5 8633 f4dd 00b3 625e 7633 2ce8 d732

exp_avg_sq f4 [4, 4]
5.3224708e-12 2.5681885e-12 4.0292257e-12 7.045233e-13 2.2703108e-11 1.0697771e-11 1.7417389e-11 2.935731e-12
6.9011468e-12 3.4379394e-12 5.263542e-12 9.138096e-13 1.1447232e-11 5.4525165e-12 8.778624e-12 1.4629925e-12
00000000: 8e44 bb2c 5fb8 342c 0ac4 8d2c 414e 462b
00000010: dbb2 c72d 7a32 3c2d 7934 992d 6e95 4e2c
00000020: 01d0 f22c 69ec 712c c631 b92c 769b 802b
00000030: c061 492d e7d7 bf2c 686f 1a2d dce5 cd2b

exp_avg f4 [4]
-1.3994301e-07 -4.170503e-08 -1.4883028e-09 1.05481604e-07
00000000: 3e43 16b4 2a1f 33b3 008d ccb0 2085 e233

exp_avg_sq f4 [4]
9.250474e-12 1.4219758e-12 8.89977e-13 1.1512405e-12
00000000: 6ebc 222d 1420 c82b 9a81 7a2b cf05 a22b

exp_avg f4 [4, 4]
5.5599836e-09 6.626069e-07 -4.41745e-08 -5.7532145e-07 2.1065952e-07 1.4552836e-07 -1.3327793e-06 6.536684e-07
2.3402945e-35 -2.399649e-34 -7.216672e-34 8.411725e-34 3.3718695e-11 5.237696e-11 -5.455992e-12 -5.5273036e-11
00000000: 220a bf31 00de 3135 60ba 3db3 ca6f 1ab5
00000010: a631 6234 8842 1c34 f3e1 b2b5 c077 2f35
00000020: e0dc f805 e97b 9f87 a8d0 6f88 85c3 8b08
00000030: e04b 142e 375b 662e 35f7 bfac e817 73ae

exp_avg_sq f4 [4, 4]
3.3720186e-11 2.4192958e-11 1.3982798e-10 2.1000911e-11 3.7536515e-12 2.8284283e-11 4.656462e-10 1.09067554e-10
1.8693712e-21 1.170411e-19 1.1982687e-18 1.5593807e-18 2.4270969e-15 3.7432764e-14 1.0948029e-14 1.1211739e-14
00000000: 8e4d 142e b3cd d42d 14be 192f d9b9 b82d
00000010: e311 842c 8bca f82d e0fd ff2f 93d7 ef2e
00000020: e63e 0d1d 802d 0a20 50d5 b021 bd1f e621
00000030: 09e4 2e27 0a95 2829 df38 4528 05f9 4928

exp_avg f4 [4]
2.268925e-08 4.1482946e-07 4.02605e-34 3.055485e-11
00000000: 30e6 c232 bab5 de34 d8c9 0508 b461 062e

exp_avg_sq f4 [4]
1.5847821e-11 5.2934605e-11 3.5896594e-19 1.067031e-14
00000000: 1f66 8b2d 11cf 682e 66e5 d320 1f38 4028

exp_avg f4 [4, 4]
3.5188816e-07 1.5203676e-07 5.0335798e-34 1.1300202e-10 2.0609247e-07 -1.6134034e-07 -5.358626e-34 -1.1788229e-10
5.5096052e-08 7.103758e-08 1.4563025e-38 -5.7840257e-11 -2.8656635e-07 -5.301147e-08 -8.2984047e-35 6.320479e-11
00000000: 24eb bc34 8c3f 2334 f644 2708 7b7e f82e
00000010: 444a 5d34 e53c 2db4 2612 3288 ea9c 01af
00000020: c0a2 6c33 538d 9833 ca93 9e00 5762 7eae
00000030: 61d9 99b4 baae 63b3 049c dc86 22fd 8a2e

exp_avg_sq f4 [4, 4]
1.3099392e-10 1.0929962e-11 9.17224e-19 6.7131736e-15 5.0934004e-11 5.0373e-12 7.4419987e-19 6.9453847e-15
2.146094e-12 3.595329e-14 3.2054576e-21 1.746328e-15 1.2413214e-11 1.3541707e-12 4.117189e-20 2.2929101e-15
00000000: 8307 102f 2c48 402d be5b 8721 19de f127
00000010: 9702 602e f73b b12c 27a6 5b21 de3b fa27
00000020: 9804 172c 52eb 2129 9132 721d 22ac fb26
00000030: 2560 5a2d 2495 be2b c36d 421f ba38 2527

exp_avg f4 [4]
3.5019877e-07 -5.64208e-07 7.637274e-07 -3.0186973e-07
00000000: f402 bc34 1474 17b5 f302 4d35 a910 a2b4

exp_avg_sq f4 [4]
6.2468364e-11 4.9758014e-11 1.8324842e-11 5.463883e-11
00000000: 905e 892e 8bd6 5a2e e02f a12d db4d 702e

exp_avg f4 [4]
-3.1205386e-07 9.199978e-07 8.773466e-08 6.198621e-07
00000000: 5b88 a7b4 c4f5 7635 a468 bc33 9964 2635

exp_avg_sq f4 [4]
5.3031583e-11 1.13384345e-11 2.8596011e-11 1.673079e-11
00000000: 413c 692e c577 472d 7e88 fb2d 642a 932d

exp_avg f4 [4]
-3.4207244e-07 -7.352278e-07 5.95076e-07 -7.77891e-08
00000000: 14a6 b7b4 785c 45b5 50bd 1f35 030d a7b3

exp_avg_sq f4 [4]
9.516233e-11 4.556923e-11 2.0492384e-11 3.0308082e-11
00000000: a143 d12e 646a 482e bf40 b42d de4b 052e

exp_avg f4 [4]
2.0121576e-07 5.109727e-07 -5.8966043e-07 -2.4552745e-07
00000000: c40d 5834 c729 0935 2849 1eb5 09d1 83b4

exp_avg_sq f4 [4]
2.1146236e-10 7.4980265e-11 1.5744055e-10 5.229474e-11
00000000: 5d81 682f 23e2 a42e 931b 2d2f a5fe 652e

exp_avg f4 [4]
-1.8134392e-07 -1.2058222e-06 7.305745e-07 -1.4307508e-07
00000000: 70b7 42b4 bcd7 a1b5 b31c 4435 2ea0 19b4

exp_avg_sq f4 [4]
1.3188854e-10 1.8602095e-10 6.8954e-11 1.6662212e-10
00000000: 5303 112f 3e88 4c2f a7a1 972e f533 372f

exp_avg f4 [12, 4]
8.1623256e-08 3.2386133e-08 -1.4321459e-07 8.222168e-10 -6.423788e-08 -2.9729947e-08 1.2065686e-07 -7.306129e-10
4.3572328e-08 1.8932008e-08 -7.918892e-08 3.0269118e-10 -7.648774e-08 -3.8684185e-08 1.5082405e-07 -1.4360936e-09
-1.5176785e-07 -3.1314947e-08 -5.603592e-08 1.2642613e-07 1.7514196e-07 4.2465533e-08 6.6947635e-08 -1.5224111e-07
-8.0782364e-08 -1.9683231e-08 -3.0587675e-08 7.018805e-08 1.6069694e-07 3.9601154e-08 6.179474e-08 -1.403832e-07
-8.0680724e-07 -2.9328768e-07 2.2354816e-06 -4.2771742e-07 -5.753035e-07 -2.3735896e-07 9.732457e-08 4.710211e-07
6.11133e-08 3.0128724e-08 -2.2165261e-07 5.5726332e-08 -5.20245e-07 -3.830924e-07 4.4163744e-07 3.968393e-07
00000000: dc48 af33 ee18 0b33 87c6 19b4 5d02 6230
00000010: 26f3 89b3 d860 ffb2 e88d 0134 50d4 48b0
00000020: 4824 3b33 ed9f a232 920e aab3 ff67 a62f
00000030: 9441 a4b3 b625 26b3 33f2 2134 0d60 c5b0
00000040: a1f5 22b4 267f 06b3 25ac 70b3 c0bf 0734
00000050: a80e 3c34 5963 3633 dac4 8f33 b877 23b4
00000060: 937a adb3 e213 a9b2 815f 03b3 4aba 9633
00000070: 0a8c 2c34 ee15 2a33 05b4 8433 3dbc 16b4
00000080: 5f93 58b5 2775 9db4 4805 1636 09a1 e5b4
00000090: 8e6e 1ab5 bcdc 7eb4 c000 d133 a6e0 fc34
000000a0: 643d 8333 e266 0133 68ff 6db4 c057 6f33
000000b0: f7a6 0bb5 d2ab cdb4 301a ed34 2e0d d534

exp_avg_sq f4 [12, 4]
3.6770462e-13 5.166072e-14 1.1210469e-12 2.728078e-15 2.018336e-13 3.5524514e-14 6.711307e-13 1.6465818e-15
8.186249e-14 1.3549936e-14 2.6268676e-13 5.78878e-16 3.792635e-13 6.948898e-14 1.3005531e-12 3.5164395e-15
1.1296447e-12 2.6816912e-12 4.2484863e-13 2.967972e-12 1.6010558e-12 3.9420958e-12 6.308698e-13 4.3815377e-12
3.10931e-13 7.9257017e-13 1.2877014e-13 8.816671e-13 1.3655263e-12 3.4131075e-12 5.4656204e-13 3.7901986e-12
3.0957164e-11 2.4942328e-11 2.5403796e-10 1.5891616e-12 4.5263845e-11 3.3135966e-11 3.6971678e-10 3.8796705e-12
1.0135223e-11 6.436069e-12 9.409532e-11 1.4494552e-12 4.36132e-11 2.9827567e-11 3.752204e-10 4.5442183e-12
00000000: d2ff ce2a c1a8 6829 f9c5 9d2b 2894 4427
00000010: 933e 632a fafc 1f29 10e8 3c2b 254c ed26
00000020: 8356 b829 0d18 7428 27e1 932a a8d9 2626
00000030: a181 d52a ab79 9c29 5d09 b72b dc62 7d27
00000040: bdfb 9e2b 0eb5 3c2c 242b ef2a 3bda 502c
00000050: 1d54 e12b 3eb3 8a2c f692 312b 6229 9a2c
00000060: e109 af2a b316 5f2b 77fb 102a cf2a 782b
00000070: 452e c02b 142d 702c f2d7 192b 135b 852c
00000080: ab26 082e 2165 db2d aaa8 8b2f 95a7 df2b
00000090: 8f12 472e c8bb 112e 0341 cb2f f780 882c
000000a0: fd4c 322d f572 e22c f5ea ce2e 21fe cb2b
000000b0: 19d0 3f2e db2e 032e 9447 ce2f aee2 9f2c

exp_avg f4 [12]
4.656583e-08 -3.8464375e-08 2.548302e-08 -4.744436e-08 -1.7071251e-14 -5.3490253e-14 -1.7766333e-14 -6.324661e-14
-7.0578517e-07 6.779817e-08 8.8974126e-08 -4.265405e-08
00000000: acff 4733 0734 25b3 c1e5 da32 a0c5 4bb3
00000010: a0c3 99a8 10e6 70a9 6006 a0a8 306b 8ea9
00000020: 3075 3db5 7098 9133 0b12 bf33 a032 37b3

exp_avg_sq f4 [12]
1.1912053e-13 6.982123e-14 2.749285e-14 1.3453751e-13 7.2421445e-23 9.599157e-23 2.0010126e-23 8.041534e-23
2.401846e-11 3.49927e-11 8.966996e-12 3.5280272e-11
00000000: 281e 062a 3339 9d29 32a2 f728 cc79 172a
00000010: b41a af1a e717 e81a ac86 c119 af6e c21a
00000020: c444 d32d 47e6 192e c3bf 1d2d 0e2a 1b2e

exp_avg f4 [4, 4]
8.0569043e-07 -1.4727227e-06 8.8096544e-07 8.837902e-07 1.9859758e-06 -1.5469186e-06 7.621941e-07 6.013811e-07
9.580731e-07 -2.521825e-06 1.2574269e-06 1.3513481e-06 5.2219607e-06 -5.210441e-06 3.5590808e-06 3.1758188e-06
00000000: a046 5835 5eaa c5b5 7c7b 6c35 9a3d 6d35
00000010: ce46 0536 b89f cfb5 9499 4c35 986e 2135
00000020: 2497 8035 a03c 29b6 dcc4 a835 f85f b535
00000030: 4d38 af36 59d5 aeb6 8bd8 6e36 2720 5536

exp_avg_sq f4 [4, 4]
2.6865618e-10 3.988032e-10 1.4542517e-10 1.3465953e-10 2.9389642e-09 4.040077e-09 1.5008456e-09 1.3504204e-09
1.0230171e-09 1.5006617e-09 5.447416e-10 4.985512e-10 1.2254766e-09 1.9385444e-09 6.8331885e-10 6.278714e-10
00000000: ffb1 932f 903e db2f 8ce5 1f2f 4a0f 142f
00000010: cef6 4931 e5d0 8a31 4f46 ce30 b299 b930
00000020: 379a 8c30 d73f ce30 c8bc 1530 6c0a 0930
00000030: a06d a830 3c37 0531 4ad4 3b30 8696 2c30

exp_avg f4 [4]
8.7558175e-07 -5.42845e-07 2.7654528e-07 1.3671054e-06
00000000: 8509 6b35 06b8 11b5 1878 9434 627d b735

exp_avg_sq f4 [4]
6.5840604e-11 2.5279556e-10 7.4123326e-11 2.3372218e-10
00000000: f7c8 902e d0f9 8a2f b9ff a22e 797d 802f

exp_avg f4 [4, 4]
3.2192393e-06 8.856698e-08 -1.4143598e-06 -8.0975184e-07 -6.150249e-07 -1.6741296e-10 6.3042086e-07 -1.8902557e-07
6e-45 -6e-45 -6e-45 6e-45 2.724744e-08 6.887066e-09 -3.749038e-08 5.896481e-09
00000000: 1c0a 5836 3632 be33 08d5 bdb5 b95d 59b5
00000010: 3018 25b5 8f12 38af 313a 2935 f4f6 4ab4
00000020: 0400 0000 0400 0080 0400 0080 0400 0000
00000030: c10d ea32 46a3 ec31 1c05 21b3 ff99 ca31

exp_avg_sq f4 [4, 4]
7.37898e-09 8.245305e-11 2.8554534e-09 2.2861227e-10 3.501782e-09 2.3624358e-10 4.253238e-09 1.5382345e-11
6.4e-44 4.2e-44 3.04e-43 3.5e-44 1.3561165e-10 2.1340096e-11 1.842019e-10 1.0748805e-11
00000000: 328a fd31 f150 b52e ab39 4431 a25c 7b2f
00000010: 00a4 7031 54e0 812f e123 9231 f64d 872d
00000020: 2e00 0000 1e00 0000 d900 0000 1900 0000
00000030: 491b 152f a0b5 bb2d 3a88 4a2f 5018 3d2d

exp_avg f4 [4]
8.2990573e-07 -2.2354902e-07 -6e-45 1.3531894e-08
00000000: b0c6 5e35 b008 70b4 0400 0080 e679 6832

exp_avg_sq f4 [4]
8.085329e-10 6.238228e-10 9.2e-44 3.164242e-11
00000000: 723f 5e30 a179 2b30 4200 0000 332a 0b2e

exp_avg f4 [4, 4]
-1.5804024e-05 4.891402e-07 -6e-45 -1.6489206e-10 -1.5225207e-05 -3.924767e-07 6e-45 -6.8463333e-09
-2.5761925e-05 5.0515064e-07 -6e-45 -3.0207108e-09 2.6368296e-05 -8.702656e-09 -6e-45 1.2499486e-09
00000000: e292 84b7 754d 0335 0400 0080 fd4c 35af
00000010: c46f 7fb7 96b5 d2b4 0400 0000 fc3c ebb1
00000020: 501b d8b7 b099 0735 0400 0080 e894 4fb1
00000030: 7c31 dd37 b082 15b2 0400 0080 a8ca ab30

exp_avg_sq f4 [4, 4]
3.188901e-08 2.163457e-10 3.5e-44 2.3170443e-12 9.4360836e-08 3.0775502e-10 3.5e-44 5.8517744e-12
2.9809094e-08 1.1641908e-10 7e-44 1.541617e-12 5.080839e-08 2.2646206e-10 8.7e-44 2.7662957e-12
00000000: 56f6 0833 e7df 6d2f 1900 0000 290c 232c
00000010: 6ba3 ca33 ab30 a92f 1900 0000 19e4 cd2c
00000020: 7207 0033 0f01 002f 3200 0000 9bf6 d82b
00000030: 6a38 5a33 67ff 782f 3e00 0000 27a9 422c

exp_avg f4 [4]
4.0129016e-06 -1.6583812e-05 3.7369637e-06 1.9282675e-07
00000000: 90a6 8636 771d 8bb7 8cc8 7a36 d00b 4f34

exp_avg_sq f4 [4]
5.423165e-09 1.7575433e-08 5.0146487e-09 9.18717e-09
00000000: aa56 ba31 c9f8 9632 514d ac31 9ad5 1d32

exp_avg f4 [4]
6.3955504e-06 2.0068992e-06 -1.4971438e-06 -4.040159e-06
00000000: 5c99 d636 44ae 0636 78f1 c8b5 b490 87b6

exp_avg_sq f4 [4]
9.987806e-09 1.0924323e-09 5.7696963e-09 2.5446099e-09
00000000: d696 2b32 8b24 9630 c93e c631 40dd 2e31

exp_avg f4 [4]
3.85955e-06 -5.00462e-06 -6.2730123e-07 2.0900645e-06
00000000: 4881 8136 5ced a7b6 d063 28b5 0943 0c36

exp_avg_sq f4 [4]
4.269195e-09 1.5569913e-08 5.712375e-09 8.783011e-09
00000000: 3db0 9231 9abe 8532 9546 c431 17e4 1632

exp_avg f4 [4]
0.00053414446 2.4912183e-06 0.0003192445 -1.3971868e-05
00000000: d405 0c3a ce2e 2736 4560 a739 b768 6ab7

exp_avg_sq f4 [4]
1.00820325e-05 1.1165436e-08 6.4855044e-06 2.646664e-08
00000000: 0026 2937 1bd2 3f32 0f9e d936 c258 e332

exp_avg f4 [4]
0.00035787933 8.1693346e-05 -0.00024900533 3.752268e-05
00000000: c0a1 bb39 c852 ab38 ee8c 82b9 ac61 1d38

exp_avg_sq f4 [4]
4.6897812e-06 2.9393232e-07 3.7435682e-06 2.0528509e-07
00000000: ea5c 9d36 c0cd 9d34 033a 7b36 566c 5c34

exp_avg f4 [12, 4]
0.0 0.0 0.0 0.0 0.0 0.0 0.0 0.0
0.0 0.0 0.0 0.0 0.0 0.0 0.0 0.0
0.0 0.0 0.0 0.0 0.0 0.0 0.0 0.0
0.0 0.0 0.0 0.0 0.0 0.0 0.0 0.0
0.0026582333 -0.001446175 -0.001882673 -0.0015887644 -0.0003998034 0.00045388073 0.0007909673 0.00035529683
-0.0009972043 0.0012066808 0.0016709751 -0.0011589959 0.0011340727 -0.0004907045 -0.0005982926 -2.980337e-05
00000000: 0000 0000 0000 0000 0000 0000 0000 0000
00000010: 0000 0000 0000 0000 0000 0000 0000 0000
00000020: 0000 0000 0000 0000 0000 0000 0000 0000
00000030: 0000 0000 0000 0000 0000 0000 0000 0000
00000040: 0000 0000 0000 0000 0000 0000 0000 0000
00000050: 0000 0000 0000 0000 0000 0000 0000 0000
00000060: 0000 0000 0000 0000 0000 0000 0000 0000
00000070: 0000 0000 0000 0000 0000 0000 0000 0000
00000080: c135 2e3b 958d bdba 06c4 f6ba 163e d0ba
00000090: b49c d1b9 d7f6 ed39 eb58 4f3a 2247 ba39
000000a0: a0b4 82ba 7d29 9e3a 9f04 db3a 73e9 97ba
000000b0: 2aa5 943a 9fa2 00ba bdd6 1cba 4002 fab7

exp_avg_sq f4 [12, 4]
0.0 0.0 0.0 0.0 0.0 0.0 0.0 0.0
0.0 0.0 0.0 0.0 0.0 0.0 0.0 0.0
0.0 0.0 0.0 0.0 0.0 0.0 0.0 0.0
0.0 0.0 0.0 0.0 0.0 0.0 0.0 0.0
8.747643e-05 4.5262226e-05 9.040132e-05 6.694419e-05 9.772577e-06 4.4915882e-06 9.694265e-06 9.919867e-06
5.764665e-05 4.265044e-05 5.9823185e-05 6.918376e-05 1.9275289e-05 9.853202e-06 1.9581012e-05 1.9025663e-05
00000000: 0000 0000 0000 0000 0000 0000 0000 0000
00000010: 0000 0000 0000 0000 0000 0000 0000 0000
00000020: 0000 0000 0000 0000 0000 0000 0000 0000
00000030: 0000 0000 0000 0000 0000 0000 0000 0000
00000040: 0000 0000 0000 0000 0000 0000 0000 0000
00000050: 0000 0000 0000 0000 0000 0000 0000 0000
00000060: 0000 0000 0000 0000 0000 0000 0000 0000
00000070: 0000 0000 0000 0000 0000 0000 0000 0000
00000080: 8d73 b738 f2d7 3d38 d795 bd38 6364 8c38
00000090: e6f4 2337 73b6 9636 8da4 2237 816d 2637
000000a0: 9ec9 7138 90e3 3238 a8ea 7a38 c016 9138
000000b0: 5eb1 a137 2e4f 2537 e741 a437 4d99 9f37

exp_avg f4 [12]
0.0 0.0 0.0 0.0 0.0 0.0 0.0 0.0
-0.015368185 -0.00233661 0.029869132 -0.005553727
00000000: 0000 0000 0000 0000 0000 0000 0000 0000
00000010: 0000 0000 0000 0000 0000 0000 0000 0000
00000020: d7ca 7bbc d021 19bb 1cb0 f43c 0afc b5bb

exp_avg_sq f4 [12]
0.0 0.0 0.0 0.0 0.0 0.0 0.0 0.0
0.0018207328 0.00029038015 0.00315215 0.00036301202
00000000: 0000 0000 0000 0000 0000 0000 0000 0000
00000010: 0000 0000 0000 0000 0000 0000 0000 0000
00000020: a8a5 ee3a 2a3e 9839 4d94 4e3b a652 be39

exp_avg f4 [4, 4]
-0.010516187 -0.0018417971 -0.00030060683 -0.0075317123 -0.0061579035 -0.00045493146 -0.0019565916 -0.0041577
0.010580484 -0.001860694 0.0074206428 0.009941428 0.0032299529 0.0016629893 -0.0012255601 0.0010979926
00000000: 164c 2cbc 7568 f1ba c49a 9db9 95cc f6bb
00000010: 3dc8 c9bb de83 eeb9 293a 00bb 513d 88bb
00000020: c459 2d3c 88e2 f3ba dd28 f33b 5fe1 223c
00000030: 9ead 533b a9f8 d93a f9a2 a0ba 85ea 8f3a

exp_avg_sq f4 [4, 4]
0.001353808 0.0003252281 0.0002318536 0.000297797 0.000243786 6.4319545e-05 0.00016433984 0.00017588121
0.00083377626 8.1455335e-05 0.00036650244 0.0006220574 0.00017656686 4.7626356e-05 4.731782e-05 4.2547887e-05
00000000: 4272 b13a 6083 aa39 ba1d 7339 a321 9c39
00000010: cea0 7f39 4be3 8638 a452 2c39 c16c 3839
00000020: c791 5a3a 00d3 aa38 2027 c039 9111 233a
00000030: ce24 3939 69c2 4738 1f77 4638 7275 3238

exp_avg f4 [4]
0.010403539 0.0007857864 0.00082264654 -0.00678289
00000000: 9b73 2a3c 3cfd 4d3a e0a6 573a 0143 debb

exp_avg_sq f4 [4]
0.0035044323 0.0004508993 0.002963817 0.00045176
00000000: 9eaa 653b ae66 ec39 993c 423b 33da ec39

exp_avg f4 [12, 4]
0.0 0.0 0.0 0.0 0.0 0.0 0.0 0.0
0.0 0.0 0.0 0.0 0.0 0.0 0.0 0.0
0.0 0.0 0.0 0.0 0.0 0.0 0.0 0.0
0.0 0.0 0.0 0.0 0.0 0.0 0.0 0.0
-0.00020922074 9.1249625e-05 5.2614312e-05 6.955811e-07 4.5736328e-05 2.9901532e-05 -5.4377902e-05 6.870412e-06
-3.7886493e-05 9.079315e-05 -2.907639e-05 4.853211e-06 -0.00011824217 2.901538e-05 4.354372e-05 1.4229959e-06
00000000: 0000 0000 0000 0000 0000 0000 0000 0000
00000010: 0000 0000 0000 0000 0000 0000 0000 0000
00000020: 0000 0000 0000 0000 0000 0000 0000 0000
00000030: 0000 0000 0000 0000 0000 0000 0000 0000
00000040: 0000 0000 0000 0000 0000 0000 0000 0000
00000050: 0000 0000 0000 0000 0000 0000 0000 0000
00000060: 0000 0000 0000 0000 0000 0000 0000 0000
00000070: 0000 0000 0000 0000 0000 0000 0000 0000
00000080: 4462 5bb9 455d bf38 30ae 5c38 f8b7 3a35
00000090: 02d5 3f38 0dd5 fa37 d413 64b8 6488 e636
000000a0: 50e8 1eb8 3468 be38 12e9 f3b7 c4d8 a236
000000b0: c8f8 f7b8 0e66 f337 b7a2 3638 c4fd be35

exp_avg_sq f4 [12, 4]
0.0 0.0 0.0 0.0 0.0 0.0 0.0 0.0
0.0 0.0 0.0 0.0 0.0 0.0 0.0 0.0
0.0 0.0 0.0 0.0 0.0 0.0 0.0 0.0
0.0 0.0 0.0 0.0 0.0 0.0 0.0 0.0
3.934957e-07 3.010676e-08 8.108952e-08 3.852725e-09 3.8721151e-07 3.5019994e-08 9.213169e-08 7.451023e-09
5.24338e-07 5.68426e-08 1.12400954e-07 8.69922e-09 2.969066e-07 1.0032604e-08 8.7043496e-08 2.5433804e-09
00000000: 0000 0000 0000 0000 0000 0000 0000 0000
00000010: 0000 0000 0000 0000 0000 0000 0000 0000
00000020: 0000 0000 0000 0000 0000 0000 0000 0000
00000030: 0000 0000 0000 0000 0000 0000 0000 0000
00000040: 0000 0000 0000 0000 0000 0000 0000 0000
00000050: 0000 0000 0000 0000 0000 0000 0000 0000
00000060: 0000 0000 0000 0000 0000 0000 0000 0000
00000070: 0000 0000 0000 0000 0000 0000 0000 0000
00000080: a341 d334 bc4e 0133 6f23 ae33 ed60 8431
00000090: f2e1 cf34 e468 1633 efd9 c533 f201 0032
000000a0: 3cc0 0c35 1a23 7433 1461 f133 9373 1532
000000b0: 8866 9f34 dc5b 2c32 abec ba33 9fc7 2e31

exp_avg f4 [12]
0.0 0.0 0.0 0.0 0.0 0.0 0.0 0.0
-0.0004386331 6.787607e-05 -0.00021049663 -0.00028190657
00000000: 0000 0000 0000 0000 0000 0000 0000 0000
00000010: 0000 0000 0000 0000 0000 0000 0000 0000
00000020: 57f8 e5b9 b058 8e38 c2b8 5cb9 dccc 93b9

exp_avg_sq f4 [12]
0.0 0.0 0.0 0.0 0.0 0.0 0.0 0.0
2.4882963e-06 3.0787667e-06 4.20169e-06 1.9823892e-06
00000000: 0000 0000 0000 0000 0000 0000 0000 0000
00000010: 0000 0000 0000 0000 0000 0000 0000 0000
00000020: 9bfc 2636 cf9c 4e36 3efc 8c36 3009 0536

exp_avg f4 [4, 4]
-0.00028586487 0.00028412286 0.0005016717 -0.00015302442 -0.00022409772 0.0001203639 0.00013910414 -0.00015582376
0.0005241737 -0.00034568668 -0.0005120229 0.00026294464 -0.00019884249 9.5235824e-05 0.00016217728 -0.00013840677
00000000: 22e0 95b9 53f6 9439 9e82 033a 2e75 20b9
00000010: c6fb 6ab9 e06b fc38 7cdc 1139 9f64 23b9
00000020: b468 093a 483d b5b9 4639 06ba d5db 8939
00000030: 6080 50b9 58b9 c738 220e 2a39 4921 11b9

exp_avg_sq f4 [4, 4]
2.862422e-06 8.011081e-07 2.136262e-06 9.765253e-07 7.0311006e-07 2.9876261e-07 3.892156e-07 1.8922626e-07
2.4751932e-06 8.069028e-07 1.6026306e-06 6.9427455e-07 5.6117744e-07 1.9262039e-07 3.2656948e-07 2.2338918e-07
00000000: 0918 4036 bb0b 5735 b45c 0f36 2711 8335
00000010: 5bbd 3c35 9f65 a034 62f5 d034 1e2e 4b34
00000020: 7f1b 2636 f099 5835 f819 d735 2f5e 3a35
00000030: d2a3 1635 17d3 4e34 5e53 af34 c0dc 6f34

exp_avg f4 [4]
-0.001473635 0.001939244 -0.00050457846 -5.5412347e-05
00000000: fc26 c1ba 3b2e fe3a b045 04ba 8e6a 68b8

exp_avg_sq f4 [4]
0.00038910602 9.767098e-05 0.00027010805 5.7372654e-05
00000000: ed00 cc39 b5d4 cc38 4a9d 8d39 6ba3 7038

exp_avg f4 [4, 4]
-0.0017008593 0.0010601202 -0.00088398566 0.000798326 -0.00066892325 0.00016650656 0.00030446504 0.00016002891
4.196173e-27 1.0783853e-26 -5.6039292e-27 -1.143181e-26 -0.0012153701 -0.0011779742 0.0015479578 0.0013288786
00000000: 5eef deba bbf3 8a3a 46bb 67ba c046 513a
00000010: ae5a 2fba 4498 2e39 9ba0 9f39 6fcd 2739
00000020: 403a a613 a298 5514 98fe dd93 2a6e 6294
00000030: 0e4d 9fba 4166 9aba d8e4 ca3a c42d ae3a

exp_avg_sq f4 [4, 4]
1.735592e-05 4.3470964e-06 8.8090455e-06 3.6469557e-06 3.874822e-05 2.5797005e-06 2.0525331e-05 1.2991428e-05
2.6787402e-13 1.7691751e-12 4.777593e-13 1.9881664e-12 7.914051e-05 7.973601e-05 8.745006e-05 5.160651e-05
00000000: 8e97 9137 46dd 9136 90ca 1337 39be 7436
00000010: 9685 2238 eb1e 2d36 d02d ac37 c2f5 5937
00000020: b7cc 962a 40fd f82b 307a 062b 9fe7 0b2c
00000030: 3df8 a538 f237 a738 6565 b738 1174 5838

exp_avg f4 [4]
-0.0007238829 -9.369525e-05 6.406873e-27 -0.0001501313
00000000: f6c2 3dba 417e c4b8 69cd fd13 906c 1db9

exp_avg_sq f4 [4]
3.5849337e-06 8.076197e-06 6.244755e-13 3.939933e-05
00000000: b194 7036 017f 0737 34c6 2f2b b540 2538

exp_avg f4 [4, 4]
-0.0028984249 0.00025354614 6e-45 0.0011398211 -0.0023716297 -0.0001738204 -6e-45 0.00056001183
0.0040618423 1.139467e-05 1.0308878e-29 -0.0019152099 -0.00037119805 -9.9770354e-05 -8.9868994e-32 -0.00029880874
00000000: 80f3 3dbb 63ee 8439 0400 0000 0d66 953a
00000010: 586d 1bbb 8f43 36b9 0400 0080 c2cd 123a
00000020: 3419 853b bc2b 3f37 c116 510f c807 fbba
00000030: 5c9d c2b9 cd3b d1b8 3150 e98b 6ea9 9cb9

exp_avg_sq f4 [4, 4]
5.4830507e-05 8.779525e-06 3.5e-44 2.6718377e-05 1.4159817e-05 1.6444181e-06 3.5e-44 8.325008e-06
4.9121627e-05 1.8841703e-06 1.6167647e-18 3.833518e-05 4.3276045e-06 1.2516836e-06 1.2286936e-22 3.1208294e-06
00000000: cff9 6538 c64b 1337 1900 0000 4721 e037
00000010: f38f 6d37 c7b5 dc35 1900 0000 a3ab 0b37
00000020: f207 4e38 99e3 fc35 a597 ee21 16ca 2038
00000030: d735 9136 85ff a735 3a8a 141b 716f 5136

exp_avg f4 [4]
-0.0027138467 0.0005557421 0.0006734958 0.0007258338
00000000: cbda 31bb 39af 113a 8a8d 303a e245 3e3a

exp_avg_sq f4 [4]
0.0002960122 0.00014494378 0.00019387613 3.0252513e-05
00000000: 1632 9b39 0dfc 1739 3a4b 4b39 c7c6 fd37

exp_avg f4 [4]
-0.0025867298 0.0020496617 0.00077875785 0.00041236405
00000000: 2086 29bb 9e53 063b 8e25 4c3a 9132 d839

exp_avg_sq f4 [4]
5.6962268e-05 6.1029117e-05 7.8570076e-05 4.385799e-05
00000000: c5ea 6e38 84f9 7f38 fdc5 a438 28f4 3738

exp_avg f4 [4]
-0.0019978792 0.0011034952 0.00087075145 2.3633344e-05
00000000: daee 02bb 28a3 903a 2443 643a 3840 c637

exp_avg_sq f4 [4]
0.0002818908 7.0153e-05 0.00025133698 5.6956153e-05
00000000: beca 9339 1b1f 9338 e1c5 8339 34e4 6e38

exp_avg f4 [4]
-0.001899273 0.002560498 -0.00028116937 0.00028229604
00000000: 07f1 f8ba 07ce 273b ea69 93b9 2201 9439

exp_avg_sq f4 [4]
8.03092e-05 0.000106953186 3.685143e-05 3.8859558e-05
00000000: ac6b a838 0e4c e038 ec90 1a38 22fd 2238

exp_avg f4 [4]
-0.0025963357 0.001501245 0.0011863578 0.00013982
00000000: 4927 2abb 6cc5 c43a 907f 9b3a a59c 1239

exp_avg_sq f4 [4]
0.00024870754 9.92261e-05 0.00018053674 4.7059813e-05
00000000: f664 8239 9b17 d038 764e 3d39 1762 4538

exp_avg f4 [4]
-0.001213806 0.0021018586 -6.3658634e-05 -0.0009868197
00000000: 9218 9fba 56bf 093b 7880 85b8 2d58 81ba

exp_avg_sq f4 [4]
6.733243e-05 8.184809e-05 3.7013997e-05 1.6239881e-05
00000000: d334 8d38 dca5 ab38 7a3f 1b38 e13a 8837

exp_avg f4 [4]
-0.0010384264 0.00076134125 0.00017727725 0.00056240906
00000000: cf1b 88ba bf94 473a 80e3 3939 a26e 133a

exp_avg_sq f4 [4]
0.0001696459 9.1918235e-05 9.50501e-05 3.0441017e-05
00000000: f9e2 3139 3ac4 c038 a255 c738 965b ff37

exp_avg f4 [12, 4]
0.0 0.0 0.0 0.0 0.0 0.0 0.0 0.0
0.0 0.0 0.0 0.0 0.0 0.0 0.0 0.0
0.0 0.0 0.0 0.0 0.0 0.0 0.0 0.0
0.0 0.0 0.0 0.0 0.0 0.0 0.0 0.0
-0.0011643647 0.00064251345 -0.00055228383 0.000781407 -0.0014130019 0.00063937274 -0.0006797661 0.0010984008
0.0005764127 -0.00069625536 0.00032821708 -4.7383888e-05 -1.30596345e-05 -0.000352128 0.00022470125 0.00018616847
00000000: 0000 0000 0000 0000 0000 0000 0000 0000
00000010: 0000 0000 0000 0000 0000 0000 0000 0000
00000020: 0000 0000 0000 0000 0000 0000 0000 0000
00000030: 0000 0000 0000 0000 0000 0000 0000 0000
00000040: 0000 0000 0000 0000 0000 0000 0000 0000
00000050: 0000 0000 0000 0000 0000 0000 0000 0000
00000060: 0000 0000 0000 0000 0000 0000 0000 0000
00000070: 0000 0000 0000 0000 0000 0000 0000 0000
00000080: 999d 98ba 596e 283a 24c7 10ba 56d7 4c3a
00000090: 7a34 b9ba 949b 273a 5532 32ba 37f8 8f3a
000000a0: 671a 173a e884 36ba 8d14 ac39 10be 46b8
000000b0: b41a 5bb7 d29d b8b9 c89d 6b39 3836 4339

exp_avg_sq f4 [12, 4]
0.0 0.0 0.0 0.0 0.0 0.0 0.0 0.0
0.0 0.0 0.0 0.0 0.0 0.0 0.0 0.0
0.0 0.0 0.0 0.0 0.0 0.0 0.0 0.0
0.0 0.0 0.0 0.0 0.0 0.0 0.0 0.0
4.4961375e-06 1.9284157e-06 4.685998e-06 2.162799e-06 1.31816605e-05 6.4112332e-06 1.4603101e-05 6.1677197e-06
2.175413e-06 1.5726392e-06 2.4187677e-06 8.700464e-07 7.880037e-07 1.5286763e-06 2.7525311e-06 6.2376677e-07
00000000: 0000 0000 0000 0000 0000 0000 0000 0000
00000010: 0000 0000 0000 0000 0000 0000 0000 0000
00000020: 0000 0000 0000 0000 0000 0000 0000 0000
00000030: 0000 0000 0000 0000 0000 0000 0000 0000
00000040: 0000 0000 0000 0000 0000 0000 0000 0000
00000050: 0000 0000 0000 0000 0000 0000 0000 0000
00000060: 0000 0000 0000 0000 0000 0000 0000 0000
00000070: 0000 0000 0000 0000 0000 0000 0000 0000
00000080: 87dd 9636 ee69 0136 6b3c 9d36 9b24 1136
00000090: cd26 5d37 1320 d736 d7ff 7437 4ff4 ce36
000000a0: 50fd 1136 7913 d335 1d52 2236 228d 6935
000000b0: 3487 5335 eb2c cd35 20b8 3836 ed70 2735

exp_avg f4 [12]
0.0 0.0 0.0 0.0 0.0 0.0 0.0 0.0
-0.00030101318 -0.0004934283 0.00010750634 0.00016985573
00000000: 0000 0000 0000 0000 0000 0000 0000 0000
00000010: 0000 0000 0000 0000 0000 0000 0000 0000
00000020: 4ed1 9db9 6a59 01ba 0775 e138 4d1b 3239

exp_avg_sq f4 [12]
0.0 0.0 0.0 0.0 0.0 0.0 0.0 0.0
1.2329724e-06 4.1207163e-06 6.0626604e-07 5.8688994e-07
00000000: 0000 0000 0000 0000 0000 0000 0000 0000
00000010: 0000 0000 0000 0000 0000 0000 0000 0000
00000020: 9c7c a535 af44 8a36 49be 2235 c58a 1d35

exp_avg f4 [4, 4]
-0.0035654595 -0.0041581746 -0.00092767226 -0.0001012445 -0.00030950975 -0.0003151267 0.0006740984 0.00019199307
5.290086e-05 -0.00020800305 -0.001610342 -0.0003974605 0.00092914526 0.0011388706 0.0002544417 2.515841e-05
00000000: 7caa 69bb 4c41 88bb 082f 73ba 3a53 d4b8
00000010: b245 a2b9 9737 a5b9 fab5 303a bf51 4939
00000020: dee1 5d38 651b 5ab9 1c12 d3ba 3f62 d0b9
00000030: e291 733a 2846 953a 9666 8539 460b d337

exp_avg_sq f4 [4, 4]
6.209607e-05 9.268862e-05 1.5164026e-05 2.3077137e-06 1.5590873e-05 2.3212086e-05 6.7435085e-06 1.035155e-06
2.0374242e-05 3.1407442e-05 6.2142635e-06 6.9071314e-07 8.7879525e-06 1.2861611e-05 3.7822554e-06 5.045361e-07
00000000: 9339 8238 d361 c238 ff68 7e37 38de 1a36
00000010: 25c9 8237 93b7 c237 4c46 e236 a8ef 8a35
00000020: 5ae9 aa37 7cbb 0338 1e84 d036 7269 3935
00000030: f86f 1337 33c8 5737 a7d2 7d36 756f 0735

exp_avg f4 [4]
-0.0014644904 0.0019314357 -0.0004160048 -0.00067395857
00000000: 25f4 bfba 3a28 fd3a 381b dab9 98ac 30ba

exp_avg_sq f4 [4]
0.00024159662 0.00010683838 0.0001140008 4.2483076e-05
00000000: 1955 7d39 6b0e e038 b713 ef38 db2f 3238

exp_avg f4 [12, 4]
0.0 0.0 0.0 0.0 0.0 0.0 0.0 0.0
0.0 0.0 0.0 0.0 0.0 0.0 0.0 0.0
0.0 0.0 0.0 0.0 0.0 0.0 0.0 0.0
0.0 0.0 0.0 0.0 0.0 0.0 0.0 0.0
8.965893e-06 -9.967762e-06 1.2730407e-06 -5.4523744e-06 5.615184e-05 3.287482e-06 -3.0285031e-05 3.9615225e-07
5.110199e-05 6.1046103e-07 -2.6029385e-05 -4.4106514e-07 1.3636221e-05 1.2843275e-05 -1.6329193e-05 -3.5698895e-07
00000000: 0000 0000 0000 0000 0000 0000 0000 0000
00000010: 0000 0000 0000 0000 0000 0000 0000 0000
00000020: 0000 0000 0000 0000 0000 0000 0000 0000
00000030: 0000 0000 0000 0000 0000 0000 0000 0000
00000040: 0000 0000 0000 0000 0000 0000 0000 0000
00000050: 0000 0000 0000 0000 0000 0000 0000 0000
00000060: 0000 0000 0000 0000 0000 0000 0000 0000
00000070: 0000 0000 0000 0000 0000 0000 0000 0000
00000080: 386c 1637 363b 27b7 58dd aa35 8af3 b6b6
00000090: 9484 6b38 839e 5c36 9c0c feb7 c0ae d434
000000a0: 5856 5638 90de 2335 ae59 dab7 88cb ecb4
000000b0: 20c7 6437 7279 5737 adfa 88b7 30a8 bfb4
