Saved_models/checkpoint_Female.pt (torch, 46553 bytes, 108 tensors)

encoder_input_layer.weight f4 [4, 5]
000000 b9 66 59 bc 87 67 6b 3e 1a d1 c1 be ea e3 ad be
       -0.01326912 0.22988711 -0.37854844 -0.33962947
000010 71 49 3b be c2 d1 41 3e 06 b5 77 3d b1 00 d9 3e
       -0.18289734 0.18927673 0.06047537 0.4238334
000020 05 7d f5 3c 25 df 3f 3e 10 5b e1 bd 9e 9d 80 bd
       0.02996684 0.18737467 -0.11003697 -0.06280063
000030 f2 a4 cd be 3e 8a 8a be 58 b8 22 be d9 56 ce 3d
       -0.40164906 -0.27058595 -0.15890634 0.100751586
000040 95 44 85 3e e9 0c b4 3e 15 05 61 be b4 c7 e3 bd
       0.26028886 0.351661 -0.21974595 -0.11122075

encoder_input_layer.bias f4 [4]
000000 f4 34 2b 3e a2 ee 98 3e a9 c4 e1 bd d3 20 78 3e
       0.16719419 0.29869562 -0.11023838 0.24231271

decoder_input_layer.weight f4 [4, 1]
000000 af e4 02 3d 23 12 39 3e b7 f1 2d 3f 91 59 84 bf
       0.03195637 0.18073325 0.6794695 -1.0339833

decoder_input_layer.bias f4 [4]
000000 33 ed 5b bf 7a 88 af be 90 2a 02 be 36 2c 7d 3f
       -0.8590881 -0.3428381 -0.12711549 0.98895586

positional_encoding_layer_enc.pe f4 [1, 9, 4]
000000 00 00 00 00 00 00 80 3f 00 00 00 00 00 00 80 3f
       0.0 1.0 0.0 1.0
000010 a4 6a 57 3f 41 51 0a 3f 57 d6 23 3c b9 fc 7f 3f
       0.84147096 0.54030234 0.009999833 0.99995
000020 b7 c7 68 3f 33 11 d5 be 3e d4 a3 3c e5 f2 7f 3f
       0.9092974 -0.41614684 0.019998666 0.9998
000030 c3 81 10 3e 26 70 7d bf 1f b9 f5 3c 83 e2 7f 3f
       0.14112 -0.9899925 0.0299955 0.99955004
000040 cf bd 41 bf 30 55 27 bf db cb 23 3d 94 cb 7f 3f
       -0.7568025 -0.6536436 0.039989334 0.9992001
000050 10 7c 75 bf 2c 3c 91 3e f4 b6 4c 3d 19 ae 7f 3f
       -0.9589243 0.2836622 0.049979165 0.99875027
000060 8c 0f 8f be b8 cd 75 3f d1 9c 75 3d 12 8a 7f 3f
       -0.2794155 0.96017027 0.059964005 0.99820054
000070 46 30 28 3f bd ff 40 3f 32 3e 8f 3d 81 5f 7f 3f
       0.6569866 0.75390226 0.06994285 0.997551
000080 95 46 7d 3f f6 fd 14 be 50 aa a3 3d 65 2e 7f 3f
       0.98935825 -0.14550003 0.07991469 0.9968017

positional_encoding_layer_dec.pe f4 [1, 1, 4]
000000 00 00 00 00 00 00 80 3f 00 00 00 00 00 00 80 3f
       0.0 1.0 0.0 1.0

encoder.layers.0.self_attn.in_proj_weight f4 [12, 4]
000000 32 b0 70 3e df 4f a1 3d a6 48 b2 3e cb 98 e1 be
       0.23504713 0.07876562 0.3482105 -0.44061884
000010 60 75 0d 3e 5b 70 f1 be b8 c0 c5 be 88 9e 8e be
       0.13814306 -0.47156033 -0.38623595 -0.27855325
000020 61 79 7a 3e d1 ee 80 3e bf 41 c4 be 0b 6f 24 3e
       0.24460365 0.25182202 -0.3833141 0.16057985
000030 e6 fc b6 3e 3b c6 9f bd 62 4b 8b 3d 2c ac 58 3e
       0.3573982 -0.07801481 0.068014875 0.21159428
000040 8e ae b5 3e 75 7b 10 3f 1a 94 e1 be 61 1a 3e be
       0.35484737 0.5643838 -0.44058305 -0.1856475
000050 6b d1 98 3e 48 95 08 3f 0b d5 ef 3e 88 80 fc 3e
       0.29847273 0.53352785 0.46842226 0.49316812
000060 69 0c 2b 3e d3 f3 02 bf 9d 4a 3a 3c 0a 71 d7 be
       0.16703953 -0.51153296 0.011370328 -0.4207843
000070 9a 8a 20 bf e4 0f 06 3f 19 cc 05 3f 08 b9 10 bf
       -0.6271149 0.52368 0.52264553 -0.56532335
000080 cb 3d 60 3d 41 27 5c bd 64 8a 24 be 68 77 a8 be
       0.05474643 -0.053748373 -0.16068417 -0.329036
000090 4d a0 83 3e b9 3f c2 be e3 c1 82 3e 46 4b ac 3e
       0.25708237 -0.37939242 0.2553855 0.3365118
0000a0 45 0a af 3e 74 7a ab 3e 51 11 37 bf 48 c7 02 bf
       0.34187523 0.33491862 -0.715108 -0.5108533
0000b0 6f cc 65 3e d6 95 65 3e b4 2f 11 bf 1d 86 e8 be
       0.22441266 0.22420439 -0.56713414 -0.4541482

encoder.layers.0.self_attn.in_proj_bias f4 [12]
000000 74 d1 9b bd c0 67 35 3d 32 9d d9 bc 91 62 70 3d
       -0.076083094 0.044288397 -0.026564214 0.05868775
000010 a8 39 09 3b ad f4 4a bb 3b a6 5e bb e0 1c 2a 3b
       0.0020938907 -0.0030968592 -0.0033973593 0.0025957152
000020 df ca 6e bd 9b 51 d3 3c e3 63 e1 bd ea 75 c9 bd
       -0.05829894 0.025795748 -0.1100538 -0.098369434

encoder.layers.0.self_attn.out_proj.weight f4 [4, 4]
000000 16 f1 dc be 1c 77 03 be 7a b7 ea be ac de 13 bf
       -0.43152684 -0.12838405 -0.45843107 -0.57761645
000010 26 91 95 be 6c e8 da 3e 44 69 65 3e c2 f4 78 3e
       -0.29212302 0.4275545 0.22403437 0.24312118
000020 eb f4 c5 3d 6f 1e a5 be 3d ff 1c 3e 7f 8d cb be
       0.09665855 -0.3224978 0.1533174 -0.3975639
000030 a9 a6 8a be 16 fc ae be 22 ba ce 3e a3 31 c3 3e
       -0.27080277 -0.341767 0.40376383 0.38123807

encoder.layers.0.self_attn.out_proj.bias f4 [4]
000000 6c 0b da 3d 76 15 12 ba 6a d1 8b bd 67 65 b6 bd
       0.1064671 -0.0005572656 -0.06827052 -0.0890606

encoder.layers.0.linear1.weight f4 [4, 4]
000000 19 37 04 3f 73 07 9b 3e 3c 9c 5d be a8 2e 16 be
       0.5164657 0.3027912 -0.2164163 -0.14666235
000010 bf 13 03 bf 9e 5a 77 bc 9e ba ab be df e2 db be
       -0.51202005 -0.015097288 -0.33540815 -0.42946526
000020 85 83 7d bd 5a b3 d6 3d 7b c9 25 be 62 cf 8a 3e
       -0.061893005 0.10483427 -0.1619014 0.27111346
000030 9f 86 aa be 70 a9 ca 3e 97 94 d2 3e 1e 9e ef be
       -0.33305833 0.39582396 0.4112899 -0.4680032

encoder.layers.0.linear1.bias f4 [4]
000000 71 82 9a bd 51 70 93 3d a4 78 d7 3c 74 36 47 3e
       -0.07544411 0.07199157 0.026302643 0.19454366

encoder.layers.0.linear2.weight f4 [4, 4]
000000 36 80 83 3e 0a 7f 89 3d a8 0e 54 be d4 7f 9b 3e
       0.25683755 0.06713684 -0.20708716 0.30370963
000010 14 ec e0 be 57 07 a1 be 78 ee 17 be 73 1f 95 be
       -0.43930113 -0.31450912 -0.14837062 -0.29125556
000020 65 24 2e be 50 49 e7 be 67 93 d5 bd 7d 17 5d 3d
       -0.17006071 -0.4517312 -0.104285054 0.05397748
000030 42 22 c8 be 55 5a 6a bd c9 d2 a7 3e d5 43 f4 bd
       -0.39088637 -0.057215054 0.32778004 -0.119270004

encoder.layers.0.linear2.bias f4 [4]
000000 fa f6 01 3e 0f 84 24 bd cf 2e 00 3d 9e a0 54 3e
       0.1269187 -0.040165003 0.03129464 0.20764396

encoder.layers.0.norm1.weight f4 [4]
000000 58 d3 86 3f 96 89 72 3f 4d 1f 6a 3f 95 1e 88 3f
       1.0533247 0.9474119 0.9145401 1.0634333

encoder.layers.0.norm1.bias f4 [4]
000000 f9 e1 eb 3d 53 31 90 3c dc 61 b1 bd b7 2e e1 bd
       0.1151771 0.017601645 -0.08661243 -0.10995238

encoder.layers.0.norm2.weight f4 [4]
000000 16 0d 86 3f ab 84 8d 3f a5 34 6c 3f d6 71 88 3f
       1.0472744 1.1056112 0.9226783 1.065974

encoder.layers.0.norm2.bias f4 [4]
000000 ec 5b ba 3d d6 90 f5 bd 55 c8 1d be ac 59 e5 bd
       0.09099564 -0.11990516 -0.15408452 -0.11198744

decoder.layers.0.self_attn.in_proj_weight f4 [12, 4]
000000 f8 90 f1 bd b4 3d f6 bd d8 ac 0c bf df 5b 07 bf
       -0.11795229 -0.12023488 -0.5495124 -0.5287456
000010 38 3f c4 bd 00 c0 01 3c 52 6e 8e be 70 37 6c 3e
       -0.095823705 0.0079193115 -0.27818543 0.23068023
000020 8a 19 0d bf d0 46 29 bd 3f dd 09 3f ce c6 7f be
       -0.55117095 -0.041327298 0.5385322 -0.24978182
000030 b9 8f 0d 3f 74 18 63 3e f6 79 0d bf 60 5f c6 3e
       0.5529743 0.22177297 -0.5526422 0.3874464
000040 80 b8 90 bd cb f6 8b be 12 b8 fa 3e ab 5d fd be
       -0.070664406 -0.27336726 0.4896856 -0.49485525
000050 48 93 86 3d e8 49 03 be 2a e6 df 3e 00 0b 2f 3e
       0.065710604 -0.12821162 0.4373029 0.1709404
000060 b4 a7 96 3e 88 74 5d 3e 58 cb 16 be 48 e0 03 be
       0.29424822 0.21626484 -0.14726007 -0.12878525
000070 66 30 01 bf 0e e3 a9 3e 8e f0 f8 3e 3a 87 d6 3e
       -0.50464475 0.3318104 0.4862103 0.41900045
000080 3c 04 81 be 07 6a 15 be ac f1 7a be c9 e8 e0 be
       -0.25198543 -0.14591227 -0.24506253 -0.439276
000090 c1 be 90 be d2 e0 32 3e 04 c6 83 be 7f dc e2 bd
       -0.28270534 0.17468575 -0.2573701 -0.110772125
0000a0 c6 72 43 3e ba b5 70 3e fc 2d 88 be 4d 0b 0d bf
       0.19086751 0.23506823 -0.26597583 -0.5509537
0000b0 26 04 72 be 60 8e 94 3e 33 6c db bd 7a 2a c4 3e
       -0.23634395 0.29014874 -0.10713997 0.38313657

decoder.layers.0.self_attn.in_proj_bias f4 [12]
000000 00 00 00 00 00 00 00 00 00 00 00 00 00 00 00 00
       0.0 0.0 0.0 0.0
000010 00 00 00 00 00 00 00 00 00 00 00 00 00 00 00 00
       0.0 0.0 0.0 0.0
000020 5d c7 30 be c3 d9 23 bd 9c 4c 0c be 0a a0 b6 bd
       -0.17263551 -0.040002596 -0.13701099 -0.08917244

decoder.layers.0.self_attn.out_proj.weight f4 [4, 4]
000000 d6 19 c8 3e 69 53 fe 3d ff 58 d0 3e 08 e4 59 be
       0.3908221 0.12418253 0.406929 -0.21278393
000010 32 fc e0 be de 90 42 be ac dc b4 3e 25 07 98 3c
       -0.4394241 -0.19000575 0.3532461 0.018558094
000020 00 5b ab be 5e 8f 5f be 8e fc 13 bf 76 14 86 be
       -0.33467865 -0.21832034 -0.5780724 -0.26187485
000030 85 a4 b2 3c a6 46 e6 3e 1a 1e c0 3e 93 d5 a4 be
       0.021806965 0.44975775 0.37522966 -0.32194194

decoder.layers.0.self_attn.out_proj.bias f4 [4]
000000 c5 12 52 be bf 06 fa 3c 9c ac 1b 3e dd d0 17 3e
       -0.20514973 0.030520795 0.15202564 0.14825769

decoder.layers.0.multihead_attn.in_proj_weight f4 [12, 4]
000000 5c 64 52 be e0 b8 b9 bd 80 7d db 3b 8b 4d 01 3f
       -0.20546097 -0.09068465 0.0066983104 0.50508946
000010 b0 90 9c 3d 57 6a 0c 3f 08 cb bf 3e 94 38 c6 be
       0.076447845 0.5484976 0.37459588 -0.3871504
000020 20 9f 8c 3e ee a2 dd be 47 e2 84 be 74 6f 38 3e
       0.27465153 -0.43288368 -0.25953886 0.18011266
000030 a8 0d 4f 3e f6 38 eb 3e 14 dd 49 be 00 7e 80 3a
       0.20220053 0.45941895 -0.19713241 0.0009803176
000040 40 6a a1 3e c5 9b 17 bf f6 ad e2 3e 6a a2 01 bf
       0.31526375 -0.5922206 0.44273347 -0.5063845
000050 00 48 0a 3c 80 39 d5 bd 58 21 a5 be c8 c2 a5 3d
       0.008440018 -0.10411358 -0.32252002 0.08093792
000060 45 a2 01 3f fc 4d 37 be ca 24 ba be 24 ea 67 be
       0.5063823 -0.17900842 -0.36356193 -0.22647911
000070 34 61 1b bf 16 87 8d 3e 4f 94 96 be fe 3b d1 be
       -0.60695195 0.27642125 -0.29410025 -0.40866083
000080 39 95 d8 be c9 17 e7 3e e1 f1 79 3e 65 2c 0a 3f
       -0.42301348 0.45135334 0.24408676 0.5397399
000090 df 06 70 3e b0 fd 48 be c1 65 39 be b9 ab 24 3e
       0.23440121 -0.19628024 -0.18105222 0.16081132
0000a0 9c 43 0e 3f 28 d0 a9 3d 50 32 57 be 68 56 b5 be
       0.55571914 0.08291656 -0.21015286 -0.35417485
0000b0 30 b4 15 bf 86 84 37 3e 33 ff d4 be e9 a7 04 bf
       -0.5847807 0.17921647 -0.41600952 -0.5181871

decoder.layers.0.multihead_attn.in_proj_bias f4 [12]
000000 00 00 00 00 00 00 00 00 00 00 00 00 00 00 00 00
       0.0 0.0 0.0 0.0
000010 00 00 00 00 00 00 00 00 00 00 00 00 00 00 00 00
       0.0 0.0 0.0 0.0
000020 f0 c4 d8 bd d6 9a 6b 3b 20 61 b6 3d 7c 8a 40 bd
       -0.10584438 0.0035950444 0.08905244 -0.04700707

decoder.layers.0.multihead_attn.out_proj.weight f4 [4, 4]
000000 e3 e3 a2 3e 8d 70 11 bd d7 a8 f1 bd 88 bb 2a 3d
       0.3181449 -0.035507727 -0.11799782 0.04168275
000010 05 d1 83 3b f9 a2 36 bd ad d4 5e 3d 14 70 8c 3a
       0.00402272 -0.044589017 0.054402042 0.0010714554
000020 55 18 d6 be 27 0f 8e be ac fc cf 3e 03 cb e3 be
       -0.4181544 -0.27745935 0.4062246 -0.44490823
000030 c9 77 d1 bd 78 6a f9 3e 00 68 6b 3e f3 42 2c bd
       -0.10227925 0.48714042 0.22988892 -0.042056035

decoder.layers.0.multihead_attn.out_proj.bias f4 [4]
000000 ce 83 5f be dc a6 c7 3c c5 0e 3b 3e 93 45 07 3e
       -0.21827623 0.024371557 0.18267353 0.13210134

decoder.layers.0.linear1.weight f4 [4, 4]
000000 12 a5 f6 3e 6f 06 95 be dd 83 2c bd b8 80 c6 3d
       0.48172814 -0.2910647 -0.042117942 0.0969252
000010 04 74 28 3d d2 da b8 be 0e 78 de be 46 45 e0 3e
       0.041126266 -0.36104447 -0.4345097 0.4380285
000020 07 2f 90 bd de ec ee 3e 1e 18 4f be 83 75 7b 3e
       -0.0704022 0.4666509 -0.20224044 0.24556546
000030 69 df 80 be 16 b3 b4 3d 0b 89 f9 be 34 a8 b8 3e
       -0.25170448 0.088232204 -0.48737368 0.3606583

decoder.layers.0.linear1.bias f4 [4]
000000 f2 9a d7 3d 25 06 4a 3d c3 b9 03 bd 94 1f f3 bd
       0.105276 0.049322266 -0.032159578 -0.118712574

decoder.layers.0.linear2.weight f4 [4, 4]
000000 e6 3b 82 3e 82 01 0e bf 06 74 9d 3c df 73 b5 be
       0.25436324 -0.5547105 0.019220363 -0.35439965
000010 54 03 7c be a8 b6 b9 3c 82 a4 cc be b0 7e f1 3b
       -0.24610645 0.022670105 -0.3996926 0.0073698387
000020 7e b6 44 3e 72 a5 25 be dc d0 90 3e a2 e4 d3 3e
       0.1921024 -0.16176394 0.28284347 0.4138537
000030 db cf 87 3e f7 20 dc bd 38 5d b4 be 60 61 ec bd
       0.2652577 -0.10748475 -0.3522737 -0.1154201

decoder.layers.0.linear2.bias f4 [4]
000000 67 88 5b bd a0 60 53 be e1 84 c8 3e fe 94 b1 3e
       -0.05359688 -0.20642328 0.3916388 0.34683985

decoder.layers.0.norm1.weight f4 [4]
000000 95 7d 80 3f 9f 4b 65 3f bb d0 45 3f 3c 77 8d 3f
       1.0038325 0.89568514 0.7727162 1.1052012

decoder.layers.0.norm1.bias f4 [4]
000000 67 b1 72 be fc b6 d8 3c 43 1c 72 3e 00 b3 2a 3e
       -0.23700486 0.026454441 0.23643593 0.16669846

decoder.layers.0.norm2.weight f4 [4]
000000 c0 e6 98 3f e0 36 4a 3f fe ff 3e 3f 99 fd 7c 3f
       1.1945419 0.7898998 0.74609363 0.9882446

decoder.layers.0.norm2.bias f4 [4]
000000 52 6b 76 be 74 61 71 bd 49 c1 76 3e a3 d0 d9 3d
       -0.24064377 -0.05893083 0.2409717 0.106354974

decoder.layers.0.norm3.weight f4 [4]
000000 37 f8 97 3f 86 7f 82 3f 05 82 84 3f bc 2c 9b 3f
       1.1872624 1.0195167 1.0352179 1.2123027

decoder.layers.0.norm3.bias f4 [4]
000000 6b d4 4e be ef 66 34 be 51 0e 4a 3e 1c 9f 5a 3e
       -0.20198219 -0.17617391 0.19732024 0.21349758

linear_mapping.weight f4 [1, 4]
000000 31 1c e5 be b1 a4 91 bd db f9 82 3e d4 ae 72 3e
       -0.4474807 -0.071114905 0.2558125 0.23699504

linear_mapping_with_gender_ind.weight f4 [1, 5]
000000 10 ba 64 3d c3 01 b4 be f8 f4 0f 3d a0 8e 9e 3e
       0.055841506 -0.35157594 0.03514573 0.3096819
000010 c0 54 ce 3e
       0.40299034

exp_avg f4 [4, 5]
000000 e8 c0 e1 38 b9 9b e3 38 01 ce e5 38 98 da e6 38
       0.00010764768 0.00010853209 0.00010957942 0.00011007971
000010 df ab e7 38 78 bd 8e 38 ab f4 8d 38 f7 43 8d 38
       0.00011046952 6.806379e-05 6.768977e-05 6.7360634e-05
000020 3e 63 8c 38 8e d8 8c 38 ef 58 fb b8 f6 d3 fd b8
       6.6942055e-05 6.716057e-05 -0.00011985178 -0.00012103461
000030 d4 06 00 b9 79 91 00 b9 9c 35 01 b9 d0 26 84 38
       -0.00012209575 -0.00012261224 -0.0001232237 6.30148e-05
000040 1a 06 87 38 12 0c 88 38 b3 53 88 38 f6 ee 88 38
       6.438438e-05 6.4872336e-05 6.5005755e-05 6.529495e-05

exp_avg_sq f4 [4, 5]
000000 28 6b dc 34 ff 51 e0 34 68 21 e3 34 ec 2b e5 34
       4.105616e-07 4.178291e-07 4.230635e-07 4.268653e-07
000010 90 52 e8 34 cc 09 a5 34 7e ad a3 34 f4 59 a7 34
       4.327344e-07 3.0740773e-07 3.0487348e-07 3.1171624e-07
000020 4c 52 ac 34 d2 51 a7 34 03 71 4a 35 f1 6e 4d 35
       3.2097375e-07 3.1165706e-07 7.541532e-07 7.652989e-07
000030 e0 9c 50 35 66 cf 52 35 90 f8 54 35 33 d0 18 35
       7.771432e-07 7.85329e-07 7.933786e-07 5.692738e-07
000040 92 64 1b 35 31 f1 1e 35 21 50 20 35 7c 04 20 35
       5.788835e-07 5.9210566e-07 5.972125e-07 5.961117e-07

exp_avg f4 [4]
000000 c2 05 24 b8 ac 43 cd b7 0c 85 37 38 91 69 b9 b7
       -3.910601e-05 -2.4469417e-05 4.375451e-05 -2.2102877e-05

exp_avg_sq f4 [4]
000000 e5 a8 dc 33 20 e2 c8 33 13 10 4e 34 81 5e 33 34
       1.027527e-07 9.3543576e-08 1.9191093e-07 1.6705054e-07

exp_avg f4 [4, 1]
000000 2b 81 07 b9 e1 66 bc b9 ee a7 90 39 24 58 90 38
       -0.00012922722 -0.00035934805 0.00027590938 6.8828725e-05

exp_avg_sq f4 [4, 1]
000000 c7 a2 f9 38 61 40 81 38 e7 1c 5f 38 5c 10 fb 34
       0.00011903565 6.163191e-05 5.319426e-05 4.6764296e-07

exp_avg f4 [4]
000000 af c9 3c 39 77 b4 82 39 80 71 31 b9 72 ff 44 b7
       0.0001800421 0.0002492999 -0.00016922317 -1.1741986e-05

exp_avg_sq f4 [4]
000000 c9 75 ff 37 11 0e 70 37 d4 6f 6b 37 4e 92 f4 33
       3.0453217e-05 1.430839e-05 1.40331285e-05 1.1388748e-07

exp_avg f4 [12, 4]
000000 4b 3d 0f 38 1b 03 0c b8 1a 92 cd 38 47 18 c0 36
       3.415094e-05 -3.3381493e-05 9.802375e-05 5.724872e-06
000010 cc fc 2d 37 5f 68 44 b7 94 42 98 37 dd 68 a5 b5
       1.0370462e-05 -1.1706811e-05 1.8150815e-05 -1.2323977e-06
000020 d9 25 fb b6 c0 92 3c 37 48 89 d2 b7 f2 e1 77 35
       -7.484789e-06 1.1239841e-05 -2.5097877e-05 9.2343464e-07
000030 0c d1 bd b7 83 49 9c 37 01 bf 91 b8 87 02 f2 b6
       -2.26279e-05 1.863088e-05 -6.949716e-05 -7.2124562e-06
000040 36 5d de 37 13 c5 be 37 e6 3e 00 b8 cc 4a 9a 36
       2.6507867e-05 2.2741535e-05 -3.0576157e-05 4.598265e-06
000050 a8 78 5c b7 14 1d ff b6 0f 2b a9 37 f5 bd f7 b5
       -1.3141114e-05 -7.6029773e-06 2.016642e-05 -1.8458219e-06
000060 6b 01 e3 b7 77 7b cd b7 e6 ae 10 38 e7 c5 c3 b6
       -2.7061169e-05 -2.4495397e-05 3.4495162e-05 -5.8344917e-06
000070 69 b6 ae 37 a1 a4 7a 37 26 80 a8 b7 4d 77 1f 36
       2.0827358e-05 1.4939492e-05 -2.0086834e-05 2.3762288e-06
000080 15 13 71 38 6a df 06 b8 24 ca 3a 38 01 1f a3 36
       5.747665e-05 -3.215616e-05 4.4534114e-05 4.861388e-06
000090 b6 e1 17 b7 78 6b a5 34 9d 49 ec b5 93 0b a8 33
       -9.052854e-06 3.081184e-07 -1.7604794e-06 7.825215e-08
0000a0 61 8a c2 37 82 61 66 b7 d7 ca 95 37 f1 0e ca 34
       2.319104e-05 -1.3731771e-05 1.7856639e-05 3.7636303e-07
0000b0 b7 be a6 36 9c c7 9f b6 e4 ad 8d 36 20 6c 26 b5
       4.9693876e-06 -4.761807e-06 4.222371e-06 -6.199716e-07

exp_avg_sq f4 [12, 4]
000000 48 9b e0 31 3b 6c 3d 32 d6 e2 4a 34 fa e9 89 32
       6.5369115e-09 1.1025857e-08 1.8895238e-07 1.60553e-08
000010 5f 07 74 30 46 cb 7d 30 fc d6 10 33 de bb b9 31
       8.877716e-10 9.232973e-10 3.372314e-08 5.4055667e-09
000020 f8 87 ed 30 72 28 21 30 7c 14 ad 32 38 9b 73 31
       1.7282664e-09 5.8628935e-10 2.0149166e-08 3.5449386e-09
000030 a0 e3 93 31 36 07 37 32 87 cd 49 34 26 44 6a 32
       4.304141e-09 1.06536415e-08 1.8794354e-07 1.3636088e-08
000040 b5 5b 5b 32 f6 54 3a 31 5a d4 92 32 09 15 4b 30
       1.27683295e-08 2.7114857e-09 1.7093203e-08 7.388086e-10
000050 9d 30 c5 32 af 46 37 32 49 b2 c7 32 f0 a4 05 31
       2.2955925e-08 1.06680735e-08 2.3247724e-08 1.9447803e-09
000060 03 33 19 33 46 a4 01 32 bd f0 2c 33 b6 cf 11 31
       3.5669483e-08 7.54614e-09 4.026582e-08 2.1218347e-09
000070 f8 7c 9f 31 f4 c1 3a 31 92 dc ca 31 ab b6 c1 2f
       4.6417163e-09 2.7176812e-09 5.9040497e-09 3.523629e-10
000080 94 9a b2 33 c1 4e 1c 33 e3 2a e3 33 64 49 a3 32
       8.3168885e-08 3.6393207e-08 1.0578312e-07 1.9009072e-08
000090 06 ae cc 33 79 f1 4b 33 18 27 1e 34 fb 61 6e 32
       9.531145e-08 4.748424e-08 1.4729119e-07 1.38757015e-08
0000a0 4c 41 02 34 5f bc 28 33 ef 57 08 34 03 cc d7 32
       1.2130948e-07 3.928687e-08 1.2697977e-07 2.5122068e-08
0000b0 20 4f fa 33 23 0b 82 33 dd 4f 1f 34 17 e7 aa 32
       1.1655925e-07 6.0556225e-08 1.4837083e-07 1.9895692e-08

exp_avg f4 [12]
000000 76 ee fe 37 a0 dc ce 36 36 b7 df b6 1d c8 ca b7
       3.0390202e-05 6.1649625e-06 -6.6672465e-06 -2.4173461e-05
000010 41 24 c2 ab bd 11 8b 2b e1 ff 4e 2b 4e c3 83 ab
       -1.3794592e-12 9.881467e-13 7.3541005e-13 -9.362318e-13
000020 e2 bf f4 37 70 e3 1f b5 18 f4 5e 37 e7 36 87 36
       2.9176419e-05 -5.956308e-07 1.3289064e-05 4.029705e-06

exp_avg_sq f4 [12]
000000 a5 20 07 33 81 cc e7 31 49 11 8f 31 02 8c 06 33
       3.1461827e-08 6.7462342e-09 4.163813e-09 3.1326643e-08
000010 ac 41 da 1a 4b fb 3f 1c e6 03 1b 1c cb bd 32 1b
       9.0268785e-23 6.3521387e-22 5.1290237e-22 1.478514e-22
000020 17 ae 45 33 b0 06 61 33 c2 5a 82 33 17 6b 7b 33
       4.602597e-08 5.2392977e-08 6.0701055e-08 5.853789e-08

exp_avg f4 [4, 4]
000000 57 ce f4 36 41 0d 6f b8 88 24 2b 38 10 51 12 38
       7.295788e-06 -5.6994384e-05 4.08036e-05 3.4884608e-05
000010 bd 44 05 36 74 20 a1 b7 1f 4b 13 37 85 8f 0a 37
       1.9858555e-06 -1.9207808e-05 8.779373e-06 8.258857e-06
000020 82 f5 97 b6 f4 03 12 38 19 b7 c9 b7 27 6b ae b7
       -4.5287316e-06 3.4812794e-05 -2.4046329e-05 -2.0792313e-05
000030 99 a6 9b 36 d2 d3 e0 b7 86 66 c0 37 b4 ae a1 37
       4.6387545e-06 -2.6801517e-05 2.2935925e-05 1.9274048e-05

exp_avg_sq f4 [4, 4]
000000 cd c5 87 32 28 7f 46 34 d3 63 39 34 52 96 01 34
       1.5806018e-08 1.8486446e-07 1.7265783e-07 1.2068747e-07
000010 3c e2 55 32 5c 52 57 34 3e 89 81 34 0c 2d 29 34
       1.24496715e-08 2.0053398e-07 2.412798e-07 1.575574e-07
000020 6d 89 da 32 d7 8a dd 34 3b 45 df 34 fe e5 8e 34
       2.5441034e-08 4.1265477e-07 4.158736e-07 2.6616902e-07
000030 5a 6f 61 32 9d 1c 2f 34 9b c2 0f 34 af 0e c8 33
       1.3122042e-08 1.6308555e-07 1.338871e-07 9.315897e-08

exp_avg f4 [4]
000000 93 4d 49 b8 44 22 79 b7 f2 b4 0a 38 3a 63 d5 b7
       -4.799438e-05 -1.4849535e-05 3.3070282e-05 -2.5437785e-05

exp_avg_sq f4 [4]
000000 18 89 17 34 46 33 ff 33 a1 ec 5d 34 03 10 0c 34
       1.4112845e-07 1.18836894e-07 2.0668314e-07 1.3044341e-07

exp_avg f4 [4, 4]
000000 64 ca 8d b7 36 b7 87 37 7a 92 29 b7 24 73 45 37
       -1.6902755e-05 1.6178568e-05 -1.0107289e-05 1.1768923e-05
000010 b0 3d 66 35 1f 8b 91 34 85 7f d9 36 6a 28 19 b7
       8.5771444e-07 2.710958e-07 6.481949e-06 -9.12892e-06
000020 9f 0b ab 33 7d 54 15 b3 25 4b 31 b3 6c bd 5b 31
       7.964922e-08 -3.4768608e-08 -4.1279367e-08 3.1976368e-09
000030 72 0d 47 b7 d0 75 7e 37 22 a4 e7 b6 85 35 6d 36
       -1.1864455e-05 1.516701e-05 -6.903444e-06 3.5346904e-06

exp_avg_sq f4 [4, 4]
000000 27 cf 79 32 83 2e cd 31 96 f7 0f 32 35 c5 96 32
       1.4540809e-08 5.971573e-09 8.37999e-09 1.7551978e-08
000010 3c d0 51 32 28 aa 03 32 ab 96 fc 33 42 d4 64 33
       1.2212748e-08 7.663893e-09 1.1762071e-07 5.3278434e-08
000020 d5 22 2a 30 ed 92 35 2f ec 6f 52 30 69 7c 12 30
       6.189514e-10 1.6514053e-10 7.6556605e-10 5.329129e-10
000030 87 dd b3 32 5b b5 06 33 d2 7e e0 33 ba ce 37 33
       2.0939082e-08 3.1364248e-08 1.0453881e-07 4.2796025e-08

exp_avg f4 [4]
000000 19 ec 74 b7 2b c6 bb 36 e8 23 42 33 57 13 fc b6
       -1.4598504e-05 5.596104e-06 4.52018e-08 -7.5124367e-06

exp_avg_sq f4 [4]
000000 0f 13 27 32 11 f7 6a 33 00 ba 0e 30 8b e3 70 33
       9.725013e-09 5.4707076e-08 5.192362e-10 5.6086304e-08

exp_avg f4 [4, 4]
000000 1f 49 28 b7 6a de d1 36 cf 26 63 af 7c cd 42 b7
       -1.0030605e-05 6.254578e-06 -2.0659317e-10 -1.1611144e-05
000010 2d 30 f9 b6 28 96 ad b6 7c 1f 75 2e c3 48 91 b7
       -7.4263867e-06 -5.1732823e-06 5.5734514e-11 -1.731923e-05
000020 9a 88 50 37 39 47 25 35 62 ed d1 2c 9a 77 8d 37
       1.2429571e-05 6.157093e-07 5.966492e-12 1.6864204e-05
000030 ff e7 2c 36 b4 07 8a 35 22 16 6c 30 c2 92 54 b7
       2.5765037e-06 1.0284043e-06 8.588775e-10 -1.2670354e-05

exp_avg_sq f4 [4, 4]
000000 2f 3c ad 31 48 e0 b4 32 6b 1c bb 31 1d c6 d5 34
       5.0418048e-09 2.105675e-08 5.445647e-09 3.9818488e-07
000010 a3 5c 5a 32 55 02 2a 31 20 3d 19 31 85 1a 1a 33
       1.2710333e-08 2.4739581e-09 2.2299176e-09 3.588004e-08
000020 f1 49 e3 33 10 f1 4e 31 b1 ce 55 30 bb 41 0b 34
       1.0583961e-07 3.0113974e-09 7.7782675e-10 1.2969296e-07
000030 69 b3 1f 32 67 bb d4 30 6a 77 46 2f 11 fb 0f 33
       9.295811e-09 1.5478293e-09 1.805042e-10 3.3523126e-08

exp_avg f4 [4]
000000 01 08 ab b8 be e8 09 b8 49 e6 78 38 6e b0 af b7
       -8.155406e-05 -3.2880103e-05 5.9342277e-05 -2.0943782e-05

exp_avg_sq f4 [4]
000000 83 6f 23 35 0c 0e e6 33 49 0e c6 34 aa 9b 27 34
       6.08845e-07 1.0712765e-07 3.6890768e-07 1.5609717e-07

exp_avg f4 [4]
000000 92 5e 9c b8 00 45 20 37 a0 b5 70 38 a7 81 18 38
       -7.456275e-05 9.5528085e-06 5.738961e-05 3.6360372e-05

exp_avg_sq f4 [4]
000000 a8 85 82 34 f6 4a 55 33 3e 22 a2 34 56 b1 c1 33
       2.4311635e-07 4.9661104e-08 3.0199766e-07 9.01952e-08

exp_avg f4 [4]
000000 48 5c 79 b8 43 09 16 b7 e0 a7 9a 38 c6 df a1 b7
       -5.945217e-05 -8.942853e-06 7.3745614e-05 -1.9296898e-05

exp_avg_sq f4 [4]
000000 7e 98 de 34 9c 59 97 33 9b 11 a8 34 b2 11 5e 34
       4.1461675e-07 7.047785e-08 3.1305248e-07 2.0681799e-07

exp_avg f4 [4]
000000 58 a4 9e b9 b4 e8 73 b8 64 f8 a4 b7 1a 94 ec b7
       -0.00030258554 -5.8152436e-05 -1.966599e-05 -2.8202357e-05

exp_avg_sq f4 [4]
000000 03 38 11 36 2f a4 2c 34 a3 4c 4f 33 48 76 84 34
       2.1639287e-06 1.6078478e-07 4.8265644e-08 2.4672977e-07

exp_avg f4 [4]
000000 24 9a 6a b9 32 c0 7a 38 0c fb db b7 bf 28 18 38
       -0.00022373401 5.978364e-05 -2.6223737e-05 3.627757e-05

exp_avg_sq f4 [4]
000000 92 41 e5 35 fe 96 2e 34 7b 64 a1 33 12 32 a3 34
       1.7080913e-06 1.6259943e-07 7.515424e-08 3.0397547e-07

exp_avg f4 [12, 4]
000000 00 00 00 00 00 00 00 00 00 00 00 00 00 00 00 00
       0.0 0.0 0.0 0.0
000010 00 00 00 00 00 00 00 00 00 00 00 00 00 00 00 00
       0.0 0.0 0.0 0.0
000020 00 00 00 00 00 00 00 00 00 00 00 00 00 00 00 00
       0.0 0.0 0.0 0.0
000030 00 00 00 00 00 00 00 00 00 00 00 00 00 00 00 00
       0.0 0.0 0.0 0.0
000040 00 00 00 00 00 00 00 00 00 00 00 00 00 00 00 00
       0.0 0.0 0.0 0.0
000050 00 00 00 00 00 00 00 00 00 00 00 00 00 00 00 00
       0.0 0.0 0.0 0.0
000060 00 00 00 00 00 00 00 00 00 00 00 00 00 00 00 00
       0.0 0.0 0.0 0.0
000070 00 00 00 00 00 00 00 00 00 00 00 00 00 00 00 00
       0.0 0.0 0.0 0.0
000080 8b 45 1a 39 29 a6 d7 37 41 44 b7 39 a4 1c 38 39
       0.00014712491 2.5707372e-05 0.00034955333 0.00017558277
000090 4b 69 83 b7 45 bc 32 38 f3 90 0c 39 04 71 72 39
       -1.5665448e-05 4.2613847e-05 0.00013405438 0.0002312102
0000a0 b9 1c 26 b9 39 61 83 38 b0 0d a5 b9 9d 9a 53 39
       -0.00015841694 6.264676e-05 -0.0003148145 0.00020180126
0000b0 fb 20 90 b8 6d f3 9a 36 c9 e2 4b b9 82 a8 98 b8
       -6.872598e-05 4.617896e-06 -0.00019444073 -7.279312e-05

exp_avg_sq f4 [12, 4]
000000 00 00 00 00 00 00 00 00 00 00 00 00 00 00 00 00
       0.0 0.0 0.0 0.0
000010 00 00 00 00 00 00 00 00 00 00 00 00 00 00 00 00
       0.0 0.0 0.0 0.0
000020 00 00 00 00 00 00 00 00 00 00 00 00 00 00 00 00
       0.0 0.0 0.0 0.0
000030 00 00 00 00 00 00 00 00 00 00 00 00 00 00 00 00
       0.0 0.0 0.0 0.0
000040 00 00 00 00 00 00 00 00 00 00 00 00 00 00 00 00
       0.0 0.0 0.0 0.0
000050 00 00 00 00 00 00 00 00 00 00 00 00 00 00 00 00
       0.0 0.0 0.0 0.0
000060 00 00 00 00 00 00 00 00 00 00 00 00 00 00 00 00
       0.0 0.0 0.0 0.0
000070 00 00 00 00 00 00 00 00 00 00 00 00 00 00 00 00
       0.0 0.0 0.0 0.0
000080 87 01 bb 36 ef 56 80 35 66 15 d7 37 18 1b b9 36
       5.573212e-06 9.562044e-07 2.5639962e-05 5.5165838e-06
000090 0a 10 f6 36 6a 0b c3 35 11 d4 7f 36 2b 43 b9 36
       7.3332385e-06 1.4531954e-06 3.81214e-06 5.521249e-06
0000a0 78 1e 06 37 ed 1c b8 35 7c d1 c5 37 aa a1 6d 37
       7.9941165e-06 1.3717487e-06 2.3581779e-05 1.4163941e-05
0000b0 5f 61 8c 36 77 f7 50 35 18 7f 82 36 bc cb 42 35
       4.1836606e-06 7.7846147e-07 3.8890976e-06 7.2567104e-07

exp_avg f4 [12]
000000 00 00 00 00 00 00 00 00 00 00 00 00 00 00 00 00
       0.0 0.0 0.0 0.0
000010 00 00 00 00 00 00 00 00 00 00 00 00 00 00 00 00
       0.0 0.0 0.0 0.0
000020 10 50 07 b8 42 56 f7 38 e4 29 63 39 a0 55 d9 37
       -3.2261072e-05 0.000117939446 0.00021664012 2.5908288e-05

exp_avg_sq f4 [12]
000000 00 00 00 00 00 00 00 00 00 00 00 00 00 00 00 00
       0.0 0.0 0.0 0.0
000010 00 00 00 00 00 00 00 00 00 00 00 00 00 00 00 00
       0.0 0.0 0.0 0.0
000020 be 2f e9 36 eb 35 f9 36 e7 e4 fa 36 e9 f2 88 36
       6.949499e-06 7.427055e-06 7.4772283e-06 4.0813943e-06

exp_avg f4 [4, 4]
000000 34 32 15 b9 1a 2b 1c b9 dc 68 85 b8 44 c8 3f b8
       -0.0001422845 -0.00014893376 -6.361466e-05 -4.572446e-05
000010 85 74 a2 39 82 61 98 39 67 7c 6f 39 19 86 9b 38
       0.00030985862 0.00029064348 0.0002283916 7.4159536e-05
000020 6c 72 56 36 9f d4 03 b9 be 77 72 38 d7 21 26 b9
       3.1955087e-06 -0.00012572341 5.7808815e-05 -0.000158436
000030 b1 5f 38 b9 15 20 86 b7 b2 67 77 b9 1d 1b 12 39
       -0.00017583255 -1.5988984e-05 -0.00023594385 0.00013933746

exp_avg_sq f4 [4, 4]
000000 b7 23 ae 36 00 c4 2d 37 73 cb b5 36 09 6a 8d 36
       5.189762e-06 1.0357238e-05 5.417905e-06 4.2144716e-06
000010 ea 11 7b 36 b4 7c be 36 4b 40 86 36 77 b8 9d 36
       3.7412342e-06 5.6769586e-06 4.000996e-06 4.700439e-06
000020 5a db 55 36 77 15 90 36 af ab 8f 36 b7 26 d1 36
       3.1867153e-06 4.2940333e-06 4.2817187e-06 6.2331924e-06
000030 63 2c 12 36 c1 f3 7f 36 d4 55 7b 36 2e 07 87 36
       2.1781532e-06 3.8139844e-06 3.7451873e-06 4.0241493e-06

exp_avg f4 [4]
000000 8c 30 16 b8 2a 52 5c 39 a3 1d 74 b9 c0 e4 5c b9
       -3.5808e-05 0.00021011443 -0.00023280694 -0.00021066051

exp_avg_sq f4 [4]
000000 7c 8c 66 37 ab 14 3a 37 87 fa a2 36 72 de 07 38
       1.3741777e-05 1.1091276e-05 4.8571414e-06 3.2393677e-05

exp_avg f4 [12, 4]
000000 00 00 00 00 00 00 00 00 00 00 00 00 00 00 00 00
       0.0 0.0 0.0 0.0
000010 00 00 00 00 00 00 00 00 00 00 00 00 00 00 00 00
       0.0 0.0 0.0 0.0
000020 00 00 00 00 00 00 00 00 00 00 00 00 00 00 00 00
       0.0 0.0 0.0 0.0
000030 00 00 00 00 00 00 00 00 00 00 00 00 00 00 00 00
       0.0 0.0 0.0 0.0
000040 00 00 00 00 00 00 00 00 00 00 00 00 00 00 00 00
       0.0 0.0 0.0 0.0
000050 00 00 00 00 00 00 00 00 00 00 00 00 00 00 00 00
       0.0 0.0 0.0 0.0
000060 00 00 00 00 00 00 00 00 00 00 00 00 00 00 00 00
       0.0 0.0 0.0 0.0
000070 00 00 00 00 00 00 00 00 00 00 00 00 00 00 00 00
       0.0 0.0 0.0 0.0
000080 b3 99 20 39 fe 34 1c b9 02 82 8a 38 3d c0 04 b9
       0.00015316046 -0.0001489706 6.6045686e-05 -0.00012660115
000090 35 ff b3 37 8c fa c3 b8 ce 32 a2 38 a0 15 38 b8
       2.1457303e-05 -9.3449926e-05 7.734225e-05 -4.388916e-05
0000a0 70 50 70 b9 8b 6f 3f 39 23 34 4c b8 55 27 29 39
       -0.00022918149 0.00018256732 -4.8685946e-05 0.00016131748
0000b0 d4 66 87 39 f9 40 62 b9 ef 55 8a 38 ae 39 45 b9
       0.0002582582 -0.00021577244 6.596359e-05 -0.00018808871

exp_avg_sq f4 [12, 4]
000000 00 00 00 00 00 00 00 00 00 00 00 00 00 00 00 00
       0.0 0.0 0.0 0.0
000010 00 00 00 00 00 00 00 00 00 00 00 00 00 00 00 00
       0.0 0.0 0.0 0.0
000020 00 00 00 00 00 00 00 00 00 00 00 00 00 00 00 00
       0.0 0.0 0.0 0.0
000030 00 00 00 00 00 00 00 00 00 00 00 00 00 00 00 00
       0.0 0.0 0.0 0.0
000040 00 00 00 00 00 00 00 00 00 00 00 00 00 00 00 00
       0.0 0.0 0.0 0.0
000050 00 00 00 00 00 00 00 00 00 00 00 00 00 00 00 00
       0.0 0.0 0.0 0.0
000060 00 00 00 00 00 00 00 00 00 00 00 00 00 00 00 00
       0.0 0.0 0.0 0.0
000070 00 00 00 00 00 00 00 00 00 00 00 00 00 00 00 00
       0.0 0.0 0.0 0.0
000080 e9 d2 c1 35 2a c4 c2 35 b8 b2 20 35 dd 9c 97 35
       1.4441003e-06 1.4511218e-06 5.9864715e-07 1.129603e-06
000090 a6 24 34 36 94 fb c6 35 13 ff 0f 35 67 86 d3 35
       2.6843422e-06 1.4825368e-06 5.3642833e-07 1.5759841e-06
0000a0 a5 80 ac 35 44 31 8d 35 34 bc 05 35 d9 2f 9d 35
       1.2852439e-06 1.0519657e-06 4.982023e-07 1.1711337e-06
0000b0 9b 62 e9 35 1b ca 9f 35 51 1d 08 35 2f f1 b3 35
       1.7388551e-06 1.1905244e-06 5.070661e-07 1.3406733e-06

exp_avg f4 [12]
000000 00 00 00 00 00 00 00 00 00 00 00 00 00 00 00 00
       0.0 0.0 0.0 0.0
000010 00 00 00 00 00 00 00 00 00 00 00 00 00 00 00 00
       0.0 0.0 0.0 0.0
000020 ea 00 fd 38 c0 5d 94 38 7a 27 1f b9 b0 22 3d 39
       0.0001206415 7.074652e-05 -0.00015178128 0.00018037367

exp_avg_sq f4 [12]
000000 00 00 00 00 00 00 00 00 00 00 00 00 00 00 00 00
       0.0 0.0 0.0 0.0
000010 00 00 00 00 00 00 00 00 00 00 00 00 00 00 00 00
       0.0 0.0 0.0 0.0
000020 ea 8c 77 35 65 f5 a1 35 7b b3 52 35 e1 7a 73 35
       9.221973e-07 1.2066854e-06 7.8492275e-07 9.0703367e-07

exp_avg f4 [4, 4]
000000 24 77 d3 39 c8 07 db b8 30 48 9a b9 2e 5d 1d 39
       0.00040333823 -0.00010444183 -0.00029426953 0.00015007399
000010 8f 44 11 ba ff 2f ee 38 ea 72 d5 39 c1 a9 3a b9
       -0.0005541527 0.00011357664 0.00040712144 -0.0001780158
000020 74 dc 3b 3a a7 f6 17 b9 59 4e e9 b9 01 49 9a 39
       0.0007166334 -0.00014492367 -0.00044499597 0.0002942756
000030 04 15 8d 39 97 28 98 b8 e3 83 6d b9 3c 78 ac 38
       0.00026909274 -7.255485e-05 -0.00022651213 8.2239945e-05

exp_avg_sq f4 [4, 4]
000000 fb b6 ef 36 c4 77 fa 34 8e dc 3a 36 57 c0 18 36
       7.144057e-06 4.665327e-07 2.784454e-06 2.2761722e-06
000010 9f 48 e4 37 8a 22 4a 35 c0 13 49 37 68 83 94 36
       2.7213535e-05 7.5301125e-07 1.1985132e-05 4.4260414e-06
000020 cf f8 66 37 29 20 be 34 c9 ba ca 36 1e 93 1c 36
       1.3766999e-05 3.5413657e-07 6.041814e-06 2.3331445e-06
000030 a9 41 dc 36 ad 72 b2 34 20 be 5d 36 56 c3 8e 35
       6.564155e-06 3.323852e-07 3.3042234e-06 1.0636675e-06

exp_avg f4 [4]
000000 55 90 d1 b7 b1 ed ab 39 e9 34 32 ba 0a 52 c4 b9
       -2.4981951e-05 0.00032792756 -0.00067980454 -0.00037445157

exp_avg_sq f4 [4]
000000 86 48 25 38 a2 45 9c 37 6b 14 17 38 71 e5 91 37
       3.940661e-05 1.8629074e-05 3.602022e-05 1.7392189e-05

exp_avg f4 [4, 4]
000000 08 f0 e9 2a 50 17 2c ad da 20 0d 2e 55 fd 0e ae
       4.155567e-13 -9.7822445e-12 3.2088866e-11 -3.2512066e-11
000010 4d 80 16 ba 4a 11 87 b8 f5 38 46 39 45 43 b9 39
       -0.0005741164 -6.440522e-05 0.0001890397 0.0003533607
000020 75 24 17 3b df 84 fc 37 af 97 5d ba 76 f7 82 ba
       0.0023062502 3.0102614e-05 -0.00084530836 -0.0009991962
000030 c2 71 8c 3a 14 ad d1 37 eb 0d 12 ba 04 5b 85 b9
       0.0010715055 2.4995337e-05 -0.0005571532 -0.0002543555

exp_avg_sq f4 [4, 4]
000000 d5 98 c5 33 1f 03 33 34 bc 87 a1 34 3c b3 f9 34
       9.201327e-08 1.667181e-07 3.0087347e-07 4.6510274e-07
000010 3a 55 ee 36 51 b5 62 35 ac b8 f3 35 87 bc 96 36
       7.1028744e-06 8.445541e-07 1.8158657e-06 4.492296e-06
000020 af 6c 1c 38 96 ec 91 36 b3 97 29 37 79 9c df 37
       3.7294518e-05 4.348879e-06 1.0108505e-05 2.6656535e-05
000030 e7 6e 44 37 13 21 c5 35 09 ca f0 36 ad 52 46 37
       1.1708332e-05 1.468727e-06 7.1760774e-06 1.1820969e-05

exp_avg f4 [4]
000000 c7 0b ff ad 5b d9 a8 39 8d 8e 96 ba 59 2b 04 ba
       -2.8995374e-11 0.000322054 -0.0011486575 -0.00050418597

exp_avg_sq f4 [4]
000000 bb b9 aa 34 a9 c2 44 36 2f 5b 91 37 c2 7c e2 36
       3.1800104e-07 2.9319583e-06 1.7327808e-05 6.7498486e-06

exp_avg f4 [4, 4]
000000 44 4f 80 27 96 a2 6f 37 bb 00 b0 38 4a b8 26 b9
       3.5613077e-15 1.4283365e-05 8.39247e-05 -0.00015899647
000010 4b a3 0f ab 14 f0 0e 3a 37 4b ab 39 46 83 8c 3a
       -5.103042e-13 0.00054526445 0.000326717 0.0010720275
000020 47 08 90 ad ab 6c bc b9 47 5f b5 b9 13 c9 99 b9
       -1.637458e-11 -0.00035939118 -0.00034593997 -0.00029332246
000030 7c 7b 5e ac c5 02 2f b9 c4 21 10 b9 f7 b8 7d b9
       -3.1616645e-12 -0.00016690332 -0.00013745489 -0.00024196865

exp_avg_sq f4 [4, 4]
000000 f4 35 55 32 52 b0 ed 36 95 3a db 36 0c 18 3c 36
       1.2410499e-08 7.083677e-06 6.5335284e-06 2.802818e-06
000010 cb 7a fd 31 2f 47 9b 36 d5 f2 26 36 47 3f fa 36
       7.377229e-09 4.627647e-06 2.4877274e-06 7.457947e-06
000020 a1 60 8d 33 58 35 aa 38 ef 5f aa 38 ae 4c a6 37
       6.583401e-08 8.116168e-05 8.124101e-05 1.9824449e-05
000030 a3 34 96 31 c5 2f ce 36 0a 66 37 36 4b 5a e3 36
       4.3715587e-09 6.1448395e-06 2.732852e-06 6.7756387e-06

exp_avg f4 [4]
000000 35 5b 2a ba 2b 2b f3 3a b6 b0 e1 ba 13 c9 09 3a
       -0.0006498576 0.0018552294 -0.0017218802 0.00052560976

exp_avg_sq f4 [4]
000000 bd 02 95 37 0a 55 af 37 08 ef 19 39 0d c9 15 38
       1.776346e-05 2.0901225e-05 0.00014680263 3.571161e-05

exp_avg f4 [4]
000000 4d e2 27 39 df 2d 91 39 15 fa 26 39 8e 04 fd 38
       0.00016010665 0.00027690732 0.00015924156 0.000120648285

exp_avg_sq f4 [4]
000000 60 8b 06 37 53 16 e4 36 f0 07 55 38 02 ca 10 37
       8.019473e-06 6.7975284e-06 5.079055e-05 8.6301025e-06

exp_avg f4 [4]
000000 53 e8 30 b8 2b f7 97 39 47 ce 96 b9 40 a1 27 38
       -4.217804e-05 0.0002898512 -0.00028763918 3.996608e-05

exp_avg_sq f4 [4]
000000 6c 0b 25 38 d5 0d 51 37 a9 19 d9 37 f5 57 8c 37
       3.9349703e-05 1.2460591e-05 2.5880365e-05 1.6730259e-05

exp_avg f4 [4]
000000 09 56 56 3a 49 40 3f 39 aa 4d f8 b9 94 cb 33 b8
       0.00081762724 0.00018239128 -0.0004736011 -4.2866523e-05

exp_avg_sq f4 [4]
000000 e6 78 c3 37 10 da 86 37 1f 3a c0 38 35 aa 15 37
       2.330211e-05 1.6075588e-05 9.166099e-05 8.9207215e-06

exp_avg f4 [4]
000000 36 48 fd b9 23 9f a4 39 a0 ef 56 ba 06 c7 0a 3a
       -0.00048309722 0.00031399084 -0.0008199159 0.0005293939

exp_avg_sq f4 [4]
000000 39 f4 cd 37 f2 e0 02 38 5a a0 a1 38 cb dc c2 37
       2.455163e-05 3.1203912e-05 7.706946e-05 2.3229417e-05

exp_avg f4 [4]
000000 21 83 5f 3d 5e 89 bd 3a 0d 57 98 3c 68 36 87 3c
       0.054568414 0.0014460494 0.018596197 0.016505435

exp_avg_sq f4 [4]
000000 16 b6 4d 3c fe 2b 55 37 f7 f0 b2 3a 56 c7 a7 3a
       0.01255562 1.2706032e-05 0.0013652135 0.0012800496

exp_avg f4 [4]
000000 4a 43 12 bd 7f 5c c1 bb b5 37 a8 3c d1 01 9c 3c
       -0.035708703 -0.005900919 0.020534376 0.019043835

exp_avg_sq f4 [4]
000000 79 63 b4 3b 7a 4d 1e 39 26 f3 ee 3a 56 3f c8 3a
       0.005505022 0.00015096916 0.0018230423 0.0015277665

exp_avg f4 [1, 4]
000000 7e 30 24 be 2b 32 0b bd f0 26 b9 3d f9 f3 cd 3d
       -0.16034123 -0.03398339 0.0904063 0.100563

exp_avg_sq f4 [1, 4]
000000 ee c5 e0 3d 1c 40 b7 3b 3d 26 06 3d 61 07 45 3d
       0.10975252 0.005592359 0.03275131 0.04810274
