Saved_models/checkpoint_Male.pt (torch, 89370 bytes, 198 tensors)

encoder_input_layer.weight f4 [4, 5]
-0.07595214 0.15854341 -0.40842247 -0.37866127 -0.21338478 -0.3591667 -0.6317111 0.03862235
-0.3786012 -0.20241964 0.74528116 0.7555995 0.27300957 0.4095138 0.58483154 -0.350946
-0.19545606 -0.17420381 -0.5908674 -0.4647075
00000000: cc8c 9bbd 3459 223e c01c d1be e4df c1be
00000010: 8a81 5abe b3e4 b7be d2b7 21bf 7832 1e3d
00000020: 04d8 c1be 1847 4fbe bfca 3e3f f86e 413f
00000030: e9c7 8b3e cbab d13e 85b7 153f 32af b3be
00000040: a225 48be 7c62 32be 1643 17bf 24ee edbe

encoder_input_layer.bias f4 [4]
0.6510767 1.5034262 -1.1694754 1.4019719
00000000: f6ac 263f 4570 c03f 5fb1 95bf d173 b33f

decoder_input_layer.weight f4 [4, 1]
-0.78634375 0.5927677 1.1656654 1.0289199
00000000: d34d 49bf a0bf 173f 8634 953f a6b3 833f

decoder_input_layer.bias f4 [4]
-1.7156781 0.4932819 2.3383276 1.6549782
00000000: 579b dbbf 728f fc3e 29a7 1540 53d6 d33f

positional_encoding_layer_enc.pe f4 [1, 9, 4]
0.0 1.0 0.0 1.0 0.84147096 0.54030234 0.009999833 0.99995
0.9092974 -0.41614684 0.019998666 0.9998 0.14112 -0.9899925 0.0299955 0.99955004
-0.7568025 -0.6536436 0.039989334 0.9992001 -0.9589243 0.2836622 0.049979165 0.99875027
-0.2794155 0.96017027 0.059964005 0.99820054 0.6569866 0.75390226 0.06994285 0.997551
0.98935825 -0.14550003 0.07991469 0.9968017
00000000: 0000 0000 0000 803f 0000 0000 0000 803f
00000010: a46a 573f 4151 0a3f 57d6 233c b9fc 7f3f
00000020: b7c7 683f 3311 d5be 3ed4 a33c e5f2 7f3f
00000030: c381 103e 2670 7dbf 1fb9 f53c 83e2 7f3f
00000040: cfbd 41bf 3055 27bf dbcb 233d 94cb 7f3f
00000050: 107c 75bf 2c3c 913e f4b6 4c3d 19ae 7f3f
00000060: 8c0f 8fbe b8cd 753f d19c 753d 128a 7f3f
00000070: 4630 283f bdff 403f 323e 8f3d 815f 7f3f
00000080: 9546 7d3f f6fd 14be 50aa a33d 652e 7f3f

positional_encoding_layer_dec.pe f4 [1, 1, 4]
0.0 1.0 0.0 1.0
00000000: 0000 0000 0000 803f 0000 0000 0000 803f

encoder.layers.0.self_attn.in_proj_weight f4 [12, 4]
0.04747692 -1.094501 1.2684252 -2.8247244 -0.1346849 -0.15201949 -0.018987088 0.08598508
-0.37458298 1.1292694 -0.9655612 1.3702141 0.49137756 0.4384249 -0.040410392 0.6599338
0.3277781 1.609568 -1.0548017 -0.5114797 0.09866023 -0.5029867 0.41679242 0.2587164
-0.015258113 -1.2294701 0.5727799 -0.026502453 -0.3693752 -0.48133206 0.6371886 -0.18599881
-0.3158614 -0.4958412 0.1370084 -3.2876232 0.657282 -0.120525956 0.4073548 1.9900371
-0.36413935 -0.18356873 -0.23725171 -2.5874865 -0.14442973 -0.21435599 -0.3214474 -1.3990293
00000000: 2977 423d 9c18 8cbf c25b a23f 49c8 34c0
00000010: d7ea 09be ffaa 1bbe cf8a 9bbc f218 b03d
00000020: 57c9 bfbe e68b 903f 052f 77bf 2d63 af3f
00000030: d795 fb3e 3a79 e03e 5e85 25bd 6cf1 283f
00000040: 88d2 a73e 5306 ce3f be03 87bf 55f0 02bf
00000050: 600e ca3d bdc3 00bf d165 d53e 7a76 843e
00000060: 2afd 79bc 475f 9dbf b4a1 123f ac1b d9bc
00000070: bf1e bdbe 2871 f6be cb1e 233f 7976 3ebe
00000080: 96b8 a1be e6de fdbe ee4b 0c3e 6b68 52c0
00000090: a243 283f 50d6 f6bd cf90 d03e 89b9 fe3f
000000a0: 7970 babe 71f9 3bbe 1df2 72be 6199 25c0
000000b0: 63e5 13be 2380 5bbe c194 a4be 6413 b3bf

encoder.layers.0.self_attn.in_proj_bias f4 [12]
-0.4227233 -0.4066961 1.4100534 0.5418968 -0.044640604 0.06849169 -0.009642001 -0.03021592
-1.1435047 0.23075634 -0.8800544 -0.585368
00000000: 306f d8be 793a d0be a17c b43f c0b9 0a3f
00000010: 11d9 36bd 5f45 8c3d 7cf9 1dbc 6187 f7bc
00000020: 5d5e 92bf 644b 6c3e 3f4b 61bf adda 15bf

encoder.layers.0.self_attn.out_proj.weight f4 [4, 4]
-2.0044172 0.4888839 -1.1506267 -0.8940649 -0.8730223 0.9814796 0.17853875 -0.25654048
2.5130532 -1.1835657 1.3515382 0.6594618 -0.1349158 -0.6391004 0.37256485 0.3036321
00000000: 5f48 00c0 fe4e fa3e bc47 93bf 70e1 64bf
00000010: 647e 5fbf 3f42 7b3f ddd2 363e 4659 83be
00000020: ddd5 2040 157f 97bf 34ff ac3f 7dd2 283f
00000030: 5e27 0abe 159c 23bf d2c0 be3e ab75 9b3e

encoder.layers.0.self_attn.out_proj.bias f4 [4]
0.5255867 0.30363095 -0.74003065 -0.026673034
00000000: da8c 063f 8475 9b3e a672 3dbf 6881 dabc

encoder.layers.0.linear1.weight f4 [4, 4]
-0.10829117 0.38416928 0.11391101 0.16260451 -1.2545637 -0.74626625 0.32948655 -0.42809275
-0.17576072 -0.008034993 0.6571852 -0.14069963 -1.5104276 1.5620252 0.0867548 0.017832771
00000000: c3c7 ddbd d6b1 c43e 2d4a e93d cc81 263e
00000010: 8b95 a0bf 4e0b 3fbf 76b2 a83e f92e dbbe
00000020: 9efa 33be 34a5 03bc 4a3d 283f 9013 10be
00000030: b155 c1bf 71f0 c73f 80ac b13d 0816 923c

encoder.layers.0.linear1.bias f4 [4]
-0.9363462 -0.8042993 -0.4194559 -0.17092092
00000000: 62b4 6fbf 8fe6 4dbf ecc2 d6be e505 2fbe

encoder.layers.0.linear2.weight f4 [4, 4]
0.19619575 0.6766026 -0.1450577 0.7405657 0.008284728 -0.51382 -0.040667806 -0.26519802
-0.4478561 -0.121379964 0.0862143 0.42304513 -0.36898446 -0.71085453 0.06968591 -0.44812632
00000000: 8ae7 483e d435 2d3f 018a 14be b795 3d3f
00000010: abbc 073c b589 03bf 4993 26bd 09c8 87be
00000020: 654d e5be 0f96 f8bd 1f91 b03d 5f99 d83e
00000030: 88eb bcbe 90fa 35bf 7db7 8e3d d070 e5be

encoder.layers.0.linear2.bias f4 [4]
-0.057610884 1.1929097 -1.1580923 1.1052058
00000000: 64f9 6bbd 44b1 983f 5e3c 94bf 6277 8d3f

encoder.layers.0.norm1.weight f4 [4]
1.4231658 1.1674274 2.693234 0.36117774
00000000: 4c2a b63f 436e 953f f25d 2c40 4aec b83e

encoder.layers.0.norm1.bias f4 [4]
0.69731295 -0.35266927 -1.1418306 0.35405815
00000000: 1a83 323f 1191 b4be 8127 92bf 1c47 b53e

encoder.layers.0.norm2.weight f4 [4]
0.5894461 0.534871 2.292479 0.41399556
00000000: f1e5 163f 4eed 083f fab7 1240 3af7 d33e

encoder.layers.0.norm2.bias f4 [4]
0.6300667 -0.5512985 -0.43277383 0.0073438175
00000000: 0d4c 213f e621 0dbf 8894 ddbe 68a4 f03b

encoder.layers.1.self_attn.in_proj_weight f4 [12, 4]
0.22133985 -0.47332978 1.1351444 -0.41947314 0.5008608 0.07606785 -1.3148701 -0.031345718
-0.61338764 -0.19505832 0.4990342 -0.21729678 0.26127976 0.42369044 -0.6804478 0.22032231
0.7899606 -0.24321389 0.9480085 -1.047766 0.30042633 1.2163262 -1.1360471 1.2210922
-0.2974677 0.015896665 1.125295 -0.550439 -1.0614235 0.7663583 -0.85674554 0.7421881
0.66708237 0.45730323 -1.1555648 1.7587434 -0.47253987 -0.95576686 1.0219837 -0.05454185
0.8280811 -0.027731273 -1.1752632 -0.039984822 0.95538956 -0.3860828 -1.5885749 -0.5270758
00000000: eaa6 623e 4858 f2be 694c 913f 2fc5 d6be
00000010: 6a38 003f 76c9 9b3d aa4d a8bf 5e64 00bd
00000020: f906 1dbf 5ebd 47be 6981 ff3e 0c83 5ebe
00000030: 76c6 853e f4ed d83e d431 2ebf 2c9c 613e
00000040: dc3a 4a3f 100d 79be afb0 723f 321d 86bf
00000050: 7bd1 993e 94b0 9b3f fe69 91bf c04c 9c3f
00000060: b04d 98be b939 823c ab09 903f 92e9 0cbf
00000070: badc 87bf 0f30 443f ad53 5bbf 0a00 3e3f
00000080: e9c5 2a3f a623 ea3e 8ce9 93bf 811e e13f
00000090: bff0 f1be 23ad 74bf 5dd0 823f 4667 5fbd
000000a0: 1ffd 533f b22c e3bc 066f 96bf 20c7 23bd
000000b0: 6994 743f a5ac c5be 6c56 cbbf 71ee 06bf

encoder.layers.1.self_attn.in_proj_bias f4 [12]
-0.08766831 0.2320213 -0.68053246 -0.26281264 -0.05111665 -0.064417586 -0.032364767 -0.029408505
0.48818344 -0.74034196 0.15768605 0.49544585
00000000: 718b b3bd fe96 6d3e 6037 2ebf 618f 86be
00000010: b15f 51bd 5eed 83bd eb90 04bd 1bea f0bc
00000020: 2ef3 f93e 0d87 3dbf 7478 213e 14ab fd3e

encoder.layers.1.self_attn.out_proj.weight f4 [4, 4]
2.4035637 -3.1051035 2.7109172 2.6193483 -0.31176332 0.36428782 -0.16341081 -0.25411722
-0.86324704 0.44735387 -0.6106783 -0.840312 -0.723811 0.18264894 -0.24830762 -0.42243242
00000000: fdd3 1940 04ba 46c0 ab7f 2d40 67a3 2740
00000010: 719f 9fbe ef83 ba3e 2a55 27be a71b 82be
00000020: c2fd 5cbf 910b e53e 6a55 1cbf b01e 57bf
00000030: ad4b 39bf 5308 3b3e 5a44 7ebe 1049 d8be

encoder.layers.1.self_attn.out_proj.bias f4 [4]
1.6315854 -0.0639711 -0.28017476 -0.47829443
00000000: cad7 d03f 4803 83bd 1173 8fbe 02e3 f4be

encoder.layers.1.linear1.weight f4 [4, 4]
-0.12870784 0.37741968 -0.13414547 -0.0007314119 -1.6445936 0.72674054 0.07917415 0.7713683
-0.020580795 -0.49977154 0.75608575 0.2500998 -1.1571352 1.1874472 0.2235636 1.0087292
00000000: fdcb 03be 273d c13e 6e5d 09be 39bc 3fba
00000010: 0b82 d2bf ab0b 3a3f 0f26 a23d 6578 453f
00000020: 0e99 a8bc 0ee2 ffbe d68e 413f 150d 803e
00000030: 021d 94bf 45fe 973f dbed 643e 0a1e 813f

encoder.layers.1.linear1.bias f4 [4]
-0.5903973 0.54195434 0.11876025 0.32825103
00000000: 4724 17bf 85bd 0a3f 9338 f33d 8510 a83e

encoder.layers.1.linear2.weight f4 [4, 4]
0.6831992 1.1124822 0.70448923 1.1525258 0.14563948 0.1846912 -0.33117762 -0.054080203
-1.0378515 -1.4720825 -0.5374393 -0.4342151 -0.2658783 0.22543785 0.17092903 -0.45432955
00000000: 25e6 2e3f d165 8e3f 6859 343f f785 933f
00000010: 8422 153e b11f 3d3e 1d90 a9be 3483 5dbd
00000020: 51d8 84bf 336d bcbf 9f95 09bf 7151 debe
00000030: 3321 88be 2ed9 663e 0508 2f3e e29d e8be

encoder.layers.1.linear2.bias f4 [4]
1.3154404 0.12810354 -1.4417154 0.5200684
00000000: 5a60 a83f 932d 033e 218a b8bf 3423 053f

encoder.layers.1.norm1.weight f4 [4]
1.8726908 -0.41127008 1.2310568 0.55241096
00000000: 55b4 ef3f fe91 d2be 4593 9d3f ce6a 0d3f

encoder.layers.1.norm1.bias f4 [4]
1.3622776 0.17337024 -1.2270365 0.29533055
00000000: 1d5f ae3f f887 313e 880f 9dbf 9135 973e

encoder.layers.1.norm2.weight f4 [4]
0.45260665 0.015666911 0.5275602 -0.008308058
00000000: 0fbc e73e e557 803c 2f0e 073f 851e 08bc

encoder.layers.1.norm2.bias f4 [4]
-0.6951971 0.005225109 0.659807 -0.0031457585
00000000: 70f8 31bf 6437 ab3b 1de9 283f 1229 4ebb

decoder.layers.0.self_attn.in_proj_weight f4 [12, 4]
-0.11795229 -0.12023488 -0.5495124 -0.5287456 -0.095823705 0.0079193115 -0.27818543 0.23068023
-0.55117095 -0.041327298 0.5385322 -0.24978182 0.5529743 0.22177297 -0.5526422 0.3874464
-0.070664406 -0.27336726 0.4896856 -0.49485525 0.065710604 -0.12821162 0.4373029 0.1709404
0.29424822 0.21626484 -0.14726007 -0.12878525 -0.50464475 0.3318104 0.4862103 0.41900045
-0.43206793 -0.11334286 -0.26256382 0.24137 -0.03368762 0.22894768 0.21797262 -0.4394942
-1.2658948 -2.0493088 -0.12825318 0.04421617 0.080502324 -0.068188444 0.043800674 -0.015056324
00000000: f890 f1bd b43d f6bd d8ac 0cbf df5b 07bf
00000010: 383f c4bd 00c0 013c 526e 8ebe 7037 6c3e
00000020: 8a19 0dbf d046 29bd 3fdd 093f cec6 7fbe
00000030: b98f 0d3f 7418 633e f679 0dbf 605f c63e
00000040: 80b8 90bd cbf6 8bbe 12b8 fa3e ab5d fdbe
00000050: 4893 863d e849 03be 2ae6 df3e 000b 2f3e
00000060: b4a7 963e 8874 5d3e 58cb 16be 48e0 03be
00000070: 6630 01bf 0ee3 a93e 8ef0 f83e 3a87 d63e
00000080: 0238 ddbe 4d20 e8bd c46e 86be b329 773e
00000090: 08fc 09bd 4371 6a3e 3734 5f3e 6205 e1be
000000a0: d708 a2bf e027 03c0 cd54 03be 041c 353d
000000b0: 67de a43d 62a6 8bbd 5668 333d cdae 76bc

decoder.layers.0.self_attn.in_proj_bias f4 [12]
0.0 0.0 0.0 0.0 0.0 0.0 0.0 0.0
-0.6317523 0.107191704 0.23842467 -0.00028617823
00000000: 0000 0000 0000 0000 0000 0000 0000 0000
00000010: 0000 0000 0000 0000 0000 0000 0000 0000
00000020: 85ba 21bf 5387 db3d 9925 743e 310a 96b9

decoder.layers.0.self_attn.out_proj.weight f4 [4, 4]
0.0030634296 -0.019828858 0.11363188 -0.09739872 -2.1142457 -1.100258 0.25438842 -0.11091215
0.056655716 -0.32376343 -0.08593057 -0.099293165 -0.029810606 0.42473224 -0.13303655 -0.08025496
00000000: d2c3 483b 2170 a2bc d5b7 e83d fb78 c7bd
00000010: cd4f 07c0 41d5 8cbf 333f 823e e925 e3bd
00000020: d30f 683d 52c4 a5be 5efc afbd 375a cbbd
00000030: 5f35 f4bc 8176 d93e bc3a 08be b65c a4bd

decoder.layers.0.self_attn.out_proj.bias f4 [4]
0.0102510825 -1.1008506 -0.009640366 0.035397645
00000000: 28f4 273c ace8 8cbf a0f2 1dbc 1ffd 103d

decoder.layers.0.multihead_attn.in_proj_weight f4 [12, 4]
-0.20546097 -0.09068465 0.0066983104 0.50508946 0.076447845 0.5484976 0.37459588 -0.3871504
0.27465153 -0.43288368 -0.25953886 0.18011266 0.20220053 0.45941895 -0.19713241 0.0009803176
0.31526375 -0.5922206 0.44273347 -0.5063845 0.008440018 -0.10411358 -0.32252002 0.08093792
0.5063823 -0.17900842 -0.36356193 -0.22647911 -0.60695195 0.27642125 -0.29410025 -0.40866083
0.01290961 -0.014138407 -0.052366454 -0.002637597 0.01618235 -0.010592521 0.04295781 -0.0077472944
-0.008835401 -0.016005013 -0.02132536 -0.0071206465 0.0020605747 0.031097088 -0.055308256 -0.00065001723
00000000: 5c64 52be e0b8 b9bd 807d db3b 8b4d 013f
00000010: b090 9c3d 576a 0c3f 08cb bf3e 9438 c6be
00000020: 209f 8c3e eea2 ddbe 47e2 84be 746f 383e
00000030: a80d 4f3e f638 eb3e 14dd 49be 007e 803a
00000040: 406a a13e c59b 17bf f6ad e23e 6aa2 01bf
00000050: 0048 0a3c 8039 d5bd 5821 a5be c8c2 a53d
00000060: 45a2 013f fc4d 37be ca24 babe 24ea 67be
00000070: 3461 1bbf 1687 8d3e 4f94 96be fe3b d1be
00000080: d482 533c c7a4 67bc 357e 56bd 89db 2cbb
00000090: d990 843c 418c 2dbc 87f4 2f3d 04dd fdbb
000000a0: 5cc2 10bc f21c 83bc 85b2 aebc 5054 e9bb
000000b0: b50a 073b 52bf fe3c e98a 62bd eb65 2aba

decoder.layers.0.multihead_attn.in_proj_bias f4 [12]
0.0 0.0 0.0 0.0 0.0 0.0 0.0 0.0
-0.00085707253 0.001043109 -0.00047078778 -0.0011879322
00000000: 0000 0000 0000 0000 0000 0000 0000 0000
00000010: 0000 0000 0000 0000 0000 0000 0000 0000
00000020: 2aad 60ba eeb8 883a 11d4 f6b9 64b4 9bba

decoder.layers.0.multihead_attn.out_proj.weight f4 [4, 4]
0.059538525 -0.06795129 0.054751325 0.07060135 0.064976886 -0.08636735 0.055869672 0.08921793
0.04818367 -0.055923775 0.044710267 0.059129447 0.046956997 -0.049218763 0.044736806 0.05066076
00000000: abde 733d 0c2a 8bbd ed42 603d 7197 903d
00000010: 9a12 853d 5de1 b0bd 99d7 643d e4b7 b63d
00000020: 3d5c 453d 5410 65bd 1d22 373d b831 723d
00000030: fb55 403d 9d99 49bd f13d 373d a881 4f3d

decoder.layers.0.multihead_attn.out_proj.bias f4 [4]
-0.03438179 -0.050719667 0.00068154524 0.04804982
00000000: ebd3 0cbd 6dbf 4fbd baa9 323a e3cf 443d

decoder.layers.0.linear1.weight f4 [4, 4]
0.122849025 -1.1900179 -1.1328064 -0.15133299 -1.0550566 -0.92253447 -0.40559927 1.2424062
0.2298821 0.1900169 0.15302017 0.18985823 -1.1574143 0.05150617 -1.1218929 -0.7245911
00000000: 4598 fb3d 8252 98bf cdff 90bf 09f7 1abe
00000010: 180c 87bf 382b 6cbf b5aa cfbe 2b07 9f3f
00000020: 3766 6b3e ca93 423e 52b1 1c3e 326a 423e
00000030: 2726 94bf 22f8 523d 309a 8fbf cd7e 39bf

decoder.layers.0.linear1.bias f4 [4]
-1.2623992 -1.4443045 -0.62976265 -1.2522472
00000000: 4c96 a1bf f8de b8bf 2038 21bf a349 a0bf

decoder.layers.0.linear2.weight f4 [4, 4]
-0.28718004 -0.09287625 -0.2022362 -0.079069756 2.203772 1.452488 -0.30375397 0.6769284
-0.31181175 0.09720751 -0.022474227 -0.18836647 0.09744841 -0.16200188 -0.18475461 0.16859291
00000000: 4309 93be e735 bebd 0217 4fbe 53ef a1bd
00000010: 9a0a 0d40 20eb b93f a485 9bbe 2e4b 2d3f
00000020: caa5 9fbe bb14 c73d df1b b8bc 24e3 40be
00000030: 0893 c73d d2e3 25be 5030 3dbe 9fa3 2c3e

decoder.layers.0.linear2.bias f4 [4]
0.030131508 -0.03601788 -0.012190577 -0.014868417
00000000: 5ad6 f63c 7c87 13bd fcba 47bc a99a 73bc

decoder.layers.0.norm1.weight f4 [4]
2.5591886 1.3682866 2.3163853 2.2106714
00000000: bfc9 2340 0424 af3f a83f 1440 a47b 0d40

decoder.layers.0.norm1.bias f4 [4]
-1.0687146 -0.71092814 1.6720551 0.28660727
00000000: a4cb 88bf 63ff 35bf e705 d63f 30be 923e

decoder.layers.0.norm2.weight f4 [4]
1.3550366 2.0141757 2.2616405 1.9512815
00000000: d771 ad3f 41e8 0040 b8be 1040 98c3 f93f

decoder.layers.0.norm2.bias f4 [4]
0.96991944 1.5362333 0.85661954 -0.96316123
00000000: a44c 783f 4ba3 c43f 6b4b 5b3f bc91 76bf

decoder.layers.0.norm3.weight f4 [4]
2.3799584 1.6189849 2.5321743 1.6898154
00000000: 3d51 1840 e63a cf3f 250f 2240 df4b d83f

decoder.layers.0.norm3.bias f4 [4]
0.6993453 -1.2163001 -0.8864984 1.1949478
00000000: 4b08 333f b9af 9bbf 8ff1 62bf 0df4 983f

decoder.layers.1.self_attn.in_proj_weight f4 [12, 4]
-0.11795229 -0.12023488 -0.5495124 -0.5287456 -0.095823705 0.0079193115 -0.27818543 0.23068023
-0.55117095 -0.041327298 0.5385322 -0.24978182 0.5529743 0.22177297 -0.5526422 0.3874464
-0.070664406 -0.27336726 0.4896856 -0.49485525 0.065710604 -0.12821162 0.4373029 0.1709404
0.29424822 0.21626484 -0.14726007 -0.12878525 -0.50464475 0.3318104 0.4862103 0.41900045
-0.16823761 -0.26203907 -0.15462406 -0.2738262 0.1655344 0.19369814 0.26823115 -0.40238848
-0.06307982 -0.08055023 -0.052223686 -0.07264753 0.00030935317 -0.012100685 -0.008134437 -0.014229659
00000000: f890 f1bd b43d f6bd d8ac 0cbf df5b 07bf
00000010: 383f c4bd 00c0 013c 526e 8ebe 7037 6c3e
00000020: 8a19 0dbf d046 29bd 3fdd 093f cec6 7fbe
00000030: b98f 0d3f 7418 633e f679 0dbf 605f c63e
00000040: 80b8 90bd cbf6 8bbe 12b8 fa3e ab5d fdbe
00000050: 4893 863d e849 03be 2ae6 df3e 000b 2f3e
00000060: b4a7 963e 8874 5d3e 58cb 16be 48e0 03be
00000070: 6630 01bf 0ee3 a93e 8ef0 f83e 3a87 d63e
00000080: 7b46 2cbe fc29 86be c555 1ebe f332 8cbe
00000090: da81 293e ce58 463e 9855 893e dd05 cebe
000000a0: fe2f 81bd 85f7 a4bd 81e8 55bd 3ac8 94bd
000000b0: ae30 a239 f441 46bc 4d46 05bc 8423 69bc

decoder.layers.1.self_attn.in_proj_bias f4 [12]
0.0 0.0 0.0 0.0 0.0 0.0 0.0 0.0
0.0057991017 0.7385594 -0.010341873 -0.010892511
00000000: 0000 0000 0000 0000 0000 0000 0000 0000
00000010: 0000 0000 0000 0000 0000 0000 0000 0000
00000020: 6406 be3b 3b12 3d3f f670 29bc 8176 32bc

decoder.layers.1.self_attn.out_proj.weight f4 [4, 4]
-0.015330072 0.05357586 -0.0054234844 0.0033862982 0.0024175793 -0.1750112 0.044993274 -0.04410795
-0.008975819 -0.015475296 0.013852944 -0.014566395 -0.025403002 -0.012573063 0.011577529 -0.012332588
00000000: fb2a 7bbc 5c72 5b3d 7cb7 b1bb a8ec 5d3b
00000010: 4070 1e3b 2336 33be de4a 383d 8aaa 34bd
00000020: 500f 13bc 198c 7dbc 75f7 623c e4a7 6ebc
00000030: f519 d0bc 40ff 4dbc adaf 3d3c a00e 4abc

decoder.layers.1.self_attn.out_proj.bias f4 [4]
-0.021743745 -0.018681712 -0.023584258 0.0009825957
00000000: f01f b2bc 640a 99bc c633 c1bc 71ca 803a

decoder.layers.1.multihead_attn.in_proj_weight f4 [12, 4]
-0.20546097 -0.09068465 0.0066983104 0.50508946 0.076447845 0.5484976 0.37459588 -0.3871504
0.27465153 -0.43288368 -0.25953886 0.18011266 0.20220053 0.45941895 -0.19713241 0.0009803176
0.31526375 -0.5922206 0.44273347 -0.5063845 0.008440018 -0.10411358 -0.32252002 0.08093792
0.5063823 -0.17900842 -0.36356193 -0.22647911 -0.60695195 0.27642125 -0.29410025 -0.40866083
-0.0029037618 -0.0062024524 -0.003692621 -0.019127617 0.060182106 -0.040318765 0.04927164 -0.005094689
-0.021087553 0.018254062 -0.005178318 -0.0029277934 0.018741058 -0.036398377 0.030837938 0.049336527
00000000: 5c64 52be e0b8 b9bd 807d db3b 8b4d 013f
00000010: b090 9c3d 576a 0c3f 08cb bf3e 9438 c6be
00000020: 209f 8c3e eea2 ddbe 47e2 84be 746f 383e
00000030: a80d 4f3e f638 eb3e 14dd 49be 007e 803a
00000040: 406a a13e c59b 17bf f6ad e23e 6aa2 01bf
00000050: 0048 0a3c 8039 d5bd 5821 a5be c8c2 a53d
00000060: 45a2 013f fc4d 37be ca24 babe 24ea 67be
00000070: 3461 1bbf 1687 8d3e 4f94 96be fe3b d1be
00000080: 0a4d 3ebb f13d cbbb e6ff 71bb 85b1 9cbc
00000090: 8381 763d 4a25 25bd 0fd1 493d 59f1 a6bb
000000a0: cebf acbc 8b89 953c e1ae a9bb 39e0 3fbb
000000b0: d986 993c 7716 15bd d89f fc3c 1915 4a3d

decoder.layers.1.multihead_attn.in_proj_bias f4 [12]
0.0 0.0 0.0 0.0 0.0 0.0 0.0 0.0
-0.00032109904 -0.0006237319 -0.012527466 -0.005312274
00000000: 0000 0000 0000 0000 0000 0000 0000 0000
00000010: 0000 0000 0000 0000 0000 0000 0000 0000
00000020: 2f59 a8b9 f081 23ba 0040 4dbc 9612 aebb

decoder.layers.1.multihead_attn.out_proj.weight f4 [4, 4]
-0.0046629347 0.0055468725 -0.016515346 0.009146815 0.003890185 0.0033129025 0.031909183 -0.014742055
0.0010050309 0.010207802 -0.025124883 -0.0020491946 -0.005816656 -0.016593585 -0.02606281 -0.004166517
00000000: 88cb 98bb 8ac2 b53b 314b 87bc 86dc 153c
00000010: 79f2 7e3b 481d 593b 34b3 023d a988 71bc
00000020: 3ebb 833a a03e 273c b3d2 cdbc c84b 06bb
00000030: a699 bebb 45ef 87bc ad81 d5bc 4787 88bb

decoder.layers.1.multihead_attn.out_proj.bias f4 [4]
0.006538622 -0.030654442 -0.025704194 -0.00808443
00000000: f041 d63b 061f fbbc 9a91 d2bc 8f74 04bc

decoder.layers.1.linear1.weight f4 [4, 4]
1.4562714 -0.064655036 -1.351486 0.64831346 1.4797229 -0.1919932 -1.4018669 0.5570338
0.21364947 0.1195486 0.049331307 0.12841402 0.19776143 -0.97693515 -0.3391426 0.087358005
00000000: 1a67 ba3f dc69 84bd 7efd acbf dff7 253f
00000010: 8f67 bd3f de99 44be 6070 b3bf c499 0e3f
00000020: edc6 5a3e e5d5 f43d a00f 4a3d f77e 033e
00000030: f981 4a3e 6c18 7abf 19a4 adbe c1e8 b23d

decoder.layers.1.linear1.bias f4 [4]
0.033317734 0.1795469 -0.3777681 -1.078162
00000000: 2d78 083d 24db 373e d26a c1be 3601 8abf

decoder.layers.1.linear2.weight f4 [4, 4]
-0.43671843 -0.3410069 0.11650563 -0.38554734 1.9370085 1.382868 -0.2338391 0.45342785
0.440099 0.34799832 0.12219395 0.7524651 0.80740434 -1.2654337 -0.2736877 1.0966468
00000000: 8f99 dfbe 7598 aebe 819a ee3d 7666 c5be
00000010: e5ef f73f d201 b13f 8473 6fbe b227 e83e
00000020: a854 e13e d62c b23e d240 fa3d 8ea1 403f
00000030: 0db2 4e3f bbf9 a1bf cb20 8cbe ec5e 8c3f

decoder.layers.1.linear2.bias f4 [4]
-0.0177508 -0.026706757 -0.016178204 -0.009190509
00000000: 206a 91bc 21c8 dabc 2788 84bc ca93 16bc

decoder.layers.1.norm1.weight f4 [4]
2.600926 2.2273428 2.3049142 2.8353002
00000000: 9275 2640 c98c 0e40 b783 1340 8f75 3540

decoder.layers.1.norm1.bias f4 [4]
-0.073349826 -0.5089722 -0.077813625 0.91553
00000000: 6f38 96bd 014c 02bf c05c 9fbd 2d60 6a3f

decoder.layers.1.norm2.weight f4 [4]
1.7911974 2.2162359 0.4778317 3.082804
00000000: f545 e53f cfd6 0d40 5ba6 f43e a94c 4540

decoder.layers.1.norm2.bias f4 [4]
-1.6065825 2.01173 1.037715 -2.0655675
00000000: 7fa4 cdbf 2fc0 0040 d8d3 843f 4232 04c0

decoder.layers.1.norm3.weight f4 [4]
1.115143 0.011387934 1.1599735 -0.0064709713
00000000: 01bd 8e3f 7594 3a3c 037a 943f 710a d4bb

decoder.layers.1.norm3.bias f4 [4]
0.4899822 -0.006101454 -0.31193742 -0.0055780737
00000000: f2de fa3e b5ee c7bb 43b6 9fbe 46c8 b6bb

linear_mapping.weight f4 [1, 4]
-0.6681108 -0.006264722 0.39583936 -0.0062628053
00000000: 4f09 2bbf 4c48 cdbb 75ab ca3e 3838 cdbb

linear_mapping_with_gender_ind.weight f4 [1, 5]
0.055841506 -0.35157594 0.03514573 0.3096819 0.40299034
00000000: 10ba 643d c301 b4be f8f4 0f3d a08e 9e3e
00000010: c054 ce3e

exp_avg f4 [4, 5]
-2.4473379e-09 -2.5391504e-09 -2.5224567e-09 -2.5927376e-09 -2.6204634e-09 -3.515583e-08 -3.5600102e-08 -3.5979284e-08
-3.6086625e-08 -3.6510535e-08 -2.2848026e-08 -2.2980235e-08 -2.3182524e-08 -2.3300723e-08 -2.3639723e-08 6.6321717e-09
6.71864e-09 6.7926287e-09 6.825802e-09 6.8911676e-09
00000000: 062e 28b1 357d 2eb1 8757 2db1 ec2b 32b1
00000010: ae13 34b1 3efe 16b3 bae6 18b3 a487 1ab3
00000020: aafd 1ab3 c2cf 1cb3 5743 c4b2 1266 c5b2
00000030: e922 c7b2 d526 c8b2 4d10 cbb2 33e1 e331
00000040: c8d9 e631 9864 e931 6488 ea31 5ac7 ec31

exp_avg_sq f4 [4, 5]
1.7505807e-13 1.7444001e-13 1.7684068e-13 1.7958339e-13 1.8389313e-13 4.8943835e-12 4.877342e-12 4.945353e-12
5.0226685e-12 5.143061e-12 2.102752e-12 2.1270212e-12 2.1637577e-12 2.187399e-12 2.1951427e-12 1.0887798e-15
9.415161e-16 9.249288e-16 9.911911e-16 1.2245055e-15
00000000: 0e19 452a e966 442a db1a 472a 6331 4a2a
00000010: 960b 4f2a b034 ac2c 319b ab2c c8ff ad2c
00000020: 2db8 b02c 93f4 b42c d0f7 132c 02ad 152c
00000030: cb42 182c adec 192c 2d78 1a2c e2e8 9c26
00000040: d0af 8726 da4b 8526 7fd8 8e26 4778 b026

exp_avg f4 [4]
6.409714e-10 1.4562371e-08 9.233785e-09 -2.6785065e-09
00000000: 5a30 3030 fc2d 7a32 9ea2 1e32 c910 38b1

exp_avg_sq f4 [4]
2.4462315e-14 6.834574e-13 2.9481785e-13 1.5727747e-16
00000000: 4256 dc28 4c60 402b bbf7 a52a 1e54 3525

exp_avg f4 [4, 1]
0.004413912 0.0326226 0.023915425 0.06730267
00000000: 94a2 903b 479f 053d 48ea c33c fbd5 893d

exp_avg_sq f4 [4, 1]
0.019012747 0.018932251 0.014067398 0.016339388
00000000: 9fc0 9b3c cf17 9b3c f27a 663c 2eda 853c

exp_avg f4 [4]
-0.0022842672 -0.0144267585 -0.00847768 -0.027798884
00000000: a5b3 15bb 365e 6cbc f8e5 0abc 7cba e3bc

exp_avg_sq f4 [4]
0.0036641825 0.0030768265 0.0034192945 0.0025786562
00000000: c822 703b 95a4 493b 3e16 603b acfe 283b

exp_avg f4 [12, 4]
-2.751774e-10 1.5600918e-09 -2.6493652e-09 2.3019127e-09 2.0399141e-10 -1.5461757e-09 2.4105902e-09 -2.060901e-09
-2.3274326e-10 3.2051881e-09 -4.2889168e-09 3.721307e-09 -2.7754526e-10 -1.7730789e-09 1.3425367e-09 -1.1743528e-09
-5.6535736e-09 3.7155772e-08 4.7535433e-08 3.8620183e-08 -1.3363287e-10 6.465902e-10 9.349642e-10 1.3146353e-10
3.9872807e-09 -2.6060173e-08 -3.350679e-08 -2.6214082e-08 1.351147e-09 -8.184629e-09 -1.066395e-08 -7.518108e-09
-9.563544e-11 1.1224551e-11 3.2609918e-10 2.6732433e-10 3.219063e-10 -6.8736586e-11 -2.641372e-10 -1.6214668e-11
-4.9525058e-11 -8.1360044e-11 9.266613e-10 -3.9294565e-10 -1.6945353e-10 -2.431105e-10 6.440723e-10 -3.2556977e-10
00000000: c747 97af da6a d630 2010 36b1 ad2f 1e31
00000010: 7a4a 602f 3981 d4b0 8da7 2531 c19f 0db1
00000020: 67e7 7faf 4442 5c31 b65d 93b1 edb9 7f31
00000030: 0695 98af abb0 f3b0 5084 b830 de66 a1b0
00000040: 5c41 c2b1 3495 1f33 c329 4c33 57df 2533
00000050: 4fee 12af bebb 3130 2180 8030 b28b 102f
00000060: 7e00 8931 edda dfb2 1be9 0fb3 602d e1b2
00000070: 42b3 b930 619c 0cb2 8c34 37b2 fd28 01b2
00000080: f74d d2ae e276 452d 6146 b32f 8ef6 922f
00000090: 49f8 b02f 4227 97ae 0236 91af 30a0 8ead
000000a0: 42d0 59ae a2e9 b2ae feb7 7e30 2f06 d8af
000000b0: ee50 3aaf c3a6 85af 8f0a 3130 dffb b2af

exp_avg_sq f4 [12, 4]
5.0299298e-17 1.1306046e-16 3.2925436e-16 2.350056e-16 1.8287522e-15 3.4263912e-15 1.0631492e-14 7.530713e-15
9.310382e-16 1.7888034e-15 5.504184e-15 3.9035907e-15 4.443917e-15 8.302128e-15 2.5787844e-14 1.826356e-14
1.7423344e-12 2.9384644e-12 9.096018e-12 8.565571e-15 2.7310595e-16 4.631258e-16 1.433875e-15 1.896956e-18
6.859167e-13 1.1565076e-12 3.5790626e-12 4.0701276e-15 1.217933e-13 2.0576058e-13 6.3722665e-13 3.952926e-16
1.3800256e-17 7.817702e-18 8.621953e-17 2.0064186e-17 1.561887e-17 3.530767e-17 4.515323e-17 1.0270278e-16
3.9756123e-17 5.691958e-17 1.0642326e-16 1.032652e-16 1.3846721e-17 1.9038217e-17 4.499192e-17 3.2270314e-17
00000000: eef6 6724 8f59 0225 5ecd bd25 b578 8725
00000010: 86c6 0327 c3e5 7627 1a85 3f28 49a9 0728
00000020: 3f2d 8626 99e5 0027 234f c627 45a4 8c27
00000030: e61b a027 cf8e 1528 b846 e828 e780 a428
00000040: 3636 f52b abc6 4e2c d304 202d b94d 1a28
00000050: 536f 9d25 a77c 0526 a6a4 ce26 7cf8 0b22
00000060: 8211 412b 94c3 a22b a9da 7b2c 4da4 9227
00000070: 8720 092a 73aa 672a 055d 332b e4de e325
00000080: de91 7e23 0e36 1023 07cf c624 380f b923
00000090: 040f 9023 f0d3 2224 863b 5024 05d1 ec24
000000a0: bf57 3724 643f 8324 3465 f524 041d ee24
000000b0: 4b6d 7f23 b898 af23 157d 4f24 10d2 1424

exp_avg f4 [12]
2.458429e-10 -2.428601e-10 5.0137644e-10 -3.0435374e-10 5.286097e-16 6.710106e-18 -8.607577e-16 -2.96726e-17
-4.7649613e-11 4.2956007e-11 -1.0902043e-10 -1.0643044e-10
00000000: 5027 872f 8583 85af 3bd1 0930 fb51 a7af
00000010: 835c 1826 298f f722 b518 78a6 39d7 08a4
00000020: b290 51ae 2aec 3c2e 0cbd efae 030b eaae

exp_avg_sq f4 [12]
3.621478e-18 1.1398476e-16 5.918547e-17 2.7645281e-16 6.6850485e-29 1.6903595e-31 3.6098225e-28 4.7878405e-29
1.524884e-18 1.9626914e-18 3.4070089e-18 1.2203416e-18
00000000: e59b 8522 5d6a 0325 ef78 8824 3c5d 9f25
00000010: 727c a910 d46b 5b0c b8cc e411 b9c5 7210
00000020: 7d08 e121 31d2 1022 9464 7b22 3417 b421

exp_avg f4 [4, 4]
-2.00623e-09 6.605599e-10 -1.2635282e-09 -6.226585e-10 9.785154e-10 -2.849635e-10 6.129999e-10 2.580249e-10
-1.4266239e-09 6.0459193e-10 -9.821387e-10 -5.417196e-10 2.725565e-09 -1.1806178e-09 1.8172165e-09 8.23459e-10
00000000: f9dd 09b1 c592 3530 72a8 adb0 b227 2bb0
00000010: 737c 8630 0ca9 9caf 0880 2830 c7d9 8d2f
00000020: de12 c4b0 6030 2630 effb 86b0 21e8 14b0
00000030: a64c 3b31 4c43 a2b0 9fc1 f930 c759 6230

exp_avg_sq f4 [4, 4]
2.3242057e-15 6.2139676e-16 1.2650219e-15 3.7055868e-16 2.505567e-15 7.2181273e-16 1.4138458e-15 4.2717147e-16
6.830129e-16 1.7965921e-16 3.7090509e-16 1.068261e-16 6.645012e-16 2.0011564e-16 3.82506e-16 1.1778586e-16
00000000: 077a 2727 fd1a 3326 124f b626 cf9c d525
00000010: 8e8b 3427 610c 5026 b4c1 cb26 623f f625
00000020: 75dd 4426 0a22 4f25 eecf d525 0053 f624
00000030: 8987 3f26 b6b7 6625 ec7f dc25 40cc 0725

exp_avg f4 [4]
4.7006143e-10 -7.95314e-10 -3.180688e-10 6.956877e-10
00000000: a235 0130 3f9d 5ab0 34dc aeaf ab3a 3f30

exp_avg_sq f4 [4]
7.4291873e-16 6.461258e-17 1.5452419e-17 2.9802527e-17
00000000: ba21 5626 89fc 9424 fe85 8e23 9d70 0924

exp_avg f4 [4, 4]
6e-45 -6e-45 -6e-45 -6e-45 6e-45 6e-45 6e-45 -6e-45
6e-45 6e-45 -6e-45 -6e-45 6.282013e-11 2.3774635e-10 -4.3771997e-10 8.9464425e-12
00000000: 0400 0000 0400 0080 0400 0080 0400 0080
00000010: 0400 0000 0400 0000 0400 0000 0400 0080
00000020: 0400 0000 0400 0000 0400 0080 0400 0080
00000030: 9724 8a2e d3b3 822f 9ca3 f0af 3263 1d2d

exp_avg_sq f4 [4, 4]
3.5e-44 3.5e-44 3.5e-44 3.5e-44 3.5e-44 3.5e-44 3.5e-44 3.5e-44
3.5e-44 3.5e-44 3.5e-44 3.5e-44 4.4051148e-18 6.7778035e-17 2.3287149e-16 5.8778875e-19
00000000: 1900 0000 1900 0000 1900 0000 1900 0000
00000010: 1900 0000 1900 0000 1900 0000 1900 0000
00000020: 1900 0000 1900 0000 1900 0000 1900 0000
00000030: 2285 a222 1749 9c24 c43d 8625 107c 2d21

exp_avg f4 [4]
-6e-45 -6e-45 -6e-45 1.4851545e-10
00000000: 0400 0080 0400 0080 0400 0080 624b 232f

exp_avg_sq f4 [4]
3.5e-44 3.5e-44 3.5e-44 2.781297e-17
00000000: 1900 0000 1900 0000 1900 0000 c243 0024

exp_avg f4 [4, 4]
-6e-45 -6e-45 6e-45 2.0083789e-10 -6e-45 6e-45 6e-45 2.924063e-11
6e-45 -6e-45 -6e-45 4.6862857e-11 -6e-45 -6e-45 6e-45 -1.1828681e-10
00000000: 0400 0080 0400 0080 0400 0000 d7d2 5c2f
00000010: 0400 0080 0400 0000 0400 0000 069a 002e
00000020: 0400 0000 0400 0080 0400 0080 e31a 4e2e
00000030: 0400 0080 0400 0080 0400 0000 c70e 02af

exp_avg_sq f4 [4, 4]
3.5e-44 3.5e-44 3.5e-44 1.5009351e-17 3.5e-44 3.5e-44 3.5e-44 2.2877074e-17
3.5e-44 3.5e-44 3.5e-44 9.462203e-18 3.5e-44 3.5e-44 3.5e-44 1.2040792e-16
00000000: 1900 0000 1900 0000 1900 0000 d46f 8a23
00000010: 1900 0000 1900 0000 1900 0000 f700 d323
00000020: 1900 0000 1900 0000 1900 0000 fe8b 2e23
00000030: 1900 0000 1900 0000 1900 0000 25d2 0a25

exp_avg f4 [4]
1.2389663e-08 -6.1659637e-09 1.42731105e-11 -3.7828185e-09
00000000: 50da 5432 64dc d3b1 6018 7b2d 06fa 81b1

exp_avg_sq f4 [4]
1.9067096e-14 5.0754697e-15 6.0370103e-16 1.2386997e-14
00000000: bbbd ab28 f2dc b627 4601 2e26 f124 5f28

exp_avg f4 [4]
5.9771734e-09 -2.1109343e-09 -5.229269e-10 -5.018814e-10
00000000: c65f cd31 f30f 11b1 b6bd 0fb0 c4f4 09b0

exp_avg_sq f4 [4]
3.2677698e-14 1.0495364e-15 1.3109505e-15 1.2817066e-15
00000000: d22a 1329 0f41 9726 89ed bc26 a1b6 b826

exp_avg f4 [4]
8.96206e-09 -6.912434e-09 2.2307114e-10 -2.2492734e-09
00000000: 8ff7 1932 6a82 edb1 f244 752f a391 1ab1

exp_avg_sq f4 [4]
1.19744345e-14 4.0817162e-15 6.2279463e-16 1.0320331e-14
00000000: 55b6 5728 300f 9327 2282 3326 20ea 3928

exp_avg f4 [4]
2.3110568e-08 1.0107006e-08 -1.2491894e-08 -3.860175e-08
00000000: ad84 c632 15a3 2d32 ee9b 56b2 13cb 25b3

exp_avg_sq f4 [4]
3.3374914e-14 1.544101e-14 4.0612526e-14 1.0513314e-13
00000000: a84e 1629 8c14 8b28 0ee7 3629 21bd ec29

exp_avg f4 [4]
4.282624e-08 -2.2872229e-09 7.560695e-09 -4.200833e-08
00000000: f3ef 3733 402d 1db1 4ae4 0132 a66c 34b3

exp_avg_sq f4 [4]
6.525585e-14 4.860514e-15 1.3399523e-14 5.19325e-14
00000000: 70f1 9229 541e af27 6562 7128 19e2 6929

exp_avg f4 [12, 4]
-4.6750978e-11 1.9309786e-11 4.0916576e-10 -5.082843e-11 3.380279e-10 -8.2325466e-11 -1.7008848e-09 1.1200343e-10
5.8592756e-11 -1.0170997e-11 -3.4843145e-10 2.5098507e-11 3.8525552e-10 -9.6286215e-11 -2.119282e-09 1.597806e-10
8.6339164e-10 -2.5553426e-09 5.2460664e-10 1.2750971e-09 -1.0951345e-09 3.3525502e-09 -7.0204587e-10 -1.6966855e-09
5.7215505e-10 -1.7846945e-09 3.7604125e-10 9.103719e-10 -5.079068e-10 1.5320238e-09 -3.184121e-10 -7.705663e-10
1.0543388e-09 -5.388277e-10 -3.5732288e-09 2.8671615e-10 -7.8953395e-09 1.819238e-09 3.5128302e-08 -1.773223e-09
1.3019059e-09 -2.1637458e-10 -5.7894844e-09 2.2915003e-10 -1.117884e-09 2.5352465e-10 5.097708e-09 -2.664563e-10
00000000: ec9c 4dae c6d9 a92d f6f0 e02f b98b 5fae
00000010: 33d5 b92f 1e09 b5ae 90c4 e9b0 534c f62e
00000020: cad8 802e 19ee 32ad 5e8d bfaf d0c4 dc2d
00000030: e5cb d32f 52bc d3ae cea2 11b1 3eae 2f2f
00000040: c953 6d30 109a 2fb1 e933 1030 7e3f af30
00000050: 9f83 96b0 b062 6631 16fa 40b0 d030 e9b0
00000060: d545 1d30 5b49 f5b0 1abb ce2f ba3d 7a30
00000070: c49c 0bb0 4c8f d230 850c afaf c8cf 53b0
00000080: 40e8 9030 a11c 14b0 e88c 75b1 b69f 9d2f
00000090: 12a4 07b2 bf08 fa30 fadf 1633 bdb5 f3b0
000000a0: beee b230 08e8 6daf d8ec c6b1 00f4 7b2f
000000b0: 0ca4 99b0 6c60 8b2f ea27 af31 647c 92af

exp_avg_sq f4 [12, 4]
3.7345394e-16 2.8440802e-17 5.5524628e-15 1.0125119e-17 7.8349356e-17 6.1756916e-18 1.2108995e-15 2.6061775e-18
9.580932e-18 5.727684e-19 1.4784338e-16 2.3079598e-19 4.760554e-16 3.8102335e-17 7.229596e-15 1.4926185e-17
3.1076214e-15 6.4871225e-16 2.9608043e-17 1.140105e-15 5.882755e-15 1.1966301e-15 5.4987645e-17 2.1646056e-15
1.7533617e-15 3.5048143e-16 1.6139311e-17 6.4282696e-16 1.195724e-15 2.4564173e-16 1.1313105e-17 4.4313092e-16
9.6608e-15 6.367508e-16 1.8576288e-13 5.439504e-16 5.990355e-15 3.9444805e-16 1.1960071e-13 3.6961794e-16
1.0131988e-15 6.650415e-17 2.0071169e-14 6.13905e-17 2.6777112e-16 1.9475764e-17 4.9790668e-15 1.4452295e-17
00000000: 1348 d725 f928 0324 6e0c c827 86c6 3a23
00000010: 4ca9 b424 c2d7 e322 4e82 ae26 4d4d 4022
00000020: acbc 3023 280d 2921 aa73 2a25 e73c 8820
00000030: b036 0926 4cb7 2f24 a03c 0228 75ab 8923
00000040: 7fed 5f27 84fa 3a26 028b 0824 734e a426
00000050: d7f2 d327 dc73 ac26 f495 7d24 edf9 1b27
00000060: a1af fc26 ee09 ca25 dfdb 9423 4248 3926
00000070: 6e52 ac26 529a 8d25 a1b0 5023 9572 ff25
00000080: 9408 2e28 eb87 3726 8126 512a 75c8 1c26
00000090: 46d3 d727 4262 e325 8fa8 062a fb11 d525
000000a0: 7004 9226 1f59 9924 f7c8 b428 8e8e 8d24
000000b0: 0b5c 9a25 d9a1 b323 c963 b327 844c 8523

exp_avg f4 [12]
-8.9206004e-11 3.8522494e-10 8.001959e-11 4.782969e-10 -3.9494294e-14 5.08005e-14 -3.1118625e-14 2.7111394e-14
8.2971496e-10 -8.002273e-09 1.3174852e-09 -1.1571248e-09
00000000: 842a c4ae 97c7 d32f 06f7 af2e 2779 0330
00000010: d2dd 31a9 fdc8 6429 5525 0ca9 9e32 f428
00000020: 0012 6430 5e7a 09b2 e412 b530 b608 9fb0

exp_avg_sq f4 [12]
2.9586596e-16 6.4251446e-17 7.830219e-18 3.8418532e-16 2.1306135e-26 4.70952e-26 1.3797807e-26 1.0976423e-26
9.731949e-15 6.240059e-15 1.0477714e-15 2.602778e-16
00000000: 1c8e aa25 5c27 9424 2a71 1023 bf77 dd25
00000010: 7801 d314 4234 6915 99a5 8814 1469 5914
00000020: b150 2f28 63d2 e027 f1ff 9626 390a 9625

exp_avg f4 [4, 4]
2.3053264e-08 -1.9674962e-08 2.1975557e-08 2.9836112e-08 -8.054628e-08 6.72327e-08 -7.530392e-08 -1.02944526e-07
1.3410363e-07 -1.1282964e-07 1.2663966e-07 1.7281073e-07 -5.512071e-08 4.494407e-08 -5.1358356e-08 -7.088833e-08
00000000: aa06 c632 b301 a9b2 c3c4 bc32 2725 0033
00000010: c9f8 acb3 9161 9033 c5b6 a1b3 5a12 ddb3
00000020: 20fe 0f34 c04c f2b3 72fa 0734 da8d 3934
00000030: ddbd 6cb3 8708 4133 1c95 5cb3 463b 98b3

exp_avg_sq f4 [4, 4]
8.554284e-14 5.861091e-14 7.2804454e-14 1.386371e-13 3.242733e-13 2.2172594e-13 2.6950997e-13 5.154311e-13
3.2488552e-12 2.2284323e-12 2.7264417e-12 5.206519e-12 4.527812e-12 3.1046144e-12 3.770791e-12 7.2147657e-12
00000000: 17a0 c029 e4fa 8329 e9f0 a329 6c17 1c2a
00000010: b58c b62a 27a4 792a 7bb8 972a ba14 112b
00000020: 2c9e 642c decf 1c2c 35db 3f2c 2730 b72c
00000030: e84e 9f2c c377 5a2c 44ac 842c d5d8 fd2c

exp_avg f4 [4]
1.8706723e-09 -1.2070167e-08 1.4761261e-08 -6.373742e-09
00000000: 378d 0031 285d 4fb2 b698 7d32 0700 dbb1

exp_avg_sq f4 [4]
2.2702046e-15 8.155976e-15 8.5829686e-14 1.201399e-13
00000000: e295 2327 cdec 1228 7245 c129 f843 072a

exp_avg f4 [4, 4]
-6e-45 6e-45 -6e-45 6e-45 -6e-45 6e-45 6e-45 6e-45
6e-45 -6e-45 -6e-45 -6e-45 6e-45 -6e-45 -6e-45 -6e-45
00000000: 0400 0080 0400 0000 0400 0080 0400 0000
00000010: 0400 0080 0400 0000 0400 0000 0400 0000
00000020: 0400 0000 0400 0080 0400 0080 0400 0080
00000030: 0400 0000 0400 0080 0400 0080 0400 0080

exp_avg_sq f4 [4, 4]
3.5e-44 3.5e-44 3.5e-44 3.5e-44 3.5e-44 3.5e-44 3.5e-44 3.5e-44
3.5e-44 3.5e-44 3.5e-44 3.5e-44 3.5e-44 3.5e-44 3.5e-44 3.5e-44
00000000: 1900 0000 1900 0000 1900 0000 1900 0000
00000010: 1900 0000 1900 0000 1900 0000 1900 0000
00000020: 1900 0000 1900 0000 1900 0000 1900 0000
00000030: 1900 0000 1900 0000 1900 0000 1900 0000

exp_avg f4 [4]
6e-45 6e-45 -6e-45 -6e-45
00000000: 0400 0000 0400 0000 0400 0080 0400 0080

exp_avg_sq f4 [4]
3.5e-44 3.5e-44 3.5e-44 3.5e-44
00000000: 1900 0000 1900 0000 1900 0000 1900 0000

exp_avg f4 [4, 4]
6e-45 -6e-45 -6e-45 -6e-45 -6e-45 6e-45 6e-45 6e-45
6e-45 -6e-45 -6e-45 -6e-45 -6e-45 6e-45 6e-45 6e-45
00000000: 0400 0000 0400 0080 0400 0080 0400 0080
00000010: 0400 0080 0400 0000 0400 0000 0400 0000
00000020: 0400 0000 0400 0080 0400 0080 0400 0080
00000030: 0400 0080 0400 0000 0400 0000 0400 0000

exp_avg_sq f4 [4, 4]
3.5e-44 3.5e-44 3.5e-44 3.5e-44 3.5e-44 3.5e-44 3.5e-44 3.5e-44
3.5e-44 3.5e-44 3.5e-44 3.5e-44 3.5e-44 3.5e-44 3.5e-44 3.5e-44
00000000: 1900 0000 1900 0000 1900 0000 1900 0000
00000010: 1900 0000 1900 0000 1900 0000 1900 0000
00000020: 1900 0000 1900 0000 1900 0000 1900 0000
00000030: 1900 0000 1900 0000 1900 0000 1900 0000

exp_avg f4 [4]
1.0076584e-06 -1.5471154e-06 1.5486398e-06 -1.0329606e-07
00000000: e13e 8735 7ba6 cfb5 dcda cf35 9cd3 ddb3

exp_avg_sq f4 [4]
5.8126486e-11 8.357078e-11 1.0064992e-10 7.555184e-11
00000000: 9ba4 7f2e 2bc6 b72e de54 dd2e e823 a62e

exp_avg f4 [4]
1.0361719e-06 1.3491211e-07 -6.611026e-07 -8.8149534e-08
00000000: 9812 8b35 5cdc 1034 a076 31b5 b84c bdb3

exp_avg_sq f4 [4]
1.6335382e-10 1.499758e-11 6.9042e-11 1.6419695e-11
00000000: 039c 332f 8ceb 832d 31d3 972e de6d 902d

exp_avg f4 [4]
7.7370385e-07 -6.363551e-07 5.209013e-07 -6.5825066e-07
00000000: 86b0 4f35 fdd1 2ab5 11d4 0b35 a4b2 30b5

exp_avg_sq f4 [4]
5.721245e-11 8.021634e-11 9.474172e-11 6.8044535e-11
00000000: 7e9f 7b2e c965 b02e d956 d02e aba1 952e

exp_avg f4 [4]
6.9105354e-06 -4.3736804e-07 -2.7278433e-05 3.1664214e-07
00000000: 0ce1 e736 68cf eab4 fdd3 e4b7 f7fe a934

exp_avg_sq f4 [4]
4.3562767e-09 4.1869258e-11 5.878634e-08 1.1888722e-11
00000000: 37ae 9531 9824 382e 447c 7c33 0b26 512d

exp_avg f4 [4]
4.6398004e-06 -2.822768e-06 1.8049443e-05 -3.5037679e-06
00000000: 95af 9b36 c96e 3db6 e268 9737 4622 6bb6

exp_avg_sq f4 [4]
1.9999853e-09 3.5111496e-09 3.3380935e-08 1.1827503e-09
00000000: 1d70 0931 cc48 7131 ba5e 0f33 548e a230

exp_avg f4 [12, 4]
0.0 0.0 0.0 0.0 0.0 0.0 0.0 0.0
0.0 0.0 0.0 0.0 0.0 0.0 0.0 0.0
0.0 0.0 0.0 0.0 0.0 0.0 0.0 0.0
0.0 0.0 0.0 0.0 0.0 0.0 0.0 0.0
-0.00054960605 0.0024698433 -0.0033299308 0.0019437938 0.00032677955 -0.0010384386 -0.0012517347 -0.0014440482
0.0011730653 0.0001417358 -0.0027154565 0.00044984499 -0.00016371983 2.0469644e-05 0.00064404076 -2.117491e-05
00000000: 0000 0000 0000 0000 0000 0000 0000 0000
00000010: 0000 0000 0000 0000 0000 0000 0000 0000
00000020: 0000 0000 0000 0000 0000 0000 0000 0000
00000030: 0000 0000 0000 0000 0000 0000 0000 0000
00000040: 0000 0000 0000 0000 0000 0000 0000 0000
00000050: 0000 0000 0000 0000 0000 0000 0000 0000
00000060: 0000 0000 0000 0000 0000 0000 0000 0000
00000070: 0000 0000 0000 0000 0000 0000 0000 0000
00000080: 7013 10ba 18dd 213b f83a 5abb e6c6 fe3a
00000090: 9c53 ab39 381c 88ba 3f11 a4ba 3846 bdba
000000a0: 8ac1 993a ea9e 1439 cdf5 31bb 2cd9 eb39
000000b0: 35ac 2bb9 3ab6 ab37 d8d4 283a c6a0 b1b7

exp_avg_sq f4 [12, 4]
0.0 0.0 0.0 0.0 0.0 0.0 0.0 0.0
0.0 0.0 0.0 0.0 0.0 0.0 0.0 0.0
0.0 0.0 0.0 0.0 0.0 0.0 0.0 0.0
0.0 0.0 0.0 0.0 0.0 0.0 0.0 0.0
0.0007741092 0.00028102263 0.002692841 0.00074365915 9.0183836e-05 9.524413e-05 0.00060860335 0.00020048016
2.4954803e-05 2.9203491e-05 0.00010981621 0.00011719715 3.0432818e-06 2.540159e-06 1.287125e-05 8.581798e-06
00000000: 0000 0000 0000 0000 0000 0000 0000 0000
00000010: 0000 0000 0000 0000 0000 0000 0000 0000
00000020: 0000 0000 0000 0000 0000 0000 0000 0000
00000030: 0000 0000 0000 0000 0000 0000 0000 0000
00000040: 0000 0000 0000 0000 0000 0000 0000 0000
00000050: 0000 0000 0000 0000 0000 0000 0000 0000
00000060: 0000 0000 0000 0000 0000 0000 0000 0000
00000070: 0000 0000 0000 0000 0000 0000 0000 0000
00000080: 97ed 4a3a 3856 9339 607a 303b 1ff2 423a
00000090: 1421 bd38 cebd c738 ae8a 1f3a fc37 5239
000000a0: 0856 d137 05fa f437 214d e638 bec7 f538
000000b0: 2f3b 4c36 9977 2a36 99f1 5737 8bfa 0f37

exp_avg f4 [12]
0.0 0.0 0.0 0.0 0.0 0.0 0.0 0.0
0.015811674 -0.002472848 0.0035739008 -9.5023715e-06
00000000: 0000 0000 0000 0000 0000 0000 0000 0000
00000010: 0000 0000 0000 0000 0000 0000 0000 0000
00000020: 7c87 813c 810f 22bb 1b38 6a3b 606c 1fb7

exp_avg_sq f4 [12]
0.0 0.0 0.0 0.0 0.0 0.0 0.0 0.0
0.0051313154 0.0013706998 0.0005123313 6.4145905e-05
00000000: 0000 0000 0000 0000 0000 0000 0000 0000
00000010: 0000 0000 0000 0000 0000 0000 0000 0000
00000020: 9824 a83b 0ea9 b33a f94d 063a 1286 8638

exp_avg f4 [4, 4]
-0.012033598 -0.0023290871 -0.0022158956 -0.00055823557 0.0039010374 -0.00025586179 -4.6676432e-05 0.0001999361
-0.0005755774 0.001306683 -0.00035285106 -0.00022754731 0.012315298 -0.00012897141 0.002325762 0.0004975224
00000000: 9128 45bc 99a3 18bb 8f38 11bb 8e56 12ba
00000010: 8ca8 7f3b 3025 86b9 70c6 43b8 f0a5 5139
00000020: 58e2 16ba 0245 ab3a defe b8b9 c499 6eb9
00000030: 1bc6 493c 803c 07b9 d06b 183b 2a6c 023a

exp_avg_sq f4 [4, 4]
0.0048836544 0.00015038869 0.0010518873 6.611184e-06 0.00034379464 1.4980156e-05 7.30062e-05 6.3626544e-07
0.0016212094 0.00011777911 0.0014355149 7.542895e-06 0.0024418454 7.8833895e-05 0.00065947213 3.9052934e-06
00000000: 1007 a03b a8b1 1d39 7bdf 893a a3d5 dd36
00000010: 563f b439 4853 7b37 e81a 9938 d4cb 2a35
00000020: c37e d43a 2e00 f738 e327 bc3a fa18 fd36
00000030: 5e07 203b a053 a538 6de0 2c3a 370a 8336

exp_avg f4 [4]
0.016937278 -0.0057697822 0.0027088062 -0.013430312
00000000: 0cc0 8a3c 7110 bdbb 3a86 313b d00a 5cbc

exp_avg_sq f4 [4]
0.010137013 0.0008178076 0.0053895996 0.0058778576
00000000: b715 263c 2462 563a 3d9b b03b 0b9b c03b

exp_avg f4 [12, 4]
0.0 0.0 0.0 0.0 0.0 0.0 0.0 0.0
0.0 0.0 0.0 0.0 0.0 0.0 0.0 0.0
0.0 0.0 0.0 0.0 0.0 0.0 0.0 0.0
0.0 0.0 0.0 0.0 0.0 0.0 0.0 0.0
7.37732e-06 -5.485162e-07 1.1794353e-05 3.7573616e-07 -1.2005637e-05 6.94018e-07 -1.7854776e-05 -4.850239e-07
5.736557e-06 -4.912839e-07 9.607463e-06 3.351163e-07 1.22443e-05 -7.182191e-07 1.8258072e-05 4.9060804e-07
00000000: 0000 0000 0000 0000 0000 0000 0000 0000
00000010: 0000 0000 0000 0000 0000 0000 0000 0000
00000020: 0000 0000 0000 0000 0000 0000 0000 0000
00000030: 0000 0000 0000 0000 0000 0000 0000 0000
00000040: 0000 0000 0000 0000 0000 0000 0000 0000
00000050: 0000 0000 0000 0000 0000 0000 0000 0000
00000060: 0000 0000 0000 0000 0000 0000 0000 0000
00000070: 0000 0000 0000 0000 0000 0000 0000 0000
00000080: b28a f736 bf3d 13b5 5ce0 4537 c9b8 c934
00000090: d16b 49b7 8e4c 3a35 d7c6 95b7 9732 02b5
000000a0: a67c c036 c6e0 03b5 bd2f 2137 09ea b334
000000b0: de6c 4d37 a4cb 40b5 e928 9937 54b2 0335

exp_avg_sq f4 [12, 4]
0.0 0.0 0.0 0.0 0.0 0.0 0.0 0.0
0.0 0.0 0.0 0.0 0.0 0.0 0.0 0.0
0.0 0.0 0.0 0.0 0.0 0.0 0.0 0.0
0.0 0.0 0.0 0.0 0.0 0.0 0.0 0.0
1.1922232e-09 4.6614556e-11 3.3047702e-09 1.0226619e-10 1.6664524e-09 5.9440834e-11 4.459058e-09 1.069544e-10
1.0172296e-09 4.1190776e-11 2.8348157e-09 9.457714e-11 1.7449491e-09 6.2558486e-11 4.6721196e-09 1.1118978e-10
00000000: 0000 0000 0000 0000 0000 0000 0000 0000
00000010: 0000 0000 0000 0000 0000 0000 0000 0000
00000020: 0000 0000 0000 0000 0000 0000 0000 0000
00000030: 0000 0000 0000 0000 0000 0000 0000 0000
00000040: 0000 0000 0000 0000 0000 0000 0000 0000
00000050: 0000 0000 0000 0000 0000 0000 0000 0000
00000060: 0000 0000 0000 0000 0000 0000 0000 0000
00000070: 0000 0000 0000 0000 0000 0000 0000 0000
00000080: a0db a330 5303 4d2e 221a 6331 bfe2 e02e
00000090: 1509 e530 37b6 822e 4a36 9931 f931 eb2e
000000a0: 96ce 8b30 b128 352e 9bce 4231 32fa cf2e
000000b0: f0d2 ef30 4c91 892e 6688 a031 4882 f42e

exp_avg f4 [12]
0.0 0.0 0.0 0.0 0.0 0.0 0.0 0.0
-8.471395e-05 9.914449e-05 -7.9796024e-05 -0.00010223905
00000000: 0000 0000 0000 0000 0000 0000 0000 0000
00000010: 0000 0000 0000 0000 0000 0000 0000 0000
00000020: 75a8 b1b8 cbeb cf38 2a58 a7b8 2c69 d6b8

exp_avg_sq f4 [12]
0.0 0.0 0.0 0.0 0.0 0.0 0.0 0.0
1.0597004e-06 1.3604074e-06 9.197633e-07 1.4390129e-06
00000000: 0000 0000 0000 0000 0000 0000 0000 0000
00000010: 0000 0000 0000 0000 0000 0000 0000 0000
00000020: 073b 8e35 3e97 b635 a7e5 7635 1b24 c135

exp_avg f4 [4, 4]
-9.990928e-06 1.4780191e-05 -5.3134395e-06 -1.4500068e-05 -1.3424162e-05 1.6432665e-05 -9.5315e-06 -1.5750411e-05
1.7706143e-05 -2.331064e-05 1.2181092e-05 2.2470904e-05 7.79022e-06 -9.655372e-06 6.4991514e-06 9.0600515e-06
00000000: b69e 27b7 70f8 7737 194a b2b6 5145 73b7
00000010: 5638 61b7 e1d8 8937 7be9 1fb7 c01f 84b7
00000020: a787 9437 388b c3b7 645d 4c37 e67f bc37
00000030: bdb2 0237 82fd 21b7 4913 da36 a000 1837

exp_avg_sq f4 [4, 4]
1.5052274e-08 1.5444998e-08 1.44417776e-08 1.5803444e-08 5.190503e-09 5.448113e-09 4.6012327e-09 5.4682125e-09
1.1107058e-08 1.3141163e-08 9.662923e-09 1.3581513e-08 1.0168052e-08 1.1132822e-08 9.256261e-09 1.1741358e-08
00000000: 4d4c 8132 e9ab 8432 9c1b 7832 24c0 8732
00000010: 2658 b231 1c32 bb31 df18 9e31 e8e2 bb31
00000020: 5cd1 3e32 72c3 6132 fc01 2632 2054 6932
00000030: 91af 2e32 ab42 3f32 7705 1f32 0ab7 4932

exp_avg f4 [4]
-8.500507e-05 -0.0008157332 0.0004369181 -0.0031618238
00000000: c044 b2b8 eed6 55ba 2812 e539 9a36 4fbb

exp_avg_sq f4 [4]
0.0003343914 0.00011088224 0.00024644536 0.00028749258
00000000: 4151 af39 7389 e838 5635 8139 9aba 9639

exp_avg f4 [4, 4]
0.005236102 -0.002114269 -0.0004020429 0.00029051452 -5.5223827e-05 0.00021140683 -0.00044993186 -0.0003499516
-6e-45 6e-45 -6e-45 -6e-45 -0.002301657 -0.0051641427 0.003644373 0.0011645015
00000000: 9b93 ab3b 8c8f 0abb 49c9 d2b9 3350 9839
00000010: 22a0 67b8 17ad 5d39 d5e4 ebb9 b579 b7b9
00000020: 0400 0080 0400 0000 0400 0080 0400 0080
00000030: 66d7 16bb f837 a9bb 6fd6 6e3b 30a2 983a

exp_avg_sq f4 [4, 4]
0.00023640407 2.7309137e-05 0.00012124238 4.517749e-06 3.941796e-06 6.8467096e-05 0.00027130905 0.00011933476
9.724651e-27 1.2981899e-24 3.0331656e-26 4.3280262e-26 3.8073787e-05 0.00016027364 8.1838545e-05 1.416689e-05
00000000: 3ce3 7739 ed15 e537 8243 fe38 2b97 9736
00000010: c543 8436 fe95 8f38 7c3e 8e39 5d43 fa38
00000020: d79d 4014 9ae2 c817 f131 1615 4050 5615
00000030: 6bb1 1f38 210f 2839 bca0 ab38 54ae 6d37

exp_avg f4 [4]
0.0020442253 -0.00023020187 6e-45 -0.0015057296
00000000: 69f8 053b 5862 71b9 0400 0000 e75b c5ba

exp_avg_sq f4 [4]
3.142133e-05 5.5095665e-05 5.928719e-26 1.3319377e-05
00000000: 65ca 0338 8516 6738 b9c9 9215 4a76 5f37

exp_avg f4 [4, 4]
-0.00022654702 0.00015480231 -6e-45 0.0016067858 0.00051088864 3.433264e-06 6e-45 -0.00026449168
0.00046927854 -0.00033105182 6e-45 0.00035104784 -0.00029827462 2.3198103e-05 6e-45 -0.0014182852
00000000: 418d 6db9 6e52 2239 0400 0080 c99a d23a
00000010: 28ed 053a 0767 6636 0400 0000 79ab 8ab9
00000020: 8009 f639 0691 adb9 0400 0000 d80c b839
00000030: be61 9cb9 8c99 c237 0400 0000 c1e5 b9ba

exp_avg_sq f4 [4, 4]
9.890044e-06 8.9070363e-07 1.6372031e-29 2.3240556e-05 2.3438536e-06 7.6709165e-07 3.5e-44 8.58217e-07
1.5931813e-06 3.1442055e-06 3.4286316e-31 2.0372536e-06 7.4823197e-06 5.453638e-07 1.06872576e-29 1.5499281e-05
00000000: 6aed 2537 b018 6f35 3908 a60f b7f4 c237
00000010: 194b 1d36 23ea 4d35 1900 0000 3960 6635
00000020: 4bd5 d535 0a01 5336 ea87 de0c c0b7 0836
00000030: a310 fb36 1d65 1235 6ac3 580f 7404 8237

exp_avg f4 [4]
-0.0011370059 0.0012251439 0.0035500657 -0.00014950277
00000000: 9607 95ba 0295 a03a 38a8 683b d8c3 1cb9

exp_avg_sq f4 [4]
0.00035833084 0.00012342593 0.0003728833 0.00031312523
00000000: 5ade bb39 e56b 0139 8d7f c339 f52a a439

exp_avg f4 [4]
0.00038689445 -0.0018632283 0.003533096 -0.0010619074
00000000: 18d8 ca39 9137 f4ba 848b 673b b32f 8bba

exp_avg_sq f4 [4]
0.00020054876 0.00014282973 0.00014025235 8.7333385e-05
00000000: 664a 5239 90c4 1539 b410 1339 c126 b738

exp_avg f4 [4]
0.0025765065 0.000256159 -0.0004068982 -0.0024257677
00000000: 9bda 283b 144d 8639 f454 d5b9 a1f9 1ebb

exp_avg_sq f4 [4]
0.00030901923 8.732239e-05 0.0001862254 0.00025990893
00000000: dc03 a239 da20 b738 8045 4339 6344 8839

exp_avg f4 [4]
-0.0009161363 0.0020860545 0.001712947 -0.0041207448
00000000: de28 70ba 30b6 083b f784 e03a 5007 87bb

exp_avg_sq f4 [4]
0.00029454357 0.00012907093 0.0002455318 0.00028621274
00000000: f86c 9a39 3757 0739 b8ba 8039 d30e 9639

exp_avg f4 [4]
0.0018773316 -0.002606297 0.0023786214 -0.0017411804
00000000: cc10 f63a 68ce 2abb a5e2 1b3b 5238 e4ba

exp_avg_sq f4 [4]
0.00047525426 0.00013194735 0.00030510456 0.0002928517
00000000: 8c2b f939 595b 0a39 71f6 9f39 e489 9939

exp_avg f4 [4]
-0.0005971958 0.0005856162 0.0033443454 -0.0024143718
00000000: 228d 1cba 0a84 193a ce2c 5b3b 703a 1ebb

exp_avg_sq f4 [4]
0.00011890913 6.085349e-05 0.0001376991 5.5087872e-05
00000000: da5e f938 f03c 7f38 5263 1039 270e 6738

exp_avg f4 [4]
0.00018088496 0.000466288 0.0011821577 -0.0019901113
00000000: f0ab 3d39 1e78 f439 a1f2 9a3a 876c 02bb

exp_avg_sq f4 [4]
0.00020012211 4.7298694e-05 0.000102337544 0.00024204026
00000000: dfd7 5139 9662 4638 0d9e d638 30cc 7d39

exp_avg f4 [12, 4]
0.0 0.0 0.0 0.0 0.0 0.0 0.0 0.0
0.0 0.0 0.0 0.0 0.0 0.0 0.0 0.0
0.0 0.0 0.0 0.0 0.0 0.0 0.0 0.0
0.0 0.0 0.0 0.0 0.0 0.0 0.0 0.0
0.00016679209 -2.4245775e-05 -0.00028769235 7.993348e-05 -0.0033379623 0.0006016538 0.0028370344 -0.0001070687
0.00079087005 -9.3702576e-05 -0.00063155824 -4.467895e-05 -0.00076141825 8.704291e-05 0.0006090769 4.518663e-05
00000000: 0000 0000 0000 0000 0000 0000 0000 0000
00000010: 0000 0000 0000 0000 0000 0000 0000 0000
00000020: 0000 0000 0000 0000 0000 0000 0000 0000
00000030: 0000 0000 0000 0000 0000 0000 0000 0000
00000040: 0000 0000 0000 0000 0000 0000 0000 0000
00000050: 0000 0000 0000 0000 0000 0000 0000 0000
00000060: 0000 0000 0000 0000 0000 0000 0000 0000
00000070: 0000 0000 0000 0000 0000 0000 0000 0000
00000080: e9e4 2e39 6863 cbb7 6ad5 96b9 f6a1 a738
00000090: b7c1 5abb 4eb8 1d3a 8aed 393b 128a e0b8
000000a0: 6452 4f3a 3082 c4b8 288f 25ba a865 3bb8
000000b0: ea99 47ba ce8a b638 75aa 1f3a c686 3d38

exp_avg_sq f4 [12, 4]
0.0 0.0 0.0 0.0 0.0 0.0 0.0 0.0
0.0 0.0 0.0 0.0 0.0 0.0 0.0 0.0
0.0 0.0 0.0 0.0 0.0 0.0 0.0 0.0
0.0 0.0 0.0 0.0 0.0 0.0 0.0 0.0
5.557758e-07 5.6318345e-07 7.915745e-07 2.3087911e-07 1.7629955e-05 1.4505387e-05 2.8560666e-05 3.7736204e-06
1.5236378e-06 1.6109553e-06 2.4677324e-06 5.440865e-07 1.4602633e-06 1.4599325e-06 2.2604033e-06 5.2285867e-07
00000000: 0000 0000 0000 0000 0000 0000 0000 0000
00000010: 0000 0000 0000 0000 0000 0000 0000 0000
00000020: 0000 0000 0000 0000 0000 0000 0000 0000
00000030: 0000 0000 0000 0000 0000 0000 0000 0000
00000040: 0000 0000 0000 0000 0000 0000 0000 0000
00000050: 0000 0000 0000 0000 0000 0000 0000 0000
00000060: 0000 0000 0000 0000 0000 0000 0000 0000
00000070: 0000 0000 0000 0000 0000 0000 0000 0000
00000080: 9f30 1535 ac2d 1735 967c 5435 91e7 7734
00000090: 0ae4 9337 2a5c 7337 9095 ef37 4e3e 7d36
000000a0: cc7f cc35 0138 d835 529b 2536 570d 1235
000000b0: 44fe c335 e6f2 c335 6fb1 1736 935a 0c35

exp_avg f4 [12]
0.0 0.0 0.0 0.0 0.0 0.0 0.0 0.0
0.000109975575 -0.00027340182 1.8716553e-05 -1.5449634e-05
00000000: 0000 0000 0000 0000 0000 0000 0000 0000
00000010: 0000 0000 0000 0000 0000 0000 0000 0000
00000020: b0a2 e638 5f57 8fb9 7e01 9d37 d699 81b7

exp_avg_sq f4 [12]
0.0 0.0 0.0 0.0 0.0 0.0 0.0 0.0
1.0303027e-07 3.4003056e-06 3.2831605e-07 3.063679e-07
00000000: 0000 0000 0000 0000 0000 0000 0000 0000
00000010: 0000 0000 0000 0000 0000 0000 0000 0000
00000020: 7d41 dd33 ce30 6436 6a43 b034 e27a a434

exp_avg f4 [4, 4]
-0.000114924536 -0.0030329356 3.8982143e-05 -2.9254232e-05 3.7293285e-05 -0.0019665172 3.727369e-05 -2.215407e-05
-6.0331895e-05 0.0013064076 6.827153e-05 -7.2044975e-05 1.554231e-05 0.0020832624 -3.5320267e-05 3.1077245e-05
00000000: a403 f1b8 37c4 46bb c280 2338 fc66 f5b7
00000010: 5c6b 1c38 afe0 00bb 5256 1c38 81d7 b9b7
00000020: e10c 7db8 c43b ab3a 002d 8f38 da16 97b8
00000030: db60 8237 5887 083b d924 14b8 f058 0238

exp_avg_sq f4 [4, 4]
5.461865e-07 6.714386e-05 1.6593241e-06 1.5620024e-06 2.443064e-07 3.6077916e-05 3.3451929e-07 3.077732e-07
2.52185e-07 4.010937e-05 7.2109975e-07 6.6899486e-07 5.591234e-07 7.4203475e-05 1.4068179e-06 1.3662494e-06
00000000: a79d 1235 96cf 8c38 f1b5 de35 fea5 d135
00000010: 3729 8334 5e52 1738 fb97 b334 073c a534
00000020: 0b64 8734 1c3b 2838 9991 4135 fa94 3335
00000030: ab16 1635 b09d 9b38 e5d1 bc35 f95f b735

exp_avg f4 [4]
-0.0029275406 0.0004060996 0.00087026216 -0.0014238353
00000000: fbdb 3fbb c4e9 d439 4e22 643a fc9f baba

exp_avg_sq f4 [4]
0.00023965986 6.912587e-05 0.00016954122 0.00029454642
00000000: 344d 7b39 abf7 9038 e0c6 3139 5a6d 9a39

exp_avg f4 [12, 4]
0.0 0.0 0.0 0.0 0.0 0.0 0.0 0.0
0.0 0.0 0.0 0.0 0.0 0.0 0.0 0.0
0.0 0.0 0.0 0.0 0.0 0.0 0.0 0.0
0.0 0.0 0.0 0.0 0.0 0.0 0.0 0.0
1.1126762e-07 4.3975696e-08 -1.3633758e-07 -8.6908166e-08 1.6316409e-06 1.0480477e-08 3.685666e-07 -2.0613682e-07
9.063347e-06 -1.8159639e-07 1.140578e-05 1.10217854e-07 7.2262003e-07 -2.3027866e-07 1.6457009e-06 1.6792636e-07
00000000: 0000 0000 0000 0000 0000 0000 0000 0000
00000010: 0000 0000 0000 0000 0000 0000 0000 0000
00000020: 0000 0000 0000 0000 0000 0000 0000 0000
00000030: 0000 0000 0000 0000 0000 0000 0000 0000
00000040: 0000 0000 0000 0000 0000 0000 0000 0000
00000050: 0000 0000 0000 0000 0000 0000 0000 0000
00000060: 0000 0000 0000 0000 0000 0000 0000 0000
00000070: 0000 0000 0000 0000 0000 0000 0000 0000
00000080: 05f2 ee33 cadf 3c33 3064 12b4 45a2 bab3
00000090: c1fe da35 a00d 3432 68df c534 7556 5db4
000000a0: c70e 1837 d6fc 42b4 745b 3f37 e8b0 ec33
000000b0: 12fa 4135 8442 77b4 dae1 dc35 3f4f 3434

exp_avg_sq f4 [12, 4]
0.0 0.0 0.0 0.0 0.0 0.0 0.0 0.0
0.0 0.0 0.0 0.0 0.0 0.0 0.0 0.0
0.0 0.0 0.0 0.0 0.0 0.0 0.0 0.0
0.0 0.0 0.0 0.0 0.0 0.0 0.0 0.0
6.504147e-11 5.0610757e-12 1.401465e-10 3.1489683e-12 4.0028117e-10 5.6566197e-12 8.93345e-10 3.6488746e-11
5.506029e-10 1.3157501e-11 1.0450608e-09 2.0132458e-11 6.0675936e-11 4.236331e-12 1.3391664e-10 1.722064e-12
00000000: 0000 0000 0000 0000 0000 0000 0000 0000
00000010: 0000 0000 0000 0000 0000 0000 0000 0000
00000020: 0000 0000 0000 0000 0000 0000 0000 0000
00000030: 0000 0000 0000 0000 0000 0000 0000 0000
00000040: 0000 0000 0000 0000 0000 0000 0000 0000
00000050: 0000 0000 0000 0000 0000 0000 0000 0000
00000060: 0000 0000 0000 0000 0000 0000 0000 0000
00000070: 0000 0000 0000 0000 0000 0000 0000 0000
00000080: 1807 8f2e 1e12 b22c bc17 1a2f c596 5d2c
00000090: 910e dc2f 4d06 c72c 918f 7530 ad7a 202e
000000a0: 3c59 1730 1e78 672d cfa1 8f30 4416 b12d
000000b0: 846d 852e 7a0d 952c 2f3e 132f e55b f22b

exp_avg f4 [12]
0.0 0.0 0.0 0.0 0.0 0.0 0.0 0.0
2.0898802e-05 0.000100234014 3.692445e-05 -4.8770533e-05
00000000: 0000 0000 0000 0000 0000 0000 0000 0000
00000010: 0000 0000 0000 0000 0000 0000 0000 0000
00000020: d64f af37 ba34 d238 54df 1a38 f68e 4cb8

exp_avg_sq f4 [12]
0.0 0.0 0.0 0.0 0.0 0.0 0.0 0.0
4.6773277e-08 3.052414e-07 2.2173623e-07 4.4415064e-08
00000000: 0000 0000 0000 0000 0000 0000 0000 0000
00000010: 0000 0000 0000 0000 0000 0000 0000 0000
00000020: c3e3 4833 0fe0 a334 6416 6e34 e1c2 3e33
