Saved_models/checkpoint_LSTM_both.pt (torch, 82429 bytes, 39 tensors)

lstm1.weight_ih_l0 f4 [80, 5]
00000000: c39f 66bd 86d8 343e 797d 993b 7b5f 5a3e
00000010: 02bb 1bbd 2d67 37be e00b e7bc 3cba 06be
00000020: 91c4 ef3d e6eb 88bd 06bf 08be 3302 f43c
00000030: 59b1 343e 4bb1 d3bd 891c 063d 0f85 4abe
00000040: 1f91 90be fcd7 a5be 69c7 29bd 5781 23be
00000050: 9bef 10bd a8ca 8e3d 9b7f 453e d149 31bd
00000060: 82ac 343e b18e 2dbe 5e1e 863d ee18 52be
00000070: e02a 62be 4298 c1bc 490e f1bd 16dc 4e3e
00000080: c767 3ebc aaee d6bd be9c ac3d e0d4 293e
00000090: 5652 d9bd 0adf 43be 85d9 35be 235a 32be
000000a0: 8e60 123e 8b41 133e bbc3 b83d 24a4 f73d
000000b0: c364 03be ee0b bebd 0490 18be c0c4 ad3d
000000c0: 9883 52be 0afd 2e3d 9c15 d33c 7fdc 96bd
000000d0: c617 00bc 8cc0 0e3c 3a20 5bbe 6418 fdbd
000000e0: c39b d53b 7213 07bd b219 3ebd 2b2b ff3d
000000f0: acca 4cbe b372 21be dba8 843d 7bb6 553d
00000100: e605 9d3d fe74 ab3d d0dc 3cbe 1f53 623d
00000110: c783 033d 7bde 46be 5e23 b2be 8666 a0be
00000120: d1c1 803d 2f06 833d 9ead c3b8 5e4c f73d
00000130: b025 a73d 91d1 bdbd 18f5 603e 741c 873d
00000140: 96ff 4ebe 4c2f 01be 5500 97bd b922 85be
00000150: 027b 833d 96e6 78be f681 76be 5c0e 33be
00000160: cf98 1e3e a836 393d db45 41be 44fa a9bc
00000170: 4054 ccbd d194 babb 358f 22be f545 863d
00000180: 1f70 713c bc3a 043d 5e76 66be 499d 2abe
00000190: a88e 2b3e 93f6 ad39 f6f7 203e 9a56 11be
000001a0: 7520 d3bc fee5 e4bc d61b 523e 9338 15bd
000001b0: 4376 1b3e b977 66bc 9f99 40be f071 82bb
000001c0: 8a6a 46bc e678 5ebe 3e22 0ebe f8b3 05be
000001d0: 6f01 d2bd b64f ccbd 6d62 91be 74c8 33be
000001e0: 135c 963d bbd4 283e 974d 483e 2893 9d3b
000001f0: fd3c 1b3e 780f 8dbe 5734 d0bc 6e82 39be
00000200: 9782 0fbe 12a7 a3be 7a48 32be ab3e 4d3d
00000210: 0665 c63c 8cfd 2dbd 960b 80be 3f48 05be
00000220: 5791 83bd 174d f0bd 7a8a 8ebd b163 873c
00000230: 4c99 bdbd 23f6 51be ceac 6b3d 6258 08bd
00000240: d4ff e6bd d057 583e 1224 a53d 3606 ee3c
00000250: 3bd8 fe39 a0dd e9bd 3dc1 dc3d 5429 d23d
00000260: 2c61 3abe 9cf5 5a3e 05fd 36bd 7f66 173e
00000270: 12e0 01be dd87 5dbe 872b 47be 7940 42be
00000280: e1b4 2c3e 3d78 abbd 72b7 b4bc 5729 3b3e
00000290: 3ba1 24be db5d 51be 2b0f b63b 7762 28be
000002a0: c76d 1b3e f079 92be 1a6d 94be f0f5 2ebe
000002b0: 6e06 9b3d e6f9 8bbd c8da 8dbe 94c4 75bd
000002c0: 92b7 0a3d db04 4f3e cb35 c7bc 1c48 b3ba
000002d0: c235 113e 527f ab3c 1cc5 72bd 3c30 d6bd
000002e0: f8e8 62be 537d 8ebc 31b7 36be 3d53 dabd
000002f0: 405d 56be 6c33 febd aded aabc a575 bebd
00000300: dc4a 7b3d 0654 d13d 6102 18be 8648 9e3b
00000310: 7fa5 483e a33c 163d d0d6 47be 1fb0 4fbe
00000320: 00de 4cbc 5f8f aa3e 2fa4 a73d 2467 6f3e
00000330: a7c0 8f3e 2ef0 bcbd dd2f 803e 7a45 463e
00000340: c0f7 e83d efbe 273e 6f74 043e 99ca 5a3e
00000350: 368e 193e c023 10bd 20e5 c7bd f066 593e
00000360: 806e 1e3e c066 453d db04 c3bd 6ed5 4ebe
00000370: 26f5 a4bc aa31 7a3a 2bde 66bd 6dbf 42be
00000380: 6c38 ecbd 00f2 88be 5d02 60be 6f39 35be
00000390: df8b 253c a775 37be 762b 2f3e c0d3 ef3d
000003a0: 12ac 053d cf1e e7bd 0cd2 3f3d 3b5c 26be
000003b0: f2e6 babd f0f3 0c3d f24b 933d b8b3 83bd
000003c0: a994 373e 9a61 423e e2ee 03bc a26f 113e
000003d0: a391 37be f729 cbbc fb0b fc3d 330d 293e
000003e0: e2bf 27bd d90f 56bd ba45 bcbe a072 6fbe
000003f0: bebd 9abe 837f b8be 0842 0cbe cac0 383d
-0.056304704 0.17660722 0.004684147 0.21325485 -0.03802014 -0.17910452 -0.028203905 -0.1315698
0.11707414 -0.06685619 -0.1335412 0.029786205 0.17645778 -0.1033655 0.032742057 -0.1977732
-0.2823572 -0.32391346 -0.041449938 -0.15967308 -0.035384756 0.06972247 0.19286959 -0.043283287
0.17643932 -0.16948964 0.06548761 -0.20517322 -0.22086668 -0.023632172 -0.11770303 0.20201144
-0.011621422 -0.1049474 0.08428334 0.16585112 -0.106114075 -0.19128051 -0.17758758 -0.17417197
0.14294645 0.14380471 0.090217076 0.12091854 -0.12831406 -0.09279619 -0.14898688 0.08484793
-0.20558012 0.042721786 0.02576714 -0.07366275 -0.007818168 0.008712899 -0.21399012 -0.12358168
0.0065188124 -0.03297753 -0.046411224 0.124594055 -0.19999188 -0.1576641 0.06477519 0.05217598
0.07667141 0.08371924 -0.18443608 0.05525505 0.032108095 -0.19420807 -0.34792608 -0.3132822
0.062869675 0.06397664 -9.330663e-05 0.12075113 0.08161485 -0.09268487 0.21968496 0.06597224
-0.20214686 -0.12615699 -0.0737311 -0.26003054 0.06419946 -0.24306712 -0.24073014 -0.17485946
0.1548798 0.04521814 -0.18874304 -0.020749219 -0.09977007 -0.00569401 -0.15874942 0.06556312
0.014736204 0.032282576 -0.22506091 -0.16661562 0.16753638 0.00033180843 0.1571959 -0.14193192
-0.025772313 -0.0279417 0.20518431 -0.036430907 0.15181832 -0.01406663 -0.18808602 -0.0039808676
-0.012110362 -0.21725807 -0.1388025 -0.13056934 -0.1025418 -0.09976141 -0.28395405 -0.17556936
0.073417805 0.164874 0.19560848 0.004808802 0.15159984 -0.27550864 -0.025415583 -0.18116161
-0.1401466 -0.31963402 -0.1741046 0.050108593 0.024218094 -0.04247813 -0.2500884 -0.13015841
-0.06424206 -0.11733454 -0.06960006 0.016527029 -0.09257755 -0.2050405 0.057537846 -0.033287413
-0.11279264 0.21127248 0.080635205 0.029055696 0.0004860776 -0.11419225 0.10779045 0.10261789
-0.1820113 0.21382755 -0.044674892 0.14785193 -0.12683132 -0.21633859 -0.19450198 -0.18969907
0.16865875 -0.08372543 -0.02206013 0.18277489 -0.1607713 -0.2044596 0.0055560074 -0.16443811
0.15178595 -0.28608656 -0.28989488 -0.17086005 0.07569586 -0.06834774 -0.2770598 -0.060001925
0.033866473 0.20216696 -0.024317643 -0.0013678106 0.14180663 0.020934734 -0.05927001 -0.10458419
-0.22159183 -0.017393744 -0.1784332 -0.10660408 -0.2093401 -0.12412152 -0.020865286 -0.09299783
0.06135069 0.10221104 -0.14844657 0.004830423 0.19594382 0.03667892 -0.19515538 -0.20282029
-0.012504101 0.33312508 0.081856124 0.23379189 0.2807667 -0.09225498 0.25036517 0.1936244
0.113753796 0.16381429 0.12935041 0.21366347 0.14995655 -0.035190344 -0.09760499 0.21230674
0.1547184 0.048193693 -0.095224105 -0.20198604 -0.020136427 0.00095441437 -0.05636422 -0.19018336
-0.11534199 -0.2674713 -0.21875902 -0.1769769 0.010104149 -0.17915975 0.17106423 0.1171031
0.032634802 -0.11285173 0.046831176 -0.1624612 -0.091260806 0.034412324 0.0719222 -0.06430763
0.17927803 0.18982545 -0.00805256 0.14202741 -0.1792665 -0.024800284 0.123069726 0.16508941
-0.040954478 -0.052261207 -0.36771947 -0.2338357 -0.30222887 -0.36034784 -0.13697064 0.045105733

lstm1.weight_hh_l0 f4 [80, 20]
00000000: 5d81 8dbb ab5b 5fbe f645 e8bb ed39 493e
00000010: 0414 babd f0fd 273e b66f a63a 43f1 3dbc
00000020: a76e 25be 533b b23c 4fc0 84bd 998a 813d
00000030: 72e7 96bd a0d9 de3d 70f5 953d dd35 28be
00000040: 46ff ba3d 022a 10bd 0dec 163e 07a8 39be
00000050: 185e 42bd 4405 cebd d52e 2c3e d2bf 253d
00000060: 2ed3 c7bd e4ae 973d 6a48 afbc 0aed 693e
00000070: 4185 b43d 06db 02be 5092 b2bd 7900 87be
00000080: b591 0b3e 0079 9d3c 9a3d 503e 610d c3bd
00000090: b174 143d fc8c 21be 3b36 22bd 835b 1b3e
000000a0: 0618 e13d 20ff 5e3c 9692 283c 01dc 6d3e
000000b0: 021f 803d f690 6c3e 6e38 0e3e bf9a 15be
000000c0: 8201 fcbd 3be3 373e edad 093e bc6f 5c3e
000000d0: ef4e 6d3e 8256 8ebd b59a 3b3c 3b06 61be
000000e0: da2d 3a3e 40d3 093e 190c 4cbd 3eb6 f5bd
000000f0: f715 433d 6fc4 c8bd 999b 0c3e 709a f5bb
00000100: ba40 3a3d 5b95 693e 4769 7cbc fc41 7a3e
00000110: 0e2c 95be a925 09bd 5bf5 eebd 6359 94be
00000120: 4aa1 313e 69a4 93be 1018 3cbe d925 94be
00000130: fdba 14bc 546a 88bd 971f db3d d3a8 78be
00000140: b7b8 4d3e 2547 5f3e 05b0 243e cd2c 18be
00000150: 68b7 21be 20ff 43bb 2a0c 00be 4765 cf3d
00000160: 6e0e ae3d 334c 613e 0423 303e 9c9f 1a3d
00000170: 9e22 63be 0628 403e d5cb 473c 650f 883d
00000180: f74a 15bc 53ed 55be 63db 833e fa89 bdbd
00000190: b1d9 8bbe 68a7 7dbe 8c30 01be 730d 41be
000001a0: 4b6b 6c3e 2b0b 94bc 80f5 f13c 3707 c03d
000001b0: 7648 813d eefe 75be ccb8 4e3e ea77 00be
000001c0: 7629 093e fcfa f93d 818e 073e 425f 20be
000001d0: fc50 213d 8986 423e 0019 8a3d 5550 7fbd
000001e0: c0ea 863d 573d 293d 0867 533d b420 02be
000001f0: b268 2a3e 4f27 72bd 8728 88be 9d28 203e
00000200: e99c 8dbd c935 41bd 1553 1cbe 0391 123e
00000210: e74e 113e 9ed0 2ebc fd3b 18be 787d ddbd
00000220: e5dd 883e d1c7 69bd 639e b9bd 4549 2e3e
00000230: 9f39 fb3d 1f9b bbbd f157 683e 5d73 55be
00000240: 98ad a7bd 852d 2cbe 14d1 7ebd fe2a 5c3d
00000250: 1aff a0bc 3be9 95bd b2ce 7dbe 0c27 20be
00000260: bba7 b03d a99f cdbc d0ce fb3d 7d96 403e
00000270: 68d4 e73d 9982 1fbe ebdd 3c3d 8c86 573c
00000280: 2c4f bdbd 1a59 49be 11e9 62be 84da 113e
00000290: 99fc 85bd 45b4 863d 5b75 28be b7c9 b33c
000002a0: 4131 26be 8af5 33be 6ef9 57bd 520c 3cbc
000002b0: 837b 773e e6b3 33be 30d5 47be ec35 c0bd
000002c0: 9480 753e eeac 383e f110 3dbe fcab aa3c
000002d0: 7da9 25be 1121 b0bd 69e8 723b d9b8 12bc
000002e0: 3066 edbd ce0e 86bd be47 3b3e bea7 5fbe
000002f0: 5571 763d 7927 763e 8779 8bbe 530e 7abd
00000300: 5c08 64bc d767 26be e95b 7b3d 5f74 1bbe
00000310: ba63 453d 5d2c 303e feb9 8a3d fd44 ae3d
00000320: a166 96be 0d7f 24be c293 14be 96bd e43d
00000330: 45c8 6bbd 5406 96bd dab0 2ebe c7cf b53c
00000340: 6a57 89bd 2b74 09be 60cd bd3d 4c18 a93d
00000350: 0224 d9bd 902e 1c3e 5888 44be 1c17 71be
00000360: 90b8 ebbd 6bed 793e 1cf4 29be e4ee 7bbe
00000370: 5fd5 40be 6db6 e3bd d691 2cbd 2f33 ce3e
00000380: 0f68 8e3d 3c81 073e 9cca 203b d91a 483e
00000390: 0d2a 583d 88b7 a23c bdc6 fabd d045 33be
000003a0: f96c 913d 7faf b6bd ab44 dabd a65f 0fbe
000003b0: cba6 21be 22ef 36be 68c0 c6bc 6cee 39be
000003c0: 9861 9cbb 8522 303e 71a8 0fbe 2a53 843e
000003d0: 6d73 58be b11a 4c3d 70d3 553c d501 813e
000003e0: 4c7d 583e 97d2 a73d 84c0 22be 0600 aebd
000003f0: 4433 12be d2bd 253e 457c 42be b9fd 313e
-0.0043184 -0.21812312 -0.007088418 0.19651003 -0.09085849 0.16405463 0.0012698087 -0.011593166
-0.16155492 0.021756804 -0.064819925 0.063252635 -0.073683634 0.108813524 0.07322204 -0.16426797
0.09130721 -0.03519631 0.14738484 -0.18130504 -0.047453016 -0.10059598 0.1681474 0.040466137
-0.09757076 0.074064046 -0.021396834 0.2284433 0.08814479 -0.12778863 -0.08719313 -0.26367548
0.13629802 0.019222736 0.20335999 -0.09524036 0.036244098 -0.15776438 -0.0396025 0.15171628
0.1099091 0.013610631 0.010288855 0.23228456 0.06255914 0.23102173 0.13888714 -0.14609812
-0.12304975 0.17957775 0.13445254 0.21526998 0.23174642 -0.06950094 0.011450459 -0.21975033
0.18181553 0.13459492 -0.049816225 -0.119976506 0.04762837 -0.09803092 0.13731231 -0.007495217
0.045471884 0.22810881 -0.015405959 0.24439234 -0.29135174 -0.03348318 -0.116678916 -0.28974447
0.17346683 -0.28836372 -0.18368554 -0.28935125 -0.009077785 -0.066609055 0.10699385 -0.24283151
0.20089994 0.21804483 0.16082771 -0.1486084 -0.1579262 -0.0029906705 -0.1250464 0.10126739
0.08498846 0.22001724 0.17200857 0.03774987 -0.22181174 0.18765268 0.012194593 0.06643561
-0.009112111 -0.20891313 0.25753316 -0.092548326 -0.27314523 -0.24770892 -0.12616175 -0.18852787
0.23087804 -0.018071732 0.029536009 0.09376376 0.06312649 -0.24023029 0.20187682 -0.12545744
0.13394722 0.122060746 0.13237955 -0.15661338 0.039383873 0.18996634 0.067430496 -0.06233247
0.06587744 0.041318264 0.05161193 -0.12707788 0.166415 -0.05911952 -0.2659342 0.15640493
-0.06914694 -0.047170434 -0.15266068 0.1431313 0.14190255 -0.010669855 -0.14866634 -0.10814947
0.26731792 -0.057075325 -0.09063413 0.17020138 0.1226685 -0.091604464 0.22689797 -0.20844789
-0.08187407 -0.1681424 -0.06221111 0.053751938 -0.019652892 -0.07319876 -0.24785879 -0.15639895
0.08625742 -0.025100546 0.12295306 0.18807407 0.1131981 -0.15577163 0.046110075 0.013154637
-0.092436165 -0.19662896 -0.2215922 0.14243513 -0.0654232 0.065773524 -0.16451018 0.021946771
-0.16229726 -0.17574134 -0.05272811 -0.011477547 0.2416821 -0.17549095 -0.19514918 -0.09385285
0.2397483 0.18034717 -0.18463494 0.020833962 -0.16177936 -0.08600057 0.0037064797 -0.008955204
-0.11591756 -0.065457925 0.18289086 -0.21841332 0.060166676 0.24038495 -0.27241156 -0.061048817
-0.013918009 -0.1625055 0.06136695 -0.15181111 0.04819081 0.17204423 0.067737564 0.08509252
-0.29375175 -0.16064091 -0.1450949 0.11168973 -0.05756404 -0.07325426 -0.17059651 0.022193803
-0.06706126 -0.13423221 0.09267688 0.082565874 -0.10602571 0.15252137 -0.19192636 -0.23543972
-0.11509812 0.24406974 -0.16597027 -0.24602848 -0.18831395 -0.11118779 -0.042131267 0.40273425
0.06953441 0.13232893 0.0024534827 0.19541492 0.052774478 0.019862905 -0.122449376 -0.175071
0.07100863 -0.08920192 -0.106576286 -0.1400133 -0.15786283 -0.1786466 -0.024261668 -0.18157357
-0.0047723763 0.17200668 -0.14029099 0.258447 -0.21137781 0.049830142 0.013050899 0.2519671
0.21141547 0.08194464 -0.15893751 -0.08496098 -0.14277369 0.16185692 -0.18992718 0.17381944

lstm1.bias_ih_l0 f4 [80]
00000000: b2fc dcbd 1271 353c 0677 ba3c 07f0 293e
00000010: daf1 58be 5543 d8bd cb21 133e 9613 6abd
00000020: a75f 423e d79f 71be 831b d73d d718 293e
00000030: 226e 3c3e 6350 833c dfa4 0f3e 9eb1 783c
00000040: dae5 323e 73ca 50bb cb96 2ebe 1ecb 98bd
00000050: 11c5 17be 9eae 1b3d 2b8c 5d3c bf4d a53e
00000060: 7a12 393e 686a c73d 1ebe 803e 100f 49be
00000070: 633f a8bd ef64 bdbd d56b 6d3d 0424 5c3e
00000080: 8822 09bc 693e a5bd 7e64 9f3d e61e a93c
00000090: e84d b5bd 640a 04be db48 1e3d f96c f03c
000000a0: 0336 4bbd f7e2 47be 54c6 15be 9d7a 273e
000000b0: 6ad2 363e a739 953e 9d45 11be ab9e 0cbe
000000c0: 5dfd d2bd f2ff 04be b9b0 913e 5ca8 1bbe
000000d0: cd74 923d 3706 843e 9061 8bbb c45b 4dbe
000000e0: e9df a9bd 9aad 05be 3a73 ddbd c513 08be
000000f0: b3d1 493e 17ad 2d3e dcc5 8a3d 3e2c 4e3e
00000100: 39a5 75be 644d af3d 278d d53d 8b04 393e
00000110: 8f7d bebd c6f5 1cbe 5fdc 4a3e d84b c6bc
00000120: d17b a53a ddc5 c23d 91d5 963e 97ea 0dbe
00000130: 2f97 d43d af4d 553e 65f6 76bd 2df7 43be
-0.10790385 0.011074321 0.022761833 0.1659547 -0.21186009 -0.105597176 0.1436836 -0.057147585
0.18981801 -0.2359613 0.10503294 0.16513382 0.18401387 0.016029542 0.14027737 0.015179066
0.17470494 -0.003185895 -0.1704971 -0.074606165 -0.14821269 0.038008325 0.013522188 0.32285878
0.18073454 0.09737092 0.25145048 -0.19634652 -0.08215215 -0.09247767 0.057964165 0.21498114
-0.008370049 -0.080685444 0.07782839 0.020644616 -0.0885275 -0.12894589 0.0386437 0.029348837
-0.049612056 -0.19520174 -0.14626437 0.16355367 0.17853704 0.29145548 -0.14186712 -0.13732402
-0.103022315 -0.1298826 0.2845514 -0.15200943 0.07151184 0.25785992 -0.0042535737 -0.20054537
-0.082946606 -0.13054505 -0.10812993 -0.13288791 0.197089 0.1696056 0.0677602 0.20134065
-0.23988809 0.08559683 0.10427313 0.1806814 -0.09301292 -0.1532813 0.19810627 -0.024206087
0.0012625401 0.09510396 0.29459813 -0.1385902 0.103803985 0.20830415 -0.060293574 -0.19137259

lstm1.bias_hh_l0 f4 [80]
00000000: 8bfa 04be 3ea2 10be 578f c43d bcc3 263e
00000010: 19a0 b6bd bdc6 cebc 61de 1ebe 6506 f03d
00000020: f41e 46be 26ad 00be 36e9 3abd dcee 673c
00000030: 2f3f 373e 96e9 21be d99c 86bd 8d24 22bd
00000040: f600 34be 2540 27be be3c 2e3d 3c9f 09be
00000050: f524 b2bd fa38 fdbc e9df 4e3d 134d 6a3d
00000060: 1f58 7f3c 0d7e 173e b886 693e 4c1c 45be
00000070: f48b 923d 84fc 18be 7647 153d 427e 973e
00000080: c12d 103e b6ca c9bc 9add 90bd c171 bebd
00000090: f39b 9fbd 24d4 46be ae7f 053e a5a2 0dbd
000000a0: 0c67 97be 7633 8cbe 01be db3d 059e f53d
000000b0: dcc5 193c 65e0 9f3e ce4f 1fbc 8049 e63d
000000c0: c696 093e a49a 8c3e 8c53 103e 9e44 50be
000000d0: 3286 15be f5e2 babd 5664 34be b1ae bcbe
000000e0: 90a8 2ebe 2080 0e3d 0211 82bd bcb9 d6bd
000000f0: 3a55 883e ea35 2abe d00b 813e 0058 053e
00000100: 32f7 ab3d e79f 403e 48a2 4cbe eaf8 a3bd
00000110: 58af d3bd e1e4 37bd 8520 603e 8059 0dbe
00000120: 692f 53bd 335f 0c3e e4c6 c3bd b88e 56bd
00000130: 2a66 033e 3158 1cbe 2d03 14be 07ee b7ba
-0.129862 -0.1412439 0.095976524 0.16285604 -0.08917255 -0.02524125 -0.15514518 0.1171997
-0.19347745 -0.12566051 -0.045632564 0.01415607 0.17895196 -0.15811762 -0.06572885 -0.03958564
-0.17578492 -0.16333063 0.042538397 -0.1343965 -0.08698455 -0.030910958 0.050506506 0.05720241
0.015584975 0.14794178 0.22805297 -0.19249076 0.071556 -0.14940077 0.036445104 0.29588515
0.14079954 -0.024632793 -0.07073517 -0.092990406 -0.07793417 -0.19416863 0.13036987 -0.034578938
-0.29570806 -0.27383012 0.107296 0.119930305 0.009385552 0.31225887 -0.009723617 0.11244488
0.13436422 0.2746173 0.1409437 -0.20338675 -0.14601973 -0.0912532 -0.176164 -0.3685203
-0.17056489 0.03479016 -0.063509 -0.10484645 0.26627523 -0.16622129 0.25204325 0.1302185
0.08396758 0.18810998 -0.1998378 -0.08006461 -0.103361785 -0.04489601 0.21887405 -0.13803673
-0.051558886 0.1370819 -0.0955942 -0.0523822 0.12831941 -0.15268017 -0.14454336 -0.001403273

lstm2.weight_ih_l0 f4 [60, 20]
00000000: 0add 66be 3ca6 513d 77c7 26be 329d 833e
00000010: 18ac 7c3d 5e81 17bc bde0 ff3d 29f7 803e
00000020: 112e 43bd 26b0 7f3e a7b6 6c3e 3df2 103c
00000030: a66e 74be 7acb 363e ba81 063d aced 6abe
00000040: fec9 0dbc 843e 393e 8bd6 8c3d f563 cabc
00000050: 17ad 3ebe 6c97 16be 2f0d 02be 18d0 0c3d
00000060: 476d cabb e9d7 283e 8ec7 a4be 06f2 213e
00000070: e1da 6c3d 7c8f a6be df8a a6bc c19e 88bd
00000080: 3b9d cd3e 5c23 62be 7a06 033e 2c16 2cbe
00000090: 00b0 0dbd d117 2e3e c1d9 58bd 4e0c 49bd
000000a0: 5deb 0abe e0f6 023e d037 99be 365f 7c3e
000000b0: 1a18 e23a 1c4a b73d 29f4 0fbe 3bfc 5c3e
000000c0: ff02 85be 5697 1b3e aec7 80bd 43b4 2c3d
000000d0: 8d78 abbd dd1f 9abe c012 dabc 8950 283d
000000e0: 480f b53e 5826 813c 3a75 19be 9829 a9bd
000000f0: ad35 8abd 42b4 cf3d 4f26 24bd f642 be3e
00000100: 7563 183e 0ab2 963e 6ced 8dbe 7bc4 373e
00000110: e756 1a3e a41c 453e f039 903e 5d0e a7bc
00000120: 1e47 9f3d 90d1 08bc e24d 6abd eaad 1f3e
00000130: 7c2f ab3e c400 5e3e 8063 d53d b387 52bd
00000140: 7697 5d3c 5933 87be 805e 9ebd 2a0d a03e
00000150: d21c 783d bc5f 6f3d 42c2 05be 1fe2 2c3d
00000160: 6149 9d3d b340 8a3e 7f3a 1abe c1cd 1bbe
00000170: 4814 10be c29e 79be 052b 363e 1387 3dbe
00000180: 8cf6 b43e 134e 06be b9e4 86bc c4f4 78bd
00000190: 895c 4f3e 04d4 683e b4d9 2ebe cebe 7b3d
000001a0: e3c1 963e 507d 153e efb6 c73d 595e 263e
000001b0: 6c28 e83d db65 173e d606 5f3e c0aa 243e
000001c0: 847f a13d 3191 f8bd 2ed6 81bd b68c efbd
000001d0: b758 27be e003 79be 0013 a73d 9edd 483e
000001e0: 60b5 81be db17 1b3e 69c8 043e fe07 7ebe
000001f0: 2e85 f23c 1a9f 7bbd 463a 74be 62b8 c33c
00000200: 6fc3 963c db46 5abe 10ec 783d e2c9 1bbd
00000210: 4c38 16be be36 cc3d ef44 73be 0887 353e
00000220: 4c15 61bd 28e1 84be 68e7 7fbe 6e3c ed3a
00000230: 9173 9d3b 89d4 87be bdc4 163e 4f1c c13e
00000240: 829c bcbb 14aa 673d 3412 bf3d 81f5 13be
00000250: dcad bdbe 826e 073e 3224 2e3e 84f5 47be
00000260: c360 123e 44cd 84be 9c24 abbc e019 b6be
00000270: bded 2cbe a3f1 5c3e f300 d23d f998 c4bd
00000280: 64f4 6b3d fa86 e4bd d906 203e e37b 15be
00000290: 5fd8 3bbe 0100 e7bd fc87 0cbe 5175 883e
000002a0: 1ace ae3d 9bd7 b33d 4fb4 57be 3c72 733e
000002b0: f829 bebc 9838 d1bc 0d10 e13d 33dd 833e
000002c0: 1992 8b3d 0af7 3a3e 3ab2 8a3c b2c2 32be
000002d0: 6fbc 043e c418 1d3e 0ceb 433e c61f ebbd
000002e0: a8b5 023d 5e24 0dbe 271e 94be 256b 2abe
000002f0: d695 893d 78c6 19be 8e4e 4c3d db72 a0be
00000300: a0c9 633e 3974 81be 5bc0 68be 2a23 5ebe
00000310: 8d09 943e 83f7 623e 0250 1dbd 322d 37be
00000320: 998f 893d 630f d9bd 9923 503e 11f3 a8bd
00000330: b57c aa3d 0912 253e 252a 20bd 6b0d 483e
00000340: 6cc8 c43d 60be 62be 5237 9d3d c3c1 61be
00000350: bb67 e3bd 25ab 0f3e ff29 00be 0456 6f3d
00000360: acea 6b3e 8198 893e 8b7d 9dbd 08df 13bd
00000370: f9a5 6fbc ab43 d0bd b5c9 403c 359f c83d
00000380: 14f5 cabd bdd5 453e 3df4 cb3c 3649 ab3d
00000390: 7f15 6fbe 156e 83bd 35b6 a83d 9bac 9ebe
000003a0: 2643 48be bd2a 5dbe 28e3 c5be d915 3abe
000003b0: c968 153e c67a 633e fd4d 6abd c60a 9dbd
000003c0: f715 aa3d b235 b5bd 3a9e cebd 36fa 473e
000003d0: 295f f93d c565 5e3e afef 0cbc dcca 243e
000003e0: 2c46 c7b9 64b9 cc3d 7c4a 1f3e 34c9 00be
000003f0: 418c a5bd 8b35 863d f1e4 b43d 7c4d ba3c
-0.22545257 0.051183924 -0.16287027 0.25705868 0.06168756 -0.009247152 0.12494037 0.25188568
-0.047651354 0.24969539 0.23116551 0.008846817 -0.23870334 0.17851058 0.03283856 -0.22942227
-0.008654116 0.18090254 0.06876858 -0.024705866 -0.18620716 -0.147062 -0.12700342 0.03437814
-0.0061775777 0.16488613 -0.32183498 0.15814981 0.057825927 -0.32531345 -0.02032989 -0.06670905
0.4015902 -0.22083801 0.1279544 -0.16805333 -0.034591675 0.17001273 -0.05294204 -0.049084
-0.13566346 0.12789488 -0.29925394 0.24645695 0.0017249614 0.08949682 -0.14057983 0.21580593
-0.25978848 0.15194449 -0.06288086 0.0421641 -0.083726026 -0.30102435 -0.026620269 0.04109243
0.3536322 0.015765354 -0.14986125 -0.082598865 -0.06748519 0.10141803 -0.040075596 0.37160462
0.1488169 0.29432708 -0.277202 0.17946045 0.15072213 0.19249207 0.28169203 -0.020392591
0.077772364 -0.008350745 -0.05720318 0.15593687 0.33434665 0.2167998 0.10419369 -0.051398944
0.013524881 -0.26406363 -0.07732868 0.31260043 0.06057436 0.05844091 -0.13062385 0.042207833
0.076800115 0.27002487 -0.15061377 -0.15215208 -0.14070237 -0.24376968 0.17789848 -0.18508558
0.3534435 -0.1311572 -0.016466485 -0.0607803 0.20250143 0.22737128 -0.17075235 0.061461262
0.294448 0.14598584 0.09751689 0.16246928 0.11335835 0.14784949 0.21779951 0.16080761
0.0788565 -0.12137068 -0.0633968 -0.1169676 -0.16342436 -0.24317884 0.08157921 0.1961579
-0.2533369 0.15145819 0.12967075 -0.24807736 0.02960452 -0.061431028 -0.23850355 0.023891632
0.018403737 -0.21316092 0.060772 -0.038034327 -0.14669913 0.09971379 -0.23756765 0.17727292
-0.05495195 -0.2595303 -0.24990618 0.0018099674 0.0048050364 -0.2652934 0.14723487 0.3771691
-0.005755962 0.056558684 0.09329644 -0.14449121 -0.37046707 0.13225749 0.17005995 -0.1952725
0.14294724 -0.25937855 -0.02089148 -0.35566616 -0.16887565 0.21576552 0.10254087 -0.0959949
0.057606116 -0.11158557 0.15627612 -0.1459804 -0.18344258 -0.112792976 -0.13723749 0.26652005
0.085354045 0.08781358 -0.21064876 0.23774046 -0.023213372 -0.025539681 0.109893896 0.257547
0.06814975 0.182583 0.016930688 -0.17457083 0.12962507 0.15341479 0.19132632 -0.1148067
0.031911522 -0.13783404 -0.28929254 -0.16642435 0.06718032 -0.15017116 0.049879603 -0.31337628
0.22244883 -0.25283983 -0.22729628 -0.21693102 0.28913537 0.2216473 -0.03840638 -0.17888334
0.06716842 -0.10598638 0.2032608 -0.08249486 0.08324567 0.16120161 -0.039102692 0.19536369
0.0960854 -0.22142935 0.07676567 -0.2204657 -0.111037694 0.1403013 -0.1251602 0.05843164
0.23038739 0.26874164 -0.07689961 -0.03610137 -0.014626973 -0.10169157 0.011766841 0.09795991
-0.09910026 0.19319816 0.024896735 0.08363573 -0.23348044 -0.06417481 0.08237878 -0.30991063
-0.19556865 -0.21598335 -0.3864987 -0.18172397 0.14590754 0.22214803 -0.05720328 -0.076680705
0.08304971 -0.08848132 -0.10088773 0.19529042 0.121763535 0.2171851 -0.008602067 0.1609301
-0.0003800852 0.09996298 0.15555757 -0.12576753 -0.08083392 0.06553181 0.088327296 0.022742026

lstm2.weight_hh_l0 f4 [60, 15]
00000000: 0ce4 573e 848d 263e f83b 96bd fb99 66be
00000010: e14f b33c a25c 3d3d 1637 51be 2623 99bd
00000020: 02a4 383e 663a bd3d edda efbd e224 2dbe
00000030: cea1 ccbc 76e1 0c3e c703 283e ade1 d3bc
00000040: 1174 a7be 4bf8 1c3e 7b24 5bbe 81ae abbe
00000050: 147d 213a 66cc 66bd 6242 02be ad1b 44be
00000060: 3e7d a83e af35 1a3c 262c 40be 9656 8bbe
00000070: 39cf 913e 2405 74be fceb 2c3d 74eb 81be
00000080: 6b40 86bc a5f3 babe d531 11bd 09b9 8d3e
00000090: 24d8 243d 8618 9bbc 42b3 3ebe 63b4 723e
000000a0: 7f60 f2bd 2ea1 383e 6c35 653e 6021 073e
000000b0: ab6c 11be 7811 f0bd 8252 87bd 635a 723e
000000c0: 50b8 6dbe 4c68 2cbe 3f1b 2d3e 1fff da3d
000000d0: faa2 e5bd d408 b6bd ddb1 933e 3808 ce3d
000000e0: d1af ce3d 0920 ee3d f062 adbd ba06 72be
000000f0: c255 bd3d 94dd 20be 38ec 063e 0b84 8ebe
00000100: f48e 2abe d88f 8b3e 3859 61be 3c0c 9cbe
00000110: 5f01 dabd b68d 123e 5973 58be 58b3 b13e
00000120: d446 02be cf3a a0bd b1ff 26be 0e6b d2bd
00000130: 7270 ca3d 66d5 5e3e c9da 2ebe 7071 85be
00000140: 6fe2 103e 7836 f0bd f498 24be 6ccd bc3d
00000150: 32b5 17be 6585 80bd fae0 f7bd f010 473e
00000160: 33b0 0ebe 7c20 67be f9a7 813c ff3c 1d3e
00000170: 06f2 3dbe cf2a 013e c6ca 27bd 9135 703e
00000180: 1e54 9dbc 4c28 213e 9a53 043e 01f2 0abe
00000190: ba2e 67be bb69 b23d b488 50be 4162 5d3d
000001a0: 595e 85bd 7eec e43d 0363 0abc fe86 c6bd
000001b0: d5c8 90be 0817 97be 129a 9c3e 5252 1f3c
000001c0: 4c20 953e f02f 9ebe 7b2a 9e3e ea3b bd3d
000001d0: 5946 033e 79db 1fbe c291 613e 1b8b a2be
000001e0: 09ed d73c 75a3 9cbe 6a58 473e 861a af3d
000001f0: 1361 6bbe 12d5 21be a9ef 113d 8bc0 ef3d
00000200: 8ac3 84be 1c3f d33d 43be 1ebe ad7b aa3d
00000210: 3da6 50bd aa77 593c b785 50be bd46 bbbd
00000220: b9f6 5d3e 8f3d 89ba 71bf ff3d 013e a0be
00000230: d6cd f2bd 0d58 c93d 6ddf 11bd f6db 0c3e
00000240: 63b4 11bd eac9 3dbe 60f6 ca3d 44b3 113e
00000250: 8d71 f33d cdfa 7ebe 46d1 bdbd 4c7c 89be
00000260: f54e a1bc d417 99be c9b9 69be 30eb 9b3d
00000270: de59 853e ab65 b03d e9b9 70bd 5b41 6e3d
00000280: b7e7 1abd 084b c13e 7b22 0ebc 2eed 543e
00000290: b4e1 9d3d 3065 033e 1d09 d23d f870 073e
000002a0: cb80 1fbe 4024 dabc 9c51 143e 4cdf d1bd
000002b0: 025e 1e3e 8420 ff3c b11c 1a3e cffc a03c
000002c0: 55a3 af3d 285c 01be beee 5b3e 9285 a0be
000002d0: e11e e43d 1e9b c7bd 9aa3 c13d 107a 493c
000002e0: 4e93 0abe 883b d33d a295 0bbc d5ac afbd
000002f0: a0c1 a03d ffe2 c3bd 80f6 763d 8e8a 293d
00000300: ffeb 8ebd fda9 493e 3386 a7be d0f3 b8bd
00000310: 19c0 6d3e 014c eb3b 51e9 8f3e 5915 b53d
00000320: 52c5 97bd 862b 503d 8268 aa3e 3068 ed3d
00000330: c732 023e 9d96 54be 6b56 aa3d ce0c 033e
00000340: 3ce7 23be 283c 763e 2e22 0bbe 7c2c 47be
00000350: 4d3d 7cbb 88a7 63bd 98e1 533e 9d20 3dbe
00000360: 13a3 26be dacb 7dbd 2814 8cbd d6e2 febd
00000370: 8541 83bd 496f cdbd f38f e7bd 9247 3bbd
00000380: 0c32 fabd 014f 5c3e e555 643e e9cd 07bd
00000390: 24ff 93be 8841 38be 5fcf 9ebd 5c9f bebc
000003a0: 2074 8c3e 8e86 1ebe e8fd d13c 4aaa 8cbe
000003b0: e1cc eb3d 4f48 4b3c 7c1a 12be 9a5c 263d
000003c0: 4616 463e 906a abbd d81a 063d bbc0 89be
000003d0: 85d3 7b3d abb2 953e cb24 5abe 70d1 c9bd
000003e0: 3bb7 cdbd d9e3 ae3d 9a70 47be 2464 7e3e
000003f0: 47e0 f8bd 266a f33b 4a9f ffbd 3b45 703e
0.21083087 0.16264921 -0.07335657 -0.22519676 0.021888675 0.04623092 -0.2043117 -0.07477407
0.18031314 0.09239654 -0.11711679 -0.16908601 -0.024979498 0.13757882 0.16407691 -0.025864447
-0.3270574 0.15329091 -0.21400635 -0.33531573 0.00061603007 -0.056347273 -0.12720636 -0.19151182
0.32908052 0.009412213 -0.18766841 -0.27214497 0.2847841 -0.23830086 0.04221724 -0.2537495
-0.016388139 -0.3651401 -0.035447914 0.27680233 0.04024519 -0.018932592 -0.18623069 0.23701625
-0.118348114 0.18030235 0.2238366 0.13196325 -0.1420161 -0.11722082 -0.06607534 0.23667292
-0.23214841 -0.16836661 0.16904925 0.10693192 -0.11212726 -0.088884026 0.28846636 0.10060161
0.10092128 0.11627204 -0.084661365 -0.23635378 0.09244873 -0.15709525 0.13176048 -0.27835116
-0.16656095 0.27258182 -0.2200669 -0.30478084 -0.10644793 0.14311871 -0.21137752 0.3470714
-0.12722331 -0.07823717 -0.16308476 -0.10274325 0.098847285 0.21761093 -0.17075647 -0.26063108
0.14148878 -0.11729139 -0.16073972 0.092188686 -0.14815214 -0.06275443 -0.12103458 0.19440055
-0.13934402 -0.22570986 0.015827166 0.153553 -0.18549356 0.12613986 -0.040964864 0.23457934
-0.01920515 0.15738028 0.12922516 -0.1356888 -0.22576419 0.08711573 -0.20364648 0.05404878
-0.06512136 0.1117792 -0.008446458 -0.096937165 -0.28278223 -0.2950976 0.30586296 0.009724217
0.29126203 -0.30895948 0.30891785 0.09239943 0.12819804 -0.15611066 0.22028258 -0.31746754
0.026358144 -0.30593458 0.19467321 0.08549981 -0.2298625 -0.15803936 0.03562895 0.117066465
-0.25930434 0.103147715 -0.15502267 0.083243705 -0.050939787 0.013273159 -0.20363508 -0.09144352
0.21676148 -0.0010470616 0.124876864 -0.31297305 -0.11855666 0.098312475 -0.035613466 0.13755783
-0.03557242 -0.18534055 0.099102736 0.1422854 0.118868925 -0.2490036 -0.09268431 -0.26852643
-0.01969097 -0.29900992 -0.22824778 0.07613218 0.26045126 0.086131416 -0.058771048 0.058167797
-0.037818637 0.37752557 -0.008675213 0.20793602 0.07709065 0.12831569 0.102556445 0.13226688
-0.15576474 -0.026628613 0.14484257 -0.102476686 0.15465549 0.031143434 0.15050007 0.019651799
0.08576075 -0.12632811 0.21477792 -0.31351906 0.11138702 -0.09746383 0.09455033 0.012297168
-0.13532755 0.10314089 -0.008519562 -0.08577887 0.07849431 -0.095647804 0.060293674 0.0413919
-0.069786064 0.19693752 -0.32719573 -0.090308785 0.2321781 0.007180691 0.28107694 0.08841962
-0.07410683 0.050822757 0.33282858 0.11592138 0.12714683 -0.2076058 0.08317264 0.12797853
-0.16006178 0.24046385 -0.13587257 -0.19450563 -0.0038488687 -0.055579692 0.20691526 -0.18469472
-0.16273145 -0.061961986 -0.06839782 -0.12445609 -0.06408981 -0.100309916 -0.11306753 -0.04572255
-0.12216577 0.21514513 0.22298391 -0.033155356 -0.28905594 -0.17993748 -0.07754397 -0.023269348
0.27432346 -0.15481016 0.025633767 -0.2747367 0.11513687 0.012407376 -0.14267915 0.040615655
0.19344434 -0.083699346 0.032740444 -0.26904854 0.061481018 0.29237875 -0.21303098 -0.098544
-0.10044714 0.08539552 -0.19476548 0.24842888 -0.121521525 0.0074284254 -0.12481554 0.2346391

lstm2.bias_ih_l0 f4 [60]
00000000: 0ede 653e cfdb ba3e 3c81 1e3e 878d 7f3e
00000010: 2b9e f23d d1f5 973e 0123 21be 21ff c4bd
00000020: 24e7 3dbe ed8e 3c3e 07b5 54bd d8cc c53d
00000030: dc80 a13e 8978 c8bd 63e1 68be 10d4 e4bd
00000040: b65d cf3c 5d6f 62bd f3d8 1a3e c90a ea3d
00000050: 2485 98bd 1673 813e 8e8d 1dbe 737b 3a3e
00000060: c092 6e3c 07eb 7a3b 6bf7 ee3c c4ea 663e
00000070: c781 6c3e 2911 3c3e c4cb 9d3c 81cb e23d
00000080: 0209 b83d a04e 7c3a cd5a 40bd c033 333d
00000090: 0810 6b3d 2852 3d3e 595e e33b b43e bf3d
000000a0: 0cc4 05be 52bd 32bd 97c8 81be 7d56 ccbd
000000b0: ec09 7e3e cac4 92bc 1428 da3b c6f0 b23d
000000c0: fd84 4b3e 61be 55bd a676 97bd 2254 e03d
000000d0: 4d0a 91bc 88dd 523e 976a 1abe 1292 803e
000000e0: 2873 703e 610e 25be d629 c13c dde6 5d3e
0.22447988 0.36495826 0.15478987 0.24956332 0.118465744 0.2967973 -0.15736009 -0.096189745
-0.18545204 0.18413897 -0.051930454 0.096582115 0.31543624 -0.09788615 -0.22742228 -0.1117326
0.02531324 -0.055281986 0.15121822 0.11427838 -0.074472696 0.25283116 -0.1538603 0.18211155
0.014561355 0.003828706 0.029170712 0.22550493 0.23096381 0.18365921 0.019262202 0.110739715
0.08986093 0.0009624753 -0.046961594 0.043750525 0.057388335 0.18488371 0.0069387374 0.093381315
-0.13063067 -0.04363758 -0.2534835 -0.09977434 0.24808472 -0.017916102 0.0066576097 0.0873733
0.1987495 -0.052183513 -0.07395677 0.10953547 -0.017705107 0.2059232 -0.15079723 0.25111443
0.23481429 -0.16118766 0.02357952 0.21670099

lstm2.bias_hh_l0 f4 [60]
00000000: 7c58 fb3d 3698 333e fc41 3c3c 0063 25be
00000010: 7563 7cbd cc33 09be eb22 8b3e bacc a43d
00000020: 6809 acbd 4943 633e 5d2c 83bd 7475 8dbd
00000030: 80c2 783e 6510 3ebe 036c 4c3e c882 7f3e
00000040: bd18 633e 5637 47be 358e 503e c5ea 2cba
00000050: ca6d 883e d997 1e3d d641 2a3e 63ff 0c3e
00000060: 84f4 073b d4e7 7dbe 938c 573e a7d7 993e
00000070: 6247 0fbd a3a0 473e 3a6a c93b d309 bfbd
00000080: eeb3 01bd d7ba 883e e118 813c f807 9a3e
00000090: 45ad 7ebe 7706 5c3e 389e babd f38e 8a3e
000000a0: c0ec 48be 7d5e 75be a9b9 20be c722 433e
000000b0: 3963 31be 1de8 c63b 4f9a 9a3e 3b8e a13e
000000c0: a471 813e 2f96 7c3e 1ae7 a6bd d1f1 04be
000000d0: 8395 933e 80d2 17bd d021 71bc 8036 7e3e
000000e0: 54c0 163e 2245 2b3e 59b4 f33c 4b90 b9bd
0.122727364 0.17538533 0.011490341 -0.16151047 -0.061618287 -0.13398665 0.27175078 0.08046861
-0.084002316 0.22193636 -0.06404946 -0.06907168 0.24292946 -0.18560942 0.19963078 0.24952233
0.22177406 -0.19454703 0.20366748 -0.00065962627 0.26646262 0.038719032 0.16626677 0.13769297
0.0020745108 -0.24795467 0.21049719 0.30047342 -0.034980185 0.19494872 0.0061466964 -0.09328046
-0.031665735 0.26705047 0.015758933 0.30084205 -0.24870785 0.21486841 -0.09112209 0.27062187
-0.19621563 -0.23961826 -0.15695824 0.19056235 -0.17323007 0.0060701505 0.30195853 0.31553826
0.25282013 0.24666665 -0.08149548 -0.1298287 0.28825006 -0.037065983 -0.014717534 0.24825478
0.14721805 0.16725591 0.029749082 -0.09060725

lstm3.weight_ih_l0 f4 [40, 15]
00000000: 7daf 093b 68b8 dcbd 5982 9bbe 47b2 7e3b
00000010: c0a4 bdbd 41b1 af3c 05a9 183e b327 fbbc
00000020: 1cfa 743e a89b efbd 7fae 763e f59f 1e3e
00000030: 6294 70bd e802 913d c654 833e 8271 503e
00000040: 9259 eabe 8c4d 02bb bda6 00bf 7985 8fbe
00000050: a84c f53e cc0f cfbe da1e 593e 89c6 b9bd
00000060: 5024 c53e 369e c0be 7851 153e 8a27 82bd
00000070: b236 903c c871 a6be 485c d23e 1deb 87be
00000080: 1b38 a83d 4c7e fdbd f2fc d3be fd86 08bd
00000090: c463 a4be 5379 bb3c fc08 e53d 8fae c03e
000000a0: ca9b 85be e856 a2be 80d9 953d f242 553e
000000b0: 2112 f63c 3166 24be d2ab 5c3e 7618 3ebe
000000c0: 218a 823e bc2e ae3d 7f6a 283d 3d2a 803e
000000d0: 59ca fa3d 7099 9e3d 07df 39be 08dd a13d
000000e0: 476f 19bd d37d 3cbe 763d 203d 5549 923d
000000f0: 3b31 903e 3ed0 603e 65c3 723e 1e63 193e
00000100: 8bfd 863e 6187 083c c5b3 b23d 5822 883e
00000110: 7531 543e 549a 1b3d 5acd 8cbe ad1f 99be
00000120: a477 993e 81b8 7b3e eba7 8d3e 7a5e cd3e
00000130: e508 183e f3bd c53c d99d 0bbf b267 8bbe
00000140: 9fb5 033e 593c ec3d df0b debe 2115 c1be
00000150: ffd0 473e db95 81be 7001 26be 6886 cf3e
00000160: 8bc5 0cbe c637 12be d19e d43e 3c04 20be
00000170: e883 c63e 23a8 5abe fd12 f0be 8e83 0b3f
00000180: 2ba1 06be a652 733c 7e11 d2bd 12d2 003f
00000190: 9660 88be c74e 51be 18fc b03d 114a e1bd
000001a0: 09de 87bd 787e b0bd b188 a23e c547 b33c
000001b0: 03ce 54be f732 a4bd 51b3 39be 76d7 9ebd
000001c0: d375 e93d 6472 5d3e c890 f23d ce4c cc3d
000001d0: f99c e73d 061b b03d 8891 d9bd 2718 35be
000001e0: fdd9 6abe a2db ddbc cf36 0ebe 259d 96bd
000001f0: abac 61be 88ac a6be 5035 16be af9f 7cbe
00000200: 1c3c 9d3e d0ea fc3d 7ebd 9f3d a8e0 8fbd
00000210: acd4 98be 86ba 103e 0d18 e03d 903b 57bd
00000220: 1b26 99be 5bb5 ab3e 72e8 813e ff73 95bd
00000230: 5591 3abd 2837 6d3e 7f4d 2dbc d268 d03d
00000240: 3989 be3d 802c 94be 4a04 b93a dd51 0a3e
00000250: 6d2e 153d 3b55 9dbe 6de3 5dbe 06e1 1f3e
00000260: a3b9 7dbe a315 163d f1ef 74be 0c98 a43d
00000270: 0190 9f3e af83 37be ad14 843e c76c 4f3e
00000280: 0935 9bbe 175a f73d 80ec 84be 7bcc 1fbe
00000290: 94ed fe3c 7129 d93e 1bbb c2be 4fde d83e
000002a0: 605a 24be 78b1 f73d e759 ed3e 4e49 b23c
000002b0: 3d88 b8bd f261 f9be 689c 9b3e fd12 b3be
000002c0: 5e02 af3a c1b7 963e 91c3 923e 8bbc ccbe
000002d0: 4f31 71be 2c91 4abe 588c 4f3e 47fa 6b3e
000002e0: 63a1 eebd 6c5e 293d b44c 713e 5a83 763e
000002f0: 61f6 263e bbf3 293e 542f c3be 3c12 f5bd
00000300: b6ae 1dbc bf43 3ebe e46e 6fbe b4b9 b33d
00000310: f87d 673e d19b f9bd 6ed3 fb3d a2b3 193e
00000320: 73bc 1abe f22a e03d 0a8e 88bd 9f7f ba3c
00000330: 182f 75be 75a2 ad3d 50b6 92be 4ded 533d
00000340: dfd1 58be 1640 edbd 7a75 97bd 4ab9 99bc
00000350: 1dba dc3c 6909 013e 384b c43d d476 b93d
00000360: be7c 7ebe 69fb ab3e d483 69be 5da6 383e
00000370: 0ae5 c23d d9cc 683d aff7 d8bd b08a 7d3e
00000380: a809 003e 3364 653e f30e 74be eab0 543e
00000390: d9b3 ccbe d065 f2be 1e35 52bd 15e5 3abe
000003a0: dcbf 863d 9268 10bd 16b8 d33e d9c8 e0be
000003b0: eed7 cd3d 13d0 883e ad56 1fbe 5d1f 15be
000003c0: 7eae 783e 6007 f7bd 82eb c73e 333d d3be
000003d0: 2e70 2e3d 8a8c fd3e 919d 80bd 562d 473e
000003e0: 6aba 2ebe 6537 853d 0181 edbe d768 91bc
000003f0: 3a68 723d 9762 bd3e 869b e5be 7e01 82be
0.002100914 -0.1077736 -0.30372885 0.0038863586 -0.09259939 0.021446826 0.14908226 -0.030658579
0.23923534 -0.11699611 0.24090002 0.15490706 -0.05873526 0.070806324 0.25650615 0.203558
-0.45771462 -0.0019882647 -0.5025442 -0.2803152 0.47910047 -0.4044174 0.21203175 -0.09071071
0.38504267 -0.37620705 0.14581859 -0.06355198 0.017604206 -0.32508683 0.4108603 -0.26546565
0.08213826 -0.12377605 -0.4140392 -0.03333186 -0.32107365 0.022885 0.11183354 0.37633178
-0.2609542 -0.3170693 0.073168755 0.20826319 0.030037941 -0.16054608 0.21549919 -0.18564019
0.2549601 0.085050076 0.041117188 0.25032225 0.12245626 0.0774411 -0.18151484 0.079034865
-0.037459638 -0.18407373 0.039121114 0.07142893 0.2816256 0.21954438 0.2370735 0.14979216
0.26365313 0.008333058 0.087256946 0.26588702 0.20721991 0.037988976 -0.2750042 -0.2990698
0.2997409 0.24582101 0.27667174 0.40111142 0.14847143 0.024138426 -0.5453773 -0.2722755
0.12862252 0.11534948 -0.43368432 -0.37711433 0.1951332 -0.25309643 -0.16211486 0.4053223
-0.13747232 -0.14279088 0.41527417 -0.15626615 0.3877251 -0.21353202 -0.46889487 0.5449761
-0.13147418 0.014851248 -0.102572426 0.5032054 -0.2663619 -0.20440207 0.08641833 -0.11000455
-0.06634147 -0.08617872 0.31744912 0.021884808 -0.20781712 -0.08017533 -0.1813481 -0.0775594
0.11399426 0.21625668 0.11844021 0.09975587 0.11309237 0.08598904 -0.10623461 -0.17684995
-0.22934718 -0.027082268 -0.13888095 -0.07354192 -0.22038524 -0.32553506 -0.14668775 -0.2467029
0.30709922 0.123494744 0.07799815 -0.07025272 -0.29849756 0.14133653 0.10942087 -0.052547038
-0.29911885 0.335368 0.25372654 -0.07297515 -0.045548756 0.23165572 -0.010577559 0.10176243
0.09303517 -0.289402 0.0014115658 0.13507791 0.03642123 -0.30729088 -0.21668787 0.15613183
-0.24777846 0.036641728 -0.23919655 0.08036813 0.31164554 -0.17921327 0.25797024 0.20256339
-0.303139 0.1207773 -0.25961685 -0.15605347 0.031119145 0.4241443 -0.38033375 0.42357108
-0.160501 0.12094396 0.46357653 0.02176347 -0.090103604 -0.4870754 0.30392766 -0.34975424
0.0013352146 0.29437068 0.2866483 -0.39987597 -0.23553966 -0.19781941 0.2026838 0.23044692
-0.11651876 0.041349813 0.23564416 0.24073544 0.16304924 0.16596882 -0.38122046 -0.119663686
-0.009624174 -0.1858053 -0.23382145 0.087756544 0.22606647 -0.12187923 0.122961864 0.1500993
-0.1511095 0.10945691 -0.06667717 0.022765933 -0.23943746 0.08478252 -0.28654718 0.05173998
-0.2117381 -0.11584489 -0.07395454 -0.01876511 0.026944214 0.12601246 0.09584659 0.09055868
-0.24852273 0.33590248 -0.22804195 0.18032213 0.09516342 0.056835983 -0.10594117 0.24759936
0.12503684 0.22401504 -0.23833828 0.20770612 -0.39980963 -0.47343302 -0.051320188 -0.1825145
0.06579563 -0.035255976 0.41351384 -0.43903235 0.10050951 0.26721248 -0.15560408 -0.14562745
0.24285313 -0.120619535 0.39046866 -0.4125763 0.04258745 0.49521285 -0.062800534 0.19450888
-0.17063299 0.06504706 -0.46387485 -0.017750187 0.05918143 0.3698928 -0.44845217 -0.25391763

lstm3.weight_hh_l0 f4 [40, 10]
00000000: 6b7e 89be b43a 8b3e 3bd9 adbe f840 90be
00000010: 3e84 69be 316f a63d e970 ad3d a0cf 99be
00000020: be29 e1bc c326 87bd 6ec4 b53d 53f9 2c3e
00000030: f397 dabe bb39 23be 3d70 ccbb f4a7 63be
00000040: 116b 95be 89bd e13e de7f 28be f4f1 453e
00000050: 550f 563d 413a 503e 4401 5c3e f5e8 44bc
00000060: f57c 0c3e f548 6cbe 5939 d83d dcc6 c9bd
00000070: b0ad 653e b28e af3d b10f 153e 5bbb 2b3e
00000080: 7391 633d 8d14 ba3e 343c b1be e880 b8bd
00000090: a0b2 d93d 8db0 423e f9c0 a43e 677e b7be
000000a0: 099e 47bd b665 a3bd 27be 30be b1a3 68be
000000b0: f84a 353e e4f7 d1be 1b6f 80be 250c 30be
000000c0: 3069 41be fe04 85be 9bde 8abc 4cb4 b83d
000000d0: d485 a4be 3d0a 973e 3d64 ca3d 4ece 75be
000000e0: 521e b1bd 9ccf 1cbe 517e 3cbe 484f abbe
000000f0: 5149 c33d 7173 1bbe 6dcb d8be 0bfb 323e
00000100: ea87 a7bb 9f1a 8abd f77b 3abe eabd 8a3d
00000110: bb4e 863d 99ee 2c3e cba4 463e eb24 1a3e
00000120: 53e6 50be 67d9 99bc eef2 a2be 61ee 07be
00000130: fab5 a43e cd35 f6bd 11d7 25be 11c3 96be
00000140: ed27 a53e 1b29 113d 1c2f bb3d 6949 fdbd
00000150: aabe 163e 01c8 87bd 56c5 9e3e f7c4 a6be
00000160: c022 803d fb35 83be 7f56 533d 0dd0 efbd
00000170: b5ca a33e c5ae 4ebe ea8b 983e f17e 2abe
00000180: c92b 4fbd 61cb 8abe 0ee4 3cbd 6e6a 15be
00000190: ede1 8cbe d803 a83e bb04 813e 4ad4 37be
000001a0: 107c 393e bf3a 8c3e 5070 ec3d 8e0c a4bd
000001b0: fd29 ecbd bd42 423e 5d82 5cbb 957a 4cbe
000001c0: 3c77 8bbe f855 5fbc 303e 1c3d 50aa 973d
000001d0: 55e4 213c a156 c33d aa01 c1bd 4692 ef3d
000001e0: da0d 1abe 6747 5b3e e184 cfbd 0c0d febd
000001f0: 2443 823d c4ec b1be 47ab 75bd ca60 e7bd
00000200: 22f9 763e ee2c 92be 9fa7 8f3d 8537 843e
00000210: 195b 113e 0200 9c3e a337 2f3d f091 153e
00000220: 6b09 7dbe 0105 27be 7de7 803e 181b 7a3e
00000230: 9aaf 8a3e cb80 45be af2e 133e b24b 0bbe
00000240: ce6b 4b3e 571b 83be c06b ea3d 2813 4a3e
00000250: c3a6 203e cdf2 93bc b855 1dbe be03 913e
00000260: 8d04 f3bd 1786 5dbe 5c73 acbd cadf 5ebe
00000270: 6e02 09be 7848 c13e c680 153e 335d 12be
00000280: e817 ddbe 4310 6b3d 31c3 ab3d 3fa2 fc3e
00000290: 7240 d8bd 0c40 483e a298 77be 698f 4e3d
000002a0: 4dad 0a3e a94d eabb adfe 5c3e 9ab5 bf3e
000002b0: d570 2f3e ec98 943e 345e 9cbe 1465 e4bd
000002c0: dc31 44be 6608 293e f9dd 96be cb91 c23d
000002d0: b876 993e e9fe 203e 801f c9bd 54f9 323e
000002e0: 3a9b 94be 250b 633e 9e15 2a3e 93ea d5bd
000002f0: 6780 9ebe 4e8e fe3d 8087 183e 7910 b33e
00000300: de49 28be 69a4 0f3d 790b 49be f2e5 4abe
00000310: d73c 6c3e 522e febd d7e4 87bc 77fc 1e3e
00000320: 1caa 4e3d 21ec 8a3d e7e1 3bbe 8a5e ce3c
00000330: 4df2 863d 3938 53be 402b 783e 052a 28be
00000340: c089 2abe 0ca4 0abe ea61 5e3e 6a50 c93e
00000350: 5e3d b6be 48f9 ca3d 29f7 8fbd 5dd9 47bd
00000360: 18a2 b93e b492 853e f865 0dbd 094e 1fbe
00000370: 552e 363e d02f 82be 5693 a53e b16d 3c3e
00000380: 5ce4 21be a357 36be 3b43 56bd d8c7 843e
00000390: d167 84be 1274 163c 53fb 603e 8801 21be
000003a0: 9b40 14be 364c a3be c7a5 99bd eca0 4e3c
000003b0: e6fc 953e 77f6 25bd 3c61 1fbe 8668 bdbc
000003c0: 3c36 313d f947 08bb 2669 9d3d f9a7 823e
000003d0: fb30 ea3d 44fb 84be 3981 debe 6484 94be
000003e0: 3e71 363e b37e 53be 6cad 26be 481f acbd
000003f0: 9e49 923e ebca 883d b292 753e b39b 86bc
-0.26854262 0.27193224 -0.33954796 -0.28174567 -0.22804353 0.08126677 0.084688015 -0.30041218
-0.027485725 -0.0659919 0.088753566 0.16891985 -0.42694053 -0.15939991 -0.006238966 -0.22232038
-0.29183248 0.44089916 -0.16455027 0.19330579 0.052260716 0.20334722 0.21484858 -0.012018432
0.13719542 -0.23074706 0.10557813 -0.098523825 0.22429538 0.08572139 0.14556767 0.16770689
0.055558633 0.36343804 -0.34616244 -0.09008962 0.10629773 0.19012661 0.32178476 -0.35838625
-0.0487347 -0.07978384 -0.17260037 -0.22718693 0.1770438 -0.41009438 -0.25084767 -0.17192133
-0.18887782 -0.2598037 -0.01695185 0.09018764 -0.32133353 0.295 0.098824 -0.2400448
-0.08648361 -0.15313572 -0.18407561 -0.33458924 0.09535468 -0.15180756 -0.42342702 0.17478578
-0.0051126378 -0.06743359 -0.18211351 0.067745045 0.065579854 0.16887893 0.19398801 0.15053146
-0.20400362 -0.018780423 -0.31825966 -0.13274528 0.32170087 -0.120219804 -0.16195323 -0.294457
0.32257023 0.03543959 0.09139845 -0.123675175 0.1472117 -0.066299446 0.3100993 -0.32572147
0.06256628 -0.2562712 0.05159616 -0.117096044 0.3199059 -0.20183857 0.29794246 -0.16649987
-0.050578866 -0.2710829 -0.046115927 -0.14591381 -0.27516118 0.32815433 0.25198922 -0.17952076
0.18113732 0.2738857 0.115448594 -0.08010207 -0.11531446 0.18970771 -0.0033647039 -0.19968636
-0.27239406 -0.013631336 0.038145244 0.074055314 0.009881099 0.095380075 -0.094241455 0.11697821
-0.15044346 0.21413957 -0.101327665 -0.12404832 0.06360462 -0.3475095 -0.059977796 -0.11297758
0.24118474 -0.28549904 0.07014393 0.25823608 0.14194907 0.30468756 0.04277767 0.14606452
-0.24710624 -0.16310503 0.25176612 0.24424398 0.27087098 -0.19287412 0.14373277 -0.13603094
0.19865343 -0.25606796 0.11446333 0.1973387 0.15688615 -0.018060112 -0.1536473 0.28323168
-0.11866102 -0.21633182 -0.084204406 -0.21765056 -0.13379833 0.37750602 0.14599904 -0.14293365
-0.43182302 0.057388555 0.08386839 0.49342534 -0.10559167 0.19555682 -0.24179319 0.050429735
0.13542672 -0.007150371 0.21581526 0.37443238 0.17132886 0.2902292 -0.3054062 -0.111520916
-0.19159645 0.1650711 -0.29466227 0.09500464 0.29973388 0.1572224 -0.09820461 0.17477924
-0.29024678 0.2217222 0.16609809 -0.10445132 -0.30957338 0.12429486 0.14895439 0.34973505
-0.16434428 0.035068903 -0.19633283 -0.1981428 0.23070084 -0.12411179 -0.016588612 0.15525995
0.050455198 0.06783319 -0.18347894 0.025191564 0.06589184 -0.20626916 0.24235249 -0.16422279
-0.1665411 -0.13539141 0.21717039 0.39319164 -0.35593694 0.09910828 -0.07029564 -0.04879128
0.3625648 0.26088488 -0.034521073 -0.15557112 0.17791112 -0.25427103 0.3233897 0.18401219
-0.15809768 -0.17806868 -0.05231021 0.2593372 -0.25860456 0.009182947 0.21970873 -0.1572324
-0.1447777 -0.31894082 -0.07502323 0.012611609 0.2929451 -0.04051825 -0.15564436 -0.02312113
0.043264613 -0.0020794852 0.07686071 0.25518778 0.114351235 -0.2597295 -0.43457964 -0.29007256
0.17816636 -0.206538 -0.16277093 -0.08404404 0.2857179 0.066793285 0.23981741 -0.016431665

lstm3.bias_ih_l0 f4 [40]
00000000: b03d 99be 93a4 023c 70c5 b73e 4fc3 593e
00000010: 05c2 d23d 6faf 7cbc 6995 0b3f a846 4c3b
00000020: 5d82 6a3e 230f 9a3e b0e6 31be 11bb 5e3d
00000030: ac4b 923e 08a5 92bd 42b2 94be 9bdc 843e
00000040: ebd3 d53e 51ff a5bc 9ba4 e4bd 01ae 163e
00000050: 67da fb3d 6a7a 97bd fbf3 303e 9193 883e
00000060: a42d 593c f749 383e 5462 18be 467f 953e
00000070: 6e9c 0bbe 4591 763c 2437 16bc 6a0c 473e
00000080: 8a8a af3e e984 61bd e6da 56be bca5 c93d
00000090: f86d e83e abcb 42be d160 99be 89b2 0a3e
-0.29929876 0.007973808 0.3589282 0.2126591 0.102909125 -0.015422686 0.54524857 0.0031170044
0.22901292 0.30089673 -0.17373157 0.05437762 0.28573358 -0.071603835 -0.2904225 0.2594956
0.41763243 -0.020263346 -0.111642085 0.14714815 0.12297516 -0.073963955 0.17280571 0.26675084
0.0132555105 0.17996965 -0.14881259 0.29198664 -0.13633892 0.015049283 -0.00916842 0.1943833
0.34285384 -0.055058394 -0.2098194 0.098460644 0.453964 -0.19023006 -0.29956678 0.13544668

lstm3.bias_hh_l0 f4 [40]
00000000: 19ab 86be f78c 023e 2c06 20be ddac dabd
00000010: c3b7 9cbc 67d9 b0bc e989 423e ae3b 3b3b
00000020: 7943 89be 52ed b33e dba7 5c3e 8b39 ce3d
00000030: 85bc c8bd 9a55 3bbe 9d0e 96be 8799 dcbd
00000040: d6d8 853d 9498 843e 9277 033e 5271 fa3d
00000050: 33d0 99be 5907 ad3c 8952 3dbe de1e ec3d
00000060: 048d 6fbe 914d b6bb b3af 333d 936f f63d
00000070: e138 b03d ea14 81ba bf89 123d 524b 8fbb
00000080: 3406 ce3e f7e1 bb3e 275f 60be b39b 6c3e
00000090: d44f a73e 7200 343e 6784 a4be 3b55 4cbe
-0.26302412 0.12749086 -0.15627354 -0.10677502 -0.019130593 -0.02158804 0.18997921 0.0028569507
-0.2680929 0.35142 0.21548407 0.10069569 -0.09801582 -0.18294373 -0.29308024 -0.107714705
0.06535499 0.25897658 0.12838581 0.122286454 -0.30041656 0.021121668 -0.18488516 0.11529325
-0.23393637 -0.005563446 0.04386873 0.12033 0.08604599 -0.0009848152 0.035775896 -0.0043729926
0.40239108 0.36695835 -0.21911298 0.2310627 0.32678092 0.17578295 -0.32132265 -0.19954388

output.weight f4 [1, 11]
00000000: 1809 b2bb c501 2f3e 870d a4bd e0a7 f73c
00000010: e234 3f3b 0861 c03d b463 763e 3c31 19bb
00000020: eeff 0fbc c2ff b6bc 19a4 933d
-0.005433213 0.17090519 -0.08010393 0.030231416 0.0029175808 0.09393507 0.24061471 -0.0023375293
-0.008789046 -0.022338752 0.072090335
