Saved_models/checkpoint_Female.pt (torch, 91706 bytes, 198 tensors)

encoder_input_layer.weight f4 [4, 5]
00000000: e202 403e 2d87 923e 50a4 c1be 74a7 dcbe
00000010: f34b b3be 4f0c 1d3e 6422 753e aade 493f
00000020: 0442 133f 2a57 533f 99a8 aebb 3589 11bd
00000030: 9588 fdbe 47a0 d1be 4d0f 9ebe acf1 763e
00000040: 5e7a e83e bdcf 343f 2a26 503e f5cc b13e
0.187511 0.28618756 -0.37820673 -0.43096507 -0.35018882 0.15336727 0.239389 0.78855383
0.57522607 0.82554877 -0.005330157 -0.03553124 -0.49518266 -0.40942594 -0.3087105 0.24115628
0.4540586 0.70629483 0.20327058 0.34726682

encoder_input_layer.bias f4 [4]
00000000: be40 55be fe7f 4640 6b24 45c0 713b 3a40
-0.20825478 3.101562 -3.0803478 2.909878

decoder_input_layer.weight f4 [4, 1]
00000000: 6e2d 63bf 4bcb e83e 76ba ff3f 7ca7 5d3f
-0.88741195 0.454676 1.9978778 0.86583686

decoder_input_layer.bias f4 [4]
00000000: f140 0ac0 a419 e23d 11f0 3540 2350 903f
-2.1602137 0.11040047 2.8427775 1.1274456

positional_encoding_layer_enc.pe f4 [1, 9, 4]
00000000: 0000 0000 0000 803f 0000 0000 0000 803f
00000010: a46a 573f 4151 0a3f 57d6 233c b9fc 7f3f
00000020: b7c7 683f 3311 d5be 3ed4 a33c e5f2 7f3f
00000030: c381 103e 2670 7dbf 1fb9 f53c 83e2 7f3f
00000040: cfbd 41bf 3055 27bf dbcb 233d 94cb 7f3f
00000050: 107c 75bf 2c3c 913e f4b6 4c3d 19ae 7f3f
00000060: 8c0f 8fbe b8cd 753f d19c 753d 128a 7f3f
00000070: 4630 283f bdff 403f 323e 8f3d 815f 7f3f
00000080: 9546 7d3f f6fd 14be 50aa a33d 652e 7f3f
0.0 1.0 0.0 1.0 0.84147096 0.54030234 0.009999833 0.99995
0.9092974 -0.41614684 0.019998666 0.9998 0.14112 -0.9899925 0.0299955 0.99955004
-0.7568025 -0.6536436 0.039989334 0.9992001 -0.9589243 0.2836622 0.049979165 0.99875027
-0.2794155 0.96017027 0.059964005 0.99820054 0.6569866 0.75390226 0.06994285 0.997551
0.98935825 -0.14550003 0.07991469 0.9968017

positional_encoding_layer_dec.pe f4 [1, 1, 4]
00000000: 0000 0000 0000 803f 0000 0000 0000 803f
0.0 1.0 0.0 1.0

encoder.layers.0.self_attn.in_proj_weight f4 [12, 4]
00000000: 7a45 f83e d89b 74be b928 c93f 1c61 81bf
00000010: 4f7e 453e 3216 313e 407e 83bf 2a97 4c3f
00000020: 560a 523d 53b7 09bc d60f 71be 9119 50bd
00000030: 7529 edbe 8fc6 303e ed49 eb3e 4068 ff3e
00000040: 6f2e 633e 91cf 0c3f 9cbd 383e 083f 3cc0
00000050: b761 e63e 27f9 003f 4c38 46be ced8 053f
00000060: 3bcb 36bb 67b1 84bb 4310 95be ac85 2c3d
00000070: e471 b0be ed43 48be 576b 0cbf 46c3 233e
00000080: b500 a43e 0588 53bf e93d 2dbe 3661 5ac0
00000090: 8a24 1d3f 55e7 a1bb 5b62 d0be f445 2b40
000000a0: 2ed6 9f3e ece7 3c3e 5722 6f3d a3c3 c9bf
000000b0: 1f42 bdbd 81af 5a3e e961 543e d916 b6be
0.48490506 -0.23887575 1.5715553 -1.010776 0.19286464 0.17293623 -1.0272903 0.7991816
0.05127939 -0.008405524 -0.23541197 -0.050805632 -0.46320692 0.17263244 0.45954838 0.49884224
0.22185682 0.5500422 0.1804108 -2.9413471 0.44996426 0.50380176 -0.19357413 0.5228394
-0.002789213 -0.0040494683 -0.2911397 0.042119667 -0.34461892 -0.19557162 -0.5485129 0.1599246
0.3203179 -0.82629424 -0.16918148 -3.4121833 0.6138388 -0.004940907 -0.4070004 2.6761446
0.31218094 0.18447846 0.05838236 -1.5762829 -0.09241127 0.21356012 0.20740475 -0.35564306

encoder.layers.0.self_attn.in_proj_bias f4 [12]
00000000: de96 c1bf f0fc 95bf 476f 08be d5ab 923f
00000010: 8536 3d3e e015 12bd dca4 1cbe fca5 2a3d
00000020: c5f8 82bf 3a7e 0740 20b8 34c0 3856 a33f
-1.5124166 -1.1717815 -0.13323699 1.1458689 0.18477829 -0.035665393 -0.15297264 0.0416622
-1.0232168 2.1170793 -2.823738 1.2760687

encoder.layers.0.self_attn.out_proj.weight f4 [4, 4]
00000000: a99d 1ebe 06d4 0dbf 0e4c 26bf 5552 cdbd
00000010: 6933 f5bf 555a bb3d 25d0 8c3e 0e9d 49bf
00000020: 0d6d 133f a38d fbbd 2494 243f 4b2a 2d3d
00000030: cd28 c43e 9065 febf 57ef 5e40 d081 0dbf
-0.1548983 -0.5540165 -0.649598 -0.10025469 -1.9156314 0.09148089 0.27502552 -0.7875527
0.57588273 -0.122828744 0.64288545 0.04227666 0.3831238 -1.9874744 3.4833581 -0.55276203

encoder.layers.0.self_attn.out_proj.bias f4 [4]
00000000: d766 5d3f 3942 68be a821 ffbe 4b17 a2bf
0.86485046 -0.22681512 -0.49830365 -1.2663358

encoder.layers.0.linear1.weight f4 [4, 4]
00000000: 3aab a3bf 2608 22be 9499 c03f 8ef5 0cbf
00000010: a5e8 a0be c049 0abe 0e92 c4be eca4 e2bd
00000020: 3eac aebf 37f2 95be 4b2b d7be e21d e33f
00000030: da36 84bf d8e6 493e e768 d13f 7a5b e7bd
-1.2786629 -0.15823421 1.5046868 -0.55062187 -0.31427494 -0.13504696 -0.3839268 -0.110666126
-1.3646314 -0.29286358 -0.42025217 1.7743495 -1.0329239 0.19716966 1.6360139 -0.11296745

encoder.layers.0.linear1.bias f4 [4]
00000000: ff54 fbbd cba4 7abf f211 49bf 0936 8dbe
-0.12272071 -0.97907704 -0.7854301 -0.27580288

encoder.layers.0.linear2.weight f4 [4, 4]
00000000: f272 8d3e dce0 05be 98e6 a4be 20e3 483f
00000010: f76b edbf 8305 acbe a1af 38be b03d 64bf
00000020: 7578 c43c e28a 1bbe 53ce 2b40 fb4f 07bf
00000030: db8d 13be ab78 dfbe 1f35 3a3e efdb 3cbe
0.2762676 -0.13074058 -0.3220718 0.78471565 -1.8548573 -0.33597955 -0.18035747 -0.8915663
0.02398322 -0.15189698 2.684468 -0.52856416 -0.14409582 -0.4364675 0.18184327 -0.18443273

encoder.layers.0.linear2.bias f4 [4]
00000000: 9cfd b53c 2477 5d3b e633 99bd 426c 503f
0.022215657 0.0033792937 -0.07480602 0.8141519

encoder.layers.0.norm1.weight f4 [4]
00000000: 92aa 3740 b6ff 2b40 c2fa 943f cb92 ce3f
2.8697858 2.6874824 1.1639025 1.6138548

encoder.layers.0.norm1.bias f4 [4]
00000000: 970f d3bc fc0a 1b3f 807e 98be 5ca0 eb3e
-0.02576427 0.60563636 -0.29784012 0.46020782

encoder.layers.0.norm2.weight f4 [4]
00000000: fde9 d83f 4e56 993f de77 a43f 313e 3d3f
1.6946408 1.1979463 1.284908 0.7392302

encoder.layers.0.norm2.bias f4 [4]
00000000: 9490 3cbf 3695 613e 1692 4d3e 5fdc 273f
-0.7365811 0.22029576 0.20075259 0.65570635

encoder.layers.1.self_attn.in_proj_weight f4 [12, 4]
00000000: 2144 8dbe 534a 93bd fd31 083f 1cf8 a0be
00000010: 6c35 913e 1bf8 95be 15d3 af3e df96 27bf
00000020: a723 4fbf 4965 5b3f 82ef f23c 32b8 3d3b
00000030: 8c15 c7be 5479 4d3e bc11 13bd e807 523f
00000040: 912d a53d 7baf a63e e82d 21be 771a 273f
00000050: d1b6 7a3e 0e42 3dbc 53ae c93d 34f0 bd3f
00000060: 60d4 093f 25c6 28be 46d9 bfbe ed4a 83be
00000070: 286f 7fbb 3732 633e ceba 99be f448 0abe
00000080: 9758 6d3f 2795 78bf e6e0 5a3e 428b 2ebf
00000090: 5c76 6fbf cbb4 4c3f d917 2dbf 917b b83f
000000a0: c8e4 b03f edca 69be 2250 a4be ca2d 89be
000000b0: d54b 6e3f b733 df3d c7a1 a3bf f2f3 e53e
-0.2759104 -0.071919106 0.53201276 -0.31439292 0.2836107 -0.29290852 0.3434073 -0.65464586
-0.80913776 0.85701424 0.029655222 0.00289489 -0.38883626 0.20065814 -0.035905585 0.82043314
0.08065332 0.32555756 -0.15740168 0.6527476 0.24483801 -0.011551393 0.09847703 1.4838929
0.53839684 -0.16481836 -0.37470454 -0.256431 -0.0038976166 0.22187124 -0.30025333 -0.13504392
0.927133 -0.9710259 0.21374854 -0.6818124 -0.9353998 0.7996337 -0.67614514 1.441271
1.3819818 -0.22831316 -0.32092386 -0.26792747 0.9308446 0.10898536 -1.2783746 0.44912678

encoder.layers.1.self_attn.in_proj_bias f4 [12]
00000000: 3a11 fcbd ee09 04bf 7c84 d5be c319 a6be
00000010: aa9b c83c 35b5 53bd 1697 da39 03d1 52bc
00000020: d233 aebe 12ff 483d 41f7 00bf ce47 d8be
-0.12307973 -0.5157765 -0.4170264 -0.3244153 0.024488289 -0.051686484 0.00041692768 -0.012867215
-0.3402391 0.04907138 -0.5037728 -0.42242283

encoder.layers.1.self_attn.out_proj.weight f4 [4, 4]
00000000: 39d1 b83e 3c15 44bf 4b5d 2c3f 9bd4 193e
00000010: f0ad 1ebf 07d7 a23e abc5 3a3d 167f 393e
00000020: 6520 0ebe dcca 9dbe 39c4 a9be 9add 4abf
00000030: a42f d9bf b6a1 d33f 7aa6 a8bf 03b6 dfbe
0.36097124 -0.765949 0.67329854 0.15022509 -0.6198416 0.31804678 0.045598667 0.18114886
-0.13879545 -0.30818832 -0.33157519 -0.7924439 -1.6967664 1.6533725 -1.3175805 -0.4369355

encoder.layers.1.self_attn.out_proj.bias f4 [4]
00000000: b9dd 02be 0cde 933e 1607 8c3e 877a 94be
-0.12779893 0.28880346 0.27349156 -0.2899973

encoder.layers.1.linear1.weight f4 [4, 4]
00000000: d7d4 a5bf e1d9 a73f ddbe 123d d642 863f
00000010: 2116 75bf ea26 943d 5399 e0be a59f db3d
00000020: 67e7 71be 92cd 87be 957b 01be e249 833e
00000030: b5b2 0abf 18c2 4bbf 3026 0d3f b94b ae3f
-1.2955579 1.3113366 0.035826553 1.0489147 -0.9573689 0.07233985 -0.43866977 0.10723809
-0.23623429 -0.26524025 -0.12644799 0.25642306 -0.54178935 -0.7959304 0.55136395 1.3616859

encoder.layers.1.linear1.bias f4 [4]
00000000: def8 c9bf 841e 09bf 26bc cabe 2009 0ebf
-1.5779073 -0.5356219 -0.3959667 -0.55482674

encoder.layers.1.linear2.weight f4 [4, 4]
00000000: 1c89 533e 8f25 7e3e 1578 d7bd 86bc 18bd
00000010: 926e ca3e 2ab1 db3c e196 81be 1083 b3be
00000020: 59c9 7fbf 0fa4 00bd cf00 b03e 5e29 793f
00000030: 44d9 693e ab5e 15be ea95 ddbd 8b59 96be
0.20657772 0.24819015 -0.10520951 -0.037289165 0.39537483 0.026817877 -0.25310424 -0.3506093
-0.9991661 -0.03140646 0.34375617 0.97328746 0.22836787 -0.14586894 -0.108196095 -0.2936519

encoder.layers.1.linear2.bias f4 [4]
00000000: 08b7 183e 1449 553c 95a9 87bd 0c9e 993c
0.14913571 0.013017911 -0.06624142 0.01875212

encoder.layers.1.norm1.weight f4 [4]
00000000: f5a0 9140 9dbb 0340 3f38 333f 7ba0 c63f
4.550898 2.058326 0.700077 1.5517725

encoder.layers.1.norm1.bias f4 [4]
00000000: 4dce 4940 d12f babd 16ad 18bf 8b61 f3bf
3.1532166 -0.090911515 -0.5963911 -1.9014143

encoder.layers.1.norm2.weight f4 [4]
00000000: 86b5 113f 00cf 983f 5206 c33f 5330 823f
0.5691761 1.1938171 1.5236304 1.0170997

encoder.layers.1.norm2.bias f4 [4]
00000000: 4721 5dbf 3007 963e 5aba 903e 2879 5e3f
-0.863789 0.2930236 0.28267175 0.8690362

decoder.layers.0.self_attn.in_proj_weight f4 [12, 4]
00000000: f890 f1bd b43d f6bd d8ac 0cbf df5b 07bf
00000010: 383f c4bd 00c0 013c 526e 8ebe 7037 6c3e
00000020: 8a19 0dbf d046 29bd 3fdd 093f cec6 7fbe
00000030: b98f 0d3f 7418 633e f679 0dbf 605f c63e
00000040: 80b8 90bd cbf6 8bbe 12b8 fa3e ab5d fdbe
00000050: 4893 863d e849 03be 2ae6 df3e 000b 2f3e
00000060: b4a7 963e 8874 5d3e 58cb 16be 48e0 03be
00000070: 6630 01bf 0ee3 a93e 8ef0 f83e 3a87 d63e
00000080: 5140 fbbd f3b8 bf3d 266e 4cbe a655 153e
00000090: 7293 97bf 2e9b 3b3f 247a 91be 42a4 46bf
000000a0: dfda 79bf 51fc 1cc0 2ccf c3be dee3 8b3f
000000b0: 0785 e23c 68c7 713b 63aa ed3b 30e9 30bc
-0.11795229 -0.12023488 -0.5495124 -0.5287456 -0.095823705 0.0079193115 -0.27818543 0.23068023
-0.55117095 -0.041327298 0.5385322 -0.24978182 0.5529743 0.22177297 -0.5526422 0.3874464
-0.070664406 -0.27336726 0.4896856 -0.49485525 0.065710604 -0.12821162 0.4373029 0.1709404
0.29424822 0.21626484 -0.14726007 -0.12878525 -0.50464475 0.3318104 0.4862103 0.41900045
-0.12268127 0.09361448 -0.19963893 0.14583454 -1.1841872 0.7328366 -0.28413498 -0.7759439
-0.97599596 -2.4529002 -0.38243997 1.0928915 0.027651323 0.0036892537 0.0072529777 -0.010797784

decoder.layers.0.self_attn.in_proj_bias f4 [12]
00000000: 0000 0000 0000 0000 0000 0000 0000 0000
00000010: 0000 0000 0000 0000 0000 0000 0000 0000
00000020: ebd0 e4be 61b8 20bf 4687 61bf 538f 86bc
0.0 0.0 0.0 0.0 0.0 0.0 0.0 0.0
-0.44690642 -0.6278134 -0.88097036 -0.016425764

decoder.layers.0.self_attn.out_proj.weight f4 [4, 4]
00000000: 3f10 6d3e 3971 6d3e b0be 143e f504 133b
00000010: 174a bfbe 9d48 5ebd 2e77 713e 4d4b 833c
00000020: bf2b 493c 7b25 edbd c440 983c 43db a8bc
00000030: 7bcd a9bc 5828 343e 936a a7bd e117 b7ba
0.23150729 0.23187722 0.14525867 0.0022433375 -0.37361214 -0.05426847 0.2358062 0.016027117
0.012278496 -0.115794145 0.01858557 -0.020612365 -0.020727864 0.17593515 -0.08174624 -0.0013968908

decoder.layers.0.self_attn.out_proj.bias f4 [4]
00000000: 3f0e 1bbb 90ef bcbf f8bc 4a3c c6af 8c3c
-0.0023659614 -1.4760609 0.012374155 0.017173659

decoder.layers.0.multihead_attn.in_proj_weight f4 [12, 4]
00000000: 5c64 52be e0b8 b9bd 807d db3b 8b4d 013f
00000010: b090 9c3d 576a 0c3f 08cb bf3e 9438 c6be
00000020: 209f 8c3e eea2 ddbe 47e2 84be 746f 383e
00000030: a80d 4f3e f638 eb3e 14dd 49be 007e 803a
00000040: 406a a13e c59b 17bf f6ad e23e 6aa2 01bf
00000050: 0048 0a3c 8039 d5bd 5821 a5be c8c2 a53d
00000060: 45a2 013f fc4d 37be ca24 babe 24ea 67be
00000070: 3461 1bbf 1687 8d3e 4f94 96be fe3b d1be
00000080: 9d7f 99bd 1aab 8fbd 394b e63e 25a4 663c
00000090: f7b6 bebd 4319 ab3c 5df3 d6bc f3a5 9b3c
000000a0: 0cd7 28bd 780d e23b c03c a03c fa57 513b
000000b0: 884c 5cbe dd38 763c 6ec7 b4bc 7a55 053e
-0.20546097 -0.09068465 0.0066983104 0.50508946 0.076447845 0.5484976 0.37459588 -0.3871504
0.27465153 -0.43288368 -0.25953886 0.18011266 0.20220053 0.45941895 -0.19713241 0.0009803176
0.31526375 -0.5922206 0.44273347 -0.5063845 0.008440018 -0.10411358 -0.32252002 0.08093792
0.5063823 -0.17900842 -0.36356193 -0.22647911 -0.60695195 0.27642125 -0.29410025 -0.40866083
-0.074950434 -0.07015057 0.44979265 0.014077221 -0.093122415 0.02088607 -0.026239092 0.01900003
-0.04122071 0.0068985783 0.019560218 0.0031943307 -0.2151357 0.015028206 -0.022067752 0.13020888

decoder.layers.0.multihead_attn.in_proj_bias f4 [12]
00000000: 0000 0000 0000 0000 0000 0000 0000 0000
00000010: 0000 0000 0000 0000 0000 0000 0000 0000
00000020: 76ea 973c 327a 3f3c a558 9f3b 98be 8e3c
0.0 0.0 0.0 0.0 0.0 0.0 0.0 0.0
0.018544417 0.0116868485 0.004862862 0.017424867

decoder.layers.0.multihead_attn.out_proj.weight f4 [4, 4]
00000000: 9d0b 0a3e b7b1 17bd 9baa 97bc 3cbd c1bd
00000010: 78c8 fd3d dd54 36bd 8dd0 d4bc f612 9fbd
00000020: 120d 0dbd eeee 89bc 3136 d2bc 7446 42bd
00000030: b0e6 1abe c9fd 3dbd 028a 82bc e3c2 6ebd
0.13480993 -0.037034716 -0.018513968 -0.09459922 0.12391752 -0.044514526 -0.025978351 -0.077672884
-0.034436293 -0.016837563 -0.025660606 -0.04743047 -0.15127063 -0.046384607 -0.015934948 -0.058291327

decoder.layers.0.multihead_attn.out_proj.bias f4 [4]
00000000: 363a c3b9 ba8f d6bb 96d7 06bb 39a6 8fb9
-0.0003723667 -0.0065478953 -0.0020575277 -0.0002739893

decoder.layers.0.linear1.weight f4 [4, 4]
00000000: c43d 863f a4ba 12c0 0f2b 683f 5ce7 a03f
00000010: 187a 973e 3d19 14bf 2578 c0bd 0af7 d13d
00000020: 8a72 633e 6ff9 383f 7f45 c43e 4dbb 91bf
00000030: e22f 963d e399 c2be 770d 933b 3119 393d
1.0487599 -2.2926416 0.906907 1.2570605 0.29585338 -0.5785101 -0.09397916 0.10252197
0.22211662 0.72255605 0.3833427 -1.1385285 0.07333352 -0.3800803 0.004487689 0.04519004

decoder.layers.0.linear1.bias f4 [4]
00000000: 0550 d93e 3e22 27bf 28ed 97bf 30f7 36bf
0.42443863 -0.65286624 -1.1869249 -0.7147093

decoder.layers.0.linear2.weight f4 [4, 4]
00000000: fc23 4fbf 0fc8 0d3d 88be 703e 3f8c 1dbd
00000010: b1c6 843f ffe6 843f 3b7f 4cbf 6b24 413e
00000020: 0cf4 293e 8118 01be d49f 0d3f 866a b33e
00000030: 71b3 c53c 93e2 b8ba 2648 95be 83d0 0f3d
-0.8091428 0.03461462 0.23510182 -0.038463827 1.0373136 1.0382994 -0.7988164 0.18861549
0.16597003 -0.12607004 0.55322003 0.35042208 0.024133416 -0.001410561 -0.29156607 0.03511096

decoder.layers.0.linear2.bias f4 [4]
00000000: 1410 e6bb 8a51 8bbc 0cdc ffb9 5bcd 2e3b
-0.0070209596 -0.017006654 -0.00048801338 0.0026672694

decoder.layers.0.norm1.weight f4 [4]
00000000: 5bc7 3540 6a49 273f 6bf9 0040 20b6 1c40
2.8402927 0.65346396 2.0152233 2.448616

decoder.layers.0.norm1.bias f4 [4]
00000000: eafe 0ec0 3460 37bd ff8a ad3f 1ada 213d
-2.2343087 -0.04476948 1.3558043 0.03951464

decoder.layers.0.norm2.weight f4 [4]
00000000: e306 ff3f af1f 0d3f e9fe 1940 320d 0c40
1.9923977 0.5512647 2.4061835 2.1883054

decoder.layers.0.norm2.bias f4 [4]
00000000: 3b20 b8bf 7d3a e93c 6ef5 573f f3e3 12c0
-1.4384836 0.028470272 0.8435887 -2.295163

decoder.layers.0.norm3.weight f4 [4]
00000000: d771 2740 63ca 863f e5b1 0340 088f 5240
2.6163232 1.0530514 2.0577328 3.28998

decoder.layers.0.norm3.bias f4 [4]
00000000: d930 863f ce87 38bd 1652 f23d 3a87 d3bf
1.0483657 -0.04505139 0.11832063 -1.6525643

decoder.layers.1.self_attn.in_proj_weight f4 [12, 4]
00000000: f890 f1bd b43d f6bd d8ac 0cbf df5b 07bf
00000010: 383f c4bd 00c0 013c 526e 8ebe 7037 6c3e
00000020: 8a19 0dbf d046 29bd 3fdd 093f cec6 7fbe
00000030: b98f 0d3f 7418 633e f679 0dbf 605f c63e
00000040: 80b8 90bd cbf6 8bbe 12b8 fa3e ab5d fdbe
00000050: 4893 863d e849 03be 2ae6 df3e 000b 2f3e
00000060: b4a7 963e 8874 5d3e 58cb 16be 48e0 03be
00000070: 6630 01bf 0ee3 a93e 8ef0 f83e 3a87 d63e
00000080: bed2 77be c4ce 0dbf 0b75 a1be 6a8b 53be
00000090: 3afd d7bd 3e64 cabe b8f1 29be d1ae 87bd
000000a0: 19ee 93bc 0c21 f7bd f32f 3ebd dd47 5dbc
000000b0: 0459 93bd 4793 74be fe47 c9bd 13d2 40bd
-0.11795229 -0.12023488 -0.5495124 -0.5287456 -0.095823705 0.0079193115 -0.27818543 0.23068023
-0.55117095 -0.041327298 0.5385322 -0.24978182 0.5529743 0.22177297 -0.5526422 0.3874464
-0.070664406 -0.27336726 0.4896856 -0.49485525 0.065710604 -0.12821162 0.4373029 0.1709404
0.29424822 0.21626484 -0.14726007 -0.12878525 -0.50464475 0.3318104 0.4862103 0.41900045
-0.24201486 -0.55393624 -0.3153461 -0.20658651 -0.10546346 -0.39529604 -0.16596115 -0.066251405
-0.01805787 -0.1206685 -0.046432447 -0.013505903 -0.07194713 -0.23884307 -0.098281845 -0.047075342

decoder.layers.1.self_attn.in_proj_bias f4 [12]
00000000: 0000 0000 0000 0000 0000 0000 0000 0000
00000010: 0000 0000 0000 0000 0000 0000 0000 0000
00000020: 6063 41bd c9ae 4cbd a79c 05bd 7bf0 29bd
0.0 0.0 0.0 0.0 0.0 0.0 0.0 0.0
-0.047213912 -0.049971376 -0.0326201 -0.041489106

decoder.layers.1.self_attn.out_proj.weight f4 [4, 4]
00000000: 58ee 7b3b 8979 04bc c435 b4bb 7dc6 8f3a
00000010: bfc9 f33b 0a77 f13c d4ca c7ba 44e2 303b
00000020: b842 183b f45e 2b3c 21a8 1ebc 14a4 b5ba
00000030: 357e 56bc ef95 383d 5d63 903c 6335 663c
0.0038441624 -0.008085617 -0.0054995734 0.0010969188 0.0074398215 0.029475708 -0.0015242943 0.0026990334
0.0023233127 0.01045965 -0.00968364 -0.0013858103 -0.013091614 0.045064863 0.017625505 0.014050814

decoder.layers.1.self_attn.out_proj.bias f4 [4]
00000000: 3029 f03b bf23 e23c f467 083b 8472 19bd
0.0073291287 0.027604936 0.0020813914 -0.037462726

decoder.layers.1.multihead_attn.in_proj_weight f4 [12, 4]
00000000: 5c64 52be e0b8 b9bd 807d db3b 8b4d 013f
00000010: b090 9c3d 576a 0c3f 08cb bf3e 9438 c6be
00000020: 209f 8c3e eea2 ddbe 47e2 84be 746f 383e
00000030: a80d 4f3e f638 eb3e 14dd 49be 007e 803a
00000040: 406a a13e c59b 17bf f6ad e23e 6aa2 01bf
00000050: 0048 0a3c 8039 d5bd 5821 a5be c8c2 a53d
00000060: 45a2 013f fc4d 37be ca24 babe 24ea 67be
00000070: 3461 1bbf 1687 8d3e 4f94 96be fe3b d1be
00000080: 7e7f f9be 3eed e83e ebd5 e03d 5f34 473f
00000090: 1565 033f bd85 8ebd 1d0d 02be 57dd 8ebe
000000a0: a380 643d 9336 133f efa1 57bf 3cdf 363e
000000b0: 2e7d 17bc 12ca 14bd c170 2fbd 2c09 783c
-0.20546097 -0.09068465 0.0066983104 0.50508946 0.076447845 0.5484976 0.37459588 -0.3871504
0.27465153 -0.43288368 -0.25953886 0.18011266 0.20220053 0.45941895 -0.19713241 0.0009803176
0.31526375 -0.5922206 0.44273347 -0.5063845 0.008440018 -0.10411358 -0.32252002 0.08093792
0.5063823 -0.17900842 -0.36356193 -0.22647911 -0.60695195 0.27642125 -0.29410025 -0.40866083
-0.4873008 0.454935 0.109783016 0.77814287 0.51326114 -0.06959102 -0.12700315 -0.27903244
0.05578674 0.5750515 -0.84231466 0.17858595 -0.009246154 -0.03632552 -0.04283214 0.0151389055

decoder.layers.1.multihead_attn.in_proj_bias f4 [12]
00000000: 0000 0000 0000 0000 0000 0000 0000 0000
00000010: 0000 0000 0000 0000 0000 0000 0000 0000
00000020: 4d30 15bf 901d 0dbc 98e6 c23c a340 58bc
0.0 0.0 0.0 0.0 0.0 0.0 0.0 0.0
-0.58276826 -0.008613005 0.023791596 -0.013199004

decoder.layers.1.multihead_attn.out_proj.weight f4 [4, 4]
00000000: d973 6abd 0df9 423f a8c5 5bbf 6925 09bb
00000010: 22d6 00c0 2b81 2b3f fb55 883e 680e 0abb
00000020: c8ad 8a3e 6827 083f 668c e23d a987 dfbb
00000030: 0a08 e13d cd19 353f 06df df3d 233c 9cba
-0.057239387 0.7616127 -0.85848475 -0.002092684 -2.0130696 0.6699397 0.26628098 -0.0021065716
0.2708571 0.5318513 0.11061935 -0.006821592 0.109878615 0.70742494 0.1093121 -0.0011919778

decoder.layers.1.multihead_attn.out_proj.bias f4 [4]
00000000: 662a 9d3d 8e06 20bf a174 183d 34c4 33bd
0.076741025 -0.6251 0.0372206 -0.043888286

decoder.layers.1.linear1.weight f4 [4, 4]
00000000: 2b79 ab3f f769 85bf 9dcb b3bc 830f d33e
00000010: c1a4 8e3f 6b4e 8dbf 76ec 8d3d e92c 213f
00000020: 1ce8 183f cc28 40be 4e5b 823f dfa8 9bbe
00000030: 35f6 6a3e 3288 56bf 0dfb 2fbe 2555 273e
1.3396353 -1.0422963 -0.021947676 0.41222772 1.1144029 -1.1039556 0.06929867 0.6295915
0.5972917 -0.18765563 1.0184114 -0.30402276 0.22945483 -0.8380157 -0.17185612 0.16341074

decoder.layers.1.linear1.bias f4 [4]
00000000: 950e 57bf 4a94 57bf 5068 8ebf d071 0fbf
-0.84006625 -0.84210646 -1.1125584 -0.5603304

decoder.layers.1.linear2.weight f4 [4, 4]
00000000: 9778 133d cff2 873e e8cf 533e 7252 1abf
00000010: d9fb 823d a319 95be 125f e1be 4bf7 823e
00000020: cd1d 00bf cccb febe ec5a 38bf 2f7d 01bd
00000030: 42e4 84be bb88 cbbe 9d36 93be 0082 f33d
0.036003675 0.26552436 0.20684779 -0.6028205 0.063956924 -0.29121122 -0.44017845 0.25579295
-0.5004547 -0.4976486 -0.72013736 -0.031613525 -0.25955397 -0.39752755 -0.28752604 0.1189003

decoder.layers.1.linear2.bias f4 [4]
00000000: 2b3a 623c 87d9 eb3c 3be4 e83b f330 16bd
0.013807814 0.028790249 0.0071072853 -0.036667775

decoder.layers.1.norm1.weight f4 [4]
00000000: 6914 6240 4e1e 8a3f c170 ed3f 2170 7e40
3.5324957 1.0790498 1.8550035 3.9755938

decoder.layers.1.norm1.bias f4 [4]
00000000: 580f 393f 1bef ec3e 2353 eabf 9379 c8be
0.7228904 0.46276173 -1.8306621 -0.39155254

decoder.layers.1.norm2.weight f4 [4]
00000000: 0af0 1540 9132 983e 90e5 1c40 5ab1 5240
2.3427758 0.2972608 2.4515114 3.2920747

decoder.layers.1.norm2.bias f4 [4]
00000000: a6c6 46bf 8e03 eb3f a007 c2bf 0b66 0cbd
-0.77646863 1.836046 -1.5158577 -0.034277003

decoder.layers.1.norm3.weight f4 [4]
00000000: 85a2 983f 470f 8c3b dfcb eb3a 4d92 853e
1.1924597 0.004274282 0.0017989835 0.2608818

decoder.layers.1.norm3.bias f4 [4]
00000000: 34c3 093f aab6 6fbc 460f f0bb 7058 8abe
0.5381348 -0.014630953 -0.0073260395 -0.27020597

linear_mapping.weight f4 [1, 4]
00000000: 7356 21bf 2627 06bc 73c0 a7bb 5728 293c
-0.63022536 -0.008188045 -0.0051193773 0.010324559

linear_mapping_with_gender_ind.weight f4 [1, 5]
00000000: 10ba 643d c301 b4be f8f4 0f3d a08e 9e3e
00000010: c054 ce3e
0.055841506 -0.35157594 0.03514573 0.3096819 0.40299034

exp_avg f4 [4, 5]
00000000: 7ad1 a139 9aee a139 89f3 a539 09ee a239
00000010: 5fa5 a839 8488 1eb9 9e07 2bb9 388a 24b9
00000020: 383b 2eb9 987c 2eb9 84c4 f1ba 6a66 f4ba
00000030: 2abc f5ba 8a9a f7ba ae2e f9ba 1a97 a63c
00000040: 8d1d a83c afde a83c ea48 aa3c 976c ab3c
0.00030864385 0.00030886085 0.000316527 0.00031076398 0.00032166668 -0.0001511891 -0.00016310668 -0.0001569175
-0.00016615994 -0.00016640348 -0.0018445407 -0.0018646244 -0.0018748094 -0.0018890661 -0.0019011104 0.020335723
0.020521903 0.020613996 0.020786721 0.020925803

exp_avg_sq f4 [4, 5]
00000000: a90f cb36 5ab9 c836 d9b9 c636 f50b cb36
00000010: 9dbe ca36 e3ac 4238 477f 3d38 80eb 3938
00000020: 5d88 3838 0ce8 3838 5500 c137 8114 c237
00000030: 9289 c537 99c2 c637 ea58 c937 3685 783b
00000040: 7081 793b 1dc0 7b3b ef3c 7e3b 6d43 803b
6.0516945e-06 5.9820422e-06 5.9224953e-06 6.0512634e-06 6.0422594e-06 4.6414218e-05 4.5179648e-05 4.4326764e-05
4.3996017e-05 4.408513e-05 2.3007547e-05 2.313615e-05 2.3548291e-05 2.3694056e-05 2.4002471e-05 0.0037921197
0.0038071536 0.003841407 0.0038793643 0.003914288

exp_avg f4 [4]
00000000: 9b2a deb8 3a58 e838 a9c8 323a 954b f5bb
-0.00010593721 0.000110790555 0.0006820062 -0.0074858167

exp_avg_sq f4 [4]
00000000: 4051 da35 b8dc 7737 8d24 5936 9026 183a
1.6265913e-06 1.4773737e-05 3.2356795e-06 0.0005804086

exp_avg f4 [4, 1]
00000000: 5637 b2bc c975 1d3d c991 7a3d 0326 413d
-0.021754902 0.038442407 0.061174188 0.04715539

exp_avg_sq f4 [4, 1]
00000000: 7b40 7e3c 32c8 143c c988 413c 4e9b 593c
0.015518303 0.009080933 0.011812397 0.013281656

exp_avg f4 [4]
00000000: 55e4 2e3c 55ee 69bc 489d edbc 3a0d 9abc
0.010674556 -0.014278014 -0.029005662 -0.018805135

exp_avg_sq f4 [4]
00000000: f306 2a3b 5c14 d83a ee08 403b 9ff2 0b3b
0.0025944083 0.001648556 0.0029302198 0.002135433

exp_avg f4 [12, 4]
00000000: 1798 9039 5ed2 72ba 27b3 a238 333c 26b9
00000010: d7ac de38 ae4c 5fb8 cd36 ebb6 f33c 9ab8
00000020: 165f 30b7 c812 1038 b98a f7b6 4cb8 8e37
00000030: 52fd d2b8 df32 d438 f771 28b7 c62e 4338
00000040: 6bba 55b9 a9eb d539 ff9b c938 2d85 e0b7
00000050: b8db 3439 ba0b f8b9 881f a6b8 3402 fc38
00000060: c6ee c836 b477 b3b4 1af3 0bb6 adbf fa36
00000070: 12b7 1b38 5cba 24b9 0c9c ebb7 d742 13b7
00000080: 88a6 ac39 dd63 5cba d8fd 3f39 9d42 09ba
00000090: 486d c4ba 5875 773b 680c e3b9 9679 e43a
000000a0: 1efe 623b 9a66 04bc 5d27 1c3a f8c3 57bb
000000b0: 16f9 fbb9 48c0 933a 2aa5 83b8 a32e df39
0.00027579136 -0.00092629145 7.758132e-05 -0.0001585342 0.00010617979 -5.3238757e-05 -7.0099254e-06 -7.354645e-05
-1.0512556e-05 3.4349767e-05 -7.377323e-06 1.7013539e-05 -0.00010060765 0.00010118423 -1.0040115e-05 4.6535184e-05
-0.00020382709 0.00040802106 9.6134834e-05 -2.6764896e-05 0.0001724799 -0.00047310983 -7.92137e-05 0.00012016707
5.9882614e-06 -3.3428444e-07 -2.0854118e-06 7.4728946e-06 3.7125377e-05 -0.00015709683 -2.8086848e-05 -8.777445e-06
0.00032930472 -0.0008407215 0.00018309744 -0.00052360614 -0.0014986182 0.0037759151 -0.00043306057 0.0017431255
0.003463633 -0.008081103 0.00059567933 -0.0032923203 -0.00048060034 0.0011272514 -6.277331e-05 0.00042568622

exp_avg_sq f4 [12, 4]
00000000: d745 2e35 2711 a636 c2a9 2e34 d586 e334
00000010: 35dc 1e35 b36f e335 ec06 5534 de3c 9d34
00000020: 84fa fa30 dfda cb31 5396 8130 86a5 8d30
00000030: 5297 0d34 1c69 0735 47de 1c33 c3d6 a033
00000040: 4cb5 2236 94fe e636 1ab0 cd33 2191 f832
00000050: 0908 8636 8f2f eb36 1ae7 ae32 e0f0 cf33
00000060: d6d9 cf31 cee5 a332 81ba 862f 9e06 6830
00000070: d496 1b34 4b1e ac34 4912 9831 3d6f a632
00000080: 7cfa f836 8b4d 0238 4a22 d536 d651 a436
00000090: 8790 8c37 2dd2 fc38 1931 2536 fb22 a937
000000a0: 3c62 dc38 0795 493a f39a 2337 749b 0139
000000b0: 0437 1736 089f 6737 843b 8035 4bf5 1a36
6.492168e-07 4.9491823e-06 1.626677e-07 4.2380148e-07 5.918003e-07 1.6945327e-06 1.9839689e-07 2.9287816e-07
1.8261095e-09 5.9329603e-09 9.42871e-10 1.0306145e-09 1.3186698e-07 5.0444373e-07 3.652374e-08 7.4896455e-08
2.424541e-06 6.884171e-06 9.578089e-08 2.8936997e-08 3.9944466e-06 7.0090823e-06 2.0361359e-08 9.6830036e-08
6.049258e-09 1.90802e-08 2.4506977e-10 8.441051e-10 1.4490371e-07 3.2059538e-07 4.425861e-09 1.9375529e-08
7.420136e-06 3.1066633e-05 6.3518864e-06 4.897108e-06 1.6756601e-05 0.00012055445 2.4615495e-06 2.0162659e-05
0.00010508715 0.00076897483 9.751634e-06 0.0001236031 2.2532777e-06 1.38057e-05 9.554064e-07 2.3090568e-06

exp_avg f4 [12]
00000000: f0ab 7a39 84fe 0838 c288 d6b6 a190 3bb8
00000010: 91fd ae2e 48ad 1daf 5c7d 55ac 8075 b22d
00000020: f924 2839 acfd 81ba c237 1a3b ae0c b5b9
0.0002390591 3.2661963e-05 -6.3936177e-06 -4.471897e-05 7.9576463e-11 -1.4340629e-10 -3.033871e-12 2.0288438e-11
0.00016035502 -0.0009917519 0.002353177 -0.00034532457

exp_avg_sq f4 [12]
00000000: ace8 f434 4e31 ae34 aded c830 ace7 9233
00000010: c542 7420 f0d0 2120 b730 881c b54c 3b1e
00000020: 031e fa36 3bc6 0a37 55ff 4038 d41d d035
4.5617833e-07 3.24459e-07 1.4619467e-09 6.840796e-08 2.0689696e-19 1.3706362e-19 9.012318e-22 9.91556e-21
7.4540744e-06 8.271595e-06 4.6014164e-05 1.5505889e-06

exp_avg f4 [4, 4]
00000000: 32b3 9dba 3c8b 23ba d72d 463a 9929 89b9
00000010: 0e57 93b9 3c04 da39 b7a4 a1b9 c2e9 e137
00000020: 82d9 46b9 50bf 9f38 1049 7b35 8042 3ab6
00000030: 9e70 963b 0c5b 3eba c73c b4b9 e22b 193a
-0.0012031554 -0.0006238704 0.0007559931 -0.0002616167 -0.00028102886 0.00041583355 -0.00030831035 2.6930942e-05
-0.0001896378 7.6173455e-05 9.3611106e-07 -2.7754868e-06 0.0045910617 -0.0007261492 -0.00034377558 0.0005843026

exp_avg_sq f4 [4, 4]
00000000: 8125 2639 d000 8b38 be3f 2838 dd00 0636
00000010: 9bfa d736 0503 4a38 1602 0538 52cf ba34
00000020: 0897 4b37 1421 e035 0f50 cb35 16e0 4334
00000030: 7ab2 5139 7dd6 f436 9263 5c35 1efe 2336
0.00015844965 6.628188e-05 4.0113686e-05 1.9968058e-06 6.4366736e-06 4.8163365e-05 3.1711614e-05 3.4796045e-07
1.2134908e-05 1.6698928e-06 1.5147979e-06 1.8242312e-07 0.00019998281 7.2967364e-06 8.210128e-07 2.4436808e-06

exp_avg f4 [4]
00000000: 95a4 b6b9 e24c c438 04f7 83b7 fea2 153a
-0.00034836368 9.360329e-05 -1.5731443e-05 0.00057081867

exp_avg_sq f4 [4]
00000000: 273d a136 f50c 0f36 de03 cf34 86ca 2e36
4.805293e-06 2.1316202e-06 3.8559568e-07 2.6045905e-06

exp_avg f4 [4, 4]
00000000: e0a8 c0b6 7a3a f739 271a 21b9 9e10 fcb8
00000010: 0400 0080 0400 0000 0400 0080 0400 0000
00000020: 98ba 8339 22d7 f4ba 7239 1e3a 0cd0 a639
00000030: 0da8 8838 2262 e139 a1e3 12b9 5ef1 1db9
-5.7417055e-06 0.0004715508 -0.00015363899 -0.000120193916 -6e-45 6e-45 -6e-45 6e-45
0.0002512529 -0.0018679837 0.00060357817 0.00031816994 6.516287e-05 0.0004298846 -0.00014008443 -0.00015062603

exp_avg_sq f4 [4, 4]
00000000: 75ce 2233 982c 4a35 7acf bd33 9443 0534
00000010: 1900 0000 1900 0000 1900 0000 1900 0000
00000020: 9a26 1437 987d c938 8357 3c36 a88d 2837
00000030: 44f8 2033 04ba fa35 beea 4634 8bfc 7634
3.7906336e-08 7.5315756e-07 8.838738e-08 1.2411175e-07 3.5e-44 3.5e-44 3.5e-44 3.5e-44
8.830475e-06 9.6078205e-05 2.8065122e-06 1.0046562e-05 3.74787e-08 1.8680589e-06 1.8525586e-07 2.300241e-07

exp_avg f4 [4]
00000000: b2f8 0cb9 0400 0000 84de e439 6e2f 04b9
-0.00013444087 6e-45 0.00043653336 -0.0001260617

exp_avg_sq f4 [4]
00000000: 517a a233 1900 0000 3f79 d036 e501 2434
7.565962e-08 3.5e-44 6.212998e-06 1.527438e-07

exp_avg f4 [4, 4]
00000000: 2b70 cab9 0400 0000 849d 1fba c972 19b9
00000010: 1366 4838 0400 0080 44eb f637 488a 8537
00000020: 1247 cd38 0400 0080 d00d 28b7 8064 1138
00000030: 01a1 2239 0400 0000 7eb3 e638 f398 8738
-0.00038612014 6e-45 -0.00060888403 -0.00014633978 4.777878e-05 -6e-45 2.943504e-05 1.5919228e-05
9.7883996e-05 -6e-45 -1.0016796e-05 3.4664292e-05 0.00015509503 6e-45 0.00011000688 6.465791e-05

exp_avg_sq f4 [4, 4]
00000000: 5112 1835 1900 0000 1d1d 8136 034b 3c34
00000010: f7b3 9132 1900 0000 354e 3634 607c 7131
00000020: 146f c333 1900 0000 49ec 8f34 fc84 3b32
00000030: fdcf 3c34 1900 0000 4db3 8135 0757 7833
5.6651066e-07 3.5e-44 3.847889e-06 1.7536154e-07 1.696206e-08 3.5e-44 1.6978522e-07 3.5140815e-09
9.1006e-08 3.5e-44 2.6807746e-07 1.091507e-08 1.758453e-07 3.5e-44 9.663432e-07 5.782115e-08

exp_avg f4 [4]
00000000: 2666 9eba bbb7 5339 f4d9 e939 b758 2e3a
-0.0012084886 0.00020190973 0.0004460361 0.0006650793

exp_avg_sq f4 [4]
00000000: 344d 1f38 b206 0d38 d21b db36 b072 9c36
3.7980455e-05 3.3623255e-05 6.5299473e-06 4.6625137e-06

exp_avg f4 [4]
00000000: 54bd 37ba 8b59 a139 e5e0 ddb9 74cc cd39
-0.0007009108 0.00030775028 -0.00042319964 0.00039252976

exp_avg_sq f4 [4]
00000000: ffde 0b38 0bf8 8e37 8943 9f36 df6e 2837
3.3347864e-05 1.7043223e-05 4.7464314e-06 1.00393945e-05

exp_avg f4 [4]
00000000: d8de b1ba c0c1 0db7 3560 a0b9 214d c73a
-0.0013570441 -8.449366e-06 -0.00030589258 0.0015205481

exp_avg_sq f4 [4]
00000000: 9418 9f38 fcb4 1338 f5cb 0537 7647 1c38
7.586289e-05 3.5216086e-05 7.974905e-06 3.725985e-05

exp_avg f4 [4]
00000000: 9acc 91ba 0ac1 95ba c54e 81b9 529a 253a
-0.0011123598 -0.0011425328 -0.00024663485 0.0006317246

exp_avg_sq f4 [4]
00000000: 2bb5 8f38 97b6 1a38 fed5 1036 797e 4d38
6.8525165e-05 3.688651e-05 2.1582232e-06 4.8993596e-05

exp_avg f4 [4]
00000000: b445 10bb 8673 5f3a 3002 1638 869d c93a
-0.0022014203 0.0008523989 3.5764824e-05 0.0015382029

exp_avg_sq f4 [4]
00000000: c348 f638 1cef e837 e86a 5437 7fa9 2d38
0.00011743747 2.77679e-05 1.2661076e-05 4.140427e-05

exp_avg f4 [12, 4]
00000000: 9184 2d38 a02a 6f38 3611 33b8 36d4 d9b7
00000010: 7dc6 8138 ead5 6238 4ece 4cb8 375f 1ab8
00000020: 0e87 9938 fe16 9f39 6504 1bb9 b475 43b9
00000030: e2df bf37 1edc 9238 c2e1 23b8 468e 0ab8
00000040: fcb8 52b8 4d4b 8cb6 2c7e a238 6555 a8b7
00000050: fc01 9438 ee52 12b8 fb54 48b7 9731 1eb6
00000060: a55e a239 a202 98b7 94cd 12b9 2c8b 36b8
00000070: af7f d3b8 d376 9037 e656 b138 a295 80b7
00000080: 0841 76b7 93c5 1f3a e4b7 9fb9 50ee ccb9
00000090: 762a 2538 906c 81ba 6b08 213a ed09 373a
000000a0: 6f2c a7b9 461d 5c3a b9dc cfb9 e8a1 15ba
000000b0: a2cb bbb9 480f 5339 c8f8 6438 8c61 d3b8
4.1369876e-05 5.7021738e-05 -4.2692955e-05 -2.5967234e-05 6.188171e-05 5.4081822e-05 -4.8829526e-05 -3.6805137e-05
7.3207644e-05 0.00030343974 -0.00014783589 -0.00018640497 2.2873228e-05 7.0028225e-05 -3.907248e-05 -3.3034266e-05
-5.024018e-05 -4.1810913e-06 7.748263e-05 -2.0066926e-05 7.0575596e-05 -3.4886347e-05 -1.1940715e-05 -2.35727e-06
0.00030969564 -1.8121038e-05 -0.00014000229 -4.3521795e-05 -0.00010085047 1.722147e-05 8.456204e-05 -1.5328467e-05
-1.4677884e-05 0.00060948095 -0.00030463852 -0.0003908747 3.937861e-05 -0.0009874273 0.0006142917 0.0006982375
-0.00031885828 0.0008396696 -0.00039646568 -0.0005708025 -0.00035819138 0.00020128221 5.459113e-05 -0.000100794336

exp_avg_sq f4 [12, 4]
00000000: bc85 9533 809f 4b34 a183 2c33 f62c df32
00000010: 2c29 3c34 464f 0f35 cea2 d933 75ca 8b33
00000020: b4f8 2934 92a0 4b35 a73d 6134 6d6a 6634
00000030: 2413 0a33 5198 e933 0349 e032 ab11 8d32
00000040: e9da 2b34 3f91 fc33 1c9d b733 b114 5a33
00000050: 1ed7 8b34 02c3 1734 42fc 3434 82bb db33
00000060: 1a25 b535 ce66 ec33 7772 6b35 2ae3 2034
00000070: 427a 3134 4635 aa33 6a4b bd33 ac9d 8333
00000080: d24c 4636 5c7c 6237 1dcf 7436 bd4b 2536
00000090: 74e2 6e36 b32d 6c37 960b 8536 0bfa 4a36
000000a0: da4a 2d36 19e0 5837 79c0 4636 6b34 3736
000000b0: 478e 0e36 4ab7 b636 7f63 6835 39b3 aa35
6.962679e-08 1.8963874e-07 4.0166587e-08 2.5981063e-08 1.7523843e-07 5.338701e-07 1.0134464e-07 6.5095186e-08
1.5829829e-07 7.5857054e-07 2.0977187e-07 2.1459137e-07 3.2148037e-08 1.0877614e-07 2.6110234e-08 1.6422595e-08
1.6005255e-07 1.17610846e-07 8.5501796e-08 5.07759e-08 2.6047286e-07 1.4133914e-07 1.6855577e-07 1.023209e-07
1.3496349e-06 1.10083064e-07 8.771089e-07 1.4983803e-07 1.6528887e-07 7.925932e-08 8.814716e-08 6.128843e-08
2.9549014e-06 1.3499604e-05 3.647939e-06 2.4631001e-06 3.5596577e-06 1.4077336e-05 3.9650577e-06 3.024589e-06
2.5822578e-06 1.292678e-05 2.9616333e-06 2.7299636e-06 2.1242465e-06 5.4453603e-06 8.657152e-07 1.2718148e-06

exp_avg f4 [12]
00000000: 48b8 9d36 5883 00b7 2771 b9b8 a8dc 7fb6
00000010: c067 a029 c796 172d 7472 33ad 9b69 1fad
00000020: 31b5 adb9 1151 4c3a e077 3aba 8cac 32b9
4.700418e-06 -7.659975e-06 -8.842564e-05 -3.81264e-06 7.123425e-14 8.6168355e-12 -1.0200386e-11 -9.061553e-12
-0.0003313213 0.0007794062 -0.00071131997 -0.00017039682

exp_avg_sq f4 [12]
00000000: f400 ab33 680b 7434 cfc1 9434 f3a7 4333
00000010: 6101 f71c 6076 f51d feee be1e 1b7b 2b1d
00000020: c6b5 d236 f037 df36 7835 bc36 d769 2636
7.9629814e-08 2.272842e-07 2.7708163e-07 4.5554724e-08 1.6345445e-21 6.4973357e-21 2.0215877e-20 2.2695306e-21
6.279649e-06 6.65243e-06 5.609061e-06 2.4797534e-06

exp_avg f4 [4, 4]
00000000: 947f c7b9 2d55 8739 e013 103a 0415 833a
00000010: 400c 72b9 bb37 7539 8afc 03ba c950 02ba
00000020: 17bd 9139 c416 74b9 61f1 f839 8fc9 f039
00000030: 4636 2039 4197 b3b8 c844 0e39 9cd6 ee38
-0.0003805129 0.00025812667 0.00054961257 0.001000077 -0.00023083482 0.00023385782 -0.00050348847 -0.00049711444
0.00027797438 -0.00023278134 0.00047482087 0.0004592654 0.00015279007 -8.5635584e-05 0.00013567798 0.000113886985

exp_avg_sq f4 [4, 4]
00000000: c483 3736 e274 8135 088a 2136 d5c5 e736
00000010: 3601 f535 9f4d 9735 a7a7 0f36 fe6a 5236
00000020: f369 8d36 59c6 2f36 cfcb 3036 f055 2636
00000030: d264 b335 ee55 1635 34b0 b234 9e9f d635
2.7345823e-06 9.645266e-07 2.4071214e-06 6.907367e-06 1.8254275e-06 1.1272967e-06 2.1406247e-06 3.1354716e-06
4.2144616e-06 2.6192486e-06 2.6344676e-06 2.478595e-06 1.3365882e-06 5.60044e-07 3.3283288e-07 1.5990697e-06

exp_avg f4 [4]
00000000: 6a85 6aba 6b5a 5fb9 e0e4 42b8 16d4 7c38
-0.0008946272 -0.0002130062 -4.646636e-05 6.0279002e-05

exp_avg_sq f4 [4]
00000000: 5d95 6c36 e860 d335 f076 2836 1cb4 de35
3.5253681e-06 1.5748928e-06 2.5103182e-06 1.6592708e-06

exp_avg f4 [4, 4]
00000000: 9c28 66b5 31e8 84b6 e790 e335 a6e3 d835
00000010: 9482 11b7 ac0e f5b8 ef8a 1238 e816 0038
00000020: 2c00 dbb7 d420 96b8 efc3 0336 ae26 21b7
00000030: a416 6db7 204e 6fb5 4b03 0bb7 fee6 8237
-8.574077e-07 -3.960937e-06 1.695499e-06 1.6159509e-06 -8.673076e-06 -0.00011685243 3.4938505e-05 3.053891e-05
-2.6106914e-05 -7.158672e-05 1.963457e-06 -9.605354e-06 -1.4131572e-05 -8.9148125e-07 -8.285812e-06 1.5604772e-05

exp_avg_sq f4 [4, 4]
00000000: ffae 4432 a999 ee32 b2f6 9031 4ae7 4e32
00000010: 8d72 d332 a0a9 9b34 f1f7 ad33 0316 5133
00000020: c493 f333 8873 5e33 bdba 8033 c6ab ab32
00000030: 7681 4a35 ff4f 8f34 17f5 da34 962d 3634
1.1448491e-08 2.7776723e-08 4.2189976e-09 1.2043367e-08 2.4615725e-08 2.8994418e-07 8.1010405e-08 4.8681624e-08
1.1342448e-07 5.1793478e-08 5.994432e-08 1.9985134e-08 7.5439254e-07 2.669403e-07 4.078399e-07 1.6966655e-07

exp_avg f4 [4]
00000000: 78a0 7eb5 e22f ffb6 e806 0138 a4aa 7e36
-9.4855886e-07 -7.6051665e-06 3.076243e-05 3.7948275e-06

exp_avg_sq f4 [4]
00000000: ebf3 9431 845a 4933 2ad3 8933 61b8 df34
4.335097e-09 4.6881283e-08 6.41797e-08 4.167114e-07

exp_avg f4 [4, 4]
00000000: cc78 c437 9611 d4b7 66fb 6037 d46e 8c38
00000010: 6f40 fab5 c4b0 2737 806b 9b33 8b8e 00b8
00000020: 0f76 1e35 7fef bf37 f809 c037 e0b3 7e36
00000030: cdb9 a3b7 0453 9a36 bf4a 15b8 f9c8 1eb8
2.3421271e-05 -2.5280558e-05 1.3409974e-05 6.6963636e-05 -1.8645204e-06 9.995132e-06 7.237304e-08 -3.065033e-05
5.9031385e-07 2.2880498e-05 2.2892826e-05 3.795365e-06 -1.9517634e-05 4.599222e-06 -3.559398e-05 -3.7857306e-05

exp_avg_sq f4 [4, 4]
00000000: 666f 0a34 0c56 8034 117e 0532 f406 af33
00000010: 9cd5 d431 dc00 3233 6eb9 a131 4b12 3033
00000020: 11f8 5632 3c69 7835 59e5 e532 81ba c133
00000030: 0fbd 7d33 0887 9834 c977 6e32 e901 c333
1.2892778e-07 2.3904465e-07 7.770283e-09 8.150337e-08 6.1942966e-09 4.1444636e-08 4.7067976e-09 4.099483e-08
1.2512843e-08 9.2540336e-07 2.6763404e-08 9.021188e-08 5.90781e-08 2.8410454e-07 1.3880659e-08 9.0807426e-08

exp_avg f4 [4]
00000000: a8b3 e7b8 c764 00ba 725c ae39 a14a 8fb9
-0.00011048402 -0.00048978295 0.00033256743 -0.00027330688

exp_avg_sq f4 [4]
00000000: dca8 0936 1b43 da36 d4b4 9c37 fd49 5136
2.051288e-06 6.5047184e-06 1.8680854e-05 3.1186494e-06

exp_avg f4 [4]
00000000: 4783 3438 207f a137 7451 3a39 be55 b639
4.3037606e-05 1.9251893e-05 0.00017768686 0.00034777628

exp_avg_sq f4 [4]
00000000: af12 5135 b708 5036 3430 c636 1b07 8c36
7.7885755e-07 3.0999488e-06 5.9064714e-06 4.1731523e-06

exp_avg f4 [4]
00000000: 329b 68b9 3c55 feb9 3bf3 613a 730e 24b9
-0.00022183059 -0.0004851016 0.0008619313 -0.00015645642

exp_avg_sq f4 [4]
00000000: e058 0536 d31e cf36 34b5 8137 2373 5036
1.9870276e-06 6.172669e-06 1.5462378e-05 3.1061434e-06

exp_avg f4 [4]
00000000: 1814 8538 24e9 ea39 44d1 3fba d14e 7939
6.345677e-05 0.0004480566 -0.0007317255 0.00023775852

exp_avg_sq f4 [4]
00000000: d20c 7938 5d9e 7e37 68dc af37 e56a 7638
5.9378166e-05 1.5176452e-05 2.096426e-05 5.8750524e-05

exp_avg f4 [4]
00000000: a091 7b38 51e6 a4ba aa9c 4e3b ac90 eeb8
5.9978687e-05 -0.0012580847 0.0031526485 -0.000113756716

exp_avg_sq f4 [4]
00000000: 1a2a dd37 d3ed a438 d787 1a39 96ee 5c38
2.6364858e-05 7.8644276e-05 0.00014737189 5.2674288e-05

exp_avg f4 [12, 4]
00000000: 0000 0000 0000 0000 0000 0000 0000 0000
00000010: 0000 0000 0000 0000 0000 0000 0000 0000
00000020: 0000 0000 0000 0000 0000 0000 0000 0000
00000030: 0000 0000 0000 0000 0000 0000 0000 0000
00000040: 0000 0000 0000 0000 0000 0000 0000 0000
00000050: 0000 0000 0000 0000 0000 0000 0000 0000
00000060: 0000 0000 0000 0000 0000 0000 0000 0000
00000070: 0000 0000 0000 0000 0000 0000 0000 0000
00000080: 5dec dd3a 3203 98ba a154 b3bb 3a44 90ba
00000090: d26f 35bb c6c7 bb3a 7862 36bc 576a 173b
000000a0: 5463 aaba 5c04 d939 a44e 9bbc a7c5 1a3a
000000b0: 0ce5 ccb8 3925 7e38 6b11 99b9 18a4 8538
0.0 0.0 0.0 0.0 0.0 0.0 0.0 0.0
0.0 0.0 0.0 0.0 0.0 0.0 0.0 0.0
0.0 0.0 0.0 0.0 0.0 0.0 0.0 0.0
0.0 0.0 0.0 0.0 0.0 0.0 0.0 0.0
0.0016931404 -0.0011597632 -0.005472735 -0.0011006661 -0.0027685058 0.0014326505 -0.011131875 0.0023104155
-0.0012999573 0.00041392713 -0.018958397 0.0005904086 -9.770141e-05 6.0592985e-05 -0.00029195411 6.372499e-05

exp_avg_sq f4 [12, 4]
00000000: 0000 0000 0000 0000 0000 0000 0000 0000
00000010: 0000 0000 0000 0000 0000 0000 0000 0000
00000020: 0000 0000 0000 0000 0000 0000 0000 0000
00000030: 0000 0000 0000 0000 0000 0000 0000 0000
00000040: 0000 0000 0000 0000 0000 0000 0000 0000
00000050: 0000 0000 0000 0000 0000 0000 0000 0000
00000060: 0000 0000 0000 0000 0000 0000 0000 0000
00000070: 0000 0000 0000 0000 0000 0000 0000 0000
00000080: 86cb 8437 1f16 c136 6fa5 633a 7b18 8d37
00000090: ffd4 a638 2853 a837 87e3 393a f62f a638
000000a0: 7923 d037 a180 d036 7089 ca3a 0c77 b037
000000b0: e20c b333 3f45 d432 a164 3836 9dc4 c033
0.0 0.0 0.0 0.0 0.0 0.0 0.0 0.0
0.0 0.0 0.0 0.0 0.0 0.0 0.0 0.0
0.0 0.0 0.0 0.0 0.0 0.0 0.0 0.0
0.0 0.0 0.0 0.0 0.0 0.0 0.0 0.0
1.58304e-05 5.7544235e-06 0.00086840143 1.681991e-05 7.9551704e-05 2.0065883e-05 0.0007091094 7.92443e-05
2.481205e-05 6.2138574e-06 0.0015452337 2.103627e-05 8.3376804e-08 2.4711538e-08 2.747671e-06 8.9764605e-08

exp_avg f4 [12]
00000000: 0000 0000 0000 0000 0000 0000 0000 0000
00000010: 0000 0000 0000 0000 0000 0000 0000 0000
00000020: bd82 8d3a 2389 c83b c403 373c 7d59 e338
0.0 0.0 0.0 0.0 0.0 0.0 0.0 0.0
0.0010796409 0.0061198636 0.011170331 0.00010840872

exp_avg_sq f4 [12]
00000000: 0000 0000 0000 0000 0000 0000 0000 0000
00000010: 0000 0000 0000 0000 0000 0000 0000 0000
00000020: 4ee2 6539 00ea ca39 f973 b539 1a33 6b35
0.0 0.0 0.0 0.0 0.0 0.0 0.0 0.0
0.00021923447 0.00038702786 0.00034609417 8.7618685e-07

exp_avg f4 [4, 4]
00000000: 9daa f4ba 88cb 3d37 5cea c9ba 6b03 8aba
00000010: d410 e1ba 9fe1 213b a249 82bb 83f3 00ba
00000020: e14c 513a e3d1 f3bb 6c2f f53a d971 183a
00000030: 381c 7a3b 2fda e03b 7821 c73b a163 273a
-0.0018666569 1.1312666e-05 -0.0015404928 -0.0010529583 -0.0017171153 0.002470113 -0.003976063 -0.00049190986
0.0007984173 -0.007440792 0.001870615 0.00058153045 0.0038163792 0.006861947 0.006076988 0.00063853903

exp_avg_sq f4 [4, 4]
00000000: 3ebb 6e38 d40d 1d39 de0a a939 d4d9 ff35
00000010: 494d ae37 67e4 a838 d61c 1439 1577 0135
00000020: 5aa2 a639 e7dc 1a3a 03c3 9b3a 7e6f d935
00000030: bf77 ca39 cd14 3b3a 78ab e83a e710 c135
5.6918005e-05 0.00014977838 0.0003224229 1.9062377e-06 2.0778405e-05 8.0534075e-05 0.00014125122 4.822953e-07
0.0003178295 0.0005907551 0.001188368 1.6200208e-06 0.0003861766 0.00071365834 0.0017751297 1.438454e-06

exp_avg f4 [4]
00000000: 8a59 093d 1c00 913c df0c a7bc 96ac 3dbc
0.033532657 0.017700247 -0.02039188 -0.011576792

exp_avg_sq f4 [4]
00000000: 908e b93b 02b5 8d3a 6690 923b 2149 bb3b
0.0056627467 0.0010811391 0.00447278 0.0057155048

exp_avg f4 [12, 4]
00000000: 0000 0000 0000 0000 0000 0000 0000 0000
00000010: 0000 0000 0000 0000 0000 0000 0000 0000
00000020: 0000 0000 0000 0000 0000 0000 0000 0000
00000030: 0000 0000 0000 0000 0000 0000 0000 0000
00000040: 0000 0000 0000 0000 0000 0000 0000 0000
00000050: 0000 0000 0000 0000 0000 0000 0000 0000
00000060: 0000 0000 0000 0000 0000 0000 0000 0000
00000070: 0000 0000 0000 0000 0000 0000 0000 0000
00000080: 5488 0339 a61e 8e3a a61b 6bba 2f83 99ba
00000090: fdac 1eb7 d6c7 3ab9 3f02 1c39 c900 c938
000000a0: 9639 2437 d800 84b7 5157 a5b7 fa02 f2b7
000000b0: 78bd a6b7 709d eab9 a772 b339 fe5d 9039
0.0 0.0 0.0 0.0 0.0 0.0 0.0 0.0
0.0 0.0 0.0 0.0 0.0 0.0 0.0 0.0
0.0 0.0 0.0 0.0 0.0 0.0 0.0 0.0
0.0 0.0 0.0 0.0 0.0 0.0 0.0 0.0
0.0001254392 0.0010842874 -0.00089686585 -0.0011712069 -9.457811e-06 -0.00017812787 0.00014878156 9.584573e-05
9.7885695e-06 -1.573602e-05 -1.9710193e-05 -2.8850034e-05 -1.987697e-05 -0.00044749258 0.00034226963 0.0002753585

exp_avg_sq f4 [12, 4]
00000000: 0000 0000 0000 0000 0000 0000 0000 0000
00000010: 0000 0000 0000 0000 0000 0000 0000 0000
00000020: 0000 0000 0000 0000 0000 0000 0000 0000
00000030: 0000 0000 0000 0000 0000 0000 0000 0000
00000040: 0000 0000 0000 0000 0000 0000 0000 0000
00000050: 0000 0000 0000 0000 0000 0000 0000 0000
00000060: 0000 0000 0000 0000 0000 0000 0000 0000
00000070: 0000 0000 0000 0000 0000 0000 0000 0000
00000080: 947e c535 f78f 1538 483a 4a37 1681 5037
00000090: 0233 3133 b89c 8e34 7134 6534 be95 ba33
000000a0: 57ab ce32 a42e 5b34 29c4 0834 03a7 3e33
000000b0: f827 3434 f73b b935 2cf0 7135 1342 0e35
0.0 0.0 0.0 0.0 0.0 0.0 0.0 0.0
0.0 0.0 0.0 0.0 0.0 0.0 0.0 0.0
0.0 0.0 0.0 0.0 0.0 0.0 0.0 0.0
0.0 0.0 0.0 0.0 0.0 0.0 0.0 0.0
1.4714483e-06 3.5658446e-05 1.2053708e-05 1.2427821e-05 4.1257415e-08 2.656359e-07 2.1346365e-07 8.688538e-08
2.4059473e-08 2.0412932e-07 1.273735e-07 4.438972e-08 1.6778347e-07 1.3801026e-06 9.012899e-07 5.2995273e-07

exp_avg f4 [12]
00000000: 0000 0000 0000 0000 0000 0000 0000 0000
00000010: 0000 0000 0000 0000 0000 0000 0000 0000
00000020: 540a 2b3b c947 feb8 706e 2d39 ef83 c3b9
0.0 0.0 0.0 0.0 0.0 0.0 0.0 0.0
0.0026098685 -0.00012125035 0.00016539707 -0.00037291597

exp_avg_sq f4 [12]
00000000: 0000 0000 0000 0000 0000 0000 0000 0000
00000010: 0000 0000 0000 0000 0000 0000 0000 0000
00000020: 9849 a638 c8d1 8035 eca7 1435 a9f6 8d36
0.0 0.0 0.0 0.0 0.0 0.0 0.0 0.0
7.929205e-05 9.597798e-07 5.5378655e-07 4.2308425e-06

exp_avg f4 [4, 4]
00000000: 88f6 21bb a4f7 2f39 f06a 8bb7 2f34 e6b9
00000010: 08a9 18ba 051c 2b38 90e4 8337 ac8a 33b9
00000020: 0b32 2e3b 1b47 0fb9 54c5 27b7 897a 0a3a
00000030: 2074 a0b9 0097 62b7 e88b 48b7 f4a2 1339
-0.0024713594 0.00016781554 -1.6619888e-05 -0.00043907898 -0.00058235275 4.0795672e-05 1.572285e-05 -0.0001712243
0.002658012 -0.00013664032 -9.99992e-06 0.00052825414 -0.00030604098 -1.3505807e-05 -1.1953503e-05 0.00014079717

exp_avg_sq f4 [4, 4]
00000000: 8426 8738 b955 0935 2762 a334 cb95 c936
00000010: 8f1b 8e36 6f6b 4c33 09c8 1c32 0559 bb34
00000020: 327c 8338 e8a7 d835 91dc 4434 97ac c236
00000030: 4972 5c38 2707 4a35 255c 4d34 d6fe 9936
6.444476e-05 5.116122e-07 3.043253e-07 6.007705e-06 4.235138e-06 4.759516e-08 9.125878e-09 3.4896235e-07
6.2697e-05 1.6142121e-06 1.8334164e-07 5.8017426e-06 5.2558524e-05 7.526127e-07 1.9125635e-07 4.589422e-06

exp_avg f4 [4]
00000000: 7011 923b 94a1 9d3b caa7 49bc 0cc0 65bb
0.004457645 0.0048105214 -0.01230807 -0.0035057096

exp_avg_sq f4 [4]
00000000: 43bb 9d3a 68dd 4739 bca9 953a 8996 293a
0.0012033958 0.00019060599 0.0011418383 0.000646927

exp_avg f4 [4, 4]
00000000: 7048 f53b a31b aa3a aeae a538 ad31 6abb
00000010: 0400 0000 0400 0080 0400 0080 0400 0000
00000020: 943e 7cbb 3418 d7b9 4d32 8a3b c118 97ba
00000030: 0400 0000 0400 0080 0400 0000 0400 0000
0.007485442 0.0012978207 7.90035e-05 -0.0035735175 6e-45 -6e-45 -6e-45 6e-45
-0.0038489448 -0.00041026028 0.004217422 -0.0011527763 6e-45 -6e-45 6e-45 6e-45

exp_avg_sq f4 [4, 4]
00000000: ed60 8a39 7c38 e036 c1e9 4138 a04a cf38
00000010: 1900 0000 1900 0000 1900 0000 1900 0000
00000020: dd05 4b39 ff0a 9b35 e170 e438 896b 5437
00000030: 1900 0000 1900 0000 1900 0000 1900 0000
0.00026393626 6.682296e-06 4.6232486e-05 9.884429e-05 3.5e-44 3.5e-44 3.5e-44 3.5e-44
0.00019361773 1.15516e-06 0.000108929125 1.2661222e-05 3.5e-44 3.5e-44 3.5e-44 3.5e-44

exp_avg f4 [4]
00000000: 4c83 5abb 0400 0000 d727 8c3a 0400 0000
-0.003334242 6e-45 0.0010693026 6e-45

exp_avg_sq f4 [4]
00000000: 6c27 4f38 1900 0000 75f3 2737 1900 0000
4.938936e-05 3.5e-44 1.001066e-05 3.5e-44

exp_avg f4 [4, 4]
00000000: 2630 043a 0400 0000 7fef 453a 0400 0080
00000010: 3d59 a5b9 0400 0000 21e8 29b9 0400 0080
00000020: 0066 70ba 0400 0080 1573 2b38 0400 0000
00000030: 966b 2a3a 0400 0080 3f50 38ba 0400 0000
0.0005042575 6e-45 0.00075506413 -6e-45 -0.0003153774 6e-45 -0.0001620357 -6e-45
-0.00091704726 -6e-45 4.0876756e-05 6e-45 0.0006501017 -6e-45 -0.00070310006 6e-45

exp_avg_sq f4 [4, 4]
00000000: 3562 cb35 1900 0000 3fce 2d36 1900 0000
00000010: 5088 3135 1900 0000 1ebe 5f34 1900 0000
00000020: a647 2d37 1900 0000 b3ce 5635 1900 0000
00000030: 3e6e 3f37 1900 0000 5114 0f37 1900 0000
1.5153261e-06 3.5e-44 2.589906e-06 3.5e-44 6.6136e-07 3.5e-44 2.0837658e-07 3.5e-44
1.03282855e-05 3.5e-44 8.0022e-07 3.5e-44 1.1410155e-05 3.5e-44 8.5281945e-06 3.5e-44

exp_avg f4 [4]
00000000: d80b d53a 37ad 32bb 6a41 47bc 2a44 a83b
0.001625414 -0.0027263889 -0.012161592 0.005135079

exp_avg_sq f4 [4]
00000000: 6375 f739 917a 2b38 e391 283a 12a7 643a
0.0004719897 4.0883726e-05 0.000643043 0.0008722405

exp_avg f4 [4]
00000000: 2cc1 453b ac71 dcbb 78c3 483c 30a7 d13a
0.0030174954 -0.006727418 0.012253635 0.001599526

exp_avg_sq f4 [4]
00000000: fd12 513a d38c 2d39 94ab 7c3a 4199 e539
0.0007975547 0.00016551027 0.0009638604 0.00043792467

exp_avg f4 [4]
00000000: 4a30 ee3b dad2 b83b 3b43 47bc 70e5 43ba
0.00726894 0.00564037 -0.012162025 -0.00074728485

exp_avg_sq f4 [4]
00000000: f4b1 823a a5b7 1639 d612 673a dddf 153a
0.0009971247 0.00014373528 0.00088147575 0.0005717257

exp_avg f4 [4]
00000000: c63d 98ba 953a a9bb 0007 bc3b b2f8 863b
-0.001161509 -0.005164454 0.005738139 0.0041190023

exp_avg_sq f4 [4]
00000000: aece 2139 9344 ff38 2032 cf39 5ca0 963a
0.0001543115 0.000121721205 0.00039519463 0.0011491883

exp_avg f4 [4]
00000000: d49b d53a 9224 c13b d2b1 42bc 3e64 bf3a
0.0016297051 0.005894252 -0.011883216 0.0014602018

exp_avg_sq f4 [4]
00000000: 5371 d939 c16f 8039 3115 313a 93d0 4f3a
0.00041473898 0.00024497326 0.0006755172 0.00079275033

exp_avg f4 [4]
00000000: e8b3 50bb 2265 47b9 506c 17ba ca52 973b
-0.0031845514 -0.00019015794 -0.00057763327 0.0046180235

exp_avg_sq f4 [4]
00000000: be8f a739 d763 c034 eac6 a038 2ba0 0d39
0.00031959818 3.583543e-07 7.666445e-05 0.00013506475

exp_avg f4 [4]
00000000: aa9a 333b f3ed dbba 4841 b7bb 4c96 9b3b
0.002740542 -0.0016779288 -0.005592499 0.0047481414

exp_avg_sq f4 [4]
00000000: 128a 6339 2211 4637 f90a 3139 f3e5 dc39
0.00021699842 1.1805709e-05 0.00016884123 0.00042132995

exp_avg f4 [12, 4]
00000000: 0000 0000 0000 0000 0000 0000 0000 0000
00000010: 0000 0000 0000 0000 0000 0000 0000 0000
00000020: 0000 0000 0000 0000 0000 0000 0000 0000
00000030: 0000 0000 0000 0000 0000 0000 0000 0000
00000040: 0000 0000 0000 0000 0000 0000 0000 0000
00000050: 0000 0000 0000 0000 0000 0000 0000 0000
00000060: 0000 0000 0000 0000 0000 0000 0000 0000
00000070: 0000 0000 0000 0000 0000 0000 0000 0000
00000080: 4fce 063a 7194 3fb8 b292 15b9 b4f3 66b9
00000090: 4050 58b6 12e9 6a38 9625 46b9 c019 0b39
000000a0: 3644 34b9 d426 1b38 ea40 5ab8 b15e 2c39
000000b0: fab4 90b8 a4cc c737 ede1 6cb8 4d69 c738
0.0 0.0 0.0 0.0 0.0 0.0 0.0 0.0
0.0 0.0 0.0 0.0 0.0 0.0 0.0 0.0
0.0 0.0 0.0 0.0 0.0 0.0 0.0 0.0
0.0 0.0 0.0 0.0 0.0 0.0 0.0 0.0
0.0005142437 -4.5676195e-05 -0.00014264396 -0.00022025296 -3.223322e-06 5.600701e-05 -0.00018896753 0.00013265666
-0.00017191548 3.699104e-05 -5.2035706e-05 0.00016438474 -6.9001646e-05 2.3817942e-05 -5.6477194e-05 9.508673e-05

exp_avg_sq f4 [12, 4]
00000000: 0000 0000 0000 0000 0000 0000 0000 0000
00000010: 0000 0000 0000 0000 0000 0000 0000 0000
00000020: 0000 0000 0000 0000 0000 0000 0000 0000
00000030: 0000 0000 0000 0000 0000 0000 0000 0000
00000040: 0000 0000 0000 0000 0000 0000 0000 0000
00000050: 0000 0000 0000 0000 0000 0000 0000 0000
00000060: 0000 0000 0000 0000 0000 0000 0000 0000
00000070: 0000 0000 0000 0000 0000 0000 0000 0000
00000080: 3c02 9b36 cc9b 8e32 7359 6536 da2f 7235
00000090: 5271 d536 4e1e 6533 28c9 da36 b083 2436
000000a0: 0cdc 7435 39d2 0032 a738 5a35 00d1 b734
000000b0: a04f 3c35 dcb0 9231 7a01 1635 f9b0 4534
0.0 0.0 0.0 0.0 0.0 0.0 0.0 0.0
0.0 0.0 0.0 0.0 0.0 0.0 0.0 0.0
0.0 0.0 0.0 0.0 0.0 0.0 0.0 0.0
0.0 0.0 0.0 0.0 0.0 0.0 0.0 0.0
4.61962e-06 1.6601824e-08 3.4175725e-06 9.022166e-07 6.361087e-06 5.334578e-08 6.520324e-06 2.4514557e-06
9.1217294e-07 7.49838e-09 8.129377e-07 3.4238474e-07 7.015133e-07 4.269266e-09 5.5881503e-07 1.8411437e-07

exp_avg f4 [12]
00000000: 0000 0000 0000 0000 0000 0000 0000 0000
00000010: 0000 0000 0000 0000 0000 0000 0000 0000
00000020: 47be 35b9 a80e 6eb7 a61d 7938 eb19 be37
0.0 0.0 0.0 0.0 0.0 0.0 0.0 0.0
-0.00017332389 -1.4189318e-05 5.939384e-05 2.2661834e-05

exp_avg_sq f4 [12]
00000000: 0000 0000 0000 0000 0000 0000 0000 0000
00000010: 0000 0000 0000 0000 0000 0000 0000 0000
00000020: 76b2 1135 a6f3 6d35 d318 0134 55ce b833
0.0 0.0 0.0 0.0 0.0 0.0 0.0 0.0
5.4276404e-07 8.8643935e-07 1.2023092e-07 8.605699e-08

exp_avg f4 [4, 4]
00000000: 7486 e436 fed5 03b8 3831 aeb8 00b7 16b8
00000010: 9cc4 8538 6223 2c39 28c8 f638 b0aa 5c38
00000020: 0a9c 6639 08d8 9439 3531 8039 0782 ae38
00000030: 92f4 22b9 a00a 5cb9 dc5b 0db9 1892 66b8
6.810582e-06 -3.143213e-05 -8.306134e-05 -3.593322e-05 6.3785556e-05 0.0001641638 0.00011767476 5.2611053e-05
0.00021992638 0.00028389716 0.00024450725 8.321186e-05 -0.00015540633 -0.00020984793 -0.00013481028 -5.4972334e-05

exp_avg_sq f4 [4, 4]
00000000: e9d3 2635 6143 3f36 992d 3e35 a620 1c35
00000010: 7707 4233 302d 2034 167c 6e33 ac81 b532
00000020: 8c27 0f35 2c10 6b35 0546 cb34 3d7e 5b34
00000030: d21a fe35 74e2 cc36 02a8 0a36 cd0a 8835
6.214819e-07 2.8500438e-06 7.084687e-07 5.816204e-07 4.5175934e-08 1.49176e-07 5.552655e-08 2.1130141e-08
5.33292e-07 8.7567855e-07 3.7862642e-07 2.044189e-07 1.893228e-06 6.1060364e-06 2.0661396e-06 1.0135933e-06

exp_avg f4 [4]
00000000: e721 3b3b c2f7 f4ba 8a9d e7bb 77e3 9b3b
0.0028554143 -0.001868956 -0.0070683407 0.0047573405

exp_avg_sq f4 [4]
00000000: 2bc5 7839 9691 7637 3524 6d39 a5fd 0c3a
0.00023724574 1.46966395e-05 0.0002261557 0.0005378372

exp_avg f4 [12, 4]
00000000: 0000 0000 0000 0000 0000 0000 0000 0000
00000010: 0000 0000 0000 0000 0000 0000 0000 0000
00000020: 0000 0000 0000 0000 0000 0000 0000 0000
00000030: 0000 0000 0000 0000 0000 0000 0000 0000
00000040: 0000 0000 0000 0000 0000 0000 0000 0000
00000050: 0000 0000 0000 0000 0000 0000 0000 0000
00000060: 0000 0000 0000 0000 0000 0000 0000 0000
00000070: 0000 0000 0000 0000 0000 0000 0000 0000
00000080: 203d 3cb9 2293 fbb9 7278 2a3a 40e9 4038
00000090: 0e12 26b9 f07b 8939 08c8 3fb9 3c84 2db9
000000a0: ac51 2ab9 92ab 613a c44e 16b9 5030 8439
000000b0: 1255 5836 5ecb 37b6 d0ab f8b6 79f4 47b6
0.0 0.0 0.0 0.0 0.0 0.0 0.0 0.0
0.0 0.0 0.0 0.0 0.0 0.0 0.0 0.0
0.0 0.0 0.0 0.0 0.0 0.0 0.0 0.0
0.0 0.0 0.0 0.0 0.0 0.0 0.0 0.0
-0.00017951848 -0.00047984073 0.0006502933 4.5993598e-05 -0.0001583772 0.00026223017 -0.00018289697 -0.00016547827
-0.00016242889 0.0008608635 -0.00014334457 0.00025212998 3.2236026e-06 -2.73875e-06 -7.4109776e-06 -2.9795613e-06

exp_avg_sq f4 [12, 4]
00000000: 0000 0000 0000 0000 0000 0000 0000 0000
00000010: 0000 0000 0000 0000 0000 0000 0000 0000
00000020: 0000 0000 0000 0000 0000 0000 0000 0000
00000030: 0000 0000 0000 0000 0000 0000 0000 0000
00000040: 0000 0000 0000 0000 0000 0000 0000 0000
00000050: 0000 0000 0000 0000 0000 0000 0000 0000
00000060: 0000 0000 0000 0000 0000 0000 0000 0000
00000070: 0000 0000 0000 0000 0000 0000 0000 0000
00000080: 5fa9 0536 dc2c eb37 3cb6 ad37 1bad a536
00000090: 7625 9436 1765 3538 b4b0 0c38 cc08 af36
000000a0: f0f2 1136 a5b5 c837 cce2 a737 73dc f736
000000b0: 1c4b ca31 295c f932 9dc3 c332 6dbf 0b32
0.0 0.0 0.0 0.0 0.0 0.0 0.0 0.0
0.0 0.0 0.0 0.0 0.0 0.0 0.0 0.0
0.0 0.0 0.0 0.0 0.0 0.0 0.0 0.0
0.0 0.0 0.0 0.0 0.0 0.0 0.0 0.0
1.9917131e-06 2.8035072e-05 2.0708067e-05 4.9375353e-06 4.4151047e-06 4.324791e-05 3.354317e-05 5.2164305e-06
2.1748092e-06 2.3926443e-05 2.0013562e-05 7.3868373e-06 5.8875127e-09 2.9029325e-08 2.2789942e-08 8.13439e-09
